…
    slice_point: 24
    slice_point: 26
    slice_point: 28
    slice_point: 30
    slice_point: 32
    slice_point: 34
    slice_point: 36
    slice_point: 38
    slice_point: 40
    slice_point: 42
    slice_point: 44
    slice_point: 46
    slice_point: 48
    slice_point: 50
    slice_point: 52
    slice_point: 54
    slice_point: 56
    slice_point: 58
    slice_point: 60
    slice_point: 62
    slice_point: 64
    slice_point: 66
    slice_point: 68
    slice_point: 70
    slice_point: 72
    slice_point: 74
    slice_point: 76
    slice_point: 78
  }
}
layer {
  name: "conv1_bn"
  type: "BatchNorm"
  bottom: "conv1"
  top: "conv1"
  batch_norm_param {
    use_global_stats: false
  }
}
layer {
  name: "conv1_scale"
  type: "Scale"
  bottom: "conv1"
  top: "conv1"
  scale_param {
    bias_term: true
  }
}
layer {
  name: "prelu1"
  type: "PReLU"
  bottom: "conv1"
  top: "conv1"
}
layer {
  name: "pool1"
  type: "Pooling"
  bottom: "conv1"
  top: "pool1"
  pooling_param {
    pool: MAX
    kernel_size: 2
    stride: 2
  }
}
layer {
  name: "conv2a"
  type: "Convolution"
  bottom: "pool1"
  top: "conv2a"
  param {
    name: "conv2a_w"
    lr_mult: 1
    decay_mult: 1
  }
  param {
    name: "conv2a_b"
    lr_mult: 2
    decay_mult: 0
  }
  convolution_param {
    num_output: 64
    kernel_size: 1
    weight_filler {
      type: "xavier"
    }
    bias_filler {
      type: "constant"
      value: 0.2
    }
  }
}
layer {
  name: "conv2a_bn"
  type: "BatchNorm"
  bottom: "conv2a"
  top: "conv2a"
  batch_norm_param {
    use_global_stats: false
  }
}
layer {
  name: "conv2a_scale"
  type: "Scale"
  bottom: "conv2a"
  top: "conv2a"
  scale_param {
    bias_term: true
  }
}
layer {
  name: "prelu2a"
  type: "PReLU"
  bottom: "conv2a"
  top: "conv2a"
}
layer {
  name: "conv2"
  type: "Convolution"
  bottom: "conv2a"
  top: "conv2"
  param {
    name: "conv2_w"
    lr_mult: 1
    decay_mult: 1
  }
  param {
    name: "conv2_b"
    lr_mult: 2
    decay_mult: 0
  }
  convolution_param {
    num_output: 192
    pad: 1
    kernel_size: 3
    stride: 1
    weight_filler {
      type: "xavier"
    }
    bias_filler {
      type: "constant"
      value: 0.2
    }
  }
}
layer {
  name: "conv2_bn"
  type: "BatchNorm"
  bottom: "conv2"
  top: "conv2"
  batch_norm_param {
    use_global_stats: false
  }
}
layer {
  name: "conv2_scale"
  type: "Scale"
  bottom: "conv2"
  top: "conv2"
  scale_param {
    bias_term: true
  }
}
layer {
  name: "prelu2"
  type: "PReLU"
  bottom: "conv2"
  top: "conv2"
}
layer {
  name: "pool2"
  type: "Pooling"
  bottom: "conv2"
  top: "pool2"
  pooling_param {
    pool: MAX
    kernel_size: 2
    stride: 2
  }
}
layer {
  name: "conv3a"
  type: "Convolution"
  bottom: "pool2"
  top: "conv3a"
  param {
    name: "conv3a_w"
    lr_mult: 1
    decay_mult: 1
  }
  param {
    name: "conv3a_b"
    lr_mult: 2
    decay_mult: 0
  }
  convolution_param {
    num_output: 192
    kernel_size: 1
    weight_filler {
      type: "xavier"
    }
    bias_filler {
      type: "constant"
      value: 0.2
    }
  }
}
layer {
  name: "conv3a_bn"
  type: "BatchNorm"
  bottom: "conv3a"
  top: "conv3a"
  batch_norm_param {
    use_global_stats: false
  }
}
layer {
  name: "conv3a_scale"
  type: "Scale"
  bottom: "conv3a"
  top: "conv3a"
  scale_param {
    bias_term: true
  }
}
layer {
  name: "prelu3a"
  type: "PReLU"
  bottom: "conv3a"
  top: "conv3a"
}
layer {
  name: "conv3"
  type: "Convolution"
  bottom: "conv3a"
  top: "conv3"
  param {
    name: "conv3_w"
    lr_mult: 1
    decay_mult: 1
  }
  param {
    name: "conv3_b"
    lr_mult: 2
    decay_mult: 0
  }
  convolution_param {
    num_output: 384
    pad: 1
    kernel_size: 3
    stride: 1
    weight_filler {
      type: "xavier"
    }
    bias_filler {
      type: "constant"
      value: 0.2
    }
  }
}
layer {
  name: "conv3_bn"
  type: "BatchNorm"
  bottom: "conv3"
  top: "conv3"
  batch_norm_param {
    use_global_stats: false
  }
}
layer {
  name: "conv3_scale"
  type: "Scale"
  bottom: "conv3"
  top: "conv3"
  scale_param {
    bias_term: true
  }
}
layer {
  name: "prelu3"
  type: "PReLU"
  bottom: "conv3"
  top: "conv3"
}
layer {
  name: "pool3"
  type: "Pooling"
  bottom: "conv3"
  top: "pool3"
  pooling_param {
    pool: MAX
    kernel_size: 2
    stride: 2
  }
}
layer {
  name: "conv3_gender"
  type: "Convolution"
  bottom: "pool3"
  top: "conv3_gender"
  param {
    lr_mult: 1
    decay_mult: 1
  }
  param {
    lr_mult: 2
    decay_mult: 0
  }
  convolution_param {
    num_output: 300
    pad: 1
    kernel_size: 3
    stride: 2
    weight_filler {
      type: "xavier"
    }
    bias_filler {
      type: "constant"
      value: 0.2
    }
  }
}
layer {
  name: "conv3_gender_bn"
  type: "BatchNorm"
  bottom: "conv3_gender"
  top: "conv3_gender"
  batch_norm_param {
    use_global_stats: false
  }
}
layer {
  name: "conv3_gender_scale"
  type: "Scale"
  bottom: "conv3_gender"
  top: "conv3_gender"
  scale_param {
    bias_term: true
  }
}
layer {
  name: "prelu3_gender"
  type: "PReLU"
  bottom: "conv3_gender"
  top: "conv3_gender"
}
layer {
  name: "pool3_gender"
  type: "Pooling"
  bottom: "conv3_gender"
  top: "pool3_gender"
  pooling_param {
    pool: MAX
    kernel_size: 5
    stride: 2
    pad: 2
  }
}
layer {
  name: "fc1_gender"
  type: "InnerProduct"
  bottom: "pool3_gender"
  top: "fc1_gender"
  param {
    lr_mult: 1
    decay_mult: 1
  }
  param {
    lr_mult: 2
    decay_mult: 0
  }
  inner_product_param {
    num_output: 512
    weight_filler {
      type: "xavier"
    }
    bias_filler {
      type: "constant"
      value: 0.2
    }
  }
}
layer {
  name: "relu1_gender"
  type: "ReLU"
  bottom: "fc1_gender"
  top: "fc1_gender"
}
layer {
  name: "drop1_gender"
  type: "Dropout"
  bottom: "fc1_gender"
  top: "fc1_gender"
  dropout_param {
    dropout_ratio: 0.5
  }
}
layer {
  name: "fc2_gender"
  type: "InnerProduct"
  bottom: "fc1_gender"
  top: "fc2_gender"
  param {
    lr_mult: 1
    decay_mult: 1
  }
  param {
    lr_mult: 2
    decay_mult: 0
  }
  inner_product_param {
    num_output: 512
    weight_filler {
      type: "xavier"
    }
    bias_filler {
      type: "constant"
      value: 0.2
    }
  }
}
layer {
  name: "relu2_gender"
  type: "ReLU"
  bottom: "fc2_gender"
  top: "fc2_gender"
}
layer {
  name: "drop2_gender"
  type: "Dropout"
  bottom: "fc2_gender"
  top: "fc2_gender"
  dropout_param {
    dropout_ratio: 0.5
  }
}
layer {
  name: "conv3_nose"
  type: "Convolution"
  bottom: "pool3"
  top: "conv3_nose"
  param {
    lr_mult: 1
    decay_mult: 1
  }
  param {
    lr_mult: 2
    decay_mult: 0
  }
  convolution_param {
    num_output: 300
    pad: 1
    kernel_size: 3
    stride: 2
    weight_filler {
      type: "xavier"
    }
    bias_filler {
      type: "constant"
      value: 0.2
    }
  }
}
layer {
  name: "conv3_nose_bn"
  type: "BatchNorm"
  bottom: "conv3_nose"
  top: "conv3_nose"
  batch_norm_param {
    use_global_stats: false
  }
}
layer {
  name: "conv3_nose_scale"
  type: "Scale"
  bottom: "conv3_nose"
  top: "conv3_nose"
  scale_param {
    bias_term: true
  }
}
layer {
  name: "prelu3_nose"
  type: "PReLU"
  bottom: "conv3_nose"
  top: "conv3_nose"
}
layer {
  name: "pool3_nose"
  type: "Pooling"
  bottom: "conv3_nose"
  top: "pool3_nose"
  pooling_param {
    pool: MAX
    kernel_size: 5
    stride: 2
    pad: 2
  }
}
layer {
  name: "fc1_nose"
  type: "InnerProduct"
  bottom: "pool3_nose"
  top: "fc1_nose"
  param {
    lr_mult: 1
    decay_mult: 1
  }
  param {
    lr_mult: 2
    decay_mult: 0
  }
  inner_product_param {
    num_output: 512
    weight_filler {
      type: "xavier"
    }
    bias_filler {
      type: "constant"
      value: 0.2
    }
  }
}
layer {
  name: "relu1_nose"
  type: "ReLU"
  bottom: "fc1_nose"
  top: "fc1_nose"
}
layer {
  name: "drop1_nose"
  type: "Dropout"
  bottom: "fc1_nose"
  top: "fc1_nose"
  dropout_param {
    dropout_ratio: 0.5
  }
}
layer {
  name: "fc2_nose"
  type: "InnerProduct"
  bottom: "fc1_nose"
  top: "fc2_nose"
  param {
    lr_mult: 1
    decay_mult: 1
  }
  param {
    lr_mult: 2
    decay_mult: 0
  }
  inner_product_param {
    num_output: 512
    weight_filler {
      type: "xavier"
    }
    bias_filler {
      type: "constant"
      value: 0.2
    }
  }
}
layer {
  name: "relu2_nose"
  type: "ReLU"
  bottom: "fc2_nose"
  top: "fc2_nose"
}
layer {
  name: "drop2_nose"
  type: "Dropout"
  bottom: "fc2_nose"
  top: "fc2_nose"
  dropout_param {
    dropout_ratio: 0.5
  }
}
layer {
  name: "conv3_mouth"
  type: "Convolution"
  bottom: "pool3"
  top: "conv3_mouth"
  param {
    lr_mult: 1
    decay_mult: 1
  }
  param {
    lr_mult: 2
    decay_mult: 0
  }
  convolution_param {
    num_output: 300
    pad: 1
    kernel_size: 3
    stride: 2
    weight_filler {
      type: "xavier"
    }
    bias_filler {
      type: "constant"
      value: 0.2
    }
  }
}
layer {
  name: "conv3_mouth_bn"
  type: "BatchNorm"
  bottom: "conv3_mouth"
  top: "conv3_mouth"
  batch_norm_param {
    use_global_stats: false
  }
}
layer {
  name: "conv3_mouth_scale"
  type: "Scale"
  bottom: "conv3_mouth"
  top: "conv3_mouth"
  scale_param {
    bias_term: true
  }
}
layer {
  name: "prelu3_mouth"
  type: "PReLU"
  bottom: "conv3_mouth"
  top: "conv3_mouth"
}
layer {
  name: "pool3_mouth"
  type: "Pooling"
  bottom: "conv3_mouth"
  top: "pool3_mouth"
  pooling_param {
    pool: MAX
    kernel_size: 5
    stride: 2
    pad: 2
  }
}
layer {
  name: "fc1_mouth"
  type: "InnerProduct"
  bottom: "pool3_mouth"
  top: "fc1_mouth"
  param {
    lr_mult: 1
    decay_mult: 1
  }
  param {
    lr_mult: 2
    decay_mult: 0
  }
  inner_product_param {
    num_output: 512
    weight_filler {
      type: "xavier"
    }
    bias_filler {
      type: "constant"
      value: 0.2
    }
  }
}
layer {
  name: "relu1_mouth"
  type: "ReLU"
  bottom: "fc1_mouth"
  top: "fc1_mouth"
}
layer {
  name: "drop1_mouth"
  type: "Dropout"
  bottom: "fc1_mouth"
  top: "fc1_mouth"
  dropout_param {
    dropout_ratio: 0.5
  }
}
layer {
  name: "fc2_mouth"
  type: "InnerProduct"
  bottom: "fc1_mouth"
  top: "fc2_mouth"
  param {
    lr_mult: 1
    decay_mult: 1
  }
  param {
    lr_mult: 2
    decay_mult: 0
  }
  inner_product_param {
    num_output: 512
    weight_filler {
      type: "xavier"
    }
    bias_filler {
      type: "constant"
      value: 0.2
    }
  }
}
layer {
  name: "relu2_mouth"
  type: "ReLU"
  bottom: "fc2_mouth"
  top: "fc2_mouth"
}
layer {
  name: "drop2_mouth"
  type: "Dropout"
  bottom: "fc2_mouth"
  top: "fc2_mouth"
  dropout_param {
    dropout_ratio: 0.5
  }
}
layer {
  name: "conv3_eyes"
  type: "Convolution"
  bottom: "pool3"
  top: "conv3_eyes"
  param {
    lr_mult: 1
    decay_mult: 1
  }
  param {
    lr_mult: 2
    decay_mult: 0
  }
  convolution_param {
    num_output: 300
    pad: 1
    kernel_size: 3
    stride: 2
    weight_filler {
      type: "xavier"
    }
    bias_filler {
      type: "constant"
      value: 0.2
    }
  }
}
layer {
  name: "conv3_eyes_bn"
  type: "BatchNorm"
  bottom: "conv3_eyes"
  top: "conv3_eyes"
  batch_norm_param {
    use_global_stats: false
  }
}
layer {
  name: "conv3_eyes_scale"
  type: "Scale"
  bottom: "conv3_eyes"
  top: "conv3_eyes"
  scale_param {
    bias_term: true
  }
}
layer {
  name: "prelu3_eyes"
  type: "PReLU"
  bottom: "conv3_eyes"
  top: "conv3_eyes"
}
layer {
  name: "pool3_eyes"
  type: "Pooling"
  bottom: "conv3_eyes"
  top: "pool3_eyes"
  pooling_param {
    pool: MAX
    kernel_size: 5
    stride: 2
    pad: 2
  }
}
layer {
  name: "fc1_eyes"
  type: "InnerProduct"
  bottom: "pool3_eyes"
  top: "fc1_eyes"
  param {
    lr_mult: 1
    decay_mult: 1
  }
  param {
    lr_mult: 2
    decay_mult: 0
  }
  inner_product_param {
    num_output: 512
    weight_filler {
      type: "xavier"
    }
    bias_filler {
      type: "constant"
      value: 0.2
    }
  }
}
layer {
  name: "relu1_eyes"
  type: "ReLU"
  bottom: "fc1_eyes"
  top: "fc1_eyes"
}
layer {
  name: "drop1_eyes"
  type: "Dropout"
  bottom: "fc1_eyes"
  top: "fc1_eyes"
  dropout_param {
    dropout_ratio: 0.5
  }
}
layer {
  name: "fc2_eyes"
  type: "InnerProduct"
  bottom: "fc1_eyes"
  top: "fc2_eyes"
  param {
    lr_mult: 1
    decay_mult: 1
  }
  param {
    lr_mult: 2
    decay_mult: 0
  }
  inner_product_param {
    num_output: 512
    weight_filler {
      type: "xavier"
    }
    bias_filler {
      type: "constant"
      value: 0.2
    }
  }
}
layer {
  name: "relu2_eyes"
  type: "ReLU"
  bottom: "fc2_eyes"
  top: "fc2_eyes"
}
layer {
  name: "drop2_eyes"
  type: "Dropout"
  bottom: "fc2_eyes"
  top: "fc2_eyes"
  dropout_param {
    dropout_ratio: 0.5
  }
}
layer {
  name: "conv3_face"
  type: "Convolution"
  bottom: "pool3"
  top: "conv3_face"
  param {
    lr_mult: 1
    decay_mult: 1
  }
  param {
    lr_mult: 2
    decay_mult: 0
  }
  convolution_param {
    num_output: 300
    pad: 1
    kernel_size: 3
    stride: 2
    weight_filler {
      type: "xavier"
    }
    bias_filler {
      type: "constant"
      value: 0.2
    }
  }
}
layer {
  name: "conv3_face_bn"
  type: "BatchNorm"
  bottom: "conv3_face"
  top: "conv3_face"
  batch_norm_param {
    use_global_stats: false
  }
}
layer {
  name: "conv3_face_scale"
  type: "Scale"
  bottom: "conv3_face"
  top: "conv3_face"
  scale_param {
    bias_term: true
  }
}
layer {
  name: "prelu3_face"
  type: "PReLU"
  bottom: "conv3_face"
  top: "conv3_face"
}
layer {
  name: "pool3_face"
  type: "Pooling"
  bottom: "conv3_face"
  top: "pool3_face"
  pooling_param {
    pool: MAX
    kernel_size: 5
    stride: 2
    pad: 2
  }
}
layer {
  name: "fc1_face"
  type: "InnerProduct"
  bottom: "pool3_face"
  top: "fc1_face"
  param {
    lr_mult: 1
    decay_mult: 1
  }
  param {
    lr_mult: 2
    decay_mult: 0
  }
  inner_product_param {
    num_output: 512
    weight_filler {
      type: "xavier"
    }
    bias_filler {
      type: "constant"
      value: 0.2
    }
  }
}
layer {
  name: "relu1_face"
  type: "ReLU"
  bottom: "fc1_face"
  top: "fc1_face"
}
layer {
  name: "drop1_face"
  type: "Dropout"
  bottom: "fc1_face"
  top: "fc1_face"
  dropout_param {
    dropout_ratio: 0.5
  }
}
layer {
  name: "fc2_face"
  type: "InnerProduct"
  bottom: "fc1_face"
  top: "fc2_face"
  param {
    lr_mult: 1
    decay_mult: 1
  }
  param {
    lr_mult: 2
    decay_mult: 0
  }
  inner_product_param {
    num_output: 512
    weight_filler {
      type: "xavier"
    }
    bias_filler {
      type: "constant"
      value: 0.2
    }
  }
}
layer {
  name: "relu2_face"
  type: "ReLU"
  bottom: "fc2_face"
  top: "fc2_face"
}
layer {
  name: "drop2_face"
  type: "Dropout"
  bottom: "fc2_face"
  top: "fc2_face"
  dropout_param {
    dropout_ratio: 0.5
  }
}
layer {
  name: "conv3_rest"
  type: "Convolution"
  bottom: "pool3"
  top: "conv3_rest"
  param {
    lr_mult: 1
    decay_mult: 1
  }
  param {
    lr_mult: 2
    decay_mult: 0
  }
  convolution_param {
    num_output: 300
    pad: 1
    kernel_size: 3
    stride: 2
    weight_filler {
      type: "xavier"
    }
    bias_filler {
      type: "constant"
      value: 0.2
    }
  }
}
layer {
  name: "conv3_rest_bn"
  type: "BatchNorm"
  bottom: "conv3_rest"
  top: "conv3_rest"
  batch_norm_param {
    use_global_stats: false
  }
}
layer {
  name: "conv3_rest_scale"
  type: "Scale"
  bottom: "conv3_rest"
  top: "conv3_rest"
  scale_param {
    bias_term: true
  }
}
layer {
  name: "prelu3_rest"
  type: "PReLU"
  bottom: "conv3_rest"
  top: "conv3_rest"
}
layer {
  name: "pool3_rest"
  type: "Pooling"
  bottom: "conv3_rest"
  top: "pool3_rest"
  pooling_param {
    pool: MAX
    kernel_size: 5
    stride: 2
    pad: 2
  }
}
layer {
  name: "fc1_aroundhead"
  type: "InnerProduct"
  bottom: "pool3_rest"
  top: "fc1_aroundhead"
  param {
    lr_mult: 1
    decay_mult: 1
  }
  param {
    lr_mult: 2
    decay_mult: 0
  }
  inner_product_param {
    num_output: 512
    weight_filler {
      type: "xavier"
    }
    bias_filler {
      type: "constant"
      value: 0.2
    }
  }
}
layer {
  name: "relu1_aroundhead"
  type: "ReLU"
  bottom: "fc1_aroundhead"
  top: "fc1_aroundhead"
}
layer {
  name: "drop1_aroundhead"
  type: "Dropout"
  bottom: "fc1_aroundhead"
  top: "fc1_aroundhead"
  dropout_param {
    dropout_ratio: 0.5
  }
}
layer {
  name: "fc2_aroundhead"
  type: "InnerProduct"
  bottom: "fc1_aroundhead"
  top: "fc2_aroundhead"
  param {
    lr_mult: 1
    decay_mult: 1
  }
  param {
    lr_mult: 2
    decay_mult: 0
  }
  inner_product_param {
    num_output: 512
    weight_filler {
      type: "xavier"
    }
    bias_filler {
      type: "constant"
      value: 0.2
    }
  }
}
layer {
  name: "relu2_aroundhead"
  type: "ReLU"
  bottom: "fc2_aroundhead"
  top: "fc2_aroundhead"
}
layer {
  name: "drop2_aroundhead"
  type: "Dropout"
  bottom: "fc2_aroundhead"
  top: "fc2_aroundhead"
  dropout_param {
    dropout_ratio: 0.5
  }
}
layer {
  name: "fc1_facialhair"
  type: "InnerProduct"
  bottom: "pool3_rest"
  top: "fc1_facialhair"
  param {
    lr_mult: 1
    decay_mult: 1
  }
  param {
    lr_mult: 2
    decay_mult: 0
  }
  inner_product_param {
    num_output: 512
    weight_filler {
      type: "xavier"
    }
    bias_filler {
      type: "constant"
      value: 0.2
    }
  }
}
layer {
  name: "relu1_facialhair"
  type: "ReLU"
  bottom: "fc1_facialhair"
  top: "fc1_facialhair"
}
layer {
  name: "drop1_facialhair"
  type: "Dropout"
  bottom: "fc1_facialhair"
  top: "fc1_facialhair"
  dropout_param {
    dropout_ratio: 0.5
  }
}
layer {
  name: "fc2_facialhair"
  type: "InnerProduct"
  bottom: "fc1_facialhair"
  top: "fc2_facialhair"
  param {
    lr_mult: 1
    decay_mult: 1
  }
  param {
    lr_mult: 2
    decay_mult: 0
  }
  inner_product_param {
    num_output: 512
    weight_filler {
      type: "xavier"
    }
    bias_filler {
      type: "constant"
      value: 0.2
    }
  }
}
layer {
  name: "relu2_facialhair"
  type: "ReLU"
  bottom: "fc2_facialhair"
  top: "fc2_facialhair"
}
layer {
  name: "drop2_facialhair"
  type: "Dropout"
  bottom: "fc2_facialhair"
  top: "fc2_facialhair"
  dropout_param {
    dropout_ratio: 0.5
  }
}
layer {
  name: "fc1_cheeks"
  type: "InnerProduct"
  bottom: "pool3_rest"
  top: "fc1_cheeks"
  param {
    lr_mult: 1
    decay_mult: 1
  }
  param {
    lr_mult: 2
    decay_mult: 0
  }
  inner_product_param {
    num_output: 512
    weight_filler {
      type: "xavier"
    }
    bias_filler {
      type: "constant"
      value: 0.2
    }
  }
}
layer {
  name: "relu1_cheeks"
  type: "ReLU"
  bottom: "fc1_cheeks"
  top: "fc1_cheeks"
}
layer {
  name: "drop1_cheeks"
  type: "Dropout"
  bottom: "fc1_cheeks"
  top: "fc1_cheeks"
  dropout_param {
    dropout_ratio: 0.5
  }
}
layer {
  name: "fc2_cheeks"
  type: "InnerProduct"
  bottom: "fc1_cheeks"
  top: "fc2_cheeks"
  param {
    lr_mult: 1
    decay_mult: 1
  }
  param {
    lr_mult: 2
    decay_mult: 0
  }
  inner_product_param {
    num_output: 512
    weight_filler {
      type: "xavier"
    }
    bias_filler {
      type: "constant"
      value: 0.2
    }
  }
}
layer {
  name: "relu2_cheeks"
  type: "ReLU"
  bottom: "fc2_cheeks"
  top: "fc2_cheeks"
}
layer {
  name: "drop2_cheeks"
  type: "Dropout"
  bottom: "fc2_cheeks"
  top: "fc2_cheeks"
  dropout_param {
    dropout_ratio: 0.5
  }
}
layer {
  name: "fc1_fat"
  type: "InnerProduct"
  bottom: "pool3_rest"
  top: "fc1_fat"
  param {
    lr_mult: 1
    decay_mult: 1
  }
  param {
    lr_mult: 2
    decay_mult: 0
  }
  inner_product_param {
    num_output: 512
    weight_filler {
      type: "xavier"
    }
    bias_filler {
      type: "constant"
      value: 0.2
    }
  }
}
layer {
  name: "relu1_fat"
  type: "ReLU"
  bottom: "fc1_fat"
  top: "fc1_fat"
}
layer {
  name: "drop1_fat"
  type: "Dropout"
  bottom: "fc1_fat"
  top: "fc1_fat"
  dropout_param {
    dropout_ratio: 0.5
  }
}
layer {
  name: "fc2_fat"
  type: "InnerProduct"
  bottom: "fc1_fat"
  top: "fc2_fat"
  param {
    lr_mult: 1
    decay_mult: 1
  }
  param {
    lr_mult: 2
    decay_mult: 0
  }
  inner_product_param {
    num_output: 512
    weight_filler {
      type: "xavier"
    }
    bias_filler {
      type: "constant"
      value: 0.2
    }
  }
}
layer {
  name: "relu2_fat"
  type: "ReLU"
  bottom: "fc2_fat"
  top: "fc2_fat"
}
layer {
  name: "drop2_fat"
  type: "Dropout"
  bottom: "fc2_fat"
  top: "fc2_fat"
  dropout_param {
    dropout_ratio: 0.5
  }
}
layer {
  name: "fc3_Male"
  type: "InnerProduct"
  bottom: "fc2_gender"
  top: "fc3_Male"
  inner_product_param {
    num_output: 2
    weight_filler {
      type: "xavier"
    }
    bias_filler {
      type: "constant"
      value: 0
    }
  }
}
layer {
  name: "loss_Male"
  type: "SigmoidCrossEntropyLoss"
  bottom: "fc3_Male"
  bottom: "label_Male"
  top: "loss_Male"
}
layer {
  name: "fc3_Big_Nose"
  type: "InnerProduct"
  bottom: "fc2_nose"
  top: "fc3_Big_Nose"
  inner_product_param {
    num_output: 2
    weight_filler {
      type: "xavier"
    }
    bias_filler {
      type: "constant"
      value: 0
    }
  }
}
layer {
  name: "loss_Big_Nose"
  type: "SigmoidCrossEntropyLoss"
  bottom: "fc3_Big_Nose"
  bottom: "label_Big_Nose"
  top: "loss_Big_Nose"
}
layer {
  name: "fc3_Pointy_Nose"
  type: "InnerProduct"
  bottom: "fc2_nose"
  top: "fc3_Pointy_Nose"
  inner_product_param {
    num_output: 2
    weight_filler {
      type: "xavier"
    }
    bias_filler {
      type: "constant"
      value: 0
    }
  }
}
layer {
  name: "loss_Pointy_Nose"
  type: "SigmoidCrossEntropyLoss"
  bottom: "fc3_Pointy_Nose"
  bottom: "label_Pointy_Nose"
  top: "loss_Pointy_Nose"
}
layer {
  name: "fc3_Big_Lips"
  type: "InnerProduct"
  bottom: "fc2_mouth"
  top: "fc3_Big_Lips"
  inner_product_param {
    num_output: 2
    weight_filler {
      type: "xavier"
    }
    bias_filler {
      type: "constant"
      value: 0
    }
  }
}
layer {
  name: "loss_Big_Lips"
  type: "SigmoidCrossEntropyLoss"
  bottom: "fc3_Big_Lips"
  bottom: "label_Big_Lips"
  top: "loss_Big_Lips"
}
layer {
  name: "fc3_Smiling"
  type: "InnerProduct"
  bottom: "fc2_mouth"
  top: "fc3_Smiling"
  inner_product_param {
    num_output: 2
    weight_filler {
      type: "xavier"
    }
    bias_filler {
      type: "constant"
      value: 0
    }
  }
}
layer {
  name: "loss_Smiling"
  type: "SigmoidCrossEntropyLoss"
  bottom: "fc3_Smiling"
  bottom: "label_Smiling"
  top: "loss_Smiling"
}
layer {
  name: "fc3_Wearing_Lipstick"
  type: "InnerProduct"
  bottom: "fc2_mouth"
  top: "fc3_Wearing_Lipstick"
  inner_product_param {
    num_output: 2
    weight_filler {
      type: "xavier"
    }
    bias_filler {
      type: "constant"
      value: 0
    }
  }
}
layer {
  name: "loss_Wearing_Lipstick"
  type: "SigmoidCrossEntropyLoss"
  bottom: "fc3_Wearing_Lipstick"
  bottom: "label_Wearing_Lipstick"
  top: "loss_Wearing_Lipstick"
}
layer {
  name: "fc3_Mouth_Slightly_Open"
  type: "InnerProduct"
  bottom: "fc2_mouth"
  top: "fc3_Mouth_Slightly_Open"
  inner_product_param {
    num_output: 2
    weight_filler {
      type: "xavier"
    }
    bias_filler {
      type: "constant"
      value: 0
    }
  }
}
layer {
  name: "loss_Mouth_Slightly_Open"
  type: "SigmoidCrossEntropyLoss"
  bottom: "fc3_Mouth_Slightly_Open"
  bottom: "label_Mouth_Slightly_Open"
  top: "loss_Mouth_Slightly_Open"
}
layer {
  name: "fc3_Arched_Eyebrows"
  type: "InnerProduct"
  bottom: "fc2_eyes"
  top: "fc3_Arched_Eyebrows"
  inner_product_param {
    num_output: 2
    weight_filler {
      type: "xavier"
    }
    bias_filler {
      type: "constant"
      value: 0
    }
  }
}
layer {
  name: "loss_Arched_Eyebrows"
  type: "SigmoidCrossEntropyLoss"
  bottom: "fc3_Arched_Eyebrows"
  bottom: "label_Arched_Eyebrows"
  top: "loss_Arched_Eyebrows"
}
layer {
  name: "fc3_Bags_Under_Eyes"
  type: "InnerProduct"
  bottom: "fc2_eyes"
  top: "fc3_Bags_Under_Eyes"
  inner_product_param {
    num_output: 2
    weight_filler {
      type: "xavier"
    }
    bias_filler {
      type: "constant"
      value: 0
    }
  }
}
layer {
  name: "loss_Bags_Under_Eyes"
  type: "SigmoidCrossEntropyLoss"
  bottom: "fc3_Bags_Under_Eyes"
  bottom: "label_Bags_Under_Eyes"
  top: "loss_Bags_Under_Eyes"
}
layer {
  name: "fc3_Bushy_Eyebrows"
  type: "InnerProduct"
  bottom: "fc2_eyes"
  top: "fc3_Bushy_Eyebrows"
  inner_product_param {
    num_output: 2
    weight_filler {
      type: "xavier"
    }
    bias_filler {
      type: "constant"
      value: 0
    }
  }
}
layer {
  name: "loss_Bushy_Eyebrows"
  type: "SigmoidCrossEntropyLoss"
  bottom: "fc3_Bushy_Eyebrows"
  bottom: "label_Bushy_Eyebrows"
  top: "loss_Bushy_Eyebrows"
}
layer {
  name: "fc3_Narrow_Eyes"
  type: "InnerProduct"
  bottom: "fc2_eyes"
  top: "fc3_Narrow_Eyes"
  inner_product_param {
    num_output: 2
    weight_filler {
      type: "xavier"
    }
    bias_filler {
      type: "constant"
      value: 0
    }
  }
}
layer {
  name: "loss_Narrow_Eyes"
  type: "SigmoidCrossEntropyLoss"
  bottom: "fc3_Narrow_Eyes"
  bottom: "label_Narrow_Eyes"
  top: "loss_Narrow_Eyes"
}
layer {
  name: "fc3_Eyeglasses"
  type: "InnerProduct"
  bottom: "fc2_eyes"
  top: "fc3_Eyeglasses"
  inner_product_param {
    num_output: 2
    weight_filler {
      type: "xavier"
    }
    bias_filler {
      type: "constant"
      value: 0
    }
  }
}
layer {
  name: "loss_Eyeglasses"
  type: "SigmoidCrossEntropyLoss"
  bottom: "fc3_Eyeglasses"
  bottom: "label_Eyeglasses"
  top: "loss_Eyeglasses"
}
layer {
  name: "fc3_Attractive"
  type: "InnerProduct"
  bottom: "fc2_face"
  top: "fc3_Attractive"
  inner_product_param {
    num_output: 2
    weight_filler {
      type: "xavier"
    }
    bias_filler {
      type: "constant"
      value: 0
    }
  }
}
layer {
  name: "loss_Attractive"
  type: "SigmoidCrossEntropyLoss"
  bottom: "fc3_Attractive"
  bottom: "label_Attractive"
  top: "loss_Attractive"
}
layer {
  name: "fc3_Blurry"
  type: "InnerProduct"
  bottom: "fc2_face"
  top: "fc3_Blurry"
  inner_product_param {
    num_output: 2
    weight_filler {
      type: "xavier"
    }
    bias_filler {
      type: "constant"
      value: 0
    }
  }
}
layer {
  name: "loss_Blurry"
  type: "SigmoidCrossEntropyLoss"
  bottom: "fc3_Blurry"
  bottom: "label_Blurry"
  top: "loss_Blurry"
}
layer {
  name: "fc3_Oval_Face"
  type: "InnerProduct"
  bottom: "fc2_face"
  top: "fc3_Oval_Face"
  inner_product_param {
    num_output: 2
    weight_filler {
      type: "xavier"
    }
    bias_filler {
      type: "constant"
      value: 0
    }
  }
}
layer {
  name: "loss_Oval_Face"
  type: "SigmoidCrossEntropyLoss"
  bottom: "fc3_Oval_Face"
  bottom: "label_Oval_Face"
  top: "loss_Oval_Face"
}
layer {
  name: "fc3_Pale_Skin"
  type: "InnerProduct"
  bottom: "fc2_face"
  top: "fc3_Pale_Skin"
  inner_product_param {
    num_output: 2
    weight_filler {
      type: "xavier"
    }
    bias_filler {
      type: "constant"
      value: 0
    }
  }
}
layer {
  name: "loss_Pale_Skin"
  type: "SigmoidCrossEntropyLoss"
  bottom: "fc3_Pale_Skin"
  bottom: "label_Pale_Skin"
  top: "loss_Pale_Skin"
}
layer {
  name: "fc3_Young"
  type: "InnerProduct"
  bottom: "fc2_face"
  top: "fc3_Young"
  inner_product_param {
    num_output: 2
    weight_filler {
      type: "xavier"
    }
    bias_filler {
      type: "constant"
      value: 0
    }
  }
}
layer {
  name: "l
I1013 14:42:31.362740 19486 layer_factory.hpp:77] Creating layer data
I1013 14:42:31.362790 19486 net.cpp:91] Creating Layer data
I1013 14:42:31.362800 19486 net.cpp:399] data -> data
I1013 14:42:31.362834 19486 net.cpp:399] data -> label
I1013 14:42:31.362857 19486 data_transformer.cpp:25] Loading mean file from: /home/zhangyuan/caojiajiong/attribute_learning/attr_id/data/train_attr_id.binaryproto
I1013 14:42:31.374929 19486 image_data_layer.cpp:38] Opening file /home/zhangyuan/caojiajiong/attribute_learning/attr_id/data/train_shuffle_new.txt
I1013 14:42:31.392400 19486 image_data_layer.cpp:53] A total of 35996 images.
I1013 14:42:31.397773 19486 image_data_layer.cpp:80] output data size: 100,3,112,112
I1013 14:42:31.424661 19486 net.cpp:141] Setting up data
I1013 14:42:31.424713 19486 net.cpp:148] Top shape: 100 3 112 112 (3763200)
I1013 14:42:31.424722 19486 net.cpp:148] Top shape: 100 (100)
I1013 14:42:31.424727 19486 net.cpp:156] Memory required for data: 15053200
I1013 14:42:31.424737 19486 layer_factory.hpp:77] Creating layer label_data_1_split
I1013 14:42:31.424756 19486 net.cpp:91] Creating Layer label_data_1_split
I1013 14:42:31.424793 19486 net.cpp:425] label_data_1_split <- label
I1013 14:42:31.424811 19486 net.cpp:399] label_data_1_split -> label_data_1_split_0
I1013 14:42:31.424826 19486 net.cpp:399] label_data_1_split -> label_data_1_split_1
I1013 14:42:31.424918 19486 net.cpp:141] Setting up label_data_1_split
I1013 14:42:31.424931 19486 net.cpp:148] Top shape: 100 (100)
I1013 14:42:31.424937 19486 net.cpp:148] Top shape: 100 (100)
I1013 14:42:31.424940 19486 net.cpp:156] Memory required for data: 15054000
I1013 14:42:31.424945 19486 layer_factory.hpp:77] Creating layer attr_data
I1013 14:42:31.425101 19486 net.cpp:91] Creating Layer attr_data
I1013 14:42:31.425113 19486 net.cpp:399] attr_data -> attr_data
I1013 14:42:31.425127 19486 net.cpp:399] attr_data -> fakelabel
I1013 14:42:31.428455 19490 db_lmdb.cpp:40] Opened lmdb /home/zhangyuan/caojiajiong/attribute_learning/attr_id/data/train_label_new
I1013 14:42:31.428741 19486 data_layer.cpp:41] output data size: 100,80,1,1
I1013 14:42:31.429865 19486 net.cpp:141] Setting up attr_data
I1013 14:42:31.429884 19486 net.cpp:148] Top shape: 100 80 1 1 (8000)
I1013 14:42:31.429893 19486 net.cpp:148] Top shape: 100 (100)
I1013 14:42:31.429896 19486 net.cpp:156] Memory required for data: 15086400
I1013 14:42:31.429903 19486 layer_factory.hpp:77] Creating layer conv1
I1013 14:42:31.429929 19486 net.cpp:91] Creating Layer conv1
I1013 14:42:31.429934 19486 net.cpp:425] conv1 <- data
I1013 14:42:31.429944 19486 net.cpp:399] conv1 -> conv1
I1013 14:42:31.432802 19486 net.cpp:141] Setting up conv1
I1013 14:42:31.432826 19486 net.cpp:148] Top shape: 100 64 112 112 (80281600)
I1013 14:42:31.432832 19486 net.cpp:156] Memory required for data: 336212800
I1013 14:42:31.432848 19486 layer_factory.hpp:77] Creating layer slice
I1013 14:42:31.432873 19486 net.cpp:91] Creating Layer slice
I1013 14:42:31.432878 19486 net.cpp:425] slice <- attr_data
I1013 14:42:31.432891 19486 net.cpp:399] slice -> label_5_o_Clock_Shadow
I1013 14:42:31.432909 19486 net.cpp:399] slice -> label_Arched_Eyebrows
…
I1013 14:42:31.433336 19486 net.cpp:399] slice -> label_Straight_Hair
I1013 14:42:31.433372 19486 net.cpp:399] slice -> label_Wavy_Hair
I1013 14:42:31.433387 19486 net.cpp:399] slice -> label_Wearing_Earrings
I1013 14:42:31.433406 19486 net.cpp:399] slice -> label_Wearing_Hat
I1013 14:42:31.433418 19486 net.cpp:399] slice -> label_Wearing_Lipstick
I1013 14:42:31.433430 19486 net.cpp:399] slice -> label_Wearing_Necklace
I1013 14:42:31.433450 19486 net.cpp:399] slice -> label_Wearing_Necktie
I1013 14:42:31.433462 19486 net.cpp:399] slice -> label_Young
I1013 14:42:31.433917 19486 net.cpp:141] Setting up slice
I1013 14:42:31.433928 19486 net.cpp:148] Top shape: 100 2 1 1 (200)
I1013 14:42:31.433934 19486 net.cpp:148] Top shape: 100 2 1 1 (200)
I1013 14:42:31.433939 19486 net.cpp:148] Top shape: 100 2 1 1 (200)
I1013 14:42:31.433944 19486 net.cpp:148] Top shape: 100 2 1 1 (200)
I1013 14:42:31.433949 19486 net.cpp:148] Top shape: 100 2 1 1 (200)
I1013 14:42:31.433954 19486 net.cpp:148] Top shape: 100 2 1 1 (200)
I1013 14:42:31.433959 19486 net.cpp:148] Top shape: 100 2 1 1 (200)
I1013 14:42:31.433964 19486 net.cpp:148] Top shape: 100 2 1 1 (200)
I1013 14:42:31.433969 19486 net.cpp:148] Top shape: 100 2 1 1 (200)
I1013 14:42:31.433975 19486 net.cpp:148] Top shape: 100 2 1 1 (200)
I1013 14:42:31.433981 19486 net.cpp:148] Top shape: 100 2 1 1 (200)
I1013 14:42:31.433986 19486 net.cpp:148] Top shape: 100 2 1 1 (200)
I1013 14:42:31.433991 19486 net.cpp:148] Top shape: 100 2 1 1 (200)
I1013 14:42:31.433996 19486 net.cpp:148] Top shape: 100 2 1 1 (200)
I1013 14:42:31.434000 19486 net.cpp:148] Top shape: 100 2 1 1 (200)
I1013 14:42:31.434005 19486 net.cpp:148] Top shape: 100 2 1 1 (200)
I1013 14:42:31.434010 19486 net.cpp:148] Top shape: 100 2 1 1 (200)
I1013 14:42:31.434015 19486 net.cpp:148] Top shape: 100 2 1 1 (200)
I1013 14:42:31.434020 19486 net.cpp:148] Top shape: 100 2 1 1 (200)
I1013 14:42:31.434026 19486 net.cpp:148] Top shape: 100 2 1 1 (200)
I1013 14:42:31.434031 19486 net.cpp:148] Top shape: 100 2 1 1 (200)
I1013 14:42:31.434036 19486 net.cpp:148] Top shape: 100 2 1 1 (200)
I1013 14:42:31.434041 19486 net.cpp:148] Top shape: 100 2 1 1 (200)
I1013 14:42:31.434046 19486 net.cpp:148] Top shape: 100 2 1 1 (200)
I1013 14:42:31.434051 19486 net.cpp:148] Top shape: 100 2 1 1 (200)
I1013 14:42:31.434056 19486 net.cpp:148] Top shape: 100 2 1 1 (200)
I1013 14:42:31.434062 19486 net.cpp:148] Top shape: 100 2 1 1 (200)
I1013 14:42:31.434067 19486 net.cpp:148] Top shape: 100 2 1 1 (200)
I1013 14:42:31.434072 19486 net.cpp:148] Top shape: 100 2 1 1 (200)
I1013 14:42:31.434077 19486 net.cpp:148] Top shape: 100 2 1 1 (200)
I1013 14:42:31.434082 19486 net.cpp:148] Top shape: 100 2 1 1 (200)
I1013 14:42:31.434085 19486 net.cpp:148] Top shape: 100 2 1 1 (200)
I1013 14:42:31.434090 19486 net.cpp:148] Top shape: 100 2 1 1 (200)
I1013 14:42:31.434095 19486 net.cpp:148] Top shape: 100 2 1 1 (200)
I1013 14:42:31.434100 19486 net.cpp:148] Top shape: 100 2 1 1 (200)
I1013 14:42:31.434105 19486 net.cpp:148] Top shape: 100 2 1 1 (200)
I1013 14:42:31.434110 19486 net.cpp:148] Top shape: 100 2 1 1 (200)
I1013 14:42:31.434115 19486 net.cpp:148] Top shape: 100 2 1 1 (200)
I1013 14:42:31.434120 19486 net.cpp:148] Top shape: 100 2 1 1 (200)
I1013 14:42:31.434125 19486 net.cpp:148] Top shape: 100 2 1 1 (200)
I1013 14:42:31.434129 19486 net.cpp:156] Memory required for data: 336244800
I1013 14:42:31.434134 19486 layer_factory.hpp:77] Creating layer conv1_bn
I1013 14:42:31.434144 19486 net.cpp:91] Creating Layer conv1_bn
I1013 14:42:31.434149 19486 net.cpp:425] conv1_bn <- conv1
I1013 14:42:31.434156 19486 net.cpp:386] conv1_bn -> conv1 (in-place)
I1013 14:42:31.434347 19486 net.cpp:141] Setting up conv1_bn
I1013 14:42:31.434358 19486 net.cpp:148] Top shape: 100 64 112 112 (80281600)
I1013 14:42:31.434363 19486 net.cpp:156] Memory required for data: 657371200
I1013 14:42:31.434381 19486 layer_factory.hpp:77] Creating layer conv1_scale
I1013 14:42:31.434391 19486 net.cpp:91] Creating Layer conv1_scale
I1013 14:42:31.434396 19486 net.cpp:425] conv1_scale <- conv1
I1013 14:42:31.434403 19486 net.cpp:386] conv1_scale -> conv1 (in-place)
I1013 14:42:31.434463 19486 layer_factory.hpp:77] Creating layer conv1_scale
I1013 14:42:31.434698 19486 net.cpp:141] Setting up conv1_scale
I1013 14:42:31.434711 19486 net.cpp:148] Top shape: 100 64 112 112 (80281600)
I1013 14:42:31.434715 19486 net.cpp:156] Memory required for data: 978497600
I1013 14:42:31.434723 19486 layer_factory.hpp:77] Creating layer prelu1
I1013 14:42:31.434732 19486 net.cpp:91] Creating Layer prelu1
I1013 14:42:31.434738 19486 net.cpp:425] prelu1 <- conv1
I1013 14:42:31.434746 19486 net.cpp:386] prelu1 -> conv1 (in-place)
I1013 14:42:31.436974 19486 net.cpp:141] Setting up prelu1
I1013 14:42:31.436995 19486 net.cpp:148] Top shape: 100 64 112 112 (80281600)
I1013 14:42:31.437002 19486 net.cpp:156] Memory required for data: 1299624000
I1013 14:42:31.437011 19486 layer_factory.hpp:77] Creating layer pool1
I1013 14:42:31.437024 19486 net.cpp:91] Creating Layer pool1
I1013 14:42:31.437038 19486 net.cpp:425] pool1 <- conv1
I1013 14:42:31.437060 19486 net.cpp:399] pool1 -> pool1
I1013 14:42:31.437132 19486 net.cpp:141] Setting up pool1
I1013 14:42:31.437144 19486 net.cpp:148] Top shape: 100 64 56 56 (20070400)
I1013 14:42:31.437150 19486 net.cpp:156] Memory required for data: 1379905600
I1013 14:42:31.437165 19486 layer_factory.hpp:77] Creating layer conv2a
I1013 14:42:31.437178 19486 net.cpp:91] Creating Layer conv2a
I1013 14:42:31.437183 19486 net.cpp:425] conv2a <- pool1
I1013 14:42:31.437193 19486 net.cpp:399] conv2a -> conv2a
I1013 14:42:31.437474 19486 net.cpp:141] Setting up conv2a
I1013 14:42:31.437484 19486 net.cpp:148] Top shape: 100 64 56 56 (20070400)
I1013 14:42:31.437489 19486 net.cpp:156] Memory required for data: 1460187200
I1013 14:42:31.437500 19486 layer_factory.hpp:77] Creating layer conv2a_bn
I1013 14:42:31.437508 19486 net.cpp:91] Creating Layer conv2a_bn
I1013 14:42:31.437513 19486 net.cpp:425] conv2a_bn <- conv2a
I1013 14:42:31.437520 19486 net.cpp:386] conv2a_bn -> conv2a (in-place)
I1013 14:42:31.437757 19486 net.cpp:141] Setting up conv2a_bn
I1013 14:42:31.437773 19486 net.cpp:148] Top shape: 100 64 56 56 (20070400)
I1013 14:42:31.437778 19486 net.cpp:156] Memory required for data: 1540468800
I1013 14:42:31.437791 19486 layer_factory.hpp:77] Creating layer conv2a_scale
I1013 14:42:31.437808 19486 net.cpp:91] Creating Layer conv2a_scale
I1013 14:42:31.437813 19486 net.cpp:425] conv2a_scale <- conv2a
I1013 14:42:31.437820 19486 net.cpp:386] conv2a_scale -> conv2a (in-place)
I1013 14:42:31.437871 19486 layer_factory.hpp:77] Creating layer conv2a_scale
I1013 14:42:31.437996 19486 net.cpp:141] Setting up conv2a_scale
I1013 14:42:31.438009 19486 net.cpp:148] Top shape: 100 64 56 56 (20070400)
I1013 14:42:31.438014 19486 net.cpp:156] Memory required for data: 1620750400
I1013 14:42:31.438031 19486 layer_factory.hpp:77] Creating layer prelu2a
I1013 14:42:31.438040 19486 net.cpp:91] Creating Layer prelu2a
I1013 14:42:31.438045 19486 net.cpp:425] prelu2a <- conv2a
I1013 14:42:31.438060 19486 net.cpp:386] prelu2a -> conv2a (in-place)
I1013 14:42:31.438957 19486 net.cpp:141] Setting up prelu2a
I1013 14:42:31.438974 19486 net.cpp:148] Top shape: 100 64 56 56 (20070400)
I1013 14:42:31.438978 19486 net.cpp:156] Memory required for data: 1701032000
I1013 14:42:31.438985 19486 layer_factory.hpp:77] Creating layer conv2
I1013 14:42:31.438999 19486 net.cpp:91] Creating Layer conv2
I1013 14:42:31.439004 19486 net.cpp:425] conv2 <- conv2a
I1013 14:42:31.439013 19486 net.cpp:399] conv2 -> conv2
I1013 14:42:31.440806 19486 net.cpp:141] Setting up conv2
I1013 14:42:31.440825 19486 net.cpp:148] Top shape: 100 192 56 56 (60211200)
I1013 14:42:31.440830 19486 net.cpp:156] Memory required for data: 1941876800
I1013 14:42:31.440842 19486 layer_factory.hpp:77] Creating layer conv2_bn
I1013 14:42:31.440852 19486 net.cpp:91] Creating Layer conv2_bn
I1013 14:42:31.440857 19486 net.cpp:425] conv2_bn <- conv2
I1013 14:42:31.440865 19486 net.cpp:386] conv2_bn -> conv2 (in-place)
I1013 14:42:31.441061 19486 net.cpp:141] Setting up conv2_bn
I1013 14:42:31.441072 19486 net.cpp:148] Top shape: 100 192 56 56 (60211200)
I1013 14:42:31.441090 19486 net.cpp:156] Memory required for data: 2182721600
I1013 14:42:31.441102 19486 layer_factory.hpp:77] Creating layer conv2_scale
I1013 14:42:31.441110 19486 net.cpp:91] Creating Layer conv2_scale
I1013 14:42:31.441115 19486 net.cpp:425] conv2_scale <- conv2
I1013 14:42:31.441148 19486 net.cpp:386] conv2_scale -> conv2 (in-place)
I1013 14:42:31.441196 19486 layer_factory.hpp:77] Creating layer conv2_scale
I1013 14:42:31.441323 19486 net.cpp:141] Setting up conv2_scale
I1013 14:42:31.441334 19486 net.cpp:148] Top shape: 100 192 56 56 (60211200)
I1013 14:42:31.441339 19486 net.cpp:156] Memory required for data: 2423566400
I1013 14:42:31.441346 19486 layer_factory.hpp:77] Creating layer prelu2
I1013 14:42:31.441355 19486 net.cpp:91] Creating Layer prelu2
I1013 14:42:31.441360 19486 net.cpp:425] prelu2 <- conv2
I1013 14:42:31.441366 19486 net.cpp:386] prelu2 -> conv2 (in-place)
I1013 14:42:31.443085 19486 net.cpp:141] Setting up prelu2
I1013 14:42:31.443104 19486 net.cpp:148] Top shape: 100 192 56 56 (60211200)
I1013 14:42:31.443109 19486 net.cpp:156] Memory required for data: 2664411200
I1013 14:42:31.443116 19486 layer_factory.hpp:77] Creating layer pool2
I1013 14:42:31.443125 19486 net.cpp:91] Creating Layer pool2
I1013 14:42:31.443130 19486 net.cpp:425] pool2 <- conv2
I1013 14:42:31.443137 19486 net.cpp:399] pool2 -> pool2
I1013 14:42:31.443179 19486 net.cpp:141] Setting up pool2
I1013 14:42:31.443186 19486 net.cpp:148] Top shape: 100 192 28 28 (15052800)
I1013 14:42:31.443191 19486 net.cpp:156] Memory required for data: 2724622400
I1013 14:42:31.443194 19486 layer_factory.hpp:77] Creating layer conv3a
I1013 14:42:31.443207 19486 net.cpp:91] Creating Layer conv3a
I1013 14:42:31.443212 19486 net.cpp:425] conv3a <- pool2
I1013 14:42:31.443219 19486 net.cpp:399] conv3a -> conv3a
I1013 14:42:31.444409 19486 net.cpp:141] Setting up conv3a
I1013 14:42:31.444427 19486 net.cpp:148] Top shape: 100 192 28 28 (15052800)
I1013 14:42:31.444432 19486 net.cpp:156] Memory required for data: 2784833600
I1013 14:42:31.444440 19486 layer_factory.hpp:77] Creating layer conv3a_bn
I1013 14:42:31.444449 19486 net.cpp:91] Creating Layer conv3a_bn
I1013 14:42:31.444455 19486 net.cpp:425] conv3a_bn <- conv3a
I1013 14:42:31.444463 19486 net.cpp:386] conv3a_bn -> conv3a (in-place)
I1013 14:42:31.444658 19486 net.cpp:141] Setting up conv3a_bn
I1013 14:42:31.444669 19486 net.cpp:148] Top shape: 100 192 28 28 (15052800)
I1013 14:42:31.444672 19486 net.cpp:156] Memory required for data: 2845044800
I1013 14:42:31.444682 19486 layer_factory.hpp:77] Creating layer conv3a_scale
I1013 14:42:31.444691 19486 net.cpp:91] Creating Layer conv3a_scale
I1013 14:42:31.444695 19486 net.cpp:425] conv3a_scale <- conv3a
I1013 14:42:31.444702 19486 net.cpp:386] conv3a_scale -> conv3a (in-place)
I1013 14:42:31.444744 19486 layer_factory.hpp:77] Creating layer conv3a_scale
I1013 14:42:31.444866 19486 net.cpp:141] Setting up conv3a_scale
I1013 14:42:31.444877 19486 net.cpp:148] Top shape: 100 192 28 28 (15052800)
I1013 14:42:31.444881 19486 net.cpp:156] Memory required for data: 2905256000
I1013 14:42:31.444888 19486 layer_factory.hpp:77] Creating layer prelu3a
I1013 14:42:31.444896 19486 net.cpp:91] Creating Layer prelu3a
I1013 14:42:31.444900 19486 net.cpp:425] prelu3a <- conv3a
I1013 14:42:31.444907 19486 net.cpp:386] prelu3a -> conv3a (in-place)
I1013 14:42:31.445107 19486 net.cpp:141] Setting up prelu3a
I1013 14:42:31.445118 19486 net.cpp:148] Top shape: 100 192 28 28 (15052800)
I1013 14:42:31.445122 19486 net.cpp:156] Memory required for data: 2965467200
I1013 14:42:31.445128 19486 layer_factory.hpp:77] Creating layer conv3
I1013 14:42:31.445142 19486 net.cpp:91] Creating Layer conv3
I1013 14:42:31.445147 19486 net.cpp:425] conv3 <- conv3a
I1013 14:42:31.445155 19486 net.cpp:399] conv3 -> conv3
I1013 14:42:31.452155 19486 net.cpp:141] Setting up conv3
I1013 14:42:31.452174 19486 net.cpp:148] Top shape: 100 384 28 28 (30105600)
I1013 14:42:31.452179 19486 net.cpp:156] Memory required for data: 3085889600
I1013 14:42:31.452210 19486 layer_factory.hpp:77] Creating layer conv3_bn
I1013 14:42:31.452220 19486 net.cpp:91] Creating Layer conv3_bn
I1013 14:42:31.452225 19486 net.cpp:425] conv3_bn <- conv3
I1013 14:42:31.452234 19486 net.cpp:386] conv3_bn -> conv3 (in-place)
I1013 14:42:31.452417 19486 net.cpp:141] Setting up conv3_bn
I1013 14:42:31.452428 19486 net.cpp:148] Top shape: 100 384 28 28 (30105600)
I1013 14:42:31.452433 19486 net.cpp:156] Memory required for data: 3206312000
I1013 14:42:31.452442 19486 layer_factory.hpp:77] Creating layer conv3_scale
I1013 14:42:31.452451 19486 net.cpp:91] Creating Layer conv3_scale
I1013 14:42:31.452455 19486 net.cpp:425] conv3_scale <- conv3
I1013 14:42:31.452462 19486 net.cpp:386] conv3_scale -> conv3 (in-place)
I1013 14:42:31.452507 19486 layer_factory.hpp:77] Creating layer conv3_scale
I1013 14:42:31.452616 19486 net.cpp:141] Setting up conv3_scale
I1013 14:42:31.452627 19486 net.cpp:148] Top shape: 100 384 28 28 (30105600)
I1013 14:42:31.452632 19486 net.cpp:156] Memory required for data: 3326734400
I1013 14:42:31.452639 19486 layer_factory.hpp:77] Creating layer prelu3
I1013 14:42:31.452646 19486 net.cpp:91] Creating Layer prelu3
I1013 14:42:31.452651 19486 net.cpp:425] prelu3 <- conv3
I1013 14:42:31.452657 19486 net.cpp:386] prelu3 -> conv3 (in-place)
I1013 14:42:31.453781 19486 net.cpp:141] Setting up prelu3
I1013 14:42:31.453799 19486 net.cpp:148] Top shape: 100 384 28 28 (30105600)
I1013 14:42:31.453804 19486 net.cpp:156] Memory required for data: 3447156800
I1013 14:42:31.453811 19486 layer_factory.hpp:77] Creating layer pool3
I1013 14:42:31.453820 19486 net.cpp:91] Creating Layer pool3
I1013 14:42:31.453825 19486 net.cpp:425] pool3 <- conv3
I1013 14:42:31.453832 19486 net.cpp:399] pool3 -> pool3
I1013 14:42:31.453886 19486 net.cpp:141] Setting up pool3
I1013 14:42:31.453896 19486 net.cpp:148] Top shape: 100 384 14 14 (7526400)
I1013 14:42:31.453899 19486 net.cpp:156] Memory required for data: 3477262400
I1013 14:42:31.453903 19486 layer_factory.hpp:77] Creating layer pool3_pool3_0_split
I1013 14:42:31.453912 19486 net.cpp:91] Creating Layer pool3_pool3_0_split
I1013 14:42:31.453917 19486 net.cpp:425] pool3_pool3_0_split <- pool3
I1013 14:42:31.453923 19486 net.cpp:399] pool3_pool3_0_split -> pool3_pool3_0_split_0
I1013 14:42:31.453933 19486 net.cpp:399] pool3_pool3_0_split -> pool3_pool3_0_split_1
I1013 14:42:31.453941 19486 net.cpp:399] pool3_pool3_0_split -> pool3_pool3_0_split_2
I1013 14:42:31.453949 19486 net.cpp:399] pool3_pool3_0_split -> pool3_pool3_0_split_3
I1013 14:42:31.453958 19486 net.cpp:399] pool3_pool3_0_split -> pool3_pool3_0_split_4
I1013 14:42:31.453964 19486 net.cpp:399] pool3_pool3_0_split -> pool3_pool3_0_split_5
I1013 14:42:31.454046 19486 net.cpp:141] Setting up pool3_pool3_0_split
I1013 14:42:31.454054 19486 net.cpp:148] Top shape: 100 384 14 14 (7526400)
I1013 14:42:31.454061 19486 net.cpp:148] Top shape: 100 384 14 14 (7526400)
I1013 14:42:31.454066 19486 net.cpp:148] Top shape: 100 384 14 14 (7526400)
I1013 14:42:31.454071 19486 net.cpp:148] Top shape: 100 384 14 14 (7526400)
I1013 14:42:31.454076 19486 net.cpp:148] Top shape: 100 384 14 14 (7526400)
I1013 14:42:31.454079 19486 net.cpp:148] Top shape: 100 384 14 14 (7526400)
I1013 14:42:31.454083 19486 net.cpp:156] Memory required for data: 3657896000
I1013 14:42:31.454087 19486 layer_factory.hpp:77] Creating layer conv3_gender
I1013 14:42:31.454099 19486 net.cpp:91] Creating Layer conv3_gender
I1013 14:42:31.454104 19486 net.cpp:425] conv3_gender <- pool3_pool3_0_split_0
I1013 14:42:31.454113 19486 net.cpp:399] conv3_gender -> conv3_gender
I1013 14:42:31.464658 19486 net.cpp:141] Setting up conv3_gender
I1013 14:42:31.464676 19486 net.cpp:148] Top shape: 100 300 7 7 (1470000)
I1013 14:42:31.464682 19486 net.cpp:156] Memory required for data: 3663776000
I1013 14:42:31.464690 19486 layer_factory.hpp:77] Creating layer conv3_gender_bn
I1013 14:42:31.464699 19486 net.cpp:91] Creating Layer conv3_gender_bn
I1013 14:42:31.464705 19486 net.cpp:425] conv3_gender_bn <- conv3_gender
I1013 14:42:31.464726 19486 net.cpp:386] conv3_gender_bn -> conv3_gender (in-place)
I1013 14:42:31.464923 19486 net.cpp:141] Setting up conv3_gender_bn
I1013 14:42:31.464936 19486 net.cpp:148] Top shape: 100 300 7 7 (1470000)
I1013 14:42:31.464939 19486 net.cpp:156] Memory required for data: 3669656000
I1013 14:42:31.464949 19486 layer_factory.hpp:77] Creating layer conv3_gender_scale
I1013 14:42:31.464958 19486 net.cpp:91] Creating Layer conv3_gender_scale
I1013 14:42:31.464963 19486 net.cpp:425] conv3_gender_scale <- conv3_gender
I1013 14:42:31.464969 19486 net.cpp:386] conv3_gender_scale -> conv3_gender (in-place)
I1013 14:42:31.465014 19486 layer_factory.hpp:77] Creating layer conv3_gender_scale
I1013 14:42:31.465136 19486 net.cpp:141] Setting up conv3_gender_scale
I1013 14:42:31.465145 19486 net.cpp:148] Top shape: 100 300 7 7 (1470000)
I1013 14:42:31.465149 19486 net.cpp:156] Memory required for data: 3675536000
I1013 14:42:31.465157 19486 layer_factory.hpp:77] Creating layer prelu3_gender
I1013 14:42:31.465164 19486 net.cpp:91] Creating Layer prelu3_gender
I1013 14:42:31.465169 19486 net.cpp:425] prelu3_gender <- conv3_gender
I1013 14:42:31.465175 19486 net.cpp:386] prelu3_gender -> conv3_gender (in-place)
I1013 14:42:31.465281 19486 net.cpp:141] Setting up prelu3_gender
I1013 14:42:31.465291 19486 net.cpp:148] Top shape: 100 300 7 7 (1470000)
I1013 14:42:31.465296 19486 net.cpp:156] Memory required for data: 3681416000
I1013 14:42:31.465301 19486 layer_factory.hpp:77] Creating layer pool3_gender
I1013 14:42:31.465314 19486 net.cpp:91] Creating Layer pool3_gender
I1013 14:42:31.465319 19486 net.cpp:425] pool3_gender <- conv3_gender
I1013 14:42:31.465327 19486 net.cpp:399] pool3_gender -> pool3_gender
I1013 14:42:31.465368 19486 net.cpp:141] Setting up pool3_gender
I1013 14:42:31.465376 19486 net.cpp:148] Top shape: 100 300 4 4 (480000)
I1013 14:42:31.465380 19486 net.cpp:156] Memory required for data: 3683336000
I1013 14:42:31.465384 19486 layer_factory.hpp:77] Creating layer pool3_gender_pool3_gender_0_split
I1013 14:42:31.465391 19486 net.cpp:91] Creating Layer pool3_gender_pool3_gender_0_split
I1013 14:42:31.465396 19486 net.cpp:425] pool3_gender_pool3_gender_0_split <- pool3_gender
I1013 14:42:31.465404 19486 net.cpp:399] pool3_gender_pool3_gender_0_split -> pool3_gender_pool3_gender_0_split_0
I1013 14:42:31.465411 19486 net.cpp:399] pool3_gender_pool3_gender_0_split -> pool3_gender_pool3_gender_0_split_1
I1013 14:42:31.465448 19486 net.cpp:141] Setting up pool3_gender_pool3_gender_0_split
I1013 14:42:31.465461 19486 net.cpp:148] Top shape: 100 300 4 4 (480000)
I1013 14:42:31.465466 19486 net.cpp:148] Top shape: 100 300 4 4 (480000)
I1013 14:42:31.465471 19486 net.cpp:156] Memory required for data: 3687176000
I1013 14:42:31.465474 19486 layer_factory.hpp:77] Creating layer fc1_gender
I1013 14:42:31.465492 19486 net.cpp:91] Creating Layer fc1_gender
I1013 14:42:31.465498 19486 net.cpp:425] fc1_gender <- pool3_gender_pool3_gender_0_split_0
I1013 14:42:31.465507 19486 net.cpp:399] fc1_gender -> fc1_gender
I1013 14:42:31.489771 19486 net.cpp:141] Setting up fc1_gender
I1013 14:42:31.489797 19486 net.cpp:148] Top shape: 100 512 (51200)
I1013 14:42:31.489804 19486 net.cpp:156] Memory required for data: 3687380800
I1013 14:42:31.489812 19486 layer_factory.hpp:77] Creating layer relu1_gender
I1013 14:42:31.489822 19486 net.cpp:91] Creating Layer relu1_gender
I1013 14:42:31.489828 19486 net.cpp:425] relu1_gender <- fc1_gender
I1013 14:42:31.489836 19486 net.cpp:386] relu1_gender -> fc1_gender (in-place)
I1013 14:42:31.489846 19486 net.cpp:141] Setting up relu1_gender
I1013 14:42:31.489852 19486 net.cpp:148] Top shape: 100 512 (51200)
I1013 14:42:31.489856 19486 net.cpp:156] Memory required for data: 3687585600
I1013 14:42:31.489861 19486 layer_factory.hpp:77] Creating layer drop1_gender
I1013 14:42:31.489869 19486 net.cpp:91] Creating Layer drop1_gender
I1013 14:42:31.489873 19486 net.cpp:425] drop1_gender <- fc1_gender
I1013 14:42:31.489879 19486 net.cpp:386] drop1_gender -> fc1_gender (in-place)
I1013 14:42:31.489912 19486 net.cpp:141] Setting up drop1_gender
I1013 14:42:31.489933 19486 net.cpp:148] Top shape: 100 512 (51200)
I1013 14:42:31.489938 19486 net.cpp:156] Memory required for data: 3687790400
I1013 14:42:31.489943 19486 layer_factory.hpp:77] Creating layer fc2_gender
I1013 14:42:31.489953 19486 net.cpp:91] Creating Layer fc2_gender
I1013 14:42:31.489956 19486 net.cpp:425] fc2_gender <- fc1_gender
I1013 14:42:31.489965 19486 net.cpp:399] fc2_gender -> fc2_gender
I1013 14:42:31.492862 19486 net.cpp:141] Setting up fc2_gender
I1013 14:42:31.492879 19486 net.cpp:148] Top shape: 100 512 (51200)
I1013 14:42:31.492884 19486 net.cpp:156] Memory required for data: 3687995200
I1013 14:42:31.492892 19486 layer_factory.hpp:77] Creating layer relu2_gender
I1013 14:42:31.492902 19486 net.cpp:91] Creating Layer relu2_gender
I1013 14:42:31.492907 19486 net.cpp:425] relu2_gender <- fc2_gender
I1013 14:42:31.492913 19486 net.cpp:386] relu2_gender -> fc2_gender (in-place)
I1013 14:42:31.492923 19486 net.cpp:141] Setting up relu2_gender
I1013 14:42:31.492928 19486 net.cpp:148] Top shape: 100 512 (51200)
I1013 14:42:31.492931 19486 net.cpp:156] Memory required for data: 3688200000
I1013 14:42:31.492935 19486 layer_factory.hpp:77] Creating layer drop2_gender
I1013 14:42:31.492943 19486 net.cpp:91] Creating Layer drop2_gender
I1013 14:42:31.492946 19486 net.cpp:425] drop2_gender <- fc2_gender
I1013 14:42:31.492952 19486 net.cpp:386] drop2_gender -> fc2_gender (in-place)
I1013 14:42:31.492980 19486 net.cpp:141] Setting up drop2_gender
I1013 14:42:31.492986 19486 net.cpp:148] Top shape: 100 512 (51200)
I1013 14:42:31.492990 19486 net.cpp:156] Memory required for data: 3688404800
I1013 14:42:31.492995 19486 layer_factory.hpp:77] Creating layer fc2_gender_drop2_gender_0_split
I1013 14:42:31.493001 19486 net.cpp:91] Creating Layer fc2_gender_drop2_gender_0_split
I1013 14:42:31.493005 19486 net.cpp:425] fc2_gender_drop2_gender_0_split <- fc2_gender
I1013 14:42:31.493012 19486 net.cpp:399] fc2_gender_drop2_gender_0_split -> fc2_gender_drop2_gender_0_split_0
I1013 14:42:31.493021 19486 net.cpp:399] fc2_gender_drop2_gender_0_split -> fc2_gender_drop2_gender_0_split_1
I1013 14:42:31.493055 19486 net.cpp:141] Setting up fc2_gender_drop2_gender_0_split
I1013 14:42:31.493062 19486 net.cpp:148] Top shape: 100 512 (51200)
I1013 14:42:31.493067 19486 net.cpp:148] Top shape: 100 512 (51200)
I1013 14:42:31.493070 19486 net.cpp:156] Memory required for data: 3688814400
I1013 14:42:31.493074 19486 layer_factory.hpp:77] Creating layer conv3_nose
I1013 14:42:31.493086 19486 net.cpp:91] Creating Layer conv3_nose
I1013 14:42:31.493091 19486 net.cpp:425] conv3_nose <- pool3_pool3_0_split_1
I1013 14:42:31.493100 19486 net.cpp:399] conv3_nose -> conv3_nose
I1013 14:42:31.503623 19486 net.cpp:141] Setting up conv3_nose
I1013 14:42:31.503641 19486 net.cpp:148] Top shape: 100 300 7 7 (1470000)
I1013 14:42:31.503646 19486 net.cpp:156] Memory required for data: 3694694400
I1013 14:42:31.503654 19486 layer_factory.hpp:77] Creating layer conv3_nose_bn
I1013 14:42:31.503664 19486 net.cpp:91] Creating Layer conv3_nose_bn
I1013 14:42:31.503670 19486 net.cpp:425] conv3_nose_bn <- conv3_nose
I1013 14:42:31.503679 19486 net.cpp:386] conv3_nose_bn -> conv3_nose (in-place)
I1013 14:42:31.503887 19486 net.cpp:141] Setting up conv3_nose_bn
I1013 14:42:31.503900 19486 net.cpp:148] Top shape: 100 300 7 7 (1470000)
I1013 14:42:31.503903 19486 net.cpp:156] Memory required for data: 3700574400
I1013 14:42:31.503914 19486 layer_factory.hpp:77] Creating layer conv3_nose_scale
I1013 14:42:31.503923 19486 net.cpp:91] Creating Layer conv3_nose_scale
I1013 14:42:31.503927 19486 net.cpp:425] conv3_nose_scale <- conv3_nose
I1013 14:42:31.503934 19486 net.cpp:386] conv3_nose_scale -> conv3_nose (in-place)
I1013 14:42:31.503980 19486 layer_factory.hpp:77] Creating layer conv3_nose_scale
I1013 14:42:31.504106 19486 net.cpp:141] Setting up conv3_nose_scale
I1013 14:42:31.504115 19486 net.cpp:148] Top shape: 100 300 7 7 (1470000)
I1013 14:42:31.504119 19486 net.cpp:156] Memory required for data: 3706454400
I1013 14:42:31.504142 19486 layer_factory.hpp:77] Creating layer prelu3_nose
I1013 14:42:31.504150 19486 net.cpp:91] Creating Layer prelu3_nose
I1013 14:42:31.504155 19486 net.cpp:425] prelu3_nose <- conv3_nose
I1013 14:42:31.504161 19486 net.cpp:386] prelu3_nose -> conv3_nose (in-place)
I1013 14:42:31.504281 19486 net.cpp:141] Setting up prelu3_nose
I1013 14:42:31.504292 19486 net.cpp:148] Top shape: 100 300 7 7 (1470000)
I1013 14:42:31.504295 19486 net.cpp:156] Memory required for data: 3712334400
I1013 14:42:31.504302 19486 layer_factory.hpp:77] Creating layer pool3_nose
I1013 14:42:31.504333 19486 net.cpp:91] Creating Layer pool3_nose
I1013 14:42:31.504338 19486 net.cpp:425] pool3_nose <- conv3_nose
I1013 14:42:31.504345 19486 net.cpp:399] pool3_nose -> pool3_nose
I1013 14:42:31.504389 19486 net.cpp:141] Setting up pool3_nose
I1013 14:42:31.504397 19486 net.cpp:148] Top shape: 100 300 4 4 (480000)
I1013 14:42:31.504401 19486 net.cpp:156] Memory required for data: 3714254400
I1013 14:42:31.504405 19486 layer_factory.hpp:77] Creating layer pool3_nose_pool3_nose_0_split
I1013 14:42:31.504412 19486 net.cpp:91] Creating Layer pool3_nose_pool3_nose_0_split
I1013 14:42:31.504417 19486 net.cpp:425] pool3_nose_pool3_nose_0_split <- pool3_nose
I1013 14:42:31.504425 19486 net.cpp:399] pool3_nose_pool3_nose_0_split -> pool3_nose_pool3_nose_0_split_0
I1013 14:42:31.504433 19486 net.cpp:399] pool3_nose_pool3_nose_0_split -> pool3_nose_pool3_nose_0_split_1
I1013 14:42:31.504468 19486 net.cpp:141] Setting up pool3_nose_pool3_nose_0_split
I1013 14:42:31.504482 19486 net.cpp:148] Top shape: 100 300 4 4 (480000)
I1013 14:42:31.504488 19486 net.cpp:148] Top shape: 100 300 4 4 (480000)
I1013 14:42:31.504492 19486 net.cpp:156] Memory required for data: 3718094400
I1013 14:42:31.504497 19486 layer_factory.hpp:77] Creating layer fc1_nose
I1013 14:42:31.504504 19486 net.cpp:91] Creating Layer fc1_nose
I1013 14:42:31.504509 19486 net.cpp:425] fc1_nose <- pool3_nose_pool3_nose_0_split_0
I1013 14:42:31.504518 19486 net.cpp:399] fc1_nose -> fc1_nose
I1013 14:42:31.528749 19486 net.cpp:141] Setting up fc1_nose
I1013 14:42:31.528772 19486 net.cpp:148] Top shape: 100 512 (51200)
I1013 14:42:31.528777 19486 net.cpp:156] Memory required for data: 3718299200
I1013 14:42:31.528786 19486 layer_factory.hpp:77] Creating layer relu1_nose
I1013 14:42:31.528795 19486 net.cpp:91] Creating Layer relu1_nose
I1013 14:42:31.528801 19486 net.cpp:425] relu1_nose <- fc1_nose
I1013 14:42:31.528810 19486 net.cpp:386] relu1_nose -> fc1_nose (in-place)
I1013 14:42:31.528818 19486 net.cpp:141] Setting up relu1_nose
I1013 14:42:31.528825 19486 net.cpp:148] Top shape: 100 512 (51200)
I1013 14:42:31.528828 19486 net.cpp:156] Memory required for data: 3718504000
I1013 14:42:31.528832 19486 layer_factory.hpp:77] Creating layer drop1_nose
I1013 14:42:31.528841 19486 net.cpp:91] Creating Layer drop1_nose
I1013 14:42:31.528844 19486 net.cpp:425] drop1_nose <- fc1_nose
I1013 14:42:31.528851 19486 net.cpp:386] drop1_nose -> fc1_nose (in-place)
I1013 14:42:31.528880 19486 net.cpp:141] Setting up drop1_nose
I1013 14:42:31.528887 19486 net.cpp:148] Top shape: 100 512 (51200)
I1013 14:42:31.528892 19486 net.cpp:156] Memory required for data: 3718708800
I1013 14:42:31.528895 19486 layer_factory.hpp:77] Creating layer fc2_nose
I1013 14:42:31.528903 19486 net.cpp:91] Creating Layer fc2_nose
I1013 14:42:31.528908 19486 net.cpp:425] fc2_nose <- fc1_nose
I1013 14:42:31.528915 19486 net.cpp:399] fc2_nose -> fc2_nose
I1013 14:42:31.531800 19486 net.cpp:141] Setting up fc2_nose
I1013 14:42:31.531823 19486 net.cpp:148] Top shape: 100 512 (51200)
I1013 14:42:31.531828 19486 net.cpp:156] Memory required for data: 3718913600
I1013 14:42:31.531836 19486 layer_factory.hpp:77] Creating layer relu2_nose
I1013 14:42:31.531846 19486 net.cpp:91] Creating Layer relu2_nose
I1013 14:42:31.531850 19486 net.cpp:425] relu2_nose <- fc2_nose
I1013 14:42:31.531857 19486 net.cpp:386] relu2_nose -> fc2_nose (in-place)
I1013 14:42:31.531867 19486 net.cpp:141] Setting up relu2_nose
I1013 14:42:31.531872 19486 net.cpp:148] Top shape: 100 512 (51200)
I1013 14:42:31.531890 19486 net.cpp:156] Memory required for data: 3719118400
I1013 14:42:31.531895 19486 layer_factory.hpp:77] Creating layer drop2_nose
I1013 14:42:31.531903 19486 net.cpp:91] Creating Layer drop2_nose
I1013 14:42:31.531908 19486 net.cpp:425] drop2_nose <- fc2_nose
I1013 14:42:31.531914 19486 net.cpp:386] drop2_nose -> fc2_nose (in-place)
I1013 14:42:31.531942 19486 net.cpp:141] Setting up drop2_nose
I1013 14:42:31.531950 19486 net.cpp:148] Top shape: 100 512 (51200)
I1013 14:42:31.531955 19486 net.cpp:156] Memory required for data: 3719323200
I1013 14:42:31.531957 19486 layer_factory.hpp:77] Creating layer fc2_nose_drop2_nose_0_split
I1013 14:42:31.531965 19486 net.cpp:91] Creating Layer fc2_nose_drop2_nose_0_split
I1013 14:42:31.531970 19486 net.cpp:425] fc2_nose_drop2_nose_0_split <- fc2_nose
I1013 14:42:31.531976 19486 net.cpp:399] fc2_nose_drop2_nose_0_split -> fc2_nose_drop2_nose_0_split_0
I1013 14:42:31.531985 19486 net.cpp:399] fc2_nose_drop2_nose_0_split -> fc2_nose_drop2_nose_0_split_1
I1013 14:42:31.531993 19486 net.cpp:399] fc2_nose_drop2_nose_0_split -> fc2_nose_drop2_nose_0_split_2
I1013 14:42:31.532042 19486 net.cpp:141] Setting up fc2_nose_drop2_nose_0_split
I1013 14:42:31.532049 19486 net.cpp:148] Top shape: 100 512 (51200)
I1013 14:42:31.532054 19486 net.cpp:148] Top shape: 100 512 (51200)
I1013 14:42:31.532059 19486 net.cpp:148] Top shape: 100 512 (51200)
I1013 14:42:31.532063 19486 net.cpp:156] Memory required for data: 3719937600
I1013 14:42:31.532066 19486 layer_factory.hpp:77] Creating layer conv3_mouth
I1013 14:42:31.532079 19486 net.cpp:91] Creating Layer conv3_mouth
I1013 14:42:31.532085 19486 net.cpp:425] conv3_mouth <- pool3_pool3_0_split_2
I1013 14:42:31.532095 19486 net.cpp:399] conv3_mouth -> conv3_mouth
I1013 14:42:31.542611 19486 net.cpp:141] Setting up conv3_mouth
I1013 14:42:31.542631 19486 net.cpp:148] Top shape: 100 300 7 7 (1470000)
I1013 14:42:31.542636 19486 net.cpp:156] Memory required for data: 3725817600
I1013 14:42:31.542660 19486 layer_factory.hpp:77] Creating layer conv3_mouth_bn
I1013 14:42:31.542670 19486 net.cpp:91] Creating Layer conv3_mouth_bn
I1013 14:42:31.542676 19486 net.cpp:425] conv3_mouth_bn <- conv3_mouth
I1013 14:42:31.542683 19486 net.cpp:386] conv3_mouth_bn -> conv3_mouth (in-place)
I1013 14:42:31.542891 19486 net.cpp:141] Setting up conv3_mouth_bn
I1013 14:42:31.542901 19486 net.cpp:148] Top shape: 100 300 7 7 (1470000)
I1013 14:42:31.542906 19486 net.cpp:156] Memory required for data: 3731697600
I1013 14:42:31.542915 19486 layer_factory.hpp:77] Creating layer conv3_mouth_scale
I1013 14:42:31.542925 19486 net.cpp:91] Creating Layer conv3_mouth_scale
I1013 14:42:31.542930 19486 net.cpp:425] conv3_mouth_scale <- conv3_mouth
I1013 14:42:31.542937 19486 net.cpp:386] conv3_mouth_scale -> conv3_mouth (in-place)
I1013 14:42:31.542984 19486 layer_factory.hpp:77] Creating layer conv3_mouth_scale
I1013 14:42:31.543112 19486 net.cpp:141] Setting up conv3_mouth_scale
I1013 14:42:31.543123 19486 net.cpp:148] Top shape: 100 300 7 7 (1470000)
I1013 14:42:31.543126 19486 net.cpp:156] Memory required for data: 3737577600
I1013 14:42:31.543133 19486 layer_factory.hpp:77] Creating layer prelu3_mouth
I1013 14:42:31.543141 19486 net.cpp:91] Creating Layer prelu3_mouth
I1013 14:42:31.543146 19486 net.cpp:425] prelu3_mouth <- conv3_mouth
I1013 14:42:31.543153 19486 net.cpp:386] prelu3_mouth -> conv3_mouth (in-place)
I1013 14:42:31.543270 19486 net.cpp:141] Setting up prelu3_mouth
I1013 14:42:31.543280 19486 net.cpp:148] Top shape: 100 300 7 7 (1470000)
I1013 14:42:31.543285 19486 net.cpp:156] Memory required for data: 3743457600
I1013 14:42:31.543292 19486 layer_factory.hpp:77] Creating layer pool3_mouth
I1013 14:42:31.543299 19486 net.cpp:91] Creating Layer pool3_mouth
I1013 14:42:31.543304 19486 net.cpp:425] pool3_mouth <- conv3_mouth
I1013 14:42:31.543311 19486 net.cpp:399] pool3_mouth -> pool3_mouth
I1013 14:42:31.543352 19486 net.cpp:141] Setting up pool3_mouth
I1013 14:42:31.543361 19486 net.cpp:148] Top shape: 100 300 4 4 (480000)
I1013 14:42:31.543377 19486 net.cpp:156] Memory required for data: 3745377600
I1013 14:42:31.543382 19486 layer_factory.hpp:77] Creating layer pool3_mouth_pool3_mouth_0_split
I1013 14:42:31.543390 19486 net.cpp:91] Creating Layer pool3_mouth_pool3_mouth_0_split
I1013 14:42:31.543395 19486 net.cpp:425] pool3_mouth_pool3_mouth_0_split <- pool3_mouth
I1013 14:42:31.543402 19486 net.cpp:399] pool3_mouth_pool3_mouth_0_split -> pool3_mouth_pool3_mouth_0_split_0
I1013 14:42:31.543411 19486 net.cpp:399] pool3_mouth_pool3_mouth_0_split -> pool3_mouth_pool3_mouth_0_split_1
I1013 14:42:31.543448 19486 net.cpp:141] Setting up pool3_mouth_pool3_mouth_0_split
I1013 14:42:31.543463 19486 net.cpp:148] Top shape: 100 300 4 4 (480000)
I1013 14:42:31.543469 19486 net.cpp:148] Top shape: 100 300 4 4 (480000)
I1013 14:42:31.543473 19486 net.cpp:156] Memory required for data: 3749217600
I1013 14:42:31.543478 19486 layer_factory.hpp:77] Creating layer fc1_mouth
I1013 14:42:31.543485 19486 net.cpp:91] Creating Layer fc1_mouth
I1013 14:42:31.543490 19486 net.cpp:425] fc1_mouth <- pool3_mouth_pool3_mouth_0_split_0
I1013 14:42:31.543499 19486 net.cpp:399] fc1_mouth -> fc1_mouth
I1013 14:42:31.567705 19486 net.cpp:141] Setting up fc1_mouth
I1013 14:42:31.567728 19486 net.cpp:148] Top shape: 100 512 (51200)
I1013 14:42:31.567734 19486 net.cpp:156] Memory required for data: 3749422400
I1013 14:42:31.567742 19486 layer_factory.hpp:77] Creating layer relu1_mouth
I1013 14:42:31.567751 19486 net.cpp:91] Creating Layer relu1_mouth
I1013 14:42:31.567757 19486 net.cpp:425] relu1_mouth <- fc1_mouth
I1013 14:42:31.567764 19486 net.cpp:386] relu1_mouth -> fc1_mouth (in-place)
I1013 14:42:31.567775 19486 net.cpp:141] Setting up relu1_mouth
I1013 14:42:31.567780 19486 net.cpp:148] Top shape: 100 512 (51200)
I1013 14:42:31.567785 19486 net.cpp:156] Memory required for data: 3749627200
I1013 14:42:31.567788 19486 layer_factory.hpp:77] Creating layer drop1_mouth
I1013 14:42:31.567796 19486 net.cpp:91] Creating Layer drop1_mouth
I1013 14:42:31.567801 19486 net.cpp:425] drop1_mouth <- fc1_mouth
I1013 14:42:31.567812 19486 net.cpp:386] drop1_mouth -> fc1_mouth (in-place)
I1013 14:42:31.567842 19486 net.cpp:141] Setting up drop1_mouth
I1013 14:42:31.567849 19486 net.cpp:148] Top shape: 100 512 (51200)
I1013 14:42:31.567852 19486 net.cpp:156] Memory required for data: 3749832000
I1013 14:42:31.567857 19486 layer_factory.hpp:77] Creating layer fc2_mouth
I1013 14:42:31.567867 19486 net.cpp:91] Creating Layer fc2_mouth
I1013 14:42:31.567870 19486 net.cpp:425] fc2_mouth <- fc1_mouth
I1013 14:42:31.567878 19486 net.cpp:399] fc2_mouth -> fc2_mouth
I1013 14:42:31.571696 19486 net.cpp:141] Setting up fc2_mouth
I1013 14:42:31.571712 19486 net.cpp:148] Top shape: 100 512 (51200)
I1013 14:42:31.571717 19486 net.cpp:156] Memory required for data: 3750036800
I1013 14:42:31.571725 19486 layer_factory.hpp:77] Creating layer relu2_mouth
I1013 14:42:31.571743 19486 net.cpp:91] Creating Layer relu2_mouth
I1013 14:42:31.571748 19486 net.cpp:425] relu2_mouth <- fc2_mouth
I1013 14:42:31.571756 19486 net.cpp:386] relu2_mouth -> fc2_mouth (in-place)
I1013 14:42:31.571765 19486 net.cpp:141] Setting up relu2_mouth
I1013 14:42:31.571770 19486 net.cpp:148] Top shape: 100 512 (51200)
I1013 14:42:31.571774 19486 net.cpp:156] Memory required for data: 3750241600
I1013 14:42:31.571779 19486 layer_factory.hpp:77] Creating layer drop2_mouth
I1013 14:42:31.571785 19486 net.cpp:91] Creating Layer drop2_mouth
I1013 14:42:31.571790 19486 net.cpp:425] drop2_mouth <- fc2_mouth
I1013 14:42:31.571797 19486 net.cpp:386] drop2_mouth -> fc2_mouth (in-place)
I1013 14:42:31.571830 19486 net.cpp:141] Setting up drop2_mouth
I1013 14:42:31.571837 19486 net.cpp:148] Top shape: 100 512 (51200)
I1013 14:42:31.571842 19486 net.cpp:156] Memory required for data: 3750446400
I1013 14:42:31.571846 19486 layer_factory.hpp:77] Creating layer fc2_mouth_drop2_mouth_0_split
I1013 14:42:31.571853 19486 net.cpp:91] Creating Layer fc2_mouth_drop2_mouth_0_split
I1013 14:42:31.571858 19486 net.cpp:425] fc2_mouth_drop2_mouth_0_split <- fc2_mouth
I1013 14:42:31.571880 19486 net.cpp:399] fc2_mouth_drop2_mouth_0_split -> fc2_mouth_drop2_mouth_0_split_0
I1013 14:42:31.571890 19486 net.cpp:399] fc2_mouth_drop2_mouth_0_split -> fc2_mouth_drop2_mouth_0_split_1
I1013 14:42:31.571898 19486 net.cpp:399] fc2_mouth_drop2_mouth_0_split -> fc2_mouth_drop2_mouth_0_split_2
I1013 14:42:31.571907 19486 net.cpp:399] fc2_mouth_drop2_mouth_0_split -> fc2_mouth_drop2_mouth_0_split_3
I1013 14:42:31.571913 19486 net.cpp:399] fc2_mouth_drop2_mouth_0_split -> fc2_mouth_drop2_mouth_0_split_4
I1013 14:42:31.571988 19486 net.cpp:141] Setting up fc2_mouth_drop2_mouth_0_split
I1013 14:42:31.572000 19486 net.cpp:148] Top shape: 100 512 (51200)
I1013 14:42:31.572005 19486 net.cpp:148] Top shape: 100 512 (51200)
I1013 14:42:31.572010 19486 net.cpp:148] Top shape: 100 512 (51200)
I1013 14:42:31.572015 19486 net.cpp:148] Top shape: 100 512 (51200)
I1013 14:42:31.572019 19486 net.cpp:148] Top shape: 100 512 (51200)
I1013 14:42:31.572023 19486 net.cpp:156] Memory required for data: 3751470400
I1013 14:42:31.572027 19486 layer_factory.hpp:77] Creating layer conv3_eyes
I1013 14:42:31.572041 19486 net.cpp:91] Creating Layer conv3_eyes
I1013 14:42:31.572047 19486 net.cpp:425] conv3_eyes <- pool3_pool3_0_split_3
I1013 14:42:31.572057 19486 net.cpp:399] conv3_eyes -> conv3_eyes
I1013 14:42:31.582602 19486 net.cpp:141] Setting up conv3_eyes
I1013 14:42:31.582622 19486 net.cpp:148] Top shape: 100 300 7 7 (1470000)
I1013 14:42:31.582628 19486 net.cpp:156] Memory required for data: 3757350400
I1013 14:42:31.582635 19486 layer_factory.hpp:77] Creating layer conv3_eyes_bn
I1013 14:42:31.582645 19486 net.cpp:91] Creating Layer conv3_eyes_bn
I1013 14:42:31.582650 19486 net.cpp:425] conv3_eyes_bn <- conv3_eyes
I1013 14:42:31.582659 19486 net.cpp:386] conv3_eyes_bn -> conv3_eyes (in-place)
I1013 14:42:31.582865 19486 net.cpp:141] Setting up conv3_eyes_bn
I1013 14:42:31.582876 19486 net.cpp:148] Top shape: 100 300 7 7 (1470000)
I1013 14:42:31.582881 19486 net.cpp:156] Memory required for data: 3763230400
I1013 14:42:31.582890 19486 layer_factory.hpp:77] Creating layer conv3_eyes_scale
I1013 14:42:31.582901 19486 net.cpp:91] Creating Layer conv3_eyes_scale
I1013 14:42:31.582904 19486 net.cpp:425] conv3_eyes_scale <- conv3_eyes
I1013 14:42:31.582911 19486 net.cpp:386] conv3_eyes_scale -> conv3_eyes (in-place)
I1013 14:42:31.582957 19486 layer_factory.hpp:77] Creating layer conv3_eyes_scale
I1013 14:42:31.583086 19486 net.cpp:141] Setting up conv3_eyes_scale
I1013 14:42:31.583096 19486 net.cpp:148] Top shape: 100 300 7 7 (1470000)
I1013 14:42:31.583101 19486 net.cpp:156] Memory required for data: 3769110400
I1013 14:42:31.583107 19486 layer_factory.hpp:77] Creating layer prelu3_eyes
I1013 14:42:31.583115 19486 net.cpp:91] Creating Layer prelu3_eyes
I1013 14:42:31.583119 19486 net.cpp:425] prelu3_eyes <- conv3_eyes
I1013 14:42:31.583127 19486 net.cpp:386] prelu3_eyes -> conv3_eyes (in-place)
I1013 14:42:31.583245 19486 net.cpp:141] Setting up prelu3_eyes
I1013 14:42:31.583256 19486 net.cpp:148] Top shape: 100 300 7 7 (1470000)
I1013 14:42:31.583259 19486 net.cpp:156] Memory required for data: 3774990400
I1013 14:42:31.583264 19486 layer_factory.hpp:77] Creating layer pool3_eyes
I1013 14:42:31.583273 19486 net.cpp:91] Creating Layer pool3_eyes
I1013 14:42:31.583278 19486 net.cpp:425] pool3_eyes <- conv3_eyes
I1013 14:42:31.583286 19486 net.cpp:399] pool3_eyes -> pool3_eyes
I1013 14:42:31.583328 19486 net.cpp:141] Setting up pool3_eyes
I1013 14:42:31.583336 19486 net.cpp:148] Top shape: 100 300 4 4 (480000)
I1013 14:42:31.583340 19486 net.cpp:156] Memory required for data: 3776910400
I1013 14:42:31.583344 19486 layer_factory.hpp:77] Creating layer pool3_eyes_pool3_eyes_0_split
I1013 14:42:31.583350 19486 net.cpp:91] Creating Layer pool3_eyes_pool3_eyes_0_split
I1013 14:42:31.583355 19486 net.cpp:425] pool3_eyes_pool3_eyes_0_split <- pool3_eyes
I1013 14:42:31.583362 19486 net.cpp:399] pool3_eyes_pool3_eyes_0_split -> pool3_eyes_pool3_eyes_0_split_0
I1013 14:42:31.583370 19486 net.cpp:399] pool3_eyes_pool3_eyes_0_split -> pool3_eyes_pool3_eyes_0_split_1
I1013 14:42:31.583423 19486 net.cpp:141] Setting up pool3_eyes_pool3_eyes_0_split
I1013 14:42:31.583434 19486 net.cpp:148] Top shape: 100 300 4 4 (480000)
I1013 14:42:31.583441 19486 net.cpp:148] Top shape: 100 300 4 4 (480000)
I1013 14:42:31.583444 19486 net.cpp:156] Memory required for data: 3780750400
I1013 14:42:31.583448 19486 layer_factory.hpp:77] Creating layer fc1_eyes
I1013 14:42:31.583457 19486 net.cpp:91] Creating Layer fc1_eyes
I1013 14:42:31.583462 19486 net.cpp:425] fc1_eyes <- pool3_eyes_pool3_eyes_0_split_0
I1013 14:42:31.583472 19486 net.cpp:399] fc1_eyes -> fc1_eyes
I1013 14:42:31.607750 19486 net.cpp:141] Setting up fc1_eyes
I1013 14:42:31.607774 19486 net.cpp:148] Top shape: 100 512 (51200)
I1013 14:42:31.607779 19486 net.cpp:156] Memory required for data: 3780955200
I1013 14:42:31.607789 19486 layer_factory.hpp:77] Creating layer relu1_eyes
I1013 14:42:31.607797 19486 net.cpp:91] Creating Layer relu1_eyes
I1013 14:42:31.607803 19486 net.cpp:425] relu1_eyes <- fc1_eyes
I1013 14:42:31.607815 19486 net.cpp:386] relu1_eyes -> fc1_eyes (in-place)
I1013 14:42:31.607825 19486 net.cpp:141] Setting up relu1_eyes
I1013 14:42:31.607831 19486 net.cpp:148] Top shape: 100 512 (51200)
I1013 14:42:31.607836 19486 net.cpp:156] Memory required for data: 3781160000
I1013 14:42:31.607839 19486 layer_factory.hpp:77] Creating layer drop1_eyes
I1013 14:42:31.607847 19486 net.cpp:91] Creating Layer drop1_eyes
I1013 14:42:31.607851 19486 net.cpp:425] drop1_eyes <- fc1_eyes
I1013 14:42:31.607858 19486 net.cpp:386] drop1_eyes -> fc1_eyes (in-place)
I1013 14:42:31.607887 19486 net.cpp:141] Setting up drop1_eyes
I1013 14:42:31.607894 19486 net.cpp:148] Top shape: 100 512 (51200)
I1013 14:42:31.607898 19486 net.cpp:156] Memory required for data: 3781364800
I1013 14:42:31.607903 19486 layer_factory.hpp:77] Creating layer fc2_eyes
I1013 14:42:31.607910 19486 net.cpp:91] Creating Layer fc2_eyes
I1013 14:42:31.607914 19486 net.cpp:425] fc2_eyes <- fc1_eyes
I1013 14:42:31.607923 19486 net.cpp:399] fc2_eyes -> fc2_eyes
I1013 14:42:31.610821 19486 net.cpp:141] Setting up fc2_eyes
I1013 14:42:31.610838 19486 net.cpp:148] Top shape: 100 512 (51200)
I1013 14:42:31.610843 19486 net.cpp:156] Memory required for data: 3781569600
I1013 14:42:31.610852 19486 layer_factory.hpp:77] Creating layer relu2_eyes
I1013 14:42:31.610859 19486 net.cpp:91] Creating Layer relu2_eyes
I1013 14:42:31.610864 19486 net.cpp:425] relu2_eyes <- fc2_eyes
I1013 14:42:31.610870 19486 net.cpp:386] relu2_eyes -> fc2_eyes (in-place)
I1013 14:42:31.610879 19486 net.cpp:141] Setting up relu2_eyes
I1013 14:42:31.610884 19486 net.cpp:148] Top shape: 100 512 (51200)
I1013 14:42:31.610888 19486 net.cpp:156] Memory required for data: 3781774400
I1013 14:42:31.610893 19486 layer_factory.hpp:77] Creating layer drop2_eyes
I1013 14:42:31.610899 19486 net.cpp:91] Creating Layer drop2_eyes
I1013 14:42:31.610903 19486 net.cpp:425] drop2_eyes <- fc2_eyes
I1013 14:42:31.610910 19486 net.cpp:386] drop2_eyes -> fc2_eyes (in-place)
I1013 14:42:31.610937 19486 net.cpp:141] Setting up drop2_eyes
I1013 14:42:31.610944 19486 net.cpp:148] Top shape: 100 512 (51200)
I1013 14:42:31.610949 19486 net.cpp:156] Memory required for data: 3781979200
I1013 14:42:31.610952 19486 layer_factory.hpp:77] Creating layer fc2_eyes_drop2_eyes_0_split
I1013 14:42:31.610960 19486 net.cpp:91] Creating Layer fc2_eyes_drop2_eyes_0_split
I1013 14:42:31.610963 19486 net.cpp:425] fc2_eyes_drop2_eyes_0_split <- fc2_eyes
I1013 14:42:31.610970 19486 net.cpp:399] fc2_eyes_drop2_eyes_0_split -> fc2_eyes_drop2_eyes_0_split_0
I1013 14:42:31.610980 19486 net.cpp:399] fc2_eyes_drop2_eyes_0_split -> fc2_eyes_drop2_eyes_0_split_1
I1013 14:42:31.610988 19486 net.cpp:399] fc2_eyes_drop2_eyes_0_split -> fc2_eyes_drop2_eyes_0_split_2
I1013 14:42:31.610996 19486 net.cpp:399] fc2_eyes_drop2_eyes_0_split -> fc2_eyes_drop2_eyes_0_split_3
I1013 14:42:31.611004 19486 net.cpp:399] fc2_eyes_drop2_eyes_0_split -> fc2_eyes_drop2_eyes_0_split_4
I1013 14:42:31.611011 19486 net.cpp:399] fc2_eyes_drop2_eyes_0_split -> fc2_eyes_drop2_eyes_0_split_5
I1013 14:42:31.611112 19486 net.cpp:141] Setting up fc2_eyes_drop2_eyes_0_split
I1013 14:42:31.611124 19486 net.cpp:148] Top shape: 100 512 (51200)
I1013 14:42:31.611129 19486 net.cpp:148] Top shape: 100 512 (51200)
I1013 14:42:31.611135 19486 net.cpp:148] Top shape: 100 512 (51200)
I1013 14:42:31.611140 19486 net.cpp:148] Top shape: 100 512 (51200)
I1013 14:42:31.611145 19486 net.cpp:148] Top shape: 100 512 (51200)
I1013 14:42:31.611150 19486 net.cpp:148] Top shape: 100 512 (51200)
I1013 14:42:31.611152 19486 net.cpp:156] Memory required for data: 3783208000
I1013 14:42:31.611156 19486 layer_factory.hpp:77] Creating layer conv3_face
I1013 14:42:31.611171 19486 net.cpp:91] Creating Layer conv3_face
I1013 14:42:31.611176 19486 net.cpp:425] conv3_face <- pool3_pool3_0_split_4
I1013 14:42:31.611186 19486 net.cpp:399] conv3_face -> conv3_face
I1013 14:42:31.621736 19486 net.cpp:141] Setting up conv3_face
I1013 14:42:31.621754 19486 net.cpp:148] Top shape: 100 300 7 7 (1470000)
I1013 14:42:31.621759 19486 net.cpp:156] Memory required for data: 3789088000
I1013 14:42:31.621767 19486 layer_factory.hpp:77] Creating layer conv3_face_bn
I1013 14:42:31.621776 19486 net.cpp:91] Creating Layer conv3_face_bn
I1013 14:42:31.621783 19486 net.cpp:425] conv3_face_bn <- conv3_face
I1013 14:42:31.621789 19486 net.cpp:386] conv3_face_bn -> conv3_face (in-place)
I1013 14:42:31.622004 19486 net.cpp:141] Setting up conv3_face_bn
I1013 14:42:31.622015 19486 net.cpp:148] Top shape: 100 300 7 7 (1470000)
I1013 14:42:31.622020 19486 net.cpp:156] Memory required for data: 3794968000
I1013 14:42:31.622030 19486 layer_factory.hpp:77] Creating layer conv3_face_scale
I1013 14:42:31.622040 19486 net.cpp:91] Creating Layer conv3_face_scale
I1013 14:42:31.622045 19486 net.cpp:425] conv3_face_scale <- conv3_face
I1013 14:42:31.622052 19486 net.cpp:386] conv3_face_scale -> conv3_face (in-place)
I1013 14:42:31.622100 19486 layer_factory.hpp:77] Creating layer conv3_face_scale
I1013 14:42:31.622231 19486 net.cpp:141] Setting up conv3_face_scale
I1013 14:42:31.622241 19486 net.cpp:148] Top shape: 100 300 7 7 (1470000)
I1013 14:42:31.622246 19486 net.cpp:156] Memory required for data: 3800848000
I1013 14:42:31.622253 19486 layer_factory.hpp:77] Creating layer prelu3_face
I1013 14:42:31.622262 19486 net.cpp:91] Creating Layer prelu3_face
I1013 14:42:31.622267 19486 net.cpp:425] prelu3_face <- conv3_face
I1013 14:42:31.622272 19486 net.cpp:386] prelu3_face -> conv3_face (in-place)
I1013 14:42:31.622393 19486 net.cpp:141] Setting up prelu3_face
I1013 14:42:31.622403 19486 net.cpp:148] Top shape: 100 300 7 7 (1470000)
I1013 14:42:31.622407 19486 net.cpp:156] Memory required for data: 3806728000
I1013 14:42:31.622413 19486 layer_factory.hpp:77] Creating layer pool3_face
I1013 14:42:31.622421 19486 net.cpp:91] Creating Layer pool3_face
I1013 14:42:31.622426 19486 net.cpp:425] pool3_face <- conv3_face
I1013 14:42:31.622434 19486 net.cpp:399] pool3_face -> pool3_face
I1013 14:42:31.622478 19486 net.cpp:141] Setting up pool3_face
I1013 14:42:31.622488 19486 net.cpp:148] Top shape: 100 300 4 4 (480000)
I1013 14:42:31.622491 19486 net.cpp:156] Memory required for data: 3808648000
I1013 14:42:31.622495 19486 layer_factory.hpp:77] Creating layer pool3_face_pool3_face_0_split
I1013 14:42:31.622503 19486 net.cpp:91] Creating Layer pool3_face_pool3_face_0_split
I1013 14:42:31.622508 19486 net.cpp:425] pool3_face_pool3_face_0_split <- pool3_face
I1013 14:42:31.622515 19486 net.cpp:399] pool3_face_pool3_face_0_split -> pool3_face_pool3_face_0_split_0
I1013 14:42:31.622524 19486 net.cpp:399] pool3_face_pool3_face_0_split -> pool3_face_pool3_face_0_split_1
I1013 14:42:31.622561 19486 net.cpp:141] Setting up pool3_face_pool3_face_0_split
I1013 14:42:31.622572 19486 net.cpp:148] Top shape: 100 300 4 4 (480000)
I1013 14:42:31.622578 19486 net.cpp:148] Top shape: 100 300 4 4 (480000)
I1013 14:42:31.622581 19486 net.cpp:156] Memory required for data: 3812488000
I1013 14:42:31.622586 19486 layer_factory.hpp:77] Creating layer fc1_face
I1013 14:42:31.622607 19486 net.cpp:91] Creating Layer fc1_face
I1013 14:42:31.622614 19486 net.cpp:425] fc1_face <- pool3_face_pool3_face_0_split_0
I1013 14:42:31.622623 19486 net.cpp:399] fc1_face -> fc1_face
I1013 14:42:31.646899 19486 net.cpp:141] Setting up fc1_face
I1013 14:42:31.646920 19486 net.cpp:148] Top shape: 100 512 (51200)
I1013 14:42:31.646925 19486 net.cpp:156] Memory required for data: 3812692800
I1013 14:42:31.646934 19486 layer_factory.hpp:77] Creating layer relu1_face
I1013 14:42:31.646944 19486 net.cpp:91] Creating Layer relu1_face
I1013 14:42:31.646950 19486 net.cpp:425] relu1_face <- fc1_face
I1013 14:42:31.646957 19486 net.cpp:386] relu1_face -> fc1_face (in-place)
I1013 14:42:31.646966 19486 net.cpp:141] Setting up relu1_face
I1013 14:42:31.646972 19486 net.cpp:148] Top shape: 100 512 (51200)
I1013 14:42:31.646976 19486 net.cpp:156] Memory required for data: 3812897600
I1013 14:42:31.646981 19486 layer_factory.hpp:77] Creating layer drop1_face
I1013 14:42:31.646987 19486 net.cpp:91] Creating Layer drop1_face
I1013 14:42:31.646992 19486 net.cpp:425] drop1_face <- fc1_face
I1013 14:42:31.646999 19486 net.cpp:386] drop1_face -> fc1_face (in-place)
I1013 14:42:31.647028 19486 net.cpp:141] Setting up drop1_face
I1013 14:42:31.647035 19486 net.cpp:148] Top shape: 100 512 (51200)
I1013 14:42:31.647039 19486 net.cpp:156] Memory required for data: 3813102400
I1013 14:42:31.647043 19486 layer_factory.hpp:77] Creating layer fc2_face
I1013 14:42:31.647053 19486 net.cpp:91] Creating Layer fc2_face
I1013 14:42:31.647058 19486 net.cpp:425] fc2_face <- fc1_face
I1013 14:42:31.647064 19486 net.cpp:399] fc2_face -> fc2_face
I1013 14:42:31.649967 19486 net.cpp:141] Setting up fc2_face
I1013 14:42:31.649984 19486 net.cpp:148] Top shape: 100 512 (51200)
I1013 14:42:31.649989 19486 net.cpp:156] Memory required for data: 3813307200
I1013 14:42:31.649997 19486 layer_factory.hpp:77] Creating layer relu2_face
I1013 14:42:31.650005 19486 net.cpp:91] Creating Layer relu2_face
I1013 14:42:31.650012 19486 net.cpp:425] relu2_face <- fc2_face
I1013 14:42:31.650018 19486 net.cpp:386] relu2_face -> fc2_face (in-place)
I1013 14:42:31.650027 19486 net.cpp:141] Setting up relu2_face
I1013 14:42:31.650032 19486 net.cpp:148] Top shape: 100 512 (51200)
I1013 14:42:31.650035 19486 net.cpp:156] Memory required for data: 3813512000
I1013 14:42:31.650039 19486 layer_factory.hpp:77] Creating layer drop2_face
I1013 14:42:31.650046 19486 net.cpp:91] Creating Layer drop2_face
I1013 14:42:31.650051 19486 net.cpp:425] drop2_face <- fc2_face
I1013 14:42:31.650058 19486 net.cpp:386] drop2_face -> fc2_face (in-place)
I1013 14:42:31.650084 19486 net.cpp:141] Setting up drop2_face
I1013 14:42:31.650091 19486 net.cpp:148] Top shape: 100 512 (51200)
I1013 14:42:31.650095 19486 net.cpp:156] Memory required for data: 3813716800
I1013 14:42:31.650099 19486 layer_factory.hpp:77] Creating layer fc2_face_drop2_face_0_split
I1013 14:42:31.650108 19486 net.cpp:91] Creating Layer fc2_face_drop2_face_0_split
I1013 14:42:31.650112 19486 net.cpp:425] fc2_face_drop2_face_0_split <- fc2_face
I1013 14:42:31.650120 19486 net.cpp:399] fc2_face_drop2_face_0_split -> fc2_face_drop2_face_0_split_0
I1013 14:42:31.650130 19486 net.cpp:399] fc2_face_drop2_face_0_split -> fc2_face_drop2_face_0_split_1
I1013 14:42:31.650137 19486 net.cpp:399] fc2_face_drop2_face_0_split -> fc2_face_drop2_face_0_split_2
I1013 14:42:31.650146 19486 net.cpp:399] fc2_face_drop2_face_0_split -> fc2_face_drop2_face_0_split_3
I1013 14:42:31.650153 19486 net.cpp:399] fc2_face_drop2_face_0_split -> fc2_face_drop2_face_0_split_4
I1013 14:42:31.650161 19486 net.cpp:399] fc2_face_drop2_face_0_split -> fc2_face_drop2_face_0_split_5
I1013 14:42:31.650168 19486 net.cpp:399] fc2_face_drop2_face_0_split -> fc2_face_drop2_face_0_split_6
I1013 14:42:31.650265 19486 net.cpp:141] Setting up fc2_face_drop2_face_0_split
I1013 14:42:31.650274 19486 net.cpp:148] Top shape: 100 512 (51200)
I1013 14:42:31.650280 19486 net.cpp:148] Top shape: 100 512 (51200)
I1013 14:42:31.650285 19486 net.cpp:148] Top shape: 100 512 (51200)
I1013 14:42:31.650305 19486 net.cpp:148] Top shape: 100 512 (51200)
I1013 14:42:31.650310 19486 net.cpp:148] Top shape: 100 512 (51200)
I1013 14:42:31.650315 19486 net.cpp:148] Top shape: 100 512 (51200)
I1013 14:42:31.650319 19486 net.cpp:148] Top shape: 100 512 (51200)
I1013 14:42:31.650323 19486 net.cpp:156] Memory required for data: 3815150400
I1013 14:42:31.650327 19486 layer_factory.hpp:77] Creating layer conv3_rest
I1013 14:42:31.650341 19486 net.cpp:91] Creating Layer conv3_rest
I1013 14:42:31.650347 19486 net.cpp:425] conv3_rest <- pool3_pool3_0_split_5
I1013 14:42:31.650357 19486 net.cpp:399] conv3_rest -> conv3_rest
I1013 14:42:31.660943 19486 net.cpp:141] Setting up conv3_rest
I1013 14:42:31.660961 19486 net.cpp:148] Top shape: 100 300 7 7 (1470000)
I1013 14:42:31.660966 19486 net.cpp:156] Memory required for data: 3821030400
I1013 14:42:31.660974 19486 layer_factory.hpp:77] Creating layer conv3_rest_bn
I1013 14:42:31.660985 19486 net.cpp:91] Creating Layer conv3_rest_bn
I1013 14:42:31.660991 19486 net.cpp:425] conv3_rest_bn <- conv3_rest
I1013 14:42:31.661000 19486 net.cpp:386] conv3_rest_bn -> conv3_rest (in-place)
I1013 14:42:31.661219 19486 net.cpp:141] Setting up conv3_rest_bn
I1013 14:42:31.661229 19486 net.cpp:148] Top shape: 100 300 7 7 (1470000)
I1013 14:42:31.661234 19486 net.cpp:156] Memory required for data: 3826910400
I1013 14:42:31.661244 19486 layer_factory.hpp:77] Creating layer conv3_rest_scale
I1013 14:42:31.661253 19486 net.cpp:91] Creating Layer conv3_rest_scale
I1013 14:42:31.661258 19486 net.cpp:425] conv3_rest_scale <- conv3_rest
I1013 14:42:31.661265 19486 net.cpp:386] conv3_rest_scale -> conv3_rest (in-place)
I1013 14:42:31.661315 19486 layer_factory.hpp:77] Creating layer conv3_rest_scale
I1013 14:42:31.661448 19486 net.cpp:141] Setting up conv3_rest_scale
I1013 14:42:31.661458 19486 net.cpp:148] Top shape: 100 300 7 7 (1470000)
I1013 14:42:31.661463 19486 net.cpp:156] Memory required for data: 3832790400
I1013 14:42:31.661470 19486 layer_factory.hpp:77] Creating layer prelu3_rest
I1013 14:42:31.661478 19486 net.cpp:91] Creating Layer prelu3_rest
I1013 14:42:31.661483 19486 net.cpp:425] prelu3_rest <- conv3_rest
I1013 14:42:31.661489 19486 net.cpp:386] prelu3_rest -> conv3_rest (in-place)
I1013 14:42:31.661612 19486 net.cpp:141] Setting up prelu3_rest
I1013 14:42:31.661622 19486 net.cpp:148] Top shape: 100 300 7 7 (1470000)
I1013 14:42:31.661625 19486 net.cpp:156] Memory required for data: 3838670400
I1013 14:42:31.661630 19486 layer_factory.hpp:77] Creating layer pool3_rest
I1013 14:42:31.661638 19486 net.cpp:91] Creating Layer pool3_rest
I1013 14:42:31.661643 19486 net.cpp:425] pool3_rest <- conv3_rest
I1013 14:42:31.661650 19486 net.cpp:399] pool3_rest -> pool3_rest
I1013 14:42:31.661695 19486 net.cpp:141] Setting up pool3_rest
I1013 14:42:31.661705 19486 net.cpp:148] Top shape: 100 300 4 4 (480000)
I1013 14:42:31.661708 19486 net.cpp:156] Memory required for data: 3840590400
I1013 14:42:31.661712 19486 layer_factory.hpp:77] Creating layer pool3_rest_pool3_rest_0_split
I1013 14:42:31.661720 19486 net.cpp:91] Creating Layer pool3_rest_pool3_rest_0_split
I1013 14:42:31.661725 19486 net.cpp:425] pool3_rest_pool3_rest_0_split <- pool3_rest
I1013 14:42:31.661732 19486 net.cpp:399] pool3_rest_pool3_rest_0_split -> pool3_rest_pool3_rest_0_split_0
I1013 14:42:31.661741 19486 net.cpp:399] pool3_rest_pool3_rest_0_split -> pool3_rest_pool3_rest_0_split_1
I1013 14:42:31.661749 19486 net.cpp:399] pool3_rest_pool3_rest_0_split -> pool3_rest_pool3_rest_0_split_2
I1013 14:42:31.661756 19486 net.cpp:399] pool3_rest_pool3_rest_0_split -> pool3_rest_pool3_rest_0_split_3
I1013 14:42:31.661763 19486 net.cpp:399] pool3_rest_pool3_rest_0_split -> pool3_rest_pool3_rest_0_split_4
I1013 14:42:31.661835 19486 net.cpp:141] Setting up pool3_rest_pool3_rest_0_split
I1013 14:42:31.661844 19486 net.cpp:148] Top shape: 100 300 4 4 (480000)
I1013 14:42:31.661850 19486 net.cpp:148] Top shape: 100 300 4 4 (480000)
I1013 14:42:31.661854 19486 net.cpp:148] Top shape: 100 300 4 4 (480000)
I1013 14:42:31.661859 19486 net.cpp:148] Top shape: 100 300 4 4 (480000)
I1013 14:42:31.661877 19486 net.cpp:148] Top shape: 100 300 4 4 (480000)
I1013 14:42:31.661882 19486 net.cpp:156] Memory required for data: 3850190400
I1013 14:42:31.661886 19486 layer_factory.hpp:77] Creating layer fc1_aroundhead
I1013 14:42:31.661895 19486 net.cpp:91] Creating Layer fc1_aroundhead
I1013 14:42:31.661900 19486 net.cpp:425] fc1_aroundhead <- pool3_rest_pool3_rest_0_split_0
I1013 14:42:31.661907 19486 net.cpp:399] fc1_aroundhead -> fc1_aroundhead
I1013 14:42:31.686172 19486 net.cpp:141] Setting up fc1_aroundhead
I1013 14:42:31.686194 19486 net.cpp:148] Top shape: 100 512 (51200)
I1013 14:42:31.686200 19486 net.cpp:156] Memory required for data: 3850395200
I1013 14:42:31.686208 19486 layer_factory.hpp:77] Creating layer relu1_aroundhead
I1013 14:42:31.686216 19486 net.cpp:91] Creating Layer relu1_aroundhead
I1013 14:42:31.686223 19486 net.cpp:425] relu1_aroundhead <- fc1_aroundhead
I1013 14:42:31.686230 19486 net.cpp:386] relu1_aroundhead -> fc1_aroundhead (in-place)
I1013 14:42:31.686240 19486 net.cpp:141] Setting up relu1_aroundhead
I1013 14:42:31.686246 19486 net.cpp:148] Top shape: 100 512 (51200)
I1013 14:42:31.686250 19486 net.cpp:156] Memory required for data: 3850600000
I1013 14:42:31.686254 19486 layer_factory.hpp:77] Creating layer drop1_aroundhead
I1013 14:42:31.686262 19486 net.cpp:91] Creating Layer drop1_aroundhead
I1013 14:42:31.686266 19486 net.cpp:425] drop1_aroundhead <- fc1_aroundhead
I1013 14:42:31.686274 19486 net.cpp:386] drop1_aroundhead -> fc1_aroundhead (in-place)
I1013 14:42:31.686302 19486 net.cpp:141] Setting up drop1_aroundhead
I1013 14:42:31.686309 19486 net.cpp:148] Top shape: 100 512 (51200)
I1013 14:42:31.686313 19486 net.cpp:156] Memory required for data: 3850804800
I1013 14:42:31.686317 19486 layer_factory.hpp:77] Creating layer fc2_aroundhead
I1013 14:42:31.686326 19486 net.cpp:91] Creating Layer fc2_aroundhead
I1013 14:42:31.686331 19486 net.cpp:425] fc2_aroundhead <- fc1_aroundhead
I1013 14:42:31.686338 19486 net.cpp:399] fc2_aroundhead -> fc2_aroundhead
I1013 14:42:31.689244 19486 net.cpp:141] Setting up fc2_aroundhead
I1013 14:42:31.689262 19486 net.cpp:148] Top shape: 100 512 (51200)
I1013 14:42:31.689267 19486 net.cpp:156] Memory required for data: 3851009600
I1013 14:42:31.689275 19486 layer_factory.hpp:77] Creating layer relu2_aroundhead
I1013 14:42:31.689285 19486 net.cpp:91] Creating Layer relu2_aroundhead
I1013 14:42:31.689290 19486 net.cpp:425] relu2_aroundhead <- fc2_aroundhead
I1013 14:42:31.689296 19486 net.cpp:386] relu2_aroundhead -> fc2_aroundhead (in-place)
I1013 14:42:31.689304 19486 net.cpp:141] Setting up relu2_aroundhead
I1013 14:42:31.689311 19486 net.cpp:148] Top shape: 100 512 (51200)
I1013 14:42:31.689314 19486 net.cpp:156] Memory required for data: 3851214400
I1013 14:42:31.689318 19486 layer_factory.hpp:77] Creating layer drop2_aroundhead
I1013 14:42:31.689326 19486 net.cpp:91] Creating Layer drop2_aroundhead
I1013 14:42:31.689329 19486 net.cpp:425] drop2_aroundhead <- fc2_aroundhead
I1013 14:42:31.689337 19486 net.cpp:386] drop2_aroundhead -> fc2_aroundhead (in-place)
I1013 14:42:31.689363 19486 net.cpp:141] Setting up drop2_aroundhead
I1013 14:42:31.689370 19486 net.cpp:148] Top shape: 100 512 (51200)
I1013 14:42:31.689374 19486 net.cpp:156] Memory required for data: 3851419200
I1013 14:42:31.689378 19486 layer_factory.hpp:77] Creating layer fc2_aroundhead_drop2_aroundhead_0_split
I1013 14:42:31.689388 19486 net.cpp:91] Creating Layer fc2_aroundhead_drop2_aroundhead_0_split
I1013 14:42:31.689393 19486 net.cpp:425] fc2_aroundhead_drop2_aroundhead_0_split <- fc2_aroundhead
I1013 14:42:31.689399 19486 net.cpp:399] fc2_aroundhead_drop2_aroundhead_0_split -> fc2_aroundhead_drop2_aroundhead_0_split_0
…
I1013 14:42:31.689523 19486 net.cpp:399] fc2_aroundhead_drop2_aroundhead_0_split -> fc2_aroundhead_drop2_aroundhead_0_split_10
I1013 14:42:31.689532 19486 net.cpp:399] fc2_aroundhead_drop2_aroundhead_0_split -> fc2_aroundhead_drop2_aroundhead_0_split_11
I1013 14:42:31.689540 19486 net.cpp:399] fc2_aroundhead_drop2_aroundhead_0_split -> fc2_aroundhead_drop2_aroundhead_0_split_12
I1013 14:42:31.689548 19486 net.cpp:399] fc2_aroundhead_drop2_aroundhead_0_split -> fc2_aroundhead_drop2_aroundhead_0_split_13
I1013 14:42:31.689736 19486 net.cpp:141] Setting up fc2_aroundhead_drop2_aroundhead_0_split
I1013 14:42:31.689746 19486 net.cpp:148] Top shape: 100 512 (51200)
I1013 14:42:31.689752 19486 net.cpp:148] Top shape: 100 512 (51200)
I1013 14:42:31.689757 19486 net.cpp:148] Top shape: 100 512 (51200)
I1013 14:42:31.689762 19486 net.cpp:148] Top shape: 100 512 (51200)
I1013 14:42:31.689766 19486 net.cpp:148] Top shape: 100 512 (51200)
I1013 14:42:31.689771 19486 net.cpp:148] Top shape: 100 512 (51200)
I1013 14:42:31.689777 19486 net.cpp:148] Top shape: 100 512 (51200)
I1013 14:42:31.689782 19486 net.cpp:148] Top shape: 100 512 (51200)
I1013 14:42:31.689787 19486 net.cpp:148] Top shape: 100 512 (51200)
I1013 14:42:31.689792 19486 net.cpp:148] Top shape: 100 512 (51200)
I1013 14:42:31.689796 19486 net.cpp:148] Top shape: 100 512 (51200)
I1013 14:42:31.689801 19486 net.cpp:148] Top shape: 100 512 (51200)
I1013 14:42:31.689806 19486 net.cpp:148] Top shape: 100 512 (51200)
I1013 14:42:31.689810 19486 net.cpp:148] Top shape: 100 512 (51200)
I1013 14:42:31.689815 19486 net.cpp:156] Memory required for data: 3854286400
I1013 14:42:31.689820 19486 layer_factory.hpp:77] Creating layer fc1_facialhair
I1013 14:42:31.689828 19486 net.cpp:91] Creating Layer fc1_facialhair
I1013 14:42:31.689833 19486 net.cpp:425] fc1_facialhair <- pool3_rest_pool3_rest_0_split_1
I1013 14:42:31.689842 19486 net.cpp:399] fc1_facialhair -> fc1_facialhair
I1013 14:42:31.714040 19486 net.cpp:141] Setting up fc1_facialhair
I1013 14:42:31.714063 19486 net.cpp:148] Top shape: 100 512 (51200)
I1013 14:42:31.714068 19486 net.cpp:156] Memory required for data: 3854491200
I1013 14:42:31.714076 19486 layer_factory.hpp:77] Creating layer relu1_facialhair
I1013 14:42:31.714085 19486 net.cpp:91] Creating Layer relu1_facialhair
I1013 14:42:31.714090 19486 net.cpp:425] relu1_facialhair <- fc1_facialhair
I1013 14:42:31.714098 19486 net.cpp:386] relu1_facialhair -> fc1_facialhair (in-place)
I1013 14:42:31.714107 19486 net.cpp:141] Setting up relu1_facialhair
I1013 14:42:31.714112 19486 net.cpp:148] Top shape: 100 512 (51200)
I1013 14:42:31.714117 19486 net.cpp:156] Memory required for data: 3854696000
I1013 14:42:31.714120 19486 layer_factory.hpp:77] Creating layer drop1_facialhair
I1013 14:42:31.714128 19486 net.cpp:91] Creating Layer drop1_facialhair
I1013 14:42:31.714133 19486 net.cpp:425] drop1_facialhair <- fc1_facialhair
I1013 14:42:31.714139 19486 net.cpp:386] drop1_facialhair -> fc1_facialhair (in-place)
I1013 14:42:31.714169 19486 net.cpp:141] Setting up drop1_facialhair
I1013 14:42:31.714175 19486 net.cpp:148] Top shape: 100 512 (51200)
I1013 14:42:31.714179 19486 net.cpp:156] Memory required for data: 3854900800
I1013 14:42:31.714184 19486 layer_factory.hpp:77] Creating layer fc2_facialhair
I1013 14:42:31.714206 19486 net.cpp:91] Creating Layer fc2_facialhair
I1013 14:42:31.714211 19486 net.cpp:425] fc2_facialhair <- fc1_facialhair
I1013 14:42:31.714221 19486 net.cpp:399] fc2_facialhair -> fc2_facialhair
I1013 14:42:31.717118 19486 net.cpp:141] Setting up fc2_facialhair
I1013 14:42:31.717135 19486 net.cpp:148] Top shape: 100 512 (51200)
I1013 14:42:31.717139 19486 net.cpp:156] Memory required for data: 3855105600
I1013 14:42:31.717147 19486 layer_factory.hpp:77] Creating layer relu2_facialhair
I1013 14:42:31.717155 19486 net.cpp:91] Creating Layer relu2_facialhair
I1013 14:42:31.717160 19486 net.cpp:425] relu2_facialhair <- fc2_facialhair
I1013 14:42:31.717169 19486 net.cpp:386] relu2_facialhair -> fc2_facialhair (in-place)
I1013 14:42:31.717177 19486 net.cpp:141] Setting up relu2_facialhair
I1013 14:42:31.717182 19486 net.cpp:148] Top shape: 100 512 (51200)
I1013 14:42:31.717186 19486 net.cpp:156] Memory required for data: 3855310400
I1013 14:42:31.717190 19486 layer_factory.hpp:77] Creating layer drop2_facialhair
I1013 14:42:31.717197 19486 net.cpp:91] Creating Layer drop2_facialhair
I1013 14:42:31.717202 19486 net.cpp:425] drop2_facialhair <- fc2_facialhair
I1013 14:42:31.717208 19486 net.cpp:386] drop2_facialhair -> fc2_facialhair (in-place)
I1013 14:42:31.717236 19486 net.cpp:141] Setting up drop2_facialhair
I1013 14:42:31.717243 19486 net.cpp:148] Top shape: 100 512 (51200)
I1013 14:42:31.717247 19486 net.cpp:156] Memory required for data: 3855515200
I1013 14:42:31.717252 19486 layer_factory.hpp:77] Creating layer fc2_facialhair_drop2_facialhair_0_split
I1013 14:42:31.717259 19486 net.cpp:91] Creating Layer fc2_facialhair_drop2_facialhair_0_split
I1013 14:42:31.717264 19486 net.cpp:425] fc2_facialhair_drop2_facialhair_0_split <- fc2_facialhair
I1013 14:42:31.717272 19486 net.cpp:399] fc2_facialhair_drop2_facialhair_0_split -> fc2_facialhair_drop2_facialhair_0_split_0
I1013 14:42:31.717280 19486 net.cpp:399] fc2_facialhair_drop2_facialhair_0_split -> fc2_facialhair_drop2_facialhair_0_split_1
I1013 14:42:31.717288 19486 net.cpp:399] fc2_facialhair_drop2_facialhair_0_split -> fc2_facialhair_drop2_facialhair_0_split_2
I1013 14:42:31.717296 19486 net.cpp:399] fc2_facialhair_drop2_facialhair_0_split -> fc2_facialhair_drop2_facialhair_0_split_3
I1013 14:42:31.717303 19486 net.cpp:399] fc2_facialhair_drop2_facialhair_0_split -> fc2_facialhair_drop2_facialhair_0_split_4
I1013 14:42:31.717311 19486 net.cpp:399] fc2_facialhair_drop2_facialhair_0_split -> fc2_facialhair_drop2_facialhair_0_split_5
I1013 14:42:31.717406 19486 net.cpp:141] Setting up fc2_facialhair_drop2_facialhair_0_split
I1013 14:42:31.717417 19486 net.cpp:148] Top shape: 100 512 (51200)
I1013 14:42:31.717422 19486 net.cpp:148] Top shape: 100 512 (51200)
I1013 14:42:31.717427 19486 net.cpp:148] Top shape: 100 512 (51200)
I1013 14:42:31.717432 19486 net.cpp:148] Top shape: 100 512 (51200)
I1013 14:42:31.717437 19486 net.cpp:148] Top shape: 100 512 (51200)
I1013 14:42:31.717442 19486 net.cpp:148] Top shape: 100 512 (51200)
I1013 14:42:31.717444 19486 net.cpp:156] Memory required for data: 3856744000
I1013 14:42:31.717449 19486 layer_factory.hpp:77] Creating layer fc1_cheeks
I1013 14:42:31.717458 19486 net.cpp:91] Creating Layer fc1_cheeks
I1013 14:42:31.717463 19486 net.cpp:425] fc1_cheeks <- pool3_rest_pool3_rest_0_split_2
I1013 14:42:31.717473 19486 net.cpp:399] fc1_cheeks -> fc1_cheeks
I1013 14:42:31.741616 19486 net.cpp:141] Setting up fc1_cheeks
I1013 14:42:31.741637 19486 net.cpp:148] Top shape: 100 512 (51200)
I1013 14:42:31.741642 19486 net.cpp:156] Memory required for data: 3856948800
I1013 14:42:31.741652 19486 layer_factory.hpp:77] Creating layer relu1_cheeks
I1013 14:42:31.741660 19486 net.cpp:91] Creating Layer relu1_cheeks
I1013 14:42:31.741667 19486 net.cpp:425] relu1_cheeks <- fc1_cheeks
I1013 14:42:31.741674 19486 net.cpp:386] relu1_cheeks -> fc1_cheeks (in-place)
I1013 14:42:31.741683 19486 net.cpp:141] Setting up relu1_cheeks
I1013 14:42:31.741689 19486 net.cpp:148] Top shape: 100 512 (51200)
I1013 14:42:31.741710 19486 net.cpp:156] Memory required for data: 3857153600
I1013 14:42:31.741715 19486 layer_factory.hpp:77] Creating layer drop1_cheeks
I1013 14:42:31.741722 19486 net.cpp:91] Creating Layer drop1_cheeks
I1013 14:42:31.741727 19486 net.cpp:425] drop1_cheeks <- fc1_cheeks
I1013 14:42:31.741734 19486 net.cpp:386] drop1_cheeks -> fc1_cheeks (in-place)
I1013 14:42:31.741765 19486 net.cpp:141] Setting up drop1_cheeks
I1013 14:42:31.741772 19486 net.cpp:148] Top shape: 100 512 (51200)
I1013 14:42:31.741776 19486 net.cpp:156] Memory required for data: 3857358400
I1013 14:42:31.741780 19486 layer_factory.hpp:77] Creating layer fc2_cheeks
I1013 14:42:31.741791 19486 net.cpp:91] Creating Layer fc2_cheeks
I1013 14:42:31.741794 19486 net.cpp:425] fc2_cheeks <- fc1_cheeks
I1013 14:42:31.741802 19486 net.cpp:399] fc2_cheeks -> fc2_cheeks
I1013 14:42:31.744695 19486 net.cpp:141] Setting up fc2_cheeks
I1013 14:42:31.744714 19486 net.cpp:148] Top shape: 100 512 (51200)
I1013 14:42:31.744719 19486 net.cpp:156] Memory required for data: 3857563200
I1013 14:42:31.744725 19486 layer_factory.hpp:77] Creating layer relu2_cheeks
I1013 14:42:31.744734 19486 net.cpp:91] Creating Layer relu2_cheeks
I1013 14:42:31.744740 19486 net.cpp:425] relu2_cheeks <- fc2_cheeks
I1013 14:42:31.744746 19486 net.cpp:386] relu2_cheeks -> fc2_cheeks (in-place)
I1013 14:42:31.744755 19486 net.cpp:141] Setting up relu2_cheeks
I1013 14:42:31.744760 19486 net.cpp:148] Top shape: 100 512 (51200)
I1013 14:42:31.744765 19486 net.cpp:156] Memory required for data: 3857768000
I1013 14:42:31.744767 19486 layer_factory.hpp:77] Creating layer drop2_cheeks
I1013 14:42:31.744774 19486 net.cpp:91] Creating Layer drop2_cheeks
I1013 14:42:31.744779 19486 net.cpp:425] drop2_cheeks <- fc2_cheeks
I1013 14:42:31.744786 19486 net.cpp:386] drop2_cheeks -> fc2_cheeks (in-place)
I1013 14:42:31.744813 19486 net.cpp:141] Setting up drop2_cheeks
I1013 14:42:31.744822 19486 net.cpp:148] Top shape: 100 512 (51200)
I1013 14:42:31.744825 19486 net.cpp:156] Memory required for data: 3857972800
I1013 14:42:31.744829 19486 layer_factory.hpp:77] Creating layer fc2_cheeks_drop2_cheeks_0_split
I1013 14:42:31.744837 19486 net.cpp:91] Creating Layer fc2_cheeks_drop2_cheeks_0_split
I1013 14:42:31.744840 19486 net.cpp:425] fc2_cheeks_drop2_cheeks_0_split <- fc2_cheeks
I1013 14:42:31.744848 19486 net.cpp:399] fc2_cheeks_drop2_cheeks_0_split -> fc2_cheeks_drop2_cheeks_0_split_0
I1013 14:42:31.744858 19486 net.cpp:399] fc2_cheeks_drop2_cheeks_0_split -> fc2_cheeks_drop2_cheeks_0_split_1
I1013 14:42:31.744865 19486 net.cpp:399] fc2_cheeks_drop2_cheeks_0_split -> fc2_cheeks_drop2_cheeks_0_split_2
I1013 14:42:31.744916 19486 net.cpp:141] Setting up fc2_cheeks_drop2_cheeks_0_split
I1013 14:42:31.744923 19486 net.cpp:148] Top shape: 100 512 (51200)
I1013 14:42:31.744928 19486 net.cpp:148] Top shape: 100 512 (51200)
I1013 14:42:31.744933 19486 net.cpp:148] Top shape: 100 512 (51200)
I1013 14:42:31.744937 19486 net.cpp:156] Memory required for data: 3858587200
I1013 14:42:31.744941 19486 layer_factory.hpp:77] Creating layer fc1_fat
I1013 14:42:31.744951 19486 net.cpp:91] Creating Layer fc1_fat
I1013 14:42:31.744956 19486 net.cpp:425] fc1_fat <- pool3_rest_pool3_rest_0_split_3
I1013 14:42:31.744964 19486 net.cpp:399] fc1_fat -> fc1_fat
I1013 14:42:31.769112 19486 net.cpp:141] Setting up fc1_fat
I1013 14:42:31.769134 19486 net.cpp:148] Top shape: 100 512 (51200)
I1013 14:42:31.769140 19486 net.cpp:156] Memory required for data: 3858792000
I1013 14:42:31.769148 19486 layer_factory.hpp:77] Creating layer relu1_fat
I1013 14:42:31.769158 19486 net.cpp:91] Creating Layer relu1_fat
I1013 14:42:31.769165 19486 net.cpp:425] relu1_fat <- fc1_fat
I1013 14:42:31.769172 19486 net.cpp:386] relu1_fat -> fc1_fat (in-place)
I1013 14:42:31.769182 19486 net.cpp:141] Setting up relu1_fat
I1013 14:42:31.769188 19486 net.cpp:148] Top shape: 100 512 (51200)
I1013 14:42:31.769192 19486 net.cpp:156] Memory required for data: 3858996800
I1013 14:42:31.769196 19486 layer_factory.hpp:77] Creating layer drop1_fat
I1013 14:42:31.769204 19486 net.cpp:91] Creating Layer drop1_fat
I1013 14:42:31.769224 19486 net.cpp:425] drop1_fat <- fc1_fat
I1013 14:42:31.769232 19486 net.cpp:386] drop1_fat -> fc1_fat (in-place)
I1013 14:42:31.769263 19486 net.cpp:141] Setting up drop1_fat
I1013 14:42:31.769270 19486 net.cpp:148] Top shape: 100 512 (51200)
I1013 14:42:31.769274 19486 net.cpp:156] Memory required for data: 3859201600
I1013 14:42:31.769279 19486 layer_factory.hpp:77] Creating layer fc2_fat
I1013 14:42:31.769287 19486 net.cpp:91] Creating Layer fc2_fat
I1013 14:42:31.769291 19486 net.cpp:425] fc2_fat <- fc1_fat
I1013 14:42:31.769299 19486 net.cpp:399] fc2_fat -> fc2_fat
I1013 14:42:31.772193 19486 net.cpp:141] Setting up fc2_fat
I1013 14:42:31.772212 19486 net.cpp:148] Top shape: 100 512 (51200)
I1013 14:42:31.772217 19486 net.cpp:156] Memory required for data: 3859406400
I1013 14:42:31.772224 19486 layer_factory.hpp:77] Creating layer relu2_fat
I1013 14:42:31.772233 19486 net.cpp:91] Creating Layer relu2_fat
I1013 14:42:31.772238 19486 net.cpp:425] relu2_fat <- fc2_fat
I1013 14:42:31.772245 19486 net.cpp:386] relu2_fat -> fc2_fat (in-place)
I1013 14:42:31.772253 19486 net.cpp:141] Setting up relu2_fat
I1013 14:42:31.772259 19486 net.cpp:148] Top shape: 100 512 (51200)
I1013 14:42:31.772264 19486 net.cpp:156] Memory required for data: 3859611200
I1013 14:42:31.772266 19486 layer_factory.hpp:77] Creating layer drop2_fat
I1013 14:42:31.772274 19486 net.cpp:91] Creating Layer drop2_fat
I1013 14:42:31.772279 19486 net.cpp:425] drop2_fat <- fc2_fat
I1013 14:42:31.772285 19486 net.cpp:386] drop2_fat -> fc2_fat (in-place)
I1013 14:42:31.772313 19486 net.cpp:141] Setting up drop2_fat
I1013 14:42:31.772320 19486 net.cpp:148] Top shape: 100 512 (51200)
I1013 14:42:31.772325 19486 net.cpp:156] Memory required for data: 3859816000
I1013 14:42:31.772328 19486 layer_factory.hpp:77] Creating layer fc2_fat_drop2_fat_0_split
I1013 14:42:31.772336 19486 net.cpp:91] Creating Layer fc2_fat_drop2_fat_0_split
I1013 14:42:31.772341 19486 net.cpp:425] fc2_fat_drop2_fat_0_split <- fc2_fat
I1013 14:42:31.772347 19486 net.cpp:399] fc2_fat_drop2_fat_0_split -> fc2_fat_drop2_fat_0_split_0
I1013 14:42:31.772356 19486 net.cpp:399] fc2_fat_drop2_fat_0_split -> fc2_fat_drop2_fat_0_split_1
I1013 14:42:31.772366 19486 net.cpp:399] fc2_fat_drop2_fat_0_split -> fc2_fat_drop2_fat_0_split_2
I1013 14:42:31.772418 19486 net.cpp:141] Setting up fc2_fat_drop2_fat_0_split
I1013 14:42:31.772424 19486 net.cpp:148] Top shape: 100 512 (51200)
I1013 14:42:31.772429 19486 net.cpp:148] Top shape: 100 512 (51200)
I1013 14:42:31.772434 19486 net.cpp:148] Top shape: 100 512 (51200)
I1013 14:42:31.772438 19486 net.cpp:156] Memory required for data: 3860430400
I1013 14:42:31.772442 19486 layer_factory.hpp:77] Creating layer fc3_Male
I1013 14:42:31.772449 19486 net.cpp:91] Creating Layer fc3_Male
I1013 14:42:31.772454 19486 net.cpp:425] fc3_Male <- fc2_gender_drop2_gender_0_split_0
I1013 14:42:31.772464 19486 net.cpp:399] fc3_Male -> fc3_Male
I1013 14:42:31.772580 19486 net.cpp:141] Setting up fc3_Male
I1013 14:42:31.772591 19486 net.cpp:148] Top shape: 100 2 (200)
I1013 14:42:31.772595 19486 net.cpp:156] Memory required for data: 3860431200
I1013 14:42:31.772603 19486 layer_factory.hpp:77] Creating layer loss_Male
I1013 14:42:31.772630 19486 net.cpp:91] Creating Layer loss_Male
I1013 14:42:31.772636 19486 net.cpp:425] loss_Male <- fc3_Male
I1013 14:42:31.772644 19486 net.cpp:425] loss_Male <- label_Male
I1013 14:42:31.772651 19486 net.cpp:399] loss_Male -> loss_Male
I1013 14:42:31.772702 19486 net.cpp:141] Setting up loss_Male
I1013 14:42:31.772712 19486 net.cpp:148] Top shape: (1)
I1013 14:42:31.772716 19486 net.cpp:151]     with loss weight 1
I1013 14:42:31.772747 19486 net.cpp:156] Memory required for data: 3860431204
I1013 14:42:31.772753 19486 layer_factory.hpp:77] Creating layer fc3_Big_Nose
I1013 14:42:31.772761 19486 net.cpp:91] Creating Layer fc3_Big_Nose
I1013 14:42:31.772766 19486 net.cpp:425] fc3_Big_Nose <- fc2_nose_drop2_nose_0_split_0
I1013 14:42:31.772774 19486 net.cpp:399] fc3_Big_Nose -> fc3_Big_Nose
I1013 14:42:31.772908 19486 net.cpp:141] Setting up fc3_Big_Nose
I1013 14:42:31.772920 19486 net.cpp:148] Top shape: 100 2 (200)
I1013 14:42:31.772927 19486 net.cpp:156] Memory required for data: 3860432004
I1013 14:42:31.772934 19486 layer_factory.hpp:77] Creating layer loss_Big_Nose
I1013 14:42:31.772944 19486 net.cpp:91] Creating Layer loss_Big_Nose
I1013 14:42:31.772950 19486 net.cpp:425] loss_Big_Nose <- fc3_Big_Nose
I1013 14:42:31.772958 19486 net.cpp:425] loss_Big_Nose <- label_Big_Nose
I1013 14:42:31.772965 19486 net.cpp:399] loss_Big_Nose -> loss_Big_Nose
I1013 14:42:31.773010 19486 net.cpp:141] Setting up loss_Big_Nose
I1013 14:42:31.773020 19486 net.cpp:148] Top shape: (1)
I1013 14:42:31.773023 19486 net.cpp:151]     with loss weight 1
I1013 14:42:31.773030 19486 net.cpp:156] Memory required for data: 3860432008
I1013 14:42:31.773033 19486 layer_factory.hpp:77] Creating layer fc3_Pointy_Nose
I1013 14:42:31.773041 19486 net.cpp:91] Creating Layer fc3_Pointy_Nose
I1013 14:42:31.773046 19486 net.cpp:425] fc3_Pointy_Nose <- fc2_nose_drop2_nose_0_split_1
I1013 14:42:31.773054 19486 net.cpp:399] fc3_Pointy_Nose -> fc3_Pointy_Nose
I1013 14:42:31.773172 19486 net.cpp:141] Setting up fc3_Pointy_Nose
I1013 14:42:31.773182 19486 net.cpp:148] Top shape: 100 2 (200)
I1013 14:42:31.773187 19486 net.cpp:156] Memory required for data: 3860432808
I1013 14:42:31.773218 19486 layer_factory.hpp:77] Creating layer loss_Pointy_Nose
I1013 14:42:31.773231 19486 net.cpp:91] Creating Layer loss_Pointy_Nose
I1013 14:42:31.773236 19486 net.cpp:425] loss_Pointy_Nose <- fc3_Pointy_Nose
I1013 14:42:31.773242 19486 net.cpp:425] loss_Pointy_Nose <- label_Pointy_Nose
I1013 14:42:31.773250 19486 net.cpp:399] loss_Pointy_Nose -> loss_Pointy_Nose
I1013 14:42:31.773293 19486 net.cpp:141] Setting up loss_Pointy_Nose
I1013 14:42:31.773303 19486 net.cpp:148] Top shape: (1)
I1013 14:42:31.773306 19486 net.cpp:151]     with loss weight 1
I1013 14:42:31.773313 19486 net.cpp:156] Memory required for data: 3860432812
I1013 14:42:31.773316 19486 layer_factory.hpp:77] Creating layer fc3_Big_Lips
I1013 14:42:31.773324 19486 net.cpp:91] Creating Layer fc3_Big_Lips
I1013 14:42:31.773329 19486 net.cpp:425] fc3_Big_Lips <- fc2_mouth_drop2_mouth_0_split_0
I1013 14:42:31.773337 19486 net.cpp:399] fc3_Big_Lips -> fc3_Big_Lips
I1013 14:42:31.773452 19486 net.cpp:141] Setting up fc3_Big_Lips
I1013 14:42:31.773463 19486 net.cpp:148] Top shape: 100 2 (200)
I1013 14:42:31.773468 19486 net.cpp:156] Memory required for data: 3860433612
I1013 14:42:31.773474 19486 layer_factory.hpp:77] Creating layer loss_Big_Lips
I1013 14:42:31.773483 19486 net.cpp:91] Creating Layer loss_Big_Lips
I1013 14:42:31.773488 19486 net.cpp:425] loss_Big_Lips <- fc3_Big_Lips
I1013 14:42:31.773494 19486 net.cpp:425] loss_Big_Lips <- label_Big_Lips
I1013 14:42:31.773500 19486 net.cpp:399] loss_Big_Lips -> loss_Big_Lips
I1013 14:42:31.773542 19486 net.cpp:141] Setting up loss_Big_Lips
I1013 14:42:31.773551 19486 net.cpp:148] Top shape: (1)
I1013 14:42:31.773555 19486 net.cpp:151]     with loss weight 1
I1013 14:42:31.773561 19486 net.cpp:156] Memory required for data: 3860433616
I1013 14:42:31.773566 19486 layer_factory.hpp:77] Creating layer fc3_Smiling
I1013 14:42:31.773573 19486 net.cpp:91] Creating Layer fc3_Smiling
I1013 14:42:31.773577 19486 net.cpp:425] fc3_Smiling <- fc2_mouth_drop2_mouth_0_split_1
I1013 14:42:31.773586 19486 net.cpp:399] fc3_Smiling -> fc3_Smiling
I1013 14:42:31.773700 19486 net.cpp:141] Setting up fc3_Smiling
I1013 14:42:31.773710 19486 net.cpp:148] Top shape: 100 2 (200)
I1013 14:42:31.773715 19486 net.cpp:156] Memory required for data: 3860434416
I1013 14:42:31.773721 19486 layer_factory.hpp:77] Creating layer loss_Smiling
I1013 14:42:31.773730 19486 net.cpp:91] Creating Layer loss_Smiling
I1013 14:42:31.773736 19486 net.cpp:425] loss_Smiling <- fc3_Smiling
I1013 14:42:31.773741 19486 net.cpp:425] loss_Smiling <- label_Smiling
I1013 14:42:31.773748 19486 net.cpp:399] loss_Smiling -> loss_Smiling
I1013 14:42:31.773790 19486 net.cpp:141] Setting up loss_Smiling
I1013 14:42:31.773810 19486 net.cpp:148] Top shape: (1)
I1013 14:42:31.773815 19486 net.cpp:151]     with loss weight 1
I1013 14:42:31.773821 19486 net.cpp:156] Memory required for data: 3860434420
I1013 14:42:31.773826 19486 layer_factory.hpp:77] Creating layer fc3_Wearing_Lipstick
I1013 14:42:31.773834 19486 net.cpp:91] Creating Layer fc3_Wearing_Lipstick
I1013 14:42:31.773839 19486 net.cpp:425] fc3_Wearing_Lipstick <- fc2_mouth_drop2_mouth_0_split_2
I1013 14:42:31.773849 19486 net.cpp:399] fc3_Wearing_Lipstick -> fc3_Wearing_Lipstick
I1013 14:42:31.773965 19486 net.cpp:141] Setting up fc3_Wearing_Lipstick
I1013 14:42:31.773975 19486 net.cpp:148] Top shape: 100 2 (200)
I1013 14:42:31.773979 19486 net.cpp:156] Memory required for data: 3860435220
I1013 14:42:31.773986 19486 layer_factory.hpp:77] Creating layer loss_Wearing_Lipstick
I1013 14:42:31.773995 19486 net.cpp:91] Creating Layer loss_Wearing_Lipstick
I1013 14:42:31.774000 19486 net.cpp:425] loss_Wearing_Lipstick <- fc3_Wearing_Lipstick
I1013 14:42:31.774006 19486 net.cpp:425] loss_Wearing_Lipstick <- label_Wearing_Lipstick
I1013 14:42:31.774013 19486 net.cpp:399] loss_Wearing_Lipstick -> loss_Wearing_Lipstick
I1013 14:42:31.774055 19486 net.cpp:141] Setting up loss_Wearing_Lipstick
I1013 14:42:31.774063 19486 net.cpp:148] Top shape: (1)
I1013 14:42:31.774067 19486 net.cpp:151]     with loss weight 1
I1013 14:42:31.774072 19486 net.cpp:156] Memory required for data: 3860435224
I1013 14:42:31.774076 19486 layer_factory.hpp:77] Creating layer fc3_Mouth_Slightly_Open
I1013 14:42:31.774085 19486 net.cpp:91] Creating Layer fc3_Mouth_Slightly_Open
I1013 14:42:31.774091 19486 net.cpp:425] fc3_Mouth_Slightly_Open <- fc2_mouth_drop2_mouth_0_split_3
I1013 14:42:31.774099 19486 net.cpp:399] fc3_Mouth_Slightly_Open -> fc3_Mouth_Slightly_Open
I1013 14:42:31.774214 19486 net.cpp:141] Setting up fc3_Mouth_Slightly_Open
I1013 14:42:31.774222 19486 net.cpp:148] Top shape: 100 2 (200)
I1013 14:42:31.774227 19486 net.cpp:156] Memory required for data: 3860436024
I1013 14:42:31.774233 19486 layer_factory.hpp:77] Creating layer loss_Mouth_Slightly_Open
I1013 14:42:31.774242 19486 net.cpp:91] Creating Layer loss_Mouth_Slightly_Open
I1013 14:42:31.774246 19486 net.cpp:425] loss_Mouth_Slightly_Open <- fc3_Mouth_Slightly_Open
I1013 14:42:31.774252 19486 net.cpp:425] loss_Mouth_Slightly_Open <- label_Mouth_Slightly_Open
I1013 14:42:31.774260 19486 net.cpp:399] loss_Mouth_Slightly_Open -> loss_Mouth_Slightly_Open
I1013 14:42:31.774302 19486 net.cpp:141] Setting up loss_Mouth_Slightly_Open
I1013 14:42:31.774310 19486 net.cpp:148] Top shape: (1)
I1013 14:42:31.774314 19486 net.cpp:151]     with loss weight 1
I1013 14:42:31.774319 19486 net.cpp:156] Memory required for data: 3860436028
I1013 14:42:31.774323 19486 layer_factory.hpp:77] Creating layer fc3_Arched_Eyebrows
I1013 14:42:31.774332 19486 net.cpp:91] Creating Layer fc3_Arched_Eyebrows
I1013 14:42:31.774338 19486 net.cpp:425] fc3_Arched_Eyebrows <- fc2_eyes_drop2_eyes_0_split_0
I1013 14:42:31.774345 19486 net.cpp:399] fc3_Arched_Eyebrows -> fc3_Arched_Eyebrows
I1013 14:42:31.774458 19486 net.cpp:141] Setting up fc3_Arched_Eyebrows
I1013 14:42:31.774468 19486 net.cpp:148] Top shape: 100 2 (200)
I1013 14:42:31.774472 19486 net.cpp:156] Memory required for data: 3860436828
I1013 14:42:31.774479 19486 layer_factory.hpp:77] Creating layer loss_Arched_Eyebrows
I1013 14:42:31.774488 19486 net.cpp:91] Creating Layer loss_Arched_Eyebrows
I1013 14:42:31.774493 19486 net.cpp:425] loss_Arched_Eyebrows <- fc3_Arched_Eyebrows
I1013 14:42:31.774499 19486 net.cpp:425] loss_Arched_Eyebrows <- label_Arched_Eyebrows
I1013 14:42:31.774505 19486 net.cpp:399] loss_Arched_Eyebrows -> loss_Arched_Eyebrows
I1013 14:42:31.774546 19486 net.cpp:141] Setting up loss_Arched_Eyebrows
I1013 14:42:31.774554 19486 net.cpp:148] Top shape: (1)
I1013 14:42:31.774559 19486 net.cpp:151]     with loss weight 1
I1013 14:42:31.774564 19486 net.cpp:156] Memory required for data: 3860436832
I1013 14:42:31.774569 19486 layer_factory.hpp:77] Creating layer fc3_Bags_Under_Eyes
I1013 14:42:31.774586 19486 net.cpp:91] Creating Layer fc3_Bags_Under_Eyes
I1013 14:42:31.774592 19486 net.cpp:425] fc3_Bags_Under_Eyes <- fc2_eyes_drop2_eyes_0_split_1
I1013 14:42:31.774600 19486 net.cpp:399] fc3_Bags_Under_Eyes -> fc3_Bags_Under_Eyes
I1013 14:42:31.774718 19486 net.cpp:141] Setting up fc3_Bags_Under_Eyes
I1013 14:42:31.774727 19486 net.cpp:148] Top shape: 100 2 (200)
I1013 14:42:31.774731 19486 net.cpp:156] Memory required for data: 3860437632
I1013 14:42:31.774739 19486 layer_factory.hpp:77] Creating layer loss_Bags_Under_Eyes
I1013 14:42:31.774747 19486 net.cpp:91] Creating Layer loss_Bags_Under_Eyes
I1013 14:42:31.774751 19486 net.cpp:425] loss_Bags_Under_Eyes <- fc3_Bags_Under_Eyes
I1013 14:42:31.774757 19486 net.cpp:425] loss_Bags_Under_Eyes <- label_Bags_Under_Eyes
I1013 14:42:31.774765 19486 net.cpp:399] loss_Bags_Under_Eyes -> loss_Bags_Under_Eyes
I1013 14:42:31.774807 19486 net.cpp:141] Setting up loss_Bags_Under_Eyes
I1013 14:42:31.774816 19486 net.cpp:148] Top shape: (1)
I1013 14:42:31.774821 19486 net.cpp:151]     with loss weight 1
I1013 14:42:31.774826 19486 net.cpp:156] Memory required for data: 3860437636
I1013 14:42:31.774829 19486 layer_factory.hpp:77] Creating layer fc3_Bushy_Eyebrows
I1013 14:42:31.774838 19486 net.cpp:91] Creating Layer fc3_Bushy_Eyebrows
I1013 14:42:31.774843 19486 net.cpp:425] fc3_Bushy_Eyebrows <- fc2_eyes_drop2_eyes_0_split_2
I1013 14:42:31.774852 19486 net.cpp:399] fc3_Bushy_Eyebrows -> fc3_Bushy_Eyebrows
I1013 14:42:31.774965 19486 net.cpp:141] Setting up fc3_Bushy_Eyebrows
I1013 14:42:31.774974 19486 net.cpp:148] Top shape: 100 2 (200)
I1013 14:42:31.774978 19486 net.cpp:156] Memory required for data: 3860438436
I1013 14:42:31.774986 19486 layer_factory.hpp:77] Creating layer loss_Bushy_Eyebrows
I1013 14:42:31.774993 19486 net.cpp:91] Creating Layer loss_Bushy_Eyebrows
I1013 14:42:31.774998 19486 net.cpp:425] loss_Bushy_Eyebrows <- fc3_Bushy_Eyebrows
I1013 14:42:31.775004 19486 net.cpp:425] loss_Bushy_Eyebrows <- label_Bushy_Eyebrows
I1013 14:42:31.775012 19486 net.cpp:399] loss_Bushy_Eyebrows -> loss_Bushy_Eyebrows
I1013 14:42:31.775053 19486 net.cpp:141] Setting up loss_Bushy_Eyebrows
I1013 14:42:31.775061 19486 net.cpp:148] Top shape: (1)
I1013 14:42:31.775065 19486 net.cpp:151]     with loss weight 1
I1013 14:42:31.775071 19486 net.cpp:156] Memory required for data: 3860438440
I1013 14:42:31.775075 19486 layer_factory.hpp:77] Creating layer fc3_Narrow_Eyes
I1013 14:42:31.775084 19486 net.cpp:91] Creating Layer fc3_Narrow_Eyes
I1013 14:42:31.775089 19486 net.cpp:425] fc3_Narrow_Eyes <- fc2_eyes_drop2_eyes_0_split_3
I1013 14:42:31.775097 19486 net.cpp:399] fc3_Narrow_Eyes -> fc3_Narrow_Eyes
I1013 14:42:31.775213 19486 net.cpp:141] Setting up fc3_Narrow_Eyes
I1013 14:42:31.775223 19486 net.cpp:148] Top shape: 100 2 (200)
I1013 14:42:31.775226 19486 net.cpp:156] Memory required for data: 3860439240
I1013 14:42:31.775233 19486 layer_factory.hpp:77] Creating layer loss_Narrow_Eyes
I1013 14:42:31.775243 19486 net.cpp:91] Creating Layer loss_Narrow_Eyes
I1013 14:42:31.775248 19486 net.cpp:425] loss_Narrow_Eyes <- fc3_Narrow_Eyes
I1013 14:42:31.775254 19486 net.cpp:425] loss_Narrow_Eyes <- label_Narrow_Eyes
I1013 14:42:31.775259 19486 net.cpp:399] loss_Narrow_Eyes -> loss_Narrow_Eyes
I1013 14:42:31.775301 19486 net.cpp:141] Setting up loss_Narrow_Eyes
I1013 14:42:31.775310 19486 net.cpp:148] Top shape: (1)
I1013 14:42:31.775315 19486 net.cpp:151]     with loss weight 1
I1013 14:42:31.775321 19486 net.cpp:156] Memory required for data: 3860439244
I1013 14:42:31.775324 19486 layer_factory.hpp:77] Creating layer fc3_Eyeglasses
I1013 14:42:31.775332 19486 net.cpp:91] Creating Layer fc3_Eyeglasses
I1013 14:42:31.775337 19486 net.cpp:425] fc3_Eyeglasses <- fc2_eyes_drop2_eyes_0_split_4
I1013 14:42:31.775346 19486 net.cpp:399] fc3_Eyeglasses -> fc3_Eyeglasses
I1013 14:42:31.775457 19486 net.cpp:141] Setting up fc3_Eyeglasses
I1013 14:42:31.775467 19486 net.cpp:148] Top shape: 100 2 (200)
I1013 14:42:31.775471 19486 net.cpp:156] Memory required for data: 3860440044
I1013 14:42:31.775490 19486 layer_factory.hpp:77] Creating layer loss_Eyeglasses
I1013 14:42:31.775498 19486 net.cpp:91] Creating Layer loss_Eyeglasses
I1013 14:42:31.775503 19486 net.cpp:425] loss_Eyeglasses <- fc3_Eyeglasses
I1013 14:42:31.775509 19486 net.cpp:425] loss_Eyeglasses <- label_Eyeglasses
I1013 14:42:31.775516 19486 net.cpp:399] loss_Eyeglasses -> loss_Eyeglasses
I1013 14:42:31.775560 19486 net.cpp:141] Setting up loss_Eyeglasses
I1013 14:42:31.775569 19486 net.cpp:148] Top shape: (1)
I1013 14:42:31.775573 19486 net.cpp:151]     with loss weight 1
I1013 14:42:31.775579 19486 net.cpp:156] Memory required for data: 3860440048
I1013 14:42:31.775583 19486 layer_factory.hpp:77] Creating layer fc3_Attractive
I1013 14:42:31.775593 19486 net.cpp:91] Creating Layer fc3_Attractive
I1013 14:42:31.775598 19486 net.cpp:425] fc3_Attractive <- fc2_face_drop2_face_0_split_0
I1013 14:42:31.775605 19486 net.cpp:399] fc3_Attractive -> fc3_Attractive
I1013 14:42:31.775718 19486 net.cpp:141] Setting up fc3_Attractive
I1013 14:42:31.775727 19486 net.cpp:148] Top shape: 100 2 (200)
I1013 14:42:31.775732 19486 net.cpp:156] Memory required for data: 3860440848
I1013 14:42:31.775738 19486 layer_factory.hpp:77] Creating layer loss_Attractive
I1013 14:42:31.775748 19486 net.cpp:91] Creating Layer loss_Attractive
I1013 14:42:31.775751 19486 net.cpp:425] loss_Attractive <- fc3_Attractive
I1013 14:42:31.775758 19486 net.cpp:425] loss_Attractive <- label_Attractive
I1013 14:42:31.775764 19486 net.cpp:399] loss_Attractive -> loss_Attractive
I1013 14:42:31.775805 19486 net.cpp:141] Setting up loss_Attractive
I1013 14:42:31.775820 19486 net.cpp:148] Top shape: (1)
I1013 14:42:31.775825 19486 net.cpp:151]     with loss weight 1
I1013 14:42:31.775830 19486 net.cpp:156] Memory required for data: 3860440852
I1013 14:42:31.775835 19486 layer_factory.hpp:77] Creating layer fc3_Blurry
I1013 14:42:31.775843 19486 net.cpp:91] Creating Layer fc3_Blurry
I1013 14:42:31.775847 19486 net.cpp:425] fc3_Blurry <- fc2_face_drop2_face_0_split_1
I1013 14:42:31.775856 19486 net.cpp:399] fc3_Blurry -> fc3_Blurry
I1013 14:42:31.775970 19486 net.cpp:141] Setting up fc3_Blurry
I1013 14:42:31.775980 19486 net.cpp:148] Top shape: 100 2 (200)
I1013 14:42:31.775985 19486 net.cpp:156] Memory required for data: 3860441652
I1013 14:42:31.775991 19486 layer_factory.hpp:77] Creating layer loss_Blurry
I1013 14:42:31.776000 19486 net.cpp:91] Creating Layer loss_Blurry
I1013 14:42:31.776005 19486 net.cpp:425] loss_Blurry <- fc3_Blurry
I1013 14:42:31.776011 19486 net.cpp:425] loss_Blurry <- label_Blurry
I1013 14:42:31.776018 19486 net.cpp:399] loss_Blurry -> loss_Blurry
I1013 14:42:31.776060 19486 net.cpp:141] Setting up loss_Blurry
I1013 14:42:31.776069 19486 net.cpp:148] Top shape: (1)
I1013 14:42:31.776073 19486 net.cpp:151]     with loss weight 1
I1013 14:42:31.776079 19486 net.cpp:156] Memory required for data: 3860441656
I1013 14:42:31.776083 19486 layer_factory.hpp:77] Creating layer fc3_Oval_Face
I1013 14:42:31.776091 19486 net.cpp:91] Creating Layer fc3_Oval_Face
I1013 14:42:31.776098 19486 net.cpp:425] fc3_Oval_Face <- fc2_face_drop2_face_0_split_2
I1013 14:42:31.776106 19486 net.cpp:399] fc3_Oval_Face -> fc3_Oval_Face
I1013 14:42:31.776218 19486 net.cpp:141] Setting up fc3_Oval_Face
I1013 14:42:31.776228 19486 net.cpp:148] Top shape: 100 2 (200)
I1013 14:42:31.776232 19486 net.cpp:156] Memory required for data: 3860442456
I1013 14:42:31.776239 19486 layer_factory.hpp:77] Creating layer loss_Oval_Face
I1013 14:42:31.776248 19486 net.cpp:91] Creating Layer loss_Oval_Face
I1013 14:42:31.776253 19486 net.cpp:425] loss_Oval_Face <- fc3_Oval_Face
I1013 14:42:31.776258 19486 net.cpp:425] loss_Oval_Face <- label_Oval_Face
I1013 14:42:31.776265 19486 net.cpp:399] loss_Oval_Face -> loss_Oval_Face
I1013 14:42:31.776309 19486 net.cpp:141] Setting up loss_Oval_Face
I1013 14:42:31.776316 19486 net.cpp:148] Top shape: (1)
I1013 14:42:31.776331 19486 net.cpp:151]     with loss weight 1
I1013 14:42:31.776337 19486 net.cpp:156] Memory required for data: 3860442460
I1013 14:42:31.776341 19486 layer_factory.hpp:77] Creating layer fc3_Pale_Skin
I1013 14:42:31.776363 19486 net.cpp:91] Creating Layer fc3_Pale_Skin
I1013 14:42:31.776371 19486 net.cpp:425] fc3_Pale_Skin <- fc2_face_drop2_face_0_split_3
I1013 14:42:31.776378 19486 net.cpp:399] fc3_Pale_Skin -> fc3_Pale_Skin
I1013 14:42:31.776494 19486 net.cpp:141] Setting up fc3_Pale_Skin
I1013 14:42:31.776505 19486 net.cpp:148] Top shape: 100 2 (200)
I1013 14:42:31.776510 19486 net.cpp:156] Memory required for data: 3860443260
I1013 14:42:31.776517 19486 layer_factory.hpp:77] Creating layer loss_Pale_Skin
I1013 14:42:31.776525 19486 net.cpp:91] Creating Layer loss_Pale_Skin
I1013 14:42:31.776530 19486 net.cpp:425] loss_Pale_Skin <- fc3_Pale_Skin
I1013 14:42:31.776536 19486 net.cpp:425] loss_Pale_Skin <- label_Pale_Skin
I1013 14:42:31.776543 19486 net.cpp:399] loss_Pale_Skin -> loss_Pale_Skin
I1013 14:42:31.776587 19486 net.cpp:141] Setting up loss_Pale_Skin
I1013 14:42:31.776595 19486 net.cpp:148] Top shape: (1)
I1013 14:42:31.776600 19486 net.cpp:151]     with loss weight 1
I1013 14:42:31.776605 19486 net.cpp:156] Memory required for data: 3860443264
I1013 14:42:31.776610 19486 layer_factory.hpp:77] Creating layer fc3_Young
I1013 14:42:31.776618 19486 net.cpp:91] Creating Layer fc3_Young
I1013 14:42:31.776623 19486 net.cpp:425] fc3_Young <- fc2_face_drop2_face_0_split_4
I1013 14:42:31.776631 19486 net.cpp:399] fc3_Young -> fc3_Young
I1013 14:42:31.776744 19486 net.cpp:141] Setting up fc3_Young
I1013 14:42:31.776754 19486 net.cpp:148] Top shape: 100 2 (200)
I1013 14:42:31.776759 19486 net.cpp:156] Memory required for data: 3860444064
I1013 14:42:31.776767 19486 layer_factory.hpp:77] Creating layer loss_Young
I1013 14:42:31.776774 19486 net.cpp:91] Creating Layer loss_Young
I1013 14:42:31.776779 19486 net.cpp:425] loss_Young <- fc3_Young
I1013 14:42:31.776785 19486 net.cpp:425] loss_Young <- label_Young
I1013 14:42:31.776793 19486 net.cpp:399] loss_Young -> loss_Young
I1013 14:42:31.776834 19486 net.cpp:141] Setting up loss_Young
I1013 14:42:31.776844 19486 net.cpp:148] Top shape: (1)
I1013 14:42:31.776847 19486 net.cpp:151]     with loss weight 1
I1013 14:42:31.776854 19486 net.cpp:156] Memory required for data: 3860444068
I1013 14:42:31.776857 19486 layer_factory.hpp:77] Creating layer fc3_Heavy_Makeup
I1013 14:42:31.776865 19486 net.cpp:91] Creating Layer fc3_Heavy_Makeup
I1013 14:42:31.776870 19486 net.cpp:425] fc3_Heavy_Makeup <- fc2_face_drop2_face_0_split_5
I1013 14:42:31.776877 19486 net.cpp:399] fc3_Heavy_Makeup -> fc3_Heavy_Makeup
I1013 14:42:31.776990 19486 net.cpp:141] Setting up fc3_Heavy_Makeup
I1013 14:42:31.777000 19486 net.cpp:148] Top shape: 100 2 (200)
I1013 14:42:31.777004 19486 net.cpp:156] Memory required for data: 3860444868
I1013 14:42:31.777011 19486 layer_factory.hpp:77] Creating layer loss_Heavy_Makeup
I1013 14:42:31.777020 19486 net.cpp:91] Creating Layer loss_Heavy_Makeup
I1013 14:42:31.777025 19486 net.cpp:425] loss_Heavy_Makeup <- fc3_Heavy_Makeup
I1013 14:42:31.777031 19486 net.cpp:425] loss_Heavy_Makeup <- label_Heavy_Makeup
I1013 14:42:31.777037 19486 net.cpp:399] loss_Heavy_Makeup -> loss_Heavy_Makeup
I1013 14:42:31.777081 19486 net.cpp:141] Setting up loss_Heavy_Makeup
I1013 14:42:31.777088 19486 net.cpp:148] Top shape: (1)
I1013 14:42:31.777092 19486 net.cpp:151]     with loss weight 1
I1013 14:42:31.777098 19486 net.cpp:156] Memory required for data: 3860444872
I1013 14:42:31.777102 19486 layer_factory.hpp:77] Creating layer fc3_Black_Hair
I1013 14:42:31.777110 19486 net.cpp:91] Creating Layer fc3_Black_Hair
I1013 14:42:31.777115 19486 net.cpp:425] fc3_Black_Hair <- fc2_aroundhead_drop2_aroundhead_0_split_0
I1013 14:42:31.777123 19486 net.cpp:399] fc3_Black_Hair -> fc3_Black_Hair
I1013 14:42:31.777236 19486 net.cpp:141] Setting up fc3_Black_Hair
I1013 14:42:31.777246 19486 net.cpp:148] Top shape: 100 2 (200)
I1013 14:42:31.777251 19486 net.cpp:156] Memory required for data: 3860445672
I1013 14:42:31.777257 19486 layer_factory.hpp:77] Creating layer loss_Black_Hair
I1013 14:42:31.777266 19486 net.cpp:91] Creating Layer loss_Black_Hair
I1013 14:42:31.777281 19486 net.cpp:425] loss_Black_Hair <- fc3_Black_Hair
I1013 14:42:31.777287 19486 net.cpp:425] loss_Black_Hair <- label_Black_Hair
I1013 14:42:31.777293 19486 net.cpp:399] loss_Black_Hair -> loss_Black_Hair
I1013 14:42:31.777338 19486 net.cpp:141] Setting up loss_Black_Hair
I1013 14:42:31.777348 19486 net.cpp:148] Top shape: (1)
I1013 14:42:31.777353 19486 net.cpp:151]     with loss weight 1
I1013 14:42:31.777359 19486 net.cpp:156] Memory required for data: 3860445676
I1013 14:42:31.777362 19486 layer_factory.hpp:77] Creating layer fc3_Blond_Hair
I1013 14:42:31.777370 19486 net.cpp:91] Creating Layer fc3_Blond_Hair
I1013 14:42:31.777375 19486 net.cpp:425] fc3_Blond_Hair <- fc2_aroundhead_drop2_aroundhead_0_split_1
I1013 14:42:31.777384 19486 net.cpp:399] fc3_Blond_Hair -> fc3_Blond_Hair
I1013 14:42:31.777499 19486 net.cpp:141] Setting up fc3_Blond_Hair
I1013 14:42:31.777509 19486 net.cpp:148] Top shape: 100 2 (200)
I1013 14:42:31.777513 19486 net.cpp:156] Memory required for data: 3860446476
I1013 14:42:31.777520 19486 layer_factory.hpp:77] Creating layer loss_Blond_Hair
I1013 14:42:31.777529 19486 net.cpp:91] Creating Layer loss_Blond_Hair
I1013 14:42:31.777534 19486 net.cpp:425] loss_Blond_Hair <- fc3_Blond_Hair
I1013 14:42:31.777539 19486 net.cpp:425] loss_Blond_Hair <- label_Blond_Hair
I1013 14:42:31.777546 19486 net.cpp:399] loss_Blond_Hair -> loss_Blond_Hair
I1013 14:42:31.777588 19486 net.cpp:141] Setting up loss_Blond_Hair
I1013 14:42:31.777596 19486 net.cpp:148] Top shape: (1)
I1013 14:42:31.777601 19486 net.cpp:151]     with loss weight 1
I1013 14:42:31.777606 19486 net.cpp:156] Memory required for data: 3860446480
I1013 14:42:31.777611 19486 layer_factory.hpp:77] Creating layer fc3_Brown_Hair
I1013 14:42:31.777618 19486 net.cpp:91] Creating Layer fc3_Brown_Hair
I1013 14:42:31.777623 19486 net.cpp:425] fc3_Brown_Hair <- fc2_aroundhead_drop2_aroundhead_0_split_2
I1013 14:42:31.777632 19486 net.cpp:399] fc3_Brown_Hair -> fc3_Brown_Hair
I1013 14:42:31.777755 19486 net.cpp:141] Setting up fc3_Brown_Hair
I1013 14:42:31.777765 19486 net.cpp:148] Top shape: 100 2 (200)
I1013 14:42:31.777770 19486 net.cpp:156] Memory required for data: 3860447280
I1013 14:42:31.777776 19486 layer_factory.hpp:77] Creating layer loss_Brown_Hair
I1013 14:42:31.777784 19486 net.cpp:91] Creating Layer loss_Brown_Hair
I1013 14:42:31.777789 19486 net.cpp:425] loss_Brown_Hair <- fc3_Brown_Hair
I1013 14:42:31.777796 19486 net.cpp:425] loss_Brown_Hair <- label_Brown_Hair
I1013 14:42:31.777801 19486 net.cpp:399] loss_Brown_Hair -> loss_Brown_Hair
I1013 14:42:31.777845 19486 net.cpp:141] Setting up loss_Brown_Hair
I1013 14:42:31.777854 19486 net.cpp:148] Top shape: (1)
I1013 14:42:31.777858 19486 net.cpp:151]     with loss weight 1
I1013 14:42:31.777864 19486 net.cpp:156] Memory required for data: 3860447284
I1013 14:42:31.777868 19486 layer_factory.hpp:77] Creating layer fc3_Gray_Hair
I1013 14:42:31.777875 19486 net.cpp:91] Creating Layer fc3_Gray_Hair
I1013 14:42:31.777880 19486 net.cpp:425] fc3_Gray_Hair <- fc2_aroundhead_drop2_aroundhead_0_split_3
I1013 14:42:31.777889 19486 net.cpp:399] fc3_Gray_Hair -> fc3_Gray_Hair
I1013 14:42:31.778007 19486 net.cpp:141] Setting up fc3_Gray_Hair
I1013 14:42:31.778015 19486 net.cpp:148] Top shape: 100 2 (200)
I1013 14:42:31.778020 19486 net.cpp:156] Memory required for data: 3860448084
I1013 14:42:31.778028 19486 layer_factory.hpp:77] Creating layer loss_Gray_Hair
I1013 14:42:31.778035 19486 net.cpp:91] Creating Layer loss_Gray_Hair
I1013 14:42:31.778040 19486 net.cpp:425] loss_Gray_Hair <- fc3_Gray_Hair
I1013 14:42:31.778045 19486 net.cpp:425] loss_Gray_Hair <- label_Gray_Hair
I1013 14:42:31.778053 19486 net.cpp:399] loss_Gray_Hair -> loss_Gray_Hair
I1013 14:42:31.778096 19486 net.cpp:141] Setting up loss_Gray_Hair
I1013 14:42:31.778105 19486 net.cpp:148] Top shape: (1)
I1013 14:42:31.778110 19486 net.cpp:151]     with loss weight 1
I1013 14:42:31.778115 19486 net.cpp:156] Memory required for data: 3860448088
I1013 14:42:31.778120 19486 layer_factory.hpp:77] Creating layer fc3_Wearing_Earrings
I1013 14:42:31.778137 19486 net.cpp:91] Creating Layer fc3_Wearing_Earrings
I1013 14:42:31.778142 19486 net.cpp:425] fc3_Wearing_Earrings <- fc2_aroundhead_drop2_aroundhead_0_split_4
I1013 14:42:31.778151 19486 net.cpp:399] fc3_Wearing_Earrings -> fc3_Wearing_Earrings
I1013 14:42:31.778270 19486 net.cpp:141] Setting up fc3_Wearing_Earrings
I1013 14:42:31.778280 19486 net.cpp:148] Top shape: 100 2 (200)
I1013 14:42:31.778283 19486 net.cpp:156] Memory required for data: 3860448888
I1013 14:42:31.778290 19486 layer_factory.hpp:77] Creating layer loss_Wearing_Earrings
I1013 14:42:31.778300 19486 net.cpp:91] Creating Layer loss_Wearing_Earrings
I1013 14:42:31.778304 19486 net.cpp:425] loss_Wearing_Earrings <- fc3_Wearing_Earrings
I1013 14:42:31.778311 19486 net.cpp:425] loss_Wearing_Earrings <- label_Wearing_Earrings
I1013 14:42:31.778318 19486 net.cpp:399] loss_Wearing_Earrings -> loss_Wearing_Earrings
I1013 14:42:31.778373 19486 net.cpp:141] Setting up loss_Wearing_Earrings
I1013 14:42:31.778383 19486 net.cpp:148] Top shape: (1)
I1013 14:42:31.778388 19486 net.cpp:151]     with loss weight 1
I1013 14:42:31.778393 19486 net.cpp:156] Memory required for data: 3860448892
I1013 14:42:31.778398 19486 layer_factory.hpp:77] Creating layer fc3_Wearing_Necklace
I1013 14:42:31.778405 19486 net.cpp:91] Creating Layer fc3_Wearing_Necklace
I1013 14:42:31.778410 19486 net.cpp:425] fc3_Wearing_Necklace <- fc2_aroundhead_drop2_aroundhead_0_split_5
I1013 14:42:31.778419 19486 net.cpp:399] fc3_Wearing_Necklace -> fc3_Wearing_Necklace
I1013 14:42:31.778533 19486 net.cpp:141] Setting up fc3_Wearing_Necklace
I1013 14:42:31.778543 19486 net.cpp:148] Top shape: 100 2 (200)
I1013 14:42:31.778548 19486 net.cpp:156] Memory required for data: 3860449692
I1013 14:42:31.778554 19486 layer_factory.hpp:77] Creating layer loss_Wearing_Necklace
I1013 14:42:31.778563 19486 net.cpp:91] Creating Layer loss_Wearing_Necklace
I1013 14:42:31.778569 19486 net.cpp:425] loss_Wearing_Necklace <- fc3_Wearing_Necklace
I1013 14:42:31.778575 19486 net.cpp:425] loss_Wearing_Necklace <- label_Wearing_Necklace
I1013 14:42:31.778584 19486 net.cpp:399] loss_Wearing_Necklace -> loss_Wearing_Necklace
I1013 14:42:31.778625 19486 net.cpp:141] Setting up loss_Wearing_Necklace
I1013 14:42:31.778635 19486 net.cpp:148] Top shape: (1)
I1013 14:42:31.778638 19486 net.cpp:151]     with loss weight 1
I1013 14:42:31.778645 19486 net.cpp:156] Memory required for data: 3860449696
I1013 14:42:31.778648 19486 layer_factory.hpp:77] Creating layer fc3_Wearing_Necktie
I1013 14:42:31.778656 19486 net.cpp:91] Creating Layer fc3_Wearing_Necktie
I1013 14:42:31.778661 19486 net.cpp:425] fc3_Wearing_Necktie <- fc2_aroundhead_drop2_aroundhead_0_split_6
I1013 14:42:31.778669 19486 net.cpp:399] fc3_Wearing_Necktie -> fc3_Wearing_Necktie
I1013 14:42:31.778786 19486 net.cpp:141] Setting up fc3_Wearing_Necktie
I1013 14:42:31.778795 19486 net.cpp:148] Top shape: 100 2 (200)
I1013 14:42:31.778800 19486 net.cpp:156] Memory required for data: 3860450496
I1013 14:42:31.778806 19486 layer_factory.hpp:77] Creating layer loss_Wearing_Necktie
I1013 14:42:31.778815 19486 net.cpp:91] Creating Layer loss_Wearing_Necktie
I1013 14:42:31.778820 19486 net.cpp:425] loss_Wearing_Necktie <- fc3_Wearing_Necktie
I1013 14:42:31.778826 19486 net.cpp:425] loss_Wearing_Necktie <- label_Wearing_Necktie
I1013 14:42:31.778833 19486 net.cpp:399] loss_Wearing_Necktie -> loss_Wearing_Necktie
I1013 14:42:31.778875 19486 net.cpp:141] Setting up loss_Wearing_Necktie
I1013 14:42:31.778883 19486 net.cpp:148] Top shape: (1)
I1013 14:42:31.778888 19486 net.cpp:151]     with loss weight 1
I1013 14:42:31.778893 19486 net.cpp:156] Memory required for data: 3860450500
I1013 14:42:31.778898 19486 layer_factory.hpp:77] Creating layer fc3_Bald
I1013 14:42:31.778905 19486 net.cpp:91] Creating Layer fc3_Bald
I1013 14:42:31.778910 19486 net.cpp:425] fc3_Bald <- fc2_aroundhead_drop2_aroundhead_0_split_7
I1013 14:42:31.778918 19486 net.cpp:399] fc3_Bald -> fc3_Bald
I1013 14:42:31.779032 19486 net.cpp:141] Setting up fc3_Bald
I1013 14:42:31.779042 19486 net.cpp:148] Top shape: 100 2 (200)
I1013 14:42:31.779057 19486 net.cpp:156] Memory required for data: 3860451300
I1013 14:42:31.779064 19486 layer_factory.hpp:77] Creating layer loss_Bald
I1013 14:42:31.779073 19486 net.cpp:91] Creating Layer loss_Bald
I1013 14:42:31.779078 19486 net.cpp:425] loss_Bald <- fc3_Bald
I1013 14:42:31.779084 19486 net.cpp:425] loss_Bald <- label_Bald
I1013 14:42:31.779091 19486 net.cpp:399] loss_Bald -> loss_Bald
I1013 14:42:31.779134 19486 net.cpp:141] Setting up loss_Bald
I1013 14:42:31.779144 19486 net.cpp:148] Top shape: (1)
I1013 14:42:31.779148 19486 net.cpp:151]     with loss weight 1
I1013 14:42:31.779155 19486 net.cpp:156] Memory required for data: 3860451304
I1013 14:42:31.779158 19486 layer_factory.hpp:77] Creating layer fc3_Receding_Hairline
I1013 14:42:31.779166 19486 net.cpp:91] Creating Layer fc3_Receding_Hairline
I1013 14:42:31.779171 19486 net.cpp:425] fc3_Receding_Hairline <- fc2_aroundhead_drop2_aroundhead_0_split_8
I1013 14:42:31.779180 19486 net.cpp:399] fc3_Receding_Hairline -> fc3_Receding_Hairline
I1013 14:42:31.779294 19486 net.cpp:141] Setting up fc3_Receding_Hairline
I1013 14:42:31.779302 19486 net.cpp:148] Top shape: 100 2 (200)
I1013 14:42:31.779307 19486 net.cpp:156] Memory required for data: 3860452104
I1013 14:42:31.779314 19486 layer_factory.hpp:77] Creating layer loss_Receding_Hairline
I1013 14:42:31.779322 19486 net.cpp:91] Creating Layer loss_Receding_Hairline
I1013 14:42:31.779328 19486 net.cpp:425] loss_Receding_Hairline <- fc3_Receding_Hairline
I1013 14:42:31.779335 19486 net.cpp:425] loss_Receding_Hairline <- label_Receding_Hairline
I1013 14:42:31.779341 19486 net.cpp:399] loss_Receding_Hairline -> loss_Receding_Hairline
I1013 14:42:31.779382 19486 net.cpp:141] Setting up loss_Receding_Hairline
I1013 14:42:31.779391 19486 net.cpp:148] Top shape: (1)
I1013 14:42:31.779395 19486 net.cpp:151]     with loss weight 1
I1013 14:42:31.779402 19486 net.cpp:156] Memory required for data: 3860452108
I1013 14:42:31.779404 19486 layer_factory.hpp:77] Creating layer fc3_Bangs
I1013 14:42:31.779413 19486 net.cpp:91] Creating Layer fc3_Bangs
I1013 14:42:31.779417 19486 net.cpp:425] fc3_Bangs <- fc2_aroundhead_drop2_aroundhead_0_split_9
I1013 14:42:31.779425 19486 net.cpp:399] fc3_Bangs -> fc3_Bangs
I1013 14:42:31.779539 19486 net.cpp:141] Setting up fc3_Bangs
I1013 14:42:31.779549 19486 net.cpp:148] Top shape: 100 2 (200)
I1013 14:42:31.779553 19486 net.cpp:156] Memory required for data: 3860452908
I1013 14:42:31.779561 19486 layer_factory.hpp:77] Creating layer loss_Bangs
I1013 14:42:31.779569 19486 net.cpp:91] Creating Layer loss_Bangs
I1013 14:42:31.779574 19486 net.cpp:425] loss_Bangs <- fc3_Bangs
I1013 14:42:31.779580 19486 net.cpp:425] loss_Bangs <- label_Bangs
I1013 14:42:31.779587 19486 net.cpp:399] loss_Bangs -> loss_Bangs
I1013 14:42:31.779628 19486 net.cpp:141] Setting up loss_Bangs
I1013 14:42:31.779638 19486 net.cpp:148] Top shape: (1)
I1013 14:42:31.779641 19486 net.cpp:151]     with loss weight 1
I1013 14:42:31.779647 19486 net.cpp:156] Memory required for data: 3860452912
I1013 14:42:31.779651 19486 layer_factory.hpp:77] Creating layer fc3_Wearing_Hat
I1013 14:42:31.779659 19486 net.cpp:91] Creating Layer fc3_Wearing_Hat
I1013 14:42:31.779664 19486 net.cpp:425] fc3_Wearing_Hat <- fc2_aroundhead_drop2_aroundhead_0_split_10
I1013 14:42:31.779672 19486 net.cpp:399] fc3_Wearing_Hat -> fc3_Wearing_Hat
I1013 14:42:31.779788 19486 net.cpp:141] Setting up fc3_Wearing_Hat
I1013 14:42:31.779798 19486 net.cpp:148] Top shape: 100 2 (200)
I1013 14:42:31.779803 19486 net.cpp:156] Memory required for data: 3860453712
I1013 14:42:31.779814 19486 layer_factory.hpp:77] Creating layer loss_Wearing_Hat
I1013 14:42:31.779824 19486 net.cpp:91] Creating Layer loss_Wearing_Hat
I1013 14:42:31.779829 19486 net.cpp:425] loss_Wearing_Hat <- fc3_Wearing_Hat
I1013 14:42:31.779834 19486 net.cpp:425] loss_Wearing_Hat <- label_Wearing_Hat
I1013 14:42:31.779841 19486 net.cpp:399] loss_Wearing_Hat -> loss_Wearing_Hat
I1013 14:42:31.779884 19486 net.cpp:141] Setting up loss_Wearing_Hat
I1013 14:42:31.779902 19486 net.cpp:148] Top shape: (1)
I1013 14:42:31.779907 19486 net.cpp:151]     with loss weight 1
I1013 14:42:31.779913 19486 net.cpp:156] Memory required for data: 3860453716
I1013 14:42:31.779918 19486 layer_factory.hpp:77] Creating layer fc3_Straight_Hair
I1013 14:42:31.779925 19486 net.cpp:91] Creating Layer fc3_Straight_Hair
I1013 14:42:31.779930 19486 net.cpp:425] fc3_Straight_Hair <- fc2_aroundhead_drop2_aroundhead_0_split_11
I1013 14:42:31.779938 19486 net.cpp:399] fc3_Straight_Hair -> fc3_Straight_Hair
I1013 14:42:31.780055 19486 net.cpp:141] Setting up fc3_Straight_Hair
I1013 14:42:31.780066 19486 net.cpp:148] Top shape: 100 2 (200)
I1013 14:42:31.780069 19486 net.cpp:156] Memory required for data: 3860454516
I1013 14:42:31.780076 19486 layer_factory.hpp:77] Creating layer loss_Straight_Hair
I1013 14:42:31.780086 19486 net.cpp:91] Creating Layer loss_Straight_Hair
I1013 14:42:31.780091 19486 net.cpp:425] loss_Straight_Hair <- fc3_Straight_Hair
I1013 14:42:31.780097 19486 net.cpp:425] loss_Straight_Hair <- label_Straight_Hair
I1013 14:42:31.780103 19486 net.cpp:399] loss_Straight_Hair -> loss_Straight_Hair
I1013 14:42:31.780146 19486 net.cpp:141] Setting up loss_Straight_Hair
I1013 14:42:31.780155 19486 net.cpp:148] Top shape: (1)
I1013 14:42:31.780159 19486 net.cpp:151]     with loss weight 1
I1013 14:42:31.780165 19486 net.cpp:156] Memory required for data: 3860454520
I1013 14:42:31.780169 19486 layer_factory.hpp:77] Creating layer fc3_Wavy_Hair
I1013 14:42:31.780176 19486 net.cpp:91] Creating Layer fc3_Wavy_Hair
I1013 14:42:31.780181 19486 net.cpp:425] fc3_Wavy_Hair <- fc2_aroundhead_drop2_aroundhead_0_split_12
I1013 14:42:31.780189 19486 net.cpp:399] fc3_Wavy_Hair -> fc3_Wavy_Hair
I1013 14:42:31.780304 19486 net.cpp:141] Setting up fc3_Wavy_Hair
I1013 14:42:31.780314 19486 net.cpp:148] Top shape: 100 2 (200)
I1013 14:42:31.780318 19486 net.cpp:156] Memory required for data: 3860455320
I1013 14:42:31.780325 19486 layer_factory.hpp:77] Creating layer loss_Wavy_Hair
I1013 14:42:31.780334 19486 net.cpp:91] Creating Layer loss_Wavy_Hair
I1013 14:42:31.780339 19486 net.cpp:425] loss_Wavy_Hair <- fc3_Wavy_Hair
I1013 14:42:31.780345 19486 net.cpp:425] loss_Wavy_Hair <- label_Wavy_Hair
I1013 14:42:31.780352 19486 net.cpp:399] loss_Wavy_Hair -> loss_Wavy_Hair
I1013 14:42:31.780393 19486 net.cpp:141] Setting up loss_Wavy_Hair
I1013 14:42:31.780401 19486 net.cpp:148] Top shape: (1)
I1013 14:42:31.780406 19486 net.cpp:151]     with loss weight 1
I1013 14:42:31.780411 19486 net.cpp:156] Memory required for data: 3860455324
I1013 14:42:31.780416 19486 layer_factory.hpp:77] Creating layer fc3_5_o_Clock_Shadow
I1013 14:42:31.780423 19486 net.cpp:91] Creating Layer fc3_5_o_Clock_Shadow
I1013 14:42:31.780428 19486 net.cpp:425] fc3_5_o_Clock_Shadow <- fc2_facialhair_drop2_facialhair_0_split_0
I1013 14:42:31.780436 19486 net.cpp:399] fc3_5_o_Clock_Shadow -> fc3_5_o_Clock_Shadow
I1013 14:42:31.780550 19486 net.cpp:141] Setting up fc3_5_o_Clock_Shadow
I1013 14:42:31.780560 19486 net.cpp:148] Top shape: 100 2 (200)
I1013 14:42:31.780563 19486 net.cpp:156] Memory required for data: 3860456124
I1013 14:42:31.780570 19486 layer_factory.hpp:77] Creating layer loss_5_o_Clock_Shadow
I1013 14:42:31.780580 19486 net.cpp:91] Creating Layer loss_5_o_Clock_Shadow
I1013 14:42:31.780585 19486 net.cpp:425] loss_5_o_Clock_Shadow <- fc3_5_o_Clock_Shadow
I1013 14:42:31.780591 19486 net.cpp:425] loss_5_o_Clock_Shadow <- label_5_o_Clock_Shadow
I1013 14:42:31.780597 19486 net.cpp:399] loss_5_o_Clock_Shadow -> loss_5_o_Clock_Shadow
I1013 14:42:31.780638 19486 net.cpp:141] Setting up loss_5_o_Clock_Shadow
I1013 14:42:31.780647 19486 net.cpp:148] Top shape: (1)
I1013 14:42:31.780652 19486 net.cpp:151]     with loss weight 1
I1013 14:42:31.780658 19486 net.cpp:156] Memory required for data: 3860456128
I1013 14:42:31.780661 19486 layer_factory.hpp:77] Creating layer fc3_Mustache
I1013 14:42:31.780669 19486 net.cpp:91] Creating Layer fc3_Mustache
I1013 14:42:31.780674 19486 net.cpp:425] fc3_Mustache <- fc2_facialhair_drop2_facialhair_0_split_1
I1013 14:42:31.780694 19486 net.cpp:399] fc3_Mustache -> fc3_Mustache
I1013 14:42:31.780810 19486 net.cpp:141] Setting up fc3_Mustache
I1013 14:42:31.780822 19486 net.cpp:148] Top shape: 100 2 (200)
I1013 14:42:31.780827 19486 net.cpp:156] Memory required for data: 3860456928
I1013 14:42:31.780833 19486 layer_factory.hpp:77] Creating layer loss_Mustache
I1013 14:42:31.780843 19486 net.cpp:91] Creating Layer loss_Mustache
I1013 14:42:31.780848 19486 net.cpp:425] loss_Mustache <- fc3_Mustache
I1013 14:42:31.780854 19486 net.cpp:425] loss_Mustache <- label_Mustache
I1013 14:42:31.780861 19486 net.cpp:399] loss_Mustache -> loss_Mustache
I1013 14:42:31.780905 19486 net.cpp:141] Setting up loss_Mustache
I1013 14:42:31.780915 19486 net.cpp:148] Top shape: (1)
I1013 14:42:31.780920 19486 net.cpp:151]     with loss weight 1
I1013 14:42:31.780925 19486 net.cpp:156] Memory required for data: 3860456932
I1013 14:42:31.780928 19486 layer_factory.hpp:77] Creating layer fc3_No_Beard
I1013 14:42:31.780936 19486 net.cpp:91] Creating Layer fc3_No_Beard
I1013 14:42:31.780941 19486 net.cpp:425] fc3_No_Beard <- fc2_facialhair_drop2_facialhair_0_split_2
I1013 14:42:31.780948 19486 net.cpp:399] fc3_No_Beard -> fc3_No_Beard
I1013 14:42:31.781066 19486 net.cpp:141] Setting up fc3_No_Beard
I1013 14:42:31.781075 19486 net.cpp:148] Top shape: 100 2 (200)
I1013 14:42:31.781080 19486 net.cpp:156] Memory required for data: 3860457732
I1013 14:42:31.781086 19486 layer_factory.hpp:77] Creating layer loss_No_Beard
I1013 14:42:31.781095 19486 net.cpp:91] Creating Layer loss_No_Beard
I1013 14:42:31.781100 19486 net.cpp:425] loss_No_Beard <- fc3_No_Beard
I1013 14:42:31.781106 19486 net.cpp:425] loss_No_Beard <- label_No_Beard
I1013 14:42:31.781113 19486 net.cpp:399] loss_No_Beard -> loss_No_Beard
I1013 14:42:31.781154 19486 net.cpp:141] Setting up loss_No_Beard
I1013 14:42:31.781163 19486 net.cpp:148] Top shape: (1)
I1013 14:42:31.781168 19486 net.cpp:151]     with loss weight 1
I1013 14:42:31.781173 19486 net.cpp:156] Memory required for data: 3860457736
I1013 14:42:31.781177 19486 layer_factory.hpp:77] Creating layer fc3_Sideburns
I1013 14:42:31.781185 19486 net.cpp:91] Creating Layer fc3_Sideburns
I1013 14:42:31.781190 19486 net.cpp:425] fc3_Sideburns <- fc2_facialhair_drop2_facialhair_0_split_3
I1013 14:42:31.781198 19486 net.cpp:399] fc3_Sideburns -> fc3_Sideburns
I1013 14:42:31.781312 19486 net.cpp:141] Setting up fc3_Sideburns
I1013 14:42:31.781322 19486 net.cpp:148] Top shape: 100 2 (200)
I1013 14:42:31.781327 19486 net.cpp:156] Memory required for data: 3860458536
I1013 14:42:31.781333 19486 layer_factory.hpp:77] Creating layer loss_Sideburns
I1013 14:42:31.781342 19486 net.cpp:91] Creating Layer loss_Sideburns
I1013 14:42:31.781347 19486 net.cpp:425] loss_Sideburns <- fc3_Sideburns
I1013 14:42:31.781353 19486 net.cpp:425] loss_Sideburns <- label_Sideburns
I1013 14:42:31.781360 19486 net.cpp:399] loss_Sideburns -> loss_Sideburns
I1013 14:42:31.781401 19486 net.cpp:141] Setting up loss_Sideburns
I1013 14:42:31.781410 19486 net.cpp:148] Top shape: (1)
I1013 14:42:31.781414 19486 net.cpp:151]     with loss weight 1
I1013 14:42:31.781420 19486 net.cpp:156] Memory required for data: 3860458540
I1013 14:42:31.781424 19486 layer_factory.hpp:77] Creating layer fc3_Goatee
I1013 14:42:31.781431 19486 net.cpp:91] Creating Layer fc3_Goatee
I1013 14:42:31.781436 19486 net.cpp:425] fc3_Goatee <- fc2_facialhair_drop2_facialhair_0_split_4
I1013 14:42:31.781445 19486 net.cpp:399] fc3_Goatee -> fc3_Goatee
I1013 14:42:31.781559 19486 net.cpp:141] Setting up fc3_Goatee
I1013 14:42:31.781569 19486 net.cpp:148] Top shape: 100 2 (200)
I1013 14:42:31.781572 19486 net.cpp:156] Memory required for data: 3860459340
I1013 14:42:31.781579 19486 layer_factory.hpp:77] Creating layer loss_Goatee
I1013 14:42:31.781589 19486 net.cpp:91] Creating Layer loss_Goatee
I1013 14:42:31.781594 19486 net.cpp:425] loss_Goatee <- fc3_Goatee
I1013 14:42:31.781599 19486 net.cpp:425] loss_Goatee <- label_Goatee
I1013 14:42:31.781606 19486 net.cpp:399] loss_Goatee -> loss_Goatee
I1013 14:42:31.781661 19486 net.cpp:141] Setting up loss_Goatee
I1013 14:42:31.781672 19486 net.cpp:148] Top shape: (1)
I1013 14:42:31.781675 19486 net.cpp:151]     with loss weight 1
I1013 14:42:31.781682 19486 net.cpp:156] Memory required for data: 3860459344
I1013 14:42:31.781687 19486 layer_factory.hpp:77] Creating layer fc3_High_Cheekbones
I1013 14:42:31.781694 19486 net.cpp:91] Creating Layer fc3_High_Cheekbones
I1013 14:42:31.781699 19486 net.cpp:425] fc3_High_Cheekbones <- fc2_cheeks_drop2_cheeks_0_split_0
I1013 14:42:31.781708 19486 net.cpp:399] fc3_High_Cheekbones -> fc3_High_Cheekbones
I1013 14:42:31.781828 19486 net.cpp:141] Setting up fc3_High_Cheekbones
I1013 14:42:31.781838 19486 net.cpp:148] Top shape: 100 2 (200)
I1013 14:42:31.781842 19486 net.cpp:156] Memory required for data: 3860460144
I1013 14:42:31.781849 19486 layer_factory.hpp:77] Creating layer loss_High_Cheekbones
I1013 14:42:31.781858 19486 net.cpp:91] Creating Layer loss_High_Cheekbones
I1013 14:42:31.781863 19486 net.cpp:425] loss_High_Cheekbones <- fc3_High_Cheekbones
I1013 14:42:31.781869 19486 net.cpp:425] loss_High_Cheekbones <- label_High_Cheekbones
I1013 14:42:31.781877 19486 net.cpp:399] loss_High_Cheekbones -> loss_High_Cheekbones
I1013 14:42:31.781919 19486 net.cpp:141] Setting up loss_High_Cheekbones
I1013 14:42:31.781929 19486 net.cpp:148] Top shape: (1)
I1013 14:42:31.781932 19486 net.cpp:151]     with loss weight 1
I1013 14:42:31.781939 19486 net.cpp:156] Memory required for data: 3860460148
I1013 14:42:31.781942 19486 layer_factory.hpp:77] Creating layer fc3_Rosy_Cheeks
I1013 14:42:31.781949 19486 net.cpp:91] Creating Layer fc3_Rosy_Cheeks
I1013 14:42:31.781956 19486 net.cpp:425] fc3_Rosy_Cheeks <- fc2_cheeks_drop2_cheeks_0_split_1
I1013 14:42:31.781963 19486 net.cpp:399] fc3_Rosy_Cheeks -> fc3_Rosy_Cheeks
…
I1013 14:42:32.983275 19486 net.cpp:141] Setting up loss_Male
I1013 14:42:32.983284 19486 net.cpp:148] Top shape: (1)
I1013 14:42:32.983289 19486 net.cpp:151]     with loss weight 1
I1013 14:42:32.983299 19486 net.cpp:156] Memory required for data: 2470676996
I1013 14:42:32.983304 19486 layer_factory.hpp:77] Creating layer fc3_Big_Nose
I1013 14:42:32.983310 19486 net.cpp:91] Creating Layer fc3_Big_Nose
I1013 14:42:32.983315 19486 net.cpp:425] fc3_Big_Nose <- fc2_nose_drop2_nose_0_split_0
I1013 14:42:32.983325 19486 net.cpp:399] fc3_Big_Nose -> fc3_Big_Nose
I1013 14:42:32.983455 19486 net.cpp:141] Setting up fc3_Big_Nose
I1013 14:42:32.983466 19486 net.cpp:148] Top shape: 64 2 (128)
I1013 14:42:32.983470 19486 net.cpp:156] Memory required for data: 2470677508
I1013 14:42:32.983476 19486 layer_factory.hpp:77] Creating layer loss_Big_Nose
I1013 14:42:32.983485 19486 net.cpp:91] Creating Layer loss_Big_Nose
I1013 14:42:32.983490 19486 net.cpp:425] loss_Big_Nose <- fc3_Big_Nose
I1013 14:42:32.983496 19486 net.cpp:425] loss_Big_Nose <- label_Big_Nose
I1013 14:42:32.983502 19486 net.cpp:399] loss_Big_Nose -> loss_Big_Nose
I1013 14:42:32.983547 19486 net.cpp:141] Setting up loss_Big_Nose
I1013 14:42:32.983556 19486 net.cpp:148] Top shape: (1)
I1013 14:42:32.983561 19486 net.cpp:151]     with loss weight 1
I1013 14:42:32.983566 19486 net.cpp:156] Memory required for data: 2470677512
I1013 14:42:32.983569 19486 layer_factory.hpp:77] Creating layer fc3_Pointy_Nose
I1013 14:42:32.983577 19486 net.cpp:91] Creating Layer fc3_Pointy_Nose
I1013 14:42:32.983580 19486 net.cpp:425] fc3_Pointy_Nose <- fc2_nose_drop2_nose_0_split_1
I1013 14:42:32.983588 19486 net.cpp:399] fc3_Pointy_Nose -> fc3_Pointy_Nose
I1013 14:42:32.983711 19486 net.cpp:141] Setting up fc3_Pointy_Nose
I1013 14:42:32.983721 19486 net.cpp:148] Top shape: 64 2 (128)
I1013 14:42:32.983726 19486 net.cpp:156] Memory required for data: 2470678024
I1013 14:42:32.983757 19486 layer_factory.hpp:77] Creating layer loss_Pointy_Nose
I1013 14:42:32.983767 19486 net.cpp:91] Creating Layer loss_Pointy_Nose
I1013 14:42:32.983772 19486 net.cpp:425] loss_Pointy_Nose <- fc3_Pointy_Nose
I1013 14:42:32.983777 19486 net.cpp:425] loss_Pointy_Nose <- label_Pointy_Nose
I1013 14:42:32.983784 19486 net.cpp:399] loss_Pointy_Nose -> loss_Pointy_Nose
I1013 14:42:32.983839 19486 net.cpp:141] Setting up loss_Pointy_Nose
I1013 14:42:32.983847 19486 net.cpp:148] Top shape: (1)
I1013 14:42:32.983851 19486 net.cpp:151]     with loss weight 1
I1013 14:42:32.983857 19486 net.cpp:156] Memory required for data: 2470678028
I1013 14:42:32.983861 19486 layer_factory.hpp:77] Creating layer fc3_Big_Lips
I1013 14:42:32.983868 19486 net.cpp:91] Creating Layer fc3_Big_Lips
I1013 14:42:32.983885 19486 net.cpp:425] fc3_Big_Lips <- fc2_mouth_drop2_mouth_0_split_0
I1013 14:42:32.983897 19486 net.cpp:399] fc3_Big_Lips -> fc3_Big_Lips
I1013 14:42:32.984030 19486 net.cpp:141] Setting up fc3_Big_Lips
I1013 14:42:32.984040 19486 net.cpp:148] Top shape: 64 2 (128)
I1013 14:42:32.984045 19486 net.cpp:156] Memory required for data: 2470678540
I1013 14:42:32.984050 19486 layer_factory.hpp:77] Creating layer loss_Big_Lips
I1013 14:42:32.984061 19486 net.cpp:91] Creating Layer loss_Big_Lips
I1013 14:42:32.984066 19486 net.cpp:425] loss_Big_Lips <- fc3_Big_Lips
I1013 14:42:32.984071 19486 net.cpp:425] loss_Big_Lips <- label_Big_Lips
I1013 14:42:32.984076 19486 net.cpp:399] loss_Big_Lips -> loss_Big_Lips
I1013 14:42:32.984122 19486 net.cpp:141] Setting up loss_Big_Lips
I1013 14:42:32.984133 19486 net.cpp:148] Top shape: (1)
I1013 14:42:32.984138 19486 net.cpp:151]     with loss weight 1
I1013 14:42:32.984143 19486 net.cpp:156] Memory required for data: 2470678544
I1013 14:42:32.984148 19486 layer_factory.hpp:77] Creating layer fc3_Smiling
I1013 14:42:32.984154 19486 net.cpp:91] Creating Layer fc3_Smiling
I1013 14:42:32.984158 19486 net.cpp:425] fc3_Smiling <- fc2_mouth_drop2_mouth_0_split_1
I1013 14:42:32.984165 19486 net.cpp:399] fc3_Smiling -> fc3_Smiling
I1013 14:42:32.984290 19486 net.cpp:141] Setting up fc3_Smiling
I1013 14:42:32.984300 19486 net.cpp:148] Top shape: 64 2 (128)
I1013 14:42:32.984304 19486 net.cpp:156] Memory required for data: 2470679056
I1013 14:42:32.984310 19486 layer_factory.hpp:77] Creating layer loss_Smiling
I1013 14:42:32.984318 19486 net.cpp:91] Creating Layer loss_Smiling
I1013 14:42:32.984323 19486 net.cpp:425] loss_Smiling <- fc3_Smiling
I1013 14:42:32.984329 19486 net.cpp:425] loss_Smiling <- label_Smiling
I1013 14:42:32.984336 19486 net.cpp:399] loss_Smiling -> loss_Smiling
I1013 14:42:32.984381 19486 net.cpp:141] Setting up loss_Smiling
I1013 14:42:32.984390 19486 net.cpp:148] Top shape: (1)
I1013 14:42:32.984395 19486 net.cpp:151]     with loss weight 1
I1013 14:42:32.984400 19486 net.cpp:156] Memory required for data: 2470679060
I1013 14:42:32.984402 19486 layer_factory.hpp:77] Creating layer fc3_Wearing_Lipstick
I1013 14:42:32.984410 19486 net.cpp:91] Creating Layer fc3_Wearing_Lipstick
I1013 14:42:32.984414 19486 net.cpp:425] fc3_Wearing_Lipstick <- fc2_mouth_drop2_mouth_0_split_2
I1013 14:42:32.984421 19486 net.cpp:399] fc3_Wearing_Lipstick -> fc3_Wearing_Lipstick
I1013 14:42:32.984544 19486 net.cpp:141] Setting up fc3_Wearing_Lipstick
I1013 14:42:32.984555 19486 net.cpp:148] Top shape: 64 2 (128)
I1013 14:42:32.984558 19486 net.cpp:156] Memory required for data: 2470679572
I1013 14:42:32.984565 19486 layer_factory.hpp:77] Creating layer loss_Wearing_Lipstick
I1013 14:42:32.984586 19486 net.cpp:91] Creating Layer loss_Wearing_Lipstick
I1013 14:42:32.984591 19486 net.cpp:425] loss_Wearing_Lipstick <- fc3_Wearing_Lipstick
I1013 14:42:32.984597 19486 net.cpp:425] loss_Wearing_Lipstick <- label_Wearing_Lipstick
I1013 14:42:32.984606 19486 net.cpp:399] loss_Wearing_Lipstick -> loss_Wearing_Lipstick
I1013 14:42:32.984655 19486 net.cpp:141] Setting up loss_Wearing_Lipstick
I1013 14:42:32.984664 19486 net.cpp:148] Top shape: (1)
I1013 14:42:32.984668 19486 net.cpp:151]     with loss weight 1
I1013 14:42:32.984673 19486 net.cpp:156] Memory required for data: 2470679576
I1013 14:42:32.984678 19486 layer_factory.hpp:77] Creating layer fc3_Mouth_Slightly_Open
I1013 14:42:32.984684 19486 net.cpp:91] Creating Layer fc3_Mouth_Slightly_Open
I1013 14:42:32.984689 19486 net.cpp:425] fc3_Mouth_Slightly_Open <- fc2_mouth_drop2_mouth_0_split_3
I1013 14:42:32.984695 19486 net.cpp:399] fc3_Mouth_Slightly_Open -> fc3_Mouth_Slightly_Open
I1013 14:42:32.984822 19486 net.cpp:141] Setting up fc3_Mouth_Slightly_Open
I1013 14:42:32.984833 19486 net.cpp:148] Top shape: 64 2 (128)
I1013 14:42:32.984836 19486 net.cpp:156] Memory required for data: 2470680088
I1013 14:42:32.984843 19486 layer_factory.hpp:77] Creating layer loss_Mouth_Slightly_Open
I1013 14:42:32.984860 19486 net.cpp:91] Creating Layer loss_Mouth_Slightly_Open
I1013 14:42:32.984866 19486 net.cpp:425] loss_Mouth_Slightly_Open <- fc3_Mouth_Slightly_Open
I1013 14:42:32.984872 19486 net.cpp:425] loss_Mouth_Slightly_Open <- label_Mouth_Slightly_Open
I1013 14:42:32.984880 19486 net.cpp:399] loss_Mouth_Slightly_Open -> loss_Mouth_Slightly_Open
I1013 14:42:32.984927 19486 net.cpp:141] Setting up loss_Mouth_Slightly_Open
I1013 14:42:32.984936 19486 net.cpp:148] Top shape: (1)
I1013 14:42:32.984941 19486 net.cpp:151]     with loss weight 1
I1013 14:42:32.984946 19486 net.cpp:156] Memory required for data: 2470680092
I1013 14:42:32.984951 19486 layer_factory.hpp:77] Creating layer fc3_Arched_Eyebrows
I1013 14:42:32.984957 19486 net.cpp:91] Creating Layer fc3_Arched_Eyebrows
I1013 14:42:32.984962 19486 net.cpp:425] fc3_Arched_Eyebrows <- fc2_eyes_drop2_eyes_0_split_0
I1013 14:42:32.984968 19486 net.cpp:399] fc3_Arched_Eyebrows -> fc3_Arched_Eyebrows
I1013 14:42:32.985093 19486 net.cpp:141] Setting up fc3_Arched_Eyebrows
I1013 14:42:32.985105 19486 net.cpp:148] Top shape: 64 2 (128)
I1013 14:42:32.985108 19486 net.cpp:156] Memory required for data: 2470680604
I1013 14:42:32.985115 19486 layer_factory.hpp:77] Creating layer loss_Arched_Eyebrows
I1013 14:42:32.985123 19486 net.cpp:91] Creating Layer loss_Arched_Eyebrows
I1013 14:42:32.985127 19486 net.cpp:425] loss_Arched_Eyebrows <- fc3_Arched_Eyebrows
I1013 14:42:32.985133 19486 net.cpp:425] loss_Arched_Eyebrows <- label_Arched_Eyebrows
I1013 14:42:32.985141 19486 net.cpp:399] loss_Arched_Eyebrows -> loss_Arched_Eyebrows
I1013 14:42:32.985185 19486 net.cpp:141] Setting up loss_Arched_Eyebrows
I1013 14:42:32.985194 19486 net.cpp:148] Top shape: (1)
I1013 14:42:32.985198 19486 net.cpp:151]     with loss weight 1
I1013 14:42:32.985203 19486 net.cpp:156] Memory required for data: 2470680608
I1013 14:42:32.985208 19486 layer_factory.hpp:77] Creating layer fc3_Bags_Under_Eyes
I1013 14:42:32.985213 19486 net.cpp:91] Creating Layer fc3_Bags_Under_Eyes
I1013 14:42:32.985219 19486 net.cpp:425] fc3_Bags_Under_Eyes <- fc2_eyes_drop2_eyes_0_split_1
I1013 14:42:32.985224 19486 net.cpp:399] fc3_Bags_Under_Eyes -> fc3_Bags_Under_Eyes
I1013 14:42:32.985347 19486 net.cpp:141] Setting up fc3_Bags_Under_Eyes
I1013 14:42:32.985357 19486 net.cpp:148] Top shape: 64 2 (128)
I1013 14:42:32.985360 19486 net.cpp:156] Memory required for data: 2470681120
I1013 14:42:32.985366 19486 layer_factory.hpp:77] Creating layer loss_Bags_Under_Eyes
I1013 14:42:32.985374 19486 net.cpp:91] Creating Layer loss_Bags_Under_Eyes
I1013 14:42:32.985379 19486 net.cpp:425] loss_Bags_Under_Eyes <- fc3_Bags_Under_Eyes
I1013 14:42:32.985384 19486 net.cpp:425] loss_Bags_Under_Eyes <- label_Bags_Under_Eyes
I1013 14:42:32.985390 19486 net.cpp:399] loss_Bags_Under_Eyes -> loss_Bags_Under_Eyes
I1013 14:42:32.985437 19486 net.cpp:141] Setting up loss_Bags_Under_Eyes
I1013 14:42:32.985446 19486 net.cpp:148] Top shape: (1)
I1013 14:42:32.985450 19486 net.cpp:151]     with loss weight 1
I1013 14:42:32.985455 19486 net.cpp:156] Memory required for data: 2470681124
I1013 14:42:32.985460 19486 layer_factory.hpp:77] Creating layer fc3_Bushy_Eyebrows
I1013 14:42:32.985466 19486 net.cpp:91] Creating Layer fc3_Bushy_Eyebrows
I1013 14:42:32.985471 19486 net.cpp:425] fc3_Bushy_Eyebrows <- fc2_eyes_drop2_eyes_0_split_2
I1013 14:42:32.985477 19486 net.cpp:399] fc3_Bushy_Eyebrows -> fc3_Bushy_Eyebrows
I1013 14:42:32.985599 19486 net.cpp:141] Setting up fc3_Bushy_Eyebrows
I1013 14:42:32.985610 19486 net.cpp:148] Top shape: 64 2 (128)
I1013 14:42:32.985613 19486 net.cpp:156] Memory required for data: 2470681636
I1013 14:42:32.985620 19486 layer_factory.hpp:77] Creating layer loss_Bushy_Eyebrows
I1013 14:42:32.985630 19486 net.cpp:91] Creating Layer loss_Bushy_Eyebrows
I1013 14:42:32.985635 19486 net.cpp:425] loss_Bushy_Eyebrows <- fc3_Bushy_Eyebrows
I1013 14:42:32.985641 19486 net.cpp:425] loss_Bushy_Eyebrows <- label_Bushy_Eyebrows
I1013 14:42:32.985647 19486 net.cpp:399] loss_Bushy_Eyebrows -> loss_Bushy_Eyebrows
I1013 14:42:32.985693 19486 net.cpp:141] Setting up loss_Bushy_Eyebrows
I1013 14:42:32.985712 19486 net.cpp:148] Top shape: (1)
I1013 14:42:32.985715 19486 net.cpp:151]     with loss weight 1
I1013 14:42:32.985721 19486 net.cpp:156] Memory required for data: 2470681640
I1013 14:42:32.985725 19486 layer_factory.hpp:77] Creating layer fc3_Narrow_Eyes
I1013 14:42:32.985731 19486 net.cpp:91] Creating Layer fc3_Narrow_Eyes
I1013 14:42:32.985736 19486 net.cpp:425] fc3_Narrow_Eyes <- fc2_eyes_drop2_eyes_0_split_3
I1013 14:42:32.985743 19486 net.cpp:399] fc3_Narrow_Eyes -> fc3_Narrow_Eyes
I1013 14:42:32.985868 19486 net.cpp:141] Setting up fc3_Narrow_Eyes
I1013 14:42:32.985878 19486 net.cpp:148] Top shape: 64 2 (128)
I1013 14:42:32.985882 19486 net.cpp:156] Memory required for data: 2470682152
I1013 14:42:32.985888 19486 layer_factory.hpp:77] Creating layer loss_Narrow_Eyes
I1013 14:42:32.985898 19486 net.cpp:91] Creating Layer loss_Narrow_Eyes
I1013 14:42:32.985903 19486 net.cpp:425] loss_Narrow_Eyes <- fc3_Narrow_Eyes
I1013 14:42:32.985908 19486 net.cpp:425] loss_Narrow_Eyes <- label_Narrow_Eyes
I1013 14:42:32.985913 19486 net.cpp:399] loss_Narrow_Eyes -> loss_Narrow_Eyes
I1013 14:42:32.985961 19486 net.cpp:141] Setting up loss_Narrow_Eyes
I1013 14:42:32.985970 19486 net.cpp:148] Top shape: (1)
I1013 14:42:32.985973 19486 net.cpp:151]     with loss weight 1
I1013 14:42:32.985980 19486 net.cpp:156] Memory required for data: 2470682156
I1013 14:42:32.985982 19486 layer_factory.hpp:77] Creating layer fc3_Eyeglasses
I1013 14:42:32.985990 19486 net.cpp:91] Creating Layer fc3_Eyeglasses
I1013 14:42:32.985994 19486 net.cpp:425] fc3_Eyeglasses <- fc2_eyes_drop2_eyes_0_split_4
I1013 14:42:32.986001 19486 net.cpp:399] fc3_Eyeglasses -> fc3_Eyeglasses
I1013 14:42:32.986127 19486 net.cpp:141] Setting up fc3_Eyeglasses
I1013 14:42:32.986142 19486 net.cpp:148] Top shape: 64 2 (128)
I1013 14:42:32.986150 19486 net.cpp:156] Memory required for data: 2470682668
I1013 14:42:32.986158 19486 layer_factory.hpp:77] Creating layer loss_Eyeglasses
I1013 14:42:32.986168 19486 net.cpp:91] Creating Layer loss_Eyeglasses
I1013 14:42:32.986174 19486 net.cpp:425] loss_Eyeglasses <- fc3_Eyeglasses
I1013 14:42:32.986179 19486 net.cpp:425] loss_Eyeglasses <- label_Eyeglasses
I1013 14:42:32.986186 19486 net.cpp:399] loss_Eyeglasses -> loss_Eyeglasses
I1013 14:42:32.986238 19486 net.cpp:141] Setting up loss_Eyeglasses
I1013 14:42:32.986248 19486 net.cpp:148] Top shape: (1)
I1013 14:42:32.986251 19486 net.cpp:151]     with loss weight 1
I1013 14:42:32.986258 19486 net.cpp:156] Memory required for data: 2470682672
I1013 14:42:32.986260 19486 layer_factory.hpp:77] Creating layer fc3_Attractive
I1013 14:42:32.986268 19486 net.cpp:91] Creating Layer fc3_Attractive
I1013 14:42:32.986273 19486 net.cpp:425] fc3_Attractive <- fc2_face_drop2_face_0_split_0
I1013 14:42:32.986279 19486 net.cpp:399] fc3_Attractive -> fc3_Attractive
I1013 14:42:32.986402 19486 net.cpp:141] Setting up fc3_Attractive
I1013 14:42:32.986413 19486 net.cpp:148] Top shape: 64 2 (128)
I1013 14:42:32.986416 19486 net.cpp:156] Memory required for data: 2470683184
I1013 14:42:32.986423 19486 layer_factory.hpp:77] Creating layer loss_Attractive
I1013 14:42:32.986431 19486 net.cpp:91] Creating Layer loss_Attractive
I1013 14:42:32.986435 19486 net.cpp:425] loss_Attractive <- fc3_Attractive
I1013 14:42:32.986440 19486 net.cpp:425] loss_Attractive <- label_Attractive
I1013 14:42:32.986446 19486 net.cpp:399] loss_Attractive -> loss_Attractive
I1013 14:42:32.986492 19486 net.cpp:141] Setting up loss_Attractive
I1013 14:42:32.986501 19486 net.cpp:148] Top shape: (1)
I1013 14:42:32.986505 19486 net.cpp:151]     with loss weight 1
I1013 14:42:32.986510 19486 net.cpp:156] Memory required for data: 2470683188
I1013 14:42:32.986515 19486 layer_factory.hpp:77] Creating layer fc3_Blurry
I1013 14:42:32.986521 19486 net.cpp:91] Creating Layer fc3_Blurry
I1013 14:42:32.986526 19486 net.cpp:425] fc3_Blurry <- fc2_face_drop2_face_0_split_1
I1013 14:42:32.986531 19486 net.cpp:399] fc3_Blurry -> fc3_Blurry
I1013 14:42:32.986656 19486 net.cpp:141] Setting up fc3_Blurry
I1013 14:42:32.986677 19486 net.cpp:148] Top shape: 64 2 (128)
I1013 14:42:32.986682 19486 net.cpp:156] Memory required for data: 2470683700
I1013 14:42:32.986688 19486 layer_factory.hpp:77] Creating layer loss_Blurry
I1013 14:42:32.986697 19486 net.cpp:91] Creating Layer loss_Blurry
I1013 14:42:32.986702 19486 net.cpp:425] loss_Blurry <- fc3_Blurry
I1013 14:42:32.986708 19486 net.cpp:425] loss_Blurry <- label_Blurry
I1013 14:42:32.986714 19486 net.cpp:399] loss_Blurry -> loss_Blurry
I1013 14:42:32.986763 19486 net.cpp:141] Setting up loss_Blurry
I1013 14:42:32.986771 19486 net.cpp:148] Top shape: (1)
I1013 14:42:32.986775 19486 net.cpp:151]     with loss weight 1
I1013 14:42:32.986780 19486 net.cpp:156] Memory required for data: 2470683704
I1013 14:42:32.986784 19486 layer_factory.hpp:77] Creating layer fc3_Oval_Face
I1013 14:42:32.986791 19486 net.cpp:91] Creating Layer fc3_Oval_Face
I1013 14:42:32.986795 19486 net.cpp:425] fc3_Oval_Face <- fc2_face_drop2_face_0_split_2
I1013 14:42:32.986801 19486 net.cpp:399] fc3_Oval_Face -> fc3_Oval_Face
I1013 14:42:32.986928 19486 net.cpp:141] Setting up fc3_Oval_Face
I1013 14:42:32.986938 19486 net.cpp:148] Top shape: 64 2 (128)
I1013 14:42:32.986943 19486 net.cpp:156] Memory required for data: 2470684216
I1013 14:42:32.986948 19486 layer_factory.hpp:77] Creating layer loss_Oval_Face
I1013 14:42:32.986956 19486 net.cpp:91] Creating Layer loss_Oval_Face
I1013 14:42:32.986961 19486 net.cpp:425] loss_Oval_Face <- fc3_Oval_Face
I1013 14:42:32.986968 19486 net.cpp:425] loss_Oval_Face <- label_Oval_Face
I1013 14:42:32.986973 19486 net.cpp:399] loss_Oval_Face -> loss_Oval_Face
I1013 14:42:32.987020 19486 net.cpp:141] Setting up loss_Oval_Face
I1013 14:42:32.987028 19486 net.cpp:148] Top shape: (1)
I1013 14:42:32.987032 19486 net.cpp:151]     with loss weight 1
I1013 14:42:32.987037 19486 net.cpp:156] Memory required for data: 2470684220
I1013 14:42:32.987041 19486 layer_factory.hpp:77] Creating layer fc3_Pale_Skin
I1013 14:42:32.987048 19486 net.cpp:91] Creating Layer fc3_Pale_Skin
I1013 14:42:32.987052 19486 net.cpp:425] fc3_Pale_Skin <- fc2_face_drop2_face_0_split_3
I1013 14:42:32.987058 19486 net.cpp:399] fc3_Pale_Skin -> fc3_Pale_Skin
I1013 14:42:32.987182 19486 net.cpp:141] Setting up fc3_Pale_Skin
I1013 14:42:32.987192 19486 net.cpp:148] Top shape: 64 2 (128)
I1013 14:42:32.987196 19486 net.cpp:156] Memory required for data: 2470684732
I1013 14:42:32.987202 19486 layer_factory.hpp:77] Creating layer loss_Pale_Skin
I1013 14:42:32.987210 19486 net.cpp:91] Creating Layer loss_Pale_Skin
I1013 14:42:32.987215 19486 net.cpp:425] loss_Pale_Skin <- fc3_Pale_Skin
I1013 14:42:32.987221 19486 net.cpp:425] loss_Pale_Skin <- label_Pale_Skin
I1013 14:42:32.987226 19486 net.cpp:399] loss_Pale_Skin -> loss_Pale_Skin
I1013 14:42:32.987272 19486 net.cpp:141] Setting up loss_Pale_Skin
I1013 14:42:32.987280 19486 net.cpp:148] Top shape: (1)
I1013 14:42:32.987284 19486 net.cpp:151]     with loss weight 1
I1013 14:42:32.987289 19486 net.cpp:156] Memory required for data: 2470684736
I1013 14:42:32.987293 19486 layer_factory.hpp:77] Creating layer fc3_Young
I1013 14:42:32.987299 19486 net.cpp:91] Creating Layer fc3_Young
I1013 14:42:32.987304 19486 net.cpp:425] fc3_Young <- fc2_face_drop2_face_0_split_4
I1013 14:42:32.987310 19486 net.cpp:399] fc3_Young -> fc3_Young
I1013 14:42:32.987437 19486 net.cpp:141] Setting up fc3_Young
I1013 14:42:32.987447 19486 net.cpp:148] Top shape: 64 2 (128)
I1013 14:42:32.987452 19486 net.cpp:156] Memory required for data: 2470685248
I1013 14:42:32.987458 19486 layer_factory.hpp:77] Creating layer loss_Young
I1013 14:42:32.987467 19486 net.cpp:91] Creating Layer loss_Young
I1013 14:42:32.987471 19486 net.cpp:425] loss_Young <- fc3_Young
I1013 14:42:32.987478 19486 net.cpp:425] loss_Young <- label_Young
I1013 14:42:32.987483 19486 net.cpp:399] loss_Young -> loss_Young
I1013 14:42:32.987530 19486 net.cpp:141] Setting up loss_Young
I1013 14:42:32.987538 19486 net.cpp:148] Top shape: (1)
I1013 14:42:32.987542 19486 net.cpp:151]     with loss weight 1
I1013 14:42:32.987556 19486 net.cpp:156] Memory required for data: 2470685252
I1013 14:42:32.987561 19486 layer_factory.hpp:77] Creating layer fc3_Heavy_Makeup
I1013 14:42:32.987568 19486 net.cpp:91] Creating Layer fc3_Heavy_Makeup
I1013 14:42:32.987573 19486 net.cpp:425] fc3_Heavy_Makeup <- fc2_face_drop2_face_0_split_5
I1013 14:42:32.987579 19486 net.cpp:399] fc3_Heavy_Makeup -> fc3_Heavy_Makeup
I1013 14:42:32.987704 19486 net.cpp:141] Setting up fc3_Heavy_Makeup
I1013 14:42:32.987715 19486 net.cpp:148] Top shape: 64 2 (128)
I1013 14:42:32.987718 19486 net.cpp:156] Memory required for data: 2470685764
I1013 14:42:32.987725 19486 layer_factory.hpp:77] Creating layer loss_Heavy_Makeup
I1013 14:42:32.987731 19486 net.cpp:91] Creating Layer loss_Heavy_Makeup
I1013 14:42:32.987736 19486 net.cpp:425] loss_Heavy_Makeup <- fc3_Heavy_Makeup
I1013 14:42:32.987746 19486 net.cpp:425] loss_Heavy_Makeup <- label_Heavy_Makeup
I1013 14:42:32.987752 19486 net.cpp:399] loss_Heavy_Makeup -> loss_Heavy_Makeup
I1013 14:42:32.987798 19486 net.cpp:141] Setting up loss_Heavy_Makeup
I1013 14:42:32.987807 19486 net.cpp:148] Top shape: (1)
I1013 14:42:32.987818 19486 net.cpp:151]     with loss weight 1
I1013 14:42:32.987824 19486 net.cpp:156] Memory required for data: 2470685768
I1013 14:42:32.987828 19486 layer_factory.hpp:77] Creating layer fc3_Black_Hair
I1013 14:42:32.987834 19486 net.cpp:91] Creating Layer fc3_Black_Hair
I1013 14:42:32.987839 19486 net.cpp:425] fc3_Black_Hair <- fc2_aroundhead_drop2_aroundhead_0_split_0
I1013 14:42:32.987846 19486 net.cpp:399] fc3_Black_Hair -> fc3_Black_Hair
I1013 14:42:32.987972 19486 net.cpp:141] Setting up fc3_Black_Hair
I1013 14:42:32.987982 19486 net.cpp:148] Top shape: 64 2 (128)
I1013 14:42:32.987985 19486 net.cpp:156] Memory required for data: 2470686280
I1013 14:42:32.987992 19486 layer_factory.hpp:77] Creating layer loss_Black_Hair
I1013 14:42:32.987998 19486 net.cpp:91] Creating Layer loss_Black_Hair
I1013 14:42:32.988003 19486 net.cpp:425] loss_Black_Hair <- fc3_Black_Hair
I1013 14:42:32.988008 19486 net.cpp:425] loss_Black_Hair <- label_Black_Hair
I1013 14:42:32.988016 19486 net.cpp:399] loss_Black_Hair -> loss_Black_Hair
I1013 14:42:32.988062 19486 net.cpp:141] Setting up loss_Black_Hair
I1013 14:42:32.988073 19486 net.cpp:148] Top shape: (1)
I1013 14:42:32.988077 19486 net.cpp:151]     with loss weight 1
I1013 14:42:32.988082 19486 net.cpp:156] Memory required for data: 2470686284
I1013 14:42:32.988086 19486 layer_factory.hpp:77] Creating layer fc3_Blond_Hair
I1013 14:42:32.988092 19486 net.cpp:91] Creating Layer fc3_Blond_Hair
I1013 14:42:32.988097 19486 net.cpp:425] fc3_Blond_Hair <- fc2_aroundhead_drop2_aroundhead_0_split_1
I1013 14:42:32.988103 19486 net.cpp:399] fc3_Blond_Hair -> fc3_Blond_Hair
I1013 14:42:32.988229 19486 net.cpp:141] Setting up fc3_Blond_Hair
I1013 14:42:32.988240 19486 net.cpp:148] Top shape: 64 2 (128)
I1013 14:42:32.988243 19486 net.cpp:156] Memory required for data: 2470686796
I1013 14:42:32.988250 19486 layer_factory.hpp:77] Creating layer loss_Blond_Hair
I1013 14:42:32.988256 19486 net.cpp:91] Creating Layer loss_Blond_Hair
I1013 14:42:32.988261 19486 net.cpp:425] loss_Blond_Hair <- fc3_Blond_Hair
I1013 14:42:32.988265 19486 net.cpp:425] loss_Blond_Hair <- label_Blond_Hair
I1013 14:42:32.988273 19486 net.cpp:399] loss_Blond_Hair -> loss_Blond_Hair
I1013 14:42:32.988318 19486 net.cpp:141] Setting up loss_Blond_Hair
I1013 14:42:32.988327 19486 net.cpp:148] Top shape: (1)
I1013 14:42:32.988330 19486 net.cpp:151]     with loss weight 1
I1013 14:42:32.988337 19486 net.cpp:156] Memory required for data: 2470686800
I1013 14:42:32.988339 19486 layer_factory.hpp:77] Creating layer fc3_Brown_Hair
I1013 14:42:32.988348 19486 net.cpp:91] Creating Layer fc3_Brown_Hair
I1013 14:42:32.988353 19486 net.cpp:425] fc3_Brown_Hair <- fc2_aroundhead_drop2_aroundhead_0_split_2
I1013 14:42:32.988359 19486 net.cpp:399] fc3_Brown_Hair -> fc3_Brown_Hair
I1013 14:42:32.988481 19486 net.cpp:141] Setting up fc3_Brown_Hair
I1013 14:42:32.988492 19486 net.cpp:148] Top shape: 64 2 (128)
I1013 14:42:32.988507 19486 net.cpp:156] Memory required for data: 2470687312
I1013 14:42:32.988513 19486 layer_factory.hpp:77] Creating layer loss_Brown_Hair
I1013 14:42:32.988520 19486 net.cpp:91] Creating Layer loss_Brown_Hair
I1013 14:42:32.988525 19486 net.cpp:425] loss_Brown_Hair <- fc3_Brown_Hair
I1013 14:42:32.988530 19486 net.cpp:425] loss_Brown_Hair <- label_Brown_Hair
I1013 14:42:32.988538 19486 net.cpp:399] loss_Brown_Hair -> loss_Brown_Hair
I1013 14:42:32.988585 19486 net.cpp:141] Setting up loss_Brown_Hair
I1013 14:42:32.988595 19486 net.cpp:148] Top shape: (1)
I1013 14:42:32.988597 19486 net.cpp:151]     with loss weight 1
I1013 14:42:32.988603 19486 net.cpp:156] Memory required for data: 2470687316
I1013 14:42:32.988606 19486 layer_factory.hpp:77] Creating layer fc3_Gray_Hair
I1013 14:42:32.988615 19486 net.cpp:91] Creating Layer fc3_Gray_Hair
I1013 14:42:32.988620 19486 net.cpp:425] fc3_Gray_Hair <- fc2_aroundhead_drop2_aroundhead_0_split_3
I1013 14:42:32.988626 19486 net.cpp:399] fc3_Gray_Hair -> fc3_Gray_Hair
I1013 14:42:32.988747 19486 net.cpp:141] Setting up fc3_Gray_Hair
I1013 14:42:32.988759 19486 net.cpp:148] Top shape: 64 2 (128)
I1013 14:42:32.988765 19486 net.cpp:156] Memory required for data: 2470687828
I1013 14:42:32.988770 19486 layer_factory.hpp:77] Creating layer loss_Gray_Hair
I1013 14:42:32.988776 19486 net.cpp:91] Creating Layer loss_Gray_Hair
I1013 14:42:32.988781 19486 net.cpp:425] loss_Gray_Hair <- fc3_Gray_Hair
I1013 14:42:32.988786 19486 net.cpp:425] loss_Gray_Hair <- label_Gray_Hair
I1013 14:42:32.988795 19486 net.cpp:399] loss_Gray_Hair -> loss_Gray_Hair
I1013 14:42:32.988838 19486 net.cpp:141] Setting up loss_Gray_Hair
I1013 14:42:32.988847 19486 net.cpp:148] Top shape: (1)
I1013 14:42:32.988850 19486 net.cpp:151]     with loss weight 1
I1013 14:42:32.988855 19486 net.cpp:156] Memory required for data: 2470687832
I1013 14:42:32.988859 19486 layer_factory.hpp:77] Creating layer fc3_Wearing_Earrings
I1013 14:42:32.988868 19486 net.cpp:91] Creating Layer fc3_Wearing_Earrings
I1013 14:42:32.988873 19486 net.cpp:425] fc3_Wearing_Earrings <- fc2_aroundhead_drop2_aroundhead_0_split_4
I1013 14:42:32.988879 19486 net.cpp:399] fc3_Wearing_Earrings -> fc3_Wearing_Earrings
I1013 14:42:32.988998 19486 net.cpp:141] Setting up fc3_Wearing_Earrings
I1013 14:42:32.989009 19486 net.cpp:148] Top shape: 64 2 (128)
I1013 14:42:32.989013 19486 net.cpp:156] Memory required for data: 2470688344
I1013 14:42:32.989019 19486 layer_factory.hpp:77] Creating layer loss_Wearing_Earrings
I1013 14:42:32.989027 19486 net.cpp:91] Creating Layer loss_Wearing_Earrings
I1013 14:42:32.989032 19486 net.cpp:425] loss_Wearing_Earrings <- fc3_Wearing_Earrings
I1013 14:42:32.989037 19486 net.cpp:425] loss_Wearing_Earrings <- label_Wearing_Earrings
I1013 14:42:32.989044 19486 net.cpp:399] loss_Wearing_Earrings -> loss_Wearing_Earrings
I1013 14:42:32.989089 19486 net.cpp:141] Setting up loss_Wearing_Earrings
I1013 14:42:32.989097 19486 net.cpp:148] Top shape: (1)
I1013 14:42:32.989101 19486 net.cpp:151]     with loss weight 1
I1013 14:42:32.989106 19486 net.cpp:156] Memory required for data: 2470688348
I1013 14:42:32.989110 19486 layer_factory.hpp:77] Creating layer fc3_Wearing_Necklace
I1013 14:42:32.989120 19486 net.cpp:91] Creating Layer fc3_Wearing_Necklace
I1013 14:42:32.989123 19486 net.cpp:425] fc3_Wearing_Necklace <- fc2_aroundhead_drop2_aroundhead_0_split_5
I1013 14:42:32.989130 19486 net.cpp:399] fc3_Wearing_Necklace -> fc3_Wearing_Necklace
I1013 14:42:32.989253 19486 net.cpp:141] Setting up fc3_Wearing_Necklace
I1013 14:42:32.989262 19486 net.cpp:148] Top shape: 64 2 (128)
I1013 14:42:32.989266 19486 net.cpp:156] Memory required for data: 2470688860
I1013 14:42:32.989272 19486 layer_factory.hpp:77] Creating layer loss_Wearing_Necklace
I1013 14:42:32.989281 19486 net.cpp:91] Creating Layer loss_Wearing_Necklace
I1013 14:42:32.989285 19486 net.cpp:425] loss_Wearing_Necklace <- fc3_Wearing_Necklace
I1013 14:42:32.989291 19486 net.cpp:425] loss_Wearing_Necklace <- label_Wearing_Necklace
I1013 14:42:32.989300 19486 net.cpp:399] loss_Wearing_Necklace -> loss_Wearing_Necklace
I1013 14:42:32.989356 19486 net.cpp:141] Setting up loss_Wearing_Necklace
I1013 14:42:32.989367 19486 net.cpp:148] Top shape: (1)
I1013 14:42:32.989370 19486 net.cpp:151]     with loss weight 1
I1013 14:42:32.989375 19486 net.cpp:156] Memory required for data: 2470688864
I1013 14:42:32.989379 19486 layer_factory.hpp:77] Creating layer fc3_Wearing_Necktie
I1013 14:42:32.989389 19486 net.cpp:91] Creating Layer fc3_Wearing_Necktie
I1013 14:42:32.989394 19486 net.cpp:425] fc3_Wearing_Necktie <- fc2_aroundhead_drop2_aroundhead_0_split_6
I1013 14:42:32.989401 19486 net.cpp:399] fc3_Wearing_Necktie -> fc3_Wearing_Necktie
I1013 14:42:32.989522 19486 net.cpp:141] Setting up fc3_Wearing_Necktie
I1013 14:42:32.989532 19486 net.cpp:148] Top shape: 64 2 (128)
I1013 14:42:32.989536 19486 net.cpp:156] Memory required for data: 2470689376
I1013 14:42:32.989542 19486 layer_factory.hpp:77] Creating layer loss_Wearing_Necktie
I1013 14:42:32.989550 19486 net.cpp:91] Creating Layer loss_Wearing_Necktie
I1013 14:42:32.989555 19486 net.cpp:425] loss_Wearing_Necktie <- fc3_Wearing_Necktie
I1013 14:42:32.989560 19486 net.cpp:425] loss_Wearing_Necktie <- label_Wearing_Necktie
I1013 14:42:32.989568 19486 net.cpp:399] loss_Wearing_Necktie -> loss_Wearing_Necktie
I1013 14:42:32.989612 19486 net.cpp:141] Setting up loss_Wearing_Necktie
I1013 14:42:32.989621 19486 net.cpp:148] Top shape: (1)
I1013 14:42:32.989625 19486 net.cpp:151]     with loss weight 1
I1013 14:42:32.989630 19486 net.cpp:156] Memory required for data: 2470689380
I1013 14:42:32.989634 19486 layer_factory.hpp:77] Creating layer fc3_Bald
I1013 14:42:32.989644 19486 net.cpp:91] Creating Layer fc3_Bald
I1013 14:42:32.989647 19486 net.cpp:425] fc3_Bald <- fc2_aroundhead_drop2_aroundhead_0_split_7
I1013 14:42:32.989655 19486 net.cpp:399] fc3_Bald -> fc3_Bald
I1013 14:42:32.989778 19486 net.cpp:141] Setting up fc3_Bald
I1013 14:42:32.989789 19486 net.cpp:148] Top shape: 64 2 (128)
I1013 14:42:32.989791 19486 net.cpp:156] Memory required for data: 2470689892
I1013 14:42:32.989797 19486 layer_factory.hpp:77] Creating layer loss_Bald
I1013 14:42:32.989806 19486 net.cpp:91] Creating Layer loss_Bald
I1013 14:42:32.989810 19486 net.cpp:425] loss_Bald <- fc3_Bald
I1013 14:42:32.989815 19486 net.cpp:425] loss_Bald <- label_Bald
I1013 14:42:32.989823 19486 net.cpp:399] loss_Bald -> loss_Bald
I1013 14:42:32.989869 19486 net.cpp:141] Setting up loss_Bald
I1013 14:42:32.989877 19486 net.cpp:148] Top shape: (1)
I1013 14:42:32.989881 19486 net.cpp:151]     with loss weight 1
I1013 14:42:32.989886 19486 net.cpp:156] Memory required for data: 2470689896
I1013 14:42:32.989889 19486 layer_factory.hpp:77] Creating layer fc3_Receding_Hairline
I1013 14:42:32.989898 19486 net.cpp:91] Creating Layer fc3_Receding_Hairline
I1013 14:42:32.989903 19486 net.cpp:425] fc3_Receding_Hairline <- fc2_aroundhead_drop2_aroundhead_0_split_8
I1013 14:42:32.989909 19486 net.cpp:399] fc3_Receding_Hairline -> fc3_Receding_Hairline
I1013 14:42:32.990034 19486 net.cpp:141] Setting up fc3_Receding_Hairline
I1013 14:42:32.990044 19486 net.cpp:148] Top shape: 64 2 (128)
I1013 14:42:32.990048 19486 net.cpp:156] Memory required for data: 2470690408
I1013 14:42:32.990054 19486 layer_factory.hpp:77] Creating layer loss_Receding_Hairline
I1013 14:42:32.990063 19486 net.cpp:91] Creating Layer loss_Receding_Hairline
I1013 14:42:32.990068 19486 net.cpp:425] loss_Receding_Hairline <- fc3_Receding_Hairline
I1013 14:42:32.990073 19486 net.cpp:425] loss_Receding_Hairline <- label_Receding_Hairline
I1013 14:42:32.990079 19486 net.cpp:399] loss_Receding_Hairline -> loss_Receding_Hairline
I1013 14:42:32.990128 19486 net.cpp:141] Setting up loss_Receding_Hairline
I1013 14:42:32.990136 19486 net.cpp:148] Top shape: (1)
I1013 14:42:32.990140 19486 net.cpp:151]     with loss weight 1
I1013 14:42:32.990145 19486 net.cpp:156] Memory required for data: 2470690412
I1013 14:42:32.990149 19486 layer_factory.hpp:77] Creating layer fc3_Bangs
I1013 14:42:32.990157 19486 net.cpp:91] Creating Layer fc3_Bangs
I1013 14:42:32.990171 19486 net.cpp:425] fc3_Bangs <- fc2_aroundhead_drop2_aroundhead_0_split_9
I1013 14:42:32.990178 19486 net.cpp:399] fc3_Bangs -> fc3_Bangs
I1013 14:42:32.990303 19486 net.cpp:141] Setting up fc3_Bangs
I1013 14:42:32.990312 19486 net.cpp:148] Top shape: 64 2 (128)
I1013 14:42:32.990316 19486 net.cpp:156] Memory required for data: 2470690924
I1013 14:42:32.990322 19486 layer_factory.hpp:77] Creating layer loss_Bangs
I1013 14:42:32.990331 19486 net.cpp:91] Creating Layer loss_Bangs
I1013 14:42:32.990336 19486 net.cpp:425] loss_Bangs <- fc3_Bangs
I1013 14:42:32.990341 19486 net.cpp:425] loss_Bangs <- label_Bangs
I1013 14:42:32.990347 19486 net.cpp:399] loss_Bangs -> loss_Bangs
I1013 14:42:32.990393 19486 net.cpp:141] Setting up loss_Bangs
I1013 14:42:32.990402 19486 net.cpp:148] Top shape: (1)
I1013 14:42:32.990406 19486 net.cpp:151]     with loss weight 1
I1013 14:42:32.990411 19486 net.cpp:156] Memory required for data: 2470690928
I1013 14:42:32.990416 19486 layer_factory.hpp:77] Creating layer fc3_Wearing_Hat
I1013 14:42:32.990423 19486 net.cpp:91] Creating Layer fc3_Wearing_Hat
I1013 14:42:32.990428 19486 net.cpp:425] fc3_Wearing_Hat <- fc2_aroundhead_drop2_aroundhead_0_split_10
I1013 14:42:32.990435 19486 net.cpp:399] fc3_Wearing_Hat -> fc3_Wearing_Hat
I1013 14:42:32.990557 19486 net.cpp:141] Setting up fc3_Wearing_Hat
I1013 14:42:32.990566 19486 net.cpp:148] Top shape: 64 2 (128)
I1013 14:42:32.990571 19486 net.cpp:156] Memory required for data: 2470691440
I1013 14:42:32.990576 19486 layer_factory.hpp:77] Creating layer loss_Wearing_Hat
I1013 14:42:32.990586 19486 net.cpp:91] Creating Layer loss_Wearing_Hat
I1013 14:42:32.990591 19486 net.cpp:425] loss_Wearing_Hat <- fc3_Wearing_Hat
I1013 14:42:32.990595 19486 net.cpp:425] loss_Wearing_Hat <- label_Wearing_Hat
I1013 14:42:32.990602 19486 net.cpp:399] loss_Wearing_Hat -> loss_Wearing_Hat
I1013 14:42:32.990648 19486 net.cpp:141] Setting up loss_Wearing_Hat
I1013 14:42:32.990656 19486 net.cpp:148] Top shape: (1)
I1013 14:42:32.990660 19486 net.cpp:151]     with loss weight 1
I1013 14:42:32.990665 19486 net.cpp:156] Memory required for data: 2470691444
I1013 14:42:32.990669 19486 layer_factory.hpp:77] Creating layer fc3_Straight_Hair
I1013 14:42:32.990677 19486 net.cpp:91] Creating Layer fc3_Straight_Hair
I1013 14:42:32.990682 19486 net.cpp:425] fc3_Straight_Hair <- fc2_aroundhead_drop2_aroundhead_0_split_11
I1013 14:42:32.990689 19486 net.cpp:399] fc3_Straight_Hair -> fc3_Straight_Hair
I1013 14:42:32.990814 19486 net.cpp:141] Setting up fc3_Straight_Hair
I1013 14:42:32.990823 19486 net.cpp:148] Top shape: 64 2 (128)
I1013 14:42:32.990828 19486 net.cpp:156] Memory required for data: 2470691956
I1013 14:42:32.990833 19486 layer_factory.hpp:77] Creating layer loss_Straight_Hair
I1013 14:42:32.990846 19486 net.cpp:91] Creating Layer loss_Straight_Hair
I1013 14:42:32.990850 19486 net.cpp:425] loss_Straight_Hair <- fc3_Straight_Hair
I1013 14:42:32.990856 19486 net.cpp:425] loss_Straight_Hair <- label_Straight_Hair
I1013 14:42:32.990862 19486 net.cpp:399] loss_Straight_Hair -> loss_Straight_Hair
I1013 14:42:32.990909 19486 net.cpp:141] Setting up loss_Straight_Hair
I1013 14:42:32.990917 19486 net.cpp:148] Top shape: (1)
I1013 14:42:32.990922 19486 net.cpp:151]     with loss weight 1
I1013 14:42:32.990927 19486 net.cpp:156] Memory required for data: 2470691960
I1013 14:42:32.990931 19486 layer_factory.hpp:77] Creating layer fc3_Wavy_Hair
I1013 14:42:32.990939 19486 net.cpp:91] Creating Layer fc3_Wavy_Hair
I1013 14:42:32.990944 19486 net.cpp:425] fc3_Wavy_Hair <- fc2_aroundhead_drop2_aroundhead_0_split_12
I1013 14:42:32.990950 19486 net.cpp:399] fc3_Wavy_Hair -> fc3_Wavy_Hair
I1013 14:42:32.991816 19486 net.cpp:141] Setting up fc3_Wavy_Hair
I1013 14:42:32.991843 19486 net.cpp:148] Top shape: 64 2 (128)
I1013 14:42:32.991848 19486 net.cpp:156] Memory required for data: 2470692472
I1013 14:42:32.991857 19486 layer_factory.hpp:77] Creating layer loss_Wavy_Hair
I1013 14:42:32.991865 19486 net.cpp:91] Creating Layer loss_Wavy_Hair
I1013 14:42:32.991871 19486 net.cpp:425] loss_Wavy_Hair <- fc3_Wavy_Hair
I1013 14:42:32.991888 19486 net.cpp:425] loss_Wavy_Hair <- label_Wavy_Hair
I1013 14:42:32.991897 19486 net.cpp:399] loss_Wavy_Hair -> loss_Wavy_Hair
I1013 14:42:32.991940 19486 net.cpp:141] Setting up loss_Wavy_Hair
I1013 14:42:32.991948 19486 net.cpp:148] Top shape: (1)
I1013 14:42:32.991952 19486 net.cpp:151]     with loss weight 1
I1013 14:42:32.991958 19486 net.cpp:156] Memory required for data: 2470692476
I1013 14:42:32.991961 19486 layer_factory.hpp:77] Creating layer fc3_5_o_Clock_Shadow
I1013 14:42:32.991976 19486 net.cpp:91] Creating Layer fc3_5_o_Clock_Shadow
I1013 14:42:32.991981 19486 net.cpp:425] fc3_5_o_Clock_Shadow <- fc2_facialhair_drop2_facialhair_0_split_0
I1013 14:42:32.991986 19486 net.cpp:399] fc3_5_o_Clock_Shadow -> fc3_5_o_Clock_Shadow
I1013 14:42:32.992099 19486 net.cpp:141] Setting up fc3_5_o_Clock_Shadow
I1013 14:42:32.992110 19486 net.cpp:148] Top shape: 64 2 (128)
I1013 14:42:32.992115 19486 net.cpp:156] Memory required for data: 2470692988
I1013 14:42:32.992120 19486 layer_factory.hpp:77] Creating layer loss_5_o_Clock_Shadow
I1013 14:42:32.992130 19486 net.cpp:91] Creating Layer loss_5_o_Clock_Shadow
I1013 14:42:32.992133 19486 net.cpp:425] loss_5_o_Clock_Shadow <- fc3_5_o_Clock_Shadow
I1013 14:42:32.992139 19486 net.cpp:425] loss_5_o_Clock_Shadow <- label_5_o_Clock_Shadow
I1013 14:42:32.992146 19486 net.cpp:399] loss_5_o_Clock_Shadow -> loss_5_o_Clock_Shadow
I1013 14:42:32.992185 19486 net.cpp:141] Setting up loss_5_o_Clock_Shadow
I1013 14:42:32.992193 19486 net.cpp:148] Top shape: (1)
I1013 14:42:32.992197 19486 net.cpp:151]     with loss weight 1
I1013 14:42:32.992203 19486 net.cpp:156] Memory required for data: 2470692992
I1013 14:42:32.992207 19486 layer_factory.hpp:77] Creating layer fc3_Mustache
I1013 14:42:32.992215 19486 net.cpp:91] Creating Layer fc3_Mustache
I1013 14:42:32.992220 19486 net.cpp:425] fc3_Mustache <- fc2_facialhair_drop2_facialhair_0_split_1
I1013 14:42:32.992226 19486 net.cpp:399] fc3_Mustache -> fc3_Mustache
I1013 14:42:32.992331 19486 net.cpp:141] Setting up fc3_Mustache
I1013 14:42:32.992341 19486 net.cpp:148] Top shape: 64 2 (128)
I1013 14:42:32.992344 19486 net.cpp:156] Memory required for data: 2470693504
I1013 14:42:32.992350 19486 layer_factory.hpp:77] Creating layer loss_Mustache
I1013 14:42:32.992358 19486 net.cpp:91] Creating Layer loss_Mustache
I1013 14:42:32.992363 19486 net.cpp:425] loss_Mustache <- fc3_Mustache
I1013 14:42:32.992368 19486 net.cpp:425] loss_Mustache <- label_Mustache
I1013 14:42:32.992377 19486 net.cpp:399] loss_Mustache -> loss_Mustache
I1013 14:42:32.992411 19486 net.cpp:141] Setting up loss_Mustache
I1013 14:42:32.992420 19486 net.cpp:148] Top shape: (1)
I1013 14:42:32.992424 19486 net.cpp:151]     with loss weight 1
I1013 14:42:32.992429 19486 net.cpp:156] Memory required for data: 2470693508
I1013 14:42:32.992434 19486 layer_factory.hpp:77] Creating layer fc3_No_Beard
I1013 14:42:32.992442 19486 net.cpp:91] Creating Layer fc3_No_Beard
I1013 14:42:32.992446 19486 net.cpp:425] fc3_No_Beard <- fc2_facialhair_drop2_facialhair_0_split_2
I1013 14:42:32.992454 19486 net.cpp:399] fc3_No_Beard -> fc3_No_Beard
I1013 14:42:32.992552 19486 net.cpp:141] Setting up fc3_No_Beard
I1013 14:42:32.992563 19486 net.cpp:148] Top shape: 64 2 (128)
I1013 14:42:32.992566 19486 net.cpp:156] Memory required for data: 2470694020
I1013 14:42:32.992573 19486 layer_factory.hpp:77] Creating layer loss_No_Beard
I1013 14:42:32.992580 19486 net.cpp:91] Creating Layer loss_No_Beard
I1013 14:42:32.992585 19486 net.cpp:425] loss_No_Beard <- fc3_No_Beard
I1013 14:42:32.992590 19486 net.cpp:425] loss_No_Beard <- label_No_Beard
I1013 14:42:32.992595 19486 net.cpp:399] loss_No_Beard -> loss_No_Beard
I1013 14:42:32.992635 19486 net.cpp:141] Setting up loss_No_Beard
I1013 14:42:32.992642 19486 net.cpp:148] Top shape: (1)
I1013 14:42:32.992646 19486 net.cpp:151]     with loss weight 1
I1013 14:42:32.992651 19486 net.cpp:156] Memory required for data: 2470694024
I1013 14:42:32.992655 19486 layer_factory.hpp:77] Creating layer fc3_Sideburns
I1013 14:42:32.992673 19486 net.cpp:91] Creating Layer fc3_Sideburns
I1013 14:42:32.992678 19486 net.cpp:425] fc3_Sideburns <- fc2_facialhair_drop2_facialhair_0_split_3
I1013 14:42:32.992684 19486 net.cpp:399] fc3_Sideburns -> fc3_Sideburns
I1013 14:42:32.992789 19486 net.cpp:141] Setting up fc3_Sideburns
I1013 14:42:32.992799 19486 net.cpp:148] Top shape: 64 2 (128)
I1013 14:42:32.992804 19486 net.cpp:156] Memory required for data: 2470694536
I1013 14:42:32.992810 19486 layer_factory.hpp:77] Creating layer loss_Sideburns
I1013 14:42:32.992818 19486 net.cpp:91] Creating Layer loss_Sideburns
I1013 14:42:32.992823 19486 net.cpp:425] loss_Sideburns <- fc3_Sideburns
I1013 14:42:32.992830 19486 net.cpp:425] loss_Sideburns <- label_Sideburns
I1013 14:42:32.992835 19486 net.cpp:399] loss_Sideburns -> loss_Sideburns
I1013 14:42:32.992871 19486 net.cpp:141] Setting up loss_Sideburns
I1013 14:42:32.992879 19486 net.cpp:148] Top shape: (1)
I1013 14:42:32.992883 19486 net.cpp:151]     with loss weight 1
I1013 14:42:32.992889 19486 net.cpp:156] Memory required for data: 2470694540
I1013 14:42:32.992892 19486 layer_factory.hpp:77] Creating layer fc3_Goatee
I1013 14:42:32.992902 19486 net.cpp:91] Creating Layer fc3_Goatee
I1013 14:42:32.992905 19486 net.cpp:425] fc3_Goatee <- fc2_facialhair_drop2_facialhair_0_split_4
I1013 14:42:32.992911 19486 net.cpp:399] fc3_Goatee -> fc3_Goatee
I1013 14:42:32.993011 19486 net.cpp:141] Setting up fc3_Goatee
I1013 14:42:32.993021 19486 net.cpp:148] Top shape: 64 2 (128)
I1013 14:42:32.993024 19486 net.cpp:156] Memory required for data: 2470695052
I1013 14:42:32.993031 19486 layer_factory.hpp:77] Creating layer loss_Goatee
I1013 14:42:32.993039 19486 net.cpp:91] Creating Layer loss_Goatee
I1013 14:42:32.993044 19486 net.cpp:425] loss_Goatee <- fc3_Goatee
I1013 14:42:32.993049 19486 net.cpp:425] loss_Goatee <- label_Goatee
I1013 14:42:32.993055 19486 net.cpp:399] loss_Goatee -> loss_Goatee
I1013 14:42:32.993091 19486 net.cpp:141] Setting up loss_Goatee
I1013 14:42:32.993099 19486 net.cpp:148] Top shape: (1)
I1013 14:42:32.993103 19486 net.cpp:151]     with loss weight 1
I1013 14:42:32.993108 19486 net.cpp:156] Memory required for data: 2470695056
I1013 14:42:32.993111 19486 layer_factory.hpp:77] Creating layer fc3_High_Cheekbones
I1013 14:42:32.993120 19486 net.cpp:91] Creating Layer fc3_High_Cheekbones
I1013 14:42:32.993124 19486 net.cpp:425] fc3_High_Cheekbones <- fc2_cheeks_drop2_cheeks_0_split_0
I1013 14:42:32.993131 19486 net.cpp:399] fc3_High_Cheekbones -> fc3_High_Cheekbones
I1013 14:42:32.993232 19486 net.cpp:141] Setting up fc3_High_Cheekbones
I1013 14:42:32.993242 19486 net.cpp:148] Top shape: 64 2 (128)
I1013 14:42:32.993245 19486 net.cpp:156] Memory required for data: 2470695568
I1013 14:42:32.993252 19486 layer_factory.hpp:77] Creating layer loss_High_Cheekbones
I1013 14:42:32.993259 19486 net.cpp:91] Creating Layer loss_High_Cheekbones
I1013 14:42:32.993264 19486 net.cpp:425] loss_High_Cheekbones <- fc3_High_Cheekbones
I1013 14:42:32.993270 19486 net.cpp:425] loss_High_Cheekbones <- label_High_Cheekbones
I1013 14:42:32.993275 19486 net.cpp:399] loss_High_Cheekbones -> loss_High_Cheekbones
I1013 14:42:32.993312 19486 net.cpp:141] Setting up loss_High_Cheekbones
I1013 14:42:32.993320 19486 net.cpp:148] Top shape: (1)
I1013 14:42:32.993324 19486 net.cpp:151]     with loss weight 1
I1013 14:42:32.993330 19486 net.cpp:156] Memory required for data: 2470695572
I1013 14:42:32.993333 19486 layer_factory.hpp:77] Creating layer fc3_Rosy_Cheeks
I1013 14:42:32.993341 19486 net.cpp:91] Creating Layer fc3_Rosy_Cheeks
I1013 14:42:32.993346 19486 net.cpp:425] fc3_Rosy_Cheeks <- fc2_cheeks_drop2_cheeks_0_split_1
I1013 14:42:32.993352 19486 net.cpp:399] fc3_Rosy_Cheeks -> fc3_Rosy_Cheeks
I1013 14:42:32.993458 19486 net.cpp:141] Setting up fc3_Rosy_Cheeks
I1013 14:42:32.993468 19486 net.cpp:148] Top shape: 64 2 (128)
I1013 14:42:32.993471 19486 net.cpp:156] Memory required for data: 2470696084
I1013 14:42:32.993477 19486 layer_factory.hpp:77] Creating layer loss_Rosy_Cheeks
I1013 14:42:32.993485 19486 net.cpp:91] Creating Layer loss_Rosy_Cheeks
I1013 14:42:32.993499 19486 net.cpp:425] loss_Rosy_Cheeks <- fc3_Rosy_Cheeks
I1013 14:42:32.993505 19486 net.cpp:425] loss_Rosy_Cheeks <- label_Rosy_Cheeks
I1013 14:42:32.993511 19486 net.cpp:399] loss_Rosy_Cheeks -> loss_Rosy_Cheeks
I1013 14:42:32.993551 19486 net.cpp:141] Setting up loss_Rosy_Cheeks
I1013 14:42:32.993559 19486 net.cpp:148] Top shape: (1)
I1013 14:42:32.993563 19486 net.cpp:151]     with loss weight 1
I1013 14:42:32.993568 19486 net.cpp:156] Memory required for data: 2470696088
I1013 14:42:32.993572 19486 layer_factory.hpp:77] Creating layer fc3_Chubby
I1013 14:42:32.993580 19486 net.cpp:91] Creating Layer fc3_Chubby
I1013 14:42:32.993585 19486 net.cpp:425] fc3_Chubby <- fc2_fat_drop2_fat_0_split_0
I1013 14:42:32.993592 19486 net.cpp:399] fc3_Chubby -> fc3_Chubby
I1013 14:42:32.993693 19486 net.cpp:141] Setting up fc3_Chubby
I1013 14:42:32.993703 19486 net.cpp:148] Top shape: 64 2 (128)
I1013 14:42:32.993707 19486 net.cpp:156] Memory required for data: 2470696600
I1013 14:42:32.993713 19486 layer_factory.hpp:77] Creating layer loss_Chubby
I1013 14:42:32.993721 19486 net.cpp:91] Creating Layer loss_Chubby
I1013 14:42:32.993726 19486 net.cpp:425] loss_Chubby <- fc3_Chubby
I1013 14:42:32.993731 19486 net.cpp:425] loss_Chubby <- label_Chubby
I1013 14:42:32.993736 19486 net.cpp:399] loss_Chubby -> loss_Chubby
I1013 14:42:32.993773 19486 net.cpp:141] Setting up loss_Chubby
I1013 14:42:32.993782 19486 net.cpp:148] Top shape: (1)
I1013 14:42:32.993785 19486 net.cpp:151]     with loss weight 1
I1013 14:42:32.993790 19486 net.cpp:156] Memory required for data: 2470696604
I1013 14:42:32.993793 19486 layer_factory.hpp:77] Creating layer fc3_Double_Chin
I1013 14:42:32.993803 19486 net.cpp:91] Creating Layer fc3_Double_Chin
I1013 14:42:32.993806 19486 net.cpp:425] fc3_Double_Chin <- fc2_fat_drop2_fat_0_split_1
I1013 14:42:32.993813 19486 net.cpp:399] fc3_Double_Chin -> fc3_Double_Chin
I1013 14:42:32.993918 19486 net.cpp:141] Setting up fc3_Double_Chin
I1013 14:42:32.993927 19486 net.cpp:148] Top shape: 64 2 (128)
I1013 14:42:32.993932 19486 net.cpp:156] Memory required for data: 2470697116
I1013 14:42:32.993937 19486 layer_factory.hpp:77] Creating layer loss_Double_Chin
I1013 14:42:32.993947 19486 net.cpp:91] Creating Layer loss_Double_Chin
I1013 14:42:32.993953 19486 net.cpp:425] loss_Double_Chin <- fc3_Double_Chin
I1013 14:42:32.993962 19486 net.cpp:425] loss_Double_Chin <- label_Double_Chin
I1013 14:42:32.993969 19486 net.cpp:399] loss_Double_Chin -> loss_Double_Chin
…
I1013 14:42:32.994074 19486 net.cpp:425] attr_mid_feat <- pool3_mouth_pool3_mouth_0_split_1
I1013 14:42:32.994079 19486 net.cpp:425] attr_mid_feat <- pool3_nose_pool3_nose_0_split_1
I1013 14:42:32.994084 19486 net.cpp:425] attr_mid_feat <- pool3_eyes_pool3_eyes_0_split_1
I1013 14:42:32.994089 19486 net.cpp:425] attr_mid_feat <- pool3_face_pool3_face_0_split_1
I1013 14:42:32.994094 19486 net.cpp:425] attr_mid_feat <- pool3_rest_pool3_rest_0_split_4
I1013 14:42:32.994101 19486 net.cpp:399] attr_mid_feat -> attr_mid_feat
I1013 14:42:32.994127 19486 net.cpp:141] Setting up attr_mid_feat
I1013 14:42:32.994132 19486 net.cpp:148] Top shape: 64 1800 4 4 (1843200)
I1013 14:42:32.994135 19486 net.cpp:156] Memory required for data: 2478069920
I1013 14:42:32.994148 19486 layer_factory.hpp:77] Creating layer attr_top_feat
I1013 14:42:32.994158 19486 net.cpp:91] Creating Layer attr_top_feat
I1013 14:42:32.994165 19486 net.cpp:425] attr_top_feat <- fc2_gender_drop2_gender_0_split_1
I1013 14:42:32.994173 19486 net.cpp:425] attr_top_feat <- fc2_nose_drop2_nose_0_split_2
I1013 14:42:32.994177 19486 net.cpp:425] attr_top_feat <- fc2_mouth_drop2_mouth_0_split_4
I1013 14:42:32.994182 19486 net.cpp:425] attr_top_feat <- fc2_eyes_drop2_eyes_0_split_5
I1013 14:42:32.994186 19486 net.cpp:425] attr_top_feat <- fc2_face_drop2_face_0_split_6
I1013 14:42:32.994191 19486 net.cpp:425] attr_top_feat <- fc2_aroundhead_drop2_aroundhead_0_split_13
I1013 14:42:32.994195 19486 net.cpp:425] attr_top_feat <- fc2_facialhair_drop2_facialhair_0_split_5
I1013 14:42:32.994199 19486 net.cpp:425] attr_top_feat <- fc2_cheeks_drop2_cheeks_0_split_2
I1013 14:42:32.994204 19486 net.cpp:425] attr_top_feat <- fc2_fat_drop2_fat_0_split_2
I1013 14:42:32.994212 19486 net.cpp:399] attr_top_feat -> attr_top_feat
I1013 14:42:32.994245 19486 net.cpp:141] Setting up attr_top_feat
I1013 14:42:32.994251 19486 net.cpp:148] Top shape: 64 4608 (294912)
I1013 14:42:32.994253 19486 net.cpp:156] Memory required for data: 2479249568
I1013 14:42:32.994257 19486 layer_factory.hpp:77] Creating layer fc8_top_attr
I1013 14:42:32.994264 19486 net.cpp:91] Creating Layer fc8_top_attr
I1013 14:42:32.994268 19486 net.cpp:425] fc8_top_attr <- attr_top_feat
I1013 14:42:32.994277 19486 net.cpp:399] fc8_top_attr -> fc8_top_attr
I1013 14:42:33.112013 19486 net.cpp:141] Setting up fc8_top_attr
I1013 14:42:33.112049 19486 net.cpp:148] Top shape: 64 2837 (181568)
I1013 14:42:33.112054 19486 net.cpp:156] Memory required for data: 2479975840
I1013 14:42:33.112066 19486 layer_factory.hpp:77] Creating layer fc8_top_attr_fc8_top_attr_0_split
I1013 14:42:33.112081 19486 net.cpp:91] Creating Layer fc8_top_attr_fc8_top_attr_0_split
I1013 14:42:33.112088 19486 net.cpp:425] fc8_top_attr_fc8_top_attr_0_split <- fc8_top_attr
I1013 14:42:33.112097 19486 net.cpp:399] fc8_top_attr_fc8_top_attr_0_split -> fc8_top_attr_fc8_top_attr_0_split_0
I1013 14:42:33.112112 19486 net.cpp:399] fc8_top_attr_fc8_top_attr_0_split -> fc8_top_attr_fc8_top_attr_0_split_1
I1013 14:42:33.112120 19486 net.cpp:399] fc8_top_attr_fc8_top_attr_0_split -> fc8_top_attr_fc8_top_attr_0_split_2
I1013 14:42:33.112174 19486 net.cpp:141] Setting up fc8_top_attr_fc8_top_attr_0_split
I1013 14:42:33.112181 19486 net.cpp:148] Top shape: 64 2837 (181568)
I1013 14:42:33.112186 19486 net.cpp:148] Top shape: 64 2837 (181568)
I1013 14:42:33.112190 19486 net.cpp:148] Top shape: 64 2837 (181568)
I1013 14:42:33.112195 19486 net.cpp:156] Memory required for data: 2482154656
I1013 14:42:33.112197 19486 layer_factory.hpp:77] Creating layer loss_top_attr
I1013 14:42:33.112205 19486 net.cpp:91] Creating Layer loss_top_attr
I1013 14:42:33.112210 19486 net.cpp:425] loss_top_attr <- fc8_top_attr_fc8_top_attr_0_split_0
I1013 14:42:33.112216 19486 net.cpp:425] loss_top_attr <- label_data_1_split_0
…
