…
    slice_point: 24
    slice_point: 26
    slice_point: 28
    slice_point: 30
    slice_point: 32
    slice_point: 34
    slice_point: 36
    slice_point: 38
    slice_point: 40
    slice_point: 42
    slice_point: 44
    slice_point: 46
    slice_point: 48
    slice_point: 50
    slice_point: 52
    slice_point: 54
    slice_point: 56
    slice_point: 58
    slice_point: 60
    slice_point: 62
    slice_point: 64
    slice_point: 66
    slice_point: 68
    slice_point: 70
    slice_point: 72
    slice_point: 74
    slice_point: 76
    slice_point: 78
  }
}
layer {
  name: "conv1_bn"
  type: "BatchNorm"
  bottom: "conv1"
  top: "conv1"
  batch_norm_param {
    use_global_stats: false
  }
}
layer {
  name: "conv1_scale"
  type: "Scale"
  bottom: "conv1"
  top: "conv1"
  scale_param {
    bias_term: true
  }
}
layer {
  name: "prelu1"
  type: "PReLU"
  bottom: "conv1"
  top: "conv1"
}
layer {
  name: "pool1"
  type: "Pooling"
  bottom: "conv1"
  top: "pool1"
  pooling_param {
    pool: MAX
    kernel_size: 2
    stride: 2
  }
}
layer {
  name: "conv2a"
  type: "Convolution"
  bottom: "pool1"
  top: "conv2a"
  param {
    name: "conv2a_w"
    lr_mult: 1
    decay_mult: 1
  }
  param {
    name: "conv2a_b"
    lr_mult: 2
    decay_mult: 0
  }
  convolution_param {
    num_output: 64
    kernel_size: 1
    weight_filler {
      type: "xavier"
    }
    bias_filler {
      type: "constant"
      value: 0.2
    }
  }
}
layer {
  name: "conv2a_bn"
  type: "BatchNorm"
  bottom: "conv2a"
  top: "conv2a"
  batch_norm_param {
    use_global_stats: false
  }
}
layer {
  name: "conv2a_scale"
  type: "Scale"
  bottom: "conv2a"
  top: "conv2a"
  scale_param {
    bias_term: true
  }
}
layer {
  name: "prelu2a"
  type: "PReLU"
  bottom: "conv2a"
  top: "conv2a"
}
layer {
  name: "conv2"
  type: "Convolution"
  bottom: "conv2a"
  top: "conv2"
  param {
    name: "conv2_w"
    lr_mult: 1
    decay_mult: 1
  }
  param {
    name: "conv2_b"
    lr_mult: 2
    decay_mult: 0
  }
  convolution_param {
    num_output: 192
    pad: 1
    kernel_size: 3
    stride: 1
    weight_filler {
      type: "xavier"
    }
    bias_filler {
      type: "constant"
      value: 0.2
    }
  }
}
layer {
  name: "conv2_bn"
  type: "BatchNorm"
  bottom: "conv2"
  top: "conv2"
  batch_norm_param {
    use_global_stats: false
  }
}
layer {
  name: "conv2_scale"
  type: "Scale"
  bottom: "conv2"
  top: "conv2"
  scale_param {
    bias_term: true
  }
}
layer {
  name: "prelu2"
  type: "PReLU"
  bottom: "conv2"
  top: "conv2"
}
layer {
  name: "pool2"
  type: "Pooling"
  bottom: "conv2"
  top: "pool2"
  pooling_param {
    pool: MAX
    kernel_size: 2
    stride: 2
  }
}
layer {
  name: "conv3a"
  type: "Convolution"
  bottom: "pool2"
  top: "conv3a"
  param {
    name: "conv3a_w"
    lr_mult: 1
    decay_mult: 1
  }
  param {
    name: "conv3a_b"
    lr_mult: 2
    decay_mult: 0
  }
  convolution_param {
    num_output: 192
    kernel_size: 1
    weight_filler {
      type: "xavier"
    }
    bias_filler {
      type: "constant"
      value: 0.2
    }
  }
}
layer {
  name: "conv3a_bn"
  type: "BatchNorm"
  bottom: "conv3a"
  top: "conv3a"
  batch_norm_param {
    use_global_stats: false
  }
}
layer {
  name: "conv3a_scale"
  type: "Scale"
  bottom: "conv3a"
  top: "conv3a"
  scale_param {
    bias_term: true
  }
}
layer {
  name: "prelu3a"
  type: "PReLU"
  bottom: "conv3a"
  top: "conv3a"
}
layer {
  name: "conv3"
  type: "Convolution"
  bottom: "conv3a"
  top: "conv3"
  param {
    name: "conv3_w"
    lr_mult: 1
    decay_mult: 1
  }
  param {
    name: "conv3_b"
    lr_mult: 2
    decay_mult: 0
  }
  convolution_param {
    num_output: 384
    pad: 1
    kernel_size: 3
    stride: 1
    weight_filler {
      type: "xavier"
    }
    bias_filler {
      type: "constant"
      value: 0.2
    }
  }
}
layer {
  name: "conv3_bn"
  type: "BatchNorm"
  bottom: "conv3"
  top: "conv3"
  batch_norm_param {
    use_global_stats: false
  }
}
layer {
  name: "conv3_scale"
  type: "Scale"
  bottom: "conv3"
  top: "conv3"
  scale_param {
    bias_term: true
  }
}
layer {
  name: "prelu3"
  type: "PReLU"
  bottom: "conv3"
  top: "conv3"
}
layer {
  name: "pool3"
  type: "Pooling"
  bottom: "conv3"
  top: "pool3"
  pooling_param {
    pool: MAX
    kernel_size: 2
    stride: 2
  }
}
layer {
  name: "conv3_gender"
  type: "Convolution"
  bottom: "pool3"
  top: "conv3_gender"
  param {
    lr_mult: 1
    decay_mult: 1
  }
  param {
    lr_mult: 2
    decay_mult: 0
  }
  convolution_param {
    num_output: 300
    pad: 1
    kernel_size: 3
    stride: 2
    weight_filler {
      type: "xavier"
    }
    bias_filler {
      type: "constant"
      value: 0.2
    }
  }
}
layer {
  name: "conv3_gender_bn"
  type: "BatchNorm"
  bottom: "conv3_gender"
  top: "conv3_gender"
  batch_norm_param {
    use_global_stats: false
  }
}
layer {
  name: "conv3_gender_scale"
  type: "Scale"
  bottom: "conv3_gender"
  top: "conv3_gender"
  scale_param {
    bias_term: true
  }
}
layer {
  name: "prelu3_gender"
  type: "PReLU"
  bottom: "conv3_gender"
  top: "conv3_gender"
}
layer {
  name: "pool3_gender"
  type: "Pooling"
  bottom: "conv3_gender"
  top: "pool3_gender"
  pooling_param {
    pool: MAX
    kernel_size: 5
    stride: 2
    pad: 2
  }
}
layer {
  name: "fc1_gender"
  type: "InnerProduct"
  bottom: "pool3_gender"
  top: "fc1_gender"
  param {
    lr_mult: 1
    decay_mult: 1
  }
  param {
    lr_mult: 2
    decay_mult: 0
  }
  inner_product_param {
    num_output: 512
    weight_filler {
      type: "xavier"
    }
    bias_filler {
      type: "constant"
      value: 0.2
    }
  }
}
layer {
  name: "relu1_gender"
  type: "ReLU"
  bottom: "fc1_gender"
  top: "fc1_gender"
}
layer {
  name: "drop1_gender"
  type: "Dropout"
  bottom: "fc1_gender"
  top: "fc1_gender"
  dropout_param {
    dropout_ratio: 0.5
  }
}
layer {
  name: "fc2_gender"
  type: "InnerProduct"
  bottom: "fc1_gender"
  top: "fc2_gender"
  param {
    lr_mult: 1
    decay_mult: 1
  }
  param {
    lr_mult: 2
    decay_mult: 0
  }
  inner_product_param {
    num_output: 512
    weight_filler {
      type: "xavier"
    }
    bias_filler {
      type: "constant"
      value: 0.2
    }
  }
}
layer {
  name: "relu2_gender"
  type: "ReLU"
  bottom: "fc2_gender"
  top: "fc2_gender"
}
layer {
  name: "drop2_gender"
  type: "Dropout"
  bottom: "fc2_gender"
  top: "fc2_gender"
  dropout_param {
    dropout_ratio: 0.5
  }
}
layer {
  name: "conv3_nose"
  type: "Convolution"
  bottom: "pool3"
  top: "conv3_nose"
  param {
    lr_mult: 1
    decay_mult: 1
  }
  param {
    lr_mult: 2
    decay_mult: 0
  }
  convolution_param {
    num_output: 300
    pad: 1
    kernel_size: 3
    stride: 2
    weight_filler {
      type: "xavier"
    }
    bias_filler {
      type: "constant"
      value: 0.2
    }
  }
}
layer {
  name: "conv3_nose_bn"
  type: "BatchNorm"
  bottom: "conv3_nose"
  top: "conv3_nose"
  batch_norm_param {
    use_global_stats: false
  }
}
layer {
  name: "conv3_nose_scale"
  type: "Scale"
  bottom: "conv3_nose"
  top: "conv3_nose"
  scale_param {
    bias_term: true
  }
}
layer {
  name: "prelu3_nose"
  type: "PReLU"
  bottom: "conv3_nose"
  top: "conv3_nose"
}
layer {
  name: "pool3_nose"
  type: "Pooling"
  bottom: "conv3_nose"
  top: "pool3_nose"
  pooling_param {
    pool: MAX
    kernel_size: 5
    stride: 2
    pad: 2
  }
}
layer {
  name: "fc1_nose"
  type: "InnerProduct"
  bottom: "pool3_nose"
  top: "fc1_nose"
  param {
    lr_mult: 1
    decay_mult: 1
  }
  param {
    lr_mult: 2
    decay_mult: 0
  }
  inner_product_param {
    num_output: 512
    weight_filler {
      type: "xavier"
    }
    bias_filler {
      type: "constant"
      value: 0.2
    }
  }
}
layer {
  name: "relu1_nose"
  type: "ReLU"
  bottom: "fc1_nose"
  top: "fc1_nose"
}
layer {
  name: "drop1_nose"
  type: "Dropout"
  bottom: "fc1_nose"
  top: "fc1_nose"
  dropout_param {
    dropout_ratio: 0.5
  }
}
layer {
  name: "fc2_nose"
  type: "InnerProduct"
  bottom: "fc1_nose"
  top: "fc2_nose"
  param {
    lr_mult: 1
    decay_mult: 1
  }
  param {
    lr_mult: 2
    decay_mult: 0
  }
  inner_product_param {
    num_output: 512
    weight_filler {
      type: "xavier"
    }
    bias_filler {
      type: "constant"
      value: 0.2
    }
  }
}
layer {
  name: "relu2_nose"
  type: "ReLU"
  bottom: "fc2_nose"
  top: "fc2_nose"
}
layer {
  name: "drop2_nose"
  type: "Dropout"
  bottom: "fc2_nose"
  top: "fc2_nose"
  dropout_param {
    dropout_ratio: 0.5
  }
}
layer {
  name: "conv3_mouth"
  type: "Convolution"
  bottom: "pool3"
  top: "conv3_mouth"
  param {
    lr_mult: 1
    decay_mult: 1
  }
  param {
    lr_mult: 2
    decay_mult: 0
  }
  convolution_param {
    num_output: 300
    pad: 1
    kernel_size: 3
    stride: 2
    weight_filler {
      type: "xavier"
    }
    bias_filler {
      type: "constant"
      value: 0.2
    }
  }
}
layer {
  name: "conv3_mouth_bn"
  type: "BatchNorm"
  bottom: "conv3_mouth"
  top: "conv3_mouth"
  batch_norm_param {
    use_global_stats: false
  }
}
layer {
  name: "conv3_mouth_scale"
  type: "Scale"
  bottom: "conv3_mouth"
  top: "conv3_mouth"
  scale_param {
    bias_term: true
  }
}
layer {
  name: "prelu3_mouth"
  type: "PReLU"
  bottom: "conv3_mouth"
  top: "conv3_mouth"
}
layer {
  name: "pool3_mouth"
  type: "Pooling"
  bottom: "conv3_mouth"
  top: "pool3_mouth"
  pooling_param {
    pool: MAX
    kernel_size: 5
    stride: 2
    pad: 2
  }
}
layer {
  name: "fc1_mouth"
  type: "InnerProduct"
  bottom: "pool3_mouth"
  top: "fc1_mouth"
  param {
    lr_mult: 1
    decay_mult: 1
  }
  param {
    lr_mult: 2
    decay_mult: 0
  }
  inner_product_param {
    num_output: 512
    weight_filler {
      type: "xavier"
    }
    bias_filler {
      type: "constant"
      value: 0.2
    }
  }
}
layer {
  name: "relu1_mouth"
  type: "ReLU"
  bottom: "fc1_mouth"
  top: "fc1_mouth"
}
layer {
  name: "drop1_mouth"
  type: "Dropout"
  bottom: "fc1_mouth"
  top: "fc1_mouth"
  dropout_param {
    dropout_ratio: 0.5
  }
}
layer {
  name: "fc2_mouth"
  type: "InnerProduct"
  bottom: "fc1_mouth"
  top: "fc2_mouth"
  param {
    lr_mult: 1
    decay_mult: 1
  }
  param {
    lr_mult: 2
    decay_mult: 0
  }
  inner_product_param {
    num_output: 512
    weight_filler {
      type: "xavier"
    }
    bias_filler {
      type: "constant"
      value: 0.2
    }
  }
}
layer {
  name: "relu2_mouth"
  type: "ReLU"
  bottom: "fc2_mouth"
  top: "fc2_mouth"
}
layer {
  name: "drop2_mouth"
  type: "Dropout"
  bottom: "fc2_mouth"
  top: "fc2_mouth"
  dropout_param {
    dropout_ratio: 0.5
  }
}
layer {
  name: "conv3_eyes"
  type: "Convolution"
  bottom: "pool3"
  top: "conv3_eyes"
  param {
    lr_mult: 1
    decay_mult: 1
  }
  param {
    lr_mult: 2
    decay_mult: 0
  }
  convolution_param {
    num_output: 300
    pad: 1
    kernel_size: 3
    stride: 2
    weight_filler {
      type: "xavier"
    }
    bias_filler {
      type: "constant"
      value: 0.2
    }
  }
}
layer {
  name: "conv3_eyes_bn"
  type: "BatchNorm"
  bottom: "conv3_eyes"
  top: "conv3_eyes"
  batch_norm_param {
    use_global_stats: false
  }
}
layer {
  name: "conv3_eyes_scale"
  type: "Scale"
  bottom: "conv3_eyes"
  top: "conv3_eyes"
  scale_param {
    bias_term: true
  }
}
layer {
  name: "prelu3_eyes"
  type: "PReLU"
  bottom: "conv3_eyes"
  top: "conv3_eyes"
}
layer {
  name: "pool3_eyes"
  type: "Pooling"
  bottom: "conv3_eyes"
  top: "pool3_eyes"
  pooling_param {
    pool: MAX
    kernel_size: 5
    stride: 2
    pad: 2
  }
}
layer {
  name: "fc1_eyes"
  type: "InnerProduct"
  bottom: "pool3_eyes"
  top: "fc1_eyes"
  param {
    lr_mult: 1
    decay_mult: 1
  }
  param {
    lr_mult: 2
    decay_mult: 0
  }
  inner_product_param {
    num_output: 512
    weight_filler {
      type: "xavier"
    }
    bias_filler {
      type: "constant"
      value: 0.2
    }
  }
}
layer {
  name: "relu1_eyes"
  type: "ReLU"
  bottom: "fc1_eyes"
  top: "fc1_eyes"
}
layer {
  name: "drop1_eyes"
  type: "Dropout"
  bottom: "fc1_eyes"
  top: "fc1_eyes"
  dropout_param {
    dropout_ratio: 0.5
  }
}
layer {
  name: "fc2_eyes"
  type: "InnerProduct"
  bottom: "fc1_eyes"
  top: "fc2_eyes"
  param {
    lr_mult: 1
    decay_mult: 1
  }
  param {
    lr_mult: 2
    decay_mult: 0
  }
  inner_product_param {
    num_output: 512
    weight_filler {
      type: "xavier"
    }
    bias_filler {
      type: "constant"
      value: 0.2
    }
  }
}
layer {
  name: "relu2_eyes"
  type: "ReLU"
  bottom: "fc2_eyes"
  top: "fc2_eyes"
}
layer {
  name: "drop2_eyes"
  type: "Dropout"
  bottom: "fc2_eyes"
  top: "fc2_eyes"
  dropout_param {
    dropout_ratio: 0.5
  }
}
layer {
  name: "conv3_face"
  type: "Convolution"
  bottom: "pool3"
  top: "conv3_face"
  param {
    lr_mult: 1
    decay_mult: 1
  }
  param {
    lr_mult: 2
    decay_mult: 0
  }
  convolution_param {
    num_output: 300
    pad: 1
    kernel_size: 3
    stride: 2
    weight_filler {
      type: "xavier"
    }
    bias_filler {
      type: "constant"
      value: 0.2
    }
  }
}
layer {
  name: "conv3_face_bn"
  type: "BatchNorm"
  bottom: "conv3_face"
  top: "conv3_face"
  batch_norm_param {
    use_global_stats: false
  }
}
layer {
  name: "conv3_face_scale"
  type: "Scale"
  bottom: "conv3_face"
  top: "conv3_face"
  scale_param {
    bias_term: true
  }
}
layer {
  name: "prelu3_face"
  type: "PReLU"
  bottom: "conv3_face"
  top: "conv3_face"
}
layer {
  name: "pool3_face"
  type: "Pooling"
  bottom: "conv3_face"
  top: "pool3_face"
  pooling_param {
    pool: MAX
    kernel_size: 5
    stride: 2
    pad: 2
  }
}
layer {
  name: "fc1_face"
  type: "InnerProduct"
  bottom: "pool3_face"
  top: "fc1_face"
  param {
    lr_mult: 1
    decay_mult: 1
  }
  param {
    lr_mult: 2
    decay_mult: 0
  }
  inner_product_param {
    num_output: 512
    weight_filler {
      type: "xavier"
    }
    bias_filler {
      type: "constant"
      value: 0.2
    }
  }
}
layer {
  name: "relu1_face"
  type: "ReLU"
  bottom: "fc1_face"
  top: "fc1_face"
}
layer {
  name: "drop1_face"
  type: "Dropout"
  bottom: "fc1_face"
  top: "fc1_face"
  dropout_param {
    dropout_ratio: 0.5
  }
}
layer {
  name: "fc2_face"
  type: "InnerProduct"
  bottom: "fc1_face"
  top: "fc2_face"
  param {
    lr_mult: 1
    decay_mult: 1
  }
  param {
    lr_mult: 2
    decay_mult: 0
  }
  inner_product_param {
    num_output: 512
    weight_filler {
      type: "xavier"
    }
    bias_filler {
      type: "constant"
      value: 0.2
    }
  }
}
layer {
  name: "relu2_face"
  type: "ReLU"
  bottom: "fc2_face"
  top: "fc2_face"
}
layer {
  name: "drop2_face"
  type: "Dropout"
  bottom: "fc2_face"
  top: "fc2_face"
  dropout_param {
    dropout_ratio: 0.5
  }
}
layer {
  name: "conv3_rest"
  type: "Convolution"
  bottom: "pool3"
  top: "conv3_rest"
  param {
    lr_mult: 1
    decay_mult: 1
  }
  param {
    lr_mult: 2
    decay_mult: 0
  }
  convolution_param {
    num_output: 300
    pad: 1
    kernel_size: 3
    stride: 2
    weight_filler {
      type: "xavier"
    }
    bias_filler {
      type: "constant"
      value: 0.2
    }
  }
}
layer {
  name: "conv3_rest_bn"
  type: "BatchNorm"
  bottom: "conv3_rest"
  top: "conv3_rest"
  batch_norm_param {
    use_global_stats: false
  }
}
layer {
  name: "conv3_rest_scale"
  type: "Scale"
  bottom: "conv3_rest"
  top: "conv3_rest"
  scale_param {
    bias_term: true
  }
}
layer {
  name: "prelu3_rest"
  type: "PReLU"
  bottom: "conv3_rest"
  top: "conv3_rest"
}
layer {
  name: "pool3_rest"
  type: "Pooling"
  bottom: "conv3_rest"
  top: "pool3_rest"
  pooling_param {
    pool: MAX
    kernel_size: 5
    stride: 2
    pad: 2
  }
}
layer {
  name: "fc1_aroundhead"
  type: "InnerProduct"
  bottom: "pool3_rest"
  top: "fc1_aroundhead"
  param {
    lr_mult: 1
    decay_mult: 1
  }
  param {
    lr_mult: 2
    decay_mult: 0
  }
  inner_product_param {
    num_output: 512
    weight_filler {
      type: "xavier"
    }
    bias_filler {
      type: "constant"
      value: 0.2
    }
  }
}
layer {
  name: "relu1_aroundhead"
  type: "ReLU"
  bottom: "fc1_aroundhead"
  top: "fc1_aroundhead"
}
layer {
  name: "drop1_aroundhead"
  type: "Dropout"
  bottom: "fc1_aroundhead"
  top: "fc1_aroundhead"
  dropout_param {
    dropout_ratio: 0.5
  }
}
layer {
  name: "fc2_aroundhead"
  type: "InnerProduct"
  bottom: "fc1_aroundhead"
  top: "fc2_aroundhead"
  param {
    lr_mult: 1
    decay_mult: 1
  }
  param {
    lr_mult: 2
    decay_mult: 0
  }
  inner_product_param {
    num_output: 512
    weight_filler {
      type: "xavier"
    }
    bias_filler {
      type: "constant"
      value: 0.2
    }
  }
}
layer {
  name: "relu2_aroundhead"
  type: "ReLU"
  bottom: "fc2_aroundhead"
  top: "fc2_aroundhead"
}
layer {
  name: "drop2_aroundhead"
  type: "Dropout"
  bottom: "fc2_aroundhead"
  top: "fc2_aroundhead"
  dropout_param {
    dropout_ratio: 0.5
  }
}
layer {
  name: "fc1_facialhair"
  type: "InnerProduct"
  bottom: "pool3_rest"
  top: "fc1_facialhair"
  param {
    lr_mult: 1
    decay_mult: 1
  }
  param {
    lr_mult: 2
    decay_mult: 0
  }
  inner_product_param {
    num_output: 512
    weight_filler {
      type: "xavier"
    }
    bias_filler {
      type: "constant"
      value: 0.2
    }
  }
}
layer {
  name: "relu1_facialhair"
  type: "ReLU"
  bottom: "fc1_facialhair"
  top: "fc1_facialhair"
}
layer {
  name: "drop1_facialhair"
  type: "Dropout"
  bottom: "fc1_facialhair"
  top: "fc1_facialhair"
  dropout_param {
    dropout_ratio: 0.5
  }
}
layer {
  name: "fc2_facialhair"
  type: "InnerProduct"
  bottom: "fc1_facialhair"
  top: "fc2_facialhair"
  param {
    lr_mult: 1
    decay_mult: 1
  }
  param {
    lr_mult: 2
    decay_mult: 0
  }
  inner_product_param {
    num_output: 512
    weight_filler {
      type: "xavier"
    }
    bias_filler {
      type: "constant"
      value: 0.2
    }
  }
}
layer {
  name: "relu2_facialhair"
  type: "ReLU"
  bottom: "fc2_facialhair"
  top: "fc2_facialhair"
}
layer {
  name: "drop2_facialhair"
  type: "Dropout"
  bottom: "fc2_facialhair"
  top: "fc2_facialhair"
  dropout_param {
    dropout_ratio: 0.5
  }
}
layer {
  name: "fc1_cheeks"
  type: "InnerProduct"
  bottom: "pool3_rest"
  top: "fc1_cheeks"
  param {
    lr_mult: 1
    decay_mult: 1
  }
  param {
    lr_mult: 2
    decay_mult: 0
  }
  inner_product_param {
    num_output: 512
    weight_filler {
      type: "xavier"
    }
    bias_filler {
      type: "constant"
      value: 0.2
    }
  }
}
layer {
  name: "relu1_cheeks"
  type: "ReLU"
  bottom: "fc1_cheeks"
  top: "fc1_cheeks"
}
layer {
  name: "drop1_cheeks"
  type: "Dropout"
  bottom: "fc1_cheeks"
  top: "fc1_cheeks"
  dropout_param {
    dropout_ratio: 0.5
  }
}
layer {
  name: "fc2_cheeks"
  type: "InnerProduct"
  bottom: "fc1_cheeks"
  top: "fc2_cheeks"
  param {
    lr_mult: 1
    decay_mult: 1
  }
  param {
    lr_mult: 2
    decay_mult: 0
  }
  inner_product_param {
    num_output: 512
    weight_filler {
      type: "xavier"
    }
    bias_filler {
      type: "constant"
      value: 0.2
    }
  }
}
layer {
  name: "relu2_cheeks"
  type: "ReLU"
  bottom: "fc2_cheeks"
  top: "fc2_cheeks"
}
layer {
  name: "drop2_cheeks"
  type: "Dropout"
  bottom: "fc2_cheeks"
  top: "fc2_cheeks"
  dropout_param {
    dropout_ratio: 0.5
  }
}
layer {
  name: "fc1_fat"
  type: "InnerProduct"
  bottom: "pool3_rest"
  top: "fc1_fat"
  param {
    lr_mult: 1
    decay_mult: 1
  }
  param {
    lr_mult: 2
    decay_mult: 0
  }
  inner_product_param {
    num_output: 512
    weight_filler {
      type: "xavier"
    }
    bias_filler {
      type: "constant"
      value: 0.2
    }
  }
}
layer {
  name: "relu1_fat"
  type: "ReLU"
  bottom: "fc1_fat"
  top: "fc1_fat"
}
layer {
  name: "drop1_fat"
  type: "Dropout"
  bottom: "fc1_fat"
  top: "fc1_fat"
  dropout_param {
    dropout_ratio: 0.5
  }
}
layer {
  name: "fc2_fat"
  type: "InnerProduct"
  bottom: "fc1_fat"
  top: "fc2_fat"
  param {
    lr_mult: 1
    decay_mult: 1
  }
  param {
    lr_mult: 2
    decay_mult: 0
  }
  inner_product_param {
    num_output: 512
    weight_filler {
      type: "xavier"
    }
    bias_filler {
      type: "constant"
      value: 0.2
    }
  }
}
layer {
  name: "relu2_fat"
  type: "ReLU"
  bottom: "fc2_fat"
  top: "fc2_fat"
}
layer {
  name: "drop2_fat"
  type: "Dropout"
  bottom: "fc2_fat"
  top: "fc2_fat"
  dropout_param {
    dropout_ratio: 0.5
  }
}
layer {
  name: "fc3_Male"
  type: "InnerProduct"
  bottom: "fc2_gender"
  top: "fc3_Male"
  inner_product_param {
    num_output: 2
    weight_filler {
      type: "xavier"
    }
    bias_filler {
      type: "constant"
      value: 0
    }
  }
}
layer {
  name: "loss_Male"
  type: "SigmoidCrossEntropyLoss"
  bottom: "fc3_Male"
  bottom: "label_Male"
  top: "loss_Male"
}
layer {
  name: "fc3_Big_Nose"
  type: "InnerProduct"
  bottom: "fc2_nose"
  top: "fc3_Big_Nose"
  inner_product_param {
    num_output: 2
    weight_filler {
      type: "xavier"
    }
    bias_filler {
      type: "constant"
      value: 0
    }
  }
}
layer {
  name: "loss_Big_Nose"
  type: "SigmoidCrossEntropyLoss"
  bottom: "fc3_Big_Nose"
  bottom: "label_Big_Nose"
  top: "loss_Big_Nose"
}
layer {
  name: "fc3_Pointy_Nose"
  type: "InnerProduct"
  bottom: "fc2_nose"
  top: "fc3_Pointy_Nose"
  inner_product_param {
    num_output: 2
    weight_filler {
      type: "xavier"
    }
    bias_filler {
      type: "constant"
      value: 0
    }
  }
}
layer {
  name: "loss_Pointy_Nose"
  type: "SigmoidCrossEntropyLoss"
  bottom: "fc3_Pointy_Nose"
  bottom: "label_Pointy_Nose"
  top: "loss_Pointy_Nose"
}
layer {
  name: "fc3_Big_Lips"
  type: "InnerProduct"
  bottom: "fc2_mouth"
  top: "fc3_Big_Lips"
  inner_product_param {
    num_output: 2
    weight_filler {
      type: "xavier"
    }
    bias_filler {
      type: "constant"
      value: 0
    }
  }
}
layer {
  name: "loss_Big_Lips"
  type: "SigmoidCrossEntropyLoss"
  bottom: "fc3_Big_Lips"
  bottom: "label_Big_Lips"
  top: "loss_Big_Lips"
}
layer {
  name: "fc3_Smiling"
  type: "InnerProduct"
  bottom: "fc2_mouth"
  top: "fc3_Smiling"
  inner_product_param {
    num_output: 2
    weight_filler {
      type: "xavier"
    }
    bias_filler {
      type: "constant"
      value: 0
    }
  }
}
layer {
  name: "loss_Smiling"
  type: "SigmoidCrossEntropyLoss"
  bottom: "fc3_Smiling"
  bottom: "label_Smiling"
  top: "loss_Smiling"
}
layer {
  name: "fc3_Wearing_Lipstick"
  type: "InnerProduct"
  bottom: "fc2_mouth"
  top: "fc3_Wearing_Lipstick"
  inner_product_param {
    num_output: 2
    weight_filler {
      type: "xavier"
    }
    bias_filler {
      type: "constant"
      value: 0
    }
  }
}
layer {
  name: "loss_Wearing_Lipstick"
  type: "SigmoidCrossEntropyLoss"
  bottom: "fc3_Wearing_Lipstick"
  bottom: "label_Wearing_Lipstick"
  top: "loss_Wearing_Lipstick"
}
layer {
  name: "fc3_Mouth_Slightly_Open"
  type: "InnerProduct"
  bottom: "fc2_mouth"
  top: "fc3_Mouth_Slightly_Open"
  inner_product_param {
    num_output: 2
    weight_filler {
      type: "xavier"
    }
    bias_filler {
      type: "constant"
      value: 0
    }
  }
}
layer {
  name: "loss_Mouth_Slightly_Open"
  type: "SigmoidCrossEntropyLoss"
  bottom: "fc3_Mouth_Slightly_Open"
  bottom: "label_Mouth_Slightly_Open"
  top: "loss_Mouth_Slightly_Open"
}
layer {
  name: "fc3_Arched_Eyebrows"
  type: "InnerProduct"
  bottom: "fc2_eyes"
  top: "fc3_Arched_Eyebrows"
  inner_product_param {
    num_output: 2
    weight_filler {
      type: "xavier"
    }
    bias_filler {
      type: "constant"
      value: 0
    }
  }
}
layer {
  name: "loss_Arched_Eyebrows"
  type: "SigmoidCrossEntropyLoss"
  bottom: "fc3_Arched_Eyebrows"
  bottom: "label_Arched_Eyebrows"
  top: "loss_Arched_Eyebrows"
}
layer {
  name: "fc3_Bags_Under_Eyes"
  type: "InnerProduct"
  bottom: "fc2_eyes"
  top: "fc3_Bags_Under_Eyes"
  inner_product_param {
    num_output: 2
    weight_filler {
      type: "xavier"
    }
    bias_filler {
      type: "constant"
      value: 0
    }
  }
}
layer {
  name: "loss_Bags_Under_Eyes"
  type: "SigmoidCrossEntropyLoss"
  bottom: "fc3_Bags_Under_Eyes"
  bottom: "label_Bags_Under_Eyes"
  top: "loss_Bags_Under_Eyes"
}
layer {
  name: "fc3_Bushy_Eyebrows"
  type: "InnerProduct"
  bottom: "fc2_eyes"
  top: "fc3_Bushy_Eyebrows"
  inner_product_param {
    num_output: 2
    weight_filler {
      type: "xavier"
    }
    bias_filler {
      type: "constant"
      value: 0
    }
  }
}
layer {
  name: "loss_Bushy_Eyebrows"
  type: "SigmoidCrossEntropyLoss"
  bottom: "fc3_Bushy_Eyebrows"
  bottom: "label_Bushy_Eyebrows"
  top: "loss_Bushy_Eyebrows"
}
layer {
  name: "fc3_Narrow_Eyes"
  type: "InnerProduct"
  bottom: "fc2_eyes"
  top: "fc3_Narrow_Eyes"
  inner_product_param {
    num_output: 2
    weight_filler {
      type: "xavier"
    }
    bias_filler {
      type: "constant"
      value: 0
    }
  }
}
layer {
  name: "loss_Narrow_Eyes"
  type: "SigmoidCrossEntropyLoss"
  bottom: "fc3_Narrow_Eyes"
  bottom: "label_Narrow_Eyes"
  top: "loss_Narrow_Eyes"
}
layer {
  name: "fc3_Eyeglasses"
  type: "InnerProduct"
  bottom: "fc2_eyes"
  top: "fc3_Eyeglasses"
  inner_product_param {
    num_output: 2
    weight_filler {
      type: "xavier"
    }
    bias_filler {
      type: "constant"
      value: 0
    }
  }
}
layer {
  name: "loss_Eyeglasses"
  type: "SigmoidCrossEntropyLoss"
  bottom: "fc3_Eyeglasses"
  bottom: "label_Eyeglasses"
  top: "loss_Eyeglasses"
}
layer {
  name: "fc3_Attractive"
  type: "InnerProduct"
  bottom: "fc2_face"
  top: "fc3_Attractive"
  inner_product_param {
    num_output: 2
    weight_filler {
      type: "xavier"
    }
    bias_filler {
      type: "constant"
      value: 0
    }
  }
}
layer {
  name: "loss_Attractive"
  type: "SigmoidCrossEntropyLoss"
  bottom: "fc3_Attractive"
  bottom: "label_Attractive"
  top: "loss_Attractive"
}
layer {
  name: "fc3_Blurry"
  type: "InnerProduct"
  bottom: "fc2_face"
  top: "fc3_Blurry"
  inner_product_param {
    num_output: 2
    weight_filler {
      type: "xavier"
    }
    bias_filler {
      type: "constant"
      value: 0
    }
  }
}
layer {
  name: "loss_Blurry"
  type: "SigmoidCrossEntropyLoss"
  bottom: "fc3_Blurry"
  bottom: "label_Blurry"
  top: "loss_Blurry"
}
layer {
  name: "fc3_Oval_Face"
  type: "InnerProduct"
  bottom: "fc2_face"
  top: "fc3_Oval_Face"
  inner_product_param {
    num_output: 2
    weight_filler {
      type: "xavier"
    }
    bias_filler {
      type: "constant"
      value: 0
    }
  }
}
layer {
  name: "loss_Oval_Face"
  type: "SigmoidCrossEntropyLoss"
  bottom: "fc3_Oval_Face"
  bottom: "label_Oval_Face"
  top: "loss_Oval_Face"
}
layer {
  name: "fc3_Pale_Skin"
  type: "InnerProduct"
  bottom: "fc2_face"
  top: "fc3_Pale_Skin"
  inner_product_param {
    num_output: 2
    weight_filler {
      type: "xavier"
    }
    bias_filler {
      type: "constant"
      value: 0
    }
  }
}
layer {
  name: "loss_Pale_Skin"
  type: "SigmoidCrossEntropyLoss"
  bottom: "fc3_Pale_Skin"
  bottom: "label_Pale_Skin"
  top: "loss_Pale_Skin"
}
layer {
  name: "fc3_Young"
  type: "InnerProduct"
  bottom: "fc2_face"
  top: "fc3_Young"
  inner_product_param {
    num_output: 2
    weight_filler {
      type: "xavier"
    }
    bias_filler {
      type: "constant"
      value: 0
    }
  }
}
layer {
  name: "loss_Young"
  type: "SigmoidCrossEntropyLoss"
  bottom: "fc3_Young"
  
I1021 15:05:07.797922 16992 layer_factory.hpp:77] Creating layer data
I1021 15:05:07.798004 16992 net.cpp:91] Creating Layer data
I1021 15:05:07.798022 16992 net.cpp:399] data -> data
I1021 15:05:07.798076 16992 net.cpp:399] data -> label
I1021 15:05:07.798105 16992 data_transformer.cpp:25] Loading mean file from: /home/caojiajiong/attribute_learning/data/train_attr_id.binaryproto
I1021 15:05:07.817950 16992 image_data_layer.cpp:38] Opening file /home/caojiajiong/attribute_learning/list/aug_10p_shuffle.txt
I1021 15:05:08.184492 16992 image_data_layer.cpp:53] A total of 517802 images.
I1021 15:05:08.188680 16992 image_data_layer.cpp:80] output data size: 50,3,112,112
I1021 15:05:08.207778 16992 net.cpp:141] Setting up data
I1021 15:05:08.207849 16992 net.cpp:148] Top shape: 50 3 112 112 (1881600)
I1021 15:05:08.207861 16992 net.cpp:148] Top shape: 50 (50)
I1021 15:05:08.207870 16992 net.cpp:156] Memory required for data: 7526600
I1021 15:05:08.207886 16992 layer_factory.hpp:77] Creating layer label_data_1_split
I1021 15:05:08.207959 16992 net.cpp:91] Creating Layer label_data_1_split
I1021 15:05:08.207976 16992 net.cpp:425] label_data_1_split <- label
I1021 15:05:08.207999 16992 net.cpp:399] label_data_1_split -> label_data_1_split_0
I1021 15:05:08.208041 16992 net.cpp:399] label_data_1_split -> label_data_1_split_1
I1021 15:05:08.208117 16992 net.cpp:141] Setting up label_data_1_split
I1021 15:05:08.208130 16992 net.cpp:148] Top shape: 50 (50)
I1021 15:05:08.208142 16992 net.cpp:148] Top shape: 50 (50)
I1021 15:05:08.208149 16992 net.cpp:156] Memory required for data: 7527000
I1021 15:05:08.208158 16992 layer_factory.hpp:77] Creating layer attr_data
I1021 15:05:08.208302 16992 net.cpp:91] Creating Layer attr_data
I1021 15:05:08.208317 16992 net.cpp:399] attr_data -> attr_data
I1021 15:05:08.208338 16992 net.cpp:399] attr_data -> fakelabel
I1021 15:05:08.212887 17005 db_lmdb.cpp:40] Opened lmdb /home/caojiajiong/attribute_learning/data/attr_id_label_10p_aug_lmdb
I1021 15:05:08.213098 16992 data_layer.cpp:41] output data size: 50,80,1,1
I1021 15:05:08.214656 16992 net.cpp:141] Setting up attr_data
I1021 15:05:08.214680 16992 net.cpp:148] Top shape: 50 80 1 1 (4000)
I1021 15:05:08.214690 16992 net.cpp:148] Top shape: 50 (50)
I1021 15:05:08.214732 16992 net.cpp:156] Memory required for data: 7543200
I1021 15:05:08.214761 16992 layer_factory.hpp:77] Creating layer conv1
I1021 15:05:08.214823 16992 net.cpp:91] Creating Layer conv1
I1021 15:05:08.214861 16992 net.cpp:425] conv1 <- data
I1021 15:05:08.214895 16992 net.cpp:399] conv1 -> conv1
I1021 15:05:08.394963 16992 net.cpp:141] Setting up conv1
I1021 15:05:08.395011 16992 net.cpp:148] Top shape: 50 64 112 112 (40140800)
I1021 15:05:08.395018 16992 net.cpp:156] Memory required for data: 168106400
I1021 15:05:08.395045 16992 layer_factory.hpp:77] Creating layer slice
I1021 15:05:08.395069 16992 net.cpp:91] Creating Layer slice
I1021 15:05:08.395079 16992 net.cpp:425] slice <- attr_data
I1021 15:05:08.395092 16992 net.cpp:399] slice -> label_5_o_Clock_Shadow
I1021 15:05:08.395108 16992 net.cpp:399] slice -> label_Arched_Eyebrows
…
I1021 15:05:08.395707 16992 net.cpp:399] slice -> label_Straight_Hair
I1021 15:05:08.395735 16992 net.cpp:399] slice -> label_Wavy_Hair
I1021 15:05:08.395754 16992 net.cpp:399] slice -> label_Wearing_Earrings
I1021 15:05:08.395807 16992 net.cpp:399] slice -> label_Wearing_Hat
I1021 15:05:08.395828 16992 net.cpp:399] slice -> label_Wearing_Lipstick
I1021 15:05:08.395846 16992 net.cpp:399] slice -> label_Wearing_Necklace
I1021 15:05:08.395864 16992 net.cpp:399] slice -> label_Wearing_Necktie
I1021 15:05:08.395884 16992 net.cpp:399] slice -> label_Young
I1021 15:05:08.396381 16992 net.cpp:141] Setting up slice
I1021 15:05:08.396395 16992 net.cpp:148] Top shape: 50 2 1 1 (100)
I1021 15:05:08.396404 16992 net.cpp:148] Top shape: 50 2 1 1 (100)
I1021 15:05:08.396412 16992 net.cpp:148] Top shape: 50 2 1 1 (100)
I1021 15:05:08.396422 16992 net.cpp:148] Top shape: 50 2 1 1 (100)
I1021 15:05:08.396431 16992 net.cpp:148] Top shape: 50 2 1 1 (100)
I1021 15:05:08.396440 16992 net.cpp:148] Top shape: 50 2 1 1 (100)
I1021 15:05:08.396450 16992 net.cpp:148] Top shape: 50 2 1 1 (100)
I1021 15:05:08.396459 16992 net.cpp:148] Top shape: 50 2 1 1 (100)
I1021 15:05:08.396468 16992 net.cpp:148] Top shape: 50 2 1 1 (100)
I1021 15:05:08.396479 16992 net.cpp:148] Top shape: 50 2 1 1 (100)
I1021 15:05:08.396488 16992 net.cpp:148] Top shape: 50 2 1 1 (100)
I1021 15:05:08.396498 16992 net.cpp:148] Top shape: 50 2 1 1 (100)
I1021 15:05:08.396507 16992 net.cpp:148] Top shape: 50 2 1 1 (100)
I1021 15:05:08.396517 16992 net.cpp:148] Top shape: 50 2 1 1 (100)
I1021 15:05:08.396527 16992 net.cpp:148] Top shape: 50 2 1 1 (100)
I1021 15:05:08.396535 16992 net.cpp:148] Top shape: 50 2 1 1 (100)
I1021 15:05:08.396545 16992 net.cpp:148] Top shape: 50 2 1 1 (100)
I1021 15:05:08.396554 16992 net.cpp:148] Top shape: 50 2 1 1 (100)
I1021 15:05:08.396564 16992 net.cpp:148] Top shape: 50 2 1 1 (100)
I1021 15:05:08.396574 16992 net.cpp:148] Top shape: 50 2 1 1 (100)
I1021 15:05:08.396582 16992 net.cpp:148] Top shape: 50 2 1 1 (100)
I1021 15:05:08.396591 16992 net.cpp:148] Top shape: 50 2 1 1 (100)
I1021 15:05:08.396601 16992 net.cpp:148] Top shape: 50 2 1 1 (100)
I1021 15:05:08.396610 16992 net.cpp:148] Top shape: 50 2 1 1 (100)
I1021 15:05:08.396620 16992 net.cpp:148] Top shape: 50 2 1 1 (100)
I1021 15:05:08.396630 16992 net.cpp:148] Top shape: 50 2 1 1 (100)
I1021 15:05:08.396639 16992 net.cpp:148] Top shape: 50 2 1 1 (100)
I1021 15:05:08.396647 16992 net.cpp:148] Top shape: 50 2 1 1 (100)
I1021 15:05:08.396657 16992 net.cpp:148] Top shape: 50 2 1 1 (100)
I1021 15:05:08.396667 16992 net.cpp:148] Top shape: 50 2 1 1 (100)
I1021 15:05:08.396677 16992 net.cpp:148] Top shape: 50 2 1 1 (100)
I1021 15:05:08.396685 16992 net.cpp:148] Top shape: 50 2 1 1 (100)
I1021 15:05:08.396695 16992 net.cpp:148] Top shape: 50 2 1 1 (100)
I1021 15:05:08.396704 16992 net.cpp:148] Top shape: 50 2 1 1 (100)
I1021 15:05:08.396713 16992 net.cpp:148] Top shape: 50 2 1 1 (100)
I1021 15:05:08.396723 16992 net.cpp:148] Top shape: 50 2 1 1 (100)
I1021 15:05:08.396733 16992 net.cpp:148] Top shape: 50 2 1 1 (100)
I1021 15:05:08.396741 16992 net.cpp:148] Top shape: 50 2 1 1 (100)
I1021 15:05:08.396750 16992 net.cpp:148] Top shape: 50 2 1 1 (100)
I1021 15:05:08.396760 16992 net.cpp:148] Top shape: 50 2 1 1 (100)
I1021 15:05:08.396767 16992 net.cpp:156] Memory required for data: 168122400
I1021 15:05:08.396775 16992 layer_factory.hpp:77] Creating layer conv1_bn
I1021 15:05:08.396793 16992 net.cpp:91] Creating Layer conv1_bn
I1021 15:05:08.396803 16992 net.cpp:425] conv1_bn <- conv1
I1021 15:05:08.396818 16992 net.cpp:386] conv1_bn -> conv1 (in-place)
I1021 15:05:08.397058 16992 net.cpp:141] Setting up conv1_bn
I1021 15:05:08.397071 16992 net.cpp:148] Top shape: 50 64 112 112 (40140800)
I1021 15:05:08.397076 16992 net.cpp:156] Memory required for data: 328685600
I1021 15:05:08.397102 16992 layer_factory.hpp:77] Creating layer conv1_scale
I1021 15:05:08.397120 16992 net.cpp:91] Creating Layer conv1_scale
I1021 15:05:08.397133 16992 net.cpp:425] conv1_scale <- conv1
I1021 15:05:08.397148 16992 net.cpp:386] conv1_scale -> conv1 (in-place)
I1021 15:05:08.397222 16992 layer_factory.hpp:77] Creating layer conv1_scale
I1021 15:05:08.397385 16992 net.cpp:141] Setting up conv1_scale
I1021 15:05:08.397398 16992 net.cpp:148] Top shape: 50 64 112 112 (40140800)
I1021 15:05:08.397419 16992 net.cpp:156] Memory required for data: 489248800
I1021 15:05:08.397434 16992 layer_factory.hpp:77] Creating layer prelu1
I1021 15:05:08.397449 16992 net.cpp:91] Creating Layer prelu1
I1021 15:05:08.397459 16992 net.cpp:425] prelu1 <- conv1
I1021 15:05:08.397470 16992 net.cpp:386] prelu1 -> conv1 (in-place)
I1021 15:05:08.399639 16992 net.cpp:141] Setting up prelu1
I1021 15:05:08.399657 16992 net.cpp:148] Top shape: 50 64 112 112 (40140800)
I1021 15:05:08.399662 16992 net.cpp:156] Memory required for data: 649812000
I1021 15:05:08.399673 16992 layer_factory.hpp:77] Creating layer pool1
I1021 15:05:08.399695 16992 net.cpp:91] Creating Layer pool1
I1021 15:05:08.399706 16992 net.cpp:425] pool1 <- conv1
I1021 15:05:08.399718 16992 net.cpp:399] pool1 -> pool1
I1021 15:05:08.399801 16992 net.cpp:141] Setting up pool1
I1021 15:05:08.399814 16992 net.cpp:148] Top shape: 50 64 56 56 (10035200)
I1021 15:05:08.399819 16992 net.cpp:156] Memory required for data: 689952800
I1021 15:05:08.399827 16992 layer_factory.hpp:77] Creating layer conv2a
I1021 15:05:08.399847 16992 net.cpp:91] Creating Layer conv2a
I1021 15:05:08.399857 16992 net.cpp:425] conv2a <- pool1
I1021 15:05:08.399874 16992 net.cpp:399] conv2a -> conv2a
I1021 15:05:08.401051 16992 net.cpp:141] Setting up conv2a
I1021 15:05:08.401070 16992 net.cpp:148] Top shape: 50 64 56 56 (10035200)
I1021 15:05:08.401077 16992 net.cpp:156] Memory required for data: 730093600
I1021 15:05:08.401096 16992 layer_factory.hpp:77] Creating layer conv2a_bn
I1021 15:05:08.401109 16992 net.cpp:91] Creating Layer conv2a_bn
I1021 15:05:08.401119 16992 net.cpp:425] conv2a_bn <- conv2a
I1021 15:05:08.401134 16992 net.cpp:386] conv2a_bn -> conv2a (in-place)
I1021 15:05:08.401363 16992 net.cpp:141] Setting up conv2a_bn
I1021 15:05:08.401377 16992 net.cpp:148] Top shape: 50 64 56 56 (10035200)
I1021 15:05:08.401382 16992 net.cpp:156] Memory required for data: 770234400
I1021 15:05:08.401397 16992 layer_factory.hpp:77] Creating layer conv2a_scale
I1021 15:05:08.401410 16992 net.cpp:91] Creating Layer conv2a_scale
I1021 15:05:08.401420 16992 net.cpp:425] conv2a_scale <- conv2a
I1021 15:05:08.401434 16992 net.cpp:386] conv2a_scale -> conv2a (in-place)
I1021 15:05:08.401505 16992 layer_factory.hpp:77] Creating layer conv2a_scale
I1021 15:05:08.401659 16992 net.cpp:141] Setting up conv2a_scale
I1021 15:05:08.401672 16992 net.cpp:148] Top shape: 50 64 56 56 (10035200)
I1021 15:05:08.401677 16992 net.cpp:156] Memory required for data: 810375200
I1021 15:05:08.401690 16992 layer_factory.hpp:77] Creating layer prelu2a
I1021 15:05:08.401701 16992 net.cpp:91] Creating Layer prelu2a
I1021 15:05:08.401710 16992 net.cpp:425] prelu2a <- conv2a
I1021 15:05:08.401727 16992 net.cpp:386] prelu2a -> conv2a (in-place)
I1021 15:05:08.403676 16992 net.cpp:141] Setting up prelu2a
I1021 15:05:08.403708 16992 net.cpp:148] Top shape: 50 64 56 56 (10035200)
I1021 15:05:08.403717 16992 net.cpp:156] Memory required for data: 850516000
I1021 15:05:08.403759 16992 layer_factory.hpp:77] Creating layer conv2
I1021 15:05:08.403802 16992 net.cpp:91] Creating Layer conv2
I1021 15:05:08.403839 16992 net.cpp:425] conv2 <- conv2a
I1021 15:05:08.403879 16992 net.cpp:399] conv2 -> conv2
I1021 15:05:08.406932 16992 net.cpp:141] Setting up conv2
I1021 15:05:08.406951 16992 net.cpp:148] Top shape: 50 192 56 56 (30105600)
I1021 15:05:08.406958 16992 net.cpp:156] Memory required for data: 970938400
I1021 15:05:08.406982 16992 layer_factory.hpp:77] Creating layer conv2_bn
I1021 15:05:08.406996 16992 net.cpp:91] Creating Layer conv2_bn
I1021 15:05:08.407006 16992 net.cpp:425] conv2_bn <- conv2
I1021 15:05:08.407029 16992 net.cpp:386] conv2_bn -> conv2 (in-place)
I1021 15:05:08.407305 16992 net.cpp:141] Setting up conv2_bn
I1021 15:05:08.407320 16992 net.cpp:148] Top shape: 50 192 56 56 (30105600)
I1021 15:05:08.407326 16992 net.cpp:156] Memory required for data: 1091360800
I1021 15:05:08.407341 16992 layer_factory.hpp:77] Creating layer conv2_scale
I1021 15:05:08.407380 16992 net.cpp:91] Creating Layer conv2_scale
I1021 15:05:08.407392 16992 net.cpp:425] conv2_scale <- conv2
I1021 15:05:08.407407 16992 net.cpp:386] conv2_scale -> conv2 (in-place)
I1021 15:05:08.407474 16992 layer_factory.hpp:77] Creating layer conv2_scale
I1021 15:05:08.407632 16992 net.cpp:141] Setting up conv2_scale
I1021 15:05:08.407644 16992 net.cpp:148] Top shape: 50 192 56 56 (30105600)
I1021 15:05:08.407650 16992 net.cpp:156] Memory required for data: 1211783200
I1021 15:05:08.407662 16992 layer_factory.hpp:77] Creating layer prelu2
I1021 15:05:08.407698 16992 net.cpp:91] Creating Layer prelu2
I1021 15:05:08.407712 16992 net.cpp:425] prelu2 <- conv2
I1021 15:05:08.407732 16992 net.cpp:386] prelu2 -> conv2 (in-place)
I1021 15:05:08.409427 16992 net.cpp:141] Setting up prelu2
I1021 15:05:08.409445 16992 net.cpp:148] Top shape: 50 192 56 56 (30105600)
I1021 15:05:08.409449 16992 net.cpp:156] Memory required for data: 1332205600
I1021 15:05:08.409461 16992 layer_factory.hpp:77] Creating layer pool2
I1021 15:05:08.409478 16992 net.cpp:91] Creating Layer pool2
I1021 15:05:08.409487 16992 net.cpp:425] pool2 <- conv2
I1021 15:05:08.409502 16992 net.cpp:399] pool2 -> pool2
I1021 15:05:08.409569 16992 net.cpp:141] Setting up pool2
I1021 15:05:08.409582 16992 net.cpp:148] Top shape: 50 192 28 28 (7526400)
I1021 15:05:08.409587 16992 net.cpp:156] Memory required for data: 1362311200
I1021 15:05:08.409595 16992 layer_factory.hpp:77] Creating layer conv3a
I1021 15:05:08.409627 16992 net.cpp:91] Creating Layer conv3a
I1021 15:05:08.409639 16992 net.cpp:425] conv3a <- pool2
I1021 15:05:08.409657 16992 net.cpp:399] conv3a -> conv3a
I1021 15:05:08.411849 16992 net.cpp:141] Setting up conv3a
I1021 15:05:08.411867 16992 net.cpp:148] Top shape: 50 192 28 28 (7526400)
I1021 15:05:08.411873 16992 net.cpp:156] Memory required for data: 1392416800
I1021 15:05:08.411886 16992 layer_factory.hpp:77] Creating layer conv3a_bn
I1021 15:05:08.411902 16992 net.cpp:91] Creating Layer conv3a_bn
I1021 15:05:08.411912 16992 net.cpp:425] conv3a_bn <- conv3a
I1021 15:05:08.411923 16992 net.cpp:386] conv3a_bn -> conv3a (in-place)
I1021 15:05:08.412160 16992 net.cpp:141] Setting up conv3a_bn
I1021 15:05:08.412174 16992 net.cpp:148] Top shape: 50 192 28 28 (7526400)
I1021 15:05:08.412180 16992 net.cpp:156] Memory required for data: 1422522400
I1021 15:05:08.412195 16992 layer_factory.hpp:77] Creating layer conv3a_scale
I1021 15:05:08.412212 16992 net.cpp:91] Creating Layer conv3a_scale
I1021 15:05:08.412222 16992 net.cpp:425] conv3a_scale <- conv3a
I1021 15:05:08.412235 16992 net.cpp:386] conv3a_scale -> conv3a (in-place)
I1021 15:05:08.412305 16992 layer_factory.hpp:77] Creating layer conv3a_scale
I1021 15:05:08.412449 16992 net.cpp:141] Setting up conv3a_scale
I1021 15:05:08.412462 16992 net.cpp:148] Top shape: 50 192 28 28 (7526400)
I1021 15:05:08.412467 16992 net.cpp:156] Memory required for data: 1452628000
I1021 15:05:08.412479 16992 layer_factory.hpp:77] Creating layer prelu3a
I1021 15:05:08.412493 16992 net.cpp:91] Creating Layer prelu3a
I1021 15:05:08.412503 16992 net.cpp:425] prelu3a <- conv3a
I1021 15:05:08.412516 16992 net.cpp:386] prelu3a -> conv3a (in-place)
I1021 15:05:08.412739 16992 net.cpp:141] Setting up prelu3a
I1021 15:05:08.412751 16992 net.cpp:148] Top shape: 50 192 28 28 (7526400)
I1021 15:05:08.412756 16992 net.cpp:156] Memory required for data: 1482733600
I1021 15:05:08.412768 16992 layer_factory.hpp:77] Creating layer conv3
I1021 15:05:08.412789 16992 net.cpp:91] Creating Layer conv3
I1021 15:05:08.412801 16992 net.cpp:425] conv3 <- conv3a
I1021 15:05:08.412817 16992 net.cpp:399] conv3 -> conv3
I1021 15:05:08.420414 16992 net.cpp:141] Setting up conv3
I1021 15:05:08.420433 16992 net.cpp:148] Top shape: 50 384 28 28 (15052800)
I1021 15:05:08.420440 16992 net.cpp:156] Memory required for data: 1542944800
I1021 15:05:08.420462 16992 layer_factory.hpp:77] Creating layer conv3_bn
I1021 15:05:08.420480 16992 net.cpp:91] Creating Layer conv3_bn
I1021 15:05:08.420490 16992 net.cpp:425] conv3_bn <- conv3
I1021 15:05:08.420505 16992 net.cpp:386] conv3_bn -> conv3 (in-place)
I1021 15:05:08.420744 16992 net.cpp:141] Setting up conv3_bn
I1021 15:05:08.420758 16992 net.cpp:148] Top shape: 50 384 28 28 (15052800)
I1021 15:05:08.420764 16992 net.cpp:156] Memory required for data: 1603156000
I1021 15:05:08.420780 16992 layer_factory.hpp:77] Creating layer conv3_scale
I1021 15:05:08.420794 16992 net.cpp:91] Creating Layer conv3_scale
I1021 15:05:08.420804 16992 net.cpp:425] conv3_scale <- conv3
I1021 15:05:08.420825 16992 net.cpp:386] conv3_scale -> conv3 (in-place)
I1021 15:05:08.420892 16992 layer_factory.hpp:77] Creating layer conv3_scale
I1021 15:05:08.421035 16992 net.cpp:141] Setting up conv3_scale
I1021 15:05:08.421047 16992 net.cpp:148] Top shape: 50 384 28 28 (15052800)
I1021 15:05:08.421052 16992 net.cpp:156] Memory required for data: 1663367200
I1021 15:05:08.421075 16992 layer_factory.hpp:77] Creating layer prelu3
I1021 15:05:08.421092 16992 net.cpp:91] Creating Layer prelu3
I1021 15:05:08.421102 16992 net.cpp:425] prelu3 <- conv3
I1021 15:05:08.421113 16992 net.cpp:386] prelu3 -> conv3 (in-place)
I1021 15:05:08.422140 16992 net.cpp:141] Setting up prelu3
I1021 15:05:08.422158 16992 net.cpp:148] Top shape: 50 384 28 28 (15052800)
I1021 15:05:08.422163 16992 net.cpp:156] Memory required for data: 1723578400
I1021 15:05:08.422174 16992 layer_factory.hpp:77] Creating layer pool3
I1021 15:05:08.422188 16992 net.cpp:91] Creating Layer pool3
I1021 15:05:08.422196 16992 net.cpp:425] pool3 <- conv3
I1021 15:05:08.422211 16992 net.cpp:399] pool3 -> pool3
I1021 15:05:08.422287 16992 net.cpp:141] Setting up pool3
I1021 15:05:08.422315 16992 net.cpp:148] Top shape: 50 384 14 14 (3763200)
I1021 15:05:08.422322 16992 net.cpp:156] Memory required for data: 1738631200
I1021 15:05:08.422327 16992 layer_factory.hpp:77] Creating layer pool3_pool3_0_split
I1021 15:05:08.422336 16992 net.cpp:91] Creating Layer pool3_pool3_0_split
I1021 15:05:08.422343 16992 net.cpp:425] pool3_pool3_0_split <- pool3
I1021 15:05:08.422349 16992 net.cpp:399] pool3_pool3_0_split -> pool3_pool3_0_split_0
I1021 15:05:08.422360 16992 net.cpp:399] pool3_pool3_0_split -> pool3_pool3_0_split_1
I1021 15:05:08.422374 16992 net.cpp:399] pool3_pool3_0_split -> pool3_pool3_0_split_2
I1021 15:05:08.422386 16992 net.cpp:399] pool3_pool3_0_split -> pool3_pool3_0_split_3
I1021 15:05:08.422397 16992 net.cpp:399] pool3_pool3_0_split -> pool3_pool3_0_split_4
I1021 15:05:08.422410 16992 net.cpp:399] pool3_pool3_0_split -> pool3_pool3_0_split_5
I1021 15:05:08.422533 16992 net.cpp:141] Setting up pool3_pool3_0_split
I1021 15:05:08.422547 16992 net.cpp:148] Top shape: 50 384 14 14 (3763200)
I1021 15:05:08.422554 16992 net.cpp:148] Top shape: 50 384 14 14 (3763200)
I1021 15:05:08.422559 16992 net.cpp:148] Top shape: 50 384 14 14 (3763200)
I1021 15:05:08.422564 16992 net.cpp:148] Top shape: 50 384 14 14 (3763200)
I1021 15:05:08.422569 16992 net.cpp:148] Top shape: 50 384 14 14 (3763200)
I1021 15:05:08.422574 16992 net.cpp:148] Top shape: 50 384 14 14 (3763200)
I1021 15:05:08.422579 16992 net.cpp:156] Memory required for data: 1828948000
I1021 15:05:08.422583 16992 layer_factory.hpp:77] Creating layer conv3_gender
I1021 15:05:08.422597 16992 net.cpp:91] Creating Layer conv3_gender
I1021 15:05:08.422607 16992 net.cpp:425] conv3_gender <- pool3_pool3_0_split_0
I1021 15:05:08.422624 16992 net.cpp:399] conv3_gender -> conv3_gender
I1021 15:05:08.436113 16992 net.cpp:141] Setting up conv3_gender
I1021 15:05:08.436136 16992 net.cpp:148] Top shape: 50 300 7 7 (735000)
I1021 15:05:08.436149 16992 net.cpp:156] Memory required for data: 1831888000
I1021 15:05:08.436159 16992 layer_factory.hpp:77] Creating layer conv3_gender_bn
I1021 15:05:08.436172 16992 net.cpp:91] Creating Layer conv3_gender_bn
I1021 15:05:08.436179 16992 net.cpp:425] conv3_gender_bn <- conv3_gender
I1021 15:05:08.436189 16992 net.cpp:386] conv3_gender_bn -> conv3_gender (in-place)
I1021 15:05:08.436427 16992 net.cpp:141] Setting up conv3_gender_bn
I1021 15:05:08.436439 16992 net.cpp:148] Top shape: 50 300 7 7 (735000)
I1021 15:05:08.436444 16992 net.cpp:156] Memory required for data: 1834828000
I1021 15:05:08.436473 16992 layer_factory.hpp:77] Creating layer conv3_gender_scale
I1021 15:05:08.436487 16992 net.cpp:91] Creating Layer conv3_gender_scale
I1021 15:05:08.436501 16992 net.cpp:425] conv3_gender_scale <- conv3_gender
I1021 15:05:08.436507 16992 net.cpp:386] conv3_gender_scale -> conv3_gender (in-place)
I1021 15:05:08.436559 16992 layer_factory.hpp:77] Creating layer conv3_gender_scale
I1021 15:05:08.436698 16992 net.cpp:141] Setting up conv3_gender_scale
I1021 15:05:08.436709 16992 net.cpp:148] Top shape: 50 300 7 7 (735000)
I1021 15:05:08.436715 16992 net.cpp:156] Memory required for data: 1837768000
I1021 15:05:08.436728 16992 layer_factory.hpp:77] Creating layer prelu3_gender
I1021 15:05:08.436738 16992 net.cpp:91] Creating Layer prelu3_gender
I1021 15:05:08.436744 16992 net.cpp:425] prelu3_gender <- conv3_gender
I1021 15:05:08.436751 16992 net.cpp:386] prelu3_gender -> conv3_gender (in-place)
I1021 15:05:08.436866 16992 net.cpp:141] Setting up prelu3_gender
I1021 15:05:08.436877 16992 net.cpp:148] Top shape: 50 300 7 7 (735000)
I1021 15:05:08.436883 16992 net.cpp:156] Memory required for data: 1840708000
I1021 15:05:08.436890 16992 layer_factory.hpp:77] Creating layer pool3_gender
I1021 15:05:08.436906 16992 net.cpp:91] Creating Layer pool3_gender
I1021 15:05:08.436914 16992 net.cpp:425] pool3_gender <- conv3_gender
I1021 15:05:08.436933 16992 net.cpp:399] pool3_gender -> pool3_gender
I1021 15:05:08.436986 16992 net.cpp:141] Setting up pool3_gender
I1021 15:05:08.436996 16992 net.cpp:148] Top shape: 50 300 4 4 (240000)
I1021 15:05:08.437001 16992 net.cpp:156] Memory required for data: 1841668000
I1021 15:05:08.437007 16992 layer_factory.hpp:77] Creating layer pool3_gender_pool3_gender_0_split
I1021 15:05:08.437016 16992 net.cpp:91] Creating Layer pool3_gender_pool3_gender_0_split
I1021 15:05:08.437021 16992 net.cpp:425] pool3_gender_pool3_gender_0_split <- pool3_gender
I1021 15:05:08.437028 16992 net.cpp:399] pool3_gender_pool3_gender_0_split -> pool3_gender_pool3_gender_0_split_0
I1021 15:05:08.437041 16992 net.cpp:399] pool3_gender_pool3_gender_0_split -> pool3_gender_pool3_gender_0_split_1
I1021 15:05:08.437083 16992 net.cpp:141] Setting up pool3_gender_pool3_gender_0_split
I1021 15:05:08.437093 16992 net.cpp:148] Top shape: 50 300 4 4 (240000)
I1021 15:05:08.437099 16992 net.cpp:148] Top shape: 50 300 4 4 (240000)
I1021 15:05:08.437105 16992 net.cpp:156] Memory required for data: 1843588000
I1021 15:05:08.437110 16992 layer_factory.hpp:77] Creating layer fc1_gender
I1021 15:05:08.437127 16992 net.cpp:91] Creating Layer fc1_gender
I1021 15:05:08.437135 16992 net.cpp:425] fc1_gender <- pool3_gender_pool3_gender_0_split_0
I1021 15:05:08.437146 16992 net.cpp:399] fc1_gender -> fc1_gender
I1021 15:05:08.463452 16992 net.cpp:141] Setting up fc1_gender
I1021 15:05:08.463491 16992 net.cpp:148] Top shape: 50 512 (25600)
I1021 15:05:08.463497 16992 net.cpp:156] Memory required for data: 1843690400
I1021 15:05:08.463508 16992 layer_factory.hpp:77] Creating layer relu1_gender
I1021 15:05:08.463518 16992 net.cpp:91] Creating Layer relu1_gender
I1021 15:05:08.463524 16992 net.cpp:425] relu1_gender <- fc1_gender
I1021 15:05:08.463532 16992 net.cpp:386] relu1_gender -> fc1_gender (in-place)
I1021 15:05:08.463758 16992 net.cpp:141] Setting up relu1_gender
I1021 15:05:08.463771 16992 net.cpp:148] Top shape: 50 512 (25600)
I1021 15:05:08.463776 16992 net.cpp:156] Memory required for data: 1843792800
I1021 15:05:08.463781 16992 layer_factory.hpp:77] Creating layer drop1_gender
I1021 15:05:08.463794 16992 net.cpp:91] Creating Layer drop1_gender
I1021 15:05:08.463799 16992 net.cpp:425] drop1_gender <- fc1_gender
I1021 15:05:08.463806 16992 net.cpp:386] drop1_gender -> fc1_gender (in-place)
I1021 15:05:08.463851 16992 net.cpp:141] Setting up drop1_gender
I1021 15:05:08.463860 16992 net.cpp:148] Top shape: 50 512 (25600)
I1021 15:05:08.463865 16992 net.cpp:156] Memory required for data: 1843895200
I1021 15:05:08.463871 16992 layer_factory.hpp:77] Creating layer fc2_gender
I1021 15:05:08.463907 16992 net.cpp:91] Creating Layer fc2_gender
I1021 15:05:08.463914 16992 net.cpp:425] fc2_gender <- fc1_gender
I1021 15:05:08.463922 16992 net.cpp:399] fc2_gender -> fc2_gender
I1021 15:05:08.466765 16992 net.cpp:141] Setting up fc2_gender
I1021 15:05:08.466781 16992 net.cpp:148] Top shape: 50 512 (25600)
I1021 15:05:08.466792 16992 net.cpp:156] Memory required for data: 1843997600
I1021 15:05:08.466802 16992 layer_factory.hpp:77] Creating layer relu2_gender
I1021 15:05:08.466812 16992 net.cpp:91] Creating Layer relu2_gender
I1021 15:05:08.466819 16992 net.cpp:425] relu2_gender <- fc2_gender
I1021 15:05:08.466825 16992 net.cpp:386] relu2_gender -> fc2_gender (in-place)
I1021 15:05:08.467176 16992 net.cpp:141] Setting up relu2_gender
I1021 15:05:08.467192 16992 net.cpp:148] Top shape: 50 512 (25600)
I1021 15:05:08.467203 16992 net.cpp:156] Memory required for data: 1844100000
I1021 15:05:08.467208 16992 layer_factory.hpp:77] Creating layer drop2_gender
I1021 15:05:08.467228 16992 net.cpp:91] Creating Layer drop2_gender
I1021 15:05:08.467234 16992 net.cpp:425] drop2_gender <- fc2_gender
I1021 15:05:08.467242 16992 net.cpp:386] drop2_gender -> fc2_gender (in-place)
I1021 15:05:08.467274 16992 net.cpp:141] Setting up drop2_gender
I1021 15:05:08.467285 16992 net.cpp:148] Top shape: 50 512 (25600)
I1021 15:05:08.467289 16992 net.cpp:156] Memory required for data: 1844202400
I1021 15:05:08.467300 16992 layer_factory.hpp:77] Creating layer fc2_gender_drop2_gender_0_split
I1021 15:05:08.467314 16992 net.cpp:91] Creating Layer fc2_gender_drop2_gender_0_split
I1021 15:05:08.467325 16992 net.cpp:425] fc2_gender_drop2_gender_0_split <- fc2_gender
I1021 15:05:08.467334 16992 net.cpp:399] fc2_gender_drop2_gender_0_split -> fc2_gender_drop2_gender_0_split_0
I1021 15:05:08.467342 16992 net.cpp:399] fc2_gender_drop2_gender_0_split -> fc2_gender_drop2_gender_0_split_1
I1021 15:05:08.467381 16992 net.cpp:141] Setting up fc2_gender_drop2_gender_0_split
I1021 15:05:08.467392 16992 net.cpp:148] Top shape: 50 512 (25600)
I1021 15:05:08.467398 16992 net.cpp:148] Top shape: 50 512 (25600)
I1021 15:05:08.467402 16992 net.cpp:156] Memory required for data: 1844407200
I1021 15:05:08.467407 16992 layer_factory.hpp:77] Creating layer conv3_nose
I1021 15:05:08.467420 16992 net.cpp:91] Creating Layer conv3_nose
I1021 15:05:08.467427 16992 net.cpp:425] conv3_nose <- pool3_pool3_0_split_1
I1021 15:05:08.467435 16992 net.cpp:399] conv3_nose -> conv3_nose
I1021 15:05:08.478503 16992 net.cpp:141] Setting up conv3_nose
I1021 15:05:08.478524 16992 net.cpp:148] Top shape: 50 300 7 7 (735000)
I1021 15:05:08.478530 16992 net.cpp:156] Memory required for data: 1847347200
I1021 15:05:08.478538 16992 layer_factory.hpp:77] Creating layer conv3_nose_bn
I1021 15:05:08.478551 16992 net.cpp:91] Creating Layer conv3_nose_bn
I1021 15:05:08.478559 16992 net.cpp:425] conv3_nose_bn <- conv3_nose
I1021 15:05:08.478567 16992 net.cpp:386] conv3_nose_bn -> conv3_nose (in-place)
I1021 15:05:08.478783 16992 net.cpp:141] Setting up conv3_nose_bn
I1021 15:05:08.478797 16992 net.cpp:148] Top shape: 50 300 7 7 (735000)
I1021 15:05:08.478802 16992 net.cpp:156] Memory required for data: 1850287200
I1021 15:05:08.478811 16992 layer_factory.hpp:77] Creating layer conv3_nose_scale
I1021 15:05:08.478821 16992 net.cpp:91] Creating Layer conv3_nose_scale
I1021 15:05:08.478828 16992 net.cpp:425] conv3_nose_scale <- conv3_nose
I1021 15:05:08.478834 16992 net.cpp:386] conv3_nose_scale -> conv3_nose (in-place)
I1021 15:05:08.478883 16992 layer_factory.hpp:77] Creating layer conv3_nose_scale
I1021 15:05:08.479008 16992 net.cpp:141] Setting up conv3_nose_scale
I1021 15:05:08.479018 16992 net.cpp:148] Top shape: 50 300 7 7 (735000)
I1021 15:05:08.479023 16992 net.cpp:156] Memory required for data: 1853227200
I1021 15:05:08.479032 16992 layer_factory.hpp:77] Creating layer prelu3_nose
I1021 15:05:08.479043 16992 net.cpp:91] Creating Layer prelu3_nose
I1021 15:05:08.479055 16992 net.cpp:425] prelu3_nose <- conv3_nose
I1021 15:05:08.479061 16992 net.cpp:386] prelu3_nose -> conv3_nose (in-place)
I1021 15:05:08.479202 16992 net.cpp:141] Setting up prelu3_nose
I1021 15:05:08.479212 16992 net.cpp:148] Top shape: 50 300 7 7 (735000)
I1021 15:05:08.479218 16992 net.cpp:156] Memory required for data: 1856167200
I1021 15:05:08.479223 16992 layer_factory.hpp:77] Creating layer pool3_nose
I1021 15:05:08.479233 16992 net.cpp:91] Creating Layer pool3_nose
I1021 15:05:08.479239 16992 net.cpp:425] pool3_nose <- conv3_nose
I1021 15:05:08.479246 16992 net.cpp:399] pool3_nose -> pool3_nose
I1021 15:05:08.479290 16992 net.cpp:141] Setting up pool3_nose
I1021 15:05:08.479300 16992 net.cpp:148] Top shape: 50 300 4 4 (240000)
I1021 15:05:08.479305 16992 net.cpp:156] Memory required for data: 1857127200
I1021 15:05:08.479317 16992 layer_factory.hpp:77] Creating layer pool3_nose_pool3_nose_0_split
I1021 15:05:08.479326 16992 net.cpp:91] Creating Layer pool3_nose_pool3_nose_0_split
I1021 15:05:08.479331 16992 net.cpp:425] pool3_nose_pool3_nose_0_split <- pool3_nose
I1021 15:05:08.479342 16992 net.cpp:399] pool3_nose_pool3_nose_0_split -> pool3_nose_pool3_nose_0_split_0
I1021 15:05:08.479351 16992 net.cpp:399] pool3_nose_pool3_nose_0_split -> pool3_nose_pool3_nose_0_split_1
I1021 15:05:08.479389 16992 net.cpp:141] Setting up pool3_nose_pool3_nose_0_split
I1021 15:05:08.479398 16992 net.cpp:148] Top shape: 50 300 4 4 (240000)
I1021 15:05:08.479404 16992 net.cpp:148] Top shape: 50 300 4 4 (240000)
I1021 15:05:08.479408 16992 net.cpp:156] Memory required for data: 1859047200
I1021 15:05:08.479413 16992 layer_factory.hpp:77] Creating layer fc1_nose
I1021 15:05:08.479424 16992 net.cpp:91] Creating Layer fc1_nose
I1021 15:05:08.479429 16992 net.cpp:425] fc1_nose <- pool3_nose_pool3_nose_0_split_0
I1021 15:05:08.479439 16992 net.cpp:399] fc1_nose -> fc1_nose
I1021 15:05:08.503118 16992 net.cpp:141] Setting up fc1_nose
I1021 15:05:08.503149 16992 net.cpp:148] Top shape: 50 512 (25600)
I1021 15:05:08.503155 16992 net.cpp:156] Memory required for data: 1859149600
I1021 15:05:08.503167 16992 layer_factory.hpp:77] Creating layer relu1_nose
I1021 15:05:08.503178 16992 net.cpp:91] Creating Layer relu1_nose
I1021 15:05:08.503185 16992 net.cpp:425] relu1_nose <- fc1_nose
I1021 15:05:08.503196 16992 net.cpp:386] relu1_nose -> fc1_nose (in-place)
I1021 15:05:08.503420 16992 net.cpp:141] Setting up relu1_nose
I1021 15:05:08.503433 16992 net.cpp:148] Top shape: 50 512 (25600)
I1021 15:05:08.503438 16992 net.cpp:156] Memory required for data: 1859252000
I1021 15:05:08.503444 16992 layer_factory.hpp:77] Creating layer drop1_nose
I1021 15:05:08.503454 16992 net.cpp:91] Creating Layer drop1_nose
I1021 15:05:08.503460 16992 net.cpp:425] drop1_nose <- fc1_nose
I1021 15:05:08.503466 16992 net.cpp:386] drop1_nose -> fc1_nose (in-place)
I1021 15:05:08.503504 16992 net.cpp:141] Setting up drop1_nose
I1021 15:05:08.503510 16992 net.cpp:148] Top shape: 50 512 (25600)
I1021 15:05:08.503515 16992 net.cpp:156] Memory required for data: 1859354400
I1021 15:05:08.503520 16992 layer_factory.hpp:77] Creating layer fc2_nose
I1021 15:05:08.503530 16992 net.cpp:91] Creating Layer fc2_nose
I1021 15:05:08.503535 16992 net.cpp:425] fc2_nose <- fc1_nose
I1021 15:05:08.503542 16992 net.cpp:399] fc2_nose -> fc2_nose
I1021 15:05:08.506424 16992 net.cpp:141] Setting up fc2_nose
I1021 15:05:08.506440 16992 net.cpp:148] Top shape: 50 512 (25600)
I1021 15:05:08.506446 16992 net.cpp:156] Memory required for data: 1859456800
I1021 15:05:08.506454 16992 layer_factory.hpp:77] Creating layer relu2_nose
I1021 15:05:08.506464 16992 net.cpp:91] Creating Layer relu2_nose
I1021 15:05:08.506470 16992 net.cpp:425] relu2_nose <- fc2_nose
I1021 15:05:08.506477 16992 net.cpp:386] relu2_nose -> fc2_nose (in-place)
I1021 15:05:08.507066 16992 net.cpp:141] Setting up relu2_nose
I1021 15:05:08.507082 16992 net.cpp:148] Top shape: 50 512 (25600)
I1021 15:05:08.507091 16992 net.cpp:156] Memory required for data: 1859559200
I1021 15:05:08.507097 16992 layer_factory.hpp:77] Creating layer drop2_nose
I1021 15:05:08.507104 16992 net.cpp:91] Creating Layer drop2_nose
I1021 15:05:08.507110 16992 net.cpp:425] drop2_nose <- fc2_nose
I1021 15:05:08.507140 16992 net.cpp:386] drop2_nose -> fc2_nose (in-place)
I1021 15:05:08.507176 16992 net.cpp:141] Setting up drop2_nose
I1021 15:05:08.507184 16992 net.cpp:148] Top shape: 50 512 (25600)
I1021 15:05:08.507189 16992 net.cpp:156] Memory required for data: 1859661600
I1021 15:05:08.507195 16992 layer_factory.hpp:77] Creating layer fc2_nose_drop2_nose_0_split
I1021 15:05:08.507203 16992 net.cpp:91] Creating Layer fc2_nose_drop2_nose_0_split
I1021 15:05:08.507207 16992 net.cpp:425] fc2_nose_drop2_nose_0_split <- fc2_nose
I1021 15:05:08.507216 16992 net.cpp:399] fc2_nose_drop2_nose_0_split -> fc2_nose_drop2_nose_0_split_0
I1021 15:05:08.507225 16992 net.cpp:399] fc2_nose_drop2_nose_0_split -> fc2_nose_drop2_nose_0_split_1
I1021 15:05:08.507233 16992 net.cpp:399] fc2_nose_drop2_nose_0_split -> fc2_nose_drop2_nose_0_split_2
I1021 15:05:08.507287 16992 net.cpp:141] Setting up fc2_nose_drop2_nose_0_split
I1021 15:05:08.507300 16992 net.cpp:148] Top shape: 50 512 (25600)
I1021 15:05:08.507306 16992 net.cpp:148] Top shape: 50 512 (25600)
I1021 15:05:08.507311 16992 net.cpp:148] Top shape: 50 512 (25600)
I1021 15:05:08.507315 16992 net.cpp:156] Memory required for data: 1859968800
I1021 15:05:08.507320 16992 layer_factory.hpp:77] Creating layer conv3_mouth
I1021 15:05:08.507336 16992 net.cpp:91] Creating Layer conv3_mouth
I1021 15:05:08.507344 16992 net.cpp:425] conv3_mouth <- pool3_pool3_0_split_2
I1021 15:05:08.507365 16992 net.cpp:399] conv3_mouth -> conv3_mouth
I1021 15:05:08.518473 16992 net.cpp:141] Setting up conv3_mouth
I1021 15:05:08.518493 16992 net.cpp:148] Top shape: 50 300 7 7 (735000)
I1021 15:05:08.518499 16992 net.cpp:156] Memory required for data: 1862908800
I1021 15:05:08.518525 16992 layer_factory.hpp:77] Creating layer conv3_mouth_bn
I1021 15:05:08.518535 16992 net.cpp:91] Creating Layer conv3_mouth_bn
I1021 15:05:08.518542 16992 net.cpp:425] conv3_mouth_bn <- conv3_mouth
I1021 15:05:08.518550 16992 net.cpp:386] conv3_mouth_bn -> conv3_mouth (in-place)
I1021 15:05:08.518766 16992 net.cpp:141] Setting up conv3_mouth_bn
I1021 15:05:08.518777 16992 net.cpp:148] Top shape: 50 300 7 7 (735000)
I1021 15:05:08.518782 16992 net.cpp:156] Memory required for data: 1865848800
I1021 15:05:08.518791 16992 layer_factory.hpp:77] Creating layer conv3_mouth_scale
I1021 15:05:08.518801 16992 net.cpp:91] Creating Layer conv3_mouth_scale
I1021 15:05:08.518806 16992 net.cpp:425] conv3_mouth_scale <- conv3_mouth
I1021 15:05:08.518815 16992 net.cpp:386] conv3_mouth_scale -> conv3_mouth (in-place)
I1021 15:05:08.518860 16992 layer_factory.hpp:77] Creating layer conv3_mouth_scale
I1021 15:05:08.518992 16992 net.cpp:141] Setting up conv3_mouth_scale
I1021 15:05:08.519002 16992 net.cpp:148] Top shape: 50 300 7 7 (735000)
I1021 15:05:08.519007 16992 net.cpp:156] Memory required for data: 1868788800
I1021 15:05:08.519016 16992 layer_factory.hpp:77] Creating layer prelu3_mouth
I1021 15:05:08.519024 16992 net.cpp:91] Creating Layer prelu3_mouth
I1021 15:05:08.519031 16992 net.cpp:425] prelu3_mouth <- conv3_mouth
I1021 15:05:08.519038 16992 net.cpp:386] prelu3_mouth -> conv3_mouth (in-place)
I1021 15:05:08.519155 16992 net.cpp:141] Setting up prelu3_mouth
I1021 15:05:08.519165 16992 net.cpp:148] Top shape: 50 300 7 7 (735000)
I1021 15:05:08.519168 16992 net.cpp:156] Memory required for data: 1871728800
I1021 15:05:08.519174 16992 layer_factory.hpp:77] Creating layer pool3_mouth
I1021 15:05:08.519183 16992 net.cpp:91] Creating Layer pool3_mouth
I1021 15:05:08.519188 16992 net.cpp:425] pool3_mouth <- conv3_mouth
I1021 15:05:08.519198 16992 net.cpp:399] pool3_mouth -> pool3_mouth
I1021 15:05:08.519242 16992 net.cpp:141] Setting up pool3_mouth
I1021 15:05:08.519249 16992 net.cpp:148] Top shape: 50 300 4 4 (240000)
I1021 15:05:08.519253 16992 net.cpp:156] Memory required for data: 1872688800
I1021 15:05:08.519258 16992 layer_factory.hpp:77] Creating layer pool3_mouth_pool3_mouth_0_split
I1021 15:05:08.519268 16992 net.cpp:91] Creating Layer pool3_mouth_pool3_mouth_0_split
I1021 15:05:08.519273 16992 net.cpp:425] pool3_mouth_pool3_mouth_0_split <- pool3_mouth
I1021 15:05:08.519299 16992 net.cpp:399] pool3_mouth_pool3_mouth_0_split -> pool3_mouth_pool3_mouth_0_split_0
I1021 15:05:08.519307 16992 net.cpp:399] pool3_mouth_pool3_mouth_0_split -> pool3_mouth_pool3_mouth_0_split_1
I1021 15:05:08.519346 16992 net.cpp:141] Setting up pool3_mouth_pool3_mouth_0_split
I1021 15:05:08.519354 16992 net.cpp:148] Top shape: 50 300 4 4 (240000)
I1021 15:05:08.519361 16992 net.cpp:148] Top shape: 50 300 4 4 (240000)
I1021 15:05:08.519364 16992 net.cpp:156] Memory required for data: 1874608800
I1021 15:05:08.519369 16992 layer_factory.hpp:77] Creating layer fc1_mouth
I1021 15:05:08.519392 16992 net.cpp:91] Creating Layer fc1_mouth
I1021 15:05:08.519398 16992 net.cpp:425] fc1_mouth <- pool3_mouth_pool3_mouth_0_split_0
I1021 15:05:08.519407 16992 net.cpp:399] fc1_mouth -> fc1_mouth
I1021 15:05:08.542999 16992 net.cpp:141] Setting up fc1_mouth
I1021 15:05:08.543031 16992 net.cpp:148] Top shape: 50 512 (25600)
I1021 15:05:08.543037 16992 net.cpp:156] Memory required for data: 1874711200
I1021 15:05:08.543053 16992 layer_factory.hpp:77] Creating layer relu1_mouth
I1021 15:05:08.543064 16992 net.cpp:91] Creating Layer relu1_mouth
I1021 15:05:08.543071 16992 net.cpp:425] relu1_mouth <- fc1_mouth
I1021 15:05:08.543081 16992 net.cpp:386] relu1_mouth -> fc1_mouth (in-place)
I1021 15:05:08.543320 16992 net.cpp:141] Setting up relu1_mouth
I1021 15:05:08.543334 16992 net.cpp:148] Top shape: 50 512 (25600)
I1021 15:05:08.543340 16992 net.cpp:156] Memory required for data: 1874813600
I1021 15:05:08.543345 16992 layer_factory.hpp:77] Creating layer drop1_mouth
I1021 15:05:08.543357 16992 net.cpp:91] Creating Layer drop1_mouth
I1021 15:05:08.543364 16992 net.cpp:425] drop1_mouth <- fc1_mouth
I1021 15:05:08.543370 16992 net.cpp:386] drop1_mouth -> fc1_mouth (in-place)
I1021 15:05:08.543406 16992 net.cpp:141] Setting up drop1_mouth
I1021 15:05:08.543413 16992 net.cpp:148] Top shape: 50 512 (25600)
I1021 15:05:08.543418 16992 net.cpp:156] Memory required for data: 1874916000
I1021 15:05:08.543423 16992 layer_factory.hpp:77] Creating layer fc2_mouth
I1021 15:05:08.543434 16992 net.cpp:91] Creating Layer fc2_mouth
I1021 15:05:08.543439 16992 net.cpp:425] fc2_mouth <- fc1_mouth
I1021 15:05:08.543447 16992 net.cpp:399] fc2_mouth -> fc2_mouth
I1021 15:05:08.546339 16992 net.cpp:141] Setting up fc2_mouth
I1021 15:05:08.546357 16992 net.cpp:148] Top shape: 50 512 (25600)
I1021 15:05:08.546363 16992 net.cpp:156] Memory required for data: 1875018400
I1021 15:05:08.546371 16992 layer_factory.hpp:77] Creating layer relu2_mouth
I1021 15:05:08.546387 16992 net.cpp:91] Creating Layer relu2_mouth
I1021 15:05:08.546393 16992 net.cpp:425] relu2_mouth <- fc2_mouth
I1021 15:05:08.546416 16992 net.cpp:386] relu2_mouth -> fc2_mouth (in-place)
I1021 15:05:08.546777 16992 net.cpp:141] Setting up relu2_mouth
I1021 15:05:08.546793 16992 net.cpp:148] Top shape: 50 512 (25600)
I1021 15:05:08.546798 16992 net.cpp:156] Memory required for data: 1875120800
I1021 15:05:08.546805 16992 layer_factory.hpp:77] Creating layer drop2_mouth
I1021 15:05:08.546814 16992 net.cpp:91] Creating Layer drop2_mouth
I1021 15:05:08.546820 16992 net.cpp:425] drop2_mouth <- fc2_mouth
I1021 15:05:08.546828 16992 net.cpp:386] drop2_mouth -> fc2_mouth (in-place)
I1021 15:05:08.546864 16992 net.cpp:141] Setting up drop2_mouth
I1021 15:05:08.546870 16992 net.cpp:148] Top shape: 50 512 (25600)
I1021 15:05:08.546875 16992 net.cpp:156] Memory required for data: 1875223200
I1021 15:05:08.546880 16992 layer_factory.hpp:77] Creating layer fc2_mouth_drop2_mouth_0_split
I1021 15:05:08.546888 16992 net.cpp:91] Creating Layer fc2_mouth_drop2_mouth_0_split
I1021 15:05:08.546892 16992 net.cpp:425] fc2_mouth_drop2_mouth_0_split <- fc2_mouth
I1021 15:05:08.546901 16992 net.cpp:399] fc2_mouth_drop2_mouth_0_split -> fc2_mouth_drop2_mouth_0_split_0
I1021 15:05:08.546911 16992 net.cpp:399] fc2_mouth_drop2_mouth_0_split -> fc2_mouth_drop2_mouth_0_split_1
I1021 15:05:08.546919 16992 net.cpp:399] fc2_mouth_drop2_mouth_0_split -> fc2_mouth_drop2_mouth_0_split_2
I1021 15:05:08.546952 16992 net.cpp:399] fc2_mouth_drop2_mouth_0_split -> fc2_mouth_drop2_mouth_0_split_3
I1021 15:05:08.546959 16992 net.cpp:399] fc2_mouth_drop2_mouth_0_split -> fc2_mouth_drop2_mouth_0_split_4
I1021 15:05:08.547040 16992 net.cpp:141] Setting up fc2_mouth_drop2_mouth_0_split
I1021 15:05:08.547052 16992 net.cpp:148] Top shape: 50 512 (25600)
I1021 15:05:08.547058 16992 net.cpp:148] Top shape: 50 512 (25600)
I1021 15:05:08.547063 16992 net.cpp:148] Top shape: 50 512 (25600)
I1021 15:05:08.547068 16992 net.cpp:148] Top shape: 50 512 (25600)
I1021 15:05:08.547073 16992 net.cpp:148] Top shape: 50 512 (25600)
I1021 15:05:08.547077 16992 net.cpp:156] Memory required for data: 1875735200
I1021 15:05:08.547082 16992 layer_factory.hpp:77] Creating layer conv3_eyes
I1021 15:05:08.547096 16992 net.cpp:91] Creating Layer conv3_eyes
I1021 15:05:08.547103 16992 net.cpp:425] conv3_eyes <- pool3_pool3_0_split_3
I1021 15:05:08.547111 16992 net.cpp:399] conv3_eyes -> conv3_eyes
I1021 15:05:08.558197 16992 net.cpp:141] Setting up conv3_eyes
I1021 15:05:08.558218 16992 net.cpp:148] Top shape: 50 300 7 7 (735000)
I1021 15:05:08.558223 16992 net.cpp:156] Memory required for data: 1878675200
I1021 15:05:08.558233 16992 layer_factory.hpp:77] Creating layer conv3_eyes_bn
I1021 15:05:08.558244 16992 net.cpp:91] Creating Layer conv3_eyes_bn
I1021 15:05:08.558251 16992 net.cpp:425] conv3_eyes_bn <- conv3_eyes
I1021 15:05:08.558259 16992 net.cpp:386] conv3_eyes_bn -> conv3_eyes (in-place)
I1021 15:05:08.558490 16992 net.cpp:141] Setting up conv3_eyes_bn
I1021 15:05:08.558502 16992 net.cpp:148] Top shape: 50 300 7 7 (735000)
I1021 15:05:08.558507 16992 net.cpp:156] Memory required for data: 1881615200
I1021 15:05:08.558518 16992 layer_factory.hpp:77] Creating layer conv3_eyes_scale
I1021 15:05:08.558531 16992 net.cpp:91] Creating Layer conv3_eyes_scale
I1021 15:05:08.558537 16992 net.cpp:425] conv3_eyes_scale <- conv3_eyes
I1021 15:05:08.558542 16992 net.cpp:386] conv3_eyes_scale -> conv3_eyes (in-place)
I1021 15:05:08.558591 16992 layer_factory.hpp:77] Creating layer conv3_eyes_scale
I1021 15:05:08.558729 16992 net.cpp:141] Setting up conv3_eyes_scale
I1021 15:05:08.558739 16992 net.cpp:148] Top shape: 50 300 7 7 (735000)
I1021 15:05:08.558744 16992 net.cpp:156] Memory required for data: 1884555200
I1021 15:05:08.558753 16992 layer_factory.hpp:77] Creating layer prelu3_eyes
I1021 15:05:08.558761 16992 net.cpp:91] Creating Layer prelu3_eyes
I1021 15:05:08.558766 16992 net.cpp:425] prelu3_eyes <- conv3_eyes
I1021 15:05:08.558775 16992 net.cpp:386] prelu3_eyes -> conv3_eyes (in-place)
I1021 15:05:08.558888 16992 net.cpp:141] Setting up prelu3_eyes
I1021 15:05:08.558898 16992 net.cpp:148] Top shape: 50 300 7 7 (735000)
I1021 15:05:08.558902 16992 net.cpp:156] Memory required for data: 1887495200
I1021 15:05:08.558908 16992 layer_factory.hpp:77] Creating layer pool3_eyes
I1021 15:05:08.558918 16992 net.cpp:91] Creating Layer pool3_eyes
I1021 15:05:08.558923 16992 net.cpp:425] pool3_eyes <- conv3_eyes
I1021 15:05:08.558930 16992 net.cpp:399] pool3_eyes -> pool3_eyes
I1021 15:05:08.558974 16992 net.cpp:141] Setting up pool3_eyes
I1021 15:05:08.558984 16992 net.cpp:148] Top shape: 50 300 4 4 (240000)
I1021 15:05:08.558990 16992 net.cpp:156] Memory required for data: 1888455200
I1021 15:05:08.558993 16992 layer_factory.hpp:77] Creating layer pool3_eyes_pool3_eyes_0_split
I1021 15:05:08.559000 16992 net.cpp:91] Creating Layer pool3_eyes_pool3_eyes_0_split
I1021 15:05:08.559005 16992 net.cpp:425] pool3_eyes_pool3_eyes_0_split <- pool3_eyes
I1021 15:05:08.559011 16992 net.cpp:399] pool3_eyes_pool3_eyes_0_split -> pool3_eyes_pool3_eyes_0_split_0
I1021 15:05:08.559020 16992 net.cpp:399] pool3_eyes_pool3_eyes_0_split -> pool3_eyes_pool3_eyes_0_split_1
I1021 15:05:08.559061 16992 net.cpp:141] Setting up pool3_eyes_pool3_eyes_0_split
I1021 15:05:08.559067 16992 net.cpp:148] Top shape: 50 300 4 4 (240000)
I1021 15:05:08.559072 16992 net.cpp:148] Top shape: 50 300 4 4 (240000)
I1021 15:05:08.559077 16992 net.cpp:156] Memory required for data: 1890375200
I1021 15:05:08.559099 16992 layer_factory.hpp:77] Creating layer fc1_eyes
I1021 15:05:08.559113 16992 net.cpp:91] Creating Layer fc1_eyes
I1021 15:05:08.559118 16992 net.cpp:425] fc1_eyes <- pool3_eyes_pool3_eyes_0_split_0
I1021 15:05:08.559125 16992 net.cpp:399] fc1_eyes -> fc1_eyes
I1021 15:05:08.582659 16992 net.cpp:141] Setting up fc1_eyes
I1021 15:05:08.582689 16992 net.cpp:148] Top shape: 50 512 (25600)
I1021 15:05:08.582695 16992 net.cpp:156] Memory required for data: 1890477600
I1021 15:05:08.582705 16992 layer_factory.hpp:77] Creating layer relu1_eyes
I1021 15:05:08.582715 16992 net.cpp:91] Creating Layer relu1_eyes
I1021 15:05:08.582723 16992 net.cpp:425] relu1_eyes <- fc1_eyes
I1021 15:05:08.582731 16992 net.cpp:386] relu1_eyes -> fc1_eyes (in-place)
I1021 15:05:08.582949 16992 net.cpp:141] Setting up relu1_eyes
I1021 15:05:08.582962 16992 net.cpp:148] Top shape: 50 512 (25600)
I1021 15:05:08.582967 16992 net.cpp:156] Memory required for data: 1890580000
I1021 15:05:08.582973 16992 layer_factory.hpp:77] Creating layer drop1_eyes
I1021 15:05:08.582983 16992 net.cpp:91] Creating Layer drop1_eyes
I1021 15:05:08.582988 16992 net.cpp:425] drop1_eyes <- fc1_eyes
I1021 15:05:08.582995 16992 net.cpp:386] drop1_eyes -> fc1_eyes (in-place)
I1021 15:05:08.583036 16992 net.cpp:141] Setting up drop1_eyes
I1021 15:05:08.583044 16992 net.cpp:148] Top shape: 50 512 (25600)
I1021 15:05:08.583048 16992 net.cpp:156] Memory required for data: 1890682400
I1021 15:05:08.583053 16992 layer_factory.hpp:77] Creating layer fc2_eyes
I1021 15:05:08.583065 16992 net.cpp:91] Creating Layer fc2_eyes
I1021 15:05:08.583070 16992 net.cpp:425] fc2_eyes <- fc1_eyes
I1021 15:05:08.583081 16992 net.cpp:399] fc2_eyes -> fc2_eyes
I1021 15:05:08.586055 16992 net.cpp:141] Setting up fc2_eyes
I1021 15:05:08.586077 16992 net.cpp:148] Top shape: 50 512 (25600)
I1021 15:05:08.586082 16992 net.cpp:156] Memory required for data: 1890784800
I1021 15:05:08.586093 16992 layer_factory.hpp:77] Creating layer relu2_eyes
I1021 15:05:08.586102 16992 net.cpp:91] Creating Layer relu2_eyes
I1021 15:05:08.586109 16992 net.cpp:425] relu2_eyes <- fc2_eyes
I1021 15:05:08.586118 16992 net.cpp:386] relu2_eyes -> fc2_eyes (in-place)
I1021 15:05:08.586513 16992 net.cpp:141] Setting up relu2_eyes
I1021 15:05:08.586530 16992 net.cpp:148] Top shape: 50 512 (25600)
I1021 15:05:08.586535 16992 net.cpp:156] Memory required for data: 1890887200
I1021 15:05:08.586541 16992 layer_factory.hpp:77] Creating layer drop2_eyes
I1021 15:05:08.586549 16992 net.cpp:91] Creating Layer drop2_eyes
I1021 15:05:08.586555 16992 net.cpp:425] drop2_eyes <- fc2_eyes
I1021 15:05:08.586570 16992 net.cpp:386] drop2_eyes -> fc2_eyes (in-place)
I1021 15:05:08.586607 16992 net.cpp:141] Setting up drop2_eyes
I1021 15:05:08.586616 16992 net.cpp:148] Top shape: 50 512 (25600)
I1021 15:05:08.586619 16992 net.cpp:156] Memory required for data: 1890989600
I1021 15:05:08.586624 16992 layer_factory.hpp:77] Creating layer fc2_eyes_drop2_eyes_0_split
I1021 15:05:08.586632 16992 net.cpp:91] Creating Layer fc2_eyes_drop2_eyes_0_split
I1021 15:05:08.586637 16992 net.cpp:425] fc2_eyes_drop2_eyes_0_split <- fc2_eyes
I1021 15:05:08.586643 16992 net.cpp:399] fc2_eyes_drop2_eyes_0_split -> fc2_eyes_drop2_eyes_0_split_0
I1021 15:05:08.586654 16992 net.cpp:399] fc2_eyes_drop2_eyes_0_split -> fc2_eyes_drop2_eyes_0_split_1
I1021 15:05:08.586663 16992 net.cpp:399] fc2_eyes_drop2_eyes_0_split -> fc2_eyes_drop2_eyes_0_split_2
I1021 15:05:08.586671 16992 net.cpp:399] fc2_eyes_drop2_eyes_0_split -> fc2_eyes_drop2_eyes_0_split_3
I1021 15:05:08.586678 16992 net.cpp:399] fc2_eyes_drop2_eyes_0_split -> fc2_eyes_drop2_eyes_0_split_4
I1021 15:05:08.586686 16992 net.cpp:399] fc2_eyes_drop2_eyes_0_split -> fc2_eyes_drop2_eyes_0_split_5
I1021 15:05:08.586781 16992 net.cpp:141] Setting up fc2_eyes_drop2_eyes_0_split
I1021 15:05:08.586791 16992 net.cpp:148] Top shape: 50 512 (25600)
I1021 15:05:08.586796 16992 net.cpp:148] Top shape: 50 512 (25600)
I1021 15:05:08.586802 16992 net.cpp:148] Top shape: 50 512 (25600)
I1021 15:05:08.586828 16992 net.cpp:148] Top shape: 50 512 (25600)
I1021 15:05:08.586833 16992 net.cpp:148] Top shape: 50 512 (25600)
I1021 15:05:08.586838 16992 net.cpp:148] Top shape: 50 512 (25600)
I1021 15:05:08.586843 16992 net.cpp:156] Memory required for data: 1891604000
I1021 15:05:08.586848 16992 layer_factory.hpp:77] Creating layer conv3_face
I1021 15:05:08.586881 16992 net.cpp:91] Creating Layer conv3_face
I1021 15:05:08.586889 16992 net.cpp:425] conv3_face <- pool3_pool3_0_split_4
I1021 15:05:08.586897 16992 net.cpp:399] conv3_face -> conv3_face
I1021 15:05:08.598258 16992 net.cpp:141] Setting up conv3_face
I1021 15:05:08.598289 16992 net.cpp:148] Top shape: 50 300 7 7 (735000)
I1021 15:05:08.598296 16992 net.cpp:156] Memory required for data: 1894544000
I1021 15:05:08.598306 16992 layer_factory.hpp:77] Creating layer conv3_face_bn
I1021 15:05:08.598320 16992 net.cpp:91] Creating Layer conv3_face_bn
I1021 15:05:08.598326 16992 net.cpp:425] conv3_face_bn <- conv3_face
I1021 15:05:08.598335 16992 net.cpp:386] conv3_face_bn -> conv3_face (in-place)
I1021 15:05:08.598567 16992 net.cpp:141] Setting up conv3_face_bn
I1021 15:05:08.598579 16992 net.cpp:148] Top shape: 50 300 7 7 (735000)
I1021 15:05:08.598583 16992 net.cpp:156] Memory required for data: 1897484000
I1021 15:05:08.598594 16992 layer_factory.hpp:77] Creating layer conv3_face_scale
I1021 15:05:08.598603 16992 net.cpp:91] Creating Layer conv3_face_scale
I1021 15:05:08.598608 16992 net.cpp:425] conv3_face_scale <- conv3_face
I1021 15:05:08.598615 16992 net.cpp:386] conv3_face_scale -> conv3_face (in-place)
I1021 15:05:08.598670 16992 layer_factory.hpp:77] Creating layer conv3_face_scale
I1021 15:05:08.598808 16992 net.cpp:141] Setting up conv3_face_scale
I1021 15:05:08.598819 16992 net.cpp:148] Top shape: 50 300 7 7 (735000)
I1021 15:05:08.598824 16992 net.cpp:156] Memory required for data: 1900424000
I1021 15:05:08.598832 16992 layer_factory.hpp:77] Creating layer prelu3_face
I1021 15:05:08.598839 16992 net.cpp:91] Creating Layer prelu3_face
I1021 15:05:08.598845 16992 net.cpp:425] prelu3_face <- conv3_face
I1021 15:05:08.598850 16992 net.cpp:386] prelu3_face -> conv3_face (in-place)
I1021 15:05:08.598969 16992 net.cpp:141] Setting up prelu3_face
I1021 15:05:08.598979 16992 net.cpp:148] Top shape: 50 300 7 7 (735000)
I1021 15:05:08.598984 16992 net.cpp:156] Memory required for data: 1903364000
I1021 15:05:08.598990 16992 layer_factory.hpp:77] Creating layer pool3_face
I1021 15:05:08.599000 16992 net.cpp:91] Creating Layer pool3_face
I1021 15:05:08.599005 16992 net.cpp:425] pool3_face <- conv3_face
I1021 15:05:08.599014 16992 net.cpp:399] pool3_face -> pool3_face
I1021 15:05:08.599061 16992 net.cpp:141] Setting up pool3_face
I1021 15:05:08.599076 16992 net.cpp:148] Top shape: 50 300 4 4 (240000)
I1021 15:05:08.599081 16992 net.cpp:156] Memory required for data: 1904324000
I1021 15:05:08.599086 16992 layer_factory.hpp:77] Creating layer pool3_face_pool3_face_0_split
I1021 15:05:08.599093 16992 net.cpp:91] Creating Layer pool3_face_pool3_face_0_split
I1021 15:05:08.599098 16992 net.cpp:425] pool3_face_pool3_face_0_split <- pool3_face
I1021 15:05:08.599107 16992 net.cpp:399] pool3_face_pool3_face_0_split -> pool3_face_pool3_face_0_split_0
I1021 15:05:08.599115 16992 net.cpp:399] pool3_face_pool3_face_0_split -> pool3_face_pool3_face_0_split_1
I1021 15:05:08.599155 16992 net.cpp:141] Setting up pool3_face_pool3_face_0_split
I1021 15:05:08.599166 16992 net.cpp:148] Top shape: 50 300 4 4 (240000)
I1021 15:05:08.599171 16992 net.cpp:148] Top shape: 50 300 4 4 (240000)
I1021 15:05:08.599176 16992 net.cpp:156] Memory required for data: 1906244000
I1021 15:05:08.599180 16992 layer_factory.hpp:77] Creating layer fc1_face
I1021 15:05:08.599189 16992 net.cpp:91] Creating Layer fc1_face
I1021 15:05:08.599195 16992 net.cpp:425] fc1_face <- pool3_face_pool3_face_0_split_0
I1021 15:05:08.599205 16992 net.cpp:399] fc1_face -> fc1_face
I1021 15:05:08.623023 16992 net.cpp:141] Setting up fc1_face
I1021 15:05:08.623054 16992 net.cpp:148] Top shape: 50 512 (25600)
I1021 15:05:08.623095 16992 net.cpp:156] Memory required for data: 1906346400
I1021 15:05:08.623106 16992 layer_factory.hpp:77] Creating layer relu1_face
I1021 15:05:08.623121 16992 net.cpp:91] Creating Layer relu1_face
I1021 15:05:08.623128 16992 net.cpp:425] relu1_face <- fc1_face
I1021 15:05:08.623136 16992 net.cpp:386] relu1_face -> fc1_face (in-place)
I1021 15:05:08.623538 16992 net.cpp:141] Setting up relu1_face
I1021 15:05:08.623555 16992 net.cpp:148] Top shape: 50 512 (25600)
I1021 15:05:08.623560 16992 net.cpp:156] Memory required for data: 1906448800
I1021 15:05:08.623565 16992 layer_factory.hpp:77] Creating layer drop1_face
I1021 15:05:08.623579 16992 net.cpp:91] Creating Layer drop1_face
I1021 15:05:08.623584 16992 net.cpp:425] drop1_face <- fc1_face
I1021 15:05:08.623605 16992 net.cpp:386] drop1_face -> fc1_face (in-place)
I1021 15:05:08.623641 16992 net.cpp:141] Setting up drop1_face
I1021 15:05:08.623648 16992 net.cpp:148] Top shape: 50 512 (25600)
I1021 15:05:08.623653 16992 net.cpp:156] Memory required for data: 1906551200
I1021 15:05:08.623658 16992 layer_factory.hpp:77] Creating layer fc2_face
I1021 15:05:08.623670 16992 net.cpp:91] Creating Layer fc2_face
I1021 15:05:08.623677 16992 net.cpp:425] fc2_face <- fc1_face
I1021 15:05:08.623685 16992 net.cpp:399] fc2_face -> fc2_face
I1021 15:05:08.626615 16992 net.cpp:141] Setting up fc2_face
I1021 15:05:08.626633 16992 net.cpp:148] Top shape: 50 512 (25600)
I1021 15:05:08.626639 16992 net.cpp:156] Memory required for data: 1906653600
I1021 15:05:08.626647 16992 layer_factory.hpp:77] Creating layer relu2_face
I1021 15:05:08.626655 16992 net.cpp:91] Creating Layer relu2_face
I1021 15:05:08.626662 16992 net.cpp:425] relu2_face <- fc2_face
I1021 15:05:08.626667 16992 net.cpp:386] relu2_face -> fc2_face (in-place)
I1021 15:05:08.626863 16992 net.cpp:141] Setting up relu2_face
I1021 15:05:08.626876 16992 net.cpp:148] Top shape: 50 512 (25600)
I1021 15:05:08.626881 16992 net.cpp:156] Memory required for data: 1906756000
I1021 15:05:08.626886 16992 layer_factory.hpp:77] Creating layer drop2_face
I1021 15:05:08.626895 16992 net.cpp:91] Creating Layer drop2_face
I1021 15:05:08.626901 16992 net.cpp:425] drop2_face <- fc2_face
I1021 15:05:08.626911 16992 net.cpp:386] drop2_face -> fc2_face (in-place)
I1021 15:05:08.626942 16992 net.cpp:141] Setting up drop2_face
I1021 15:05:08.626950 16992 net.cpp:148] Top shape: 50 512 (25600)
I1021 15:05:08.626953 16992 net.cpp:156] Memory required for data: 1906858400
I1021 15:05:08.626958 16992 layer_factory.hpp:77] Creating layer fc2_face_drop2_face_0_split
I1021 15:05:08.626968 16992 net.cpp:91] Creating Layer fc2_face_drop2_face_0_split
I1021 15:05:08.626973 16992 net.cpp:425] fc2_face_drop2_face_0_split <- fc2_face
I1021 15:05:08.626988 16992 net.cpp:399] fc2_face_drop2_face_0_split -> fc2_face_drop2_face_0_split_0
I1021 15:05:08.627003 16992 net.cpp:399] fc2_face_drop2_face_0_split -> fc2_face_drop2_face_0_split_1
I1021 15:05:08.627012 16992 net.cpp:399] fc2_face_drop2_face_0_split -> fc2_face_drop2_face_0_split_2
I1021 15:05:08.627020 16992 net.cpp:399] fc2_face_drop2_face_0_split -> fc2_face_drop2_face_0_split_3
I1021 15:05:08.627027 16992 net.cpp:399] fc2_face_drop2_face_0_split -> fc2_face_drop2_face_0_split_4
I1021 15:05:08.627035 16992 net.cpp:399] fc2_face_drop2_face_0_split -> fc2_face_drop2_face_0_split_5
I1021 15:05:08.627043 16992 net.cpp:399] fc2_face_drop2_face_0_split -> fc2_face_drop2_face_0_split_6
I1021 15:05:08.627153 16992 net.cpp:141] Setting up fc2_face_drop2_face_0_split
I1021 15:05:08.627162 16992 net.cpp:148] Top shape: 50 512 (25600)
I1021 15:05:08.627168 16992 net.cpp:148] Top shape: 50 512 (25600)
I1021 15:05:08.627173 16992 net.cpp:148] Top shape: 50 512 (25600)
I1021 15:05:08.627178 16992 net.cpp:148] Top shape: 50 512 (25600)
I1021 15:05:08.627183 16992 net.cpp:148] Top shape: 50 512 (25600)
I1021 15:05:08.627188 16992 net.cpp:148] Top shape: 50 512 (25600)
I1021 15:05:08.627193 16992 net.cpp:148] Top shape: 50 512 (25600)
I1021 15:05:08.627198 16992 net.cpp:156] Memory required for data: 1907575200
I1021 15:05:08.627219 16992 layer_factory.hpp:77] Creating layer conv3_rest
I1021 15:05:08.627236 16992 net.cpp:91] Creating Layer conv3_rest
I1021 15:05:08.627243 16992 net.cpp:425] conv3_rest <- pool3_pool3_0_split_5
I1021 15:05:08.627251 16992 net.cpp:399] conv3_rest -> conv3_rest
I1021 15:05:08.638522 16992 net.cpp:141] Setting up conv3_rest
I1021 15:05:08.638542 16992 net.cpp:148] Top shape: 50 300 7 7 (735000)
I1021 15:05:08.638547 16992 net.cpp:156] Memory required for data: 1910515200
I1021 15:05:08.638556 16992 layer_factory.hpp:77] Creating layer conv3_rest_bn
I1021 15:05:08.638568 16992 net.cpp:91] Creating Layer conv3_rest_bn
I1021 15:05:08.638574 16992 net.cpp:425] conv3_rest_bn <- conv3_rest
I1021 15:05:08.638582 16992 net.cpp:386] conv3_rest_bn -> conv3_rest (in-place)
I1021 15:05:08.638825 16992 net.cpp:141] Setting up conv3_rest_bn
I1021 15:05:08.638836 16992 net.cpp:148] Top shape: 50 300 7 7 (735000)
I1021 15:05:08.638841 16992 net.cpp:156] Memory required for data: 1913455200
I1021 15:05:08.638851 16992 layer_factory.hpp:77] Creating layer conv3_rest_scale
I1021 15:05:08.638860 16992 net.cpp:91] Creating Layer conv3_rest_scale
I1021 15:05:08.638865 16992 net.cpp:425] conv3_rest_scale <- conv3_rest
I1021 15:05:08.638871 16992 net.cpp:386] conv3_rest_scale -> conv3_rest (in-place)
I1021 15:05:08.638924 16992 layer_factory.hpp:77] Creating layer conv3_rest_scale
I1021 15:05:08.639065 16992 net.cpp:141] Setting up conv3_rest_scale
I1021 15:05:08.639078 16992 net.cpp:148] Top shape: 50 300 7 7 (735000)
I1021 15:05:08.639083 16992 net.cpp:156] Memory required for data: 1916395200
I1021 15:05:08.639091 16992 layer_factory.hpp:77] Creating layer prelu3_rest
I1021 15:05:08.639101 16992 net.cpp:91] Creating Layer prelu3_rest
I1021 15:05:08.639106 16992 net.cpp:425] prelu3_rest <- conv3_rest
I1021 15:05:08.639112 16992 net.cpp:386] prelu3_rest -> conv3_rest (in-place)
I1021 15:05:08.639243 16992 net.cpp:141] Setting up prelu3_rest
I1021 15:05:08.639255 16992 net.cpp:148] Top shape: 50 300 7 7 (735000)
I1021 15:05:08.639259 16992 net.cpp:156] Memory required for data: 1919335200
I1021 15:05:08.639266 16992 layer_factory.hpp:77] Creating layer pool3_rest
I1021 15:05:08.639274 16992 net.cpp:91] Creating Layer pool3_rest
I1021 15:05:08.639281 16992 net.cpp:425] pool3_rest <- conv3_rest
I1021 15:05:08.639286 16992 net.cpp:399] pool3_rest -> pool3_rest
I1021 15:05:08.639335 16992 net.cpp:141] Setting up pool3_rest
I1021 15:05:08.639343 16992 net.cpp:148] Top shape: 50 300 4 4 (240000)
I1021 15:05:08.639348 16992 net.cpp:156] Memory required for data: 1920295200
I1021 15:05:08.639353 16992 layer_factory.hpp:77] Creating layer pool3_rest_pool3_rest_0_split
I1021 15:05:08.639359 16992 net.cpp:91] Creating Layer pool3_rest_pool3_rest_0_split
I1021 15:05:08.639364 16992 net.cpp:425] pool3_rest_pool3_rest_0_split <- pool3_rest
I1021 15:05:08.639374 16992 net.cpp:399] pool3_rest_pool3_rest_0_split -> pool3_rest_pool3_rest_0_split_0
I1021 15:05:08.639381 16992 net.cpp:399] pool3_rest_pool3_rest_0_split -> pool3_rest_pool3_rest_0_split_1
I1021 15:05:08.639389 16992 net.cpp:399] pool3_rest_pool3_rest_0_split -> pool3_rest_pool3_rest_0_split_2
I1021 15:05:08.639396 16992 net.cpp:399] pool3_rest_pool3_rest_0_split -> pool3_rest_pool3_rest_0_split_3
I1021 15:05:08.639407 16992 net.cpp:399] pool3_rest_pool3_rest_0_split -> pool3_rest_pool3_rest_0_split_4
I1021 15:05:08.639487 16992 net.cpp:141] Setting up pool3_rest_pool3_rest_0_split
I1021 15:05:08.639495 16992 net.cpp:148] Top shape: 50 300 4 4 (240000)
I1021 15:05:08.639502 16992 net.cpp:148] Top shape: 50 300 4 4 (240000)
I1021 15:05:08.639506 16992 net.cpp:148] Top shape: 50 300 4 4 (240000)
I1021 15:05:08.639511 16992 net.cpp:148] Top shape: 50 300 4 4 (240000)
I1021 15:05:08.639518 16992 net.cpp:148] Top shape: 50 300 4 4 (240000)
I1021 15:05:08.639521 16992 net.cpp:156] Memory required for data: 1925095200
I1021 15:05:08.639525 16992 layer_factory.hpp:77] Creating layer fc1_aroundhead
I1021 15:05:08.639534 16992 net.cpp:91] Creating Layer fc1_aroundhead
I1021 15:05:08.639539 16992 net.cpp:425] fc1_aroundhead <- pool3_rest_pool3_rest_0_split_0
I1021 15:05:08.639564 16992 net.cpp:399] fc1_aroundhead -> fc1_aroundhead
I1021 15:05:08.663563 16992 net.cpp:141] Setting up fc1_aroundhead
I1021 15:05:08.663592 16992 net.cpp:148] Top shape: 50 512 (25600)
I1021 15:05:08.663599 16992 net.cpp:156] Memory required for data: 1925197600
I1021 15:05:08.663607 16992 layer_factory.hpp:77] Creating layer relu1_aroundhead
I1021 15:05:08.663619 16992 net.cpp:91] Creating Layer relu1_aroundhead
I1021 15:05:08.663625 16992 net.cpp:425] relu1_aroundhead <- fc1_aroundhead
I1021 15:05:08.663633 16992 net.cpp:386] relu1_aroundhead -> fc1_aroundhead (in-place)
I1021 15:05:08.665421 16992 net.cpp:141] Setting up relu1_aroundhead
I1021 15:05:08.665439 16992 net.cpp:148] Top shape: 50 512 (25600)
I1021 15:05:08.665444 16992 net.cpp:156] Memory required for data: 1925300000
I1021 15:05:08.665449 16992 layer_factory.hpp:77] Creating layer drop1_aroundhead
I1021 15:05:08.665460 16992 net.cpp:91] Creating Layer drop1_aroundhead
I1021 15:05:08.665467 16992 net.cpp:425] drop1_aroundhead <- fc1_aroundhead
I1021 15:05:08.665477 16992 net.cpp:386] drop1_aroundhead -> fc1_aroundhead (in-place)
I1021 15:05:08.665513 16992 net.cpp:141] Setting up drop1_aroundhead
I1021 15:05:08.665520 16992 net.cpp:148] Top shape: 50 512 (25600)
I1021 15:05:08.665525 16992 net.cpp:156] Memory required for data: 1925402400
I1021 15:05:08.665529 16992 layer_factory.hpp:77] Creating layer fc2_aroundhead
I1021 15:05:08.665540 16992 net.cpp:91] Creating Layer fc2_aroundhead
I1021 15:05:08.665545 16992 net.cpp:425] fc2_aroundhead <- fc1_aroundhead
I1021 15:05:08.665554 16992 net.cpp:399] fc2_aroundhead -> fc2_aroundhead
I1021 15:05:08.668460 16992 net.cpp:141] Setting up fc2_aroundhead
I1021 15:05:08.668478 16992 net.cpp:148] Top shape: 50 512 (25600)
I1021 15:05:08.668483 16992 net.cpp:156] Memory required for data: 1925504800
I1021 15:05:08.668490 16992 layer_factory.hpp:77] Creating layer relu2_aroundhead
I1021 15:05:08.668503 16992 net.cpp:91] Creating Layer relu2_aroundhead
I1021 15:05:08.668509 16992 net.cpp:425] relu2_aroundhead <- fc2_aroundhead
I1021 15:05:08.668515 16992 net.cpp:386] relu2_aroundhead -> fc2_aroundhead (in-place)
I1021 15:05:08.668715 16992 net.cpp:141] Setting up relu2_aroundhead
I1021 15:05:08.668727 16992 net.cpp:148] Top shape: 50 512 (25600)
I1021 15:05:08.668732 16992 net.cpp:156] Memory required for data: 1925607200
I1021 15:05:08.668737 16992 layer_factory.hpp:77] Creating layer drop2_aroundhead
I1021 15:05:08.668745 16992 net.cpp:91] Creating Layer drop2_aroundhead
I1021 15:05:08.668751 16992 net.cpp:425] drop2_aroundhead <- fc2_aroundhead
I1021 15:05:08.668761 16992 net.cpp:386] drop2_aroundhead -> fc2_aroundhead (in-place)
I1021 15:05:08.668792 16992 net.cpp:141] Setting up drop2_aroundhead
I1021 15:05:08.668802 16992 net.cpp:148] Top shape: 50 512 (25600)
I1021 15:05:08.668807 16992 net.cpp:156] Memory required for data: 1925709600
I1021 15:05:08.668812 16992 layer_factory.hpp:77] Creating layer fc2_aroundhead_drop2_aroundhead_0_split
I1021 15:05:08.668822 16992 net.cpp:91] Creating Layer fc2_aroundhead_drop2_aroundhead_0_split
I1021 15:05:08.668826 16992 net.cpp:425] fc2_aroundhead_drop2_aroundhead_0_split <- fc2_aroundhead
I1021 15:05:08.668835 16992 net.cpp:399] fc2_aroundhead_drop2_aroundhead_0_split -> fc2_aroundhead_drop2_aroundhead_0_split_0
…
I1021 15:05:08.668964 16992 net.cpp:399] fc2_aroundhead_drop2_aroundhead_0_split -> fc2_aroundhead_drop2_aroundhead_0_split_10
I1021 15:05:08.668972 16992 net.cpp:399] fc2_aroundhead_drop2_aroundhead_0_split -> fc2_aroundhead_drop2_aroundhead_0_split_11
I1021 15:05:08.668980 16992 net.cpp:399] fc2_aroundhead_drop2_aroundhead_0_split -> fc2_aroundhead_drop2_aroundhead_0_split_12
I1021 15:05:08.668987 16992 net.cpp:399] fc2_aroundhead_drop2_aroundhead_0_split -> fc2_aroundhead_drop2_aroundhead_0_split_13
I1021 15:05:08.669190 16992 net.cpp:141] Setting up fc2_aroundhead_drop2_aroundhead_0_split
I1021 15:05:08.669200 16992 net.cpp:148] Top shape: 50 512 (25600)
I1021 15:05:08.669206 16992 net.cpp:148] Top shape: 50 512 (25600)
I1021 15:05:08.669211 16992 net.cpp:148] Top shape: 50 512 (25600)
I1021 15:05:08.669216 16992 net.cpp:148] Top shape: 50 512 (25600)
I1021 15:05:08.669221 16992 net.cpp:148] Top shape: 50 512 (25600)
I1021 15:05:08.669226 16992 net.cpp:148] Top shape: 50 512 (25600)
I1021 15:05:08.669231 16992 net.cpp:148] Top shape: 50 512 (25600)
I1021 15:05:08.669236 16992 net.cpp:148] Top shape: 50 512 (25600)
I1021 15:05:08.669241 16992 net.cpp:148] Top shape: 50 512 (25600)
I1021 15:05:08.669246 16992 net.cpp:148] Top shape: 50 512 (25600)
I1021 15:05:08.669251 16992 net.cpp:148] Top shape: 50 512 (25600)
I1021 15:05:08.669256 16992 net.cpp:148] Top shape: 50 512 (25600)
I1021 15:05:08.669261 16992 net.cpp:148] Top shape: 50 512 (25600)
I1021 15:05:08.669266 16992 net.cpp:148] Top shape: 50 512 (25600)
I1021 15:05:08.669271 16992 net.cpp:156] Memory required for data: 1927143200
I1021 15:05:08.669275 16992 layer_factory.hpp:77] Creating layer fc1_facialhair
I1021 15:05:08.669286 16992 net.cpp:91] Creating Layer fc1_facialhair
I1021 15:05:08.669293 16992 net.cpp:425] fc1_facialhair <- pool3_rest_pool3_rest_0_split_1
I1021 15:05:08.669301 16992 net.cpp:399] fc1_facialhair -> fc1_facialhair
I1021 15:05:08.694383 16992 net.cpp:141] Setting up fc1_facialhair
I1021 15:05:08.694411 16992 net.cpp:148] Top shape: 50 512 (25600)
I1021 15:05:08.694416 16992 net.cpp:156] Memory required for data: 1927245600
I1021 15:05:08.694427 16992 layer_factory.hpp:77] Creating layer relu1_facialhair
I1021 15:05:08.694437 16992 net.cpp:91] Creating Layer relu1_facialhair
I1021 15:05:08.694444 16992 net.cpp:425] relu1_facialhair <- fc1_facialhair
I1021 15:05:08.694453 16992 net.cpp:386] relu1_facialhair -> fc1_facialhair (in-place)
I1021 15:05:08.694847 16992 net.cpp:141] Setting up relu1_facialhair
I1021 15:05:08.694864 16992 net.cpp:148] Top shape: 50 512 (25600)
I1021 15:05:08.694869 16992 net.cpp:156] Memory required for data: 1927348000
I1021 15:05:08.694874 16992 layer_factory.hpp:77] Creating layer drop1_facialhair
I1021 15:05:08.694881 16992 net.cpp:91] Creating Layer drop1_facialhair
I1021 15:05:08.694887 16992 net.cpp:425] drop1_facialhair <- fc1_facialhair
I1021 15:05:08.694896 16992 net.cpp:386] drop1_facialhair -> fc1_facialhair (in-place)
I1021 15:05:08.694933 16992 net.cpp:141] Setting up drop1_facialhair
I1021 15:05:08.694941 16992 net.cpp:148] Top shape: 50 512 (25600)
I1021 15:05:08.694948 16992 net.cpp:156] Memory required for data: 1927450400
I1021 15:05:08.694952 16992 layer_factory.hpp:77] Creating layer fc2_facialhair
I1021 15:05:08.694963 16992 net.cpp:91] Creating Layer fc2_facialhair
I1021 15:05:08.694968 16992 net.cpp:425] fc2_facialhair <- fc1_facialhair
I1021 15:05:08.694977 16992 net.cpp:399] fc2_facialhair -> fc2_facialhair
I1021 15:05:08.697887 16992 net.cpp:141] Setting up fc2_facialhair
I1021 15:05:08.697904 16992 net.cpp:148] Top shape: 50 512 (25600)
I1021 15:05:08.697932 16992 net.cpp:156] Memory required for data: 1927552800
I1021 15:05:08.697942 16992 layer_factory.hpp:77] Creating layer relu2_facialhair
I1021 15:05:08.697954 16992 net.cpp:91] Creating Layer relu2_facialhair
I1021 15:05:08.697960 16992 net.cpp:425] relu2_facialhair <- fc2_facialhair
I1021 15:05:08.697968 16992 net.cpp:386] relu2_facialhair -> fc2_facialhair (in-place)
I1021 15:05:08.698165 16992 net.cpp:141] Setting up relu2_facialhair
I1021 15:05:08.698179 16992 net.cpp:148] Top shape: 50 512 (25600)
I1021 15:05:08.698184 16992 net.cpp:156] Memory required for data: 1927655200
I1021 15:05:08.698189 16992 layer_factory.hpp:77] Creating layer drop2_facialhair
I1021 15:05:08.698196 16992 net.cpp:91] Creating Layer drop2_facialhair
I1021 15:05:08.698202 16992 net.cpp:425] drop2_facialhair <- fc2_facialhair
I1021 15:05:08.698217 16992 net.cpp:386] drop2_facialhair -> fc2_facialhair (in-place)
I1021 15:05:08.698251 16992 net.cpp:141] Setting up drop2_facialhair
I1021 15:05:08.698261 16992 net.cpp:148] Top shape: 50 512 (25600)
I1021 15:05:08.698266 16992 net.cpp:156] Memory required for data: 1927757600
I1021 15:05:08.698269 16992 layer_factory.hpp:77] Creating layer fc2_facialhair_drop2_facialhair_0_split
I1021 15:05:08.698285 16992 net.cpp:91] Creating Layer fc2_facialhair_drop2_facialhair_0_split
I1021 15:05:08.698292 16992 net.cpp:425] fc2_facialhair_drop2_facialhair_0_split <- fc2_facialhair
I1021 15:05:08.698299 16992 net.cpp:399] fc2_facialhair_drop2_facialhair_0_split -> fc2_facialhair_drop2_facialhair_0_split_0
I1021 15:05:08.698312 16992 net.cpp:399] fc2_facialhair_drop2_facialhair_0_split -> fc2_facialhair_drop2_facialhair_0_split_1
I1021 15:05:08.698319 16992 net.cpp:399] fc2_facialhair_drop2_facialhair_0_split -> fc2_facialhair_drop2_facialhair_0_split_2
I1021 15:05:08.698328 16992 net.cpp:399] fc2_facialhair_drop2_facialhair_0_split -> fc2_facialhair_drop2_facialhair_0_split_3
I1021 15:05:08.698334 16992 net.cpp:399] fc2_facialhair_drop2_facialhair_0_split -> fc2_facialhair_drop2_facialhair_0_split_4
I1021 15:05:08.698341 16992 net.cpp:399] fc2_facialhair_drop2_facialhair_0_split -> fc2_facialhair_drop2_facialhair_0_split_5
I1021 15:05:08.698443 16992 net.cpp:141] Setting up fc2_facialhair_drop2_facialhair_0_split
I1021 15:05:08.698453 16992 net.cpp:148] Top shape: 50 512 (25600)
I1021 15:05:08.698459 16992 net.cpp:148] Top shape: 50 512 (25600)
I1021 15:05:08.698464 16992 net.cpp:148] Top shape: 50 512 (25600)
I1021 15:05:08.698469 16992 net.cpp:148] Top shape: 50 512 (25600)
I1021 15:05:08.698474 16992 net.cpp:148] Top shape: 50 512 (25600)
I1021 15:05:08.698479 16992 net.cpp:148] Top shape: 50 512 (25600)
I1021 15:05:08.698484 16992 net.cpp:156] Memory required for data: 1928372000
I1021 15:05:08.698488 16992 layer_factory.hpp:77] Creating layer fc1_cheeks
I1021 15:05:08.698500 16992 net.cpp:91] Creating Layer fc1_cheeks
I1021 15:05:08.698508 16992 net.cpp:425] fc1_cheeks <- pool3_rest_pool3_rest_0_split_2
I1021 15:05:08.698516 16992 net.cpp:399] fc1_cheeks -> fc1_cheeks
I1021 15:05:08.722715 16992 net.cpp:141] Setting up fc1_cheeks
I1021 15:05:08.722741 16992 net.cpp:148] Top shape: 50 512 (25600)
I1021 15:05:08.722746 16992 net.cpp:156] Memory required for data: 1928474400
I1021 15:05:08.722755 16992 layer_factory.hpp:77] Creating layer relu1_cheeks
I1021 15:05:08.722765 16992 net.cpp:91] Creating Layer relu1_cheeks
I1021 15:05:08.722771 16992 net.cpp:425] relu1_cheeks <- fc1_cheeks
I1021 15:05:08.722779 16992 net.cpp:386] relu1_cheeks -> fc1_cheeks (in-place)
I1021 15:05:08.723176 16992 net.cpp:141] Setting up relu1_cheeks
I1021 15:05:08.723191 16992 net.cpp:148] Top shape: 50 512 (25600)
I1021 15:05:08.723196 16992 net.cpp:156] Memory required for data: 1928576800
I1021 15:05:08.723202 16992 layer_factory.hpp:77] Creating layer drop1_cheeks
I1021 15:05:08.723212 16992 net.cpp:91] Creating Layer drop1_cheeks
I1021 15:05:08.723217 16992 net.cpp:425] drop1_cheeks <- fc1_cheeks
I1021 15:05:08.723224 16992 net.cpp:386] drop1_cheeks -> fc1_cheeks (in-place)
I1021 15:05:08.723270 16992 net.cpp:141] Setting up drop1_cheeks
I1021 15:05:08.723299 16992 net.cpp:148] Top shape: 50 512 (25600)
I1021 15:05:08.723304 16992 net.cpp:156] Memory required for data: 1928679200
I1021 15:05:08.723309 16992 layer_factory.hpp:77] Creating layer fc2_cheeks
I1021 15:05:08.723320 16992 net.cpp:91] Creating Layer fc2_cheeks
I1021 15:05:08.723325 16992 net.cpp:425] fc2_cheeks <- fc1_cheeks
I1021 15:05:08.723332 16992 net.cpp:399] fc2_cheeks -> fc2_cheeks
I1021 15:05:08.726219 16992 net.cpp:141] Setting up fc2_cheeks
I1021 15:05:08.726236 16992 net.cpp:148] Top shape: 50 512 (25600)
I1021 15:05:08.726241 16992 net.cpp:156] Memory required for data: 1928781600
I1021 15:05:08.726249 16992 layer_factory.hpp:77] Creating layer relu2_cheeks
I1021 15:05:08.726261 16992 net.cpp:91] Creating Layer relu2_cheeks
I1021 15:05:08.726267 16992 net.cpp:425] relu2_cheeks <- fc2_cheeks
I1021 15:05:08.726280 16992 net.cpp:386] relu2_cheeks -> fc2_cheeks (in-place)
I1021 15:05:08.726478 16992 net.cpp:141] Setting up relu2_cheeks
I1021 15:05:08.726491 16992 net.cpp:148] Top shape: 50 512 (25600)
I1021 15:05:08.726496 16992 net.cpp:156] Memory required for data: 1928884000
I1021 15:05:08.726501 16992 layer_factory.hpp:77] Creating layer drop2_cheeks
I1021 15:05:08.726511 16992 net.cpp:91] Creating Layer drop2_cheeks
I1021 15:05:08.726516 16992 net.cpp:425] drop2_cheeks <- fc2_cheeks
I1021 15:05:08.726526 16992 net.cpp:386] drop2_cheeks -> fc2_cheeks (in-place)
I1021 15:05:08.726559 16992 net.cpp:141] Setting up drop2_cheeks
I1021 15:05:08.726569 16992 net.cpp:148] Top shape: 50 512 (25600)
I1021 15:05:08.726574 16992 net.cpp:156] Memory required for data: 1928986400
I1021 15:05:08.726579 16992 layer_factory.hpp:77] Creating layer fc2_cheeks_drop2_cheeks_0_split
I1021 15:05:08.726586 16992 net.cpp:91] Creating Layer fc2_cheeks_drop2_cheeks_0_split
I1021 15:05:08.726591 16992 net.cpp:425] fc2_cheeks_drop2_cheeks_0_split <- fc2_cheeks
I1021 15:05:08.726598 16992 net.cpp:399] fc2_cheeks_drop2_cheeks_0_split -> fc2_cheeks_drop2_cheeks_0_split_0
I1021 15:05:08.726606 16992 net.cpp:399] fc2_cheeks_drop2_cheeks_0_split -> fc2_cheeks_drop2_cheeks_0_split_1
I1021 15:05:08.726614 16992 net.cpp:399] fc2_cheeks_drop2_cheeks_0_split -> fc2_cheeks_drop2_cheeks_0_split_2
I1021 15:05:08.726673 16992 net.cpp:141] Setting up fc2_cheeks_drop2_cheeks_0_split
I1021 15:05:08.726683 16992 net.cpp:148] Top shape: 50 512 (25600)
I1021 15:05:08.726689 16992 net.cpp:148] Top shape: 50 512 (25600)
I1021 15:05:08.726694 16992 net.cpp:148] Top shape: 50 512 (25600)
I1021 15:05:08.726698 16992 net.cpp:156] Memory required for data: 1929293600
I1021 15:05:08.726702 16992 layer_factory.hpp:77] Creating layer fc1_fat
I1021 15:05:08.726713 16992 net.cpp:91] Creating Layer fc1_fat
I1021 15:05:08.726719 16992 net.cpp:425] fc1_fat <- pool3_rest_pool3_rest_0_split_3
I1021 15:05:08.726727 16992 net.cpp:399] fc1_fat -> fc1_fat
I1021 15:05:08.750641 16992 net.cpp:141] Setting up fc1_fat
I1021 15:05:08.750668 16992 net.cpp:148] Top shape: 50 512 (25600)
I1021 15:05:08.750674 16992 net.cpp:156] Memory required for data: 1929396000
I1021 15:05:08.750682 16992 layer_factory.hpp:77] Creating layer relu1_fat
I1021 15:05:08.750695 16992 net.cpp:91] Creating Layer relu1_fat
I1021 15:05:08.750702 16992 net.cpp:425] relu1_fat <- fc1_fat
I1021 15:05:08.750710 16992 net.cpp:386] relu1_fat -> fc1_fat (in-place)
I1021 15:05:08.751096 16992 net.cpp:141] Setting up relu1_fat
I1021 15:05:08.751112 16992 net.cpp:148] Top shape: 50 512 (25600)
I1021 15:05:08.751117 16992 net.cpp:156] Memory required for data: 1929498400
I1021 15:05:08.751123 16992 layer_factory.hpp:77] Creating layer drop1_fat
I1021 15:05:08.751134 16992 net.cpp:91] Creating Layer drop1_fat
I1021 15:05:08.751140 16992 net.cpp:425] drop1_fat <- fc1_fat
I1021 15:05:08.751147 16992 net.cpp:386] drop1_fat -> fc1_fat (in-place)
I1021 15:05:08.751188 16992 net.cpp:141] Setting up drop1_fat
I1021 15:05:08.751195 16992 net.cpp:148] Top shape: 50 512 (25600)
I1021 15:05:08.751200 16992 net.cpp:156] Memory required for data: 1929600800
I1021 15:05:08.751204 16992 layer_factory.hpp:77] Creating layer fc2_fat
I1021 15:05:08.751235 16992 net.cpp:91] Creating Layer fc2_fat
I1021 15:05:08.751241 16992 net.cpp:425] fc2_fat <- fc1_fat
I1021 15:05:08.751250 16992 net.cpp:399] fc2_fat -> fc2_fat
I1021 15:05:08.754135 16992 net.cpp:141] Setting up fc2_fat
I1021 15:05:08.754153 16992 net.cpp:148] Top shape: 50 512 (25600)
I1021 15:05:08.754156 16992 net.cpp:156] Memory required for data: 1929703200
I1021 15:05:08.754165 16992 layer_factory.hpp:77] Creating layer relu2_fat
I1021 15:05:08.754175 16992 net.cpp:91] Creating Layer relu2_fat
I1021 15:05:08.754181 16992 net.cpp:425] relu2_fat <- fc2_fat
I1021 15:05:08.754187 16992 net.cpp:386] relu2_fat -> fc2_fat (in-place)
I1021 15:05:08.754781 16992 net.cpp:141] Setting up relu2_fat
I1021 15:05:08.754798 16992 net.cpp:148] Top shape: 50 512 (25600)
I1021 15:05:08.754804 16992 net.cpp:156] Memory required for data: 1929805600
I1021 15:05:08.754809 16992 layer_factory.hpp:77] Creating layer drop2_fat
I1021 15:05:08.754817 16992 net.cpp:91] Creating Layer drop2_fat
I1021 15:05:08.754823 16992 net.cpp:425] drop2_fat <- fc2_fat
I1021 15:05:08.754834 16992 net.cpp:386] drop2_fat -> fc2_fat (in-place)
I1021 15:05:08.754873 16992 net.cpp:141] Setting up drop2_fat
I1021 15:05:08.754881 16992 net.cpp:148] Top shape: 50 512 (25600)
I1021 15:05:08.754886 16992 net.cpp:156] Memory required for data: 1929908000
I1021 15:05:08.754892 16992 layer_factory.hpp:77] Creating layer fc2_fat_drop2_fat_0_split
I1021 15:05:08.754900 16992 net.cpp:91] Creating Layer fc2_fat_drop2_fat_0_split
I1021 15:05:08.754905 16992 net.cpp:425] fc2_fat_drop2_fat_0_split <- fc2_fat
I1021 15:05:08.754912 16992 net.cpp:399] fc2_fat_drop2_fat_0_split -> fc2_fat_drop2_fat_0_split_0
I1021 15:05:08.754923 16992 net.cpp:399] fc2_fat_drop2_fat_0_split -> fc2_fat_drop2_fat_0_split_1
I1021 15:05:08.754931 16992 net.cpp:399] fc2_fat_drop2_fat_0_split -> fc2_fat_drop2_fat_0_split_2
I1021 15:05:08.754992 16992 net.cpp:141] Setting up fc2_fat_drop2_fat_0_split
I1021 15:05:08.755004 16992 net.cpp:148] Top shape: 50 512 (25600)
I1021 15:05:08.755010 16992 net.cpp:148] Top shape: 50 512 (25600)
I1021 15:05:08.755015 16992 net.cpp:148] Top shape: 50 512 (25600)
I1021 15:05:08.755019 16992 net.cpp:156] Memory required for data: 1930215200
I1021 15:05:08.755024 16992 layer_factory.hpp:77] Creating layer fc3_Male
I1021 15:05:08.755033 16992 net.cpp:91] Creating Layer fc3_Male
I1021 15:05:08.755039 16992 net.cpp:425] fc3_Male <- fc2_gender_drop2_gender_0_split_0
I1021 15:05:08.755048 16992 net.cpp:399] fc3_Male -> fc3_Male
I1021 15:05:08.755178 16992 net.cpp:141] Setting up fc3_Male
I1021 15:05:08.755188 16992 net.cpp:148] Top shape: 50 2 (100)
I1021 15:05:08.755193 16992 net.cpp:156] Memory required for data: 1930215600
I1021 15:05:08.755201 16992 layer_factory.hpp:77] Creating layer loss_Male
I1021 15:05:08.755234 16992 net.cpp:91] Creating Layer loss_Male
I1021 15:05:08.755240 16992 net.cpp:425] loss_Male <- fc3_Male
I1021 15:05:08.755247 16992 net.cpp:425] loss_Male <- label_Male
I1021 15:05:08.755254 16992 net.cpp:399] loss_Male -> loss_Male
I1021 15:05:08.755311 16992 net.cpp:141] Setting up loss_Male
I1021 15:05:08.755319 16992 net.cpp:148] Top shape: (1)
I1021 15:05:08.755324 16992 net.cpp:151]     with loss weight 1
I1021 15:05:08.755363 16992 net.cpp:156] Memory required for data: 1930215604
I1021 15:05:08.755369 16992 layer_factory.hpp:77] Creating layer fc3_Big_Nose
I1021 15:05:08.755378 16992 net.cpp:91] Creating Layer fc3_Big_Nose
I1021 15:05:08.755383 16992 net.cpp:425] fc3_Big_Nose <- fc2_nose_drop2_nose_0_split_0
I1021 15:05:08.755390 16992 net.cpp:399] fc3_Big_Nose -> fc3_Big_Nose
I1021 15:05:08.755522 16992 net.cpp:141] Setting up fc3_Big_Nose
I1021 15:05:08.755532 16992 net.cpp:148] Top shape: 50 2 (100)
I1021 15:05:08.755537 16992 net.cpp:156] Memory required for data: 1930216004
I1021 15:05:08.755547 16992 layer_factory.hpp:77] Creating layer loss_Big_Nose
I1021 15:05:08.755558 16992 net.cpp:91] Creating Layer loss_Big_Nose
I1021 15:05:08.755563 16992 net.cpp:425] loss_Big_Nose <- fc3_Big_Nose
I1021 15:05:08.755584 16992 net.cpp:425] loss_Big_Nose <- label_Big_Nose
I1021 15:05:08.755590 16992 net.cpp:399] loss_Big_Nose -> loss_Big_Nose
I1021 15:05:08.755640 16992 net.cpp:141] Setting up loss_Big_Nose
I1021 15:05:08.755650 16992 net.cpp:148] Top shape: (1)
I1021 15:05:08.755655 16992 net.cpp:151]     with loss weight 1
I1021 15:05:08.755661 16992 net.cpp:156] Memory required for data: 1930216008
I1021 15:05:08.755666 16992 layer_factory.hpp:77] Creating layer fc3_Pointy_Nose
I1021 15:05:08.755673 16992 net.cpp:91] Creating Layer fc3_Pointy_Nose
I1021 15:05:08.755679 16992 net.cpp:425] fc3_Pointy_Nose <- fc2_nose_drop2_nose_0_split_1
I1021 15:05:08.755688 16992 net.cpp:399] fc3_Pointy_Nose -> fc3_Pointy_Nose
I1021 15:05:08.755813 16992 net.cpp:141] Setting up fc3_Pointy_Nose
I1021 15:05:08.755823 16992 net.cpp:148] Top shape: 50 2 (100)
I1021 15:05:08.755828 16992 net.cpp:156] Memory required for data: 1930216408
I1021 15:05:08.755858 16992 layer_factory.hpp:77] Creating layer loss_Pointy_Nose
I1021 15:05:08.755867 16992 net.cpp:91] Creating Layer loss_Pointy_Nose
I1021 15:05:08.755872 16992 net.cpp:425] loss_Pointy_Nose <- fc3_Pointy_Nose
I1021 15:05:08.755879 16992 net.cpp:425] loss_Pointy_Nose <- label_Pointy_Nose
I1021 15:05:08.755888 16992 net.cpp:399] loss_Pointy_Nose -> loss_Pointy_Nose
I1021 15:05:08.755934 16992 net.cpp:141] Setting up loss_Pointy_Nose
I1021 15:05:08.755942 16992 net.cpp:148] Top shape: (1)
I1021 15:05:08.755947 16992 net.cpp:151]     with loss weight 1
I1021 15:05:08.755954 16992 net.cpp:156] Memory required for data: 1930216412
I1021 15:05:08.755959 16992 layer_factory.hpp:77] Creating layer fc3_Big_Lips
I1021 15:05:08.755970 16992 net.cpp:91] Creating Layer fc3_Big_Lips
I1021 15:05:08.755976 16992 net.cpp:425] fc3_Big_Lips <- fc2_mouth_drop2_mouth_0_split_0
I1021 15:05:08.755983 16992 net.cpp:399] fc3_Big_Lips -> fc3_Big_Lips
I1021 15:05:08.756106 16992 net.cpp:141] Setting up fc3_Big_Lips
I1021 15:05:08.756116 16992 net.cpp:148] Top shape: 50 2 (100)
I1021 15:05:08.756120 16992 net.cpp:156] Memory required for data: 1930216812
I1021 15:05:08.756129 16992 layer_factory.hpp:77] Creating layer loss_Big_Lips
I1021 15:05:08.756136 16992 net.cpp:91] Creating Layer loss_Big_Lips
I1021 15:05:08.756142 16992 net.cpp:425] loss_Big_Lips <- fc3_Big_Lips
I1021 15:05:08.756148 16992 net.cpp:425] loss_Big_Lips <- label_Big_Lips
I1021 15:05:08.756155 16992 net.cpp:399] loss_Big_Lips -> loss_Big_Lips
I1021 15:05:08.756202 16992 net.cpp:141] Setting up loss_Big_Lips
I1021 15:05:08.756211 16992 net.cpp:148] Top shape: (1)
I1021 15:05:08.756214 16992 net.cpp:151]     with loss weight 1
I1021 15:05:08.756222 16992 net.cpp:156] Memory required for data: 1930216816
I1021 15:05:08.756225 16992 layer_factory.hpp:77] Creating layer fc3_Smiling
I1021 15:05:08.756235 16992 net.cpp:91] Creating Layer fc3_Smiling
I1021 15:05:08.756240 16992 net.cpp:425] fc3_Smiling <- fc2_mouth_drop2_mouth_0_split_1
I1021 15:05:08.756247 16992 net.cpp:399] fc3_Smiling -> fc3_Smiling
I1021 15:05:08.756364 16992 net.cpp:141] Setting up fc3_Smiling
I1021 15:05:08.756373 16992 net.cpp:148] Top shape: 50 2 (100)
I1021 15:05:08.756378 16992 net.cpp:156] Memory required for data: 1930217216
I1021 15:05:08.756386 16992 layer_factory.hpp:77] Creating layer loss_Smiling
I1021 15:05:08.756397 16992 net.cpp:91] Creating Layer loss_Smiling
I1021 15:05:08.756402 16992 net.cpp:425] loss_Smiling <- fc3_Smiling
I1021 15:05:08.756408 16992 net.cpp:425] loss_Smiling <- label_Smiling
I1021 15:05:08.756415 16992 net.cpp:399] loss_Smiling -> loss_Smiling
I1021 15:05:08.756461 16992 net.cpp:141] Setting up loss_Smiling
I1021 15:05:08.756470 16992 net.cpp:148] Top shape: (1)
I1021 15:05:08.756474 16992 net.cpp:151]     with loss weight 1
I1021 15:05:08.756481 16992 net.cpp:156] Memory required for data: 1930217220
I1021 15:05:08.756485 16992 layer_factory.hpp:77] Creating layer fc3_Wearing_Lipstick
I1021 15:05:08.756495 16992 net.cpp:91] Creating Layer fc3_Wearing_Lipstick
I1021 15:05:08.756500 16992 net.cpp:425] fc3_Wearing_Lipstick <- fc2_mouth_drop2_mouth_0_split_2
I1021 15:05:08.756518 16992 net.cpp:399] fc3_Wearing_Lipstick -> fc3_Wearing_Lipstick
I1021 15:05:08.756639 16992 net.cpp:141] Setting up fc3_Wearing_Lipstick
I1021 15:05:08.756647 16992 net.cpp:148] Top shape: 50 2 (100)
I1021 15:05:08.756652 16992 net.cpp:156] Memory required for data: 1930217620
I1021 15:05:08.756660 16992 layer_factory.hpp:77] Creating layer loss_Wearing_Lipstick
I1021 15:05:08.756670 16992 net.cpp:91] Creating Layer loss_Wearing_Lipstick
I1021 15:05:08.756676 16992 net.cpp:425] loss_Wearing_Lipstick <- fc3_Wearing_Lipstick
I1021 15:05:08.756682 16992 net.cpp:425] loss_Wearing_Lipstick <- label_Wearing_Lipstick
I1021 15:05:08.756690 16992 net.cpp:399] loss_Wearing_Lipstick -> loss_Wearing_Lipstick
I1021 15:05:08.756736 16992 net.cpp:141] Setting up loss_Wearing_Lipstick
I1021 15:05:08.756744 16992 net.cpp:148] Top shape: (1)
I1021 15:05:08.756749 16992 net.cpp:151]     with loss weight 1
I1021 15:05:08.756757 16992 net.cpp:156] Memory required for data: 1930217624
I1021 15:05:08.756760 16992 layer_factory.hpp:77] Creating layer fc3_Mouth_Slightly_Open
I1021 15:05:08.756772 16992 net.cpp:91] Creating Layer fc3_Mouth_Slightly_Open
I1021 15:05:08.756777 16992 net.cpp:425] fc3_Mouth_Slightly_Open <- fc2_mouth_drop2_mouth_0_split_3
I1021 15:05:08.756783 16992 net.cpp:399] fc3_Mouth_Slightly_Open -> fc3_Mouth_Slightly_Open
I1021 15:05:08.756901 16992 net.cpp:141] Setting up fc3_Mouth_Slightly_Open
I1021 15:05:08.756909 16992 net.cpp:148] Top shape: 50 2 (100)
I1021 15:05:08.756914 16992 net.cpp:156] Memory required for data: 1930218024
I1021 15:05:08.756922 16992 layer_factory.hpp:77] Creating layer loss_Mouth_Slightly_Open
I1021 15:05:08.756930 16992 net.cpp:91] Creating Layer loss_Mouth_Slightly_Open
I1021 15:05:08.756937 16992 net.cpp:425] loss_Mouth_Slightly_Open <- fc3_Mouth_Slightly_Open
I1021 15:05:08.756942 16992 net.cpp:425] loss_Mouth_Slightly_Open <- label_Mouth_Slightly_Open
I1021 15:05:08.756948 16992 net.cpp:399] loss_Mouth_Slightly_Open -> loss_Mouth_Slightly_Open
I1021 15:05:08.756995 16992 net.cpp:141] Setting up loss_Mouth_Slightly_Open
I1021 15:05:08.757002 16992 net.cpp:148] Top shape: (1)
I1021 15:05:08.757007 16992 net.cpp:151]     with loss weight 1
I1021 15:05:08.757014 16992 net.cpp:156] Memory required for data: 1930218028
I1021 15:05:08.757017 16992 layer_factory.hpp:77] Creating layer fc3_Arched_Eyebrows
I1021 15:05:08.757027 16992 net.cpp:91] Creating Layer fc3_Arched_Eyebrows
I1021 15:05:08.757033 16992 net.cpp:425] fc3_Arched_Eyebrows <- fc2_eyes_drop2_eyes_0_split_0
I1021 15:05:08.757040 16992 net.cpp:399] fc3_Arched_Eyebrows -> fc3_Arched_Eyebrows
I1021 15:05:08.757156 16992 net.cpp:141] Setting up fc3_Arched_Eyebrows
I1021 15:05:08.757166 16992 net.cpp:148] Top shape: 50 2 (100)
I1021 15:05:08.757170 16992 net.cpp:156] Memory required for data: 1930218428
I1021 15:05:08.757179 16992 layer_factory.hpp:77] Creating layer loss_Arched_Eyebrows
I1021 15:05:08.757189 16992 net.cpp:91] Creating Layer loss_Arched_Eyebrows
I1021 15:05:08.757194 16992 net.cpp:425] loss_Arched_Eyebrows <- fc3_Arched_Eyebrows
I1021 15:05:08.757200 16992 net.cpp:425] loss_Arched_Eyebrows <- label_Arched_Eyebrows
I1021 15:05:08.757206 16992 net.cpp:399] loss_Arched_Eyebrows -> loss_Arched_Eyebrows
I1021 15:05:08.757256 16992 net.cpp:141] Setting up loss_Arched_Eyebrows
I1021 15:05:08.757266 16992 net.cpp:148] Top shape: (1)
I1021 15:05:08.757269 16992 net.cpp:151]     with loss weight 1
I1021 15:05:08.757277 16992 net.cpp:156] Memory required for data: 1930218432
I1021 15:05:08.757280 16992 layer_factory.hpp:77] Creating layer fc3_Bags_Under_Eyes
I1021 15:05:08.757288 16992 net.cpp:91] Creating Layer fc3_Bags_Under_Eyes
I1021 15:05:08.757293 16992 net.cpp:425] fc3_Bags_Under_Eyes <- fc2_eyes_drop2_eyes_0_split_1
I1021 15:05:08.757306 16992 net.cpp:399] fc3_Bags_Under_Eyes -> fc3_Bags_Under_Eyes
I1021 15:05:08.757426 16992 net.cpp:141] Setting up fc3_Bags_Under_Eyes
I1021 15:05:08.757436 16992 net.cpp:148] Top shape: 50 2 (100)
I1021 15:05:08.757439 16992 net.cpp:156] Memory required for data: 1930218832
I1021 15:05:08.757457 16992 layer_factory.hpp:77] Creating layer loss_Bags_Under_Eyes
I1021 15:05:08.757468 16992 net.cpp:91] Creating Layer loss_Bags_Under_Eyes
I1021 15:05:08.757473 16992 net.cpp:425] loss_Bags_Under_Eyes <- fc3_Bags_Under_Eyes
I1021 15:05:08.757479 16992 net.cpp:425] loss_Bags_Under_Eyes <- label_Bags_Under_Eyes
I1021 15:05:08.757486 16992 net.cpp:399] loss_Bags_Under_Eyes -> loss_Bags_Under_Eyes
I1021 15:05:08.757536 16992 net.cpp:141] Setting up loss_Bags_Under_Eyes
I1021 15:05:08.757546 16992 net.cpp:148] Top shape: (1)
I1021 15:05:08.757551 16992 net.cpp:151]     with loss weight 1
I1021 15:05:08.757557 16992 net.cpp:156] Memory required for data: 1930218836
I1021 15:05:08.757562 16992 layer_factory.hpp:77] Creating layer fc3_Bushy_Eyebrows
I1021 15:05:08.757570 16992 net.cpp:91] Creating Layer fc3_Bushy_Eyebrows
I1021 15:05:08.757575 16992 net.cpp:425] fc3_Bushy_Eyebrows <- fc2_eyes_drop2_eyes_0_split_2
I1021 15:05:08.757585 16992 net.cpp:399] fc3_Bushy_Eyebrows -> fc3_Bushy_Eyebrows
I1021 15:05:08.757702 16992 net.cpp:141] Setting up fc3_Bushy_Eyebrows
I1021 15:05:08.757712 16992 net.cpp:148] Top shape: 50 2 (100)
I1021 15:05:08.757716 16992 net.cpp:156] Memory required for data: 1930219236
I1021 15:05:08.757736 16992 layer_factory.hpp:77] Creating layer loss_Bushy_Eyebrows
I1021 15:05:08.757745 16992 net.cpp:91] Creating Layer loss_Bushy_Eyebrows
I1021 15:05:08.757751 16992 net.cpp:425] loss_Bushy_Eyebrows <- fc3_Bushy_Eyebrows
I1021 15:05:08.757757 16992 net.cpp:425] loss_Bushy_Eyebrows <- label_Bushy_Eyebrows
I1021 15:05:08.757764 16992 net.cpp:399] loss_Bushy_Eyebrows -> loss_Bushy_Eyebrows
I1021 15:05:08.757812 16992 net.cpp:141] Setting up loss_Bushy_Eyebrows
I1021 15:05:08.757820 16992 net.cpp:148] Top shape: (1)
I1021 15:05:08.757824 16992 net.cpp:151]     with loss weight 1
I1021 15:05:08.757832 16992 net.cpp:156] Memory required for data: 1930219240
I1021 15:05:08.757835 16992 layer_factory.hpp:77] Creating layer fc3_Narrow_Eyes
I1021 15:05:08.757843 16992 net.cpp:91] Creating Layer fc3_Narrow_Eyes
I1021 15:05:08.757848 16992 net.cpp:425] fc3_Narrow_Eyes <- fc2_eyes_drop2_eyes_0_split_3
I1021 15:05:08.757858 16992 net.cpp:399] fc3_Narrow_Eyes -> fc3_Narrow_Eyes
I1021 15:05:08.757979 16992 net.cpp:141] Setting up fc3_Narrow_Eyes
I1021 15:05:08.757988 16992 net.cpp:148] Top shape: 50 2 (100)
I1021 15:05:08.757993 16992 net.cpp:156] Memory required for data: 1930219640
I1021 15:05:08.758000 16992 layer_factory.hpp:77] Creating layer loss_Narrow_Eyes
I1021 15:05:08.758010 16992 net.cpp:91] Creating Layer loss_Narrow_Eyes
I1021 15:05:08.758015 16992 net.cpp:425] loss_Narrow_Eyes <- fc3_Narrow_Eyes
I1021 15:05:08.758021 16992 net.cpp:425] loss_Narrow_Eyes <- label_Narrow_Eyes
I1021 15:05:08.758028 16992 net.cpp:399] loss_Narrow_Eyes -> loss_Narrow_Eyes
I1021 15:05:08.758074 16992 net.cpp:141] Setting up loss_Narrow_Eyes
I1021 15:05:08.758082 16992 net.cpp:148] Top shape: (1)
I1021 15:05:08.758086 16992 net.cpp:151]     with loss weight 1
I1021 15:05:08.758092 16992 net.cpp:156] Memory required for data: 1930219644
I1021 15:05:08.758097 16992 layer_factory.hpp:77] Creating layer fc3_Eyeglasses
I1021 15:05:08.758105 16992 net.cpp:91] Creating Layer fc3_Eyeglasses
I1021 15:05:08.758110 16992 net.cpp:425] fc3_Eyeglasses <- fc2_eyes_drop2_eyes_0_split_4
I1021 15:05:08.758121 16992 net.cpp:399] fc3_Eyeglasses -> fc3_Eyeglasses
I1021 15:05:08.758240 16992 net.cpp:141] Setting up fc3_Eyeglasses
I1021 15:05:08.758250 16992 net.cpp:148] Top shape: 50 2 (100)
I1021 15:05:08.758255 16992 net.cpp:156] Memory required for data: 1930220044
I1021 15:05:08.758268 16992 layer_factory.hpp:77] Creating layer loss_Eyeglasses
I1021 15:05:08.758285 16992 net.cpp:91] Creating Layer loss_Eyeglasses
I1021 15:05:08.758291 16992 net.cpp:425] loss_Eyeglasses <- fc3_Eyeglasses
I1021 15:05:08.758297 16992 net.cpp:425] loss_Eyeglasses <- label_Eyeglasses
I1021 15:05:08.758304 16992 net.cpp:399] loss_Eyeglasses -> loss_Eyeglasses
I1021 15:05:08.758352 16992 net.cpp:141] Setting up loss_Eyeglasses
I1021 15:05:08.758371 16992 net.cpp:148] Top shape: (1)
I1021 15:05:08.758378 16992 net.cpp:151]     with loss weight 1
I1021 15:05:08.758383 16992 net.cpp:156] Memory required for data: 1930220048
I1021 15:05:08.758388 16992 layer_factory.hpp:77] Creating layer fc3_Attractive
I1021 15:05:08.758397 16992 net.cpp:91] Creating Layer fc3_Attractive
I1021 15:05:08.758404 16992 net.cpp:425] fc3_Attractive <- fc2_face_drop2_face_0_split_0
I1021 15:05:08.758412 16992 net.cpp:399] fc3_Attractive -> fc3_Attractive
I1021 15:05:08.758532 16992 net.cpp:141] Setting up fc3_Attractive
I1021 15:05:08.758541 16992 net.cpp:148] Top shape: 50 2 (100)
I1021 15:05:08.758546 16992 net.cpp:156] Memory required for data: 1930220448
I1021 15:05:08.758553 16992 layer_factory.hpp:77] Creating layer loss_Attractive
I1021 15:05:08.758564 16992 net.cpp:91] Creating Layer loss_Attractive
I1021 15:05:08.758569 16992 net.cpp:425] loss_Attractive <- fc3_Attractive
I1021 15:05:08.758575 16992 net.cpp:425] loss_Attractive <- label_Attractive
I1021 15:05:08.758581 16992 net.cpp:399] loss_Attractive -> loss_Attractive
I1021 15:05:08.758626 16992 net.cpp:141] Setting up loss_Attractive
I1021 15:05:08.758635 16992 net.cpp:148] Top shape: (1)
I1021 15:05:08.758638 16992 net.cpp:151]     with loss weight 1
I1021 15:05:08.758644 16992 net.cpp:156] Memory required for data: 1930220452
I1021 15:05:08.758649 16992 layer_factory.hpp:77] Creating layer fc3_Blurry
I1021 15:05:08.758656 16992 net.cpp:91] Creating Layer fc3_Blurry
I1021 15:05:08.758661 16992 net.cpp:425] fc3_Blurry <- fc2_face_drop2_face_0_split_1
I1021 15:05:08.758671 16992 net.cpp:399] fc3_Blurry -> fc3_Blurry
I1021 15:05:08.758792 16992 net.cpp:141] Setting up fc3_Blurry
I1021 15:05:08.758802 16992 net.cpp:148] Top shape: 50 2 (100)
I1021 15:05:08.758807 16992 net.cpp:156] Memory required for data: 1930220852
I1021 15:05:08.758821 16992 layer_factory.hpp:77] Creating layer loss_Blurry
I1021 15:05:08.758832 16992 net.cpp:91] Creating Layer loss_Blurry
I1021 15:05:08.758838 16992 net.cpp:425] loss_Blurry <- fc3_Blurry
I1021 15:05:08.758844 16992 net.cpp:425] loss_Blurry <- label_Blurry
I1021 15:05:08.758851 16992 net.cpp:399] loss_Blurry -> loss_Blurry
I1021 15:05:08.758898 16992 net.cpp:141] Setting up loss_Blurry
I1021 15:05:08.758906 16992 net.cpp:148] Top shape: (1)
I1021 15:05:08.758911 16992 net.cpp:151]     with loss weight 1
I1021 15:05:08.758918 16992 net.cpp:156] Memory required for data: 1930220856
I1021 15:05:08.758921 16992 layer_factory.hpp:77] Creating layer fc3_Oval_Face
I1021 15:05:08.758929 16992 net.cpp:91] Creating Layer fc3_Oval_Face
I1021 15:05:08.758934 16992 net.cpp:425] fc3_Oval_Face <- fc2_face_drop2_face_0_split_2
I1021 15:05:08.758944 16992 net.cpp:399] fc3_Oval_Face -> fc3_Oval_Face
I1021 15:05:08.759063 16992 net.cpp:141] Setting up fc3_Oval_Face
I1021 15:05:08.759073 16992 net.cpp:148] Top shape: 50 2 (100)
I1021 15:05:08.759078 16992 net.cpp:156] Memory required for data: 1930221256
I1021 15:05:08.759084 16992 layer_factory.hpp:77] Creating layer loss_Oval_Face
I1021 15:05:08.759095 16992 net.cpp:91] Creating Layer loss_Oval_Face
I1021 15:05:08.759101 16992 net.cpp:425] loss_Oval_Face <- fc3_Oval_Face
I1021 15:05:08.759107 16992 net.cpp:425] loss_Oval_Face <- label_Oval_Face
I1021 15:05:08.759114 16992 net.cpp:399] loss_Oval_Face -> loss_Oval_Face
I1021 15:05:08.759158 16992 net.cpp:141] Setting up loss_Oval_Face
I1021 15:05:08.759167 16992 net.cpp:148] Top shape: (1)
I1021 15:05:08.759172 16992 net.cpp:151]     with loss weight 1
I1021 15:05:08.759178 16992 net.cpp:156] Memory required for data: 1930221260
I1021 15:05:08.759183 16992 layer_factory.hpp:77] Creating layer fc3_Pale_Skin
I1021 15:05:08.759191 16992 net.cpp:91] Creating Layer fc3_Pale_Skin
I1021 15:05:08.759196 16992 net.cpp:425] fc3_Pale_Skin <- fc2_face_drop2_face_0_split_3
I1021 15:05:08.759205 16992 net.cpp:399] fc3_Pale_Skin -> fc3_Pale_Skin
I1021 15:05:08.759322 16992 net.cpp:141] Setting up fc3_Pale_Skin
I1021 15:05:08.759331 16992 net.cpp:148] Top shape: 50 2 (100)
I1021 15:05:08.759336 16992 net.cpp:156] Memory required for data: 1930221660
I1021 15:05:08.759361 16992 layer_factory.hpp:77] Creating layer loss_Pale_Skin
I1021 15:05:08.759373 16992 net.cpp:91] Creating Layer loss_Pale_Skin
I1021 15:05:08.759379 16992 net.cpp:425] loss_Pale_Skin <- fc3_Pale_Skin
I1021 15:05:08.759385 16992 net.cpp:425] loss_Pale_Skin <- label_Pale_Skin
I1021 15:05:08.759392 16992 net.cpp:399] loss_Pale_Skin -> loss_Pale_Skin
I1021 15:05:08.759439 16992 net.cpp:141] Setting up loss_Pale_Skin
I1021 15:05:08.759449 16992 net.cpp:148] Top shape: (1)
I1021 15:05:08.759454 16992 net.cpp:151]     with loss weight 1
I1021 15:05:08.759459 16992 net.cpp:156] Memory required for data: 1930221664
I1021 15:05:08.759464 16992 layer_factory.hpp:77] Creating layer fc3_Young
I1021 15:05:08.759471 16992 net.cpp:91] Creating Layer fc3_Young
I1021 15:05:08.759476 16992 net.cpp:425] fc3_Young <- fc2_face_drop2_face_0_split_4
I1021 15:05:08.759485 16992 net.cpp:399] fc3_Young -> fc3_Young
I1021 15:05:08.759604 16992 net.cpp:141] Setting up fc3_Young
I1021 15:05:08.759613 16992 net.cpp:148] Top shape: 50 2 (100)
I1021 15:05:08.759618 16992 net.cpp:156] Memory required for data: 1930222064
I1021 15:05:08.759625 16992 layer_factory.hpp:77] Creating layer loss_Young
I1021 15:05:08.759635 16992 net.cpp:91] Creating Layer loss_Young
I1021 15:05:08.759642 16992 net.cpp:425] loss_Young <- fc3_Young
I1021 15:05:08.759649 16992 net.cpp:425] loss_Young <- label_Young
I1021 15:05:08.759655 16992 net.cpp:399] loss_Young -> loss_Young
I1021 15:05:08.759699 16992 net.cpp:141] Setting up loss_Young
I1021 15:05:08.759708 16992 net.cpp:148] Top shape: (1)
I1021 15:05:08.759713 16992 net.cpp:151]     with loss weight 1
I1021 15:05:08.759719 16992 net.cpp:156] Memory required for data: 1930222068
I1021 15:05:08.759723 16992 layer_factory.hpp:77] Creating layer fc3_Heavy_Makeup
I1021 15:05:08.759732 16992 net.cpp:91] Creating Layer fc3_Heavy_Makeup
I1021 15:05:08.759737 16992 net.cpp:425] fc3_Heavy_Makeup <- fc2_face_drop2_face_0_split_5
I1021 15:05:08.759745 16992 net.cpp:399] fc3_Heavy_Makeup -> fc3_Heavy_Makeup
I1021 15:05:08.759861 16992 net.cpp:141] Setting up fc3_Heavy_Makeup
I1021 15:05:08.759871 16992 net.cpp:148] Top shape: 50 2 (100)
I1021 15:05:08.759876 16992 net.cpp:156] Memory required for data: 1930222468
I1021 15:05:08.759889 16992 layer_factory.hpp:77] Creating layer loss_Heavy_Makeup
I1021 15:05:08.759901 16992 net.cpp:91] Creating Layer loss_Heavy_Makeup
I1021 15:05:08.759905 16992 net.cpp:425] loss_Heavy_Makeup <- fc3_Heavy_Makeup
I1021 15:05:08.759912 16992 net.cpp:425] loss_Heavy_Makeup <- label_Heavy_Makeup
I1021 15:05:08.759920 16992 net.cpp:399] loss_Heavy_Makeup -> loss_Heavy_Makeup
I1021 15:05:08.759966 16992 net.cpp:141] Setting up loss_Heavy_Makeup
I1021 15:05:08.759974 16992 net.cpp:148] Top shape: (1)
I1021 15:05:08.759979 16992 net.cpp:151]     with loss weight 1
I1021 15:05:08.759984 16992 net.cpp:156] Memory required for data: 1930222472
I1021 15:05:08.759989 16992 layer_factory.hpp:77] Creating layer fc3_Black_Hair
I1021 15:05:08.759997 16992 net.cpp:91] Creating Layer fc3_Black_Hair
I1021 15:05:08.760004 16992 net.cpp:425] fc3_Black_Hair <- fc2_aroundhead_drop2_aroundhead_0_split_0
I1021 15:05:08.760012 16992 net.cpp:399] fc3_Black_Hair -> fc3_Black_Hair
I1021 15:05:08.760129 16992 net.cpp:141] Setting up fc3_Black_Hair
I1021 15:05:08.760139 16992 net.cpp:148] Top shape: 50 2 (100)
I1021 15:05:08.760143 16992 net.cpp:156] Memory required for data: 1930222872
I1021 15:05:08.760150 16992 layer_factory.hpp:77] Creating layer loss_Black_Hair
I1021 15:05:08.760159 16992 net.cpp:91] Creating Layer loss_Black_Hair
I1021 15:05:08.760164 16992 net.cpp:425] loss_Black_Hair <- fc3_Black_Hair
I1021 15:05:08.760170 16992 net.cpp:425] loss_Black_Hair <- label_Black_Hair
I1021 15:05:08.760184 16992 net.cpp:399] loss_Black_Hair -> loss_Black_Hair
I1021 15:05:08.760227 16992 net.cpp:141] Setting up loss_Black_Hair
I1021 15:05:08.760236 16992 net.cpp:148] Top shape: (1)
I1021 15:05:08.760241 16992 net.cpp:151]     with loss weight 1
I1021 15:05:08.760247 16992 net.cpp:156] Memory required for data: 1930222876
I1021 15:05:08.760262 16992 layer_factory.hpp:77] Creating layer fc3_Blond_Hair
I1021 15:05:08.760269 16992 net.cpp:91] Creating Layer fc3_Blond_Hair
I1021 15:05:08.760275 16992 net.cpp:425] fc3_Blond_Hair <- fc2_aroundhead_drop2_aroundhead_0_split_1
I1021 15:05:08.760284 16992 net.cpp:399] fc3_Blond_Hair -> fc3_Blond_Hair
I1021 15:05:08.760402 16992 net.cpp:141] Setting up fc3_Blond_Hair
I1021 15:05:08.760412 16992 net.cpp:148] Top shape: 50 2 (100)
I1021 15:05:08.760417 16992 net.cpp:156] Memory required for data: 1930223276
I1021 15:05:08.760424 16992 layer_factory.hpp:77] Creating layer loss_Blond_Hair
I1021 15:05:08.760440 16992 net.cpp:91] Creating Layer loss_Blond_Hair
I1021 15:05:08.760447 16992 net.cpp:425] loss_Blond_Hair <- fc3_Blond_Hair
I1021 15:05:08.760458 16992 net.cpp:425] loss_Blond_Hair <- label_Blond_Hair
I1021 15:05:08.760468 16992 net.cpp:399] loss_Blond_Hair -> loss_Blond_Hair
I1021 15:05:08.760512 16992 net.cpp:141] Setting up loss_Blond_Hair
I1021 15:05:08.760521 16992 net.cpp:148] Top shape: (1)
I1021 15:05:08.760526 16992 net.cpp:151]     with loss weight 1
I1021 15:05:08.760532 16992 net.cpp:156] Memory required for data: 1930223280
I1021 15:05:08.760537 16992 layer_factory.hpp:77] Creating layer fc3_Brown_Hair
I1021 15:05:08.760545 16992 net.cpp:91] Creating Layer fc3_Brown_Hair
I1021 15:05:08.760550 16992 net.cpp:425] fc3_Brown_Hair <- fc2_aroundhead_drop2_aroundhead_0_split_2
I1021 15:05:08.760560 16992 net.cpp:399] fc3_Brown_Hair -> fc3_Brown_Hair
I1021 15:05:08.760674 16992 net.cpp:141] Setting up fc3_Brown_Hair
I1021 15:05:08.760684 16992 net.cpp:148] Top shape: 50 2 (100)
I1021 15:05:08.760689 16992 net.cpp:156] Memory required for data: 1930223680
I1021 15:05:08.760695 16992 layer_factory.hpp:77] Creating layer loss_Brown_Hair
I1021 15:05:08.760705 16992 net.cpp:91] Creating Layer loss_Brown_Hair
I1021 15:05:08.760710 16992 net.cpp:425] loss_Brown_Hair <- fc3_Brown_Hair
I1021 15:05:08.760716 16992 net.cpp:425] loss_Brown_Hair <- label_Brown_Hair
I1021 15:05:08.760725 16992 net.cpp:399] loss_Brown_Hair -> loss_Brown_Hair
I1021 15:05:08.760769 16992 net.cpp:141] Setting up loss_Brown_Hair
I1021 15:05:08.760777 16992 net.cpp:148] Top shape: (1)
I1021 15:05:08.760782 16992 net.cpp:151]     with loss weight 1
I1021 15:05:08.760788 16992 net.cpp:156] Memory required for data: 1930223684
I1021 15:05:08.760793 16992 layer_factory.hpp:77] Creating layer fc3_Gray_Hair
I1021 15:05:08.760800 16992 net.cpp:91] Creating Layer fc3_Gray_Hair
I1021 15:05:08.760805 16992 net.cpp:425] fc3_Gray_Hair <- fc2_aroundhead_drop2_aroundhead_0_split_3
I1021 15:05:08.760812 16992 net.cpp:399] fc3_Gray_Hair -> fc3_Gray_Hair
I1021 15:05:08.760931 16992 net.cpp:141] Setting up fc3_Gray_Hair
I1021 15:05:08.760939 16992 net.cpp:148] Top shape: 50 2 (100)
I1021 15:05:08.760944 16992 net.cpp:156] Memory required for data: 1930224084
I1021 15:05:08.760951 16992 layer_factory.hpp:77] Creating layer loss_Gray_Hair
I1021 15:05:08.760967 16992 net.cpp:91] Creating Layer loss_Gray_Hair
I1021 15:05:08.760973 16992 net.cpp:425] loss_Gray_Hair <- fc3_Gray_Hair
I1021 15:05:08.760979 16992 net.cpp:425] loss_Gray_Hair <- label_Gray_Hair
I1021 15:05:08.760988 16992 net.cpp:399] loss_Gray_Hair -> loss_Gray_Hair
I1021 15:05:08.761036 16992 net.cpp:141] Setting up loss_Gray_Hair
I1021 15:05:08.761044 16992 net.cpp:148] Top shape: (1)
I1021 15:05:08.761049 16992 net.cpp:151]     with loss weight 1
I1021 15:05:08.761054 16992 net.cpp:156] Memory required for data: 1930224088
I1021 15:05:08.761059 16992 layer_factory.hpp:77] Creating layer fc3_Wearing_Earrings
I1021 15:05:08.761066 16992 net.cpp:91] Creating Layer fc3_Wearing_Earrings
I1021 15:05:08.761071 16992 net.cpp:425] fc3_Wearing_Earrings <- fc2_aroundhead_drop2_aroundhead_0_split_4
I1021 15:05:08.761080 16992 net.cpp:399] fc3_Wearing_Earrings -> fc3_Wearing_Earrings
I1021 15:05:08.761198 16992 net.cpp:141] Setting up fc3_Wearing_Earrings
I1021 15:05:08.761207 16992 net.cpp:148] Top shape: 50 2 (100)
I1021 15:05:08.761212 16992 net.cpp:156] Memory required for data: 1930224488
I1021 15:05:08.761230 16992 layer_factory.hpp:77] Creating layer loss_Wearing_Earrings
I1021 15:05:08.761242 16992 net.cpp:91] Creating Layer loss_Wearing_Earrings
I1021 15:05:08.761247 16992 net.cpp:425] loss_Wearing_Earrings <- fc3_Wearing_Earrings
I1021 15:05:08.761255 16992 net.cpp:425] loss_Wearing_Earrings <- label_Wearing_Earrings
I1021 15:05:08.761262 16992 net.cpp:399] loss_Wearing_Earrings -> loss_Wearing_Earrings
I1021 15:05:08.761308 16992 net.cpp:141] Setting up loss_Wearing_Earrings
I1021 15:05:08.761318 16992 net.cpp:148] Top shape: (1)
I1021 15:05:08.761322 16992 net.cpp:151]     with loss weight 1
I1021 15:05:08.761329 16992 net.cpp:156] Memory required for data: 1930224492
I1021 15:05:08.761333 16992 layer_factory.hpp:77] Creating layer fc3_Wearing_Necklace
I1021 15:05:08.761340 16992 net.cpp:91] Creating Layer fc3_Wearing_Necklace
I1021 15:05:08.761345 16992 net.cpp:425] fc3_Wearing_Necklace <- fc2_aroundhead_drop2_aroundhead_0_split_5
I1021 15:05:08.761353 16992 net.cpp:399] fc3_Wearing_Necklace -> fc3_Wearing_Necklace
I1021 15:05:08.761471 16992 net.cpp:141] Setting up fc3_Wearing_Necklace
I1021 15:05:08.761482 16992 net.cpp:148] Top shape: 50 2 (100)
I1021 15:05:08.761485 16992 net.cpp:156] Memory required for data: 1930224892
I1021 15:05:08.761492 16992 layer_factory.hpp:77] Creating layer loss_Wearing_Necklace
I1021 15:05:08.761507 16992 net.cpp:91] Creating Layer loss_Wearing_Necklace
I1021 15:05:08.761513 16992 net.cpp:425] loss_Wearing_Necklace <- fc3_Wearing_Necklace
I1021 15:05:08.761519 16992 net.cpp:425] loss_Wearing_Necklace <- label_Wearing_Necklace
I1021 15:05:08.761528 16992 net.cpp:399] loss_Wearing_Necklace -> loss_Wearing_Necklace
I1021 15:05:08.761576 16992 net.cpp:141] Setting up loss_Wearing_Necklace
I1021 15:05:08.761585 16992 net.cpp:148] Top shape: (1)
I1021 15:05:08.761590 16992 net.cpp:151]     with loss weight 1
I1021 15:05:08.761596 16992 net.cpp:156] Memory required for data: 1930224896
I1021 15:05:08.761601 16992 layer_factory.hpp:77] Creating layer fc3_Wearing_Necktie
I1021 15:05:08.761608 16992 net.cpp:91] Creating Layer fc3_Wearing_Necktie
I1021 15:05:08.761613 16992 net.cpp:425] fc3_Wearing_Necktie <- fc2_aroundhead_drop2_aroundhead_0_split_6
I1021 15:05:08.761620 16992 net.cpp:399] fc3_Wearing_Necktie -> fc3_Wearing_Necktie
I1021 15:05:08.761741 16992 net.cpp:141] Setting up fc3_Wearing_Necktie
I1021 15:05:08.761751 16992 net.cpp:148] Top shape: 50 2 (100)
I1021 15:05:08.761756 16992 net.cpp:156] Memory required for data: 1930225296
I1021 15:05:08.761764 16992 layer_factory.hpp:77] Creating layer loss_Wearing_Necktie
I1021 15:05:08.761773 16992 net.cpp:91] Creating Layer loss_Wearing_Necktie
I1021 15:05:08.761780 16992 net.cpp:425] loss_Wearing_Necktie <- fc3_Wearing_Necktie
I1021 15:05:08.761785 16992 net.cpp:425] loss_Wearing_Necktie <- label_Wearing_Necktie
I1021 15:05:08.761793 16992 net.cpp:399] loss_Wearing_Necktie -> loss_Wearing_Necktie
I1021 15:05:08.761838 16992 net.cpp:141] Setting up loss_Wearing_Necktie
I1021 15:05:08.761847 16992 net.cpp:148] Top shape: (1)
I1021 15:05:08.761852 16992 net.cpp:151]     with loss weight 1
I1021 15:05:08.761857 16992 net.cpp:156] Memory required for data: 1930225300
I1021 15:05:08.761862 16992 layer_factory.hpp:77] Creating layer fc3_Bald
I1021 15:05:08.761869 16992 net.cpp:91] Creating Layer fc3_Bald
I1021 15:05:08.761874 16992 net.cpp:425] fc3_Bald <- fc2_aroundhead_drop2_aroundhead_0_split_7
I1021 15:05:08.761881 16992 net.cpp:399] fc3_Bald -> fc3_Bald
I1021 15:05:08.762001 16992 net.cpp:141] Setting up fc3_Bald
I1021 15:05:08.762011 16992 net.cpp:148] Top shape: 50 2 (100)
I1021 15:05:08.762015 16992 net.cpp:156] Memory required for data: 1930225700
I1021 15:05:08.762022 16992 layer_factory.hpp:77] Creating layer loss_Bald
I1021 15:05:08.762032 16992 net.cpp:91] Creating Layer loss_Bald
I1021 15:05:08.762037 16992 net.cpp:425] loss_Bald <- fc3_Bald
I1021 15:05:08.762042 16992 net.cpp:425] loss_Bald <- label_Bald
I1021 15:05:08.762049 16992 net.cpp:399] loss_Bald -> loss_Bald
I1021 15:05:08.762107 16992 net.cpp:141] Setting up loss_Bald
I1021 15:05:08.762115 16992 net.cpp:148] Top shape: (1)
I1021 15:05:08.762120 16992 net.cpp:151]     with loss weight 1
I1021 15:05:08.762125 16992 net.cpp:156] Memory required for data: 1930225704
I1021 15:05:08.762136 16992 layer_factory.hpp:77] Creating layer fc3_Receding_Hairline
I1021 15:05:08.762145 16992 net.cpp:91] Creating Layer fc3_Receding_Hairline
I1021 15:05:08.762151 16992 net.cpp:425] fc3_Receding_Hairline <- fc2_aroundhead_drop2_aroundhead_0_split_8
I1021 15:05:08.762158 16992 net.cpp:399] fc3_Receding_Hairline -> fc3_Receding_Hairline
I1021 15:05:08.762287 16992 net.cpp:141] Setting up fc3_Receding_Hairline
I1021 15:05:08.762300 16992 net.cpp:148] Top shape: 50 2 (100)
I1021 15:05:08.762305 16992 net.cpp:156] Memory required for data: 1930226104
I1021 15:05:08.762311 16992 layer_factory.hpp:77] Creating layer loss_Receding_Hairline
I1021 15:05:08.762320 16992 net.cpp:91] Creating Layer loss_Receding_Hairline
I1021 15:05:08.762326 16992 net.cpp:425] loss_Receding_Hairline <- fc3_Receding_Hairline
I1021 15:05:08.762332 16992 net.cpp:425] loss_Receding_Hairline <- label_Receding_Hairline
I1021 15:05:08.762339 16992 net.cpp:399] loss_Receding_Hairline -> loss_Receding_Hairline
I1021 15:05:08.762388 16992 net.cpp:141] Setting up loss_Receding_Hairline
I1021 15:05:08.762398 16992 net.cpp:148] Top shape: (1)
I1021 15:05:08.762403 16992 net.cpp:151]     with loss weight 1
I1021 15:05:08.762408 16992 net.cpp:156] Memory required for data: 1930226108
I1021 15:05:08.762413 16992 layer_factory.hpp:77] Creating layer fc3_Bangs
I1021 15:05:08.762420 16992 net.cpp:91] Creating Layer fc3_Bangs
I1021 15:05:08.762425 16992 net.cpp:425] fc3_Bangs <- fc2_aroundhead_drop2_aroundhead_0_split_9
I1021 15:05:08.762433 16992 net.cpp:399] fc3_Bangs -> fc3_Bangs
I1021 15:05:08.762554 16992 net.cpp:141] Setting up fc3_Bangs
I1021 15:05:08.762564 16992 net.cpp:148] Top shape: 50 2 (100)
I1021 15:05:08.762568 16992 net.cpp:156] Memory required for data: 1930226508
I1021 15:05:08.762575 16992 layer_factory.hpp:77] Creating layer loss_Bangs
I1021 15:05:08.762586 16992 net.cpp:91] Creating Layer loss_Bangs
I1021 15:05:08.762591 16992 net.cpp:425] loss_Bangs <- fc3_Bangs
I1021 15:05:08.762598 16992 net.cpp:425] loss_Bangs <- label_Bangs
I1021 15:05:08.762604 16992 net.cpp:399] loss_Bangs -> loss_Bangs
I1021 15:05:08.762651 16992 net.cpp:141] Setting up loss_Bangs
I1021 15:05:08.762661 16992 net.cpp:148] Top shape: (1)
I1021 15:05:08.762665 16992 net.cpp:151]     with loss weight 1
I1021 15:05:08.762671 16992 net.cpp:156] Memory required for data: 1930226512
I1021 15:05:08.762682 16992 layer_factory.hpp:77] Creating layer fc3_Wearing_Hat
I1021 15:05:08.762689 16992 net.cpp:91] Creating Layer fc3_Wearing_Hat
I1021 15:05:08.762696 16992 net.cpp:425] fc3_Wearing_Hat <- fc2_aroundhead_drop2_aroundhead_0_split_10
I1021 15:05:08.762702 16992 net.cpp:399] fc3_Wearing_Hat -> fc3_Wearing_Hat
I1021 15:05:08.762825 16992 net.cpp:141] Setting up fc3_Wearing_Hat
I1021 15:05:08.762835 16992 net.cpp:148] Top shape: 50 2 (100)
I1021 15:05:08.762840 16992 net.cpp:156] Memory required for data: 1930226912
I1021 15:05:08.762847 16992 layer_factory.hpp:77] Creating layer loss_Wearing_Hat
I1021 15:05:08.762856 16992 net.cpp:91] Creating Layer loss_Wearing_Hat
I1021 15:05:08.762862 16992 net.cpp:425] loss_Wearing_Hat <- fc3_Wearing_Hat
I1021 15:05:08.762868 16992 net.cpp:425] loss_Wearing_Hat <- label_Wearing_Hat
I1021 15:05:08.762876 16992 net.cpp:399] loss_Wearing_Hat -> loss_Wearing_Hat
I1021 15:05:08.762924 16992 net.cpp:141] Setting up loss_Wearing_Hat
I1021 15:05:08.762933 16992 net.cpp:148] Top shape: (1)
I1021 15:05:08.762938 16992 net.cpp:151]     with loss weight 1
I1021 15:05:08.762944 16992 net.cpp:156] Memory required for data: 1930226916
I1021 15:05:08.762948 16992 layer_factory.hpp:77] Creating layer fc3_Straight_Hair
I1021 15:05:08.762958 16992 net.cpp:91] Creating Layer fc3_Straight_Hair
I1021 15:05:08.762962 16992 net.cpp:425] fc3_Straight_Hair <- fc2_aroundhead_drop2_aroundhead_0_split_11
I1021 15:05:08.762981 16992 net.cpp:399] fc3_Straight_Hair -> fc3_Straight_Hair
I1021 15:05:08.763106 16992 net.cpp:141] Setting up fc3_Straight_Hair
I1021 15:05:08.763116 16992 net.cpp:148] Top shape: 50 2 (100)
I1021 15:05:08.763121 16992 net.cpp:156] Memory required for data: 1930227316
I1021 15:05:08.763128 16992 layer_factory.hpp:77] Creating layer loss_Straight_Hair
I1021 15:05:08.763137 16992 net.cpp:91] Creating Layer loss_Straight_Hair
I1021 15:05:08.763144 16992 net.cpp:425] loss_Straight_Hair <- fc3_Straight_Hair
I1021 15:05:08.763149 16992 net.cpp:425] loss_Straight_Hair <- label_Straight_Hair
I1021 15:05:08.763156 16992 net.cpp:399] loss_Straight_Hair -> loss_Straight_Hair
I1021 15:05:08.763203 16992 net.cpp:141] Setting up loss_Straight_Hair
I1021 15:05:08.763212 16992 net.cpp:148] Top shape: (1)
I1021 15:05:08.763217 16992 net.cpp:151]     with loss weight 1
I1021 15:05:08.763223 16992 net.cpp:156] Memory required for data: 1930227320
I1021 15:05:08.763234 16992 layer_factory.hpp:77] Creating layer fc3_Wavy_Hair
I1021 15:05:08.763242 16992 net.cpp:91] Creating Layer fc3_Wavy_Hair
I1021 15:05:08.763247 16992 net.cpp:425] fc3_Wavy_Hair <- fc2_aroundhead_drop2_aroundhead_0_split_12
I1021 15:05:08.763254 16992 net.cpp:399] fc3_Wavy_Hair -> fc3_Wavy_Hair
I1021 15:05:08.763375 16992 net.cpp:141] Setting up fc3_Wavy_Hair
I1021 15:05:08.763386 16992 net.cpp:148] Top shape: 50 2 (100)
I1021 15:05:08.763389 16992 net.cpp:156] Memory required for data: 1930227720
I1021 15:05:08.763396 16992 layer_factory.hpp:77] Creating layer loss_Wavy_Hair
I1021 15:05:08.763407 16992 net.cpp:91] Creating Layer loss_Wavy_Hair
I1021 15:05:08.763412 16992 net.cpp:425] loss_Wavy_Hair <- fc3_Wavy_Hair
I1021 15:05:08.763418 16992 net.cpp:425] loss_Wavy_Hair <- label_Wavy_Hair
I1021 15:05:08.763425 16992 net.cpp:399] loss_Wavy_Hair -> loss_Wavy_Hair
I1021 15:05:08.763473 16992 net.cpp:141] Setting up loss_Wavy_Hair
I1021 15:05:08.763483 16992 net.cpp:148] Top shape: (1)
I1021 15:05:08.763487 16992 net.cpp:151]     with loss weight 1
I1021 15:05:08.763494 16992 net.cpp:156] Memory required for data: 1930227724
I1021 15:05:08.763499 16992 layer_factory.hpp:77] Creating layer fc3_5_o_Clock_Shadow
I1021 15:05:08.763505 16992 net.cpp:91] Creating Layer fc3_5_o_Clock_Shadow
I1021 15:05:08.763510 16992 net.cpp:425] fc3_5_o_Clock_Shadow <- fc2_facialhair_drop2_facialhair_0_split_0
I1021 15:05:08.763519 16992 net.cpp:399] fc3_5_o_Clock_Shadow -> fc3_5_o_Clock_Shadow
I1021 15:05:08.763635 16992 net.cpp:141] Setting up fc3_5_o_Clock_Shadow
I1021 15:05:08.763645 16992 net.cpp:148] Top shape: 50 2 (100)
I1021 15:05:08.763650 16992 net.cpp:156] Memory required for data: 1930228124
I1021 15:05:08.763658 16992 layer_factory.hpp:77] Creating layer loss_5_o_Clock_Shadow
I1021 15:05:08.763666 16992 net.cpp:91] Creating Layer loss_5_o_Clock_Shadow
I1021 15:05:08.763671 16992 net.cpp:425] loss_5_o_Clock_Shadow <- fc3_5_o_Clock_Shadow
I1021 15:05:08.763679 16992 net.cpp:425] loss_5_o_Clock_Shadow <- label_5_o_Clock_Shadow
I1021 15:05:08.763684 16992 net.cpp:399] loss_5_o_Clock_Shadow -> loss_5_o_Clock_Shadow
I1021 15:05:08.763731 16992 net.cpp:141] Setting up loss_5_o_Clock_Shadow
I1021 15:05:08.763738 16992 net.cpp:148] Top shape: (1)
I1021 15:05:08.763742 16992 net.cpp:151]     with loss weight 1
I1021 15:05:08.763748 16992 net.cpp:156] Memory required for data: 1930228128
I1021 15:05:08.763759 16992 layer_factory.hpp:77] Creating layer fc3_Mustache
I1021 15:05:08.763767 16992 net.cpp:91] Creating Layer fc3_Mustache
I1021 15:05:08.763772 16992 net.cpp:425] fc3_Mustache <- fc2_facialhair_drop2_facialhair_0_split_1
I1021 15:05:08.763779 16992 net.cpp:399] fc3_Mustache -> fc3_Mustache
I1021 15:05:08.763900 16992 net.cpp:141] Setting up fc3_Mustache
I1021 15:05:08.763911 16992 net.cpp:148] Top shape: 50 2 (100)
I1021 15:05:08.763916 16992 net.cpp:156] Memory required for data: 1930228528
I1021 15:05:08.763922 16992 layer_factory.hpp:77] Creating layer loss_Mustache
I1021 15:05:08.763931 16992 net.cpp:91] Creating Layer loss_Mustache
I1021 15:05:08.763936 16992 net.cpp:425] loss_Mustache <- fc3_Mustache
I1021 15:05:08.763952 16992 net.cpp:425] loss_Mustache <- label_Mustache
I1021 15:05:08.763960 16992 net.cpp:399] loss_Mustache -> loss_Mustache
I1021 15:05:08.764009 16992 net.cpp:141] Setting up loss_Mustache
I1021 15:05:08.764019 16992 net.cpp:148] Top shape: (1)
I1021 15:05:08.764024 16992 net.cpp:151]     with loss weight 1
I1021 15:05:08.764030 16992 net.cpp:156] Memory required for data: 1930228532
I1021 15:05:08.764035 16992 layer_factory.hpp:77] Creating layer fc3_No_Beard
I1021 15:05:08.764042 16992 net.cpp:91] Creating Layer fc3_No_Beard
I1021 15:05:08.764047 16992 net.cpp:425] fc3_No_Beard <- fc2_facialhair_drop2_facialhair_0_split_2
I1021 15:05:08.764055 16992 net.cpp:399] fc3_No_Beard -> fc3_No_Beard
I1021 15:05:08.764175 16992 net.cpp:141] Setting up fc3_No_Beard
I1021 15:05:08.764185 16992 net.cpp:148] Top shape: 50 2 (100)
I1021 15:05:08.764190 16992 net.cpp:156] Memory required for data: 1930228932
I1021 15:05:08.764196 16992 layer_factory.hpp:77] Creating layer loss_No_Beard
I1021 15:05:08.764207 16992 net.cpp:91] Creating Layer loss_No_Beard
I1021 15:05:08.764212 16992 net.cpp:425] loss_No_Beard <- fc3_No_Beard
I1021 15:05:08.764219 16992 net.cpp:425] loss_No_Beard <- label_No_Beard
I1021 15:05:08.764225 16992 net.cpp:399] loss_No_Beard -> loss_No_Beard
I1021 15:05:08.764272 16992 net.cpp:141] Setting up loss_No_Beard
I1021 15:05:08.764281 16992 net.cpp:148] Top shape: (1)
I1021 15:05:08.764286 16992 net.cpp:151]     with loss weight 1
I1021 15:05:08.764292 16992 net.cpp:156] Memory required for data: 1930228936
I1021 15:05:08.764297 16992 layer_factory.hpp:77] Creating layer fc3_Sideburns
I1021 15:05:08.764304 16992 net.cpp:91] Creating Layer fc3_Sideburns
I1021 15:05:08.764309 16992 net.cpp:425] fc3_Sideburns <- fc2_facialhair_drop2_facialhair_0_split_3
I1021 15:05:08.764317 16992 net.cpp:399] fc3_Sideburns -> fc3_Sideburns
I1021 15:05:08.764433 16992 net.cpp:141] Setting up fc3_Sideburns
I1021 15:05:08.764442 16992 net.cpp:148] Top shape: 50 2 (100)
I1021 15:05:08.764447 16992 net.cpp:156] Memory required for data: 1930229336
I1021 15:05:08.764453 16992 layer_factory.hpp:77] Creating layer loss_Sideburns
I1021 15:05:08.764461 16992 net.cpp:91] Creating Layer loss_Sideburns
I1021 15:05:08.764467 16992 net.cpp:425] loss_Sideburns <- fc3_Sideburns
I1021 15:05:08.764474 16992 net.cpp:425] loss_Sideburns <- label_Sideburns
I1021 15:05:08.764482 16992 net.cpp:399] loss_Sideburns -> loss_Sideburns
I1021 15:05:08.764533 16992 net.cpp:141] Setting up loss_Sideburns
I1021 15:05:08.764541 16992 net.cpp:148] Top shape: (1)
I1021 15:05:08.764545 16992 net.cpp:151]     with loss weight 1
I1021 15:05:08.764551 16992 net.cpp:156] Memory required for data: 1930229340
I1021 15:05:08.764556 16992 layer_factory.hpp:77] Creating layer fc3_Goatee
I1021 15:05:08.764564 16992 net.cpp:91] Creating Layer fc3_Goatee
I1021 15:05:08.764569 16992 net.cpp:425] fc3_Goatee <- fc2_facialhair_drop2_facialhair_0_split_4
I1021 15:05:08.764576 16992 net.cpp:399] fc3_Goatee -> fc3_Goatee
I1021 15:05:08.764698 16992 net.cpp:141] Setting up fc3_Goatee
I1021 15:05:08.764708 16992 net.cpp:148] Top shape: 50 2 (100)
I1021 15:05:08.764713 16992 net.cpp:156] Memory required for data: 1930229740
I1021 15:05:08.764719 16992 layer_factory.hpp:77] Creating layer loss_Goatee
I1021 15:05:08.764729 16992 net.cpp:91] Creating Layer loss_Goatee
I1021 15:05:08.764734 16992 net.cpp:425] loss_Goatee <- fc3_Goatee
I1021 15:05:08.764739 16992 net.cpp:425] loss_Goatee <- label_Goatee
I1021 15:05:08.764749 16992 net.cpp:399] loss_Goatee -> loss_Goatee
I1021 15:05:08.764793 16992 net.cpp:141] Setting up loss_Goatee
I1021 15:05:08.764804 16992 net.cpp:148] Top shape: (1)
I1021 15:05:08.764808 16992 net.cpp:151]     with loss weight 1
I1021 15:05:08.764814 16992 net.cpp:156] Memory required for data: 1930229744
I1021 15:05:08.764819 16992 layer_factory.hpp:77] Creating layer fc3_High_Cheekbones
I1021 15:05:08.764827 16992 net.cpp:91] Creating Layer fc3_High_Cheekbones
I1021 15:05:08.764832 16992 net.cpp:425] fc3_High_Cheekbones <- fc2_cheeks_drop2_cheeks_0_split_0
I1021 15:05:08.764849 16992 net.cpp:399] fc3_High_Cheekbones -> fc3_High_Cheekbones
I1021 15:05:08.764972 16992 net.cpp:141] Setting up fc3_High_Cheekbones
I1021 15:05:08.764982 16992 net.cpp:148] Top shape: 50 2 (100)
I1021 15:05:08.764986 16992 net.cpp:156] Memory required for data: 1930230144
I1021 15:05:08.764993 16992 layer_factory.hpp:77] Creating layer loss_High_Cheekbones
I1021 15:05:08.765002 16992 net.cpp:91] Creating Layer loss_High_Cheekbones
I1021 15:05:08.765007 16992 net.cpp:425] loss_High_Cheekbones <- fc3_High_Cheekbones
I1021 15:05:08.765013 16992 net.cpp:425] loss_High_Cheekbones <- label_High_Cheekbones
I1021 15:05:08.765022 16992 net.cpp:399] loss_High_Cheekbones -> loss_High_Cheekbones
I1021 15:05:08.765067 16992 net.cpp:141] Setting up loss_High_Cheekbones
I1021 15:05:08.765074 16992 net.cpp:148] Top shape: (1)
I1021 15:05:08.765079 16992 net.cpp:151]     with loss weight 1
I1021 15:05:08.765085 16992 net.cpp:156] Memory required for data: 1930230148
I1021 15:05:08.765090 16992 layer_factory.hpp:77] Creating layer fc3_Rosy_Cheeks
I1021 15:05:08.765100 16992 net.cpp:91] Creating Layer fc3_Rosy_Cheeks
I1021 15:05:08.765105 16992 net.cpp:425] fc3_Rosy_Cheeks <- fc2_cheeks_drop2_cheeks_0_split_1
I1021 15:05:08.765112 16992 net.cpp:399] fc3_Rosy_Cheeks -> fc3_Rosy_Cheeks
I1021 15:05:08.765228 16992 net.cpp:141] Setting up fc3_Rosy_Cheeks
I1021 15:05:08.765239 16992 net.cpp:148] Top shape: 50 2 (100)
I1021 15:05:08.765244 16992 net.cpp:156] Memory required for data: 1930230548
I1021 15:05:08.765250 16992 layer_factory.hpp:77] Creating layer loss_Rosy_Cheeks
…
I1021 15:05:11.428732 16992 net.cpp:141] Setting up loss_Male
I1021 15:05:11.428743 16992 net.cpp:148] Top shape: (1)
I1021 15:05:11.428751 16992 net.cpp:151]     with loss weight 1
I1021 15:05:11.428783 16992 net.cpp:156] Memory required for data: 2470676996
I1021 15:05:11.428791 16992 layer_factory.hpp:77] Creating layer fc3_Big_Nose
I1021 15:05:11.428802 16992 net.cpp:91] Creating Layer fc3_Big_Nose
I1021 15:05:11.428812 16992 net.cpp:425] fc3_Big_Nose <- fc2_nose_drop2_nose_0_split_0
I1021 15:05:11.428825 16992 net.cpp:399] fc3_Big_Nose -> fc3_Big_Nose
I1021 15:05:11.428974 16992 net.cpp:141] Setting up fc3_Big_Nose
I1021 15:05:11.428987 16992 net.cpp:148] Top shape: 64 2 (128)
I1021 15:05:11.428993 16992 net.cpp:156] Memory required for data: 2470677508
I1021 15:05:11.429005 16992 layer_factory.hpp:77] Creating layer loss_Big_Nose
I1021 15:05:11.429020 16992 net.cpp:91] Creating Layer loss_Big_Nose
I1021 15:05:11.429031 16992 net.cpp:425] loss_Big_Nose <- fc3_Big_Nose
I1021 15:05:11.429041 16992 net.cpp:425] loss_Big_Nose <- label_Big_Nose
I1021 15:05:11.429051 16992 net.cpp:399] loss_Big_Nose -> loss_Big_Nose
I1021 15:05:11.429116 16992 net.cpp:141] Setting up loss_Big_Nose
I1021 15:05:11.429127 16992 net.cpp:148] Top shape: (1)
I1021 15:05:11.429133 16992 net.cpp:151]     with loss weight 1
I1021 15:05:11.429143 16992 net.cpp:156] Memory required for data: 2470677512
I1021 15:05:11.429150 16992 layer_factory.hpp:77] Creating layer fc3_Pointy_Nose
I1021 15:05:11.429160 16992 net.cpp:91] Creating Layer fc3_Pointy_Nose
I1021 15:05:11.429168 16992 net.cpp:425] fc3_Pointy_Nose <- fc2_nose_drop2_nose_0_split_1
I1021 15:05:11.429183 16992 net.cpp:399] fc3_Pointy_Nose -> fc3_Pointy_Nose
I1021 15:05:11.429332 16992 net.cpp:141] Setting up fc3_Pointy_Nose
I1021 15:05:11.429343 16992 net.cpp:148] Top shape: 64 2 (128)
I1021 15:05:11.429350 16992 net.cpp:156] Memory required for data: 2470678024
I1021 15:05:11.429406 16992 layer_factory.hpp:77] Creating layer loss_Pointy_Nose
I1021 15:05:11.429422 16992 net.cpp:91] Creating Layer loss_Pointy_Nose
I1021 15:05:11.429432 16992 net.cpp:425] loss_Pointy_Nose <- fc3_Pointy_Nose
I1021 15:05:11.429442 16992 net.cpp:425] loss_Pointy_Nose <- label_Pointy_Nose
I1021 15:05:11.429453 16992 net.cpp:399] loss_Pointy_Nose -> loss_Pointy_Nose
I1021 15:05:11.429518 16992 net.cpp:141] Setting up loss_Pointy_Nose
I1021 15:05:11.429530 16992 net.cpp:148] Top shape: (1)
I1021 15:05:11.429536 16992 net.cpp:151]     with loss weight 1
I1021 15:05:11.429546 16992 net.cpp:156] Memory required for data: 2470678028
I1021 15:05:11.429553 16992 layer_factory.hpp:77] Creating layer fc3_Big_Lips
I1021 15:05:11.429564 16992 net.cpp:91] Creating Layer fc3_Big_Lips
I1021 15:05:11.429572 16992 net.cpp:425] fc3_Big_Lips <- fc2_mouth_drop2_mouth_0_split_0
I1021 15:05:11.429582 16992 net.cpp:399] fc3_Big_Lips -> fc3_Big_Lips
I1021 15:05:11.429731 16992 net.cpp:141] Setting up fc3_Big_Lips
I1021 15:05:11.429744 16992 net.cpp:148] Top shape: 64 2 (128)
I1021 15:05:11.429750 16992 net.cpp:156] Memory required for data: 2470678540
I1021 15:05:11.429774 16992 layer_factory.hpp:77] Creating layer loss_Big_Lips
I1021 15:05:11.429791 16992 net.cpp:91] Creating Layer loss_Big_Lips
I1021 15:05:11.429800 16992 net.cpp:425] loss_Big_Lips <- fc3_Big_Lips
I1021 15:05:11.429810 16992 net.cpp:425] loss_Big_Lips <- label_Big_Lips
I1021 15:05:11.429818 16992 net.cpp:399] loss_Big_Lips -> loss_Big_Lips
I1021 15:05:11.429886 16992 net.cpp:141] Setting up loss_Big_Lips
I1021 15:05:11.429898 16992 net.cpp:148] Top shape: (1)
I1021 15:05:11.429904 16992 net.cpp:151]     with loss weight 1
I1021 15:05:11.429913 16992 net.cpp:156] Memory required for data: 2470678544
I1021 15:05:11.429921 16992 layer_factory.hpp:77] Creating layer fc3_Smiling
I1021 15:05:11.429931 16992 net.cpp:91] Creating Layer fc3_Smiling
I1021 15:05:11.429939 16992 net.cpp:425] fc3_Smiling <- fc2_mouth_drop2_mouth_0_split_1
I1021 15:05:11.429949 16992 net.cpp:399] fc3_Smiling -> fc3_Smiling
I1021 15:05:11.430104 16992 net.cpp:141] Setting up fc3_Smiling
I1021 15:05:11.430116 16992 net.cpp:148] Top shape: 64 2 (128)
I1021 15:05:11.430122 16992 net.cpp:156] Memory required for data: 2470679056
I1021 15:05:11.430133 16992 layer_factory.hpp:77] Creating layer loss_Smiling
I1021 15:05:11.430148 16992 net.cpp:91] Creating Layer loss_Smiling
I1021 15:05:11.430156 16992 net.cpp:425] loss_Smiling <- fc3_Smiling
I1021 15:05:11.430166 16992 net.cpp:425] loss_Smiling <- label_Smiling
I1021 15:05:11.430176 16992 net.cpp:399] loss_Smiling -> loss_Smiling
I1021 15:05:11.430245 16992 net.cpp:141] Setting up loss_Smiling
I1021 15:05:11.430256 16992 net.cpp:148] Top shape: (1)
I1021 15:05:11.430263 16992 net.cpp:151]     with loss weight 1
I1021 15:05:11.430271 16992 net.cpp:156] Memory required for data: 2470679060
I1021 15:05:11.430301 16992 layer_factory.hpp:77] Creating layer fc3_Wearing_Lipstick
I1021 15:05:11.430315 16992 net.cpp:91] Creating Layer fc3_Wearing_Lipstick
I1021 15:05:11.430322 16992 net.cpp:425] fc3_Wearing_Lipstick <- fc2_mouth_drop2_mouth_0_split_2
I1021 15:05:11.430333 16992 net.cpp:399] fc3_Wearing_Lipstick -> fc3_Wearing_Lipstick
I1021 15:05:11.430485 16992 net.cpp:141] Setting up fc3_Wearing_Lipstick
I1021 15:05:11.430498 16992 net.cpp:148] Top shape: 64 2 (128)
I1021 15:05:11.430505 16992 net.cpp:156] Memory required for data: 2470679572
I1021 15:05:11.430516 16992 layer_factory.hpp:77] Creating layer loss_Wearing_Lipstick
I1021 15:05:11.430531 16992 net.cpp:91] Creating Layer loss_Wearing_Lipstick
I1021 15:05:11.430538 16992 net.cpp:425] loss_Wearing_Lipstick <- fc3_Wearing_Lipstick
I1021 15:05:11.430548 16992 net.cpp:425] loss_Wearing_Lipstick <- label_Wearing_Lipstick
I1021 15:05:11.430558 16992 net.cpp:399] loss_Wearing_Lipstick -> loss_Wearing_Lipstick
I1021 15:05:11.430625 16992 net.cpp:141] Setting up loss_Wearing_Lipstick
I1021 15:05:11.430636 16992 net.cpp:148] Top shape: (1)
I1021 15:05:11.430644 16992 net.cpp:151]     with loss weight 1
I1021 15:05:11.430654 16992 net.cpp:156] Memory required for data: 2470679576
I1021 15:05:11.430660 16992 layer_factory.hpp:77] Creating layer fc3_Mouth_Slightly_Open
I1021 15:05:11.430671 16992 net.cpp:91] Creating Layer fc3_Mouth_Slightly_Open
I1021 15:05:11.430683 16992 net.cpp:425] fc3_Mouth_Slightly_Open <- fc2_mouth_drop2_mouth_0_split_3
I1021 15:05:11.430694 16992 net.cpp:399] fc3_Mouth_Slightly_Open -> fc3_Mouth_Slightly_Open
I1021 15:05:11.430843 16992 net.cpp:141] Setting up fc3_Mouth_Slightly_Open
I1021 15:05:11.430856 16992 net.cpp:148] Top shape: 64 2 (128)
I1021 15:05:11.430863 16992 net.cpp:156] Memory required for data: 2470680088
I1021 15:05:11.430873 16992 layer_factory.hpp:77] Creating layer loss_Mouth_Slightly_Open
I1021 15:05:11.430888 16992 net.cpp:91] Creating Layer loss_Mouth_Slightly_Open
I1021 15:05:11.430896 16992 net.cpp:425] loss_Mouth_Slightly_Open <- fc3_Mouth_Slightly_Open
I1021 15:05:11.430904 16992 net.cpp:425] loss_Mouth_Slightly_Open <- label_Mouth_Slightly_Open
I1021 15:05:11.430914 16992 net.cpp:399] loss_Mouth_Slightly_Open -> loss_Mouth_Slightly_Open
I1021 15:05:11.430987 16992 net.cpp:141] Setting up loss_Mouth_Slightly_Open
I1021 15:05:11.431010 16992 net.cpp:148] Top shape: (1)
I1021 15:05:11.431017 16992 net.cpp:151]     with loss weight 1
I1021 15:05:11.431027 16992 net.cpp:156] Memory required for data: 2470680092
I1021 15:05:11.431035 16992 layer_factory.hpp:77] Creating layer fc3_Arched_Eyebrows
I1021 15:05:11.431044 16992 net.cpp:91] Creating Layer fc3_Arched_Eyebrows
I1021 15:05:11.431053 16992 net.cpp:425] fc3_Arched_Eyebrows <- fc2_eyes_drop2_eyes_0_split_0
I1021 15:05:11.431064 16992 net.cpp:399] fc3_Arched_Eyebrows -> fc3_Arched_Eyebrows
I1021 15:05:11.431215 16992 net.cpp:141] Setting up fc3_Arched_Eyebrows
I1021 15:05:11.431226 16992 net.cpp:148] Top shape: 64 2 (128)
I1021 15:05:11.431234 16992 net.cpp:156] Memory required for data: 2470680604
I1021 15:05:11.431246 16992 layer_factory.hpp:77] Creating layer loss_Arched_Eyebrows
I1021 15:05:11.431258 16992 net.cpp:91] Creating Layer loss_Arched_Eyebrows
I1021 15:05:11.431267 16992 net.cpp:425] loss_Arched_Eyebrows <- fc3_Arched_Eyebrows
I1021 15:05:11.431275 16992 net.cpp:425] loss_Arched_Eyebrows <- label_Arched_Eyebrows
I1021 15:05:11.431284 16992 net.cpp:399] loss_Arched_Eyebrows -> loss_Arched_Eyebrows
I1021 15:05:11.431354 16992 net.cpp:141] Setting up loss_Arched_Eyebrows
I1021 15:05:11.431365 16992 net.cpp:148] Top shape: (1)
I1021 15:05:11.431371 16992 net.cpp:151]     with loss weight 1
I1021 15:05:11.431381 16992 net.cpp:156] Memory required for data: 2470680608
I1021 15:05:11.431388 16992 layer_factory.hpp:77] Creating layer fc3_Bags_Under_Eyes
I1021 15:05:11.431399 16992 net.cpp:91] Creating Layer fc3_Bags_Under_Eyes
I1021 15:05:11.431407 16992 net.cpp:425] fc3_Bags_Under_Eyes <- fc2_eyes_drop2_eyes_0_split_1
I1021 15:05:11.431417 16992 net.cpp:399] fc3_Bags_Under_Eyes -> fc3_Bags_Under_Eyes
I1021 15:05:11.431571 16992 net.cpp:141] Setting up fc3_Bags_Under_Eyes
I1021 15:05:11.431583 16992 net.cpp:148] Top shape: 64 2 (128)
I1021 15:05:11.431602 16992 net.cpp:156] Memory required for data: 2470681120
I1021 15:05:11.431612 16992 layer_factory.hpp:77] Creating layer loss_Bags_Under_Eyes
I1021 15:05:11.431627 16992 net.cpp:91] Creating Layer loss_Bags_Under_Eyes
I1021 15:05:11.431635 16992 net.cpp:425] loss_Bags_Under_Eyes <- fc3_Bags_Under_Eyes
I1021 15:05:11.431645 16992 net.cpp:425] loss_Bags_Under_Eyes <- label_Bags_Under_Eyes
I1021 15:05:11.431656 16992 net.cpp:399] loss_Bags_Under_Eyes -> loss_Bags_Under_Eyes
I1021 15:05:11.431726 16992 net.cpp:141] Setting up loss_Bags_Under_Eyes
I1021 15:05:11.431738 16992 net.cpp:148] Top shape: (1)
I1021 15:05:11.431746 16992 net.cpp:151]     with loss weight 1
I1021 15:05:11.431754 16992 net.cpp:156] Memory required for data: 2470681124
I1021 15:05:11.431762 16992 layer_factory.hpp:77] Creating layer fc3_Bushy_Eyebrows
I1021 15:05:11.431772 16992 net.cpp:91] Creating Layer fc3_Bushy_Eyebrows
I1021 15:05:11.431780 16992 net.cpp:425] fc3_Bushy_Eyebrows <- fc2_eyes_drop2_eyes_0_split_2
I1021 15:05:11.431792 16992 net.cpp:399] fc3_Bushy_Eyebrows -> fc3_Bushy_Eyebrows
I1021 15:05:11.431941 16992 net.cpp:141] Setting up fc3_Bushy_Eyebrows
I1021 15:05:11.431954 16992 net.cpp:148] Top shape: 64 2 (128)
I1021 15:05:11.431962 16992 net.cpp:156] Memory required for data: 2470681636
I1021 15:05:11.431972 16992 layer_factory.hpp:77] Creating layer loss_Bushy_Eyebrows
I1021 15:05:11.431984 16992 net.cpp:91] Creating Layer loss_Bushy_Eyebrows
I1021 15:05:11.431991 16992 net.cpp:425] loss_Bushy_Eyebrows <- fc3_Bushy_Eyebrows
I1021 15:05:11.432005 16992 net.cpp:425] loss_Bushy_Eyebrows <- label_Bushy_Eyebrows
I1021 15:05:11.432015 16992 net.cpp:399] loss_Bushy_Eyebrows -> loss_Bushy_Eyebrows
I1021 15:05:11.432083 16992 net.cpp:141] Setting up loss_Bushy_Eyebrows
I1021 15:05:11.432106 16992 net.cpp:148] Top shape: (1)
I1021 15:05:11.432113 16992 net.cpp:151]     with loss weight 1
I1021 15:05:11.432123 16992 net.cpp:156] Memory required for data: 2470681640
I1021 15:05:11.432131 16992 layer_factory.hpp:77] Creating layer fc3_Narrow_Eyes
I1021 15:05:11.432142 16992 net.cpp:91] Creating Layer fc3_Narrow_Eyes
I1021 15:05:11.432150 16992 net.cpp:425] fc3_Narrow_Eyes <- fc2_eyes_drop2_eyes_0_split_3
I1021 15:05:11.432173 16992 net.cpp:399] fc3_Narrow_Eyes -> fc3_Narrow_Eyes
I1021 15:05:11.432325 16992 net.cpp:141] Setting up fc3_Narrow_Eyes
I1021 15:05:11.432339 16992 net.cpp:148] Top shape: 64 2 (128)
I1021 15:05:11.432345 16992 net.cpp:156] Memory required for data: 2470682152
I1021 15:05:11.432356 16992 layer_factory.hpp:77] Creating layer loss_Narrow_Eyes
I1021 15:05:11.432368 16992 net.cpp:91] Creating Layer loss_Narrow_Eyes
I1021 15:05:11.432375 16992 net.cpp:425] loss_Narrow_Eyes <- fc3_Narrow_Eyes
I1021 15:05:11.432384 16992 net.cpp:425] loss_Narrow_Eyes <- label_Narrow_Eyes
I1021 15:05:11.432396 16992 net.cpp:399] loss_Narrow_Eyes -> loss_Narrow_Eyes
I1021 15:05:11.432461 16992 net.cpp:141] Setting up loss_Narrow_Eyes
I1021 15:05:11.432474 16992 net.cpp:148] Top shape: (1)
I1021 15:05:11.432482 16992 net.cpp:151]     with loss weight 1
I1021 15:05:11.432490 16992 net.cpp:156] Memory required for data: 2470682156
I1021 15:05:11.432498 16992 layer_factory.hpp:77] Creating layer fc3_Eyeglasses
I1021 15:05:11.432509 16992 net.cpp:91] Creating Layer fc3_Eyeglasses
I1021 15:05:11.432518 16992 net.cpp:425] fc3_Eyeglasses <- fc2_eyes_drop2_eyes_0_split_4
I1021 15:05:11.432528 16992 net.cpp:399] fc3_Eyeglasses -> fc3_Eyeglasses
I1021 15:05:11.432672 16992 net.cpp:141] Setting up fc3_Eyeglasses
I1021 15:05:11.432687 16992 net.cpp:148] Top shape: 64 2 (128)
I1021 15:05:11.432693 16992 net.cpp:156] Memory required for data: 2470682668
I1021 15:05:11.432703 16992 layer_factory.hpp:77] Creating layer loss_Eyeglasses
I1021 15:05:11.432714 16992 net.cpp:91] Creating Layer loss_Eyeglasses
I1021 15:05:11.432721 16992 net.cpp:425] loss_Eyeglasses <- fc3_Eyeglasses
I1021 15:05:11.432731 16992 net.cpp:425] loss_Eyeglasses <- label_Eyeglasses
I1021 15:05:11.432745 16992 net.cpp:399] loss_Eyeglasses -> loss_Eyeglasses
I1021 15:05:11.432807 16992 net.cpp:141] Setting up loss_Eyeglasses
I1021 15:05:11.432819 16992 net.cpp:148] Top shape: (1)
I1021 15:05:11.432826 16992 net.cpp:151]     with loss weight 1
I1021 15:05:11.432835 16992 net.cpp:156] Memory required for data: 2470682672
I1021 15:05:11.432842 16992 layer_factory.hpp:77] Creating layer fc3_Attractive
I1021 15:05:11.432857 16992 net.cpp:91] Creating Layer fc3_Attractive
I1021 15:05:11.432864 16992 net.cpp:425] fc3_Attractive <- fc2_face_drop2_face_0_split_0
I1021 15:05:11.432875 16992 net.cpp:399] fc3_Attractive -> fc3_Attractive
I1021 15:05:11.433028 16992 net.cpp:141] Setting up fc3_Attractive
I1021 15:05:11.433044 16992 net.cpp:148] Top shape: 64 2 (128)
I1021 15:05:11.433051 16992 net.cpp:156] Memory required for data: 2470683184
I1021 15:05:11.433061 16992 layer_factory.hpp:77] Creating layer loss_Attractive
I1021 15:05:11.433073 16992 net.cpp:91] Creating Layer loss_Attractive
I1021 15:05:11.433080 16992 net.cpp:425] loss_Attractive <- fc3_Attractive
I1021 15:05:11.433089 16992 net.cpp:425] loss_Attractive <- label_Attractive
I1021 15:05:11.433102 16992 net.cpp:399] loss_Attractive -> loss_Attractive
I1021 15:05:11.433166 16992 net.cpp:141] Setting up loss_Attractive
I1021 15:05:11.433176 16992 net.cpp:148] Top shape: (1)
I1021 15:05:11.433184 16992 net.cpp:151]     with loss weight 1
I1021 15:05:11.433193 16992 net.cpp:156] Memory required for data: 2470683188
I1021 15:05:11.433200 16992 layer_factory.hpp:77] Creating layer fc3_Blurry
I1021 15:05:11.433213 16992 net.cpp:91] Creating Layer fc3_Blurry
I1021 15:05:11.433223 16992 net.cpp:425] fc3_Blurry <- fc2_face_drop2_face_0_split_1
I1021 15:05:11.433233 16992 net.cpp:399] fc3_Blurry -> fc3_Blurry
I1021 15:05:11.433379 16992 net.cpp:141] Setting up fc3_Blurry
I1021 15:05:11.433394 16992 net.cpp:148] Top shape: 64 2 (128)
I1021 15:05:11.433401 16992 net.cpp:156] Memory required for data: 2470683700
I1021 15:05:11.433411 16992 layer_factory.hpp:77] Creating layer loss_Blurry
I1021 15:05:11.433423 16992 net.cpp:91] Creating Layer loss_Blurry
I1021 15:05:11.433430 16992 net.cpp:425] loss_Blurry <- fc3_Blurry
I1021 15:05:11.433440 16992 net.cpp:425] loss_Blurry <- label_Blurry
I1021 15:05:11.433466 16992 net.cpp:399] loss_Blurry -> loss_Blurry
I1021 15:05:11.433532 16992 net.cpp:141] Setting up loss_Blurry
I1021 15:05:11.433543 16992 net.cpp:148] Top shape: (1)
I1021 15:05:11.433550 16992 net.cpp:151]     with loss weight 1
I1021 15:05:11.433559 16992 net.cpp:156] Memory required for data: 2470683704
I1021 15:05:11.433567 16992 layer_factory.hpp:77] Creating layer fc3_Oval_Face
I1021 15:05:11.433581 16992 net.cpp:91] Creating Layer fc3_Oval_Face
I1021 15:05:11.433589 16992 net.cpp:425] fc3_Oval_Face <- fc2_face_drop2_face_0_split_2
I1021 15:05:11.433599 16992 net.cpp:399] fc3_Oval_Face -> fc3_Oval_Face
I1021 15:05:11.433751 16992 net.cpp:141] Setting up fc3_Oval_Face
I1021 15:05:11.433766 16992 net.cpp:148] Top shape: 64 2 (128)
I1021 15:05:11.433773 16992 net.cpp:156] Memory required for data: 2470684216
I1021 15:05:11.433784 16992 layer_factory.hpp:77] Creating layer loss_Oval_Face
I1021 15:05:11.433795 16992 net.cpp:91] Creating Layer loss_Oval_Face
I1021 15:05:11.433802 16992 net.cpp:425] loss_Oval_Face <- fc3_Oval_Face
I1021 15:05:11.433811 16992 net.cpp:425] loss_Oval_Face <- label_Oval_Face
I1021 15:05:11.433825 16992 net.cpp:399] loss_Oval_Face -> loss_Oval_Face
I1021 15:05:11.433892 16992 net.cpp:141] Setting up loss_Oval_Face
I1021 15:05:11.433903 16992 net.cpp:148] Top shape: (1)
I1021 15:05:11.433910 16992 net.cpp:151]     with loss weight 1
I1021 15:05:11.433919 16992 net.cpp:156] Memory required for data: 2470684220
I1021 15:05:11.433926 16992 layer_factory.hpp:77] Creating layer fc3_Pale_Skin
I1021 15:05:11.433939 16992 net.cpp:91] Creating Layer fc3_Pale_Skin
I1021 15:05:11.433948 16992 net.cpp:425] fc3_Pale_Skin <- fc2_face_drop2_face_0_split_3
I1021 15:05:11.433959 16992 net.cpp:399] fc3_Pale_Skin -> fc3_Pale_Skin
I1021 15:05:11.434100 16992 net.cpp:141] Setting up fc3_Pale_Skin
I1021 15:05:11.434113 16992 net.cpp:148] Top shape: 64 2 (128)
I1021 15:05:11.434119 16992 net.cpp:156] Memory required for data: 2470684732
I1021 15:05:11.434129 16992 layer_factory.hpp:77] Creating layer loss_Pale_Skin
I1021 15:05:11.434144 16992 net.cpp:91] Creating Layer loss_Pale_Skin
I1021 15:05:11.434151 16992 net.cpp:425] loss_Pale_Skin <- fc3_Pale_Skin
I1021 15:05:11.434160 16992 net.cpp:425] loss_Pale_Skin <- label_Pale_Skin
I1021 15:05:11.434173 16992 net.cpp:399] loss_Pale_Skin -> loss_Pale_Skin
I1021 15:05:11.434237 16992 net.cpp:141] Setting up loss_Pale_Skin
I1021 15:05:11.434248 16992 net.cpp:148] Top shape: (1)
I1021 15:05:11.434254 16992 net.cpp:151]     with loss weight 1
I1021 15:05:11.434264 16992 net.cpp:156] Memory required for data: 2470684736
I1021 15:05:11.434272 16992 layer_factory.hpp:77] Creating layer fc3_Young
I1021 15:05:11.434312 16992 net.cpp:91] Creating Layer fc3_Young
I1021 15:05:11.434321 16992 net.cpp:425] fc3_Young <- fc2_face_drop2_face_0_split_4
I1021 15:05:11.434331 16992 net.cpp:399] fc3_Young -> fc3_Young
I1021 15:05:11.434484 16992 net.cpp:141] Setting up fc3_Young
I1021 15:05:11.434496 16992 net.cpp:148] Top shape: 64 2 (128)
I1021 15:05:11.434504 16992 net.cpp:156] Memory required for data: 2470685248
I1021 15:05:11.434514 16992 layer_factory.hpp:77] Creating layer loss_Young
I1021 15:05:11.434530 16992 net.cpp:91] Creating Layer loss_Young
I1021 15:05:11.434537 16992 net.cpp:425] loss_Young <- fc3_Young
I1021 15:05:11.434547 16992 net.cpp:425] loss_Young <- label_Young
I1021 15:05:11.434561 16992 net.cpp:399] loss_Young -> loss_Young
I1021 15:05:11.434625 16992 net.cpp:141] Setting up loss_Young
I1021 15:05:11.434638 16992 net.cpp:148] Top shape: (1)
I1021 15:05:11.434655 16992 net.cpp:151]     with loss weight 1
I1021 15:05:11.434665 16992 net.cpp:156] Memory required for data: 2470685252
I1021 15:05:11.434672 16992 layer_factory.hpp:77] Creating layer fc3_Heavy_Makeup
I1021 15:05:11.434687 16992 net.cpp:91] Creating Layer fc3_Heavy_Makeup
I1021 15:05:11.434695 16992 net.cpp:425] fc3_Heavy_Makeup <- fc2_face_drop2_face_0_split_5
I1021 15:05:11.434706 16992 net.cpp:399] fc3_Heavy_Makeup -> fc3_Heavy_Makeup
I1021 15:05:11.434849 16992 net.cpp:141] Setting up fc3_Heavy_Makeup
I1021 15:05:11.434872 16992 net.cpp:148] Top shape: 64 2 (128)
I1021 15:05:11.434880 16992 net.cpp:156] Memory required for data: 2470685764
I1021 15:05:11.434891 16992 layer_factory.hpp:77] Creating layer loss_Heavy_Makeup
I1021 15:05:11.434906 16992 net.cpp:91] Creating Layer loss_Heavy_Makeup
I1021 15:05:11.434913 16992 net.cpp:425] loss_Heavy_Makeup <- fc3_Heavy_Makeup
I1021 15:05:11.434922 16992 net.cpp:425] loss_Heavy_Makeup <- label_Heavy_Makeup
I1021 15:05:11.434934 16992 net.cpp:399] loss_Heavy_Makeup -> loss_Heavy_Makeup
I1021 15:05:11.435001 16992 net.cpp:141] Setting up loss_Heavy_Makeup
I1021 15:05:11.435012 16992 net.cpp:148] Top shape: (1)
I1021 15:05:11.435019 16992 net.cpp:151]     with loss weight 1
I1021 15:05:11.435029 16992 net.cpp:156] Memory required for data: 2470685768
I1021 15:05:11.435035 16992 layer_factory.hpp:77] Creating layer fc3_Black_Hair
I1021 15:05:11.435050 16992 net.cpp:91] Creating Layer fc3_Black_Hair
I1021 15:05:11.435058 16992 net.cpp:425] fc3_Black_Hair <- fc2_aroundhead_drop2_aroundhead_0_split_0
I1021 15:05:11.435070 16992 net.cpp:399] fc3_Black_Hair -> fc3_Black_Hair
I1021 15:05:11.435212 16992 net.cpp:141] Setting up fc3_Black_Hair
I1021 15:05:11.435225 16992 net.cpp:148] Top shape: 64 2 (128)
I1021 15:05:11.435231 16992 net.cpp:156] Memory required for data: 2470686280
I1021 15:05:11.435242 16992 layer_factory.hpp:77] Creating layer loss_Black_Hair
I1021 15:05:11.435256 16992 net.cpp:91] Creating Layer loss_Black_Hair
I1021 15:05:11.435264 16992 net.cpp:425] loss_Black_Hair <- fc3_Black_Hair
I1021 15:05:11.435273 16992 net.cpp:425] loss_Black_Hair <- label_Black_Hair
I1021 15:05:11.435283 16992 net.cpp:399] loss_Black_Hair -> loss_Black_Hair
I1021 15:05:11.435346 16992 net.cpp:141] Setting up loss_Black_Hair
I1021 15:05:11.435358 16992 net.cpp:148] Top shape: (1)
I1021 15:05:11.435364 16992 net.cpp:151]     with loss weight 1
I1021 15:05:11.435374 16992 net.cpp:156] Memory required for data: 2470686284
I1021 15:05:11.435381 16992 layer_factory.hpp:77] Creating layer fc3_Blond_Hair
I1021 15:05:11.435395 16992 net.cpp:91] Creating Layer fc3_Blond_Hair
I1021 15:05:11.435402 16992 net.cpp:425] fc3_Blond_Hair <- fc2_aroundhead_drop2_aroundhead_0_split_1
I1021 15:05:11.435413 16992 net.cpp:399] fc3_Blond_Hair -> fc3_Blond_Hair
I1021 15:05:11.435559 16992 net.cpp:141] Setting up fc3_Blond_Hair
I1021 15:05:11.435571 16992 net.cpp:148] Top shape: 64 2 (128)
I1021 15:05:11.435578 16992 net.cpp:156] Memory required for data: 2470686796
I1021 15:05:11.435590 16992 layer_factory.hpp:77] Creating layer loss_Blond_Hair
I1021 15:05:11.435603 16992 net.cpp:91] Creating Layer loss_Blond_Hair
I1021 15:05:11.435611 16992 net.cpp:425] loss_Blond_Hair <- fc3_Blond_Hair
I1021 15:05:11.435621 16992 net.cpp:425] loss_Blond_Hair <- label_Blond_Hair
I1021 15:05:11.435631 16992 net.cpp:399] loss_Blond_Hair -> loss_Blond_Hair
I1021 15:05:11.435696 16992 net.cpp:141] Setting up loss_Blond_Hair
I1021 15:05:11.435708 16992 net.cpp:148] Top shape: (1)
I1021 15:05:11.435714 16992 net.cpp:151]     with loss weight 1
I1021 15:05:11.435724 16992 net.cpp:156] Memory required for data: 2470686800
I1021 15:05:11.435730 16992 layer_factory.hpp:77] Creating layer fc3_Brown_Hair
I1021 15:05:11.435744 16992 net.cpp:91] Creating Layer fc3_Brown_Hair
I1021 15:05:11.435752 16992 net.cpp:425] fc3_Brown_Hair <- fc2_aroundhead_drop2_aroundhead_0_split_2
I1021 15:05:11.435762 16992 net.cpp:399] fc3_Brown_Hair -> fc3_Brown_Hair
I1021 15:05:11.435904 16992 net.cpp:141] Setting up fc3_Brown_Hair
I1021 15:05:11.435916 16992 net.cpp:148] Top shape: 64 2 (128)
I1021 15:05:11.435922 16992 net.cpp:156] Memory required for data: 2470687312
I1021 15:05:11.435933 16992 layer_factory.hpp:77] Creating layer loss_Brown_Hair
I1021 15:05:11.435947 16992 net.cpp:91] Creating Layer loss_Brown_Hair
I1021 15:05:11.435955 16992 net.cpp:425] loss_Brown_Hair <- fc3_Brown_Hair
I1021 15:05:11.435963 16992 net.cpp:425] loss_Brown_Hair <- label_Brown_Hair
I1021 15:05:11.435973 16992 net.cpp:399] loss_Brown_Hair -> loss_Brown_Hair
I1021 15:05:11.436053 16992 net.cpp:141] Setting up loss_Brown_Hair
I1021 15:05:11.436064 16992 net.cpp:148] Top shape: (1)
I1021 15:05:11.436071 16992 net.cpp:151]     with loss weight 1
I1021 15:05:11.436080 16992 net.cpp:156] Memory required for data: 2470687316
I1021 15:05:11.436087 16992 layer_factory.hpp:77] Creating layer fc3_Gray_Hair
I1021 15:05:11.436102 16992 net.cpp:91] Creating Layer fc3_Gray_Hair
I1021 15:05:11.436111 16992 net.cpp:425] fc3_Gray_Hair <- fc2_aroundhead_drop2_aroundhead_0_split_3
I1021 15:05:11.436122 16992 net.cpp:399] fc3_Gray_Hair -> fc3_Gray_Hair
I1021 15:05:11.436266 16992 net.cpp:141] Setting up fc3_Gray_Hair
I1021 15:05:11.436278 16992 net.cpp:148] Top shape: 64 2 (128)
I1021 15:05:11.436285 16992 net.cpp:156] Memory required for data: 2470687828
I1021 15:05:11.436296 16992 layer_factory.hpp:77] Creating layer loss_Gray_Hair
I1021 15:05:11.436311 16992 net.cpp:91] Creating Layer loss_Gray_Hair
I1021 15:05:11.436318 16992 net.cpp:425] loss_Gray_Hair <- fc3_Gray_Hair
I1021 15:05:11.436327 16992 net.cpp:425] loss_Gray_Hair <- label_Gray_Hair
I1021 15:05:11.436336 16992 net.cpp:399] loss_Gray_Hair -> loss_Gray_Hair
I1021 15:05:11.436400 16992 net.cpp:141] Setting up loss_Gray_Hair
I1021 15:05:11.436411 16992 net.cpp:148] Top shape: (1)
I1021 15:05:11.436419 16992 net.cpp:151]     with loss weight 1
I1021 15:05:11.436427 16992 net.cpp:156] Memory required for data: 2470687832
I1021 15:05:11.436434 16992 layer_factory.hpp:77] Creating layer fc3_Wearing_Earrings
I1021 15:05:11.436452 16992 net.cpp:91] Creating Layer fc3_Wearing_Earrings
I1021 15:05:11.436460 16992 net.cpp:425] fc3_Wearing_Earrings <- fc2_aroundhead_drop2_aroundhead_0_split_4
I1021 15:05:11.436471 16992 net.cpp:399] fc3_Wearing_Earrings -> fc3_Wearing_Earrings
I1021 15:05:11.436615 16992 net.cpp:141] Setting up fc3_Wearing_Earrings
I1021 15:05:11.436627 16992 net.cpp:148] Top shape: 64 2 (128)
I1021 15:05:11.436633 16992 net.cpp:156] Memory required for data: 2470688344
I1021 15:05:11.436645 16992 layer_factory.hpp:77] Creating layer loss_Wearing_Earrings
I1021 15:05:11.436658 16992 net.cpp:91] Creating Layer loss_Wearing_Earrings
I1021 15:05:11.436667 16992 net.cpp:425] loss_Wearing_Earrings <- fc3_Wearing_Earrings
I1021 15:05:11.436676 16992 net.cpp:425] loss_Wearing_Earrings <- label_Wearing_Earrings
I1021 15:05:11.436686 16992 net.cpp:399] loss_Wearing_Earrings -> loss_Wearing_Earrings
I1021 15:05:11.436750 16992 net.cpp:141] Setting up loss_Wearing_Earrings
I1021 15:05:11.436761 16992 net.cpp:148] Top shape: (1)
I1021 15:05:11.436769 16992 net.cpp:151]     with loss weight 1
I1021 15:05:11.436777 16992 net.cpp:156] Memory required for data: 2470688348
I1021 15:05:11.436784 16992 layer_factory.hpp:77] Creating layer fc3_Wearing_Necklace
I1021 15:05:11.436797 16992 net.cpp:91] Creating Layer fc3_Wearing_Necklace
I1021 15:05:11.436805 16992 net.cpp:425] fc3_Wearing_Necklace <- fc2_aroundhead_drop2_aroundhead_0_split_5
I1021 15:05:11.436815 16992 net.cpp:399] fc3_Wearing_Necklace -> fc3_Wearing_Necklace
I1021 15:05:11.436964 16992 net.cpp:141] Setting up fc3_Wearing_Necklace
I1021 15:05:11.436975 16992 net.cpp:148] Top shape: 64 2 (128)
I1021 15:05:11.436982 16992 net.cpp:156] Memory required for data: 2470688860
I1021 15:05:11.436992 16992 layer_factory.hpp:77] Creating layer loss_Wearing_Necklace
I1021 15:05:11.437014 16992 net.cpp:91] Creating Layer loss_Wearing_Necklace
I1021 15:05:11.437022 16992 net.cpp:425] loss_Wearing_Necklace <- fc3_Wearing_Necklace
I1021 15:05:11.437031 16992 net.cpp:425] loss_Wearing_Necklace <- label_Wearing_Necklace
I1021 15:05:11.437041 16992 net.cpp:399] loss_Wearing_Necklace -> loss_Wearing_Necklace
I1021 15:05:11.437106 16992 net.cpp:141] Setting up loss_Wearing_Necklace
I1021 15:05:11.437117 16992 net.cpp:148] Top shape: (1)
I1021 15:05:11.437124 16992 net.cpp:151]     with loss weight 1
I1021 15:05:11.437134 16992 net.cpp:156] Memory required for data: 2470688864
I1021 15:05:11.437140 16992 layer_factory.hpp:77] Creating layer fc3_Wearing_Necktie
I1021 15:05:11.437155 16992 net.cpp:91] Creating Layer fc3_Wearing_Necktie
I1021 15:05:11.437175 16992 net.cpp:425] fc3_Wearing_Necktie <- fc2_aroundhead_drop2_aroundhead_0_split_6
I1021 15:05:11.437187 16992 net.cpp:399] fc3_Wearing_Necktie -> fc3_Wearing_Necktie
I1021 15:05:11.437330 16992 net.cpp:141] Setting up fc3_Wearing_Necktie
I1021 15:05:11.437342 16992 net.cpp:148] Top shape: 64 2 (128)
I1021 15:05:11.437350 16992 net.cpp:156] Memory required for data: 2470689376
I1021 15:05:11.437360 16992 layer_factory.hpp:77] Creating layer loss_Wearing_Necktie
I1021 15:05:11.437373 16992 net.cpp:91] Creating Layer loss_Wearing_Necktie
I1021 15:05:11.437382 16992 net.cpp:425] loss_Wearing_Necktie <- fc3_Wearing_Necktie
I1021 15:05:11.437391 16992 net.cpp:425] loss_Wearing_Necktie <- label_Wearing_Necktie
I1021 15:05:11.437400 16992 net.cpp:399] loss_Wearing_Necktie -> loss_Wearing_Necktie
I1021 15:05:11.437468 16992 net.cpp:141] Setting up loss_Wearing_Necktie
I1021 15:05:11.437479 16992 net.cpp:148] Top shape: (1)
I1021 15:05:11.437485 16992 net.cpp:151]     with loss weight 1
I1021 15:05:11.437494 16992 net.cpp:156] Memory required for data: 2470689380
I1021 15:05:11.437502 16992 layer_factory.hpp:77] Creating layer fc3_Bald
I1021 15:05:11.437512 16992 net.cpp:91] Creating Layer fc3_Bald
I1021 15:05:11.437520 16992 net.cpp:425] fc3_Bald <- fc2_aroundhead_drop2_aroundhead_0_split_7
I1021 15:05:11.437533 16992 net.cpp:399] fc3_Bald -> fc3_Bald
I1021 15:05:11.437676 16992 net.cpp:141] Setting up fc3_Bald
I1021 15:05:11.437688 16992 net.cpp:148] Top shape: 64 2 (128)
I1021 15:05:11.437695 16992 net.cpp:156] Memory required for data: 2470689892
I1021 15:05:11.437705 16992 layer_factory.hpp:77] Creating layer loss_Bald
I1021 15:05:11.437719 16992 net.cpp:91] Creating Layer loss_Bald
I1021 15:05:11.437727 16992 net.cpp:425] loss_Bald <- fc3_Bald
I1021 15:05:11.437736 16992 net.cpp:425] loss_Bald <- label_Bald
I1021 15:05:11.437746 16992 net.cpp:399] loss_Bald -> loss_Bald
I1021 15:05:11.437813 16992 net.cpp:141] Setting up loss_Bald
I1021 15:05:11.437824 16992 net.cpp:148] Top shape: (1)
I1021 15:05:11.437830 16992 net.cpp:151]     with loss weight 1
I1021 15:05:11.437840 16992 net.cpp:156] Memory required for data: 2470689896
I1021 15:05:11.437847 16992 layer_factory.hpp:77] Creating layer fc3_Receding_Hairline
I1021 15:05:11.437857 16992 net.cpp:91] Creating Layer fc3_Receding_Hairline
I1021 15:05:11.437865 16992 net.cpp:425] fc3_Receding_Hairline <- fc2_aroundhead_drop2_aroundhead_0_split_8
I1021 15:05:11.437880 16992 net.cpp:399] fc3_Receding_Hairline -> fc3_Receding_Hairline
I1021 15:05:11.438027 16992 net.cpp:141] Setting up fc3_Receding_Hairline
I1021 15:05:11.438040 16992 net.cpp:148] Top shape: 64 2 (128)
I1021 15:05:11.438045 16992 net.cpp:156] Memory required for data: 2470690408
I1021 15:05:11.438056 16992 layer_factory.hpp:77] Creating layer loss_Receding_Hairline
I1021 15:05:11.438071 16992 net.cpp:91] Creating Layer loss_Receding_Hairline
I1021 15:05:11.438078 16992 net.cpp:425] loss_Receding_Hairline <- fc3_Receding_Hairline
I1021 15:05:11.438087 16992 net.cpp:425] loss_Receding_Hairline <- label_Receding_Hairline
I1021 15:05:11.438097 16992 net.cpp:399] loss_Receding_Hairline -> loss_Receding_Hairline
I1021 15:05:11.438163 16992 net.cpp:141] Setting up loss_Receding_Hairline
I1021 15:05:11.438174 16992 net.cpp:148] Top shape: (1)
I1021 15:05:11.438179 16992 net.cpp:151]     with loss weight 1
I1021 15:05:11.438189 16992 net.cpp:156] Memory required for data: 2470690412
I1021 15:05:11.438195 16992 layer_factory.hpp:77] Creating layer fc3_Bangs
I1021 15:05:11.438205 16992 net.cpp:91] Creating Layer fc3_Bangs
I1021 15:05:11.438212 16992 net.cpp:425] fc3_Bangs <- fc2_aroundhead_drop2_aroundhead_0_split_9
I1021 15:05:11.438226 16992 net.cpp:399] fc3_Bangs -> fc3_Bangs
I1021 15:05:11.438380 16992 net.cpp:141] Setting up fc3_Bangs
I1021 15:05:11.438392 16992 net.cpp:148] Top shape: 64 2 (128)
I1021 15:05:11.438400 16992 net.cpp:156] Memory required for data: 2470690924
I1021 15:05:11.438410 16992 layer_factory.hpp:77] Creating layer loss_Bangs
I1021 15:05:11.438441 16992 net.cpp:91] Creating Layer loss_Bangs
I1021 15:05:11.438451 16992 net.cpp:425] loss_Bangs <- fc3_Bangs
I1021 15:05:11.438459 16992 net.cpp:425] loss_Bangs <- label_Bangs
I1021 15:05:11.438469 16992 net.cpp:399] loss_Bangs -> loss_Bangs
I1021 15:05:11.438535 16992 net.cpp:141] Setting up loss_Bangs
I1021 15:05:11.438547 16992 net.cpp:148] Top shape: (1)
I1021 15:05:11.438554 16992 net.cpp:151]     with loss weight 1
I1021 15:05:11.438563 16992 net.cpp:156] Memory required for data: 2470690928
I1021 15:05:11.438570 16992 layer_factory.hpp:77] Creating layer fc3_Wearing_Hat
I1021 15:05:11.438581 16992 net.cpp:91] Creating Layer fc3_Wearing_Hat
I1021 15:05:11.438590 16992 net.cpp:425] fc3_Wearing_Hat <- fc2_aroundhead_drop2_aroundhead_0_split_10
I1021 15:05:11.438602 16992 net.cpp:399] fc3_Wearing_Hat -> fc3_Wearing_Hat
I1021 15:05:11.438757 16992 net.cpp:141] Setting up fc3_Wearing_Hat
I1021 15:05:11.438771 16992 net.cpp:148] Top shape: 64 2 (128)
I1021 15:05:11.438776 16992 net.cpp:156] Memory required for data: 2470691440
I1021 15:05:11.438787 16992 layer_factory.hpp:77] Creating layer loss_Wearing_Hat
I1021 15:05:11.438802 16992 net.cpp:91] Creating Layer loss_Wearing_Hat
I1021 15:05:11.438809 16992 net.cpp:425] loss_Wearing_Hat <- fc3_Wearing_Hat
I1021 15:05:11.438818 16992 net.cpp:425] loss_Wearing_Hat <- label_Wearing_Hat
I1021 15:05:11.438829 16992 net.cpp:399] loss_Wearing_Hat -> loss_Wearing_Hat
I1021 15:05:11.438894 16992 net.cpp:141] Setting up loss_Wearing_Hat
I1021 15:05:11.438905 16992 net.cpp:148] Top shape: (1)
I1021 15:05:11.438911 16992 net.cpp:151]     with loss weight 1
I1021 15:05:11.438921 16992 net.cpp:156] Memory required for data: 2470691444
I1021 15:05:11.438928 16992 layer_factory.hpp:77] Creating layer fc3_Straight_Hair
I1021 15:05:11.438940 16992 net.cpp:91] Creating Layer fc3_Straight_Hair
I1021 15:05:11.438947 16992 net.cpp:425] fc3_Straight_Hair <- fc2_aroundhead_drop2_aroundhead_0_split_11
I1021 15:05:11.438961 16992 net.cpp:399] fc3_Straight_Hair -> fc3_Straight_Hair
I1021 15:05:11.439106 16992 net.cpp:141] Setting up fc3_Straight_Hair
I1021 15:05:11.439118 16992 net.cpp:148] Top shape: 64 2 (128)
I1021 15:05:11.439126 16992 net.cpp:156] Memory required for data: 2470691956
I1021 15:05:11.439136 16992 layer_factory.hpp:77] Creating layer loss_Straight_Hair
I1021 15:05:11.439152 16992 net.cpp:91] Creating Layer loss_Straight_Hair
I1021 15:05:11.439162 16992 net.cpp:425] loss_Straight_Hair <- fc3_Straight_Hair
I1021 15:05:11.439172 16992 net.cpp:425] loss_Straight_Hair <- label_Straight_Hair
I1021 15:05:11.439180 16992 net.cpp:399] loss_Straight_Hair -> loss_Straight_Hair
I1021 15:05:11.439244 16992 net.cpp:141] Setting up loss_Straight_Hair
I1021 15:05:11.439255 16992 net.cpp:148] Top shape: (1)
I1021 15:05:11.439261 16992 net.cpp:151]     with loss weight 1
I1021 15:05:11.439271 16992 net.cpp:156] Memory required for data: 2470691960
I1021 15:05:11.439278 16992 layer_factory.hpp:77] Creating layer fc3_Wavy_Hair
I1021 15:05:11.439288 16992 net.cpp:91] Creating Layer fc3_Wavy_Hair
I1021 15:05:11.439296 16992 net.cpp:425] fc3_Wavy_Hair <- fc2_aroundhead_drop2_aroundhead_0_split_12
I1021 15:05:11.439311 16992 net.cpp:399] fc3_Wavy_Hair -> fc3_Wavy_Hair
I1021 15:05:11.440248 16992 net.cpp:141] Setting up fc3_Wavy_Hair
I1021 15:05:11.440263 16992 net.cpp:148] Top shape: 64 2 (128)
I1021 15:05:11.440270 16992 net.cpp:156] Memory required for data: 2470692472
I1021 15:05:11.440282 16992 layer_factory.hpp:77] Creating layer loss_Wavy_Hair
I1021 15:05:11.440297 16992 net.cpp:91] Creating Layer loss_Wavy_Hair
I1021 15:05:11.440306 16992 net.cpp:425] loss_Wavy_Hair <- fc3_Wavy_Hair
I1021 15:05:11.440315 16992 net.cpp:425] loss_Wavy_Hair <- label_Wavy_Hair
I1021 15:05:11.440325 16992 net.cpp:399] loss_Wavy_Hair -> loss_Wavy_Hair
I1021 15:05:11.440373 16992 net.cpp:141] Setting up loss_Wavy_Hair
I1021 15:05:11.440384 16992 net.cpp:148] Top shape: (1)
I1021 15:05:11.440390 16992 net.cpp:151]     with loss weight 1
I1021 15:05:11.440402 16992 net.cpp:156] Memory required for data: 2470692476
I1021 15:05:11.440420 16992 layer_factory.hpp:77] Creating layer fc3_5_o_Clock_Shadow
I1021 15:05:11.440435 16992 net.cpp:91] Creating Layer fc3_5_o_Clock_Shadow
I1021 15:05:11.440444 16992 net.cpp:425] fc3_5_o_Clock_Shadow <- fc2_facialhair_drop2_facialhair_0_split_0
I1021 15:05:11.440455 16992 net.cpp:399] fc3_5_o_Clock_Shadow -> fc3_5_o_Clock_Shadow
I1021 15:05:11.440572 16992 net.cpp:141] Setting up fc3_5_o_Clock_Shadow
I1021 15:05:11.440584 16992 net.cpp:148] Top shape: 64 2 (128)
I1021 15:05:11.440590 16992 net.cpp:156] Memory required for data: 2470692988
I1021 15:05:11.440601 16992 layer_factory.hpp:77] Creating layer loss_5_o_Clock_Shadow
I1021 15:05:11.440615 16992 net.cpp:91] Creating Layer loss_5_o_Clock_Shadow
I1021 15:05:11.440623 16992 net.cpp:425] loss_5_o_Clock_Shadow <- fc3_5_o_Clock_Shadow
I1021 15:05:11.440632 16992 net.cpp:425] loss_5_o_Clock_Shadow <- label_5_o_Clock_Shadow
I1021 15:05:11.440642 16992 net.cpp:399] loss_5_o_Clock_Shadow -> loss_5_o_Clock_Shadow
I1021 15:05:11.440691 16992 net.cpp:141] Setting up loss_5_o_Clock_Shadow
I1021 15:05:11.440702 16992 net.cpp:148] Top shape: (1)
I1021 15:05:11.440708 16992 net.cpp:151]     with loss weight 1
I1021 15:05:11.440718 16992 net.cpp:156] Memory required for data: 2470692992
I1021 15:05:11.440726 16992 layer_factory.hpp:77] Creating layer fc3_Mustache
I1021 15:05:11.440735 16992 net.cpp:91] Creating Layer fc3_Mustache
I1021 15:05:11.440743 16992 net.cpp:425] fc3_Mustache <- fc2_facialhair_drop2_facialhair_0_split_1
I1021 15:05:11.440757 16992 net.cpp:399] fc3_Mustache -> fc3_Mustache
I1021 15:05:11.440876 16992 net.cpp:141] Setting up fc3_Mustache
I1021 15:05:11.440887 16992 net.cpp:148] Top shape: 64 2 (128)
I1021 15:05:11.440894 16992 net.cpp:156] Memory required for data: 2470693504
I1021 15:05:11.440904 16992 layer_factory.hpp:77] Creating layer loss_Mustache
I1021 15:05:11.440918 16992 net.cpp:91] Creating Layer loss_Mustache
I1021 15:05:11.440927 16992 net.cpp:425] loss_Mustache <- fc3_Mustache
I1021 15:05:11.440935 16992 net.cpp:425] loss_Mustache <- label_Mustache
I1021 15:05:11.440945 16992 net.cpp:399] loss_Mustache -> loss_Mustache
I1021 15:05:11.440994 16992 net.cpp:141] Setting up loss_Mustache
I1021 15:05:11.441004 16992 net.cpp:148] Top shape: (1)
I1021 15:05:11.441010 16992 net.cpp:151]     with loss weight 1
I1021 15:05:11.441020 16992 net.cpp:156] Memory required for data: 2470693508
I1021 15:05:11.441027 16992 layer_factory.hpp:77] Creating layer fc3_No_Beard
I1021 15:05:11.441037 16992 net.cpp:91] Creating Layer fc3_No_Beard
I1021 15:05:11.441045 16992 net.cpp:425] fc3_No_Beard <- fc2_facialhair_drop2_facialhair_0_split_2
I1021 15:05:11.441058 16992 net.cpp:399] fc3_No_Beard -> fc3_No_Beard
I1021 15:05:11.441167 16992 net.cpp:141] Setting up fc3_No_Beard
I1021 15:05:11.441179 16992 net.cpp:148] Top shape: 64 2 (128)
I1021 15:05:11.441186 16992 net.cpp:156] Memory required for data: 2470694020
I1021 15:05:11.441196 16992 layer_factory.hpp:77] Creating layer loss_No_Beard
I1021 15:05:11.441210 16992 net.cpp:91] Creating Layer loss_No_Beard
I1021 15:05:11.441218 16992 net.cpp:425] loss_No_Beard <- fc3_No_Beard
I1021 15:05:11.441227 16992 net.cpp:425] loss_No_Beard <- label_No_Beard
I1021 15:05:11.441236 16992 net.cpp:399] loss_No_Beard -> loss_No_Beard
I1021 15:05:11.441282 16992 net.cpp:141] Setting up loss_No_Beard
I1021 15:05:11.441293 16992 net.cpp:148] Top shape: (1)
I1021 15:05:11.441298 16992 net.cpp:151]     with loss weight 1
I1021 15:05:11.441308 16992 net.cpp:156] Memory required for data: 2470694024
I1021 15:05:11.441315 16992 layer_factory.hpp:77] Creating layer fc3_Sideburns
I1021 15:05:11.441325 16992 net.cpp:91] Creating Layer fc3_Sideburns
I1021 15:05:11.441334 16992 net.cpp:425] fc3_Sideburns <- fc2_facialhair_drop2_facialhair_0_split_3
I1021 15:05:11.441346 16992 net.cpp:399] fc3_Sideburns -> fc3_Sideburns
I1021 15:05:11.441460 16992 net.cpp:141] Setting up fc3_Sideburns
I1021 15:05:11.441471 16992 net.cpp:148] Top shape: 64 2 (128)
I1021 15:05:11.441478 16992 net.cpp:156] Memory required for data: 2470694536
I1021 15:05:11.441501 16992 layer_factory.hpp:77] Creating layer loss_Sideburns
I1021 15:05:11.441519 16992 net.cpp:91] Creating Layer loss_Sideburns
I1021 15:05:11.441526 16992 net.cpp:425] loss_Sideburns <- fc3_Sideburns
I1021 15:05:11.441536 16992 net.cpp:425] loss_Sideburns <- label_Sideburns
I1021 15:05:11.441545 16992 net.cpp:399] loss_Sideburns -> loss_Sideburns
I1021 15:05:11.441591 16992 net.cpp:141] Setting up loss_Sideburns
I1021 15:05:11.441602 16992 net.cpp:148] Top shape: (1)
I1021 15:05:11.441608 16992 net.cpp:151]     with loss weight 1
I1021 15:05:11.441618 16992 net.cpp:156] Memory required for data: 2470694540
I1021 15:05:11.441625 16992 layer_factory.hpp:77] Creating layer fc3_Goatee
I1021 15:05:11.441635 16992 net.cpp:91] Creating Layer fc3_Goatee
I1021 15:05:11.441643 16992 net.cpp:425] fc3_Goatee <- fc2_facialhair_drop2_facialhair_0_split_4
I1021 15:05:11.441660 16992 net.cpp:399] fc3_Goatee -> fc3_Goatee
I1021 15:05:11.441771 16992 net.cpp:141] Setting up fc3_Goatee
I1021 15:05:11.441783 16992 net.cpp:148] Top shape: 64 2 (128)
I1021 15:05:11.441789 16992 net.cpp:156] Memory required for data: 2470695052
I1021 15:05:11.441800 16992 layer_factory.hpp:77] Creating layer loss_Goatee
I1021 15:05:11.441814 16992 net.cpp:91] Creating Layer loss_Goatee
I1021 15:05:11.441822 16992 net.cpp:425] loss_Goatee <- fc3_Goatee
I1021 15:05:11.441831 16992 net.cpp:425] loss_Goatee <- label_Goatee
I1021 15:05:11.441840 16992 net.cpp:399] loss_Goatee -> loss_Goatee
I1021 15:05:11.441886 16992 net.cpp:141] Setting up loss_Goatee
I1021 15:05:11.441896 16992 net.cpp:148] Top shape: (1)
I1021 15:05:11.441903 16992 net.cpp:151]     with loss weight 1
I1021 15:05:11.441913 16992 net.cpp:156] Memory required for data: 2470695056
I1021 15:05:11.441920 16992 layer_factory.hpp:77] Creating layer fc3_High_Cheekbones
I1021 15:05:11.441931 16992 net.cpp:91] Creating Layer fc3_High_Cheekbones
I1021 15:05:11.441938 16992 net.cpp:425] fc3_High_Cheekbones <- fc2_cheeks_drop2_cheeks_0_split_0
I1021 15:05:11.441952 16992 net.cpp:399] fc3_High_Cheekbones -> fc3_High_Cheekbones
I1021 15:05:11.442057 16992 net.cpp:141] Setting up fc3_High_Cheekbones
I1021 15:05:11.442070 16992 net.cpp:148] Top shape: 64 2 (128)
I1021 15:05:11.442075 16992 net.cpp:156] Memory required for data: 2470695568
I1021 15:05:11.442085 16992 layer_factory.hpp:77] Creating layer loss_High_Cheekbones
I1021 15:05:11.442101 16992 net.cpp:91] Creating Layer loss_High_Cheekbones
I1021 15:05:11.442109 16992 net.cpp:425] loss_High_Cheekbones <- fc3_High_Cheekbones
I1021 15:05:11.442117 16992 net.cpp:425] loss_High_Cheekbones <- label_High_Cheekbones
I1021 15:05:11.442127 16992 net.cpp:399] loss_High_Cheekbones -> loss_High_Cheekbones
I1021 15:05:11.442174 16992 net.cpp:141] Setting up loss_High_Cheekbones
I1021 15:05:11.442184 16992 net.cpp:148] Top shape: (1)
I1021 15:05:11.442191 16992 net.cpp:151]     with loss weight 1
I1021 15:05:11.442200 16992 net.cpp:156] Memory required for data: 2470695572
I1021 15:05:11.442209 16992 layer_factory.hpp:77] Creating layer fc3_Rosy_Cheeks
I1021 15:05:11.442219 16992 net.cpp:91] Creating Layer fc3_Rosy_Cheeks
I1021 15:05:11.442226 16992 net.cpp:425] fc3_Rosy_Cheeks <- fc2_cheeks_drop2_cheeks_0_split_1
I1021 15:05:11.442240 16992 net.cpp:399] fc3_Rosy_Cheeks -> fc3_Rosy_Cheeks
I1021 15:05:11.442368 16992 net.cpp:141] Setting up fc3_Rosy_Cheeks
I1021 15:05:11.442381 16992 net.cpp:148] Top shape: 64 2 (128)
I1021 15:05:11.442389 16992 net.cpp:156] Memory required for data: 2470696084
I1021 15:05:11.442399 16992 layer_factory.hpp:77] Creating layer loss_Rosy_Cheeks
I1021 15:05:11.442416 16992 net.cpp:91] Creating Layer loss_Rosy_Cheeks
I1021 15:05:11.442425 16992 net.cpp:425] loss_Rosy_Cheeks <- fc3_Rosy_Cheeks
I1021 15:05:11.442433 16992 net.cpp:425] loss_Rosy_Cheeks <- label_Rosy_Cheeks
I1021 15:05:11.442442 16992 net.cpp:399] loss_Rosy_Cheeks -> loss_Rosy_Cheeks
I1021 15:05:11.442492 16992 net.cpp:141] Setting up loss_Rosy_Cheeks
I1021 15:05:11.442502 16992 net.cpp:148] Top shape: (1)
I1021 15:05:11.442508 16992 net.cpp:151]     with loss weight 1
I1021 15:05:11.442535 16992 net.cpp:156] Memory required for data: 2470696088
I1021 15:05:11.442543 16992 layer_factory.hpp:77] Creating layer fc3_Chubby
I1021 15:05:11.442554 16992 net.cpp:91] Creating Layer fc3_Chubby
I1021 15:05:11.442564 16992 net.cpp:425] fc3_Chubby <- fc2_fat_drop2_fat_0_split_0
I1021 15:05:11.442576 16992 net.cpp:399] fc3_Chubby -> fc3_Chubby
I1021 15:05:11.442687 16992 net.cpp:141] Setting up fc3_Chubby
I1021 15:05:11.442700 16992 net.cpp:148] Top shape: 64 2 (128)
I1021 15:05:11.442706 16992 net.cpp:156] Memory required for data: 2470696600
I1021 15:05:11.442718 16992 layer_factory.hpp:77] Creating layer loss_Chubby
I1021 15:05:11.442734 16992 net.cpp:91] Creating Layer loss_Chubby
I1021 15:05:11.442742 16992 net.cpp:425] loss_Chubby <- fc3_Chubby
I1021 15:05:11.442751 16992 net.cpp:425] loss_Chubby <- label_Chubby
I1021 15:05:11.442761 16992 net.cpp:399] loss_Chubby -> loss_Chubby
I1021 15:05:11.442806 16992 net.cpp:141] Setting up loss_Chubby
I1021 15:05:11.442816 16992 net.cpp:148] Top shape: (1)
I1021 15:05:11.442823 16992 net.cpp:151]     with loss weight 1
I1021 15:05:11.442832 16992 net.cpp:156] Memory required for data: 2470696604
I1021 15:05:11.442839 16992 layer_factory.hpp:77] Creating layer fc3_Double_Chin
I1021 15:05:11.442849 16992 net.cpp:91] Creating Layer fc3_Double_Chin
I1021 15:05:11.442857 16992 net.cpp:425] fc3_Double_Chin <- fc2_fat_drop2_fat_0_split_1
I1021 15:05:11.442870 16992 net.cpp:399] fc3_Double_Chin -> fc3_Double_Chin
I1021 15:05:11.442982 16992 net.cpp:141] Setting up fc3_Double_Chin
I1021 15:05:11.442994 16992 net.cpp:148] Top shape: 64 2 (128)
I1021 15:05:11.443001 16992 net.cpp:156] Memory required for data: 2470697116
I1021 15:05:11.443011 16992 layer_factory.hpp:77] Creating layer loss_Double_Chin
I1021 15:05:11.443027 16992 net.cpp:91] Creating Layer loss_Double_Chin
I1021 15:05:11.443034 16992 net.cpp:425] loss_Double_Chin <- fc3_Double_Chin
I1021 15:05:11.443043 16992 net.cpp:425] loss_Double_Chin <- label_Double_Chin
I1021 15:05:11.443053 16992 net.cpp:399] loss_Double_Chin -> loss_Double_Chin
…
I1021 15:05:11.443204 16992 net.cpp:425] attr_mid_feat <- pool3_mouth_pool3_mouth_0_split_1
I1021 15:05:11.443213 16992 net.cpp:425] attr_mid_feat <- pool3_nose_pool3_nose_0_split_1
I1021 15:05:11.443222 16992 net.cpp:425] attr_mid_feat <- pool3_eyes_pool3_eyes_0_split_1
I1021 15:05:11.443229 16992 net.cpp:425] attr_mid_feat <- pool3_face_pool3_face_0_split_1
I1021 15:05:11.443238 16992 net.cpp:425] attr_mid_feat <- pool3_rest_pool3_rest_0_split_4
I1021 15:05:11.443248 16992 net.cpp:399] attr_mid_feat -> attr_mid_feat
I1021 15:05:11.443284 16992 net.cpp:141] Setting up attr_mid_feat
I1021 15:05:11.443295 16992 net.cpp:148] Top shape: 64 1800 4 4 (1843200)
I1021 15:05:11.443302 16992 net.cpp:156] Memory required for data: 2478069920
I1021 15:05:11.443308 16992 layer_factory.hpp:77] Creating layer attr_top_feat
I1021 15:05:11.443320 16992 net.cpp:91] Creating Layer attr_top_feat
I1021 15:05:11.443327 16992 net.cpp:425] attr_top_feat <- fc2_gender_drop2_gender_0_split_1
I1021 15:05:11.443336 16992 net.cpp:425] attr_top_feat <- fc2_nose_drop2_nose_0_split_2
I1021 15:05:11.443343 16992 net.cpp:425] attr_top_feat <- fc2_mouth_drop2_mouth_0_split_4
I1021 15:05:11.443364 16992 net.cpp:425] attr_top_feat <- fc2_eyes_drop2_eyes_0_split_5
I1021 15:05:11.443373 16992 net.cpp:425] attr_top_feat <- fc2_face_drop2_face_0_split_6
I1021 15:05:11.443382 16992 net.cpp:425] attr_top_feat <- fc2_aroundhead_drop2_aroundhead_0_split_13
I1021 15:05:11.443388 16992 net.cpp:425] attr_top_feat <- fc2_facialhair_drop2_facialhair_0_split_5
I1021 15:05:11.443397 16992 net.cpp:425] attr_top_feat <- fc2_cheeks_drop2_cheeks_0_split_2
I1021 15:05:11.443404 16992 net.cpp:425] attr_top_feat <- fc2_fat_drop2_fat_0_split_2
I1021 15:05:11.443418 16992 net.cpp:399] attr_top_feat -> attr_top_feat
I1021 15:05:11.443461 16992 net.cpp:141] Setting up attr_top_feat
I1021 15:05:11.443473 16992 net.cpp:148] Top shape: 64 4608 (294912)
I1021 15:05:11.443480 16992 net.cpp:156] Memory required for data: 2479249568
I1021 15:05:11.443487 16992 layer_factory.hpp:77] Creating layer fc8_top_attr
I1021 15:05:11.443498 16992 net.cpp:91] Creating Layer fc8_top_attr
I1021 15:05:11.443506 16992 net.cpp:425] fc8_top_attr <- attr_top_feat
I1021 15:05:11.443519 16992 net.cpp:399] fc8_top_attr -> fc8_top_attr
I1021 15:05:11.750635 16992 net.cpp:141] Setting up fc8_top_attr
I1021 15:05:11.750685 16992 net.cpp:148] Top shape: 64 6468 (413952)
I1021 15:05:11.750692 16992 net.cpp:156] Memory required for data: 2480905376
I1021 15:05:11.750708 16992 layer_factory.hpp:77] Creating layer fc8_top_attr_fc8_top_attr_0_split
I1021 15:05:11.750737 16992 net.cpp:91] Creating Layer fc8_top_attr_fc8_top_attr_0_split
I1021 15:05:11.750748 16992 net.cpp:425] fc8_top_attr_fc8_top_attr_0_split <- fc8_top_attr
I1021 15:05:11.750762 16992 net.cpp:399] fc8_top_attr_fc8_top_attr_0_split -> fc8_top_attr_fc8_top_attr_0_split_0
I1021 15:05:11.750778 16992 net.cpp:399] fc8_top_attr_fc8_top_attr_0_split -> fc8_top_attr_fc8_top_attr_0_split_1
I1021 15:05:11.750790 16992 net.cpp:399] fc8_top_attr_fc8_top_attr_0_split -> fc8_top_attr_fc8_top_attr_0_split_2
I1021 15:05:11.750855 16992 net.cpp:141] Setting up fc8_top_attr_fc8_top_attr_0_split
I1021 15:05:11.750866 16992 net.cpp:148] Top shape: 64 6468 (413952)
I1021 15:05:11.750875 16992 net.cpp:148] Top shape: 64 6468 (413952)
I1021 15:05:11.750883 16992 net.cpp:148] Top shape: 64 6468 (413952)
I1021 15:05:11.750890 16992 net.cpp:156] Memory required for data: 2485872800
I1021 15:05:11.750897 16992 layer_factory.hpp:77] Creating layer loss_top_attr
I1021 15:05:11.750908 16992 net.cpp:91] Creating Layer loss_top_attr
I1021 15:05:11.750916 16992 net.cpp:425] loss_top_attr <- fc8_top_attr_fc8_top_attr_0_split_0
I1021 15:05:11.750926 16992 net.cpp:425] loss_top_attr <- label_data_1_split_0
…
