…
    slice_point: 24
    slice_point: 26
    slice_point: 28
    slice_point: 30
    slice_point: 32
    slice_point: 34
    slice_point: 36
    slice_point: 38
    slice_point: 40
    slice_point: 42
    slice_point: 44
    slice_point: 46
    slice_point: 48
    slice_point: 50
    slice_point: 52
    slice_point: 54
    slice_point: 56
    slice_point: 58
    slice_point: 60
    slice_point: 62
    slice_point: 64
    slice_point: 66
    slice_point: 68
    slice_point: 70
    slice_point: 72
    slice_point: 74
    slice_point: 76
    slice_point: 78
  }
}
layer {
  name: "conv1_bn"
  type: "BatchNorm"
  bottom: "conv1"
  top: "conv1"
  batch_norm_param {
    use_global_stats: false
  }
}
layer {
  name: "conv1_scale"
  type: "Scale"
  bottom: "conv1"
  top: "conv1"
  scale_param {
    bias_term: true
  }
}
layer {
  name: "prelu1"
  type: "PReLU"
  bottom: "conv1"
  top: "conv1"
}
layer {
  name: "pool1"
  type: "Pooling"
  bottom: "conv1"
  top: "pool1"
  pooling_param {
    pool: MAX
    kernel_size: 2
    stride: 2
  }
}
layer {
  name: "conv2a"
  type: "Convolution"
  bottom: "pool1"
  top: "conv2a"
  param {
    name: "conv2a_w"
    lr_mult: 1
    decay_mult: 1
  }
  param {
    name: "conv2a_b"
    lr_mult: 2
    decay_mult: 0
  }
  convolution_param {
    num_output: 64
    kernel_size: 1
    weight_filler {
      type: "xavier"
    }
    bias_filler {
      type: "constant"
      value: 0.2
    }
  }
}
layer {
  name: "conv2a_bn"
  type: "BatchNorm"
  bottom: "conv2a"
  top: "conv2a"
  batch_norm_param {
    use_global_stats: false
  }
}
layer {
  name: "conv2a_scale"
  type: "Scale"
  bottom: "conv2a"
  top: "conv2a"
  scale_param {
    bias_term: true
  }
}
layer {
  name: "prelu2a"
  type: "PReLU"
  bottom: "conv2a"
  top: "conv2a"
}
layer {
  name: "conv2"
  type: "Convolution"
  bottom: "conv2a"
  top: "conv2"
  param {
    name: "conv2_w"
    lr_mult: 1
    decay_mult: 1
  }
  param {
    name: "conv2_b"
    lr_mult: 2
    decay_mult: 0
  }
  convolution_param {
    num_output: 192
    pad: 1
    kernel_size: 3
    stride: 1
    weight_filler {
      type: "xavier"
    }
    bias_filler {
      type: "constant"
      value: 0.2
    }
  }
}
layer {
  name: "conv2_bn"
  type: "BatchNorm"
  bottom: "conv2"
  top: "conv2"
  batch_norm_param {
    use_global_stats: false
  }
}
layer {
  name: "conv2_scale"
  type: "Scale"
  bottom: "conv2"
  top: "conv2"
  scale_param {
    bias_term: true
  }
}
layer {
  name: "prelu2"
  type: "PReLU"
  bottom: "conv2"
  top: "conv2"
}
layer {
  name: "pool2"
  type: "Pooling"
  bottom: "conv2"
  top: "pool2"
  pooling_param {
    pool: MAX
    kernel_size: 2
    stride: 2
  }
}
layer {
  name: "conv3a"
  type: "Convolution"
  bottom: "pool2"
  top: "conv3a"
  param {
    name: "conv3a_w"
    lr_mult: 1
    decay_mult: 1
  }
  param {
    name: "conv3a_b"
    lr_mult: 2
    decay_mult: 0
  }
  convolution_param {
    num_output: 192
    kernel_size: 1
    weight_filler {
      type: "xavier"
    }
    bias_filler {
      type: "constant"
      value: 0.2
    }
  }
}
layer {
  name: "conv3a_bn"
  type: "BatchNorm"
  bottom: "conv3a"
  top: "conv3a"
  batch_norm_param {
    use_global_stats: false
  }
}
layer {
  name: "conv3a_scale"
  type: "Scale"
  bottom: "conv3a"
  top: "conv3a"
  scale_param {
    bias_term: true
  }
}
layer {
  name: "prelu3a"
  type: "PReLU"
  bottom: "conv3a"
  top: "conv3a"
}
layer {
  name: "conv3"
  type: "Convolution"
  bottom: "conv3a"
  top: "conv3"
  param {
    name: "conv3_w"
    lr_mult: 1
    decay_mult: 1
  }
  param {
    name: "conv3_b"
    lr_mult: 2
    decay_mult: 0
  }
  convolution_param {
    num_output: 384
    pad: 1
    kernel_size: 3
    stride: 1
    weight_filler {
      type: "xavier"
    }
    bias_filler {
      type: "constant"
      value: 0.2
    }
  }
}
layer {
  name: "conv3_bn"
  type: "BatchNorm"
  bottom: "conv3"
  top: "conv3"
  batch_norm_param {
    use_global_stats: false
  }
}
layer {
  name: "conv3_scale"
  type: "Scale"
  bottom: "conv3"
  top: "conv3"
  scale_param {
    bias_term: true
  }
}
layer {
  name: "prelu3"
  type: "PReLU"
  bottom: "conv3"
  top: "conv3"
}
layer {
  name: "pool3"
  type: "Pooling"
  bottom: "conv3"
  top: "pool3"
  pooling_param {
    pool: MAX
    kernel_size: 2
    stride: 2
  }
}
layer {
  name: "conv3_gender"
  type: "Convolution"
  bottom: "pool3"
  top: "conv3_gender"
  param {
    lr_mult: 1
    decay_mult: 1
  }
  param {
    lr_mult: 2
    decay_mult: 0
  }
  convolution_param {
    num_output: 300
    pad: 1
    kernel_size: 3
    stride: 2
    weight_filler {
      type: "xavier"
    }
    bias_filler {
      type: "constant"
      value: 0.2
    }
  }
}
layer {
  name: "conv3_gender_bn"
  type: "BatchNorm"
  bottom: "conv3_gender"
  top: "conv3_gender"
  batch_norm_param {
    use_global_stats: false
  }
}
layer {
  name: "conv3_gender_scale"
  type: "Scale"
  bottom: "conv3_gender"
  top: "conv3_gender"
  scale_param {
    bias_term: true
  }
}
layer {
  name: "prelu3_gender"
  type: "PReLU"
  bottom: "conv3_gender"
  top: "conv3_gender"
}
layer {
  name: "pool3_gender"
  type: "Pooling"
  bottom: "conv3_gender"
  top: "pool3_gender"
  pooling_param {
    pool: MAX
    kernel_size: 5
    stride: 2
    pad: 2
  }
}
layer {
  name: "fc1_gender"
  type: "InnerProduct"
  bottom: "pool3_gender"
  top: "fc1_gender"
  param {
    lr_mult: 1
    decay_mult: 1
  }
  param {
    lr_mult: 2
    decay_mult: 0
  }
  inner_product_param {
    num_output: 512
    weight_filler {
      type: "xavier"
    }
    bias_filler {
      type: "constant"
      value: 0.2
    }
  }
}
layer {
  name: "relu1_gender"
  type: "ReLU"
  bottom: "fc1_gender"
  top: "fc1_gender"
}
layer {
  name: "drop1_gender"
  type: "Dropout"
  bottom: "fc1_gender"
  top: "fc1_gender"
  dropout_param {
    dropout_ratio: 0.5
  }
}
layer {
  name: "fc2_gender"
  type: "InnerProduct"
  bottom: "fc1_gender"
  top: "fc2_gender"
  param {
    lr_mult: 1
    decay_mult: 1
  }
  param {
    lr_mult: 2
    decay_mult: 0
  }
  inner_product_param {
    num_output: 512
    weight_filler {
      type: "xavier"
    }
    bias_filler {
      type: "constant"
      value: 0.2
    }
  }
}
layer {
  name: "relu2_gender"
  type: "ReLU"
  bottom: "fc2_gender"
  top: "fc2_gender"
}
layer {
  name: "drop2_gender"
  type: "Dropout"
  bottom: "fc2_gender"
  top: "fc2_gender"
  dropout_param {
    dropout_ratio: 0.5
  }
}
layer {
  name: "conv3_nose"
  type: "Convolution"
  bottom: "pool3"
  top: "conv3_nose"
  param {
    lr_mult: 1
    decay_mult: 1
  }
  param {
    lr_mult: 2
    decay_mult: 0
  }
  convolution_param {
    num_output: 300
    pad: 1
    kernel_size: 3
    stride: 2
    weight_filler {
      type: "xavier"
    }
    bias_filler {
      type: "constant"
      value: 0.2
    }
  }
}
layer {
  name: "conv3_nose_bn"
  type: "BatchNorm"
  bottom: "conv3_nose"
  top: "conv3_nose"
  batch_norm_param {
    use_global_stats: false
  }
}
layer {
  name: "conv3_nose_scale"
  type: "Scale"
  bottom: "conv3_nose"
  top: "conv3_nose"
  scale_param {
    bias_term: true
  }
}
layer {
  name: "prelu3_nose"
  type: "PReLU"
  bottom: "conv3_nose"
  top: "conv3_nose"
}
layer {
  name: "pool3_nose"
  type: "Pooling"
  bottom: "conv3_nose"
  top: "pool3_nose"
  pooling_param {
    pool: MAX
    kernel_size: 5
    stride: 2
    pad: 2
  }
}
layer {
  name: "fc1_nose"
  type: "InnerProduct"
  bottom: "pool3_nose"
  top: "fc1_nose"
  param {
    lr_mult: 1
    decay_mult: 1
  }
  param {
    lr_mult: 2
    decay_mult: 0
  }
  inner_product_param {
    num_output: 512
    weight_filler {
      type: "xavier"
    }
    bias_filler {
      type: "constant"
      value: 0.2
    }
  }
}
layer {
  name: "relu1_nose"
  type: "ReLU"
  bottom: "fc1_nose"
  top: "fc1_nose"
}
layer {
  name: "drop1_nose"
  type: "Dropout"
  bottom: "fc1_nose"
  top: "fc1_nose"
  dropout_param {
    dropout_ratio: 0.5
  }
}
layer {
  name: "fc2_nose"
  type: "InnerProduct"
  bottom: "fc1_nose"
  top: "fc2_nose"
  param {
    lr_mult: 1
    decay_mult: 1
  }
  param {
    lr_mult: 2
    decay_mult: 0
  }
  inner_product_param {
    num_output: 512
    weight_filler {
      type: "xavier"
    }
    bias_filler {
      type: "constant"
      value: 0.2
    }
  }
}
layer {
  name: "relu2_nose"
  type: "ReLU"
  bottom: "fc2_nose"
  top: "fc2_nose"
}
layer {
  name: "drop2_nose"
  type: "Dropout"
  bottom: "fc2_nose"
  top: "fc2_nose"
  dropout_param {
    dropout_ratio: 0.5
  }
}
layer {
  name: "conv3_mouth"
  type: "Convolution"
  bottom: "pool3"
  top: "conv3_mouth"
  param {
    lr_mult: 1
    decay_mult: 1
  }
  param {
    lr_mult: 2
    decay_mult: 0
  }
  convolution_param {
    num_output: 300
    pad: 1
    kernel_size: 3
    stride: 2
    weight_filler {
      type: "xavier"
    }
    bias_filler {
      type: "constant"
      value: 0.2
    }
  }
}
layer {
  name: "conv3_mouth_bn"
  type: "BatchNorm"
  bottom: "conv3_mouth"
  top: "conv3_mouth"
  batch_norm_param {
    use_global_stats: false
  }
}
layer {
  name: "conv3_mouth_scale"
  type: "Scale"
  bottom: "conv3_mouth"
  top: "conv3_mouth"
  scale_param {
    bias_term: true
  }
}
layer {
  name: "prelu3_mouth"
  type: "PReLU"
  bottom: "conv3_mouth"
  top: "conv3_mouth"
}
layer {
  name: "pool3_mouth"
  type: "Pooling"
  bottom: "conv3_mouth"
  top: "pool3_mouth"
  pooling_param {
    pool: MAX
    kernel_size: 5
    stride: 2
    pad: 2
  }
}
layer {
  name: "fc1_mouth"
  type: "InnerProduct"
  bottom: "pool3_mouth"
  top: "fc1_mouth"
  param {
    lr_mult: 1
    decay_mult: 1
  }
  param {
    lr_mult: 2
    decay_mult: 0
  }
  inner_product_param {
    num_output: 512
    weight_filler {
      type: "xavier"
    }
    bias_filler {
      type: "constant"
      value: 0.2
    }
  }
}
layer {
  name: "relu1_mouth"
  type: "ReLU"
  bottom: "fc1_mouth"
  top: "fc1_mouth"
}
layer {
  name: "drop1_mouth"
  type: "Dropout"
  bottom: "fc1_mouth"
  top: "fc1_mouth"
  dropout_param {
    dropout_ratio: 0.5
  }
}
layer {
  name: "fc2_mouth"
  type: "InnerProduct"
  bottom: "fc1_mouth"
  top: "fc2_mouth"
  param {
    lr_mult: 1
    decay_mult: 1
  }
  param {
    lr_mult: 2
    decay_mult: 0
  }
  inner_product_param {
    num_output: 512
    weight_filler {
      type: "xavier"
    }
    bias_filler {
      type: "constant"
      value: 0.2
    }
  }
}
layer {
  name: "relu2_mouth"
  type: "ReLU"
  bottom: "fc2_mouth"
  top: "fc2_mouth"
}
layer {
  name: "drop2_mouth"
  type: "Dropout"
  bottom: "fc2_mouth"
  top: "fc2_mouth"
  dropout_param {
    dropout_ratio: 0.5
  }
}
layer {
  name: "conv3_eyes"
  type: "Convolution"
  bottom: "pool3"
  top: "conv3_eyes"
  param {
    lr_mult: 1
    decay_mult: 1
  }
  param {
    lr_mult: 2
    decay_mult: 0
  }
  convolution_param {
    num_output: 300
    pad: 1
    kernel_size: 3
    stride: 2
    weight_filler {
      type: "xavier"
    }
    bias_filler {
      type: "constant"
      value: 0.2
    }
  }
}
layer {
  name: "conv3_eyes_bn"
  type: "BatchNorm"
  bottom: "conv3_eyes"
  top: "conv3_eyes"
  batch_norm_param {
    use_global_stats: false
  }
}
layer {
  name: "conv3_eyes_scale"
  type: "Scale"
  bottom: "conv3_eyes"
  top: "conv3_eyes"
  scale_param {
    bias_term: true
  }
}
layer {
  name: "prelu3_eyes"
  type: "PReLU"
  bottom: "conv3_eyes"
  top: "conv3_eyes"
}
layer {
  name: "pool3_eyes"
  type: "Pooling"
  bottom: "conv3_eyes"
  top: "pool3_eyes"
  pooling_param {
    pool: MAX
    kernel_size: 5
    stride: 2
    pad: 2
  }
}
layer {
  name: "fc1_eyes"
  type: "InnerProduct"
  bottom: "pool3_eyes"
  top: "fc1_eyes"
  param {
    lr_mult: 1
    decay_mult: 1
  }
  param {
    lr_mult: 2
    decay_mult: 0
  }
  inner_product_param {
    num_output: 512
    weight_filler {
      type: "xavier"
    }
    bias_filler {
      type: "constant"
      value: 0.2
    }
  }
}
layer {
  name: "relu1_eyes"
  type: "ReLU"
  bottom: "fc1_eyes"
  top: "fc1_eyes"
}
layer {
  name: "drop1_eyes"
  type: "Dropout"
  bottom: "fc1_eyes"
  top: "fc1_eyes"
  dropout_param {
    dropout_ratio: 0.5
  }
}
layer {
  name: "fc2_eyes"
  type: "InnerProduct"
  bottom: "fc1_eyes"
  top: "fc2_eyes"
  param {
    lr_mult: 1
    decay_mult: 1
  }
  param {
    lr_mult: 2
    decay_mult: 0
  }
  inner_product_param {
    num_output: 512
    weight_filler {
      type: "xavier"
    }
    bias_filler {
      type: "constant"
      value: 0.2
    }
  }
}
layer {
  name: "relu2_eyes"
  type: "ReLU"
  bottom: "fc2_eyes"
  top: "fc2_eyes"
}
layer {
  name: "drop2_eyes"
  type: "Dropout"
  bottom: "fc2_eyes"
  top: "fc2_eyes"
  dropout_param {
    dropout_ratio: 0.5
  }
}
layer {
  name: "conv3_face"
  type: "Convolution"
  bottom: "pool3"
  top: "conv3_face"
  param {
    lr_mult: 1
    decay_mult: 1
  }
  param {
    lr_mult: 2
    decay_mult: 0
  }
  convolution_param {
    num_output: 300
    pad: 1
    kernel_size: 3
    stride: 2
    weight_filler {
      type: "xavier"
    }
    bias_filler {
      type: "constant"
      value: 0.2
    }
  }
}
layer {
  name: "conv3_face_bn"
  type: "BatchNorm"
  bottom: "conv3_face"
  top: "conv3_face"
  batch_norm_param {
    use_global_stats: false
  }
}
layer {
  name: "conv3_face_scale"
  type: "Scale"
  bottom: "conv3_face"
  top: "conv3_face"
  scale_param {
    bias_term: true
  }
}
layer {
  name: "prelu3_face"
  type: "PReLU"
  bottom: "conv3_face"
  top: "conv3_face"
}
layer {
  name: "pool3_face"
  type: "Pooling"
  bottom: "conv3_face"
  top: "pool3_face"
  pooling_param {
    pool: MAX
    kernel_size: 5
    stride: 2
    pad: 2
  }
}
layer {
  name: "fc1_face"
  type: "InnerProduct"
  bottom: "pool3_face"
  top: "fc1_face"
  param {
    lr_mult: 1
    decay_mult: 1
  }
  param {
    lr_mult: 2
    decay_mult: 0
  }
  inner_product_param {
    num_output: 512
    weight_filler {
      type: "xavier"
    }
    bias_filler {
      type: "constant"
      value: 0.2
    }
  }
}
layer {
  name: "relu1_face"
  type: "ReLU"
  bottom: "fc1_face"
  top: "fc1_face"
}
layer {
  name: "drop1_face"
  type: "Dropout"
  bottom: "fc1_face"
  top: "fc1_face"
  dropout_param {
    dropout_ratio: 0.5
  }
}
layer {
  name: "fc2_face"
  type: "InnerProduct"
  bottom: "fc1_face"
  top: "fc2_face"
  param {
    lr_mult: 1
    decay_mult: 1
  }
  param {
    lr_mult: 2
    decay_mult: 0
  }
  inner_product_param {
    num_output: 512
    weight_filler {
      type: "xavier"
    }
    bias_filler {
      type: "constant"
      value: 0.2
    }
  }
}
layer {
  name: "relu2_face"
  type: "ReLU"
  bottom: "fc2_face"
  top: "fc2_face"
}
layer {
  name: "drop2_face"
  type: "Dropout"
  bottom: "fc2_face"
  top: "fc2_face"
  dropout_param {
    dropout_ratio: 0.5
  }
}
layer {
  name: "conv3_rest"
  type: "Convolution"
  bottom: "pool3"
  top: "conv3_rest"
  param {
    lr_mult: 1
    decay_mult: 1
  }
  param {
    lr_mult: 2
    decay_mult: 0
  }
  convolution_param {
    num_output: 300
    pad: 1
    kernel_size: 3
    stride: 2
    weight_filler {
      type: "xavier"
    }
    bias_filler {
      type: "constant"
      value: 0.2
    }
  }
}
layer {
  name: "conv3_rest_bn"
  type: "BatchNorm"
  bottom: "conv3_rest"
  top: "conv3_rest"
  batch_norm_param {
    use_global_stats: false
  }
}
layer {
  name: "conv3_rest_scale"
  type: "Scale"
  bottom: "conv3_rest"
  top: "conv3_rest"
  scale_param {
    bias_term: true
  }
}
layer {
  name: "prelu3_rest"
  type: "PReLU"
  bottom: "conv3_rest"
  top: "conv3_rest"
}
layer {
  name: "pool3_rest"
  type: "Pooling"
  bottom: "conv3_rest"
  top: "pool3_rest"
  pooling_param {
    pool: MAX
    kernel_size: 5
    stride: 2
    pad: 2
  }
}
layer {
  name: "fc1_aroundhead"
  type: "InnerProduct"
  bottom: "pool3_rest"
  top: "fc1_aroundhead"
  param {
    lr_mult: 1
    decay_mult: 1
  }
  param {
    lr_mult: 2
    decay_mult: 0
  }
  inner_product_param {
    num_output: 512
    weight_filler {
      type: "xavier"
    }
    bias_filler {
      type: "constant"
      value: 0.2
    }
  }
}
layer {
  name: "relu1_aroundhead"
  type: "ReLU"
  bottom: "fc1_aroundhead"
  top: "fc1_aroundhead"
}
layer {
  name: "drop1_aroundhead"
  type: "Dropout"
  bottom: "fc1_aroundhead"
  top: "fc1_aroundhead"
  dropout_param {
    dropout_ratio: 0.5
  }
}
layer {
  name: "fc2_aroundhead"
  type: "InnerProduct"
  bottom: "fc1_aroundhead"
  top: "fc2_aroundhead"
  param {
    lr_mult: 1
    decay_mult: 1
  }
  param {
    lr_mult: 2
    decay_mult: 0
  }
  inner_product_param {
    num_output: 512
    weight_filler {
      type: "xavier"
    }
    bias_filler {
      type: "constant"
      value: 0.2
    }
  }
}
layer {
  name: "relu2_aroundhead"
  type: "ReLU"
  bottom: "fc2_aroundhead"
  top: "fc2_aroundhead"
}
layer {
  name: "drop2_aroundhead"
  type: "Dropout"
  bottom: "fc2_aroundhead"
  top: "fc2_aroundhead"
  dropout_param {
    dropout_ratio: 0.5
  }
}
layer {
  name: "fc1_facialhair"
  type: "InnerProduct"
  bottom: "pool3_rest"
  top: "fc1_facialhair"
  param {
    lr_mult: 1
    decay_mult: 1
  }
  param {
    lr_mult: 2
    decay_mult: 0
  }
  inner_product_param {
    num_output: 512
    weight_filler {
      type: "xavier"
    }
    bias_filler {
      type: "constant"
      value: 0.2
    }
  }
}
layer {
  name: "relu1_facialhair"
  type: "ReLU"
  bottom: "fc1_facialhair"
  top: "fc1_facialhair"
}
layer {
  name: "drop1_facialhair"
  type: "Dropout"
  bottom: "fc1_facialhair"
  top: "fc1_facialhair"
  dropout_param {
    dropout_ratio: 0.5
  }
}
layer {
  name: "fc2_facialhair"
  type: "InnerProduct"
  bottom: "fc1_facialhair"
  top: "fc2_facialhair"
  param {
    lr_mult: 1
    decay_mult: 1
  }
  param {
    lr_mult: 2
    decay_mult: 0
  }
  inner_product_param {
    num_output: 512
    weight_filler {
      type: "xavier"
    }
    bias_filler {
      type: "constant"
      value: 0.2
    }
  }
}
layer {
  name: "relu2_facialhair"
  type: "ReLU"
  bottom: "fc2_facialhair"
  top: "fc2_facialhair"
}
layer {
  name: "drop2_facialhair"
  type: "Dropout"
  bottom: "fc2_facialhair"
  top: "fc2_facialhair"
  dropout_param {
    dropout_ratio: 0.5
  }
}
layer {
  name: "fc1_cheeks"
  type: "InnerProduct"
  bottom: "pool3_rest"
  top: "fc1_cheeks"
  param {
    lr_mult: 1
    decay_mult: 1
  }
  param {
    lr_mult: 2
    decay_mult: 0
  }
  inner_product_param {
    num_output: 512
    weight_filler {
      type: "xavier"
    }
    bias_filler {
      type: "constant"
      value: 0.2
    }
  }
}
layer {
  name: "relu1_cheeks"
  type: "ReLU"
  bottom: "fc1_cheeks"
  top: "fc1_cheeks"
}
layer {
  name: "drop1_cheeks"
  type: "Dropout"
  bottom: "fc1_cheeks"
  top: "fc1_cheeks"
  dropout_param {
    dropout_ratio: 0.5
  }
}
layer {
  name: "fc2_cheeks"
  type: "InnerProduct"
  bottom: "fc1_cheeks"
  top: "fc2_cheeks"
  param {
    lr_mult: 1
    decay_mult: 1
  }
  param {
    lr_mult: 2
    decay_mult: 0
  }
  inner_product_param {
    num_output: 512
    weight_filler {
      type: "xavier"
    }
    bias_filler {
      type: "constant"
      value: 0.2
    }
  }
}
layer {
  name: "relu2_cheeks"
  type: "ReLU"
  bottom: "fc2_cheeks"
  top: "fc2_cheeks"
}
layer {
  name: "drop2_cheeks"
  type: "Dropout"
  bottom: "fc2_cheeks"
  top: "fc2_cheeks"
  dropout_param {
    dropout_ratio: 0.5
  }
}
layer {
  name: "fc1_fat"
  type: "InnerProduct"
  bottom: "pool3_rest"
  top: "fc1_fat"
  param {
    lr_mult: 1
    decay_mult: 1
  }
  param {
    lr_mult: 2
    decay_mult: 0
  }
  inner_product_param {
    num_output: 512
    weight_filler {
      type: "xavier"
    }
    bias_filler {
      type: "constant"
      value: 0.2
    }
  }
}
layer {
  name: "relu1_fat"
  type: "ReLU"
  bottom: "fc1_fat"
  top: "fc1_fat"
}
layer {
  name: "drop1_fat"
  type: "Dropout"
  bottom: "fc1_fat"
  top: "fc1_fat"
  dropout_param {
    dropout_ratio: 0.5
  }
}
layer {
  name: "fc2_fat"
  type: "InnerProduct"
  bottom: "fc1_fat"
  top: "fc2_fat"
  param {
    lr_mult: 1
    decay_mult: 1
  }
  param {
    lr_mult: 2
    decay_mult: 0
  }
  inner_product_param {
    num_output: 512
    weight_filler {
      type: "xavier"
    }
    bias_filler {
      type: "constant"
      value: 0.2
    }
  }
}
layer {
  name: "relu2_fat"
  type: "ReLU"
  bottom: "fc2_fat"
  top: "fc2_fat"
}
layer {
  name: "drop2_fat"
  type: "Dropout"
  bottom: "fc2_fat"
  top: "fc2_fat"
  dropout_param {
    dropout_ratio: 0.5
  }
}
layer {
  name: "fc3_Male"
  type: "InnerProduct"
  bottom: "fc2_gender"
  top: "fc3_Male"
  inner_product_param {
    num_output: 2
    weight_filler {
      type: "xavier"
    }
    bias_filler {
      type: "constant"
      value: 0
    }
  }
}
layer {
  name: "loss_Male"
  type: "SigmoidCrossEntropyLoss"
  bottom: "fc3_Male"
  bottom: "label_Male"
  top: "loss_Male"
}
layer {
  name: "fc3_Big_Nose"
  type: "InnerProduct"
  bottom: "fc2_nose"
  top: "fc3_Big_Nose"
  inner_product_param {
    num_output: 2
    weight_filler {
      type: "xavier"
    }
    bias_filler {
      type: "constant"
      value: 0
    }
  }
}
layer {
  name: "loss_Big_Nose"
  type: "SigmoidCrossEntropyLoss"
  bottom: "fc3_Big_Nose"
  bottom: "label_Big_Nose"
  top: "loss_Big_Nose"
}
layer {
  name: "fc3_Pointy_Nose"
  type: "InnerProduct"
  bottom: "fc2_nose"
  top: "fc3_Pointy_Nose"
  inner_product_param {
    num_output: 2
    weight_filler {
      type: "xavier"
    }
    bias_filler {
      type: "constant"
      value: 0
    }
  }
}
layer {
  name: "loss_Pointy_Nose"
  type: "SigmoidCrossEntropyLoss"
  bottom: "fc3_Pointy_Nose"
  bottom: "label_Pointy_Nose"
  top: "loss_Pointy_Nose"
}
layer {
  name: "fc3_Big_Lips"
  type: "InnerProduct"
  bottom: "fc2_mouth"
  top: "fc3_Big_Lips"
  inner_product_param {
    num_output: 2
    weight_filler {
      type: "xavier"
    }
    bias_filler {
      type: "constant"
      value: 0
    }
  }
}
layer {
  name: "loss_Big_Lips"
  type: "SigmoidCrossEntropyLoss"
  bottom: "fc3_Big_Lips"
  bottom: "label_Big_Lips"
  top: "loss_Big_Lips"
}
layer {
  name: "fc3_Smiling"
  type: "InnerProduct"
  bottom: "fc2_mouth"
  top: "fc3_Smiling"
  inner_product_param {
    num_output: 2
    weight_filler {
      type: "xavier"
    }
    bias_filler {
      type: "constant"
      value: 0
    }
  }
}
layer {
  name: "loss_Smiling"
  type: "SigmoidCrossEntropyLoss"
  bottom: "fc3_Smiling"
  bottom: "label_Smiling"
  top: "loss_Smiling"
}
layer {
  name: "fc3_Wearing_Lipstick"
  type: "InnerProduct"
  bottom: "fc2_mouth"
  top: "fc3_Wearing_Lipstick"
  inner_product_param {
    num_output: 2
    weight_filler {
      type: "xavier"
    }
    bias_filler {
      type: "constant"
      value: 0
    }
  }
}
layer {
  name: "loss_Wearing_Lipstick"
  type: "SigmoidCrossEntropyLoss"
  bottom: "fc3_Wearing_Lipstick"
  bottom: "label_Wearing_Lipstick"
  top: "loss_Wearing_Lipstick"
}
layer {
  name: "fc3_Mouth_Slightly_Open"
  type: "InnerProduct"
  bottom: "fc2_mouth"
  top: "fc3_Mouth_Slightly_Open"
  inner_product_param {
    num_output: 2
    weight_filler {
      type: "xavier"
    }
    bias_filler {
      type: "constant"
      value: 0
    }
  }
}
layer {
  name: "loss_Mouth_Slightly_Open"
  type: "SigmoidCrossEntropyLoss"
  bottom: "fc3_Mouth_Slightly_Open"
  bottom: "label_Mouth_Slightly_Open"
  top: "loss_Mouth_Slightly_Open"
}
layer {
  name: "fc3_Arched_Eyebrows"
  type: "InnerProduct"
  bottom: "fc2_eyes"
  top: "fc3_Arched_Eyebrows"
  inner_product_param {
    num_output: 2
    weight_filler {
      type: "xavier"
    }
    bias_filler {
      type: "constant"
      value: 0
    }
  }
}
layer {
  name: "loss_Arched_Eyebrows"
  type: "SigmoidCrossEntropyLoss"
  bottom: "fc3_Arched_Eyebrows"
  bottom: "label_Arched_Eyebrows"
  top: "loss_Arched_Eyebrows"
}
layer {
  name: "fc3_Bags_Under_Eyes"
  type: "InnerProduct"
  bottom: "fc2_eyes"
  top: "fc3_Bags_Under_Eyes"
  inner_product_param {
    num_output: 2
    weight_filler {
      type: "xavier"
    }
    bias_filler {
      type: "constant"
      value: 0
    }
  }
}
layer {
  name: "loss_Bags_Under_Eyes"
  type: "SigmoidCrossEntropyLoss"
  bottom: "fc3_Bags_Under_Eyes"
  bottom: "label_Bags_Under_Eyes"
  top: "loss_Bags_Under_Eyes"
}
layer {
  name: "fc3_Bushy_Eyebrows"
  type: "InnerProduct"
  bottom: "fc2_eyes"
  top: "fc3_Bushy_Eyebrows"
  inner_product_param {
    num_output: 2
    weight_filler {
      type: "xavier"
    }
    bias_filler {
      type: "constant"
      value: 0
    }
  }
}
layer {
  name: "loss_Bushy_Eyebrows"
  type: "SigmoidCrossEntropyLoss"
  bottom: "fc3_Bushy_Eyebrows"
  bottom: "label_Bushy_Eyebrows"
  top: "loss_Bushy_Eyebrows"
}
layer {
  name: "fc3_Narrow_Eyes"
  type: "InnerProduct"
  bottom: "fc2_eyes"
  top: "fc3_Narrow_Eyes"
  inner_product_param {
    num_output: 2
    weight_filler {
      type: "xavier"
    }
    bias_filler {
      type: "constant"
      value: 0
    }
  }
}
layer {
  name: "loss_Narrow_Eyes"
  type: "SigmoidCrossEntropyLoss"
  bottom: "fc3_Narrow_Eyes"
  bottom: "label_Narrow_Eyes"
  top: "loss_Narrow_Eyes"
}
layer {
  name: "fc3_Eyeglasses"
  type: "InnerProduct"
  bottom: "fc2_eyes"
  top: "fc3_Eyeglasses"
  inner_product_param {
    num_output: 2
    weight_filler {
      type: "xavier"
    }
    bias_filler {
      type: "constant"
      value: 0
    }
  }
}
layer {
  name: "loss_Eyeglasses"
  type: "SigmoidCrossEntropyLoss"
  bottom: "fc3_Eyeglasses"
  bottom: "label_Eyeglasses"
  top: "loss_Eyeglasses"
}
layer {
  name: "fc3_Attractive"
  type: "InnerProduct"
  bottom: "fc2_face"
  top: "fc3_Attractive"
  inner_product_param {
    num_output: 2
    weight_filler {
      type: "xavier"
    }
    bias_filler {
      type: "constant"
      value: 0
    }
  }
}
layer {
  name: "loss_Attractive"
  type: "SigmoidCrossEntropyLoss"
  bottom: "fc3_Attractive"
  bottom: "label_Attractive"
  top: "loss_Attractive"
}
layer {
  name: "fc3_Blurry"
  type: "InnerProduct"
  bottom: "fc2_face"
  top: "fc3_Blurry"
  inner_product_param {
    num_output: 2
    weight_filler {
      type: "xavier"
    }
    bias_filler {
      type: "constant"
      value: 0
    }
  }
}
layer {
  name: "loss_Blurry"
  type: "SigmoidCrossEntropyLoss"
  bottom: "fc3_Blurry"
  bottom: "label_Blurry"
  top: "loss_Blurry"
}
layer {
  name: "fc3_Oval_Face"
  type: "InnerProduct"
  bottom: "fc2_face"
  top: "fc3_Oval_Face"
  inner_product_param {
    num_output: 2
    weight_filler {
      type: "xavier"
    }
    bias_filler {
      type: "constant"
      value: 0
    }
  }
}
layer {
  name: "loss_Oval_Face"
  type: "SigmoidCrossEntropyLoss"
  bottom: "fc3_Oval_Face"
  bottom: "label_Oval_Face"
  top: "loss_Oval_Face"
}
layer {
  name: "fc3_Pale_Skin"
  type: "InnerProduct"
  bottom: "fc2_face"
  top: "fc3_Pale_Skin"
  inner_product_param {
    num_output: 2
    weight_filler {
      type: "xavier"
    }
    bias_filler {
      type: "constant"
      value: 0
    }
  }
}
layer {
  name: "loss_Pale_Skin"
  type: "SigmoidCrossEntropyLoss"
  bottom: "fc3_Pale_Skin"
  bottom: "label_Pale_Skin"
  top: "loss_Pale_Skin"
}
layer {
  name: "fc3_Young"
  type: "InnerProduct"
  bottom: "fc2_face"
  top: "fc3_Young"
  inner_product_param {
    num_output: 2
    weight_filler {
      type: "xavier"
    }
    bias_filler {
      type: "constant"
      value: 0
    }
  }
}
layer {
  name: "l
I1013 14:42:02.849525 19465 layer_factory.hpp:77] Creating layer data
I1013 14:42:02.849587 19465 net.cpp:91] Creating Layer data
I1013 14:42:02.849601 19465 net.cpp:399] data -> data
I1013 14:42:02.849643 19465 net.cpp:399] data -> label
I1013 14:42:02.849669 19465 data_transformer.cpp:25] Loading mean file from: /home/zhangyuan/caojiajiong/attribute_learning/attr_id/data/train_attr_id.binaryproto
I1013 14:42:02.901031 19465 image_data_layer.cpp:38] Opening file /home/zhangyuan/caojiajiong/attribute_learning/attr_id/data/train_shuffle_new.txt
I1013 14:42:02.918617 19465 image_data_layer.cpp:53] A total of 35996 images.
I1013 14:42:02.923868 19465 image_data_layer.cpp:80] output data size: 100,3,112,112
I1013 14:42:02.958112 19465 net.cpp:141] Setting up data
I1013 14:42:02.958159 19465 net.cpp:148] Top shape: 100 3 112 112 (3763200)
I1013 14:42:02.958168 19465 net.cpp:148] Top shape: 100 (100)
I1013 14:42:02.958173 19465 net.cpp:156] Memory required for data: 15053200
I1013 14:42:02.958186 19465 layer_factory.hpp:77] Creating layer attr_data
I1013 14:42:02.958354 19465 net.cpp:91] Creating Layer attr_data
I1013 14:42:02.958369 19465 net.cpp:399] attr_data -> attr_data
I1013 14:42:02.958389 19465 net.cpp:399] attr_data -> fakelabel
I1013 14:42:02.961236 19470 db_lmdb.cpp:40] Opened lmdb /home/zhangyuan/caojiajiong/attribute_learning/attr_id/data/train_label_new
I1013 14:42:02.962963 19465 data_layer.cpp:41] output data size: 100,80,1,1
I1013 14:42:02.967290 19465 net.cpp:141] Setting up attr_data
I1013 14:42:02.967310 19465 net.cpp:148] Top shape: 100 80 1 1 (8000)
I1013 14:42:02.967319 19465 net.cpp:148] Top shape: 100 (100)
I1013 14:42:02.967322 19465 net.cpp:156] Memory required for data: 15085600
I1013 14:42:02.967346 19465 layer_factory.hpp:77] Creating layer conv1
I1013 14:42:02.967375 19465 net.cpp:91] Creating Layer conv1
I1013 14:42:02.967388 19465 net.cpp:425] conv1 <- data
I1013 14:42:02.967407 19465 net.cpp:399] conv1 -> conv1
I1013 14:42:02.968711 19465 net.cpp:141] Setting up conv1
I1013 14:42:02.968731 19465 net.cpp:148] Top shape: 100 64 112 112 (80281600)
I1013 14:42:02.968736 19465 net.cpp:156] Memory required for data: 336212000
I1013 14:42:02.968755 19465 layer_factory.hpp:77] Creating layer slice
I1013 14:42:02.968773 19465 net.cpp:91] Creating Layer slice
I1013 14:42:02.968777 19465 net.cpp:425] slice <- attr_data
I1013 14:42:02.968789 19465 net.cpp:399] slice -> label_5_o_Clock_Shadow
I1013 14:42:02.968808 19465 net.cpp:399] slice -> label_Arched_Eyebrows
…
I1013 14:42:02.969252 19465 net.cpp:399] slice -> label_Straight_Hair
I1013 14:42:02.969274 19465 net.cpp:399] slice -> label_Wavy_Hair
I1013 14:42:02.969286 19465 net.cpp:399] slice -> label_Wearing_Earrings
I1013 14:42:02.969300 19465 net.cpp:399] slice -> label_Wearing_Hat
I1013 14:42:02.969313 19465 net.cpp:399] slice -> label_Wearing_Lipstick
I1013 14:42:02.969327 19465 net.cpp:399] slice -> label_Wearing_Necklace
I1013 14:42:02.969341 19465 net.cpp:399] slice -> label_Wearing_Necktie
I1013 14:42:02.969353 19465 net.cpp:399] slice -> label_Young
I1013 14:42:02.969790 19465 net.cpp:141] Setting up slice
I1013 14:42:02.969815 19465 net.cpp:148] Top shape: 100 2 1 1 (200)
I1013 14:42:02.969822 19465 net.cpp:148] Top shape: 100 2 1 1 (200)
I1013 14:42:02.969830 19465 net.cpp:148] Top shape: 100 2 1 1 (200)
I1013 14:42:02.969837 19465 net.cpp:148] Top shape: 100 2 1 1 (200)
I1013 14:42:02.969846 19465 net.cpp:148] Top shape: 100 2 1 1 (200)
I1013 14:42:02.969854 19465 net.cpp:148] Top shape: 100 2 1 1 (200)
I1013 14:42:02.969861 19465 net.cpp:148] Top shape: 100 2 1 1 (200)
I1013 14:42:02.969866 19465 net.cpp:148] Top shape: 100 2 1 1 (200)
I1013 14:42:02.969871 19465 net.cpp:148] Top shape: 100 2 1 1 (200)
I1013 14:42:02.969877 19465 net.cpp:148] Top shape: 100 2 1 1 (200)
I1013 14:42:02.969897 19465 net.cpp:148] Top shape: 100 2 1 1 (200)
I1013 14:42:02.969907 19465 net.cpp:148] Top shape: 100 2 1 1 (200)
I1013 14:42:02.969912 19465 net.cpp:148] Top shape: 100 2 1 1 (200)
I1013 14:42:02.969918 19465 net.cpp:148] Top shape: 100 2 1 1 (200)
I1013 14:42:02.969923 19465 net.cpp:148] Top shape: 100 2 1 1 (200)
I1013 14:42:02.969928 19465 net.cpp:148] Top shape: 100 2 1 1 (200)
I1013 14:42:02.969933 19465 net.cpp:148] Top shape: 100 2 1 1 (200)
I1013 14:42:02.969938 19465 net.cpp:148] Top shape: 100 2 1 1 (200)
I1013 14:42:02.969959 19465 net.cpp:148] Top shape: 100 2 1 1 (200)
I1013 14:42:02.969965 19465 net.cpp:148] Top shape: 100 2 1 1 (200)
I1013 14:42:02.969970 19465 net.cpp:148] Top shape: 100 2 1 1 (200)
I1013 14:42:02.969975 19465 net.cpp:148] Top shape: 100 2 1 1 (200)
I1013 14:42:02.969980 19465 net.cpp:148] Top shape: 100 2 1 1 (200)
I1013 14:42:02.969985 19465 net.cpp:148] Top shape: 100 2 1 1 (200)
I1013 14:42:02.969990 19465 net.cpp:148] Top shape: 100 2 1 1 (200)
I1013 14:42:02.969996 19465 net.cpp:148] Top shape: 100 2 1 1 (200)
I1013 14:42:02.970001 19465 net.cpp:148] Top shape: 100 2 1 1 (200)
I1013 14:42:02.970006 19465 net.cpp:148] Top shape: 100 2 1 1 (200)
I1013 14:42:02.970019 19465 net.cpp:148] Top shape: 100 2 1 1 (200)
I1013 14:42:02.970033 19465 net.cpp:148] Top shape: 100 2 1 1 (200)
I1013 14:42:02.970039 19465 net.cpp:148] Top shape: 100 2 1 1 (200)
I1013 14:42:02.970052 19465 net.cpp:148] Top shape: 100 2 1 1 (200)
I1013 14:42:02.970067 19465 net.cpp:148] Top shape: 100 2 1 1 (200)
I1013 14:42:02.970072 19465 net.cpp:148] Top shape: 100 2 1 1 (200)
I1013 14:42:02.970077 19465 net.cpp:148] Top shape: 100 2 1 1 (200)
I1013 14:42:02.970082 19465 net.cpp:148] Top shape: 100 2 1 1 (200)
I1013 14:42:02.970103 19465 net.cpp:148] Top shape: 100 2 1 1 (200)
I1013 14:42:02.970108 19465 net.cpp:148] Top shape: 100 2 1 1 (200)
I1013 14:42:02.970114 19465 net.cpp:148] Top shape: 100 2 1 1 (200)
I1013 14:42:02.970127 19465 net.cpp:148] Top shape: 100 2 1 1 (200)
I1013 14:42:02.970135 19465 net.cpp:156] Memory required for data: 336244000
I1013 14:42:02.970140 19465 layer_factory.hpp:77] Creating layer conv1_bn
I1013 14:42:02.970160 19465 net.cpp:91] Creating Layer conv1_bn
I1013 14:42:02.970186 19465 net.cpp:425] conv1_bn <- conv1
I1013 14:42:02.970212 19465 net.cpp:386] conv1_bn -> conv1 (in-place)
I1013 14:42:02.970438 19465 net.cpp:141] Setting up conv1_bn
I1013 14:42:02.970448 19465 net.cpp:148] Top shape: 100 64 112 112 (80281600)
I1013 14:42:02.970459 19465 net.cpp:156] Memory required for data: 657370400
I1013 14:42:02.970479 19465 layer_factory.hpp:77] Creating layer conv1_scale
I1013 14:42:02.970501 19465 net.cpp:91] Creating Layer conv1_scale
I1013 14:42:02.970540 19465 net.cpp:425] conv1_scale <- conv1
I1013 14:42:02.970547 19465 net.cpp:386] conv1_scale -> conv1 (in-place)
I1013 14:42:02.970602 19465 layer_factory.hpp:77] Creating layer conv1_scale
I1013 14:42:02.970747 19465 net.cpp:141] Setting up conv1_scale
I1013 14:42:02.970770 19465 net.cpp:148] Top shape: 100 64 112 112 (80281600)
I1013 14:42:02.970777 19465 net.cpp:156] Memory required for data: 978496800
I1013 14:42:02.970796 19465 layer_factory.hpp:77] Creating layer prelu1
I1013 14:42:02.970808 19465 net.cpp:91] Creating Layer prelu1
I1013 14:42:02.970813 19465 net.cpp:425] prelu1 <- conv1
I1013 14:42:02.970820 19465 net.cpp:386] prelu1 -> conv1 (in-place)
I1013 14:42:02.973027 19465 net.cpp:141] Setting up prelu1
I1013 14:42:02.973048 19465 net.cpp:148] Top shape: 100 64 112 112 (80281600)
I1013 14:42:02.973054 19465 net.cpp:156] Memory required for data: 1299623200
I1013 14:42:02.973073 19465 layer_factory.hpp:77] Creating layer pool1
I1013 14:42:02.973088 19465 net.cpp:91] Creating Layer pool1
I1013 14:42:02.973095 19465 net.cpp:425] pool1 <- conv1
I1013 14:42:02.973115 19465 net.cpp:399] pool1 -> pool1
I1013 14:42:02.973181 19465 net.cpp:141] Setting up pool1
I1013 14:42:02.973196 19465 net.cpp:148] Top shape: 100 64 56 56 (20070400)
I1013 14:42:02.973201 19465 net.cpp:156] Memory required for data: 1379904800
I1013 14:42:02.973232 19465 layer_factory.hpp:77] Creating layer conv2a
I1013 14:42:02.973250 19465 net.cpp:91] Creating Layer conv2a
I1013 14:42:02.973261 19465 net.cpp:425] conv2a <- pool1
I1013 14:42:02.973282 19465 net.cpp:399] conv2a -> conv2a
I1013 14:42:02.973573 19465 net.cpp:141] Setting up conv2a
I1013 14:42:02.973598 19465 net.cpp:148] Top shape: 100 64 56 56 (20070400)
I1013 14:42:02.973608 19465 net.cpp:156] Memory required for data: 1460186400
I1013 14:42:02.973618 19465 layer_factory.hpp:77] Creating layer conv2a_bn
I1013 14:42:02.973659 19465 net.cpp:91] Creating Layer conv2a_bn
I1013 14:42:02.973665 19465 net.cpp:425] conv2a_bn <- conv2a
I1013 14:42:02.973681 19465 net.cpp:386] conv2a_bn -> conv2a (in-place)
I1013 14:42:02.973891 19465 net.cpp:141] Setting up conv2a_bn
I1013 14:42:02.973920 19465 net.cpp:148] Top shape: 100 64 56 56 (20070400)
I1013 14:42:02.973927 19465 net.cpp:156] Memory required for data: 1540468000
I1013 14:42:02.973947 19465 layer_factory.hpp:77] Creating layer conv2a_scale
I1013 14:42:02.973955 19465 net.cpp:91] Creating Layer conv2a_scale
I1013 14:42:02.973963 19465 net.cpp:425] conv2a_scale <- conv2a
I1013 14:42:02.973970 19465 net.cpp:386] conv2a_scale -> conv2a (in-place)
I1013 14:42:02.974030 19465 layer_factory.hpp:77] Creating layer conv2a_scale
I1013 14:42:02.974187 19465 net.cpp:141] Setting up conv2a_scale
I1013 14:42:02.974197 19465 net.cpp:148] Top shape: 100 64 56 56 (20070400)
I1013 14:42:02.974201 19465 net.cpp:156] Memory required for data: 1620749600
I1013 14:42:02.974210 19465 layer_factory.hpp:77] Creating layer prelu2a
I1013 14:42:02.974216 19465 net.cpp:91] Creating Layer prelu2a
I1013 14:42:02.974221 19465 net.cpp:425] prelu2a <- conv2a
I1013 14:42:02.974228 19465 net.cpp:386] prelu2a -> conv2a (in-place)
I1013 14:42:02.975152 19465 net.cpp:141] Setting up prelu2a
I1013 14:42:02.975193 19465 net.cpp:148] Top shape: 100 64 56 56 (20070400)
I1013 14:42:02.975200 19465 net.cpp:156] Memory required for data: 1701031200
I1013 14:42:02.975208 19465 layer_factory.hpp:77] Creating layer conv2
I1013 14:42:02.975224 19465 net.cpp:91] Creating Layer conv2
I1013 14:42:02.975230 19465 net.cpp:425] conv2 <- conv2a
I1013 14:42:02.975240 19465 net.cpp:399] conv2 -> conv2
I1013 14:42:02.977041 19465 net.cpp:141] Setting up conv2
I1013 14:42:02.977058 19465 net.cpp:148] Top shape: 100 192 56 56 (60211200)
I1013 14:42:02.977063 19465 net.cpp:156] Memory required for data: 1941876000
I1013 14:42:02.977077 19465 layer_factory.hpp:77] Creating layer conv2_bn
I1013 14:42:02.977085 19465 net.cpp:91] Creating Layer conv2_bn
I1013 14:42:02.977090 19465 net.cpp:425] conv2_bn <- conv2
I1013 14:42:02.977097 19465 net.cpp:386] conv2_bn -> conv2 (in-place)
I1013 14:42:02.977293 19465 net.cpp:141] Setting up conv2_bn
I1013 14:42:02.977303 19465 net.cpp:148] Top shape: 100 192 56 56 (60211200)
I1013 14:42:02.977309 19465 net.cpp:156] Memory required for data: 2182720800
I1013 14:42:02.977319 19465 layer_factory.hpp:77] Creating layer conv2_scale
I1013 14:42:02.977329 19465 net.cpp:91] Creating Layer conv2_scale
I1013 14:42:02.977334 19465 net.cpp:425] conv2_scale <- conv2
I1013 14:42:02.977340 19465 net.cpp:386] conv2_scale -> conv2 (in-place)
I1013 14:42:02.977381 19465 layer_factory.hpp:77] Creating layer conv2_scale
I1013 14:42:02.977506 19465 net.cpp:141] Setting up conv2_scale
I1013 14:42:02.977515 19465 net.cpp:148] Top shape: 100 192 56 56 (60211200)
I1013 14:42:02.977520 19465 net.cpp:156] Memory required for data: 2423565600
I1013 14:42:02.977527 19465 layer_factory.hpp:77] Creating layer prelu2
I1013 14:42:02.977535 19465 net.cpp:91] Creating Layer prelu2
I1013 14:42:02.977540 19465 net.cpp:425] prelu2 <- conv2
I1013 14:42:02.977545 19465 net.cpp:386] prelu2 -> conv2 (in-place)
I1013 14:42:02.979226 19465 net.cpp:141] Setting up prelu2
I1013 14:42:02.979244 19465 net.cpp:148] Top shape: 100 192 56 56 (60211200)
I1013 14:42:02.979249 19465 net.cpp:156] Memory required for data: 2664410400
I1013 14:42:02.979256 19465 layer_factory.hpp:77] Creating layer pool2
I1013 14:42:02.979281 19465 net.cpp:91] Creating Layer pool2
I1013 14:42:02.979287 19465 net.cpp:425] pool2 <- conv2
I1013 14:42:02.979297 19465 net.cpp:399] pool2 -> pool2
I1013 14:42:02.979342 19465 net.cpp:141] Setting up pool2
I1013 14:42:02.979351 19465 net.cpp:148] Top shape: 100 192 28 28 (15052800)
I1013 14:42:02.979354 19465 net.cpp:156] Memory required for data: 2724621600
I1013 14:42:02.979358 19465 layer_factory.hpp:77] Creating layer conv3a
I1013 14:42:02.979370 19465 net.cpp:91] Creating Layer conv3a
I1013 14:42:02.979377 19465 net.cpp:425] conv3a <- pool2
I1013 14:42:02.979384 19465 net.cpp:399] conv3a -> conv3a
I1013 14:42:02.980578 19465 net.cpp:141] Setting up conv3a
I1013 14:42:02.980597 19465 net.cpp:148] Top shape: 100 192 28 28 (15052800)
I1013 14:42:02.980602 19465 net.cpp:156] Memory required for data: 2784832800
I1013 14:42:02.980609 19465 layer_factory.hpp:77] Creating layer conv3a_bn
I1013 14:42:02.980618 19465 net.cpp:91] Creating Layer conv3a_bn
I1013 14:42:02.980623 19465 net.cpp:425] conv3a_bn <- conv3a
I1013 14:42:02.980630 19465 net.cpp:386] conv3a_bn -> conv3a (in-place)
I1013 14:42:02.980825 19465 net.cpp:141] Setting up conv3a_bn
I1013 14:42:02.980835 19465 net.cpp:148] Top shape: 100 192 28 28 (15052800)
I1013 14:42:02.980840 19465 net.cpp:156] Memory required for data: 2845044000
I1013 14:42:02.980850 19465 layer_factory.hpp:77] Creating layer conv3a_scale
I1013 14:42:02.980859 19465 net.cpp:91] Creating Layer conv3a_scale
I1013 14:42:02.980864 19465 net.cpp:425] conv3a_scale <- conv3a
I1013 14:42:02.980870 19465 net.cpp:386] conv3a_scale -> conv3a (in-place)
I1013 14:42:02.980911 19465 layer_factory.hpp:77] Creating layer conv3a_scale
I1013 14:42:02.981032 19465 net.cpp:141] Setting up conv3a_scale
I1013 14:42:02.981041 19465 net.cpp:148] Top shape: 100 192 28 28 (15052800)
I1013 14:42:02.981045 19465 net.cpp:156] Memory required for data: 2905255200
I1013 14:42:02.981053 19465 layer_factory.hpp:77] Creating layer prelu3a
I1013 14:42:02.981060 19465 net.cpp:91] Creating Layer prelu3a
I1013 14:42:02.981065 19465 net.cpp:425] prelu3a <- conv3a
I1013 14:42:02.981072 19465 net.cpp:386] prelu3a -> conv3a (in-place)
I1013 14:42:02.981273 19465 net.cpp:141] Setting up prelu3a
I1013 14:42:02.981283 19465 net.cpp:148] Top shape: 100 192 28 28 (15052800)
I1013 14:42:02.981287 19465 net.cpp:156] Memory required for data: 2965466400
I1013 14:42:02.981293 19465 layer_factory.hpp:77] Creating layer conv3
I1013 14:42:02.981305 19465 net.cpp:91] Creating Layer conv3
I1013 14:42:02.981310 19465 net.cpp:425] conv3 <- conv3a
I1013 14:42:02.981319 19465 net.cpp:399] conv3 -> conv3
I1013 14:42:02.988226 19465 net.cpp:141] Setting up conv3
I1013 14:42:02.988245 19465 net.cpp:148] Top shape: 100 384 28 28 (30105600)
I1013 14:42:02.988250 19465 net.cpp:156] Memory required for data: 3085888800
I1013 14:42:02.988265 19465 layer_factory.hpp:77] Creating layer conv3_bn
I1013 14:42:02.988273 19465 net.cpp:91] Creating Layer conv3_bn
I1013 14:42:02.988278 19465 net.cpp:425] conv3_bn <- conv3
I1013 14:42:02.988286 19465 net.cpp:386] conv3_bn -> conv3 (in-place)
I1013 14:42:02.988474 19465 net.cpp:141] Setting up conv3_bn
I1013 14:42:02.988484 19465 net.cpp:148] Top shape: 100 384 28 28 (30105600)
I1013 14:42:02.988488 19465 net.cpp:156] Memory required for data: 3206311200
I1013 14:42:02.988498 19465 layer_factory.hpp:77] Creating layer conv3_scale
I1013 14:42:02.988507 19465 net.cpp:91] Creating Layer conv3_scale
I1013 14:42:02.988510 19465 net.cpp:425] conv3_scale <- conv3
I1013 14:42:02.988518 19465 net.cpp:386] conv3_scale -> conv3 (in-place)
I1013 14:42:02.988560 19465 layer_factory.hpp:77] Creating layer conv3_scale
I1013 14:42:02.988670 19465 net.cpp:141] Setting up conv3_scale
I1013 14:42:02.988679 19465 net.cpp:148] Top shape: 100 384 28 28 (30105600)
I1013 14:42:02.988683 19465 net.cpp:156] Memory required for data: 3326733600
I1013 14:42:02.988690 19465 layer_factory.hpp:77] Creating layer prelu3
I1013 14:42:02.988710 19465 net.cpp:91] Creating Layer prelu3
I1013 14:42:02.988715 19465 net.cpp:425] prelu3 <- conv3
I1013 14:42:02.988735 19465 net.cpp:386] prelu3 -> conv3 (in-place)
I1013 14:42:02.989863 19465 net.cpp:141] Setting up prelu3
I1013 14:42:02.989881 19465 net.cpp:148] Top shape: 100 384 28 28 (30105600)
I1013 14:42:02.989886 19465 net.cpp:156] Memory required for data: 3447156000
I1013 14:42:02.989892 19465 layer_factory.hpp:77] Creating layer pool3
I1013 14:42:02.989902 19465 net.cpp:91] Creating Layer pool3
I1013 14:42:02.989907 19465 net.cpp:425] pool3 <- conv3
I1013 14:42:02.989915 19465 net.cpp:399] pool3 -> pool3
I1013 14:42:02.989958 19465 net.cpp:141] Setting up pool3
I1013 14:42:02.989964 19465 net.cpp:148] Top shape: 100 384 14 14 (7526400)
I1013 14:42:02.989969 19465 net.cpp:156] Memory required for data: 3477261600
I1013 14:42:02.989972 19465 layer_factory.hpp:77] Creating layer pool3_pool3_0_split
I1013 14:42:02.989981 19465 net.cpp:91] Creating Layer pool3_pool3_0_split
I1013 14:42:02.989986 19465 net.cpp:425] pool3_pool3_0_split <- pool3
I1013 14:42:02.989995 19465 net.cpp:399] pool3_pool3_0_split -> pool3_pool3_0_split_0
I1013 14:42:02.990002 19465 net.cpp:399] pool3_pool3_0_split -> pool3_pool3_0_split_1
I1013 14:42:02.990010 19465 net.cpp:399] pool3_pool3_0_split -> pool3_pool3_0_split_2
I1013 14:42:02.990020 19465 net.cpp:399] pool3_pool3_0_split -> pool3_pool3_0_split_3
I1013 14:42:02.990026 19465 net.cpp:399] pool3_pool3_0_split -> pool3_pool3_0_split_4
I1013 14:42:02.990033 19465 net.cpp:399] pool3_pool3_0_split -> pool3_pool3_0_split_5
I1013 14:42:02.990123 19465 net.cpp:141] Setting up pool3_pool3_0_split
I1013 14:42:02.990140 19465 net.cpp:148] Top shape: 100 384 14 14 (7526400)
I1013 14:42:02.990145 19465 net.cpp:148] Top shape: 100 384 14 14 (7526400)
I1013 14:42:02.990151 19465 net.cpp:148] Top shape: 100 384 14 14 (7526400)
I1013 14:42:02.990156 19465 net.cpp:148] Top shape: 100 384 14 14 (7526400)
I1013 14:42:02.990161 19465 net.cpp:148] Top shape: 100 384 14 14 (7526400)
I1013 14:42:02.990165 19465 net.cpp:148] Top shape: 100 384 14 14 (7526400)
I1013 14:42:02.990170 19465 net.cpp:156] Memory required for data: 3657895200
I1013 14:42:02.990173 19465 layer_factory.hpp:77] Creating layer conv3_gender
I1013 14:42:02.990186 19465 net.cpp:91] Creating Layer conv3_gender
I1013 14:42:02.990191 19465 net.cpp:425] conv3_gender <- pool3_pool3_0_split_0
I1013 14:42:02.990201 19465 net.cpp:399] conv3_gender -> conv3_gender
I1013 14:42:03.000740 19465 net.cpp:141] Setting up conv3_gender
I1013 14:42:03.000758 19465 net.cpp:148] Top shape: 100 300 7 7 (1470000)
I1013 14:42:03.000764 19465 net.cpp:156] Memory required for data: 3663775200
I1013 14:42:03.000772 19465 layer_factory.hpp:77] Creating layer conv3_gender_bn
I1013 14:42:03.000782 19465 net.cpp:91] Creating Layer conv3_gender_bn
I1013 14:42:03.000789 19465 net.cpp:425] conv3_gender_bn <- conv3_gender
I1013 14:42:03.000797 19465 net.cpp:386] conv3_gender_bn -> conv3_gender (in-place)
I1013 14:42:03.000995 19465 net.cpp:141] Setting up conv3_gender_bn
I1013 14:42:03.001005 19465 net.cpp:148] Top shape: 100 300 7 7 (1470000)
I1013 14:42:03.001010 19465 net.cpp:156] Memory required for data: 3669655200
I1013 14:42:03.001020 19465 layer_factory.hpp:77] Creating layer conv3_gender_scale
I1013 14:42:03.001029 19465 net.cpp:91] Creating Layer conv3_gender_scale
I1013 14:42:03.001034 19465 net.cpp:425] conv3_gender_scale <- conv3_gender
I1013 14:42:03.001040 19465 net.cpp:386] conv3_gender_scale -> conv3_gender (in-place)
I1013 14:42:03.001083 19465 layer_factory.hpp:77] Creating layer conv3_gender_scale
I1013 14:42:03.001204 19465 net.cpp:141] Setting up conv3_gender_scale
I1013 14:42:03.001212 19465 net.cpp:148] Top shape: 100 300 7 7 (1470000)
I1013 14:42:03.001217 19465 net.cpp:156] Memory required for data: 3675535200
I1013 14:42:03.001224 19465 layer_factory.hpp:77] Creating layer prelu3_gender
I1013 14:42:03.001231 19465 net.cpp:91] Creating Layer prelu3_gender
I1013 14:42:03.001236 19465 net.cpp:425] prelu3_gender <- conv3_gender
I1013 14:42:03.001242 19465 net.cpp:386] prelu3_gender -> conv3_gender (in-place)
I1013 14:42:03.001363 19465 net.cpp:141] Setting up prelu3_gender
I1013 14:42:03.001374 19465 net.cpp:148] Top shape: 100 300 7 7 (1470000)
I1013 14:42:03.001379 19465 net.cpp:156] Memory required for data: 3681415200
I1013 14:42:03.001384 19465 layer_factory.hpp:77] Creating layer pool3_gender
I1013 14:42:03.001392 19465 net.cpp:91] Creating Layer pool3_gender
I1013 14:42:03.001397 19465 net.cpp:425] pool3_gender <- conv3_gender
I1013 14:42:03.001405 19465 net.cpp:399] pool3_gender -> pool3_gender
I1013 14:42:03.001444 19465 net.cpp:141] Setting up pool3_gender
I1013 14:42:03.001452 19465 net.cpp:148] Top shape: 100 300 4 4 (480000)
I1013 14:42:03.001456 19465 net.cpp:156] Memory required for data: 3683335200
I1013 14:42:03.001461 19465 layer_factory.hpp:77] Creating layer fc1_gender
I1013 14:42:03.001474 19465 net.cpp:91] Creating Layer fc1_gender
I1013 14:42:03.001479 19465 net.cpp:425] fc1_gender <- pool3_gender
I1013 14:42:03.001488 19465 net.cpp:399] fc1_gender -> fc1_gender
I1013 14:42:03.025686 19465 net.cpp:141] Setting up fc1_gender
I1013 14:42:03.025709 19465 net.cpp:148] Top shape: 100 512 (51200)
I1013 14:42:03.025714 19465 net.cpp:156] Memory required for data: 3683540000
I1013 14:42:03.025724 19465 layer_factory.hpp:77] Creating layer relu1_gender
I1013 14:42:03.025734 19465 net.cpp:91] Creating Layer relu1_gender
I1013 14:42:03.025740 19465 net.cpp:425] relu1_gender <- fc1_gender
I1013 14:42:03.025748 19465 net.cpp:386] relu1_gender -> fc1_gender (in-place)
I1013 14:42:03.025758 19465 net.cpp:141] Setting up relu1_gender
I1013 14:42:03.025763 19465 net.cpp:148] Top shape: 100 512 (51200)
I1013 14:42:03.025768 19465 net.cpp:156] Memory required for data: 3683744800
I1013 14:42:03.025771 19465 layer_factory.hpp:77] Creating layer drop1_gender
I1013 14:42:03.025780 19465 net.cpp:91] Creating Layer drop1_gender
I1013 14:42:03.025785 19465 net.cpp:425] drop1_gender <- fc1_gender
I1013 14:42:03.025792 19465 net.cpp:386] drop1_gender -> fc1_gender (in-place)
I1013 14:42:03.025828 19465 net.cpp:141] Setting up drop1_gender
I1013 14:42:03.025835 19465 net.cpp:148] Top shape: 100 512 (51200)
I1013 14:42:03.025840 19465 net.cpp:156] Memory required for data: 3683949600
I1013 14:42:03.025843 19465 layer_factory.hpp:77] Creating layer fc2_gender
I1013 14:42:03.025851 19465 net.cpp:91] Creating Layer fc2_gender
I1013 14:42:03.025856 19465 net.cpp:425] fc2_gender <- fc1_gender
I1013 14:42:03.025863 19465 net.cpp:399] fc2_gender -> fc2_gender
I1013 14:42:03.030200 19465 net.cpp:141] Setting up fc2_gender
I1013 14:42:03.030217 19465 net.cpp:148] Top shape: 100 512 (51200)
I1013 14:42:03.030222 19465 net.cpp:156] Memory required for data: 3684154400
I1013 14:42:03.030231 19465 layer_factory.hpp:77] Creating layer relu2_gender
I1013 14:42:03.030239 19465 net.cpp:91] Creating Layer relu2_gender
I1013 14:42:03.030244 19465 net.cpp:425] relu2_gender <- fc2_gender
I1013 14:42:03.030252 19465 net.cpp:386] relu2_gender -> fc2_gender (in-place)
I1013 14:42:03.030261 19465 net.cpp:141] Setting up relu2_gender
I1013 14:42:03.030267 19465 net.cpp:148] Top shape: 100 512 (51200)
I1013 14:42:03.030270 19465 net.cpp:156] Memory required for data: 3684359200
I1013 14:42:03.030274 19465 layer_factory.hpp:77] Creating layer drop2_gender
I1013 14:42:03.030282 19465 net.cpp:91] Creating Layer drop2_gender
I1013 14:42:03.030287 19465 net.cpp:425] drop2_gender <- fc2_gender
I1013 14:42:03.030293 19465 net.cpp:386] drop2_gender -> fc2_gender (in-place)
I1013 14:42:03.030318 19465 net.cpp:141] Setting up drop2_gender
I1013 14:42:03.030325 19465 net.cpp:148] Top shape: 100 512 (51200)
I1013 14:42:03.030329 19465 net.cpp:156] Memory required for data: 3684564000
I1013 14:42:03.030333 19465 layer_factory.hpp:77] Creating layer conv3_nose
I1013 14:42:03.030346 19465 net.cpp:91] Creating Layer conv3_nose
I1013 14:42:03.030352 19465 net.cpp:425] conv3_nose <- pool3_pool3_0_split_1
I1013 14:42:03.030361 19465 net.cpp:399] conv3_nose -> conv3_nose
I1013 14:42:03.040956 19465 net.cpp:141] Setting up conv3_nose
I1013 14:42:03.040976 19465 net.cpp:148] Top shape: 100 300 7 7 (1470000)
I1013 14:42:03.040998 19465 net.cpp:156] Memory required for data: 3690444000
I1013 14:42:03.041007 19465 layer_factory.hpp:77] Creating layer conv3_nose_bn
I1013 14:42:03.041018 19465 net.cpp:91] Creating Layer conv3_nose_bn
I1013 14:42:03.041023 19465 net.cpp:425] conv3_nose_bn <- conv3_nose
I1013 14:42:03.041031 19465 net.cpp:386] conv3_nose_bn -> conv3_nose (in-place)
I1013 14:42:03.041244 19465 net.cpp:141] Setting up conv3_nose_bn
I1013 14:42:03.041256 19465 net.cpp:148] Top shape: 100 300 7 7 (1470000)
I1013 14:42:03.041260 19465 net.cpp:156] Memory required for data: 3696324000
I1013 14:42:03.041271 19465 layer_factory.hpp:77] Creating layer conv3_nose_scale
I1013 14:42:03.041280 19465 net.cpp:91] Creating Layer conv3_nose_scale
I1013 14:42:03.041285 19465 net.cpp:425] conv3_nose_scale <- conv3_nose
I1013 14:42:03.041292 19465 net.cpp:386] conv3_nose_scale -> conv3_nose (in-place)
I1013 14:42:03.041338 19465 layer_factory.hpp:77] Creating layer conv3_nose_scale
I1013 14:42:03.041462 19465 net.cpp:141] Setting up conv3_nose_scale
I1013 14:42:03.041471 19465 net.cpp:148] Top shape: 100 300 7 7 (1470000)
I1013 14:42:03.041476 19465 net.cpp:156] Memory required for data: 3702204000
I1013 14:42:03.041483 19465 layer_factory.hpp:77] Creating layer prelu3_nose
I1013 14:42:03.041491 19465 net.cpp:91] Creating Layer prelu3_nose
I1013 14:42:03.041496 19465 net.cpp:425] prelu3_nose <- conv3_nose
I1013 14:42:03.041502 19465 net.cpp:386] prelu3_nose -> conv3_nose (in-place)
I1013 14:42:03.041616 19465 net.cpp:141] Setting up prelu3_nose
I1013 14:42:03.041626 19465 net.cpp:148] Top shape: 100 300 7 7 (1470000)
I1013 14:42:03.041630 19465 net.cpp:156] Memory required for data: 3708084000
I1013 14:42:03.041636 19465 layer_factory.hpp:77] Creating layer pool3_nose
I1013 14:42:03.041645 19465 net.cpp:91] Creating Layer pool3_nose
I1013 14:42:03.041649 19465 net.cpp:425] pool3_nose <- conv3_nose
I1013 14:42:03.041656 19465 net.cpp:399] pool3_nose -> pool3_nose
I1013 14:42:03.041697 19465 net.cpp:141] Setting up pool3_nose
I1013 14:42:03.041705 19465 net.cpp:148] Top shape: 100 300 4 4 (480000)
I1013 14:42:03.041709 19465 net.cpp:156] Memory required for data: 3710004000
I1013 14:42:03.041713 19465 layer_factory.hpp:77] Creating layer fc1_nose
I1013 14:42:03.041723 19465 net.cpp:91] Creating Layer fc1_nose
I1013 14:42:03.041728 19465 net.cpp:425] fc1_nose <- pool3_nose
I1013 14:42:03.041735 19465 net.cpp:399] fc1_nose -> fc1_nose
I1013 14:42:03.065901 19465 net.cpp:141] Setting up fc1_nose
I1013 14:42:03.065922 19465 net.cpp:148] Top shape: 100 512 (51200)
I1013 14:42:03.065927 19465 net.cpp:156] Memory required for data: 3710208800
I1013 14:42:03.065937 19465 layer_factory.hpp:77] Creating layer relu1_nose
I1013 14:42:03.065946 19465 net.cpp:91] Creating Layer relu1_nose
I1013 14:42:03.065951 19465 net.cpp:425] relu1_nose <- fc1_nose
I1013 14:42:03.065959 19465 net.cpp:386] relu1_nose -> fc1_nose (in-place)
I1013 14:42:03.065968 19465 net.cpp:141] Setting up relu1_nose
I1013 14:42:03.065973 19465 net.cpp:148] Top shape: 100 512 (51200)
I1013 14:42:03.065978 19465 net.cpp:156] Memory required for data: 3710413600
I1013 14:42:03.065981 19465 layer_factory.hpp:77] Creating layer drop1_nose
I1013 14:42:03.065989 19465 net.cpp:91] Creating Layer drop1_nose
I1013 14:42:03.065994 19465 net.cpp:425] drop1_nose <- fc1_nose
I1013 14:42:03.066000 19465 net.cpp:386] drop1_nose -> fc1_nose (in-place)
I1013 14:42:03.066027 19465 net.cpp:141] Setting up drop1_nose
I1013 14:42:03.066035 19465 net.cpp:148] Top shape: 100 512 (51200)
I1013 14:42:03.066040 19465 net.cpp:156] Memory required for data: 3710618400
I1013 14:42:03.066043 19465 layer_factory.hpp:77] Creating layer fc2_nose
I1013 14:42:03.066051 19465 net.cpp:91] Creating Layer fc2_nose
I1013 14:42:03.066056 19465 net.cpp:425] fc2_nose <- fc1_nose
I1013 14:42:03.066063 19465 net.cpp:399] fc2_nose -> fc2_nose
I1013 14:42:03.068955 19465 net.cpp:141] Setting up fc2_nose
I1013 14:42:03.068974 19465 net.cpp:148] Top shape: 100 512 (51200)
I1013 14:42:03.068979 19465 net.cpp:156] Memory required for data: 3710823200
I1013 14:42:03.069001 19465 layer_factory.hpp:77] Creating layer relu2_nose
I1013 14:42:03.069010 19465 net.cpp:91] Creating Layer relu2_nose
I1013 14:42:03.069015 19465 net.cpp:425] relu2_nose <- fc2_nose
I1013 14:42:03.069023 19465 net.cpp:386] relu2_nose -> fc2_nose (in-place)
I1013 14:42:03.069031 19465 net.cpp:141] Setting up relu2_nose
I1013 14:42:03.069037 19465 net.cpp:148] Top shape: 100 512 (51200)
I1013 14:42:03.069041 19465 net.cpp:156] Memory required for data: 3711028000
I1013 14:42:03.069046 19465 layer_factory.hpp:77] Creating layer drop2_nose
I1013 14:42:03.069052 19465 net.cpp:91] Creating Layer drop2_nose
I1013 14:42:03.069056 19465 net.cpp:425] drop2_nose <- fc2_nose
I1013 14:42:03.069063 19465 net.cpp:386] drop2_nose -> fc2_nose (in-place)
I1013 14:42:03.069090 19465 net.cpp:141] Setting up drop2_nose
I1013 14:42:03.069097 19465 net.cpp:148] Top shape: 100 512 (51200)
I1013 14:42:03.069102 19465 net.cpp:156] Memory required for data: 3711232800
I1013 14:42:03.069105 19465 layer_factory.hpp:77] Creating layer fc2_nose_drop2_nose_0_split
I1013 14:42:03.069113 19465 net.cpp:91] Creating Layer fc2_nose_drop2_nose_0_split
I1013 14:42:03.069118 19465 net.cpp:425] fc2_nose_drop2_nose_0_split <- fc2_nose
I1013 14:42:03.069125 19465 net.cpp:399] fc2_nose_drop2_nose_0_split -> fc2_nose_drop2_nose_0_split_0
I1013 14:42:03.069133 19465 net.cpp:399] fc2_nose_drop2_nose_0_split -> fc2_nose_drop2_nose_0_split_1
I1013 14:42:03.069170 19465 net.cpp:141] Setting up fc2_nose_drop2_nose_0_split
I1013 14:42:03.069177 19465 net.cpp:148] Top shape: 100 512 (51200)
I1013 14:42:03.069182 19465 net.cpp:148] Top shape: 100 512 (51200)
I1013 14:42:03.069186 19465 net.cpp:156] Memory required for data: 3711642400
I1013 14:42:03.069190 19465 layer_factory.hpp:77] Creating layer conv3_mouth
I1013 14:42:03.069203 19465 net.cpp:91] Creating Layer conv3_mouth
I1013 14:42:03.069209 19465 net.cpp:425] conv3_mouth <- pool3_pool3_0_split_2
I1013 14:42:03.069221 19465 net.cpp:399] conv3_mouth -> conv3_mouth
I1013 14:42:03.079726 19465 net.cpp:141] Setting up conv3_mouth
I1013 14:42:03.079744 19465 net.cpp:148] Top shape: 100 300 7 7 (1470000)
I1013 14:42:03.079749 19465 net.cpp:156] Memory required for data: 3717522400
I1013 14:42:03.079773 19465 layer_factory.hpp:77] Creating layer conv3_mouth_bn
I1013 14:42:03.079783 19465 net.cpp:91] Creating Layer conv3_mouth_bn
I1013 14:42:03.079789 19465 net.cpp:425] conv3_mouth_bn <- conv3_mouth
I1013 14:42:03.079797 19465 net.cpp:386] conv3_mouth_bn -> conv3_mouth (in-place)
I1013 14:42:03.080013 19465 net.cpp:141] Setting up conv3_mouth_bn
I1013 14:42:03.080025 19465 net.cpp:148] Top shape: 100 300 7 7 (1470000)
I1013 14:42:03.080030 19465 net.cpp:156] Memory required for data: 3723402400
I1013 14:42:03.080040 19465 layer_factory.hpp:77] Creating layer conv3_mouth_scale
I1013 14:42:03.080049 19465 net.cpp:91] Creating Layer conv3_mouth_scale
I1013 14:42:03.080054 19465 net.cpp:425] conv3_mouth_scale <- conv3_mouth
I1013 14:42:03.080061 19465 net.cpp:386] conv3_mouth_scale -> conv3_mouth (in-place)
I1013 14:42:03.080111 19465 layer_factory.hpp:77] Creating layer conv3_mouth_scale
I1013 14:42:03.080236 19465 net.cpp:141] Setting up conv3_mouth_scale
I1013 14:42:03.080246 19465 net.cpp:148] Top shape: 100 300 7 7 (1470000)
I1013 14:42:03.080250 19465 net.cpp:156] Memory required for data: 3729282400
I1013 14:42:03.080257 19465 layer_factory.hpp:77] Creating layer prelu3_mouth
I1013 14:42:03.080265 19465 net.cpp:91] Creating Layer prelu3_mouth
I1013 14:42:03.080270 19465 net.cpp:425] prelu3_mouth <- conv3_mouth
I1013 14:42:03.080276 19465 net.cpp:386] prelu3_mouth -> conv3_mouth (in-place)
I1013 14:42:03.080394 19465 net.cpp:141] Setting up prelu3_mouth
I1013 14:42:03.080404 19465 net.cpp:148] Top shape: 100 300 7 7 (1470000)
I1013 14:42:03.080409 19465 net.cpp:156] Memory required for data: 3735162400
I1013 14:42:03.080413 19465 layer_factory.hpp:77] Creating layer pool3_mouth
I1013 14:42:03.080421 19465 net.cpp:91] Creating Layer pool3_mouth
I1013 14:42:03.080440 19465 net.cpp:425] pool3_mouth <- conv3_mouth
I1013 14:42:03.080449 19465 net.cpp:399] pool3_mouth -> pool3_mouth
I1013 14:42:03.080492 19465 net.cpp:141] Setting up pool3_mouth
I1013 14:42:03.080502 19465 net.cpp:148] Top shape: 100 300 4 4 (480000)
I1013 14:42:03.080507 19465 net.cpp:156] Memory required for data: 3737082400
I1013 14:42:03.080510 19465 layer_factory.hpp:77] Creating layer fc1_mouth
I1013 14:42:03.080519 19465 net.cpp:91] Creating Layer fc1_mouth
I1013 14:42:03.080524 19465 net.cpp:425] fc1_mouth <- pool3_mouth
I1013 14:42:03.080533 19465 net.cpp:399] fc1_mouth -> fc1_mouth
I1013 14:42:03.104742 19465 net.cpp:141] Setting up fc1_mouth
I1013 14:42:03.104763 19465 net.cpp:148] Top shape: 100 512 (51200)
I1013 14:42:03.104768 19465 net.cpp:156] Memory required for data: 3737287200
I1013 14:42:03.104779 19465 layer_factory.hpp:77] Creating layer relu1_mouth
I1013 14:42:03.104789 19465 net.cpp:91] Creating Layer relu1_mouth
I1013 14:42:03.104795 19465 net.cpp:425] relu1_mouth <- fc1_mouth
I1013 14:42:03.104804 19465 net.cpp:386] relu1_mouth -> fc1_mouth (in-place)
I1013 14:42:03.104813 19465 net.cpp:141] Setting up relu1_mouth
I1013 14:42:03.104818 19465 net.cpp:148] Top shape: 100 512 (51200)
I1013 14:42:03.104822 19465 net.cpp:156] Memory required for data: 3737492000
I1013 14:42:03.104826 19465 layer_factory.hpp:77] Creating layer drop1_mouth
I1013 14:42:03.104835 19465 net.cpp:91] Creating Layer drop1_mouth
I1013 14:42:03.104840 19465 net.cpp:425] drop1_mouth <- fc1_mouth
I1013 14:42:03.104846 19465 net.cpp:386] drop1_mouth -> fc1_mouth (in-place)
I1013 14:42:03.104874 19465 net.cpp:141] Setting up drop1_mouth
I1013 14:42:03.104882 19465 net.cpp:148] Top shape: 100 512 (51200)
I1013 14:42:03.104885 19465 net.cpp:156] Memory required for data: 3737696800
I1013 14:42:03.104889 19465 layer_factory.hpp:77] Creating layer fc2_mouth
I1013 14:42:03.104903 19465 net.cpp:91] Creating Layer fc2_mouth
I1013 14:42:03.104908 19465 net.cpp:425] fc2_mouth <- fc1_mouth
I1013 14:42:03.104917 19465 net.cpp:399] fc2_mouth -> fc2_mouth
I1013 14:42:03.108006 19465 net.cpp:141] Setting up fc2_mouth
I1013 14:42:03.108023 19465 net.cpp:148] Top shape: 100 512 (51200)
I1013 14:42:03.108027 19465 net.cpp:156] Memory required for data: 3737901600
I1013 14:42:03.108036 19465 layer_factory.hpp:77] Creating layer relu2_mouth
I1013 14:42:03.108044 19465 net.cpp:91] Creating Layer relu2_mouth
I1013 14:42:03.108052 19465 net.cpp:425] relu2_mouth <- fc2_mouth
I1013 14:42:03.108058 19465 net.cpp:386] relu2_mouth -> fc2_mouth (in-place)
I1013 14:42:03.108067 19465 net.cpp:141] Setting up relu2_mouth
I1013 14:42:03.108073 19465 net.cpp:148] Top shape: 100 512 (51200)
I1013 14:42:03.108078 19465 net.cpp:156] Memory required for data: 3738106400
I1013 14:42:03.108081 19465 layer_factory.hpp:77] Creating layer drop2_mouth
I1013 14:42:03.108088 19465 net.cpp:91] Creating Layer drop2_mouth
I1013 14:42:03.108093 19465 net.cpp:425] drop2_mouth <- fc2_mouth
I1013 14:42:03.108100 19465 net.cpp:386] drop2_mouth -> fc2_mouth (in-place)
I1013 14:42:03.108125 19465 net.cpp:141] Setting up drop2_mouth
I1013 14:42:03.108132 19465 net.cpp:148] Top shape: 100 512 (51200)
I1013 14:42:03.108136 19465 net.cpp:156] Memory required for data: 3738311200
I1013 14:42:03.108140 19465 layer_factory.hpp:77] Creating layer fc2_mouth_drop2_mouth_0_split
I1013 14:42:03.108149 19465 net.cpp:91] Creating Layer fc2_mouth_drop2_mouth_0_split
I1013 14:42:03.108152 19465 net.cpp:425] fc2_mouth_drop2_mouth_0_split <- fc2_mouth
I1013 14:42:03.108160 19465 net.cpp:399] fc2_mouth_drop2_mouth_0_split -> fc2_mouth_drop2_mouth_0_split_0
I1013 14:42:03.108170 19465 net.cpp:399] fc2_mouth_drop2_mouth_0_split -> fc2_mouth_drop2_mouth_0_split_1
I1013 14:42:03.108178 19465 net.cpp:399] fc2_mouth_drop2_mouth_0_split -> fc2_mouth_drop2_mouth_0_split_2
I1013 14:42:03.108187 19465 net.cpp:399] fc2_mouth_drop2_mouth_0_split -> fc2_mouth_drop2_mouth_0_split_3
I1013 14:42:03.108247 19465 net.cpp:141] Setting up fc2_mouth_drop2_mouth_0_split
I1013 14:42:03.108266 19465 net.cpp:148] Top shape: 100 512 (51200)
I1013 14:42:03.108285 19465 net.cpp:148] Top shape: 100 512 (51200)
I1013 14:42:03.108291 19465 net.cpp:148] Top shape: 100 512 (51200)
I1013 14:42:03.108296 19465 net.cpp:148] Top shape: 100 512 (51200)
I1013 14:42:03.108300 19465 net.cpp:156] Memory required for data: 3739130400
I1013 14:42:03.108304 19465 layer_factory.hpp:77] Creating layer conv3_eyes
I1013 14:42:03.108317 19465 net.cpp:91] Creating Layer conv3_eyes
I1013 14:42:03.108325 19465 net.cpp:425] conv3_eyes <- pool3_pool3_0_split_3
I1013 14:42:03.108333 19465 net.cpp:399] conv3_eyes -> conv3_eyes
I1013 14:42:03.118847 19465 net.cpp:141] Setting up conv3_eyes
I1013 14:42:03.118865 19465 net.cpp:148] Top shape: 100 300 7 7 (1470000)
I1013 14:42:03.118870 19465 net.cpp:156] Memory required for data: 3745010400
I1013 14:42:03.118880 19465 layer_factory.hpp:77] Creating layer conv3_eyes_bn
I1013 14:42:03.118888 19465 net.cpp:91] Creating Layer conv3_eyes_bn
I1013 14:42:03.118894 19465 net.cpp:425] conv3_eyes_bn <- conv3_eyes
I1013 14:42:03.118901 19465 net.cpp:386] conv3_eyes_bn -> conv3_eyes (in-place)
I1013 14:42:03.119109 19465 net.cpp:141] Setting up conv3_eyes_bn
I1013 14:42:03.119120 19465 net.cpp:148] Top shape: 100 300 7 7 (1470000)
I1013 14:42:03.119124 19465 net.cpp:156] Memory required for data: 3750890400
I1013 14:42:03.119134 19465 layer_factory.hpp:77] Creating layer conv3_eyes_scale
I1013 14:42:03.119153 19465 net.cpp:91] Creating Layer conv3_eyes_scale
I1013 14:42:03.119158 19465 net.cpp:425] conv3_eyes_scale <- conv3_eyes
I1013 14:42:03.119165 19465 net.cpp:386] conv3_eyes_scale -> conv3_eyes (in-place)
I1013 14:42:03.119225 19465 layer_factory.hpp:77] Creating layer conv3_eyes_scale
I1013 14:42:03.119357 19465 net.cpp:141] Setting up conv3_eyes_scale
I1013 14:42:03.119367 19465 net.cpp:148] Top shape: 100 300 7 7 (1470000)
I1013 14:42:03.119371 19465 net.cpp:156] Memory required for data: 3756770400
I1013 14:42:03.119380 19465 layer_factory.hpp:77] Creating layer prelu3_eyes
I1013 14:42:03.119388 19465 net.cpp:91] Creating Layer prelu3_eyes
I1013 14:42:03.119392 19465 net.cpp:425] prelu3_eyes <- conv3_eyes
I1013 14:42:03.119400 19465 net.cpp:386] prelu3_eyes -> conv3_eyes (in-place)
I1013 14:42:03.119518 19465 net.cpp:141] Setting up prelu3_eyes
I1013 14:42:03.119527 19465 net.cpp:148] Top shape: 100 300 7 7 (1470000)
I1013 14:42:03.119542 19465 net.cpp:156] Memory required for data: 3762650400
I1013 14:42:03.119549 19465 layer_factory.hpp:77] Creating layer pool3_eyes
I1013 14:42:03.119559 19465 net.cpp:91] Creating Layer pool3_eyes
I1013 14:42:03.119563 19465 net.cpp:425] pool3_eyes <- conv3_eyes
I1013 14:42:03.119570 19465 net.cpp:399] pool3_eyes -> pool3_eyes
I1013 14:42:03.119614 19465 net.cpp:141] Setting up pool3_eyes
I1013 14:42:03.119623 19465 net.cpp:148] Top shape: 100 300 4 4 (480000)
I1013 14:42:03.119627 19465 net.cpp:156] Memory required for data: 3764570400
I1013 14:42:03.119632 19465 layer_factory.hpp:77] Creating layer fc1_eyes
I1013 14:42:03.119640 19465 net.cpp:91] Creating Layer fc1_eyes
I1013 14:42:03.119645 19465 net.cpp:425] fc1_eyes <- pool3_eyes
I1013 14:42:03.119653 19465 net.cpp:399] fc1_eyes -> fc1_eyes
I1013 14:42:03.143873 19465 net.cpp:141] Setting up fc1_eyes
I1013 14:42:03.143894 19465 net.cpp:148] Top shape: 100 512 (51200)
I1013 14:42:03.143899 19465 net.cpp:156] Memory required for data: 3764775200
I1013 14:42:03.143909 19465 layer_factory.hpp:77] Creating layer relu1_eyes
I1013 14:42:03.143918 19465 net.cpp:91] Creating Layer relu1_eyes
I1013 14:42:03.143925 19465 net.cpp:425] relu1_eyes <- fc1_eyes
I1013 14:42:03.143935 19465 net.cpp:386] relu1_eyes -> fc1_eyes (in-place)
I1013 14:42:03.143944 19465 net.cpp:141] Setting up relu1_eyes
I1013 14:42:03.143949 19465 net.cpp:148] Top shape: 100 512 (51200)
I1013 14:42:03.143954 19465 net.cpp:156] Memory required for data: 3764980000
I1013 14:42:03.143959 19465 layer_factory.hpp:77] Creating layer drop1_eyes
I1013 14:42:03.143966 19465 net.cpp:91] Creating Layer drop1_eyes
I1013 14:42:03.143970 19465 net.cpp:425] drop1_eyes <- fc1_eyes
I1013 14:42:03.143992 19465 net.cpp:386] drop1_eyes -> fc1_eyes (in-place)
I1013 14:42:03.144024 19465 net.cpp:141] Setting up drop1_eyes
I1013 14:42:03.144032 19465 net.cpp:148] Top shape: 100 512 (51200)
I1013 14:42:03.144035 19465 net.cpp:156] Memory required for data: 3765184800
I1013 14:42:03.144039 19465 layer_factory.hpp:77] Creating layer fc2_eyes
I1013 14:42:03.144048 19465 net.cpp:91] Creating Layer fc2_eyes
I1013 14:42:03.144052 19465 net.cpp:425] fc2_eyes <- fc1_eyes
I1013 14:42:03.144062 19465 net.cpp:399] fc2_eyes -> fc2_eyes
I1013 14:42:03.146937 19465 net.cpp:141] Setting up fc2_eyes
I1013 14:42:03.146955 19465 net.cpp:148] Top shape: 100 512 (51200)
I1013 14:42:03.146960 19465 net.cpp:156] Memory required for data: 3765389600
I1013 14:42:03.146967 19465 layer_factory.hpp:77] Creating layer relu2_eyes
I1013 14:42:03.146975 19465 net.cpp:91] Creating Layer relu2_eyes
I1013 14:42:03.146981 19465 net.cpp:425] relu2_eyes <- fc2_eyes
I1013 14:42:03.146988 19465 net.cpp:386] relu2_eyes -> fc2_eyes (in-place)
I1013 14:42:03.146996 19465 net.cpp:141] Setting up relu2_eyes
I1013 14:42:03.147001 19465 net.cpp:148] Top shape: 100 512 (51200)
I1013 14:42:03.147006 19465 net.cpp:156] Memory required for data: 3765594400
I1013 14:42:03.147009 19465 layer_factory.hpp:77] Creating layer drop2_eyes
I1013 14:42:03.147017 19465 net.cpp:91] Creating Layer drop2_eyes
I1013 14:42:03.147020 19465 net.cpp:425] drop2_eyes <- fc2_eyes
I1013 14:42:03.147027 19465 net.cpp:386] drop2_eyes -> fc2_eyes (in-place)
I1013 14:42:03.147053 19465 net.cpp:141] Setting up drop2_eyes
I1013 14:42:03.147060 19465 net.cpp:148] Top shape: 100 512 (51200)
I1013 14:42:03.147064 19465 net.cpp:156] Memory required for data: 3765799200
I1013 14:42:03.147068 19465 layer_factory.hpp:77] Creating layer fc2_eyes_drop2_eyes_0_split
I1013 14:42:03.147076 19465 net.cpp:91] Creating Layer fc2_eyes_drop2_eyes_0_split
I1013 14:42:03.147081 19465 net.cpp:425] fc2_eyes_drop2_eyes_0_split <- fc2_eyes
I1013 14:42:03.147089 19465 net.cpp:399] fc2_eyes_drop2_eyes_0_split -> fc2_eyes_drop2_eyes_0_split_0
I1013 14:42:03.147096 19465 net.cpp:399] fc2_eyes_drop2_eyes_0_split -> fc2_eyes_drop2_eyes_0_split_1
I1013 14:42:03.147104 19465 net.cpp:399] fc2_eyes_drop2_eyes_0_split -> fc2_eyes_drop2_eyes_0_split_2
I1013 14:42:03.147112 19465 net.cpp:399] fc2_eyes_drop2_eyes_0_split -> fc2_eyes_drop2_eyes_0_split_3
I1013 14:42:03.147120 19465 net.cpp:399] fc2_eyes_drop2_eyes_0_split -> fc2_eyes_drop2_eyes_0_split_4
I1013 14:42:03.147192 19465 net.cpp:141] Setting up fc2_eyes_drop2_eyes_0_split
I1013 14:42:03.147202 19465 net.cpp:148] Top shape: 100 512 (51200)
I1013 14:42:03.147207 19465 net.cpp:148] Top shape: 100 512 (51200)
I1013 14:42:03.147212 19465 net.cpp:148] Top shape: 100 512 (51200)
I1013 14:42:03.147217 19465 net.cpp:148] Top shape: 100 512 (51200)
I1013 14:42:03.147222 19465 net.cpp:148] Top shape: 100 512 (51200)
I1013 14:42:03.147225 19465 net.cpp:156] Memory required for data: 3766823200
I1013 14:42:03.147229 19465 layer_factory.hpp:77] Creating layer conv3_face
I1013 14:42:03.147240 19465 net.cpp:91] Creating Layer conv3_face
I1013 14:42:03.147246 19465 net.cpp:425] conv3_face <- pool3_pool3_0_split_4
I1013 14:42:03.147255 19465 net.cpp:399] conv3_face -> conv3_face
I1013 14:42:03.166420 19465 net.cpp:141] Setting up conv3_face
I1013 14:42:03.166466 19465 net.cpp:148] Top shape: 100 300 7 7 (1470000)
I1013 14:42:03.166476 19465 net.cpp:156] Memory required for data: 3772703200
I1013 14:42:03.166492 19465 layer_factory.hpp:77] Creating layer conv3_face_bn
I1013 14:42:03.166512 19465 net.cpp:91] Creating Layer conv3_face_bn
I1013 14:42:03.166523 19465 net.cpp:425] conv3_face_bn <- conv3_face
I1013 14:42:03.166538 19465 net.cpp:386] conv3_face_bn -> conv3_face (in-place)
I1013 14:42:03.166916 19465 net.cpp:141] Setting up conv3_face_bn
I1013 14:42:03.166934 19465 net.cpp:148] Top shape: 100 300 7 7 (1470000)
I1013 14:42:03.166942 19465 net.cpp:156] Memory required for data: 3778583200
I1013 14:42:03.166960 19465 layer_factory.hpp:77] Creating layer conv3_face_scale
I1013 14:42:03.167006 19465 net.cpp:91] Creating Layer conv3_face_scale
I1013 14:42:03.167017 19465 net.cpp:425] conv3_face_scale <- conv3_face
I1013 14:42:03.167032 19465 net.cpp:386] conv3_face_scale -> conv3_face (in-place)
I1013 14:42:03.167119 19465 layer_factory.hpp:77] Creating layer conv3_face_scale
I1013 14:42:03.167348 19465 net.cpp:141] Setting up conv3_face_scale
I1013 14:42:03.167366 19465 net.cpp:148] Top shape: 100 300 7 7 (1470000)
I1013 14:42:03.167373 19465 net.cpp:156] Memory required for data: 3784463200
I1013 14:42:03.167387 19465 layer_factory.hpp:77] Creating layer prelu3_face
I1013 14:42:03.167399 19465 net.cpp:91] Creating Layer prelu3_face
I1013 14:42:03.167407 19465 net.cpp:425] prelu3_face <- conv3_face
I1013 14:42:03.167419 19465 net.cpp:386] prelu3_face -> conv3_face (in-place)
I1013 14:42:03.167619 19465 net.cpp:141] Setting up prelu3_face
I1013 14:42:03.167635 19465 net.cpp:148] Top shape: 100 300 7 7 (1470000)
I1013 14:42:03.167642 19465 net.cpp:156] Memory required for data: 3790343200
I1013 14:42:03.167654 19465 layer_factory.hpp:77] Creating layer pool3_face
I1013 14:42:03.167667 19465 net.cpp:91] Creating Layer pool3_face
I1013 14:42:03.167675 19465 net.cpp:425] pool3_face <- conv3_face
I1013 14:42:03.167690 19465 net.cpp:399] pool3_face -> pool3_face
I1013 14:42:03.167762 19465 net.cpp:141] Setting up pool3_face
I1013 14:42:03.167778 19465 net.cpp:148] Top shape: 100 300 4 4 (480000)
I1013 14:42:03.167784 19465 net.cpp:156] Memory required for data: 3792263200
I1013 14:42:03.167793 19465 layer_factory.hpp:77] Creating layer fc1_face
I1013 14:42:03.167807 19465 net.cpp:91] Creating Layer fc1_face
I1013 14:42:03.167824 19465 net.cpp:425] fc1_face <- pool3_face
I1013 14:42:03.167840 19465 net.cpp:399] fc1_face -> fc1_face
I1013 14:42:03.207427 19465 net.cpp:141] Setting up fc1_face
I1013 14:42:03.207456 19465 net.cpp:148] Top shape: 100 512 (51200)
I1013 14:42:03.207464 19465 net.cpp:156] Memory required for data: 3792468000
I1013 14:42:03.207479 19465 layer_factory.hpp:77] Creating layer relu1_face
I1013 14:42:03.207491 19465 net.cpp:91] Creating Layer relu1_face
I1013 14:42:03.207500 19465 net.cpp:425] relu1_face <- fc1_face
I1013 14:42:03.207512 19465 net.cpp:386] relu1_face -> fc1_face (in-place)
I1013 14:42:03.207526 19465 net.cpp:141] Setting up relu1_face
I1013 14:42:03.207535 19465 net.cpp:148] Top shape: 100 512 (51200)
I1013 14:42:03.207541 19465 net.cpp:156] Memory required for data: 3792672800
I1013 14:42:03.207547 19465 layer_factory.hpp:77] Creating layer drop1_face
I1013 14:42:03.207561 19465 net.cpp:91] Creating Layer drop1_face
I1013 14:42:03.207567 19465 net.cpp:425] drop1_face <- fc1_face
I1013 14:42:03.207577 19465 net.cpp:386] drop1_face -> fc1_face (in-place)
I1013 14:42:03.207636 19465 net.cpp:141] Setting up drop1_face
I1013 14:42:03.207649 19465 net.cpp:148] Top shape: 100 512 (51200)
I1013 14:42:03.207656 19465 net.cpp:156] Memory required for data: 3792877600
I1013 14:42:03.207662 19465 layer_factory.hpp:77] Creating layer fc2_face
I1013 14:42:03.207676 19465 net.cpp:91] Creating Layer fc2_face
I1013 14:42:03.207684 19465 net.cpp:425] fc2_face <- fc1_face
I1013 14:42:03.207696 19465 net.cpp:399] fc2_face -> fc2_face
I1013 14:42:03.212255 19465 net.cpp:141] Setting up fc2_face
I1013 14:42:03.212291 19465 net.cpp:148] Top shape: 100 512 (51200)
I1013 14:42:03.212298 19465 net.cpp:156] Memory required for data: 3793082400
I1013 14:42:03.212311 19465 layer_factory.hpp:77] Creating layer relu2_face
I1013 14:42:03.212322 19465 net.cpp:91] Creating Layer relu2_face
I1013 14:42:03.212329 19465 net.cpp:425] relu2_face <- fc2_face
I1013 14:42:03.212340 19465 net.cpp:386] relu2_face -> fc2_face (in-place)
I1013 14:42:03.212353 19465 net.cpp:141] Setting up relu2_face
I1013 14:42:03.212360 19465 net.cpp:148] Top shape: 100 512 (51200)
I1013 14:42:03.212366 19465 net.cpp:156] Memory required for data: 3793287200
I1013 14:42:03.212373 19465 layer_factory.hpp:77] Creating layer drop2_face
I1013 14:42:03.212383 19465 net.cpp:91] Creating Layer drop2_face
I1013 14:42:03.212389 19465 net.cpp:425] drop2_face <- fc2_face
I1013 14:42:03.212419 19465 net.cpp:386] drop2_face -> fc2_face (in-place)
I1013 14:42:03.213810 19465 net.cpp:141] Setting up drop2_face
I1013 14:42:03.213848 19465 net.cpp:148] Top shape: 100 512 (51200)
I1013 14:42:03.213860 19465 net.cpp:156] Memory required for data: 3793492000
I1013 14:42:03.213881 19465 layer_factory.hpp:77] Creating layer fc2_face_drop2_face_0_split
I1013 14:42:03.213896 19465 net.cpp:91] Creating Layer fc2_face_drop2_face_0_split
I1013 14:42:03.213906 19465 net.cpp:425] fc2_face_drop2_face_0_split <- fc2_face
I1013 14:42:03.213918 19465 net.cpp:399] fc2_face_drop2_face_0_split -> fc2_face_drop2_face_0_split_0
I1013 14:42:03.213934 19465 net.cpp:399] fc2_face_drop2_face_0_split -> fc2_face_drop2_face_0_split_1
I1013 14:42:03.213946 19465 net.cpp:399] fc2_face_drop2_face_0_split -> fc2_face_drop2_face_0_split_2
I1013 14:42:03.213959 19465 net.cpp:399] fc2_face_drop2_face_0_split -> fc2_face_drop2_face_0_split_3
I1013 14:42:03.213970 19465 net.cpp:399] fc2_face_drop2_face_0_split -> fc2_face_drop2_face_0_split_4
I1013 14:42:03.213981 19465 net.cpp:399] fc2_face_drop2_face_0_split -> fc2_face_drop2_face_0_split_5
I1013 14:42:03.214120 19465 net.cpp:141] Setting up fc2_face_drop2_face_0_split
I1013 14:42:03.214133 19465 net.cpp:148] Top shape: 100 512 (51200)
I1013 14:42:03.214143 19465 net.cpp:148] Top shape: 100 512 (51200)
I1013 14:42:03.214149 19465 net.cpp:148] Top shape: 100 512 (51200)
I1013 14:42:03.214156 19465 net.cpp:148] Top shape: 100 512 (51200)
I1013 14:42:03.214164 19465 net.cpp:148] Top shape: 100 512 (51200)
I1013 14:42:03.214170 19465 net.cpp:148] Top shape: 100 512 (51200)
I1013 14:42:03.214176 19465 net.cpp:156] Memory required for data: 3794720800
I1013 14:42:03.214182 19465 layer_factory.hpp:77] Creating layer conv3_rest
I1013 14:42:03.214200 19465 net.cpp:91] Creating Layer conv3_rest
I1013 14:42:03.214208 19465 net.cpp:425] conv3_rest <- pool3_pool3_0_split_5
I1013 14:42:03.214223 19465 net.cpp:399] conv3_rest -> conv3_rest
I1013 14:42:03.229084 19465 net.cpp:141] Setting up conv3_rest
I1013 14:42:03.229110 19465 net.cpp:148] Top shape: 100 300 7 7 (1470000)
I1013 14:42:03.229117 19465 net.cpp:156] Memory required for data: 3800600800
I1013 14:42:03.229131 19465 layer_factory.hpp:77] Creating layer conv3_rest_bn
I1013 14:42:03.229146 19465 net.cpp:91] Creating Layer conv3_rest_bn
I1013 14:42:03.229153 19465 net.cpp:425] conv3_rest_bn <- conv3_rest
I1013 14:42:03.229164 19465 net.cpp:386] conv3_rest_bn -> conv3_rest (in-place)
I1013 14:42:03.229485 19465 net.cpp:141] Setting up conv3_rest_bn
I1013 14:42:03.229499 19465 net.cpp:148] Top shape: 100 300 7 7 (1470000)
I1013 14:42:03.229507 19465 net.cpp:156] Memory required for data: 3806480800
I1013 14:42:03.229521 19465 layer_factory.hpp:77] Creating layer conv3_rest_scale
I1013 14:42:03.229533 19465 net.cpp:91] Creating Layer conv3_rest_scale
I1013 14:42:03.229540 19465 net.cpp:425] conv3_rest_scale <- conv3_rest
I1013 14:42:03.229552 19465 net.cpp:386] conv3_rest_scale -> conv3_rest (in-place)
I1013 14:42:03.229619 19465 layer_factory.hpp:77] Creating layer conv3_rest_scale
I1013 14:42:03.229805 19465 net.cpp:141] Setting up conv3_rest_scale
I1013 14:42:03.229822 19465 net.cpp:148] Top shape: 100 300 7 7 (1470000)
I1013 14:42:03.229830 19465 net.cpp:156] Memory required for data: 3812360800
I1013 14:42:03.229840 19465 layer_factory.hpp:77] Creating layer prelu3_rest
I1013 14:42:03.229851 19465 net.cpp:91] Creating Layer prelu3_rest
I1013 14:42:03.229856 19465 net.cpp:425] prelu3_rest <- conv3_rest
I1013 14:42:03.229867 19465 net.cpp:386] prelu3_rest -> conv3_rest (in-place)
I1013 14:42:03.230043 19465 net.cpp:141] Setting up prelu3_rest
I1013 14:42:03.230057 19465 net.cpp:148] Top shape: 100 300 7 7 (1470000)
I1013 14:42:03.230063 19465 net.cpp:156] Memory required for data: 3818240800
I1013 14:42:03.230072 19465 layer_factory.hpp:77] Creating layer pool3_rest
I1013 14:42:03.230084 19465 net.cpp:91] Creating Layer pool3_rest
I1013 14:42:03.230090 19465 net.cpp:425] pool3_rest <- conv3_rest
I1013 14:42:03.230123 19465 net.cpp:399] pool3_rest -> pool3_rest
I1013 14:42:03.230188 19465 net.cpp:141] Setting up pool3_rest
I1013 14:42:03.230201 19465 net.cpp:148] Top shape: 100 300 4 4 (480000)
I1013 14:42:03.230207 19465 net.cpp:156] Memory required for data: 3820160800
I1013 14:42:03.230213 19465 layer_factory.hpp:77] Creating layer pool3_rest_pool3_rest_0_split
I1013 14:42:03.230224 19465 net.cpp:91] Creating Layer pool3_rest_pool3_rest_0_split
I1013 14:42:03.230232 19465 net.cpp:425] pool3_rest_pool3_rest_0_split <- pool3_rest
I1013 14:42:03.230242 19465 net.cpp:399] pool3_rest_pool3_rest_0_split -> pool3_rest_pool3_rest_0_split_0
I1013 14:42:03.230254 19465 net.cpp:399] pool3_rest_pool3_rest_0_split -> pool3_rest_pool3_rest_0_split_1
I1013 14:42:03.230267 19465 net.cpp:399] pool3_rest_pool3_rest_0_split -> pool3_rest_pool3_rest_0_split_2
I1013 14:42:03.230278 19465 net.cpp:399] pool3_rest_pool3_rest_0_split -> pool3_rest_pool3_rest_0_split_3
I1013 14:42:03.230367 19465 net.cpp:141] Setting up pool3_rest_pool3_rest_0_split
I1013 14:42:03.230379 19465 net.cpp:148] Top shape: 100 300 4 4 (480000)
I1013 14:42:03.230387 19465 net.cpp:148] Top shape: 100 300 4 4 (480000)
I1013 14:42:03.230394 19465 net.cpp:148] Top shape: 100 300 4 4 (480000)
I1013 14:42:03.230401 19465 net.cpp:148] Top shape: 100 300 4 4 (480000)
I1013 14:42:03.230407 19465 net.cpp:156] Memory required for data: 3827840800
I1013 14:42:03.230413 19465 layer_factory.hpp:77] Creating layer fc1_aroundhead
I1013 14:42:03.230427 19465 net.cpp:91] Creating Layer fc1_aroundhead
I1013 14:42:03.230434 19465 net.cpp:425] fc1_aroundhead <- pool3_rest_pool3_rest_0_split_0
I1013 14:42:03.230448 19465 net.cpp:399] fc1_aroundhead -> fc1_aroundhead
I1013 14:42:03.261924 19465 net.cpp:141] Setting up fc1_aroundhead
I1013 14:42:03.261946 19465 net.cpp:148] Top shape: 100 512 (51200)
I1013 14:42:03.261952 19465 net.cpp:156] Memory required for data: 3828045600
I1013 14:42:03.261963 19465 layer_factory.hpp:77] Creating layer relu1_aroundhead
I1013 14:42:03.261975 19465 net.cpp:91] Creating Layer relu1_aroundhead
I1013 14:42:03.261981 19465 net.cpp:425] relu1_aroundhead <- fc1_aroundhead
I1013 14:42:03.261991 19465 net.cpp:386] relu1_aroundhead -> fc1_aroundhead (in-place)
I1013 14:42:03.262002 19465 net.cpp:141] Setting up relu1_aroundhead
I1013 14:42:03.262009 19465 net.cpp:148] Top shape: 100 512 (51200)
I1013 14:42:03.262013 19465 net.cpp:156] Memory required for data: 3828250400
I1013 14:42:03.262018 19465 layer_factory.hpp:77] Creating layer drop1_aroundhead
I1013 14:42:03.262027 19465 net.cpp:91] Creating Layer drop1_aroundhead
I1013 14:42:03.262033 19465 net.cpp:425] drop1_aroundhead <- fc1_aroundhead
I1013 14:42:03.262042 19465 net.cpp:386] drop1_aroundhead -> fc1_aroundhead (in-place)
I1013 14:42:03.262079 19465 net.cpp:141] Setting up drop1_aroundhead
I1013 14:42:03.262089 19465 net.cpp:148] Top shape: 100 512 (51200)
I1013 14:42:03.262094 19465 net.cpp:156] Memory required for data: 3828455200
I1013 14:42:03.262099 19465 layer_factory.hpp:77] Creating layer fc2_aroundhead
I1013 14:42:03.262110 19465 net.cpp:91] Creating Layer fc2_aroundhead
I1013 14:42:03.262116 19465 net.cpp:425] fc2_aroundhead <- fc1_aroundhead
I1013 14:42:03.262128 19465 net.cpp:399] fc2_aroundhead -> fc2_aroundhead
I1013 14:42:03.265574 19465 net.cpp:141] Setting up fc2_aroundhead
I1013 14:42:03.265594 19465 net.cpp:148] Top shape: 100 512 (51200)
I1013 14:42:03.265600 19465 net.cpp:156] Memory required for data: 3828660000
I1013 14:42:03.265610 19465 layer_factory.hpp:77] Creating layer relu2_aroundhead
I1013 14:42:03.265621 19465 net.cpp:91] Creating Layer relu2_aroundhead
I1013 14:42:03.265628 19465 net.cpp:425] relu2_aroundhead <- fc2_aroundhead
I1013 14:42:03.265637 19465 net.cpp:386] relu2_aroundhead -> fc2_aroundhead (in-place)
I1013 14:42:03.265648 19465 net.cpp:141] Setting up relu2_aroundhead
I1013 14:42:03.265655 19465 net.cpp:148] Top shape: 100 512 (51200)
I1013 14:42:03.265660 19465 net.cpp:156] Memory required for data: 3828864800
I1013 14:42:03.265664 19465 layer_factory.hpp:77] Creating layer drop2_aroundhead
I1013 14:42:03.265696 19465 net.cpp:91] Creating Layer drop2_aroundhead
I1013 14:42:03.265702 19465 net.cpp:425] drop2_aroundhead <- fc2_aroundhead
I1013 14:42:03.265713 19465 net.cpp:386] drop2_aroundhead -> fc2_aroundhead (in-place)
I1013 14:42:03.265749 19465 net.cpp:141] Setting up drop2_aroundhead
I1013 14:42:03.265758 19465 net.cpp:148] Top shape: 100 512 (51200)
I1013 14:42:03.265764 19465 net.cpp:156] Memory required for data: 3829069600
I1013 14:42:03.265769 19465 layer_factory.hpp:77] Creating layer fc2_aroundhead_drop2_aroundhead_0_split
I1013 14:42:03.265782 19465 net.cpp:91] Creating Layer fc2_aroundhead_drop2_aroundhead_0_split
I1013 14:42:03.265787 19465 net.cpp:425] fc2_aroundhead_drop2_aroundhead_0_split <- fc2_aroundhead
I1013 14:42:03.265799 19465 net.cpp:399] fc2_aroundhead_drop2_aroundhead_0_split -> fc2_aroundhead_drop2_aroundhead_0_split_0
…
I1013 14:42:03.265889 19465 net.cpp:399] fc2_aroundhead_drop2_aroundhead_0_split -> fc2_aroundhead_drop2_aroundhead_0_split_9
I1013 14:42:03.265899 19465 net.cpp:399] fc2_aroundhead_drop2_aroundhead_0_split -> fc2_aroundhead_drop2_aroundhead_0_split_10
I1013 14:42:03.265908 19465 net.cpp:399] fc2_aroundhead_drop2_aroundhead_0_split -> fc2_aroundhead_drop2_aroundhead_0_split_11
I1013 14:42:03.265918 19465 net.cpp:399] fc2_aroundhead_drop2_aroundhead_0_split -> fc2_aroundhead_drop2_aroundhead_0_split_12
I1013 14:42:03.266124 19465 net.cpp:141] Setting up fc2_aroundhead_drop2_aroundhead_0_split
I1013 14:42:03.266136 19465 net.cpp:148] Top shape: 100 512 (51200)
I1013 14:42:03.266144 19465 net.cpp:148] Top shape: 100 512 (51200)
I1013 14:42:03.266149 19465 net.cpp:148] Top shape: 100 512 (51200)
I1013 14:42:03.266155 19465 net.cpp:148] Top shape: 100 512 (51200)
I1013 14:42:03.266160 19465 net.cpp:148] Top shape: 100 512 (51200)
I1013 14:42:03.266166 19465 net.cpp:148] Top shape: 100 512 (51200)
I1013 14:42:03.266171 19465 net.cpp:148] Top shape: 100 512 (51200)
I1013 14:42:03.266177 19465 net.cpp:148] Top shape: 100 512 (51200)
I1013 14:42:03.266183 19465 net.cpp:148] Top shape: 100 512 (51200)
I1013 14:42:03.266188 19465 net.cpp:148] Top shape: 100 512 (51200)
I1013 14:42:03.266194 19465 net.cpp:148] Top shape: 100 512 (51200)
I1013 14:42:03.266201 19465 net.cpp:148] Top shape: 100 512 (51200)
I1013 14:42:03.266206 19465 net.cpp:148] Top shape: 100 512 (51200)
I1013 14:42:03.266209 19465 net.cpp:156] Memory required for data: 3831732000
I1013 14:42:03.266216 19465 layer_factory.hpp:77] Creating layer fc1_facialhair
I1013 14:42:03.266225 19465 net.cpp:91] Creating Layer fc1_facialhair
I1013 14:42:03.266232 19465 net.cpp:425] fc1_facialhair <- pool3_rest_pool3_rest_0_split_1
I1013 14:42:03.266242 19465 net.cpp:399] fc1_facialhair -> fc1_facialhair
I1013 14:42:03.293617 19465 net.cpp:141] Setting up fc1_facialhair
I1013 14:42:03.293639 19465 net.cpp:148] Top shape: 100 512 (51200)
I1013 14:42:03.293644 19465 net.cpp:156] Memory required for data: 3831936800
I1013 14:42:03.293654 19465 layer_factory.hpp:77] Creating layer relu1_facialhair
I1013 14:42:03.293681 19465 net.cpp:91] Creating Layer relu1_facialhair
I1013 14:42:03.293689 19465 net.cpp:425] relu1_facialhair <- fc1_facialhair
I1013 14:42:03.293699 19465 net.cpp:386] relu1_facialhair -> fc1_facialhair (in-place)
I1013 14:42:03.293709 19465 net.cpp:141] Setting up relu1_facialhair
I1013 14:42:03.293715 19465 net.cpp:148] Top shape: 100 512 (51200)
I1013 14:42:03.293720 19465 net.cpp:156] Memory required for data: 3832141600
I1013 14:42:03.293723 19465 layer_factory.hpp:77] Creating layer drop1_facialhair
I1013 14:42:03.293732 19465 net.cpp:91] Creating Layer drop1_facialhair
I1013 14:42:03.293737 19465 net.cpp:425] drop1_facialhair <- fc1_facialhair
I1013 14:42:03.293745 19465 net.cpp:386] drop1_facialhair -> fc1_facialhair (in-place)
I1013 14:42:03.293778 19465 net.cpp:141] Setting up drop1_facialhair
I1013 14:42:03.293786 19465 net.cpp:148] Top shape: 100 512 (51200)
I1013 14:42:03.293790 19465 net.cpp:156] Memory required for data: 3832346400
I1013 14:42:03.293794 19465 layer_factory.hpp:77] Creating layer fc2_facialhair
I1013 14:42:03.293805 19465 net.cpp:91] Creating Layer fc2_facialhair
I1013 14:42:03.293810 19465 net.cpp:425] fc2_facialhair <- fc1_facialhair
I1013 14:42:03.293822 19465 net.cpp:399] fc2_facialhair -> fc2_facialhair
I1013 14:42:03.296959 19465 net.cpp:141] Setting up fc2_facialhair
I1013 14:42:03.296977 19465 net.cpp:148] Top shape: 100 512 (51200)
I1013 14:42:03.296984 19465 net.cpp:156] Memory required for data: 3832551200
I1013 14:42:03.296993 19465 layer_factory.hpp:77] Creating layer relu2_facialhair
I1013 14:42:03.297003 19465 net.cpp:91] Creating Layer relu2_facialhair
I1013 14:42:03.297008 19465 net.cpp:425] relu2_facialhair <- fc2_facialhair
I1013 14:42:03.297018 19465 net.cpp:386] relu2_facialhair -> fc2_facialhair (in-place)
I1013 14:42:03.297026 19465 net.cpp:141] Setting up relu2_facialhair
I1013 14:42:03.297032 19465 net.cpp:148] Top shape: 100 512 (51200)
I1013 14:42:03.297036 19465 net.cpp:156] Memory required for data: 3832756000
I1013 14:42:03.297040 19465 layer_factory.hpp:77] Creating layer drop2_facialhair
I1013 14:42:03.297049 19465 net.cpp:91] Creating Layer drop2_facialhair
I1013 14:42:03.297054 19465 net.cpp:425] drop2_facialhair <- fc2_facialhair
I1013 14:42:03.297060 19465 net.cpp:386] drop2_facialhair -> fc2_facialhair (in-place)
I1013 14:42:03.297089 19465 net.cpp:141] Setting up drop2_facialhair
I1013 14:42:03.297096 19465 net.cpp:148] Top shape: 100 512 (51200)
I1013 14:42:03.297101 19465 net.cpp:156] Memory required for data: 3832960800
I1013 14:42:03.297106 19465 layer_factory.hpp:77] Creating layer fc2_facialhair_drop2_facialhair_0_split
I1013 14:42:03.297114 19465 net.cpp:91] Creating Layer fc2_facialhair_drop2_facialhair_0_split
I1013 14:42:03.297119 19465 net.cpp:425] fc2_facialhair_drop2_facialhair_0_split <- fc2_facialhair
I1013 14:42:03.297127 19465 net.cpp:399] fc2_facialhair_drop2_facialhair_0_split -> fc2_facialhair_drop2_facialhair_0_split_0
I1013 14:42:03.297137 19465 net.cpp:399] fc2_facialhair_drop2_facialhair_0_split -> fc2_facialhair_drop2_facialhair_0_split_1
I1013 14:42:03.297147 19465 net.cpp:399] fc2_facialhair_drop2_facialhair_0_split -> fc2_facialhair_drop2_facialhair_0_split_2
I1013 14:42:03.297154 19465 net.cpp:399] fc2_facialhair_drop2_facialhair_0_split -> fc2_facialhair_drop2_facialhair_0_split_3
I1013 14:42:03.297161 19465 net.cpp:399] fc2_facialhair_drop2_facialhair_0_split -> fc2_facialhair_drop2_facialhair_0_split_4
I1013 14:42:03.297241 19465 net.cpp:141] Setting up fc2_facialhair_drop2_facialhair_0_split
I1013 14:42:03.297251 19465 net.cpp:148] Top shape: 100 512 (51200)
I1013 14:42:03.297257 19465 net.cpp:148] Top shape: 100 512 (51200)
I1013 14:42:03.297262 19465 net.cpp:148] Top shape: 100 512 (51200)
I1013 14:42:03.297266 19465 net.cpp:148] Top shape: 100 512 (51200)
I1013 14:42:03.297271 19465 net.cpp:148] Top shape: 100 512 (51200)
I1013 14:42:03.297276 19465 net.cpp:156] Memory required for data: 3833984800
I1013 14:42:03.297279 19465 layer_factory.hpp:77] Creating layer fc1_cheeks
I1013 14:42:03.297303 19465 net.cpp:91] Creating Layer fc1_cheeks
I1013 14:42:03.297310 19465 net.cpp:425] fc1_cheeks <- pool3_rest_pool3_rest_0_split_2
I1013 14:42:03.297320 19465 net.cpp:399] fc1_cheeks -> fc1_cheeks
I1013 14:42:03.322134 19465 net.cpp:141] Setting up fc1_cheeks
I1013 14:42:03.322154 19465 net.cpp:148] Top shape: 100 512 (51200)
I1013 14:42:03.322160 19465 net.cpp:156] Memory required for data: 3834189600
I1013 14:42:03.322168 19465 layer_factory.hpp:77] Creating layer relu1_cheeks
I1013 14:42:03.322178 19465 net.cpp:91] Creating Layer relu1_cheeks
I1013 14:42:03.322185 19465 net.cpp:425] relu1_cheeks <- fc1_cheeks
I1013 14:42:03.322193 19465 net.cpp:386] relu1_cheeks -> fc1_cheeks (in-place)
I1013 14:42:03.322202 19465 net.cpp:141] Setting up relu1_cheeks
I1013 14:42:03.322208 19465 net.cpp:148] Top shape: 100 512 (51200)
I1013 14:42:03.322212 19465 net.cpp:156] Memory required for data: 3834394400
I1013 14:42:03.322216 19465 layer_factory.hpp:77] Creating layer drop1_cheeks
I1013 14:42:03.322224 19465 net.cpp:91] Creating Layer drop1_cheeks
I1013 14:42:03.322229 19465 net.cpp:425] drop1_cheeks <- fc1_cheeks
I1013 14:42:03.322237 19465 net.cpp:386] drop1_cheeks -> fc1_cheeks (in-place)
I1013 14:42:03.322266 19465 net.cpp:141] Setting up drop1_cheeks
I1013 14:42:03.322273 19465 net.cpp:148] Top shape: 100 512 (51200)
I1013 14:42:03.322278 19465 net.cpp:156] Memory required for data: 3834599200
I1013 14:42:03.322281 19465 layer_factory.hpp:77] Creating layer fc2_cheeks
I1013 14:42:03.322291 19465 net.cpp:91] Creating Layer fc2_cheeks
I1013 14:42:03.322295 19465 net.cpp:425] fc2_cheeks <- fc1_cheeks
I1013 14:42:03.322305 19465 net.cpp:399] fc2_cheeks -> fc2_cheeks
I1013 14:42:03.325208 19465 net.cpp:141] Setting up fc2_cheeks
I1013 14:42:03.325227 19465 net.cpp:148] Top shape: 100 512 (51200)
I1013 14:42:03.325232 19465 net.cpp:156] Memory required for data: 3834804000
I1013 14:42:03.325239 19465 layer_factory.hpp:77] Creating layer relu2_cheeks
I1013 14:42:03.325248 19465 net.cpp:91] Creating Layer relu2_cheeks
I1013 14:42:03.325254 19465 net.cpp:425] relu2_cheeks <- fc2_cheeks
I1013 14:42:03.325263 19465 net.cpp:386] relu2_cheeks -> fc2_cheeks (in-place)
I1013 14:42:03.325271 19465 net.cpp:141] Setting up relu2_cheeks
I1013 14:42:03.325276 19465 net.cpp:148] Top shape: 100 512 (51200)
I1013 14:42:03.325280 19465 net.cpp:156] Memory required for data: 3835008800
I1013 14:42:03.325284 19465 layer_factory.hpp:77] Creating layer drop2_cheeks
I1013 14:42:03.325292 19465 net.cpp:91] Creating Layer drop2_cheeks
I1013 14:42:03.325297 19465 net.cpp:425] drop2_cheeks <- fc2_cheeks
I1013 14:42:03.325304 19465 net.cpp:386] drop2_cheeks -> fc2_cheeks (in-place)
I1013 14:42:03.325332 19465 net.cpp:141] Setting up drop2_cheeks
I1013 14:42:03.325340 19465 net.cpp:148] Top shape: 100 512 (51200)
I1013 14:42:03.325345 19465 net.cpp:156] Memory required for data: 3835213600
I1013 14:42:03.325348 19465 layer_factory.hpp:77] Creating layer fc2_cheeks_drop2_cheeks_0_split
I1013 14:42:03.325356 19465 net.cpp:91] Creating Layer fc2_cheeks_drop2_cheeks_0_split
I1013 14:42:03.325361 19465 net.cpp:425] fc2_cheeks_drop2_cheeks_0_split <- fc2_cheeks
I1013 14:42:03.325367 19465 net.cpp:399] fc2_cheeks_drop2_cheeks_0_split -> fc2_cheeks_drop2_cheeks_0_split_0
I1013 14:42:03.325376 19465 net.cpp:399] fc2_cheeks_drop2_cheeks_0_split -> fc2_cheeks_drop2_cheeks_0_split_1
I1013 14:42:03.325417 19465 net.cpp:141] Setting up fc2_cheeks_drop2_cheeks_0_split
I1013 14:42:03.325423 19465 net.cpp:148] Top shape: 100 512 (51200)
I1013 14:42:03.325428 19465 net.cpp:148] Top shape: 100 512 (51200)
I1013 14:42:03.325433 19465 net.cpp:156] Memory required for data: 3835623200
I1013 14:42:03.325438 19465 layer_factory.hpp:77] Creating layer fc1_fat
I1013 14:42:03.325448 19465 net.cpp:91] Creating Layer fc1_fat
I1013 14:42:03.325453 19465 net.cpp:425] fc1_fat <- pool3_rest_pool3_rest_0_split_3
I1013 14:42:03.325462 19465 net.cpp:399] fc1_fat -> fc1_fat
I1013 14:42:03.349741 19465 net.cpp:141] Setting up fc1_fat
I1013 14:42:03.349761 19465 net.cpp:148] Top shape: 100 512 (51200)
I1013 14:42:03.349783 19465 net.cpp:156] Memory required for data: 3835828000
I1013 14:42:03.349794 19465 layer_factory.hpp:77] Creating layer relu1_fat
I1013 14:42:03.349803 19465 net.cpp:91] Creating Layer relu1_fat
I1013 14:42:03.349809 19465 net.cpp:425] relu1_fat <- fc1_fat
I1013 14:42:03.349817 19465 net.cpp:386] relu1_fat -> fc1_fat (in-place)
I1013 14:42:03.349827 19465 net.cpp:141] Setting up relu1_fat
I1013 14:42:03.349831 19465 net.cpp:148] Top shape: 100 512 (51200)
I1013 14:42:03.349835 19465 net.cpp:156] Memory required for data: 3836032800
I1013 14:42:03.349839 19465 layer_factory.hpp:77] Creating layer drop1_fat
I1013 14:42:03.349848 19465 net.cpp:91] Creating Layer drop1_fat
I1013 14:42:03.349853 19465 net.cpp:425] drop1_fat <- fc1_fat
I1013 14:42:03.349860 19465 net.cpp:386] drop1_fat -> fc1_fat (in-place)
I1013 14:42:03.349891 19465 net.cpp:141] Setting up drop1_fat
I1013 14:42:03.349898 19465 net.cpp:148] Top shape: 100 512 (51200)
I1013 14:42:03.349903 19465 net.cpp:156] Memory required for data: 3836237600
I1013 14:42:03.349907 19465 layer_factory.hpp:77] Creating layer fc2_fat
I1013 14:42:03.349916 19465 net.cpp:91] Creating Layer fc2_fat
I1013 14:42:03.349921 19465 net.cpp:425] fc2_fat <- fc1_fat
I1013 14:42:03.349931 19465 net.cpp:399] fc2_fat -> fc2_fat
I1013 14:42:03.352850 19465 net.cpp:141] Setting up fc2_fat
I1013 14:42:03.352870 19465 net.cpp:148] Top shape: 100 512 (51200)
I1013 14:42:03.352876 19465 net.cpp:156] Memory required for data: 3836442400
I1013 14:42:03.352885 19465 layer_factory.hpp:77] Creating layer relu2_fat
I1013 14:42:03.352893 19465 net.cpp:91] Creating Layer relu2_fat
I1013 14:42:03.352898 19465 net.cpp:425] relu2_fat <- fc2_fat
I1013 14:42:03.352906 19465 net.cpp:386] relu2_fat -> fc2_fat (in-place)
I1013 14:42:03.352916 19465 net.cpp:141] Setting up relu2_fat
I1013 14:42:03.352921 19465 net.cpp:148] Top shape: 100 512 (51200)
I1013 14:42:03.352924 19465 net.cpp:156] Memory required for data: 3836647200
I1013 14:42:03.352928 19465 layer_factory.hpp:77] Creating layer drop2_fat
I1013 14:42:03.352936 19465 net.cpp:91] Creating Layer drop2_fat
I1013 14:42:03.352941 19465 net.cpp:425] drop2_fat <- fc2_fat
I1013 14:42:03.352947 19465 net.cpp:386] drop2_fat -> fc2_fat (in-place)
I1013 14:42:03.352977 19465 net.cpp:141] Setting up drop2_fat
I1013 14:42:03.352984 19465 net.cpp:148] Top shape: 100 512 (51200)
I1013 14:42:03.352989 19465 net.cpp:156] Memory required for data: 3836852000
I1013 14:42:03.352993 19465 layer_factory.hpp:77] Creating layer fc2_fat_drop2_fat_0_split
I1013 14:42:03.353000 19465 net.cpp:91] Creating Layer fc2_fat_drop2_fat_0_split
I1013 14:42:03.353004 19465 net.cpp:425] fc2_fat_drop2_fat_0_split <- fc2_fat
I1013 14:42:03.353013 19465 net.cpp:399] fc2_fat_drop2_fat_0_split -> fc2_fat_drop2_fat_0_split_0
I1013 14:42:03.353021 19465 net.cpp:399] fc2_fat_drop2_fat_0_split -> fc2_fat_drop2_fat_0_split_1
I1013 14:42:03.353061 19465 net.cpp:141] Setting up fc2_fat_drop2_fat_0_split
I1013 14:42:03.353068 19465 net.cpp:148] Top shape: 100 512 (51200)
I1013 14:42:03.353073 19465 net.cpp:148] Top shape: 100 512 (51200)
I1013 14:42:03.353077 19465 net.cpp:156] Memory required for data: 3837261600
I1013 14:42:03.353081 19465 layer_factory.hpp:77] Creating layer fc3_Male
I1013 14:42:03.353091 19465 net.cpp:91] Creating Layer fc3_Male
I1013 14:42:03.353096 19465 net.cpp:425] fc3_Male <- fc2_gender
I1013 14:42:03.353103 19465 net.cpp:399] fc3_Male -> fc3_Male
I1013 14:42:03.353224 19465 net.cpp:141] Setting up fc3_Male
I1013 14:42:03.353235 19465 net.cpp:148] Top shape: 100 2 (200)
I1013 14:42:03.353238 19465 net.cpp:156] Memory required for data: 3837262400
I1013 14:42:03.353246 19465 layer_factory.hpp:77] Creating layer loss_Male
I1013 14:42:03.353263 19465 net.cpp:91] Creating Layer loss_Male
I1013 14:42:03.353269 19465 net.cpp:425] loss_Male <- fc3_Male
I1013 14:42:03.353276 19465 net.cpp:425] loss_Male <- label_Male
I1013 14:42:03.353284 19465 net.cpp:399] loss_Male -> loss_Male
I1013 14:42:03.353334 19465 net.cpp:141] Setting up loss_Male
I1013 14:42:03.353358 19465 net.cpp:148] Top shape: (1)
I1013 14:42:03.353363 19465 net.cpp:151]     with loss weight 1
I1013 14:42:03.353384 19465 net.cpp:156] Memory required for data: 3837262404
I1013 14:42:03.353389 19465 layer_factory.hpp:77] Creating layer fc3_Big_Nose
I1013 14:42:03.353397 19465 net.cpp:91] Creating Layer fc3_Big_Nose
I1013 14:42:03.353404 19465 net.cpp:425] fc3_Big_Nose <- fc2_nose_drop2_nose_0_split_0
I1013 14:42:03.353412 19465 net.cpp:399] fc3_Big_Nose -> fc3_Big_Nose
I1013 14:42:03.353535 19465 net.cpp:141] Setting up fc3_Big_Nose
I1013 14:42:03.353545 19465 net.cpp:148] Top shape: 100 2 (200)
I1013 14:42:03.353549 19465 net.cpp:156] Memory required for data: 3837263204
I1013 14:42:03.353557 19465 layer_factory.hpp:77] Creating layer loss_Big_Nose
I1013 14:42:03.353569 19465 net.cpp:91] Creating Layer loss_Big_Nose
I1013 14:42:03.353572 19465 net.cpp:425] loss_Big_Nose <- fc3_Big_Nose
I1013 14:42:03.353579 19465 net.cpp:425] loss_Big_Nose <- label_Big_Nose
I1013 14:42:03.353587 19465 net.cpp:399] loss_Big_Nose -> loss_Big_Nose
I1013 14:42:03.353631 19465 net.cpp:141] Setting up loss_Big_Nose
I1013 14:42:03.353639 19465 net.cpp:148] Top shape: (1)
I1013 14:42:03.353643 19465 net.cpp:151]     with loss weight 1
I1013 14:42:03.353651 19465 net.cpp:156] Memory required for data: 3837263208
I1013 14:42:03.353654 19465 layer_factory.hpp:77] Creating layer fc3_Pointy_Nose
I1013 14:42:03.353664 19465 net.cpp:91] Creating Layer fc3_Pointy_Nose
I1013 14:42:03.353669 19465 net.cpp:425] fc3_Pointy_Nose <- fc2_nose_drop2_nose_0_split_1
I1013 14:42:03.353678 19465 net.cpp:399] fc3_Pointy_Nose -> fc3_Pointy_Nose
I1013 14:42:03.353801 19465 net.cpp:141] Setting up fc3_Pointy_Nose
I1013 14:42:03.353811 19465 net.cpp:148] Top shape: 100 2 (200)
I1013 14:42:03.353816 19465 net.cpp:156] Memory required for data: 3837264008
I1013 14:42:03.353852 19465 layer_factory.hpp:77] Creating layer loss_Pointy_Nose
I1013 14:42:03.353864 19465 net.cpp:91] Creating Layer loss_Pointy_Nose
I1013 14:42:03.353870 19465 net.cpp:425] loss_Pointy_Nose <- fc3_Pointy_Nose
I1013 14:42:03.353876 19465 net.cpp:425] loss_Pointy_Nose <- label_Pointy_Nose
I1013 14:42:03.353883 19465 net.cpp:399] loss_Pointy_Nose -> loss_Pointy_Nose
I1013 14:42:03.353929 19465 net.cpp:141] Setting up loss_Pointy_Nose
I1013 14:42:03.353937 19465 net.cpp:148] Top shape: (1)
I1013 14:42:03.353942 19465 net.cpp:151]     with loss weight 1
I1013 14:42:03.353948 19465 net.cpp:156] Memory required for data: 3837264012
I1013 14:42:03.353952 19465 layer_factory.hpp:77] Creating layer fc3_Big_Lips
I1013 14:42:03.353961 19465 net.cpp:91] Creating Layer fc3_Big_Lips
I1013 14:42:03.353966 19465 net.cpp:425] fc3_Big_Lips <- fc2_mouth_drop2_mouth_0_split_0
I1013 14:42:03.353976 19465 net.cpp:399] fc3_Big_Lips -> fc3_Big_Lips
I1013 14:42:03.354097 19465 net.cpp:141] Setting up fc3_Big_Lips
I1013 14:42:03.354107 19465 net.cpp:148] Top shape: 100 2 (200)
I1013 14:42:03.354111 19465 net.cpp:156] Memory required for data: 3837264812
I1013 14:42:03.354118 19465 layer_factory.hpp:77] Creating layer loss_Big_Lips
I1013 14:42:03.354130 19465 net.cpp:91] Creating Layer loss_Big_Lips
I1013 14:42:03.354135 19465 net.cpp:425] loss_Big_Lips <- fc3_Big_Lips
I1013 14:42:03.354141 19465 net.cpp:425] loss_Big_Lips <- label_Big_Lips
I1013 14:42:03.354148 19465 net.cpp:399] loss_Big_Lips -> loss_Big_Lips
I1013 14:42:03.354192 19465 net.cpp:141] Setting up loss_Big_Lips
I1013 14:42:03.354200 19465 net.cpp:148] Top shape: (1)
I1013 14:42:03.354205 19465 net.cpp:151]     with loss weight 1
I1013 14:42:03.354212 19465 net.cpp:156] Memory required for data: 3837264816
I1013 14:42:03.354215 19465 layer_factory.hpp:77] Creating layer fc3_Smiling
I1013 14:42:03.354245 19465 net.cpp:91] Creating Layer fc3_Smiling
I1013 14:42:03.354250 19465 net.cpp:425] fc3_Smiling <- fc2_mouth_drop2_mouth_0_split_1
I1013 14:42:03.354259 19465 net.cpp:399] fc3_Smiling -> fc3_Smiling
I1013 14:42:03.354383 19465 net.cpp:141] Setting up fc3_Smiling
I1013 14:42:03.354393 19465 net.cpp:148] Top shape: 100 2 (200)
I1013 14:42:03.354398 19465 net.cpp:156] Memory required for data: 3837265616
I1013 14:42:03.354416 19465 layer_factory.hpp:77] Creating layer loss_Smiling
I1013 14:42:03.354427 19465 net.cpp:91] Creating Layer loss_Smiling
I1013 14:42:03.354434 19465 net.cpp:425] loss_Smiling <- fc3_Smiling
I1013 14:42:03.354439 19465 net.cpp:425] loss_Smiling <- label_Smiling
I1013 14:42:03.354447 19465 net.cpp:399] loss_Smiling -> loss_Smiling
I1013 14:42:03.354496 19465 net.cpp:141] Setting up loss_Smiling
I1013 14:42:03.354504 19465 net.cpp:148] Top shape: (1)
I1013 14:42:03.354509 19465 net.cpp:151]     with loss weight 1
I1013 14:42:03.354516 19465 net.cpp:156] Memory required for data: 3837265620
I1013 14:42:03.354519 19465 layer_factory.hpp:77] Creating layer fc3_Wearing_Lipstick
I1013 14:42:03.354529 19465 net.cpp:91] Creating Layer fc3_Wearing_Lipstick
I1013 14:42:03.354534 19465 net.cpp:425] fc3_Wearing_Lipstick <- fc2_mouth_drop2_mouth_0_split_2
I1013 14:42:03.354542 19465 net.cpp:399] fc3_Wearing_Lipstick -> fc3_Wearing_Lipstick
I1013 14:42:03.354666 19465 net.cpp:141] Setting up fc3_Wearing_Lipstick
I1013 14:42:03.354676 19465 net.cpp:148] Top shape: 100 2 (200)
I1013 14:42:03.354681 19465 net.cpp:156] Memory required for data: 3837266420
I1013 14:42:03.354687 19465 layer_factory.hpp:77] Creating layer loss_Wearing_Lipstick
I1013 14:42:03.354698 19465 net.cpp:91] Creating Layer loss_Wearing_Lipstick
I1013 14:42:03.354703 19465 net.cpp:425] loss_Wearing_Lipstick <- fc3_Wearing_Lipstick
I1013 14:42:03.354709 19465 net.cpp:425] loss_Wearing_Lipstick <- label_Wearing_Lipstick
I1013 14:42:03.354717 19465 net.cpp:399] loss_Wearing_Lipstick -> loss_Wearing_Lipstick
I1013 14:42:03.354763 19465 net.cpp:141] Setting up loss_Wearing_Lipstick
I1013 14:42:03.354773 19465 net.cpp:148] Top shape: (1)
I1013 14:42:03.354776 19465 net.cpp:151]     with loss weight 1
I1013 14:42:03.354782 19465 net.cpp:156] Memory required for data: 3837266424
I1013 14:42:03.354786 19465 layer_factory.hpp:77] Creating layer fc3_Mouth_Slightly_Open
I1013 14:42:03.354795 19465 net.cpp:91] Creating Layer fc3_Mouth_Slightly_Open
I1013 14:42:03.354800 19465 net.cpp:425] fc3_Mouth_Slightly_Open <- fc2_mouth_drop2_mouth_0_split_3
I1013 14:42:03.354809 19465 net.cpp:399] fc3_Mouth_Slightly_Open -> fc3_Mouth_Slightly_Open
I1013 14:42:03.354928 19465 net.cpp:141] Setting up fc3_Mouth_Slightly_Open
I1013 14:42:03.354938 19465 net.cpp:148] Top shape: 100 2 (200)
I1013 14:42:03.354943 19465 net.cpp:156] Memory required for data: 3837267224
I1013 14:42:03.354949 19465 layer_factory.hpp:77] Creating layer loss_Mouth_Slightly_Open
I1013 14:42:03.354959 19465 net.cpp:91] Creating Layer loss_Mouth_Slightly_Open
I1013 14:42:03.354964 19465 net.cpp:425] loss_Mouth_Slightly_Open <- fc3_Mouth_Slightly_Open
I1013 14:42:03.354969 19465 net.cpp:425] loss_Mouth_Slightly_Open <- label_Mouth_Slightly_Open
I1013 14:42:03.354977 19465 net.cpp:399] loss_Mouth_Slightly_Open -> loss_Mouth_Slightly_Open
I1013 14:42:03.355020 19465 net.cpp:141] Setting up loss_Mouth_Slightly_Open
I1013 14:42:03.355031 19465 net.cpp:148] Top shape: (1)
I1013 14:42:03.355034 19465 net.cpp:151]     with loss weight 1
I1013 14:42:03.355041 19465 net.cpp:156] Memory required for data: 3837267228
I1013 14:42:03.355044 19465 layer_factory.hpp:77] Creating layer fc3_Arched_Eyebrows
I1013 14:42:03.355054 19465 net.cpp:91] Creating Layer fc3_Arched_Eyebrows
I1013 14:42:03.355059 19465 net.cpp:425] fc3_Arched_Eyebrows <- fc2_eyes_drop2_eyes_0_split_0
I1013 14:42:03.355067 19465 net.cpp:399] fc3_Arched_Eyebrows -> fc3_Arched_Eyebrows
I1013 14:42:03.355190 19465 net.cpp:141] Setting up fc3_Arched_Eyebrows
I1013 14:42:03.355198 19465 net.cpp:148] Top shape: 100 2 (200)
I1013 14:42:03.355203 19465 net.cpp:156] Memory required for data: 3837268028
I1013 14:42:03.355211 19465 layer_factory.hpp:77] Creating layer loss_Arched_Eyebrows
I1013 14:42:03.355221 19465 net.cpp:91] Creating Layer loss_Arched_Eyebrows
I1013 14:42:03.355226 19465 net.cpp:425] loss_Arched_Eyebrows <- fc3_Arched_Eyebrows
I1013 14:42:03.355232 19465 net.cpp:425] loss_Arched_Eyebrows <- label_Arched_Eyebrows
I1013 14:42:03.355249 19465 net.cpp:399] loss_Arched_Eyebrows -> loss_Arched_Eyebrows
I1013 14:42:03.355298 19465 net.cpp:141] Setting up loss_Arched_Eyebrows
I1013 14:42:03.355309 19465 net.cpp:148] Top shape: (1)
I1013 14:42:03.355314 19465 net.cpp:151]     with loss weight 1
I1013 14:42:03.355319 19465 net.cpp:156] Memory required for data: 3837268032
I1013 14:42:03.355324 19465 layer_factory.hpp:77] Creating layer fc3_Bags_Under_Eyes
I1013 14:42:03.355334 19465 net.cpp:91] Creating Layer fc3_Bags_Under_Eyes
I1013 14:42:03.355339 19465 net.cpp:425] fc3_Bags_Under_Eyes <- fc2_eyes_drop2_eyes_0_split_1
I1013 14:42:03.355346 19465 net.cpp:399] fc3_Bags_Under_Eyes -> fc3_Bags_Under_Eyes
I1013 14:42:03.355468 19465 net.cpp:141] Setting up fc3_Bags_Under_Eyes
I1013 14:42:03.355478 19465 net.cpp:148] Top shape: 100 2 (200)
I1013 14:42:03.355482 19465 net.cpp:156] Memory required for data: 3837268832
I1013 14:42:03.355489 19465 layer_factory.hpp:77] Creating layer loss_Bags_Under_Eyes
I1013 14:42:03.355499 19465 net.cpp:91] Creating Layer loss_Bags_Under_Eyes
I1013 14:42:03.355504 19465 net.cpp:425] loss_Bags_Under_Eyes <- fc3_Bags_Under_Eyes
I1013 14:42:03.355510 19465 net.cpp:425] loss_Bags_Under_Eyes <- label_Bags_Under_Eyes
I1013 14:42:03.355518 19465 net.cpp:399] loss_Bags_Under_Eyes -> loss_Bags_Under_Eyes
I1013 14:42:03.355563 19465 net.cpp:141] Setting up loss_Bags_Under_Eyes
I1013 14:42:03.355572 19465 net.cpp:148] Top shape: (1)
I1013 14:42:03.355576 19465 net.cpp:151]     with loss weight 1
I1013 14:42:03.355582 19465 net.cpp:156] Memory required for data: 3837268836
I1013 14:42:03.355587 19465 layer_factory.hpp:77] Creating layer fc3_Bushy_Eyebrows
I1013 14:42:03.355597 19465 net.cpp:91] Creating Layer fc3_Bushy_Eyebrows
I1013 14:42:03.355602 19465 net.cpp:425] fc3_Bushy_Eyebrows <- fc2_eyes_drop2_eyes_0_split_2
I1013 14:42:03.355609 19465 net.cpp:399] fc3_Bushy_Eyebrows -> fc3_Bushy_Eyebrows
I1013 14:42:03.355731 19465 net.cpp:141] Setting up fc3_Bushy_Eyebrows
I1013 14:42:03.355739 19465 net.cpp:148] Top shape: 100 2 (200)
I1013 14:42:03.355743 19465 net.cpp:156] Memory required for data: 3837269636
I1013 14:42:03.355751 19465 layer_factory.hpp:77] Creating layer loss_Bushy_Eyebrows
I1013 14:42:03.355761 19465 net.cpp:91] Creating Layer loss_Bushy_Eyebrows
I1013 14:42:03.355765 19465 net.cpp:425] loss_Bushy_Eyebrows <- fc3_Bushy_Eyebrows
I1013 14:42:03.355772 19465 net.cpp:425] loss_Bushy_Eyebrows <- label_Bushy_Eyebrows
I1013 14:42:03.355779 19465 net.cpp:399] loss_Bushy_Eyebrows -> loss_Bushy_Eyebrows
I1013 14:42:03.355832 19465 net.cpp:141] Setting up loss_Bushy_Eyebrows
I1013 14:42:03.355844 19465 net.cpp:148] Top shape: (1)
I1013 14:42:03.355847 19465 net.cpp:151]     with loss weight 1
I1013 14:42:03.355854 19465 net.cpp:156] Memory required for data: 3837269640
I1013 14:42:03.355857 19465 layer_factory.hpp:77] Creating layer fc3_Narrow_Eyes
I1013 14:42:03.355867 19465 net.cpp:91] Creating Layer fc3_Narrow_Eyes
I1013 14:42:03.355872 19465 net.cpp:425] fc3_Narrow_Eyes <- fc2_eyes_drop2_eyes_0_split_3
I1013 14:42:03.355881 19465 net.cpp:399] fc3_Narrow_Eyes -> fc3_Narrow_Eyes
I1013 14:42:03.356003 19465 net.cpp:141] Setting up fc3_Narrow_Eyes
I1013 14:42:03.356012 19465 net.cpp:148] Top shape: 100 2 (200)
I1013 14:42:03.356017 19465 net.cpp:156] Memory required for data: 3837270440
I1013 14:42:03.356024 19465 layer_factory.hpp:77] Creating layer loss_Narrow_Eyes
I1013 14:42:03.356034 19465 net.cpp:91] Creating Layer loss_Narrow_Eyes
I1013 14:42:03.356039 19465 net.cpp:425] loss_Narrow_Eyes <- fc3_Narrow_Eyes
I1013 14:42:03.356045 19465 net.cpp:425] loss_Narrow_Eyes <- label_Narrow_Eyes
I1013 14:42:03.356051 19465 net.cpp:399] loss_Narrow_Eyes -> loss_Narrow_Eyes
I1013 14:42:03.356097 19465 net.cpp:141] Setting up loss_Narrow_Eyes
I1013 14:42:03.356106 19465 net.cpp:148] Top shape: (1)
I1013 14:42:03.356111 19465 net.cpp:151]     with loss weight 1
I1013 14:42:03.356115 19465 net.cpp:156] Memory required for data: 3837270444
I1013 14:42:03.356119 19465 layer_factory.hpp:77] Creating layer fc3_Eyeglasses
I1013 14:42:03.356140 19465 net.cpp:91] Creating Layer fc3_Eyeglasses
I1013 14:42:03.356147 19465 net.cpp:425] fc3_Eyeglasses <- fc2_eyes_drop2_eyes_0_split_4
I1013 14:42:03.356155 19465 net.cpp:399] fc3_Eyeglasses -> fc3_Eyeglasses
I1013 14:42:03.356277 19465 net.cpp:141] Setting up fc3_Eyeglasses
I1013 14:42:03.356287 19465 net.cpp:148] Top shape: 100 2 (200)
I1013 14:42:03.356292 19465 net.cpp:156] Memory required for data: 3837271244
I1013 14:42:03.356299 19465 layer_factory.hpp:77] Creating layer loss_Eyeglasses
I1013 14:42:03.356309 19465 net.cpp:91] Creating Layer loss_Eyeglasses
I1013 14:42:03.356314 19465 net.cpp:425] loss_Eyeglasses <- fc3_Eyeglasses
I1013 14:42:03.356320 19465 net.cpp:425] loss_Eyeglasses <- label_Eyeglasses
I1013 14:42:03.356328 19465 net.cpp:399] loss_Eyeglasses -> loss_Eyeglasses
I1013 14:42:03.356374 19465 net.cpp:141] Setting up loss_Eyeglasses
I1013 14:42:03.356381 19465 net.cpp:148] Top shape: (1)
I1013 14:42:03.356385 19465 net.cpp:151]     with loss weight 1
I1013 14:42:03.356391 19465 net.cpp:156] Memory required for data: 3837271248
I1013 14:42:03.356395 19465 layer_factory.hpp:77] Creating layer fc3_Attractive
I1013 14:42:03.356405 19465 net.cpp:91] Creating Layer fc3_Attractive
I1013 14:42:03.356410 19465 net.cpp:425] fc3_Attractive <- fc2_face_drop2_face_0_split_0
I1013 14:42:03.356420 19465 net.cpp:399] fc3_Attractive -> fc3_Attractive
I1013 14:42:03.356537 19465 net.cpp:141] Setting up fc3_Attractive
I1013 14:42:03.356547 19465 net.cpp:148] Top shape: 100 2 (200)
I1013 14:42:03.356551 19465 net.cpp:156] Memory required for data: 3837272048
I1013 14:42:03.356559 19465 layer_factory.hpp:77] Creating layer loss_Attractive
I1013 14:42:03.356569 19465 net.cpp:91] Creating Layer loss_Attractive
I1013 14:42:03.356573 19465 net.cpp:425] loss_Attractive <- fc3_Attractive
I1013 14:42:03.356580 19465 net.cpp:425] loss_Attractive <- label_Attractive
I1013 14:42:03.356587 19465 net.cpp:399] loss_Attractive -> loss_Attractive
I1013 14:42:03.356631 19465 net.cpp:141] Setting up loss_Attractive
I1013 14:42:03.356640 19465 net.cpp:148] Top shape: (1)
I1013 14:42:03.356644 19465 net.cpp:151]     with loss weight 1
I1013 14:42:03.356650 19465 net.cpp:156] Memory required for data: 3837272052
I1013 14:42:03.356654 19465 layer_factory.hpp:77] Creating layer fc3_Blurry
I1013 14:42:03.356664 19465 net.cpp:91] Creating Layer fc3_Blurry
I1013 14:42:03.356669 19465 net.cpp:425] fc3_Blurry <- fc2_face_drop2_face_0_split_1
I1013 14:42:03.356678 19465 net.cpp:399] fc3_Blurry -> fc3_Blurry
I1013 14:42:03.356796 19465 net.cpp:141] Setting up fc3_Blurry
I1013 14:42:03.356804 19465 net.cpp:148] Top shape: 100 2 (200)
I1013 14:42:03.356808 19465 net.cpp:156] Memory required for data: 3837272852
I1013 14:42:03.356815 19465 layer_factory.hpp:77] Creating layer loss_Blurry
I1013 14:42:03.356824 19465 net.cpp:91] Creating Layer loss_Blurry
I1013 14:42:03.356829 19465 net.cpp:425] loss_Blurry <- fc3_Blurry
I1013 14:42:03.356835 19465 net.cpp:425] loss_Blurry <- label_Blurry
I1013 14:42:03.356843 19465 net.cpp:399] loss_Blurry -> loss_Blurry
I1013 14:42:03.356889 19465 net.cpp:141] Setting up loss_Blurry
I1013 14:42:03.356897 19465 net.cpp:148] Top shape: (1)
I1013 14:42:03.356901 19465 net.cpp:151]     with loss weight 1
I1013 14:42:03.356907 19465 net.cpp:156] Memory required for data: 3837272856
I1013 14:42:03.356911 19465 layer_factory.hpp:77] Creating layer fc3_Oval_Face
I1013 14:42:03.356920 19465 net.cpp:91] Creating Layer fc3_Oval_Face
I1013 14:42:03.356925 19465 net.cpp:425] fc3_Oval_Face <- fc2_face_drop2_face_0_split_2
I1013 14:42:03.356935 19465 net.cpp:399] fc3_Oval_Face -> fc3_Oval_Face
I1013 14:42:03.357054 19465 net.cpp:141] Setting up fc3_Oval_Face
I1013 14:42:03.357064 19465 net.cpp:148] Top shape: 100 2 (200)
I1013 14:42:03.357069 19465 net.cpp:156] Memory required for data: 3837273656
I1013 14:42:03.357075 19465 layer_factory.hpp:77] Creating layer loss_Oval_Face
I1013 14:42:03.357085 19465 net.cpp:91] Creating Layer loss_Oval_Face
I1013 14:42:03.357090 19465 net.cpp:425] loss_Oval_Face <- fc3_Oval_Face
I1013 14:42:03.357106 19465 net.cpp:425] loss_Oval_Face <- label_Oval_Face
I1013 14:42:03.357115 19465 net.cpp:399] loss_Oval_Face -> loss_Oval_Face
I1013 14:42:03.357163 19465 net.cpp:141] Setting up loss_Oval_Face
I1013 14:42:03.357172 19465 net.cpp:148] Top shape: (1)
I1013 14:42:03.357177 19465 net.cpp:151]     with loss weight 1
I1013 14:42:03.357182 19465 net.cpp:156] Memory required for data: 3837273660
I1013 14:42:03.357187 19465 layer_factory.hpp:77] Creating layer fc3_Pale_Skin
I1013 14:42:03.357197 19465 net.cpp:91] Creating Layer fc3_Pale_Skin
I1013 14:42:03.357201 19465 net.cpp:425] fc3_Pale_Skin <- fc2_face_drop2_face_0_split_3
I1013 14:42:03.357210 19465 net.cpp:399] fc3_Pale_Skin -> fc3_Pale_Skin
I1013 14:42:03.357331 19465 net.cpp:141] Setting up fc3_Pale_Skin
I1013 14:42:03.357339 19465 net.cpp:148] Top shape: 100 2 (200)
I1013 14:42:03.357344 19465 net.cpp:156] Memory required for data: 3837274460
I1013 14:42:03.357352 19465 layer_factory.hpp:77] Creating layer loss_Pale_Skin
I1013 14:42:03.357362 19465 net.cpp:91] Creating Layer loss_Pale_Skin
I1013 14:42:03.357367 19465 net.cpp:425] loss_Pale_Skin <- fc3_Pale_Skin
I1013 14:42:03.357372 19465 net.cpp:425] loss_Pale_Skin <- label_Pale_Skin
I1013 14:42:03.357379 19465 net.cpp:399] loss_Pale_Skin -> loss_Pale_Skin
I1013 14:42:03.357424 19465 net.cpp:141] Setting up loss_Pale_Skin
I1013 14:42:03.357434 19465 net.cpp:148] Top shape: (1)
I1013 14:42:03.357437 19465 net.cpp:151]     with loss weight 1
I1013 14:42:03.357444 19465 net.cpp:156] Memory required for data: 3837274464
I1013 14:42:03.357447 19465 layer_factory.hpp:77] Creating layer fc3_Young
I1013 14:42:03.357456 19465 net.cpp:91] Creating Layer fc3_Young
I1013 14:42:03.357461 19465 net.cpp:425] fc3_Young <- fc2_face_drop2_face_0_split_4
I1013 14:42:03.357470 19465 net.cpp:399] fc3_Young -> fc3_Young
I1013 14:42:03.357589 19465 net.cpp:141] Setting up fc3_Young
I1013 14:42:03.357597 19465 net.cpp:148] Top shape: 100 2 (200)
I1013 14:42:03.357602 19465 net.cpp:156] Memory required for data: 3837275264
I1013 14:42:03.357609 19465 layer_factory.hpp:77] Creating layer loss_Young
I1013 14:42:03.357620 19465 net.cpp:91] Creating Layer loss_Young
I1013 14:42:03.357625 19465 net.cpp:425] loss_Young <- fc3_Young
I1013 14:42:03.357630 19465 net.cpp:425] loss_Young <- label_Young
I1013 14:42:03.357638 19465 net.cpp:399] loss_Young -> loss_Young
I1013 14:42:03.357681 19465 net.cpp:141] Setting up loss_Young
I1013 14:42:03.357689 19465 net.cpp:148] Top shape: (1)
I1013 14:42:03.357694 19465 net.cpp:151]     with loss weight 1
I1013 14:42:03.357699 19465 net.cpp:156] Memory required for data: 3837275268
I1013 14:42:03.357703 19465 layer_factory.hpp:77] Creating layer fc3_Heavy_Makeup
I1013 14:42:03.357712 19465 net.cpp:91] Creating Layer fc3_Heavy_Makeup
I1013 14:42:03.357717 19465 net.cpp:425] fc3_Heavy_Makeup <- fc2_face_drop2_face_0_split_5
I1013 14:42:03.357727 19465 net.cpp:399] fc3_Heavy_Makeup -> fc3_Heavy_Makeup
I1013 14:42:03.357846 19465 net.cpp:141] Setting up fc3_Heavy_Makeup
I1013 14:42:03.357854 19465 net.cpp:148] Top shape: 100 2 (200)
I1013 14:42:03.357859 19465 net.cpp:156] Memory required for data: 3837276068
I1013 14:42:03.357867 19465 layer_factory.hpp:77] Creating layer loss_Heavy_Makeup
I1013 14:42:03.357877 19465 net.cpp:91] Creating Layer loss_Heavy_Makeup
I1013 14:42:03.357880 19465 net.cpp:425] loss_Heavy_Makeup <- fc3_Heavy_Makeup
I1013 14:42:03.357887 19465 net.cpp:425] loss_Heavy_Makeup <- label_Heavy_Makeup
I1013 14:42:03.357894 19465 net.cpp:399] loss_Heavy_Makeup -> loss_Heavy_Makeup
I1013 14:42:03.357940 19465 net.cpp:141] Setting up loss_Heavy_Makeup
I1013 14:42:03.357949 19465 net.cpp:148] Top shape: (1)
I1013 14:42:03.357952 19465 net.cpp:151]     with loss weight 1
I1013 14:42:03.357959 19465 net.cpp:156] Memory required for data: 3837276072
I1013 14:42:03.357962 19465 layer_factory.hpp:77] Creating layer fc3_Black_Hair
I1013 14:42:03.357972 19465 net.cpp:91] Creating Layer fc3_Black_Hair
I1013 14:42:03.357977 19465 net.cpp:425] fc3_Black_Hair <- fc2_aroundhead_drop2_aroundhead_0_split_0
I1013 14:42:03.357997 19465 net.cpp:399] fc3_Black_Hair -> fc3_Black_Hair
I1013 14:42:03.358122 19465 net.cpp:141] Setting up fc3_Black_Hair
I1013 14:42:03.358132 19465 net.cpp:148] Top shape: 100 2 (200)
I1013 14:42:03.358137 19465 net.cpp:156] Memory required for data: 3837276872
I1013 14:42:03.358144 19465 layer_factory.hpp:77] Creating layer loss_Black_Hair
I1013 14:42:03.358155 19465 net.cpp:91] Creating Layer loss_Black_Hair
I1013 14:42:03.358158 19465 net.cpp:425] loss_Black_Hair <- fc3_Black_Hair
I1013 14:42:03.358165 19465 net.cpp:425] loss_Black_Hair <- label_Black_Hair
I1013 14:42:03.358172 19465 net.cpp:399] loss_Black_Hair -> loss_Black_Hair
I1013 14:42:03.358217 19465 net.cpp:141] Setting up loss_Black_Hair
I1013 14:42:03.358225 19465 net.cpp:148] Top shape: (1)
I1013 14:42:03.358230 19465 net.cpp:151]     with loss weight 1
I1013 14:42:03.358237 19465 net.cpp:156] Memory required for data: 3837276876
I1013 14:42:03.358240 19465 layer_factory.hpp:77] Creating layer fc3_Blond_Hair
I1013 14:42:03.358249 19465 net.cpp:91] Creating Layer fc3_Blond_Hair
I1013 14:42:03.358254 19465 net.cpp:425] fc3_Blond_Hair <- fc2_aroundhead_drop2_aroundhead_0_split_1
I1013 14:42:03.358263 19465 net.cpp:399] fc3_Blond_Hair -> fc3_Blond_Hair
I1013 14:42:03.358383 19465 net.cpp:141] Setting up fc3_Blond_Hair
I1013 14:42:03.358393 19465 net.cpp:148] Top shape: 100 2 (200)
I1013 14:42:03.358397 19465 net.cpp:156] Memory required for data: 3837277676
I1013 14:42:03.358404 19465 layer_factory.hpp:77] Creating layer loss_Blond_Hair
I1013 14:42:03.358413 19465 net.cpp:91] Creating Layer loss_Blond_Hair
I1013 14:42:03.358418 19465 net.cpp:425] loss_Blond_Hair <- fc3_Blond_Hair
I1013 14:42:03.358424 19465 net.cpp:425] loss_Blond_Hair <- label_Blond_Hair
I1013 14:42:03.358431 19465 net.cpp:399] loss_Blond_Hair -> loss_Blond_Hair
I1013 14:42:03.358474 19465 net.cpp:141] Setting up loss_Blond_Hair
I1013 14:42:03.358482 19465 net.cpp:148] Top shape: (1)
I1013 14:42:03.358486 19465 net.cpp:151]     with loss weight 1
I1013 14:42:03.358492 19465 net.cpp:156] Memory required for data: 3837277680
I1013 14:42:03.358496 19465 layer_factory.hpp:77] Creating layer fc3_Brown_Hair
I1013 14:42:03.358506 19465 net.cpp:91] Creating Layer fc3_Brown_Hair
I1013 14:42:03.358511 19465 net.cpp:425] fc3_Brown_Hair <- fc2_aroundhead_drop2_aroundhead_0_split_2
I1013 14:42:03.358520 19465 net.cpp:399] fc3_Brown_Hair -> fc3_Brown_Hair
I1013 14:42:03.358639 19465 net.cpp:141] Setting up fc3_Brown_Hair
I1013 14:42:03.358647 19465 net.cpp:148] Top shape: 100 2 (200)
I1013 14:42:03.358651 19465 net.cpp:156] Memory required for data: 3837278480
I1013 14:42:03.358659 19465 layer_factory.hpp:77] Creating layer loss_Brown_Hair
I1013 14:42:03.358669 19465 net.cpp:91] Creating Layer loss_Brown_Hair
I1013 14:42:03.358674 19465 net.cpp:425] loss_Brown_Hair <- fc3_Brown_Hair
I1013 14:42:03.358680 19465 net.cpp:425] loss_Brown_Hair <- label_Brown_Hair
I1013 14:42:03.358687 19465 net.cpp:399] loss_Brown_Hair -> loss_Brown_Hair
I1013 14:42:03.358732 19465 net.cpp:141] Setting up loss_Brown_Hair
I1013 14:42:03.358741 19465 net.cpp:148] Top shape: (1)
I1013 14:42:03.358746 19465 net.cpp:151]     with loss weight 1
I1013 14:42:03.358752 19465 net.cpp:156] Memory required for data: 3837278484
I1013 14:42:03.358755 19465 layer_factory.hpp:77] Creating layer fc3_Gray_Hair
I1013 14:42:03.358764 19465 net.cpp:91] Creating Layer fc3_Gray_Hair
I1013 14:42:03.358770 19465 net.cpp:425] fc3_Gray_Hair <- fc2_aroundhead_drop2_aroundhead_0_split_3
I1013 14:42:03.358779 19465 net.cpp:399] fc3_Gray_Hair -> fc3_Gray_Hair
I1013 14:42:03.358898 19465 net.cpp:141] Setting up fc3_Gray_Hair
I1013 14:42:03.358907 19465 net.cpp:148] Top shape: 100 2 (200)
I1013 14:42:03.358911 19465 net.cpp:156] Memory required for data: 3837279284
I1013 14:42:03.358919 19465 layer_factory.hpp:77] Creating layer loss_Gray_Hair
I1013 14:42:03.358928 19465 net.cpp:91] Creating Layer loss_Gray_Hair
I1013 14:42:03.358933 19465 net.cpp:425] loss_Gray_Hair <- fc3_Gray_Hair
I1013 14:42:03.358949 19465 net.cpp:425] loss_Gray_Hair <- label_Gray_Hair
I1013 14:42:03.358957 19465 net.cpp:399] loss_Gray_Hair -> loss_Gray_Hair
I1013 14:42:03.359004 19465 net.cpp:141] Setting up loss_Gray_Hair
I1013 14:42:03.359014 19465 net.cpp:148] Top shape: (1)
I1013 14:42:03.359019 19465 net.cpp:151]     with loss weight 1
I1013 14:42:03.359025 19465 net.cpp:156] Memory required for data: 3837279288
I1013 14:42:03.359030 19465 layer_factory.hpp:77] Creating layer fc3_Wearing_Earrings
I1013 14:42:03.359040 19465 net.cpp:91] Creating Layer fc3_Wearing_Earrings
I1013 14:42:03.359043 19465 net.cpp:425] fc3_Wearing_Earrings <- fc2_aroundhead_drop2_aroundhead_0_split_4
I1013 14:42:03.359053 19465 net.cpp:399] fc3_Wearing_Earrings -> fc3_Wearing_Earrings
I1013 14:42:03.359179 19465 net.cpp:141] Setting up fc3_Wearing_Earrings
I1013 14:42:03.359189 19465 net.cpp:148] Top shape: 100 2 (200)
I1013 14:42:03.359192 19465 net.cpp:156] Memory required for data: 3837280088
I1013 14:42:03.359200 19465 layer_factory.hpp:77] Creating layer loss_Wearing_Earrings
I1013 14:42:03.359210 19465 net.cpp:91] Creating Layer loss_Wearing_Earrings
I1013 14:42:03.359215 19465 net.cpp:425] loss_Wearing_Earrings <- fc3_Wearing_Earrings
I1013 14:42:03.359220 19465 net.cpp:425] loss_Wearing_Earrings <- label_Wearing_Earrings
I1013 14:42:03.359227 19465 net.cpp:399] loss_Wearing_Earrings -> loss_Wearing_Earrings
I1013 14:42:03.359271 19465 net.cpp:141] Setting up loss_Wearing_Earrings
I1013 14:42:03.359279 19465 net.cpp:148] Top shape: (1)
I1013 14:42:03.359283 19465 net.cpp:151]     with loss weight 1
I1013 14:42:03.359289 19465 net.cpp:156] Memory required for data: 3837280092
I1013 14:42:03.359293 19465 layer_factory.hpp:77] Creating layer fc3_Wearing_Necklace
I1013 14:42:03.359302 19465 net.cpp:91] Creating Layer fc3_Wearing_Necklace
I1013 14:42:03.359308 19465 net.cpp:425] fc3_Wearing_Necklace <- fc2_aroundhead_drop2_aroundhead_0_split_5
I1013 14:42:03.359316 19465 net.cpp:399] fc3_Wearing_Necklace -> fc3_Wearing_Necklace
I1013 14:42:03.359441 19465 net.cpp:141] Setting up fc3_Wearing_Necklace
I1013 14:42:03.359452 19465 net.cpp:148] Top shape: 100 2 (200)
I1013 14:42:03.359457 19465 net.cpp:156] Memory required for data: 3837280892
I1013 14:42:03.359464 19465 layer_factory.hpp:77] Creating layer loss_Wearing_Necklace
I1013 14:42:03.359473 19465 net.cpp:91] Creating Layer loss_Wearing_Necklace
I1013 14:42:03.359478 19465 net.cpp:425] loss_Wearing_Necklace <- fc3_Wearing_Necklace
I1013 14:42:03.359485 19465 net.cpp:425] loss_Wearing_Necklace <- label_Wearing_Necklace
I1013 14:42:03.359493 19465 net.cpp:399] loss_Wearing_Necklace -> loss_Wearing_Necklace
I1013 14:42:03.359536 19465 net.cpp:141] Setting up loss_Wearing_Necklace
I1013 14:42:03.359545 19465 net.cpp:148] Top shape: (1)
I1013 14:42:03.359550 19465 net.cpp:151]     with loss weight 1
I1013 14:42:03.359555 19465 net.cpp:156] Memory required for data: 3837280896
I1013 14:42:03.359560 19465 layer_factory.hpp:77] Creating layer fc3_Wearing_Necktie
I1013 14:42:03.359570 19465 net.cpp:91] Creating Layer fc3_Wearing_Necktie
I1013 14:42:03.359575 19465 net.cpp:425] fc3_Wearing_Necktie <- fc2_aroundhead_drop2_aroundhead_0_split_6
I1013 14:42:03.359582 19465 net.cpp:399] fc3_Wearing_Necktie -> fc3_Wearing_Necktie
I1013 14:42:03.359704 19465 net.cpp:141] Setting up fc3_Wearing_Necktie
I1013 14:42:03.359714 19465 net.cpp:148] Top shape: 100 2 (200)
I1013 14:42:03.359717 19465 net.cpp:156] Memory required for data: 3837281696
I1013 14:42:03.359724 19465 layer_factory.hpp:77] Creating layer loss_Wearing_Necktie
I1013 14:42:03.359735 19465 net.cpp:91] Creating Layer loss_Wearing_Necktie
I1013 14:42:03.359740 19465 net.cpp:425] loss_Wearing_Necktie <- fc3_Wearing_Necktie
I1013 14:42:03.359745 19465 net.cpp:425] loss_Wearing_Necktie <- label_Wearing_Necktie
I1013 14:42:03.359752 19465 net.cpp:399] loss_Wearing_Necktie -> loss_Wearing_Necktie
I1013 14:42:03.359797 19465 net.cpp:141] Setting up loss_Wearing_Necktie
I1013 14:42:03.359805 19465 net.cpp:148] Top shape: (1)
I1013 14:42:03.359814 19465 net.cpp:151]     with loss weight 1
I1013 14:42:03.359833 19465 net.cpp:156] Memory required for data: 3837281700
I1013 14:42:03.359838 19465 layer_factory.hpp:77] Creating layer fc3_Bald
I1013 14:42:03.359848 19465 net.cpp:91] Creating Layer fc3_Bald
I1013 14:42:03.359853 19465 net.cpp:425] fc3_Bald <- fc2_aroundhead_drop2_aroundhead_0_split_7
I1013 14:42:03.359861 19465 net.cpp:399] fc3_Bald -> fc3_Bald
I1013 14:42:03.359982 19465 net.cpp:141] Setting up fc3_Bald
I1013 14:42:03.359993 19465 net.cpp:148] Top shape: 100 2 (200)
I1013 14:42:03.359997 19465 net.cpp:156] Memory required for data: 3837282500
I1013 14:42:03.360004 19465 layer_factory.hpp:77] Creating layer loss_Bald
I1013 14:42:03.360014 19465 net.cpp:91] Creating Layer loss_Bald
I1013 14:42:03.360019 19465 net.cpp:425] loss_Bald <- fc3_Bald
I1013 14:42:03.360025 19465 net.cpp:425] loss_Bald <- label_Bald
I1013 14:42:03.360033 19465 net.cpp:399] loss_Bald -> loss_Bald
I1013 14:42:03.360075 19465 net.cpp:141] Setting up loss_Bald
I1013 14:42:03.360085 19465 net.cpp:148] Top shape: (1)
I1013 14:42:03.360088 19465 net.cpp:151]     with loss weight 1
I1013 14:42:03.360095 19465 net.cpp:156] Memory required for data: 3837282504
I1013 14:42:03.360100 19465 layer_factory.hpp:77] Creating layer fc3_Receding_Hairline
I1013 14:42:03.360108 19465 net.cpp:91] Creating Layer fc3_Receding_Hairline
I1013 14:42:03.360113 19465 net.cpp:425] fc3_Receding_Hairline <- fc2_aroundhead_drop2_aroundhead_0_split_8
I1013 14:42:03.360123 19465 net.cpp:399] fc3_Receding_Hairline -> fc3_Receding_Hairline
I1013 14:42:03.360239 19465 net.cpp:141] Setting up fc3_Receding_Hairline
I1013 14:42:03.360249 19465 net.cpp:148] Top shape: 100 2 (200)
I1013 14:42:03.360254 19465 net.cpp:156] Memory required for data: 3837283304
I1013 14:42:03.360260 19465 layer_factory.hpp:77] Creating layer loss_Receding_Hairline
I1013 14:42:03.360270 19465 net.cpp:91] Creating Layer loss_Receding_Hairline
I1013 14:42:03.360275 19465 net.cpp:425] loss_Receding_Hairline <- fc3_Receding_Hairline
I1013 14:42:03.360281 19465 net.cpp:425] loss_Receding_Hairline <- label_Receding_Hairline
I1013 14:42:03.360288 19465 net.cpp:399] loss_Receding_Hairline -> loss_Receding_Hairline
I1013 14:42:03.360332 19465 net.cpp:141] Setting up loss_Receding_Hairline
I1013 14:42:03.360340 19465 net.cpp:148] Top shape: (1)
I1013 14:42:03.360344 19465 net.cpp:151]     with loss weight 1
I1013 14:42:03.360349 19465 net.cpp:156] Memory required for data: 3837283308
I1013 14:42:03.360353 19465 layer_factory.hpp:77] Creating layer fc3_Bangs
I1013 14:42:03.360363 19465 net.cpp:91] Creating Layer fc3_Bangs
I1013 14:42:03.360368 19465 net.cpp:425] fc3_Bangs <- fc2_aroundhead_drop2_aroundhead_0_split_9
I1013 14:42:03.360378 19465 net.cpp:399] fc3_Bangs -> fc3_Bangs
I1013 14:42:03.360496 19465 net.cpp:141] Setting up fc3_Bangs
I1013 14:42:03.360505 19465 net.cpp:148] Top shape: 100 2 (200)
I1013 14:42:03.360509 19465 net.cpp:156] Memory required for data: 3837284108
I1013 14:42:03.360517 19465 layer_factory.hpp:77] Creating layer loss_Bangs
I1013 14:42:03.360527 19465 net.cpp:91] Creating Layer loss_Bangs
I1013 14:42:03.360532 19465 net.cpp:425] loss_Bangs <- fc3_Bangs
I1013 14:42:03.360538 19465 net.cpp:425] loss_Bangs <- label_Bangs
I1013 14:42:03.360545 19465 net.cpp:399] loss_Bangs -> loss_Bangs
I1013 14:42:03.360589 19465 net.cpp:141] Setting up loss_Bangs
I1013 14:42:03.360597 19465 net.cpp:148] Top shape: (1)
I1013 14:42:03.360602 19465 net.cpp:151]     with loss weight 1
I1013 14:42:03.360607 19465 net.cpp:156] Memory required for data: 3837284112
I1013 14:42:03.360611 19465 layer_factory.hpp:77] Creating layer fc3_Wearing_Hat
I1013 14:42:03.360620 19465 net.cpp:91] Creating Layer fc3_Wearing_Hat
I1013 14:42:03.360626 19465 net.cpp:425] fc3_Wearing_Hat <- fc2_aroundhead_drop2_aroundhead_0_split_10
I1013 14:42:03.360635 19465 net.cpp:399] fc3_Wearing_Hat -> fc3_Wearing_Hat
I1013 14:42:03.360754 19465 net.cpp:141] Setting up fc3_Wearing_Hat
I1013 14:42:03.360762 19465 net.cpp:148] Top shape: 100 2 (200)
I1013 14:42:03.360767 19465 net.cpp:156] Memory required for data: 3837284912
I1013 14:42:03.360785 19465 layer_factory.hpp:77] Creating layer loss_Wearing_Hat
I1013 14:42:03.360795 19465 net.cpp:91] Creating Layer loss_Wearing_Hat
I1013 14:42:03.360800 19465 net.cpp:425] loss_Wearing_Hat <- fc3_Wearing_Hat
I1013 14:42:03.360807 19465 net.cpp:425] loss_Wearing_Hat <- label_Wearing_Hat
I1013 14:42:03.360815 19465 net.cpp:399] loss_Wearing_Hat -> loss_Wearing_Hat
I1013 14:42:03.360860 19465 net.cpp:141] Setting up loss_Wearing_Hat
I1013 14:42:03.360869 19465 net.cpp:148] Top shape: (1)
I1013 14:42:03.360873 19465 net.cpp:151]     with loss weight 1
I1013 14:42:03.360879 19465 net.cpp:156] Memory required for data: 3837284916
I1013 14:42:03.360884 19465 layer_factory.hpp:77] Creating layer fc3_Straight_Hair
I1013 14:42:03.360894 19465 net.cpp:91] Creating Layer fc3_Straight_Hair
I1013 14:42:03.360899 19465 net.cpp:425] fc3_Straight_Hair <- fc2_aroundhead_drop2_aroundhead_0_split_11
I1013 14:42:03.360908 19465 net.cpp:399] fc3_Straight_Hair -> fc3_Straight_Hair
I1013 14:42:03.361027 19465 net.cpp:141] Setting up fc3_Straight_Hair
I1013 14:42:03.361037 19465 net.cpp:148] Top shape: 100 2 (200)
I1013 14:42:03.361040 19465 net.cpp:156] Memory required for data: 3837285716
I1013 14:42:03.361047 19465 layer_factory.hpp:77] Creating layer loss_Straight_Hair
I1013 14:42:03.361057 19465 net.cpp:91] Creating Layer loss_Straight_Hair
I1013 14:42:03.361063 19465 net.cpp:425] loss_Straight_Hair <- fc3_Straight_Hair
I1013 14:42:03.361068 19465 net.cpp:425] loss_Straight_Hair <- label_Straight_Hair
I1013 14:42:03.361075 19465 net.cpp:399] loss_Straight_Hair -> loss_Straight_Hair
I1013 14:42:03.361120 19465 net.cpp:141] Setting up loss_Straight_Hair
I1013 14:42:03.361129 19465 net.cpp:148] Top shape: (1)
I1013 14:42:03.361135 19465 net.cpp:151]     with loss weight 1
I1013 14:42:03.361140 19465 net.cpp:156] Memory required for data: 3837285720
I1013 14:42:03.361143 19465 layer_factory.hpp:77] Creating layer fc3_Wavy_Hair
I1013 14:42:03.361153 19465 net.cpp:91] Creating Layer fc3_Wavy_Hair
I1013 14:42:03.361158 19465 net.cpp:425] fc3_Wavy_Hair <- fc2_aroundhead_drop2_aroundhead_0_split_12
I1013 14:42:03.361166 19465 net.cpp:399] fc3_Wavy_Hair -> fc3_Wavy_Hair
I1013 14:42:03.361287 19465 net.cpp:141] Setting up fc3_Wavy_Hair
I1013 14:42:03.361297 19465 net.cpp:148] Top shape: 100 2 (200)
I1013 14:42:03.361301 19465 net.cpp:156] Memory required for data: 3837286520
I1013 14:42:03.361309 19465 layer_factory.hpp:77] Creating layer loss_Wavy_Hair
I1013 14:42:03.361318 19465 net.cpp:91] Creating Layer loss_Wavy_Hair
I1013 14:42:03.361323 19465 net.cpp:425] loss_Wavy_Hair <- fc3_Wavy_Hair
I1013 14:42:03.361330 19465 net.cpp:425] loss_Wavy_Hair <- label_Wavy_Hair
I1013 14:42:03.361336 19465 net.cpp:399] loss_Wavy_Hair -> loss_Wavy_Hair
I1013 14:42:03.361382 19465 net.cpp:141] Setting up loss_Wavy_Hair
I1013 14:42:03.361392 19465 net.cpp:148] Top shape: (1)
I1013 14:42:03.361395 19465 net.cpp:151]     with loss weight 1
I1013 14:42:03.361400 19465 net.cpp:156] Memory required for data: 3837286524
I1013 14:42:03.361404 19465 layer_factory.hpp:77] Creating layer fc3_5_o_Clock_Shadow
I1013 14:42:03.361414 19465 net.cpp:91] Creating Layer fc3_5_o_Clock_Shadow
I1013 14:42:03.361419 19465 net.cpp:425] fc3_5_o_Clock_Shadow <- fc2_facialhair_drop2_facialhair_0_split_0
I1013 14:42:03.361428 19465 net.cpp:399] fc3_5_o_Clock_Shadow -> fc3_5_o_Clock_Shadow
I1013 14:42:03.361546 19465 net.cpp:141] Setting up fc3_5_o_Clock_Shadow
I1013 14:42:03.361555 19465 net.cpp:148] Top shape: 100 2 (200)
I1013 14:42:03.361560 19465 net.cpp:156] Memory required for data: 3837287324
I1013 14:42:03.361567 19465 layer_factory.hpp:77] Creating layer loss_5_o_Clock_Shadow
I1013 14:42:03.361577 19465 net.cpp:91] Creating Layer loss_5_o_Clock_Shadow
I1013 14:42:03.361582 19465 net.cpp:425] loss_5_o_Clock_Shadow <- fc3_5_o_Clock_Shadow
I1013 14:42:03.361588 19465 net.cpp:425] loss_5_o_Clock_Shadow <- label_5_o_Clock_Shadow
I1013 14:42:03.361595 19465 net.cpp:399] loss_5_o_Clock_Shadow -> loss_5_o_Clock_Shadow
I1013 14:42:03.361640 19465 net.cpp:141] Setting up loss_5_o_Clock_Shadow
I1013 14:42:03.361661 19465 net.cpp:148] Top shape: (1)
I1013 14:42:03.361666 19465 net.cpp:151]     with loss weight 1
I1013 14:42:03.361672 19465 net.cpp:156] Memory required for data: 3837287328
I1013 14:42:03.361677 19465 layer_factory.hpp:77] Creating layer fc3_Mustache
I1013 14:42:03.361686 19465 net.cpp:91] Creating Layer fc3_Mustache
I1013 14:42:03.361691 19465 net.cpp:425] fc3_Mustache <- fc2_facialhair_drop2_facialhair_0_split_1
I1013 14:42:03.361699 19465 net.cpp:399] fc3_Mustache -> fc3_Mustache
I1013 14:42:03.361820 19465 net.cpp:141] Setting up fc3_Mustache
I1013 14:42:03.361830 19465 net.cpp:148] Top shape: 100 2 (200)
I1013 14:42:03.361835 19465 net.cpp:156] Memory required for data: 3837288128
I1013 14:42:03.361842 19465 layer_factory.hpp:77] Creating layer loss_Mustache
I1013 14:42:03.361852 19465 net.cpp:91] Creating Layer loss_Mustache
I1013 14:42:03.361857 19465 net.cpp:425] loss_Mustache <- fc3_Mustache
I1013 14:42:03.361863 19465 net.cpp:425] loss_Mustache <- label_Mustache
I1013 14:42:03.361871 19465 net.cpp:399] loss_Mustache -> loss_Mustache
I1013 14:42:03.361915 19465 net.cpp:141] Setting up loss_Mustache
I1013 14:42:03.361923 19465 net.cpp:148] Top shape: (1)
I1013 14:42:03.361928 19465 net.cpp:151]     with loss weight 1
I1013 14:42:03.361933 19465 net.cpp:156] Memory required for data: 3837288132
I1013 14:42:03.361937 19465 layer_factory.hpp:77] Creating layer fc3_No_Beard
I1013 14:42:03.361948 19465 net.cpp:91] Creating Layer fc3_No_Beard
I1013 14:42:03.361953 19465 net.cpp:425] fc3_No_Beard <- fc2_facialhair_drop2_facialhair_0_split_2
I1013 14:42:03.361961 19465 net.cpp:399] fc3_No_Beard -> fc3_No_Beard
I1013 14:42:03.362082 19465 net.cpp:141] Setting up fc3_No_Beard
I1013 14:42:03.362090 19465 net.cpp:148] Top shape: 100 2 (200)
I1013 14:42:03.362094 19465 net.cpp:156] Memory required for data: 3837288932
I1013 14:42:03.362102 19465 layer_factory.hpp:77] Creating layer loss_No_Beard
I1013 14:42:03.362112 19465 net.cpp:91] Creating Layer loss_No_Beard
I1013 14:42:03.362117 19465 net.cpp:425] loss_No_Beard <- fc3_No_Beard
I1013 14:42:03.362123 19465 net.cpp:425] loss_No_Beard <- label_No_Beard
I1013 14:42:03.362129 19465 net.cpp:399] loss_No_Beard -> loss_No_Beard
I1013 14:42:03.362174 19465 net.cpp:141] Setting up loss_No_Beard
I1013 14:42:03.362182 19465 net.cpp:148] Top shape: (1)
I1013 14:42:03.362186 19465 net.cpp:151]     with loss weight 1
I1013 14:42:03.362192 19465 net.cpp:156] Memory required for data: 3837288936
I1013 14:42:03.362196 19465 layer_factory.hpp:77] Creating layer fc3_Sideburns
I1013 14:42:03.362205 19465 net.cpp:91] Creating Layer fc3_Sideburns
I1013 14:42:03.362210 19465 net.cpp:425] fc3_Sideburns <- fc2_facialhair_drop2_facialhair_0_split_3
I1013 14:42:03.362218 19465 net.cpp:399] fc3_Sideburns -> fc3_Sideburns
I1013 14:42:03.362337 19465 net.cpp:141] Setting up fc3_Sideburns
I1013 14:42:03.362347 19465 net.cpp:148] Top shape: 100 2 (200)
I1013 14:42:03.362351 19465 net.cpp:156] Memory required for data: 3837289736
I1013 14:42:03.362359 19465 layer_factory.hpp:77] Creating layer loss_Sideburns
I1013 14:42:03.362368 19465 net.cpp:91] Creating Layer loss_Sideburns
I1013 14:42:03.362373 19465 net.cpp:425] loss_Sideburns <- fc3_Sideburns
I1013 14:42:03.362380 19465 net.cpp:425] loss_Sideburns <- label_Sideburns
I1013 14:42:03.362386 19465 net.cpp:399] loss_Sideburns -> loss_Sideburns
I1013 14:42:03.362429 19465 net.cpp:141] Setting up loss_Sideburns
I1013 14:42:03.362438 19465 net.cpp:148] Top shape: (1)
I1013 14:42:03.362442 19465 net.cpp:151]     with loss weight 1
I1013 14:42:03.362448 19465 net.cpp:156] Memory required for data: 3837289740
I1013 14:42:03.362452 19465 layer_factory.hpp:77] Creating layer fc3_Goatee
I1013 14:42:03.362462 19465 net.cpp:91] Creating Layer fc3_Goatee
I1013 14:42:03.362467 19465 net.cpp:425] fc3_Goatee <- fc2_facialhair_drop2_facialhair_0_split_4
I1013 14:42:03.362475 19465 net.cpp:399] fc3_Goatee -> fc3_Goatee
I1013 14:42:03.362596 19465 net.cpp:141] Setting up fc3_Goatee
I1013 14:42:03.362617 19465 net.cpp:148] Top shape: 100 2 (200)
I1013 14:42:03.362622 19465 net.cpp:156] Memory required for data: 3837290540
I1013 14:42:03.362628 19465 layer_factory.hpp:77] Creating layer loss_Goatee
I1013 14:42:03.362638 19465 net.cpp:91] Creating Layer loss_Goatee
I1013 14:42:03.362643 19465 net.cpp:425] loss_Goatee <- fc3_Goatee
I1013 14:42:03.362649 19465 net.cpp:425] loss_Goatee <- label_Goatee
I1013 14:42:03.362658 19465 net.cpp:399] loss_Goatee -> loss_Goatee
I1013 14:42:03.362704 19465 net.cpp:141] Setting up loss_Goatee
I1013 14:42:03.362712 19465 net.cpp:148] Top shape: (1)
I1013 14:42:03.362716 19465 net.cpp:151]     with loss weight 1
I1013 14:42:03.362722 19465 net.cpp:156] Memory required for data: 3837290544
I1013 14:42:03.362728 19465 layer_factory.hpp:77] Creating layer fc3_High_Cheekbones
I1013 14:42:03.362737 19465 net.cpp:91] Creating Layer fc3_High_Cheekbones
I1013 14:42:03.362742 19465 net.cpp:425] fc3_High_Cheekbones <- fc2_cheeks_drop2_cheeks_0_split_0
I1013 14:42:03.362751 19465 net.cpp:399] fc3_High_Cheekbones -> fc3_High_Cheekbones
I1013 14:42:03.362874 19465 net.cpp:141] Setting up fc3_High_Cheekbones
I1013 14:42:03.362884 19465 net.cpp:148] Top shape: 100 2 (200)
I1013 14:42:03.362887 19465 net.cpp:156] Memory required for data: 3837291344
I1013 14:42:03.362895 19465 layer_factory.hpp:77] Creating layer loss_High_Cheekbones
I1013 14:42:03.362905 19465 net.cpp:91] Creating Layer loss_High_Cheekbones
I1013 14:42:03.362910 19465 net.cpp:425] loss_High_Cheekbones <- fc3_High_Cheekbones
I1013 14:42:03.362915 19465 net.cpp:425] loss_High_Cheekbones <- label_High_Cheekbones
I1013 14:42:03.362923 19465 net.cpp:399] loss_High_Cheekbones -> loss_High_Cheekbones
I1013 14:42:03.362967 19465 net.cpp:141] Setting up loss_High_Cheekbones
I1013 14:42:03.362977 19465 net.cpp:148] Top shape: (1)
I1013 14:42:03.362982 19465 net.cpp:151]     with loss weight 1
I1013 14:42:03.362987 19465 net.cpp:156] Memory required for data: 3837291348
I1013 14:42:03.362990 19465 layer_factory.hpp:77] Creating layer fc3_Rosy_Cheeks
I1013 14:42:03.363000 19465 net.cpp:91] Creating Layer fc3_Rosy_Cheeks
I1013 14:42:03.363005 19465 net.cpp:425] fc3_Rosy_Cheeks <- fc2_cheeks_drop2_cheeks_0_split_1
I1013 14:42:03.363015 19465 net.cpp:399] fc3_Rosy_Cheeks -> fc3_Rosy_Cheeks
I1013 14:42:03.363132 19465 net.cpp:141] Setting up fc3_Rosy_Cheeks
I1013 14:42:03.363142 19465 net.cpp:148] Top shape: 100 2 (200)
I1013 14:42:03.363145 19465 net.cpp:156] Memory required for data: 3837292148
I1013 14:42:03.363153 19465 layer_factory.hpp:77] Creating layer loss_Rosy_Cheeks
I1013 14:42:03.363163 19465 net.cpp:91] Creating Layer loss_Rosy_Cheeks
I1013 14:42:03.363168 19465 net.cpp:425] loss_Rosy_Cheeks <- fc3_Rosy_Cheeks
I1013 14:42:03.363173 19465 net.cpp:425] loss_Rosy_Cheeks <- label_Rosy_Cheeks
I1013 14:42:03.363181 19465 net.cpp:399] loss_Rosy_Cheeks -> loss_Rosy_Cheeks
I1013 14:42:03.363226 19465 net.cpp:141] Setting up loss_Rosy_Cheeks
I1013 14:42:03.363235 19465 net.cpp:148] Top shape: (1)
I1013 14:42:03.363240 19465 net.cpp:151]     with loss weight 1
I1013 14:42:03.363245 19465 net.cpp:156] Memory required for data: 3837292152
I1013 14:42:03.363250 19465 layer_factory.hpp:77] Creating layer fc3_Chubby
I1013 14:42:03.363257 19465 net.cpp:91] Creating Layer fc3_Chubby
I1013 14:42:03.363263 19465 net.cpp:425] fc3_Chubby <- fc2_fat_drop2_fat_0_split_0
I1013 14:42:03.363272 19465 net.cpp:399] fc3_Chubby -> fc3_Chubby
I1013 14:42:03.363394 19465 net.cpp:141] Setting up fc3_Chubby
I1013 14:42:03.363402 19465 net.cpp:148] Top shape: 100 2 (200)
I1013 14:42:03.363406 19465 net.cpp:156] Memory required for data: 3837292952
I1013 14:42:03.363414 19465 layer_factory.hpp:77] Creating layer loss_Chubby
I1013 14:42:03.363423 19465 net.cpp:91] Creating Layer loss_Chubby
I1013 14:42:03.363428 19465 net.cpp:425] loss_Chubby <- fc3_Chubby
I1013 14:42:03.363435 19465 net.cpp:425] loss_Chubby <- label_Chubby
I1013 14:42:03.363442 19465 net.cpp:399] loss_Chubby -> loss_Chubby
I1013 14:42:03.363486 19465 net.cpp:141] Setting up loss_Chubby
I1013 14:42:03.363504 19465 net.cpp:148] Top shape: (1)
I1013 14:42:03.363509 19465 net.cpp:151]     with loss weight 1
I1013 14:42:03.363515 19465 net.cpp:156] Memory required for data: 3837292956
I1013 14:42:03.363519 19465 layer_factory.hpp:77] Creating layer fc3_Double_Chin
I1013 14:42:03.363529 19465 net.cpp:91] Creating Layer fc3_Double_Chin
I1013 14:42:03.363534 19465 net.cpp:425] fc3_Double_Chin <- fc2_fat_drop2_fat_0_split_1
I1013 14:42:03.363543 19465 net.cpp:399] fc3_Double_Chin -> fc3_Double_Chin
I1013 14:42:03.363667 19465 net.cpp:141] Setting up fc3_Double_Chin
I1013 14:42:03.363677 19465 net.cpp:148] Top shape: 100 2 (200)
I1013 14:42:03.363680 19465 net.cpp:156] Memory required for data: 3837293756
I1013 14:42:03.363687 19465 layer_factory.hpp:77] Creating layer loss_Double_Chin
I1013 14:42:03.363698 19465 net.cpp:91] Creating Layer loss_Double_Chin
I1013 14:42:03.363703 19465 net.cpp:425] loss_Double_Chin <- fc3_Double_Chin
I1013 14:42:03.363709 19465 net.cpp:425] loss_Double_Chin <- label_Double_Chin
I1013 14:42:03.363716 19465 net.cpp:399] loss_Double_Chin -> loss_Double_Chin
…
    slice_point: 24
    slice_point: 26
    slice_point: 28
    slice_point: 30
    slice_point: 32
    slice_point: 34
    slice_point: 36
    slice_point: 38
    slice_point: 40
    slice_point: 42
    slice_point: 44
    slice_point: 46
    slice_point: 48
    slice_point: 50
    slice_point: 52
    slice_point: 54
    slice_point: 56
    slice_point: 58
    slice_point: 60
    slice_point: 62
    slice_point: 64
    slice_point: 66
    slice_point: 68
    slice_point: 70
    slice_point: 72
    slice_point: 74
    slice_point: 76
    slice_point: 78
  }
}
layer {
  name: "conv1_bn"
  type: "BatchNorm"
  bottom: "conv1"
  top: "conv1"
  batch_norm_param {
    use_global_stats: false
  }
}
layer {
  name: "conv1_scale"
  type: "Scale"
  bottom: "conv1"
  top: "conv1"
  scale_param {
    bias_term: true
  }
}
layer {
  name: "prelu1"
  type: "PReLU"
  bottom: "conv1"
  top: "conv1"
}
layer {
  name: "pool1"
  type: "Pooling"
  bottom: "conv1"
  top: "pool1"
  pooling_param {
    pool: MAX
    kernel_size: 2
    stride: 2
  }
}
layer {
  name: "conv2a"
  type: "Convolution"
  bottom: "pool1"
  top: "conv2a"
  param {
    name: "conv2a_w"
    lr_mult: 1
    decay_mult: 1
  }
  param {
    name: "conv2a_b"
    lr_mult: 2
    decay_mult: 0
  }
  convolution_param {
    num_output: 64
    kernel_size: 1
    weight_filler {
      type: "xavier"
    }
    bias_filler {
      type: "constant"
      value: 0.2
    }
  }
}
layer {
  name: "conv2a_bn"
  type: "BatchNorm"
  bottom: "conv2a"
  top: "conv2a"
  batch_norm_param {
    use_global_stats: false
  }
}
layer {
  name: "conv2a_scale"
  type: "Scale"
  bottom: "conv2a"
  top: "conv2a"
  scale_param {
    bias_term: true
  }
}
layer {
  name: "prelu2a"
  type: "PReLU"
  bottom: "conv2a"
  top: "conv2a"
}
layer {
  name: "conv2"
  type: "Convolution"
  bottom: "conv2a"
  top: "conv2"
  param {
    name: "conv2_w"
    lr_mult: 1
    decay_mult: 1
  }
  param {
    name: "conv2_b"
    lr_mult: 2
    decay_mult: 0
  }
  convolution_param {
    num_output: 192
    pad: 1
    kernel_size: 3
    stride: 1
    weight_filler {
      type: "xavier"
    }
    bias_filler {
      type: "constant"
      value: 0.2
    }
  }
}
layer {
  name: "conv2_bn"
  type: "BatchNorm"
  bottom: "conv2"
  top: "conv2"
  batch_norm_param {
    use_global_stats: false
  }
}
layer {
  name: "conv2_scale"
  type: "Scale"
  bottom: "conv2"
  top: "conv2"
  scale_param {
    bias_term: true
  }
}
layer {
  name: "prelu2"
  type: "PReLU"
  bottom: "conv2"
  top: "conv2"
}
layer {
  name: "pool2"
  type: "Pooling"
  bottom: "conv2"
  top: "pool2"
  pooling_param {
    pool: MAX
    kernel_size: 2
    stride: 2
  }
}
layer {
  name: "conv3a"
  type: "Convolution"
  bottom: "pool2"
  top: "conv3a"
  param {
    name: "conv3a_w"
    lr_mult: 1
    decay_mult: 1
  }
  param {
    name: "conv3a_b"
    lr_mult: 2
    decay_mult: 0
  }
  convolution_param {
    num_output: 192
    kernel_size: 1
    weight_filler {
      type: "xavier"
    }
    bias_filler {
      type: "constant"
      value: 0.2
    }
  }
}
layer {
  name: "conv3a_bn"
  type: "BatchNorm"
  bottom: "conv3a"
  top: "conv3a"
  batch_norm_param {
    use_global_stats: false
  }
}
layer {
  name: "conv3a_scale"
  type: "Scale"
  bottom: "conv3a"
  top: "conv3a"
  scale_param {
    bias_term: true
  }
}
layer {
  name: "prelu3a"
  type: "PReLU"
  bottom: "conv3a"
  top: "conv3a"
}
layer {
  name: "conv3"
  type: "Convolution"
  bottom: "conv3a"
  top: "conv3"
  param {
    name: "conv3_w"
    lr_mult: 1
    decay_mult: 1
  }
  param {
    name: "conv3_b"
    lr_mult: 2
    decay_mult: 0
  }
  convolution_param {
    num_output: 384
    pad: 1
    kernel_size: 3
    stride: 1
    weight_filler {
      type: "xavier"
    }
    bias_filler {
      type: "constant"
      value: 0.2
    }
  }
}
layer {
  name: "conv3_bn"
  type: "BatchNorm"
  bottom: "conv3"
  top: "conv3"
  batch_norm_param {
    use_global_stats: false
  }
}
layer {
  name: "conv3_scale"
  type: "Scale"
  bottom: "conv3"
  top: "conv3"
  scale_param {
    bias_term: true
  }
}
layer {
  name: "prelu3"
  type: "PReLU"
  bottom: "conv3"
  top: "conv3"
}
layer {
…
I1013 14:42:03.747036 19465 net.cpp:91] Creating Layer relu1_fat
I1013 14:42:03.747042 19465 net.cpp:425] relu1_fat <- fc1_fat
I1013 14:42:03.747050 19465 net.cpp:386] relu1_fat -> fc1_fat (in-place)
I1013 14:42:03.747057 19465 net.cpp:141] Setting up relu1_fat
I1013 14:42:03.747063 19465 net.cpp:148] Top shape: 64 512 (32768)
I1013 14:42:03.747067 19465 net.cpp:156] Memory required for data: 2455060992
I1013 14:42:03.747077 19465 layer_factory.hpp:77] Creating layer drop1_fat
I1013 14:42:03.747089 19465 net.cpp:91] Creating Layer drop1_fat
I1013 14:42:03.747094 19465 net.cpp:425] drop1_fat <- fc1_fat
I1013 14:42:03.747100 19465 net.cpp:386] drop1_fat -> fc1_fat (in-place)
I1013 14:42:03.747135 19465 net.cpp:141] Setting up drop1_fat
I1013 14:42:03.747143 19465 net.cpp:148] Top shape: 64 512 (32768)
I1013 14:42:03.747148 19465 net.cpp:156] Memory required for data: 2455192064
I1013 14:42:03.747151 19465 layer_factory.hpp:77] Creating layer fc2_fat
I1013 14:42:03.747164 19465 net.cpp:91] Creating Layer fc2_fat
I1013 14:42:03.747170 19465 net.cpp:425] fc2_fat <- fc1_fat
I1013 14:42:03.747182 19465 net.cpp:399] fc2_fat -> fc2_fat
I1013 14:42:03.750283 19465 net.cpp:141] Setting up fc2_fat
I1013 14:42:03.750301 19465 net.cpp:148] Top shape: 64 512 (32768)
I1013 14:42:03.750308 19465 net.cpp:156] Memory required for data: 2455323136
I1013 14:42:03.750315 19465 layer_factory.hpp:77] Creating layer relu2_fat
I1013 14:42:03.750330 19465 net.cpp:91] Creating Layer relu2_fat
I1013 14:42:03.750336 19465 net.cpp:425] relu2_fat <- fc2_fat
I1013 14:42:03.750344 19465 net.cpp:386] relu2_fat -> fc2_fat (in-place)
I1013 14:42:03.750352 19465 net.cpp:141] Setting up relu2_fat
I1013 14:42:03.750357 19465 net.cpp:148] Top shape: 64 512 (32768)
I1013 14:42:03.750361 19465 net.cpp:156] Memory required for data: 2455454208
I1013 14:42:03.750365 19465 layer_factory.hpp:77] Creating layer drop2_fat
I1013 14:42:03.750377 19465 net.cpp:91] Creating Layer drop2_fat
I1013 14:42:03.750382 19465 net.cpp:425] drop2_fat <- fc2_fat
I1013 14:42:03.750389 19465 net.cpp:386] drop2_fat -> fc2_fat (in-place)
I1013 14:42:03.750421 19465 net.cpp:141] Setting up drop2_fat
I1013 14:42:03.750427 19465 net.cpp:148] Top shape: 64 512 (32768)
I1013 14:42:03.750432 19465 net.cpp:156] Memory required for data: 2455585280
I1013 14:42:03.750442 19465 layer_factory.hpp:77] Creating layer fc2_fat_drop2_fat_0_split
I1013 14:42:03.750453 19465 net.cpp:91] Creating Layer fc2_fat_drop2_fat_0_split
I1013 14:42:03.750458 19465 net.cpp:425] fc2_fat_drop2_fat_0_split <- fc2_fat
I1013 14:42:03.750468 19465 net.cpp:399] fc2_fat_drop2_fat_0_split -> fc2_fat_drop2_fat_0_split_0
I1013 14:42:03.750475 19465 net.cpp:399] fc2_fat_drop2_fat_0_split -> fc2_fat_drop2_fat_0_split_1
I1013 14:42:03.750520 19465 net.cpp:141] Setting up fc2_fat_drop2_fat_0_split
I1013 14:42:03.750538 19465 net.cpp:148] Top shape: 64 512 (32768)
I1013 14:42:03.750545 19465 net.cpp:148] Top shape: 64 512 (32768)
I1013 14:42:03.750547 19465 net.cpp:156] Memory required for data: 2455847424
I1013 14:42:03.750551 19465 layer_factory.hpp:77] Creating layer fc3_Male
I1013 14:42:03.750561 19465 net.cpp:91] Creating Layer fc3_Male
I1013 14:42:03.750566 19465 net.cpp:425] fc3_Male <- fc2_gender
I1013 14:42:03.750574 19465 net.cpp:399] fc3_Male -> fc3_Male
I1013 14:42:03.750735 19465 net.cpp:141] Setting up fc3_Male
I1013 14:42:03.750746 19465 net.cpp:148] Top shape: 64 2 (128)
I1013 14:42:03.750751 19465 net.cpp:156] Memory required for data: 2455847936
I1013 14:42:03.750758 19465 layer_factory.hpp:77] Creating layer loss_Male
I1013 14:42:03.750777 19465 net.cpp:91] Creating Layer loss_Male
I1013 14:42:03.750784 19465 net.cpp:425] loss_Male <- fc3_Male
I1013 14:42:03.750790 19465 net.cpp:425] loss_Male <- label_Male
I1013 14:42:03.750799 19465 net.cpp:399] loss_Male -> loss_Male
I1013 14:42:03.750859 19465 net.cpp:141] Setting up loss_Male
I1013 14:42:03.750869 19465 net.cpp:148] Top shape: (1)
I1013 14:42:03.750874 19465 net.cpp:151]     with loss weight 1
I1013 14:42:03.750901 19465 net.cpp:156] Memory required for data: 2455847940
I1013 14:42:03.750906 19465 layer_factory.hpp:77] Creating layer fc3_Big_Nose
I1013 14:42:03.750916 19465 net.cpp:91] Creating Layer fc3_Big_Nose
I1013 14:42:03.750922 19465 net.cpp:425] fc3_Big_Nose <- fc2_nose_drop2_nose_0_split_0
I1013 14:42:03.750929 19465 net.cpp:399] fc3_Big_Nose -> fc3_Big_Nose
I1013 14:42:03.751073 19465 net.cpp:141] Setting up fc3_Big_Nose
I1013 14:42:03.751085 19465 net.cpp:148] Top shape: 64 2 (128)
I1013 14:42:03.751090 19465 net.cpp:156] Memory required for data: 2455848452
I1013 14:42:03.751101 19465 layer_factory.hpp:77] Creating layer loss_Big_Nose
I1013 14:42:03.751111 19465 net.cpp:91] Creating Layer loss_Big_Nose
I1013 14:42:03.751117 19465 net.cpp:425] loss_Big_Nose <- fc3_Big_Nose
I1013 14:42:03.751123 19465 net.cpp:425] loss_Big_Nose <- label_Big_Nose
I1013 14:42:03.751132 19465 net.cpp:399] loss_Big_Nose -> loss_Big_Nose
I1013 14:42:03.751183 19465 net.cpp:141] Setting up loss_Big_Nose
I1013 14:42:03.751194 19465 net.cpp:148] Top shape: (1)
I1013 14:42:03.751197 19465 net.cpp:151]     with loss weight 1
I1013 14:42:03.751204 19465 net.cpp:156] Memory required for data: 2455848456
I1013 14:42:03.751209 19465 layer_factory.hpp:77] Creating layer fc3_Pointy_Nose
I1013 14:42:03.751226 19465 net.cpp:91] Creating Layer fc3_Pointy_Nose
I1013 14:42:03.751232 19465 net.cpp:425] fc3_Pointy_Nose <- fc2_nose_drop2_nose_0_split_1
I1013 14:42:03.751240 19465 net.cpp:399] fc3_Pointy_Nose -> fc3_Pointy_Nose
I1013 14:42:03.751377 19465 net.cpp:141] Setting up fc3_Pointy_Nose
I1013 14:42:03.751387 19465 net.cpp:148] Top shape: 64 2 (128)
I1013 14:42:03.751392 19465 net.cpp:156] Memory required for data: 2455848968
I1013 14:42:03.751560 19465 layer_factory.hpp:77] Creating layer loss_Pointy_Nose
I1013 14:42:03.751580 19465 net.cpp:91] Creating Layer loss_Pointy_Nose
I1013 14:42:03.751588 19465 net.cpp:425] loss_Pointy_Nose <- fc3_Pointy_Nose
I1013 14:42:03.751595 19465 net.cpp:425] loss_Pointy_Nose <- label_Pointy_Nose
I1013 14:42:03.751601 19465 net.cpp:399] loss_Pointy_Nose -> loss_Pointy_Nose
I1013 14:42:03.751662 19465 net.cpp:141] Setting up loss_Pointy_Nose
I1013 14:42:03.751672 19465 net.cpp:148] Top shape: (1)
I1013 14:42:03.751677 19465 net.cpp:151]     with loss weight 1
I1013 14:42:03.751683 19465 net.cpp:156] Memory required for data: 2455848972
I1013 14:42:03.751688 19465 layer_factory.hpp:77] Creating layer fc3_Big_Lips
I1013 14:42:03.751694 19465 net.cpp:91] Creating Layer fc3_Big_Lips
I1013 14:42:03.751700 19465 net.cpp:425] fc3_Big_Lips <- fc2_mouth_drop2_mouth_0_split_0
I1013 14:42:03.751709 19465 net.cpp:399] fc3_Big_Lips -> fc3_Big_Lips
I1013 14:42:03.751860 19465 net.cpp:141] Setting up fc3_Big_Lips
I1013 14:42:03.751871 19465 net.cpp:148] Top shape: 64 2 (128)
I1013 14:42:03.751876 19465 net.cpp:156] Memory required for data: 2455849484
I1013 14:42:03.751893 19465 layer_factory.hpp:77] Creating layer loss_Big_Lips
I1013 14:42:03.751909 19465 net.cpp:91] Creating Layer loss_Big_Lips
I1013 14:42:03.751915 19465 net.cpp:425] loss_Big_Lips <- fc3_Big_Lips
I1013 14:42:03.751921 19465 net.cpp:425] loss_Big_Lips <- label_Big_Lips
I1013 14:42:03.751929 19465 net.cpp:399] loss_Big_Lips -> loss_Big_Lips
I1013 14:42:03.751981 19465 net.cpp:141] Setting up loss_Big_Lips
I1013 14:42:03.751991 19465 net.cpp:148] Top shape: (1)
I1013 14:42:03.752007 19465 net.cpp:151]     with loss weight 1
I1013 14:42:03.752014 19465 net.cpp:156] Memory required for data: 2455849488
I1013 14:42:03.752019 19465 layer_factory.hpp:77] Creating layer fc3_Smiling
I1013 14:42:03.752174 19465 net.cpp:91] Creating Layer fc3_Smiling
I1013 14:42:03.752184 19465 net.cpp:425] fc3_Smiling <- fc2_mouth_drop2_mouth_0_split_1
I1013 14:42:03.752193 19465 net.cpp:399] fc3_Smiling -> fc3_Smiling
I1013 14:42:03.752339 19465 net.cpp:141] Setting up fc3_Smiling
I1013 14:42:03.752351 19465 net.cpp:148] Top shape: 64 2 (128)
I1013 14:42:03.752354 19465 net.cpp:156] Memory required for data: 2455850000
I1013 14:42:03.752362 19465 layer_factory.hpp:77] Creating layer loss_Smiling
I1013 14:42:03.752377 19465 net.cpp:91] Creating Layer loss_Smiling
I1013 14:42:03.752382 19465 net.cpp:425] loss_Smiling <- fc3_Smiling
I1013 14:42:03.752388 19465 net.cpp:425] loss_Smiling <- label_Smiling
I1013 14:42:03.752395 19465 net.cpp:399] loss_Smiling -> loss_Smiling
I1013 14:42:03.752451 19465 net.cpp:141] Setting up loss_Smiling
I1013 14:42:03.752461 19465 net.cpp:148] Top shape: (1)
I1013 14:42:03.752466 19465 net.cpp:151]     with loss weight 1
I1013 14:42:03.752472 19465 net.cpp:156] Memory required for data: 2455850004
I1013 14:42:03.752476 19465 layer_factory.hpp:77] Creating layer fc3_Wearing_Lipstick
I1013 14:42:03.752492 19465 net.cpp:91] Creating Layer fc3_Wearing_Lipstick
I1013 14:42:03.752497 19465 net.cpp:425] fc3_Wearing_Lipstick <- fc2_mouth_drop2_mouth_0_split_2
I1013 14:42:03.752506 19465 net.cpp:399] fc3_Wearing_Lipstick -> fc3_Wearing_Lipstick
I1013 14:42:03.752646 19465 net.cpp:141] Setting up fc3_Wearing_Lipstick
I1013 14:42:03.752657 19465 net.cpp:148] Top shape: 64 2 (128)
I1013 14:42:03.752661 19465 net.cpp:156] Memory required for data: 2455850516
I1013 14:42:03.752673 19465 layer_factory.hpp:77] Creating layer loss_Wearing_Lipstick
I1013 14:42:03.752693 19465 net.cpp:91] Creating Layer loss_Wearing_Lipstick
I1013 14:42:03.752699 19465 net.cpp:425] loss_Wearing_Lipstick <- fc3_Wearing_Lipstick
I1013 14:42:03.752707 19465 net.cpp:425] loss_Wearing_Lipstick <- label_Wearing_Lipstick
I1013 14:42:03.752714 19465 net.cpp:399] loss_Wearing_Lipstick -> loss_Wearing_Lipstick
I1013 14:42:03.752769 19465 net.cpp:141] Setting up loss_Wearing_Lipstick
I1013 14:42:03.752779 19465 net.cpp:148] Top shape: (1)
I1013 14:42:03.752784 19465 net.cpp:151]     with loss weight 1
I1013 14:42:03.752790 19465 net.cpp:156] Memory required for data: 2455850520
I1013 14:42:03.752794 19465 layer_factory.hpp:77] Creating layer fc3_Mouth_Slightly_Open
I1013 14:42:03.752809 19465 net.cpp:91] Creating Layer fc3_Mouth_Slightly_Open
I1013 14:42:03.752815 19465 net.cpp:425] fc3_Mouth_Slightly_Open <- fc2_mouth_drop2_mouth_0_split_3
I1013 14:42:03.752821 19465 net.cpp:399] fc3_Mouth_Slightly_Open -> fc3_Mouth_Slightly_Open
I1013 14:42:03.752957 19465 net.cpp:141] Setting up fc3_Mouth_Slightly_Open
I1013 14:42:03.752969 19465 net.cpp:148] Top shape: 64 2 (128)
I1013 14:42:03.752972 19465 net.cpp:156] Memory required for data: 2455851032
I1013 14:42:03.752979 19465 layer_factory.hpp:77] Creating layer loss_Mouth_Slightly_Open
I1013 14:42:03.753007 19465 net.cpp:91] Creating Layer loss_Mouth_Slightly_Open
I1013 14:42:03.753015 19465 net.cpp:425] loss_Mouth_Slightly_Open <- fc3_Mouth_Slightly_Open
I1013 14:42:03.753021 19465 net.cpp:425] loss_Mouth_Slightly_Open <- label_Mouth_Slightly_Open
I1013 14:42:03.753029 19465 net.cpp:399] loss_Mouth_Slightly_Open -> loss_Mouth_Slightly_Open
I1013 14:42:03.753082 19465 net.cpp:141] Setting up loss_Mouth_Slightly_Open
I1013 14:42:03.753092 19465 net.cpp:148] Top shape: (1)
I1013 14:42:03.753095 19465 net.cpp:151]     with loss weight 1
I1013 14:42:03.753101 19465 net.cpp:156] Memory required for data: 2455851036
I1013 14:42:03.753106 19465 layer_factory.hpp:77] Creating layer fc3_Arched_Eyebrows
I1013 14:42:03.753121 19465 net.cpp:91] Creating Layer fc3_Arched_Eyebrows
I1013 14:42:03.753128 19465 net.cpp:425] fc3_Arched_Eyebrows <- fc2_eyes_drop2_eyes_0_split_0
I1013 14:42:03.753146 19465 net.cpp:399] fc3_Arched_Eyebrows -> fc3_Arched_Eyebrows
I1013 14:42:03.753288 19465 net.cpp:141] Setting up fc3_Arched_Eyebrows
I1013 14:42:03.753299 19465 net.cpp:148] Top shape: 64 2 (128)
I1013 14:42:03.753304 19465 net.cpp:156] Memory required for data: 2455851548
I1013 14:42:03.753316 19465 layer_factory.hpp:77] Creating layer loss_Arched_Eyebrows
I1013 14:42:03.753351 19465 net.cpp:91] Creating Layer loss_Arched_Eyebrows
I1013 14:42:03.753360 19465 net.cpp:425] loss_Arched_Eyebrows <- fc3_Arched_Eyebrows
I1013 14:42:03.753371 19465 net.cpp:425] loss_Arched_Eyebrows <- label_Arched_Eyebrows
I1013 14:42:03.753377 19465 net.cpp:399] loss_Arched_Eyebrows -> loss_Arched_Eyebrows
I1013 14:42:03.753432 19465 net.cpp:141] Setting up loss_Arched_Eyebrows
I1013 14:42:03.753443 19465 net.cpp:148] Top shape: (1)
I1013 14:42:03.753446 19465 net.cpp:151]     with loss weight 1
I1013 14:42:03.753453 19465 net.cpp:156] Memory required for data: 2455851552
I1013 14:42:03.753458 19465 layer_factory.hpp:77] Creating layer fc3_Bags_Under_Eyes
I1013 14:42:03.753479 19465 net.cpp:91] Creating Layer fc3_Bags_Under_Eyes
I1013 14:42:03.753484 19465 net.cpp:425] fc3_Bags_Under_Eyes <- fc2_eyes_drop2_eyes_0_split_1
I1013 14:42:03.753491 19465 net.cpp:399] fc3_Bags_Under_Eyes -> fc3_Bags_Under_Eyes
I1013 14:42:03.753631 19465 net.cpp:141] Setting up fc3_Bags_Under_Eyes
I1013 14:42:03.753641 19465 net.cpp:148] Top shape: 64 2 (128)
I1013 14:42:03.753645 19465 net.cpp:156] Memory required for data: 2455852064
I1013 14:42:03.753654 19465 layer_factory.hpp:77] Creating layer loss_Bags_Under_Eyes
I1013 14:42:03.753666 19465 net.cpp:91] Creating Layer loss_Bags_Under_Eyes
I1013 14:42:03.753672 19465 net.cpp:425] loss_Bags_Under_Eyes <- fc3_Bags_Under_Eyes
I1013 14:42:03.753679 19465 net.cpp:425] loss_Bags_Under_Eyes <- label_Bags_Under_Eyes
I1013 14:42:03.753684 19465 net.cpp:399] loss_Bags_Under_Eyes -> loss_Bags_Under_Eyes
I1013 14:42:03.753737 19465 net.cpp:141] Setting up loss_Bags_Under_Eyes
I1013 14:42:03.753747 19465 net.cpp:148] Top shape: (1)
I1013 14:42:03.753751 19465 net.cpp:151]     with loss weight 1
I1013 14:42:03.753757 19465 net.cpp:156] Memory required for data: 2455852068
I1013 14:42:03.753762 19465 layer_factory.hpp:77] Creating layer fc3_Bushy_Eyebrows
I1013 14:42:03.753773 19465 net.cpp:91] Creating Layer fc3_Bushy_Eyebrows
I1013 14:42:03.753779 19465 net.cpp:425] fc3_Bushy_Eyebrows <- fc2_eyes_drop2_eyes_0_split_2
I1013 14:42:03.753787 19465 net.cpp:399] fc3_Bushy_Eyebrows -> fc3_Bushy_Eyebrows
I1013 14:42:03.753926 19465 net.cpp:141] Setting up fc3_Bushy_Eyebrows
I1013 14:42:03.753937 19465 net.cpp:148] Top shape: 64 2 (128)
I1013 14:42:03.753940 19465 net.cpp:156] Memory required for data: 2455852580
I1013 14:42:03.753957 19465 layer_factory.hpp:77] Creating layer loss_Bushy_Eyebrows
I1013 14:42:03.753975 19465 net.cpp:91] Creating Layer loss_Bushy_Eyebrows
I1013 14:42:03.753983 19465 net.cpp:425] loss_Bushy_Eyebrows <- fc3_Bushy_Eyebrows
I1013 14:42:03.753988 19465 net.cpp:425] loss_Bushy_Eyebrows <- label_Bushy_Eyebrows
I1013 14:42:03.753995 19465 net.cpp:399] loss_Bushy_Eyebrows -> loss_Bushy_Eyebrows
I1013 14:42:03.754053 19465 net.cpp:141] Setting up loss_Bushy_Eyebrows
I1013 14:42:03.754063 19465 net.cpp:148] Top shape: (1)
I1013 14:42:03.754067 19465 net.cpp:151]     with loss weight 1
I1013 14:42:03.754073 19465 net.cpp:156] Memory required for data: 2455852584
I1013 14:42:03.754078 19465 layer_factory.hpp:77] Creating layer fc3_Narrow_Eyes
I1013 14:42:03.754089 19465 net.cpp:91] Creating Layer fc3_Narrow_Eyes
I1013 14:42:03.754094 19465 net.cpp:425] fc3_Narrow_Eyes <- fc2_eyes_drop2_eyes_0_split_3
I1013 14:42:03.754108 19465 net.cpp:399] fc3_Narrow_Eyes -> fc3_Narrow_Eyes
I1013 14:42:03.754250 19465 net.cpp:141] Setting up fc3_Narrow_Eyes
I1013 14:42:03.754259 19465 net.cpp:148] Top shape: 64 2 (128)
I1013 14:42:03.754263 19465 net.cpp:156] Memory required for data: 2455853096
I1013 14:42:03.754271 19465 layer_factory.hpp:77] Creating layer loss_Narrow_Eyes
I1013 14:42:03.754286 19465 net.cpp:91] Creating Layer loss_Narrow_Eyes
I1013 14:42:03.754300 19465 net.cpp:425] loss_Narrow_Eyes <- fc3_Narrow_Eyes
I1013 14:42:03.754307 19465 net.cpp:425] loss_Narrow_Eyes <- label_Narrow_Eyes
I1013 14:42:03.754314 19465 net.cpp:399] loss_Narrow_Eyes -> loss_Narrow_Eyes
I1013 14:42:03.754374 19465 net.cpp:141] Setting up loss_Narrow_Eyes
I1013 14:42:03.754384 19465 net.cpp:148] Top shape: (1)
I1013 14:42:03.754390 19465 net.cpp:151]     with loss weight 1
I1013 14:42:03.754395 19465 net.cpp:156] Memory required for data: 2455853100
I1013 14:42:03.754400 19465 layer_factory.hpp:77] Creating layer fc3_Eyeglasses
I1013 14:42:03.754417 19465 net.cpp:91] Creating Layer fc3_Eyeglasses
I1013 14:42:03.754423 19465 net.cpp:425] fc3_Eyeglasses <- fc2_eyes_drop2_eyes_0_split_4
I1013 14:42:03.754431 19465 net.cpp:399] fc3_Eyeglasses -> fc3_Eyeglasses
I1013 14:42:03.754585 19465 net.cpp:141] Setting up fc3_Eyeglasses
I1013 14:42:03.754595 19465 net.cpp:148] Top shape: 64 2 (128)
I1013 14:42:03.754601 19465 net.cpp:156] Memory required for data: 2455853612
I1013 14:42:03.754612 19465 layer_factory.hpp:77] Creating layer loss_Eyeglasses
I1013 14:42:03.754628 19465 net.cpp:91] Creating Layer loss_Eyeglasses
I1013 14:42:03.754634 19465 net.cpp:425] loss_Eyeglasses <- fc3_Eyeglasses
I1013 14:42:03.754642 19465 net.cpp:425] loss_Eyeglasses <- label_Eyeglasses
I1013 14:42:03.754647 19465 net.cpp:399] loss_Eyeglasses -> loss_Eyeglasses
I1013 14:42:03.754705 19465 net.cpp:141] Setting up loss_Eyeglasses
I1013 14:42:03.754715 19465 net.cpp:148] Top shape: (1)
I1013 14:42:03.754719 19465 net.cpp:151]     with loss weight 1
I1013 14:42:03.754726 19465 net.cpp:156] Memory required for data: 2455853616
I1013 14:42:03.754730 19465 layer_factory.hpp:77] Creating layer fc3_Attractive
I1013 14:42:03.754748 19465 net.cpp:91] Creating Layer fc3_Attractive
I1013 14:42:03.754755 19465 net.cpp:425] fc3_Attractive <- fc2_face_drop2_face_0_split_0
I1013 14:42:03.754761 19465 net.cpp:399] fc3_Attractive -> fc3_Attractive
I1013 14:42:03.754902 19465 net.cpp:141] Setting up fc3_Attractive
I1013 14:42:03.754912 19465 net.cpp:148] Top shape: 64 2 (128)
I1013 14:42:03.754917 19465 net.cpp:156] Memory required for data: 2455854128
I1013 14:42:03.754925 19465 layer_factory.hpp:77] Creating layer loss_Attractive
I1013 14:42:03.754945 19465 net.cpp:91] Creating Layer loss_Attractive
I1013 14:42:03.754951 19465 net.cpp:425] loss_Attractive <- fc3_Attractive
I1013 14:42:03.754957 19465 net.cpp:425] loss_Attractive <- label_Attractive
I1013 14:42:03.754963 19465 net.cpp:399] loss_Attractive -> loss_Attractive
I1013 14:42:03.755018 19465 net.cpp:141] Setting up loss_Attractive
I1013 14:42:03.755028 19465 net.cpp:148] Top shape: (1)
I1013 14:42:03.755033 19465 net.cpp:151]     with loss weight 1
I1013 14:42:03.755038 19465 net.cpp:156] Memory required for data: 2455854132
I1013 14:42:03.755043 19465 layer_factory.hpp:77] Creating layer fc3_Blurry
I1013 14:42:03.755054 19465 net.cpp:91] Creating Layer fc3_Blurry
I1013 14:42:03.755060 19465 net.cpp:425] fc3_Blurry <- fc2_face_drop2_face_0_split_1
I1013 14:42:03.755067 19465 net.cpp:399] fc3_Blurry -> fc3_Blurry
I1013 14:42:03.755214 19465 net.cpp:141] Setting up fc3_Blurry
I1013 14:42:03.755225 19465 net.cpp:148] Top shape: 64 2 (128)
I1013 14:42:03.755229 19465 net.cpp:156] Memory required for data: 2455854644
I1013 14:42:03.755240 19465 layer_factory.hpp:77] Creating layer loss_Blurry
I1013 14:42:03.755254 19465 net.cpp:91] Creating Layer loss_Blurry
I1013 14:42:03.755259 19465 net.cpp:425] loss_Blurry <- fc3_Blurry
I1013 14:42:03.755265 19465 net.cpp:425] loss_Blurry <- label_Blurry
I1013 14:42:03.755272 19465 net.cpp:399] loss_Blurry -> loss_Blurry
I1013 14:42:03.755326 19465 net.cpp:141] Setting up loss_Blurry
I1013 14:42:03.755334 19465 net.cpp:148] Top shape: (1)
I1013 14:42:03.755338 19465 net.cpp:151]     with loss weight 1
I1013 14:42:03.755345 19465 net.cpp:156] Memory required for data: 2455854648
I1013 14:42:03.755349 19465 layer_factory.hpp:77] Creating layer fc3_Oval_Face
I1013 14:42:03.755355 19465 net.cpp:91] Creating Layer fc3_Oval_Face
I1013 14:42:03.755375 19465 net.cpp:425] fc3_Oval_Face <- fc2_face_drop2_face_0_split_2
I1013 14:42:03.755384 19465 net.cpp:399] fc3_Oval_Face -> fc3_Oval_Face
I1013 14:42:03.755527 19465 net.cpp:141] Setting up fc3_Oval_Face
I1013 14:42:03.755537 19465 net.cpp:148] Top shape: 64 2 (128)
I1013 14:42:03.755542 19465 net.cpp:156] Memory required for data: 2455855160
I1013 14:42:03.755549 19465 layer_factory.hpp:77] Creating layer loss_Oval_Face
I1013 14:42:03.755571 19465 net.cpp:91] Creating Layer loss_Oval_Face
I1013 14:42:03.755576 19465 net.cpp:425] loss_Oval_Face <- fc3_Oval_Face
I1013 14:42:03.755583 19465 net.cpp:425] loss_Oval_Face <- label_Oval_Face
I1013 14:42:03.755589 19465 net.cpp:399] loss_Oval_Face -> loss_Oval_Face
I1013 14:42:03.755647 19465 net.cpp:141] Setting up loss_Oval_Face
I1013 14:42:03.755657 19465 net.cpp:148] Top shape: (1)
I1013 14:42:03.755662 19465 net.cpp:151]     with loss weight 1
I1013 14:42:03.755668 19465 net.cpp:156] Memory required for data: 2455855164
I1013 14:42:03.755672 19465 layer_factory.hpp:77] Creating layer fc3_Pale_Skin
I1013 14:42:03.755679 19465 net.cpp:91] Creating Layer fc3_Pale_Skin
I1013 14:42:03.755684 19465 net.cpp:425] fc3_Pale_Skin <- fc2_face_drop2_face_0_split_3
I1013 14:42:03.755692 19465 net.cpp:399] fc3_Pale_Skin -> fc3_Pale_Skin
I1013 14:42:03.755847 19465 net.cpp:141] Setting up fc3_Pale_Skin
I1013 14:42:03.755859 19465 net.cpp:148] Top shape: 64 2 (128)
I1013 14:42:03.755863 19465 net.cpp:156] Memory required for data: 2455855676
I1013 14:42:03.755875 19465 layer_factory.hpp:77] Creating layer loss_Pale_Skin
I1013 14:42:03.755887 19465 net.cpp:91] Creating Layer loss_Pale_Skin
I1013 14:42:03.755892 19465 net.cpp:425] loss_Pale_Skin <- fc3_Pale_Skin
I1013 14:42:03.755903 19465 net.cpp:425] loss_Pale_Skin <- label_Pale_Skin
I1013 14:42:03.755910 19465 net.cpp:399] loss_Pale_Skin -> loss_Pale_Skin
I1013 14:42:03.755962 19465 net.cpp:141] Setting up loss_Pale_Skin
I1013 14:42:03.755972 19465 net.cpp:148] Top shape: (1)
I1013 14:42:03.755976 19465 net.cpp:151]     with loss weight 1
I1013 14:42:03.755983 19465 net.cpp:156] Memory required for data: 2455855680
I1013 14:42:03.755987 19465 layer_factory.hpp:77] Creating layer fc3_Young
I1013 14:42:03.755993 19465 net.cpp:91] Creating Layer fc3_Young
I1013 14:42:03.755998 19465 net.cpp:425] fc3_Young <- fc2_face_drop2_face_0_split_4
I1013 14:42:03.756006 19465 net.cpp:399] fc3_Young -> fc3_Young
I1013 14:42:03.756146 19465 net.cpp:141] Setting up fc3_Young
I1013 14:42:03.756157 19465 net.cpp:148] Top shape: 64 2 (128)
I1013 14:42:03.756162 19465 net.cpp:156] Memory required for data: 2455856192
I1013 14:42:03.756170 19465 layer_factory.hpp:77] Creating layer loss_Young
I1013 14:42:03.756176 19465 net.cpp:91] Creating Layer loss_Young
I1013 14:42:03.756181 19465 net.cpp:425] loss_Young <- fc3_Young
I1013 14:42:03.756187 19465 net.cpp:425] loss_Young <- label_Young
I1013 14:42:03.756197 19465 net.cpp:399] loss_Young -> loss_Young
I1013 14:42:03.756254 19465 net.cpp:141] Setting up loss_Young
I1013 14:42:03.756263 19465 net.cpp:148] Top shape: (1)
I1013 14:42:03.756268 19465 net.cpp:151]     with loss weight 1
I1013 14:42:03.756274 19465 net.cpp:156] Memory required for data: 2455856196
I1013 14:42:03.756278 19465 layer_factory.hpp:77] Creating layer fc3_Heavy_Makeup
I1013 14:42:03.756285 19465 net.cpp:91] Creating Layer fc3_Heavy_Makeup
I1013 14:42:03.756290 19465 net.cpp:425] fc3_Heavy_Makeup <- fc2_face_drop2_face_0_split_5
I1013 14:42:03.756297 19465 net.cpp:399] fc3_Heavy_Makeup -> fc3_Heavy_Makeup
I1013 14:42:03.756431 19465 net.cpp:141] Setting up fc3_Heavy_Makeup
I1013 14:42:03.756441 19465 net.cpp:148] Top shape: 64 2 (128)
I1013 14:42:03.756446 19465 net.cpp:156] Memory required for data: 2455856708
I1013 14:42:03.756458 19465 layer_factory.hpp:77] Creating layer loss_Heavy_Makeup
I1013 14:42:03.756474 19465 net.cpp:91] Creating Layer loss_Heavy_Makeup
I1013 14:42:03.756479 19465 net.cpp:425] loss_Heavy_Makeup <- fc3_Heavy_Makeup
I1013 14:42:03.756485 19465 net.cpp:425] loss_Heavy_Makeup <- label_Heavy_Makeup
I1013 14:42:03.756507 19465 net.cpp:399] loss_Heavy_Makeup -> loss_Heavy_Makeup
I1013 14:42:03.756566 19465 net.cpp:141] Setting up loss_Heavy_Makeup
I1013 14:42:03.756577 19465 net.cpp:148] Top shape: (1)
I1013 14:42:03.756580 19465 net.cpp:151]     with loss weight 1
I1013 14:42:03.756587 19465 net.cpp:156] Memory required for data: 2455856712
I1013 14:42:03.756592 19465 layer_factory.hpp:77] Creating layer fc3_Black_Hair
I1013 14:42:03.756604 19465 net.cpp:91] Creating Layer fc3_Black_Hair
I1013 14:42:03.756610 19465 net.cpp:425] fc3_Black_Hair <- fc2_aroundhead_drop2_aroundhead_0_split_0
I1013 14:42:03.756618 19465 net.cpp:399] fc3_Black_Hair -> fc3_Black_Hair
I1013 14:42:03.756754 19465 net.cpp:141] Setting up fc3_Black_Hair
I1013 14:42:03.756767 19465 net.cpp:148] Top shape: 64 2 (128)
I1013 14:42:03.756770 19465 net.cpp:156] Memory required for data: 2455857224
I1013 14:42:03.756778 19465 layer_factory.hpp:77] Creating layer loss_Black_Hair
I1013 14:42:03.756785 19465 net.cpp:91] Creating Layer loss_Black_Hair
I1013 14:42:03.756789 19465 net.cpp:425] loss_Black_Hair <- fc3_Black_Hair
I1013 14:42:03.756795 19465 net.cpp:425] loss_Black_Hair <- label_Black_Hair
I1013 14:42:03.756804 19465 net.cpp:399] loss_Black_Hair -> loss_Black_Hair
I1013 14:42:03.756855 19465 net.cpp:141] Setting up loss_Black_Hair
I1013 14:42:03.756863 19465 net.cpp:148] Top shape: (1)
I1013 14:42:03.756867 19465 net.cpp:151]     with loss weight 1
I1013 14:42:03.756873 19465 net.cpp:156] Memory required for data: 2455857228
I1013 14:42:03.756877 19465 layer_factory.hpp:77] Creating layer fc3_Blond_Hair
I1013 14:42:03.756891 19465 net.cpp:91] Creating Layer fc3_Blond_Hair
I1013 14:42:03.756897 19465 net.cpp:425] fc3_Blond_Hair <- fc2_aroundhead_drop2_aroundhead_0_split_1
I1013 14:42:03.756904 19465 net.cpp:399] fc3_Blond_Hair -> fc3_Blond_Hair
I1013 14:42:03.757045 19465 net.cpp:141] Setting up fc3_Blond_Hair
I1013 14:42:03.757057 19465 net.cpp:148] Top shape: 64 2 (128)
I1013 14:42:03.757061 19465 net.cpp:156] Memory required for data: 2455857740
I1013 14:42:03.757073 19465 layer_factory.hpp:77] Creating layer loss_Blond_Hair
I1013 14:42:03.757086 19465 net.cpp:91] Creating Layer loss_Blond_Hair
I1013 14:42:03.757091 19465 net.cpp:425] loss_Blond_Hair <- fc3_Blond_Hair
I1013 14:42:03.757103 19465 net.cpp:425] loss_Blond_Hair <- label_Blond_Hair
I1013 14:42:03.757113 19465 net.cpp:399] loss_Blond_Hair -> loss_Blond_Hair
I1013 14:42:03.757164 19465 net.cpp:141] Setting up loss_Blond_Hair
I1013 14:42:03.757172 19465 net.cpp:148] Top shape: (1)
I1013 14:42:03.757177 19465 net.cpp:151]     with loss weight 1
I1013 14:42:03.757184 19465 net.cpp:156] Memory required for data: 2455857744
I1013 14:42:03.757187 19465 layer_factory.hpp:77] Creating layer fc3_Brown_Hair
I1013 14:42:03.757201 19465 net.cpp:91] Creating Layer fc3_Brown_Hair
I1013 14:42:03.757206 19465 net.cpp:425] fc3_Brown_Hair <- fc2_aroundhead_drop2_aroundhead_0_split_2
I1013 14:42:03.757215 19465 net.cpp:399] fc3_Brown_Hair -> fc3_Brown_Hair
I1013 14:42:03.757349 19465 net.cpp:141] Setting up fc3_Brown_Hair
I1013 14:42:03.757362 19465 net.cpp:148] Top shape: 64 2 (128)
I1013 14:42:03.757366 19465 net.cpp:156] Memory required for data: 2455858256
I1013 14:42:03.757375 19465 layer_factory.hpp:77] Creating layer loss_Brown_Hair
I1013 14:42:03.757390 19465 net.cpp:91] Creating Layer loss_Brown_Hair
I1013 14:42:03.757395 19465 net.cpp:425] loss_Brown_Hair <- fc3_Brown_Hair
I1013 14:42:03.757401 19465 net.cpp:425] loss_Brown_Hair <- label_Brown_Hair
I1013 14:42:03.757410 19465 net.cpp:399] loss_Brown_Hair -> loss_Brown_Hair
I1013 14:42:03.757459 19465 net.cpp:141] Setting up loss_Brown_Hair
I1013 14:42:03.757468 19465 net.cpp:148] Top shape: (1)
I1013 14:42:03.757472 19465 net.cpp:151]     with loss weight 1
I1013 14:42:03.757479 19465 net.cpp:156] Memory required for data: 2455858260
I1013 14:42:03.757483 19465 layer_factory.hpp:77] Creating layer fc3_Gray_Hair
I1013 14:42:03.757496 19465 net.cpp:91] Creating Layer fc3_Gray_Hair
I1013 14:42:03.757503 19465 net.cpp:425] fc3_Gray_Hair <- fc2_aroundhead_drop2_aroundhead_0_split_3
I1013 14:42:03.757519 19465 net.cpp:399] fc3_Gray_Hair -> fc3_Gray_Hair
I1013 14:42:03.757661 19465 net.cpp:141] Setting up fc3_Gray_Hair
I1013 14:42:03.757674 19465 net.cpp:148] Top shape: 64 2 (128)
I1013 14:42:03.757678 19465 net.cpp:156] Memory required for data: 2455858772
I1013 14:42:03.757686 19465 layer_factory.hpp:77] Creating layer loss_Gray_Hair
I1013 14:42:03.757700 19465 net.cpp:91] Creating Layer loss_Gray_Hair
I1013 14:42:03.757706 19465 net.cpp:425] loss_Gray_Hair <- fc3_Gray_Hair
I1013 14:42:03.757712 19465 net.cpp:425] loss_Gray_Hair <- label_Gray_Hair
I1013 14:42:03.757720 19465 net.cpp:399] loss_Gray_Hair -> loss_Gray_Hair
I1013 14:42:03.757776 19465 net.cpp:141] Setting up loss_Gray_Hair
I1013 14:42:03.757786 19465 net.cpp:148] Top shape: (1)
I1013 14:42:03.757791 19465 net.cpp:151]     with loss weight 1
I1013 14:42:03.757797 19465 net.cpp:156] Memory required for data: 2455858776
I1013 14:42:03.757802 19465 layer_factory.hpp:77] Creating layer fc3_Wearing_Earrings
I1013 14:42:03.757810 19465 net.cpp:91] Creating Layer fc3_Wearing_Earrings
I1013 14:42:03.757815 19465 net.cpp:425] fc3_Wearing_Earrings <- fc2_aroundhead_drop2_aroundhead_0_split_4
I1013 14:42:03.757823 19465 net.cpp:399] fc3_Wearing_Earrings -> fc3_Wearing_Earrings
I1013 14:42:03.757958 19465 net.cpp:141] Setting up fc3_Wearing_Earrings
I1013 14:42:03.757968 19465 net.cpp:148] Top shape: 64 2 (128)
I1013 14:42:03.757972 19465 net.cpp:156] Memory required for data: 2455859288
I1013 14:42:03.757979 19465 layer_factory.hpp:77] Creating layer loss_Wearing_Earrings
I1013 14:42:03.757988 19465 net.cpp:91] Creating Layer loss_Wearing_Earrings
I1013 14:42:03.757993 19465 net.cpp:425] loss_Wearing_Earrings <- fc3_Wearing_Earrings
I1013 14:42:03.757999 19465 net.cpp:425] loss_Wearing_Earrings <- label_Wearing_Earrings
I1013 14:42:03.758008 19465 net.cpp:399] loss_Wearing_Earrings -> loss_Wearing_Earrings
I1013 14:42:03.758062 19465 net.cpp:141] Setting up loss_Wearing_Earrings
I1013 14:42:03.758072 19465 net.cpp:148] Top shape: (1)
I1013 14:42:03.758076 19465 net.cpp:151]     with loss weight 1
I1013 14:42:03.758082 19465 net.cpp:156] Memory required for data: 2455859292
I1013 14:42:03.758086 19465 layer_factory.hpp:77] Creating layer fc3_Wearing_Necklace
I1013 14:42:03.758095 19465 net.cpp:91] Creating Layer fc3_Wearing_Necklace
I1013 14:42:03.758101 19465 net.cpp:425] fc3_Wearing_Necklace <- fc2_aroundhead_drop2_aroundhead_0_split_5
I1013 14:42:03.758108 19465 net.cpp:399] fc3_Wearing_Necklace -> fc3_Wearing_Necklace
I1013 14:42:03.758245 19465 net.cpp:141] Setting up fc3_Wearing_Necklace
I1013 14:42:03.758255 19465 net.cpp:148] Top shape: 64 2 (128)
I1013 14:42:03.758260 19465 net.cpp:156] Memory required for data: 2455859804
I1013 14:42:03.758266 19465 layer_factory.hpp:77] Creating layer loss_Wearing_Necklace
I1013 14:42:03.758282 19465 net.cpp:91] Creating Layer loss_Wearing_Necklace
I1013 14:42:03.758287 19465 net.cpp:425] loss_Wearing_Necklace <- fc3_Wearing_Necklace
I1013 14:42:03.758294 19465 net.cpp:425] loss_Wearing_Necklace <- label_Wearing_Necklace
I1013 14:42:03.758303 19465 net.cpp:399] loss_Wearing_Necklace -> loss_Wearing_Necklace
I1013 14:42:03.758355 19465 net.cpp:141] Setting up loss_Wearing_Necklace
I1013 14:42:03.758365 19465 net.cpp:148] Top shape: (1)
I1013 14:42:03.758369 19465 net.cpp:151]     with loss weight 1
I1013 14:42:03.758375 19465 net.cpp:156] Memory required for data: 2455859808
I1013 14:42:03.758380 19465 layer_factory.hpp:77] Creating layer fc3_Wearing_Necktie
I1013 14:42:03.758389 19465 net.cpp:91] Creating Layer fc3_Wearing_Necktie
I1013 14:42:03.758394 19465 net.cpp:425] fc3_Wearing_Necktie <- fc2_aroundhead_drop2_aroundhead_0_split_6
I1013 14:42:03.758401 19465 net.cpp:399] fc3_Wearing_Necktie -> fc3_Wearing_Necktie
I1013 14:42:03.758536 19465 net.cpp:141] Setting up fc3_Wearing_Necktie
I1013 14:42:03.758546 19465 net.cpp:148] Top shape: 64 2 (128)
I1013 14:42:03.758551 19465 net.cpp:156] Memory required for data: 2455860320
I1013 14:42:03.758569 19465 layer_factory.hpp:77] Creating layer loss_Wearing_Necktie
I1013 14:42:03.758579 19465 net.cpp:91] Creating Layer loss_Wearing_Necktie
I1013 14:42:03.758584 19465 net.cpp:425] loss_Wearing_Necktie <- fc3_Wearing_Necktie
I1013 14:42:03.758591 19465 net.cpp:425] loss_Wearing_Necktie <- label_Wearing_Necktie
I1013 14:42:03.758599 19465 net.cpp:399] loss_Wearing_Necktie -> loss_Wearing_Necktie
I1013 14:42:03.758651 19465 net.cpp:141] Setting up loss_Wearing_Necktie
I1013 14:42:03.758661 19465 net.cpp:148] Top shape: (1)
I1013 14:42:03.758666 19465 net.cpp:151]     with loss weight 1
I1013 14:42:03.758671 19465 net.cpp:156] Memory required for data: 2455860324
I1013 14:42:03.758676 19465 layer_factory.hpp:77] Creating layer fc3_Bald
I1013 14:42:03.758684 19465 net.cpp:91] Creating Layer fc3_Bald
I1013 14:42:03.758690 19465 net.cpp:425] fc3_Bald <- fc2_aroundhead_drop2_aroundhead_0_split_7
I1013 14:42:03.758697 19465 net.cpp:399] fc3_Bald -> fc3_Bald
I1013 14:42:03.758831 19465 net.cpp:141] Setting up fc3_Bald
I1013 14:42:03.758841 19465 net.cpp:148] Top shape: 64 2 (128)
I1013 14:42:03.758846 19465 net.cpp:156] Memory required for data: 2455860836
I1013 14:42:03.758852 19465 layer_factory.hpp:77] Creating layer loss_Bald
I1013 14:42:03.758868 19465 net.cpp:91] Creating Layer loss_Bald
I1013 14:42:03.758874 19465 net.cpp:425] loss_Bald <- fc3_Bald
I1013 14:42:03.758880 19465 net.cpp:425] loss_Bald <- label_Bald
I1013 14:42:03.758888 19465 net.cpp:399] loss_Bald -> loss_Bald
I1013 14:42:03.758940 19465 net.cpp:141] Setting up loss_Bald
I1013 14:42:03.758949 19465 net.cpp:148] Top shape: (1)
I1013 14:42:03.758954 19465 net.cpp:151]     with loss weight 1
I1013 14:42:03.758960 19465 net.cpp:156] Memory required for data: 2455860840
I1013 14:42:03.758965 19465 layer_factory.hpp:77] Creating layer fc3_Receding_Hairline
I1013 14:42:03.758972 19465 net.cpp:91] Creating Layer fc3_Receding_Hairline
I1013 14:42:03.758978 19465 net.cpp:425] fc3_Receding_Hairline <- fc2_aroundhead_drop2_aroundhead_0_split_8
I1013 14:42:03.758985 19465 net.cpp:399] fc3_Receding_Hairline -> fc3_Receding_Hairline
I1013 14:42:03.759119 19465 net.cpp:141] Setting up fc3_Receding_Hairline
I1013 14:42:03.759130 19465 net.cpp:148] Top shape: 64 2 (128)
I1013 14:42:03.759135 19465 net.cpp:156] Memory required for data: 2455861352
I1013 14:42:03.759141 19465 layer_factory.hpp:77] Creating layer loss_Receding_Hairline
I1013 14:42:03.759150 19465 net.cpp:91] Creating Layer loss_Receding_Hairline
I1013 14:42:03.759155 19465 net.cpp:425] loss_Receding_Hairline <- fc3_Receding_Hairline
I1013 14:42:03.759160 19465 net.cpp:425] loss_Receding_Hairline <- label_Receding_Hairline
I1013 14:42:03.759167 19465 net.cpp:399] loss_Receding_Hairline -> loss_Receding_Hairline
I1013 14:42:03.759217 19465 net.cpp:141] Setting up loss_Receding_Hairline
I1013 14:42:03.759227 19465 net.cpp:148] Top shape: (1)
I1013 14:42:03.759232 19465 net.cpp:151]     with loss weight 1
I1013 14:42:03.759238 19465 net.cpp:156] Memory required for data: 2455861356
I1013 14:42:03.759241 19465 layer_factory.hpp:77] Creating layer fc3_Bangs
I1013 14:42:03.759249 19465 net.cpp:91] Creating Layer fc3_Bangs
I1013 14:42:03.759255 19465 net.cpp:425] fc3_Bangs <- fc2_aroundhead_drop2_aroundhead_0_split_9
I1013 14:42:03.759263 19465 net.cpp:399] fc3_Bangs -> fc3_Bangs
I1013 14:42:03.759397 19465 net.cpp:141] Setting up fc3_Bangs
I1013 14:42:03.759408 19465 net.cpp:148] Top shape: 64 2 (128)
I1013 14:42:03.759413 19465 net.cpp:156] Memory required for data: 2455861868
I1013 14:42:03.759419 19465 layer_factory.hpp:77] Creating layer loss_Bangs
I1013 14:42:03.759433 19465 net.cpp:91] Creating Layer loss_Bangs
I1013 14:42:03.759438 19465 net.cpp:425] loss_Bangs <- fc3_Bangs
I1013 14:42:03.759444 19465 net.cpp:425] loss_Bangs <- label_Bangs
I1013 14:42:03.759451 19465 net.cpp:399] loss_Bangs -> loss_Bangs
I1013 14:42:03.759507 19465 net.cpp:141] Setting up loss_Bangs
I1013 14:42:03.759517 19465 net.cpp:148] Top shape: (1)
I1013 14:42:03.759521 19465 net.cpp:151]     with loss weight 1
I1013 14:42:03.759537 19465 net.cpp:156] Memory required for data: 2455861872
I1013 14:42:03.759543 19465 layer_factory.hpp:77] Creating layer fc3_Wearing_Hat
I1013 14:42:03.759552 19465 net.cpp:91] Creating Layer fc3_Wearing_Hat
I1013 14:42:03.759557 19465 net.cpp:425] fc3_Wearing_Hat <- fc2_aroundhead_drop2_aroundhead_0_split_10
I1013 14:42:03.759565 19465 net.cpp:399] fc3_Wearing_Hat -> fc3_Wearing_Hat
I1013 14:42:03.759704 19465 net.cpp:141] Setting up fc3_Wearing_Hat
I1013 14:42:03.759716 19465 net.cpp:148] Top shape: 64 2 (128)
I1013 14:42:03.759719 19465 net.cpp:156] Memory required for data: 2455862384
I1013 14:42:03.759727 19465 layer_factory.hpp:77] Creating layer loss_Wearing_Hat
I1013 14:42:03.759742 19465 net.cpp:91] Creating Layer loss_Wearing_Hat
I1013 14:42:03.759747 19465 net.cpp:425] loss_Wearing_Hat <- fc3_Wearing_Hat
I1013 14:42:03.759753 19465 net.cpp:425] loss_Wearing_Hat <- label_Wearing_Hat
I1013 14:42:03.759760 19465 net.cpp:399] loss_Wearing_Hat -> loss_Wearing_Hat
I1013 14:42:03.759817 19465 net.cpp:141] Setting up loss_Wearing_Hat
I1013 14:42:03.759827 19465 net.cpp:148] Top shape: (1)
I1013 14:42:03.759832 19465 net.cpp:151]     with loss weight 1
I1013 14:42:03.759840 19465 net.cpp:156] Memory required for data: 2455862388
I1013 14:42:03.759843 19465 layer_factory.hpp:77] Creating layer fc3_Straight_Hair
I1013 14:42:03.759855 19465 net.cpp:91] Creating Layer fc3_Straight_Hair
I1013 14:42:03.759861 19465 net.cpp:425] fc3_Straight_Hair <- fc2_aroundhead_drop2_aroundhead_0_split_11
I1013 14:42:03.759868 19465 net.cpp:399] fc3_Straight_Hair -> fc3_Straight_Hair
I1013 14:42:03.760002 19465 net.cpp:141] Setting up fc3_Straight_Hair
I1013 14:42:03.760013 19465 net.cpp:148] Top shape: 64 2 (128)
I1013 14:42:03.760017 19465 net.cpp:156] Memory required for data: 2455862900
I1013 14:42:03.760030 19465 layer_factory.hpp:77] Creating layer loss_Straight_Hair
I1013 14:42:03.760043 19465 net.cpp:91] Creating Layer loss_Straight_Hair
I1013 14:42:03.760048 19465 net.cpp:425] loss_Straight_Hair <- fc3_Straight_Hair
I1013 14:42:03.760056 19465 net.cpp:425] loss_Straight_Hair <- label_Straight_Hair
I1013 14:42:03.760061 19465 net.cpp:399] loss_Straight_Hair -> loss_Straight_Hair
I1013 14:42:03.760113 19465 net.cpp:141] Setting up loss_Straight_Hair
I1013 14:42:03.760123 19465 net.cpp:148] Top shape: (1)
I1013 14:42:03.760128 19465 net.cpp:151]     with loss weight 1
I1013 14:42:03.760133 19465 net.cpp:156] Memory required for data: 2455862904
I1013 14:42:03.760138 19465 layer_factory.hpp:77] Creating layer fc3_Wavy_Hair
I1013 14:42:03.760146 19465 net.cpp:91] Creating Layer fc3_Wavy_Hair
I1013 14:42:03.760152 19465 net.cpp:425] fc3_Wavy_Hair <- fc2_aroundhead_drop2_aroundhead_0_split_12
I1013 14:42:03.760159 19465 net.cpp:399] fc3_Wavy_Hair -> fc3_Wavy_Hair
I1013 14:42:03.760296 19465 net.cpp:141] Setting up fc3_Wavy_Hair
I1013 14:42:03.760306 19465 net.cpp:148] Top shape: 64 2 (128)
I1013 14:42:03.760310 19465 net.cpp:156] Memory required for data: 2455863416
I1013 14:42:03.760318 19465 layer_factory.hpp:77] Creating layer loss_Wavy_Hair
I1013 14:42:03.760326 19465 net.cpp:91] Creating Layer loss_Wavy_Hair
I1013 14:42:03.760331 19465 net.cpp:425] loss_Wavy_Hair <- fc3_Wavy_Hair
I1013 14:42:03.760339 19465 net.cpp:425] loss_Wavy_Hair <- label_Wavy_Hair
I1013 14:42:03.760344 19465 net.cpp:399] loss_Wavy_Hair -> loss_Wavy_Hair
I1013 14:42:03.760395 19465 net.cpp:141] Setting up loss_Wavy_Hair
I1013 14:42:03.760404 19465 net.cpp:148] Top shape: (1)
I1013 14:42:03.760408 19465 net.cpp:151]     with loss weight 1
I1013 14:42:03.760414 19465 net.cpp:156] Memory required for data: 2455863420
I1013 14:42:03.760423 19465 layer_factory.hpp:77] Creating layer fc3_5_o_Clock_Shadow
I1013 14:42:03.760433 19465 net.cpp:91] Creating Layer fc3_5_o_Clock_Shadow
I1013 14:42:03.760438 19465 net.cpp:425] fc3_5_o_Clock_Shadow <- fc2_facialhair_drop2_facialhair_0_split_0
I1013 14:42:03.760447 19465 net.cpp:399] fc3_5_o_Clock_Shadow -> fc3_5_o_Clock_Shadow
I1013 14:42:03.760581 19465 net.cpp:141] Setting up fc3_5_o_Clock_Shadow
I1013 14:42:03.760602 19465 net.cpp:148] Top shape: 64 2 (128)
I1013 14:42:03.760607 19465 net.cpp:156] Memory required for data: 2455863932
I1013 14:42:03.760615 19465 layer_factory.hpp:77] Creating layer loss_5_o_Clock_Shadow
I1013 14:42:03.760635 19465 net.cpp:91] Creating Layer loss_5_o_Clock_Shadow
I1013 14:42:03.760640 19465 net.cpp:425] loss_5_o_Clock_Shadow <- fc3_5_o_Clock_Shadow
I1013 14:42:03.760648 19465 net.cpp:425] loss_5_o_Clock_Shadow <- label_5_o_Clock_Shadow
I1013 14:42:03.760653 19465 net.cpp:399] loss_5_o_Clock_Shadow -> loss_5_o_Clock_Shadow
I1013 14:42:03.760706 19465 net.cpp:141] Setting up loss_5_o_Clock_Shadow
I1013 14:42:03.760716 19465 net.cpp:148] Top shape: (1)
I1013 14:42:03.760721 19465 net.cpp:151]     with loss weight 1
I1013 14:42:03.760727 19465 net.cpp:156] Memory required for data: 2455863936
I1013 14:42:03.760731 19465 layer_factory.hpp:77] Creating layer fc3_Mustache
I1013 14:42:03.760743 19465 net.cpp:91] Creating Layer fc3_Mustache
I1013 14:42:03.760748 19465 net.cpp:425] fc3_Mustache <- fc2_facialhair_drop2_facialhair_0_split_1
I1013 14:42:03.760758 19465 net.cpp:399] fc3_Mustache -> fc3_Mustache
I1013 14:42:03.760895 19465 net.cpp:141] Setting up fc3_Mustache
I1013 14:42:03.760906 19465 net.cpp:148] Top shape: 64 2 (128)
I1013 14:42:03.760910 19465 net.cpp:156] Memory required for data: 2455864448
I1013 14:42:03.760917 19465 layer_factory.hpp:77] Creating layer loss_Mustache
I1013 14:42:03.760926 19465 net.cpp:91] Creating Layer loss_Mustache
I1013 14:42:03.760931 19465 net.cpp:425] loss_Mustache <- fc3_Mustache
I1013 14:42:03.760937 19465 net.cpp:425] loss_Mustache <- label_Mustache
I1013 14:42:03.760944 19465 net.cpp:399] loss_Mustache -> loss_Mustache
I1013 14:42:03.760994 19465 net.cpp:141] Setting up loss_Mustache
I1013 14:42:03.761003 19465 net.cpp:148] Top shape: (1)
I1013 14:42:03.761008 19465 net.cpp:151]     with loss weight 1
I1013 14:42:03.761014 19465 net.cpp:156] Memory required for data: 2455864452
I1013 14:42:03.761018 19465 layer_factory.hpp:77] Creating layer fc3_No_Beard
I1013 14:42:03.761024 19465 net.cpp:91] Creating Layer fc3_No_Beard
I1013 14:42:03.761029 19465 net.cpp:425] fc3_No_Beard <- fc2_facialhair_drop2_facialhair_0_split_2
I1013 14:42:03.761040 19465 net.cpp:399] fc3_No_Beard -> fc3_No_Beard
I1013 14:42:03.761175 19465 net.cpp:141] Setting up fc3_No_Beard
I1013 14:42:03.761185 19465 net.cpp:148] Top shape: 64 2 (128)
I1013 14:42:03.761190 19465 net.cpp:156] Memory required for data: 2455864964
I1013 14:42:03.761196 19465 layer_factory.hpp:77] Creating layer loss_No_Beard
I1013 14:42:03.761205 19465 net.cpp:91] Creating Layer loss_No_Beard
I1013 14:42:03.761210 19465 net.cpp:425] loss_No_Beard <- fc3_No_Beard
I1013 14:42:03.761216 19465 net.cpp:425] loss_No_Beard <- label_No_Beard
I1013 14:42:03.761222 19465 net.cpp:399] loss_No_Beard -> loss_No_Beard
I1013 14:42:03.761273 19465 net.cpp:141] Setting up loss_No_Beard
I1013 14:42:03.761283 19465 net.cpp:148] Top shape: (1)
I1013 14:42:03.761287 19465 net.cpp:151]     with loss weight 1
I1013 14:42:03.761293 19465 net.cpp:156] Memory required for data: 2455864968
I1013 14:42:03.761297 19465 layer_factory.hpp:77] Creating layer fc3_Sideburns
I1013 14:42:03.761309 19465 net.cpp:91] Creating Layer fc3_Sideburns
I1013 14:42:03.761314 19465 net.cpp:425] fc3_Sideburns <- fc2_facialhair_drop2_facialhair_0_split_3
I1013 14:42:03.761323 19465 net.cpp:399] fc3_Sideburns -> fc3_Sideburns
I1013 14:42:03.761464 19465 net.cpp:141] Setting up fc3_Sideburns
I1013 14:42:03.761476 19465 net.cpp:148] Top shape: 64 2 (128)
I1013 14:42:03.761479 19465 net.cpp:156] Memory required for data: 2455865480
I1013 14:42:03.761487 19465 layer_factory.hpp:77] Creating layer loss_Sideburns
I1013 14:42:03.761495 19465 net.cpp:91] Creating Layer loss_Sideburns
I1013 14:42:03.761500 19465 net.cpp:425] loss_Sideburns <- fc3_Sideburns
I1013 14:42:03.761507 19465 net.cpp:425] loss_Sideburns <- label_Sideburns
I1013 14:42:03.761512 19465 net.cpp:399] loss_Sideburns -> loss_Sideburns
I1013 14:42:03.761569 19465 net.cpp:141] Setting up loss_Sideburns
I1013 14:42:03.761590 19465 net.cpp:148] Top shape: (1)
I1013 14:42:03.761596 19465 net.cpp:151]     with loss weight 1
I1013 14:42:03.761602 19465 net.cpp:156] Memory required for data: 2455865484
I1013 14:42:03.761606 19465 layer_factory.hpp:77] Creating layer fc3_Goatee
I1013 14:42:03.761613 19465 net.cpp:91] Creating Layer fc3_Goatee
I1013 14:42:03.761618 19465 net.cpp:425] fc3_Goatee <- fc2_facialhair_drop2_facialhair_0_split_4
I1013 14:42:03.761628 19465 net.cpp:399] fc3_Goatee -> fc3_Goatee
I1013 14:42:03.761772 19465 net.cpp:141] Setting up fc3_Goatee
I1013 14:42:03.761783 19465 net.cpp:148] Top shape: 64 2 (128)
I1013 14:42:03.761788 19465 net.cpp:156] Memory required for data: 2455865996
I1013 14:42:03.761801 19465 layer_factory.hpp:77] Creating layer loss_Goatee
I1013 14:42:03.761817 19465 net.cpp:91] Creating Layer loss_Goatee
I1013 14:42:03.761822 19465 net.cpp:425] loss_Goatee <- fc3_Goatee
I1013 14:42:03.761829 19465 net.cpp:425] loss_Goatee <- label_Goatee
I1013 14:42:03.761836 19465 net.cpp:399] loss_Goatee -> loss_Goatee
I1013 14:42:03.761886 19465 net.cpp:141] Setting up loss_Goatee
I1013 14:42:03.761896 19465 net.cpp:148] Top shape: (1)
I1013 14:42:03.761900 19465 net.cpp:151]     with loss weight 1
I1013 14:42:03.761906 19465 net.cpp:156] Memory required for data: 2455866000
I1013 14:42:03.761911 19465 layer_factory.hpp:77] Creating layer fc3_High_Cheekbones
I1013 14:42:03.761917 19465 net.cpp:91] Creating Layer fc3_High_Cheekbones
I1013 14:42:03.761922 19465 net.cpp:425] fc3_High_Cheekbones <- fc2_cheeks_drop2_cheeks_0_split_0
I1013 14:42:03.761932 19465 net.cpp:399] fc3_High_Cheekbones -> fc3_High_Cheekbones
I1013 14:42:03.762069 19465 net.cpp:141] Setting up fc3_High_Cheekbones
I1013 14:42:03.762080 19465 net.cpp:148] Top shape: 64 2 (128)
I1013 14:42:03.762084 19465 net.cpp:156] Memory required for data: 2455866512
I1013 14:42:03.762099 19465 layer_factory.hpp:77] Creating layer loss_High_Cheekbones
I1013 14:42:03.762109 19465 net.cpp:91] Creating Layer loss_High_Cheekbones
I1013 14:42:03.762115 19465 net.cpp:425] loss_High_Cheekbones <- fc3_High_Cheekbones
I1013 14:42:03.762120 19465 net.cpp:425] loss_High_Cheekbones <- label_High_Cheekbones
I1013 14:42:03.762127 19465 net.cpp:399] loss_High_Cheekbones -> loss_High_Cheekbones
I1013 14:42:03.762176 19465 net.cpp:141] Setting up loss_High_Cheekbones
I1013 14:42:03.762187 19465 net.cpp:148] Top shape: (1)
I1013 14:42:03.762190 19465 net.cpp:151]     with loss weight 1
I1013 14:42:03.762197 19465 net.cpp:156] Memory required for data: 2455866516
I1013 14:42:03.762202 19465 layer_factory.hpp:77] Creating layer fc3_Rosy_Cheeks
I1013 14:42:03.762207 19465 net.cpp:91] Creating Layer fc3_Rosy_Cheeks
I1013 14:42:03.762213 19465 net.cpp:425] fc3_Rosy_Cheeks <- fc2_cheeks_drop2_cheeks_0_split_1
I1013 14:42:03.762223 19465 net.cpp:399] fc3_Rosy_Cheeks -> fc3_Rosy_Cheeks
I1013 14:42:03.762357 19465 net.cpp:141] Setting up fc3_Rosy_Cheeks
I1013 14:42:03.762367 19465 net.cpp:148] Top shape: 64 2 (128)
I1013 14:42:03.762372 19465 net.cpp:156] Memory required for data: 2455867028
I1013 14:42:03.762379 19465 layer_factory.hpp:77] Creating layer loss_Rosy_Cheeks
I1013 14:42:03.762389 19465 net.cpp:91] Creating Layer loss_Rosy_Cheeks
I1013 14:42:03.762395 19465 net.cpp:425] loss_Rosy_Cheeks <- fc3_Rosy_Cheeks
I1013 14:42:03.762401 19465 net.cpp:425] loss_Rosy_Cheeks <- label_Rosy_Cheeks
I1013 14:42:03.762408 19465 net.cpp:399] loss_Rosy_Cheeks -> loss_Rosy_Cheeks
I1013 14:42:03.762456 19465 net.cpp:141] Setting up loss_Rosy_Cheeks
I1013 14:42:03.762465 19465 net.cpp:148] Top shape: (1)
I1013 14:42:03.762470 19465 net.cpp:151]     with loss weight 1
I1013 14:42:03.762476 19465 net.cpp:156] Memory required for data: 2455867032
I1013 14:42:03.762480 19465 layer_factory.hpp:77] Creating layer fc3_Chubby
I1013 14:42:03.762487 19465 net.cpp:91] Creating Layer fc3_Chubby
I1013 14:42:03.762492 19465 net.cpp:425] fc3_Chubby <- fc2_fat_drop2_fat_0_split_0
I1013 14:42:03.762501 19465 net.cpp:399] fc3_Chubby -> fc3_Chubby
I1013 14:42:03.762643 19465 net.cpp:141] Setting up fc3_Chubby
I1013 14:42:03.762663 19465 net.cpp:148] Top shape: 64 2 (128)
I1013 14:42:03.762668 19465 net.cpp:156] Memory required for data: 2455867544
I1013 14:42:03.762676 19465 layer_factory.hpp:77] Creating layer loss_Chubby
I1013 14:42:03.762691 19465 net.cpp:91] Creating Layer loss_Chubby
I1013 14:42:03.762697 19465 net.cpp:425] loss_Chubby <- fc3_Chubby
I1013 14:42:03.762703 19465 net.cpp:425] loss_Chubby <- label_Chubby
I1013 14:42:03.762709 19465 net.cpp:399] loss_Chubby -> loss_Chubby
I1013 14:42:03.762763 19465 net.cpp:141] Setting up loss_Chubby
I1013 14:42:03.762773 19465 net.cpp:148] Top shape: (1)
I1013 14:42:03.762778 19465 net.cpp:151]     with loss weight 1
I1013 14:42:03.762784 19465 net.cpp:156] Memory required for data: 2455867548
I1013 14:42:03.762787 19465 layer_factory.hpp:77] Creating layer fc3_Double_Chin
I1013 14:42:03.762794 19465 net.cpp:91] Creating Layer fc3_Double_Chin
I1013 14:42:03.762799 19465 net.cpp:425] fc3_Double_Chin <- fc2_fat_drop2_fat_0_split_1
I1013 14:42:03.762809 19465 net.cpp:399] fc3_Double_Chin -> fc3_Double_Chin
I1013 14:42:03.763633 19465 net.cpp:141] Setting up fc3_Double_Chin
I1013 14:42:03.763650 19465 net.cpp:148] Top shape: 64 2 (128)
I1013 14:42:03.763655 19465 net.cpp:156] Memory required for data: 2455868060
I1013 14:42:03.763664 19465 layer_factory.hpp:77] Creating layer loss_Double_Chin
I1013 14:42:03.763679 19465 net.cpp:91] Creating Layer loss_Double_Chin
I1013 14:42:03.763685 19465 net.cpp:425] loss_Double_Chin <- fc3_Double_Chin
I1013 14:42:03.763691 19465 net.cpp:425] loss_Double_Chin <- label_Double_Chin
I1013 14:42:03.763700 19465 net.cpp:399] loss_Double_Chin -> loss_Double_Chin
…
