…
    slice_point: 24
    slice_point: 26
    slice_point: 28
    slice_point: 30
    slice_point: 32
    slice_point: 34
    slice_point: 36
    slice_point: 38
    slice_point: 40
    slice_point: 42
    slice_point: 44
    slice_point: 46
    slice_point: 48
    slice_point: 50
    slice_point: 52
    slice_point: 54
    slice_point: 56
    slice_point: 58
    slice_point: 60
    slice_point: 62
    slice_point: 64
    slice_point: 66
    slice_point: 68
    slice_point: 70
    slice_point: 72
    slice_point: 74
    slice_point: 76
    slice_point: 78
  }
}
layer {
  name: "conv1_bn"
  type: "BatchNorm"
  bottom: "conv1"
  top: "conv1"
  batch_norm_param {
    use_global_stats: false
  }
}
layer {
  name: "conv1_scale"
  type: "Scale"
  bottom: "conv1"
  top: "conv1"
  scale_param {
    bias_term: true
  }
}
layer {
  name: "prelu1"
  type: "PReLU"
  bottom: "conv1"
  top: "conv1"
}
layer {
  name: "pool1"
  type: "Pooling"
  bottom: "conv1"
  top: "pool1"
  pooling_param {
    pool: MAX
    kernel_size: 2
    stride: 2
  }
}
layer {
  name: "conv2a"
  type: "Convolution"
  bottom: "pool1"
  top: "conv2a"
  param {
    name: "conv2a_w"
    lr_mult: 1
    decay_mult: 1
  }
  param {
    name: "conv2a_b"
    lr_mult: 2
    decay_mult: 0
  }
  convolution_param {
    num_output: 64
    kernel_size: 1
    weight_filler {
      type: "xavier"
    }
    bias_filler {
      type: "constant"
      value: 0.2
    }
  }
}
layer {
  name: "conv2a_bn"
  type: "BatchNorm"
  bottom: "conv2a"
  top: "conv2a"
  batch_norm_param {
    use_global_stats: false
  }
}
layer {
  name: "conv2a_scale"
  type: "Scale"
  bottom: "conv2a"
  top: "conv2a"
  scale_param {
    bias_term: true
  }
}
layer {
  name: "prelu2a"
  type: "PReLU"
  bottom: "conv2a"
  top: "conv2a"
}
layer {
  name: "conv2"
  type: "Convolution"
  bottom: "conv2a"
  top: "conv2"
  param {
    name: "conv2_w"
    lr_mult: 1
    decay_mult: 1
  }
  param {
    name: "conv2_b"
    lr_mult: 2
    decay_mult: 0
  }
  convolution_param {
    num_output: 192
    pad: 1
    kernel_size: 3
    stride: 1
    weight_filler {
      type: "xavier"
    }
    bias_filler {
      type: "constant"
      value: 0.2
    }
  }
}
layer {
  name: "conv2_bn"
  type: "BatchNorm"
  bottom: "conv2"
  top: "conv2"
  batch_norm_param {
    use_global_stats: false
  }
}
layer {
  name: "conv2_scale"
  type: "Scale"
  bottom: "conv2"
  top: "conv2"
  scale_param {
    bias_term: true
  }
}
layer {
  name: "prelu2"
  type: "PReLU"
  bottom: "conv2"
  top: "conv2"
}
layer {
  name: "pool2"
  type: "Pooling"
  bottom: "conv2"
  top: "pool2"
  pooling_param {
    pool: MAX
    kernel_size: 2
    stride: 2
  }
}
layer {
  name: "conv3a"
  type: "Convolution"
  bottom: "pool2"
  top: "conv3a"
  param {
    name: "conv3a_w"
    lr_mult: 1
    decay_mult: 1
  }
  param {
    name: "conv3a_b"
    lr_mult: 2
    decay_mult: 0
  }
  convolution_param {
    num_output: 192
    kernel_size: 1
    weight_filler {
      type: "xavier"
    }
    bias_filler {
      type: "constant"
      value: 0.2
    }
  }
}
layer {
  name: "conv3a_bn"
  type: "BatchNorm"
  bottom: "conv3a"
  top: "conv3a"
  batch_norm_param {
    use_global_stats: false
  }
}
layer {
  name: "conv3a_scale"
  type: "Scale"
  bottom: "conv3a"
  top: "conv3a"
  scale_param {
    bias_term: true
  }
}
layer {
  name: "prelu3a"
  type: "PReLU"
  bottom: "conv3a"
  top: "conv3a"
}
layer {
  name: "conv3"
  type: "Convolution"
  bottom: "conv3a"
  top: "conv3"
  param {
    name: "conv3_w"
    lr_mult: 1
    decay_mult: 1
  }
  param {
    name: "conv3_b"
    lr_mult: 2
    decay_mult: 0
  }
  convolution_param {
    num_output: 384
    pad: 1
    kernel_size: 3
    stride: 1
    weight_filler {
      type: "xavier"
    }
    bias_filler {
      type: "constant"
      value: 0.2
    }
  }
}
layer {
  name: "conv3_bn"
  type: "BatchNorm"
  bottom: "conv3"
  top: "conv3"
  batch_norm_param {
    use_global_stats: false
  }
}
layer {
  name: "conv3_scale"
  type: "Scale"
  bottom: "conv3"
  top: "conv3"
  scale_param {
    bias_term: true
  }
}
layer {
  name: "prelu3"
  type: "PReLU"
  bottom: "conv3"
  top: "conv3"
}
layer {
  name: "pool3"
  type: "Pooling"
  bottom: "conv3"
  top: "pool3"
  pooling_param {
    pool: MAX
    kernel_size: 2
    stride: 2
  }
}
layer {
  name: "conv3_gender"
  type: "Convolution"
  bottom: "pool3"
  top: "conv3_gender"
  param {
    lr_mult: 1
    decay_mult: 1
  }
  param {
    lr_mult: 2
    decay_mult: 0
  }
  convolution_param {
    num_output: 300
    pad: 1
    kernel_size: 3
    stride: 2
    weight_filler {
      type: "xavier"
    }
    bias_filler {
      type: "constant"
      value: 0.2
    }
  }
}
layer {
  name: "conv3_gender_bn"
  type: "BatchNorm"
  bottom: "conv3_gender"
  top: "conv3_gender"
  batch_norm_param {
    use_global_stats: false
  }
}
layer {
  name: "conv3_gender_scale"
  type: "Scale"
  bottom: "conv3_gender"
  top: "conv3_gender"
  scale_param {
    bias_term: true
  }
}
layer {
  name: "prelu3_gender"
  type: "PReLU"
  bottom: "conv3_gender"
  top: "conv3_gender"
}
layer {
  name: "pool3_gender"
  type: "Pooling"
  bottom: "conv3_gender"
  top: "pool3_gender"
  pooling_param {
    pool: MAX
    kernel_size: 5
    stride: 2
    pad: 2
  }
}
layer {
  name: "fc1_gender"
  type: "InnerProduct"
  bottom: "pool3_gender"
  top: "fc1_gender"
  param {
    lr_mult: 1
    decay_mult: 1
  }
  param {
    lr_mult: 2
    decay_mult: 0
  }
  inner_product_param {
    num_output: 512
    weight_filler {
      type: "xavier"
    }
    bias_filler {
      type: "constant"
      value: 0.2
    }
  }
}
layer {
  name: "relu1_gender"
  type: "ReLU"
  bottom: "fc1_gender"
  top: "fc1_gender"
}
layer {
  name: "drop1_gender"
  type: "Dropout"
  bottom: "fc1_gender"
  top: "fc1_gender"
  dropout_param {
    dropout_ratio: 0.5
  }
}
layer {
  name: "fc2_gender"
  type: "InnerProduct"
  bottom: "fc1_gender"
  top: "fc2_gender"
  param {
    lr_mult: 1
    decay_mult: 1
  }
  param {
    lr_mult: 2
    decay_mult: 0
  }
  inner_product_param {
    num_output: 512
    weight_filler {
      type: "xavier"
    }
    bias_filler {
      type: "constant"
      value: 0.2
    }
  }
}
layer {
  name: "relu2_gender"
  type: "ReLU"
  bottom: "fc2_gender"
  top: "fc2_gender"
}
layer {
  name: "drop2_gender"
  type: "Dropout"
  bottom: "fc2_gender"
  top: "fc2_gender"
  dropout_param {
    dropout_ratio: 0.5
  }
}
layer {
  name: "conv3_nose"
  type: "Convolution"
  bottom: "pool3"
  top: "conv3_nose"
  param {
    lr_mult: 1
    decay_mult: 1
  }
  param {
    lr_mult: 2
    decay_mult: 0
  }
  convolution_param {
    num_output: 300
    pad: 1
    kernel_size: 3
    stride: 2
    weight_filler {
      type: "xavier"
    }
    bias_filler {
      type: "constant"
      value: 0.2
    }
  }
}
layer {
  name: "conv3_nose_bn"
  type: "BatchNorm"
  bottom: "conv3_nose"
  top: "conv3_nose"
  batch_norm_param {
    use_global_stats: false
  }
}
layer {
  name: "conv3_nose_scale"
  type: "Scale"
  bottom: "conv3_nose"
  top: "conv3_nose"
  scale_param {
    bias_term: true
  }
}
layer {
  name: "prelu3_nose"
  type: "PReLU"
  bottom: "conv3_nose"
  top: "conv3_nose"
}
layer {
  name: "pool3_nose"
  type: "Pooling"
  bottom: "conv3_nose"
  top: "pool3_nose"
  pooling_param {
    pool: MAX
    kernel_size: 5
    stride: 2
    pad: 2
  }
}
layer {
  name: "fc1_nose"
  type: "InnerProduct"
  bottom: "pool3_nose"
  top: "fc1_nose"
  param {
    lr_mult: 1
    decay_mult: 1
  }
  param {
    lr_mult: 2
    decay_mult: 0
  }
  inner_product_param {
    num_output: 512
    weight_filler {
      type: "xavier"
    }
    bias_filler {
      type: "constant"
      value: 0.2
    }
  }
}
layer {
  name: "relu1_nose"
  type: "ReLU"
  bottom: "fc1_nose"
  top: "fc1_nose"
}
layer {
  name: "drop1_nose"
  type: "Dropout"
  bottom: "fc1_nose"
  top: "fc1_nose"
  dropout_param {
    dropout_ratio: 0.5
  }
}
layer {
  name: "fc2_nose"
  type: "InnerProduct"
  bottom: "fc1_nose"
  top: "fc2_nose"
  param {
    lr_mult: 1
    decay_mult: 1
  }
  param {
    lr_mult: 2
    decay_mult: 0
  }
  inner_product_param {
    num_output: 512
    weight_filler {
      type: "xavier"
    }
    bias_filler {
      type: "constant"
      value: 0.2
    }
  }
}
layer {
  name: "relu2_nose"
  type: "ReLU"
  bottom: "fc2_nose"
  top: "fc2_nose"
}
layer {
  name: "drop2_nose"
  type: "Dropout"
  bottom: "fc2_nose"
  top: "fc2_nose"
  dropout_param {
    dropout_ratio: 0.5
  }
}
layer {
  name: "conv3_mouth"
  type: "Convolution"
  bottom: "pool3"
  top: "conv3_mouth"
  param {
    lr_mult: 1
    decay_mult: 1
  }
  param {
    lr_mult: 2
    decay_mult: 0
  }
  convolution_param {
    num_output: 300
    pad: 1
    kernel_size: 3
    stride: 2
    weight_filler {
      type: "xavier"
    }
    bias_filler {
      type: "constant"
      value: 0.2
    }
  }
}
layer {
  name: "conv3_mouth_bn"
  type: "BatchNorm"
  bottom: "conv3_mouth"
  top: "conv3_mouth"
  batch_norm_param {
    use_global_stats: false
  }
}
layer {
  name: "conv3_mouth_scale"
  type: "Scale"
  bottom: "conv3_mouth"
  top: "conv3_mouth"
  scale_param {
    bias_term: true
  }
}
layer {
  name: "prelu3_mouth"
  type: "PReLU"
  bottom: "conv3_mouth"
  top: "conv3_mouth"
}
layer {
  name: "pool3_mouth"
  type: "Pooling"
  bottom: "conv3_mouth"
  top: "pool3_mouth"
  pooling_param {
    pool: MAX
    kernel_size: 5
    stride: 2
    pad: 2
  }
}
layer {
  name: "fc1_mouth"
  type: "InnerProduct"
  bottom: "pool3_mouth"
  top: "fc1_mouth"
  param {
    lr_mult: 1
    decay_mult: 1
  }
  param {
    lr_mult: 2
    decay_mult: 0
  }
  inner_product_param {
    num_output: 512
    weight_filler {
      type: "xavier"
    }
    bias_filler {
      type: "constant"
      value: 0.2
    }
  }
}
layer {
  name: "relu1_mouth"
  type: "ReLU"
  bottom: "fc1_mouth"
  top: "fc1_mouth"
}
layer {
  name: "drop1_mouth"
  type: "Dropout"
  bottom: "fc1_mouth"
  top: "fc1_mouth"
  dropout_param {
    dropout_ratio: 0.5
  }
}
layer {
  name: "fc2_mouth"
  type: "InnerProduct"
  bottom: "fc1_mouth"
  top: "fc2_mouth"
  param {
    lr_mult: 1
    decay_mult: 1
  }
  param {
    lr_mult: 2
    decay_mult: 0
  }
  inner_product_param {
    num_output: 512
    weight_filler {
      type: "xavier"
    }
    bias_filler {
      type: "constant"
      value: 0.2
    }
  }
}
layer {
  name: "relu2_mouth"
  type: "ReLU"
  bottom: "fc2_mouth"
  top: "fc2_mouth"
}
layer {
  name: "drop2_mouth"
  type: "Dropout"
  bottom: "fc2_mouth"
  top: "fc2_mouth"
  dropout_param {
    dropout_ratio: 0.5
  }
}
layer {
  name: "conv3_eyes"
  type: "Convolution"
  bottom: "pool3"
  top: "conv3_eyes"
  param {
    lr_mult: 1
    decay_mult: 1
  }
  param {
    lr_mult: 2
    decay_mult: 0
  }
  convolution_param {
    num_output: 300
    pad: 1
    kernel_size: 3
    stride: 2
    weight_filler {
      type: "xavier"
    }
    bias_filler {
      type: "constant"
      value: 0.2
    }
  }
}
layer {
  name: "conv3_eyes_bn"
  type: "BatchNorm"
  bottom: "conv3_eyes"
  top: "conv3_eyes"
  batch_norm_param {
    use_global_stats: false
  }
}
layer {
  name: "conv3_eyes_scale"
  type: "Scale"
  bottom: "conv3_eyes"
  top: "conv3_eyes"
  scale_param {
    bias_term: true
  }
}
layer {
  name: "prelu3_eyes"
  type: "PReLU"
  bottom: "conv3_eyes"
  top: "conv3_eyes"
}
layer {
  name: "pool3_eyes"
  type: "Pooling"
  bottom: "conv3_eyes"
  top: "pool3_eyes"
  pooling_param {
    pool: MAX
    kernel_size: 5
    stride: 2
    pad: 2
  }
}
layer {
  name: "fc1_eyes"
  type: "InnerProduct"
  bottom: "pool3_eyes"
  top: "fc1_eyes"
  param {
    lr_mult: 1
    decay_mult: 1
  }
  param {
    lr_mult: 2
    decay_mult: 0
  }
  inner_product_param {
    num_output: 512
    weight_filler {
      type: "xavier"
    }
    bias_filler {
      type: "constant"
      value: 0.2
    }
  }
}
layer {
  name: "relu1_eyes"
  type: "ReLU"
  bottom: "fc1_eyes"
  top: "fc1_eyes"
}
layer {
  name: "drop1_eyes"
  type: "Dropout"
  bottom: "fc1_eyes"
  top: "fc1_eyes"
  dropout_param {
    dropout_ratio: 0.5
  }
}
layer {
  name: "fc2_eyes"
  type: "InnerProduct"
  bottom: "fc1_eyes"
  top: "fc2_eyes"
  param {
    lr_mult: 1
    decay_mult: 1
  }
  param {
    lr_mult: 2
    decay_mult: 0
  }
  inner_product_param {
    num_output: 512
    weight_filler {
      type: "xavier"
    }
    bias_filler {
      type: "constant"
      value: 0.2
    }
  }
}
layer {
  name: "relu2_eyes"
  type: "ReLU"
  bottom: "fc2_eyes"
  top: "fc2_eyes"
}
layer {
  name: "drop2_eyes"
  type: "Dropout"
  bottom: "fc2_eyes"
  top: "fc2_eyes"
  dropout_param {
    dropout_ratio: 0.5
  }
}
layer {
  name: "conv3_face"
  type: "Convolution"
  bottom: "pool3"
  top: "conv3_face"
  param {
    lr_mult: 1
    decay_mult: 1
  }
  param {
    lr_mult: 2
    decay_mult: 0
  }
  convolution_param {
    num_output: 300
    pad: 1
    kernel_size: 3
    stride: 2
    weight_filler {
      type: "xavier"
    }
    bias_filler {
      type: "constant"
      value: 0.2
    }
  }
}
layer {
  name: "conv3_face_bn"
  type: "BatchNorm"
  bottom: "conv3_face"
  top: "conv3_face"
  batch_norm_param {
    use_global_stats: false
  }
}
layer {
  name: "conv3_face_scale"
  type: "Scale"
  bottom: "conv3_face"
  top: "conv3_face"
  scale_param {
    bias_term: true
  }
}
layer {
  name: "prelu3_face"
  type: "PReLU"
  bottom: "conv3_face"
  top: "conv3_face"
}
layer {
  name: "pool3_face"
  type: "Pooling"
  bottom: "conv3_face"
  top: "pool3_face"
  pooling_param {
    pool: MAX
    kernel_size: 5
    stride: 2
    pad: 2
  }
}
layer {
  name: "fc1_face"
  type: "InnerProduct"
  bottom: "pool3_face"
  top: "fc1_face"
  param {
    lr_mult: 1
    decay_mult: 1
  }
  param {
    lr_mult: 2
    decay_mult: 0
  }
  inner_product_param {
    num_output: 512
    weight_filler {
      type: "xavier"
    }
    bias_filler {
      type: "constant"
      value: 0.2
    }
  }
}
layer {
  name: "relu1_face"
  type: "ReLU"
  bottom: "fc1_face"
  top: "fc1_face"
}
layer {
  name: "drop1_face"
  type: "Dropout"
  bottom: "fc1_face"
  top: "fc1_face"
  dropout_param {
    dropout_ratio: 0.5
  }
}
layer {
  name: "fc2_face"
  type: "InnerProduct"
  bottom: "fc1_face"
  top: "fc2_face"
  param {
    lr_mult: 1
    decay_mult: 1
  }
  param {
    lr_mult: 2
    decay_mult: 0
  }
  inner_product_param {
    num_output: 512
    weight_filler {
      type: "xavier"
    }
    bias_filler {
      type: "constant"
      value: 0.2
    }
  }
}
layer {
  name: "relu2_face"
  type: "ReLU"
  bottom: "fc2_face"
  top: "fc2_face"
}
layer {
  name: "drop2_face"
  type: "Dropout"
  bottom: "fc2_face"
  top: "fc2_face"
  dropout_param {
    dropout_ratio: 0.5
  }
}
layer {
  name: "conv3_rest"
  type: "Convolution"
  bottom: "pool3"
  top: "conv3_rest"
  param {
    lr_mult: 1
    decay_mult: 1
  }
  param {
    lr_mult: 2
    decay_mult: 0
  }
  convolution_param {
    num_output: 300
    pad: 1
    kernel_size: 3
    stride: 2
    weight_filler {
      type: "xavier"
    }
    bias_filler {
      type: "constant"
      value: 0.2
    }
  }
}
layer {
  name: "conv3_rest_bn"
  type: "BatchNorm"
  bottom: "conv3_rest"
  top: "conv3_rest"
  batch_norm_param {
    use_global_stats: false
  }
}
layer {
  name: "conv3_rest_scale"
  type: "Scale"
  bottom: "conv3_rest"
  top: "conv3_rest"
  scale_param {
    bias_term: true
  }
}
layer {
  name: "prelu3_rest"
  type: "PReLU"
  bottom: "conv3_rest"
  top: "conv3_rest"
}
layer {
  name: "pool3_rest"
  type: "Pooling"
  bottom: "conv3_rest"
  top: "pool3_rest"
  pooling_param {
    pool: MAX
    kernel_size: 5
    stride: 2
    pad: 2
  }
}
layer {
  name: "fc1_aroundhead"
  type: "InnerProduct"
  bottom: "pool3_rest"
  top: "fc1_aroundhead"
  param {
    lr_mult: 1
    decay_mult: 1
  }
  param {
    lr_mult: 2
    decay_mult: 0
  }
  inner_product_param {
    num_output: 512
    weight_filler {
      type: "xavier"
    }
    bias_filler {
      type: "constant"
      value: 0.2
    }
  }
}
layer {
  name: "relu1_aroundhead"
  type: "ReLU"
  bottom: "fc1_aroundhead"
  top: "fc1_aroundhead"
}
layer {
  name: "drop1_aroundhead"
  type: "Dropout"
  bottom: "fc1_aroundhead"
  top: "fc1_aroundhead"
  dropout_param {
    dropout_ratio: 0.5
  }
}
layer {
  name: "fc2_aroundhead"
  type: "InnerProduct"
  bottom: "fc1_aroundhead"
  top: "fc2_aroundhead"
  param {
    lr_mult: 1
    decay_mult: 1
  }
  param {
    lr_mult: 2
    decay_mult: 0
  }
  inner_product_param {
    num_output: 512
    weight_filler {
      type: "xavier"
    }
    bias_filler {
      type: "constant"
      value: 0.2
    }
  }
}
layer {
  name: "relu2_aroundhead"
  type: "ReLU"
  bottom: "fc2_aroundhead"
  top: "fc2_aroundhead"
}
layer {
  name: "drop2_aroundhead"
  type: "Dropout"
  bottom: "fc2_aroundhead"
  top: "fc2_aroundhead"
  dropout_param {
    dropout_ratio: 0.5
  }
}
layer {
  name: "fc1_facialhair"
  type: "InnerProduct"
  bottom: "pool3_rest"
  top: "fc1_facialhair"
  param {
    lr_mult: 1
    decay_mult: 1
  }
  param {
    lr_mult: 2
    decay_mult: 0
  }
  inner_product_param {
    num_output: 512
    weight_filler {
      type: "xavier"
    }
    bias_filler {
      type: "constant"
      value: 0.2
    }
  }
}
layer {
  name: "relu1_facialhair"
  type: "ReLU"
  bottom: "fc1_facialhair"
  top: "fc1_facialhair"
}
layer {
  name: "drop1_facialhair"
  type: "Dropout"
  bottom: "fc1_facialhair"
  top: "fc1_facialhair"
  dropout_param {
    dropout_ratio: 0.5
  }
}
layer {
  name: "fc2_facialhair"
  type: "InnerProduct"
  bottom: "fc1_facialhair"
  top: "fc2_facialhair"
  param {
    lr_mult: 1
    decay_mult: 1
  }
  param {
    lr_mult: 2
    decay_mult: 0
  }
  inner_product_param {
    num_output: 512
    weight_filler {
      type: "xavier"
    }
    bias_filler {
      type: "constant"
      value: 0.2
    }
  }
}
layer {
  name: "relu2_facialhair"
  type: "ReLU"
  bottom: "fc2_facialhair"
  top: "fc2_facialhair"
}
layer {
  name: "drop2_facialhair"
  type: "Dropout"
  bottom: "fc2_facialhair"
  top: "fc2_facialhair"
  dropout_param {
    dropout_ratio: 0.5
  }
}
layer {
  name: "fc1_cheeks"
  type: "InnerProduct"
  bottom: "pool3_rest"
  top: "fc1_cheeks"
  param {
    lr_mult: 1
    decay_mult: 1
  }
  param {
    lr_mult: 2
    decay_mult: 0
  }
  inner_product_param {
    num_output: 512
    weight_filler {
      type: "xavier"
    }
    bias_filler {
      type: "constant"
      value: 0.2
    }
  }
}
layer {
  name: "relu1_cheeks"
  type: "ReLU"
  bottom: "fc1_cheeks"
  top: "fc1_cheeks"
}
layer {
  name: "drop1_cheeks"
  type: "Dropout"
  bottom: "fc1_cheeks"
  top: "fc1_cheeks"
  dropout_param {
    dropout_ratio: 0.5
  }
}
layer {
  name: "fc2_cheeks"
  type: "InnerProduct"
  bottom: "fc1_cheeks"
  top: "fc2_cheeks"
  param {
    lr_mult: 1
    decay_mult: 1
  }
  param {
    lr_mult: 2
    decay_mult: 0
  }
  inner_product_param {
    num_output: 512
    weight_filler {
      type: "xavier"
    }
    bias_filler {
      type: "constant"
      value: 0.2
    }
  }
}
layer {
  name: "relu2_cheeks"
  type: "ReLU"
  bottom: "fc2_cheeks"
  top: "fc2_cheeks"
}
layer {
  name: "drop2_cheeks"
  type: "Dropout"
  bottom: "fc2_cheeks"
  top: "fc2_cheeks"
  dropout_param {
    dropout_ratio: 0.5
  }
}
layer {
  name: "fc1_fat"
  type: "InnerProduct"
  bottom: "pool3_rest"
  top: "fc1_fat"
  param {
    lr_mult: 1
    decay_mult: 1
  }
  param {
    lr_mult: 2
    decay_mult: 0
  }
  inner_product_param {
    num_output: 512
    weight_filler {
      type: "xavier"
    }
    bias_filler {
      type: "constant"
      value: 0.2
    }
  }
}
layer {
  name: "relu1_fat"
  type: "ReLU"
  bottom: "fc1_fat"
  top: "fc1_fat"
}
layer {
  name: "drop1_fat"
  type: "Dropout"
  bottom: "fc1_fat"
  top: "fc1_fat"
  dropout_param {
    dropout_ratio: 0.5
  }
}
layer {
  name: "fc2_fat"
  type: "InnerProduct"
  bottom: "fc1_fat"
  top: "fc2_fat"
  param {
    lr_mult: 1
    decay_mult: 1
  }
  param {
    lr_mult: 2
    decay_mult: 0
  }
  inner_product_param {
    num_output: 512
    weight_filler {
      type: "xavier"
    }
    bias_filler {
      type: "constant"
      value: 0.2
    }
  }
}
layer {
  name: "relu2_fat"
  type: "ReLU"
  bottom: "fc2_fat"
  top: "fc2_fat"
}
layer {
  name: "drop2_fat"
  type: "Dropout"
  bottom: "fc2_fat"
  top: "fc2_fat"
  dropout_param {
    dropout_ratio: 0.5
  }
}
layer {
  name: "fc3_Male"
  type: "InnerProduct"
  bottom: "fc2_gender"
  top: "fc3_Male"
  inner_product_param {
    num_output: 2
    weight_filler {
      type: "xavier"
    }
    bias_filler {
      type: "constant"
      value: 0
    }
  }
}
layer {
  name: "loss_Male"
  type: "SigmoidCrossEntropyLoss"
  bottom: "fc3_Male"
  bottom: "label_Male"
  top: "loss_Male"
}
layer {
  name: "fc3_Big_Nose"
  type: "InnerProduct"
  bottom: "fc2_nose"
  top: "fc3_Big_Nose"
  inner_product_param {
    num_output: 2
    weight_filler {
      type: "xavier"
    }
    bias_filler {
      type: "constant"
      value: 0
    }
  }
}
layer {
  name: "loss_Big_Nose"
  type: "SigmoidCrossEntropyLoss"
  bottom: "fc3_Big_Nose"
  bottom: "label_Big_Nose"
  top: "loss_Big_Nose"
}
layer {
  name: "fc3_Pointy_Nose"
  type: "InnerProduct"
  bottom: "fc2_nose"
  top: "fc3_Pointy_Nose"
  inner_product_param {
    num_output: 2
    weight_filler {
      type: "xavier"
    }
    bias_filler {
      type: "constant"
      value: 0
    }
  }
}
layer {
  name: "loss_Pointy_Nose"
  type: "SigmoidCrossEntropyLoss"
  bottom: "fc3_Pointy_Nose"
  bottom: "label_Pointy_Nose"
  top: "loss_Pointy_Nose"
}
layer {
  name: "fc3_Big_Lips"
  type: "InnerProduct"
  bottom: "fc2_mouth"
  top: "fc3_Big_Lips"
  inner_product_param {
    num_output: 2
    weight_filler {
      type: "xavier"
    }
    bias_filler {
      type: "constant"
      value: 0
    }
  }
}
layer {
  name: "loss_Big_Lips"
  type: "SigmoidCrossEntropyLoss"
  bottom: "fc3_Big_Lips"
  bottom: "label_Big_Lips"
  top: "loss_Big_Lips"
}
layer {
  name: "fc3_Smiling"
  type: "InnerProduct"
  bottom: "fc2_mouth"
  top: "fc3_Smiling"
  inner_product_param {
    num_output: 2
    weight_filler {
      type: "xavier"
    }
    bias_filler {
      type: "constant"
      value: 0
    }
  }
}
layer {
  name: "loss_Smiling"
  type: "SigmoidCrossEntropyLoss"
  bottom: "fc3_Smiling"
  bottom: "label_Smiling"
  top: "loss_Smiling"
}
layer {
  name: "fc3_Wearing_Lipstick"
  type: "InnerProduct"
  bottom: "fc2_mouth"
  top: "fc3_Wearing_Lipstick"
  inner_product_param {
    num_output: 2
    weight_filler {
      type: "xavier"
    }
    bias_filler {
      type: "constant"
      value: 0
    }
  }
}
layer {
  name: "loss_Wearing_Lipstick"
  type: "SigmoidCrossEntropyLoss"
  bottom: "fc3_Wearing_Lipstick"
  bottom: "label_Wearing_Lipstick"
  top: "loss_Wearing_Lipstick"
}
layer {
  name: "fc3_Mouth_Slightly_Open"
  type: "InnerProduct"
  bottom: "fc2_mouth"
  top: "fc3_Mouth_Slightly_Open"
  inner_product_param {
    num_output: 2
    weight_filler {
      type: "xavier"
    }
    bias_filler {
      type: "constant"
      value: 0
    }
  }
}
layer {
  name: "loss_Mouth_Slightly_Open"
  type: "SigmoidCrossEntropyLoss"
  bottom: "fc3_Mouth_Slightly_Open"
  bottom: "label_Mouth_Slightly_Open"
  top: "loss_Mouth_Slightly_Open"
}
layer {
  name: "fc3_Arched_Eyebrows"
  type: "InnerProduct"
  bottom: "fc2_eyes"
  top: "fc3_Arched_Eyebrows"
  inner_product_param {
    num_output: 2
    weight_filler {
      type: "xavier"
    }
    bias_filler {
      type: "constant"
      value: 0
    }
  }
}
layer {
  name: "loss_Arched_Eyebrows"
  type: "SigmoidCrossEntropyLoss"
  bottom: "fc3_Arched_Eyebrows"
  bottom: "label_Arched_Eyebrows"
  top: "loss_Arched_Eyebrows"
}
layer {
  name: "fc3_Bags_Under_Eyes"
  type: "InnerProduct"
  bottom: "fc2_eyes"
  top: "fc3_Bags_Under_Eyes"
  inner_product_param {
    num_output: 2
    weight_filler {
      type: "xavier"
    }
    bias_filler {
      type: "constant"
      value: 0
    }
  }
}
layer {
  name: "loss_Bags_Under_Eyes"
  type: "SigmoidCrossEntropyLoss"
  bottom: "fc3_Bags_Under_Eyes"
  bottom: "label_Bags_Under_Eyes"
  top: "loss_Bags_Under_Eyes"
}
layer {
  name: "fc3_Bushy_Eyebrows"
  type: "InnerProduct"
  bottom: "fc2_eyes"
  top: "fc3_Bushy_Eyebrows"
  inner_product_param {
    num_output: 2
    weight_filler {
      type: "xavier"
    }
    bias_filler {
      type: "constant"
      value: 0
    }
  }
}
layer {
  name: "loss_Bushy_Eyebrows"
  type: "SigmoidCrossEntropyLoss"
  bottom: "fc3_Bushy_Eyebrows"
  bottom: "label_Bushy_Eyebrows"
  top: "loss_Bushy_Eyebrows"
}
layer {
  name: "fc3_Narrow_Eyes"
  type: "InnerProduct"
  bottom: "fc2_eyes"
  top: "fc3_Narrow_Eyes"
  inner_product_param {
    num_output: 2
    weight_filler {
      type: "xavier"
    }
    bias_filler {
      type: "constant"
      value: 0
    }
  }
}
layer {
  name: "loss_Narrow_Eyes"
  type: "SigmoidCrossEntropyLoss"
  bottom: "fc3_Narrow_Eyes"
  bottom: "label_Narrow_Eyes"
  top: "loss_Narrow_Eyes"
}
layer {
  name: "fc3_Eyeglasses"
  type: "InnerProduct"
  bottom: "fc2_eyes"
  top: "fc3_Eyeglasses"
  inner_product_param {
    num_output: 2
    weight_filler {
      type: "xavier"
    }
    bias_filler {
      type: "constant"
      value: 0
    }
  }
}
layer {
  name: "loss_Eyeglasses"
  type: "SigmoidCrossEntropyLoss"
  bottom: "fc3_Eyeglasses"
  bottom: "label_Eyeglasses"
  top: "loss_Eyeglasses"
}
layer {
  name: "fc3_Attractive"
  type: "InnerProduct"
  bottom: "fc2_face"
  top: "fc3_Attractive"
  inner_product_param {
    num_output: 2
    weight_filler {
      type: "xavier"
    }
    bias_filler {
      type: "constant"
      value: 0
    }
  }
}
layer {
  name: "loss_Attractive"
  type: "SigmoidCrossEntropyLoss"
  bottom: "fc3_Attractive"
  bottom: "label_Attractive"
  top: "loss_Attractive"
}
layer {
  name: "fc3_Blurry"
  type: "InnerProduct"
  bottom: "fc2_face"
  top: "fc3_Blurry"
  inner_product_param {
    num_output: 2
    weight_filler {
      type: "xavier"
    }
    bias_filler {
      type: "constant"
      value: 0
    }
  }
}
layer {
  name: "loss_Blurry"
  type: "SigmoidCrossEntropyLoss"
  bottom: "fc3_Blurry"
  bottom: "label_Blurry"
  top: "loss_Blurry"
}
layer {
  name: "fc3_Oval_Face"
  type: "InnerProduct"
  bottom: "fc2_face"
  top: "fc3_Oval_Face"
  inner_product_param {
    num_output: 2
    weight_filler {
      type: "xavier"
    }
    bias_filler {
      type: "constant"
      value: 0
    }
  }
}
layer {
  name: "loss_Oval_Face"
  type: "SigmoidCrossEntropyLoss"
  bottom: "fc3_Oval_Face"
  bottom: "label_Oval_Face"
  top: "loss_Oval_Face"
}
layer {
  name: "fc3_Pale_Skin"
  type: "InnerProduct"
  bottom: "fc2_face"
  top: "fc3_Pale_Skin"
  inner_product_param {
    num_output: 2
    weight_filler {
      type: "xavier"
    }
    bias_filler {
      type: "constant"
      value: 0
    }
  }
}
layer {
  name: "loss_Pale_Skin"
  type: "SigmoidCrossEntropyLoss"
  bottom: "fc3_Pale_Skin"
  bottom: "label_Pale_Skin"
  top: "loss_Pale_Skin"
}
layer {
  name: "fc3_Young"
  type: "InnerProduct"
  bottom: "fc2_face"
  top: "fc3_Young"
  inner_product_param {
    num_output: 2
    weight_filler {
      type: "xavier"
    }
    bias_filler {
      type: "constant"
      value: 0
    }
  }
}
layer {
  name: "loss_Young"
  type: "SigmoidCrossEntropyLoss"
  bottom: "fc3_Young"
  
I1017 12:34:09.837903 19517 layer_factory.hpp:77] Creating layer data
I1017 12:34:09.837977 19517 net.cpp:91] Creating Layer data
I1017 12:34:09.837997 19517 net.cpp:399] data -> data
I1017 12:34:09.838047 19517 net.cpp:399] data -> fakelabel1
I1017 12:34:09.838074 19517 data_transformer.cpp:25] Loading mean file from: /home/caojiajiong/attribute_learning/data/train_attr_id.binaryproto
I1017 12:34:09.855234 19517 image_data_layer.cpp:38] Opening file /home/caojiajiong/attribute_learning/list/train_all.txt
I1017 12:34:12.121119 19517 image_data_layer.cpp:53] A total of 4800000 images.
I1017 12:34:12.149783 19517 image_data_layer.cpp:80] output data size: 100,3,112,112
I1017 12:34:12.187305 19517 net.cpp:141] Setting up data
I1017 12:34:12.200707 19517 net.cpp:148] Top shape: 100 3 112 112 (3763200)
I1017 12:34:12.200752 19517 net.cpp:148] Top shape: 100 (100)
I1017 12:34:12.200762 19517 net.cpp:156] Memory required for data: 15053200
I1017 12:34:12.200785 19517 layer_factory.hpp:77] Creating layer attr_data
I1017 12:34:12.240594 19517 net.cpp:91] Creating Layer attr_data
I1017 12:34:12.240612 19517 net.cpp:399] attr_data -> attr_data
I1017 12:34:12.240628 19517 net.cpp:399] attr_data -> fakelabel2
I1017 12:34:12.383308 19525 db_lmdb.cpp:40] Opened lmdb /home/caojiajiong/attribute_learning/data/train_label_new_all_lmdb
I1017 12:34:12.499454 19517 data_layer.cpp:41] output data size: 100,80,1,1
I1017 12:34:12.501246 19517 net.cpp:141] Setting up attr_data
I1017 12:34:12.501287 19517 net.cpp:148] Top shape: 100 80 1 1 (8000)
I1017 12:34:12.501304 19517 net.cpp:148] Top shape: 100 (100)
I1017 12:34:12.501318 19517 net.cpp:156] Memory required for data: 15085600
I1017 12:34:12.501335 19517 layer_factory.hpp:77] Creating layer conv1
I1017 12:34:12.501394 19517 net.cpp:91] Creating Layer conv1
I1017 12:34:12.501451 19517 net.cpp:425] conv1 <- data
I1017 12:34:12.501485 19517 net.cpp:399] conv1 -> conv1
I1017 12:34:12.666002 19517 net.cpp:141] Setting up conv1
I1017 12:34:12.666048 19517 net.cpp:148] Top shape: 100 64 112 112 (80281600)
I1017 12:34:12.666054 19517 net.cpp:156] Memory required for data: 336212000
I1017 12:34:12.666079 19517 layer_factory.hpp:77] Creating layer slice
I1017 12:34:12.688163 19517 net.cpp:91] Creating Layer slice
I1017 12:34:12.688175 19517 net.cpp:425] slice <- attr_data
I1017 12:34:12.688197 19517 net.cpp:399] slice -> label_5_o_Clock_Shadow
I1017 12:34:12.688212 19517 net.cpp:399] slice -> label_Arched_Eyebrows
…
I1017 12:34:12.688555 19517 net.cpp:399] slice -> label_Straight_Hair
I1017 12:34:12.688565 19517 net.cpp:399] slice -> label_Wavy_Hair
I1017 12:34:12.688575 19517 net.cpp:399] slice -> label_Wearing_Earrings
I1017 12:34:12.688585 19517 net.cpp:399] slice -> label_Wearing_Hat
I1017 12:34:12.688597 19517 net.cpp:399] slice -> label_Wearing_Lipstick
I1017 12:34:12.688606 19517 net.cpp:399] slice -> label_Wearing_Necklace
I1017 12:34:12.688616 19517 net.cpp:399] slice -> label_Wearing_Necktie
I1017 12:34:12.688626 19517 net.cpp:399] slice -> label_Young
I1017 12:34:12.689049 19517 net.cpp:141] Setting up slice
I1017 12:34:12.689059 19517 net.cpp:148] Top shape: 100 2 1 1 (200)
I1017 12:34:12.689075 19517 net.cpp:148] Top shape: 100 2 1 1 (200)
I1017 12:34:12.689079 19517 net.cpp:148] Top shape: 100 2 1 1 (200)
I1017 12:34:12.689085 19517 net.cpp:148] Top shape: 100 2 1 1 (200)
I1017 12:34:12.689090 19517 net.cpp:148] Top shape: 100 2 1 1 (200)
I1017 12:34:12.689095 19517 net.cpp:148] Top shape: 100 2 1 1 (200)
I1017 12:34:12.689100 19517 net.cpp:148] Top shape: 100 2 1 1 (200)
I1017 12:34:12.689103 19517 net.cpp:148] Top shape: 100 2 1 1 (200)
I1017 12:34:12.689108 19517 net.cpp:148] Top shape: 100 2 1 1 (200)
I1017 12:34:12.689112 19517 net.cpp:148] Top shape: 100 2 1 1 (200)
I1017 12:34:12.689116 19517 net.cpp:148] Top shape: 100 2 1 1 (200)
I1017 12:34:12.689121 19517 net.cpp:148] Top shape: 100 2 1 1 (200)
I1017 12:34:12.689144 19517 net.cpp:148] Top shape: 100 2 1 1 (200)
I1017 12:34:12.689149 19517 net.cpp:148] Top shape: 100 2 1 1 (200)
I1017 12:34:12.689153 19517 net.cpp:148] Top shape: 100 2 1 1 (200)
I1017 12:34:12.689158 19517 net.cpp:148] Top shape: 100 2 1 1 (200)
I1017 12:34:12.689162 19517 net.cpp:148] Top shape: 100 2 1 1 (200)
I1017 12:34:12.689167 19517 net.cpp:148] Top shape: 100 2 1 1 (200)
I1017 12:34:12.689172 19517 net.cpp:148] Top shape: 100 2 1 1 (200)
I1017 12:34:12.689175 19517 net.cpp:148] Top shape: 100 2 1 1 (200)
I1017 12:34:12.689180 19517 net.cpp:148] Top shape: 100 2 1 1 (200)
I1017 12:34:12.689184 19517 net.cpp:148] Top shape: 100 2 1 1 (200)
I1017 12:34:12.689189 19517 net.cpp:148] Top shape: 100 2 1 1 (200)
I1017 12:34:12.689194 19517 net.cpp:148] Top shape: 100 2 1 1 (200)
I1017 12:34:12.689198 19517 net.cpp:148] Top shape: 100 2 1 1 (200)
I1017 12:34:12.689203 19517 net.cpp:148] Top shape: 100 2 1 1 (200)
I1017 12:34:12.689208 19517 net.cpp:148] Top shape: 100 2 1 1 (200)
I1017 12:34:12.689213 19517 net.cpp:148] Top shape: 100 2 1 1 (200)
I1017 12:34:12.689218 19517 net.cpp:148] Top shape: 100 2 1 1 (200)
I1017 12:34:12.689223 19517 net.cpp:148] Top shape: 100 2 1 1 (200)
I1017 12:34:12.689226 19517 net.cpp:148] Top shape: 100 2 1 1 (200)
I1017 12:34:12.689231 19517 net.cpp:148] Top shape: 100 2 1 1 (200)
I1017 12:34:12.689235 19517 net.cpp:148] Top shape: 100 2 1 1 (200)
I1017 12:34:12.689240 19517 net.cpp:148] Top shape: 100 2 1 1 (200)
I1017 12:34:12.689244 19517 net.cpp:148] Top shape: 100 2 1 1 (200)
I1017 12:34:12.689249 19517 net.cpp:148] Top shape: 100 2 1 1 (200)
I1017 12:34:12.689254 19517 net.cpp:148] Top shape: 100 2 1 1 (200)
I1017 12:34:12.689257 19517 net.cpp:148] Top shape: 100 2 1 1 (200)
I1017 12:34:12.689262 19517 net.cpp:148] Top shape: 100 2 1 1 (200)
I1017 12:34:12.689266 19517 net.cpp:148] Top shape: 100 2 1 1 (200)
I1017 12:34:12.689270 19517 net.cpp:156] Memory required for data: 336244000
I1017 12:34:12.689275 19517 layer_factory.hpp:77] Creating layer conv1_bn
I1017 12:34:12.689288 19517 net.cpp:91] Creating Layer conv1_bn
I1017 12:34:12.689293 19517 net.cpp:425] conv1_bn <- conv1
I1017 12:34:12.689299 19517 net.cpp:386] conv1_bn -> conv1 (in-place)
I1017 12:34:12.689481 19517 net.cpp:141] Setting up conv1_bn
I1017 12:34:12.689491 19517 net.cpp:148] Top shape: 100 64 112 112 (80281600)
I1017 12:34:12.689496 19517 net.cpp:156] Memory required for data: 657370400
I1017 12:34:12.689509 19517 layer_factory.hpp:77] Creating layer conv1_scale
I1017 12:34:12.689534 19517 net.cpp:91] Creating Layer conv1_scale
I1017 12:34:12.689540 19517 net.cpp:425] conv1_scale <- conv1
I1017 12:34:12.689546 19517 net.cpp:386] conv1_scale -> conv1 (in-place)
I1017 12:34:12.689594 19517 layer_factory.hpp:77] Creating layer conv1_scale
I1017 12:34:12.689738 19517 net.cpp:141] Setting up conv1_scale
I1017 12:34:12.689749 19517 net.cpp:148] Top shape: 100 64 112 112 (80281600)
I1017 12:34:12.689752 19517 net.cpp:156] Memory required for data: 978496800
I1017 12:34:12.689762 19517 layer_factory.hpp:77] Creating layer prelu1
I1017 12:34:12.689772 19517 net.cpp:91] Creating Layer prelu1
I1017 12:34:12.689779 19517 net.cpp:425] prelu1 <- conv1
I1017 12:34:12.689786 19517 net.cpp:386] prelu1 -> conv1 (in-place)
I1017 12:34:12.691855 19517 net.cpp:141] Setting up prelu1
I1017 12:34:12.691882 19517 net.cpp:148] Top shape: 100 64 112 112 (80281600)
I1017 12:34:12.691887 19517 net.cpp:156] Memory required for data: 1299623200
I1017 12:34:12.691893 19517 layer_factory.hpp:77] Creating layer pool1
I1017 12:34:12.691905 19517 net.cpp:91] Creating Layer pool1
I1017 12:34:12.691910 19517 net.cpp:425] pool1 <- conv1
I1017 12:34:12.691916 19517 net.cpp:399] pool1 -> pool1
I1017 12:34:12.691999 19517 net.cpp:141] Setting up pool1
I1017 12:34:12.692010 19517 net.cpp:148] Top shape: 100 64 56 56 (20070400)
I1017 12:34:12.692014 19517 net.cpp:156] Memory required for data: 1379904800
I1017 12:34:12.692021 19517 layer_factory.hpp:77] Creating layer conv2a
I1017 12:34:12.692035 19517 net.cpp:91] Creating Layer conv2a
I1017 12:34:12.692055 19517 net.cpp:425] conv2a <- pool1
I1017 12:34:12.692076 19517 net.cpp:399] conv2a -> conv2a
I1017 12:34:12.693069 19517 net.cpp:141] Setting up conv2a
I1017 12:34:12.693085 19517 net.cpp:148] Top shape: 100 64 56 56 (20070400)
I1017 12:34:12.693102 19517 net.cpp:156] Memory required for data: 1460186400
I1017 12:34:12.693114 19517 layer_factory.hpp:77] Creating layer conv2a_bn
I1017 12:34:12.693121 19517 net.cpp:91] Creating Layer conv2a_bn
I1017 12:34:12.693127 19517 net.cpp:425] conv2a_bn <- conv2a
I1017 12:34:12.693133 19517 net.cpp:386] conv2a_bn -> conv2a (in-place)
I1017 12:34:12.693325 19517 net.cpp:141] Setting up conv2a_bn
I1017 12:34:12.693334 19517 net.cpp:148] Top shape: 100 64 56 56 (20070400)
I1017 12:34:12.693338 19517 net.cpp:156] Memory required for data: 1540468000
I1017 12:34:12.693347 19517 layer_factory.hpp:77] Creating layer conv2a_scale
I1017 12:34:12.693354 19517 net.cpp:91] Creating Layer conv2a_scale
I1017 12:34:12.693359 19517 net.cpp:425] conv2a_scale <- conv2a
I1017 12:34:12.693367 19517 net.cpp:386] conv2a_scale -> conv2a (in-place)
I1017 12:34:12.693411 19517 layer_factory.hpp:77] Creating layer conv2a_scale
I1017 12:34:12.693527 19517 net.cpp:141] Setting up conv2a_scale
I1017 12:34:12.693536 19517 net.cpp:148] Top shape: 100 64 56 56 (20070400)
I1017 12:34:12.693541 19517 net.cpp:156] Memory required for data: 1620749600
I1017 12:34:12.693547 19517 layer_factory.hpp:77] Creating layer prelu2a
I1017 12:34:12.693557 19517 net.cpp:91] Creating Layer prelu2a
I1017 12:34:12.693560 19517 net.cpp:425] prelu2a <- conv2a
I1017 12:34:12.693567 19517 net.cpp:386] prelu2a -> conv2a (in-place)
I1017 12:34:12.694398 19517 net.cpp:141] Setting up prelu2a
I1017 12:34:12.694424 19517 net.cpp:148] Top shape: 100 64 56 56 (20070400)
I1017 12:34:12.694429 19517 net.cpp:156] Memory required for data: 1701031200
I1017 12:34:12.694437 19517 layer_factory.hpp:77] Creating layer conv2
I1017 12:34:12.694450 19517 net.cpp:91] Creating Layer conv2
I1017 12:34:12.694455 19517 net.cpp:425] conv2 <- conv2a
I1017 12:34:12.694465 19517 net.cpp:399] conv2 -> conv2
I1017 12:34:12.697075 19517 net.cpp:141] Setting up conv2
I1017 12:34:12.697103 19517 net.cpp:148] Top shape: 100 192 56 56 (60211200)
I1017 12:34:12.697108 19517 net.cpp:156] Memory required for data: 1941876000
I1017 12:34:12.697120 19517 layer_factory.hpp:77] Creating layer conv2_bn
I1017 12:34:12.697129 19517 net.cpp:91] Creating Layer conv2_bn
I1017 12:34:12.697134 19517 net.cpp:425] conv2_bn <- conv2
I1017 12:34:12.697142 19517 net.cpp:386] conv2_bn -> conv2 (in-place)
I1017 12:34:12.697341 19517 net.cpp:141] Setting up conv2_bn
I1017 12:34:12.697351 19517 net.cpp:148] Top shape: 100 192 56 56 (60211200)
I1017 12:34:12.697356 19517 net.cpp:156] Memory required for data: 2182720800
I1017 12:34:12.697365 19517 layer_factory.hpp:77] Creating layer conv2_scale
I1017 12:34:12.697373 19517 net.cpp:91] Creating Layer conv2_scale
I1017 12:34:12.697378 19517 net.cpp:425] conv2_scale <- conv2
I1017 12:34:12.697386 19517 net.cpp:386] conv2_scale -> conv2 (in-place)
I1017 12:34:12.697423 19517 layer_factory.hpp:77] Creating layer conv2_scale
I1017 12:34:12.697542 19517 net.cpp:141] Setting up conv2_scale
I1017 12:34:12.697551 19517 net.cpp:148] Top shape: 100 192 56 56 (60211200)
I1017 12:34:12.697556 19517 net.cpp:156] Memory required for data: 2423565600
I1017 12:34:12.697562 19517 layer_factory.hpp:77] Creating layer prelu2
I1017 12:34:12.697568 19517 net.cpp:91] Creating Layer prelu2
I1017 12:34:12.697572 19517 net.cpp:425] prelu2 <- conv2
I1017 12:34:12.697580 19517 net.cpp:386] prelu2 -> conv2 (in-place)
I1017 12:34:12.699188 19517 net.cpp:141] Setting up prelu2
I1017 12:34:12.699213 19517 net.cpp:148] Top shape: 100 192 56 56 (60211200)
I1017 12:34:12.699218 19517 net.cpp:156] Memory required for data: 2664410400
I1017 12:34:12.699225 19517 layer_factory.hpp:77] Creating layer pool2
I1017 12:34:12.699239 19517 net.cpp:91] Creating Layer pool2
I1017 12:34:12.699244 19517 net.cpp:425] pool2 <- conv2
I1017 12:34:12.699250 19517 net.cpp:399] pool2 -> pool2
I1017 12:34:12.699302 19517 net.cpp:141] Setting up pool2
I1017 12:34:12.699326 19517 net.cpp:148] Top shape: 100 192 28 28 (15052800)
I1017 12:34:12.699331 19517 net.cpp:156] Memory required for data: 2724621600
I1017 12:34:12.699347 19517 layer_factory.hpp:77] Creating layer conv3a
I1017 12:34:12.699360 19517 net.cpp:91] Creating Layer conv3a
I1017 12:34:12.699365 19517 net.cpp:425] conv3a <- pool2
I1017 12:34:12.699373 19517 net.cpp:399] conv3a -> conv3a
I1017 12:34:12.701500 19517 net.cpp:141] Setting up conv3a
I1017 12:34:12.701515 19517 net.cpp:148] Top shape: 100 192 28 28 (15052800)
I1017 12:34:12.701532 19517 net.cpp:156] Memory required for data: 2784832800
I1017 12:34:12.701546 19517 layer_factory.hpp:77] Creating layer conv3a_bn
I1017 12:34:12.701556 19517 net.cpp:91] Creating Layer conv3a_bn
I1017 12:34:12.701561 19517 net.cpp:425] conv3a_bn <- conv3a
I1017 12:34:12.701567 19517 net.cpp:386] conv3a_bn -> conv3a (in-place)
I1017 12:34:12.701772 19517 net.cpp:141] Setting up conv3a_bn
I1017 12:34:12.701782 19517 net.cpp:148] Top shape: 100 192 28 28 (15052800)
I1017 12:34:12.701786 19517 net.cpp:156] Memory required for data: 2845044000
I1017 12:34:12.701795 19517 layer_factory.hpp:77] Creating layer conv3a_scale
I1017 12:34:12.701803 19517 net.cpp:91] Creating Layer conv3a_scale
I1017 12:34:12.701807 19517 net.cpp:425] conv3a_scale <- conv3a
I1017 12:34:12.701813 19517 net.cpp:386] conv3a_scale -> conv3a (in-place)
I1017 12:34:12.701856 19517 layer_factory.hpp:77] Creating layer conv3a_scale
I1017 12:34:12.701967 19517 net.cpp:141] Setting up conv3a_scale
I1017 12:34:12.701975 19517 net.cpp:148] Top shape: 100 192 28 28 (15052800)
I1017 12:34:12.701979 19517 net.cpp:156] Memory required for data: 2905255200
I1017 12:34:12.701988 19517 layer_factory.hpp:77] Creating layer prelu3a
I1017 12:34:12.701994 19517 net.cpp:91] Creating Layer prelu3a
I1017 12:34:12.701999 19517 net.cpp:425] prelu3a <- conv3a
I1017 12:34:12.702004 19517 net.cpp:386] prelu3a -> conv3a (in-place)
I1017 12:34:12.702181 19517 net.cpp:141] Setting up prelu3a
I1017 12:34:12.702191 19517 net.cpp:148] Top shape: 100 192 28 28 (15052800)
I1017 12:34:12.702195 19517 net.cpp:156] Memory required for data: 2965466400
I1017 12:34:12.702201 19517 layer_factory.hpp:77] Creating layer conv3
I1017 12:34:12.702214 19517 net.cpp:91] Creating Layer conv3
I1017 12:34:12.702222 19517 net.cpp:425] conv3 <- conv3a
I1017 12:34:12.702241 19517 net.cpp:399] conv3 -> conv3
I1017 12:34:12.708803 19517 net.cpp:141] Setting up conv3
I1017 12:34:12.708832 19517 net.cpp:148] Top shape: 100 384 28 28 (30105600)
I1017 12:34:12.708837 19517 net.cpp:156] Memory required for data: 3085888800
I1017 12:34:12.708853 19517 layer_factory.hpp:77] Creating layer conv3_bn
I1017 12:34:12.708860 19517 net.cpp:91] Creating Layer conv3_bn
I1017 12:34:12.708864 19517 net.cpp:425] conv3_bn <- conv3
I1017 12:34:12.708873 19517 net.cpp:386] conv3_bn -> conv3 (in-place)
I1017 12:34:12.709059 19517 net.cpp:141] Setting up conv3_bn
I1017 12:34:12.709069 19517 net.cpp:148] Top shape: 100 384 28 28 (30105600)
I1017 12:34:12.709072 19517 net.cpp:156] Memory required for data: 3206311200
I1017 12:34:12.709082 19517 layer_factory.hpp:77] Creating layer conv3_scale
I1017 12:34:12.709089 19517 net.cpp:91] Creating Layer conv3_scale
I1017 12:34:12.709094 19517 net.cpp:425] conv3_scale <- conv3
I1017 12:34:12.709100 19517 net.cpp:386] conv3_scale -> conv3 (in-place)
I1017 12:34:12.709141 19517 layer_factory.hpp:77] Creating layer conv3_scale
I1017 12:34:12.709246 19517 net.cpp:141] Setting up conv3_scale
I1017 12:34:12.709255 19517 net.cpp:148] Top shape: 100 384 28 28 (30105600)
I1017 12:34:12.709259 19517 net.cpp:156] Memory required for data: 3326733600
I1017 12:34:12.709266 19517 layer_factory.hpp:77] Creating layer prelu3
I1017 12:34:12.709275 19517 net.cpp:91] Creating Layer prelu3
I1017 12:34:12.709280 19517 net.cpp:425] prelu3 <- conv3
I1017 12:34:12.709286 19517 net.cpp:386] prelu3 -> conv3 (in-place)
I1017 12:34:12.710326 19517 net.cpp:141] Setting up prelu3
I1017 12:34:12.710364 19517 net.cpp:148] Top shape: 100 384 28 28 (30105600)
I1017 12:34:12.710369 19517 net.cpp:156] Memory required for data: 3447156000
I1017 12:34:12.710376 19517 layer_factory.hpp:77] Creating layer pool3
I1017 12:34:12.710384 19517 net.cpp:91] Creating Layer pool3
I1017 12:34:12.710389 19517 net.cpp:425] pool3 <- conv3
I1017 12:34:12.710397 19517 net.cpp:399] pool3 -> pool3
I1017 12:34:12.710449 19517 net.cpp:141] Setting up pool3
I1017 12:34:12.710459 19517 net.cpp:148] Top shape: 100 384 14 14 (7526400)
I1017 12:34:12.710464 19517 net.cpp:156] Memory required for data: 3477261600
I1017 12:34:12.710467 19517 layer_factory.hpp:77] Creating layer pool3_pool3_0_split
I1017 12:34:12.710485 19517 net.cpp:91] Creating Layer pool3_pool3_0_split
I1017 12:34:12.710494 19517 net.cpp:425] pool3_pool3_0_split <- pool3
I1017 12:34:12.710500 19517 net.cpp:399] pool3_pool3_0_split -> pool3_pool3_0_split_0
I1017 12:34:12.710507 19517 net.cpp:399] pool3_pool3_0_split -> pool3_pool3_0_split_1
I1017 12:34:12.710517 19517 net.cpp:399] pool3_pool3_0_split -> pool3_pool3_0_split_2
I1017 12:34:12.710525 19517 net.cpp:399] pool3_pool3_0_split -> pool3_pool3_0_split_3
I1017 12:34:12.710531 19517 net.cpp:399] pool3_pool3_0_split -> pool3_pool3_0_split_4
I1017 12:34:12.710537 19517 net.cpp:399] pool3_pool3_0_split -> pool3_pool3_0_split_5
I1017 12:34:12.710619 19517 net.cpp:141] Setting up pool3_pool3_0_split
I1017 12:34:12.710628 19517 net.cpp:148] Top shape: 100 384 14 14 (7526400)
I1017 12:34:12.710633 19517 net.cpp:148] Top shape: 100 384 14 14 (7526400)
I1017 12:34:12.710638 19517 net.cpp:148] Top shape: 100 384 14 14 (7526400)
I1017 12:34:12.710644 19517 net.cpp:148] Top shape: 100 384 14 14 (7526400)
I1017 12:34:12.710649 19517 net.cpp:148] Top shape: 100 384 14 14 (7526400)
I1017 12:34:12.710654 19517 net.cpp:148] Top shape: 100 384 14 14 (7526400)
I1017 12:34:12.710657 19517 net.cpp:156] Memory required for data: 3657895200
I1017 12:34:12.710661 19517 layer_factory.hpp:77] Creating layer conv3_gender
I1017 12:34:12.710674 19517 net.cpp:91] Creating Layer conv3_gender
I1017 12:34:12.710681 19517 net.cpp:425] conv3_gender <- pool3_pool3_0_split_0
I1017 12:34:12.710691 19517 net.cpp:399] conv3_gender -> conv3_gender
I1017 12:34:12.720381 19517 net.cpp:141] Setting up conv3_gender
I1017 12:34:12.720410 19517 net.cpp:148] Top shape: 100 300 7 7 (1470000)
I1017 12:34:12.720415 19517 net.cpp:156] Memory required for data: 3663775200
I1017 12:34:12.720423 19517 layer_factory.hpp:77] Creating layer conv3_gender_bn
I1017 12:34:12.720443 19517 net.cpp:91] Creating Layer conv3_gender_bn
I1017 12:34:12.720449 19517 net.cpp:425] conv3_gender_bn <- conv3_gender
I1017 12:34:12.720458 19517 net.cpp:386] conv3_gender_bn -> conv3_gender (in-place)
I1017 12:34:12.720654 19517 net.cpp:141] Setting up conv3_gender_bn
I1017 12:34:12.720665 19517 net.cpp:148] Top shape: 100 300 7 7 (1470000)
I1017 12:34:12.720669 19517 net.cpp:156] Memory required for data: 3669655200
I1017 12:34:12.720679 19517 layer_factory.hpp:77] Creating layer conv3_gender_scale
I1017 12:34:12.720687 19517 net.cpp:91] Creating Layer conv3_gender_scale
I1017 12:34:12.720692 19517 net.cpp:425] conv3_gender_scale <- conv3_gender
I1017 12:34:12.720698 19517 net.cpp:386] conv3_gender_scale -> conv3_gender (in-place)
I1017 12:34:12.720739 19517 layer_factory.hpp:77] Creating layer conv3_gender_scale
I1017 12:34:12.720854 19517 net.cpp:141] Setting up conv3_gender_scale
I1017 12:34:12.720863 19517 net.cpp:148] Top shape: 100 300 7 7 (1470000)
I1017 12:34:12.720867 19517 net.cpp:156] Memory required for data: 3675535200
I1017 12:34:12.720875 19517 layer_factory.hpp:77] Creating layer prelu3_gender
I1017 12:34:12.720881 19517 net.cpp:91] Creating Layer prelu3_gender
I1017 12:34:12.720886 19517 net.cpp:425] prelu3_gender <- conv3_gender
I1017 12:34:12.720895 19517 net.cpp:386] prelu3_gender -> conv3_gender (in-place)
I1017 12:34:12.720986 19517 net.cpp:141] Setting up prelu3_gender
I1017 12:34:12.720996 19517 net.cpp:148] Top shape: 100 300 7 7 (1470000)
I1017 12:34:12.721000 19517 net.cpp:156] Memory required for data: 3681415200
I1017 12:34:12.721019 19517 layer_factory.hpp:77] Creating layer pool3_gender
I1017 12:34:12.721029 19517 net.cpp:91] Creating Layer pool3_gender
I1017 12:34:12.721035 19517 net.cpp:425] pool3_gender <- conv3_gender
I1017 12:34:12.721040 19517 net.cpp:399] pool3_gender -> pool3_gender
I1017 12:34:12.721079 19517 net.cpp:141] Setting up pool3_gender
I1017 12:34:12.721087 19517 net.cpp:148] Top shape: 100 300 4 4 (480000)
I1017 12:34:12.721091 19517 net.cpp:156] Memory required for data: 3683335200
I1017 12:34:12.721096 19517 layer_factory.hpp:77] Creating layer fc1_gender
I1017 12:34:12.721113 19517 net.cpp:91] Creating Layer fc1_gender
I1017 12:34:12.721119 19517 net.cpp:425] fc1_gender <- pool3_gender
I1017 12:34:12.721128 19517 net.cpp:399] fc1_gender -> fc1_gender
I1017 12:34:12.742303 19517 net.cpp:141] Setting up fc1_gender
I1017 12:34:12.742341 19517 net.cpp:148] Top shape: 100 512 (51200)
I1017 12:34:12.742347 19517 net.cpp:156] Memory required for data: 3683540000
I1017 12:34:12.742357 19517 layer_factory.hpp:77] Creating layer relu1_gender
I1017 12:34:12.742367 19517 net.cpp:91] Creating Layer relu1_gender
I1017 12:34:12.742372 19517 net.cpp:425] relu1_gender <- fc1_gender
I1017 12:34:12.742378 19517 net.cpp:386] relu1_gender -> fc1_gender (in-place)
I1017 12:34:12.742600 19517 net.cpp:141] Setting up relu1_gender
I1017 12:34:12.742614 19517 net.cpp:148] Top shape: 100 512 (51200)
I1017 12:34:12.742630 19517 net.cpp:156] Memory required for data: 3683744800
I1017 12:34:12.742635 19517 layer_factory.hpp:77] Creating layer drop1_gender
I1017 12:34:12.742645 19517 net.cpp:91] Creating Layer drop1_gender
I1017 12:34:12.742650 19517 net.cpp:425] drop1_gender <- fc1_gender
I1017 12:34:12.742657 19517 net.cpp:386] drop1_gender -> fc1_gender (in-place)
I1017 12:34:12.742691 19517 net.cpp:141] Setting up drop1_gender
I1017 12:34:12.742705 19517 net.cpp:148] Top shape: 100 512 (51200)
I1017 12:34:12.742709 19517 net.cpp:156] Memory required for data: 3683949600
I1017 12:34:12.742714 19517 layer_factory.hpp:77] Creating layer fc2_gender
I1017 12:34:12.742727 19517 net.cpp:91] Creating Layer fc2_gender
I1017 12:34:12.742733 19517 net.cpp:425] fc2_gender <- fc1_gender
I1017 12:34:12.742740 19517 net.cpp:399] fc2_gender -> fc2_gender
I1017 12:34:12.745193 19517 net.cpp:141] Setting up fc2_gender
I1017 12:34:12.745206 19517 net.cpp:148] Top shape: 100 512 (51200)
I1017 12:34:12.745223 19517 net.cpp:156] Memory required for data: 3684154400
I1017 12:34:12.745229 19517 layer_factory.hpp:77] Creating layer relu2_gender
I1017 12:34:12.745236 19517 net.cpp:91] Creating Layer relu2_gender
I1017 12:34:12.745241 19517 net.cpp:425] relu2_gender <- fc2_gender
I1017 12:34:12.745247 19517 net.cpp:386] relu2_gender -> fc2_gender (in-place)
I1017 12:34:12.745568 19517 net.cpp:141] Setting up relu2_gender
I1017 12:34:12.745584 19517 net.cpp:148] Top shape: 100 512 (51200)
I1017 12:34:12.745589 19517 net.cpp:156] Memory required for data: 3684359200
I1017 12:34:12.745594 19517 layer_factory.hpp:77] Creating layer drop2_gender
I1017 12:34:12.745602 19517 net.cpp:91] Creating Layer drop2_gender
I1017 12:34:12.745607 19517 net.cpp:425] drop2_gender <- fc2_gender
I1017 12:34:12.745614 19517 net.cpp:386] drop2_gender -> fc2_gender (in-place)
I1017 12:34:12.745645 19517 net.cpp:141] Setting up drop2_gender
I1017 12:34:12.745652 19517 net.cpp:148] Top shape: 100 512 (51200)
I1017 12:34:12.745656 19517 net.cpp:156] Memory required for data: 3684564000
I1017 12:34:12.745661 19517 layer_factory.hpp:77] Creating layer conv3_nose
I1017 12:34:12.745676 19517 net.cpp:91] Creating Layer conv3_nose
I1017 12:34:12.745682 19517 net.cpp:425] conv3_nose <- pool3_pool3_0_split_1
I1017 12:34:12.745692 19517 net.cpp:399] conv3_nose -> conv3_nose
I1017 12:34:12.755534 19517 net.cpp:141] Setting up conv3_nose
I1017 12:34:12.755563 19517 net.cpp:148] Top shape: 100 300 7 7 (1470000)
I1017 12:34:12.755568 19517 net.cpp:156] Memory required for data: 3690444000
I1017 12:34:12.755578 19517 layer_factory.hpp:77] Creating layer conv3_nose_bn
I1017 12:34:12.755604 19517 net.cpp:91] Creating Layer conv3_nose_bn
I1017 12:34:12.755621 19517 net.cpp:425] conv3_nose_bn <- conv3_nose
I1017 12:34:12.755627 19517 net.cpp:386] conv3_nose_bn -> conv3_nose (in-place)
I1017 12:34:12.755828 19517 net.cpp:141] Setting up conv3_nose_bn
I1017 12:34:12.755839 19517 net.cpp:148] Top shape: 100 300 7 7 (1470000)
I1017 12:34:12.755843 19517 net.cpp:156] Memory required for data: 3696324000
I1017 12:34:12.755852 19517 layer_factory.hpp:77] Creating layer conv3_nose_scale
I1017 12:34:12.755861 19517 net.cpp:91] Creating Layer conv3_nose_scale
I1017 12:34:12.755866 19517 net.cpp:425] conv3_nose_scale <- conv3_nose
I1017 12:34:12.755872 19517 net.cpp:386] conv3_nose_scale -> conv3_nose (in-place)
I1017 12:34:12.755918 19517 layer_factory.hpp:77] Creating layer conv3_nose_scale
I1017 12:34:12.756042 19517 net.cpp:141] Setting up conv3_nose_scale
I1017 12:34:12.756050 19517 net.cpp:148] Top shape: 100 300 7 7 (1470000)
I1017 12:34:12.756054 19517 net.cpp:156] Memory required for data: 3702204000
I1017 12:34:12.756062 19517 layer_factory.hpp:77] Creating layer prelu3_nose
I1017 12:34:12.756068 19517 net.cpp:91] Creating Layer prelu3_nose
I1017 12:34:12.756073 19517 net.cpp:425] prelu3_nose <- conv3_nose
I1017 12:34:12.756080 19517 net.cpp:386] prelu3_nose -> conv3_nose (in-place)
I1017 12:34:12.756189 19517 net.cpp:141] Setting up prelu3_nose
I1017 12:34:12.756199 19517 net.cpp:148] Top shape: 100 300 7 7 (1470000)
I1017 12:34:12.756203 19517 net.cpp:156] Memory required for data: 3708084000
I1017 12:34:12.756209 19517 layer_factory.hpp:77] Creating layer pool3_nose
I1017 12:34:12.756218 19517 net.cpp:91] Creating Layer pool3_nose
I1017 12:34:12.756222 19517 net.cpp:425] pool3_nose <- conv3_nose
I1017 12:34:12.756232 19517 net.cpp:399] pool3_nose -> pool3_nose
I1017 12:34:12.756271 19517 net.cpp:141] Setting up pool3_nose
I1017 12:34:12.756278 19517 net.cpp:148] Top shape: 100 300 4 4 (480000)
I1017 12:34:12.756283 19517 net.cpp:156] Memory required for data: 3710004000
I1017 12:34:12.756288 19517 layer_factory.hpp:77] Creating layer fc1_nose
I1017 12:34:12.756299 19517 net.cpp:91] Creating Layer fc1_nose
I1017 12:34:12.756304 19517 net.cpp:425] fc1_nose <- pool3_nose
I1017 12:34:12.756312 19517 net.cpp:399] fc1_nose -> fc1_nose
I1017 12:34:12.776489 19517 net.cpp:141] Setting up fc1_nose
I1017 12:34:12.776520 19517 net.cpp:148] Top shape: 100 512 (51200)
I1017 12:34:12.776525 19517 net.cpp:156] Memory required for data: 3710208800
I1017 12:34:12.776535 19517 layer_factory.hpp:77] Creating layer relu1_nose
I1017 12:34:12.776545 19517 net.cpp:91] Creating Layer relu1_nose
I1017 12:34:12.776552 19517 net.cpp:425] relu1_nose <- fc1_nose
I1017 12:34:12.776559 19517 net.cpp:386] relu1_nose -> fc1_nose (in-place)
I1017 12:34:12.776772 19517 net.cpp:141] Setting up relu1_nose
I1017 12:34:12.776783 19517 net.cpp:148] Top shape: 100 512 (51200)
I1017 12:34:12.776788 19517 net.cpp:156] Memory required for data: 3710413600
I1017 12:34:12.776793 19517 layer_factory.hpp:77] Creating layer drop1_nose
I1017 12:34:12.776804 19517 net.cpp:91] Creating Layer drop1_nose
I1017 12:34:12.776809 19517 net.cpp:425] drop1_nose <- fc1_nose
I1017 12:34:12.776815 19517 net.cpp:386] drop1_nose -> fc1_nose (in-place)
I1017 12:34:12.776849 19517 net.cpp:141] Setting up drop1_nose
I1017 12:34:12.776855 19517 net.cpp:148] Top shape: 100 512 (51200)
I1017 12:34:12.776859 19517 net.cpp:156] Memory required for data: 3710618400
I1017 12:34:12.776864 19517 layer_factory.hpp:77] Creating layer fc2_nose
I1017 12:34:12.776875 19517 net.cpp:91] Creating Layer fc2_nose
I1017 12:34:12.776880 19517 net.cpp:425] fc2_nose <- fc1_nose
I1017 12:34:12.776885 19517 net.cpp:399] fc2_nose -> fc2_nose
I1017 12:34:12.779335 19517 net.cpp:141] Setting up fc2_nose
I1017 12:34:12.779350 19517 net.cpp:148] Top shape: 100 512 (51200)
I1017 12:34:12.779366 19517 net.cpp:156] Memory required for data: 3710823200
I1017 12:34:12.779373 19517 layer_factory.hpp:77] Creating layer relu2_nose
I1017 12:34:12.779383 19517 net.cpp:91] Creating Layer relu2_nose
I1017 12:34:12.779404 19517 net.cpp:425] relu2_nose <- fc2_nose
I1017 12:34:12.779422 19517 net.cpp:386] relu2_nose -> fc2_nose (in-place)
I1017 12:34:12.779742 19517 net.cpp:141] Setting up relu2_nose
I1017 12:34:12.779757 19517 net.cpp:148] Top shape: 100 512 (51200)
I1017 12:34:12.779777 19517 net.cpp:156] Memory required for data: 3711028000
I1017 12:34:12.779793 19517 layer_factory.hpp:77] Creating layer drop2_nose
I1017 12:34:12.779800 19517 net.cpp:91] Creating Layer drop2_nose
I1017 12:34:12.779805 19517 net.cpp:425] drop2_nose <- fc2_nose
I1017 12:34:12.779811 19517 net.cpp:386] drop2_nose -> fc2_nose (in-place)
I1017 12:34:12.779842 19517 net.cpp:141] Setting up drop2_nose
I1017 12:34:12.779850 19517 net.cpp:148] Top shape: 100 512 (51200)
I1017 12:34:12.779853 19517 net.cpp:156] Memory required for data: 3711232800
I1017 12:34:12.779858 19517 layer_factory.hpp:77] Creating layer fc2_nose_drop2_nose_0_split
I1017 12:34:12.779865 19517 net.cpp:91] Creating Layer fc2_nose_drop2_nose_0_split
I1017 12:34:12.779870 19517 net.cpp:425] fc2_nose_drop2_nose_0_split <- fc2_nose
I1017 12:34:12.779877 19517 net.cpp:399] fc2_nose_drop2_nose_0_split -> fc2_nose_drop2_nose_0_split_0
I1017 12:34:12.779886 19517 net.cpp:399] fc2_nose_drop2_nose_0_split -> fc2_nose_drop2_nose_0_split_1
I1017 12:34:12.779922 19517 net.cpp:141] Setting up fc2_nose_drop2_nose_0_split
I1017 12:34:12.779938 19517 net.cpp:148] Top shape: 100 512 (51200)
I1017 12:34:12.779943 19517 net.cpp:148] Top shape: 100 512 (51200)
I1017 12:34:12.779947 19517 net.cpp:156] Memory required for data: 3711642400
I1017 12:34:12.779952 19517 layer_factory.hpp:77] Creating layer conv3_mouth
I1017 12:34:12.779963 19517 net.cpp:91] Creating Layer conv3_mouth
I1017 12:34:12.779969 19517 net.cpp:425] conv3_mouth <- pool3_pool3_0_split_2
I1017 12:34:12.779978 19517 net.cpp:399] conv3_mouth -> conv3_mouth
I1017 12:34:12.793982 19517 net.cpp:141] Setting up conv3_mouth
I1017 12:34:12.794033 19517 net.cpp:148] Top shape: 100 300 7 7 (1470000)
I1017 12:34:12.794045 19517 net.cpp:156] Memory required for data: 3717522400
I1017 12:34:12.794112 19517 layer_factory.hpp:77] Creating layer conv3_mouth_bn
I1017 12:34:12.794142 19517 net.cpp:91] Creating Layer conv3_mouth_bn
I1017 12:34:12.794167 19517 net.cpp:425] conv3_mouth_bn <- conv3_mouth
I1017 12:34:12.794184 19517 net.cpp:386] conv3_mouth_bn -> conv3_mouth (in-place)
I1017 12:34:12.794672 19517 net.cpp:141] Setting up conv3_mouth_bn
I1017 12:34:12.794700 19517 net.cpp:148] Top shape: 100 300 7 7 (1470000)
I1017 12:34:12.794710 19517 net.cpp:156] Memory required for data: 3723402400
I1017 12:34:12.794730 19517 layer_factory.hpp:77] Creating layer conv3_mouth_scale
I1017 12:34:12.794764 19517 net.cpp:91] Creating Layer conv3_mouth_scale
I1017 12:34:12.794778 19517 net.cpp:425] conv3_mouth_scale <- conv3_mouth
I1017 12:34:12.794793 19517 net.cpp:386] conv3_mouth_scale -> conv3_mouth (in-place)
I1017 12:34:12.794899 19517 layer_factory.hpp:77] Creating layer conv3_mouth_scale
I1017 12:34:12.795176 19517 net.cpp:141] Setting up conv3_mouth_scale
I1017 12:34:12.795197 19517 net.cpp:148] Top shape: 100 300 7 7 (1470000)
I1017 12:34:12.795207 19517 net.cpp:156] Memory required for data: 3729282400
I1017 12:34:12.795234 19517 layer_factory.hpp:77] Creating layer prelu3_mouth
I1017 12:34:12.795248 19517 net.cpp:91] Creating Layer prelu3_mouth
I1017 12:34:12.795264 19517 net.cpp:425] prelu3_mouth <- conv3_mouth
I1017 12:34:12.795276 19517 net.cpp:386] prelu3_mouth -> conv3_mouth (in-place)
I1017 12:34:12.795506 19517 net.cpp:141] Setting up prelu3_mouth
I1017 12:34:12.795526 19517 net.cpp:148] Top shape: 100 300 7 7 (1470000)
I1017 12:34:12.795536 19517 net.cpp:156] Memory required for data: 3735162400
I1017 12:34:12.795548 19517 layer_factory.hpp:77] Creating layer pool3_mouth
I1017 12:34:12.795564 19517 net.cpp:91] Creating Layer pool3_mouth
I1017 12:34:12.795574 19517 net.cpp:425] pool3_mouth <- conv3_mouth
I1017 12:34:12.795588 19517 net.cpp:399] pool3_mouth -> pool3_mouth
I1017 12:34:12.795688 19517 net.cpp:141] Setting up pool3_mouth
I1017 12:34:12.795737 19517 net.cpp:148] Top shape: 100 300 4 4 (480000)
I1017 12:34:12.795747 19517 net.cpp:156] Memory required for data: 3737082400
I1017 12:34:12.795756 19517 layer_factory.hpp:77] Creating layer fc1_mouth
I1017 12:34:12.795794 19517 net.cpp:91] Creating Layer fc1_mouth
I1017 12:34:12.795814 19517 net.cpp:425] fc1_mouth <- pool3_mouth
I1017 12:34:12.795835 19517 net.cpp:399] fc1_mouth -> fc1_mouth
I1017 12:34:12.815505 19517 net.cpp:141] Setting up fc1_mouth
I1017 12:34:12.815538 19517 net.cpp:148] Top shape: 100 512 (51200)
I1017 12:34:12.815542 19517 net.cpp:156] Memory required for data: 3737287200
I1017 12:34:12.815551 19517 layer_factory.hpp:77] Creating layer relu1_mouth
I1017 12:34:12.815559 19517 net.cpp:91] Creating Layer relu1_mouth
I1017 12:34:12.815564 19517 net.cpp:425] relu1_mouth <- fc1_mouth
I1017 12:34:12.815578 19517 net.cpp:386] relu1_mouth -> fc1_mouth (in-place)
I1017 12:34:12.815776 19517 net.cpp:141] Setting up relu1_mouth
I1017 12:34:12.815788 19517 net.cpp:148] Top shape: 100 512 (51200)
I1017 12:34:12.815793 19517 net.cpp:156] Memory required for data: 3737492000
I1017 12:34:12.815798 19517 layer_factory.hpp:77] Creating layer drop1_mouth
I1017 12:34:12.815804 19517 net.cpp:91] Creating Layer drop1_mouth
I1017 12:34:12.815809 19517 net.cpp:425] drop1_mouth <- fc1_mouth
I1017 12:34:12.815816 19517 net.cpp:386] drop1_mouth -> fc1_mouth (in-place)
I1017 12:34:12.815845 19517 net.cpp:141] Setting up drop1_mouth
I1017 12:34:12.815851 19517 net.cpp:148] Top shape: 100 512 (51200)
I1017 12:34:12.815855 19517 net.cpp:156] Memory required for data: 3737696800
I1017 12:34:12.815858 19517 layer_factory.hpp:77] Creating layer fc2_mouth
I1017 12:34:12.815868 19517 net.cpp:91] Creating Layer fc2_mouth
I1017 12:34:12.815872 19517 net.cpp:425] fc2_mouth <- fc1_mouth
I1017 12:34:12.815886 19517 net.cpp:399] fc2_mouth -> fc2_mouth
I1017 12:34:12.818222 19517 net.cpp:141] Setting up fc2_mouth
I1017 12:34:12.818236 19517 net.cpp:148] Top shape: 100 512 (51200)
I1017 12:34:12.818251 19517 net.cpp:156] Memory required for data: 3737901600
I1017 12:34:12.818259 19517 layer_factory.hpp:77] Creating layer relu2_mouth
I1017 12:34:12.818282 19517 net.cpp:91] Creating Layer relu2_mouth
I1017 12:34:12.818289 19517 net.cpp:425] relu2_mouth <- fc2_mouth
I1017 12:34:12.818295 19517 net.cpp:386] relu2_mouth -> fc2_mouth (in-place)
I1017 12:34:12.818626 19517 net.cpp:141] Setting up relu2_mouth
I1017 12:34:12.818641 19517 net.cpp:148] Top shape: 100 512 (51200)
I1017 12:34:12.818645 19517 net.cpp:156] Memory required for data: 3738106400
I1017 12:34:12.818650 19517 layer_factory.hpp:77] Creating layer drop2_mouth
I1017 12:34:12.818656 19517 net.cpp:91] Creating Layer drop2_mouth
I1017 12:34:12.818661 19517 net.cpp:425] drop2_mouth <- fc2_mouth
I1017 12:34:12.818667 19517 net.cpp:386] drop2_mouth -> fc2_mouth (in-place)
I1017 12:34:12.818707 19517 net.cpp:141] Setting up drop2_mouth
I1017 12:34:12.818716 19517 net.cpp:148] Top shape: 100 512 (51200)
I1017 12:34:12.818719 19517 net.cpp:156] Memory required for data: 3738311200
I1017 12:34:12.818723 19517 layer_factory.hpp:77] Creating layer fc2_mouth_drop2_mouth_0_split
I1017 12:34:12.818732 19517 net.cpp:91] Creating Layer fc2_mouth_drop2_mouth_0_split
I1017 12:34:12.818737 19517 net.cpp:425] fc2_mouth_drop2_mouth_0_split <- fc2_mouth
I1017 12:34:12.818742 19517 net.cpp:399] fc2_mouth_drop2_mouth_0_split -> fc2_mouth_drop2_mouth_0_split_0
I1017 12:34:12.818750 19517 net.cpp:399] fc2_mouth_drop2_mouth_0_split -> fc2_mouth_drop2_mouth_0_split_1
I1017 12:34:12.818758 19517 net.cpp:399] fc2_mouth_drop2_mouth_0_split -> fc2_mouth_drop2_mouth_0_split_2
I1017 12:34:12.818763 19517 net.cpp:399] fc2_mouth_drop2_mouth_0_split -> fc2_mouth_drop2_mouth_0_split_3
I1017 12:34:12.818823 19517 net.cpp:141] Setting up fc2_mouth_drop2_mouth_0_split
I1017 12:34:12.818830 19517 net.cpp:148] Top shape: 100 512 (51200)
I1017 12:34:12.818835 19517 net.cpp:148] Top shape: 100 512 (51200)
I1017 12:34:12.818840 19517 net.cpp:148] Top shape: 100 512 (51200)
I1017 12:34:12.818858 19517 net.cpp:148] Top shape: 100 512 (51200)
I1017 12:34:12.818862 19517 net.cpp:156] Memory required for data: 3739130400
I1017 12:34:12.818866 19517 layer_factory.hpp:77] Creating layer conv3_eyes
I1017 12:34:12.818878 19517 net.cpp:91] Creating Layer conv3_eyes
I1017 12:34:12.818886 19517 net.cpp:425] conv3_eyes <- pool3_pool3_0_split_3
I1017 12:34:12.818900 19517 net.cpp:399] conv3_eyes -> conv3_eyes
I1017 12:34:12.827635 19517 net.cpp:141] Setting up conv3_eyes
I1017 12:34:12.827663 19517 net.cpp:148] Top shape: 100 300 7 7 (1470000)
I1017 12:34:12.827668 19517 net.cpp:156] Memory required for data: 3745010400
I1017 12:34:12.827675 19517 layer_factory.hpp:77] Creating layer conv3_eyes_bn
I1017 12:34:12.827700 19517 net.cpp:91] Creating Layer conv3_eyes_bn
I1017 12:34:12.827708 19517 net.cpp:425] conv3_eyes_bn <- conv3_eyes
I1017 12:34:12.827714 19517 net.cpp:386] conv3_eyes_bn -> conv3_eyes (in-place)
I1017 12:34:12.827909 19517 net.cpp:141] Setting up conv3_eyes_bn
I1017 12:34:12.827920 19517 net.cpp:148] Top shape: 100 300 7 7 (1470000)
I1017 12:34:12.827924 19517 net.cpp:156] Memory required for data: 3750890400
I1017 12:34:12.827934 19517 layer_factory.hpp:77] Creating layer conv3_eyes_scale
I1017 12:34:12.827950 19517 net.cpp:91] Creating Layer conv3_eyes_scale
I1017 12:34:12.827955 19517 net.cpp:425] conv3_eyes_scale <- conv3_eyes
I1017 12:34:12.827963 19517 net.cpp:386] conv3_eyes_scale -> conv3_eyes (in-place)
I1017 12:34:12.828006 19517 layer_factory.hpp:77] Creating layer conv3_eyes_scale
I1017 12:34:12.828140 19517 net.cpp:141] Setting up conv3_eyes_scale
I1017 12:34:12.828150 19517 net.cpp:148] Top shape: 100 300 7 7 (1470000)
I1017 12:34:12.828153 19517 net.cpp:156] Memory required for data: 3756770400
I1017 12:34:12.828161 19517 layer_factory.hpp:77] Creating layer prelu3_eyes
I1017 12:34:12.828168 19517 net.cpp:91] Creating Layer prelu3_eyes
I1017 12:34:12.828173 19517 net.cpp:425] prelu3_eyes <- conv3_eyes
I1017 12:34:12.828181 19517 net.cpp:386] prelu3_eyes -> conv3_eyes (in-place)
I1017 12:34:12.828299 19517 net.cpp:141] Setting up prelu3_eyes
I1017 12:34:12.828310 19517 net.cpp:148] Top shape: 100 300 7 7 (1470000)
I1017 12:34:12.828312 19517 net.cpp:156] Memory required for data: 3762650400
I1017 12:34:12.828326 19517 layer_factory.hpp:77] Creating layer pool3_eyes
I1017 12:34:12.828335 19517 net.cpp:91] Creating Layer pool3_eyes
I1017 12:34:12.828338 19517 net.cpp:425] pool3_eyes <- conv3_eyes
I1017 12:34:12.828346 19517 net.cpp:399] pool3_eyes -> pool3_eyes
I1017 12:34:12.828387 19517 net.cpp:141] Setting up pool3_eyes
I1017 12:34:12.828394 19517 net.cpp:148] Top shape: 100 300 4 4 (480000)
I1017 12:34:12.828398 19517 net.cpp:156] Memory required for data: 3764570400
I1017 12:34:12.828402 19517 layer_factory.hpp:77] Creating layer fc1_eyes
I1017 12:34:12.828421 19517 net.cpp:91] Creating Layer fc1_eyes
I1017 12:34:12.828426 19517 net.cpp:425] fc1_eyes <- pool3_eyes
I1017 12:34:12.828435 19517 net.cpp:399] fc1_eyes -> fc1_eyes
I1017 12:34:12.847937 19517 net.cpp:141] Setting up fc1_eyes
I1017 12:34:12.847972 19517 net.cpp:148] Top shape: 100 512 (51200)
I1017 12:34:12.847977 19517 net.cpp:156] Memory required for data: 3764775200
I1017 12:34:12.847986 19517 layer_factory.hpp:77] Creating layer relu1_eyes
I1017 12:34:12.847997 19517 net.cpp:91] Creating Layer relu1_eyes
I1017 12:34:12.848014 19517 net.cpp:425] relu1_eyes <- fc1_eyes
I1017 12:34:12.848037 19517 net.cpp:386] relu1_eyes -> fc1_eyes (in-place)
I1017 12:34:12.848256 19517 net.cpp:141] Setting up relu1_eyes
I1017 12:34:12.848269 19517 net.cpp:148] Top shape: 100 512 (51200)
I1017 12:34:12.848274 19517 net.cpp:156] Memory required for data: 3764980000
I1017 12:34:12.848278 19517 layer_factory.hpp:77] Creating layer drop1_eyes
I1017 12:34:12.848296 19517 net.cpp:91] Creating Layer drop1_eyes
I1017 12:34:12.848302 19517 net.cpp:425] drop1_eyes <- fc1_eyes
I1017 12:34:12.848310 19517 net.cpp:386] drop1_eyes -> fc1_eyes (in-place)
I1017 12:34:12.848341 19517 net.cpp:141] Setting up drop1_eyes
I1017 12:34:12.848350 19517 net.cpp:148] Top shape: 100 512 (51200)
I1017 12:34:12.848376 19517 net.cpp:156] Memory required for data: 3765184800
I1017 12:34:12.848382 19517 layer_factory.hpp:77] Creating layer fc2_eyes
I1017 12:34:12.848390 19517 net.cpp:91] Creating Layer fc2_eyes
I1017 12:34:12.848395 19517 net.cpp:425] fc2_eyes <- fc1_eyes
I1017 12:34:12.848407 19517 net.cpp:399] fc2_eyes -> fc2_eyes
I1017 12:34:12.850723 19517 net.cpp:141] Setting up fc2_eyes
I1017 12:34:12.850749 19517 net.cpp:148] Top shape: 100 512 (51200)
I1017 12:34:12.850752 19517 net.cpp:156] Memory required for data: 3765389600
I1017 12:34:12.850766 19517 layer_factory.hpp:77] Creating layer relu2_eyes
I1017 12:34:12.850775 19517 net.cpp:91] Creating Layer relu2_eyes
I1017 12:34:12.850780 19517 net.cpp:425] relu2_eyes <- fc2_eyes
I1017 12:34:12.850787 19517 net.cpp:386] relu2_eyes -> fc2_eyes (in-place)
I1017 12:34:12.851137 19517 net.cpp:141] Setting up relu2_eyes
I1017 12:34:12.851163 19517 net.cpp:148] Top shape: 100 512 (51200)
I1017 12:34:12.851181 19517 net.cpp:156] Memory required for data: 3765594400
I1017 12:34:12.851188 19517 layer_factory.hpp:77] Creating layer drop2_eyes
I1017 12:34:12.851197 19517 net.cpp:91] Creating Layer drop2_eyes
I1017 12:34:12.851202 19517 net.cpp:425] drop2_eyes <- fc2_eyes
I1017 12:34:12.851212 19517 net.cpp:386] drop2_eyes -> fc2_eyes (in-place)
I1017 12:34:12.851253 19517 net.cpp:141] Setting up drop2_eyes
I1017 12:34:12.851265 19517 net.cpp:148] Top shape: 100 512 (51200)
I1017 12:34:12.851274 19517 net.cpp:156] Memory required for data: 3765799200
I1017 12:34:12.851280 19517 layer_factory.hpp:77] Creating layer fc2_eyes_drop2_eyes_0_split
I1017 12:34:12.851294 19517 net.cpp:91] Creating Layer fc2_eyes_drop2_eyes_0_split
I1017 12:34:12.851302 19517 net.cpp:425] fc2_eyes_drop2_eyes_0_split <- fc2_eyes
I1017 12:34:12.851313 19517 net.cpp:399] fc2_eyes_drop2_eyes_0_split -> fc2_eyes_drop2_eyes_0_split_0
I1017 12:34:12.851326 19517 net.cpp:399] fc2_eyes_drop2_eyes_0_split -> fc2_eyes_drop2_eyes_0_split_1
I1017 12:34:12.851339 19517 net.cpp:399] fc2_eyes_drop2_eyes_0_split -> fc2_eyes_drop2_eyes_0_split_2
I1017 12:34:12.851354 19517 net.cpp:399] fc2_eyes_drop2_eyes_0_split -> fc2_eyes_drop2_eyes_0_split_3
I1017 12:34:12.851366 19517 net.cpp:399] fc2_eyes_drop2_eyes_0_split -> fc2_eyes_drop2_eyes_0_split_4
I1017 12:34:12.851490 19517 net.cpp:141] Setting up fc2_eyes_drop2_eyes_0_split
I1017 12:34:12.851502 19517 net.cpp:148] Top shape: 100 512 (51200)
I1017 12:34:12.851510 19517 net.cpp:148] Top shape: 100 512 (51200)
I1017 12:34:12.851517 19517 net.cpp:148] Top shape: 100 512 (51200)
I1017 12:34:12.851527 19517 net.cpp:148] Top shape: 100 512 (51200)
I1017 12:34:12.851536 19517 net.cpp:148] Top shape: 100 512 (51200)
I1017 12:34:12.851543 19517 net.cpp:156] Memory required for data: 3766823200
I1017 12:34:12.851552 19517 layer_factory.hpp:77] Creating layer conv3_face
I1017 12:34:12.851583 19517 net.cpp:91] Creating Layer conv3_face
I1017 12:34:12.851596 19517 net.cpp:425] conv3_face <- pool3_pool3_0_split_4
I1017 12:34:12.851615 19517 net.cpp:399] conv3_face -> conv3_face
I1017 12:34:12.862733 19517 net.cpp:141] Setting up conv3_face
I1017 12:34:12.862753 19517 net.cpp:148] Top shape: 100 300 7 7 (1470000)
I1017 12:34:12.862759 19517 net.cpp:156] Memory required for data: 3772703200
I1017 12:34:12.862768 19517 layer_factory.hpp:77] Creating layer conv3_face_bn
I1017 12:34:12.862787 19517 net.cpp:91] Creating Layer conv3_face_bn
I1017 12:34:12.862793 19517 net.cpp:425] conv3_face_bn <- conv3_face
I1017 12:34:12.862805 19517 net.cpp:386] conv3_face_bn -> conv3_face (in-place)
I1017 12:34:12.863076 19517 net.cpp:141] Setting up conv3_face_bn
I1017 12:34:12.863091 19517 net.cpp:148] Top shape: 100 300 7 7 (1470000)
I1017 12:34:12.863096 19517 net.cpp:156] Memory required for data: 3778583200
I1017 12:34:12.863116 19517 layer_factory.hpp:77] Creating layer conv3_face_scale
I1017 12:34:12.863131 19517 net.cpp:91] Creating Layer conv3_face_scale
I1017 12:34:12.863140 19517 net.cpp:425] conv3_face_scale <- conv3_face
I1017 12:34:12.863152 19517 net.cpp:386] conv3_face_scale -> conv3_face (in-place)
I1017 12:34:12.863255 19517 layer_factory.hpp:77] Creating layer conv3_face_scale
I1017 12:34:12.863433 19517 net.cpp:141] Setting up conv3_face_scale
I1017 12:34:12.863448 19517 net.cpp:148] Top shape: 100 300 7 7 (1470000)
I1017 12:34:12.863453 19517 net.cpp:156] Memory required for data: 3784463200
I1017 12:34:12.863466 19517 layer_factory.hpp:77] Creating layer prelu3_face
I1017 12:34:12.863490 19517 net.cpp:91] Creating Layer prelu3_face
I1017 12:34:12.863502 19517 net.cpp:425] prelu3_face <- conv3_face
I1017 12:34:12.863513 19517 net.cpp:386] prelu3_face -> conv3_face (in-place)
I1017 12:34:12.863672 19517 net.cpp:141] Setting up prelu3_face
I1017 12:34:12.863685 19517 net.cpp:148] Top shape: 100 300 7 7 (1470000)
I1017 12:34:12.863690 19517 net.cpp:156] Memory required for data: 3790343200
I1017 12:34:12.863701 19517 layer_factory.hpp:77] Creating layer pool3_face
I1017 12:34:12.863714 19517 net.cpp:91] Creating Layer pool3_face
I1017 12:34:12.863723 19517 net.cpp:425] pool3_face <- conv3_face
I1017 12:34:12.863736 19517 net.cpp:399] pool3_face -> pool3_face
I1017 12:34:12.863812 19517 net.cpp:141] Setting up pool3_face
I1017 12:34:12.863826 19517 net.cpp:148] Top shape: 100 300 4 4 (480000)
I1017 12:34:12.863831 19517 net.cpp:156] Memory required for data: 3792263200
I1017 12:34:12.863838 19517 layer_factory.hpp:77] Creating layer fc1_face
I1017 12:34:12.863860 19517 net.cpp:91] Creating Layer fc1_face
I1017 12:34:12.863873 19517 net.cpp:425] fc1_face <- pool3_face
I1017 12:34:12.863888 19517 net.cpp:399] fc1_face -> fc1_face
I1017 12:34:12.887589 19517 net.cpp:141] Setting up fc1_face
I1017 12:34:12.887615 19517 net.cpp:148] Top shape: 100 512 (51200)
I1017 12:34:12.887620 19517 net.cpp:156] Memory required for data: 3792468000
I1017 12:34:12.887631 19517 layer_factory.hpp:77] Creating layer relu1_face
I1017 12:34:12.887642 19517 net.cpp:91] Creating Layer relu1_face
I1017 12:34:12.887650 19517 net.cpp:425] relu1_face <- fc1_face
I1017 12:34:12.887656 19517 net.cpp:386] relu1_face -> fc1_face (in-place)
I1017 12:34:12.888074 19517 net.cpp:141] Setting up relu1_face
I1017 12:34:12.888095 19517 net.cpp:148] Top shape: 100 512 (51200)
I1017 12:34:12.888101 19517 net.cpp:156] Memory required for data: 3792672800
I1017 12:34:12.888106 19517 layer_factory.hpp:77] Creating layer drop1_face
I1017 12:34:12.888133 19517 net.cpp:91] Creating Layer drop1_face
I1017 12:34:12.888142 19517 net.cpp:425] drop1_face <- fc1_face
I1017 12:34:12.888154 19517 net.cpp:386] drop1_face -> fc1_face (in-place)
I1017 12:34:12.888208 19517 net.cpp:141] Setting up drop1_face
I1017 12:34:12.888231 19517 net.cpp:148] Top shape: 100 512 (51200)
I1017 12:34:12.888240 19517 net.cpp:156] Memory required for data: 3792877600
I1017 12:34:12.888249 19517 layer_factory.hpp:77] Creating layer fc2_face
I1017 12:34:12.888267 19517 net.cpp:91] Creating Layer fc2_face
I1017 12:34:12.888278 19517 net.cpp:425] fc2_face <- fc1_face
I1017 12:34:12.888293 19517 net.cpp:399] fc2_face -> fc2_face
I1017 12:34:12.891175 19517 net.cpp:141] Setting up fc2_face
I1017 12:34:12.891193 19517 net.cpp:148] Top shape: 100 512 (51200)
I1017 12:34:12.891198 19517 net.cpp:156] Memory required for data: 3793082400
I1017 12:34:12.891214 19517 layer_factory.hpp:77] Creating layer relu2_face
I1017 12:34:12.891224 19517 net.cpp:91] Creating Layer relu2_face
I1017 12:34:12.891230 19517 net.cpp:425] relu2_face <- fc2_face
I1017 12:34:12.891238 19517 net.cpp:386] relu2_face -> fc2_face (in-place)
I1017 12:34:12.891470 19517 net.cpp:141] Setting up relu2_face
I1017 12:34:12.891487 19517 net.cpp:148] Top shape: 100 512 (51200)
I1017 12:34:12.891492 19517 net.cpp:156] Memory required for data: 3793287200
I1017 12:34:12.891500 19517 layer_factory.hpp:77] Creating layer drop2_face
I1017 12:34:12.891525 19517 net.cpp:91] Creating Layer drop2_face
I1017 12:34:12.891536 19517 net.cpp:425] drop2_face <- fc2_face
I1017 12:34:12.891548 19517 net.cpp:386] drop2_face -> fc2_face (in-place)
I1017 12:34:12.891600 19517 net.cpp:141] Setting up drop2_face
I1017 12:34:12.891633 19517 net.cpp:148] Top shape: 100 512 (51200)
I1017 12:34:12.891639 19517 net.cpp:156] Memory required for data: 3793492000
I1017 12:34:12.891647 19517 layer_factory.hpp:77] Creating layer fc2_face_drop2_face_0_split
I1017 12:34:12.891664 19517 net.cpp:91] Creating Layer fc2_face_drop2_face_0_split
I1017 12:34:12.891674 19517 net.cpp:425] fc2_face_drop2_face_0_split <- fc2_face
I1017 12:34:12.891686 19517 net.cpp:399] fc2_face_drop2_face_0_split -> fc2_face_drop2_face_0_split_0
I1017 12:34:12.891701 19517 net.cpp:399] fc2_face_drop2_face_0_split -> fc2_face_drop2_face_0_split_1
I1017 12:34:12.891717 19517 net.cpp:399] fc2_face_drop2_face_0_split -> fc2_face_drop2_face_0_split_2
I1017 12:34:12.891736 19517 net.cpp:399] fc2_face_drop2_face_0_split -> fc2_face_drop2_face_0_split_3
I1017 12:34:12.891749 19517 net.cpp:399] fc2_face_drop2_face_0_split -> fc2_face_drop2_face_0_split_4
I1017 12:34:12.891762 19517 net.cpp:399] fc2_face_drop2_face_0_split -> fc2_face_drop2_face_0_split_5
I1017 12:34:12.891898 19517 net.cpp:141] Setting up fc2_face_drop2_face_0_split
I1017 12:34:12.891916 19517 net.cpp:148] Top shape: 100 512 (51200)
I1017 12:34:12.891924 19517 net.cpp:148] Top shape: 100 512 (51200)
I1017 12:34:12.891933 19517 net.cpp:148] Top shape: 100 512 (51200)
I1017 12:34:12.891942 19517 net.cpp:148] Top shape: 100 512 (51200)
I1017 12:34:12.891952 19517 net.cpp:148] Top shape: 100 512 (51200)
I1017 12:34:12.891960 19517 net.cpp:148] Top shape: 100 512 (51200)
I1017 12:34:12.891968 19517 net.cpp:156] Memory required for data: 3794720800
I1017 12:34:12.891976 19517 layer_factory.hpp:77] Creating layer conv3_rest
I1017 12:34:12.891999 19517 net.cpp:91] Creating Layer conv3_rest
I1017 12:34:12.892010 19517 net.cpp:425] conv3_rest <- pool3_pool3_0_split_5
I1017 12:34:12.892031 19517 net.cpp:399] conv3_rest -> conv3_rest
I1017 12:34:12.903236 19517 net.cpp:141] Setting up conv3_rest
I1017 12:34:12.903256 19517 net.cpp:148] Top shape: 100 300 7 7 (1470000)
I1017 12:34:12.903262 19517 net.cpp:156] Memory required for data: 3800600800
I1017 12:34:12.903271 19517 layer_factory.hpp:77] Creating layer conv3_rest_bn
I1017 12:34:12.903290 19517 net.cpp:91] Creating Layer conv3_rest_bn
I1017 12:34:12.903296 19517 net.cpp:425] conv3_rest_bn <- conv3_rest
I1017 12:34:12.903306 19517 net.cpp:386] conv3_rest_bn -> conv3_rest (in-place)
I1017 12:34:12.903586 19517 net.cpp:141] Setting up conv3_rest_bn
I1017 12:34:12.903601 19517 net.cpp:148] Top shape: 100 300 7 7 (1470000)
I1017 12:34:12.903606 19517 net.cpp:156] Memory required for data: 3806480800
I1017 12:34:12.903622 19517 layer_factory.hpp:77] Creating layer conv3_rest_scale
I1017 12:34:12.903645 19517 net.cpp:91] Creating Layer conv3_rest_scale
I1017 12:34:12.903656 19517 net.cpp:425] conv3_rest_scale <- conv3_rest
I1017 12:34:12.903668 19517 net.cpp:386] conv3_rest_scale -> conv3_rest (in-place)
I1017 12:34:12.903749 19517 layer_factory.hpp:77] Creating layer conv3_rest_scale
I1017 12:34:12.903919 19517 net.cpp:141] Setting up conv3_rest_scale
I1017 12:34:12.903934 19517 net.cpp:148] Top shape: 100 300 7 7 (1470000)
I1017 12:34:12.903939 19517 net.cpp:156] Memory required for data: 3812360800
I1017 12:34:12.903951 19517 layer_factory.hpp:77] Creating layer prelu3_rest
I1017 12:34:12.903966 19517 net.cpp:91] Creating Layer prelu3_rest
I1017 12:34:12.903976 19517 net.cpp:425] prelu3_rest <- conv3_rest
I1017 12:34:12.903987 19517 net.cpp:386] prelu3_rest -> conv3_rest (in-place)
I1017 12:34:12.904153 19517 net.cpp:141] Setting up prelu3_rest
I1017 12:34:12.904167 19517 net.cpp:148] Top shape: 100 300 7 7 (1470000)
I1017 12:34:12.904172 19517 net.cpp:156] Memory required for data: 3818240800
I1017 12:34:12.904182 19517 layer_factory.hpp:77] Creating layer pool3_rest
I1017 12:34:12.904196 19517 net.cpp:91] Creating Layer pool3_rest
I1017 12:34:12.904204 19517 net.cpp:425] pool3_rest <- conv3_rest
I1017 12:34:12.904217 19517 net.cpp:399] pool3_rest -> pool3_rest
I1017 12:34:12.904294 19517 net.cpp:141] Setting up pool3_rest
I1017 12:34:12.904306 19517 net.cpp:148] Top shape: 100 300 4 4 (480000)
I1017 12:34:12.904330 19517 net.cpp:156] Memory required for data: 3820160800
I1017 12:34:12.904338 19517 layer_factory.hpp:77] Creating layer pool3_rest_pool3_rest_0_split
I1017 12:34:12.904350 19517 net.cpp:91] Creating Layer pool3_rest_pool3_rest_0_split
I1017 12:34:12.904361 19517 net.cpp:425] pool3_rest_pool3_rest_0_split <- pool3_rest
I1017 12:34:12.904376 19517 net.cpp:399] pool3_rest_pool3_rest_0_split -> pool3_rest_pool3_rest_0_split_0
I1017 12:34:12.904392 19517 net.cpp:399] pool3_rest_pool3_rest_0_split -> pool3_rest_pool3_rest_0_split_1
I1017 12:34:12.904405 19517 net.cpp:399] pool3_rest_pool3_rest_0_split -> pool3_rest_pool3_rest_0_split_2
I1017 12:34:12.904418 19517 net.cpp:399] pool3_rest_pool3_rest_0_split -> pool3_rest_pool3_rest_0_split_3
I1017 12:34:12.904523 19517 net.cpp:141] Setting up pool3_rest_pool3_rest_0_split
I1017 12:34:12.904537 19517 net.cpp:148] Top shape: 100 300 4 4 (480000)
I1017 12:34:12.904544 19517 net.cpp:148] Top shape: 100 300 4 4 (480000)
I1017 12:34:12.904553 19517 net.cpp:148] Top shape: 100 300 4 4 (480000)
I1017 12:34:12.904562 19517 net.cpp:148] Top shape: 100 300 4 4 (480000)
I1017 12:34:12.904569 19517 net.cpp:156] Memory required for data: 3827840800
I1017 12:34:12.904587 19517 layer_factory.hpp:77] Creating layer fc1_aroundhead
I1017 12:34:12.904610 19517 net.cpp:91] Creating Layer fc1_aroundhead
I1017 12:34:12.904621 19517 net.cpp:425] fc1_aroundhead <- pool3_rest_pool3_rest_0_split_0
I1017 12:34:12.904636 19517 net.cpp:399] fc1_aroundhead -> fc1_aroundhead
I1017 12:34:12.925129 19517 net.cpp:141] Setting up fc1_aroundhead
I1017 12:34:12.925160 19517 net.cpp:148] Top shape: 100 512 (51200)
I1017 12:34:12.925165 19517 net.cpp:156] Memory required for data: 3828045600
I1017 12:34:12.925173 19517 layer_factory.hpp:77] Creating layer relu1_aroundhead
I1017 12:34:12.925184 19517 net.cpp:91] Creating Layer relu1_aroundhead
I1017 12:34:12.925190 19517 net.cpp:425] relu1_aroundhead <- fc1_aroundhead
I1017 12:34:12.925196 19517 net.cpp:386] relu1_aroundhead -> fc1_aroundhead (in-place)
I1017 12:34:12.925580 19517 net.cpp:141] Setting up relu1_aroundhead
I1017 12:34:12.925593 19517 net.cpp:148] Top shape: 100 512 (51200)
I1017 12:34:12.925609 19517 net.cpp:156] Memory required for data: 3828250400
I1017 12:34:12.925613 19517 layer_factory.hpp:77] Creating layer drop1_aroundhead
I1017 12:34:12.925628 19517 net.cpp:91] Creating Layer drop1_aroundhead
I1017 12:34:12.925634 19517 net.cpp:425] drop1_aroundhead <- fc1_aroundhead
I1017 12:34:12.925640 19517 net.cpp:386] drop1_aroundhead -> fc1_aroundhead (in-place)
I1017 12:34:12.925685 19517 net.cpp:141] Setting up drop1_aroundhead
I1017 12:34:12.925698 19517 net.cpp:148] Top shape: 100 512 (51200)
I1017 12:34:12.925706 19517 net.cpp:156] Memory required for data: 3828455200
I1017 12:34:12.925714 19517 layer_factory.hpp:77] Creating layer fc2_aroundhead
I1017 12:34:12.925743 19517 net.cpp:91] Creating Layer fc2_aroundhead
I1017 12:34:12.925753 19517 net.cpp:425] fc2_aroundhead <- fc1_aroundhead
I1017 12:34:12.925765 19517 net.cpp:399] fc2_aroundhead -> fc2_aroundhead
I1017 12:34:12.928035 19517 net.cpp:141] Setting up fc2_aroundhead
I1017 12:34:12.928061 19517 net.cpp:148] Top shape: 100 512 (51200)
I1017 12:34:12.928066 19517 net.cpp:156] Memory required for data: 3828660000
I1017 12:34:12.928073 19517 layer_factory.hpp:77] Creating layer relu2_aroundhead
I1017 12:34:12.928081 19517 net.cpp:91] Creating Layer relu2_aroundhead
I1017 12:34:12.928086 19517 net.cpp:425] relu2_aroundhead <- fc2_aroundhead
I1017 12:34:12.928092 19517 net.cpp:386] relu2_aroundhead -> fc2_aroundhead (in-place)
I1017 12:34:12.928292 19517 net.cpp:141] Setting up relu2_aroundhead
I1017 12:34:12.928308 19517 net.cpp:148] Top shape: 100 512 (51200)
I1017 12:34:12.928313 19517 net.cpp:156] Memory required for data: 3828864800
I1017 12:34:12.928320 19517 layer_factory.hpp:77] Creating layer drop2_aroundhead
I1017 12:34:12.928329 19517 net.cpp:91] Creating Layer drop2_aroundhead
I1017 12:34:12.928338 19517 net.cpp:425] drop2_aroundhead <- fc2_aroundhead
I1017 12:34:12.928369 19517 net.cpp:386] drop2_aroundhead -> fc2_aroundhead (in-place)
I1017 12:34:12.928414 19517 net.cpp:141] Setting up drop2_aroundhead
I1017 12:34:12.928431 19517 net.cpp:148] Top shape: 100 512 (51200)
I1017 12:34:12.928439 19517 net.cpp:156] Memory required for data: 3829069600
I1017 12:34:12.928447 19517 layer_factory.hpp:77] Creating layer fc2_aroundhead_drop2_aroundhead_0_split
I1017 12:34:12.928464 19517 net.cpp:91] Creating Layer fc2_aroundhead_drop2_aroundhead_0_split
I1017 12:34:12.928472 19517 net.cpp:425] fc2_aroundhead_drop2_aroundhead_0_split <- fc2_aroundhead
I1017 12:34:12.928486 19517 net.cpp:399] fc2_aroundhead_drop2_aroundhead_0_split -> fc2_aroundhead_drop2_aroundhead_0_split_0
…
I1017 12:34:12.928598 19517 net.cpp:399] fc2_aroundhead_drop2_aroundhead_0_split -> fc2_aroundhead_drop2_aroundhead_0_split_9
I1017 12:34:12.928611 19517 net.cpp:399] fc2_aroundhead_drop2_aroundhead_0_split -> fc2_aroundhead_drop2_aroundhead_0_split_10
I1017 12:34:12.928623 19517 net.cpp:399] fc2_aroundhead_drop2_aroundhead_0_split -> fc2_aroundhead_drop2_aroundhead_0_split_11
I1017 12:34:12.928634 19517 net.cpp:399] fc2_aroundhead_drop2_aroundhead_0_split -> fc2_aroundhead_drop2_aroundhead_0_split_12
I1017 12:34:12.928831 19517 net.cpp:141] Setting up fc2_aroundhead_drop2_aroundhead_0_split
I1017 12:34:12.928844 19517 net.cpp:148] Top shape: 100 512 (51200)
I1017 12:34:12.928849 19517 net.cpp:148] Top shape: 100 512 (51200)
I1017 12:34:12.928855 19517 net.cpp:148] Top shape: 100 512 (51200)
I1017 12:34:12.928863 19517 net.cpp:148] Top shape: 100 512 (51200)
I1017 12:34:12.928870 19517 net.cpp:148] Top shape: 100 512 (51200)
I1017 12:34:12.928877 19517 net.cpp:148] Top shape: 100 512 (51200)
I1017 12:34:12.928885 19517 net.cpp:148] Top shape: 100 512 (51200)
I1017 12:34:12.928894 19517 net.cpp:148] Top shape: 100 512 (51200)
I1017 12:34:12.928901 19517 net.cpp:148] Top shape: 100 512 (51200)
I1017 12:34:12.928908 19517 net.cpp:148] Top shape: 100 512 (51200)
I1017 12:34:12.928916 19517 net.cpp:148] Top shape: 100 512 (51200)
I1017 12:34:12.928923 19517 net.cpp:148] Top shape: 100 512 (51200)
I1017 12:34:12.928931 19517 net.cpp:148] Top shape: 100 512 (51200)
I1017 12:34:12.928938 19517 net.cpp:156] Memory required for data: 3831732000
I1017 12:34:12.928946 19517 layer_factory.hpp:77] Creating layer fc1_facialhair
I1017 12:34:12.928967 19517 net.cpp:91] Creating Layer fc1_facialhair
I1017 12:34:12.928978 19517 net.cpp:425] fc1_facialhair <- pool3_rest_pool3_rest_0_split_1
I1017 12:34:12.928990 19517 net.cpp:399] fc1_facialhair -> fc1_facialhair
I1017 12:34:12.947417 19517 net.cpp:141] Setting up fc1_facialhair
I1017 12:34:12.947448 19517 net.cpp:148] Top shape: 100 512 (51200)
I1017 12:34:12.947453 19517 net.cpp:156] Memory required for data: 3831936800
I1017 12:34:12.947463 19517 layer_factory.hpp:77] Creating layer relu1_facialhair
I1017 12:34:12.947479 19517 net.cpp:91] Creating Layer relu1_facialhair
I1017 12:34:12.947484 19517 net.cpp:425] relu1_facialhair <- fc1_facialhair
I1017 12:34:12.947513 19517 net.cpp:386] relu1_facialhair -> fc1_facialhair (in-place)
I1017 12:34:12.947909 19517 net.cpp:141] Setting up relu1_facialhair
I1017 12:34:12.947933 19517 net.cpp:148] Top shape: 100 512 (51200)
I1017 12:34:12.947940 19517 net.cpp:156] Memory required for data: 3832141600
I1017 12:34:12.947947 19517 layer_factory.hpp:77] Creating layer drop1_facialhair
I1017 12:34:12.947957 19517 net.cpp:91] Creating Layer drop1_facialhair
I1017 12:34:12.947962 19517 net.cpp:425] drop1_facialhair <- fc1_facialhair
I1017 12:34:12.947970 19517 net.cpp:386] drop1_facialhair -> fc1_facialhair (in-place)
I1017 12:34:12.948014 19517 net.cpp:141] Setting up drop1_facialhair
I1017 12:34:12.948026 19517 net.cpp:148] Top shape: 100 512 (51200)
I1017 12:34:12.948036 19517 net.cpp:156] Memory required for data: 3832346400
I1017 12:34:12.948043 19517 layer_factory.hpp:77] Creating layer fc2_facialhair
I1017 12:34:12.948055 19517 net.cpp:91] Creating Layer fc2_facialhair
I1017 12:34:12.948063 19517 net.cpp:425] fc2_facialhair <- fc1_facialhair
I1017 12:34:12.948078 19517 net.cpp:399] fc2_facialhair -> fc2_facialhair
I1017 12:34:12.950410 19517 net.cpp:141] Setting up fc2_facialhair
I1017 12:34:12.950435 19517 net.cpp:148] Top shape: 100 512 (51200)
I1017 12:34:12.950440 19517 net.cpp:156] Memory required for data: 3832551200
I1017 12:34:12.950448 19517 layer_factory.hpp:77] Creating layer relu2_facialhair
I1017 12:34:12.950462 19517 net.cpp:91] Creating Layer relu2_facialhair
I1017 12:34:12.950469 19517 net.cpp:425] relu2_facialhair <- fc2_facialhair
I1017 12:34:12.950475 19517 net.cpp:386] relu2_facialhair -> fc2_facialhair (in-place)
I1017 12:34:12.950675 19517 net.cpp:141] Setting up relu2_facialhair
I1017 12:34:12.950690 19517 net.cpp:148] Top shape: 100 512 (51200)
I1017 12:34:12.950695 19517 net.cpp:156] Memory required for data: 3832756000
I1017 12:34:12.950706 19517 layer_factory.hpp:77] Creating layer drop2_facialhair
I1017 12:34:12.950718 19517 net.cpp:91] Creating Layer drop2_facialhair
I1017 12:34:12.950726 19517 net.cpp:425] drop2_facialhair <- fc2_facialhair
I1017 12:34:12.950738 19517 net.cpp:386] drop2_facialhair -> fc2_facialhair (in-place)
I1017 12:34:12.950783 19517 net.cpp:141] Setting up drop2_facialhair
I1017 12:34:12.950803 19517 net.cpp:148] Top shape: 100 512 (51200)
I1017 12:34:12.950810 19517 net.cpp:156] Memory required for data: 3832960800
I1017 12:34:12.950817 19517 layer_factory.hpp:77] Creating layer fc2_facialhair_drop2_facialhair_0_split
I1017 12:34:12.950829 19517 net.cpp:91] Creating Layer fc2_facialhair_drop2_facialhair_0_split
I1017 12:34:12.950836 19517 net.cpp:425] fc2_facialhair_drop2_facialhair_0_split <- fc2_facialhair
I1017 12:34:12.950847 19517 net.cpp:399] fc2_facialhair_drop2_facialhair_0_split -> fc2_facialhair_drop2_facialhair_0_split_0
I1017 12:34:12.950863 19517 net.cpp:399] fc2_facialhair_drop2_facialhair_0_split -> fc2_facialhair_drop2_facialhair_0_split_1
I1017 12:34:12.950876 19517 net.cpp:399] fc2_facialhair_drop2_facialhair_0_split -> fc2_facialhair_drop2_facialhair_0_split_2
I1017 12:34:12.950887 19517 net.cpp:399] fc2_facialhair_drop2_facialhair_0_split -> fc2_facialhair_drop2_facialhair_0_split_3
I1017 12:34:12.950897 19517 net.cpp:399] fc2_facialhair_drop2_facialhair_0_split -> fc2_facialhair_drop2_facialhair_0_split_4
I1017 12:34:12.951007 19517 net.cpp:141] Setting up fc2_facialhair_drop2_facialhair_0_split
I1017 12:34:12.951020 19517 net.cpp:148] Top shape: 100 512 (51200)
I1017 12:34:12.951025 19517 net.cpp:148] Top shape: 100 512 (51200)
I1017 12:34:12.951031 19517 net.cpp:148] Top shape: 100 512 (51200)
I1017 12:34:12.951038 19517 net.cpp:148] Top shape: 100 512 (51200)
I1017 12:34:12.951046 19517 net.cpp:148] Top shape: 100 512 (51200)
I1017 12:34:12.951052 19517 net.cpp:156] Memory required for data: 3833984800
I1017 12:34:12.951059 19517 layer_factory.hpp:77] Creating layer fc1_cheeks
I1017 12:34:12.951076 19517 net.cpp:91] Creating Layer fc1_cheeks
I1017 12:34:12.951087 19517 net.cpp:425] fc1_cheeks <- pool3_rest_pool3_rest_0_split_2
I1017 12:34:12.951102 19517 net.cpp:399] fc1_cheeks -> fc1_cheeks
I1017 12:34:12.969527 19517 net.cpp:141] Setting up fc1_cheeks
I1017 12:34:12.969558 19517 net.cpp:148] Top shape: 100 512 (51200)
I1017 12:34:12.969563 19517 net.cpp:156] Memory required for data: 3834189600
I1017 12:34:12.969571 19517 layer_factory.hpp:77] Creating layer relu1_cheeks
I1017 12:34:12.969589 19517 net.cpp:91] Creating Layer relu1_cheeks
I1017 12:34:12.969595 19517 net.cpp:425] relu1_cheeks <- fc1_cheeks
I1017 12:34:12.969605 19517 net.cpp:386] relu1_cheeks -> fc1_cheeks (in-place)
I1017 12:34:12.969997 19517 net.cpp:141] Setting up relu1_cheeks
I1017 12:34:12.970022 19517 net.cpp:148] Top shape: 100 512 (51200)
I1017 12:34:12.970027 19517 net.cpp:156] Memory required for data: 3834394400
I1017 12:34:12.970038 19517 layer_factory.hpp:77] Creating layer drop1_cheeks
I1017 12:34:12.970048 19517 net.cpp:91] Creating Layer drop1_cheeks
I1017 12:34:12.970053 19517 net.cpp:425] drop1_cheeks <- fc1_cheeks
I1017 12:34:12.970062 19517 net.cpp:386] drop1_cheeks -> fc1_cheeks (in-place)
I1017 12:34:12.970106 19517 net.cpp:141] Setting up drop1_cheeks
I1017 12:34:12.970118 19517 net.cpp:148] Top shape: 100 512 (51200)
I1017 12:34:12.970125 19517 net.cpp:156] Memory required for data: 3834599200
I1017 12:34:12.970132 19517 layer_factory.hpp:77] Creating layer fc2_cheeks
I1017 12:34:12.970149 19517 net.cpp:91] Creating Layer fc2_cheeks
I1017 12:34:12.970156 19517 net.cpp:425] fc2_cheeks <- fc1_cheeks
I1017 12:34:12.970170 19517 net.cpp:399] fc2_cheeks -> fc2_cheeks
I1017 12:34:12.972470 19517 net.cpp:141] Setting up fc2_cheeks
I1017 12:34:12.972497 19517 net.cpp:148] Top shape: 100 512 (51200)
I1017 12:34:12.972502 19517 net.cpp:156] Memory required for data: 3834804000
I1017 12:34:12.972509 19517 layer_factory.hpp:77] Creating layer relu2_cheeks
I1017 12:34:12.972517 19517 net.cpp:91] Creating Layer relu2_cheeks
I1017 12:34:12.972522 19517 net.cpp:425] relu2_cheeks <- fc2_cheeks
I1017 12:34:12.972527 19517 net.cpp:386] relu2_cheeks -> fc2_cheeks (in-place)
I1017 12:34:12.972967 19517 net.cpp:141] Setting up relu2_cheeks
I1017 12:34:12.972992 19517 net.cpp:148] Top shape: 100 512 (51200)
I1017 12:34:12.973000 19517 net.cpp:156] Memory required for data: 3835008800
I1017 12:34:12.973006 19517 layer_factory.hpp:77] Creating layer drop2_cheeks
I1017 12:34:12.973019 19517 net.cpp:91] Creating Layer drop2_cheeks
I1017 12:34:12.973026 19517 net.cpp:425] drop2_cheeks <- fc2_cheeks
I1017 12:34:12.973033 19517 net.cpp:386] drop2_cheeks -> fc2_cheeks (in-place)
I1017 12:34:12.973079 19517 net.cpp:141] Setting up drop2_cheeks
I1017 12:34:12.973093 19517 net.cpp:148] Top shape: 100 512 (51200)
I1017 12:34:12.973099 19517 net.cpp:156] Memory required for data: 3835213600
I1017 12:34:12.973114 19517 layer_factory.hpp:77] Creating layer fc2_cheeks_drop2_cheeks_0_split
I1017 12:34:12.973129 19517 net.cpp:91] Creating Layer fc2_cheeks_drop2_cheeks_0_split
I1017 12:34:12.973137 19517 net.cpp:425] fc2_cheeks_drop2_cheeks_0_split <- fc2_cheeks
I1017 12:34:12.973147 19517 net.cpp:399] fc2_cheeks_drop2_cheeks_0_split -> fc2_cheeks_drop2_cheeks_0_split_0
I1017 12:34:12.973160 19517 net.cpp:399] fc2_cheeks_drop2_cheeks_0_split -> fc2_cheeks_drop2_cheeks_0_split_1
I1017 12:34:12.973225 19517 net.cpp:141] Setting up fc2_cheeks_drop2_cheeks_0_split
I1017 12:34:12.973237 19517 net.cpp:148] Top shape: 100 512 (51200)
I1017 12:34:12.973242 19517 net.cpp:148] Top shape: 100 512 (51200)
I1017 12:34:12.973248 19517 net.cpp:156] Memory required for data: 3835623200
I1017 12:34:12.973253 19517 layer_factory.hpp:77] Creating layer fc1_fat
I1017 12:34:12.973264 19517 net.cpp:91] Creating Layer fc1_fat
I1017 12:34:12.973274 19517 net.cpp:425] fc1_fat <- pool3_rest_pool3_rest_0_split_3
I1017 12:34:12.973289 19517 net.cpp:399] fc1_fat -> fc1_fat
I1017 12:34:12.991859 19517 net.cpp:141] Setting up fc1_fat
I1017 12:34:12.991890 19517 net.cpp:148] Top shape: 100 512 (51200)
I1017 12:34:12.991895 19517 net.cpp:156] Memory required for data: 3835828000
I1017 12:34:12.991904 19517 layer_factory.hpp:77] Creating layer relu1_fat
I1017 12:34:12.991935 19517 net.cpp:91] Creating Layer relu1_fat
I1017 12:34:12.991943 19517 net.cpp:425] relu1_fat <- fc1_fat
I1017 12:34:12.991953 19517 net.cpp:386] relu1_fat -> fc1_fat (in-place)
I1017 12:34:12.992318 19517 net.cpp:141] Setting up relu1_fat
I1017 12:34:12.992347 19517 net.cpp:148] Top shape: 100 512 (51200)
I1017 12:34:12.992352 19517 net.cpp:156] Memory required for data: 3836032800
I1017 12:34:12.992355 19517 layer_factory.hpp:77] Creating layer drop1_fat
I1017 12:34:12.992372 19517 net.cpp:91] Creating Layer drop1_fat
I1017 12:34:12.992377 19517 net.cpp:425] drop1_fat <- fc1_fat
I1017 12:34:12.992384 19517 net.cpp:386] drop1_fat -> fc1_fat (in-place)
I1017 12:34:12.992435 19517 net.cpp:141] Setting up drop1_fat
I1017 12:34:12.992449 19517 net.cpp:148] Top shape: 100 512 (51200)
I1017 12:34:12.992456 19517 net.cpp:156] Memory required for data: 3836237600
I1017 12:34:12.992471 19517 layer_factory.hpp:77] Creating layer fc2_fat
I1017 12:34:12.992485 19517 net.cpp:91] Creating Layer fc2_fat
I1017 12:34:12.992492 19517 net.cpp:425] fc2_fat <- fc1_fat
I1017 12:34:12.992508 19517 net.cpp:399] fc2_fat -> fc2_fat
I1017 12:34:12.994915 19517 net.cpp:141] Setting up fc2_fat
I1017 12:34:12.994930 19517 net.cpp:148] Top shape: 100 512 (51200)
I1017 12:34:12.994933 19517 net.cpp:156] Memory required for data: 3836442400
I1017 12:34:12.994940 19517 layer_factory.hpp:77] Creating layer relu2_fat
I1017 12:34:12.994946 19517 net.cpp:91] Creating Layer relu2_fat
I1017 12:34:12.994951 19517 net.cpp:425] relu2_fat <- fc2_fat
I1017 12:34:12.994956 19517 net.cpp:386] relu2_fat -> fc2_fat (in-place)
I1017 12:34:12.995312 19517 net.cpp:141] Setting up relu2_fat
I1017 12:34:12.995327 19517 net.cpp:148] Top shape: 100 512 (51200)
I1017 12:34:12.995332 19517 net.cpp:156] Memory required for data: 3836647200
I1017 12:34:12.995337 19517 layer_factory.hpp:77] Creating layer drop2_fat
I1017 12:34:12.995349 19517 net.cpp:91] Creating Layer drop2_fat
I1017 12:34:12.995357 19517 net.cpp:425] drop2_fat <- fc2_fat
I1017 12:34:12.995368 19517 net.cpp:386] drop2_fat -> fc2_fat (in-place)
I1017 12:34:12.995434 19517 net.cpp:141] Setting up drop2_fat
I1017 12:34:12.995452 19517 net.cpp:148] Top shape: 100 512 (51200)
I1017 12:34:12.995460 19517 net.cpp:156] Memory required for data: 3836852000
I1017 12:34:12.995467 19517 layer_factory.hpp:77] Creating layer fc2_fat_drop2_fat_0_split
I1017 12:34:12.995477 19517 net.cpp:91] Creating Layer fc2_fat_drop2_fat_0_split
I1017 12:34:12.995486 19517 net.cpp:425] fc2_fat_drop2_fat_0_split <- fc2_fat
I1017 12:34:12.995496 19517 net.cpp:399] fc2_fat_drop2_fat_0_split -> fc2_fat_drop2_fat_0_split_0
I1017 12:34:12.995507 19517 net.cpp:399] fc2_fat_drop2_fat_0_split -> fc2_fat_drop2_fat_0_split_1
I1017 12:34:12.995575 19517 net.cpp:141] Setting up fc2_fat_drop2_fat_0_split
I1017 12:34:12.995586 19517 net.cpp:148] Top shape: 100 512 (51200)
I1017 12:34:12.995591 19517 net.cpp:148] Top shape: 100 512 (51200)
I1017 12:34:12.995596 19517 net.cpp:156] Memory required for data: 3837261600
I1017 12:34:12.995610 19517 layer_factory.hpp:77] Creating layer fc3_Male
I1017 12:34:12.995622 19517 net.cpp:91] Creating Layer fc3_Male
I1017 12:34:12.995630 19517 net.cpp:425] fc3_Male <- fc2_gender
I1017 12:34:12.995645 19517 net.cpp:399] fc3_Male -> fc3_Male
I1017 12:34:12.995792 19517 net.cpp:141] Setting up fc3_Male
I1017 12:34:12.995807 19517 net.cpp:148] Top shape: 100 2 (200)
I1017 12:34:12.995812 19517 net.cpp:156] Memory required for data: 3837262400
I1017 12:34:12.995823 19517 layer_factory.hpp:77] Creating layer loss_Male
I1017 12:34:12.999183 19517 net.cpp:91] Creating Layer loss_Male
I1017 12:34:12.999198 19517 net.cpp:425] loss_Male <- fc3_Male
I1017 12:34:12.999217 19517 net.cpp:425] loss_Male <- label_Male
I1017 12:34:12.999233 19517 net.cpp:399] loss_Male -> loss_Male
I1017 12:34:13.014693 19517 net.cpp:141] Setting up loss_Male
I1017 12:34:13.014734 19517 net.cpp:148] Top shape: (1)
I1017 12:34:13.014739 19517 net.cpp:151]     with loss weight 1
I1017 12:34:13.014765 19517 net.cpp:156] Memory required for data: 3837262404
I1017 12:34:13.014796 19517 layer_factory.hpp:77] Creating layer fc3_Big_Nose
I1017 12:34:13.014816 19517 net.cpp:91] Creating Layer fc3_Big_Nose
I1017 12:34:13.014823 19517 net.cpp:425] fc3_Big_Nose <- fc2_nose_drop2_nose_0_split_0
I1017 12:34:13.014833 19517 net.cpp:399] fc3_Big_Nose -> fc3_Big_Nose
I1017 12:34:13.014960 19517 net.cpp:141] Setting up fc3_Big_Nose
I1017 12:34:13.014971 19517 net.cpp:148] Top shape: 100 2 (200)
I1017 12:34:13.014974 19517 net.cpp:156] Memory required for data: 3837263204
I1017 12:34:13.014981 19517 layer_factory.hpp:77] Creating layer loss_Big_Nose
I1017 12:34:13.014991 19517 net.cpp:91] Creating Layer loss_Big_Nose
I1017 12:34:13.014996 19517 net.cpp:425] loss_Big_Nose <- fc3_Big_Nose
I1017 12:34:13.015002 19517 net.cpp:425] loss_Big_Nose <- label_Big_Nose
I1017 12:34:13.015008 19517 net.cpp:399] loss_Big_Nose -> loss_Big_Nose
I1017 12:34:13.015050 19517 net.cpp:141] Setting up loss_Big_Nose
I1017 12:34:13.015058 19517 net.cpp:148] Top shape: (1)
I1017 12:34:13.015063 19517 net.cpp:151]     with loss weight 1
I1017 12:34:13.015069 19517 net.cpp:156] Memory required for data: 3837263208
I1017 12:34:13.015079 19517 layer_factory.hpp:77] Creating layer fc3_Pointy_Nose
I1017 12:34:13.015086 19517 net.cpp:91] Creating Layer fc3_Pointy_Nose
I1017 12:34:13.015091 19517 net.cpp:425] fc3_Pointy_Nose <- fc2_nose_drop2_nose_0_split_1
I1017 12:34:13.015100 19517 net.cpp:399] fc3_Pointy_Nose -> fc3_Pointy_Nose
I1017 12:34:13.015211 19517 net.cpp:141] Setting up fc3_Pointy_Nose
I1017 12:34:13.015221 19517 net.cpp:148] Top shape: 100 2 (200)
I1017 12:34:13.015225 19517 net.cpp:156] Memory required for data: 3837264008
I1017 12:34:13.015256 19517 layer_factory.hpp:77] Creating layer loss_Pointy_Nose
I1017 12:34:13.015269 19517 net.cpp:91] Creating Layer loss_Pointy_Nose
I1017 12:34:13.015275 19517 net.cpp:425] loss_Pointy_Nose <- fc3_Pointy_Nose
I1017 12:34:13.015280 19517 net.cpp:425] loss_Pointy_Nose <- label_Pointy_Nose
I1017 12:34:13.015286 19517 net.cpp:399] loss_Pointy_Nose -> loss_Pointy_Nose
I1017 12:34:13.015332 19517 net.cpp:141] Setting up loss_Pointy_Nose
I1017 12:34:13.015341 19517 net.cpp:148] Top shape: (1)
I1017 12:34:13.015346 19517 net.cpp:151]     with loss weight 1
I1017 12:34:13.015352 19517 net.cpp:156] Memory required for data: 3837264012
I1017 12:34:13.015355 19517 layer_factory.hpp:77] Creating layer fc3_Big_Lips
I1017 12:34:13.015362 19517 net.cpp:91] Creating Layer fc3_Big_Lips
I1017 12:34:13.015367 19517 net.cpp:425] fc3_Big_Lips <- fc2_mouth_drop2_mouth_0_split_0
I1017 12:34:13.015374 19517 net.cpp:399] fc3_Big_Lips -> fc3_Big_Lips
I1017 12:34:13.015483 19517 net.cpp:141] Setting up fc3_Big_Lips
I1017 12:34:13.015493 19517 net.cpp:148] Top shape: 100 2 (200)
I1017 12:34:13.015497 19517 net.cpp:156] Memory required for data: 3837264812
I1017 12:34:13.015503 19517 layer_factory.hpp:77] Creating layer loss_Big_Lips
I1017 12:34:13.015514 19517 net.cpp:91] Creating Layer loss_Big_Lips
I1017 12:34:13.015519 19517 net.cpp:425] loss_Big_Lips <- fc3_Big_Lips
I1017 12:34:13.015524 19517 net.cpp:425] loss_Big_Lips <- label_Big_Lips
I1017 12:34:13.015530 19517 net.cpp:399] loss_Big_Lips -> loss_Big_Lips
I1017 12:34:13.015570 19517 net.cpp:141] Setting up loss_Big_Lips
I1017 12:34:13.015579 19517 net.cpp:148] Top shape: (1)
I1017 12:34:13.015584 19517 net.cpp:151]     with loss weight 1
I1017 12:34:13.015589 19517 net.cpp:156] Memory required for data: 3837264816
I1017 12:34:13.015599 19517 layer_factory.hpp:77] Creating layer fc3_Smiling
I1017 12:34:13.015628 19517 net.cpp:91] Creating Layer fc3_Smiling
I1017 12:34:13.015635 19517 net.cpp:425] fc3_Smiling <- fc2_mouth_drop2_mouth_0_split_1
I1017 12:34:13.015641 19517 net.cpp:399] fc3_Smiling -> fc3_Smiling
I1017 12:34:13.015754 19517 net.cpp:141] Setting up fc3_Smiling
I1017 12:34:13.015764 19517 net.cpp:148] Top shape: 100 2 (200)
I1017 12:34:13.015769 19517 net.cpp:156] Memory required for data: 3837265616
I1017 12:34:13.015774 19517 layer_factory.hpp:77] Creating layer loss_Smiling
I1017 12:34:13.015784 19517 net.cpp:91] Creating Layer loss_Smiling
I1017 12:34:13.015799 19517 net.cpp:425] loss_Smiling <- fc3_Smiling
I1017 12:34:13.015806 19517 net.cpp:425] loss_Smiling <- label_Smiling
I1017 12:34:13.015812 19517 net.cpp:399] loss_Smiling -> loss_Smiling
I1017 12:34:13.015856 19517 net.cpp:141] Setting up loss_Smiling
I1017 12:34:13.015867 19517 net.cpp:148] Top shape: (1)
I1017 12:34:13.015872 19517 net.cpp:151]     with loss weight 1
I1017 12:34:13.015877 19517 net.cpp:156] Memory required for data: 3837265620
I1017 12:34:13.015882 19517 layer_factory.hpp:77] Creating layer fc3_Wearing_Lipstick
I1017 12:34:13.015887 19517 net.cpp:91] Creating Layer fc3_Wearing_Lipstick
I1017 12:34:13.015892 19517 net.cpp:425] fc3_Wearing_Lipstick <- fc2_mouth_drop2_mouth_0_split_2
I1017 12:34:13.015899 19517 net.cpp:399] fc3_Wearing_Lipstick -> fc3_Wearing_Lipstick
I1017 12:34:13.016010 19517 net.cpp:141] Setting up fc3_Wearing_Lipstick
I1017 12:34:13.016021 19517 net.cpp:148] Top shape: 100 2 (200)
I1017 12:34:13.016024 19517 net.cpp:156] Memory required for data: 3837266420
I1017 12:34:13.016031 19517 layer_factory.hpp:77] Creating layer loss_Wearing_Lipstick
I1017 12:34:13.016042 19517 net.cpp:91] Creating Layer loss_Wearing_Lipstick
I1017 12:34:13.016047 19517 net.cpp:425] loss_Wearing_Lipstick <- fc3_Wearing_Lipstick
I1017 12:34:13.016054 19517 net.cpp:425] loss_Wearing_Lipstick <- label_Wearing_Lipstick
I1017 12:34:13.016062 19517 net.cpp:399] loss_Wearing_Lipstick -> loss_Wearing_Lipstick
I1017 12:34:13.016104 19517 net.cpp:141] Setting up loss_Wearing_Lipstick
I1017 12:34:13.016113 19517 net.cpp:148] Top shape: (1)
I1017 12:34:13.016118 19517 net.cpp:151]     with loss weight 1
I1017 12:34:13.016124 19517 net.cpp:156] Memory required for data: 3837266424
I1017 12:34:13.016134 19517 layer_factory.hpp:77] Creating layer fc3_Mouth_Slightly_Open
I1017 12:34:13.016139 19517 net.cpp:91] Creating Layer fc3_Mouth_Slightly_Open
I1017 12:34:13.016144 19517 net.cpp:425] fc3_Mouth_Slightly_Open <- fc2_mouth_drop2_mouth_0_split_3
I1017 12:34:13.016151 19517 net.cpp:399] fc3_Mouth_Slightly_Open -> fc3_Mouth_Slightly_Open
I1017 12:34:13.016257 19517 net.cpp:141] Setting up fc3_Mouth_Slightly_Open
I1017 12:34:13.016266 19517 net.cpp:148] Top shape: 100 2 (200)
I1017 12:34:13.016270 19517 net.cpp:156] Memory required for data: 3837267224
I1017 12:34:13.016276 19517 layer_factory.hpp:77] Creating layer loss_Mouth_Slightly_Open
I1017 12:34:13.016283 19517 net.cpp:91] Creating Layer loss_Mouth_Slightly_Open
I1017 12:34:13.016288 19517 net.cpp:425] loss_Mouth_Slightly_Open <- fc3_Mouth_Slightly_Open
I1017 12:34:13.016293 19517 net.cpp:425] loss_Mouth_Slightly_Open <- label_Mouth_Slightly_Open
I1017 12:34:13.016302 19517 net.cpp:399] loss_Mouth_Slightly_Open -> loss_Mouth_Slightly_Open
I1017 12:34:13.016345 19517 net.cpp:141] Setting up loss_Mouth_Slightly_Open
I1017 12:34:13.016352 19517 net.cpp:148] Top shape: (1)
I1017 12:34:13.016356 19517 net.cpp:151]     with loss weight 1
I1017 12:34:13.016361 19517 net.cpp:156] Memory required for data: 3837267228
I1017 12:34:13.016366 19517 layer_factory.hpp:77] Creating layer fc3_Arched_Eyebrows
I1017 12:34:13.016372 19517 net.cpp:91] Creating Layer fc3_Arched_Eyebrows
I1017 12:34:13.016377 19517 net.cpp:425] fc3_Arched_Eyebrows <- fc2_eyes_drop2_eyes_0_split_0
I1017 12:34:13.016384 19517 net.cpp:399] fc3_Arched_Eyebrows -> fc3_Arched_Eyebrows
I1017 12:34:13.016489 19517 net.cpp:141] Setting up fc3_Arched_Eyebrows
I1017 12:34:13.016499 19517 net.cpp:148] Top shape: 100 2 (200)
I1017 12:34:13.016502 19517 net.cpp:156] Memory required for data: 3837268028
I1017 12:34:13.016508 19517 layer_factory.hpp:77] Creating layer loss_Arched_Eyebrows
I1017 12:34:13.016520 19517 net.cpp:91] Creating Layer loss_Arched_Eyebrows
I1017 12:34:13.016526 19517 net.cpp:425] loss_Arched_Eyebrows <- fc3_Arched_Eyebrows
I1017 12:34:13.016531 19517 net.cpp:425] loss_Arched_Eyebrows <- label_Arched_Eyebrows
I1017 12:34:13.016540 19517 net.cpp:399] loss_Arched_Eyebrows -> loss_Arched_Eyebrows
I1017 12:34:13.016582 19517 net.cpp:141] Setting up loss_Arched_Eyebrows
I1017 12:34:13.016597 19517 net.cpp:148] Top shape: (1)
I1017 12:34:13.016602 19517 net.cpp:151]     with loss weight 1
I1017 12:34:13.016607 19517 net.cpp:156] Memory required for data: 3837268032
I1017 12:34:13.016618 19517 layer_factory.hpp:77] Creating layer fc3_Bags_Under_Eyes
I1017 12:34:13.016628 19517 net.cpp:91] Creating Layer fc3_Bags_Under_Eyes
I1017 12:34:13.016633 19517 net.cpp:425] fc3_Bags_Under_Eyes <- fc2_eyes_drop2_eyes_0_split_1
I1017 12:34:13.016640 19517 net.cpp:399] fc3_Bags_Under_Eyes -> fc3_Bags_Under_Eyes
I1017 12:34:13.016747 19517 net.cpp:141] Setting up fc3_Bags_Under_Eyes
I1017 12:34:13.016759 19517 net.cpp:148] Top shape: 100 2 (200)
I1017 12:34:13.016764 19517 net.cpp:156] Memory required for data: 3837268832
I1017 12:34:13.016770 19517 layer_factory.hpp:77] Creating layer loss_Bags_Under_Eyes
I1017 12:34:13.016782 19517 net.cpp:91] Creating Layer loss_Bags_Under_Eyes
I1017 12:34:13.016788 19517 net.cpp:425] loss_Bags_Under_Eyes <- fc3_Bags_Under_Eyes
I1017 12:34:13.016793 19517 net.cpp:425] loss_Bags_Under_Eyes <- label_Bags_Under_Eyes
I1017 12:34:13.016800 19517 net.cpp:399] loss_Bags_Under_Eyes -> loss_Bags_Under_Eyes
I1017 12:34:13.016842 19517 net.cpp:141] Setting up loss_Bags_Under_Eyes
I1017 12:34:13.016851 19517 net.cpp:148] Top shape: (1)
I1017 12:34:13.016855 19517 net.cpp:151]     with loss weight 1
I1017 12:34:13.016861 19517 net.cpp:156] Memory required for data: 3837268836
I1017 12:34:13.016865 19517 layer_factory.hpp:77] Creating layer fc3_Bushy_Eyebrows
I1017 12:34:13.016873 19517 net.cpp:91] Creating Layer fc3_Bushy_Eyebrows
I1017 12:34:13.016878 19517 net.cpp:425] fc3_Bushy_Eyebrows <- fc2_eyes_drop2_eyes_0_split_2
I1017 12:34:13.016885 19517 net.cpp:399] fc3_Bushy_Eyebrows -> fc3_Bushy_Eyebrows
I1017 12:34:13.016989 19517 net.cpp:141] Setting up fc3_Bushy_Eyebrows
I1017 12:34:13.017000 19517 net.cpp:148] Top shape: 100 2 (200)
I1017 12:34:13.017004 19517 net.cpp:156] Memory required for data: 3837269636
I1017 12:34:13.017011 19517 layer_factory.hpp:77] Creating layer loss_Bushy_Eyebrows
I1017 12:34:13.017017 19517 net.cpp:91] Creating Layer loss_Bushy_Eyebrows
I1017 12:34:13.017021 19517 net.cpp:425] loss_Bushy_Eyebrows <- fc3_Bushy_Eyebrows
I1017 12:34:13.017027 19517 net.cpp:425] loss_Bushy_Eyebrows <- label_Bushy_Eyebrows
I1017 12:34:13.017035 19517 net.cpp:399] loss_Bushy_Eyebrows -> loss_Bushy_Eyebrows
I1017 12:34:13.017076 19517 net.cpp:141] Setting up loss_Bushy_Eyebrows
I1017 12:34:13.017082 19517 net.cpp:148] Top shape: (1)
I1017 12:34:13.017086 19517 net.cpp:151]     with loss weight 1
I1017 12:34:13.017092 19517 net.cpp:156] Memory required for data: 3837269640
I1017 12:34:13.017102 19517 layer_factory.hpp:77] Creating layer fc3_Narrow_Eyes
I1017 12:34:13.017115 19517 net.cpp:91] Creating Layer fc3_Narrow_Eyes
I1017 12:34:13.017122 19517 net.cpp:425] fc3_Narrow_Eyes <- fc2_eyes_drop2_eyes_0_split_3
I1017 12:34:13.017127 19517 net.cpp:399] fc3_Narrow_Eyes -> fc3_Narrow_Eyes
I1017 12:34:13.017233 19517 net.cpp:141] Setting up fc3_Narrow_Eyes
I1017 12:34:13.017246 19517 net.cpp:148] Top shape: 100 2 (200)
I1017 12:34:13.017249 19517 net.cpp:156] Memory required for data: 3837270440
I1017 12:34:13.017256 19517 layer_factory.hpp:77] Creating layer loss_Narrow_Eyes
I1017 12:34:13.017261 19517 net.cpp:91] Creating Layer loss_Narrow_Eyes
I1017 12:34:13.017266 19517 net.cpp:425] loss_Narrow_Eyes <- fc3_Narrow_Eyes
I1017 12:34:13.017271 19517 net.cpp:425] loss_Narrow_Eyes <- label_Narrow_Eyes
I1017 12:34:13.017279 19517 net.cpp:399] loss_Narrow_Eyes -> loss_Narrow_Eyes
I1017 12:34:13.017320 19517 net.cpp:141] Setting up loss_Narrow_Eyes
I1017 12:34:13.017328 19517 net.cpp:148] Top shape: (1)
I1017 12:34:13.017331 19517 net.cpp:151]     with loss weight 1
I1017 12:34:13.017336 19517 net.cpp:156] Memory required for data: 3837270444
I1017 12:34:13.017340 19517 layer_factory.hpp:77] Creating layer fc3_Eyeglasses
I1017 12:34:13.017349 19517 net.cpp:91] Creating Layer fc3_Eyeglasses
I1017 12:34:13.017354 19517 net.cpp:425] fc3_Eyeglasses <- fc2_eyes_drop2_eyes_0_split_4
I1017 12:34:13.017370 19517 net.cpp:399] fc3_Eyeglasses -> fc3_Eyeglasses
I1017 12:34:13.017477 19517 net.cpp:141] Setting up fc3_Eyeglasses
I1017 12:34:13.017485 19517 net.cpp:148] Top shape: 100 2 (200)
I1017 12:34:13.017489 19517 net.cpp:156] Memory required for data: 3837271244
I1017 12:34:13.017496 19517 layer_factory.hpp:77] Creating layer loss_Eyeglasses
I1017 12:34:13.017509 19517 net.cpp:91] Creating Layer loss_Eyeglasses
I1017 12:34:13.017514 19517 net.cpp:425] loss_Eyeglasses <- fc3_Eyeglasses
I1017 12:34:13.017519 19517 net.cpp:425] loss_Eyeglasses <- label_Eyeglasses
I1017 12:34:13.017527 19517 net.cpp:399] loss_Eyeglasses -> loss_Eyeglasses
I1017 12:34:13.017568 19517 net.cpp:141] Setting up loss_Eyeglasses
I1017 12:34:13.017577 19517 net.cpp:148] Top shape: (1)
I1017 12:34:13.017581 19517 net.cpp:151]     with loss weight 1
I1017 12:34:13.017587 19517 net.cpp:156] Memory required for data: 3837271248
I1017 12:34:13.017591 19517 layer_factory.hpp:77] Creating layer fc3_Attractive
I1017 12:34:13.017606 19517 net.cpp:91] Creating Layer fc3_Attractive
I1017 12:34:13.017611 19517 net.cpp:425] fc3_Attractive <- fc2_face_drop2_face_0_split_0
I1017 12:34:13.017618 19517 net.cpp:399] fc3_Attractive -> fc3_Attractive
I1017 12:34:13.017724 19517 net.cpp:141] Setting up fc3_Attractive
I1017 12:34:13.017735 19517 net.cpp:148] Top shape: 100 2 (200)
I1017 12:34:13.017738 19517 net.cpp:156] Memory required for data: 3837272048
I1017 12:34:13.017745 19517 layer_factory.hpp:77] Creating layer loss_Attractive
I1017 12:34:13.017752 19517 net.cpp:91] Creating Layer loss_Attractive
I1017 12:34:13.017757 19517 net.cpp:425] loss_Attractive <- fc3_Attractive
I1017 12:34:13.017762 19517 net.cpp:425] loss_Attractive <- label_Attractive
I1017 12:34:13.017771 19517 net.cpp:399] loss_Attractive -> loss_Attractive
I1017 12:34:13.017812 19517 net.cpp:141] Setting up loss_Attractive
I1017 12:34:13.017818 19517 net.cpp:148] Top shape: (1)
I1017 12:34:13.017822 19517 net.cpp:151]     with loss weight 1
I1017 12:34:13.017828 19517 net.cpp:156] Memory required for data: 3837272052
I1017 12:34:13.017832 19517 layer_factory.hpp:77] Creating layer fc3_Blurry
I1017 12:34:13.017848 19517 net.cpp:91] Creating Layer fc3_Blurry
I1017 12:34:13.017854 19517 net.cpp:425] fc3_Blurry <- fc2_face_drop2_face_0_split_1
I1017 12:34:13.017860 19517 net.cpp:399] fc3_Blurry -> fc3_Blurry
I1017 12:34:13.017966 19517 net.cpp:141] Setting up fc3_Blurry
I1017 12:34:13.017976 19517 net.cpp:148] Top shape: 100 2 (200)
I1017 12:34:13.017979 19517 net.cpp:156] Memory required for data: 3837272852
I1017 12:34:13.017985 19517 layer_factory.hpp:77] Creating layer loss_Blurry
I1017 12:34:13.017993 19517 net.cpp:91] Creating Layer loss_Blurry
I1017 12:34:13.017998 19517 net.cpp:425] loss_Blurry <- fc3_Blurry
I1017 12:34:13.018003 19517 net.cpp:425] loss_Blurry <- label_Blurry
I1017 12:34:13.018012 19517 net.cpp:399] loss_Blurry -> loss_Blurry
I1017 12:34:13.018051 19517 net.cpp:141] Setting up loss_Blurry
I1017 12:34:13.018059 19517 net.cpp:148] Top shape: (1)
I1017 12:34:13.018062 19517 net.cpp:151]     with loss weight 1
I1017 12:34:13.018069 19517 net.cpp:156] Memory required for data: 3837272856
I1017 12:34:13.018072 19517 layer_factory.hpp:77] Creating layer fc3_Oval_Face
I1017 12:34:13.018086 19517 net.cpp:91] Creating Layer fc3_Oval_Face
I1017 12:34:13.018092 19517 net.cpp:425] fc3_Oval_Face <- fc2_face_drop2_face_0_split_2
I1017 12:34:13.018098 19517 net.cpp:399] fc3_Oval_Face -> fc3_Oval_Face
I1017 12:34:13.018203 19517 net.cpp:141] Setting up fc3_Oval_Face
I1017 12:34:13.018213 19517 net.cpp:148] Top shape: 100 2 (200)
I1017 12:34:13.018216 19517 net.cpp:156] Memory required for data: 3837273656
I1017 12:34:13.018224 19517 layer_factory.hpp:77] Creating layer loss_Oval_Face
I1017 12:34:13.018236 19517 net.cpp:91] Creating Layer loss_Oval_Face
I1017 12:34:13.018241 19517 net.cpp:425] loss_Oval_Face <- fc3_Oval_Face
I1017 12:34:13.018247 19517 net.cpp:425] loss_Oval_Face <- label_Oval_Face
I1017 12:34:13.018254 19517 net.cpp:399] loss_Oval_Face -> loss_Oval_Face
I1017 12:34:13.018332 19517 net.cpp:141] Setting up loss_Oval_Face
I1017 12:34:13.018343 19517 net.cpp:148] Top shape: (1)
I1017 12:34:13.018347 19517 net.cpp:151]     with loss weight 1
I1017 12:34:13.018353 19517 net.cpp:156] Memory required for data: 3837273660
I1017 12:34:13.018358 19517 layer_factory.hpp:77] Creating layer fc3_Pale_Skin
I1017 12:34:13.018367 19517 net.cpp:91] Creating Layer fc3_Pale_Skin
I1017 12:34:13.018371 19517 net.cpp:425] fc3_Pale_Skin <- fc2_face_drop2_face_0_split_3
I1017 12:34:13.018378 19517 net.cpp:399] fc3_Pale_Skin -> fc3_Pale_Skin
I1017 12:34:13.018486 19517 net.cpp:141] Setting up fc3_Pale_Skin
I1017 12:34:13.018496 19517 net.cpp:148] Top shape: 100 2 (200)
I1017 12:34:13.018499 19517 net.cpp:156] Memory required for data: 3837274460
I1017 12:34:13.018506 19517 layer_factory.hpp:77] Creating layer loss_Pale_Skin
I1017 12:34:13.018513 19517 net.cpp:91] Creating Layer loss_Pale_Skin
I1017 12:34:13.018518 19517 net.cpp:425] loss_Pale_Skin <- fc3_Pale_Skin
I1017 12:34:13.018523 19517 net.cpp:425] loss_Pale_Skin <- label_Pale_Skin
I1017 12:34:13.018529 19517 net.cpp:399] loss_Pale_Skin -> loss_Pale_Skin
I1017 12:34:13.018573 19517 net.cpp:141] Setting up loss_Pale_Skin
I1017 12:34:13.018579 19517 net.cpp:148] Top shape: (1)
I1017 12:34:13.018584 19517 net.cpp:151]     with loss weight 1
I1017 12:34:13.018589 19517 net.cpp:156] Memory required for data: 3837274464
I1017 12:34:13.018594 19517 layer_factory.hpp:77] Creating layer fc3_Young
I1017 12:34:13.018609 19517 net.cpp:91] Creating Layer fc3_Young
I1017 12:34:13.018613 19517 net.cpp:425] fc3_Young <- fc2_face_drop2_face_0_split_4
I1017 12:34:13.018620 19517 net.cpp:399] fc3_Young -> fc3_Young
I1017 12:34:13.018838 19517 net.cpp:141] Setting up fc3_Young
I1017 12:34:13.018858 19517 net.cpp:148] Top shape: 100 2 (200)
I1017 12:34:13.018867 19517 net.cpp:156] Memory required for data: 3837275264
I1017 12:34:13.018882 19517 layer_factory.hpp:77] Creating layer loss_Young
I1017 12:34:13.018908 19517 net.cpp:91] Creating Layer loss_Young
I1017 12:34:13.018920 19517 net.cpp:425] loss_Young <- fc3_Young
I1017 12:34:13.018932 19517 net.cpp:425] loss_Young <- label_Young
I1017 12:34:13.018945 19517 net.cpp:399] loss_Young -> loss_Young
I1017 12:34:13.019037 19517 net.cpp:141] Setting up loss_Young
I1017 12:34:13.019055 19517 net.cpp:148] Top shape: (1)
I1017 12:34:13.019064 19517 net.cpp:151]     with loss weight 1
I1017 12:34:13.019076 19517 net.cpp:156] Memory required for data: 3837275268
I1017 12:34:13.019086 19517 layer_factory.hpp:77] Creating layer fc3_Heavy_Makeup
I1017 12:34:13.019103 19517 net.cpp:91] Creating Layer fc3_Heavy_Makeup
I1017 12:34:13.019114 19517 net.cpp:425] fc3_Heavy_Makeup <- fc2_face_drop2_face_0_split_5
I1017 12:34:13.019129 19517 net.cpp:399] fc3_Heavy_Makeup -> fc3_Heavy_Makeup
I1017 12:34:13.019356 19517 net.cpp:141] Setting up fc3_Heavy_Makeup
I1017 12:34:13.019374 19517 net.cpp:148] Top shape: 100 2 (200)
I1017 12:34:13.019383 19517 net.cpp:156] Memory required for data: 3837276068
I1017 12:34:13.019398 19517 layer_factory.hpp:77] Creating layer loss_Heavy_Makeup
I1017 12:34:13.019425 19517 net.cpp:91] Creating Layer loss_Heavy_Makeup
I1017 12:34:13.019436 19517 net.cpp:425] loss_Heavy_Makeup <- fc3_Heavy_Makeup
I1017 12:34:13.019449 19517 net.cpp:425] loss_Heavy_Makeup <- label_Heavy_Makeup
I1017 12:34:13.019462 19517 net.cpp:399] loss_Heavy_Makeup -> loss_Heavy_Makeup
I1017 12:34:13.019562 19517 net.cpp:141] Setting up loss_Heavy_Makeup
I1017 12:34:13.019580 19517 net.cpp:148] Top shape: (1)
I1017 12:34:13.019589 19517 net.cpp:151]     with loss weight 1
I1017 12:34:13.019601 19517 net.cpp:156] Memory required for data: 3837276072
I1017 12:34:13.019611 19517 layer_factory.hpp:77] Creating layer fc3_Black_Hair
I1017 12:34:13.019637 19517 net.cpp:91] Creating Layer fc3_Black_Hair
I1017 12:34:13.019649 19517 net.cpp:425] fc3_Black_Hair <- fc2_aroundhead_drop2_aroundhead_0_split_0
I1017 12:34:13.019665 19517 net.cpp:399] fc3_Black_Hair -> fc3_Black_Hair
I1017 12:34:13.019898 19517 net.cpp:141] Setting up fc3_Black_Hair
I1017 12:34:13.019939 19517 net.cpp:148] Top shape: 100 2 (200)
I1017 12:34:13.019949 19517 net.cpp:156] Memory required for data: 3837276872
I1017 12:34:13.019963 19517 layer_factory.hpp:77] Creating layer loss_Black_Hair
I1017 12:34:13.019981 19517 net.cpp:91] Creating Layer loss_Black_Hair
I1017 12:34:13.019992 19517 net.cpp:425] loss_Black_Hair <- fc3_Black_Hair
I1017 12:34:13.020005 19517 net.cpp:425] loss_Black_Hair <- label_Black_Hair
I1017 12:34:13.020018 19517 net.cpp:399] loss_Black_Hair -> loss_Black_Hair
I1017 12:34:13.020112 19517 net.cpp:141] Setting up loss_Black_Hair
I1017 12:34:13.020130 19517 net.cpp:148] Top shape: (1)
I1017 12:34:13.020139 19517 net.cpp:151]     with loss weight 1
I1017 12:34:13.020153 19517 net.cpp:156] Memory required for data: 3837276876
I1017 12:34:13.020161 19517 layer_factory.hpp:77] Creating layer fc3_Blond_Hair
I1017 12:34:13.020177 19517 net.cpp:91] Creating Layer fc3_Blond_Hair
I1017 12:34:13.020190 19517 net.cpp:425] fc3_Blond_Hair <- fc2_aroundhead_drop2_aroundhead_0_split_1
I1017 12:34:13.020203 19517 net.cpp:399] fc3_Blond_Hair -> fc3_Blond_Hair
I1017 12:34:13.020440 19517 net.cpp:141] Setting up fc3_Blond_Hair
I1017 12:34:13.020460 19517 net.cpp:148] Top shape: 100 2 (200)
I1017 12:34:13.020469 19517 net.cpp:156] Memory required for data: 3837277676
I1017 12:34:13.020483 19517 layer_factory.hpp:77] Creating layer loss_Blond_Hair
I1017 12:34:13.020515 19517 net.cpp:91] Creating Layer loss_Blond_Hair
I1017 12:34:13.020530 19517 net.cpp:425] loss_Blond_Hair <- fc3_Blond_Hair
I1017 12:34:13.020542 19517 net.cpp:425] loss_Blond_Hair <- label_Blond_Hair
I1017 12:34:13.020555 19517 net.cpp:399] loss_Blond_Hair -> loss_Blond_Hair
I1017 12:34:13.020648 19517 net.cpp:141] Setting up loss_Blond_Hair
I1017 12:34:13.020666 19517 net.cpp:148] Top shape: (1)
I1017 12:34:13.020675 19517 net.cpp:151]     with loss weight 1
I1017 12:34:13.020689 19517 net.cpp:156] Memory required for data: 3837277680
I1017 12:34:13.020697 19517 layer_factory.hpp:77] Creating layer fc3_Brown_Hair
I1017 12:34:13.020723 19517 net.cpp:91] Creating Layer fc3_Brown_Hair
I1017 12:34:13.020735 19517 net.cpp:425] fc3_Brown_Hair <- fc2_aroundhead_drop2_aroundhead_0_split_2
I1017 12:34:13.020750 19517 net.cpp:399] fc3_Brown_Hair -> fc3_Brown_Hair
I1017 12:34:13.020982 19517 net.cpp:141] Setting up fc3_Brown_Hair
I1017 12:34:13.021000 19517 net.cpp:148] Top shape: 100 2 (200)
I1017 12:34:13.021009 19517 net.cpp:156] Memory required for data: 3837278480
I1017 12:34:13.021023 19517 layer_factory.hpp:77] Creating layer loss_Brown_Hair
I1017 12:34:13.021040 19517 net.cpp:91] Creating Layer loss_Brown_Hair
I1017 12:34:13.021051 19517 net.cpp:425] loss_Brown_Hair <- fc3_Brown_Hair
I1017 12:34:13.021062 19517 net.cpp:425] loss_Brown_Hair <- label_Brown_Hair
I1017 12:34:13.021076 19517 net.cpp:399] loss_Brown_Hair -> loss_Brown_Hair
I1017 12:34:13.021167 19517 net.cpp:141] Setting up loss_Brown_Hair
I1017 12:34:13.021183 19517 net.cpp:148] Top shape: (1)
I1017 12:34:13.021193 19517 net.cpp:151]     with loss weight 1
I1017 12:34:13.021205 19517 net.cpp:156] Memory required for data: 3837278484
I1017 12:34:13.021214 19517 layer_factory.hpp:77] Creating layer fc3_Gray_Hair
I1017 12:34:13.021241 19517 net.cpp:91] Creating Layer fc3_Gray_Hair
I1017 12:34:13.021252 19517 net.cpp:425] fc3_Gray_Hair <- fc2_aroundhead_drop2_aroundhead_0_split_3
I1017 12:34:13.021266 19517 net.cpp:399] fc3_Gray_Hair -> fc3_Gray_Hair
I1017 12:34:13.021504 19517 net.cpp:141] Setting up fc3_Gray_Hair
I1017 12:34:13.021523 19517 net.cpp:148] Top shape: 100 2 (200)
I1017 12:34:13.021533 19517 net.cpp:156] Memory required for data: 3837279284
I1017 12:34:13.021546 19517 layer_factory.hpp:77] Creating layer loss_Gray_Hair
I1017 12:34:13.021566 19517 net.cpp:91] Creating Layer loss_Gray_Hair
I1017 12:34:13.021577 19517 net.cpp:425] loss_Gray_Hair <- fc3_Gray_Hair
I1017 12:34:13.021589 19517 net.cpp:425] loss_Gray_Hair <- label_Gray_Hair
I1017 12:34:13.021602 19517 net.cpp:399] loss_Gray_Hair -> loss_Gray_Hair
I1017 12:34:13.021693 19517 net.cpp:141] Setting up loss_Gray_Hair
I1017 12:34:13.021730 19517 net.cpp:148] Top shape: (1)
I1017 12:34:13.021740 19517 net.cpp:151]     with loss weight 1
I1017 12:34:13.021752 19517 net.cpp:156] Memory required for data: 3837279288
I1017 12:34:13.021762 19517 layer_factory.hpp:77] Creating layer fc3_Wearing_Earrings
I1017 12:34:13.021785 19517 net.cpp:91] Creating Layer fc3_Wearing_Earrings
I1017 12:34:13.021797 19517 net.cpp:425] fc3_Wearing_Earrings <- fc2_aroundhead_drop2_aroundhead_0_split_4
I1017 12:34:13.021816 19517 net.cpp:399] fc3_Wearing_Earrings -> fc3_Wearing_Earrings
I1017 12:34:13.022056 19517 net.cpp:141] Setting up fc3_Wearing_Earrings
I1017 12:34:13.022076 19517 net.cpp:148] Top shape: 100 2 (200)
I1017 12:34:13.022085 19517 net.cpp:156] Memory required for data: 3837280088
I1017 12:34:13.022100 19517 layer_factory.hpp:77] Creating layer loss_Wearing_Earrings
I1017 12:34:13.022131 19517 net.cpp:91] Creating Layer loss_Wearing_Earrings
I1017 12:34:13.022147 19517 net.cpp:425] loss_Wearing_Earrings <- fc3_Wearing_Earrings
I1017 12:34:13.022159 19517 net.cpp:425] loss_Wearing_Earrings <- label_Wearing_Earrings
I1017 12:34:13.022173 19517 net.cpp:399] loss_Wearing_Earrings -> loss_Wearing_Earrings
I1017 12:34:13.022267 19517 net.cpp:141] Setting up loss_Wearing_Earrings
I1017 12:34:13.022297 19517 net.cpp:148] Top shape: (1)
I1017 12:34:13.022307 19517 net.cpp:151]     with loss weight 1
I1017 12:34:13.022320 19517 net.cpp:156] Memory required for data: 3837280092
I1017 12:34:13.022330 19517 layer_factory.hpp:77] Creating layer fc3_Wearing_Necklace
I1017 12:34:13.022342 19517 net.cpp:91] Creating Layer fc3_Wearing_Necklace
I1017 12:34:13.022353 19517 net.cpp:425] fc3_Wearing_Necklace <- fc2_aroundhead_drop2_aroundhead_0_split_5
I1017 12:34:13.022375 19517 net.cpp:399] fc3_Wearing_Necklace -> fc3_Wearing_Necklace
I1017 12:34:13.022619 19517 net.cpp:141] Setting up fc3_Wearing_Necklace
I1017 12:34:13.022637 19517 net.cpp:148] Top shape: 100 2 (200)
I1017 12:34:13.022646 19517 net.cpp:156] Memory required for data: 3837280892
I1017 12:34:13.022660 19517 layer_factory.hpp:77] Creating layer loss_Wearing_Necklace
I1017 12:34:13.022678 19517 net.cpp:91] Creating Layer loss_Wearing_Necklace
I1017 12:34:13.022689 19517 net.cpp:425] loss_Wearing_Necklace <- fc3_Wearing_Necklace
I1017 12:34:13.022701 19517 net.cpp:425] loss_Wearing_Necklace <- label_Wearing_Necklace
I1017 12:34:13.022716 19517 net.cpp:399] loss_Wearing_Necklace -> loss_Wearing_Necklace
I1017 12:34:13.022805 19517 net.cpp:141] Setting up loss_Wearing_Necklace
I1017 12:34:13.022824 19517 net.cpp:148] Top shape: (1)
I1017 12:34:13.022832 19517 net.cpp:151]     with loss weight 1
I1017 12:34:13.022845 19517 net.cpp:156] Memory required for data: 3837280896
I1017 12:34:13.022853 19517 layer_factory.hpp:77] Creating layer fc3_Wearing_Necktie
I1017 12:34:13.022883 19517 net.cpp:91] Creating Layer fc3_Wearing_Necktie
I1017 12:34:13.022896 19517 net.cpp:425] fc3_Wearing_Necktie <- fc2_aroundhead_drop2_aroundhead_0_split_6
I1017 12:34:13.022913 19517 net.cpp:399] fc3_Wearing_Necktie -> fc3_Wearing_Necktie
I1017 12:34:13.023157 19517 net.cpp:141] Setting up fc3_Wearing_Necktie
I1017 12:34:13.023176 19517 net.cpp:148] Top shape: 100 2 (200)
I1017 12:34:13.023185 19517 net.cpp:156] Memory required for data: 3837281696
I1017 12:34:13.023200 19517 layer_factory.hpp:77] Creating layer loss_Wearing_Necktie
I1017 12:34:13.023217 19517 net.cpp:91] Creating Layer loss_Wearing_Necktie
I1017 12:34:13.023228 19517 net.cpp:425] loss_Wearing_Necktie <- fc3_Wearing_Necktie
I1017 12:34:13.023241 19517 net.cpp:425] loss_Wearing_Necktie <- label_Wearing_Necktie
I1017 12:34:13.023255 19517 net.cpp:399] loss_Wearing_Necktie -> loss_Wearing_Necktie
I1017 12:34:13.023342 19517 net.cpp:141] Setting up loss_Wearing_Necktie
I1017 12:34:13.023360 19517 net.cpp:148] Top shape: (1)
I1017 12:34:13.023370 19517 net.cpp:151]     with loss weight 1
I1017 12:34:13.023381 19517 net.cpp:156] Memory required for data: 3837281700
I1017 12:34:13.023391 19517 layer_factory.hpp:77] Creating layer fc3_Bald
I1017 12:34:13.023430 19517 net.cpp:91] Creating Layer fc3_Bald
I1017 12:34:13.023442 19517 net.cpp:425] fc3_Bald <- fc2_aroundhead_drop2_aroundhead_0_split_7
I1017 12:34:13.023460 19517 net.cpp:399] fc3_Bald -> fc3_Bald
I1017 12:34:13.023700 19517 net.cpp:141] Setting up fc3_Bald
I1017 12:34:13.023720 19517 net.cpp:148] Top shape: 100 2 (200)
I1017 12:34:13.023730 19517 net.cpp:156] Memory required for data: 3837282500
I1017 12:34:13.023743 19517 layer_factory.hpp:77] Creating layer loss_Bald
I1017 12:34:13.023773 19517 net.cpp:91] Creating Layer loss_Bald
I1017 12:34:13.023787 19517 net.cpp:425] loss_Bald <- fc3_Bald
I1017 12:34:13.023799 19517 net.cpp:425] loss_Bald <- label_Bald
I1017 12:34:13.023813 19517 net.cpp:399] loss_Bald -> loss_Bald
I1017 12:34:13.023901 19517 net.cpp:141] Setting up loss_Bald
I1017 12:34:13.023919 19517 net.cpp:148] Top shape: (1)
I1017 12:34:13.023928 19517 net.cpp:151]     with loss weight 1
I1017 12:34:13.023941 19517 net.cpp:156] Memory required for data: 3837282504
I1017 12:34:13.023950 19517 layer_factory.hpp:77] Creating layer fc3_Receding_Hairline
I1017 12:34:13.023972 19517 net.cpp:91] Creating Layer fc3_Receding_Hairline
I1017 12:34:13.023983 19517 net.cpp:425] fc3_Receding_Hairline <- fc2_aroundhead_drop2_aroundhead_0_split_8
I1017 12:34:13.024003 19517 net.cpp:399] fc3_Receding_Hairline -> fc3_Receding_Hairline
I1017 12:34:13.024241 19517 net.cpp:141] Setting up fc3_Receding_Hairline
I1017 12:34:13.024262 19517 net.cpp:148] Top shape: 100 2 (200)
I1017 12:34:13.024271 19517 net.cpp:156] Memory required for data: 3837283304
I1017 12:34:13.024286 19517 layer_factory.hpp:77] Creating layer loss_Receding_Hairline
I1017 12:34:13.024305 19517 net.cpp:91] Creating Layer loss_Receding_Hairline
I1017 12:34:13.024317 19517 net.cpp:425] loss_Receding_Hairline <- fc3_Receding_Hairline
I1017 12:34:13.024330 19517 net.cpp:425] loss_Receding_Hairline <- label_Receding_Hairline
I1017 12:34:13.024344 19517 net.cpp:399] loss_Receding_Hairline -> loss_Receding_Hairline
I1017 12:34:13.024433 19517 net.cpp:141] Setting up loss_Receding_Hairline
I1017 12:34:13.024451 19517 net.cpp:148] Top shape: (1)
I1017 12:34:13.024461 19517 net.cpp:151]     with loss weight 1
I1017 12:34:13.024473 19517 net.cpp:156] Memory required for data: 3837283308
I1017 12:34:13.024482 19517 layer_factory.hpp:77] Creating layer fc3_Bangs
I1017 12:34:13.024507 19517 net.cpp:91] Creating Layer fc3_Bangs
I1017 12:34:13.024518 19517 net.cpp:425] fc3_Bangs <- fc2_aroundhead_drop2_aroundhead_0_split_9
I1017 12:34:13.024536 19517 net.cpp:399] fc3_Bangs -> fc3_Bangs
I1017 12:34:13.024788 19517 net.cpp:141] Setting up fc3_Bangs
I1017 12:34:13.024811 19517 net.cpp:148] Top shape: 100 2 (200)
I1017 12:34:13.024822 19517 net.cpp:156] Memory required for data: 3837284108
I1017 12:34:13.024837 19517 layer_factory.hpp:77] Creating layer loss_Bangs
I1017 12:34:13.024857 19517 net.cpp:91] Creating Layer loss_Bangs
I1017 12:34:13.024868 19517 net.cpp:425] loss_Bangs <- fc3_Bangs
I1017 12:34:13.024880 19517 net.cpp:425] loss_Bangs <- label_Bangs
I1017 12:34:13.024895 19517 net.cpp:399] loss_Bangs -> loss_Bangs
I1017 12:34:13.024983 19517 net.cpp:141] Setting up loss_Bangs
I1017 12:34:13.025002 19517 net.cpp:148] Top shape: (1)
I1017 12:34:13.025009 19517 net.cpp:151]     with loss weight 1
I1017 12:34:13.025022 19517 net.cpp:156] Memory required for data: 3837284112
I1017 12:34:13.025032 19517 layer_factory.hpp:77] Creating layer fc3_Wearing_Hat
I1017 12:34:13.025045 19517 net.cpp:91] Creating Layer fc3_Wearing_Hat
I1017 12:34:13.025055 19517 net.cpp:425] fc3_Wearing_Hat <- fc2_aroundhead_drop2_aroundhead_0_split_10
I1017 12:34:13.025074 19517 net.cpp:399] fc3_Wearing_Hat -> fc3_Wearing_Hat
I1017 12:34:13.025305 19517 net.cpp:141] Setting up fc3_Wearing_Hat
I1017 12:34:13.025324 19517 net.cpp:148] Top shape: 100 2 (200)
I1017 12:34:13.025333 19517 net.cpp:156] Memory required for data: 3837284912
I1017 12:34:13.025362 19517 layer_factory.hpp:77] Creating layer loss_Wearing_Hat
I1017 12:34:13.025398 19517 net.cpp:91] Creating Layer loss_Wearing_Hat
I1017 12:34:13.025430 19517 net.cpp:425] loss_Wearing_Hat <- fc3_Wearing_Hat
I1017 12:34:13.025444 19517 net.cpp:425] loss_Wearing_Hat <- label_Wearing_Hat
I1017 12:34:13.025459 19517 net.cpp:399] loss_Wearing_Hat -> loss_Wearing_Hat
I1017 12:34:13.025550 19517 net.cpp:141] Setting up loss_Wearing_Hat
I1017 12:34:13.025568 19517 net.cpp:148] Top shape: (1)
I1017 12:34:13.025578 19517 net.cpp:151]     with loss weight 1
I1017 12:34:13.025589 19517 net.cpp:156] Memory required for data: 3837284916
I1017 12:34:13.025599 19517 layer_factory.hpp:77] Creating layer fc3_Straight_Hair
I1017 12:34:13.025614 19517 net.cpp:91] Creating Layer fc3_Straight_Hair
I1017 12:34:13.025624 19517 net.cpp:425] fc3_Straight_Hair <- fc2_aroundhead_drop2_aroundhead_0_split_11
I1017 12:34:13.025642 19517 net.cpp:399] fc3_Straight_Hair -> fc3_Straight_Hair
I1017 12:34:13.025876 19517 net.cpp:141] Setting up fc3_Straight_Hair
I1017 12:34:13.025895 19517 net.cpp:148] Top shape: 100 2 (200)
I1017 12:34:13.025904 19517 net.cpp:156] Memory required for data: 3837285716
I1017 12:34:13.025919 19517 layer_factory.hpp:77] Creating layer loss_Straight_Hair
I1017 12:34:13.025939 19517 net.cpp:91] Creating Layer loss_Straight_Hair
I1017 12:34:13.025950 19517 net.cpp:425] loss_Straight_Hair <- fc3_Straight_Hair
I1017 12:34:13.025964 19517 net.cpp:425] loss_Straight_Hair <- label_Straight_Hair
I1017 12:34:13.025976 19517 net.cpp:399] loss_Straight_Hair -> loss_Straight_Hair
I1017 12:34:13.026062 19517 net.cpp:141] Setting up loss_Straight_Hair
I1017 12:34:13.026079 19517 net.cpp:148] Top shape: (1)
I1017 12:34:13.026088 19517 net.cpp:151]     with loss weight 1
I1017 12:34:13.026101 19517 net.cpp:156] Memory required for data: 3837285720
I1017 12:34:13.026110 19517 layer_factory.hpp:77] Creating layer fc3_Wavy_Hair
I1017 12:34:13.026134 19517 net.cpp:91] Creating Layer fc3_Wavy_Hair
I1017 12:34:13.026145 19517 net.cpp:425] fc3_Wavy_Hair <- fc2_aroundhead_drop2_aroundhead_0_split_12
I1017 12:34:13.026165 19517 net.cpp:399] fc3_Wavy_Hair -> fc3_Wavy_Hair
I1017 12:34:13.026434 19517 net.cpp:141] Setting up fc3_Wavy_Hair
I1017 12:34:13.026461 19517 net.cpp:148] Top shape: 100 2 (200)
I1017 12:34:13.026475 19517 net.cpp:156] Memory required for data: 3837286520
I1017 12:34:13.026497 19517 layer_factory.hpp:77] Creating layer loss_Wavy_Hair
I1017 12:34:13.026506 19517 net.cpp:91] Creating Layer loss_Wavy_Hair
I1017 12:34:13.026513 19517 net.cpp:425] loss_Wavy_Hair <- fc3_Wavy_Hair
I1017 12:34:13.026520 19517 net.cpp:425] loss_Wavy_Hair <- label_Wavy_Hair
I1017 12:34:13.026525 19517 net.cpp:399] loss_Wavy_Hair -> loss_Wavy_Hair
I1017 12:34:13.026568 19517 net.cpp:141] Setting up loss_Wavy_Hair
I1017 12:34:13.026576 19517 net.cpp:148] Top shape: (1)
I1017 12:34:13.026579 19517 net.cpp:151]     with loss weight 1
I1017 12:34:13.026585 19517 net.cpp:156] Memory required for data: 3837286524
I1017 12:34:13.026589 19517 layer_factory.hpp:77] Creating layer fc3_5_o_Clock_Shadow
I1017 12:34:13.026595 19517 net.cpp:91] Creating Layer fc3_5_o_Clock_Shadow
I1017 12:34:13.026600 19517 net.cpp:425] fc3_5_o_Clock_Shadow <- fc2_facialhair_drop2_facialhair_0_split_0
I1017 12:34:13.026609 19517 net.cpp:399] fc3_5_o_Clock_Shadow -> fc3_5_o_Clock_Shadow
I1017 12:34:13.026715 19517 net.cpp:141] Setting up fc3_5_o_Clock_Shadow
I1017 12:34:13.026724 19517 net.cpp:148] Top shape: 100 2 (200)
I1017 12:34:13.026728 19517 net.cpp:156] Memory required for data: 3837287324
I1017 12:34:13.026734 19517 layer_factory.hpp:77] Creating layer loss_5_o_Clock_Shadow
I1017 12:34:13.026748 19517 net.cpp:91] Creating Layer loss_5_o_Clock_Shadow
I1017 12:34:13.026754 19517 net.cpp:425] loss_5_o_Clock_Shadow <- fc3_5_o_Clock_Shadow
I1017 12:34:13.026760 19517 net.cpp:425] loss_5_o_Clock_Shadow <- label_5_o_Clock_Shadow
I1017 12:34:13.026768 19517 net.cpp:399] loss_5_o_Clock_Shadow -> loss_5_o_Clock_Shadow
I1017 12:34:13.026810 19517 net.cpp:141] Setting up loss_5_o_Clock_Shadow
I1017 12:34:13.026819 19517 net.cpp:148] Top shape: (1)
I1017 12:34:13.026823 19517 net.cpp:151]     with loss weight 1
I1017 12:34:13.026839 19517 net.cpp:156] Memory required for data: 3837287328
I1017 12:34:13.026844 19517 layer_factory.hpp:77] Creating layer fc3_Mustache
I1017 12:34:13.026849 19517 net.cpp:91] Creating Layer fc3_Mustache
I1017 12:34:13.026854 19517 net.cpp:425] fc3_Mustache <- fc2_facialhair_drop2_facialhair_0_split_1
I1017 12:34:13.026866 19517 net.cpp:399] fc3_Mustache -> fc3_Mustache
I1017 12:34:13.026974 19517 net.cpp:141] Setting up fc3_Mustache
I1017 12:34:13.026983 19517 net.cpp:148] Top shape: 100 2 (200)
I1017 12:34:13.026988 19517 net.cpp:156] Memory required for data: 3837288128
I1017 12:34:13.027000 19517 layer_factory.hpp:77] Creating layer loss_Mustache
I1017 12:34:13.027009 19517 net.cpp:91] Creating Layer loss_Mustache
I1017 12:34:13.027014 19517 net.cpp:425] loss_Mustache <- fc3_Mustache
I1017 12:34:13.027019 19517 net.cpp:425] loss_Mustache <- label_Mustache
I1017 12:34:13.027027 19517 net.cpp:399] loss_Mustache -> loss_Mustache
I1017 12:34:13.027070 19517 net.cpp:141] Setting up loss_Mustache
I1017 12:34:13.027077 19517 net.cpp:148] Top shape: (1)
I1017 12:34:13.027081 19517 net.cpp:151]     with loss weight 1
I1017 12:34:13.027087 19517 net.cpp:156] Memory required for data: 3837288132
I1017 12:34:13.027091 19517 layer_factory.hpp:77] Creating layer fc3_No_Beard
I1017 12:34:13.027097 19517 net.cpp:91] Creating Layer fc3_No_Beard
I1017 12:34:13.027101 19517 net.cpp:425] fc3_No_Beard <- fc2_facialhair_drop2_facialhair_0_split_2
I1017 12:34:13.027112 19517 net.cpp:399] fc3_No_Beard -> fc3_No_Beard
I1017 12:34:13.027220 19517 net.cpp:141] Setting up fc3_No_Beard
I1017 12:34:13.027230 19517 net.cpp:148] Top shape: 100 2 (200)
I1017 12:34:13.027233 19517 net.cpp:156] Memory required for data: 3837288932
I1017 12:34:13.027240 19517 layer_factory.hpp:77] Creating layer loss_No_Beard
I1017 12:34:13.027253 19517 net.cpp:91] Creating Layer loss_No_Beard
I1017 12:34:13.027258 19517 net.cpp:425] loss_No_Beard <- fc3_No_Beard
I1017 12:34:13.027264 19517 net.cpp:425] loss_No_Beard <- label_No_Beard
I1017 12:34:13.027271 19517 net.cpp:399] loss_No_Beard -> loss_No_Beard
I1017 12:34:13.027313 19517 net.cpp:141] Setting up loss_No_Beard
I1017 12:34:13.027323 19517 net.cpp:148] Top shape: (1)
I1017 12:34:13.027326 19517 net.cpp:151]     with loss weight 1
I1017 12:34:13.027331 19517 net.cpp:156] Memory required for data: 3837288936
I1017 12:34:13.027335 19517 layer_factory.hpp:77] Creating layer fc3_Sideburns
I1017 12:34:13.027341 19517 net.cpp:91] Creating Layer fc3_Sideburns
I1017 12:34:13.027346 19517 net.cpp:425] fc3_Sideburns <- fc2_facialhair_drop2_facialhair_0_split_3
I1017 12:34:13.027354 19517 net.cpp:399] fc3_Sideburns -> fc3_Sideburns
I1017 12:34:13.027458 19517 net.cpp:141] Setting up fc3_Sideburns
I1017 12:34:13.027468 19517 net.cpp:148] Top shape: 100 2 (200)
I1017 12:34:13.027472 19517 net.cpp:156] Memory required for data: 3837289736
I1017 12:34:13.027478 19517 layer_factory.hpp:77] Creating layer loss_Sideburns
I1017 12:34:13.027487 19517 net.cpp:91] Creating Layer loss_Sideburns
I1017 12:34:13.027492 19517 net.cpp:425] loss_Sideburns <- fc3_Sideburns
I1017 12:34:13.027496 19517 net.cpp:425] loss_Sideburns <- label_Sideburns
I1017 12:34:13.027505 19517 net.cpp:399] loss_Sideburns -> loss_Sideburns
I1017 12:34:13.027545 19517 net.cpp:141] Setting up loss_Sideburns
I1017 12:34:13.027552 19517 net.cpp:148] Top shape: (1)
I1017 12:34:13.027556 19517 net.cpp:151]     with loss weight 1
I1017 12:34:13.027562 19517 net.cpp:156] Memory required for data: 3837289740
I1017 12:34:13.027566 19517 layer_factory.hpp:77] Creating layer fc3_Goatee
I1017 12:34:13.027580 19517 net.cpp:91] Creating Layer fc3_Goatee
I1017 12:34:13.027585 19517 net.cpp:425] fc3_Goatee <- fc2_facialhair_drop2_facialhair_0_split_4
I1017 12:34:13.027591 19517 net.cpp:399] fc3_Goatee -> fc3_Goatee
I1017 12:34:13.027701 19517 net.cpp:141] Setting up fc3_Goatee
I1017 12:34:13.027711 19517 net.cpp:148] Top shape: 100 2 (200)
I1017 12:34:13.027715 19517 net.cpp:156] Memory required for data: 3837290540
I1017 12:34:13.027721 19517 layer_factory.hpp:77] Creating layer loss_Goatee
I1017 12:34:13.027740 19517 net.cpp:91] Creating Layer loss_Goatee
I1017 12:34:13.027745 19517 net.cpp:425] loss_Goatee <- fc3_Goatee
I1017 12:34:13.027751 19517 net.cpp:425] loss_Goatee <- label_Goatee
I1017 12:34:13.027758 19517 net.cpp:399] loss_Goatee -> loss_Goatee
I1017 12:34:13.027801 19517 net.cpp:141] Setting up loss_Goatee
I1017 12:34:13.027808 19517 net.cpp:148] Top shape: (1)
I1017 12:34:13.027812 19517 net.cpp:151]     with loss weight 1
I1017 12:34:13.027818 19517 net.cpp:156] Memory required for data: 3837290544
I1017 12:34:13.027823 19517 layer_factory.hpp:77] Creating layer fc3_High_Cheekbones
I1017 12:34:13.027830 19517 net.cpp:91] Creating Layer fc3_High_Cheekbones
I1017 12:34:13.027835 19517 net.cpp:425] fc3_High_Cheekbones <- fc2_cheeks_drop2_cheeks_0_split_0
I1017 12:34:13.027842 19517 net.cpp:399] fc3_High_Cheekbones -> fc3_High_Cheekbones
I1017 12:34:13.027951 19517 net.cpp:141] Setting up fc3_High_Cheekbones
I1017 12:34:13.027959 19517 net.cpp:148] Top shape: 100 2 (200)
I1017 12:34:13.027963 19517 net.cpp:156] Memory required for data: 3837291344
I1017 12:34:13.027971 19517 layer_factory.hpp:77] Creating layer loss_High_Cheekbones
I1017 12:34:13.027986 19517 net.cpp:91] Creating Layer loss_High_Cheekbones
I1017 12:34:13.027992 19517 net.cpp:425] loss_High_Cheekbones <- fc3_High_Cheekbones
I1017 12:34:13.027997 19517 net.cpp:425] loss_High_Cheekbones <- label_High_Cheekbones
I1017 12:34:13.028004 19517 net.cpp:399] loss_High_Cheekbones -> loss_High_Cheekbones
I1017 12:34:13.028048 19517 net.cpp:141] Setting up loss_High_Cheekbones
I1017 12:34:13.028055 19517 net.cpp:148] Top shape: (1)
I1017 12:34:13.028059 19517 net.cpp:151]     with loss weight 1
I1017 12:34:13.028065 19517 net.cpp:156] Memory required for data: 3837291348
I1017 12:34:13.028069 19517 layer_factory.hpp:77] Creating layer fc3_Rosy_Cheeks
I1017 12:34:13.028075 19517 net.cpp:91] Creating Layer fc3_Rosy_Cheeks
I1017 12:34:13.028080 19517 net.cpp:425] fc3_Rosy_Cheeks <- fc2_cheeks_drop2_cheeks_0_split_1
I1017 12:34:13.028087 19517 net.cpp:399] fc3_Rosy_Cheeks -> fc3_Rosy_Cheeks
I1017 12:34:13.028194 19517 net.cpp:141] Setting up fc3_Rosy_Cheeks
I1017 12:34:13.028204 19517 net.cpp:148] Top shape: 100 2 (200)
I1017 12:34:13.028208 19517 net.cpp:156] Memory required for data: 3837292148
I1017 12:34:13.028214 19517 layer_factory.hpp:77] Creating layer loss_Rosy_Cheeks
I1017 12:34:13.028225 19517 net.cpp:91] Creating Layer loss_Rosy_Cheeks
I1017 12:34:13.028230 19517 net.cpp:425] loss_Rosy_Cheeks <- fc3_Rosy_Cheeks
I1017 12:34:13.028235 19517 net.cpp:425] loss_Rosy_Cheeks <- label_Rosy_Cheeks
I1017 12:34:13.028244 19517 net.cpp:399] loss_Rosy_Cheeks -> loss_Rosy_Cheeks
I1017 12:34:13.028285 19517 net.cpp:141] Setting up loss_Rosy_Cheeks
I1017 12:34:13.028293 19517 net.cpp:148] Top shape: (1)
I1017 12:34:13.028298 19517 net.cpp:151]     with loss weight 1
I1017 12:34:13.028303 19517 net.cpp:156] Memory required for data: 3837292152
I1017 12:34:13.028307 19517 layer_factory.hpp:77] Creating layer fc3_Chubby
I1017 12:34:13.028319 19517 net.cpp:91] Creating Layer fc3_Chubby
I1017 12:34:13.028326 19517 net.cpp:425] fc3_Chubby <- fc2_fat_drop2_fat_0_split_0
I1017 12:34:13.028331 19517 net.cpp:399] fc3_Chubby -> fc3_Chubby
I1017 12:34:13.028440 19517 net.cpp:141] Setting up fc3_Chubby
I1017 12:34:13.028450 19517 net.cpp:148] Top shape: 100 2 (200)
I1017 12:34:13.028455 19517 net.cpp:156] Memory required for data: 3837292952
I1017 12:34:13.028460 19517 layer_factory.hpp:77] Creating layer loss_Chubby
I1017 12:34:13.028468 19517 net.cpp:91] Creating Layer loss_Chubby
I1017 12:34:13.028473 19517 net.cpp:425] loss_Chubby <- fc3_Chubby
I1017 12:34:13.028478 19517 net.cpp:425] loss_Chubby <- label_Chubby
I1017 12:34:13.028486 19517 net.cpp:399] loss_Chubby -> loss_Chubby
I1017 12:34:13.028528 19517 net.cpp:141] Setting up loss_Chubby
I1017 12:34:13.028535 19517 net.cpp:148] Top shape: (1)
I1017 12:34:13.028539 19517 net.cpp:151]     with loss weight 1
I1017 12:34:13.028545 19517 net.cpp:156] Memory required for data: 3837292956
I1017 12:34:13.028558 19517 layer_factory.hpp:77] Creating layer fc3_Double_Chin
I1017 12:34:13.028565 19517 net.cpp:91] Creating Layer fc3_Double_Chin
I1017 12:34:13.028570 19517 net.cpp:425] fc3_Double_Chin <- fc2_fat_drop2_fat_0_split_1
I1017 12:34:13.028576 19517 net.cpp:399] fc3_Double_Chin -> fc3_Double_Chin
I1017 12:34:13.028687 19517 net.cpp:141] Setting up fc3_Double_Chin
I1017 12:34:13.028697 19517 net.cpp:148] Top shape: 100 2 (200)
I1017 12:34:13.028700 19517 net.cpp:156] Memory required for data: 3837293756
I1017 12:34:13.028707 19517 layer_factory.hpp:77] Creating layer loss_Double_Chin
I1017 12:34:13.028723 19517 net.cpp:91] Creating Layer loss_Double_Chin
I1017 12:34:13.028728 19517 net.cpp:425] loss_Double_Chin <- fc3_Double_Chin
I1017 12:34:13.028733 19517 net.cpp:425] loss_Double_Chin <- label_Double_Chin
I1017 12:34:13.028739 19517 net.cpp:399] loss_Double_Chin -> loss_Double_Chin
…
    slice_point: 24
    slice_point: 26
    slice_point: 28
    slice_point: 30
    slice_point: 32
    slice_point: 34
    slice_point: 36
    slice_point: 38
    slice_point: 40
    slice_point: 42
    slice_point: 44
    slice_point: 46
    slice_point: 48
    slice_point: 50
    slice_point: 52
    slice_point: 54
    slice_point: 56
    slice_point: 58
    slice_point: 60
    slice_point: 62
    slice_point: 64
    slice_point: 66
    slice_point: 68
    slice_point: 70
    slice_point: 72
    slice_point: 74
    slice_point: 76
    slice_point: 78
  }
}
layer {
  name: "conv1_bn"
  type: "BatchNorm"
  bottom: "conv1"
  top: "conv1"
  batch_norm_param {
    use_global_stats: false
  }
}
layer {
  name: "conv1_scale"
  type: "Scale"
  bottom: "conv1"
  top: "conv1"
  scale_param {
    bias_term: true
  }
}
layer {
  name: "prelu1"
  type: "PReLU"
  bottom: "conv1"
  top: "conv1"
}
layer {
  name: "pool1"
  type: "Pooling"
  bottom: "conv1"
  top: "pool1"
  pooling_param {
    pool: MAX
    kernel_size: 2
    stride: 2
  }
}
layer {
  name: "conv2a"
  type: "Convolution"
  bottom: "pool1"
  top: "conv2a"
  param {
    name: "conv2a_w"
    lr_mult: 1
    decay_mult: 1
  }
  param {
    name: "conv2a_b"
    lr_mult: 2
    decay_mult: 0
  }
  convolution_param {
    num_output: 64
    kernel_size: 1
    weight_filler {
      type: "xavier"
    }
    bias_filler {
      type: "constant"
      value: 0.2
    }
  }
}
layer {
  name: "conv2a_bn"
  type: "BatchNorm"
  bottom: "conv2a"
  top: "conv2a"
  batch_norm_param {
    use_global_stats: false
  }
}
layer {
  name: "conv2a_scale"
  type: "Scale"
  bottom: "conv2a"
  top: "conv2a"
  scale_param {
    bias_term: true
  }
}
layer {
  name: "prelu2a"
  type: "PReLU"
  bottom: "conv2a"
  top: "conv2a"
}
layer {
  name: "conv2"
  type: "Convolution"
  bottom: "conv2a"
  top: "conv2"
  param {
    name: "conv2_w"
    lr_mult: 1
    decay_mult: 1
  }
  param {
    name: "conv2_b"
    lr_mult: 2
    decay_mult: 0
  }
  convolution_param {
    num_output: 192
    pad: 1
    kernel_size: 3
    stride: 1
    weight_filler {
      type: "xavier"
    }
    bias_filler {
      type: "constant"
      value: 0.2
    }
  }
}
layer {
  name: "conv2_bn"
  type: "BatchNorm"
  bottom: "conv2"
  top: "conv2"
  batch_norm_param {
    use_global_stats: false
  }
}
layer {
  name: "conv2_scale"
  type: "Scale"
  bottom: "conv2"
  top: "conv2"
  scale_param {
    bias_term: true
  }
}
layer {
  name: "prelu2"
  type: "PReLU"
  bottom: "conv2"
  top: "conv2"
}
layer {
  name: "pool2"
  type: "Pooling"
  bottom: "conv2"
  top: "pool2"
  pooling_param {
    pool: MAX
    kernel_size: 2
    stride: 2
  }
}
layer {
  name: "conv3a"
  type: "Convolution"
  bottom: "pool2"
  top: "conv3a"
  param {
    name: "conv3a_w"
    lr_mult: 1
    decay_mult: 1
  }
  param {
    name: "conv3a_b"
    lr_mult: 2
    decay_mult: 0
  }
  convolution_param {
    num_output: 192
    kernel_size: 1
    weight_filler {
      type: "xavier"
    }
    bias_filler {
      type: "constant"
      value: 0.2
    }
  }
}
layer {
  name: "conv3a_bn"
  type: "BatchNorm"
  bottom: "conv3a"
  top: "conv3a"
  batch_norm_param {
    use_global_stats: false
  }
}
layer {
  name: "conv3a_scale"
  type: "Scale"
  bottom: "conv3a"
  top: "conv3a"
  scale_param {
    bias_term: true
  }
}
layer {
  name: "prelu3a"
  type: "PReLU"
  bottom: "conv3a"
  top: "conv3a"
}
layer {
  name: "conv3"
  type: "Convolution"
  bottom: "conv3a"
  top: "conv3"
  param {
    name: "conv3_w"
    lr_mult: 1
    decay_mult: 1
  }
  param {
    name: "conv3_b"
    lr_mult: 2
    decay_mult: 0
  }
  convolution_param {
    num_output: 384
    pad: 1
    kernel_size: 3
    stride: 1
    weight_filler {
      type: "xavier"
    }
    bias_filler {
      type: "constant"
      value: 0.2
    }
  }
}
layer {
  name: "conv3_bn"
  type: "BatchNorm"
  bottom: "conv3"
  top: "conv3"
  batch_norm_param {
    use_global_stats: false
  }
}
layer {
  name: "conv3_scale"
  type: "Scale"
  bottom: "conv3"
  top: "conv3"
  scale_param {
    bias_term: true
  }
}
layer {
  name: "prelu3"
  type: "PReLU"
  bottom: "conv3"
  top: "conv3"
…
I1017 12:34:13.669737 19517 net.cpp:91] Creating Layer relu1_fat
I1017 12:34:13.669744 19517 net.cpp:425] relu1_fat <- fc1_fat
I1017 12:34:13.669755 19517 net.cpp:386] relu1_fat -> fc1_fat (in-place)
I1017 12:34:13.670220 19517 net.cpp:141] Setting up relu1_fat
I1017 12:34:13.670235 19517 net.cpp:148] Top shape: 64 512 (32768)
I1017 12:34:13.670251 19517 net.cpp:156] Memory required for data: 2455060992
I1017 12:34:13.670256 19517 layer_factory.hpp:77] Creating layer drop1_fat
I1017 12:34:13.670267 19517 net.cpp:91] Creating Layer drop1_fat
I1017 12:34:13.670274 19517 net.cpp:425] drop1_fat <- fc1_fat
I1017 12:34:13.670285 19517 net.cpp:386] drop1_fat -> fc1_fat (in-place)
I1017 12:34:13.670327 19517 net.cpp:141] Setting up drop1_fat
I1017 12:34:13.670336 19517 net.cpp:148] Top shape: 64 512 (32768)
I1017 12:34:13.670339 19517 net.cpp:156] Memory required for data: 2455192064
I1017 12:34:13.670344 19517 layer_factory.hpp:77] Creating layer fc2_fat
I1017 12:34:13.670353 19517 net.cpp:91] Creating Layer fc2_fat
I1017 12:34:13.670358 19517 net.cpp:425] fc2_fat <- fc1_fat
I1017 12:34:13.670368 19517 net.cpp:399] fc2_fat -> fc2_fat
I1017 12:34:13.672976 19517 net.cpp:141] Setting up fc2_fat
I1017 12:34:13.673004 19517 net.cpp:148] Top shape: 64 512 (32768)
I1017 12:34:13.673009 19517 net.cpp:156] Memory required for data: 2455323136
I1017 12:34:13.673017 19517 layer_factory.hpp:77] Creating layer relu2_fat
I1017 12:34:13.673025 19517 net.cpp:91] Creating Layer relu2_fat
I1017 12:34:13.673030 19517 net.cpp:425] relu2_fat <- fc2_fat
I1017 12:34:13.673038 19517 net.cpp:386] relu2_fat -> fc2_fat (in-place)
I1017 12:34:13.673231 19517 net.cpp:141] Setting up relu2_fat
I1017 12:34:13.673243 19517 net.cpp:148] Top shape: 64 512 (32768)
I1017 12:34:13.673249 19517 net.cpp:156] Memory required for data: 2455454208
I1017 12:34:13.673254 19517 layer_factory.hpp:77] Creating layer drop2_fat
I1017 12:34:13.673262 19517 net.cpp:91] Creating Layer drop2_fat
I1017 12:34:13.673267 19517 net.cpp:425] drop2_fat <- fc2_fat
I1017 12:34:13.673274 19517 net.cpp:386] drop2_fat -> fc2_fat (in-place)
I1017 12:34:13.673312 19517 net.cpp:141] Setting up drop2_fat
I1017 12:34:13.673321 19517 net.cpp:148] Top shape: 64 512 (32768)
I1017 12:34:13.673324 19517 net.cpp:156] Memory required for data: 2455585280
I1017 12:34:13.673329 19517 layer_factory.hpp:77] Creating layer fc2_fat_drop2_fat_0_split
I1017 12:34:13.673336 19517 net.cpp:91] Creating Layer fc2_fat_drop2_fat_0_split
I1017 12:34:13.673341 19517 net.cpp:425] fc2_fat_drop2_fat_0_split <- fc2_fat
I1017 12:34:13.673347 19517 net.cpp:399] fc2_fat_drop2_fat_0_split -> fc2_fat_drop2_fat_0_split_0
I1017 12:34:13.673357 19517 net.cpp:399] fc2_fat_drop2_fat_0_split -> fc2_fat_drop2_fat_0_split_1
I1017 12:34:13.673406 19517 net.cpp:141] Setting up fc2_fat_drop2_fat_0_split
I1017 12:34:13.673418 19517 net.cpp:148] Top shape: 64 512 (32768)
I1017 12:34:13.673424 19517 net.cpp:148] Top shape: 64 512 (32768)
I1017 12:34:13.673426 19517 net.cpp:156] Memory required for data: 2455847424
I1017 12:34:13.673431 19517 layer_factory.hpp:77] Creating layer fc3_Male
I1017 12:34:13.673440 19517 net.cpp:91] Creating Layer fc3_Male
I1017 12:34:13.673445 19517 net.cpp:425] fc3_Male <- fc2_gender
I1017 12:34:13.673454 19517 net.cpp:399] fc3_Male -> fc3_Male
I1017 12:34:13.673594 19517 net.cpp:141] Setting up fc3_Male
I1017 12:34:13.673621 19517 net.cpp:148] Top shape: 64 2 (128)
I1017 12:34:13.673626 19517 net.cpp:156] Memory required for data: 2455847936
I1017 12:34:13.673635 19517 layer_factory.hpp:77] Creating layer loss_Male
I1017 12:34:13.673645 19517 net.cpp:91] Creating Layer loss_Male
I1017 12:34:13.673650 19517 net.cpp:425] loss_Male <- fc3_Male
I1017 12:34:13.673656 19517 net.cpp:425] loss_Male <- label_Male
I1017 12:34:13.673663 19517 net.cpp:399] loss_Male -> loss_Male
I1017 12:34:13.673717 19517 net.cpp:141] Setting up loss_Male
I1017 12:34:13.673727 19517 net.cpp:148] Top shape: (1)
I1017 12:34:13.673732 19517 net.cpp:151]     with loss weight 1
I1017 12:34:13.673743 19517 net.cpp:156] Memory required for data: 2455847940
I1017 12:34:13.673748 19517 layer_factory.hpp:77] Creating layer fc3_Big_Nose
I1017 12:34:13.673756 19517 net.cpp:91] Creating Layer fc3_Big_Nose
I1017 12:34:13.673763 19517 net.cpp:425] fc3_Big_Nose <- fc2_nose_drop2_nose_0_split_0
I1017 12:34:13.673769 19517 net.cpp:399] fc3_Big_Nose -> fc3_Big_Nose
I1017 12:34:13.673902 19517 net.cpp:141] Setting up fc3_Big_Nose
I1017 12:34:13.673913 19517 net.cpp:148] Top shape: 64 2 (128)
I1017 12:34:13.673916 19517 net.cpp:156] Memory required for data: 2455848452
I1017 12:34:13.673923 19517 layer_factory.hpp:77] Creating layer loss_Big_Nose
I1017 12:34:13.673931 19517 net.cpp:91] Creating Layer loss_Big_Nose
I1017 12:34:13.673936 19517 net.cpp:425] loss_Big_Nose <- fc3_Big_Nose
I1017 12:34:13.673943 19517 net.cpp:425] loss_Big_Nose <- label_Big_Nose
I1017 12:34:13.673949 19517 net.cpp:399] loss_Big_Nose -> loss_Big_Nose
I1017 12:34:13.674001 19517 net.cpp:141] Setting up loss_Big_Nose
I1017 12:34:13.674010 19517 net.cpp:148] Top shape: (1)
I1017 12:34:13.674015 19517 net.cpp:151]     with loss weight 1
I1017 12:34:13.674021 19517 net.cpp:156] Memory required for data: 2455848456
I1017 12:34:13.674026 19517 layer_factory.hpp:77] Creating layer fc3_Pointy_Nose
I1017 12:34:13.674034 19517 net.cpp:91] Creating Layer fc3_Pointy_Nose
I1017 12:34:13.674039 19517 net.cpp:425] fc3_Pointy_Nose <- fc2_nose_drop2_nose_0_split_1
I1017 12:34:13.674046 19517 net.cpp:399] fc3_Pointy_Nose -> fc3_Pointy_Nose
I1017 12:34:13.674175 19517 net.cpp:141] Setting up fc3_Pointy_Nose
I1017 12:34:13.674185 19517 net.cpp:148] Top shape: 64 2 (128)
I1017 12:34:13.674190 19517 net.cpp:156] Memory required for data: 2455848968
I1017 12:34:13.674221 19517 layer_factory.hpp:77] Creating layer loss_Pointy_Nose
I1017 12:34:13.674228 19517 net.cpp:91] Creating Layer loss_Pointy_Nose
I1017 12:34:13.674233 19517 net.cpp:425] loss_Pointy_Nose <- fc3_Pointy_Nose
I1017 12:34:13.674239 19517 net.cpp:425] loss_Pointy_Nose <- label_Pointy_Nose
I1017 12:34:13.674245 19517 net.cpp:399] loss_Pointy_Nose -> loss_Pointy_Nose
I1017 12:34:13.674311 19517 net.cpp:141] Setting up loss_Pointy_Nose
I1017 12:34:13.674322 19517 net.cpp:148] Top shape: (1)
I1017 12:34:13.674327 19517 net.cpp:151]     with loss weight 1
I1017 12:34:13.674334 19517 net.cpp:156] Memory required for data: 2455848972
I1017 12:34:13.674338 19517 layer_factory.hpp:77] Creating layer fc3_Big_Lips
I1017 12:34:13.674345 19517 net.cpp:91] Creating Layer fc3_Big_Lips
I1017 12:34:13.674350 19517 net.cpp:425] fc3_Big_Lips <- fc2_mouth_drop2_mouth_0_split_0
I1017 12:34:13.674360 19517 net.cpp:399] fc3_Big_Lips -> fc3_Big_Lips
I1017 12:34:13.674499 19517 net.cpp:141] Setting up fc3_Big_Lips
I1017 12:34:13.674510 19517 net.cpp:148] Top shape: 64 2 (128)
I1017 12:34:13.674513 19517 net.cpp:156] Memory required for data: 2455849484
I1017 12:34:13.674520 19517 layer_factory.hpp:77] Creating layer loss_Big_Lips
I1017 12:34:13.674530 19517 net.cpp:91] Creating Layer loss_Big_Lips
I1017 12:34:13.674535 19517 net.cpp:425] loss_Big_Lips <- fc3_Big_Lips
I1017 12:34:13.674540 19517 net.cpp:425] loss_Big_Lips <- label_Big_Lips
I1017 12:34:13.674546 19517 net.cpp:399] loss_Big_Lips -> loss_Big_Lips
I1017 12:34:13.674597 19517 net.cpp:141] Setting up loss_Big_Lips
I1017 12:34:13.674607 19517 net.cpp:148] Top shape: (1)
I1017 12:34:13.674612 19517 net.cpp:151]     with loss weight 1
I1017 12:34:13.674628 19517 net.cpp:156] Memory required for data: 2455849488
I1017 12:34:13.674633 19517 layer_factory.hpp:77] Creating layer fc3_Smiling
I1017 12:34:13.674659 19517 net.cpp:91] Creating Layer fc3_Smiling
I1017 12:34:13.674664 19517 net.cpp:425] fc3_Smiling <- fc2_mouth_drop2_mouth_0_split_1
I1017 12:34:13.674671 19517 net.cpp:399] fc3_Smiling -> fc3_Smiling
I1017 12:34:13.674808 19517 net.cpp:141] Setting up fc3_Smiling
I1017 12:34:13.674818 19517 net.cpp:148] Top shape: 64 2 (128)
I1017 12:34:13.674821 19517 net.cpp:156] Memory required for data: 2455850000
I1017 12:34:13.674829 19517 layer_factory.hpp:77] Creating layer loss_Smiling
I1017 12:34:13.674837 19517 net.cpp:91] Creating Layer loss_Smiling
I1017 12:34:13.674844 19517 net.cpp:425] loss_Smiling <- fc3_Smiling
I1017 12:34:13.674849 19517 net.cpp:425] loss_Smiling <- label_Smiling
I1017 12:34:13.674855 19517 net.cpp:399] loss_Smiling -> loss_Smiling
I1017 12:34:13.674906 19517 net.cpp:141] Setting up loss_Smiling
I1017 12:34:13.674914 19517 net.cpp:148] Top shape: (1)
I1017 12:34:13.674918 19517 net.cpp:151]     with loss weight 1
I1017 12:34:13.674924 19517 net.cpp:156] Memory required for data: 2455850004
I1017 12:34:13.674928 19517 layer_factory.hpp:77] Creating layer fc3_Wearing_Lipstick
I1017 12:34:13.674935 19517 net.cpp:91] Creating Layer fc3_Wearing_Lipstick
I1017 12:34:13.674940 19517 net.cpp:425] fc3_Wearing_Lipstick <- fc2_mouth_drop2_mouth_0_split_2
I1017 12:34:13.674947 19517 net.cpp:399] fc3_Wearing_Lipstick -> fc3_Wearing_Lipstick
I1017 12:34:13.675082 19517 net.cpp:141] Setting up fc3_Wearing_Lipstick
I1017 12:34:13.675092 19517 net.cpp:148] Top shape: 64 2 (128)
I1017 12:34:13.675096 19517 net.cpp:156] Memory required for data: 2455850516
I1017 12:34:13.675103 19517 layer_factory.hpp:77] Creating layer loss_Wearing_Lipstick
I1017 12:34:13.675112 19517 net.cpp:91] Creating Layer loss_Wearing_Lipstick
I1017 12:34:13.675117 19517 net.cpp:425] loss_Wearing_Lipstick <- fc3_Wearing_Lipstick
I1017 12:34:13.675123 19517 net.cpp:425] loss_Wearing_Lipstick <- label_Wearing_Lipstick
I1017 12:34:13.675129 19517 net.cpp:399] loss_Wearing_Lipstick -> loss_Wearing_Lipstick
I1017 12:34:13.675180 19517 net.cpp:141] Setting up loss_Wearing_Lipstick
I1017 12:34:13.675189 19517 net.cpp:148] Top shape: (1)
I1017 12:34:13.675194 19517 net.cpp:151]     with loss weight 1
I1017 12:34:13.675199 19517 net.cpp:156] Memory required for data: 2455850520
I1017 12:34:13.675204 19517 layer_factory.hpp:77] Creating layer fc3_Mouth_Slightly_Open
I1017 12:34:13.675211 19517 net.cpp:91] Creating Layer fc3_Mouth_Slightly_Open
I1017 12:34:13.675216 19517 net.cpp:425] fc3_Mouth_Slightly_Open <- fc2_mouth_drop2_mouth_0_split_3
I1017 12:34:13.675223 19517 net.cpp:399] fc3_Mouth_Slightly_Open -> fc3_Mouth_Slightly_Open
I1017 12:34:13.675354 19517 net.cpp:141] Setting up fc3_Mouth_Slightly_Open
I1017 12:34:13.675364 19517 net.cpp:148] Top shape: 64 2 (128)
I1017 12:34:13.675367 19517 net.cpp:156] Memory required for data: 2455851032
I1017 12:34:13.675374 19517 layer_factory.hpp:77] Creating layer loss_Mouth_Slightly_Open
I1017 12:34:13.675384 19517 net.cpp:91] Creating Layer loss_Mouth_Slightly_Open
I1017 12:34:13.675389 19517 net.cpp:425] loss_Mouth_Slightly_Open <- fc3_Mouth_Slightly_Open
I1017 12:34:13.675395 19517 net.cpp:425] loss_Mouth_Slightly_Open <- label_Mouth_Slightly_Open
I1017 12:34:13.675401 19517 net.cpp:399] loss_Mouth_Slightly_Open -> loss_Mouth_Slightly_Open
I1017 12:34:13.675451 19517 net.cpp:141] Setting up loss_Mouth_Slightly_Open
I1017 12:34:13.675462 19517 net.cpp:148] Top shape: (1)
I1017 12:34:13.675465 19517 net.cpp:151]     with loss weight 1
I1017 12:34:13.675472 19517 net.cpp:156] Memory required for data: 2455851036
I1017 12:34:13.675475 19517 layer_factory.hpp:77] Creating layer fc3_Arched_Eyebrows
I1017 12:34:13.675483 19517 net.cpp:91] Creating Layer fc3_Arched_Eyebrows
I1017 12:34:13.675488 19517 net.cpp:425] fc3_Arched_Eyebrows <- fc2_eyes_drop2_eyes_0_split_0
I1017 12:34:13.675495 19517 net.cpp:399] fc3_Arched_Eyebrows -> fc3_Arched_Eyebrows
I1017 12:34:13.675639 19517 net.cpp:141] Setting up fc3_Arched_Eyebrows
I1017 12:34:13.675650 19517 net.cpp:148] Top shape: 64 2 (128)
I1017 12:34:13.675654 19517 net.cpp:156] Memory required for data: 2455851548
I1017 12:34:13.675660 19517 layer_factory.hpp:77] Creating layer loss_Arched_Eyebrows
I1017 12:34:13.675669 19517 net.cpp:91] Creating Layer loss_Arched_Eyebrows
I1017 12:34:13.675675 19517 net.cpp:425] loss_Arched_Eyebrows <- fc3_Arched_Eyebrows
I1017 12:34:13.675680 19517 net.cpp:425] loss_Arched_Eyebrows <- label_Arched_Eyebrows
I1017 12:34:13.675688 19517 net.cpp:399] loss_Arched_Eyebrows -> loss_Arched_Eyebrows
I1017 12:34:13.675740 19517 net.cpp:141] Setting up loss_Arched_Eyebrows
I1017 12:34:13.675748 19517 net.cpp:148] Top shape: (1)
I1017 12:34:13.675752 19517 net.cpp:151]     with loss weight 1
I1017 12:34:13.675758 19517 net.cpp:156] Memory required for data: 2455851552
I1017 12:34:13.675762 19517 layer_factory.hpp:77] Creating layer fc3_Bags_Under_Eyes
I1017 12:34:13.675770 19517 net.cpp:91] Creating Layer fc3_Bags_Under_Eyes
I1017 12:34:13.675775 19517 net.cpp:425] fc3_Bags_Under_Eyes <- fc2_eyes_drop2_eyes_0_split_1
I1017 12:34:13.675781 19517 net.cpp:399] fc3_Bags_Under_Eyes -> fc3_Bags_Under_Eyes
I1017 12:34:13.675912 19517 net.cpp:141] Setting up fc3_Bags_Under_Eyes
I1017 12:34:13.675922 19517 net.cpp:148] Top shape: 64 2 (128)
I1017 12:34:13.675926 19517 net.cpp:156] Memory required for data: 2455852064
I1017 12:34:13.675933 19517 layer_factory.hpp:77] Creating layer loss_Bags_Under_Eyes
I1017 12:34:13.675942 19517 net.cpp:91] Creating Layer loss_Bags_Under_Eyes
I1017 12:34:13.675947 19517 net.cpp:425] loss_Bags_Under_Eyes <- fc3_Bags_Under_Eyes
I1017 12:34:13.675953 19517 net.cpp:425] loss_Bags_Under_Eyes <- label_Bags_Under_Eyes
I1017 12:34:13.675959 19517 net.cpp:399] loss_Bags_Under_Eyes -> loss_Bags_Under_Eyes
I1017 12:34:13.676015 19517 net.cpp:141] Setting up loss_Bags_Under_Eyes
I1017 12:34:13.676024 19517 net.cpp:148] Top shape: (1)
I1017 12:34:13.676028 19517 net.cpp:151]     with loss weight 1
I1017 12:34:13.676033 19517 net.cpp:156] Memory required for data: 2455852068
I1017 12:34:13.676038 19517 layer_factory.hpp:77] Creating layer fc3_Bushy_Eyebrows
I1017 12:34:13.676044 19517 net.cpp:91] Creating Layer fc3_Bushy_Eyebrows
I1017 12:34:13.676049 19517 net.cpp:425] fc3_Bushy_Eyebrows <- fc2_eyes_drop2_eyes_0_split_2
I1017 12:34:13.676056 19517 net.cpp:399] fc3_Bushy_Eyebrows -> fc3_Bushy_Eyebrows
I1017 12:34:13.676192 19517 net.cpp:141] Setting up fc3_Bushy_Eyebrows
I1017 12:34:13.676203 19517 net.cpp:148] Top shape: 64 2 (128)
I1017 12:34:13.676206 19517 net.cpp:156] Memory required for data: 2455852580
I1017 12:34:13.676213 19517 layer_factory.hpp:77] Creating layer loss_Bushy_Eyebrows
I1017 12:34:13.676221 19517 net.cpp:91] Creating Layer loss_Bushy_Eyebrows
I1017 12:34:13.676228 19517 net.cpp:425] loss_Bushy_Eyebrows <- fc3_Bushy_Eyebrows
I1017 12:34:13.676232 19517 net.cpp:425] loss_Bushy_Eyebrows <- label_Bushy_Eyebrows
I1017 12:34:13.676239 19517 net.cpp:399] loss_Bushy_Eyebrows -> loss_Bushy_Eyebrows
I1017 12:34:13.676291 19517 net.cpp:141] Setting up loss_Bushy_Eyebrows
I1017 12:34:13.676301 19517 net.cpp:148] Top shape: (1)
I1017 12:34:13.676304 19517 net.cpp:151]     with loss weight 1
I1017 12:34:13.676311 19517 net.cpp:156] Memory required for data: 2455852584
I1017 12:34:13.676314 19517 layer_factory.hpp:77] Creating layer fc3_Narrow_Eyes
I1017 12:34:13.676321 19517 net.cpp:91] Creating Layer fc3_Narrow_Eyes
I1017 12:34:13.676326 19517 net.cpp:425] fc3_Narrow_Eyes <- fc2_eyes_drop2_eyes_0_split_3
I1017 12:34:13.676333 19517 net.cpp:399] fc3_Narrow_Eyes -> fc3_Narrow_Eyes
I1017 12:34:13.676466 19517 net.cpp:141] Setting up fc3_Narrow_Eyes
I1017 12:34:13.676476 19517 net.cpp:148] Top shape: 64 2 (128)
I1017 12:34:13.676481 19517 net.cpp:156] Memory required for data: 2455853096
I1017 12:34:13.676487 19517 layer_factory.hpp:77] Creating layer loss_Narrow_Eyes
I1017 12:34:13.676496 19517 net.cpp:91] Creating Layer loss_Narrow_Eyes
I1017 12:34:13.676511 19517 net.cpp:425] loss_Narrow_Eyes <- fc3_Narrow_Eyes
I1017 12:34:13.676517 19517 net.cpp:425] loss_Narrow_Eyes <- label_Narrow_Eyes
I1017 12:34:13.676523 19517 net.cpp:399] loss_Narrow_Eyes -> loss_Narrow_Eyes
I1017 12:34:13.676578 19517 net.cpp:141] Setting up loss_Narrow_Eyes
I1017 12:34:13.676586 19517 net.cpp:148] Top shape: (1)
I1017 12:34:13.676590 19517 net.cpp:151]     with loss weight 1
I1017 12:34:13.676596 19517 net.cpp:156] Memory required for data: 2455853100
I1017 12:34:13.676601 19517 layer_factory.hpp:77] Creating layer fc3_Eyeglasses
I1017 12:34:13.676609 19517 net.cpp:91] Creating Layer fc3_Eyeglasses
I1017 12:34:13.676614 19517 net.cpp:425] fc3_Eyeglasses <- fc2_eyes_drop2_eyes_0_split_4
I1017 12:34:13.676620 19517 net.cpp:399] fc3_Eyeglasses -> fc3_Eyeglasses
I1017 12:34:13.676753 19517 net.cpp:141] Setting up fc3_Eyeglasses
I1017 12:34:13.676762 19517 net.cpp:148] Top shape: 64 2 (128)
I1017 12:34:13.676766 19517 net.cpp:156] Memory required for data: 2455853612
I1017 12:34:13.676774 19517 layer_factory.hpp:77] Creating layer loss_Eyeglasses
I1017 12:34:13.676782 19517 net.cpp:91] Creating Layer loss_Eyeglasses
I1017 12:34:13.676787 19517 net.cpp:425] loss_Eyeglasses <- fc3_Eyeglasses
I1017 12:34:13.676794 19517 net.cpp:425] loss_Eyeglasses <- label_Eyeglasses
I1017 12:34:13.676800 19517 net.cpp:399] loss_Eyeglasses -> loss_Eyeglasses
I1017 12:34:13.676851 19517 net.cpp:141] Setting up loss_Eyeglasses
I1017 12:34:13.676861 19517 net.cpp:148] Top shape: (1)
I1017 12:34:13.676864 19517 net.cpp:151]     with loss weight 1
I1017 12:34:13.676870 19517 net.cpp:156] Memory required for data: 2455853616
I1017 12:34:13.676874 19517 layer_factory.hpp:77] Creating layer fc3_Attractive
I1017 12:34:13.676882 19517 net.cpp:91] Creating Layer fc3_Attractive
I1017 12:34:13.676887 19517 net.cpp:425] fc3_Attractive <- fc2_face_drop2_face_0_split_0
I1017 12:34:13.676893 19517 net.cpp:399] fc3_Attractive -> fc3_Attractive
I1017 12:34:13.677026 19517 net.cpp:141] Setting up fc3_Attractive
I1017 12:34:13.677037 19517 net.cpp:148] Top shape: 64 2 (128)
I1017 12:34:13.677040 19517 net.cpp:156] Memory required for data: 2455854128
I1017 12:34:13.677047 19517 layer_factory.hpp:77] Creating layer loss_Attractive
I1017 12:34:13.677057 19517 net.cpp:91] Creating Layer loss_Attractive
I1017 12:34:13.677062 19517 net.cpp:425] loss_Attractive <- fc3_Attractive
I1017 12:34:13.677067 19517 net.cpp:425] loss_Attractive <- label_Attractive
I1017 12:34:13.677073 19517 net.cpp:399] loss_Attractive -> loss_Attractive
I1017 12:34:13.677125 19517 net.cpp:141] Setting up loss_Attractive
I1017 12:34:13.677134 19517 net.cpp:148] Top shape: (1)
I1017 12:34:13.677139 19517 net.cpp:151]     with loss weight 1
I1017 12:34:13.677145 19517 net.cpp:156] Memory required for data: 2455854132
I1017 12:34:13.677148 19517 layer_factory.hpp:77] Creating layer fc3_Blurry
I1017 12:34:13.677155 19517 net.cpp:91] Creating Layer fc3_Blurry
I1017 12:34:13.677160 19517 net.cpp:425] fc3_Blurry <- fc2_face_drop2_face_0_split_1
I1017 12:34:13.677167 19517 net.cpp:399] fc3_Blurry -> fc3_Blurry
I1017 12:34:13.677301 19517 net.cpp:141] Setting up fc3_Blurry
I1017 12:34:13.677310 19517 net.cpp:148] Top shape: 64 2 (128)
I1017 12:34:13.677314 19517 net.cpp:156] Memory required for data: 2455854644
I1017 12:34:13.677321 19517 layer_factory.hpp:77] Creating layer loss_Blurry
I1017 12:34:13.677328 19517 net.cpp:91] Creating Layer loss_Blurry
I1017 12:34:13.677333 19517 net.cpp:425] loss_Blurry <- fc3_Blurry
I1017 12:34:13.677341 19517 net.cpp:425] loss_Blurry <- label_Blurry
I1017 12:34:13.677347 19517 net.cpp:399] loss_Blurry -> loss_Blurry
I1017 12:34:13.677398 19517 net.cpp:141] Setting up loss_Blurry
I1017 12:34:13.677408 19517 net.cpp:148] Top shape: (1)
I1017 12:34:13.677412 19517 net.cpp:151]     with loss weight 1
I1017 12:34:13.677417 19517 net.cpp:156] Memory required for data: 2455854648
I1017 12:34:13.677423 19517 layer_factory.hpp:77] Creating layer fc3_Oval_Face
I1017 12:34:13.677429 19517 net.cpp:91] Creating Layer fc3_Oval_Face
I1017 12:34:13.677434 19517 net.cpp:425] fc3_Oval_Face <- fc2_face_drop2_face_0_split_2
I1017 12:34:13.677450 19517 net.cpp:399] fc3_Oval_Face -> fc3_Oval_Face
I1017 12:34:13.677585 19517 net.cpp:141] Setting up fc3_Oval_Face
I1017 12:34:13.677595 19517 net.cpp:148] Top shape: 64 2 (128)
I1017 12:34:13.677600 19517 net.cpp:156] Memory required for data: 2455855160
I1017 12:34:13.677606 19517 layer_factory.hpp:77] Creating layer loss_Oval_Face
I1017 12:34:13.677613 19517 net.cpp:91] Creating Layer loss_Oval_Face
I1017 12:34:13.677618 19517 net.cpp:425] loss_Oval_Face <- fc3_Oval_Face
I1017 12:34:13.677624 19517 net.cpp:425] loss_Oval_Face <- label_Oval_Face
I1017 12:34:13.677635 19517 net.cpp:399] loss_Oval_Face -> loss_Oval_Face
I1017 12:34:13.677685 19517 net.cpp:141] Setting up loss_Oval_Face
I1017 12:34:13.677697 19517 net.cpp:148] Top shape: (1)
I1017 12:34:13.677701 19517 net.cpp:151]     with loss weight 1
I1017 12:34:13.677707 19517 net.cpp:156] Memory required for data: 2455855164
I1017 12:34:13.677711 19517 layer_factory.hpp:77] Creating layer fc3_Pale_Skin
I1017 12:34:13.677718 19517 net.cpp:91] Creating Layer fc3_Pale_Skin
I1017 12:34:13.677723 19517 net.cpp:425] fc3_Pale_Skin <- fc2_face_drop2_face_0_split_3
I1017 12:34:13.677731 19517 net.cpp:399] fc3_Pale_Skin -> fc3_Pale_Skin
I1017 12:34:13.677865 19517 net.cpp:141] Setting up fc3_Pale_Skin
I1017 12:34:13.677875 19517 net.cpp:148] Top shape: 64 2 (128)
I1017 12:34:13.677880 19517 net.cpp:156] Memory required for data: 2455855676
I1017 12:34:13.677886 19517 layer_factory.hpp:77] Creating layer loss_Pale_Skin
I1017 12:34:13.677893 19517 net.cpp:91] Creating Layer loss_Pale_Skin
I1017 12:34:13.677898 19517 net.cpp:425] loss_Pale_Skin <- fc3_Pale_Skin
I1017 12:34:13.677903 19517 net.cpp:425] loss_Pale_Skin <- label_Pale_Skin
I1017 12:34:13.677911 19517 net.cpp:399] loss_Pale_Skin -> loss_Pale_Skin
I1017 12:34:13.677961 19517 net.cpp:141] Setting up loss_Pale_Skin
I1017 12:34:13.677970 19517 net.cpp:148] Top shape: (1)
I1017 12:34:13.677974 19517 net.cpp:151]     with loss weight 1
I1017 12:34:13.677980 19517 net.cpp:156] Memory required for data: 2455855680
I1017 12:34:13.677984 19517 layer_factory.hpp:77] Creating layer fc3_Young
I1017 12:34:13.677994 19517 net.cpp:91] Creating Layer fc3_Young
I1017 12:34:13.677999 19517 net.cpp:425] fc3_Young <- fc2_face_drop2_face_0_split_4
I1017 12:34:13.678006 19517 net.cpp:399] fc3_Young -> fc3_Young
I1017 12:34:13.678135 19517 net.cpp:141] Setting up fc3_Young
I1017 12:34:13.678148 19517 net.cpp:148] Top shape: 64 2 (128)
I1017 12:34:13.678151 19517 net.cpp:156] Memory required for data: 2455856192
I1017 12:34:13.678158 19517 layer_factory.hpp:77] Creating layer loss_Young
I1017 12:34:13.678165 19517 net.cpp:91] Creating Layer loss_Young
I1017 12:34:13.678170 19517 net.cpp:425] loss_Young <- fc3_Young
I1017 12:34:13.678175 19517 net.cpp:425] loss_Young <- label_Young
I1017 12:34:13.678184 19517 net.cpp:399] loss_Young -> loss_Young
I1017 12:34:13.678233 19517 net.cpp:141] Setting up loss_Young
I1017 12:34:13.678242 19517 net.cpp:148] Top shape: (1)
I1017 12:34:13.678247 19517 net.cpp:151]     with loss weight 1
I1017 12:34:13.678252 19517 net.cpp:156] Memory required for data: 2455856196
I1017 12:34:13.678257 19517 layer_factory.hpp:77] Creating layer fc3_Heavy_Makeup
I1017 12:34:13.678266 19517 net.cpp:91] Creating Layer fc3_Heavy_Makeup
I1017 12:34:13.678272 19517 net.cpp:425] fc3_Heavy_Makeup <- fc2_face_drop2_face_0_split_5
I1017 12:34:13.678283 19517 net.cpp:399] fc3_Heavy_Makeup -> fc3_Heavy_Makeup
I1017 12:34:13.678414 19517 net.cpp:141] Setting up fc3_Heavy_Makeup
I1017 12:34:13.678426 19517 net.cpp:148] Top shape: 64 2 (128)
I1017 12:34:13.678431 19517 net.cpp:156] Memory required for data: 2455856708
I1017 12:34:13.678437 19517 layer_factory.hpp:77] Creating layer loss_Heavy_Makeup
I1017 12:34:13.678444 19517 net.cpp:91] Creating Layer loss_Heavy_Makeup
I1017 12:34:13.678449 19517 net.cpp:425] loss_Heavy_Makeup <- fc3_Heavy_Makeup
I1017 12:34:13.678454 19517 net.cpp:425] loss_Heavy_Makeup <- label_Heavy_Makeup
I1017 12:34:13.678462 19517 net.cpp:399] loss_Heavy_Makeup -> loss_Heavy_Makeup
I1017 12:34:13.678525 19517 net.cpp:141] Setting up loss_Heavy_Makeup
I1017 12:34:13.678535 19517 net.cpp:148] Top shape: (1)
I1017 12:34:13.678539 19517 net.cpp:151]     with loss weight 1
I1017 12:34:13.678545 19517 net.cpp:156] Memory required for data: 2455856712
I1017 12:34:13.678550 19517 layer_factory.hpp:77] Creating layer fc3_Black_Hair
I1017 12:34:13.678558 19517 net.cpp:91] Creating Layer fc3_Black_Hair
I1017 12:34:13.678563 19517 net.cpp:425] fc3_Black_Hair <- fc2_aroundhead_drop2_aroundhead_0_split_0
I1017 12:34:13.678570 19517 net.cpp:399] fc3_Black_Hair -> fc3_Black_Hair
I1017 12:34:13.678700 19517 net.cpp:141] Setting up fc3_Black_Hair
I1017 12:34:13.678711 19517 net.cpp:148] Top shape: 64 2 (128)
I1017 12:34:13.678716 19517 net.cpp:156] Memory required for data: 2455857224
I1017 12:34:13.678722 19517 layer_factory.hpp:77] Creating layer loss_Black_Hair
I1017 12:34:13.678730 19517 net.cpp:91] Creating Layer loss_Black_Hair
I1017 12:34:13.678735 19517 net.cpp:425] loss_Black_Hair <- fc3_Black_Hair
I1017 12:34:13.678740 19517 net.cpp:425] loss_Black_Hair <- label_Black_Hair
I1017 12:34:13.678748 19517 net.cpp:399] loss_Black_Hair -> loss_Black_Hair
I1017 12:34:13.678797 19517 net.cpp:141] Setting up loss_Black_Hair
I1017 12:34:13.678807 19517 net.cpp:148] Top shape: (1)
I1017 12:34:13.678812 19517 net.cpp:151]     with loss weight 1
I1017 12:34:13.678817 19517 net.cpp:156] Memory required for data: 2455857228
I1017 12:34:13.678822 19517 layer_factory.hpp:77] Creating layer fc3_Blond_Hair
I1017 12:34:13.678830 19517 net.cpp:91] Creating Layer fc3_Blond_Hair
I1017 12:34:13.678836 19517 net.cpp:425] fc3_Blond_Hair <- fc2_aroundhead_drop2_aroundhead_0_split_1
I1017 12:34:13.678843 19517 net.cpp:399] fc3_Blond_Hair -> fc3_Blond_Hair
I1017 12:34:13.678977 19517 net.cpp:141] Setting up fc3_Blond_Hair
I1017 12:34:13.678987 19517 net.cpp:148] Top shape: 64 2 (128)
I1017 12:34:13.678992 19517 net.cpp:156] Memory required for data: 2455857740
I1017 12:34:13.678997 19517 layer_factory.hpp:77] Creating layer loss_Blond_Hair
I1017 12:34:13.679006 19517 net.cpp:91] Creating Layer loss_Blond_Hair
I1017 12:34:13.679011 19517 net.cpp:425] loss_Blond_Hair <- fc3_Blond_Hair
I1017 12:34:13.679018 19517 net.cpp:425] loss_Blond_Hair <- label_Blond_Hair
I1017 12:34:13.679025 19517 net.cpp:399] loss_Blond_Hair -> loss_Blond_Hair
I1017 12:34:13.679076 19517 net.cpp:141] Setting up loss_Blond_Hair
I1017 12:34:13.679085 19517 net.cpp:148] Top shape: (1)
I1017 12:34:13.679090 19517 net.cpp:151]     with loss weight 1
I1017 12:34:13.679095 19517 net.cpp:156] Memory required for data: 2455857744
I1017 12:34:13.679100 19517 layer_factory.hpp:77] Creating layer fc3_Brown_Hair
I1017 12:34:13.679108 19517 net.cpp:91] Creating Layer fc3_Brown_Hair
I1017 12:34:13.679114 19517 net.cpp:425] fc3_Brown_Hair <- fc2_aroundhead_drop2_aroundhead_0_split_2
I1017 12:34:13.679121 19517 net.cpp:399] fc3_Brown_Hair -> fc3_Brown_Hair
I1017 12:34:13.679247 19517 net.cpp:141] Setting up fc3_Brown_Hair
I1017 12:34:13.679256 19517 net.cpp:148] Top shape: 64 2 (128)
I1017 12:34:13.679261 19517 net.cpp:156] Memory required for data: 2455858256
I1017 12:34:13.679267 19517 layer_factory.hpp:77] Creating layer loss_Brown_Hair
I1017 12:34:13.679275 19517 net.cpp:91] Creating Layer loss_Brown_Hair
I1017 12:34:13.679280 19517 net.cpp:425] loss_Brown_Hair <- fc3_Brown_Hair
I1017 12:34:13.679286 19517 net.cpp:425] loss_Brown_Hair <- label_Brown_Hair
I1017 12:34:13.679297 19517 net.cpp:399] loss_Brown_Hair -> loss_Brown_Hair
I1017 12:34:13.679347 19517 net.cpp:141] Setting up loss_Brown_Hair
I1017 12:34:13.679355 19517 net.cpp:148] Top shape: (1)
I1017 12:34:13.679359 19517 net.cpp:151]     with loss weight 1
I1017 12:34:13.679365 19517 net.cpp:156] Memory required for data: 2455858260
I1017 12:34:13.679369 19517 layer_factory.hpp:77] Creating layer fc3_Gray_Hair
I1017 12:34:13.679378 19517 net.cpp:91] Creating Layer fc3_Gray_Hair
I1017 12:34:13.679383 19517 net.cpp:425] fc3_Gray_Hair <- fc2_aroundhead_drop2_aroundhead_0_split_3
I1017 12:34:13.679400 19517 net.cpp:399] fc3_Gray_Hair -> fc3_Gray_Hair
I1017 12:34:13.679532 19517 net.cpp:141] Setting up fc3_Gray_Hair
I1017 12:34:13.679541 19517 net.cpp:148] Top shape: 64 2 (128)
I1017 12:34:13.679545 19517 net.cpp:156] Memory required for data: 2455858772
I1017 12:34:13.679553 19517 layer_factory.hpp:77] Creating layer loss_Gray_Hair
I1017 12:34:13.679560 19517 net.cpp:91] Creating Layer loss_Gray_Hair
I1017 12:34:13.679565 19517 net.cpp:425] loss_Gray_Hair <- fc3_Gray_Hair
I1017 12:34:13.679577 19517 net.cpp:425] loss_Gray_Hair <- label_Gray_Hair
I1017 12:34:13.679585 19517 net.cpp:399] loss_Gray_Hair -> loss_Gray_Hair
I1017 12:34:13.679636 19517 net.cpp:141] Setting up loss_Gray_Hair
I1017 12:34:13.679646 19517 net.cpp:148] Top shape: (1)
I1017 12:34:13.679649 19517 net.cpp:151]     with loss weight 1
I1017 12:34:13.679656 19517 net.cpp:156] Memory required for data: 2455858776
I1017 12:34:13.679661 19517 layer_factory.hpp:77] Creating layer fc3_Wearing_Earrings
I1017 12:34:13.679669 19517 net.cpp:91] Creating Layer fc3_Wearing_Earrings
I1017 12:34:13.679674 19517 net.cpp:425] fc3_Wearing_Earrings <- fc2_aroundhead_drop2_aroundhead_0_split_4
I1017 12:34:13.679682 19517 net.cpp:399] fc3_Wearing_Earrings -> fc3_Wearing_Earrings
I1017 12:34:13.679816 19517 net.cpp:141] Setting up fc3_Wearing_Earrings
I1017 12:34:13.679827 19517 net.cpp:148] Top shape: 64 2 (128)
I1017 12:34:13.679831 19517 net.cpp:156] Memory required for data: 2455859288
I1017 12:34:13.679837 19517 layer_factory.hpp:77] Creating layer loss_Wearing_Earrings
I1017 12:34:13.679847 19517 net.cpp:91] Creating Layer loss_Wearing_Earrings
I1017 12:34:13.679852 19517 net.cpp:425] loss_Wearing_Earrings <- fc3_Wearing_Earrings
I1017 12:34:13.679858 19517 net.cpp:425] loss_Wearing_Earrings <- label_Wearing_Earrings
I1017 12:34:13.679864 19517 net.cpp:399] loss_Wearing_Earrings -> loss_Wearing_Earrings
I1017 12:34:13.679915 19517 net.cpp:141] Setting up loss_Wearing_Earrings
I1017 12:34:13.679924 19517 net.cpp:148] Top shape: (1)
I1017 12:34:13.679929 19517 net.cpp:151]     with loss weight 1
I1017 12:34:13.679934 19517 net.cpp:156] Memory required for data: 2455859292
I1017 12:34:13.679939 19517 layer_factory.hpp:77] Creating layer fc3_Wearing_Necklace
I1017 12:34:13.679947 19517 net.cpp:91] Creating Layer fc3_Wearing_Necklace
I1017 12:34:13.679952 19517 net.cpp:425] fc3_Wearing_Necklace <- fc2_aroundhead_drop2_aroundhead_0_split_5
I1017 12:34:13.679960 19517 net.cpp:399] fc3_Wearing_Necklace -> fc3_Wearing_Necklace
I1017 12:34:13.680094 19517 net.cpp:141] Setting up fc3_Wearing_Necklace
I1017 12:34:13.680104 19517 net.cpp:148] Top shape: 64 2 (128)
I1017 12:34:13.680107 19517 net.cpp:156] Memory required for data: 2455859804
I1017 12:34:13.680114 19517 layer_factory.hpp:77] Creating layer loss_Wearing_Necklace
I1017 12:34:13.680122 19517 net.cpp:91] Creating Layer loss_Wearing_Necklace
I1017 12:34:13.680127 19517 net.cpp:425] loss_Wearing_Necklace <- fc3_Wearing_Necklace
I1017 12:34:13.680133 19517 net.cpp:425] loss_Wearing_Necklace <- label_Wearing_Necklace
I1017 12:34:13.680140 19517 net.cpp:399] loss_Wearing_Necklace -> loss_Wearing_Necklace
I1017 12:34:13.680191 19517 net.cpp:141] Setting up loss_Wearing_Necklace
I1017 12:34:13.680199 19517 net.cpp:148] Top shape: (1)
I1017 12:34:13.680204 19517 net.cpp:151]     with loss weight 1
I1017 12:34:13.680209 19517 net.cpp:156] Memory required for data: 2455859808
I1017 12:34:13.680213 19517 layer_factory.hpp:77] Creating layer fc3_Wearing_Necktie
I1017 12:34:13.680222 19517 net.cpp:91] Creating Layer fc3_Wearing_Necktie
I1017 12:34:13.680227 19517 net.cpp:425] fc3_Wearing_Necktie <- fc2_aroundhead_drop2_aroundhead_0_split_6
I1017 12:34:13.680234 19517 net.cpp:399] fc3_Wearing_Necktie -> fc3_Wearing_Necktie
I1017 12:34:13.680372 19517 net.cpp:141] Setting up fc3_Wearing_Necktie
I1017 12:34:13.680390 19517 net.cpp:148] Top shape: 64 2 (128)
I1017 12:34:13.680394 19517 net.cpp:156] Memory required for data: 2455860320
I1017 12:34:13.680402 19517 layer_factory.hpp:77] Creating layer loss_Wearing_Necktie
I1017 12:34:13.680425 19517 net.cpp:91] Creating Layer loss_Wearing_Necktie
I1017 12:34:13.680431 19517 net.cpp:425] loss_Wearing_Necktie <- fc3_Wearing_Necktie
I1017 12:34:13.680438 19517 net.cpp:425] loss_Wearing_Necktie <- label_Wearing_Necktie
I1017 12:34:13.680444 19517 net.cpp:399] loss_Wearing_Necktie -> loss_Wearing_Necktie
I1017 12:34:13.680508 19517 net.cpp:141] Setting up loss_Wearing_Necktie
I1017 12:34:13.680518 19517 net.cpp:148] Top shape: (1)
I1017 12:34:13.680522 19517 net.cpp:151]     with loss weight 1
I1017 12:34:13.680528 19517 net.cpp:156] Memory required for data: 2455860324
I1017 12:34:13.680533 19517 layer_factory.hpp:77] Creating layer fc3_Bald
I1017 12:34:13.680543 19517 net.cpp:91] Creating Layer fc3_Bald
I1017 12:34:13.680548 19517 net.cpp:425] fc3_Bald <- fc2_aroundhead_drop2_aroundhead_0_split_7
I1017 12:34:13.680554 19517 net.cpp:399] fc3_Bald -> fc3_Bald
I1017 12:34:13.680685 19517 net.cpp:141] Setting up fc3_Bald
I1017 12:34:13.680696 19517 net.cpp:148] Top shape: 64 2 (128)
I1017 12:34:13.680699 19517 net.cpp:156] Memory required for data: 2455860836
I1017 12:34:13.680706 19517 layer_factory.hpp:77] Creating layer loss_Bald
I1017 12:34:13.680714 19517 net.cpp:91] Creating Layer loss_Bald
I1017 12:34:13.680719 19517 net.cpp:425] loss_Bald <- fc3_Bald
I1017 12:34:13.680726 19517 net.cpp:425] loss_Bald <- label_Bald
I1017 12:34:13.680732 19517 net.cpp:399] loss_Bald -> loss_Bald
I1017 12:34:13.680788 19517 net.cpp:141] Setting up loss_Bald
I1017 12:34:13.680797 19517 net.cpp:148] Top shape: (1)
I1017 12:34:13.680801 19517 net.cpp:151]     with loss weight 1
I1017 12:34:13.680807 19517 net.cpp:156] Memory required for data: 2455860840
I1017 12:34:13.680811 19517 layer_factory.hpp:77] Creating layer fc3_Receding_Hairline
I1017 12:34:13.680820 19517 net.cpp:91] Creating Layer fc3_Receding_Hairline
I1017 12:34:13.680825 19517 net.cpp:425] fc3_Receding_Hairline <- fc2_aroundhead_drop2_aroundhead_0_split_8
I1017 12:34:13.680832 19517 net.cpp:399] fc3_Receding_Hairline -> fc3_Receding_Hairline
I1017 12:34:13.680970 19517 net.cpp:141] Setting up fc3_Receding_Hairline
I1017 12:34:13.680981 19517 net.cpp:148] Top shape: 64 2 (128)
I1017 12:34:13.680985 19517 net.cpp:156] Memory required for data: 2455861352
I1017 12:34:13.680992 19517 layer_factory.hpp:77] Creating layer loss_Receding_Hairline
I1017 12:34:13.681004 19517 net.cpp:91] Creating Layer loss_Receding_Hairline
I1017 12:34:13.681008 19517 net.cpp:425] loss_Receding_Hairline <- fc3_Receding_Hairline
I1017 12:34:13.681015 19517 net.cpp:425] loss_Receding_Hairline <- label_Receding_Hairline
I1017 12:34:13.681020 19517 net.cpp:399] loss_Receding_Hairline -> loss_Receding_Hairline
I1017 12:34:13.681072 19517 net.cpp:141] Setting up loss_Receding_Hairline
I1017 12:34:13.681082 19517 net.cpp:148] Top shape: (1)
I1017 12:34:13.681087 19517 net.cpp:151]     with loss weight 1
I1017 12:34:13.681092 19517 net.cpp:156] Memory required for data: 2455861356
I1017 12:34:13.681097 19517 layer_factory.hpp:77] Creating layer fc3_Bangs
I1017 12:34:13.681105 19517 net.cpp:91] Creating Layer fc3_Bangs
I1017 12:34:13.681110 19517 net.cpp:425] fc3_Bangs <- fc2_aroundhead_drop2_aroundhead_0_split_9
I1017 12:34:13.681116 19517 net.cpp:399] fc3_Bangs -> fc3_Bangs
I1017 12:34:13.681252 19517 net.cpp:141] Setting up fc3_Bangs
I1017 12:34:13.681262 19517 net.cpp:148] Top shape: 64 2 (128)
I1017 12:34:13.681267 19517 net.cpp:156] Memory required for data: 2455861868
I1017 12:34:13.681273 19517 layer_factory.hpp:77] Creating layer loss_Bangs
I1017 12:34:13.681282 19517 net.cpp:91] Creating Layer loss_Bangs
I1017 12:34:13.681287 19517 net.cpp:425] loss_Bangs <- fc3_Bangs
I1017 12:34:13.681293 19517 net.cpp:425] loss_Bangs <- label_Bangs
I1017 12:34:13.681298 19517 net.cpp:399] loss_Bangs -> loss_Bangs
I1017 12:34:13.681354 19517 net.cpp:141] Setting up loss_Bangs
I1017 12:34:13.681363 19517 net.cpp:148] Top shape: (1)
I1017 12:34:13.681367 19517 net.cpp:151]     with loss weight 1
I1017 12:34:13.681373 19517 net.cpp:156] Memory required for data: 2455861872
I1017 12:34:13.681387 19517 layer_factory.hpp:77] Creating layer fc3_Wearing_Hat
I1017 12:34:13.681397 19517 net.cpp:91] Creating Layer fc3_Wearing_Hat
I1017 12:34:13.681402 19517 net.cpp:425] fc3_Wearing_Hat <- fc2_aroundhead_drop2_aroundhead_0_split_10
I1017 12:34:13.681409 19517 net.cpp:399] fc3_Wearing_Hat -> fc3_Wearing_Hat
I1017 12:34:13.681543 19517 net.cpp:141] Setting up fc3_Wearing_Hat
I1017 12:34:13.681553 19517 net.cpp:148] Top shape: 64 2 (128)
I1017 12:34:13.681557 19517 net.cpp:156] Memory required for data: 2455862384
I1017 12:34:13.681563 19517 layer_factory.hpp:77] Creating layer loss_Wearing_Hat
I1017 12:34:13.681572 19517 net.cpp:91] Creating Layer loss_Wearing_Hat
I1017 12:34:13.681577 19517 net.cpp:425] loss_Wearing_Hat <- fc3_Wearing_Hat
I1017 12:34:13.681583 19517 net.cpp:425] loss_Wearing_Hat <- label_Wearing_Hat
I1017 12:34:13.681589 19517 net.cpp:399] loss_Wearing_Hat -> loss_Wearing_Hat
I1017 12:34:13.681641 19517 net.cpp:141] Setting up loss_Wearing_Hat
I1017 12:34:13.681651 19517 net.cpp:148] Top shape: (1)
I1017 12:34:13.681655 19517 net.cpp:151]     with loss weight 1
I1017 12:34:13.681661 19517 net.cpp:156] Memory required for data: 2455862388
I1017 12:34:13.681665 19517 layer_factory.hpp:77] Creating layer fc3_Straight_Hair
I1017 12:34:13.681674 19517 net.cpp:91] Creating Layer fc3_Straight_Hair
I1017 12:34:13.681680 19517 net.cpp:425] fc3_Straight_Hair <- fc2_aroundhead_drop2_aroundhead_0_split_11
I1017 12:34:13.681686 19517 net.cpp:399] fc3_Straight_Hair -> fc3_Straight_Hair
I1017 12:34:13.681819 19517 net.cpp:141] Setting up fc3_Straight_Hair
I1017 12:34:13.681829 19517 net.cpp:148] Top shape: 64 2 (128)
I1017 12:34:13.681834 19517 net.cpp:156] Memory required for data: 2455862900
I1017 12:34:13.681840 19517 layer_factory.hpp:77] Creating layer loss_Straight_Hair
I1017 12:34:13.681849 19517 net.cpp:91] Creating Layer loss_Straight_Hair
I1017 12:34:13.681854 19517 net.cpp:425] loss_Straight_Hair <- fc3_Straight_Hair
I1017 12:34:13.681860 19517 net.cpp:425] loss_Straight_Hair <- label_Straight_Hair
I1017 12:34:13.681866 19517 net.cpp:399] loss_Straight_Hair -> loss_Straight_Hair
I1017 12:34:13.681918 19517 net.cpp:141] Setting up loss_Straight_Hair
I1017 12:34:13.681927 19517 net.cpp:148] Top shape: (1)
I1017 12:34:13.681931 19517 net.cpp:151]     with loss weight 1
I1017 12:34:13.681937 19517 net.cpp:156] Memory required for data: 2455862904
I1017 12:34:13.681941 19517 layer_factory.hpp:77] Creating layer fc3_Wavy_Hair
I1017 12:34:13.681948 19517 net.cpp:91] Creating Layer fc3_Wavy_Hair
I1017 12:34:13.681953 19517 net.cpp:425] fc3_Wavy_Hair <- fc2_aroundhead_drop2_aroundhead_0_split_12
I1017 12:34:13.681962 19517 net.cpp:399] fc3_Wavy_Hair -> fc3_Wavy_Hair
I1017 12:34:13.682096 19517 net.cpp:141] Setting up fc3_Wavy_Hair
I1017 12:34:13.682106 19517 net.cpp:148] Top shape: 64 2 (128)
I1017 12:34:13.682111 19517 net.cpp:156] Memory required for data: 2455863416
I1017 12:34:13.682117 19517 layer_factory.hpp:77] Creating layer loss_Wavy_Hair
I1017 12:34:13.682126 19517 net.cpp:91] Creating Layer loss_Wavy_Hair
I1017 12:34:13.682132 19517 net.cpp:425] loss_Wavy_Hair <- fc3_Wavy_Hair
I1017 12:34:13.682137 19517 net.cpp:425] loss_Wavy_Hair <- label_Wavy_Hair
I1017 12:34:13.682143 19517 net.cpp:399] loss_Wavy_Hair -> loss_Wavy_Hair
I1017 12:34:13.682193 19517 net.cpp:141] Setting up loss_Wavy_Hair
I1017 12:34:13.682201 19517 net.cpp:148] Top shape: (1)
I1017 12:34:13.682206 19517 net.cpp:151]     with loss weight 1
I1017 12:34:13.682212 19517 net.cpp:156] Memory required for data: 2455863420
I1017 12:34:13.682216 19517 layer_factory.hpp:77] Creating layer fc3_5_o_Clock_Shadow
I1017 12:34:13.682224 19517 net.cpp:91] Creating Layer fc3_5_o_Clock_Shadow
I1017 12:34:13.682229 19517 net.cpp:425] fc3_5_o_Clock_Shadow <- fc2_facialhair_drop2_facialhair_0_split_0
I1017 12:34:13.682237 19517 net.cpp:399] fc3_5_o_Clock_Shadow -> fc3_5_o_Clock_Shadow
I1017 12:34:13.682381 19517 net.cpp:141] Setting up fc3_5_o_Clock_Shadow
I1017 12:34:13.682391 19517 net.cpp:148] Top shape: 64 2 (128)
I1017 12:34:13.682406 19517 net.cpp:156] Memory required for data: 2455863932
I1017 12:34:13.682413 19517 layer_factory.hpp:77] Creating layer loss_5_o_Clock_Shadow
I1017 12:34:13.682423 19517 net.cpp:91] Creating Layer loss_5_o_Clock_Shadow
I1017 12:34:13.682430 19517 net.cpp:425] loss_5_o_Clock_Shadow <- fc3_5_o_Clock_Shadow
I1017 12:34:13.682435 19517 net.cpp:425] loss_5_o_Clock_Shadow <- label_5_o_Clock_Shadow
I1017 12:34:13.682441 19517 net.cpp:399] loss_5_o_Clock_Shadow -> loss_5_o_Clock_Shadow
I1017 12:34:13.682494 19517 net.cpp:141] Setting up loss_5_o_Clock_Shadow
I1017 12:34:13.682503 19517 net.cpp:148] Top shape: (1)
I1017 12:34:13.682508 19517 net.cpp:151]     with loss weight 1
I1017 12:34:13.682514 19517 net.cpp:156] Memory required for data: 2455863936
I1017 12:34:13.682518 19517 layer_factory.hpp:77] Creating layer fc3_Mustache
I1017 12:34:13.682526 19517 net.cpp:91] Creating Layer fc3_Mustache
I1017 12:34:13.682531 19517 net.cpp:425] fc3_Mustache <- fc2_facialhair_drop2_facialhair_0_split_1
I1017 12:34:13.682543 19517 net.cpp:399] fc3_Mustache -> fc3_Mustache
I1017 12:34:13.682678 19517 net.cpp:141] Setting up fc3_Mustache
I1017 12:34:13.682688 19517 net.cpp:148] Top shape: 64 2 (128)
I1017 12:34:13.682693 19517 net.cpp:156] Memory required for data: 2455864448
I1017 12:34:13.682698 19517 layer_factory.hpp:77] Creating layer loss_Mustache
I1017 12:34:13.682708 19517 net.cpp:91] Creating Layer loss_Mustache
I1017 12:34:13.682713 19517 net.cpp:425] loss_Mustache <- fc3_Mustache
I1017 12:34:13.682718 19517 net.cpp:425] loss_Mustache <- label_Mustache
I1017 12:34:13.682724 19517 net.cpp:399] loss_Mustache -> loss_Mustache
I1017 12:34:13.682775 19517 net.cpp:141] Setting up loss_Mustache
I1017 12:34:13.682783 19517 net.cpp:148] Top shape: (1)
I1017 12:34:13.682787 19517 net.cpp:151]     with loss weight 1
I1017 12:34:13.682793 19517 net.cpp:156] Memory required for data: 2455864452
I1017 12:34:13.682798 19517 layer_factory.hpp:77] Creating layer fc3_No_Beard
I1017 12:34:13.682806 19517 net.cpp:91] Creating Layer fc3_No_Beard
I1017 12:34:13.682811 19517 net.cpp:425] fc3_No_Beard <- fc2_facialhair_drop2_facialhair_0_split_2
I1017 12:34:13.682818 19517 net.cpp:399] fc3_No_Beard -> fc3_No_Beard
I1017 12:34:13.682955 19517 net.cpp:141] Setting up fc3_No_Beard
I1017 12:34:13.682965 19517 net.cpp:148] Top shape: 64 2 (128)
I1017 12:34:13.682968 19517 net.cpp:156] Memory required for data: 2455864964
I1017 12:34:13.682976 19517 layer_factory.hpp:77] Creating layer loss_No_Beard
I1017 12:34:13.682986 19517 net.cpp:91] Creating Layer loss_No_Beard
I1017 12:34:13.682991 19517 net.cpp:425] loss_No_Beard <- fc3_No_Beard
I1017 12:34:13.682996 19517 net.cpp:425] loss_No_Beard <- label_No_Beard
I1017 12:34:13.683002 19517 net.cpp:399] loss_No_Beard -> loss_No_Beard
I1017 12:34:13.683053 19517 net.cpp:141] Setting up loss_No_Beard
I1017 12:34:13.683063 19517 net.cpp:148] Top shape: (1)
I1017 12:34:13.683066 19517 net.cpp:151]     with loss weight 1
I1017 12:34:13.683073 19517 net.cpp:156] Memory required for data: 2455864968
I1017 12:34:13.683076 19517 layer_factory.hpp:77] Creating layer fc3_Sideburns
I1017 12:34:13.683084 19517 net.cpp:91] Creating Layer fc3_Sideburns
I1017 12:34:13.683089 19517 net.cpp:425] fc3_Sideburns <- fc2_facialhair_drop2_facialhair_0_split_3
I1017 12:34:13.683097 19517 net.cpp:399] fc3_Sideburns -> fc3_Sideburns
I1017 12:34:13.683234 19517 net.cpp:141] Setting up fc3_Sideburns
I1017 12:34:13.683244 19517 net.cpp:148] Top shape: 64 2 (128)
I1017 12:34:13.683248 19517 net.cpp:156] Memory required for data: 2455865480
I1017 12:34:13.683255 19517 layer_factory.hpp:77] Creating layer loss_Sideburns
I1017 12:34:13.683265 19517 net.cpp:91] Creating Layer loss_Sideburns
I1017 12:34:13.683270 19517 net.cpp:425] loss_Sideburns <- fc3_Sideburns
I1017 12:34:13.683276 19517 net.cpp:425] loss_Sideburns <- label_Sideburns
I1017 12:34:13.683282 19517 net.cpp:399] loss_Sideburns -> loss_Sideburns
I1017 12:34:13.683332 19517 net.cpp:141] Setting up loss_Sideburns
I1017 12:34:13.683341 19517 net.cpp:148] Top shape: (1)
I1017 12:34:13.683354 19517 net.cpp:151]     with loss weight 1
I1017 12:34:13.683360 19517 net.cpp:156] Memory required for data: 2455865484
I1017 12:34:13.683365 19517 layer_factory.hpp:77] Creating layer fc3_Goatee
I1017 12:34:13.683372 19517 net.cpp:91] Creating Layer fc3_Goatee
I1017 12:34:13.683377 19517 net.cpp:425] fc3_Goatee <- fc2_facialhair_drop2_facialhair_0_split_4
I1017 12:34:13.683387 19517 net.cpp:399] fc3_Goatee -> fc3_Goatee
I1017 12:34:13.683523 19517 net.cpp:141] Setting up fc3_Goatee
I1017 12:34:13.683533 19517 net.cpp:148] Top shape: 64 2 (128)
I1017 12:34:13.683537 19517 net.cpp:156] Memory required for data: 2455865996
I1017 12:34:13.683544 19517 layer_factory.hpp:77] Creating layer loss_Goatee
I1017 12:34:13.683555 19517 net.cpp:91] Creating Layer loss_Goatee
I1017 12:34:13.683562 19517 net.cpp:425] loss_Goatee <- fc3_Goatee
I1017 12:34:13.683567 19517 net.cpp:425] loss_Goatee <- label_Goatee
I1017 12:34:13.683573 19517 net.cpp:399] loss_Goatee -> loss_Goatee
I1017 12:34:13.683624 19517 net.cpp:141] Setting up loss_Goatee
I1017 12:34:13.683632 19517 net.cpp:148] Top shape: (1)
I1017 12:34:13.683636 19517 net.cpp:151]     with loss weight 1
I1017 12:34:13.683642 19517 net.cpp:156] Memory required for data: 2455866000
I1017 12:34:13.683646 19517 layer_factory.hpp:77] Creating layer fc3_High_Cheekbones
I1017 12:34:13.683653 19517 net.cpp:91] Creating Layer fc3_High_Cheekbones
I1017 12:34:13.683658 19517 net.cpp:425] fc3_High_Cheekbones <- fc2_cheeks_drop2_cheeks_0_split_0
I1017 12:34:13.683667 19517 net.cpp:399] fc3_High_Cheekbones -> fc3_High_Cheekbones
I1017 12:34:13.683801 19517 net.cpp:141] Setting up fc3_High_Cheekbones
I1017 12:34:13.683810 19517 net.cpp:148] Top shape: 64 2 (128)
I1017 12:34:13.683815 19517 net.cpp:156] Memory required for data: 2455866512
I1017 12:34:13.683821 19517 layer_factory.hpp:77] Creating layer loss_High_Cheekbones
I1017 12:34:13.683831 19517 net.cpp:91] Creating Layer loss_High_Cheekbones
I1017 12:34:13.683837 19517 net.cpp:425] loss_High_Cheekbones <- fc3_High_Cheekbones
I1017 12:34:13.683842 19517 net.cpp:425] loss_High_Cheekbones <- label_High_Cheekbones
I1017 12:34:13.683850 19517 net.cpp:399] loss_High_Cheekbones -> loss_High_Cheekbones
I1017 12:34:13.683898 19517 net.cpp:141] Setting up loss_High_Cheekbones
I1017 12:34:13.683907 19517 net.cpp:148] Top shape: (1)
I1017 12:34:13.683912 19517 net.cpp:151]     with loss weight 1
I1017 12:34:13.683917 19517 net.cpp:156] Memory required for data: 2455866516
I1017 12:34:13.683922 19517 layer_factory.hpp:77] Creating layer fc3_Rosy_Cheeks
I1017 12:34:13.683928 19517 net.cpp:91] Creating Layer fc3_Rosy_Cheeks
I1017 12:34:13.683934 19517 net.cpp:425] fc3_Rosy_Cheeks <- fc2_cheeks_drop2_cheeks_0_split_1
I1017 12:34:13.683943 19517 net.cpp:399] fc3_Rosy_Cheeks -> fc3_Rosy_Cheeks
I1017 12:34:13.684073 19517 net.cpp:141] Setting up fc3_Rosy_Cheeks
I1017 12:34:13.684083 19517 net.cpp:148] Top shape: 64 2 (128)
I1017 12:34:13.684087 19517 net.cpp:156] Memory required for data: 2455867028
I1017 12:34:13.684093 19517 layer_factory.hpp:77] Creating layer loss_Rosy_Cheeks
I1017 12:34:13.684103 19517 net.cpp:91] Creating Layer loss_Rosy_Cheeks
I1017 12:34:13.684109 19517 net.cpp:425] loss_Rosy_Cheeks <- fc3_Rosy_Cheeks
I1017 12:34:13.684115 19517 net.cpp:425] loss_Rosy_Cheeks <- label_Rosy_Cheeks
I1017 12:34:13.684121 19517 net.cpp:399] loss_Rosy_Cheeks -> loss_Rosy_Cheeks
I1017 12:34:13.684171 19517 net.cpp:141] Setting up loss_Rosy_Cheeks
I1017 12:34:13.684180 19517 net.cpp:148] Top shape: (1)
I1017 12:34:13.684185 19517 net.cpp:151]     with loss weight 1
I1017 12:34:13.684190 19517 net.cpp:156] Memory required for data: 2455867032
I1017 12:34:13.684195 19517 layer_factory.hpp:77] Creating layer fc3_Chubby
I1017 12:34:13.684201 19517 net.cpp:91] Creating Layer fc3_Chubby
I1017 12:34:13.684207 19517 net.cpp:425] fc3_Chubby <- fc2_fat_drop2_fat_0_split_0
I1017 12:34:13.684218 19517 net.cpp:399] fc3_Chubby -> fc3_Chubby
I1017 12:34:13.684355 19517 net.cpp:141] Setting up fc3_Chubby
I1017 12:34:13.684365 19517 net.cpp:148] Top shape: 64 2 (128)
I1017 12:34:13.684378 19517 net.cpp:156] Memory required for data: 2455867544
I1017 12:34:13.684386 19517 layer_factory.hpp:77] Creating layer loss_Chubby
I1017 12:34:13.684396 19517 net.cpp:91] Creating Layer loss_Chubby
I1017 12:34:13.684401 19517 net.cpp:425] loss_Chubby <- fc3_Chubby
I1017 12:34:13.684406 19517 net.cpp:425] loss_Chubby <- label_Chubby
I1017 12:34:13.684415 19517 net.cpp:399] loss_Chubby -> loss_Chubby
I1017 12:34:13.684468 19517 net.cpp:141] Setting up loss_Chubby
I1017 12:34:13.684478 19517 net.cpp:148] Top shape: (1)
I1017 12:34:13.684483 19517 net.cpp:151]     with loss weight 1
I1017 12:34:13.684489 19517 net.cpp:156] Memory required for data: 2455867548
I1017 12:34:13.684492 19517 layer_factory.hpp:77] Creating layer fc3_Double_Chin
I1017 12:34:13.684500 19517 net.cpp:91] Creating Layer fc3_Double_Chin
I1017 12:34:13.684505 19517 net.cpp:425] fc3_Double_Chin <- fc2_fat_drop2_fat_0_split_1
I1017 12:34:13.684514 19517 net.cpp:399] fc3_Double_Chin -> fc3_Double_Chin
I1017 12:34:13.685487 19517 net.cpp:141] Setting up fc3_Double_Chin
I1017 12:34:13.685513 19517 net.cpp:148] Top shape: 64 2 (128)
I1017 12:34:13.685518 19517 net.cpp:156] Memory required for data: 2455868060
I1017 12:34:13.685524 19517 layer_factory.hpp:77] Creating layer loss_Double_Chin
I1017 12:34:13.685536 19517 net.cpp:91] Creating Layer loss_Double_Chin
I1017 12:34:13.685541 19517 net.cpp:425] loss_Double_Chin <- fc3_Double_Chin
I1017 12:34:13.685547 19517 net.cpp:425] loss_Double_Chin <- label_Double_Chin
I1017 12:34:13.685554 19517 net.cpp:399] loss_Double_Chin -> loss_Double_Chin
…
