…
    slice_point: 24
    slice_point: 26
    slice_point: 28
    slice_point: 30
    slice_point: 32
    slice_point: 34
    slice_point: 36
    slice_point: 38
    slice_point: 40
    slice_point: 42
    slice_point: 44
    slice_point: 46
    slice_point: 48
    slice_point: 50
    slice_point: 52
    slice_point: 54
    slice_point: 56
    slice_point: 58
    slice_point: 60
    slice_point: 62
    slice_point: 64
    slice_point: 66
    slice_point: 68
    slice_point: 70
    slice_point: 72
    slice_point: 74
    slice_point: 76
    slice_point: 78
  }
}
layer {
  name: "conv1_bn"
  type: "BatchNorm"
  bottom: "conv1"
  top: "conv1"
  batch_norm_param {
    use_global_stats: false
  }
}
layer {
  name: "conv1_scale"
  type: "Scale"
  bottom: "conv1"
  top: "conv1"
  scale_param {
    bias_term: true
  }
}
layer {
  name: "prelu1"
  type: "PReLU"
  bottom: "conv1"
  top: "conv1"
}
layer {
  name: "pool1"
  type: "Pooling"
  bottom: "conv1"
  top: "pool1"
  pooling_param {
    pool: MAX
    kernel_size: 2
    stride: 2
  }
}
layer {
  name: "conv2a"
  type: "Convolution"
  bottom: "pool1"
  top: "conv2a"
  param {
    name: "conv2a_w"
    lr_mult: 1
    decay_mult: 1
  }
  param {
    name: "conv2a_b"
    lr_mult: 2
    decay_mult: 0
  }
  convolution_param {
    num_output: 64
    kernel_size: 1
    weight_filler {
      type: "xavier"
    }
    bias_filler {
      type: "constant"
      value: 0.2
    }
  }
}
layer {
  name: "conv2a_bn"
  type: "BatchNorm"
  bottom: "conv2a"
  top: "conv2a"
  batch_norm_param {
    use_global_stats: false
  }
}
layer {
  name: "conv2a_scale"
  type: "Scale"
  bottom: "conv2a"
  top: "conv2a"
  scale_param {
    bias_term: true
  }
}
layer {
  name: "prelu2a"
  type: "PReLU"
  bottom: "conv2a"
  top: "conv2a"
}
layer {
  name: "conv2"
  type: "Convolution"
  bottom: "conv2a"
  top: "conv2"
  param {
    name: "conv2_w"
    lr_mult: 1
    decay_mult: 1
  }
  param {
    name: "conv2_b"
    lr_mult: 2
    decay_mult: 0
  }
  convolution_param {
    num_output: 192
    pad: 1
    kernel_size: 3
    stride: 1
    weight_filler {
      type: "xavier"
    }
    bias_filler {
      type: "constant"
      value: 0.2
    }
  }
}
layer {
  name: "conv2_bn"
  type: "BatchNorm"
  bottom: "conv2"
  top: "conv2"
  batch_norm_param {
    use_global_stats: false
  }
}
layer {
  name: "conv2_scale"
  type: "Scale"
  bottom: "conv2"
  top: "conv2"
  scale_param {
    bias_term: true
  }
}
layer {
  name: "prelu2"
  type: "PReLU"
  bottom: "conv2"
  top: "conv2"
}
layer {
  name: "pool2"
  type: "Pooling"
  bottom: "conv2"
  top: "pool2"
  pooling_param {
    pool: MAX
    kernel_size: 2
    stride: 2
  }
}
layer {
  name: "conv3a"
  type: "Convolution"
  bottom: "pool2"
  top: "conv3a"
  param {
    name: "conv3a_w"
    lr_mult: 1
    decay_mult: 1
  }
  param {
    name: "conv3a_b"
    lr_mult: 2
    decay_mult: 0
  }
  convolution_param {
    num_output: 192
    kernel_size: 1
    weight_filler {
      type: "xavier"
    }
    bias_filler {
      type: "constant"
      value: 0.2
    }
  }
}
layer {
  name: "conv3a_bn"
  type: "BatchNorm"
  bottom: "conv3a"
  top: "conv3a"
  batch_norm_param {
    use_global_stats: false
  }
}
layer {
  name: "conv3a_scale"
  type: "Scale"
  bottom: "conv3a"
  top: "conv3a"
  scale_param {
    bias_term: true
  }
}
layer {
  name: "prelu3a"
  type: "PReLU"
  bottom: "conv3a"
  top: "conv3a"
}
layer {
  name: "conv3"
  type: "Convolution"
  bottom: "conv3a"
  top: "conv3"
  param {
    name: "conv3_w"
    lr_mult: 1
    decay_mult: 1
  }
  param {
    name: "conv3_b"
    lr_mult: 2
    decay_mult: 0
  }
  convolution_param {
    num_output: 384
    pad: 1
    kernel_size: 3
    stride: 1
    weight_filler {
      type: "xavier"
    }
    bias_filler {
      type: "constant"
      value: 0.2
    }
  }
}
layer {
  name: "conv3_bn"
  type: "BatchNorm"
  bottom: "conv3"
  top: "conv3"
  batch_norm_param {
    use_global_stats: false
  }
}
layer {
  name: "conv3_scale"
  type: "Scale"
  bottom: "conv3"
  top: "conv3"
  scale_param {
    bias_term: true
  }
}
layer {
  name: "prelu3"
  type: "PReLU"
  bottom: "conv3"
  top: "conv3"
}
layer {
  name: "pool3"
  type: "Pooling"
  bottom: "conv3"
  top: "pool3"
  pooling_param {
    pool: MAX
    kernel_size: 2
    stride: 2
  }
}
layer {
  name: "conv3_gender"
  type: "Convolution"
  bottom: "pool3"
  top: "conv3_gender"
  param {
    lr_mult: 1
    decay_mult: 1
  }
  param {
    lr_mult: 2
    decay_mult: 0
  }
  convolution_param {
    num_output: 300
    pad: 1
    kernel_size: 3
    stride: 2
    weight_filler {
      type: "xavier"
    }
    bias_filler {
      type: "constant"
      value: 0.2
    }
  }
}
layer {
  name: "conv3_gender_bn"
  type: "BatchNorm"
  bottom: "conv3_gender"
  top: "conv3_gender"
  batch_norm_param {
    use_global_stats: false
  }
}
layer {
  name: "conv3_gender_scale"
  type: "Scale"
  bottom: "conv3_gender"
  top: "conv3_gender"
  scale_param {
    bias_term: true
  }
}
layer {
  name: "prelu3_gender"
  type: "PReLU"
  bottom: "conv3_gender"
  top: "conv3_gender"
}
layer {
  name: "pool3_gender"
  type: "Pooling"
  bottom: "conv3_gender"
  top: "pool3_gender"
  pooling_param {
    pool: MAX
    kernel_size: 5
    stride: 2
    pad: 2
  }
}
layer {
  name: "fc1_gender"
  type: "InnerProduct"
  bottom: "pool3_gender"
  top: "fc1_gender"
  param {
    lr_mult: 1
    decay_mult: 1
  }
  param {
    lr_mult: 2
    decay_mult: 0
  }
  inner_product_param {
    num_output: 512
    weight_filler {
      type: "xavier"
    }
    bias_filler {
      type: "constant"
      value: 0.2
    }
  }
}
layer {
  name: "relu1_gender"
  type: "ReLU"
  bottom: "fc1_gender"
  top: "fc1_gender"
}
layer {
  name: "drop1_gender"
  type: "Dropout"
  bottom: "fc1_gender"
  top: "fc1_gender"
  dropout_param {
    dropout_ratio: 0.5
  }
}
layer {
  name: "fc2_gender"
  type: "InnerProduct"
  bottom: "fc1_gender"
  top: "fc2_gender"
  param {
    lr_mult: 1
    decay_mult: 1
  }
  param {
    lr_mult: 2
    decay_mult: 0
  }
  inner_product_param {
    num_output: 512
    weight_filler {
      type: "xavier"
    }
    bias_filler {
      type: "constant"
      value: 0.2
    }
  }
}
layer {
  name: "relu2_gender"
  type: "ReLU"
  bottom: "fc2_gender"
  top: "fc2_gender"
}
layer {
  name: "drop2_gender"
  type: "Dropout"
  bottom: "fc2_gender"
  top: "fc2_gender"
  dropout_param {
    dropout_ratio: 0.5
  }
}
layer {
  name: "conv3_nose"
  type: "Convolution"
  bottom: "pool3"
  top: "conv3_nose"
  param {
    lr_mult: 1
    decay_mult: 1
  }
  param {
    lr_mult: 2
    decay_mult: 0
  }
  convolution_param {
    num_output: 300
    pad: 1
    kernel_size: 3
    stride: 2
    weight_filler {
      type: "xavier"
    }
    bias_filler {
      type: "constant"
      value: 0.2
    }
  }
}
layer {
  name: "conv3_nose_bn"
  type: "BatchNorm"
  bottom: "conv3_nose"
  top: "conv3_nose"
  batch_norm_param {
    use_global_stats: false
  }
}
layer {
  name: "conv3_nose_scale"
  type: "Scale"
  bottom: "conv3_nose"
  top: "conv3_nose"
  scale_param {
    bias_term: true
  }
}
layer {
  name: "prelu3_nose"
  type: "PReLU"
  bottom: "conv3_nose"
  top: "conv3_nose"
}
layer {
  name: "pool3_nose"
  type: "Pooling"
  bottom: "conv3_nose"
  top: "pool3_nose"
  pooling_param {
    pool: MAX
    kernel_size: 5
    stride: 2
    pad: 2
  }
}
layer {
  name: "fc1_nose"
  type: "InnerProduct"
  bottom: "pool3_nose"
  top: "fc1_nose"
  param {
    lr_mult: 1
    decay_mult: 1
  }
  param {
    lr_mult: 2
    decay_mult: 0
  }
  inner_product_param {
    num_output: 512
    weight_filler {
      type: "xavier"
    }
    bias_filler {
      type: "constant"
      value: 0.2
    }
  }
}
layer {
  name: "relu1_nose"
  type: "ReLU"
  bottom: "fc1_nose"
  top: "fc1_nose"
}
layer {
  name: "drop1_nose"
  type: "Dropout"
  bottom: "fc1_nose"
  top: "fc1_nose"
  dropout_param {
    dropout_ratio: 0.5
  }
}
layer {
  name: "fc2_nose"
  type: "InnerProduct"
  bottom: "fc1_nose"
  top: "fc2_nose"
  param {
    lr_mult: 1
    decay_mult: 1
  }
  param {
    lr_mult: 2
    decay_mult: 0
  }
  inner_product_param {
    num_output: 512
    weight_filler {
      type: "xavier"
    }
    bias_filler {
      type: "constant"
      value: 0.2
    }
  }
}
layer {
  name: "relu2_nose"
  type: "ReLU"
  bottom: "fc2_nose"
  top: "fc2_nose"
}
layer {
  name: "drop2_nose"
  type: "Dropout"
  bottom: "fc2_nose"
  top: "fc2_nose"
  dropout_param {
    dropout_ratio: 0.5
  }
}
layer {
  name: "conv3_mouth"
  type: "Convolution"
  bottom: "pool3"
  top: "conv3_mouth"
  param {
    lr_mult: 1
    decay_mult: 1
  }
  param {
    lr_mult: 2
    decay_mult: 0
  }
  convolution_param {
    num_output: 300
    pad: 1
    kernel_size: 3
    stride: 2
    weight_filler {
      type: "xavier"
    }
    bias_filler {
      type: "constant"
      value: 0.2
    }
  }
}
layer {
  name: "conv3_mouth_bn"
  type: "BatchNorm"
  bottom: "conv3_mouth"
  top: "conv3_mouth"
  batch_norm_param {
    use_global_stats: false
  }
}
layer {
  name: "conv3_mouth_scale"
  type: "Scale"
  bottom: "conv3_mouth"
  top: "conv3_mouth"
  scale_param {
    bias_term: true
  }
}
layer {
  name: "prelu3_mouth"
  type: "PReLU"
  bottom: "conv3_mouth"
  top: "conv3_mouth"
}
layer {
  name: "pool3_mouth"
  type: "Pooling"
  bottom: "conv3_mouth"
  top: "pool3_mouth"
  pooling_param {
    pool: MAX
    kernel_size: 5
    stride: 2
    pad: 2
  }
}
layer {
  name: "fc1_mouth"
  type: "InnerProduct"
  bottom: "pool3_mouth"
  top: "fc1_mouth"
  param {
    lr_mult: 1
    decay_mult: 1
  }
  param {
    lr_mult: 2
    decay_mult: 0
  }
  inner_product_param {
    num_output: 512
    weight_filler {
      type: "xavier"
    }
    bias_filler {
      type: "constant"
      value: 0.2
    }
  }
}
layer {
  name: "relu1_mouth"
  type: "ReLU"
  bottom: "fc1_mouth"
  top: "fc1_mouth"
}
layer {
  name: "drop1_mouth"
  type: "Dropout"
  bottom: "fc1_mouth"
  top: "fc1_mouth"
  dropout_param {
    dropout_ratio: 0.5
  }
}
layer {
  name: "fc2_mouth"
  type: "InnerProduct"
  bottom: "fc1_mouth"
  top: "fc2_mouth"
  param {
    lr_mult: 1
    decay_mult: 1
  }
  param {
    lr_mult: 2
    decay_mult: 0
  }
  inner_product_param {
    num_output: 512
    weight_filler {
      type: "xavier"
    }
    bias_filler {
      type: "constant"
      value: 0.2
    }
  }
}
layer {
  name: "relu2_mouth"
  type: "ReLU"
  bottom: "fc2_mouth"
  top: "fc2_mouth"
}
layer {
  name: "drop2_mouth"
  type: "Dropout"
  bottom: "fc2_mouth"
  top: "fc2_mouth"
  dropout_param {
    dropout_ratio: 0.5
  }
}
layer {
  name: "conv3_eyes"
  type: "Convolution"
  bottom: "pool3"
  top: "conv3_eyes"
  param {
    lr_mult: 1
    decay_mult: 1
  }
  param {
    lr_mult: 2
    decay_mult: 0
  }
  convolution_param {
    num_output: 300
    pad: 1
    kernel_size: 3
    stride: 2
    weight_filler {
      type: "xavier"
    }
    bias_filler {
      type: "constant"
      value: 0.2
    }
  }
}
layer {
  name: "conv3_eyes_bn"
  type: "BatchNorm"
  bottom: "conv3_eyes"
  top: "conv3_eyes"
  batch_norm_param {
    use_global_stats: false
  }
}
layer {
  name: "conv3_eyes_scale"
  type: "Scale"
  bottom: "conv3_eyes"
  top: "conv3_eyes"
  scale_param {
    bias_term: true
  }
}
layer {
  name: "prelu3_eyes"
  type: "PReLU"
  bottom: "conv3_eyes"
  top: "conv3_eyes"
}
layer {
  name: "pool3_eyes"
  type: "Pooling"
  bottom: "conv3_eyes"
  top: "pool3_eyes"
  pooling_param {
    pool: MAX
    kernel_size: 5
    stride: 2
    pad: 2
  }
}
layer {
  name: "fc1_eyes"
  type: "InnerProduct"
  bottom: "pool3_eyes"
  top: "fc1_eyes"
  param {
    lr_mult: 1
    decay_mult: 1
  }
  param {
    lr_mult: 2
    decay_mult: 0
  }
  inner_product_param {
    num_output: 512
    weight_filler {
      type: "xavier"
    }
    bias_filler {
      type: "constant"
      value: 0.2
    }
  }
}
layer {
  name: "relu1_eyes"
  type: "ReLU"
  bottom: "fc1_eyes"
  top: "fc1_eyes"
}
layer {
  name: "drop1_eyes"
  type: "Dropout"
  bottom: "fc1_eyes"
  top: "fc1_eyes"
  dropout_param {
    dropout_ratio: 0.5
  }
}
layer {
  name: "fc2_eyes"
  type: "InnerProduct"
  bottom: "fc1_eyes"
  top: "fc2_eyes"
  param {
    lr_mult: 1
    decay_mult: 1
  }
  param {
    lr_mult: 2
    decay_mult: 0
  }
  inner_product_param {
    num_output: 512
    weight_filler {
      type: "xavier"
    }
    bias_filler {
      type: "constant"
      value: 0.2
    }
  }
}
layer {
  name: "relu2_eyes"
  type: "ReLU"
  bottom: "fc2_eyes"
  top: "fc2_eyes"
}
layer {
  name: "drop2_eyes"
  type: "Dropout"
  bottom: "fc2_eyes"
  top: "fc2_eyes"
  dropout_param {
    dropout_ratio: 0.5
  }
}
layer {
  name: "conv3_face"
  type: "Convolution"
  bottom: "pool3"
  top: "conv3_face"
  param {
    lr_mult: 1
    decay_mult: 1
  }
  param {
    lr_mult: 2
    decay_mult: 0
  }
  convolution_param {
    num_output: 300
    pad: 1
    kernel_size: 3
    stride: 2
    weight_filler {
      type: "xavier"
    }
    bias_filler {
      type: "constant"
      value: 0.2
    }
  }
}
layer {
  name: "conv3_face_bn"
  type: "BatchNorm"
  bottom: "conv3_face"
  top: "conv3_face"
  batch_norm_param {
    use_global_stats: false
  }
}
layer {
  name: "conv3_face_scale"
  type: "Scale"
  bottom: "conv3_face"
  top: "conv3_face"
  scale_param {
    bias_term: true
  }
}
layer {
  name: "prelu3_face"
  type: "PReLU"
  bottom: "conv3_face"
  top: "conv3_face"
}
layer {
  name: "pool3_face"
  type: "Pooling"
  bottom: "conv3_face"
  top: "pool3_face"
  pooling_param {
    pool: MAX
    kernel_size: 5
    stride: 2
    pad: 2
  }
}
layer {
  name: "fc1_face"
  type: "InnerProduct"
  bottom: "pool3_face"
  top: "fc1_face"
  param {
    lr_mult: 1
    decay_mult: 1
  }
  param {
    lr_mult: 2
    decay_mult: 0
  }
  inner_product_param {
    num_output: 512
    weight_filler {
      type: "xavier"
    }
    bias_filler {
      type: "constant"
      value: 0.2
    }
  }
}
layer {
  name: "relu1_face"
  type: "ReLU"
  bottom: "fc1_face"
  top: "fc1_face"
}
layer {
  name: "drop1_face"
  type: "Dropout"
  bottom: "fc1_face"
  top: "fc1_face"
  dropout_param {
    dropout_ratio: 0.5
  }
}
layer {
  name: "fc2_face"
  type: "InnerProduct"
  bottom: "fc1_face"
  top: "fc2_face"
  param {
    lr_mult: 1
    decay_mult: 1
  }
  param {
    lr_mult: 2
    decay_mult: 0
  }
  inner_product_param {
    num_output: 512
    weight_filler {
      type: "xavier"
    }
    bias_filler {
      type: "constant"
      value: 0.2
    }
  }
}
layer {
  name: "relu2_face"
  type: "ReLU"
  bottom: "fc2_face"
  top: "fc2_face"
}
layer {
  name: "drop2_face"
  type: "Dropout"
  bottom: "fc2_face"
  top: "fc2_face"
  dropout_param {
    dropout_ratio: 0.5
  }
}
layer {
  name: "conv3_rest"
  type: "Convolution"
  bottom: "pool3"
  top: "conv3_rest"
  param {
    lr_mult: 1
    decay_mult: 1
  }
  param {
    lr_mult: 2
    decay_mult: 0
  }
  convolution_param {
    num_output: 300
    pad: 1
    kernel_size: 3
    stride: 2
    weight_filler {
      type: "xavier"
    }
    bias_filler {
      type: "constant"
      value: 0.2
    }
  }
}
layer {
  name: "conv3_rest_bn"
  type: "BatchNorm"
  bottom: "conv3_rest"
  top: "conv3_rest"
  batch_norm_param {
    use_global_stats: false
  }
}
layer {
  name: "conv3_rest_scale"
  type: "Scale"
  bottom: "conv3_rest"
  top: "conv3_rest"
  scale_param {
    bias_term: true
  }
}
layer {
  name: "prelu3_rest"
  type: "PReLU"
  bottom: "conv3_rest"
  top: "conv3_rest"
}
layer {
  name: "pool3_rest"
  type: "Pooling"
  bottom: "conv3_rest"
  top: "pool3_rest"
  pooling_param {
    pool: MAX
    kernel_size: 5
    stride: 2
    pad: 2
  }
}
layer {
  name: "fc1_aroundhead"
  type: "InnerProduct"
  bottom: "pool3_rest"
  top: "fc1_aroundhead"
  param {
    lr_mult: 1
    decay_mult: 1
  }
  param {
    lr_mult: 2
    decay_mult: 0
  }
  inner_product_param {
    num_output: 512
    weight_filler {
      type: "xavier"
    }
    bias_filler {
      type: "constant"
      value: 0.2
    }
  }
}
layer {
  name: "relu1_aroundhead"
  type: "ReLU"
  bottom: "fc1_aroundhead"
  top: "fc1_aroundhead"
}
layer {
  name: "drop1_aroundhead"
  type: "Dropout"
  bottom: "fc1_aroundhead"
  top: "fc1_aroundhead"
  dropout_param {
    dropout_ratio: 0.5
  }
}
layer {
  name: "fc2_aroundhead"
  type: "InnerProduct"
  bottom: "fc1_aroundhead"
  top: "fc2_aroundhead"
  param {
    lr_mult: 1
    decay_mult: 1
  }
  param {
    lr_mult: 2
    decay_mult: 0
  }
  inner_product_param {
    num_output: 512
    weight_filler {
      type: "xavier"
    }
    bias_filler {
      type: "constant"
      value: 0.2
    }
  }
}
layer {
  name: "relu2_aroundhead"
  type: "ReLU"
  bottom: "fc2_aroundhead"
  top: "fc2_aroundhead"
}
layer {
  name: "drop2_aroundhead"
  type: "Dropout"
  bottom: "fc2_aroundhead"
  top: "fc2_aroundhead"
  dropout_param {
    dropout_ratio: 0.5
  }
}
layer {
  name: "fc1_facialhair"
  type: "InnerProduct"
  bottom: "pool3_rest"
  top: "fc1_facialhair"
  param {
    lr_mult: 1
    decay_mult: 1
  }
  param {
    lr_mult: 2
    decay_mult: 0
  }
  inner_product_param {
    num_output: 512
    weight_filler {
      type: "xavier"
    }
    bias_filler {
      type: "constant"
      value: 0.2
    }
  }
}
layer {
  name: "relu1_facialhair"
  type: "ReLU"
  bottom: "fc1_facialhair"
  top: "fc1_facialhair"
}
layer {
  name: "drop1_facialhair"
  type: "Dropout"
  bottom: "fc1_facialhair"
  top: "fc1_facialhair"
  dropout_param {
    dropout_ratio: 0.5
  }
}
layer {
  name: "fc2_facialhair"
  type: "InnerProduct"
  bottom: "fc1_facialhair"
  top: "fc2_facialhair"
  param {
    lr_mult: 1
    decay_mult: 1
  }
  param {
    lr_mult: 2
    decay_mult: 0
  }
  inner_product_param {
    num_output: 512
    weight_filler {
      type: "xavier"
    }
    bias_filler {
      type: "constant"
      value: 0.2
    }
  }
}
layer {
  name: "relu2_facialhair"
  type: "ReLU"
  bottom: "fc2_facialhair"
  top: "fc2_facialhair"
}
layer {
  name: "drop2_facialhair"
  type: "Dropout"
  bottom: "fc2_facialhair"
  top: "fc2_facialhair"
  dropout_param {
    dropout_ratio: 0.5
  }
}
layer {
  name: "fc1_cheeks"
  type: "InnerProduct"
  bottom: "pool3_rest"
  top: "fc1_cheeks"
  param {
    lr_mult: 1
    decay_mult: 1
  }
  param {
    lr_mult: 2
    decay_mult: 0
  }
  inner_product_param {
    num_output: 512
    weight_filler {
      type: "xavier"
    }
    bias_filler {
      type: "constant"
      value: 0.2
    }
  }
}
layer {
  name: "relu1_cheeks"
  type: "ReLU"
  bottom: "fc1_cheeks"
  top: "fc1_cheeks"
}
layer {
  name: "drop1_cheeks"
  type: "Dropout"
  bottom: "fc1_cheeks"
  top: "fc1_cheeks"
  dropout_param {
    dropout_ratio: 0.5
  }
}
layer {
  name: "fc2_cheeks"
  type: "InnerProduct"
  bottom: "fc1_cheeks"
  top: "fc2_cheeks"
  param {
    lr_mult: 1
    decay_mult: 1
  }
  param {
    lr_mult: 2
    decay_mult: 0
  }
  inner_product_param {
    num_output: 512
    weight_filler {
      type: "xavier"
    }
    bias_filler {
      type: "constant"
      value: 0.2
    }
  }
}
layer {
  name: "relu2_cheeks"
  type: "ReLU"
  bottom: "fc2_cheeks"
  top: "fc2_cheeks"
}
layer {
  name: "drop2_cheeks"
  type: "Dropout"
  bottom: "fc2_cheeks"
  top: "fc2_cheeks"
  dropout_param {
    dropout_ratio: 0.5
  }
}
layer {
  name: "fc1_fat"
  type: "InnerProduct"
  bottom: "pool3_rest"
  top: "fc1_fat"
  param {
    lr_mult: 1
    decay_mult: 1
  }
  param {
    lr_mult: 2
    decay_mult: 0
  }
  inner_product_param {
    num_output: 512
    weight_filler {
      type: "xavier"
    }
    bias_filler {
      type: "constant"
      value: 0.2
    }
  }
}
layer {
  name: "relu1_fat"
  type: "ReLU"
  bottom: "fc1_fat"
  top: "fc1_fat"
}
layer {
  name: "drop1_fat"
  type: "Dropout"
  bottom: "fc1_fat"
  top: "fc1_fat"
  dropout_param {
    dropout_ratio: 0.5
  }
}
layer {
  name: "fc2_fat"
  type: "InnerProduct"
  bottom: "fc1_fat"
  top: "fc2_fat"
  param {
    lr_mult: 1
    decay_mult: 1
  }
  param {
    lr_mult: 2
    decay_mult: 0
  }
  inner_product_param {
    num_output: 512
    weight_filler {
      type: "xavier"
    }
    bias_filler {
      type: "constant"
      value: 0.2
    }
  }
}
layer {
  name: "relu2_fat"
  type: "ReLU"
  bottom: "fc2_fat"
  top: "fc2_fat"
}
layer {
  name: "drop2_fat"
  type: "Dropout"
  bottom: "fc2_fat"
  top: "fc2_fat"
  dropout_param {
    dropout_ratio: 0.5
  }
}
layer {
  name: "fc3_Male"
  type: "InnerProduct"
  bottom: "fc2_gender"
  top: "fc3_Male"
  inner_product_param {
    num_output: 2
    weight_filler {
      type: "xavier"
    }
    bias_filler {
      type: "constant"
      value: 0
    }
  }
}
layer {
  name: "loss_Male"
  type: "SigmoidCrossEntropyLoss"
  bottom: "fc3_Male"
  bottom: "label_Male"
  top: "loss_Male"
}
layer {
  name: "fc3_Big_Nose"
  type: "InnerProduct"
  bottom: "fc2_nose"
  top: "fc3_Big_Nose"
  inner_product_param {
    num_output: 2
    weight_filler {
      type: "xavier"
    }
    bias_filler {
      type: "constant"
      value: 0
    }
  }
}
layer {
  name: "loss_Big_Nose"
  type: "SigmoidCrossEntropyLoss"
  bottom: "fc3_Big_Nose"
  bottom: "label_Big_Nose"
  top: "loss_Big_Nose"
}
layer {
  name: "fc3_Pointy_Nose"
  type: "InnerProduct"
  bottom: "fc2_nose"
  top: "fc3_Pointy_Nose"
  inner_product_param {
    num_output: 2
    weight_filler {
      type: "xavier"
    }
    bias_filler {
      type: "constant"
      value: 0
    }
  }
}
layer {
  name: "loss_Pointy_Nose"
  type: "SigmoidCrossEntropyLoss"
  bottom: "fc3_Pointy_Nose"
  bottom: "label_Pointy_Nose"
  top: "loss_Pointy_Nose"
}
layer {
  name: "fc3_Big_Lips"
  type: "InnerProduct"
  bottom: "fc2_mouth"
  top: "fc3_Big_Lips"
  inner_product_param {
    num_output: 2
    weight_filler {
      type: "xavier"
    }
    bias_filler {
      type: "constant"
      value: 0
    }
  }
}
layer {
  name: "loss_Big_Lips"
  type: "SigmoidCrossEntropyLoss"
  bottom: "fc3_Big_Lips"
  bottom: "label_Big_Lips"
  top: "loss_Big_Lips"
}
layer {
  name: "fc3_Smiling"
  type: "InnerProduct"
  bottom: "fc2_mouth"
  top: "fc3_Smiling"
  inner_product_param {
    num_output: 2
    weight_filler {
      type: "xavier"
    }
    bias_filler {
      type: "constant"
      value: 0
    }
  }
}
layer {
  name: "loss_Smiling"
  type: "SigmoidCrossEntropyLoss"
  bottom: "fc3_Smiling"
  bottom: "label_Smiling"
  top: "loss_Smiling"
}
layer {
  name: "fc3_Wearing_Lipstick"
  type: "InnerProduct"
  bottom: "fc2_mouth"
  top: "fc3_Wearing_Lipstick"
  inner_product_param {
    num_output: 2
    weight_filler {
      type: "xavier"
    }
    bias_filler {
      type: "constant"
      value: 0
    }
  }
}
layer {
  name: "loss_Wearing_Lipstick"
  type: "SigmoidCrossEntropyLoss"
  bottom: "fc3_Wearing_Lipstick"
  bottom: "label_Wearing_Lipstick"
  top: "loss_Wearing_Lipstick"
}
layer {
  name: "fc3_Mouth_Slightly_Open"
  type: "InnerProduct"
  bottom: "fc2_mouth"
  top: "fc3_Mouth_Slightly_Open"
  inner_product_param {
    num_output: 2
    weight_filler {
      type: "xavier"
    }
    bias_filler {
      type: "constant"
      value: 0
    }
  }
}
layer {
  name: "loss_Mouth_Slightly_Open"
  type: "SigmoidCrossEntropyLoss"
  bottom: "fc3_Mouth_Slightly_Open"
  bottom: "label_Mouth_Slightly_Open"
  top: "loss_Mouth_Slightly_Open"
}
layer {
  name: "fc3_Arched_Eyebrows"
  type: "InnerProduct"
  bottom: "fc2_eyes"
  top: "fc3_Arched_Eyebrows"
  inner_product_param {
    num_output: 2
    weight_filler {
      type: "xavier"
    }
    bias_filler {
      type: "constant"
      value: 0
    }
  }
}
layer {
  name: "loss_Arched_Eyebrows"
  type: "SigmoidCrossEntropyLoss"
  bottom: "fc3_Arched_Eyebrows"
  bottom: "label_Arched_Eyebrows"
  top: "loss_Arched_Eyebrows"
}
layer {
  name: "fc3_Bags_Under_Eyes"
  type: "InnerProduct"
  bottom: "fc2_eyes"
  top: "fc3_Bags_Under_Eyes"
  inner_product_param {
    num_output: 2
    weight_filler {
      type: "xavier"
    }
    bias_filler {
      type: "constant"
      value: 0
    }
  }
}
layer {
  name: "loss_Bags_Under_Eyes"
  type: "SigmoidCrossEntropyLoss"
  bottom: "fc3_Bags_Under_Eyes"
  bottom: "label_Bags_Under_Eyes"
  top: "loss_Bags_Under_Eyes"
}
layer {
  name: "fc3_Bushy_Eyebrows"
  type: "InnerProduct"
  bottom: "fc2_eyes"
  top: "fc3_Bushy_Eyebrows"
  inner_product_param {
    num_output: 2
    weight_filler {
      type: "xavier"
    }
    bias_filler {
      type: "constant"
      value: 0
    }
  }
}
layer {
  name: "loss_Bushy_Eyebrows"
  type: "SigmoidCrossEntropyLoss"
  bottom: "fc3_Bushy_Eyebrows"
  bottom: "label_Bushy_Eyebrows"
  top: "loss_Bushy_Eyebrows"
}
layer {
  name: "fc3_Narrow_Eyes"
  type: "InnerProduct"
  bottom: "fc2_eyes"
  top: "fc3_Narrow_Eyes"
  inner_product_param {
    num_output: 2
    weight_filler {
      type: "xavier"
    }
    bias_filler {
      type: "constant"
      value: 0
    }
  }
}
layer {
  name: "loss_Narrow_Eyes"
  type: "SigmoidCrossEntropyLoss"
  bottom: "fc3_Narrow_Eyes"
  bottom: "label_Narrow_Eyes"
  top: "loss_Narrow_Eyes"
}
layer {
  name: "fc3_Eyeglasses"
  type: "InnerProduct"
  bottom: "fc2_eyes"
  top: "fc3_Eyeglasses"
  inner_product_param {
    num_output: 2
    weight_filler {
      type: "xavier"
    }
    bias_filler {
      type: "constant"
      value: 0
    }
  }
}
layer {
  name: "loss_Eyeglasses"
  type: "SigmoidCrossEntropyLoss"
  bottom: "fc3_Eyeglasses"
  bottom: "label_Eyeglasses"
  top: "loss_Eyeglasses"
}
layer {
  name: "fc3_Attractive"
  type: "InnerProduct"
  bottom: "fc2_face"
  top: "fc3_Attractive"
  inner_product_param {
    num_output: 2
    weight_filler {
      type: "xavier"
    }
    bias_filler {
      type: "constant"
      value: 0
    }
  }
}
layer {
  name: "loss_Attractive"
  type: "SigmoidCrossEntropyLoss"
  bottom: "fc3_Attractive"
  bottom: "label_Attractive"
  top: "loss_Attractive"
}
layer {
  name: "fc3_Blurry"
  type: "InnerProduct"
  bottom: "fc2_face"
  top: "fc3_Blurry"
  inner_product_param {
    num_output: 2
    weight_filler {
      type: "xavier"
    }
    bias_filler {
      type: "constant"
      value: 0
    }
  }
}
layer {
  name: "loss_Blurry"
  type: "SigmoidCrossEntropyLoss"
  bottom: "fc3_Blurry"
  bottom: "label_Blurry"
  top: "loss_Blurry"
}
layer {
  name: "fc3_Oval_Face"
  type: "InnerProduct"
  bottom: "fc2_face"
  top: "fc3_Oval_Face"
  inner_product_param {
    num_output: 2
    weight_filler {
      type: "xavier"
    }
    bias_filler {
      type: "constant"
      value: 0
    }
  }
}
layer {
  name: "loss_Oval_Face"
  type: "SigmoidCrossEntropyLoss"
  bottom: "fc3_Oval_Face"
  bottom: "label_Oval_Face"
  top: "loss_Oval_Face"
}
layer {
  name: "fc3_Pale_Skin"
  type: "InnerProduct"
  bottom: "fc2_face"
  top: "fc3_Pale_Skin"
  inner_product_param {
    num_output: 2
    weight_filler {
      type: "xavier"
    }
    bias_filler {
      type: "constant"
      value: 0
    }
  }
}
layer {
  name: "loss_Pale_Skin"
  type: "SigmoidCrossEntropyLoss"
  bottom: "fc3_Pale_Skin"
  bottom: "label_Pale_Skin"
  top: "loss_Pale_Skin"
}
layer {
  name: "fc3_Young"
  type: "InnerProduct"
  bottom: "fc2_face"
  top: "fc3_Young"
  inner_product_param {
    num_output: 2
    weight_filler {
      type: "xavier"
    }
    bias_filler {
      type: "constant"
      value: 0
    }
  }
}
layer {
  name: "l
I1013 18:11:07.154649 24074 layer_factory.hpp:77] Creating layer data
I1013 18:11:07.154703 24074 net.cpp:91] Creating Layer data
I1013 18:11:07.154714 24074 net.cpp:399] data -> data
I1013 18:11:07.154743 24074 net.cpp:399] data -> label
I1013 18:11:07.154765 24074 data_transformer.cpp:25] Loading mean file from: /home/zhangyuan/caojiajiong/attribute_learning/attr_id/data/train_attr_id.binaryproto
I1013 18:11:07.203146 24074 image_data_layer.cpp:38] Opening file /home/zhangyuan/caojiajiong/attribute_learning/attr_id/data/train_shuffle_new.txt
I1013 18:11:07.220777 24074 image_data_layer.cpp:53] A total of 35996 images.
I1013 18:11:07.226589 24074 image_data_layer.cpp:80] output data size: 100,3,112,112
I1013 18:11:07.264372 24074 net.cpp:141] Setting up data
I1013 18:11:07.264415 24074 net.cpp:148] Top shape: 100 3 112 112 (3763200)
I1013 18:11:07.264423 24074 net.cpp:148] Top shape: 100 (100)
I1013 18:11:07.264428 24074 net.cpp:156] Memory required for data: 15053200
I1013 18:11:07.264441 24074 layer_factory.hpp:77] Creating layer attr_data
I1013 18:11:07.264595 24074 net.cpp:91] Creating Layer attr_data
I1013 18:11:07.264610 24074 net.cpp:399] attr_data -> attr_data
I1013 18:11:07.264627 24074 net.cpp:399] attr_data -> fakelabel
I1013 18:11:07.268252 24079 db_lmdb.cpp:40] Opened lmdb /home/zhangyuan/caojiajiong/attribute_learning/attr_id/data/train_label_new
I1013 18:11:07.268522 24074 data_layer.cpp:41] output data size: 100,80,1,1
I1013 18:11:07.273028 24074 net.cpp:141] Setting up attr_data
I1013 18:11:07.273049 24074 net.cpp:148] Top shape: 100 80 1 1 (8000)
I1013 18:11:07.273056 24074 net.cpp:148] Top shape: 100 (100)
I1013 18:11:07.273061 24074 net.cpp:156] Memory required for data: 15085600
I1013 18:11:07.273066 24074 layer_factory.hpp:77] Creating layer conv1
I1013 18:11:07.273094 24074 net.cpp:91] Creating Layer conv1
I1013 18:11:07.273102 24074 net.cpp:425] conv1 <- data
I1013 18:11:07.273123 24074 net.cpp:399] conv1 -> conv1
I1013 18:11:07.275676 24074 net.cpp:141] Setting up conv1
I1013 18:11:07.275701 24074 net.cpp:148] Top shape: 100 64 112 112 (80281600)
I1013 18:11:07.275705 24074 net.cpp:156] Memory required for data: 336212000
I1013 18:11:07.275722 24074 layer_factory.hpp:77] Creating layer slice
I1013 18:11:07.275740 24074 net.cpp:91] Creating Layer slice
I1013 18:11:07.275748 24074 net.cpp:425] slice <- attr_data
I1013 18:11:07.275759 24074 net.cpp:399] slice -> label_5_o_Clock_Shadow
I1013 18:11:07.275779 24074 net.cpp:399] slice -> label_Arched_Eyebrows
…
I1013 18:11:07.276259 24074 net.cpp:399] slice -> label_Straight_Hair
I1013 18:11:07.276274 24074 net.cpp:399] slice -> label_Wavy_Hair
I1013 18:11:07.276288 24074 net.cpp:399] slice -> label_Wearing_Earrings
I1013 18:11:07.276301 24074 net.cpp:399] slice -> label_Wearing_Hat
I1013 18:11:07.276315 24074 net.cpp:399] slice -> label_Wearing_Lipstick
I1013 18:11:07.276329 24074 net.cpp:399] slice -> label_Wearing_Necklace
I1013 18:11:07.276341 24074 net.cpp:399] slice -> label_Wearing_Necktie
I1013 18:11:07.276355 24074 net.cpp:399] slice -> label_Young
I1013 18:11:07.276804 24074 net.cpp:141] Setting up slice
I1013 18:11:07.276816 24074 net.cpp:148] Top shape: 100 2 1 1 (200)
I1013 18:11:07.276823 24074 net.cpp:148] Top shape: 100 2 1 1 (200)
I1013 18:11:07.276830 24074 net.cpp:148] Top shape: 100 2 1 1 (200)
I1013 18:11:07.276839 24074 net.cpp:148] Top shape: 100 2 1 1 (200)
I1013 18:11:07.276845 24074 net.cpp:148] Top shape: 100 2 1 1 (200)
I1013 18:11:07.276866 24074 net.cpp:148] Top shape: 100 2 1 1 (200)
I1013 18:11:07.276873 24074 net.cpp:148] Top shape: 100 2 1 1 (200)
I1013 18:11:07.276880 24074 net.cpp:148] Top shape: 100 2 1 1 (200)
I1013 18:11:07.276897 24074 net.cpp:148] Top shape: 100 2 1 1 (200)
I1013 18:11:07.276904 24074 net.cpp:148] Top shape: 100 2 1 1 (200)
I1013 18:11:07.276909 24074 net.cpp:148] Top shape: 100 2 1 1 (200)
I1013 18:11:07.276916 24074 net.cpp:148] Top shape: 100 2 1 1 (200)
I1013 18:11:07.276921 24074 net.cpp:148] Top shape: 100 2 1 1 (200)
I1013 18:11:07.276926 24074 net.cpp:148] Top shape: 100 2 1 1 (200)
I1013 18:11:07.276931 24074 net.cpp:148] Top shape: 100 2 1 1 (200)
I1013 18:11:07.276935 24074 net.cpp:148] Top shape: 100 2 1 1 (200)
I1013 18:11:07.276940 24074 net.cpp:148] Top shape: 100 2 1 1 (200)
I1013 18:11:07.276945 24074 net.cpp:148] Top shape: 100 2 1 1 (200)
I1013 18:11:07.276950 24074 net.cpp:148] Top shape: 100 2 1 1 (200)
I1013 18:11:07.276955 24074 net.cpp:148] Top shape: 100 2 1 1 (200)
I1013 18:11:07.276960 24074 net.cpp:148] Top shape: 100 2 1 1 (200)
I1013 18:11:07.276967 24074 net.cpp:148] Top shape: 100 2 1 1 (200)
I1013 18:11:07.276971 24074 net.cpp:148] Top shape: 100 2 1 1 (200)
I1013 18:11:07.276976 24074 net.cpp:148] Top shape: 100 2 1 1 (200)
I1013 18:11:07.276995 24074 net.cpp:148] Top shape: 100 2 1 1 (200)
I1013 18:11:07.277001 24074 net.cpp:148] Top shape: 100 2 1 1 (200)
I1013 18:11:07.277007 24074 net.cpp:148] Top shape: 100 2 1 1 (200)
I1013 18:11:07.277032 24074 net.cpp:148] Top shape: 100 2 1 1 (200)
I1013 18:11:07.277056 24074 net.cpp:148] Top shape: 100 2 1 1 (200)
I1013 18:11:07.277063 24074 net.cpp:148] Top shape: 100 2 1 1 (200)
I1013 18:11:07.277068 24074 net.cpp:148] Top shape: 100 2 1 1 (200)
I1013 18:11:07.277073 24074 net.cpp:148] Top shape: 100 2 1 1 (200)
I1013 18:11:07.277078 24074 net.cpp:148] Top shape: 100 2 1 1 (200)
I1013 18:11:07.277097 24074 net.cpp:148] Top shape: 100 2 1 1 (200)
I1013 18:11:07.277103 24074 net.cpp:148] Top shape: 100 2 1 1 (200)
I1013 18:11:07.277113 24074 net.cpp:148] Top shape: 100 2 1 1 (200)
I1013 18:11:07.277118 24074 net.cpp:148] Top shape: 100 2 1 1 (200)
I1013 18:11:07.277124 24074 net.cpp:148] Top shape: 100 2 1 1 (200)
I1013 18:11:07.277143 24074 net.cpp:148] Top shape: 100 2 1 1 (200)
I1013 18:11:07.277163 24074 net.cpp:148] Top shape: 100 2 1 1 (200)
I1013 18:11:07.277189 24074 net.cpp:156] Memory required for data: 336244000
I1013 18:11:07.277195 24074 layer_factory.hpp:77] Creating layer conv1_bn
I1013 18:11:07.277216 24074 net.cpp:91] Creating Layer conv1_bn
I1013 18:11:07.277230 24074 net.cpp:425] conv1_bn <- conv1
I1013 18:11:07.277261 24074 net.cpp:386] conv1_bn -> conv1 (in-place)
I1013 18:11:07.277482 24074 net.cpp:141] Setting up conv1_bn
I1013 18:11:07.277498 24074 net.cpp:148] Top shape: 100 64 112 112 (80281600)
I1013 18:11:07.277513 24074 net.cpp:156] Memory required for data: 657370400
I1013 18:11:07.277529 24074 layer_factory.hpp:77] Creating layer conv1_scale
I1013 18:11:07.277541 24074 net.cpp:91] Creating Layer conv1_scale
I1013 18:11:07.277555 24074 net.cpp:425] conv1_scale <- conv1
I1013 18:11:07.277583 24074 net.cpp:386] conv1_scale -> conv1 (in-place)
I1013 18:11:07.277637 24074 layer_factory.hpp:77] Creating layer conv1_scale
I1013 18:11:07.277779 24074 net.cpp:141] Setting up conv1_scale
I1013 18:11:07.277798 24074 net.cpp:148] Top shape: 100 64 112 112 (80281600)
I1013 18:11:07.277812 24074 net.cpp:156] Memory required for data: 978496800
I1013 18:11:07.277820 24074 layer_factory.hpp:77] Creating layer prelu1
I1013 18:11:07.277840 24074 net.cpp:91] Creating Layer prelu1
I1013 18:11:07.277855 24074 net.cpp:425] prelu1 <- conv1
I1013 18:11:07.277868 24074 net.cpp:386] prelu1 -> conv1 (in-place)
I1013 18:11:07.280043 24074 net.cpp:141] Setting up prelu1
I1013 18:11:07.280074 24074 net.cpp:148] Top shape: 100 64 112 112 (80281600)
I1013 18:11:07.280081 24074 net.cpp:156] Memory required for data: 1299623200
I1013 18:11:07.280093 24074 layer_factory.hpp:77] Creating layer pool1
I1013 18:11:07.280114 24074 net.cpp:91] Creating Layer pool1
I1013 18:11:07.280143 24074 net.cpp:425] pool1 <- conv1
I1013 18:11:07.280161 24074 net.cpp:399] pool1 -> pool1
I1013 18:11:07.280222 24074 net.cpp:141] Setting up pool1
I1013 18:11:07.280247 24074 net.cpp:148] Top shape: 100 64 56 56 (20070400)
I1013 18:11:07.280253 24074 net.cpp:156] Memory required for data: 1379904800
I1013 18:11:07.280272 24074 layer_factory.hpp:77] Creating layer conv2a
I1013 18:11:07.280292 24074 net.cpp:91] Creating Layer conv2a
I1013 18:11:07.280306 24074 net.cpp:425] conv2a <- pool1
I1013 18:11:07.280318 24074 net.cpp:399] conv2a -> conv2a
I1013 18:11:07.280601 24074 net.cpp:141] Setting up conv2a
I1013 18:11:07.280633 24074 net.cpp:148] Top shape: 100 64 56 56 (20070400)
I1013 18:11:07.280638 24074 net.cpp:156] Memory required for data: 1460186400
I1013 18:11:07.280649 24074 layer_factory.hpp:77] Creating layer conv2a_bn
I1013 18:11:07.280678 24074 net.cpp:91] Creating Layer conv2a_bn
I1013 18:11:07.280686 24074 net.cpp:425] conv2a_bn <- conv2a
I1013 18:11:07.280709 24074 net.cpp:386] conv2a_bn -> conv2a (in-place)
I1013 18:11:07.280910 24074 net.cpp:141] Setting up conv2a_bn
I1013 18:11:07.280932 24074 net.cpp:148] Top shape: 100 64 56 56 (20070400)
I1013 18:11:07.280938 24074 net.cpp:156] Memory required for data: 1540468000
I1013 18:11:07.280951 24074 layer_factory.hpp:77] Creating layer conv2a_scale
I1013 18:11:07.280961 24074 net.cpp:91] Creating Layer conv2a_scale
I1013 18:11:07.280967 24074 net.cpp:425] conv2a_scale <- conv2a
I1013 18:11:07.280983 24074 net.cpp:386] conv2a_scale -> conv2a (in-place)
I1013 18:11:07.281038 24074 layer_factory.hpp:77] Creating layer conv2a_scale
I1013 18:11:07.281195 24074 net.cpp:141] Setting up conv2a_scale
I1013 18:11:07.281206 24074 net.cpp:148] Top shape: 100 64 56 56 (20070400)
I1013 18:11:07.281213 24074 net.cpp:156] Memory required for data: 1620749600
I1013 18:11:07.281219 24074 layer_factory.hpp:77] Creating layer prelu2a
I1013 18:11:07.281229 24074 net.cpp:91] Creating Layer prelu2a
I1013 18:11:07.281234 24074 net.cpp:425] prelu2a <- conv2a
I1013 18:11:07.281246 24074 net.cpp:386] prelu2a -> conv2a (in-place)
I1013 18:11:07.282120 24074 net.cpp:141] Setting up prelu2a
I1013 18:11:07.282142 24074 net.cpp:148] Top shape: 100 64 56 56 (20070400)
I1013 18:11:07.282148 24074 net.cpp:156] Memory required for data: 1701031200
I1013 18:11:07.282156 24074 layer_factory.hpp:77] Creating layer conv2
I1013 18:11:07.282217 24074 net.cpp:91] Creating Layer conv2
I1013 18:11:07.282223 24074 net.cpp:425] conv2 <- conv2a
I1013 18:11:07.282243 24074 net.cpp:399] conv2 -> conv2
I1013 18:11:07.284029 24074 net.cpp:141] Setting up conv2
I1013 18:11:07.284047 24074 net.cpp:148] Top shape: 100 192 56 56 (60211200)
I1013 18:11:07.284054 24074 net.cpp:156] Memory required for data: 1941876000
I1013 18:11:07.284067 24074 layer_factory.hpp:77] Creating layer conv2_bn
I1013 18:11:07.284078 24074 net.cpp:91] Creating Layer conv2_bn
I1013 18:11:07.284085 24074 net.cpp:425] conv2_bn <- conv2
I1013 18:11:07.284095 24074 net.cpp:386] conv2_bn -> conv2 (in-place)
I1013 18:11:07.284294 24074 net.cpp:141] Setting up conv2_bn
I1013 18:11:07.284304 24074 net.cpp:148] Top shape: 100 192 56 56 (60211200)
I1013 18:11:07.284309 24074 net.cpp:156] Memory required for data: 2182720800
I1013 18:11:07.284318 24074 layer_factory.hpp:77] Creating layer conv2_scale
I1013 18:11:07.284327 24074 net.cpp:91] Creating Layer conv2_scale
I1013 18:11:07.284332 24074 net.cpp:425] conv2_scale <- conv2
I1013 18:11:07.284339 24074 net.cpp:386] conv2_scale -> conv2 (in-place)
I1013 18:11:07.284380 24074 layer_factory.hpp:77] Creating layer conv2_scale
I1013 18:11:07.284504 24074 net.cpp:141] Setting up conv2_scale
I1013 18:11:07.284514 24074 net.cpp:148] Top shape: 100 192 56 56 (60211200)
I1013 18:11:07.284518 24074 net.cpp:156] Memory required for data: 2423565600
I1013 18:11:07.284525 24074 layer_factory.hpp:77] Creating layer prelu2
I1013 18:11:07.284533 24074 net.cpp:91] Creating Layer prelu2
I1013 18:11:07.284538 24074 net.cpp:425] prelu2 <- conv2
I1013 18:11:07.284544 24074 net.cpp:386] prelu2 -> conv2 (in-place)
I1013 18:11:07.286248 24074 net.cpp:141] Setting up prelu2
I1013 18:11:07.286267 24074 net.cpp:148] Top shape: 100 192 56 56 (60211200)
I1013 18:11:07.286273 24074 net.cpp:156] Memory required for data: 2664410400
I1013 18:11:07.286278 24074 layer_factory.hpp:77] Creating layer pool2
I1013 18:11:07.286289 24074 net.cpp:91] Creating Layer pool2
I1013 18:11:07.286294 24074 net.cpp:425] pool2 <- conv2
I1013 18:11:07.286303 24074 net.cpp:399] pool2 -> pool2
I1013 18:11:07.286345 24074 net.cpp:141] Setting up pool2
I1013 18:11:07.286355 24074 net.cpp:148] Top shape: 100 192 28 28 (15052800)
I1013 18:11:07.286360 24074 net.cpp:156] Memory required for data: 2724621600
I1013 18:11:07.286363 24074 layer_factory.hpp:77] Creating layer conv3a
I1013 18:11:07.286375 24074 net.cpp:91] Creating Layer conv3a
I1013 18:11:07.286381 24074 net.cpp:425] conv3a <- pool2
I1013 18:11:07.286388 24074 net.cpp:399] conv3a -> conv3a
I1013 18:11:07.287565 24074 net.cpp:141] Setting up conv3a
I1013 18:11:07.287583 24074 net.cpp:148] Top shape: 100 192 28 28 (15052800)
I1013 18:11:07.287588 24074 net.cpp:156] Memory required for data: 2784832800
I1013 18:11:07.287596 24074 layer_factory.hpp:77] Creating layer conv3a_bn
I1013 18:11:07.287606 24074 net.cpp:91] Creating Layer conv3a_bn
I1013 18:11:07.287611 24074 net.cpp:425] conv3a_bn <- conv3a
I1013 18:11:07.287618 24074 net.cpp:386] conv3a_bn -> conv3a (in-place)
I1013 18:11:07.287820 24074 net.cpp:141] Setting up conv3a_bn
I1013 18:11:07.287832 24074 net.cpp:148] Top shape: 100 192 28 28 (15052800)
I1013 18:11:07.287837 24074 net.cpp:156] Memory required for data: 2845044000
I1013 18:11:07.287847 24074 layer_factory.hpp:77] Creating layer conv3a_scale
I1013 18:11:07.287855 24074 net.cpp:91] Creating Layer conv3a_scale
I1013 18:11:07.287859 24074 net.cpp:425] conv3a_scale <- conv3a
I1013 18:11:07.287868 24074 net.cpp:386] conv3a_scale -> conv3a (in-place)
I1013 18:11:07.287910 24074 layer_factory.hpp:77] Creating layer conv3a_scale
I1013 18:11:07.288033 24074 net.cpp:141] Setting up conv3a_scale
I1013 18:11:07.288043 24074 net.cpp:148] Top shape: 100 192 28 28 (15052800)
I1013 18:11:07.288048 24074 net.cpp:156] Memory required for data: 2905255200
I1013 18:11:07.288054 24074 layer_factory.hpp:77] Creating layer prelu3a
I1013 18:11:07.288063 24074 net.cpp:91] Creating Layer prelu3a
I1013 18:11:07.288066 24074 net.cpp:425] prelu3a <- conv3a
I1013 18:11:07.288074 24074 net.cpp:386] prelu3a -> conv3a (in-place)
I1013 18:11:07.288271 24074 net.cpp:141] Setting up prelu3a
I1013 18:11:07.288282 24074 net.cpp:148] Top shape: 100 192 28 28 (15052800)
I1013 18:11:07.288286 24074 net.cpp:156] Memory required for data: 2965466400
I1013 18:11:07.288292 24074 layer_factory.hpp:77] Creating layer conv3
I1013 18:11:07.288305 24074 net.cpp:91] Creating Layer conv3
I1013 18:11:07.288311 24074 net.cpp:425] conv3 <- conv3a
I1013 18:11:07.288319 24074 net.cpp:399] conv3 -> conv3
I1013 18:11:07.295222 24074 net.cpp:141] Setting up conv3
I1013 18:11:07.295241 24074 net.cpp:148] Top shape: 100 384 28 28 (30105600)
I1013 18:11:07.295248 24074 net.cpp:156] Memory required for data: 3085888800
I1013 18:11:07.295261 24074 layer_factory.hpp:77] Creating layer conv3_bn
I1013 18:11:07.295271 24074 net.cpp:91] Creating Layer conv3_bn
I1013 18:11:07.295276 24074 net.cpp:425] conv3_bn <- conv3
I1013 18:11:07.295284 24074 net.cpp:386] conv3_bn -> conv3 (in-place)
I1013 18:11:07.295465 24074 net.cpp:141] Setting up conv3_bn
I1013 18:11:07.295476 24074 net.cpp:148] Top shape: 100 384 28 28 (30105600)
I1013 18:11:07.295480 24074 net.cpp:156] Memory required for data: 3206311200
I1013 18:11:07.295490 24074 layer_factory.hpp:77] Creating layer conv3_scale
I1013 18:11:07.295498 24074 net.cpp:91] Creating Layer conv3_scale
I1013 18:11:07.295503 24074 net.cpp:425] conv3_scale <- conv3
I1013 18:11:07.295511 24074 net.cpp:386] conv3_scale -> conv3 (in-place)
I1013 18:11:07.295554 24074 layer_factory.hpp:77] Creating layer conv3_scale
I1013 18:11:07.295663 24074 net.cpp:141] Setting up conv3_scale
I1013 18:11:07.295672 24074 net.cpp:148] Top shape: 100 384 28 28 (30105600)
I1013 18:11:07.295691 24074 net.cpp:156] Memory required for data: 3326733600
I1013 18:11:07.295699 24074 layer_factory.hpp:77] Creating layer prelu3
I1013 18:11:07.295706 24074 net.cpp:91] Creating Layer prelu3
I1013 18:11:07.295711 24074 net.cpp:425] prelu3 <- conv3
I1013 18:11:07.295718 24074 net.cpp:386] prelu3 -> conv3 (in-place)
I1013 18:11:07.296839 24074 net.cpp:141] Setting up prelu3
I1013 18:11:07.296859 24074 net.cpp:148] Top shape: 100 384 28 28 (30105600)
I1013 18:11:07.296864 24074 net.cpp:156] Memory required for data: 3447156000
I1013 18:11:07.296870 24074 layer_factory.hpp:77] Creating layer pool3
I1013 18:11:07.296880 24074 net.cpp:91] Creating Layer pool3
I1013 18:11:07.296885 24074 net.cpp:425] pool3 <- conv3
I1013 18:11:07.296892 24074 net.cpp:399] pool3 -> pool3
I1013 18:11:07.296934 24074 net.cpp:141] Setting up pool3
I1013 18:11:07.296952 24074 net.cpp:148] Top shape: 100 384 14 14 (7526400)
I1013 18:11:07.296955 24074 net.cpp:156] Memory required for data: 3477261600
I1013 18:11:07.296959 24074 layer_factory.hpp:77] Creating layer pool3_pool3_0_split
I1013 18:11:07.296968 24074 net.cpp:91] Creating Layer pool3_pool3_0_split
I1013 18:11:07.296973 24074 net.cpp:425] pool3_pool3_0_split <- pool3
I1013 18:11:07.296980 24074 net.cpp:399] pool3_pool3_0_split -> pool3_pool3_0_split_0
I1013 18:11:07.296989 24074 net.cpp:399] pool3_pool3_0_split -> pool3_pool3_0_split_1
I1013 18:11:07.296998 24074 net.cpp:399] pool3_pool3_0_split -> pool3_pool3_0_split_2
I1013 18:11:07.297006 24074 net.cpp:399] pool3_pool3_0_split -> pool3_pool3_0_split_3
I1013 18:11:07.297013 24074 net.cpp:399] pool3_pool3_0_split -> pool3_pool3_0_split_4
I1013 18:11:07.297021 24074 net.cpp:399] pool3_pool3_0_split -> pool3_pool3_0_split_5
I1013 18:11:07.297099 24074 net.cpp:141] Setting up pool3_pool3_0_split
I1013 18:11:07.297108 24074 net.cpp:148] Top shape: 100 384 14 14 (7526400)
I1013 18:11:07.297113 24074 net.cpp:148] Top shape: 100 384 14 14 (7526400)
I1013 18:11:07.297118 24074 net.cpp:148] Top shape: 100 384 14 14 (7526400)
I1013 18:11:07.297123 24074 net.cpp:148] Top shape: 100 384 14 14 (7526400)
I1013 18:11:07.297128 24074 net.cpp:148] Top shape: 100 384 14 14 (7526400)
I1013 18:11:07.297133 24074 net.cpp:148] Top shape: 100 384 14 14 (7526400)
I1013 18:11:07.297137 24074 net.cpp:156] Memory required for data: 3657895200
I1013 18:11:07.297140 24074 layer_factory.hpp:77] Creating layer conv3_gender
I1013 18:11:07.297152 24074 net.cpp:91] Creating Layer conv3_gender
I1013 18:11:07.297158 24074 net.cpp:425] conv3_gender <- pool3_pool3_0_split_0
I1013 18:11:07.297166 24074 net.cpp:399] conv3_gender -> conv3_gender
I1013 18:11:07.307682 24074 net.cpp:141] Setting up conv3_gender
I1013 18:11:07.307700 24074 net.cpp:148] Top shape: 100 300 7 7 (1470000)
I1013 18:11:07.307705 24074 net.cpp:156] Memory required for data: 3663775200
I1013 18:11:07.307713 24074 layer_factory.hpp:77] Creating layer conv3_gender_bn
I1013 18:11:07.307723 24074 net.cpp:91] Creating Layer conv3_gender_bn
I1013 18:11:07.307729 24074 net.cpp:425] conv3_gender_bn <- conv3_gender
I1013 18:11:07.307737 24074 net.cpp:386] conv3_gender_bn -> conv3_gender (in-place)
I1013 18:11:07.307942 24074 net.cpp:141] Setting up conv3_gender_bn
I1013 18:11:07.307955 24074 net.cpp:148] Top shape: 100 300 7 7 (1470000)
I1013 18:11:07.307960 24074 net.cpp:156] Memory required for data: 3669655200
I1013 18:11:07.307968 24074 layer_factory.hpp:77] Creating layer conv3_gender_scale
I1013 18:11:07.307977 24074 net.cpp:91] Creating Layer conv3_gender_scale
I1013 18:11:07.307982 24074 net.cpp:425] conv3_gender_scale <- conv3_gender
I1013 18:11:07.307991 24074 net.cpp:386] conv3_gender_scale -> conv3_gender (in-place)
I1013 18:11:07.308035 24074 layer_factory.hpp:77] Creating layer conv3_gender_scale
I1013 18:11:07.308156 24074 net.cpp:141] Setting up conv3_gender_scale
I1013 18:11:07.308167 24074 net.cpp:148] Top shape: 100 300 7 7 (1470000)
I1013 18:11:07.308171 24074 net.cpp:156] Memory required for data: 3675535200
I1013 18:11:07.308192 24074 layer_factory.hpp:77] Creating layer prelu3_gender
I1013 18:11:07.308202 24074 net.cpp:91] Creating Layer prelu3_gender
I1013 18:11:07.308207 24074 net.cpp:425] prelu3_gender <- conv3_gender
I1013 18:11:07.308213 24074 net.cpp:386] prelu3_gender -> conv3_gender (in-place)
I1013 18:11:07.308321 24074 net.cpp:141] Setting up prelu3_gender
I1013 18:11:07.308332 24074 net.cpp:148] Top shape: 100 300 7 7 (1470000)
I1013 18:11:07.308336 24074 net.cpp:156] Memory required for data: 3681415200
I1013 18:11:07.308341 24074 layer_factory.hpp:77] Creating layer pool3_gender
I1013 18:11:07.308351 24074 net.cpp:91] Creating Layer pool3_gender
I1013 18:11:07.308356 24074 net.cpp:425] pool3_gender <- conv3_gender
I1013 18:11:07.308362 24074 net.cpp:399] pool3_gender -> pool3_gender
I1013 18:11:07.308401 24074 net.cpp:141] Setting up pool3_gender
I1013 18:11:07.308410 24074 net.cpp:148] Top shape: 100 300 4 4 (480000)
I1013 18:11:07.308414 24074 net.cpp:156] Memory required for data: 3683335200
I1013 18:11:07.308421 24074 layer_factory.hpp:77] Creating layer pool3_gender_pool3_gender_0_split
I1013 18:11:07.308434 24074 net.cpp:91] Creating Layer pool3_gender_pool3_gender_0_split
I1013 18:11:07.308439 24074 net.cpp:425] pool3_gender_pool3_gender_0_split <- pool3_gender
I1013 18:11:07.308449 24074 net.cpp:399] pool3_gender_pool3_gender_0_split -> pool3_gender_pool3_gender_0_split_0
I1013 18:11:07.308459 24074 net.cpp:399] pool3_gender_pool3_gender_0_split -> pool3_gender_pool3_gender_0_split_1
I1013 18:11:07.308495 24074 net.cpp:141] Setting up pool3_gender_pool3_gender_0_split
I1013 18:11:07.308506 24074 net.cpp:148] Top shape: 100 300 4 4 (480000)
I1013 18:11:07.308511 24074 net.cpp:148] Top shape: 100 300 4 4 (480000)
I1013 18:11:07.308516 24074 net.cpp:156] Memory required for data: 3687175200
I1013 18:11:07.308519 24074 layer_factory.hpp:77] Creating layer fc1_gender
I1013 18:11:07.308528 24074 net.cpp:91] Creating Layer fc1_gender
I1013 18:11:07.308533 24074 net.cpp:425] fc1_gender <- pool3_gender_pool3_gender_0_split_0
I1013 18:11:07.308542 24074 net.cpp:399] fc1_gender -> fc1_gender
I1013 18:11:07.332718 24074 net.cpp:141] Setting up fc1_gender
I1013 18:11:07.332741 24074 net.cpp:148] Top shape: 100 512 (51200)
I1013 18:11:07.332747 24074 net.cpp:156] Memory required for data: 3687380000
I1013 18:11:07.332756 24074 layer_factory.hpp:77] Creating layer relu1_gender
I1013 18:11:07.332767 24074 net.cpp:91] Creating Layer relu1_gender
I1013 18:11:07.332774 24074 net.cpp:425] relu1_gender <- fc1_gender
I1013 18:11:07.332783 24074 net.cpp:386] relu1_gender -> fc1_gender (in-place)
I1013 18:11:07.332794 24074 net.cpp:141] Setting up relu1_gender
I1013 18:11:07.332801 24074 net.cpp:148] Top shape: 100 512 (51200)
I1013 18:11:07.332805 24074 net.cpp:156] Memory required for data: 3687584800
I1013 18:11:07.332809 24074 layer_factory.hpp:77] Creating layer drop1_gender
I1013 18:11:07.332819 24074 net.cpp:91] Creating Layer drop1_gender
I1013 18:11:07.332823 24074 net.cpp:425] drop1_gender <- fc1_gender
I1013 18:11:07.332830 24074 net.cpp:386] drop1_gender -> fc1_gender (in-place)
I1013 18:11:07.332862 24074 net.cpp:141] Setting up drop1_gender
I1013 18:11:07.332870 24074 net.cpp:148] Top shape: 100 512 (51200)
I1013 18:11:07.332873 24074 net.cpp:156] Memory required for data: 3687789600
I1013 18:11:07.332877 24074 layer_factory.hpp:77] Creating layer fc2_gender
I1013 18:11:07.332887 24074 net.cpp:91] Creating Layer fc2_gender
I1013 18:11:07.332891 24074 net.cpp:425] fc2_gender <- fc1_gender
I1013 18:11:07.332900 24074 net.cpp:399] fc2_gender -> fc2_gender
I1013 18:11:07.335772 24074 net.cpp:141] Setting up fc2_gender
I1013 18:11:07.335789 24074 net.cpp:148] Top shape: 100 512 (51200)
I1013 18:11:07.335794 24074 net.cpp:156] Memory required for data: 3687994400
I1013 18:11:07.335803 24074 layer_factory.hpp:77] Creating layer relu2_gender
I1013 18:11:07.335814 24074 net.cpp:91] Creating Layer relu2_gender
I1013 18:11:07.335820 24074 net.cpp:425] relu2_gender <- fc2_gender
I1013 18:11:07.335829 24074 net.cpp:386] relu2_gender -> fc2_gender (in-place)
I1013 18:11:07.335852 24074 net.cpp:141] Setting up relu2_gender
I1013 18:11:07.335860 24074 net.cpp:148] Top shape: 100 512 (51200)
I1013 18:11:07.335863 24074 net.cpp:156] Memory required for data: 3688199200
I1013 18:11:07.335868 24074 layer_factory.hpp:77] Creating layer drop2_gender
I1013 18:11:07.335875 24074 net.cpp:91] Creating Layer drop2_gender
I1013 18:11:07.335880 24074 net.cpp:425] drop2_gender <- fc2_gender
I1013 18:11:07.335887 24074 net.cpp:386] drop2_gender -> fc2_gender (in-place)
I1013 18:11:07.335916 24074 net.cpp:141] Setting up drop2_gender
I1013 18:11:07.335922 24074 net.cpp:148] Top shape: 100 512 (51200)
I1013 18:11:07.335927 24074 net.cpp:156] Memory required for data: 3688404000
I1013 18:11:07.335932 24074 layer_factory.hpp:77] Creating layer conv3_nose
I1013 18:11:07.335944 24074 net.cpp:91] Creating Layer conv3_nose
I1013 18:11:07.335949 24074 net.cpp:425] conv3_nose <- pool3_pool3_0_split_1
I1013 18:11:07.335959 24074 net.cpp:399] conv3_nose -> conv3_nose
I1013 18:11:07.346472 24074 net.cpp:141] Setting up conv3_nose
I1013 18:11:07.346492 24074 net.cpp:148] Top shape: 100 300 7 7 (1470000)
I1013 18:11:07.346496 24074 net.cpp:156] Memory required for data: 3694284000
I1013 18:11:07.346505 24074 layer_factory.hpp:77] Creating layer conv3_nose_bn
I1013 18:11:07.346515 24074 net.cpp:91] Creating Layer conv3_nose_bn
I1013 18:11:07.346521 24074 net.cpp:425] conv3_nose_bn <- conv3_nose
I1013 18:11:07.346529 24074 net.cpp:386] conv3_nose_bn -> conv3_nose (in-place)
I1013 18:11:07.346732 24074 net.cpp:141] Setting up conv3_nose_bn
I1013 18:11:07.346743 24074 net.cpp:148] Top shape: 100 300 7 7 (1470000)
I1013 18:11:07.346747 24074 net.cpp:156] Memory required for data: 3700164000
I1013 18:11:07.346758 24074 layer_factory.hpp:77] Creating layer conv3_nose_scale
I1013 18:11:07.346767 24074 net.cpp:91] Creating Layer conv3_nose_scale
I1013 18:11:07.346772 24074 net.cpp:425] conv3_nose_scale <- conv3_nose
I1013 18:11:07.346779 24074 net.cpp:386] conv3_nose_scale -> conv3_nose (in-place)
I1013 18:11:07.346827 24074 layer_factory.hpp:77] Creating layer conv3_nose_scale
I1013 18:11:07.346952 24074 net.cpp:141] Setting up conv3_nose_scale
I1013 18:11:07.346962 24074 net.cpp:148] Top shape: 100 300 7 7 (1470000)
I1013 18:11:07.346966 24074 net.cpp:156] Memory required for data: 3706044000
I1013 18:11:07.346973 24074 layer_factory.hpp:77] Creating layer prelu3_nose
I1013 18:11:07.346982 24074 net.cpp:91] Creating Layer prelu3_nose
I1013 18:11:07.346987 24074 net.cpp:425] prelu3_nose <- conv3_nose
I1013 18:11:07.346993 24074 net.cpp:386] prelu3_nose -> conv3_nose (in-place)
I1013 18:11:07.347105 24074 net.cpp:141] Setting up prelu3_nose
I1013 18:11:07.347115 24074 net.cpp:148] Top shape: 100 300 7 7 (1470000)
I1013 18:11:07.347120 24074 net.cpp:156] Memory required for data: 3711924000
I1013 18:11:07.347126 24074 layer_factory.hpp:77] Creating layer pool3_nose
I1013 18:11:07.347133 24074 net.cpp:91] Creating Layer pool3_nose
I1013 18:11:07.347137 24074 net.cpp:425] pool3_nose <- conv3_nose
I1013 18:11:07.347144 24074 net.cpp:399] pool3_nose -> pool3_nose
I1013 18:11:07.347187 24074 net.cpp:141] Setting up pool3_nose
I1013 18:11:07.347194 24074 net.cpp:148] Top shape: 100 300 4 4 (480000)
I1013 18:11:07.347199 24074 net.cpp:156] Memory required for data: 3713844000
I1013 18:11:07.347203 24074 layer_factory.hpp:77] Creating layer pool3_nose_pool3_nose_0_split
I1013 18:11:07.347210 24074 net.cpp:91] Creating Layer pool3_nose_pool3_nose_0_split
I1013 18:11:07.347215 24074 net.cpp:425] pool3_nose_pool3_nose_0_split <- pool3_nose
I1013 18:11:07.347223 24074 net.cpp:399] pool3_nose_pool3_nose_0_split -> pool3_nose_pool3_nose_0_split_0
I1013 18:11:07.347231 24074 net.cpp:399] pool3_nose_pool3_nose_0_split -> pool3_nose_pool3_nose_0_split_1
I1013 18:11:07.347268 24074 net.cpp:141] Setting up pool3_nose_pool3_nose_0_split
I1013 18:11:07.347275 24074 net.cpp:148] Top shape: 100 300 4 4 (480000)
I1013 18:11:07.347281 24074 net.cpp:148] Top shape: 100 300 4 4 (480000)
I1013 18:11:07.347285 24074 net.cpp:156] Memory required for data: 3717684000
I1013 18:11:07.347302 24074 layer_factory.hpp:77] Creating layer fc1_nose
I1013 18:11:07.347312 24074 net.cpp:91] Creating Layer fc1_nose
I1013 18:11:07.347318 24074 net.cpp:425] fc1_nose <- pool3_nose_pool3_nose_0_split_0
I1013 18:11:07.347326 24074 net.cpp:399] fc1_nose -> fc1_nose
I1013 18:11:07.371500 24074 net.cpp:141] Setting up fc1_nose
I1013 18:11:07.371520 24074 net.cpp:148] Top shape: 100 512 (51200)
I1013 18:11:07.371525 24074 net.cpp:156] Memory required for data: 3717888800
I1013 18:11:07.371533 24074 layer_factory.hpp:77] Creating layer relu1_nose
I1013 18:11:07.371541 24074 net.cpp:91] Creating Layer relu1_nose
I1013 18:11:07.371547 24074 net.cpp:425] relu1_nose <- fc1_nose
I1013 18:11:07.371556 24074 net.cpp:386] relu1_nose -> fc1_nose (in-place)
I1013 18:11:07.371563 24074 net.cpp:141] Setting up relu1_nose
I1013 18:11:07.371569 24074 net.cpp:148] Top shape: 100 512 (51200)
I1013 18:11:07.371573 24074 net.cpp:156] Memory required for data: 3718093600
I1013 18:11:07.371577 24074 layer_factory.hpp:77] Creating layer drop1_nose
I1013 18:11:07.371587 24074 net.cpp:91] Creating Layer drop1_nose
I1013 18:11:07.371590 24074 net.cpp:425] drop1_nose <- fc1_nose
I1013 18:11:07.371598 24074 net.cpp:386] drop1_nose -> fc1_nose (in-place)
I1013 18:11:07.371624 24074 net.cpp:141] Setting up drop1_nose
I1013 18:11:07.371630 24074 net.cpp:148] Top shape: 100 512 (51200)
I1013 18:11:07.371634 24074 net.cpp:156] Memory required for data: 3718298400
I1013 18:11:07.371639 24074 layer_factory.hpp:77] Creating layer fc2_nose
I1013 18:11:07.371647 24074 net.cpp:91] Creating Layer fc2_nose
I1013 18:11:07.371652 24074 net.cpp:425] fc2_nose <- fc1_nose
I1013 18:11:07.371659 24074 net.cpp:399] fc2_nose -> fc2_nose
I1013 18:11:07.374549 24074 net.cpp:141] Setting up fc2_nose
I1013 18:11:07.374567 24074 net.cpp:148] Top shape: 100 512 (51200)
I1013 18:11:07.374572 24074 net.cpp:156] Memory required for data: 3718503200
I1013 18:11:07.374580 24074 layer_factory.hpp:77] Creating layer relu2_nose
I1013 18:11:07.374588 24074 net.cpp:91] Creating Layer relu2_nose
I1013 18:11:07.374593 24074 net.cpp:425] relu2_nose <- fc2_nose
I1013 18:11:07.374600 24074 net.cpp:386] relu2_nose -> fc2_nose (in-place)
I1013 18:11:07.374608 24074 net.cpp:141] Setting up relu2_nose
I1013 18:11:07.374614 24074 net.cpp:148] Top shape: 100 512 (51200)
I1013 18:11:07.374619 24074 net.cpp:156] Memory required for data: 3718708000
I1013 18:11:07.374622 24074 layer_factory.hpp:77] Creating layer drop2_nose
I1013 18:11:07.374629 24074 net.cpp:91] Creating Layer drop2_nose
I1013 18:11:07.374634 24074 net.cpp:425] drop2_nose <- fc2_nose
I1013 18:11:07.374640 24074 net.cpp:386] drop2_nose -> fc2_nose (in-place)
I1013 18:11:07.374666 24074 net.cpp:141] Setting up drop2_nose
I1013 18:11:07.374673 24074 net.cpp:148] Top shape: 100 512 (51200)
I1013 18:11:07.374677 24074 net.cpp:156] Memory required for data: 3718912800
I1013 18:11:07.374681 24074 layer_factory.hpp:77] Creating layer fc2_nose_drop2_nose_0_split
I1013 18:11:07.374689 24074 net.cpp:91] Creating Layer fc2_nose_drop2_nose_0_split
I1013 18:11:07.374693 24074 net.cpp:425] fc2_nose_drop2_nose_0_split <- fc2_nose
I1013 18:11:07.374701 24074 net.cpp:399] fc2_nose_drop2_nose_0_split -> fc2_nose_drop2_nose_0_split_0
I1013 18:11:07.374708 24074 net.cpp:399] fc2_nose_drop2_nose_0_split -> fc2_nose_drop2_nose_0_split_1
I1013 18:11:07.374749 24074 net.cpp:141] Setting up fc2_nose_drop2_nose_0_split
I1013 18:11:07.374757 24074 net.cpp:148] Top shape: 100 512 (51200)
I1013 18:11:07.374761 24074 net.cpp:148] Top shape: 100 512 (51200)
I1013 18:11:07.374765 24074 net.cpp:156] Memory required for data: 3719322400
I1013 18:11:07.374769 24074 layer_factory.hpp:77] Creating layer conv3_mouth
I1013 18:11:07.374780 24074 net.cpp:91] Creating Layer conv3_mouth
I1013 18:11:07.374786 24074 net.cpp:425] conv3_mouth <- pool3_pool3_0_split_2
I1013 18:11:07.374795 24074 net.cpp:399] conv3_mouth -> conv3_mouth
I1013 18:11:07.385324 24074 net.cpp:141] Setting up conv3_mouth
I1013 18:11:07.385344 24074 net.cpp:148] Top shape: 100 300 7 7 (1470000)
I1013 18:11:07.385363 24074 net.cpp:156] Memory required for data: 3725202400
I1013 18:11:07.385387 24074 layer_factory.hpp:77] Creating layer conv3_mouth_bn
I1013 18:11:07.385397 24074 net.cpp:91] Creating Layer conv3_mouth_bn
I1013 18:11:07.385402 24074 net.cpp:425] conv3_mouth_bn <- conv3_mouth
I1013 18:11:07.385409 24074 net.cpp:386] conv3_mouth_bn -> conv3_mouth (in-place)
I1013 18:11:07.385615 24074 net.cpp:141] Setting up conv3_mouth_bn
I1013 18:11:07.385627 24074 net.cpp:148] Top shape: 100 300 7 7 (1470000)
I1013 18:11:07.385632 24074 net.cpp:156] Memory required for data: 3731082400
I1013 18:11:07.385643 24074 layer_factory.hpp:77] Creating layer conv3_mouth_scale
I1013 18:11:07.385651 24074 net.cpp:91] Creating Layer conv3_mouth_scale
I1013 18:11:07.385656 24074 net.cpp:425] conv3_mouth_scale <- conv3_mouth
I1013 18:11:07.385663 24074 net.cpp:386] conv3_mouth_scale -> conv3_mouth (in-place)
I1013 18:11:07.385711 24074 layer_factory.hpp:77] Creating layer conv3_mouth_scale
I1013 18:11:07.385845 24074 net.cpp:141] Setting up conv3_mouth_scale
I1013 18:11:07.385855 24074 net.cpp:148] Top shape: 100 300 7 7 (1470000)
I1013 18:11:07.385860 24074 net.cpp:156] Memory required for data: 3736962400
I1013 18:11:07.385867 24074 layer_factory.hpp:77] Creating layer prelu3_mouth
I1013 18:11:07.385875 24074 net.cpp:91] Creating Layer prelu3_mouth
I1013 18:11:07.385880 24074 net.cpp:425] prelu3_mouth <- conv3_mouth
I1013 18:11:07.385886 24074 net.cpp:386] prelu3_mouth -> conv3_mouth (in-place)
I1013 18:11:07.386003 24074 net.cpp:141] Setting up prelu3_mouth
I1013 18:11:07.386013 24074 net.cpp:148] Top shape: 100 300 7 7 (1470000)
I1013 18:11:07.386016 24074 net.cpp:156] Memory required for data: 3742842400
I1013 18:11:07.386023 24074 layer_factory.hpp:77] Creating layer pool3_mouth
I1013 18:11:07.386030 24074 net.cpp:91] Creating Layer pool3_mouth
I1013 18:11:07.386035 24074 net.cpp:425] pool3_mouth <- conv3_mouth
I1013 18:11:07.386042 24074 net.cpp:399] pool3_mouth -> pool3_mouth
I1013 18:11:07.386085 24074 net.cpp:141] Setting up pool3_mouth
I1013 18:11:07.386093 24074 net.cpp:148] Top shape: 100 300 4 4 (480000)
I1013 18:11:07.386097 24074 net.cpp:156] Memory required for data: 3744762400
I1013 18:11:07.386101 24074 layer_factory.hpp:77] Creating layer pool3_mouth_pool3_mouth_0_split
I1013 18:11:07.386108 24074 net.cpp:91] Creating Layer pool3_mouth_pool3_mouth_0_split
I1013 18:11:07.386113 24074 net.cpp:425] pool3_mouth_pool3_mouth_0_split <- pool3_mouth
I1013 18:11:07.386121 24074 net.cpp:399] pool3_mouth_pool3_mouth_0_split -> pool3_mouth_pool3_mouth_0_split_0
I1013 18:11:07.386129 24074 net.cpp:399] pool3_mouth_pool3_mouth_0_split -> pool3_mouth_pool3_mouth_0_split_1
I1013 18:11:07.386167 24074 net.cpp:141] Setting up pool3_mouth_pool3_mouth_0_split
I1013 18:11:07.386173 24074 net.cpp:148] Top shape: 100 300 4 4 (480000)
I1013 18:11:07.386178 24074 net.cpp:148] Top shape: 100 300 4 4 (480000)
I1013 18:11:07.386183 24074 net.cpp:156] Memory required for data: 3748602400
I1013 18:11:07.386186 24074 layer_factory.hpp:77] Creating layer fc1_mouth
I1013 18:11:07.386195 24074 net.cpp:91] Creating Layer fc1_mouth
I1013 18:11:07.386199 24074 net.cpp:425] fc1_mouth <- pool3_mouth_pool3_mouth_0_split_0
I1013 18:11:07.386209 24074 net.cpp:399] fc1_mouth -> fc1_mouth
I1013 18:11:07.410401 24074 net.cpp:141] Setting up fc1_mouth
I1013 18:11:07.410423 24074 net.cpp:148] Top shape: 100 512 (51200)
I1013 18:11:07.410429 24074 net.cpp:156] Memory required for data: 3748807200
I1013 18:11:07.410437 24074 layer_factory.hpp:77] Creating layer relu1_mouth
I1013 18:11:07.410446 24074 net.cpp:91] Creating Layer relu1_mouth
I1013 18:11:07.410451 24074 net.cpp:425] relu1_mouth <- fc1_mouth
I1013 18:11:07.410459 24074 net.cpp:386] relu1_mouth -> fc1_mouth (in-place)
I1013 18:11:07.410470 24074 net.cpp:141] Setting up relu1_mouth
I1013 18:11:07.410475 24074 net.cpp:148] Top shape: 100 512 (51200)
I1013 18:11:07.410478 24074 net.cpp:156] Memory required for data: 3749012000
I1013 18:11:07.410482 24074 layer_factory.hpp:77] Creating layer drop1_mouth
I1013 18:11:07.410506 24074 net.cpp:91] Creating Layer drop1_mouth
I1013 18:11:07.410512 24074 net.cpp:425] drop1_mouth <- fc1_mouth
I1013 18:11:07.410521 24074 net.cpp:386] drop1_mouth -> fc1_mouth (in-place)
I1013 18:11:07.410553 24074 net.cpp:141] Setting up drop1_mouth
I1013 18:11:07.410560 24074 net.cpp:148] Top shape: 100 512 (51200)
I1013 18:11:07.410564 24074 net.cpp:156] Memory required for data: 3749216800
I1013 18:11:07.410568 24074 layer_factory.hpp:77] Creating layer fc2_mouth
I1013 18:11:07.410576 24074 net.cpp:91] Creating Layer fc2_mouth
I1013 18:11:07.410581 24074 net.cpp:425] fc2_mouth <- fc1_mouth
I1013 18:11:07.410589 24074 net.cpp:399] fc2_mouth -> fc2_mouth
I1013 18:11:07.413471 24074 net.cpp:141] Setting up fc2_mouth
I1013 18:11:07.413489 24074 net.cpp:148] Top shape: 100 512 (51200)
I1013 18:11:07.413494 24074 net.cpp:156] Memory required for data: 3749421600
I1013 18:11:07.413502 24074 layer_factory.hpp:77] Creating layer relu2_mouth
I1013 18:11:07.413511 24074 net.cpp:91] Creating Layer relu2_mouth
I1013 18:11:07.413516 24074 net.cpp:425] relu2_mouth <- fc2_mouth
I1013 18:11:07.413523 24074 net.cpp:386] relu2_mouth -> fc2_mouth (in-place)
I1013 18:11:07.413532 24074 net.cpp:141] Setting up relu2_mouth
I1013 18:11:07.413537 24074 net.cpp:148] Top shape: 100 512 (51200)
I1013 18:11:07.413542 24074 net.cpp:156] Memory required for data: 3749626400
I1013 18:11:07.413545 24074 layer_factory.hpp:77] Creating layer drop2_mouth
I1013 18:11:07.413552 24074 net.cpp:91] Creating Layer drop2_mouth
I1013 18:11:07.413558 24074 net.cpp:425] drop2_mouth <- fc2_mouth
I1013 18:11:07.413564 24074 net.cpp:386] drop2_mouth -> fc2_mouth (in-place)
I1013 18:11:07.413590 24074 net.cpp:141] Setting up drop2_mouth
I1013 18:11:07.413597 24074 net.cpp:148] Top shape: 100 512 (51200)
I1013 18:11:07.413601 24074 net.cpp:156] Memory required for data: 3749831200
I1013 18:11:07.413604 24074 layer_factory.hpp:77] Creating layer fc2_mouth_drop2_mouth_0_split
I1013 18:11:07.413620 24074 net.cpp:91] Creating Layer fc2_mouth_drop2_mouth_0_split
I1013 18:11:07.413625 24074 net.cpp:425] fc2_mouth_drop2_mouth_0_split <- fc2_mouth
I1013 18:11:07.413633 24074 net.cpp:399] fc2_mouth_drop2_mouth_0_split -> fc2_mouth_drop2_mouth_0_split_0
I1013 18:11:07.413642 24074 net.cpp:399] fc2_mouth_drop2_mouth_0_split -> fc2_mouth_drop2_mouth_0_split_1
I1013 18:11:07.413650 24074 net.cpp:399] fc2_mouth_drop2_mouth_0_split -> fc2_mouth_drop2_mouth_0_split_2
I1013 18:11:07.413658 24074 net.cpp:399] fc2_mouth_drop2_mouth_0_split -> fc2_mouth_drop2_mouth_0_split_3
I1013 18:11:07.413723 24074 net.cpp:141] Setting up fc2_mouth_drop2_mouth_0_split
I1013 18:11:07.413732 24074 net.cpp:148] Top shape: 100 512 (51200)
I1013 18:11:07.413736 24074 net.cpp:148] Top shape: 100 512 (51200)
I1013 18:11:07.413740 24074 net.cpp:148] Top shape: 100 512 (51200)
I1013 18:11:07.413745 24074 net.cpp:148] Top shape: 100 512 (51200)
I1013 18:11:07.413749 24074 net.cpp:156] Memory required for data: 3750650400
I1013 18:11:07.413753 24074 layer_factory.hpp:77] Creating layer conv3_eyes
I1013 18:11:07.413765 24074 net.cpp:91] Creating Layer conv3_eyes
I1013 18:11:07.413771 24074 net.cpp:425] conv3_eyes <- pool3_pool3_0_split_3
I1013 18:11:07.413781 24074 net.cpp:399] conv3_eyes -> conv3_eyes
I1013 18:11:07.424301 24074 net.cpp:141] Setting up conv3_eyes
I1013 18:11:07.424320 24074 net.cpp:148] Top shape: 100 300 7 7 (1470000)
I1013 18:11:07.424325 24074 net.cpp:156] Memory required for data: 3756530400
I1013 18:11:07.424334 24074 layer_factory.hpp:77] Creating layer conv3_eyes_bn
I1013 18:11:07.424342 24074 net.cpp:91] Creating Layer conv3_eyes_bn
I1013 18:11:07.424348 24074 net.cpp:425] conv3_eyes_bn <- conv3_eyes
I1013 18:11:07.424356 24074 net.cpp:386] conv3_eyes_bn -> conv3_eyes (in-place)
I1013 18:11:07.424561 24074 net.cpp:141] Setting up conv3_eyes_bn
I1013 18:11:07.424572 24074 net.cpp:148] Top shape: 100 300 7 7 (1470000)
I1013 18:11:07.424576 24074 net.cpp:156] Memory required for data: 3762410400
I1013 18:11:07.424602 24074 layer_factory.hpp:77] Creating layer conv3_eyes_scale
I1013 18:11:07.424612 24074 net.cpp:91] Creating Layer conv3_eyes_scale
I1013 18:11:07.424618 24074 net.cpp:425] conv3_eyes_scale <- conv3_eyes
I1013 18:11:07.424624 24074 net.cpp:386] conv3_eyes_scale -> conv3_eyes (in-place)
I1013 18:11:07.424674 24074 layer_factory.hpp:77] Creating layer conv3_eyes_scale
I1013 18:11:07.424804 24074 net.cpp:141] Setting up conv3_eyes_scale
I1013 18:11:07.424815 24074 net.cpp:148] Top shape: 100 300 7 7 (1470000)
I1013 18:11:07.424819 24074 net.cpp:156] Memory required for data: 3768290400
I1013 18:11:07.424826 24074 layer_factory.hpp:77] Creating layer prelu3_eyes
I1013 18:11:07.424834 24074 net.cpp:91] Creating Layer prelu3_eyes
I1013 18:11:07.424839 24074 net.cpp:425] prelu3_eyes <- conv3_eyes
I1013 18:11:07.424845 24074 net.cpp:386] prelu3_eyes -> conv3_eyes (in-place)
I1013 18:11:07.424963 24074 net.cpp:141] Setting up prelu3_eyes
I1013 18:11:07.424973 24074 net.cpp:148] Top shape: 100 300 7 7 (1470000)
I1013 18:11:07.424978 24074 net.cpp:156] Memory required for data: 3774170400
I1013 18:11:07.424983 24074 layer_factory.hpp:77] Creating layer pool3_eyes
I1013 18:11:07.424991 24074 net.cpp:91] Creating Layer pool3_eyes
I1013 18:11:07.424996 24074 net.cpp:425] pool3_eyes <- conv3_eyes
I1013 18:11:07.425004 24074 net.cpp:399] pool3_eyes -> pool3_eyes
I1013 18:11:07.425046 24074 net.cpp:141] Setting up pool3_eyes
I1013 18:11:07.425055 24074 net.cpp:148] Top shape: 100 300 4 4 (480000)
I1013 18:11:07.425060 24074 net.cpp:156] Memory required for data: 3776090400
I1013 18:11:07.425063 24074 layer_factory.hpp:77] Creating layer pool3_eyes_pool3_eyes_0_split
I1013 18:11:07.425071 24074 net.cpp:91] Creating Layer pool3_eyes_pool3_eyes_0_split
I1013 18:11:07.425076 24074 net.cpp:425] pool3_eyes_pool3_eyes_0_split <- pool3_eyes
I1013 18:11:07.425083 24074 net.cpp:399] pool3_eyes_pool3_eyes_0_split -> pool3_eyes_pool3_eyes_0_split_0
I1013 18:11:07.425091 24074 net.cpp:399] pool3_eyes_pool3_eyes_0_split -> pool3_eyes_pool3_eyes_0_split_1
I1013 18:11:07.425128 24074 net.cpp:141] Setting up pool3_eyes_pool3_eyes_0_split
I1013 18:11:07.425134 24074 net.cpp:148] Top shape: 100 300 4 4 (480000)
I1013 18:11:07.425139 24074 net.cpp:148] Top shape: 100 300 4 4 (480000)
I1013 18:11:07.425143 24074 net.cpp:156] Memory required for data: 3779930400
I1013 18:11:07.425148 24074 layer_factory.hpp:77] Creating layer fc1_eyes
I1013 18:11:07.425156 24074 net.cpp:91] Creating Layer fc1_eyes
I1013 18:11:07.425164 24074 net.cpp:425] fc1_eyes <- pool3_eyes_pool3_eyes_0_split_0
I1013 18:11:07.425173 24074 net.cpp:399] fc1_eyes -> fc1_eyes
I1013 18:11:07.449370 24074 net.cpp:141] Setting up fc1_eyes
I1013 18:11:07.449391 24074 net.cpp:148] Top shape: 100 512 (51200)
I1013 18:11:07.449396 24074 net.cpp:156] Memory required for data: 3780135200
I1013 18:11:07.449405 24074 layer_factory.hpp:77] Creating layer relu1_eyes
I1013 18:11:07.449414 24074 net.cpp:91] Creating Layer relu1_eyes
I1013 18:11:07.449419 24074 net.cpp:425] relu1_eyes <- fc1_eyes
I1013 18:11:07.449426 24074 net.cpp:386] relu1_eyes -> fc1_eyes (in-place)
I1013 18:11:07.449435 24074 net.cpp:141] Setting up relu1_eyes
I1013 18:11:07.449441 24074 net.cpp:148] Top shape: 100 512 (51200)
I1013 18:11:07.449445 24074 net.cpp:156] Memory required for data: 3780340000
I1013 18:11:07.449450 24074 layer_factory.hpp:77] Creating layer drop1_eyes
I1013 18:11:07.449457 24074 net.cpp:91] Creating Layer drop1_eyes
I1013 18:11:07.449461 24074 net.cpp:425] drop1_eyes <- fc1_eyes
I1013 18:11:07.449468 24074 net.cpp:386] drop1_eyes -> fc1_eyes (in-place)
I1013 18:11:07.449496 24074 net.cpp:141] Setting up drop1_eyes
I1013 18:11:07.449504 24074 net.cpp:148] Top shape: 100 512 (51200)
I1013 18:11:07.449509 24074 net.cpp:156] Memory required for data: 3780544800
I1013 18:11:07.449513 24074 layer_factory.hpp:77] Creating layer fc2_eyes
I1013 18:11:07.449522 24074 net.cpp:91] Creating Layer fc2_eyes
I1013 18:11:07.449527 24074 net.cpp:425] fc2_eyes <- fc1_eyes
I1013 18:11:07.449534 24074 net.cpp:399] fc2_eyes -> fc2_eyes
I1013 18:11:07.452437 24074 net.cpp:141] Setting up fc2_eyes
I1013 18:11:07.452455 24074 net.cpp:148] Top shape: 100 512 (51200)
I1013 18:11:07.452460 24074 net.cpp:156] Memory required for data: 3780749600
I1013 18:11:07.452467 24074 layer_factory.hpp:77] Creating layer relu2_eyes
I1013 18:11:07.452476 24074 net.cpp:91] Creating Layer relu2_eyes
I1013 18:11:07.452481 24074 net.cpp:425] relu2_eyes <- fc2_eyes
I1013 18:11:07.452488 24074 net.cpp:386] relu2_eyes -> fc2_eyes (in-place)
I1013 18:11:07.452497 24074 net.cpp:141] Setting up relu2_eyes
I1013 18:11:07.452502 24074 net.cpp:148] Top shape: 100 512 (51200)
I1013 18:11:07.452505 24074 net.cpp:156] Memory required for data: 3780954400
I1013 18:11:07.452509 24074 layer_factory.hpp:77] Creating layer drop2_eyes
I1013 18:11:07.452517 24074 net.cpp:91] Creating Layer drop2_eyes
I1013 18:11:07.452522 24074 net.cpp:425] drop2_eyes <- fc2_eyes
I1013 18:11:07.452528 24074 net.cpp:386] drop2_eyes -> fc2_eyes (in-place)
I1013 18:11:07.452555 24074 net.cpp:141] Setting up drop2_eyes
I1013 18:11:07.452563 24074 net.cpp:148] Top shape: 100 512 (51200)
I1013 18:11:07.452566 24074 net.cpp:156] Memory required for data: 3781159200
I1013 18:11:07.452570 24074 layer_factory.hpp:77] Creating layer fc2_eyes_drop2_eyes_0_split
I1013 18:11:07.452579 24074 net.cpp:91] Creating Layer fc2_eyes_drop2_eyes_0_split
I1013 18:11:07.452582 24074 net.cpp:425] fc2_eyes_drop2_eyes_0_split <- fc2_eyes
I1013 18:11:07.452589 24074 net.cpp:399] fc2_eyes_drop2_eyes_0_split -> fc2_eyes_drop2_eyes_0_split_0
I1013 18:11:07.452600 24074 net.cpp:399] fc2_eyes_drop2_eyes_0_split -> fc2_eyes_drop2_eyes_0_split_1
I1013 18:11:07.452607 24074 net.cpp:399] fc2_eyes_drop2_eyes_0_split -> fc2_eyes_drop2_eyes_0_split_2
I1013 18:11:07.452615 24074 net.cpp:399] fc2_eyes_drop2_eyes_0_split -> fc2_eyes_drop2_eyes_0_split_3
I1013 18:11:07.452623 24074 net.cpp:399] fc2_eyes_drop2_eyes_0_split -> fc2_eyes_drop2_eyes_0_split_4
I1013 18:11:07.452695 24074 net.cpp:141] Setting up fc2_eyes_drop2_eyes_0_split
I1013 18:11:07.452702 24074 net.cpp:148] Top shape: 100 512 (51200)
I1013 18:11:07.452708 24074 net.cpp:148] Top shape: 100 512 (51200)
I1013 18:11:07.452713 24074 net.cpp:148] Top shape: 100 512 (51200)
I1013 18:11:07.452718 24074 net.cpp:148] Top shape: 100 512 (51200)
I1013 18:11:07.452723 24074 net.cpp:148] Top shape: 100 512 (51200)
I1013 18:11:07.452726 24074 net.cpp:156] Memory required for data: 3782183200
I1013 18:11:07.452730 24074 layer_factory.hpp:77] Creating layer conv3_face
I1013 18:11:07.452742 24074 net.cpp:91] Creating Layer conv3_face
I1013 18:11:07.452747 24074 net.cpp:425] conv3_face <- pool3_pool3_0_split_4
I1013 18:11:07.452757 24074 net.cpp:399] conv3_face -> conv3_face
I1013 18:11:07.463289 24074 net.cpp:141] Setting up conv3_face
I1013 18:11:07.463309 24074 net.cpp:148] Top shape: 100 300 7 7 (1470000)
I1013 18:11:07.463313 24074 net.cpp:156] Memory required for data: 3788063200
I1013 18:11:07.463321 24074 layer_factory.hpp:77] Creating layer conv3_face_bn
I1013 18:11:07.463330 24074 net.cpp:91] Creating Layer conv3_face_bn
I1013 18:11:07.463336 24074 net.cpp:425] conv3_face_bn <- conv3_face
I1013 18:11:07.463343 24074 net.cpp:386] conv3_face_bn -> conv3_face (in-place)
I1013 18:11:07.463557 24074 net.cpp:141] Setting up conv3_face_bn
I1013 18:11:07.463567 24074 net.cpp:148] Top shape: 100 300 7 7 (1470000)
I1013 18:11:07.463572 24074 net.cpp:156] Memory required for data: 3793943200
I1013 18:11:07.463582 24074 layer_factory.hpp:77] Creating layer conv3_face_scale
I1013 18:11:07.463589 24074 net.cpp:91] Creating Layer conv3_face_scale
I1013 18:11:07.463594 24074 net.cpp:425] conv3_face_scale <- conv3_face
I1013 18:11:07.463600 24074 net.cpp:386] conv3_face_scale -> conv3_face (in-place)
I1013 18:11:07.463647 24074 layer_factory.hpp:77] Creating layer conv3_face_scale
I1013 18:11:07.463780 24074 net.cpp:141] Setting up conv3_face_scale
I1013 18:11:07.463791 24074 net.cpp:148] Top shape: 100 300 7 7 (1470000)
I1013 18:11:07.463795 24074 net.cpp:156] Memory required for data: 3799823200
I1013 18:11:07.463824 24074 layer_factory.hpp:77] Creating layer prelu3_face
I1013 18:11:07.463835 24074 net.cpp:91] Creating Layer prelu3_face
I1013 18:11:07.463840 24074 net.cpp:425] prelu3_face <- conv3_face
I1013 18:11:07.463846 24074 net.cpp:386] prelu3_face -> conv3_face (in-place)
I1013 18:11:07.463974 24074 net.cpp:141] Setting up prelu3_face
I1013 18:11:07.463985 24074 net.cpp:148] Top shape: 100 300 7 7 (1470000)
I1013 18:11:07.463989 24074 net.cpp:156] Memory required for data: 3805703200
I1013 18:11:07.463995 24074 layer_factory.hpp:77] Creating layer pool3_face
I1013 18:11:07.464004 24074 net.cpp:91] Creating Layer pool3_face
I1013 18:11:07.464009 24074 net.cpp:425] pool3_face <- conv3_face
I1013 18:11:07.464016 24074 net.cpp:399] pool3_face -> pool3_face
I1013 18:11:07.464059 24074 net.cpp:141] Setting up pool3_face
I1013 18:11:07.464068 24074 net.cpp:148] Top shape: 100 300 4 4 (480000)
I1013 18:11:07.464072 24074 net.cpp:156] Memory required for data: 3807623200
I1013 18:11:07.464076 24074 layer_factory.hpp:77] Creating layer pool3_face_pool3_face_0_split
I1013 18:11:07.464083 24074 net.cpp:91] Creating Layer pool3_face_pool3_face_0_split
I1013 18:11:07.464088 24074 net.cpp:425] pool3_face_pool3_face_0_split <- pool3_face
I1013 18:11:07.464095 24074 net.cpp:399] pool3_face_pool3_face_0_split -> pool3_face_pool3_face_0_split_0
I1013 18:11:07.464103 24074 net.cpp:399] pool3_face_pool3_face_0_split -> pool3_face_pool3_face_0_split_1
I1013 18:11:07.464141 24074 net.cpp:141] Setting up pool3_face_pool3_face_0_split
I1013 18:11:07.464148 24074 net.cpp:148] Top shape: 100 300 4 4 (480000)
I1013 18:11:07.464154 24074 net.cpp:148] Top shape: 100 300 4 4 (480000)
I1013 18:11:07.464157 24074 net.cpp:156] Memory required for data: 3811463200
I1013 18:11:07.464161 24074 layer_factory.hpp:77] Creating layer fc1_face
I1013 18:11:07.464169 24074 net.cpp:91] Creating Layer fc1_face
I1013 18:11:07.464174 24074 net.cpp:425] fc1_face <- pool3_face_pool3_face_0_split_0
I1013 18:11:07.464182 24074 net.cpp:399] fc1_face -> fc1_face
I1013 18:11:07.486800 24074 net.cpp:141] Setting up fc1_face
I1013 18:11:07.486821 24074 net.cpp:148] Top shape: 100 512 (51200)
I1013 18:11:07.486825 24074 net.cpp:156] Memory required for data: 3811668000
I1013 18:11:07.486832 24074 layer_factory.hpp:77] Creating layer relu1_face
I1013 18:11:07.486840 24074 net.cpp:91] Creating Layer relu1_face
I1013 18:11:07.486847 24074 net.cpp:425] relu1_face <- fc1_face
I1013 18:11:07.486855 24074 net.cpp:386] relu1_face -> fc1_face (in-place)
I1013 18:11:07.486862 24074 net.cpp:141] Setting up relu1_face
I1013 18:11:07.486867 24074 net.cpp:148] Top shape: 100 512 (51200)
I1013 18:11:07.486871 24074 net.cpp:156] Memory required for data: 3811872800
I1013 18:11:07.486876 24074 layer_factory.hpp:77] Creating layer drop1_face
I1013 18:11:07.486882 24074 net.cpp:91] Creating Layer drop1_face
I1013 18:11:07.486886 24074 net.cpp:425] drop1_face <- fc1_face
I1013 18:11:07.486892 24074 net.cpp:386] drop1_face -> fc1_face (in-place)
I1013 18:11:07.486917 24074 net.cpp:141] Setting up drop1_face
I1013 18:11:07.486923 24074 net.cpp:148] Top shape: 100 512 (51200)
I1013 18:11:07.486927 24074 net.cpp:156] Memory required for data: 3812077600
I1013 18:11:07.486930 24074 layer_factory.hpp:77] Creating layer fc2_face
I1013 18:11:07.486938 24074 net.cpp:91] Creating Layer fc2_face
I1013 18:11:07.486943 24074 net.cpp:425] fc2_face <- fc1_face
I1013 18:11:07.486950 24074 net.cpp:399] fc2_face -> fc2_face
I1013 18:11:07.489548 24074 net.cpp:141] Setting up fc2_face
I1013 18:11:07.489564 24074 net.cpp:148] Top shape: 100 512 (51200)
I1013 18:11:07.489569 24074 net.cpp:156] Memory required for data: 3812282400
I1013 18:11:07.489576 24074 layer_factory.hpp:77] Creating layer relu2_face
I1013 18:11:07.489583 24074 net.cpp:91] Creating Layer relu2_face
I1013 18:11:07.489588 24074 net.cpp:425] relu2_face <- fc2_face
I1013 18:11:07.489594 24074 net.cpp:386] relu2_face -> fc2_face (in-place)
I1013 18:11:07.489603 24074 net.cpp:141] Setting up relu2_face
I1013 18:11:07.489608 24074 net.cpp:148] Top shape: 100 512 (51200)
I1013 18:11:07.489622 24074 net.cpp:156] Memory required for data: 3812487200
I1013 18:11:07.489627 24074 layer_factory.hpp:77] Creating layer drop2_face
I1013 18:11:07.489634 24074 net.cpp:91] Creating Layer drop2_face
I1013 18:11:07.489639 24074 net.cpp:425] drop2_face <- fc2_face
I1013 18:11:07.489645 24074 net.cpp:386] drop2_face -> fc2_face (in-place)
I1013 18:11:07.489671 24074 net.cpp:141] Setting up drop2_face
I1013 18:11:07.489678 24074 net.cpp:148] Top shape: 100 512 (51200)
I1013 18:11:07.489681 24074 net.cpp:156] Memory required for data: 3812692000
I1013 18:11:07.489686 24074 layer_factory.hpp:77] Creating layer fc2_face_drop2_face_0_split
I1013 18:11:07.489692 24074 net.cpp:91] Creating Layer fc2_face_drop2_face_0_split
I1013 18:11:07.489696 24074 net.cpp:425] fc2_face_drop2_face_0_split <- fc2_face
I1013 18:11:07.489703 24074 net.cpp:399] fc2_face_drop2_face_0_split -> fc2_face_drop2_face_0_split_0
I1013 18:11:07.489711 24074 net.cpp:399] fc2_face_drop2_face_0_split -> fc2_face_drop2_face_0_split_1
I1013 18:11:07.489719 24074 net.cpp:399] fc2_face_drop2_face_0_split -> fc2_face_drop2_face_0_split_2
I1013 18:11:07.489727 24074 net.cpp:399] fc2_face_drop2_face_0_split -> fc2_face_drop2_face_0_split_3
I1013 18:11:07.489733 24074 net.cpp:399] fc2_face_drop2_face_0_split -> fc2_face_drop2_face_0_split_4
I1013 18:11:07.489740 24074 net.cpp:399] fc2_face_drop2_face_0_split -> fc2_face_drop2_face_0_split_5
I1013 18:11:07.489816 24074 net.cpp:141] Setting up fc2_face_drop2_face_0_split
I1013 18:11:07.489823 24074 net.cpp:148] Top shape: 100 512 (51200)
I1013 18:11:07.489827 24074 net.cpp:148] Top shape: 100 512 (51200)
I1013 18:11:07.489832 24074 net.cpp:148] Top shape: 100 512 (51200)
I1013 18:11:07.489836 24074 net.cpp:148] Top shape: 100 512 (51200)
I1013 18:11:07.489840 24074 net.cpp:148] Top shape: 100 512 (51200)
I1013 18:11:07.489845 24074 net.cpp:148] Top shape: 100 512 (51200)
I1013 18:11:07.489847 24074 net.cpp:156] Memory required for data: 3813920800
I1013 18:11:07.489851 24074 layer_factory.hpp:77] Creating layer conv3_rest
I1013 18:11:07.489862 24074 net.cpp:91] Creating Layer conv3_rest
I1013 18:11:07.489867 24074 net.cpp:425] conv3_rest <- pool3_pool3_0_split_5
I1013 18:11:07.489876 24074 net.cpp:399] conv3_rest -> conv3_rest
I1013 18:11:07.499292 24074 net.cpp:141] Setting up conv3_rest
I1013 18:11:07.499310 24074 net.cpp:148] Top shape: 100 300 7 7 (1470000)
I1013 18:11:07.499315 24074 net.cpp:156] Memory required for data: 3819800800
I1013 18:11:07.499321 24074 layer_factory.hpp:77] Creating layer conv3_rest_bn
I1013 18:11:07.499330 24074 net.cpp:91] Creating Layer conv3_rest_bn
I1013 18:11:07.499335 24074 net.cpp:425] conv3_rest_bn <- conv3_rest
I1013 18:11:07.499342 24074 net.cpp:386] conv3_rest_bn -> conv3_rest (in-place)
I1013 18:11:07.499536 24074 net.cpp:141] Setting up conv3_rest_bn
I1013 18:11:07.499546 24074 net.cpp:148] Top shape: 100 300 7 7 (1470000)
I1013 18:11:07.499550 24074 net.cpp:156] Memory required for data: 3825680800
I1013 18:11:07.499559 24074 layer_factory.hpp:77] Creating layer conv3_rest_scale
I1013 18:11:07.499567 24074 net.cpp:91] Creating Layer conv3_rest_scale
I1013 18:11:07.499572 24074 net.cpp:425] conv3_rest_scale <- conv3_rest
I1013 18:11:07.499577 24074 net.cpp:386] conv3_rest_scale -> conv3_rest (in-place)
I1013 18:11:07.499620 24074 layer_factory.hpp:77] Creating layer conv3_rest_scale
I1013 18:11:07.499748 24074 net.cpp:141] Setting up conv3_rest_scale
I1013 18:11:07.499758 24074 net.cpp:148] Top shape: 100 300 7 7 (1470000)
I1013 18:11:07.499761 24074 net.cpp:156] Memory required for data: 3831560800
I1013 18:11:07.499768 24074 layer_factory.hpp:77] Creating layer prelu3_rest
I1013 18:11:07.499775 24074 net.cpp:91] Creating Layer prelu3_rest
I1013 18:11:07.499779 24074 net.cpp:425] prelu3_rest <- conv3_rest
I1013 18:11:07.499786 24074 net.cpp:386] prelu3_rest -> conv3_rest (in-place)
I1013 18:11:07.499909 24074 net.cpp:141] Setting up prelu3_rest
I1013 18:11:07.499919 24074 net.cpp:148] Top shape: 100 300 7 7 (1470000)
I1013 18:11:07.499935 24074 net.cpp:156] Memory required for data: 3837440800
I1013 18:11:07.499943 24074 layer_factory.hpp:77] Creating layer pool3_rest
I1013 18:11:07.499950 24074 net.cpp:91] Creating Layer pool3_rest
I1013 18:11:07.499954 24074 net.cpp:425] pool3_rest <- conv3_rest
I1013 18:11:07.499961 24074 net.cpp:399] pool3_rest -> pool3_rest
I1013 18:11:07.500002 24074 net.cpp:141] Setting up pool3_rest
I1013 18:11:07.500020 24074 net.cpp:148] Top shape: 100 300 4 4 (480000)
I1013 18:11:07.500025 24074 net.cpp:156] Memory required for data: 3839360800
I1013 18:11:07.500027 24074 layer_factory.hpp:77] Creating layer pool3_rest_pool3_rest_0_split
I1013 18:11:07.500035 24074 net.cpp:91] Creating Layer pool3_rest_pool3_rest_0_split
I1013 18:11:07.500039 24074 net.cpp:425] pool3_rest_pool3_rest_0_split <- pool3_rest
I1013 18:11:07.500046 24074 net.cpp:399] pool3_rest_pool3_rest_0_split -> pool3_rest_pool3_rest_0_split_0
I1013 18:11:07.500054 24074 net.cpp:399] pool3_rest_pool3_rest_0_split -> pool3_rest_pool3_rest_0_split_1
I1013 18:11:07.500061 24074 net.cpp:399] pool3_rest_pool3_rest_0_split -> pool3_rest_pool3_rest_0_split_2
I1013 18:11:07.500068 24074 net.cpp:399] pool3_rest_pool3_rest_0_split -> pool3_rest_pool3_rest_0_split_3
I1013 18:11:07.500075 24074 net.cpp:399] pool3_rest_pool3_rest_0_split -> pool3_rest_pool3_rest_0_split_4
I1013 18:11:07.500141 24074 net.cpp:141] Setting up pool3_rest_pool3_rest_0_split
I1013 18:11:07.500149 24074 net.cpp:148] Top shape: 100 300 4 4 (480000)
I1013 18:11:07.500154 24074 net.cpp:148] Top shape: 100 300 4 4 (480000)
I1013 18:11:07.500159 24074 net.cpp:148] Top shape: 100 300 4 4 (480000)
I1013 18:11:07.500162 24074 net.cpp:148] Top shape: 100 300 4 4 (480000)
I1013 18:11:07.500167 24074 net.cpp:148] Top shape: 100 300 4 4 (480000)
I1013 18:11:07.500170 24074 net.cpp:156] Memory required for data: 3848960800
I1013 18:11:07.500174 24074 layer_factory.hpp:77] Creating layer fc1_aroundhead
I1013 18:11:07.500182 24074 net.cpp:91] Creating Layer fc1_aroundhead
I1013 18:11:07.500186 24074 net.cpp:425] fc1_aroundhead <- pool3_rest_pool3_rest_0_split_0
I1013 18:11:07.500195 24074 net.cpp:399] fc1_aroundhead -> fc1_aroundhead
I1013 18:11:07.521765 24074 net.cpp:141] Setting up fc1_aroundhead
I1013 18:11:07.521786 24074 net.cpp:148] Top shape: 100 512 (51200)
I1013 18:11:07.521791 24074 net.cpp:156] Memory required for data: 3849165600
I1013 18:11:07.521798 24074 layer_factory.hpp:77] Creating layer relu1_aroundhead
I1013 18:11:07.521806 24074 net.cpp:91] Creating Layer relu1_aroundhead
I1013 18:11:07.521811 24074 net.cpp:425] relu1_aroundhead <- fc1_aroundhead
I1013 18:11:07.521818 24074 net.cpp:386] relu1_aroundhead -> fc1_aroundhead (in-place)
I1013 18:11:07.521826 24074 net.cpp:141] Setting up relu1_aroundhead
I1013 18:11:07.521831 24074 net.cpp:148] Top shape: 100 512 (51200)
I1013 18:11:07.521836 24074 net.cpp:156] Memory required for data: 3849370400
I1013 18:11:07.521838 24074 layer_factory.hpp:77] Creating layer drop1_aroundhead
I1013 18:11:07.521845 24074 net.cpp:91] Creating Layer drop1_aroundhead
I1013 18:11:07.521849 24074 net.cpp:425] drop1_aroundhead <- fc1_aroundhead
I1013 18:11:07.521855 24074 net.cpp:386] drop1_aroundhead -> fc1_aroundhead (in-place)
I1013 18:11:07.521883 24074 net.cpp:141] Setting up drop1_aroundhead
I1013 18:11:07.521889 24074 net.cpp:148] Top shape: 100 512 (51200)
I1013 18:11:07.521893 24074 net.cpp:156] Memory required for data: 3849575200
I1013 18:11:07.521896 24074 layer_factory.hpp:77] Creating layer fc2_aroundhead
I1013 18:11:07.521904 24074 net.cpp:91] Creating Layer fc2_aroundhead
I1013 18:11:07.521909 24074 net.cpp:425] fc2_aroundhead <- fc1_aroundhead
I1013 18:11:07.521916 24074 net.cpp:399] fc2_aroundhead -> fc2_aroundhead
I1013 18:11:07.524513 24074 net.cpp:141] Setting up fc2_aroundhead
I1013 18:11:07.524529 24074 net.cpp:148] Top shape: 100 512 (51200)
I1013 18:11:07.524533 24074 net.cpp:156] Memory required for data: 3849780000
I1013 18:11:07.524540 24074 layer_factory.hpp:77] Creating layer relu2_aroundhead
I1013 18:11:07.524547 24074 net.cpp:91] Creating Layer relu2_aroundhead
I1013 18:11:07.524564 24074 net.cpp:425] relu2_aroundhead <- fc2_aroundhead
I1013 18:11:07.524572 24074 net.cpp:386] relu2_aroundhead -> fc2_aroundhead (in-place)
I1013 18:11:07.524580 24074 net.cpp:141] Setting up relu2_aroundhead
I1013 18:11:07.524585 24074 net.cpp:148] Top shape: 100 512 (51200)
I1013 18:11:07.524588 24074 net.cpp:156] Memory required for data: 3849984800
I1013 18:11:07.524592 24074 layer_factory.hpp:77] Creating layer drop2_aroundhead
I1013 18:11:07.524600 24074 net.cpp:91] Creating Layer drop2_aroundhead
I1013 18:11:07.524603 24074 net.cpp:425] drop2_aroundhead <- fc2_aroundhead
I1013 18:11:07.524610 24074 net.cpp:386] drop2_aroundhead -> fc2_aroundhead (in-place)
I1013 18:11:07.524636 24074 net.cpp:141] Setting up drop2_aroundhead
I1013 18:11:07.524641 24074 net.cpp:148] Top shape: 100 512 (51200)
I1013 18:11:07.524646 24074 net.cpp:156] Memory required for data: 3850189600
I1013 18:11:07.524648 24074 layer_factory.hpp:77] Creating layer fc2_aroundhead_drop2_aroundhead_0_split
I1013 18:11:07.524657 24074 net.cpp:91] Creating Layer fc2_aroundhead_drop2_aroundhead_0_split
I1013 18:11:07.524662 24074 net.cpp:425] fc2_aroundhead_drop2_aroundhead_0_split <- fc2_aroundhead
I1013 18:11:07.524667 24074 net.cpp:399] fc2_aroundhead_drop2_aroundhead_0_split -> fc2_aroundhead_drop2_aroundhead_0_split_0
…
I1013 18:11:07.524736 24074 net.cpp:399] fc2_aroundhead_drop2_aroundhead_0_split -> fc2_aroundhead_drop2_aroundhead_0_split_9
I1013 18:11:07.524744 24074 net.cpp:399] fc2_aroundhead_drop2_aroundhead_0_split -> fc2_aroundhead_drop2_aroundhead_0_split_10
I1013 18:11:07.524751 24074 net.cpp:399] fc2_aroundhead_drop2_aroundhead_0_split -> fc2_aroundhead_drop2_aroundhead_0_split_11
I1013 18:11:07.524758 24074 net.cpp:399] fc2_aroundhead_drop2_aroundhead_0_split -> fc2_aroundhead_drop2_aroundhead_0_split_12
I1013 18:11:07.524910 24074 net.cpp:141] Setting up fc2_aroundhead_drop2_aroundhead_0_split
I1013 18:11:07.524919 24074 net.cpp:148] Top shape: 100 512 (51200)
I1013 18:11:07.524924 24074 net.cpp:148] Top shape: 100 512 (51200)
I1013 18:11:07.524929 24074 net.cpp:148] Top shape: 100 512 (51200)
I1013 18:11:07.524933 24074 net.cpp:148] Top shape: 100 512 (51200)
I1013 18:11:07.524937 24074 net.cpp:148] Top shape: 100 512 (51200)
I1013 18:11:07.524941 24074 net.cpp:148] Top shape: 100 512 (51200)
I1013 18:11:07.524945 24074 net.cpp:148] Top shape: 100 512 (51200)
I1013 18:11:07.524950 24074 net.cpp:148] Top shape: 100 512 (51200)
I1013 18:11:07.524953 24074 net.cpp:148] Top shape: 100 512 (51200)
I1013 18:11:07.524958 24074 net.cpp:148] Top shape: 100 512 (51200)
I1013 18:11:07.524962 24074 net.cpp:148] Top shape: 100 512 (51200)
I1013 18:11:07.524966 24074 net.cpp:148] Top shape: 100 512 (51200)
I1013 18:11:07.524971 24074 net.cpp:148] Top shape: 100 512 (51200)
I1013 18:11:07.524974 24074 net.cpp:156] Memory required for data: 3852852000
I1013 18:11:07.524977 24074 layer_factory.hpp:77] Creating layer fc1_facialhair
I1013 18:11:07.524986 24074 net.cpp:91] Creating Layer fc1_facialhair
I1013 18:11:07.524999 24074 net.cpp:425] fc1_facialhair <- pool3_rest_pool3_rest_0_split_1
I1013 18:11:07.525008 24074 net.cpp:399] fc1_facialhair -> fc1_facialhair
I1013 18:11:07.546627 24074 net.cpp:141] Setting up fc1_facialhair
I1013 18:11:07.546645 24074 net.cpp:148] Top shape: 100 512 (51200)
I1013 18:11:07.546650 24074 net.cpp:156] Memory required for data: 3853056800
I1013 18:11:07.546658 24074 layer_factory.hpp:77] Creating layer relu1_facialhair
I1013 18:11:07.546664 24074 net.cpp:91] Creating Layer relu1_facialhair
I1013 18:11:07.546669 24074 net.cpp:425] relu1_facialhair <- fc1_facialhair
I1013 18:11:07.546677 24074 net.cpp:386] relu1_facialhair -> fc1_facialhair (in-place)
I1013 18:11:07.546684 24074 net.cpp:141] Setting up relu1_facialhair
I1013 18:11:07.546689 24074 net.cpp:148] Top shape: 100 512 (51200)
I1013 18:11:07.546694 24074 net.cpp:156] Memory required for data: 3853261600
I1013 18:11:07.546696 24074 layer_factory.hpp:77] Creating layer drop1_facialhair
I1013 18:11:07.546703 24074 net.cpp:91] Creating Layer drop1_facialhair
I1013 18:11:07.546707 24074 net.cpp:425] drop1_facialhair <- fc1_facialhair
I1013 18:11:07.546713 24074 net.cpp:386] drop1_facialhair -> fc1_facialhair (in-place)
I1013 18:11:07.546738 24074 net.cpp:141] Setting up drop1_facialhair
I1013 18:11:07.546746 24074 net.cpp:148] Top shape: 100 512 (51200)
I1013 18:11:07.546748 24074 net.cpp:156] Memory required for data: 3853466400
I1013 18:11:07.546752 24074 layer_factory.hpp:77] Creating layer fc2_facialhair
I1013 18:11:07.546761 24074 net.cpp:91] Creating Layer fc2_facialhair
I1013 18:11:07.546764 24074 net.cpp:425] fc2_facialhair <- fc1_facialhair
I1013 18:11:07.546772 24074 net.cpp:399] fc2_facialhair -> fc2_facialhair
I1013 18:11:07.549377 24074 net.cpp:141] Setting up fc2_facialhair
I1013 18:11:07.549396 24074 net.cpp:148] Top shape: 100 512 (51200)
I1013 18:11:07.549399 24074 net.cpp:156] Memory required for data: 3853671200
I1013 18:11:07.549407 24074 layer_factory.hpp:77] Creating layer relu2_facialhair
I1013 18:11:07.549413 24074 net.cpp:91] Creating Layer relu2_facialhair
I1013 18:11:07.549418 24074 net.cpp:425] relu2_facialhair <- fc2_facialhair
I1013 18:11:07.549427 24074 net.cpp:386] relu2_facialhair -> fc2_facialhair (in-place)
I1013 18:11:07.549434 24074 net.cpp:141] Setting up relu2_facialhair
I1013 18:11:07.549438 24074 net.cpp:148] Top shape: 100 512 (51200)
I1013 18:11:07.549443 24074 net.cpp:156] Memory required for data: 3853876000
I1013 18:11:07.549445 24074 layer_factory.hpp:77] Creating layer drop2_facialhair
I1013 18:11:07.549453 24074 net.cpp:91] Creating Layer drop2_facialhair
I1013 18:11:07.549456 24074 net.cpp:425] drop2_facialhair <- fc2_facialhair
I1013 18:11:07.549463 24074 net.cpp:386] drop2_facialhair -> fc2_facialhair (in-place)
I1013 18:11:07.549487 24074 net.cpp:141] Setting up drop2_facialhair
I1013 18:11:07.549494 24074 net.cpp:148] Top shape: 100 512 (51200)
I1013 18:11:07.549497 24074 net.cpp:156] Memory required for data: 3854080800
I1013 18:11:07.549500 24074 layer_factory.hpp:77] Creating layer fc2_facialhair_drop2_facialhair_0_split
I1013 18:11:07.549507 24074 net.cpp:91] Creating Layer fc2_facialhair_drop2_facialhair_0_split
I1013 18:11:07.549511 24074 net.cpp:425] fc2_facialhair_drop2_facialhair_0_split <- fc2_facialhair
I1013 18:11:07.549518 24074 net.cpp:399] fc2_facialhair_drop2_facialhair_0_split -> fc2_facialhair_drop2_facialhair_0_split_0
I1013 18:11:07.549526 24074 net.cpp:399] fc2_facialhair_drop2_facialhair_0_split -> fc2_facialhair_drop2_facialhair_0_split_1
I1013 18:11:07.549533 24074 net.cpp:399] fc2_facialhair_drop2_facialhair_0_split -> fc2_facialhair_drop2_facialhair_0_split_2
I1013 18:11:07.549540 24074 net.cpp:399] fc2_facialhair_drop2_facialhair_0_split -> fc2_facialhair_drop2_facialhair_0_split_3
I1013 18:11:07.549547 24074 net.cpp:399] fc2_facialhair_drop2_facialhair_0_split -> fc2_facialhair_drop2_facialhair_0_split_4
I1013 18:11:07.549629 24074 net.cpp:141] Setting up fc2_facialhair_drop2_facialhair_0_split
I1013 18:11:07.549638 24074 net.cpp:148] Top shape: 100 512 (51200)
I1013 18:11:07.549654 24074 net.cpp:148] Top shape: 100 512 (51200)
I1013 18:11:07.549659 24074 net.cpp:148] Top shape: 100 512 (51200)
I1013 18:11:07.549664 24074 net.cpp:148] Top shape: 100 512 (51200)
I1013 18:11:07.549667 24074 net.cpp:148] Top shape: 100 512 (51200)
I1013 18:11:07.549671 24074 net.cpp:156] Memory required for data: 3855104800
I1013 18:11:07.549674 24074 layer_factory.hpp:77] Creating layer fc1_cheeks
I1013 18:11:07.549684 24074 net.cpp:91] Creating Layer fc1_cheeks
I1013 18:11:07.549688 24074 net.cpp:425] fc1_cheeks <- pool3_rest_pool3_rest_0_split_2
I1013 18:11:07.549696 24074 net.cpp:399] fc1_cheeks -> fc1_cheeks
I1013 18:11:07.571301 24074 net.cpp:141] Setting up fc1_cheeks
I1013 18:11:07.571321 24074 net.cpp:148] Top shape: 100 512 (51200)
I1013 18:11:07.571326 24074 net.cpp:156] Memory required for data: 3855309600
I1013 18:11:07.571332 24074 layer_factory.hpp:77] Creating layer relu1_cheeks
I1013 18:11:07.571339 24074 net.cpp:91] Creating Layer relu1_cheeks
I1013 18:11:07.571344 24074 net.cpp:425] relu1_cheeks <- fc1_cheeks
I1013 18:11:07.571352 24074 net.cpp:386] relu1_cheeks -> fc1_cheeks (in-place)
I1013 18:11:07.571359 24074 net.cpp:141] Setting up relu1_cheeks
I1013 18:11:07.571364 24074 net.cpp:148] Top shape: 100 512 (51200)
I1013 18:11:07.571367 24074 net.cpp:156] Memory required for data: 3855514400
I1013 18:11:07.571372 24074 layer_factory.hpp:77] Creating layer drop1_cheeks
I1013 18:11:07.571377 24074 net.cpp:91] Creating Layer drop1_cheeks
I1013 18:11:07.571382 24074 net.cpp:425] drop1_cheeks <- fc1_cheeks
I1013 18:11:07.571388 24074 net.cpp:386] drop1_cheeks -> fc1_cheeks (in-place)
I1013 18:11:07.571413 24074 net.cpp:141] Setting up drop1_cheeks
I1013 18:11:07.571419 24074 net.cpp:148] Top shape: 100 512 (51200)
I1013 18:11:07.571422 24074 net.cpp:156] Memory required for data: 3855719200
I1013 18:11:07.571425 24074 layer_factory.hpp:77] Creating layer fc2_cheeks
I1013 18:11:07.571434 24074 net.cpp:91] Creating Layer fc2_cheeks
I1013 18:11:07.571439 24074 net.cpp:425] fc2_cheeks <- fc1_cheeks
I1013 18:11:07.571445 24074 net.cpp:399] fc2_cheeks -> fc2_cheeks
I1013 18:11:07.574044 24074 net.cpp:141] Setting up fc2_cheeks
I1013 18:11:07.574060 24074 net.cpp:148] Top shape: 100 512 (51200)
I1013 18:11:07.574064 24074 net.cpp:156] Memory required for data: 3855924000
I1013 18:11:07.574071 24074 layer_factory.hpp:77] Creating layer relu2_cheeks
I1013 18:11:07.574079 24074 net.cpp:91] Creating Layer relu2_cheeks
I1013 18:11:07.574084 24074 net.cpp:425] relu2_cheeks <- fc2_cheeks
I1013 18:11:07.574090 24074 net.cpp:386] relu2_cheeks -> fc2_cheeks (in-place)
I1013 18:11:07.574097 24074 net.cpp:141] Setting up relu2_cheeks
I1013 18:11:07.574102 24074 net.cpp:148] Top shape: 100 512 (51200)
I1013 18:11:07.574105 24074 net.cpp:156] Memory required for data: 3856128800
I1013 18:11:07.574110 24074 layer_factory.hpp:77] Creating layer drop2_cheeks
I1013 18:11:07.574115 24074 net.cpp:91] Creating Layer drop2_cheeks
I1013 18:11:07.574120 24074 net.cpp:425] drop2_cheeks <- fc2_cheeks
I1013 18:11:07.574126 24074 net.cpp:386] drop2_cheeks -> fc2_cheeks (in-place)
I1013 18:11:07.574149 24074 net.cpp:141] Setting up drop2_cheeks
I1013 18:11:07.574158 24074 net.cpp:148] Top shape: 100 512 (51200)
I1013 18:11:07.574162 24074 net.cpp:156] Memory required for data: 3856333600
I1013 18:11:07.574165 24074 layer_factory.hpp:77] Creating layer fc2_cheeks_drop2_cheeks_0_split
I1013 18:11:07.574172 24074 net.cpp:91] Creating Layer fc2_cheeks_drop2_cheeks_0_split
I1013 18:11:07.574177 24074 net.cpp:425] fc2_cheeks_drop2_cheeks_0_split <- fc2_cheeks
I1013 18:11:07.574183 24074 net.cpp:399] fc2_cheeks_drop2_cheeks_0_split -> fc2_cheeks_drop2_cheeks_0_split_0
I1013 18:11:07.574190 24074 net.cpp:399] fc2_cheeks_drop2_cheeks_0_split -> fc2_cheeks_drop2_cheeks_0_split_1
I1013 18:11:07.574225 24074 net.cpp:141] Setting up fc2_cheeks_drop2_cheeks_0_split
I1013 18:11:07.574231 24074 net.cpp:148] Top shape: 100 512 (51200)
I1013 18:11:07.574236 24074 net.cpp:148] Top shape: 100 512 (51200)
I1013 18:11:07.574240 24074 net.cpp:156] Memory required for data: 3856743200
I1013 18:11:07.574259 24074 layer_factory.hpp:77] Creating layer fc1_fat
I1013 18:11:07.574267 24074 net.cpp:91] Creating Layer fc1_fat
I1013 18:11:07.574273 24074 net.cpp:425] fc1_fat <- pool3_rest_pool3_rest_0_split_3
I1013 18:11:07.574280 24074 net.cpp:399] fc1_fat -> fc1_fat
I1013 18:11:07.595883 24074 net.cpp:141] Setting up fc1_fat
I1013 18:11:07.595902 24074 net.cpp:148] Top shape: 100 512 (51200)
I1013 18:11:07.595906 24074 net.cpp:156] Memory required for data: 3856948000
I1013 18:11:07.595914 24074 layer_factory.hpp:77] Creating layer relu1_fat
I1013 18:11:07.595922 24074 net.cpp:91] Creating Layer relu1_fat
I1013 18:11:07.595927 24074 net.cpp:425] relu1_fat <- fc1_fat
I1013 18:11:07.595934 24074 net.cpp:386] relu1_fat -> fc1_fat (in-place)
I1013 18:11:07.595942 24074 net.cpp:141] Setting up relu1_fat
I1013 18:11:07.595947 24074 net.cpp:148] Top shape: 100 512 (51200)
I1013 18:11:07.595950 24074 net.cpp:156] Memory required for data: 3857152800
I1013 18:11:07.595954 24074 layer_factory.hpp:77] Creating layer drop1_fat
I1013 18:11:07.595962 24074 net.cpp:91] Creating Layer drop1_fat
I1013 18:11:07.595965 24074 net.cpp:425] drop1_fat <- fc1_fat
I1013 18:11:07.595971 24074 net.cpp:386] drop1_fat -> fc1_fat (in-place)
I1013 18:11:07.595995 24074 net.cpp:141] Setting up drop1_fat
I1013 18:11:07.596001 24074 net.cpp:148] Top shape: 100 512 (51200)
I1013 18:11:07.596005 24074 net.cpp:156] Memory required for data: 3857357600
I1013 18:11:07.596009 24074 layer_factory.hpp:77] Creating layer fc2_fat
I1013 18:11:07.596017 24074 net.cpp:91] Creating Layer fc2_fat
I1013 18:11:07.596021 24074 net.cpp:425] fc2_fat <- fc1_fat
I1013 18:11:07.596029 24074 net.cpp:399] fc2_fat -> fc2_fat
I1013 18:11:07.598611 24074 net.cpp:141] Setting up fc2_fat
I1013 18:11:07.598626 24074 net.cpp:148] Top shape: 100 512 (51200)
I1013 18:11:07.598630 24074 net.cpp:156] Memory required for data: 3857562400
I1013 18:11:07.598637 24074 layer_factory.hpp:77] Creating layer relu2_fat
I1013 18:11:07.598644 24074 net.cpp:91] Creating Layer relu2_fat
I1013 18:11:07.598649 24074 net.cpp:425] relu2_fat <- fc2_fat
I1013 18:11:07.598656 24074 net.cpp:386] relu2_fat -> fc2_fat (in-place)
I1013 18:11:07.598664 24074 net.cpp:141] Setting up relu2_fat
I1013 18:11:07.598669 24074 net.cpp:148] Top shape: 100 512 (51200)
I1013 18:11:07.598672 24074 net.cpp:156] Memory required for data: 3857767200
I1013 18:11:07.598675 24074 layer_factory.hpp:77] Creating layer drop2_fat
I1013 18:11:07.598682 24074 net.cpp:91] Creating Layer drop2_fat
I1013 18:11:07.598686 24074 net.cpp:425] drop2_fat <- fc2_fat
I1013 18:11:07.598692 24074 net.cpp:386] drop2_fat -> fc2_fat (in-place)
I1013 18:11:07.598716 24074 net.cpp:141] Setting up drop2_fat
I1013 18:11:07.598723 24074 net.cpp:148] Top shape: 100 512 (51200)
I1013 18:11:07.598726 24074 net.cpp:156] Memory required for data: 3857972000
I1013 18:11:07.598731 24074 layer_factory.hpp:77] Creating layer fc2_fat_drop2_fat_0_split
I1013 18:11:07.598737 24074 net.cpp:91] Creating Layer fc2_fat_drop2_fat_0_split
I1013 18:11:07.598740 24074 net.cpp:425] fc2_fat_drop2_fat_0_split <- fc2_fat
I1013 18:11:07.598747 24074 net.cpp:399] fc2_fat_drop2_fat_0_split -> fc2_fat_drop2_fat_0_split_0
I1013 18:11:07.598754 24074 net.cpp:399] fc2_fat_drop2_fat_0_split -> fc2_fat_drop2_fat_0_split_1
I1013 18:11:07.598789 24074 net.cpp:141] Setting up fc2_fat_drop2_fat_0_split
I1013 18:11:07.598795 24074 net.cpp:148] Top shape: 100 512 (51200)
I1013 18:11:07.598800 24074 net.cpp:148] Top shape: 100 512 (51200)
I1013 18:11:07.598803 24074 net.cpp:156] Memory required for data: 3858381600
I1013 18:11:07.598806 24074 layer_factory.hpp:77] Creating layer fc3_Male
I1013 18:11:07.598814 24074 net.cpp:91] Creating Layer fc3_Male
I1013 18:11:07.598819 24074 net.cpp:425] fc3_Male <- fc2_gender
I1013 18:11:07.598825 24074 net.cpp:399] fc3_Male -> fc3_Male
I1013 18:11:07.598927 24074 net.cpp:141] Setting up fc3_Male
I1013 18:11:07.598937 24074 net.cpp:148] Top shape: 100 2 (200)
I1013 18:11:07.598940 24074 net.cpp:156] Memory required for data: 3858382400
I1013 18:11:07.598961 24074 layer_factory.hpp:77] Creating layer loss_Male
I1013 18:11:07.598971 24074 net.cpp:91] Creating Layer loss_Male
I1013 18:11:07.598976 24074 net.cpp:425] loss_Male <- fc3_Male
I1013 18:11:07.598983 24074 net.cpp:425] loss_Male <- label_Male
I1013 18:11:07.598990 24074 net.cpp:399] loss_Male -> loss_Male
I1013 18:11:07.599038 24074 net.cpp:141] Setting up loss_Male
I1013 18:11:07.599050 24074 net.cpp:148] Top shape: (1)
I1013 18:11:07.599053 24074 net.cpp:151]     with loss weight 1
I1013 18:11:07.599076 24074 net.cpp:156] Memory required for data: 3858382404
I1013 18:11:07.599079 24074 layer_factory.hpp:77] Creating layer fc3_Big_Nose
I1013 18:11:07.599087 24074 net.cpp:91] Creating Layer fc3_Big_Nose
I1013 18:11:07.599092 24074 net.cpp:425] fc3_Big_Nose <- fc2_nose_drop2_nose_0_split_0
I1013 18:11:07.599100 24074 net.cpp:399] fc3_Big_Nose -> fc3_Big_Nose
I1013 18:11:07.599205 24074 net.cpp:141] Setting up fc3_Big_Nose
I1013 18:11:07.599213 24074 net.cpp:148] Top shape: 100 2 (200)
I1013 18:11:07.599217 24074 net.cpp:156] Memory required for data: 3858383204
I1013 18:11:07.599225 24074 layer_factory.hpp:77] Creating layer loss_Big_Nose
I1013 18:11:07.599253 24074 net.cpp:91] Creating Layer loss_Big_Nose
I1013 18:11:07.599259 24074 net.cpp:425] loss_Big_Nose <- fc3_Big_Nose
I1013 18:11:07.599267 24074 net.cpp:425] loss_Big_Nose <- label_Big_Nose
I1013 18:11:07.599273 24074 net.cpp:399] loss_Big_Nose -> loss_Big_Nose
I1013 18:11:07.599314 24074 net.cpp:141] Setting up loss_Big_Nose
I1013 18:11:07.599323 24074 net.cpp:148] Top shape: (1)
I1013 18:11:07.599326 24074 net.cpp:151]     with loss weight 1
I1013 18:11:07.599333 24074 net.cpp:156] Memory required for data: 3858383208
I1013 18:11:07.599336 24074 layer_factory.hpp:77] Creating layer fc3_Pointy_Nose
I1013 18:11:07.599344 24074 net.cpp:91] Creating Layer fc3_Pointy_Nose
I1013 18:11:07.599349 24074 net.cpp:425] fc3_Pointy_Nose <- fc2_nose_drop2_nose_0_split_1
I1013 18:11:07.599356 24074 net.cpp:399] fc3_Pointy_Nose -> fc3_Pointy_Nose
I1013 18:11:07.599460 24074 net.cpp:141] Setting up fc3_Pointy_Nose
I1013 18:11:07.599469 24074 net.cpp:148] Top shape: 100 2 (200)
I1013 18:11:07.599473 24074 net.cpp:156] Memory required for data: 3858384008
I1013 18:11:07.599501 24074 layer_factory.hpp:77] Creating layer loss_Pointy_Nose
I1013 18:11:07.599516 24074 net.cpp:91] Creating Layer loss_Pointy_Nose
I1013 18:11:07.599521 24074 net.cpp:425] loss_Pointy_Nose <- fc3_Pointy_Nose
I1013 18:11:07.599526 24074 net.cpp:425] loss_Pointy_Nose <- label_Pointy_Nose
I1013 18:11:07.599534 24074 net.cpp:399] loss_Pointy_Nose -> loss_Pointy_Nose
I1013 18:11:07.599572 24074 net.cpp:141] Setting up loss_Pointy_Nose
I1013 18:11:07.599581 24074 net.cpp:148] Top shape: (1)
I1013 18:11:07.599586 24074 net.cpp:151]     with loss weight 1
I1013 18:11:07.599591 24074 net.cpp:156] Memory required for data: 3858384012
I1013 18:11:07.599594 24074 layer_factory.hpp:77] Creating layer fc3_Big_Lips
I1013 18:11:07.599601 24074 net.cpp:91] Creating Layer fc3_Big_Lips
I1013 18:11:07.599606 24074 net.cpp:425] fc3_Big_Lips <- fc2_mouth_drop2_mouth_0_split_0
I1013 18:11:07.599613 24074 net.cpp:399] fc3_Big_Lips -> fc3_Big_Lips
I1013 18:11:07.599717 24074 net.cpp:141] Setting up fc3_Big_Lips
I1013 18:11:07.599727 24074 net.cpp:148] Top shape: 100 2 (200)
I1013 18:11:07.599730 24074 net.cpp:156] Memory required for data: 3858384812
I1013 18:11:07.599737 24074 layer_factory.hpp:77] Creating layer loss_Big_Lips
I1013 18:11:07.599745 24074 net.cpp:91] Creating Layer loss_Big_Lips
I1013 18:11:07.599750 24074 net.cpp:425] loss_Big_Lips <- fc3_Big_Lips
I1013 18:11:07.599755 24074 net.cpp:425] loss_Big_Lips <- label_Big_Lips
I1013 18:11:07.599761 24074 net.cpp:399] loss_Big_Lips -> loss_Big_Lips
I1013 18:11:07.599798 24074 net.cpp:141] Setting up loss_Big_Lips
I1013 18:11:07.599807 24074 net.cpp:148] Top shape: (1)
I1013 18:11:07.599817 24074 net.cpp:151]     with loss weight 1
I1013 18:11:07.599822 24074 net.cpp:156] Memory required for data: 3858384816
I1013 18:11:07.599838 24074 layer_factory.hpp:77] Creating layer fc3_Smiling
I1013 18:11:07.599848 24074 net.cpp:91] Creating Layer fc3_Smiling
I1013 18:11:07.599853 24074 net.cpp:425] fc3_Smiling <- fc2_mouth_drop2_mouth_0_split_1
I1013 18:11:07.599859 24074 net.cpp:399] fc3_Smiling -> fc3_Smiling
I1013 18:11:07.599968 24074 net.cpp:141] Setting up fc3_Smiling
I1013 18:11:07.599979 24074 net.cpp:148] Top shape: 100 2 (200)
I1013 18:11:07.599983 24074 net.cpp:156] Memory required for data: 3858385616
I1013 18:11:07.599989 24074 layer_factory.hpp:77] Creating layer loss_Smiling
I1013 18:11:07.599997 24074 net.cpp:91] Creating Layer loss_Smiling
I1013 18:11:07.600003 24074 net.cpp:425] loss_Smiling <- fc3_Smiling
I1013 18:11:07.600008 24074 net.cpp:425] loss_Smiling <- label_Smiling
I1013 18:11:07.600014 24074 net.cpp:399] loss_Smiling -> loss_Smiling
I1013 18:11:07.600052 24074 net.cpp:141] Setting up loss_Smiling
I1013 18:11:07.600060 24074 net.cpp:148] Top shape: (1)
I1013 18:11:07.600064 24074 net.cpp:151]     with loss weight 1
I1013 18:11:07.600070 24074 net.cpp:156] Memory required for data: 3858385620
I1013 18:11:07.600075 24074 layer_factory.hpp:77] Creating layer fc3_Wearing_Lipstick
I1013 18:11:07.600081 24074 net.cpp:91] Creating Layer fc3_Wearing_Lipstick
I1013 18:11:07.600085 24074 net.cpp:425] fc3_Wearing_Lipstick <- fc2_mouth_drop2_mouth_0_split_2
I1013 18:11:07.600093 24074 net.cpp:399] fc3_Wearing_Lipstick -> fc3_Wearing_Lipstick
I1013 18:11:07.600201 24074 net.cpp:141] Setting up fc3_Wearing_Lipstick
I1013 18:11:07.600210 24074 net.cpp:148] Top shape: 100 2 (200)
I1013 18:11:07.600214 24074 net.cpp:156] Memory required for data: 3858386420
I1013 18:11:07.600220 24074 layer_factory.hpp:77] Creating layer loss_Wearing_Lipstick
I1013 18:11:07.600229 24074 net.cpp:91] Creating Layer loss_Wearing_Lipstick
I1013 18:11:07.600234 24074 net.cpp:425] loss_Wearing_Lipstick <- fc3_Wearing_Lipstick
I1013 18:11:07.600239 24074 net.cpp:425] loss_Wearing_Lipstick <- label_Wearing_Lipstick
I1013 18:11:07.600245 24074 net.cpp:399] loss_Wearing_Lipstick -> loss_Wearing_Lipstick
I1013 18:11:07.600283 24074 net.cpp:141] Setting up loss_Wearing_Lipstick
I1013 18:11:07.600289 24074 net.cpp:148] Top shape: (1)
I1013 18:11:07.600293 24074 net.cpp:151]     with loss weight 1
I1013 18:11:07.600298 24074 net.cpp:156] Memory required for data: 3858386424
I1013 18:11:07.600302 24074 layer_factory.hpp:77] Creating layer fc3_Mouth_Slightly_Open
I1013 18:11:07.600311 24074 net.cpp:91] Creating Layer fc3_Mouth_Slightly_Open
I1013 18:11:07.600314 24074 net.cpp:425] fc3_Mouth_Slightly_Open <- fc2_mouth_drop2_mouth_0_split_3
I1013 18:11:07.600322 24074 net.cpp:399] fc3_Mouth_Slightly_Open -> fc3_Mouth_Slightly_Open
I1013 18:11:07.600425 24074 net.cpp:141] Setting up fc3_Mouth_Slightly_Open
I1013 18:11:07.600435 24074 net.cpp:148] Top shape: 100 2 (200)
I1013 18:11:07.600437 24074 net.cpp:156] Memory required for data: 3858387224
I1013 18:11:07.600445 24074 layer_factory.hpp:77] Creating layer loss_Mouth_Slightly_Open
I1013 18:11:07.600452 24074 net.cpp:91] Creating Layer loss_Mouth_Slightly_Open
I1013 18:11:07.600457 24074 net.cpp:425] loss_Mouth_Slightly_Open <- fc3_Mouth_Slightly_Open
I1013 18:11:07.600462 24074 net.cpp:425] loss_Mouth_Slightly_Open <- label_Mouth_Slightly_Open
I1013 18:11:07.600468 24074 net.cpp:399] loss_Mouth_Slightly_Open -> loss_Mouth_Slightly_Open
I1013 18:11:07.600507 24074 net.cpp:141] Setting up loss_Mouth_Slightly_Open
I1013 18:11:07.600514 24074 net.cpp:148] Top shape: (1)
I1013 18:11:07.600518 24074 net.cpp:151]     with loss weight 1
I1013 18:11:07.600523 24074 net.cpp:156] Memory required for data: 3858387228
I1013 18:11:07.600527 24074 layer_factory.hpp:77] Creating layer fc3_Arched_Eyebrows
I1013 18:11:07.600534 24074 net.cpp:91] Creating Layer fc3_Arched_Eyebrows
I1013 18:11:07.600539 24074 net.cpp:425] fc3_Arched_Eyebrows <- fc2_eyes_drop2_eyes_0_split_0
I1013 18:11:07.600546 24074 net.cpp:399] fc3_Arched_Eyebrows -> fc3_Arched_Eyebrows
I1013 18:11:07.600651 24074 net.cpp:141] Setting up fc3_Arched_Eyebrows
I1013 18:11:07.600669 24074 net.cpp:148] Top shape: 100 2 (200)
I1013 18:11:07.600674 24074 net.cpp:156] Memory required for data: 3858388028
I1013 18:11:07.600682 24074 layer_factory.hpp:77] Creating layer loss_Arched_Eyebrows
I1013 18:11:07.600689 24074 net.cpp:91] Creating Layer loss_Arched_Eyebrows
I1013 18:11:07.600693 24074 net.cpp:425] loss_Arched_Eyebrows <- fc3_Arched_Eyebrows
I1013 18:11:07.600699 24074 net.cpp:425] loss_Arched_Eyebrows <- label_Arched_Eyebrows
I1013 18:11:07.600705 24074 net.cpp:399] loss_Arched_Eyebrows -> loss_Arched_Eyebrows
I1013 18:11:07.600745 24074 net.cpp:141] Setting up loss_Arched_Eyebrows
I1013 18:11:07.600752 24074 net.cpp:148] Top shape: (1)
I1013 18:11:07.600756 24074 net.cpp:151]     with loss weight 1
I1013 18:11:07.600761 24074 net.cpp:156] Memory required for data: 3858388032
I1013 18:11:07.600765 24074 layer_factory.hpp:77] Creating layer fc3_Bags_Under_Eyes
I1013 18:11:07.600772 24074 net.cpp:91] Creating Layer fc3_Bags_Under_Eyes
I1013 18:11:07.600777 24074 net.cpp:425] fc3_Bags_Under_Eyes <- fc2_eyes_drop2_eyes_0_split_1
I1013 18:11:07.600783 24074 net.cpp:399] fc3_Bags_Under_Eyes -> fc3_Bags_Under_Eyes
I1013 18:11:07.600888 24074 net.cpp:141] Setting up fc3_Bags_Under_Eyes
I1013 18:11:07.600898 24074 net.cpp:148] Top shape: 100 2 (200)
I1013 18:11:07.600901 24074 net.cpp:156] Memory required for data: 3858388832
I1013 18:11:07.600908 24074 layer_factory.hpp:77] Creating layer loss_Bags_Under_Eyes
I1013 18:11:07.600915 24074 net.cpp:91] Creating Layer loss_Bags_Under_Eyes
I1013 18:11:07.600920 24074 net.cpp:425] loss_Bags_Under_Eyes <- fc3_Bags_Under_Eyes
I1013 18:11:07.600925 24074 net.cpp:425] loss_Bags_Under_Eyes <- label_Bags_Under_Eyes
I1013 18:11:07.600931 24074 net.cpp:399] loss_Bags_Under_Eyes -> loss_Bags_Under_Eyes
I1013 18:11:07.600970 24074 net.cpp:141] Setting up loss_Bags_Under_Eyes
I1013 18:11:07.600975 24074 net.cpp:148] Top shape: (1)
I1013 18:11:07.600980 24074 net.cpp:151]     with loss weight 1
I1013 18:11:07.600985 24074 net.cpp:156] Memory required for data: 3858388836
I1013 18:11:07.600987 24074 layer_factory.hpp:77] Creating layer fc3_Bushy_Eyebrows
I1013 18:11:07.600994 24074 net.cpp:91] Creating Layer fc3_Bushy_Eyebrows
I1013 18:11:07.600999 24074 net.cpp:425] fc3_Bushy_Eyebrows <- fc2_eyes_drop2_eyes_0_split_2
I1013 18:11:07.601006 24074 net.cpp:399] fc3_Bushy_Eyebrows -> fc3_Bushy_Eyebrows
I1013 18:11:07.601112 24074 net.cpp:141] Setting up fc3_Bushy_Eyebrows
I1013 18:11:07.601121 24074 net.cpp:148] Top shape: 100 2 (200)
I1013 18:11:07.601125 24074 net.cpp:156] Memory required for data: 3858389636
I1013 18:11:07.601131 24074 layer_factory.hpp:77] Creating layer loss_Bushy_Eyebrows
I1013 18:11:07.601140 24074 net.cpp:91] Creating Layer loss_Bushy_Eyebrows
I1013 18:11:07.601145 24074 net.cpp:425] loss_Bushy_Eyebrows <- fc3_Bushy_Eyebrows
I1013 18:11:07.601150 24074 net.cpp:425] loss_Bushy_Eyebrows <- label_Bushy_Eyebrows
I1013 18:11:07.601155 24074 net.cpp:399] loss_Bushy_Eyebrows -> loss_Bushy_Eyebrows
I1013 18:11:07.601194 24074 net.cpp:141] Setting up loss_Bushy_Eyebrows
I1013 18:11:07.601202 24074 net.cpp:148] Top shape: (1)
I1013 18:11:07.601205 24074 net.cpp:151]     with loss weight 1
I1013 18:11:07.601210 24074 net.cpp:156] Memory required for data: 3858389640
I1013 18:11:07.601214 24074 layer_factory.hpp:77] Creating layer fc3_Narrow_Eyes
I1013 18:11:07.601222 24074 net.cpp:91] Creating Layer fc3_Narrow_Eyes
I1013 18:11:07.601227 24074 net.cpp:425] fc3_Narrow_Eyes <- fc2_eyes_drop2_eyes_0_split_3
I1013 18:11:07.601233 24074 net.cpp:399] fc3_Narrow_Eyes -> fc3_Narrow_Eyes
I1013 18:11:07.601336 24074 net.cpp:141] Setting up fc3_Narrow_Eyes
I1013 18:11:07.601346 24074 net.cpp:148] Top shape: 100 2 (200)
I1013 18:11:07.601348 24074 net.cpp:156] Memory required for data: 3858390440
I1013 18:11:07.601356 24074 layer_factory.hpp:77] Creating layer loss_Narrow_Eyes
I1013 18:11:07.601363 24074 net.cpp:91] Creating Layer loss_Narrow_Eyes
I1013 18:11:07.601367 24074 net.cpp:425] loss_Narrow_Eyes <- fc3_Narrow_Eyes
I1013 18:11:07.601372 24074 net.cpp:425] loss_Narrow_Eyes <- label_Narrow_Eyes
I1013 18:11:07.601389 24074 net.cpp:399] loss_Narrow_Eyes -> loss_Narrow_Eyes
I1013 18:11:07.601430 24074 net.cpp:141] Setting up loss_Narrow_Eyes
I1013 18:11:07.601439 24074 net.cpp:148] Top shape: (1)
I1013 18:11:07.601444 24074 net.cpp:151]     with loss weight 1
I1013 18:11:07.601449 24074 net.cpp:156] Memory required for data: 3858390444
I1013 18:11:07.601452 24074 layer_factory.hpp:77] Creating layer fc3_Eyeglasses
I1013 18:11:07.601460 24074 net.cpp:91] Creating Layer fc3_Eyeglasses
I1013 18:11:07.601464 24074 net.cpp:425] fc3_Eyeglasses <- fc2_eyes_drop2_eyes_0_split_4
I1013 18:11:07.601472 24074 net.cpp:399] fc3_Eyeglasses -> fc3_Eyeglasses
I1013 18:11:07.601577 24074 net.cpp:141] Setting up fc3_Eyeglasses
I1013 18:11:07.601585 24074 net.cpp:148] Top shape: 100 2 (200)
I1013 18:11:07.601588 24074 net.cpp:156] Memory required for data: 3858391244
I1013 18:11:07.601595 24074 layer_factory.hpp:77] Creating layer loss_Eyeglasses
I1013 18:11:07.601603 24074 net.cpp:91] Creating Layer loss_Eyeglasses
I1013 18:11:07.601608 24074 net.cpp:425] loss_Eyeglasses <- fc3_Eyeglasses
I1013 18:11:07.601613 24074 net.cpp:425] loss_Eyeglasses <- label_Eyeglasses
I1013 18:11:07.601619 24074 net.cpp:399] loss_Eyeglasses -> loss_Eyeglasses
I1013 18:11:07.601655 24074 net.cpp:141] Setting up loss_Eyeglasses
I1013 18:11:07.601662 24074 net.cpp:148] Top shape: (1)
I1013 18:11:07.601665 24074 net.cpp:151]     with loss weight 1
I1013 18:11:07.601671 24074 net.cpp:156] Memory required for data: 3858391248
I1013 18:11:07.601675 24074 layer_factory.hpp:77] Creating layer fc3_Attractive
I1013 18:11:07.601682 24074 net.cpp:91] Creating Layer fc3_Attractive
I1013 18:11:07.601686 24074 net.cpp:425] fc3_Attractive <- fc2_face_drop2_face_0_split_0
I1013 18:11:07.601693 24074 net.cpp:399] fc3_Attractive -> fc3_Attractive
I1013 18:11:07.601793 24074 net.cpp:141] Setting up fc3_Attractive
I1013 18:11:07.601801 24074 net.cpp:148] Top shape: 100 2 (200)
I1013 18:11:07.601805 24074 net.cpp:156] Memory required for data: 3858392048
I1013 18:11:07.601811 24074 layer_factory.hpp:77] Creating layer loss_Attractive
I1013 18:11:07.601819 24074 net.cpp:91] Creating Layer loss_Attractive
I1013 18:11:07.601824 24074 net.cpp:425] loss_Attractive <- fc3_Attractive
I1013 18:11:07.601829 24074 net.cpp:425] loss_Attractive <- label_Attractive
I1013 18:11:07.601835 24074 net.cpp:399] loss_Attractive -> loss_Attractive
I1013 18:11:07.601873 24074 net.cpp:141] Setting up loss_Attractive
I1013 18:11:07.601879 24074 net.cpp:148] Top shape: (1)
I1013 18:11:07.601882 24074 net.cpp:151]     with loss weight 1
I1013 18:11:07.601887 24074 net.cpp:156] Memory required for data: 3858392052
I1013 18:11:07.601891 24074 layer_factory.hpp:77] Creating layer fc3_Blurry
I1013 18:11:07.601898 24074 net.cpp:91] Creating Layer fc3_Blurry
I1013 18:11:07.601903 24074 net.cpp:425] fc3_Blurry <- fc2_face_drop2_face_0_split_1
I1013 18:11:07.601910 24074 net.cpp:399] fc3_Blurry -> fc3_Blurry
I1013 18:11:07.602015 24074 net.cpp:141] Setting up fc3_Blurry
I1013 18:11:07.602023 24074 net.cpp:148] Top shape: 100 2 (200)
I1013 18:11:07.602027 24074 net.cpp:156] Memory required for data: 3858392852
I1013 18:11:07.602035 24074 layer_factory.hpp:77] Creating layer loss_Blurry
I1013 18:11:07.602042 24074 net.cpp:91] Creating Layer loss_Blurry
I1013 18:11:07.602046 24074 net.cpp:425] loss_Blurry <- fc3_Blurry
I1013 18:11:07.602051 24074 net.cpp:425] loss_Blurry <- label_Blurry
I1013 18:11:07.602058 24074 net.cpp:399] loss_Blurry -> loss_Blurry
I1013 18:11:07.602097 24074 net.cpp:141] Setting up loss_Blurry
I1013 18:11:07.602104 24074 net.cpp:148] Top shape: (1)
I1013 18:11:07.602108 24074 net.cpp:151]     with loss weight 1
I1013 18:11:07.602113 24074 net.cpp:156] Memory required for data: 3858392856
I1013 18:11:07.602116 24074 layer_factory.hpp:77] Creating layer fc3_Oval_Face
I1013 18:11:07.602124 24074 net.cpp:91] Creating Layer fc3_Oval_Face
I1013 18:11:07.602128 24074 net.cpp:425] fc3_Oval_Face <- fc2_face_drop2_face_0_split_2
I1013 18:11:07.602135 24074 net.cpp:399] fc3_Oval_Face -> fc3_Oval_Face
I1013 18:11:07.602248 24074 net.cpp:141] Setting up fc3_Oval_Face
I1013 18:11:07.602258 24074 net.cpp:148] Top shape: 100 2 (200)
I1013 18:11:07.602262 24074 net.cpp:156] Memory required for data: 3858393656
I1013 18:11:07.602268 24074 layer_factory.hpp:77] Creating layer loss_Oval_Face
I1013 18:11:07.602277 24074 net.cpp:91] Creating Layer loss_Oval_Face
I1013 18:11:07.602282 24074 net.cpp:425] loss_Oval_Face <- fc3_Oval_Face
I1013 18:11:07.602286 24074 net.cpp:425] loss_Oval_Face <- label_Oval_Face
I1013 18:11:07.602293 24074 net.cpp:399] loss_Oval_Face -> loss_Oval_Face
I1013 18:11:07.602332 24074 net.cpp:141] Setting up loss_Oval_Face
I1013 18:11:07.602341 24074 net.cpp:148] Top shape: (1)
I1013 18:11:07.602344 24074 net.cpp:151]     with loss weight 1
I1013 18:11:07.602350 24074 net.cpp:156] Memory required for data: 3858393660
I1013 18:11:07.602354 24074 layer_factory.hpp:77] Creating layer fc3_Pale_Skin
I1013 18:11:07.602361 24074 net.cpp:91] Creating Layer fc3_Pale_Skin
I1013 18:11:07.602365 24074 net.cpp:425] fc3_Pale_Skin <- fc2_face_drop2_face_0_split_3
I1013 18:11:07.602372 24074 net.cpp:399] fc3_Pale_Skin -> fc3_Pale_Skin
I1013 18:11:07.602474 24074 net.cpp:141] Setting up fc3_Pale_Skin
I1013 18:11:07.602483 24074 net.cpp:148] Top shape: 100 2 (200)
I1013 18:11:07.602488 24074 net.cpp:156] Memory required for data: 3858394460
I1013 18:11:07.602494 24074 layer_factory.hpp:77] Creating layer loss_Pale_Skin
I1013 18:11:07.602500 24074 net.cpp:91] Creating Layer loss_Pale_Skin
I1013 18:11:07.602505 24074 net.cpp:425] loss_Pale_Skin <- fc3_Pale_Skin
I1013 18:11:07.602510 24074 net.cpp:425] loss_Pale_Skin <- label_Pale_Skin
I1013 18:11:07.602516 24074 net.cpp:399] loss_Pale_Skin -> loss_Pale_Skin
I1013 18:11:07.602553 24074 net.cpp:141] Setting up loss_Pale_Skin
I1013 18:11:07.602560 24074 net.cpp:148] Top shape: (1)
I1013 18:11:07.602563 24074 net.cpp:151]     with loss weight 1
I1013 18:11:07.602568 24074 net.cpp:156] Memory required for data: 3858394464
I1013 18:11:07.602571 24074 layer_factory.hpp:77] Creating layer fc3_Young
I1013 18:11:07.602579 24074 net.cpp:91] Creating Layer fc3_Young
I1013 18:11:07.602583 24074 net.cpp:425] fc3_Young <- fc2_face_drop2_face_0_split_4
I1013 18:11:07.602591 24074 net.cpp:399] fc3_Young -> fc3_Young
I1013 18:11:07.602691 24074 net.cpp:141] Setting up fc3_Young
I1013 18:11:07.602700 24074 net.cpp:148] Top shape: 100 2 (200)
I1013 18:11:07.602705 24074 net.cpp:156] Memory required for data: 3858395264
I1013 18:11:07.602710 24074 layer_factory.hpp:77] Creating layer loss_Young
I1013 18:11:07.602718 24074 net.cpp:91] Creating Layer loss_Young
I1013 18:11:07.602723 24074 net.cpp:425] loss_Young <- fc3_Young
I1013 18:11:07.602728 24074 net.cpp:425] loss_Young <- label_Young
I1013 18:11:07.602735 24074 net.cpp:399] loss_Young -> loss_Young
I1013 18:11:07.602773 24074 net.cpp:141] Setting up loss_Young
I1013 18:11:07.602779 24074 net.cpp:148] Top shape: (1)
I1013 18:11:07.602783 24074 net.cpp:151]     with loss weight 1
I1013 18:11:07.602788 24074 net.cpp:156] Memory required for data: 3858395268
I1013 18:11:07.602792 24074 layer_factory.hpp:77] Creating layer fc3_Heavy_Makeup
I1013 18:11:07.602798 24074 net.cpp:91] Creating Layer fc3_Heavy_Makeup
I1013 18:11:07.602803 24074 net.cpp:425] fc3_Heavy_Makeup <- fc2_face_drop2_face_0_split_5
I1013 18:11:07.602812 24074 net.cpp:399] fc3_Heavy_Makeup -> fc3_Heavy_Makeup
I1013 18:11:07.602918 24074 net.cpp:141] Setting up fc3_Heavy_Makeup
I1013 18:11:07.602927 24074 net.cpp:148] Top shape: 100 2 (200)
I1013 18:11:07.602931 24074 net.cpp:156] Memory required for data: 3858396068
I1013 18:11:07.602937 24074 layer_factory.hpp:77] Creating layer loss_Heavy_Makeup
I1013 18:11:07.602946 24074 net.cpp:91] Creating Layer loss_Heavy_Makeup
I1013 18:11:07.602951 24074 net.cpp:425] loss_Heavy_Makeup <- fc3_Heavy_Makeup
I1013 18:11:07.602955 24074 net.cpp:425] loss_Heavy_Makeup <- label_Heavy_Makeup
I1013 18:11:07.602962 24074 net.cpp:399] loss_Heavy_Makeup -> loss_Heavy_Makeup
I1013 18:11:07.602999 24074 net.cpp:141] Setting up loss_Heavy_Makeup
I1013 18:11:07.603018 24074 net.cpp:148] Top shape: (1)
I1013 18:11:07.603023 24074 net.cpp:151]     with loss weight 1
I1013 18:11:07.603027 24074 net.cpp:156] Memory required for data: 3858396072
I1013 18:11:07.603031 24074 layer_factory.hpp:77] Creating layer fc3_Black_Hair
I1013 18:11:07.603039 24074 net.cpp:91] Creating Layer fc3_Black_Hair
I1013 18:11:07.603044 24074 net.cpp:425] fc3_Black_Hair <- fc2_aroundhead_drop2_aroundhead_0_split_0
I1013 18:11:07.603050 24074 net.cpp:399] fc3_Black_Hair -> fc3_Black_Hair
I1013 18:11:07.603157 24074 net.cpp:141] Setting up fc3_Black_Hair
I1013 18:11:07.603165 24074 net.cpp:148] Top shape: 100 2 (200)
I1013 18:11:07.603169 24074 net.cpp:156] Memory required for data: 3858396872
I1013 18:11:07.603175 24074 layer_factory.hpp:77] Creating layer loss_Black_Hair
I1013 18:11:07.603183 24074 net.cpp:91] Creating Layer loss_Black_Hair
I1013 18:11:07.603188 24074 net.cpp:425] loss_Black_Hair <- fc3_Black_Hair
I1013 18:11:07.603193 24074 net.cpp:425] loss_Black_Hair <- label_Black_Hair
I1013 18:11:07.603200 24074 net.cpp:399] loss_Black_Hair -> loss_Black_Hair
I1013 18:11:07.603238 24074 net.cpp:141] Setting up loss_Black_Hair
I1013 18:11:07.603245 24074 net.cpp:148] Top shape: (1)
I1013 18:11:07.603250 24074 net.cpp:151]     with loss weight 1
I1013 18:11:07.603255 24074 net.cpp:156] Memory required for data: 3858396876
I1013 18:11:07.603257 24074 layer_factory.hpp:77] Creating layer fc3_Blond_Hair
I1013 18:11:07.603265 24074 net.cpp:91] Creating Layer fc3_Blond_Hair
I1013 18:11:07.603269 24074 net.cpp:425] fc3_Blond_Hair <- fc2_aroundhead_drop2_aroundhead_0_split_1
I1013 18:11:07.603276 24074 net.cpp:399] fc3_Blond_Hair -> fc3_Blond_Hair
I1013 18:11:07.603379 24074 net.cpp:141] Setting up fc3_Blond_Hair
I1013 18:11:07.603389 24074 net.cpp:148] Top shape: 100 2 (200)
I1013 18:11:07.603392 24074 net.cpp:156] Memory required for data: 3858397676
I1013 18:11:07.603399 24074 layer_factory.hpp:77] Creating layer loss_Blond_Hair
I1013 18:11:07.603406 24074 net.cpp:91] Creating Layer loss_Blond_Hair
I1013 18:11:07.603410 24074 net.cpp:425] loss_Blond_Hair <- fc3_Blond_Hair
I1013 18:11:07.603415 24074 net.cpp:425] loss_Blond_Hair <- label_Blond_Hair
I1013 18:11:07.603422 24074 net.cpp:399] loss_Blond_Hair -> loss_Blond_Hair
I1013 18:11:07.603459 24074 net.cpp:141] Setting up loss_Blond_Hair
I1013 18:11:07.603466 24074 net.cpp:148] Top shape: (1)
I1013 18:11:07.603469 24074 net.cpp:151]     with loss weight 1
I1013 18:11:07.603474 24074 net.cpp:156] Memory required for data: 3858397680
I1013 18:11:07.603478 24074 layer_factory.hpp:77] Creating layer fc3_Brown_Hair
I1013 18:11:07.603485 24074 net.cpp:91] Creating Layer fc3_Brown_Hair
I1013 18:11:07.603490 24074 net.cpp:425] fc3_Brown_Hair <- fc2_aroundhead_drop2_aroundhead_0_split_2
I1013 18:11:07.603497 24074 net.cpp:399] fc3_Brown_Hair -> fc3_Brown_Hair
I1013 18:11:07.603597 24074 net.cpp:141] Setting up fc3_Brown_Hair
I1013 18:11:07.603606 24074 net.cpp:148] Top shape: 100 2 (200)
I1013 18:11:07.603610 24074 net.cpp:156] Memory required for data: 3858398480
I1013 18:11:07.603616 24074 layer_factory.hpp:77] Creating layer loss_Brown_Hair
I1013 18:11:07.603624 24074 net.cpp:91] Creating Layer loss_Brown_Hair
I1013 18:11:07.603628 24074 net.cpp:425] loss_Brown_Hair <- fc3_Brown_Hair
I1013 18:11:07.603633 24074 net.cpp:425] loss_Brown_Hair <- label_Brown_Hair
I1013 18:11:07.603651 24074 net.cpp:399] loss_Brown_Hair -> loss_Brown_Hair
I1013 18:11:07.603691 24074 net.cpp:141] Setting up loss_Brown_Hair
I1013 18:11:07.603699 24074 net.cpp:148] Top shape: (1)
I1013 18:11:07.603703 24074 net.cpp:151]     with loss weight 1
I1013 18:11:07.603709 24074 net.cpp:156] Memory required for data: 3858398484
I1013 18:11:07.603713 24074 layer_factory.hpp:77] Creating layer fc3_Gray_Hair
I1013 18:11:07.603720 24074 net.cpp:91] Creating Layer fc3_Gray_Hair
I1013 18:11:07.603725 24074 net.cpp:425] fc3_Gray_Hair <- fc2_aroundhead_drop2_aroundhead_0_split_3
I1013 18:11:07.603732 24074 net.cpp:399] fc3_Gray_Hair -> fc3_Gray_Hair
I1013 18:11:07.603862 24074 net.cpp:141] Setting up fc3_Gray_Hair
I1013 18:11:07.603873 24074 net.cpp:148] Top shape: 100 2 (200)
I1013 18:11:07.603878 24074 net.cpp:156] Memory required for data: 3858399284
I1013 18:11:07.603883 24074 layer_factory.hpp:77] Creating layer loss_Gray_Hair
I1013 18:11:07.603893 24074 net.cpp:91] Creating Layer loss_Gray_Hair
I1013 18:11:07.603896 24074 net.cpp:425] loss_Gray_Hair <- fc3_Gray_Hair
I1013 18:11:07.603902 24074 net.cpp:425] loss_Gray_Hair <- label_Gray_Hair
I1013 18:11:07.603909 24074 net.cpp:399] loss_Gray_Hair -> loss_Gray_Hair
I1013 18:11:07.603948 24074 net.cpp:141] Setting up loss_Gray_Hair
I1013 18:11:07.603956 24074 net.cpp:148] Top shape: (1)
I1013 18:11:07.603960 24074 net.cpp:151]     with loss weight 1
I1013 18:11:07.603966 24074 net.cpp:156] Memory required for data: 3858399288
I1013 18:11:07.603970 24074 layer_factory.hpp:77] Creating layer fc3_Wearing_Earrings
I1013 18:11:07.603977 24074 net.cpp:91] Creating Layer fc3_Wearing_Earrings
I1013 18:11:07.603981 24074 net.cpp:425] fc3_Wearing_Earrings <- fc2_aroundhead_drop2_aroundhead_0_split_4
I1013 18:11:07.603989 24074 net.cpp:399] fc3_Wearing_Earrings -> fc3_Wearing_Earrings
I1013 18:11:07.604095 24074 net.cpp:141] Setting up fc3_Wearing_Earrings
I1013 18:11:07.604104 24074 net.cpp:148] Top shape: 100 2 (200)
I1013 18:11:07.604107 24074 net.cpp:156] Memory required for data: 3858400088
I1013 18:11:07.604115 24074 layer_factory.hpp:77] Creating layer loss_Wearing_Earrings
I1013 18:11:07.604122 24074 net.cpp:91] Creating Layer loss_Wearing_Earrings
I1013 18:11:07.604126 24074 net.cpp:425] loss_Wearing_Earrings <- fc3_Wearing_Earrings
I1013 18:11:07.604132 24074 net.cpp:425] loss_Wearing_Earrings <- label_Wearing_Earrings
I1013 18:11:07.604138 24074 net.cpp:399] loss_Wearing_Earrings -> loss_Wearing_Earrings
I1013 18:11:07.604178 24074 net.cpp:141] Setting up loss_Wearing_Earrings
I1013 18:11:07.604187 24074 net.cpp:148] Top shape: (1)
I1013 18:11:07.604192 24074 net.cpp:151]     with loss weight 1
I1013 18:11:07.604197 24074 net.cpp:156] Memory required for data: 3858400092
I1013 18:11:07.604199 24074 layer_factory.hpp:77] Creating layer fc3_Wearing_Necklace
I1013 18:11:07.604207 24074 net.cpp:91] Creating Layer fc3_Wearing_Necklace
I1013 18:11:07.604212 24074 net.cpp:425] fc3_Wearing_Necklace <- fc2_aroundhead_drop2_aroundhead_0_split_5
I1013 18:11:07.604219 24074 net.cpp:399] fc3_Wearing_Necklace -> fc3_Wearing_Necklace
I1013 18:11:07.604324 24074 net.cpp:141] Setting up fc3_Wearing_Necklace
I1013 18:11:07.604332 24074 net.cpp:148] Top shape: 100 2 (200)
I1013 18:11:07.604336 24074 net.cpp:156] Memory required for data: 3858400892
I1013 18:11:07.604342 24074 layer_factory.hpp:77] Creating layer loss_Wearing_Necklace
I1013 18:11:07.604351 24074 net.cpp:91] Creating Layer loss_Wearing_Necklace
I1013 18:11:07.604356 24074 net.cpp:425] loss_Wearing_Necklace <- fc3_Wearing_Necklace
I1013 18:11:07.604360 24074 net.cpp:425] loss_Wearing_Necklace <- label_Wearing_Necklace
I1013 18:11:07.604367 24074 net.cpp:399] loss_Wearing_Necklace -> loss_Wearing_Necklace
I1013 18:11:07.604403 24074 net.cpp:141] Setting up loss_Wearing_Necklace
I1013 18:11:07.604411 24074 net.cpp:148] Top shape: (1)
I1013 18:11:07.604415 24074 net.cpp:151]     with loss weight 1
I1013 18:11:07.604420 24074 net.cpp:156] Memory required for data: 3858400896
I1013 18:11:07.604424 24074 layer_factory.hpp:77] Creating layer fc3_Wearing_Necktie
I1013 18:11:07.604431 24074 net.cpp:91] Creating Layer fc3_Wearing_Necktie
I1013 18:11:07.604436 24074 net.cpp:425] fc3_Wearing_Necktie <- fc2_aroundhead_drop2_aroundhead_0_split_6
I1013 18:11:07.604444 24074 net.cpp:399] fc3_Wearing_Necktie -> fc3_Wearing_Necktie
I1013 18:11:07.604547 24074 net.cpp:141] Setting up fc3_Wearing_Necktie
I1013 18:11:07.604557 24074 net.cpp:148] Top shape: 100 2 (200)
I1013 18:11:07.604559 24074 net.cpp:156] Memory required for data: 3858401696
I1013 18:11:07.604567 24074 layer_factory.hpp:77] Creating layer loss_Wearing_Necktie
I1013 18:11:07.604573 24074 net.cpp:91] Creating Layer loss_Wearing_Necktie
I1013 18:11:07.604588 24074 net.cpp:425] loss_Wearing_Necktie <- fc3_Wearing_Necktie
I1013 18:11:07.604595 24074 net.cpp:425] loss_Wearing_Necktie <- label_Wearing_Necktie
I1013 18:11:07.604601 24074 net.cpp:399] loss_Wearing_Necktie -> loss_Wearing_Necktie
I1013 18:11:07.604642 24074 net.cpp:141] Setting up loss_Wearing_Necktie
I1013 18:11:07.604651 24074 net.cpp:148] Top shape: (1)
I1013 18:11:07.604655 24074 net.cpp:151]     with loss weight 1
I1013 18:11:07.604660 24074 net.cpp:156] Memory required for data: 3858401700
I1013 18:11:07.604665 24074 layer_factory.hpp:77] Creating layer fc3_Bald
I1013 18:11:07.604671 24074 net.cpp:91] Creating Layer fc3_Bald
I1013 18:11:07.604676 24074 net.cpp:425] fc3_Bald <- fc2_aroundhead_drop2_aroundhead_0_split_7
I1013 18:11:07.604682 24074 net.cpp:399] fc3_Bald -> fc3_Bald
I1013 18:11:07.604794 24074 net.cpp:141] Setting up fc3_Bald
I1013 18:11:07.604802 24074 net.cpp:148] Top shape: 100 2 (200)
I1013 18:11:07.604806 24074 net.cpp:156] Memory required for data: 3858402500
I1013 18:11:07.604812 24074 layer_factory.hpp:77] Creating layer loss_Bald
I1013 18:11:07.604820 24074 net.cpp:91] Creating Layer loss_Bald
I1013 18:11:07.604825 24074 net.cpp:425] loss_Bald <- fc3_Bald
I1013 18:11:07.604830 24074 net.cpp:425] loss_Bald <- label_Bald
I1013 18:11:07.604836 24074 net.cpp:399] loss_Bald -> loss_Bald
I1013 18:11:07.604873 24074 net.cpp:141] Setting up loss_Bald
I1013 18:11:07.604882 24074 net.cpp:148] Top shape: (1)
I1013 18:11:07.604885 24074 net.cpp:151]     with loss weight 1
I1013 18:11:07.604890 24074 net.cpp:156] Memory required for data: 3858402504
I1013 18:11:07.604894 24074 layer_factory.hpp:77] Creating layer fc3_Receding_Hairline
I1013 18:11:07.604902 24074 net.cpp:91] Creating Layer fc3_Receding_Hairline
I1013 18:11:07.604907 24074 net.cpp:425] fc3_Receding_Hairline <- fc2_aroundhead_drop2_aroundhead_0_split_8
I1013 18:11:07.604913 24074 net.cpp:399] fc3_Receding_Hairline -> fc3_Receding_Hairline
I1013 18:11:07.605015 24074 net.cpp:141] Setting up fc3_Receding_Hairline
I1013 18:11:07.605024 24074 net.cpp:148] Top shape: 100 2 (200)
I1013 18:11:07.605027 24074 net.cpp:156] Memory required for data: 3858403304
I1013 18:11:07.605033 24074 layer_factory.hpp:77] Creating layer loss_Receding_Hairline
I1013 18:11:07.605041 24074 net.cpp:91] Creating Layer loss_Receding_Hairline
I1013 18:11:07.605046 24074 net.cpp:425] loss_Receding_Hairline <- fc3_Receding_Hairline
I1013 18:11:07.605051 24074 net.cpp:425] loss_Receding_Hairline <- label_Receding_Hairline
I1013 18:11:07.605057 24074 net.cpp:399] loss_Receding_Hairline -> loss_Receding_Hairline
I1013 18:11:07.605095 24074 net.cpp:141] Setting up loss_Receding_Hairline
I1013 18:11:07.605104 24074 net.cpp:148] Top shape: (1)
I1013 18:11:07.605108 24074 net.cpp:151]     with loss weight 1
I1013 18:11:07.605113 24074 net.cpp:156] Memory required for data: 3858403308
I1013 18:11:07.605116 24074 layer_factory.hpp:77] Creating layer fc3_Bangs
I1013 18:11:07.605124 24074 net.cpp:91] Creating Layer fc3_Bangs
I1013 18:11:07.605129 24074 net.cpp:425] fc3_Bangs <- fc2_aroundhead_drop2_aroundhead_0_split_9
I1013 18:11:07.605135 24074 net.cpp:399] fc3_Bangs -> fc3_Bangs
I1013 18:11:07.605237 24074 net.cpp:141] Setting up fc3_Bangs
I1013 18:11:07.605247 24074 net.cpp:148] Top shape: 100 2 (200)
I1013 18:11:07.605250 24074 net.cpp:156] Memory required for data: 3858404108
I1013 18:11:07.605257 24074 layer_factory.hpp:77] Creating layer loss_Bangs
I1013 18:11:07.605264 24074 net.cpp:91] Creating Layer loss_Bangs
I1013 18:11:07.605268 24074 net.cpp:425] loss_Bangs <- fc3_Bangs
I1013 18:11:07.605274 24074 net.cpp:425] loss_Bangs <- label_Bangs
I1013 18:11:07.605280 24074 net.cpp:399] loss_Bangs -> loss_Bangs
I1013 18:11:07.605317 24074 net.cpp:141] Setting up loss_Bangs
I1013 18:11:07.605324 24074 net.cpp:148] Top shape: (1)
I1013 18:11:07.605327 24074 net.cpp:151]     with loss weight 1
I1013 18:11:07.605332 24074 net.cpp:156] Memory required for data: 3858404112
I1013 18:11:07.605335 24074 layer_factory.hpp:77] Creating layer fc3_Wearing_Hat
I1013 18:11:07.605352 24074 net.cpp:91] Creating Layer fc3_Wearing_Hat
I1013 18:11:07.605358 24074 net.cpp:425] fc3_Wearing_Hat <- fc2_aroundhead_drop2_aroundhead_0_split_10
I1013 18:11:07.605365 24074 net.cpp:399] fc3_Wearing_Hat -> fc3_Wearing_Hat
I1013 18:11:07.605468 24074 net.cpp:141] Setting up fc3_Wearing_Hat
I1013 18:11:07.605479 24074 net.cpp:148] Top shape: 100 2 (200)
I1013 18:11:07.605482 24074 net.cpp:156] Memory required for data: 3858404912
I1013 18:11:07.605489 24074 layer_factory.hpp:77] Creating layer loss_Wearing_Hat
I1013 18:11:07.605497 24074 net.cpp:91] Creating Layer loss_Wearing_Hat
I1013 18:11:07.605502 24074 net.cpp:425] loss_Wearing_Hat <- fc3_Wearing_Hat
I1013 18:11:07.605507 24074 net.cpp:425] loss_Wearing_Hat <- label_Wearing_Hat
I1013 18:11:07.605515 24074 net.cpp:399] loss_Wearing_Hat -> loss_Wearing_Hat
I1013 18:11:07.605554 24074 net.cpp:141] Setting up loss_Wearing_Hat
I1013 18:11:07.605561 24074 net.cpp:148] Top shape: (1)
I1013 18:11:07.605564 24074 net.cpp:151]     with loss weight 1
I1013 18:11:07.605569 24074 net.cpp:156] Memory required for data: 3858404916
I1013 18:11:07.605573 24074 layer_factory.hpp:77] Creating layer fc3_Straight_Hair
I1013 18:11:07.605581 24074 net.cpp:91] Creating Layer fc3_Straight_Hair
I1013 18:11:07.605586 24074 net.cpp:425] fc3_Straight_Hair <- fc2_aroundhead_drop2_aroundhead_0_split_11
I1013 18:11:07.605592 24074 net.cpp:399] fc3_Straight_Hair -> fc3_Straight_Hair
I1013 18:11:07.605700 24074 net.cpp:141] Setting up fc3_Straight_Hair
I1013 18:11:07.605710 24074 net.cpp:148] Top shape: 100 2 (200)
I1013 18:11:07.605713 24074 net.cpp:156] Memory required for data: 3858405716
I1013 18:11:07.605720 24074 layer_factory.hpp:77] Creating layer loss_Straight_Hair
I1013 18:11:07.605727 24074 net.cpp:91] Creating Layer loss_Straight_Hair
I1013 18:11:07.605732 24074 net.cpp:425] loss_Straight_Hair <- fc3_Straight_Hair
I1013 18:11:07.605737 24074 net.cpp:425] loss_Straight_Hair <- label_Straight_Hair
I1013 18:11:07.605744 24074 net.cpp:399] loss_Straight_Hair -> loss_Straight_Hair
I1013 18:11:07.605782 24074 net.cpp:141] Setting up loss_Straight_Hair
I1013 18:11:07.605790 24074 net.cpp:148] Top shape: (1)
I1013 18:11:07.605793 24074 net.cpp:151]     with loss weight 1
I1013 18:11:07.605799 24074 net.cpp:156] Memory required for data: 3858405720
I1013 18:11:07.605803 24074 layer_factory.hpp:77] Creating layer fc3_Wavy_Hair
I1013 18:11:07.605810 24074 net.cpp:91] Creating Layer fc3_Wavy_Hair
I1013 18:11:07.605814 24074 net.cpp:425] fc3_Wavy_Hair <- fc2_aroundhead_drop2_aroundhead_0_split_12
I1013 18:11:07.605821 24074 net.cpp:399] fc3_Wavy_Hair -> fc3_Wavy_Hair
I1013 18:11:07.605924 24074 net.cpp:141] Setting up fc3_Wavy_Hair
I1013 18:11:07.605933 24074 net.cpp:148] Top shape: 100 2 (200)
I1013 18:11:07.605937 24074 net.cpp:156] Memory required for data: 3858406520
I1013 18:11:07.605943 24074 layer_factory.hpp:77] Creating layer loss_Wavy_Hair
I1013 18:11:07.605950 24074 net.cpp:91] Creating Layer loss_Wavy_Hair
I1013 18:11:07.605955 24074 net.cpp:425] loss_Wavy_Hair <- fc3_Wavy_Hair
I1013 18:11:07.605960 24074 net.cpp:425] loss_Wavy_Hair <- label_Wavy_Hair
I1013 18:11:07.605967 24074 net.cpp:399] loss_Wavy_Hair -> loss_Wavy_Hair
I1013 18:11:07.606004 24074 net.cpp:141] Setting up loss_Wavy_Hair
I1013 18:11:07.606012 24074 net.cpp:148] Top shape: (1)
I1013 18:11:07.606016 24074 net.cpp:151]     with loss weight 1
I1013 18:11:07.606021 24074 net.cpp:156] Memory required for data: 3858406524
I1013 18:11:07.606025 24074 layer_factory.hpp:77] Creating layer fc3_5_o_Clock_Shadow
I1013 18:11:07.606032 24074 net.cpp:91] Creating Layer fc3_5_o_Clock_Shadow
I1013 18:11:07.606036 24074 net.cpp:425] fc3_5_o_Clock_Shadow <- fc2_facialhair_drop2_facialhair_0_split_0
I1013 18:11:07.606045 24074 net.cpp:399] fc3_5_o_Clock_Shadow -> fc3_5_o_Clock_Shadow
I1013 18:11:07.606148 24074 net.cpp:141] Setting up fc3_5_o_Clock_Shadow
I1013 18:11:07.606156 24074 net.cpp:148] Top shape: 100 2 (200)
I1013 18:11:07.606159 24074 net.cpp:156] Memory required for data: 3858407324
I1013 18:11:07.606179 24074 layer_factory.hpp:77] Creating layer loss_5_o_Clock_Shadow
I1013 18:11:07.606189 24074 net.cpp:91] Creating Layer loss_5_o_Clock_Shadow
I1013 18:11:07.606194 24074 net.cpp:425] loss_5_o_Clock_Shadow <- fc3_5_o_Clock_Shadow
I1013 18:11:07.606199 24074 net.cpp:425] loss_5_o_Clock_Shadow <- label_5_o_Clock_Shadow
I1013 18:11:07.606204 24074 net.cpp:399] loss_5_o_Clock_Shadow -> loss_5_o_Clock_Shadow
I1013 18:11:07.606246 24074 net.cpp:141] Setting up loss_5_o_Clock_Shadow
I1013 18:11:07.606254 24074 net.cpp:148] Top shape: (1)
I1013 18:11:07.606258 24074 net.cpp:151]     with loss weight 1
I1013 18:11:07.606264 24074 net.cpp:156] Memory required for data: 3858407328
I1013 18:11:07.606267 24074 layer_factory.hpp:77] Creating layer fc3_Mustache
I1013 18:11:07.606274 24074 net.cpp:91] Creating Layer fc3_Mustache
I1013 18:11:07.606279 24074 net.cpp:425] fc3_Mustache <- fc2_facialhair_drop2_facialhair_0_split_1
I1013 18:11:07.606287 24074 net.cpp:399] fc3_Mustache -> fc3_Mustache
I1013 18:11:07.606392 24074 net.cpp:141] Setting up fc3_Mustache
I1013 18:11:07.606401 24074 net.cpp:148] Top shape: 100 2 (200)
I1013 18:11:07.606405 24074 net.cpp:156] Memory required for data: 3858408128
I1013 18:11:07.606411 24074 layer_factory.hpp:77] Creating layer loss_Mustache
I1013 18:11:07.606420 24074 net.cpp:91] Creating Layer loss_Mustache
I1013 18:11:07.606423 24074 net.cpp:425] loss_Mustache <- fc3_Mustache
I1013 18:11:07.606428 24074 net.cpp:425] loss_Mustache <- label_Mustache
I1013 18:11:07.606436 24074 net.cpp:399] loss_Mustache -> loss_Mustache
I1013 18:11:07.606475 24074 net.cpp:141] Setting up loss_Mustache
I1013 18:11:07.606482 24074 net.cpp:148] Top shape: (1)
I1013 18:11:07.606487 24074 net.cpp:151]     with loss weight 1
I1013 18:11:07.606492 24074 net.cpp:156] Memory required for data: 3858408132
I1013 18:11:07.606509 24074 layer_factory.hpp:77] Creating layer fc3_No_Beard
I1013 18:11:07.606518 24074 net.cpp:91] Creating Layer fc3_No_Beard
I1013 18:11:07.606523 24074 net.cpp:425] fc3_No_Beard <- fc2_facialhair_drop2_facialhair_0_split_2
I1013 18:11:07.606530 24074 net.cpp:399] fc3_No_Beard -> fc3_No_Beard
I1013 18:11:07.606637 24074 net.cpp:141] Setting up fc3_No_Beard
I1013 18:11:07.606647 24074 net.cpp:148] Top shape: 100 2 (200)
I1013 18:11:07.606650 24074 net.cpp:156] Memory required for data: 3858408932
I1013 18:11:07.606657 24074 layer_factory.hpp:77] Creating layer loss_No_Beard
I1013 18:11:07.606664 24074 net.cpp:91] Creating Layer loss_No_Beard
I1013 18:11:07.606669 24074 net.cpp:425] loss_No_Beard <- fc3_No_Beard
I1013 18:11:07.606674 24074 net.cpp:425] loss_No_Beard <- label_No_Beard
I1013 18:11:07.606680 24074 net.cpp:399] loss_No_Beard -> loss_No_Beard
I1013 18:11:07.606719 24074 net.cpp:141] Setting up loss_No_Beard
I1013 18:11:07.606727 24074 net.cpp:148] Top shape: (1)
I1013 18:11:07.606731 24074 net.cpp:151]     with loss weight 1
I1013 18:11:07.606736 24074 net.cpp:156] Memory required for data: 3858408936
I1013 18:11:07.606739 24074 layer_factory.hpp:77] Creating layer fc3_Sideburns
I1013 18:11:07.606747 24074 net.cpp:91] Creating Layer fc3_Sideburns
I1013 18:11:07.606751 24074 net.cpp:425] fc3_Sideburns <- fc2_facialhair_drop2_facialhair_0_split_3
I1013 18:11:07.606758 24074 net.cpp:399] fc3_Sideburns -> fc3_Sideburns
I1013 18:11:07.606863 24074 net.cpp:141] Setting up fc3_Sideburns
I1013 18:11:07.606871 24074 net.cpp:148] Top shape: 100 2 (200)
I1013 18:11:07.606875 24074 net.cpp:156] Memory required for data: 3858409736
I1013 18:11:07.606881 24074 layer_factory.hpp:77] Creating layer loss_Sideburns
I1013 18:11:07.606889 24074 net.cpp:91] Creating Layer loss_Sideburns
I1013 18:11:07.606894 24074 net.cpp:425] loss_Sideburns <- fc3_Sideburns
I1013 18:11:07.606899 24074 net.cpp:425] loss_Sideburns <- label_Sideburns
I1013 18:11:07.606904 24074 net.cpp:399] loss_Sideburns -> loss_Sideburns
I1013 18:11:07.606942 24074 net.cpp:141] Setting up loss_Sideburns
I1013 18:11:07.606950 24074 net.cpp:148] Top shape: (1)
I1013 18:11:07.606955 24074 net.cpp:151]     with loss weight 1
I1013 18:11:07.606959 24074 net.cpp:156] Memory required for data: 3858409740
I1013 18:11:07.606972 24074 layer_factory.hpp:77] Creating layer fc3_Goatee
I1013 18:11:07.606981 24074 net.cpp:91] Creating Layer fc3_Goatee
I1013 18:11:07.606986 24074 net.cpp:425] fc3_Goatee <- fc2_facialhair_drop2_facialhair_0_split_4
I1013 18:11:07.606993 24074 net.cpp:399] fc3_Goatee -> fc3_Goatee
I1013 18:11:07.607100 24074 net.cpp:141] Setting up fc3_Goatee
I1013 18:11:07.607108 24074 net.cpp:148] Top shape: 100 2 (200)
I1013 18:11:07.607112 24074 net.cpp:156] Memory required for data: 3858410540
I1013 18:11:07.607120 24074 layer_factory.hpp:77] Creating layer loss_Goatee
I1013 18:11:07.607126 24074 net.cpp:91] Creating Layer loss_Goatee
I1013 18:11:07.607131 24074 net.cpp:425] loss_Goatee <- fc3_Goatee
I1013 18:11:07.607136 24074 net.cpp:425] loss_Goatee <- label_Goatee
I1013 18:11:07.607142 24074 net.cpp:399] loss_Goatee -> loss_Goatee
I1013 18:11:07.607182 24074 net.cpp:141] Setting up loss_Goatee
I1013 18:11:07.607190 24074 net.cpp:148] Top shape: (1)
I1013 18:11:07.607194 24074 net.cpp:151]     with loss weight 1
I1013 18:11:07.607199 24074 net.cpp:156] Memory required for data: 3858410544
I1013 18:11:07.607203 24074 layer_factory.hpp:77] Creating layer fc3_High_Cheekbones
I1013 18:11:07.607210 24074 net.cpp:91] Creating Layer fc3_High_Cheekbones
I1013 18:11:07.607216 24074 net.cpp:425] fc3_High_Cheekbones <- fc2_cheeks_drop2_cheeks_0_split_0
I1013 18:11:07.607223 24074 net.cpp:399] fc3_High_Cheekbones -> fc3_High_Cheekbones
I1013 18:11:07.607327 24074 net.cpp:141] Setting up fc3_High_Cheekbones
I1013 18:11:07.607336 24074 net.cpp:148] Top shape: 100 2 (200)
I1013 18:11:07.607341 24074 net.cpp:156] Memory required for data: 3858411344
I1013 18:11:07.607347 24074 layer_factory.hpp:77] Creating layer loss_High_Cheekbones
I1013 18:11:07.607354 24074 net.cpp:91] Creating Layer loss_High_Cheekbones
I1013 18:11:07.607358 24074 net.cpp:425] loss_High_Cheekbones <- fc3_High_Cheekbones
I1013 18:11:07.607363 24074 net.cpp:425] loss_High_Cheekbones <- label_High_Cheekbones
I1013 18:11:07.607370 24074 net.cpp:399] loss_High_Cheekbones -> loss_High_Cheekbones
I1013 18:11:07.607409 24074 net.cpp:141] Setting up loss_High_Cheekbones
I1013 18:11:07.607416 24074 net.cpp:148] Top shape: (1)
I1013 18:11:07.607420 24074 net.cpp:151]     with loss weight 1
I1013 18:11:07.607425 24074 net.cpp:156] Memory required for data: 3858411348
I1013 18:11:07.607430 24074 layer_factory.hpp:77] Creating layer fc3_Rosy_Cheeks
I1013 18:11:07.607439 24074 net.cpp:91] Creating Layer fc3_Rosy_Cheeks
I1013 18:11:07.607444 24074 net.cpp:425] fc3_Rosy_Cheeks <- fc2_cheeks_drop2_cheeks_0_split_1
I1013 18:11:07.607452 24074 net.cpp:399] fc3_Rosy_Cheeks -> fc3_Rosy_Cheeks
I1013 18:11:07.607558 24074 net.cpp:141] Setting up fc3_Rosy_Cheeks
I1013 18:11:07.607566 24074 net.cpp:148] Top shape: 100 2 (200)
I1013 18:11:07.607570 24074 net.cpp:156] Memory required for data: 3858412148
I1013 18:11:07.607576 24074 layer_factory.hpp:77] Creating layer loss_Rosy_Cheeks
I1013 18:11:07.607584 24074 net.cpp:91] Creating Layer loss_Rosy_Cheeks
I1013 18:11:07.607589 24074 net.cpp:425] loss_Rosy_Cheeks <- fc3_Rosy_Cheeks
I1013 18:11:07.607594 24074 net.cpp:425] loss_Rosy_Cheeks <- label_Rosy_Cheeks
I1013 18:11:07.607600 24074 net.cpp:399] loss_Rosy_Cheeks -> loss_Rosy_Cheeks
I1013 18:11:07.607640 24074 net.cpp:141] Setting up loss_Rosy_Cheeks
I1013 18:11:07.607647 24074 net.cpp:148] Top shape: (1)
I1013 18:11:07.607651 24074 net.cpp:151]     with loss weight 1
I1013 18:11:07.607656 24074 net.cpp:156] Memory required for data: 3858412152
I1013 18:11:07.607659 24074 layer_factory.hpp:77] Creating layer fc3_Chubby
I1013 18:11:07.607666 24074 net.cpp:91] Creating Layer fc3_Chubby
I1013 18:11:07.607671 24074 net.cpp:425] fc3_Chubby <- fc2_fat_drop2_fat_0_split_0
I1013 18:11:07.607679 24074 net.cpp:399] fc3_Chubby -> fc3_Chubby
I1013 18:11:07.607782 24074 net.cpp:141] Setting up fc3_Chubby
I1013 18:11:07.607791 24074 net.cpp:148] Top shape: 100 2 (200)
I1013 18:11:07.607795 24074 net.cpp:156] Memory required for data: 3858412952
I1013 18:11:07.607815 24074 layer_factory.hpp:77] Creating layer loss_Chubby
I1013 18:11:07.607825 24074 net.cpp:91] Creating Layer loss_Chubby
I1013 18:11:07.607831 24074 net.cpp:425] loss_Chubby <- fc3_Chubby
I1013 18:11:07.607836 24074 net.cpp:425] loss_Chubby <- label_Chubby
I1013 18:11:07.607841 24074 net.cpp:399] loss_Chubby -> loss_Chubby
I1013 18:11:07.607882 24074 net.cpp:141] Setting up loss_Chubby
I1013 18:11:07.607892 24074 net.cpp:148] Top shape: (1)
I1013 18:11:07.607895 24074 net.cpp:151]     with loss weight 1
I1013 18:11:07.607902 24074 net.cpp:156] Memory required for data: 3858412956
I1013 18:11:07.607904 24074 layer_factory.hpp:77] Creating layer fc3_Double_Chin
I1013 18:11:07.607913 24074 net.cpp:91] Creating Layer fc3_Double_Chin
I1013 18:11:07.607918 24074 net.cpp:425] fc3_Double_Chin <- fc2_fat_drop2_fat_0_split_1
I1013 18:11:07.607924 24074 net.cpp:399] fc3_Double_Chin -> fc3_Double_Chin
I1013 18:11:07.608031 24074 net.cpp:141] Setting up fc3_Double_Chin
I1013 18:11:07.608039 24074 net.cpp:148] Top shape: 100 2 (200)
I1013 18:11:07.608043 24074 net.cpp:156] Memory required for data: 3858413756
I1013 18:11:07.608049 24074 layer_factory.hpp:77] Creating layer loss_Double_Chin
I1013 18:11:07.608057 24074 net.cpp:91] Creating Layer loss_Double_Chin
I1013 18:11:07.608062 24074 net.cpp:425] loss_Double_Chin <- fc3_Double_Chin
I1013 18:11:07.608067 24074 net.cpp:425] loss_Double_Chin <- label_Double_Chin
…
I1013 18:11:08.684902 24074 net.cpp:399] fc2_fat_drop2_fat_0_split -> fc2_fat_drop2_fat_0_split_0
I1013 18:11:08.684911 24074 net.cpp:399] fc2_fat_drop2_fat_0_split -> fc2_fat_drop2_fat_0_split_1
I1013 18:11:08.684952 24074 net.cpp:141] Setting up fc2_fat_drop2_fat_0_split
I1013 18:11:08.684959 24074 net.cpp:148] Top shape: 64 512 (32768)
I1013 18:11:08.684963 24074 net.cpp:148] Top shape: 64 512 (32768)
I1013 18:11:08.684967 24074 net.cpp:156] Memory required for data: 2469364992
I1013 18:11:08.684983 24074 layer_factory.hpp:77] Creating layer fc3_Male
I1013 18:11:08.684993 24074 net.cpp:91] Creating Layer fc3_Male
I1013 18:11:08.684998 24074 net.cpp:425] fc3_Male <- fc2_gender
I1013 18:11:08.685005 24074 net.cpp:399] fc3_Male -> fc3_Male
I1013 18:11:08.685132 24074 net.cpp:141] Setting up fc3_Male
I1013 18:11:08.685143 24074 net.cpp:148] Top shape: 64 2 (128)
I1013 18:11:08.685148 24074 net.cpp:156] Memory required for data: 2469365504
I1013 18:11:08.685154 24074 layer_factory.hpp:77] Creating layer loss_Male
I1013 18:11:08.685164 24074 net.cpp:91] Creating Layer loss_Male
I1013 18:11:08.685168 24074 net.cpp:425] loss_Male <- fc3_Male
I1013 18:11:08.685174 24074 net.cpp:425] loss_Male <- label_Male
I1013 18:11:08.685181 24074 net.cpp:399] loss_Male -> loss_Male
I1013 18:11:08.685230 24074 net.cpp:141] Setting up loss_Male
I1013 18:11:08.685240 24074 net.cpp:148] Top shape: (1)
I1013 18:11:08.685243 24074 net.cpp:151]     with loss weight 1
I1013 18:11:08.685256 24074 net.cpp:156] Memory required for data: 2469365508
I1013 18:11:08.685261 24074 layer_factory.hpp:77] Creating layer fc3_Big_Nose
I1013 18:11:08.685286 24074 net.cpp:91] Creating Layer fc3_Big_Nose
I1013 18:11:08.685297 24074 net.cpp:425] fc3_Big_Nose <- fc2_nose_drop2_nose_0_split_0
I1013 18:11:08.685312 24074 net.cpp:399] fc3_Big_Nose -> fc3_Big_Nose
I1013 18:11:08.685438 24074 net.cpp:141] Setting up fc3_Big_Nose
I1013 18:11:08.685448 24074 net.cpp:148] Top shape: 64 2 (128)
I1013 18:11:08.685451 24074 net.cpp:156] Memory required for data: 2469366020
I1013 18:11:08.685459 24074 layer_factory.hpp:77] Creating layer loss_Big_Nose
I1013 18:11:08.685469 24074 net.cpp:91] Creating Layer loss_Big_Nose
I1013 18:11:08.685474 24074 net.cpp:425] loss_Big_Nose <- fc3_Big_Nose
I1013 18:11:08.685480 24074 net.cpp:425] loss_Big_Nose <- label_Big_Nose
I1013 18:11:08.685487 24074 net.cpp:399] loss_Big_Nose -> loss_Big_Nose
I1013 18:11:08.685533 24074 net.cpp:141] Setting up loss_Big_Nose
I1013 18:11:08.685541 24074 net.cpp:148] Top shape: (1)
I1013 18:11:08.685545 24074 net.cpp:151]     with loss weight 1
I1013 18:11:08.685550 24074 net.cpp:156] Memory required for data: 2469366024
I1013 18:11:08.685554 24074 layer_factory.hpp:77] Creating layer fc3_Pointy_Nose
I1013 18:11:08.685562 24074 net.cpp:91] Creating Layer fc3_Pointy_Nose
I1013 18:11:08.685566 24074 net.cpp:425] fc3_Pointy_Nose <- fc2_nose_drop2_nose_0_split_1
I1013 18:11:08.685575 24074 net.cpp:399] fc3_Pointy_Nose -> fc3_Pointy_Nose
I1013 18:11:08.685693 24074 net.cpp:141] Setting up fc3_Pointy_Nose
I1013 18:11:08.685703 24074 net.cpp:148] Top shape: 64 2 (128)
I1013 18:11:08.685708 24074 net.cpp:156] Memory required for data: 2469366536
I1013 18:11:08.685742 24074 layer_factory.hpp:77] Creating layer loss_Pointy_Nose
I1013 18:11:08.685755 24074 net.cpp:91] Creating Layer loss_Pointy_Nose
I1013 18:11:08.685760 24074 net.cpp:425] loss_Pointy_Nose <- fc3_Pointy_Nose
I1013 18:11:08.685766 24074 net.cpp:425] loss_Pointy_Nose <- label_Pointy_Nose
I1013 18:11:08.685772 24074 net.cpp:399] loss_Pointy_Nose -> loss_Pointy_Nose
I1013 18:11:08.685820 24074 net.cpp:141] Setting up loss_Pointy_Nose
I1013 18:11:08.685829 24074 net.cpp:148] Top shape: (1)
I1013 18:11:08.685833 24074 net.cpp:151]     with loss weight 1
I1013 18:11:08.685839 24074 net.cpp:156] Memory required for data: 2469366540
I1013 18:11:08.685842 24074 layer_factory.hpp:77] Creating layer fc3_Big_Lips
I1013 18:11:08.685849 24074 net.cpp:91] Creating Layer fc3_Big_Lips
I1013 18:11:08.685854 24074 net.cpp:425] fc3_Big_Lips <- fc2_mouth_drop2_mouth_0_split_0
I1013 18:11:08.685861 24074 net.cpp:399] fc3_Big_Lips -> fc3_Big_Lips
I1013 18:11:08.685986 24074 net.cpp:141] Setting up fc3_Big_Lips
I1013 18:11:08.685995 24074 net.cpp:148] Top shape: 64 2 (128)
I1013 18:11:08.685999 24074 net.cpp:156] Memory required for data: 2469367052
I1013 18:11:08.686005 24074 layer_factory.hpp:77] Creating layer loss_Big_Lips
I1013 18:11:08.686014 24074 net.cpp:91] Creating Layer loss_Big_Lips
I1013 18:11:08.686019 24074 net.cpp:425] loss_Big_Lips <- fc3_Big_Lips
I1013 18:11:08.686035 24074 net.cpp:425] loss_Big_Lips <- label_Big_Lips
I1013 18:11:08.686043 24074 net.cpp:399] loss_Big_Lips -> loss_Big_Lips
I1013 18:11:08.686090 24074 net.cpp:141] Setting up loss_Big_Lips
I1013 18:11:08.686100 24074 net.cpp:148] Top shape: (1)
I1013 18:11:08.686105 24074 net.cpp:151]     with loss weight 1
I1013 18:11:08.686110 24074 net.cpp:156] Memory required for data: 2469367056
I1013 18:11:08.686113 24074 layer_factory.hpp:77] Creating layer fc3_Smiling
I1013 18:11:08.686120 24074 net.cpp:91] Creating Layer fc3_Smiling
I1013 18:11:08.686125 24074 net.cpp:425] fc3_Smiling <- fc2_mouth_drop2_mouth_0_split_1
I1013 18:11:08.686131 24074 net.cpp:399] fc3_Smiling -> fc3_Smiling
I1013 18:11:08.686251 24074 net.cpp:141] Setting up fc3_Smiling
I1013 18:11:08.686261 24074 net.cpp:148] Top shape: 64 2 (128)
I1013 18:11:08.686265 24074 net.cpp:156] Memory required for data: 2469367568
I1013 18:11:08.686271 24074 layer_factory.hpp:77] Creating layer loss_Smiling
I1013 18:11:08.686280 24074 net.cpp:91] Creating Layer loss_Smiling
I1013 18:11:08.686285 24074 net.cpp:425] loss_Smiling <- fc3_Smiling
I1013 18:11:08.686291 24074 net.cpp:425] loss_Smiling <- label_Smiling
I1013 18:11:08.686298 24074 net.cpp:399] loss_Smiling -> loss_Smiling
I1013 18:11:08.686347 24074 net.cpp:141] Setting up loss_Smiling
I1013 18:11:08.686357 24074 net.cpp:148] Top shape: (1)
I1013 18:11:08.686360 24074 net.cpp:151]     with loss weight 1
I1013 18:11:08.686365 24074 net.cpp:156] Memory required for data: 2469367572
I1013 18:11:08.686369 24074 layer_factory.hpp:77] Creating layer fc3_Wearing_Lipstick
I1013 18:11:08.686377 24074 net.cpp:91] Creating Layer fc3_Wearing_Lipstick
I1013 18:11:08.686380 24074 net.cpp:425] fc3_Wearing_Lipstick <- fc2_mouth_drop2_mouth_0_split_2
I1013 18:11:08.686388 24074 net.cpp:399] fc3_Wearing_Lipstick -> fc3_Wearing_Lipstick
I1013 18:11:08.686509 24074 net.cpp:141] Setting up fc3_Wearing_Lipstick
I1013 18:11:08.686519 24074 net.cpp:148] Top shape: 64 2 (128)
I1013 18:11:08.686523 24074 net.cpp:156] Memory required for data: 2469368084
I1013 18:11:08.686529 24074 layer_factory.hpp:77] Creating layer loss_Wearing_Lipstick
I1013 18:11:08.686538 24074 net.cpp:91] Creating Layer loss_Wearing_Lipstick
I1013 18:11:08.686543 24074 net.cpp:425] loss_Wearing_Lipstick <- fc3_Wearing_Lipstick
I1013 18:11:08.686549 24074 net.cpp:425] loss_Wearing_Lipstick <- label_Wearing_Lipstick
I1013 18:11:08.686554 24074 net.cpp:399] loss_Wearing_Lipstick -> loss_Wearing_Lipstick
I1013 18:11:08.686602 24074 net.cpp:141] Setting up loss_Wearing_Lipstick
I1013 18:11:08.686610 24074 net.cpp:148] Top shape: (1)
I1013 18:11:08.686614 24074 net.cpp:151]     with loss weight 1
I1013 18:11:08.686619 24074 net.cpp:156] Memory required for data: 2469368088
I1013 18:11:08.686624 24074 layer_factory.hpp:77] Creating layer fc3_Mouth_Slightly_Open
I1013 18:11:08.686630 24074 net.cpp:91] Creating Layer fc3_Mouth_Slightly_Open
I1013 18:11:08.686635 24074 net.cpp:425] fc3_Mouth_Slightly_Open <- fc2_mouth_drop2_mouth_0_split_3
I1013 18:11:08.686641 24074 net.cpp:399] fc3_Mouth_Slightly_Open -> fc3_Mouth_Slightly_Open
I1013 18:11:08.686763 24074 net.cpp:141] Setting up fc3_Mouth_Slightly_Open
I1013 18:11:08.686772 24074 net.cpp:148] Top shape: 64 2 (128)
I1013 18:11:08.686775 24074 net.cpp:156] Memory required for data: 2469368600
I1013 18:11:08.686782 24074 layer_factory.hpp:77] Creating layer loss_Mouth_Slightly_Open
I1013 18:11:08.686790 24074 net.cpp:91] Creating Layer loss_Mouth_Slightly_Open
I1013 18:11:08.686795 24074 net.cpp:425] loss_Mouth_Slightly_Open <- fc3_Mouth_Slightly_Open
I1013 18:11:08.686801 24074 net.cpp:425] loss_Mouth_Slightly_Open <- label_Mouth_Slightly_Open
I1013 18:11:08.686807 24074 net.cpp:399] loss_Mouth_Slightly_Open -> loss_Mouth_Slightly_Open
I1013 18:11:08.686854 24074 net.cpp:141] Setting up loss_Mouth_Slightly_Open
I1013 18:11:08.686862 24074 net.cpp:148] Top shape: (1)
I1013 18:11:08.686866 24074 net.cpp:151]     with loss weight 1
I1013 18:11:08.686872 24074 net.cpp:156] Memory required for data: 2469368604
I1013 18:11:08.686885 24074 layer_factory.hpp:77] Creating layer fc3_Arched_Eyebrows
I1013 18:11:08.686893 24074 net.cpp:91] Creating Layer fc3_Arched_Eyebrows
I1013 18:11:08.686898 24074 net.cpp:425] fc3_Arched_Eyebrows <- fc2_eyes_drop2_eyes_0_split_0
I1013 18:11:08.686906 24074 net.cpp:399] fc3_Arched_Eyebrows -> fc3_Arched_Eyebrows
I1013 18:11:08.687031 24074 net.cpp:141] Setting up fc3_Arched_Eyebrows
I1013 18:11:08.687041 24074 net.cpp:148] Top shape: 64 2 (128)
I1013 18:11:08.687044 24074 net.cpp:156] Memory required for data: 2469369116
I1013 18:11:08.687050 24074 layer_factory.hpp:77] Creating layer loss_Arched_Eyebrows
I1013 18:11:08.687062 24074 net.cpp:91] Creating Layer loss_Arched_Eyebrows
I1013 18:11:08.687067 24074 net.cpp:425] loss_Arched_Eyebrows <- fc3_Arched_Eyebrows
I1013 18:11:08.687072 24074 net.cpp:425] loss_Arched_Eyebrows <- label_Arched_Eyebrows
I1013 18:11:08.687077 24074 net.cpp:399] loss_Arched_Eyebrows -> loss_Arched_Eyebrows
I1013 18:11:08.687124 24074 net.cpp:141] Setting up loss_Arched_Eyebrows
I1013 18:11:08.687134 24074 net.cpp:148] Top shape: (1)
I1013 18:11:08.687137 24074 net.cpp:151]     with loss weight 1
I1013 18:11:08.687142 24074 net.cpp:156] Memory required for data: 2469369120
I1013 18:11:08.687146 24074 layer_factory.hpp:77] Creating layer fc3_Bags_Under_Eyes
I1013 18:11:08.687153 24074 net.cpp:91] Creating Layer fc3_Bags_Under_Eyes
I1013 18:11:08.687158 24074 net.cpp:425] fc3_Bags_Under_Eyes <- fc2_eyes_drop2_eyes_0_split_1
I1013 18:11:08.687165 24074 net.cpp:399] fc3_Bags_Under_Eyes -> fc3_Bags_Under_Eyes
I1013 18:11:08.687286 24074 net.cpp:141] Setting up fc3_Bags_Under_Eyes
I1013 18:11:08.687296 24074 net.cpp:148] Top shape: 64 2 (128)
I1013 18:11:08.687299 24074 net.cpp:156] Memory required for data: 2469369632
I1013 18:11:08.687306 24074 layer_factory.hpp:77] Creating layer loss_Bags_Under_Eyes
I1013 18:11:08.687314 24074 net.cpp:91] Creating Layer loss_Bags_Under_Eyes
I1013 18:11:08.687319 24074 net.cpp:425] loss_Bags_Under_Eyes <- fc3_Bags_Under_Eyes
I1013 18:11:08.687325 24074 net.cpp:425] loss_Bags_Under_Eyes <- label_Bags_Under_Eyes
I1013 18:11:08.687331 24074 net.cpp:399] loss_Bags_Under_Eyes -> loss_Bags_Under_Eyes
I1013 18:11:08.687379 24074 net.cpp:141] Setting up loss_Bags_Under_Eyes
I1013 18:11:08.687387 24074 net.cpp:148] Top shape: (1)
I1013 18:11:08.687391 24074 net.cpp:151]     with loss weight 1
I1013 18:11:08.687397 24074 net.cpp:156] Memory required for data: 2469369636
I1013 18:11:08.687400 24074 layer_factory.hpp:77] Creating layer fc3_Bushy_Eyebrows
I1013 18:11:08.687407 24074 net.cpp:91] Creating Layer fc3_Bushy_Eyebrows
I1013 18:11:08.687412 24074 net.cpp:425] fc3_Bushy_Eyebrows <- fc2_eyes_drop2_eyes_0_split_2
I1013 18:11:08.687418 24074 net.cpp:399] fc3_Bushy_Eyebrows -> fc3_Bushy_Eyebrows
I1013 18:11:08.687544 24074 net.cpp:141] Setting up fc3_Bushy_Eyebrows
I1013 18:11:08.687554 24074 net.cpp:148] Top shape: 64 2 (128)
I1013 18:11:08.687558 24074 net.cpp:156] Memory required for data: 2469370148
I1013 18:11:08.687564 24074 layer_factory.hpp:77] Creating layer loss_Bushy_Eyebrows
I1013 18:11:08.687572 24074 net.cpp:91] Creating Layer loss_Bushy_Eyebrows
I1013 18:11:08.687577 24074 net.cpp:425] loss_Bushy_Eyebrows <- fc3_Bushy_Eyebrows
I1013 18:11:08.687583 24074 net.cpp:425] loss_Bushy_Eyebrows <- label_Bushy_Eyebrows
I1013 18:11:08.687589 24074 net.cpp:399] loss_Bushy_Eyebrows -> loss_Bushy_Eyebrows
I1013 18:11:08.687641 24074 net.cpp:141] Setting up loss_Bushy_Eyebrows
I1013 18:11:08.687650 24074 net.cpp:148] Top shape: (1)
I1013 18:11:08.687654 24074 net.cpp:151]     with loss weight 1
I1013 18:11:08.687659 24074 net.cpp:156] Memory required for data: 2469370152
I1013 18:11:08.687664 24074 layer_factory.hpp:77] Creating layer fc3_Narrow_Eyes
I1013 18:11:08.687670 24074 net.cpp:91] Creating Layer fc3_Narrow_Eyes
I1013 18:11:08.687675 24074 net.cpp:425] fc3_Narrow_Eyes <- fc2_eyes_drop2_eyes_0_split_3
I1013 18:11:08.687682 24074 net.cpp:399] fc3_Narrow_Eyes -> fc3_Narrow_Eyes
I1013 18:11:08.687804 24074 net.cpp:141] Setting up fc3_Narrow_Eyes
I1013 18:11:08.687829 24074 net.cpp:148] Top shape: 64 2 (128)
I1013 18:11:08.687835 24074 net.cpp:156] Memory required for data: 2469370664
I1013 18:11:08.687841 24074 layer_factory.hpp:77] Creating layer loss_Narrow_Eyes
I1013 18:11:08.687849 24074 net.cpp:91] Creating Layer loss_Narrow_Eyes
I1013 18:11:08.687854 24074 net.cpp:425] loss_Narrow_Eyes <- fc3_Narrow_Eyes
I1013 18:11:08.687861 24074 net.cpp:425] loss_Narrow_Eyes <- label_Narrow_Eyes
I1013 18:11:08.687867 24074 net.cpp:399] loss_Narrow_Eyes -> loss_Narrow_Eyes
I1013 18:11:08.687921 24074 net.cpp:141] Setting up loss_Narrow_Eyes
I1013 18:11:08.687929 24074 net.cpp:148] Top shape: (1)
I1013 18:11:08.687933 24074 net.cpp:151]     with loss weight 1
I1013 18:11:08.687938 24074 net.cpp:156] Memory required for data: 2469370668
I1013 18:11:08.687942 24074 layer_factory.hpp:77] Creating layer fc3_Eyeglasses
I1013 18:11:08.687949 24074 net.cpp:91] Creating Layer fc3_Eyeglasses
I1013 18:11:08.687954 24074 net.cpp:425] fc3_Eyeglasses <- fc2_eyes_drop2_eyes_0_split_4
I1013 18:11:08.687961 24074 net.cpp:399] fc3_Eyeglasses -> fc3_Eyeglasses
I1013 18:11:08.688086 24074 net.cpp:141] Setting up fc3_Eyeglasses
I1013 18:11:08.688096 24074 net.cpp:148] Top shape: 64 2 (128)
I1013 18:11:08.688099 24074 net.cpp:156] Memory required for data: 2469371180
I1013 18:11:08.688105 24074 layer_factory.hpp:77] Creating layer loss_Eyeglasses
I1013 18:11:08.688112 24074 net.cpp:91] Creating Layer loss_Eyeglasses
I1013 18:11:08.688117 24074 net.cpp:425] loss_Eyeglasses <- fc3_Eyeglasses
I1013 18:11:08.688122 24074 net.cpp:425] loss_Eyeglasses <- label_Eyeglasses
I1013 18:11:08.688130 24074 net.cpp:399] loss_Eyeglasses -> loss_Eyeglasses
I1013 18:11:08.688175 24074 net.cpp:141] Setting up loss_Eyeglasses
I1013 18:11:08.688186 24074 net.cpp:148] Top shape: (1)
I1013 18:11:08.688191 24074 net.cpp:151]     with loss weight 1
I1013 18:11:08.688196 24074 net.cpp:156] Memory required for data: 2469371184
I1013 18:11:08.688200 24074 layer_factory.hpp:77] Creating layer fc3_Attractive
I1013 18:11:08.688206 24074 net.cpp:91] Creating Layer fc3_Attractive
I1013 18:11:08.688210 24074 net.cpp:425] fc3_Attractive <- fc2_face_drop2_face_0_split_0
I1013 18:11:08.688217 24074 net.cpp:399] fc3_Attractive -> fc3_Attractive
I1013 18:11:08.688339 24074 net.cpp:141] Setting up fc3_Attractive
I1013 18:11:08.688349 24074 net.cpp:148] Top shape: 64 2 (128)
I1013 18:11:08.688352 24074 net.cpp:156] Memory required for data: 2469371696
I1013 18:11:08.688359 24074 layer_factory.hpp:77] Creating layer loss_Attractive
I1013 18:11:08.688365 24074 net.cpp:91] Creating Layer loss_Attractive
I1013 18:11:08.688370 24074 net.cpp:425] loss_Attractive <- fc3_Attractive
I1013 18:11:08.688375 24074 net.cpp:425] loss_Attractive <- label_Attractive
I1013 18:11:08.688383 24074 net.cpp:399] loss_Attractive -> loss_Attractive
I1013 18:11:08.688428 24074 net.cpp:141] Setting up loss_Attractive
I1013 18:11:08.688437 24074 net.cpp:148] Top shape: (1)
I1013 18:11:08.688441 24074 net.cpp:151]     with loss weight 1
I1013 18:11:08.688446 24074 net.cpp:156] Memory required for data: 2469371700
I1013 18:11:08.688451 24074 layer_factory.hpp:77] Creating layer fc3_Blurry
I1013 18:11:08.688458 24074 net.cpp:91] Creating Layer fc3_Blurry
I1013 18:11:08.688463 24074 net.cpp:425] fc3_Blurry <- fc2_face_drop2_face_0_split_1
I1013 18:11:08.688470 24074 net.cpp:399] fc3_Blurry -> fc3_Blurry
I1013 18:11:08.688587 24074 net.cpp:141] Setting up fc3_Blurry
I1013 18:11:08.688601 24074 net.cpp:148] Top shape: 64 2 (128)
I1013 18:11:08.688604 24074 net.cpp:156] Memory required for data: 2469372212
I1013 18:11:08.688611 24074 layer_factory.hpp:77] Creating layer loss_Blurry
I1013 18:11:08.688618 24074 net.cpp:91] Creating Layer loss_Blurry
I1013 18:11:08.688622 24074 net.cpp:425] loss_Blurry <- fc3_Blurry
I1013 18:11:08.688627 24074 net.cpp:425] loss_Blurry <- label_Blurry
I1013 18:11:08.688637 24074 net.cpp:399] loss_Blurry -> loss_Blurry
I1013 18:11:08.688681 24074 net.cpp:141] Setting up loss_Blurry
I1013 18:11:08.688689 24074 net.cpp:148] Top shape: (1)
I1013 18:11:08.688702 24074 net.cpp:151]     with loss weight 1
I1013 18:11:08.688709 24074 net.cpp:156] Memory required for data: 2469372216
I1013 18:11:08.688714 24074 layer_factory.hpp:77] Creating layer fc3_Oval_Face
I1013 18:11:08.688722 24074 net.cpp:91] Creating Layer fc3_Oval_Face
I1013 18:11:08.688726 24074 net.cpp:425] fc3_Oval_Face <- fc2_face_drop2_face_0_split_2
I1013 18:11:08.688735 24074 net.cpp:399] fc3_Oval_Face -> fc3_Oval_Face
I1013 18:11:08.688854 24074 net.cpp:141] Setting up fc3_Oval_Face
I1013 18:11:08.688866 24074 net.cpp:148] Top shape: 64 2 (128)
I1013 18:11:08.688870 24074 net.cpp:156] Memory required for data: 2469372728
I1013 18:11:08.688876 24074 layer_factory.hpp:77] Creating layer loss_Oval_Face
I1013 18:11:08.688884 24074 net.cpp:91] Creating Layer loss_Oval_Face
I1013 18:11:08.688889 24074 net.cpp:425] loss_Oval_Face <- fc3_Oval_Face
I1013 18:11:08.688894 24074 net.cpp:425] loss_Oval_Face <- label_Oval_Face
I1013 18:11:08.688901 24074 net.cpp:399] loss_Oval_Face -> loss_Oval_Face
I1013 18:11:08.688947 24074 net.cpp:141] Setting up loss_Oval_Face
I1013 18:11:08.688956 24074 net.cpp:148] Top shape: (1)
I1013 18:11:08.688961 24074 net.cpp:151]     with loss weight 1
I1013 18:11:08.688966 24074 net.cpp:156] Memory required for data: 2469372732
I1013 18:11:08.688968 24074 layer_factory.hpp:77] Creating layer fc3_Pale_Skin
I1013 18:11:08.688977 24074 net.cpp:91] Creating Layer fc3_Pale_Skin
I1013 18:11:08.688982 24074 net.cpp:425] fc3_Pale_Skin <- fc2_face_drop2_face_0_split_3
I1013 18:11:08.688989 24074 net.cpp:399] fc3_Pale_Skin -> fc3_Pale_Skin
I1013 18:11:08.689110 24074 net.cpp:141] Setting up fc3_Pale_Skin
I1013 18:11:08.689121 24074 net.cpp:148] Top shape: 64 2 (128)
I1013 18:11:08.689126 24074 net.cpp:156] Memory required for data: 2469373244
I1013 18:11:08.689131 24074 layer_factory.hpp:77] Creating layer loss_Pale_Skin
I1013 18:11:08.689138 24074 net.cpp:91] Creating Layer loss_Pale_Skin
I1013 18:11:08.689142 24074 net.cpp:425] loss_Pale_Skin <- fc3_Pale_Skin
I1013 18:11:08.689147 24074 net.cpp:425] loss_Pale_Skin <- label_Pale_Skin
I1013 18:11:08.689155 24074 net.cpp:399] loss_Pale_Skin -> loss_Pale_Skin
I1013 18:11:08.689199 24074 net.cpp:141] Setting up loss_Pale_Skin
I1013 18:11:08.689208 24074 net.cpp:148] Top shape: (1)
I1013 18:11:08.689211 24074 net.cpp:151]     with loss weight 1
I1013 18:11:08.689216 24074 net.cpp:156] Memory required for data: 2469373248
I1013 18:11:08.689220 24074 layer_factory.hpp:77] Creating layer fc3_Young
I1013 18:11:08.689229 24074 net.cpp:91] Creating Layer fc3_Young
I1013 18:11:08.689234 24074 net.cpp:425] fc3_Young <- fc2_face_drop2_face_0_split_4
I1013 18:11:08.689240 24074 net.cpp:399] fc3_Young -> fc3_Young
I1013 18:11:08.689360 24074 net.cpp:141] Setting up fc3_Young
I1013 18:11:08.689370 24074 net.cpp:148] Top shape: 64 2 (128)
I1013 18:11:08.689374 24074 net.cpp:156] Memory required for data: 2469373760
I1013 18:11:08.689381 24074 layer_factory.hpp:77] Creating layer loss_Young
I1013 18:11:08.689389 24074 net.cpp:91] Creating Layer loss_Young
I1013 18:11:08.689394 24074 net.cpp:425] loss_Young <- fc3_Young
I1013 18:11:08.689400 24074 net.cpp:425] loss_Young <- label_Young
I1013 18:11:08.689407 24074 net.cpp:399] loss_Young -> loss_Young
I1013 18:11:08.689452 24074 net.cpp:141] Setting up loss_Young
I1013 18:11:08.689461 24074 net.cpp:148] Top shape: (1)
I1013 18:11:08.689465 24074 net.cpp:151]     with loss weight 1
I1013 18:11:08.689471 24074 net.cpp:156] Memory required for data: 2469373764
I1013 18:11:08.689474 24074 layer_factory.hpp:77] Creating layer fc3_Heavy_Makeup
I1013 18:11:08.689483 24074 net.cpp:91] Creating Layer fc3_Heavy_Makeup
I1013 18:11:08.689488 24074 net.cpp:425] fc3_Heavy_Makeup <- fc2_face_drop2_face_0_split_5
I1013 18:11:08.689496 24074 net.cpp:399] fc3_Heavy_Makeup -> fc3_Heavy_Makeup
I1013 18:11:08.689615 24074 net.cpp:141] Setting up fc3_Heavy_Makeup
I1013 18:11:08.689625 24074 net.cpp:148] Top shape: 64 2 (128)
I1013 18:11:08.689630 24074 net.cpp:156] Memory required for data: 2469374276
I1013 18:11:08.689635 24074 layer_factory.hpp:77] Creating layer loss_Heavy_Makeup
I1013 18:11:08.689652 24074 net.cpp:91] Creating Layer loss_Heavy_Makeup
I1013 18:11:08.689658 24074 net.cpp:425] loss_Heavy_Makeup <- fc3_Heavy_Makeup
I1013 18:11:08.689664 24074 net.cpp:425] loss_Heavy_Makeup <- label_Heavy_Makeup
I1013 18:11:08.689672 24074 net.cpp:399] loss_Heavy_Makeup -> loss_Heavy_Makeup
I1013 18:11:08.689719 24074 net.cpp:141] Setting up loss_Heavy_Makeup
I1013 18:11:08.689728 24074 net.cpp:148] Top shape: (1)
I1013 18:11:08.689733 24074 net.cpp:151]     with loss weight 1
I1013 18:11:08.689738 24074 net.cpp:156] Memory required for data: 2469374280
I1013 18:11:08.689741 24074 layer_factory.hpp:77] Creating layer fc3_Black_Hair
I1013 18:11:08.689750 24074 net.cpp:91] Creating Layer fc3_Black_Hair
I1013 18:11:08.689755 24074 net.cpp:425] fc3_Black_Hair <- fc2_aroundhead_drop2_aroundhead_0_split_0
I1013 18:11:08.689762 24074 net.cpp:399] fc3_Black_Hair -> fc3_Black_Hair
I1013 18:11:08.689882 24074 net.cpp:141] Setting up fc3_Black_Hair
I1013 18:11:08.689890 24074 net.cpp:148] Top shape: 64 2 (128)
I1013 18:11:08.689894 24074 net.cpp:156] Memory required for data: 2469374792
I1013 18:11:08.689900 24074 layer_factory.hpp:77] Creating layer loss_Black_Hair
I1013 18:11:08.689909 24074 net.cpp:91] Creating Layer loss_Black_Hair
I1013 18:11:08.689913 24074 net.cpp:425] loss_Black_Hair <- fc3_Black_Hair
I1013 18:11:08.689919 24074 net.cpp:425] loss_Black_Hair <- label_Black_Hair
I1013 18:11:08.689926 24074 net.cpp:399] loss_Black_Hair -> loss_Black_Hair
I1013 18:11:08.689975 24074 net.cpp:141] Setting up loss_Black_Hair
I1013 18:11:08.689983 24074 net.cpp:148] Top shape: (1)
I1013 18:11:08.689987 24074 net.cpp:151]     with loss weight 1
I1013 18:11:08.689992 24074 net.cpp:156] Memory required for data: 2469374796
I1013 18:11:08.689996 24074 layer_factory.hpp:77] Creating layer fc3_Blond_Hair
I1013 18:11:08.690006 24074 net.cpp:91] Creating Layer fc3_Blond_Hair
I1013 18:11:08.690009 24074 net.cpp:425] fc3_Blond_Hair <- fc2_aroundhead_drop2_aroundhead_0_split_1
I1013 18:11:08.690016 24074 net.cpp:399] fc3_Blond_Hair -> fc3_Blond_Hair
I1013 18:11:08.690140 24074 net.cpp:141] Setting up fc3_Blond_Hair
I1013 18:11:08.690150 24074 net.cpp:148] Top shape: 64 2 (128)
I1013 18:11:08.690155 24074 net.cpp:156] Memory required for data: 2469375308
I1013 18:11:08.690160 24074 layer_factory.hpp:77] Creating layer loss_Blond_Hair
I1013 18:11:08.690168 24074 net.cpp:91] Creating Layer loss_Blond_Hair
I1013 18:11:08.690173 24074 net.cpp:425] loss_Blond_Hair <- fc3_Blond_Hair
I1013 18:11:08.690178 24074 net.cpp:425] loss_Blond_Hair <- label_Blond_Hair
I1013 18:11:08.690184 24074 net.cpp:399] loss_Blond_Hair -> loss_Blond_Hair
I1013 18:11:08.690232 24074 net.cpp:141] Setting up loss_Blond_Hair
I1013 18:11:08.690240 24074 net.cpp:148] Top shape: (1)
I1013 18:11:08.690244 24074 net.cpp:151]     with loss weight 1
I1013 18:11:08.690249 24074 net.cpp:156] Memory required for data: 2469375312
I1013 18:11:08.690253 24074 layer_factory.hpp:77] Creating layer fc3_Brown_Hair
I1013 18:11:08.690261 24074 net.cpp:91] Creating Layer fc3_Brown_Hair
I1013 18:11:08.690265 24074 net.cpp:425] fc3_Brown_Hair <- fc2_aroundhead_drop2_aroundhead_0_split_2
I1013 18:11:08.690273 24074 net.cpp:399] fc3_Brown_Hair -> fc3_Brown_Hair
I1013 18:11:08.690394 24074 net.cpp:141] Setting up fc3_Brown_Hair
I1013 18:11:08.690403 24074 net.cpp:148] Top shape: 64 2 (128)
I1013 18:11:08.690407 24074 net.cpp:156] Memory required for data: 2469375824
I1013 18:11:08.690413 24074 layer_factory.hpp:77] Creating layer loss_Brown_Hair
I1013 18:11:08.690421 24074 net.cpp:91] Creating Layer loss_Brown_Hair
I1013 18:11:08.690426 24074 net.cpp:425] loss_Brown_Hair <- fc3_Brown_Hair
I1013 18:11:08.690431 24074 net.cpp:425] loss_Brown_Hair <- label_Brown_Hair
I1013 18:11:08.690438 24074 net.cpp:399] loss_Brown_Hair -> loss_Brown_Hair
I1013 18:11:08.690484 24074 net.cpp:141] Setting up loss_Brown_Hair
I1013 18:11:08.690492 24074 net.cpp:148] Top shape: (1)
I1013 18:11:08.690496 24074 net.cpp:151]     with loss weight 1
I1013 18:11:08.690510 24074 net.cpp:156] Memory required for data: 2469375828
I1013 18:11:08.690515 24074 layer_factory.hpp:77] Creating layer fc3_Gray_Hair
I1013 18:11:08.690523 24074 net.cpp:91] Creating Layer fc3_Gray_Hair
I1013 18:11:08.690528 24074 net.cpp:425] fc3_Gray_Hair <- fc2_aroundhead_drop2_aroundhead_0_split_3
I1013 18:11:08.690536 24074 net.cpp:399] fc3_Gray_Hair -> fc3_Gray_Hair
I1013 18:11:08.690655 24074 net.cpp:141] Setting up fc3_Gray_Hair
I1013 18:11:08.690665 24074 net.cpp:148] Top shape: 64 2 (128)
I1013 18:11:08.690670 24074 net.cpp:156] Memory required for data: 2469376340
I1013 18:11:08.690675 24074 layer_factory.hpp:77] Creating layer loss_Gray_Hair
I1013 18:11:08.690685 24074 net.cpp:91] Creating Layer loss_Gray_Hair
I1013 18:11:08.690690 24074 net.cpp:425] loss_Gray_Hair <- fc3_Gray_Hair
I1013 18:11:08.690696 24074 net.cpp:425] loss_Gray_Hair <- label_Gray_Hair
I1013 18:11:08.690701 24074 net.cpp:399] loss_Gray_Hair -> loss_Gray_Hair
I1013 18:11:08.690747 24074 net.cpp:141] Setting up loss_Gray_Hair
I1013 18:11:08.690755 24074 net.cpp:148] Top shape: (1)
I1013 18:11:08.690759 24074 net.cpp:151]     with loss weight 1
I1013 18:11:08.690764 24074 net.cpp:156] Memory required for data: 2469376344
I1013 18:11:08.690768 24074 layer_factory.hpp:77] Creating layer fc3_Wearing_Earrings
I1013 18:11:08.690776 24074 net.cpp:91] Creating Layer fc3_Wearing_Earrings
I1013 18:11:08.690781 24074 net.cpp:425] fc3_Wearing_Earrings <- fc2_aroundhead_drop2_aroundhead_0_split_4
I1013 18:11:08.690788 24074 net.cpp:399] fc3_Wearing_Earrings -> fc3_Wearing_Earrings
I1013 18:11:08.690907 24074 net.cpp:141] Setting up fc3_Wearing_Earrings
I1013 18:11:08.690917 24074 net.cpp:148] Top shape: 64 2 (128)
I1013 18:11:08.690920 24074 net.cpp:156] Memory required for data: 2469376856
I1013 18:11:08.690927 24074 layer_factory.hpp:77] Creating layer loss_Wearing_Earrings
I1013 18:11:08.690935 24074 net.cpp:91] Creating Layer loss_Wearing_Earrings
I1013 18:11:08.690940 24074 net.cpp:425] loss_Wearing_Earrings <- fc3_Wearing_Earrings
I1013 18:11:08.690946 24074 net.cpp:425] loss_Wearing_Earrings <- label_Wearing_Earrings
I1013 18:11:08.690951 24074 net.cpp:399] loss_Wearing_Earrings -> loss_Wearing_Earrings
I1013 18:11:08.690997 24074 net.cpp:141] Setting up loss_Wearing_Earrings
I1013 18:11:08.691006 24074 net.cpp:148] Top shape: (1)
I1013 18:11:08.691010 24074 net.cpp:151]     with loss weight 1
I1013 18:11:08.691015 24074 net.cpp:156] Memory required for data: 2469376860
I1013 18:11:08.691020 24074 layer_factory.hpp:77] Creating layer fc3_Wearing_Necklace
I1013 18:11:08.691027 24074 net.cpp:91] Creating Layer fc3_Wearing_Necklace
I1013 18:11:08.691032 24074 net.cpp:425] fc3_Wearing_Necklace <- fc2_aroundhead_drop2_aroundhead_0_split_5
I1013 18:11:08.691040 24074 net.cpp:399] fc3_Wearing_Necklace -> fc3_Wearing_Necklace
I1013 18:11:08.691164 24074 net.cpp:141] Setting up fc3_Wearing_Necklace
I1013 18:11:08.691174 24074 net.cpp:148] Top shape: 64 2 (128)
I1013 18:11:08.691179 24074 net.cpp:156] Memory required for data: 2469377372
I1013 18:11:08.691184 24074 layer_factory.hpp:77] Creating layer loss_Wearing_Necklace
I1013 18:11:08.691193 24074 net.cpp:91] Creating Layer loss_Wearing_Necklace
I1013 18:11:08.691198 24074 net.cpp:425] loss_Wearing_Necklace <- fc3_Wearing_Necklace
I1013 18:11:08.691203 24074 net.cpp:425] loss_Wearing_Necklace <- label_Wearing_Necklace
I1013 18:11:08.691210 24074 net.cpp:399] loss_Wearing_Necklace -> loss_Wearing_Necklace
I1013 18:11:08.691256 24074 net.cpp:141] Setting up loss_Wearing_Necklace
I1013 18:11:08.691265 24074 net.cpp:148] Top shape: (1)
I1013 18:11:08.691269 24074 net.cpp:151]     with loss weight 1
I1013 18:11:08.691274 24074 net.cpp:156] Memory required for data: 2469377376
I1013 18:11:08.691278 24074 layer_factory.hpp:77] Creating layer fc3_Wearing_Necktie
I1013 18:11:08.691287 24074 net.cpp:91] Creating Layer fc3_Wearing_Necktie
I1013 18:11:08.691292 24074 net.cpp:425] fc3_Wearing_Necktie <- fc2_aroundhead_drop2_aroundhead_0_split_6
I1013 18:11:08.691298 24074 net.cpp:399] fc3_Wearing_Necktie -> fc3_Wearing_Necktie
I1013 18:11:08.691432 24074 net.cpp:141] Setting up fc3_Wearing_Necktie
I1013 18:11:08.691443 24074 net.cpp:148] Top shape: 64 2 (128)
I1013 18:11:08.691447 24074 net.cpp:156] Memory required for data: 2469377888
I1013 18:11:08.691453 24074 layer_factory.hpp:77] Creating layer loss_Wearing_Necktie
I1013 18:11:08.691463 24074 net.cpp:91] Creating Layer loss_Wearing_Necktie
I1013 18:11:08.691468 24074 net.cpp:425] loss_Wearing_Necktie <- fc3_Wearing_Necktie
I1013 18:11:08.691474 24074 net.cpp:425] loss_Wearing_Necktie <- label_Wearing_Necktie
I1013 18:11:08.691480 24074 net.cpp:399] loss_Wearing_Necktie -> loss_Wearing_Necktie
I1013 18:11:08.691527 24074 net.cpp:141] Setting up loss_Wearing_Necktie
I1013 18:11:08.691535 24074 net.cpp:148] Top shape: (1)
I1013 18:11:08.691540 24074 net.cpp:151]     with loss weight 1
I1013 18:11:08.691545 24074 net.cpp:156] Memory required for data: 2469377892
I1013 18:11:08.691548 24074 layer_factory.hpp:77] Creating layer fc3_Bald
I1013 18:11:08.691558 24074 net.cpp:91] Creating Layer fc3_Bald
I1013 18:11:08.691563 24074 net.cpp:425] fc3_Bald <- fc2_aroundhead_drop2_aroundhead_0_split_7
I1013 18:11:08.691570 24074 net.cpp:399] fc3_Bald -> fc3_Bald
I1013 18:11:08.691690 24074 net.cpp:141] Setting up fc3_Bald
I1013 18:11:08.691700 24074 net.cpp:148] Top shape: 64 2 (128)
I1013 18:11:08.691704 24074 net.cpp:156] Memory required for data: 2469378404
I1013 18:11:08.691710 24074 layer_factory.hpp:77] Creating layer loss_Bald
I1013 18:11:08.691720 24074 net.cpp:91] Creating Layer loss_Bald
I1013 18:11:08.691723 24074 net.cpp:425] loss_Bald <- fc3_Bald
I1013 18:11:08.691730 24074 net.cpp:425] loss_Bald <- label_Bald
I1013 18:11:08.691735 24074 net.cpp:399] loss_Bald -> loss_Bald
I1013 18:11:08.691781 24074 net.cpp:141] Setting up loss_Bald
I1013 18:11:08.691789 24074 net.cpp:148] Top shape: (1)
I1013 18:11:08.691793 24074 net.cpp:151]     with loss weight 1
I1013 18:11:08.691798 24074 net.cpp:156] Memory required for data: 2469378408
I1013 18:11:08.691802 24074 layer_factory.hpp:77] Creating layer fc3_Receding_Hairline
I1013 18:11:08.691815 24074 net.cpp:91] Creating Layer fc3_Receding_Hairline
I1013 18:11:08.691820 24074 net.cpp:425] fc3_Receding_Hairline <- fc2_aroundhead_drop2_aroundhead_0_split_8
I1013 18:11:08.691828 24074 net.cpp:399] fc3_Receding_Hairline -> fc3_Receding_Hairline
I1013 18:11:08.691953 24074 net.cpp:141] Setting up fc3_Receding_Hairline
I1013 18:11:08.691963 24074 net.cpp:148] Top shape: 64 2 (128)
I1013 18:11:08.691967 24074 net.cpp:156] Memory required for data: 2469378920
I1013 18:11:08.691973 24074 layer_factory.hpp:77] Creating layer loss_Receding_Hairline
I1013 18:11:08.691982 24074 net.cpp:91] Creating Layer loss_Receding_Hairline
I1013 18:11:08.691987 24074 net.cpp:425] loss_Receding_Hairline <- fc3_Receding_Hairline
I1013 18:11:08.691992 24074 net.cpp:425] loss_Receding_Hairline <- label_Receding_Hairline
I1013 18:11:08.691998 24074 net.cpp:399] loss_Receding_Hairline -> loss_Receding_Hairline
I1013 18:11:08.692044 24074 net.cpp:141] Setting up loss_Receding_Hairline
I1013 18:11:08.692054 24074 net.cpp:148] Top shape: (1)
I1013 18:11:08.692057 24074 net.cpp:151]     with loss weight 1
I1013 18:11:08.692062 24074 net.cpp:156] Memory required for data: 2469378924
I1013 18:11:08.692066 24074 layer_factory.hpp:77] Creating layer fc3_Bangs
I1013 18:11:08.692073 24074 net.cpp:91] Creating Layer fc3_Bangs
I1013 18:11:08.692077 24074 net.cpp:425] fc3_Bangs <- fc2_aroundhead_drop2_aroundhead_0_split_9
I1013 18:11:08.692086 24074 net.cpp:399] fc3_Bangs -> fc3_Bangs
I1013 18:11:08.692205 24074 net.cpp:141] Setting up fc3_Bangs
I1013 18:11:08.692215 24074 net.cpp:148] Top shape: 64 2 (128)
I1013 18:11:08.692219 24074 net.cpp:156] Memory required for data: 2469379436
I1013 18:11:08.692225 24074 layer_factory.hpp:77] Creating layer loss_Bangs
I1013 18:11:08.692234 24074 net.cpp:91] Creating Layer loss_Bangs
I1013 18:11:08.692239 24074 net.cpp:425] loss_Bangs <- fc3_Bangs
I1013 18:11:08.692245 24074 net.cpp:425] loss_Bangs <- label_Bangs
I1013 18:11:08.692260 24074 net.cpp:399] loss_Bangs -> loss_Bangs
I1013 18:11:08.692307 24074 net.cpp:141] Setting up loss_Bangs
I1013 18:11:08.692317 24074 net.cpp:148] Top shape: (1)
I1013 18:11:08.692320 24074 net.cpp:151]     with loss weight 1
I1013 18:11:08.692325 24074 net.cpp:156] Memory required for data: 2469379440
I1013 18:11:08.692329 24074 layer_factory.hpp:77] Creating layer fc3_Wearing_Hat
I1013 18:11:08.692335 24074 net.cpp:91] Creating Layer fc3_Wearing_Hat
I1013 18:11:08.692340 24074 net.cpp:425] fc3_Wearing_Hat <- fc2_aroundhead_drop2_aroundhead_0_split_10
I1013 18:11:08.692349 24074 net.cpp:399] fc3_Wearing_Hat -> fc3_Wearing_Hat
I1013 18:11:08.692471 24074 net.cpp:141] Setting up fc3_Wearing_Hat
I1013 18:11:08.692481 24074 net.cpp:148] Top shape: 64 2 (128)
I1013 18:11:08.692483 24074 net.cpp:156] Memory required for data: 2469379952
I1013 18:11:08.692490 24074 layer_factory.hpp:77] Creating layer loss_Wearing_Hat
I1013 18:11:08.692498 24074 net.cpp:91] Creating Layer loss_Wearing_Hat
I1013 18:11:08.692503 24074 net.cpp:425] loss_Wearing_Hat <- fc3_Wearing_Hat
I1013 18:11:08.692509 24074 net.cpp:425] loss_Wearing_Hat <- label_Wearing_Hat
I1013 18:11:08.692514 24074 net.cpp:399] loss_Wearing_Hat -> loss_Wearing_Hat
I1013 18:11:08.692559 24074 net.cpp:141] Setting up loss_Wearing_Hat
I1013 18:11:08.692567 24074 net.cpp:148] Top shape: (1)
I1013 18:11:08.692571 24074 net.cpp:151]     with loss weight 1
I1013 18:11:08.692576 24074 net.cpp:156] Memory required for data: 2469379956
I1013 18:11:08.692580 24074 layer_factory.hpp:77] Creating layer fc3_Straight_Hair
I1013 18:11:08.692586 24074 net.cpp:91] Creating Layer fc3_Straight_Hair
I1013 18:11:08.692591 24074 net.cpp:425] fc3_Straight_Hair <- fc2_aroundhead_drop2_aroundhead_0_split_11
I1013 18:11:08.692600 24074 net.cpp:399] fc3_Straight_Hair -> fc3_Straight_Hair
I1013 18:11:08.692720 24074 net.cpp:141] Setting up fc3_Straight_Hair
I1013 18:11:08.692730 24074 net.cpp:148] Top shape: 64 2 (128)
I1013 18:11:08.692734 24074 net.cpp:156] Memory required for data: 2469380468
I1013 18:11:08.692740 24074 layer_factory.hpp:77] Creating layer loss_Straight_Hair
I1013 18:11:08.692749 24074 net.cpp:91] Creating Layer loss_Straight_Hair
I1013 18:11:08.692754 24074 net.cpp:425] loss_Straight_Hair <- fc3_Straight_Hair
I1013 18:11:08.692759 24074 net.cpp:425] loss_Straight_Hair <- label_Straight_Hair
I1013 18:11:08.692765 24074 net.cpp:399] loss_Straight_Hair -> loss_Straight_Hair
I1013 18:11:08.692811 24074 net.cpp:141] Setting up loss_Straight_Hair
I1013 18:11:08.692821 24074 net.cpp:148] Top shape: (1)
I1013 18:11:08.692824 24074 net.cpp:151]     with loss weight 1
I1013 18:11:08.692829 24074 net.cpp:156] Memory required for data: 2469380472
I1013 18:11:08.692833 24074 layer_factory.hpp:77] Creating layer fc3_Wavy_Hair
I1013 18:11:08.692839 24074 net.cpp:91] Creating Layer fc3_Wavy_Hair
I1013 18:11:08.692844 24074 net.cpp:425] fc3_Wavy_Hair <- fc2_aroundhead_drop2_aroundhead_0_split_12
I1013 18:11:08.692853 24074 net.cpp:399] fc3_Wavy_Hair -> fc3_Wavy_Hair
I1013 18:11:08.692977 24074 net.cpp:141] Setting up fc3_Wavy_Hair
I1013 18:11:08.692987 24074 net.cpp:148] Top shape: 64 2 (128)
I1013 18:11:08.692991 24074 net.cpp:156] Memory required for data: 2469380984
I1013 18:11:08.692997 24074 layer_factory.hpp:77] Creating layer loss_Wavy_Hair
I1013 18:11:08.693007 24074 net.cpp:91] Creating Layer loss_Wavy_Hair
I1013 18:11:08.693012 24074 net.cpp:425] loss_Wavy_Hair <- fc3_Wavy_Hair
I1013 18:11:08.693017 24074 net.cpp:425] loss_Wavy_Hair <- label_Wavy_Hair
I1013 18:11:08.693023 24074 net.cpp:399] loss_Wavy_Hair -> loss_Wavy_Hair
I1013 18:11:08.693071 24074 net.cpp:141] Setting up loss_Wavy_Hair
I1013 18:11:08.693080 24074 net.cpp:148] Top shape: (1)
I1013 18:11:08.693084 24074 net.cpp:151]     with loss weight 1
I1013 18:11:08.693089 24074 net.cpp:156] Memory required for data: 2469380988
I1013 18:11:08.693092 24074 layer_factory.hpp:77] Creating layer fc3_5_o_Clock_Shadow
I1013 18:11:08.693099 24074 net.cpp:91] Creating Layer fc3_5_o_Clock_Shadow
I1013 18:11:08.693104 24074 net.cpp:425] fc3_5_o_Clock_Shadow <- fc2_facialhair_drop2_facialhair_0_split_0
I1013 18:11:08.693123 24074 net.cpp:399] fc3_5_o_Clock_Shadow -> fc3_5_o_Clock_Shadow
I1013 18:11:08.693248 24074 net.cpp:141] Setting up fc3_5_o_Clock_Shadow
I1013 18:11:08.693256 24074 net.cpp:148] Top shape: 64 2 (128)
I1013 18:11:08.693260 24074 net.cpp:156] Memory required for data: 2469381500
I1013 18:11:08.693266 24074 layer_factory.hpp:77] Creating layer loss_5_o_Clock_Shadow
I1013 18:11:08.693277 24074 net.cpp:91] Creating Layer loss_5_o_Clock_Shadow
I1013 18:11:08.693282 24074 net.cpp:425] loss_5_o_Clock_Shadow <- fc3_5_o_Clock_Shadow
I1013 18:11:08.693287 24074 net.cpp:425] loss_5_o_Clock_Shadow <- label_5_o_Clock_Shadow
I1013 18:11:08.693294 24074 net.cpp:399] loss_5_o_Clock_Shadow -> loss_5_o_Clock_Shadow
I1013 18:11:08.693339 24074 net.cpp:141] Setting up loss_5_o_Clock_Shadow
I1013 18:11:08.693348 24074 net.cpp:148] Top shape: (1)
I1013 18:11:08.693352 24074 net.cpp:151]     with loss weight 1
I1013 18:11:08.693357 24074 net.cpp:156] Memory required for data: 2469381504
I1013 18:11:08.693361 24074 layer_factory.hpp:77] Creating layer fc3_Mustache
I1013 18:11:08.693368 24074 net.cpp:91] Creating Layer fc3_Mustache
I1013 18:11:08.693372 24074 net.cpp:425] fc3_Mustache <- fc2_facialhair_drop2_facialhair_0_split_1
I1013 18:11:08.693382 24074 net.cpp:399] fc3_Mustache -> fc3_Mustache
I1013 18:11:08.693500 24074 net.cpp:141] Setting up fc3_Mustache
I1013 18:11:08.693509 24074 net.cpp:148] Top shape: 64 2 (128)
I1013 18:11:08.693513 24074 net.cpp:156] Memory required for data: 2469382016
I1013 18:11:08.693519 24074 layer_factory.hpp:77] Creating layer loss_Mustache
I1013 18:11:08.693529 24074 net.cpp:91] Creating Layer loss_Mustache
I1013 18:11:08.693534 24074 net.cpp:425] loss_Mustache <- fc3_Mustache
I1013 18:11:08.693539 24074 net.cpp:425] loss_Mustache <- label_Mustache
I1013 18:11:08.693545 24074 net.cpp:399] loss_Mustache -> loss_Mustache
I1013 18:11:08.693590 24074 net.cpp:141] Setting up loss_Mustache
I1013 18:11:08.693599 24074 net.cpp:148] Top shape: (1)
I1013 18:11:08.693603 24074 net.cpp:151]     with loss weight 1
I1013 18:11:08.693608 24074 net.cpp:156] Memory required for data: 2469382020
I1013 18:11:08.693611 24074 layer_factory.hpp:77] Creating layer fc3_No_Beard
I1013 18:11:08.693619 24074 net.cpp:91] Creating Layer fc3_No_Beard
I1013 18:11:08.693624 24074 net.cpp:425] fc3_No_Beard <- fc2_facialhair_drop2_facialhair_0_split_2
I1013 18:11:08.693631 24074 net.cpp:399] fc3_No_Beard -> fc3_No_Beard
I1013 18:11:08.693750 24074 net.cpp:141] Setting up fc3_No_Beard
I1013 18:11:08.693759 24074 net.cpp:148] Top shape: 64 2 (128)
I1013 18:11:08.693763 24074 net.cpp:156] Memory required for data: 2469382532
I1013 18:11:08.693769 24074 layer_factory.hpp:77] Creating layer loss_No_Beard
I1013 18:11:08.693779 24074 net.cpp:91] Creating Layer loss_No_Beard
I1013 18:11:08.693784 24074 net.cpp:425] loss_No_Beard <- fc3_No_Beard
I1013 18:11:08.693789 24074 net.cpp:425] loss_No_Beard <- label_No_Beard
I1013 18:11:08.693795 24074 net.cpp:399] loss_No_Beard -> loss_No_Beard
I1013 18:11:08.693840 24074 net.cpp:141] Setting up loss_No_Beard
I1013 18:11:08.693850 24074 net.cpp:148] Top shape: (1)
I1013 18:11:08.693853 24074 net.cpp:151]     with loss weight 1
I1013 18:11:08.693858 24074 net.cpp:156] Memory required for data: 2469382536
I1013 18:11:08.693862 24074 layer_factory.hpp:77] Creating layer fc3_Sideburns
I1013 18:11:08.693868 24074 net.cpp:91] Creating Layer fc3_Sideburns
I1013 18:11:08.693872 24074 net.cpp:425] fc3_Sideburns <- fc2_facialhair_drop2_facialhair_0_split_3
I1013 18:11:08.693882 24074 net.cpp:399] fc3_Sideburns -> fc3_Sideburns
I1013 18:11:08.694008 24074 net.cpp:141] Setting up fc3_Sideburns
I1013 18:11:08.694017 24074 net.cpp:148] Top shape: 64 2 (128)
I1013 18:11:08.694021 24074 net.cpp:156] Memory required for data: 2469383048
I1013 18:11:08.694027 24074 layer_factory.hpp:77] Creating layer loss_Sideburns
I1013 18:11:08.694038 24074 net.cpp:91] Creating Layer loss_Sideburns
I1013 18:11:08.694043 24074 net.cpp:425] loss_Sideburns <- fc3_Sideburns
I1013 18:11:08.694058 24074 net.cpp:425] loss_Sideburns <- label_Sideburns
I1013 18:11:08.694066 24074 net.cpp:399] loss_Sideburns -> loss_Sideburns
I1013 18:11:08.694695 24074 net.cpp:141] Setting up loss_Sideburns
I1013 18:11:08.694711 24074 net.cpp:148] Top shape: (1)
I1013 18:11:08.694715 24074 net.cpp:151]     with loss weight 1
I1013 18:11:08.694722 24074 net.cpp:156] Memory required for data: 2469383052
I1013 18:11:08.694727 24074 layer_factory.hpp:77] Creating layer fc3_Goatee
I1013 18:11:08.694735 24074 net.cpp:91] Creating Layer fc3_Goatee
I1013 18:11:08.694739 24074 net.cpp:425] fc3_Goatee <- fc2_facialhair_drop2_facialhair_0_split_4
I1013 18:11:08.694751 24074 net.cpp:399] fc3_Goatee -> fc3_Goatee
I1013 18:11:08.694877 24074 net.cpp:141] Setting up fc3_Goatee
I1013 18:11:08.694888 24074 net.cpp:148] Top shape: 64 2 (128)
I1013 18:11:08.694892 24074 net.cpp:156] Memory required for data: 2469383564
I1013 18:11:08.694900 24074 layer_factory.hpp:77] Creating layer loss_Goatee
I1013 18:11:08.694910 24074 net.cpp:91] Creating Layer loss_Goatee
I1013 18:11:08.694914 24074 net.cpp:425] loss_Goatee <- fc3_Goatee
I1013 18:11:08.694919 24074 net.cpp:425] loss_Goatee <- label_Goatee
I1013 18:11:08.694926 24074 net.cpp:399] loss_Goatee -> loss_Goatee
I1013 18:11:08.694963 24074 net.cpp:141] Setting up loss_Goatee
I1013 18:11:08.694972 24074 net.cpp:148] Top shape: (1)
I1013 18:11:08.694977 24074 net.cpp:151]     with loss weight 1
I1013 18:11:08.694983 24074 net.cpp:156] Memory required for data: 2469383568
I1013 18:11:08.694985 24074 layer_factory.hpp:77] Creating layer fc3_High_Cheekbones
I1013 18:11:08.694993 24074 net.cpp:91] Creating Layer fc3_High_Cheekbones
I1013 18:11:08.694998 24074 net.cpp:425] fc3_High_Cheekbones <- fc2_cheeks_drop2_cheeks_0_split_0
I1013 18:11:08.695006 24074 net.cpp:399] fc3_High_Cheekbones -> fc3_High_Cheekbones
I1013 18:11:08.695113 24074 net.cpp:141] Setting up fc3_High_Cheekbones
I1013 18:11:08.695123 24074 net.cpp:148] Top shape: 64 2 (128)
I1013 18:11:08.695127 24074 net.cpp:156] Memory required for data: 2469384080
I1013 18:11:08.695133 24074 layer_factory.hpp:77] Creating layer loss_High_Cheekbones
I1013 18:11:08.695143 24074 net.cpp:91] Creating Layer loss_High_Cheekbones
I1013 18:11:08.695148 24074 net.cpp:425] loss_High_Cheekbones <- fc3_High_Cheekbones
I1013 18:11:08.695154 24074 net.cpp:425] loss_High_Cheekbones <- label_High_Cheekbones
I1013 18:11:08.695160 24074 net.cpp:399] loss_High_Cheekbones -> loss_High_Cheekbones
I1013 18:11:08.695197 24074 net.cpp:141] Setting up loss_High_Cheekbones
I1013 18:11:08.695205 24074 net.cpp:148] Top shape: (1)
I1013 18:11:08.695209 24074 net.cpp:151]     with loss weight 1
I1013 18:11:08.695214 24074 net.cpp:156] Memory required for data: 2469384084
I1013 18:11:08.695219 24074 layer_factory.hpp:77] Creating layer fc3_Rosy_Cheeks
I1013 18:11:08.695225 24074 net.cpp:91] Creating Layer fc3_Rosy_Cheeks
I1013 18:11:08.695230 24074 net.cpp:425] fc3_Rosy_Cheeks <- fc2_cheeks_drop2_cheeks_0_split_1
I1013 18:11:08.695240 24074 net.cpp:399] fc3_Rosy_Cheeks -> fc3_Rosy_Cheeks
I1013 18:11:08.695345 24074 net.cpp:141] Setting up fc3_Rosy_Cheeks
I1013 18:11:08.695355 24074 net.cpp:148] Top shape: 64 2 (128)
I1013 18:11:08.695359 24074 net.cpp:156] Memory required for data: 2469384596
I1013 18:11:08.695365 24074 layer_factory.hpp:77] Creating layer loss_Rosy_Cheeks
I1013 18:11:08.695375 24074 net.cpp:91] Creating Layer loss_Rosy_Cheeks
I1013 18:11:08.695380 24074 net.cpp:425] loss_Rosy_Cheeks <- fc3_Rosy_Cheeks
I1013 18:11:08.695385 24074 net.cpp:425] loss_Rosy_Cheeks <- label_Rosy_Cheeks
I1013 18:11:08.695392 24074 net.cpp:399] loss_Rosy_Cheeks -> loss_Rosy_Cheeks
I1013 18:11:08.695427 24074 net.cpp:141] Setting up loss_Rosy_Cheeks
I1013 18:11:08.695436 24074 net.cpp:148] Top shape: (1)
I1013 18:11:08.695441 24074 net.cpp:151]     with loss weight 1
I1013 18:11:08.695446 24074 net.cpp:156] Memory required for data: 2469384600
I1013 18:11:08.695449 24074 layer_factory.hpp:77] Creating layer fc3_Chubby
I1013 18:11:08.695456 24074 net.cpp:91] Creating Layer fc3_Chubby
I1013 18:11:08.695471 24074 net.cpp:425] fc3_Chubby <- fc2_fat_drop2_fat_0_split_0
I1013 18:11:08.695482 24074 net.cpp:399] fc3_Chubby -> fc3_Chubby
I1013 18:11:08.695585 24074 net.cpp:141] Setting up fc3_Chubby
I1013 18:11:08.695595 24074 net.cpp:148] Top shape: 64 2 (128)
I1013 18:11:08.695600 24074 net.cpp:156] Memory required for data: 2469385112
I1013 18:11:08.695605 24074 layer_factory.hpp:77] Creating layer loss_Chubby
I1013 18:11:08.695616 24074 net.cpp:91] Creating Layer loss_Chubby
I1013 18:11:08.695621 24074 net.cpp:425] loss_Chubby <- fc3_Chubby
I1013 18:11:08.695626 24074 net.cpp:425] loss_Chubby <- label_Chubby
I1013 18:11:08.695632 24074 net.cpp:399] loss_Chubby -> loss_Chubby
I1013 18:11:08.695669 24074 net.cpp:141] Setting up loss_Chubby
I1013 18:11:08.695678 24074 net.cpp:148] Top shape: (1)
I1013 18:11:08.695683 24074 net.cpp:151]     with loss weight 1
I1013 18:11:08.695688 24074 net.cpp:156] Memory required for data: 2469385116
I1013 18:11:08.695691 24074 layer_factory.hpp:77] Creating layer fc3_Double_Chin
I1013 18:11:08.695698 24074 net.cpp:91] Creating Layer fc3_Double_Chin
I1013 18:11:08.695703 24074 net.cpp:425] fc3_Double_Chin <- fc2_fat_drop2_fat_0_split_1
I1013 18:11:08.695713 24074 net.cpp:399] fc3_Double_Chin -> fc3_Double_Chin
I1013 18:11:08.695822 24074 net.cpp:141] Setting up fc3_Double_Chin
I1013 18:11:08.695833 24074 net.cpp:148] Top shape: 64 2 (128)
I1013 18:11:08.695837 24074 net.cpp:156] Memory required for data: 2469385628
I1013 18:11:08.695843 24074 layer_factory.hpp:77] Creating layer loss_Double_Chin
I1013 18:11:08.695854 24074 net.cpp:91] Creating Layer loss_Double_Chin
I1013 18:11:08.695858 24074 net.cpp:425] loss_Double_Chin <- fc3_Double_Chin
I1013 18:11:08.695864 24074 net.cpp:425] loss_Double_Chin <- label_Double_Chin
I1013 18:11:08.695870 24074 net.cpp:399] loss_Double_Chin -> loss_Double_Chin
…
I1013 18:11:08.695978 24074 net.cpp:425] attr_mid_feat <- pool3_mouth_pool3_mouth_0_split_1
I1013 18:11:08.695983 24074 net.cpp:425] attr_mid_feat <- pool3_nose_pool3_nose_0_split_1
I1013 18:11:08.695988 24074 net.cpp:425] attr_mid_feat <- pool3_eyes_pool3_eyes_0_split_1
I1013 18:11:08.695993 24074 net.cpp:425] attr_mid_feat <- pool3_face_pool3_face_0_split_1
I1013 18:11:08.695998 24074 net.cpp:425] attr_mid_feat <- pool3_rest_pool3_rest_0_split_4
I1013 18:11:08.696004 24074 net.cpp:399] attr_mid_feat -> attr_mid_feat
I1013 18:11:08.696029 24074 net.cpp:141] Setting up attr_mid_feat
I1013 18:11:08.696035 24074 net.cpp:148] Top shape: 64 1800 4 4 (1843200)
I1013 18:11:08.696039 24074 net.cpp:156] Memory required for data: 2476758432
I1013 18:11:08.696043 24074 layer_factory.hpp:77] Creating layer fc8_mid_attr
I1013 18:11:08.696050 24074 net.cpp:91] Creating Layer fc8_mid_attr
I1013 18:11:08.696059 24074 net.cpp:425] fc8_mid_attr <- attr_mid_feat
I1013 18:11:08.696075 24074 net.cpp:399] fc8_mid_attr -> fc8_mid_attr
I1013 18:11:09.426409 24074 net.cpp:141] Setting up fc8_mid_attr
I1013 18:11:09.426446 24074 net.cpp:148] Top shape: 64 2837 (181568)
I1013 18:11:09.426452 24074 net.cpp:156] Memory required for data: 2477484704
I1013 18:11:09.426463 24074 layer_factory.hpp:77] Creating layer fc8_mid_attr_fc8_mid_attr_0_split
I1013 18:11:09.426498 24074 net.cpp:91] Creating Layer fc8_mid_attr_fc8_mid_attr_0_split
I1013 18:11:09.426507 24074 net.cpp:425] fc8_mid_attr_fc8_mid_attr_0_split <- fc8_mid_attr
I1013 18:11:09.426517 24074 net.cpp:399] fc8_mid_attr_fc8_mid_attr_0_split -> fc8_mid_attr_fc8_mid_attr_0_split_0
I1013 18:11:09.426532 24074 net.cpp:399] fc8_mid_attr_fc8_mid_attr_0_split -> fc8_mid_attr_fc8_mid_attr_0_split_1
I1013 18:11:09.426540 24074 net.cpp:399] fc8_mid_attr_fc8_mid_attr_0_split -> fc8_mid_attr_fc8_mid_attr_0_split_2
I1013 18:11:09.426594 24074 net.cpp:141] Setting up fc8_mid_attr_fc8_mid_attr_0_split
I1013 18:11:09.426602 24074 net.cpp:148] Top shape: 64 2837 (181568)
I1013 18:11:09.426607 24074 net.cpp:148] Top shape: 64 2837 (181568)
I1013 18:11:09.426611 24074 net.cpp:148] Top shape: 64 2837 (181568)
I1013 18:11:09.426615 24074 net.cpp:156] Memory required for data: 2479663520
I1013 18:11:09.426620 24074 layer_factory.hpp:77] Creating layer loss_mid_attr
I1013 18:11:09.426632 24074 net.cpp:91] Creating Layer loss_mid_attr
I1013 18:11:09.426636 24074 net.cpp:425] loss_mid_attr <- fc8_mid_attr_fc8_mid_attr_0_split_0
I1013 18:11:09.426642 24074 net.cpp:425] loss_mid_attr <- label_data_1_split_0
…
