…
    slice_point: 24
    slice_point: 26
    slice_point: 28
    slice_point: 30
    slice_point: 32
    slice_point: 34
    slice_point: 36
    slice_point: 38
    slice_point: 40
    slice_point: 42
    slice_point: 44
    slice_point: 46
    slice_point: 48
    slice_point: 50
    slice_point: 52
    slice_point: 54
    slice_point: 56
    slice_point: 58
    slice_point: 60
    slice_point: 62
    slice_point: 64
    slice_point: 66
    slice_point: 68
    slice_point: 70
    slice_point: 72
    slice_point: 74
    slice_point: 76
    slice_point: 78
  }
}
layer {
  name: "conv1_bn"
  type: "BatchNorm"
  bottom: "conv1"
  top: "conv1"
  batch_norm_param {
    use_global_stats: false
  }
}
layer {
  name: "conv1_scale"
  type: "Scale"
  bottom: "conv1"
  top: "conv1"
  scale_param {
    bias_term: true
  }
}
layer {
  name: "prelu1"
  type: "PReLU"
  bottom: "conv1"
  top: "conv1"
}
layer {
  name: "pool1"
  type: "Pooling"
  bottom: "conv1"
  top: "pool1"
  pooling_param {
    pool: MAX
    kernel_size: 2
    stride: 2
  }
}
layer {
  name: "conv2a"
  type: "Convolution"
  bottom: "pool1"
  top: "conv2a"
  param {
    name: "conv2a_w"
    lr_mult: 1
    decay_mult: 1
  }
  param {
    name: "conv2a_b"
    lr_mult: 2
    decay_mult: 0
  }
  convolution_param {
    num_output: 64
    kernel_size: 1
    weight_filler {
      type: "xavier"
    }
    bias_filler {
      type: "constant"
      value: 0.2
    }
  }
}
layer {
  name: "conv2a_bn"
  type: "BatchNorm"
  bottom: "conv2a"
  top: "conv2a"
  batch_norm_param {
    use_global_stats: false
  }
}
layer {
  name: "conv2a_scale"
  type: "Scale"
  bottom: "conv2a"
  top: "conv2a"
  scale_param {
    bias_term: true
  }
}
layer {
  name: "prelu2a"
  type: "PReLU"
  bottom: "conv2a"
  top: "conv2a"
}
layer {
  name: "conv2"
  type: "Convolution"
  bottom: "conv2a"
  top: "conv2"
  param {
    name: "conv2_w"
    lr_mult: 1
    decay_mult: 1
  }
  param {
    name: "conv2_b"
    lr_mult: 2
    decay_mult: 0
  }
  convolution_param {
    num_output: 192
    pad: 1
    kernel_size: 3
    stride: 1
    weight_filler {
      type: "xavier"
    }
    bias_filler {
      type: "constant"
      value: 0.2
    }
  }
}
layer {
  name: "conv2_bn"
  type: "BatchNorm"
  bottom: "conv2"
  top: "conv2"
  batch_norm_param {
    use_global_stats: false
  }
}
layer {
  name: "conv2_scale"
  type: "Scale"
  bottom: "conv2"
  top: "conv2"
  scale_param {
    bias_term: true
  }
}
layer {
  name: "prelu2"
  type: "PReLU"
  bottom: "conv2"
  top: "conv2"
}
layer {
  name: "pool2"
  type: "Pooling"
  bottom: "conv2"
  top: "pool2"
  pooling_param {
    pool: MAX
    kernel_size: 2
    stride: 2
  }
}
layer {
  name: "conv3a"
  type: "Convolution"
  bottom: "pool2"
  top: "conv3a"
  param {
    name: "conv3a_w"
    lr_mult: 1
    decay_mult: 1
  }
  param {
    name: "conv3a_b"
    lr_mult: 2
    decay_mult: 0
  }
  convolution_param {
    num_output: 192
    kernel_size: 1
    weight_filler {
      type: "xavier"
    }
    bias_filler {
      type: "constant"
      value: 0.2
    }
  }
}
layer {
  name: "conv3a_bn"
  type: "BatchNorm"
  bottom: "conv3a"
  top: "conv3a"
  batch_norm_param {
    use_global_stats: false
  }
}
layer {
  name: "conv3a_scale"
  type: "Scale"
  bottom: "conv3a"
  top: "conv3a"
  scale_param {
    bias_term: true
  }
}
layer {
  name: "prelu3a"
  type: "PReLU"
  bottom: "conv3a"
  top: "conv3a"
}
layer {
  name: "conv3"
  type: "Convolution"
  bottom: "conv3a"
  top: "conv3"
  param {
    name: "conv3_w"
    lr_mult: 1
    decay_mult: 1
  }
  param {
    name: "conv3_b"
    lr_mult: 2
    decay_mult: 0
  }
  convolution_param {
    num_output: 384
    pad: 1
    kernel_size: 3
    stride: 1
    weight_filler {
      type: "xavier"
    }
    bias_filler {
      type: "constant"
      value: 0.2
    }
  }
}
layer {
  name: "conv3_bn"
  type: "BatchNorm"
  bottom: "conv3"
  top: "conv3"
  batch_norm_param {
    use_global_stats: false
  }
}
layer {
  name: "conv3_scale"
  type: "Scale"
  bottom: "conv3"
  top: "conv3"
  scale_param {
    bias_term: true
  }
}
layer {
  name: "prelu3"
  type: "PReLU"
  bottom: "conv3"
  top: "conv3"
}
layer {
  name: "pool3"
  type: "Pooling"
  bottom: "conv3"
  top: "pool3"
  pooling_param {
    pool: MAX
    kernel_size: 2
    stride: 2
  }
}
layer {
  name: "conv3_gender"
  type: "Convolution"
  bottom: "pool3"
  top: "conv3_gender"
  param {
    lr_mult: 1
    decay_mult: 1
  }
  param {
    lr_mult: 2
    decay_mult: 0
  }
  convolution_param {
    num_output: 300
    pad: 1
    kernel_size: 3
    stride: 2
    weight_filler {
      type: "xavier"
    }
    bias_filler {
      type: "constant"
      value: 0.2
    }
  }
}
layer {
  name: "conv3_gender_bn"
  type: "BatchNorm"
  bottom: "conv3_gender"
  top: "conv3_gender"
  batch_norm_param {
    use_global_stats: false
  }
}
layer {
  name: "conv3_gender_scale"
  type: "Scale"
  bottom: "conv3_gender"
  top: "conv3_gender"
  scale_param {
    bias_term: true
  }
}
layer {
  name: "prelu3_gender"
  type: "PReLU"
  bottom: "conv3_gender"
  top: "conv3_gender"
}
layer {
  name: "pool3_gender"
  type: "Pooling"
  bottom: "conv3_gender"
  top: "pool3_gender"
  pooling_param {
    pool: MAX
    kernel_size: 5
    stride: 2
    pad: 2
  }
}
layer {
  name: "fc1_gender"
  type: "InnerProduct"
  bottom: "pool3_gender"
  top: "fc1_gender"
  param {
    lr_mult: 1
    decay_mult: 1
  }
  param {
    lr_mult: 2
    decay_mult: 0
  }
  inner_product_param {
    num_output: 512
    weight_filler {
      type: "xavier"
    }
    bias_filler {
      type: "constant"
      value: 0.2
    }
  }
}
layer {
  name: "relu1_gender"
  type: "ReLU"
  bottom: "fc1_gender"
  top: "fc1_gender"
}
layer {
  name: "drop1_gender"
  type: "Dropout"
  bottom: "fc1_gender"
  top: "fc1_gender"
  dropout_param {
    dropout_ratio: 0.5
  }
}
layer {
  name: "fc2_gender"
  type: "InnerProduct"
  bottom: "fc1_gender"
  top: "fc2_gender"
  param {
    lr_mult: 1
    decay_mult: 1
  }
  param {
    lr_mult: 2
    decay_mult: 0
  }
  inner_product_param {
    num_output: 512
    weight_filler {
      type: "xavier"
    }
    bias_filler {
      type: "constant"
      value: 0.2
    }
  }
}
layer {
  name: "relu2_gender"
  type: "ReLU"
  bottom: "fc2_gender"
  top: "fc2_gender"
}
layer {
  name: "drop2_gender"
  type: "Dropout"
  bottom: "fc2_gender"
  top: "fc2_gender"
  dropout_param {
    dropout_ratio: 0.5
  }
}
layer {
  name: "conv3_nose"
  type: "Convolution"
  bottom: "pool3"
  top: "conv3_nose"
  param {
    lr_mult: 1
    decay_mult: 1
  }
  param {
    lr_mult: 2
    decay_mult: 0
  }
  convolution_param {
    num_output: 300
    pad: 1
    kernel_size: 3
    stride: 2
    weight_filler {
      type: "xavier"
    }
    bias_filler {
      type: "constant"
      value: 0.2
    }
  }
}
layer {
  name: "conv3_nose_bn"
  type: "BatchNorm"
  bottom: "conv3_nose"
  top: "conv3_nose"
  batch_norm_param {
    use_global_stats: false
  }
}
layer {
  name: "conv3_nose_scale"
  type: "Scale"
  bottom: "conv3_nose"
  top: "conv3_nose"
  scale_param {
    bias_term: true
  }
}
layer {
  name: "prelu3_nose"
  type: "PReLU"
  bottom: "conv3_nose"
  top: "conv3_nose"
}
layer {
  name: "pool3_nose"
  type: "Pooling"
  bottom: "conv3_nose"
  top: "pool3_nose"
  pooling_param {
    pool: MAX
    kernel_size: 5
    stride: 2
    pad: 2
  }
}
layer {
  name: "fc1_nose"
  type: "InnerProduct"
  bottom: "pool3_nose"
  top: "fc1_nose"
  param {
    lr_mult: 1
    decay_mult: 1
  }
  param {
    lr_mult: 2
    decay_mult: 0
  }
  inner_product_param {
    num_output: 512
    weight_filler {
      type: "xavier"
    }
    bias_filler {
      type: "constant"
      value: 0.2
    }
  }
}
layer {
  name: "relu1_nose"
  type: "ReLU"
  bottom: "fc1_nose"
  top: "fc1_nose"
}
layer {
  name: "drop1_nose"
  type: "Dropout"
  bottom: "fc1_nose"
  top: "fc1_nose"
  dropout_param {
    dropout_ratio: 0.5
  }
}
layer {
  name: "fc2_nose"
  type: "InnerProduct"
  bottom: "fc1_nose"
  top: "fc2_nose"
  param {
    lr_mult: 1
    decay_mult: 1
  }
  param {
    lr_mult: 2
    decay_mult: 0
  }
  inner_product_param {
    num_output: 512
    weight_filler {
      type: "xavier"
    }
    bias_filler {
      type: "constant"
      value: 0.2
    }
  }
}
layer {
  name: "relu2_nose"
  type: "ReLU"
  bottom: "fc2_nose"
  top: "fc2_nose"
}
layer {
  name: "drop2_nose"
  type: "Dropout"
  bottom: "fc2_nose"
  top: "fc2_nose"
  dropout_param {
    dropout_ratio: 0.5
  }
}
layer {
  name: "conv3_mouth"
  type: "Convolution"
  bottom: "pool3"
  top: "conv3_mouth"
  param {
    lr_mult: 1
    decay_mult: 1
  }
  param {
    lr_mult: 2
    decay_mult: 0
  }
  convolution_param {
    num_output: 300
    pad: 1
    kernel_size: 3
    stride: 2
    weight_filler {
      type: "xavier"
    }
    bias_filler {
      type: "constant"
      value: 0.2
    }
  }
}
layer {
  name: "conv3_mouth_bn"
  type: "BatchNorm"
  bottom: "conv3_mouth"
  top: "conv3_mouth"
  batch_norm_param {
    use_global_stats: false
  }
}
layer {
  name: "conv3_mouth_scale"
  type: "Scale"
  bottom: "conv3_mouth"
  top: "conv3_mouth"
  scale_param {
    bias_term: true
  }
}
layer {
  name: "prelu3_mouth"
  type: "PReLU"
  bottom: "conv3_mouth"
  top: "conv3_mouth"
}
layer {
  name: "pool3_mouth"
  type: "Pooling"
  bottom: "conv3_mouth"
  top: "pool3_mouth"
  pooling_param {
    pool: MAX
    kernel_size: 5
    stride: 2
    pad: 2
  }
}
layer {
  name: "fc1_mouth"
  type: "InnerProduct"
  bottom: "pool3_mouth"
  top: "fc1_mouth"
  param {
    lr_mult: 1
    decay_mult: 1
  }
  param {
    lr_mult: 2
    decay_mult: 0
  }
  inner_product_param {
    num_output: 512
    weight_filler {
      type: "xavier"
    }
    bias_filler {
      type: "constant"
      value: 0.2
    }
  }
}
layer {
  name: "relu1_mouth"
  type: "ReLU"
  bottom: "fc1_mouth"
  top: "fc1_mouth"
}
layer {
  name: "drop1_mouth"
  type: "Dropout"
  bottom: "fc1_mouth"
  top: "fc1_mouth"
  dropout_param {
    dropout_ratio: 0.5
  }
}
layer {
  name: "fc2_mouth"
  type: "InnerProduct"
  bottom: "fc1_mouth"
  top: "fc2_mouth"
  param {
    lr_mult: 1
    decay_mult: 1
  }
  param {
    lr_mult: 2
    decay_mult: 0
  }
  inner_product_param {
    num_output: 512
    weight_filler {
      type: "xavier"
    }
    bias_filler {
      type: "constant"
      value: 0.2
    }
  }
}
layer {
  name: "relu2_mouth"
  type: "ReLU"
  bottom: "fc2_mouth"
  top: "fc2_mouth"
}
layer {
  name: "drop2_mouth"
  type: "Dropout"
  bottom: "fc2_mouth"
  top: "fc2_mouth"
  dropout_param {
    dropout_ratio: 0.5
  }
}
layer {
  name: "conv3_eyes"
  type: "Convolution"
  bottom: "pool3"
  top: "conv3_eyes"
  param {
    lr_mult: 1
    decay_mult: 1
  }
  param {
    lr_mult: 2
    decay_mult: 0
  }
  convolution_param {
    num_output: 300
    pad: 1
    kernel_size: 3
    stride: 2
    weight_filler {
      type: "xavier"
    }
    bias_filler {
      type: "constant"
      value: 0.2
    }
  }
}
layer {
  name: "conv3_eyes_bn"
  type: "BatchNorm"
  bottom: "conv3_eyes"
  top: "conv3_eyes"
  batch_norm_param {
    use_global_stats: false
  }
}
layer {
  name: "conv3_eyes_scale"
  type: "Scale"
  bottom: "conv3_eyes"
  top: "conv3_eyes"
  scale_param {
    bias_term: true
  }
}
layer {
  name: "prelu3_eyes"
  type: "PReLU"
  bottom: "conv3_eyes"
  top: "conv3_eyes"
}
layer {
  name: "pool3_eyes"
  type: "Pooling"
  bottom: "conv3_eyes"
  top: "pool3_eyes"
  pooling_param {
    pool: MAX
    kernel_size: 5
    stride: 2
    pad: 2
  }
}
layer {
  name: "fc1_eyes"
  type: "InnerProduct"
  bottom: "pool3_eyes"
  top: "fc1_eyes"
  param {
    lr_mult: 1
    decay_mult: 1
  }
  param {
    lr_mult: 2
    decay_mult: 0
  }
  inner_product_param {
    num_output: 512
    weight_filler {
      type: "xavier"
    }
    bias_filler {
      type: "constant"
      value: 0.2
    }
  }
}
layer {
  name: "relu1_eyes"
  type: "ReLU"
  bottom: "fc1_eyes"
  top: "fc1_eyes"
}
layer {
  name: "drop1_eyes"
  type: "Dropout"
  bottom: "fc1_eyes"
  top: "fc1_eyes"
  dropout_param {
    dropout_ratio: 0.5
  }
}
layer {
  name: "fc2_eyes"
  type: "InnerProduct"
  bottom: "fc1_eyes"
  top: "fc2_eyes"
  param {
    lr_mult: 1
    decay_mult: 1
  }
  param {
    lr_mult: 2
    decay_mult: 0
  }
  inner_product_param {
    num_output: 512
    weight_filler {
      type: "xavier"
    }
    bias_filler {
      type: "constant"
      value: 0.2
    }
  }
}
layer {
  name: "relu2_eyes"
  type: "ReLU"
  bottom: "fc2_eyes"
  top: "fc2_eyes"
}
layer {
  name: "drop2_eyes"
  type: "Dropout"
  bottom: "fc2_eyes"
  top: "fc2_eyes"
  dropout_param {
    dropout_ratio: 0.5
  }
}
layer {
  name: "conv3_face"
  type: "Convolution"
  bottom: "pool3"
  top: "conv3_face"
  param {
    lr_mult: 1
    decay_mult: 1
  }
  param {
    lr_mult: 2
    decay_mult: 0
  }
  convolution_param {
    num_output: 300
    pad: 1
    kernel_size: 3
    stride: 2
    weight_filler {
      type: "xavier"
    }
    bias_filler {
      type: "constant"
      value: 0.2
    }
  }
}
layer {
  name: "conv3_face_bn"
  type: "BatchNorm"
  bottom: "conv3_face"
  top: "conv3_face"
  batch_norm_param {
    use_global_stats: false
  }
}
layer {
  name: "conv3_face_scale"
  type: "Scale"
  bottom: "conv3_face"
  top: "conv3_face"
  scale_param {
    bias_term: true
  }
}
layer {
  name: "prelu3_face"
  type: "PReLU"
  bottom: "conv3_face"
  top: "conv3_face"
}
layer {
  name: "pool3_face"
  type: "Pooling"
  bottom: "conv3_face"
  top: "pool3_face"
  pooling_param {
    pool: MAX
    kernel_size: 5
    stride: 2
    pad: 2
  }
}
layer {
  name: "fc1_face"
  type: "InnerProduct"
  bottom: "pool3_face"
  top: "fc1_face"
  param {
    lr_mult: 1
    decay_mult: 1
  }
  param {
    lr_mult: 2
    decay_mult: 0
  }
  inner_product_param {
    num_output: 512
    weight_filler {
      type: "xavier"
    }
    bias_filler {
      type: "constant"
      value: 0.2
    }
  }
}
layer {
  name: "relu1_face"
  type: "ReLU"
  bottom: "fc1_face"
  top: "fc1_face"
}
layer {
  name: "drop1_face"
  type: "Dropout"
  bottom: "fc1_face"
  top: "fc1_face"
  dropout_param {
    dropout_ratio: 0.5
  }
}
layer {
  name: "fc2_face"
  type: "InnerProduct"
  bottom: "fc1_face"
  top: "fc2_face"
  param {
    lr_mult: 1
    decay_mult: 1
  }
  param {
    lr_mult: 2
    decay_mult: 0
  }
  inner_product_param {
    num_output: 512
    weight_filler {
      type: "xavier"
    }
    bias_filler {
      type: "constant"
      value: 0.2
    }
  }
}
layer {
  name: "relu2_face"
  type: "ReLU"
  bottom: "fc2_face"
  top: "fc2_face"
}
layer {
  name: "drop2_face"
  type: "Dropout"
  bottom: "fc2_face"
  top: "fc2_face"
  dropout_param {
    dropout_ratio: 0.5
  }
}
layer {
  name: "conv3_rest"
  type: "Convolution"
  bottom: "pool3"
  top: "conv3_rest"
  param {
    lr_mult: 1
    decay_mult: 1
  }
  param {
    lr_mult: 2
    decay_mult: 0
  }
  convolution_param {
    num_output: 300
    pad: 1
    kernel_size: 3
    stride: 2
    weight_filler {
      type: "xavier"
    }
    bias_filler {
      type: "constant"
      value: 0.2
    }
  }
}
layer {
  name: "conv3_rest_bn"
  type: "BatchNorm"
  bottom: "conv3_rest"
  top: "conv3_rest"
  batch_norm_param {
    use_global_stats: false
  }
}
layer {
  name: "conv3_rest_scale"
  type: "Scale"
  bottom: "conv3_rest"
  top: "conv3_rest"
  scale_param {
    bias_term: true
  }
}
layer {
  name: "prelu3_rest"
  type: "PReLU"
  bottom: "conv3_rest"
  top: "conv3_rest"
}
layer {
  name: "pool3_rest"
  type: "Pooling"
  bottom: "conv3_rest"
  top: "pool3_rest"
  pooling_param {
    pool: MAX
    kernel_size: 5
    stride: 2
    pad: 2
  }
}
layer {
  name: "fc1_aroundhead"
  type: "InnerProduct"
  bottom: "pool3_rest"
  top: "fc1_aroundhead"
  param {
    lr_mult: 1
    decay_mult: 1
  }
  param {
    lr_mult: 2
    decay_mult: 0
  }
  inner_product_param {
    num_output: 512
    weight_filler {
      type: "xavier"
    }
    bias_filler {
      type: "constant"
      value: 0.2
    }
  }
}
layer {
  name: "relu1_aroundhead"
  type: "ReLU"
  bottom: "fc1_aroundhead"
  top: "fc1_aroundhead"
}
layer {
  name: "drop1_aroundhead"
  type: "Dropout"
  bottom: "fc1_aroundhead"
  top: "fc1_aroundhead"
  dropout_param {
    dropout_ratio: 0.5
  }
}
layer {
  name: "fc2_aroundhead"
  type: "InnerProduct"
  bottom: "fc1_aroundhead"
  top: "fc2_aroundhead"
  param {
    lr_mult: 1
    decay_mult: 1
  }
  param {
    lr_mult: 2
    decay_mult: 0
  }
  inner_product_param {
    num_output: 512
    weight_filler {
      type: "xavier"
    }
    bias_filler {
      type: "constant"
      value: 0.2
    }
  }
}
layer {
  name: "relu2_aroundhead"
  type: "ReLU"
  bottom: "fc2_aroundhead"
  top: "fc2_aroundhead"
}
layer {
  name: "drop2_aroundhead"
  type: "Dropout"
  bottom: "fc2_aroundhead"
  top: "fc2_aroundhead"
  dropout_param {
    dropout_ratio: 0.5
  }
}
layer {
  name: "fc1_facialhair"
  type: "InnerProduct"
  bottom: "pool3_rest"
  top: "fc1_facialhair"
  param {
    lr_mult: 1
    decay_mult: 1
  }
  param {
    lr_mult: 2
    decay_mult: 0
  }
  inner_product_param {
    num_output: 512
    weight_filler {
      type: "xavier"
    }
    bias_filler {
      type: "constant"
      value: 0.2
    }
  }
}
layer {
  name: "relu1_facialhair"
  type: "ReLU"
  bottom: "fc1_facialhair"
  top: "fc1_facialhair"
}
layer {
  name: "drop1_facialhair"
  type: "Dropout"
  bottom: "fc1_facialhair"
  top: "fc1_facialhair"
  dropout_param {
    dropout_ratio: 0.5
  }
}
layer {
  name: "fc2_facialhair"
  type: "InnerProduct"
  bottom: "fc1_facialhair"
  top: "fc2_facialhair"
  param {
    lr_mult: 1
    decay_mult: 1
  }
  param {
    lr_mult: 2
    decay_mult: 0
  }
  inner_product_param {
    num_output: 512
    weight_filler {
      type: "xavier"
    }
    bias_filler {
      type: "constant"
      value: 0.2
    }
  }
}
layer {
  name: "relu2_facialhair"
  type: "ReLU"
  bottom: "fc2_facialhair"
  top: "fc2_facialhair"
}
layer {
  name: "drop2_facialhair"
  type: "Dropout"
  bottom: "fc2_facialhair"
  top: "fc2_facialhair"
  dropout_param {
    dropout_ratio: 0.5
  }
}
layer {
  name: "fc1_cheeks"
  type: "InnerProduct"
  bottom: "pool3_rest"
  top: "fc1_cheeks"
  param {
    lr_mult: 1
    decay_mult: 1
  }
  param {
    lr_mult: 2
    decay_mult: 0
  }
  inner_product_param {
    num_output: 512
    weight_filler {
      type: "xavier"
    }
    bias_filler {
      type: "constant"
      value: 0.2
    }
  }
}
layer {
  name: "relu1_cheeks"
  type: "ReLU"
  bottom: "fc1_cheeks"
  top: "fc1_cheeks"
}
layer {
  name: "drop1_cheeks"
  type: "Dropout"
  bottom: "fc1_cheeks"
  top: "fc1_cheeks"
  dropout_param {
    dropout_ratio: 0.5
  }
}
layer {
  name: "fc2_cheeks"
  type: "InnerProduct"
  bottom: "fc1_cheeks"
  top: "fc2_cheeks"
  param {
    lr_mult: 1
    decay_mult: 1
  }
  param {
    lr_mult: 2
    decay_mult: 0
  }
  inner_product_param {
    num_output: 512
    weight_filler {
      type: "xavier"
    }
    bias_filler {
      type: "constant"
      value: 0.2
    }
  }
}
layer {
  name: "relu2_cheeks"
  type: "ReLU"
  bottom: "fc2_cheeks"
  top: "fc2_cheeks"
}
layer {
  name: "drop2_cheeks"
  type: "Dropout"
  bottom: "fc2_cheeks"
  top: "fc2_cheeks"
  dropout_param {
    dropout_ratio: 0.5
  }
}
layer {
  name: "fc1_fat"
  type: "InnerProduct"
  bottom: "pool3_rest"
  top: "fc1_fat"
  param {
    lr_mult: 1
    decay_mult: 1
  }
  param {
    lr_mult: 2
    decay_mult: 0
  }
  inner_product_param {
    num_output: 512
    weight_filler {
      type: "xavier"
    }
    bias_filler {
      type: "constant"
      value: 0.2
    }
  }
}
layer {
  name: "relu1_fat"
  type: "ReLU"
  bottom: "fc1_fat"
  top: "fc1_fat"
}
layer {
  name: "drop1_fat"
  type: "Dropout"
  bottom: "fc1_fat"
  top: "fc1_fat"
  dropout_param {
    dropout_ratio: 0.5
  }
}
layer {
  name: "fc2_fat"
  type: "InnerProduct"
  bottom: "fc1_fat"
  top: "fc2_fat"
  param {
    lr_mult: 1
    decay_mult: 1
  }
  param {
    lr_mult: 2
    decay_mult: 0
  }
  inner_product_param {
    num_output: 512
    weight_filler {
      type: "xavier"
    }
    bias_filler {
      type: "constant"
      value: 0.2
    }
  }
}
layer {
  name: "relu2_fat"
  type: "ReLU"
  bottom: "fc2_fat"
  top: "fc2_fat"
}
layer {
  name: "drop2_fat"
  type: "Dropout"
  bottom: "fc2_fat"
  top: "fc2_fat"
  dropout_param {
    dropout_ratio: 0.5
  }
}
layer {
  name: "fc3_Male"
  type: "InnerProduct"
  bottom: "fc2_gender"
  top: "fc3_Male"
  inner_product_param {
    num_output: 2
    weight_filler {
      type: "xavier"
    }
    bias_filler {
      type: "constant"
      value: 0
    }
  }
}
layer {
  name: "loss_Male"
  type: "SigmoidCrossEntropyLoss"
  bottom: "fc3_Male"
  bottom: "label_Male"
  top: "loss_Male"
}
layer {
  name: "fc3_Big_Nose"
  type: "InnerProduct"
  bottom: "fc2_nose"
  top: "fc3_Big_Nose"
  inner_product_param {
    num_output: 2
    weight_filler {
      type: "xavier"
    }
    bias_filler {
      type: "constant"
      value: 0
    }
  }
}
layer {
  name: "loss_Big_Nose"
  type: "SigmoidCrossEntropyLoss"
  bottom: "fc3_Big_Nose"
  bottom: "label_Big_Nose"
  top: "loss_Big_Nose"
}
layer {
  name: "fc3_Pointy_Nose"
  type: "InnerProduct"
  bottom: "fc2_nose"
  top: "fc3_Pointy_Nose"
  inner_product_param {
    num_output: 2
    weight_filler {
      type: "xavier"
    }
    bias_filler {
      type: "constant"
      value: 0
    }
  }
}
layer {
  name: "loss_Pointy_Nose"
  type: "SigmoidCrossEntropyLoss"
  bottom: "fc3_Pointy_Nose"
  bottom: "label_Pointy_Nose"
  top: "loss_Pointy_Nose"
}
layer {
  name: "fc3_Big_Lips"
  type: "InnerProduct"
  bottom: "fc2_mouth"
  top: "fc3_Big_Lips"
  inner_product_param {
    num_output: 2
    weight_filler {
      type: "xavier"
    }
    bias_filler {
      type: "constant"
      value: 0
    }
  }
}
layer {
  name: "loss_Big_Lips"
  type: "SigmoidCrossEntropyLoss"
  bottom: "fc3_Big_Lips"
  bottom: "label_Big_Lips"
  top: "loss_Big_Lips"
}
layer {
  name: "fc3_Smiling"
  type: "InnerProduct"
  bottom: "fc2_mouth"
  top: "fc3_Smiling"
  inner_product_param {
    num_output: 2
    weight_filler {
      type: "xavier"
    }
    bias_filler {
      type: "constant"
      value: 0
    }
  }
}
layer {
  name: "loss_Smiling"
  type: "SigmoidCrossEntropyLoss"
  bottom: "fc3_Smiling"
  bottom: "label_Smiling"
  top: "loss_Smiling"
}
layer {
  name: "fc3_Wearing_Lipstick"
  type: "InnerProduct"
  bottom: "fc2_mouth"
  top: "fc3_Wearing_Lipstick"
  inner_product_param {
    num_output: 2
    weight_filler {
      type: "xavier"
    }
    bias_filler {
      type: "constant"
      value: 0
    }
  }
}
layer {
  name: "loss_Wearing_Lipstick"
  type: "SigmoidCrossEntropyLoss"
  bottom: "fc3_Wearing_Lipstick"
  bottom: "label_Wearing_Lipstick"
  top: "loss_Wearing_Lipstick"
}
layer {
  name: "fc3_Mouth_Slightly_Open"
  type: "InnerProduct"
  bottom: "fc2_mouth"
  top: "fc3_Mouth_Slightly_Open"
  inner_product_param {
    num_output: 2
    weight_filler {
      type: "xavier"
    }
    bias_filler {
      type: "constant"
      value: 0
    }
  }
}
layer {
  name: "loss_Mouth_Slightly_Open"
  type: "SigmoidCrossEntropyLoss"
  bottom: "fc3_Mouth_Slightly_Open"
  bottom: "label_Mouth_Slightly_Open"
  top: "loss_Mouth_Slightly_Open"
}
layer {
  name: "fc3_Arched_Eyebrows"
  type: "InnerProduct"
  bottom: "fc2_eyes"
  top: "fc3_Arched_Eyebrows"
  inner_product_param {
    num_output: 2
    weight_filler {
      type: "xavier"
    }
    bias_filler {
      type: "constant"
      value: 0
    }
  }
}
layer {
  name: "loss_Arched_Eyebrows"
  type: "SigmoidCrossEntropyLoss"
  bottom: "fc3_Arched_Eyebrows"
  bottom: "label_Arched_Eyebrows"
  top: "loss_Arched_Eyebrows"
}
layer {
  name: "fc3_Bags_Under_Eyes"
  type: "InnerProduct"
  bottom: "fc2_eyes"
  top: "fc3_Bags_Under_Eyes"
  inner_product_param {
    num_output: 2
    weight_filler {
      type: "xavier"
    }
    bias_filler {
      type: "constant"
      value: 0
    }
  }
}
layer {
  name: "loss_Bags_Under_Eyes"
  type: "SigmoidCrossEntropyLoss"
  bottom: "fc3_Bags_Under_Eyes"
  bottom: "label_Bags_Under_Eyes"
  top: "loss_Bags_Under_Eyes"
}
layer {
  name: "fc3_Bushy_Eyebrows"
  type: "InnerProduct"
  bottom: "fc2_eyes"
  top: "fc3_Bushy_Eyebrows"
  inner_product_param {
    num_output: 2
    weight_filler {
      type: "xavier"
    }
    bias_filler {
      type: "constant"
      value: 0
    }
  }
}
layer {
  name: "loss_Bushy_Eyebrows"
  type: "SigmoidCrossEntropyLoss"
  bottom: "fc3_Bushy_Eyebrows"
  bottom: "label_Bushy_Eyebrows"
  top: "loss_Bushy_Eyebrows"
}
layer {
  name: "fc3_Narrow_Eyes"
  type: "InnerProduct"
  bottom: "fc2_eyes"
  top: "fc3_Narrow_Eyes"
  inner_product_param {
    num_output: 2
    weight_filler {
      type: "xavier"
    }
    bias_filler {
      type: "constant"
      value: 0
    }
  }
}
layer {
  name: "loss_Narrow_Eyes"
  type: "SigmoidCrossEntropyLoss"
  bottom: "fc3_Narrow_Eyes"
  bottom: "label_Narrow_Eyes"
  top: "loss_Narrow_Eyes"
}
layer {
  name: "fc3_Eyeglasses"
  type: "InnerProduct"
  bottom: "fc2_eyes"
  top: "fc3_Eyeglasses"
  inner_product_param {
    num_output: 2
    weight_filler {
      type: "xavier"
    }
    bias_filler {
      type: "constant"
      value: 0
    }
  }
}
layer {
  name: "loss_Eyeglasses"
  type: "SigmoidCrossEntropyLoss"
  bottom: "fc3_Eyeglasses"
  bottom: "label_Eyeglasses"
  top: "loss_Eyeglasses"
}
layer {
  name: "fc3_Attractive"
  type: "InnerProduct"
  bottom: "fc2_face"
  top: "fc3_Attractive"
  inner_product_param {
    num_output: 2
    weight_filler {
      type: "xavier"
    }
    bias_filler {
      type: "constant"
      value: 0
    }
  }
}
layer {
  name: "loss_Attractive"
  type: "SigmoidCrossEntropyLoss"
  bottom: "fc3_Attractive"
  bottom: "label_Attractive"
  top: "loss_Attractive"
}
layer {
  name: "fc3_Blurry"
  type: "InnerProduct"
  bottom: "fc2_face"
  top: "fc3_Blurry"
  inner_product_param {
    num_output: 2
    weight_filler {
      type: "xavier"
    }
    bias_filler {
      type: "constant"
      value: 0
    }
  }
}
layer {
  name: "loss_Blurry"
  type: "SigmoidCrossEntropyLoss"
  bottom: "fc3_Blurry"
  bottom: "label_Blurry"
  top: "loss_Blurry"
}
layer {
  name: "fc3_Oval_Face"
  type: "InnerProduct"
  bottom: "fc2_face"
  top: "fc3_Oval_Face"
  inner_product_param {
    num_output: 2
    weight_filler {
      type: "xavier"
    }
    bias_filler {
      type: "constant"
      value: 0
    }
  }
}
layer {
  name: "loss_Oval_Face"
  type: "SigmoidCrossEntropyLoss"
  bottom: "fc3_Oval_Face"
  bottom: "label_Oval_Face"
  top: "loss_Oval_Face"
}
layer {
  name: "fc3_Pale_Skin"
  type: "InnerProduct"
  bottom: "fc2_face"
  top: "fc3_Pale_Skin"
  inner_product_param {
    num_output: 2
    weight_filler {
      type: "xavier"
    }
    bias_filler {
      type: "constant"
      value: 0
    }
  }
}
layer {
  name: "loss_Pale_Skin"
  type: "SigmoidCrossEntropyLoss"
  bottom: "fc3_Pale_Skin"
  bottom: "label_Pale_Skin"
  top: "loss_Pale_Skin"
}
layer {
  name: "fc3_Young"
  type: "InnerProduct"
  bottom: "fc2_face"
  top: "fc3_Young"
  inner_product_param {
    num_output: 2
    weight_filler {
      type: "xavier"
    }
    bias_filler {
      type: "constant"
      value: 0
    }
  }
}
layer {
  name: "l
I1013 18:15:36.747073 24205 layer_factory.hpp:77] Creating layer data
I1013 18:15:36.747133 24205 net.cpp:91] Creating Layer data
I1013 18:15:36.747153 24205 net.cpp:399] data -> data
I1013 18:15:36.747191 24205 net.cpp:399] data -> label
I1013 18:15:36.747223 24205 data_transformer.cpp:25] Loading mean file from: /home/zhangyuan/caojiajiong/attribute_learning/attr_id/data/train_attr_id.binaryproto
I1013 18:15:36.797277 24205 image_data_layer.cpp:38] Opening file /home/zhangyuan/caojiajiong/attribute_learning/attr_id/data/train_shuffle_new.txt
I1013 18:15:36.817008 24205 image_data_layer.cpp:53] A total of 35996 images.
I1013 18:15:36.822568 24205 image_data_layer.cpp:80] output data size: 100,3,112,112
I1013 18:15:36.857892 24205 net.cpp:141] Setting up data
I1013 18:15:36.857928 24205 net.cpp:148] Top shape: 100 3 112 112 (3763200)
I1013 18:15:36.857935 24205 net.cpp:148] Top shape: 100 (100)
I1013 18:15:36.857940 24205 net.cpp:156] Memory required for data: 15053200
I1013 18:15:36.857949 24205 layer_factory.hpp:77] Creating layer attr_data
I1013 18:15:36.858490 24205 net.cpp:91] Creating Layer attr_data
I1013 18:15:36.858503 24205 net.cpp:399] attr_data -> attr_data
I1013 18:15:36.858551 24205 net.cpp:399] attr_data -> fakelabel
I1013 18:15:36.861050 24209 db_lmdb.cpp:40] Opened lmdb /home/zhangyuan/caojiajiong/attribute_learning/attr_id/data/train_label_new
I1013 18:15:36.861891 24205 data_layer.cpp:41] output data size: 100,80,1,1
I1013 18:15:36.865761 24205 net.cpp:141] Setting up attr_data
I1013 18:15:36.865782 24205 net.cpp:148] Top shape: 100 80 1 1 (8000)
I1013 18:15:36.865788 24205 net.cpp:148] Top shape: 100 (100)
I1013 18:15:36.865793 24205 net.cpp:156] Memory required for data: 15085600
I1013 18:15:36.865798 24205 layer_factory.hpp:77] Creating layer conv1
I1013 18:15:36.865821 24205 net.cpp:91] Creating Layer conv1
I1013 18:15:36.865828 24205 net.cpp:425] conv1 <- data
I1013 18:15:36.865844 24205 net.cpp:399] conv1 -> conv1
I1013 18:15:36.867120 24205 net.cpp:141] Setting up conv1
I1013 18:15:36.867142 24205 net.cpp:148] Top shape: 100 64 112 112 (80281600)
I1013 18:15:36.867148 24205 net.cpp:156] Memory required for data: 336212000
I1013 18:15:36.867164 24205 layer_factory.hpp:77] Creating layer slice
I1013 18:15:36.867183 24205 net.cpp:91] Creating Layer slice
I1013 18:15:36.867192 24205 net.cpp:425] slice <- attr_data
I1013 18:15:36.867210 24205 net.cpp:399] slice -> label_5_o_Clock_Shadow
I1013 18:15:36.867238 24205 net.cpp:399] slice -> label_Arched_Eyebrows
…
I1013 18:15:36.867961 24205 net.cpp:399] slice -> label_Straight_Hair
I1013 18:15:36.867985 24205 net.cpp:399] slice -> label_Wavy_Hair
I1013 18:15:36.868006 24205 net.cpp:399] slice -> label_Wearing_Earrings
I1013 18:15:36.868028 24205 net.cpp:399] slice -> label_Wearing_Hat
I1013 18:15:36.868057 24205 net.cpp:399] slice -> label_Wearing_Lipstick
I1013 18:15:36.868078 24205 net.cpp:399] slice -> label_Wearing_Necklace
I1013 18:15:36.868100 24205 net.cpp:399] slice -> label_Wearing_Necktie
I1013 18:15:36.868121 24205 net.cpp:399] slice -> label_Young
I1013 18:15:36.868629 24205 net.cpp:141] Setting up slice
I1013 18:15:36.868644 24205 net.cpp:148] Top shape: 100 2 1 1 (200)
I1013 18:15:36.868659 24205 net.cpp:148] Top shape: 100 2 1 1 (200)
I1013 18:15:36.868665 24205 net.cpp:148] Top shape: 100 2 1 1 (200)
I1013 18:15:36.868672 24205 net.cpp:148] Top shape: 100 2 1 1 (200)
I1013 18:15:36.868677 24205 net.cpp:148] Top shape: 100 2 1 1 (200)
I1013 18:15:36.868700 24205 net.cpp:148] Top shape: 100 2 1 1 (200)
I1013 18:15:36.868705 24205 net.cpp:148] Top shape: 100 2 1 1 (200)
I1013 18:15:36.868724 24205 net.cpp:148] Top shape: 100 2 1 1 (200)
I1013 18:15:36.868729 24205 net.cpp:148] Top shape: 100 2 1 1 (200)
I1013 18:15:36.868736 24205 net.cpp:148] Top shape: 100 2 1 1 (200)
I1013 18:15:36.868741 24205 net.cpp:148] Top shape: 100 2 1 1 (200)
I1013 18:15:36.868746 24205 net.cpp:148] Top shape: 100 2 1 1 (200)
I1013 18:15:36.868752 24205 net.cpp:148] Top shape: 100 2 1 1 (200)
I1013 18:15:36.868757 24205 net.cpp:148] Top shape: 100 2 1 1 (200)
I1013 18:15:36.868762 24205 net.cpp:148] Top shape: 100 2 1 1 (200)
I1013 18:15:36.868767 24205 net.cpp:148] Top shape: 100 2 1 1 (200)
I1013 18:15:36.868772 24205 net.cpp:148] Top shape: 100 2 1 1 (200)
I1013 18:15:36.868787 24205 net.cpp:148] Top shape: 100 2 1 1 (200)
I1013 18:15:36.868793 24205 net.cpp:148] Top shape: 100 2 1 1 (200)
I1013 18:15:36.868798 24205 net.cpp:148] Top shape: 100 2 1 1 (200)
I1013 18:15:36.868804 24205 net.cpp:148] Top shape: 100 2 1 1 (200)
I1013 18:15:36.868830 24205 net.cpp:148] Top shape: 100 2 1 1 (200)
I1013 18:15:36.868836 24205 net.cpp:148] Top shape: 100 2 1 1 (200)
I1013 18:15:36.868849 24205 net.cpp:148] Top shape: 100 2 1 1 (200)
I1013 18:15:36.868854 24205 net.cpp:148] Top shape: 100 2 1 1 (200)
I1013 18:15:36.868860 24205 net.cpp:148] Top shape: 100 2 1 1 (200)
I1013 18:15:36.868868 24205 net.cpp:148] Top shape: 100 2 1 1 (200)
I1013 18:15:36.868875 24205 net.cpp:148] Top shape: 100 2 1 1 (200)
I1013 18:15:36.868883 24205 net.cpp:148] Top shape: 100 2 1 1 (200)
I1013 18:15:36.868890 24205 net.cpp:148] Top shape: 100 2 1 1 (200)
I1013 18:15:36.868896 24205 net.cpp:148] Top shape: 100 2 1 1 (200)
I1013 18:15:36.868903 24205 net.cpp:148] Top shape: 100 2 1 1 (200)
I1013 18:15:36.868916 24205 net.cpp:148] Top shape: 100 2 1 1 (200)
I1013 18:15:36.868922 24205 net.cpp:148] Top shape: 100 2 1 1 (200)
I1013 18:15:36.868928 24205 net.cpp:148] Top shape: 100 2 1 1 (200)
I1013 18:15:36.868942 24205 net.cpp:148] Top shape: 100 2 1 1 (200)
I1013 18:15:36.868947 24205 net.cpp:148] Top shape: 100 2 1 1 (200)
I1013 18:15:36.868953 24205 net.cpp:148] Top shape: 100 2 1 1 (200)
I1013 18:15:36.868962 24205 net.cpp:148] Top shape: 100 2 1 1 (200)
I1013 18:15:36.868966 24205 net.cpp:148] Top shape: 100 2 1 1 (200)
I1013 18:15:36.868973 24205 net.cpp:156] Memory required for data: 336244000
I1013 18:15:36.868978 24205 layer_factory.hpp:77] Creating layer conv1_bn
I1013 18:15:36.869009 24205 net.cpp:91] Creating Layer conv1_bn
I1013 18:15:36.869015 24205 net.cpp:425] conv1_bn <- conv1
I1013 18:15:36.869032 24205 net.cpp:386] conv1_bn -> conv1 (in-place)
I1013 18:15:36.869238 24205 net.cpp:141] Setting up conv1_bn
I1013 18:15:36.869251 24205 net.cpp:148] Top shape: 100 64 112 112 (80281600)
I1013 18:15:36.869259 24205 net.cpp:156] Memory required for data: 657370400
I1013 18:15:36.869278 24205 layer_factory.hpp:77] Creating layer conv1_scale
I1013 18:15:36.869298 24205 net.cpp:91] Creating Layer conv1_scale
I1013 18:15:36.869318 24205 net.cpp:425] conv1_scale <- conv1
I1013 18:15:36.869326 24205 net.cpp:386] conv1_scale -> conv1 (in-place)
I1013 18:15:36.869398 24205 layer_factory.hpp:77] Creating layer conv1_scale
I1013 18:15:36.869565 24205 net.cpp:141] Setting up conv1_scale
I1013 18:15:36.869590 24205 net.cpp:148] Top shape: 100 64 112 112 (80281600)
I1013 18:15:36.869595 24205 net.cpp:156] Memory required for data: 978496800
I1013 18:15:36.869604 24205 layer_factory.hpp:77] Creating layer prelu1
I1013 18:15:36.869616 24205 net.cpp:91] Creating Layer prelu1
I1013 18:15:36.869624 24205 net.cpp:425] prelu1 <- conv1
I1013 18:15:36.869642 24205 net.cpp:386] prelu1 -> conv1 (in-place)
I1013 18:15:36.871805 24205 net.cpp:141] Setting up prelu1
I1013 18:15:36.871834 24205 net.cpp:148] Top shape: 100 64 112 112 (80281600)
I1013 18:15:36.871845 24205 net.cpp:156] Memory required for data: 1299623200
I1013 18:15:36.871852 24205 layer_factory.hpp:77] Creating layer pool1
I1013 18:15:36.871862 24205 net.cpp:91] Creating Layer pool1
I1013 18:15:36.871891 24205 net.cpp:425] pool1 <- conv1
I1013 18:15:36.871906 24205 net.cpp:399] pool1 -> pool1
I1013 18:15:36.871965 24205 net.cpp:141] Setting up pool1
I1013 18:15:36.871978 24205 net.cpp:148] Top shape: 100 64 56 56 (20070400)
I1013 18:15:36.871984 24205 net.cpp:156] Memory required for data: 1379904800
I1013 18:15:36.871999 24205 layer_factory.hpp:77] Creating layer conv2a
I1013 18:15:36.872014 24205 net.cpp:91] Creating Layer conv2a
I1013 18:15:36.872020 24205 net.cpp:425] conv2a <- pool1
I1013 18:15:36.872030 24205 net.cpp:399] conv2a -> conv2a
I1013 18:15:36.872323 24205 net.cpp:141] Setting up conv2a
I1013 18:15:36.872334 24205 net.cpp:148] Top shape: 100 64 56 56 (20070400)
I1013 18:15:36.872339 24205 net.cpp:156] Memory required for data: 1460186400
I1013 18:15:36.872350 24205 layer_factory.hpp:77] Creating layer conv2a_bn
I1013 18:15:36.872360 24205 net.cpp:91] Creating Layer conv2a_bn
I1013 18:15:36.872370 24205 net.cpp:425] conv2a_bn <- conv2a
I1013 18:15:36.872377 24205 net.cpp:386] conv2a_bn -> conv2a (in-place)
I1013 18:15:36.872575 24205 net.cpp:141] Setting up conv2a_bn
I1013 18:15:36.872586 24205 net.cpp:148] Top shape: 100 64 56 56 (20070400)
I1013 18:15:36.872598 24205 net.cpp:156] Memory required for data: 1540468000
I1013 18:15:36.872617 24205 layer_factory.hpp:77] Creating layer conv2a_scale
I1013 18:15:36.872630 24205 net.cpp:91] Creating Layer conv2a_scale
I1013 18:15:36.872637 24205 net.cpp:425] conv2a_scale <- conv2a
I1013 18:15:36.872647 24205 net.cpp:386] conv2a_scale -> conv2a (in-place)
I1013 18:15:36.872694 24205 layer_factory.hpp:77] Creating layer conv2a_scale
I1013 18:15:36.872814 24205 net.cpp:141] Setting up conv2a_scale
I1013 18:15:36.872826 24205 net.cpp:148] Top shape: 100 64 56 56 (20070400)
I1013 18:15:36.872839 24205 net.cpp:156] Memory required for data: 1620749600
I1013 18:15:36.872849 24205 layer_factory.hpp:77] Creating layer prelu2a
I1013 18:15:36.872860 24205 net.cpp:91] Creating Layer prelu2a
I1013 18:15:36.872879 24205 net.cpp:425] prelu2a <- conv2a
I1013 18:15:36.872886 24205 net.cpp:386] prelu2a -> conv2a (in-place)
I1013 18:15:36.873749 24205 net.cpp:141] Setting up prelu2a
I1013 18:15:36.873765 24205 net.cpp:148] Top shape: 100 64 56 56 (20070400)
I1013 18:15:36.873771 24205 net.cpp:156] Memory required for data: 1701031200
I1013 18:15:36.873778 24205 layer_factory.hpp:77] Creating layer conv2
I1013 18:15:36.873792 24205 net.cpp:91] Creating Layer conv2
I1013 18:15:36.873800 24205 net.cpp:425] conv2 <- conv2a
I1013 18:15:36.873809 24205 net.cpp:399] conv2 -> conv2
I1013 18:15:36.875604 24205 net.cpp:141] Setting up conv2
I1013 18:15:36.875622 24205 net.cpp:148] Top shape: 100 192 56 56 (60211200)
I1013 18:15:36.875627 24205 net.cpp:156] Memory required for data: 1941876000
I1013 18:15:36.875640 24205 layer_factory.hpp:77] Creating layer conv2_bn
I1013 18:15:36.875650 24205 net.cpp:91] Creating Layer conv2_bn
I1013 18:15:36.875658 24205 net.cpp:425] conv2_bn <- conv2
I1013 18:15:36.875664 24205 net.cpp:386] conv2_bn -> conv2 (in-place)
I1013 18:15:36.875866 24205 net.cpp:141] Setting up conv2_bn
I1013 18:15:36.875877 24205 net.cpp:148] Top shape: 100 192 56 56 (60211200)
I1013 18:15:36.875882 24205 net.cpp:156] Memory required for data: 2182720800
I1013 18:15:36.875892 24205 layer_factory.hpp:77] Creating layer conv2_scale
I1013 18:15:36.875902 24205 net.cpp:91] Creating Layer conv2_scale
I1013 18:15:36.875907 24205 net.cpp:425] conv2_scale <- conv2
I1013 18:15:36.875915 24205 net.cpp:386] conv2_scale -> conv2 (in-place)
I1013 18:15:36.875957 24205 layer_factory.hpp:77] Creating layer conv2_scale
I1013 18:15:36.876086 24205 net.cpp:141] Setting up conv2_scale
I1013 18:15:36.876096 24205 net.cpp:148] Top shape: 100 192 56 56 (60211200)
I1013 18:15:36.876101 24205 net.cpp:156] Memory required for data: 2423565600
I1013 18:15:36.876108 24205 layer_factory.hpp:77] Creating layer prelu2
I1013 18:15:36.876116 24205 net.cpp:91] Creating Layer prelu2
I1013 18:15:36.876121 24205 net.cpp:425] prelu2 <- conv2
I1013 18:15:36.876129 24205 net.cpp:386] prelu2 -> conv2 (in-place)
I1013 18:15:36.877821 24205 net.cpp:141] Setting up prelu2
I1013 18:15:36.877842 24205 net.cpp:148] Top shape: 100 192 56 56 (60211200)
I1013 18:15:36.877847 24205 net.cpp:156] Memory required for data: 2664410400
I1013 18:15:36.877854 24205 layer_factory.hpp:77] Creating layer pool2
I1013 18:15:36.877866 24205 net.cpp:91] Creating Layer pool2
I1013 18:15:36.877873 24205 net.cpp:425] pool2 <- conv2
I1013 18:15:36.877882 24205 net.cpp:399] pool2 -> pool2
I1013 18:15:36.877923 24205 net.cpp:141] Setting up pool2
I1013 18:15:36.877931 24205 net.cpp:148] Top shape: 100 192 28 28 (15052800)
I1013 18:15:36.877935 24205 net.cpp:156] Memory required for data: 2724621600
I1013 18:15:36.877940 24205 layer_factory.hpp:77] Creating layer conv3a
I1013 18:15:36.877951 24205 net.cpp:91] Creating Layer conv3a
I1013 18:15:36.877956 24205 net.cpp:425] conv3a <- pool2
I1013 18:15:36.877966 24205 net.cpp:399] conv3a -> conv3a
I1013 18:15:36.879144 24205 net.cpp:141] Setting up conv3a
I1013 18:15:36.879161 24205 net.cpp:148] Top shape: 100 192 28 28 (15052800)
I1013 18:15:36.879168 24205 net.cpp:156] Memory required for data: 2784832800
I1013 18:15:36.879175 24205 layer_factory.hpp:77] Creating layer conv3a_bn
I1013 18:15:36.879186 24205 net.cpp:91] Creating Layer conv3a_bn
I1013 18:15:36.879192 24205 net.cpp:425] conv3a_bn <- conv3a
I1013 18:15:36.879200 24205 net.cpp:386] conv3a_bn -> conv3a (in-place)
I1013 18:15:36.879391 24205 net.cpp:141] Setting up conv3a_bn
I1013 18:15:36.879402 24205 net.cpp:148] Top shape: 100 192 28 28 (15052800)
I1013 18:15:36.879407 24205 net.cpp:156] Memory required for data: 2845044000
I1013 18:15:36.879417 24205 layer_factory.hpp:77] Creating layer conv3a_scale
I1013 18:15:36.879426 24205 net.cpp:91] Creating Layer conv3a_scale
I1013 18:15:36.879431 24205 net.cpp:425] conv3a_scale <- conv3a
I1013 18:15:36.879438 24205 net.cpp:386] conv3a_scale -> conv3a (in-place)
I1013 18:15:36.879482 24205 layer_factory.hpp:77] Creating layer conv3a_scale
I1013 18:15:36.879601 24205 net.cpp:141] Setting up conv3a_scale
I1013 18:15:36.879611 24205 net.cpp:148] Top shape: 100 192 28 28 (15052800)
I1013 18:15:36.879616 24205 net.cpp:156] Memory required for data: 2905255200
I1013 18:15:36.879623 24205 layer_factory.hpp:77] Creating layer prelu3a
I1013 18:15:36.879631 24205 net.cpp:91] Creating Layer prelu3a
I1013 18:15:36.879636 24205 net.cpp:425] prelu3a <- conv3a
I1013 18:15:36.879642 24205 net.cpp:386] prelu3a -> conv3a (in-place)
I1013 18:15:36.879850 24205 net.cpp:141] Setting up prelu3a
I1013 18:15:36.879863 24205 net.cpp:148] Top shape: 100 192 28 28 (15052800)
I1013 18:15:36.879866 24205 net.cpp:156] Memory required for data: 2965466400
I1013 18:15:36.879873 24205 layer_factory.hpp:77] Creating layer conv3
I1013 18:15:36.879886 24205 net.cpp:91] Creating Layer conv3
I1013 18:15:36.879894 24205 net.cpp:425] conv3 <- conv3a
I1013 18:15:36.879904 24205 net.cpp:399] conv3 -> conv3
I1013 18:15:36.886806 24205 net.cpp:141] Setting up conv3
I1013 18:15:36.886824 24205 net.cpp:148] Top shape: 100 384 28 28 (30105600)
I1013 18:15:36.886829 24205 net.cpp:156] Memory required for data: 3085888800
I1013 18:15:36.886844 24205 layer_factory.hpp:77] Creating layer conv3_bn
I1013 18:15:36.886853 24205 net.cpp:91] Creating Layer conv3_bn
I1013 18:15:36.886858 24205 net.cpp:425] conv3_bn <- conv3
I1013 18:15:36.886868 24205 net.cpp:386] conv3_bn -> conv3 (in-place)
I1013 18:15:36.887053 24205 net.cpp:141] Setting up conv3_bn
I1013 18:15:36.887063 24205 net.cpp:148] Top shape: 100 384 28 28 (30105600)
I1013 18:15:36.887068 24205 net.cpp:156] Memory required for data: 3206311200
I1013 18:15:36.887078 24205 layer_factory.hpp:77] Creating layer conv3_scale
I1013 18:15:36.887094 24205 net.cpp:91] Creating Layer conv3_scale
I1013 18:15:36.887102 24205 net.cpp:425] conv3_scale <- conv3
I1013 18:15:36.887109 24205 net.cpp:386] conv3_scale -> conv3 (in-place)
I1013 18:15:36.887153 24205 layer_factory.hpp:77] Creating layer conv3_scale
I1013 18:15:36.887264 24205 net.cpp:141] Setting up conv3_scale
I1013 18:15:36.887272 24205 net.cpp:148] Top shape: 100 384 28 28 (30105600)
I1013 18:15:36.887291 24205 net.cpp:156] Memory required for data: 3326733600
I1013 18:15:36.887300 24205 layer_factory.hpp:77] Creating layer prelu3
I1013 18:15:36.887310 24205 net.cpp:91] Creating Layer prelu3
I1013 18:15:36.887315 24205 net.cpp:425] prelu3 <- conv3
I1013 18:15:36.887322 24205 net.cpp:386] prelu3 -> conv3 (in-place)
I1013 18:15:36.888427 24205 net.cpp:141] Setting up prelu3
I1013 18:15:36.888445 24205 net.cpp:148] Top shape: 100 384 28 28 (30105600)
I1013 18:15:36.888451 24205 net.cpp:156] Memory required for data: 3447156000
I1013 18:15:36.888458 24205 layer_factory.hpp:77] Creating layer pool3
I1013 18:15:36.888468 24205 net.cpp:91] Creating Layer pool3
I1013 18:15:36.888473 24205 net.cpp:425] pool3 <- conv3
I1013 18:15:36.888480 24205 net.cpp:399] pool3 -> pool3
I1013 18:15:36.888521 24205 net.cpp:141] Setting up pool3
I1013 18:15:36.888530 24205 net.cpp:148] Top shape: 100 384 14 14 (7526400)
I1013 18:15:36.888535 24205 net.cpp:156] Memory required for data: 3477261600
I1013 18:15:36.888540 24205 layer_factory.hpp:77] Creating layer pool3_pool3_0_split
I1013 18:15:36.888548 24205 net.cpp:91] Creating Layer pool3_pool3_0_split
I1013 18:15:36.888552 24205 net.cpp:425] pool3_pool3_0_split <- pool3
I1013 18:15:36.888561 24205 net.cpp:399] pool3_pool3_0_split -> pool3_pool3_0_split_0
I1013 18:15:36.888569 24205 net.cpp:399] pool3_pool3_0_split -> pool3_pool3_0_split_1
I1013 18:15:36.888579 24205 net.cpp:399] pool3_pool3_0_split -> pool3_pool3_0_split_2
I1013 18:15:36.888589 24205 net.cpp:399] pool3_pool3_0_split -> pool3_pool3_0_split_3
I1013 18:15:36.888597 24205 net.cpp:399] pool3_pool3_0_split -> pool3_pool3_0_split_4
I1013 18:15:36.888604 24205 net.cpp:399] pool3_pool3_0_split -> pool3_pool3_0_split_5
I1013 18:15:36.888684 24205 net.cpp:141] Setting up pool3_pool3_0_split
I1013 18:15:36.888692 24205 net.cpp:148] Top shape: 100 384 14 14 (7526400)
I1013 18:15:36.888698 24205 net.cpp:148] Top shape: 100 384 14 14 (7526400)
I1013 18:15:36.888703 24205 net.cpp:148] Top shape: 100 384 14 14 (7526400)
I1013 18:15:36.888708 24205 net.cpp:148] Top shape: 100 384 14 14 (7526400)
I1013 18:15:36.888713 24205 net.cpp:148] Top shape: 100 384 14 14 (7526400)
I1013 18:15:36.888718 24205 net.cpp:148] Top shape: 100 384 14 14 (7526400)
I1013 18:15:36.888722 24205 net.cpp:156] Memory required for data: 3657895200
I1013 18:15:36.888727 24205 layer_factory.hpp:77] Creating layer conv3_gender
I1013 18:15:36.888739 24205 net.cpp:91] Creating Layer conv3_gender
I1013 18:15:36.888746 24205 net.cpp:425] conv3_gender <- pool3_pool3_0_split_0
I1013 18:15:36.888756 24205 net.cpp:399] conv3_gender -> conv3_gender
I1013 18:15:36.899274 24205 net.cpp:141] Setting up conv3_gender
I1013 18:15:36.899294 24205 net.cpp:148] Top shape: 100 300 7 7 (1470000)
I1013 18:15:36.899299 24205 net.cpp:156] Memory required for data: 3663775200
I1013 18:15:36.899308 24205 layer_factory.hpp:77] Creating layer conv3_gender_bn
I1013 18:15:36.899318 24205 net.cpp:91] Creating Layer conv3_gender_bn
I1013 18:15:36.899323 24205 net.cpp:425] conv3_gender_bn <- conv3_gender
I1013 18:15:36.899332 24205 net.cpp:386] conv3_gender_bn -> conv3_gender (in-place)
I1013 18:15:36.899529 24205 net.cpp:141] Setting up conv3_gender_bn
I1013 18:15:36.899540 24205 net.cpp:148] Top shape: 100 300 7 7 (1470000)
I1013 18:15:36.899544 24205 net.cpp:156] Memory required for data: 3669655200
I1013 18:15:36.899555 24205 layer_factory.hpp:77] Creating layer conv3_gender_scale
I1013 18:15:36.899564 24205 net.cpp:91] Creating Layer conv3_gender_scale
I1013 18:15:36.899574 24205 net.cpp:425] conv3_gender_scale <- conv3_gender
I1013 18:15:36.899580 24205 net.cpp:386] conv3_gender_scale -> conv3_gender (in-place)
I1013 18:15:36.899623 24205 layer_factory.hpp:77] Creating layer conv3_gender_scale
I1013 18:15:36.899745 24205 net.cpp:141] Setting up conv3_gender_scale
I1013 18:15:36.899755 24205 net.cpp:148] Top shape: 100 300 7 7 (1470000)
I1013 18:15:36.899760 24205 net.cpp:156] Memory required for data: 3675535200
I1013 18:15:36.899781 24205 layer_factory.hpp:77] Creating layer prelu3_gender
I1013 18:15:36.899791 24205 net.cpp:91] Creating Layer prelu3_gender
I1013 18:15:36.899796 24205 net.cpp:425] prelu3_gender <- conv3_gender
I1013 18:15:36.899802 24205 net.cpp:386] prelu3_gender -> conv3_gender (in-place)
I1013 18:15:36.899919 24205 net.cpp:141] Setting up prelu3_gender
I1013 18:15:36.899930 24205 net.cpp:148] Top shape: 100 300 7 7 (1470000)
I1013 18:15:36.899935 24205 net.cpp:156] Memory required for data: 3681415200
I1013 18:15:36.899940 24205 layer_factory.hpp:77] Creating layer pool3_gender
I1013 18:15:36.899950 24205 net.cpp:91] Creating Layer pool3_gender
I1013 18:15:36.899955 24205 net.cpp:425] pool3_gender <- conv3_gender
I1013 18:15:36.899962 24205 net.cpp:399] pool3_gender -> pool3_gender
I1013 18:15:36.900002 24205 net.cpp:141] Setting up pool3_gender
I1013 18:15:36.900010 24205 net.cpp:148] Top shape: 100 300 4 4 (480000)
I1013 18:15:36.900014 24205 net.cpp:156] Memory required for data: 3683335200
I1013 18:15:36.900019 24205 layer_factory.hpp:77] Creating layer fc1_gender
I1013 18:15:36.900032 24205 net.cpp:91] Creating Layer fc1_gender
I1013 18:15:36.900039 24205 net.cpp:425] fc1_gender <- pool3_gender
I1013 18:15:36.900048 24205 net.cpp:399] fc1_gender -> fc1_gender
I1013 18:15:36.924231 24205 net.cpp:141] Setting up fc1_gender
I1013 18:15:36.924253 24205 net.cpp:148] Top shape: 100 512 (51200)
I1013 18:15:36.924258 24205 net.cpp:156] Memory required for data: 3683540000
I1013 18:15:36.924268 24205 layer_factory.hpp:77] Creating layer relu1_gender
I1013 18:15:36.924276 24205 net.cpp:91] Creating Layer relu1_gender
I1013 18:15:36.924283 24205 net.cpp:425] relu1_gender <- fc1_gender
I1013 18:15:36.924290 24205 net.cpp:386] relu1_gender -> fc1_gender (in-place)
I1013 18:15:36.924299 24205 net.cpp:141] Setting up relu1_gender
I1013 18:15:36.924305 24205 net.cpp:148] Top shape: 100 512 (51200)
I1013 18:15:36.924309 24205 net.cpp:156] Memory required for data: 3683744800
I1013 18:15:36.924314 24205 layer_factory.hpp:77] Creating layer drop1_gender
I1013 18:15:36.924322 24205 net.cpp:91] Creating Layer drop1_gender
I1013 18:15:36.924326 24205 net.cpp:425] drop1_gender <- fc1_gender
I1013 18:15:36.924334 24205 net.cpp:386] drop1_gender -> fc1_gender (in-place)
I1013 18:15:36.924365 24205 net.cpp:141] Setting up drop1_gender
I1013 18:15:36.924373 24205 net.cpp:148] Top shape: 100 512 (51200)
I1013 18:15:36.924377 24205 net.cpp:156] Memory required for data: 3683949600
I1013 18:15:36.924381 24205 layer_factory.hpp:77] Creating layer fc2_gender
I1013 18:15:36.924391 24205 net.cpp:91] Creating Layer fc2_gender
I1013 18:15:36.924396 24205 net.cpp:425] fc2_gender <- fc1_gender
I1013 18:15:36.924403 24205 net.cpp:399] fc2_gender -> fc2_gender
I1013 18:15:36.927285 24205 net.cpp:141] Setting up fc2_gender
I1013 18:15:36.927302 24205 net.cpp:148] Top shape: 100 512 (51200)
I1013 18:15:36.927307 24205 net.cpp:156] Memory required for data: 3684154400
I1013 18:15:36.927315 24205 layer_factory.hpp:77] Creating layer relu2_gender
I1013 18:15:36.927325 24205 net.cpp:91] Creating Layer relu2_gender
I1013 18:15:36.927330 24205 net.cpp:425] relu2_gender <- fc2_gender
I1013 18:15:36.927337 24205 net.cpp:386] relu2_gender -> fc2_gender (in-place)
I1013 18:15:36.927346 24205 net.cpp:141] Setting up relu2_gender
I1013 18:15:36.927351 24205 net.cpp:148] Top shape: 100 512 (51200)
I1013 18:15:36.927356 24205 net.cpp:156] Memory required for data: 3684359200
I1013 18:15:36.927359 24205 layer_factory.hpp:77] Creating layer drop2_gender
I1013 18:15:36.927367 24205 net.cpp:91] Creating Layer drop2_gender
I1013 18:15:36.927372 24205 net.cpp:425] drop2_gender <- fc2_gender
I1013 18:15:36.927378 24205 net.cpp:386] drop2_gender -> fc2_gender (in-place)
I1013 18:15:36.927404 24205 net.cpp:141] Setting up drop2_gender
I1013 18:15:36.927413 24205 net.cpp:148] Top shape: 100 512 (51200)
I1013 18:15:36.927417 24205 net.cpp:156] Memory required for data: 3684564000
I1013 18:15:36.927423 24205 layer_factory.hpp:77] Creating layer fc2_gender_drop2_gender_0_split
I1013 18:15:36.927446 24205 net.cpp:91] Creating Layer fc2_gender_drop2_gender_0_split
I1013 18:15:36.927451 24205 net.cpp:425] fc2_gender_drop2_gender_0_split <- fc2_gender
I1013 18:15:36.927459 24205 net.cpp:399] fc2_gender_drop2_gender_0_split -> fc2_gender_drop2_gender_0_split_0
I1013 18:15:36.927467 24205 net.cpp:399] fc2_gender_drop2_gender_0_split -> fc2_gender_drop2_gender_0_split_1
I1013 18:15:36.927506 24205 net.cpp:141] Setting up fc2_gender_drop2_gender_0_split
I1013 18:15:36.927515 24205 net.cpp:148] Top shape: 100 512 (51200)
I1013 18:15:36.927521 24205 net.cpp:148] Top shape: 100 512 (51200)
I1013 18:15:36.927525 24205 net.cpp:156] Memory required for data: 3684973600
I1013 18:15:36.927530 24205 layer_factory.hpp:77] Creating layer conv3_nose
I1013 18:15:36.927541 24205 net.cpp:91] Creating Layer conv3_nose
I1013 18:15:36.927551 24205 net.cpp:425] conv3_nose <- pool3_pool3_0_split_1
I1013 18:15:36.927559 24205 net.cpp:399] conv3_nose -> conv3_nose
I1013 18:15:36.938081 24205 net.cpp:141] Setting up conv3_nose
I1013 18:15:36.938100 24205 net.cpp:148] Top shape: 100 300 7 7 (1470000)
I1013 18:15:36.938105 24205 net.cpp:156] Memory required for data: 3690853600
I1013 18:15:36.938114 24205 layer_factory.hpp:77] Creating layer conv3_nose_bn
I1013 18:15:36.938123 24205 net.cpp:91] Creating Layer conv3_nose_bn
I1013 18:15:36.938129 24205 net.cpp:425] conv3_nose_bn <- conv3_nose
I1013 18:15:36.938136 24205 net.cpp:386] conv3_nose_bn -> conv3_nose (in-place)
I1013 18:15:36.938347 24205 net.cpp:141] Setting up conv3_nose_bn
I1013 18:15:36.938359 24205 net.cpp:148] Top shape: 100 300 7 7 (1470000)
I1013 18:15:36.938364 24205 net.cpp:156] Memory required for data: 3696733600
I1013 18:15:36.938374 24205 layer_factory.hpp:77] Creating layer conv3_nose_scale
I1013 18:15:36.938383 24205 net.cpp:91] Creating Layer conv3_nose_scale
I1013 18:15:36.938393 24205 net.cpp:425] conv3_nose_scale <- conv3_nose
I1013 18:15:36.938400 24205 net.cpp:386] conv3_nose_scale -> conv3_nose (in-place)
I1013 18:15:36.938446 24205 layer_factory.hpp:77] Creating layer conv3_nose_scale
I1013 18:15:36.938570 24205 net.cpp:141] Setting up conv3_nose_scale
I1013 18:15:36.938580 24205 net.cpp:148] Top shape: 100 300 7 7 (1470000)
I1013 18:15:36.938585 24205 net.cpp:156] Memory required for data: 3702613600
I1013 18:15:36.938591 24205 layer_factory.hpp:77] Creating layer prelu3_nose
I1013 18:15:36.938599 24205 net.cpp:91] Creating Layer prelu3_nose
I1013 18:15:36.938604 24205 net.cpp:425] prelu3_nose <- conv3_nose
I1013 18:15:36.938611 24205 net.cpp:386] prelu3_nose -> conv3_nose (in-place)
I1013 18:15:36.938724 24205 net.cpp:141] Setting up prelu3_nose
I1013 18:15:36.938735 24205 net.cpp:148] Top shape: 100 300 7 7 (1470000)
I1013 18:15:36.938738 24205 net.cpp:156] Memory required for data: 3708493600
I1013 18:15:36.938745 24205 layer_factory.hpp:77] Creating layer pool3_nose
I1013 18:15:36.938753 24205 net.cpp:91] Creating Layer pool3_nose
I1013 18:15:36.938758 24205 net.cpp:425] pool3_nose <- conv3_nose
I1013 18:15:36.938766 24205 net.cpp:399] pool3_nose -> pool3_nose
I1013 18:15:36.938807 24205 net.cpp:141] Setting up pool3_nose
I1013 18:15:36.938814 24205 net.cpp:148] Top shape: 100 300 4 4 (480000)
I1013 18:15:36.938819 24205 net.cpp:156] Memory required for data: 3710413600
I1013 18:15:36.938823 24205 layer_factory.hpp:77] Creating layer fc1_nose
I1013 18:15:36.938832 24205 net.cpp:91] Creating Layer fc1_nose
I1013 18:15:36.938838 24205 net.cpp:425] fc1_nose <- pool3_nose
I1013 18:15:36.938846 24205 net.cpp:399] fc1_nose -> fc1_nose
I1013 18:15:36.963032 24205 net.cpp:141] Setting up fc1_nose
I1013 18:15:36.963055 24205 net.cpp:148] Top shape: 100 512 (51200)
I1013 18:15:36.963060 24205 net.cpp:156] Memory required for data: 3710618400
I1013 18:15:36.963069 24205 layer_factory.hpp:77] Creating layer relu1_nose
I1013 18:15:36.963079 24205 net.cpp:91] Creating Layer relu1_nose
I1013 18:15:36.963085 24205 net.cpp:425] relu1_nose <- fc1_nose
I1013 18:15:36.963093 24205 net.cpp:386] relu1_nose -> fc1_nose (in-place)
I1013 18:15:36.963102 24205 net.cpp:141] Setting up relu1_nose
I1013 18:15:36.963131 24205 net.cpp:148] Top shape: 100 512 (51200)
I1013 18:15:36.963136 24205 net.cpp:156] Memory required for data: 3710823200
I1013 18:15:36.963140 24205 layer_factory.hpp:77] Creating layer drop1_nose
I1013 18:15:36.963150 24205 net.cpp:91] Creating Layer drop1_nose
I1013 18:15:36.963155 24205 net.cpp:425] drop1_nose <- fc1_nose
I1013 18:15:36.963161 24205 net.cpp:386] drop1_nose -> fc1_nose (in-place)
I1013 18:15:36.963191 24205 net.cpp:141] Setting up drop1_nose
I1013 18:15:36.963198 24205 net.cpp:148] Top shape: 100 512 (51200)
I1013 18:15:36.963203 24205 net.cpp:156] Memory required for data: 3711028000
I1013 18:15:36.963207 24205 layer_factory.hpp:77] Creating layer fc2_nose
I1013 18:15:36.963217 24205 net.cpp:91] Creating Layer fc2_nose
I1013 18:15:36.963222 24205 net.cpp:425] fc2_nose <- fc1_nose
I1013 18:15:36.963229 24205 net.cpp:399] fc2_nose -> fc2_nose
I1013 18:15:36.966142 24205 net.cpp:141] Setting up fc2_nose
I1013 18:15:36.966159 24205 net.cpp:148] Top shape: 100 512 (51200)
I1013 18:15:36.966164 24205 net.cpp:156] Memory required for data: 3711232800
I1013 18:15:36.966173 24205 layer_factory.hpp:77] Creating layer relu2_nose
I1013 18:15:36.966181 24205 net.cpp:91] Creating Layer relu2_nose
I1013 18:15:36.966187 24205 net.cpp:425] relu2_nose <- fc2_nose
I1013 18:15:36.966193 24205 net.cpp:386] relu2_nose -> fc2_nose (in-place)
I1013 18:15:36.966207 24205 net.cpp:141] Setting up relu2_nose
I1013 18:15:36.966213 24205 net.cpp:148] Top shape: 100 512 (51200)
I1013 18:15:36.966217 24205 net.cpp:156] Memory required for data: 3711437600
I1013 18:15:36.966223 24205 layer_factory.hpp:77] Creating layer drop2_nose
I1013 18:15:36.966229 24205 net.cpp:91] Creating Layer drop2_nose
I1013 18:15:36.966234 24205 net.cpp:425] drop2_nose <- fc2_nose
I1013 18:15:36.966240 24205 net.cpp:386] drop2_nose -> fc2_nose (in-place)
I1013 18:15:36.966266 24205 net.cpp:141] Setting up drop2_nose
I1013 18:15:36.966276 24205 net.cpp:148] Top shape: 100 512 (51200)
I1013 18:15:36.966280 24205 net.cpp:156] Memory required for data: 3711642400
I1013 18:15:36.966284 24205 layer_factory.hpp:77] Creating layer fc2_nose_drop2_nose_0_split
I1013 18:15:36.966292 24205 net.cpp:91] Creating Layer fc2_nose_drop2_nose_0_split
I1013 18:15:36.966297 24205 net.cpp:425] fc2_nose_drop2_nose_0_split <- fc2_nose
I1013 18:15:36.966305 24205 net.cpp:399] fc2_nose_drop2_nose_0_split -> fc2_nose_drop2_nose_0_split_0
I1013 18:15:36.966313 24205 net.cpp:399] fc2_nose_drop2_nose_0_split -> fc2_nose_drop2_nose_0_split_1
I1013 18:15:36.966322 24205 net.cpp:399] fc2_nose_drop2_nose_0_split -> fc2_nose_drop2_nose_0_split_2
I1013 18:15:36.966375 24205 net.cpp:141] Setting up fc2_nose_drop2_nose_0_split
I1013 18:15:36.966383 24205 net.cpp:148] Top shape: 100 512 (51200)
I1013 18:15:36.966388 24205 net.cpp:148] Top shape: 100 512 (51200)
I1013 18:15:36.966393 24205 net.cpp:148] Top shape: 100 512 (51200)
I1013 18:15:36.966398 24205 net.cpp:156] Memory required for data: 3712256800
I1013 18:15:36.966403 24205 layer_factory.hpp:77] Creating layer conv3_mouth
I1013 18:15:36.966414 24205 net.cpp:91] Creating Layer conv3_mouth
I1013 18:15:36.966426 24205 net.cpp:425] conv3_mouth <- pool3_pool3_0_split_2
I1013 18:15:36.966435 24205 net.cpp:399] conv3_mouth -> conv3_mouth
I1013 18:15:36.976969 24205 net.cpp:141] Setting up conv3_mouth
I1013 18:15:36.976989 24205 net.cpp:148] Top shape: 100 300 7 7 (1470000)
I1013 18:15:36.976995 24205 net.cpp:156] Memory required for data: 3718136800
I1013 18:15:36.977020 24205 layer_factory.hpp:77] Creating layer conv3_mouth_bn
I1013 18:15:36.977030 24205 net.cpp:91] Creating Layer conv3_mouth_bn
I1013 18:15:36.977035 24205 net.cpp:425] conv3_mouth_bn <- conv3_mouth
I1013 18:15:36.977042 24205 net.cpp:386] conv3_mouth_bn -> conv3_mouth (in-place)
I1013 18:15:36.977249 24205 net.cpp:141] Setting up conv3_mouth_bn
I1013 18:15:36.977259 24205 net.cpp:148] Top shape: 100 300 7 7 (1470000)
I1013 18:15:36.977264 24205 net.cpp:156] Memory required for data: 3724016800
I1013 18:15:36.977277 24205 layer_factory.hpp:77] Creating layer conv3_mouth_scale
I1013 18:15:36.977299 24205 net.cpp:91] Creating Layer conv3_mouth_scale
I1013 18:15:36.977305 24205 net.cpp:425] conv3_mouth_scale <- conv3_mouth
I1013 18:15:36.977313 24205 net.cpp:386] conv3_mouth_scale -> conv3_mouth (in-place)
I1013 18:15:36.977362 24205 layer_factory.hpp:77] Creating layer conv3_mouth_scale
I1013 18:15:36.977489 24205 net.cpp:141] Setting up conv3_mouth_scale
I1013 18:15:36.977499 24205 net.cpp:148] Top shape: 100 300 7 7 (1470000)
I1013 18:15:36.977504 24205 net.cpp:156] Memory required for data: 3729896800
I1013 18:15:36.977511 24205 layer_factory.hpp:77] Creating layer prelu3_mouth
I1013 18:15:36.977524 24205 net.cpp:91] Creating Layer prelu3_mouth
I1013 18:15:36.977530 24205 net.cpp:425] prelu3_mouth <- conv3_mouth
I1013 18:15:36.977536 24205 net.cpp:386] prelu3_mouth -> conv3_mouth (in-place)
I1013 18:15:36.977650 24205 net.cpp:141] Setting up prelu3_mouth
I1013 18:15:36.977660 24205 net.cpp:148] Top shape: 100 300 7 7 (1470000)
I1013 18:15:36.977664 24205 net.cpp:156] Memory required for data: 3735776800
I1013 18:15:36.977670 24205 layer_factory.hpp:77] Creating layer pool3_mouth
I1013 18:15:36.977679 24205 net.cpp:91] Creating Layer pool3_mouth
I1013 18:15:36.977684 24205 net.cpp:425] pool3_mouth <- conv3_mouth
I1013 18:15:36.977691 24205 net.cpp:399] pool3_mouth -> pool3_mouth
I1013 18:15:36.977732 24205 net.cpp:141] Setting up pool3_mouth
I1013 18:15:36.977741 24205 net.cpp:148] Top shape: 100 300 4 4 (480000)
I1013 18:15:36.977746 24205 net.cpp:156] Memory required for data: 3737696800
I1013 18:15:36.977751 24205 layer_factory.hpp:77] Creating layer fc1_mouth
I1013 18:15:36.977759 24205 net.cpp:91] Creating Layer fc1_mouth
I1013 18:15:36.977769 24205 net.cpp:425] fc1_mouth <- pool3_mouth
I1013 18:15:36.977777 24205 net.cpp:399] fc1_mouth -> fc1_mouth
I1013 18:15:37.001981 24205 net.cpp:141] Setting up fc1_mouth
I1013 18:15:37.002005 24205 net.cpp:148] Top shape: 100 512 (51200)
I1013 18:15:37.002010 24205 net.cpp:156] Memory required for data: 3737901600
I1013 18:15:37.002019 24205 layer_factory.hpp:77] Creating layer relu1_mouth
I1013 18:15:37.002029 24205 net.cpp:91] Creating Layer relu1_mouth
I1013 18:15:37.002035 24205 net.cpp:425] relu1_mouth <- fc1_mouth
I1013 18:15:37.002043 24205 net.cpp:386] relu1_mouth -> fc1_mouth (in-place)
I1013 18:15:37.002051 24205 net.cpp:141] Setting up relu1_mouth
I1013 18:15:37.002058 24205 net.cpp:148] Top shape: 100 512 (51200)
I1013 18:15:37.002061 24205 net.cpp:156] Memory required for data: 3738106400
I1013 18:15:37.002065 24205 layer_factory.hpp:77] Creating layer drop1_mouth
I1013 18:15:37.002074 24205 net.cpp:91] Creating Layer drop1_mouth
I1013 18:15:37.002079 24205 net.cpp:425] drop1_mouth <- fc1_mouth
I1013 18:15:37.002084 24205 net.cpp:386] drop1_mouth -> fc1_mouth (in-place)
I1013 18:15:37.002112 24205 net.cpp:141] Setting up drop1_mouth
I1013 18:15:37.002121 24205 net.cpp:148] Top shape: 100 512 (51200)
I1013 18:15:37.002126 24205 net.cpp:156] Memory required for data: 3738311200
I1013 18:15:37.002130 24205 layer_factory.hpp:77] Creating layer fc2_mouth
I1013 18:15:37.002141 24205 net.cpp:91] Creating Layer fc2_mouth
I1013 18:15:37.002159 24205 net.cpp:425] fc2_mouth <- fc1_mouth
I1013 18:15:37.002168 24205 net.cpp:399] fc2_mouth -> fc2_mouth
I1013 18:15:37.005053 24205 net.cpp:141] Setting up fc2_mouth
I1013 18:15:37.005069 24205 net.cpp:148] Top shape: 100 512 (51200)
I1013 18:15:37.005074 24205 net.cpp:156] Memory required for data: 3738516000
I1013 18:15:37.005084 24205 layer_factory.hpp:77] Creating layer relu2_mouth
I1013 18:15:37.005091 24205 net.cpp:91] Creating Layer relu2_mouth
I1013 18:15:37.005096 24205 net.cpp:425] relu2_mouth <- fc2_mouth
I1013 18:15:37.005105 24205 net.cpp:386] relu2_mouth -> fc2_mouth (in-place)
I1013 18:15:37.005112 24205 net.cpp:141] Setting up relu2_mouth
I1013 18:15:37.005117 24205 net.cpp:148] Top shape: 100 512 (51200)
I1013 18:15:37.005121 24205 net.cpp:156] Memory required for data: 3738720800
I1013 18:15:37.005126 24205 layer_factory.hpp:77] Creating layer drop2_mouth
I1013 18:15:37.005147 24205 net.cpp:91] Creating Layer drop2_mouth
I1013 18:15:37.005153 24205 net.cpp:425] drop2_mouth <- fc2_mouth
I1013 18:15:37.005161 24205 net.cpp:386] drop2_mouth -> fc2_mouth (in-place)
I1013 18:15:37.005187 24205 net.cpp:141] Setting up drop2_mouth
I1013 18:15:37.005198 24205 net.cpp:148] Top shape: 100 512 (51200)
I1013 18:15:37.005203 24205 net.cpp:156] Memory required for data: 3738925600
I1013 18:15:37.005206 24205 layer_factory.hpp:77] Creating layer fc2_mouth_drop2_mouth_0_split
I1013 18:15:37.005214 24205 net.cpp:91] Creating Layer fc2_mouth_drop2_mouth_0_split
I1013 18:15:37.005220 24205 net.cpp:425] fc2_mouth_drop2_mouth_0_split <- fc2_mouth
I1013 18:15:37.005228 24205 net.cpp:399] fc2_mouth_drop2_mouth_0_split -> fc2_mouth_drop2_mouth_0_split_0
I1013 18:15:37.005239 24205 net.cpp:399] fc2_mouth_drop2_mouth_0_split -> fc2_mouth_drop2_mouth_0_split_1
I1013 18:15:37.005247 24205 net.cpp:399] fc2_mouth_drop2_mouth_0_split -> fc2_mouth_drop2_mouth_0_split_2
I1013 18:15:37.005255 24205 net.cpp:399] fc2_mouth_drop2_mouth_0_split -> fc2_mouth_drop2_mouth_0_split_3
I1013 18:15:37.005264 24205 net.cpp:399] fc2_mouth_drop2_mouth_0_split -> fc2_mouth_drop2_mouth_0_split_4
I1013 18:15:37.005349 24205 net.cpp:141] Setting up fc2_mouth_drop2_mouth_0_split
I1013 18:15:37.005358 24205 net.cpp:148] Top shape: 100 512 (51200)
I1013 18:15:37.005363 24205 net.cpp:148] Top shape: 100 512 (51200)
I1013 18:15:37.005368 24205 net.cpp:148] Top shape: 100 512 (51200)
I1013 18:15:37.005373 24205 net.cpp:148] Top shape: 100 512 (51200)
I1013 18:15:37.005378 24205 net.cpp:148] Top shape: 100 512 (51200)
I1013 18:15:37.005383 24205 net.cpp:156] Memory required for data: 3739949600
I1013 18:15:37.005388 24205 layer_factory.hpp:77] Creating layer conv3_eyes
I1013 18:15:37.005399 24205 net.cpp:91] Creating Layer conv3_eyes
I1013 18:15:37.005405 24205 net.cpp:425] conv3_eyes <- pool3_pool3_0_split_3
I1013 18:15:37.005414 24205 net.cpp:399] conv3_eyes -> conv3_eyes
I1013 18:15:37.015938 24205 net.cpp:141] Setting up conv3_eyes
I1013 18:15:37.015956 24205 net.cpp:148] Top shape: 100 300 7 7 (1470000)
I1013 18:15:37.015962 24205 net.cpp:156] Memory required for data: 3745829600
I1013 18:15:37.015971 24205 layer_factory.hpp:77] Creating layer conv3_eyes_bn
I1013 18:15:37.015995 24205 net.cpp:91] Creating Layer conv3_eyes_bn
I1013 18:15:37.016003 24205 net.cpp:425] conv3_eyes_bn <- conv3_eyes
I1013 18:15:37.016011 24205 net.cpp:386] conv3_eyes_bn -> conv3_eyes (in-place)
I1013 18:15:37.016218 24205 net.cpp:141] Setting up conv3_eyes_bn
I1013 18:15:37.016228 24205 net.cpp:148] Top shape: 100 300 7 7 (1470000)
I1013 18:15:37.016233 24205 net.cpp:156] Memory required for data: 3751709600
I1013 18:15:37.016244 24205 layer_factory.hpp:77] Creating layer conv3_eyes_scale
I1013 18:15:37.016258 24205 net.cpp:91] Creating Layer conv3_eyes_scale
I1013 18:15:37.016266 24205 net.cpp:425] conv3_eyes_scale <- conv3_eyes
I1013 18:15:37.016273 24205 net.cpp:386] conv3_eyes_scale -> conv3_eyes (in-place)
I1013 18:15:37.016319 24205 layer_factory.hpp:77] Creating layer conv3_eyes_scale
I1013 18:15:37.016448 24205 net.cpp:141] Setting up conv3_eyes_scale
I1013 18:15:37.016458 24205 net.cpp:148] Top shape: 100 300 7 7 (1470000)
I1013 18:15:37.016463 24205 net.cpp:156] Memory required for data: 3757589600
I1013 18:15:37.016469 24205 layer_factory.hpp:77] Creating layer prelu3_eyes
I1013 18:15:37.016479 24205 net.cpp:91] Creating Layer prelu3_eyes
I1013 18:15:37.016482 24205 net.cpp:425] prelu3_eyes <- conv3_eyes
I1013 18:15:37.016490 24205 net.cpp:386] prelu3_eyes -> conv3_eyes (in-place)
I1013 18:15:37.016610 24205 net.cpp:141] Setting up prelu3_eyes
I1013 18:15:37.016620 24205 net.cpp:148] Top shape: 100 300 7 7 (1470000)
I1013 18:15:37.016624 24205 net.cpp:156] Memory required for data: 3763469600
I1013 18:15:37.016631 24205 layer_factory.hpp:77] Creating layer pool3_eyes
I1013 18:15:37.016639 24205 net.cpp:91] Creating Layer pool3_eyes
I1013 18:15:37.016644 24205 net.cpp:425] pool3_eyes <- conv3_eyes
I1013 18:15:37.016652 24205 net.cpp:399] pool3_eyes -> pool3_eyes
I1013 18:15:37.016710 24205 net.cpp:141] Setting up pool3_eyes
I1013 18:15:37.016719 24205 net.cpp:148] Top shape: 100 300 4 4 (480000)
I1013 18:15:37.016724 24205 net.cpp:156] Memory required for data: 3765389600
I1013 18:15:37.016728 24205 layer_factory.hpp:77] Creating layer fc1_eyes
I1013 18:15:37.016738 24205 net.cpp:91] Creating Layer fc1_eyes
I1013 18:15:37.016744 24205 net.cpp:425] fc1_eyes <- pool3_eyes
I1013 18:15:37.016753 24205 net.cpp:399] fc1_eyes -> fc1_eyes
I1013 18:15:37.040941 24205 net.cpp:141] Setting up fc1_eyes
I1013 18:15:37.040961 24205 net.cpp:148] Top shape: 100 512 (51200)
I1013 18:15:37.040967 24205 net.cpp:156] Memory required for data: 3765594400
I1013 18:15:37.040976 24205 layer_factory.hpp:77] Creating layer relu1_eyes
I1013 18:15:37.040985 24205 net.cpp:91] Creating Layer relu1_eyes
I1013 18:15:37.040990 24205 net.cpp:425] relu1_eyes <- fc1_eyes
I1013 18:15:37.040998 24205 net.cpp:386] relu1_eyes -> fc1_eyes (in-place)
I1013 18:15:37.041008 24205 net.cpp:141] Setting up relu1_eyes
I1013 18:15:37.041014 24205 net.cpp:148] Top shape: 100 512 (51200)
I1013 18:15:37.041018 24205 net.cpp:156] Memory required for data: 3765799200
I1013 18:15:37.041023 24205 layer_factory.hpp:77] Creating layer drop1_eyes
I1013 18:15:37.041030 24205 net.cpp:91] Creating Layer drop1_eyes
I1013 18:15:37.041035 24205 net.cpp:425] drop1_eyes <- fc1_eyes
I1013 18:15:37.041043 24205 net.cpp:386] drop1_eyes -> fc1_eyes (in-place)
I1013 18:15:37.041069 24205 net.cpp:141] Setting up drop1_eyes
I1013 18:15:37.041079 24205 net.cpp:148] Top shape: 100 512 (51200)
I1013 18:15:37.041084 24205 net.cpp:156] Memory required for data: 3766004000
I1013 18:15:37.041087 24205 layer_factory.hpp:77] Creating layer fc2_eyes
I1013 18:15:37.041097 24205 net.cpp:91] Creating Layer fc2_eyes
I1013 18:15:37.041101 24205 net.cpp:425] fc2_eyes <- fc1_eyes
I1013 18:15:37.041110 24205 net.cpp:399] fc2_eyes -> fc2_eyes
I1013 18:15:37.044000 24205 net.cpp:141] Setting up fc2_eyes
I1013 18:15:37.044018 24205 net.cpp:148] Top shape: 100 512 (51200)
I1013 18:15:37.044023 24205 net.cpp:156] Memory required for data: 3766208800
I1013 18:15:37.044031 24205 layer_factory.hpp:77] Creating layer relu2_eyes
I1013 18:15:37.044040 24205 net.cpp:91] Creating Layer relu2_eyes
I1013 18:15:37.044045 24205 net.cpp:425] relu2_eyes <- fc2_eyes
I1013 18:15:37.044054 24205 net.cpp:386] relu2_eyes -> fc2_eyes (in-place)
I1013 18:15:37.044061 24205 net.cpp:141] Setting up relu2_eyes
I1013 18:15:37.044067 24205 net.cpp:148] Top shape: 100 512 (51200)
I1013 18:15:37.044071 24205 net.cpp:156] Memory required for data: 3766413600
I1013 18:15:37.044076 24205 layer_factory.hpp:77] Creating layer drop2_eyes
I1013 18:15:37.044085 24205 net.cpp:91] Creating Layer drop2_eyes
I1013 18:15:37.044090 24205 net.cpp:425] drop2_eyes <- fc2_eyes
I1013 18:15:37.044095 24205 net.cpp:386] drop2_eyes -> fc2_eyes (in-place)
I1013 18:15:37.044122 24205 net.cpp:141] Setting up drop2_eyes
I1013 18:15:37.044131 24205 net.cpp:148] Top shape: 100 512 (51200)
I1013 18:15:37.044137 24205 net.cpp:156] Memory required for data: 3766618400
I1013 18:15:37.044140 24205 layer_factory.hpp:77] Creating layer fc2_eyes_drop2_eyes_0_split
I1013 18:15:37.044148 24205 net.cpp:91] Creating Layer fc2_eyes_drop2_eyes_0_split
I1013 18:15:37.044153 24205 net.cpp:425] fc2_eyes_drop2_eyes_0_split <- fc2_eyes
I1013 18:15:37.044162 24205 net.cpp:399] fc2_eyes_drop2_eyes_0_split -> fc2_eyes_drop2_eyes_0_split_0
I1013 18:15:37.044172 24205 net.cpp:399] fc2_eyes_drop2_eyes_0_split -> fc2_eyes_drop2_eyes_0_split_1
I1013 18:15:37.044180 24205 net.cpp:399] fc2_eyes_drop2_eyes_0_split -> fc2_eyes_drop2_eyes_0_split_2
I1013 18:15:37.044189 24205 net.cpp:399] fc2_eyes_drop2_eyes_0_split -> fc2_eyes_drop2_eyes_0_split_3
I1013 18:15:37.044198 24205 net.cpp:399] fc2_eyes_drop2_eyes_0_split -> fc2_eyes_drop2_eyes_0_split_4
I1013 18:15:37.044212 24205 net.cpp:399] fc2_eyes_drop2_eyes_0_split -> fc2_eyes_drop2_eyes_0_split_5
I1013 18:15:37.044296 24205 net.cpp:141] Setting up fc2_eyes_drop2_eyes_0_split
I1013 18:15:37.044319 24205 net.cpp:148] Top shape: 100 512 (51200)
I1013 18:15:37.044327 24205 net.cpp:148] Top shape: 100 512 (51200)
I1013 18:15:37.044332 24205 net.cpp:148] Top shape: 100 512 (51200)
I1013 18:15:37.044337 24205 net.cpp:148] Top shape: 100 512 (51200)
I1013 18:15:37.044342 24205 net.cpp:148] Top shape: 100 512 (51200)
I1013 18:15:37.044345 24205 net.cpp:148] Top shape: 100 512 (51200)
I1013 18:15:37.044349 24205 net.cpp:156] Memory required for data: 3767847200
I1013 18:15:37.044354 24205 layer_factory.hpp:77] Creating layer conv3_face
I1013 18:15:37.044368 24205 net.cpp:91] Creating Layer conv3_face
I1013 18:15:37.044378 24205 net.cpp:425] conv3_face <- pool3_pool3_0_split_4
I1013 18:15:37.044386 24205 net.cpp:399] conv3_face -> conv3_face
I1013 18:15:37.054894 24205 net.cpp:141] Setting up conv3_face
I1013 18:15:37.054913 24205 net.cpp:148] Top shape: 100 300 7 7 (1470000)
I1013 18:15:37.054919 24205 net.cpp:156] Memory required for data: 3773727200
I1013 18:15:37.054926 24205 layer_factory.hpp:77] Creating layer conv3_face_bn
I1013 18:15:37.054935 24205 net.cpp:91] Creating Layer conv3_face_bn
I1013 18:15:37.054941 24205 net.cpp:425] conv3_face_bn <- conv3_face
I1013 18:15:37.054949 24205 net.cpp:386] conv3_face_bn -> conv3_face (in-place)
I1013 18:15:37.055161 24205 net.cpp:141] Setting up conv3_face_bn
I1013 18:15:37.055172 24205 net.cpp:148] Top shape: 100 300 7 7 (1470000)
I1013 18:15:37.055177 24205 net.cpp:156] Memory required for data: 3779607200
I1013 18:15:37.055187 24205 layer_factory.hpp:77] Creating layer conv3_face_scale
I1013 18:15:37.055197 24205 net.cpp:91] Creating Layer conv3_face_scale
I1013 18:15:37.055202 24205 net.cpp:425] conv3_face_scale <- conv3_face
I1013 18:15:37.055208 24205 net.cpp:386] conv3_face_scale -> conv3_face (in-place)
I1013 18:15:37.055255 24205 layer_factory.hpp:77] Creating layer conv3_face_scale
I1013 18:15:37.055385 24205 net.cpp:141] Setting up conv3_face_scale
I1013 18:15:37.055395 24205 net.cpp:148] Top shape: 100 300 7 7 (1470000)
I1013 18:15:37.055399 24205 net.cpp:156] Memory required for data: 3785487200
I1013 18:15:37.055408 24205 layer_factory.hpp:77] Creating layer prelu3_face
I1013 18:15:37.055416 24205 net.cpp:91] Creating Layer prelu3_face
I1013 18:15:37.055420 24205 net.cpp:425] prelu3_face <- conv3_face
I1013 18:15:37.055428 24205 net.cpp:386] prelu3_face -> conv3_face (in-place)
I1013 18:15:37.055549 24205 net.cpp:141] Setting up prelu3_face
I1013 18:15:37.055559 24205 net.cpp:148] Top shape: 100 300 7 7 (1470000)
I1013 18:15:37.055563 24205 net.cpp:156] Memory required for data: 3791367200
I1013 18:15:37.055569 24205 layer_factory.hpp:77] Creating layer pool3_face
I1013 18:15:37.055578 24205 net.cpp:91] Creating Layer pool3_face
I1013 18:15:37.055583 24205 net.cpp:425] pool3_face <- conv3_face
I1013 18:15:37.055591 24205 net.cpp:399] pool3_face -> pool3_face
I1013 18:15:37.055634 24205 net.cpp:141] Setting up pool3_face
I1013 18:15:37.055644 24205 net.cpp:148] Top shape: 100 300 4 4 (480000)
I1013 18:15:37.055647 24205 net.cpp:156] Memory required for data: 3793287200
I1013 18:15:37.055651 24205 layer_factory.hpp:77] Creating layer fc1_face
I1013 18:15:37.055660 24205 net.cpp:91] Creating Layer fc1_face
I1013 18:15:37.055665 24205 net.cpp:425] fc1_face <- pool3_face
I1013 18:15:37.055673 24205 net.cpp:399] fc1_face -> fc1_face
I1013 18:15:37.079962 24205 net.cpp:141] Setting up fc1_face
I1013 18:15:37.079983 24205 net.cpp:148] Top shape: 100 512 (51200)
I1013 18:15:37.079988 24205 net.cpp:156] Memory required for data: 3793492000
I1013 18:15:37.079998 24205 layer_factory.hpp:77] Creating layer relu1_face
I1013 18:15:37.080008 24205 net.cpp:91] Creating Layer relu1_face
I1013 18:15:37.080013 24205 net.cpp:425] relu1_face <- fc1_face
I1013 18:15:37.080020 24205 net.cpp:386] relu1_face -> fc1_face (in-place)
I1013 18:15:37.080030 24205 net.cpp:141] Setting up relu1_face
I1013 18:15:37.080036 24205 net.cpp:148] Top shape: 100 512 (51200)
I1013 18:15:37.080040 24205 net.cpp:156] Memory required for data: 3793696800
I1013 18:15:37.080044 24205 layer_factory.hpp:77] Creating layer drop1_face
I1013 18:15:37.080073 24205 net.cpp:91] Creating Layer drop1_face
I1013 18:15:37.080083 24205 net.cpp:425] drop1_face <- fc1_face
I1013 18:15:37.080091 24205 net.cpp:386] drop1_face -> fc1_face (in-place)
I1013 18:15:37.080121 24205 net.cpp:141] Setting up drop1_face
I1013 18:15:37.080130 24205 net.cpp:148] Top shape: 100 512 (51200)
I1013 18:15:37.080135 24205 net.cpp:156] Memory required for data: 3793901600
I1013 18:15:37.080139 24205 layer_factory.hpp:77] Creating layer fc2_face
I1013 18:15:37.080158 24205 net.cpp:91] Creating Layer fc2_face
I1013 18:15:37.080164 24205 net.cpp:425] fc2_face <- fc1_face
I1013 18:15:37.080173 24205 net.cpp:399] fc2_face -> fc2_face
I1013 18:15:37.083073 24205 net.cpp:141] Setting up fc2_face
I1013 18:15:37.083091 24205 net.cpp:148] Top shape: 100 512 (51200)
I1013 18:15:37.083096 24205 net.cpp:156] Memory required for data: 3794106400
I1013 18:15:37.083103 24205 layer_factory.hpp:77] Creating layer relu2_face
I1013 18:15:37.083112 24205 net.cpp:91] Creating Layer relu2_face
I1013 18:15:37.083117 24205 net.cpp:425] relu2_face <- fc2_face
I1013 18:15:37.083124 24205 net.cpp:386] relu2_face -> fc2_face (in-place)
I1013 18:15:37.083133 24205 net.cpp:141] Setting up relu2_face
I1013 18:15:37.083138 24205 net.cpp:148] Top shape: 100 512 (51200)
I1013 18:15:37.083142 24205 net.cpp:156] Memory required for data: 3794311200
I1013 18:15:37.083148 24205 layer_factory.hpp:77] Creating layer drop2_face
I1013 18:15:37.083154 24205 net.cpp:91] Creating Layer drop2_face
I1013 18:15:37.083159 24205 net.cpp:425] drop2_face <- fc2_face
I1013 18:15:37.083165 24205 net.cpp:386] drop2_face -> fc2_face (in-place)
I1013 18:15:37.083194 24205 net.cpp:141] Setting up drop2_face
I1013 18:15:37.083200 24205 net.cpp:148] Top shape: 100 512 (51200)
I1013 18:15:37.083204 24205 net.cpp:156] Memory required for data: 3794516000
I1013 18:15:37.083209 24205 layer_factory.hpp:77] Creating layer fc2_face_drop2_face_0_split
I1013 18:15:37.083216 24205 net.cpp:91] Creating Layer fc2_face_drop2_face_0_split
I1013 18:15:37.083221 24205 net.cpp:425] fc2_face_drop2_face_0_split <- fc2_face
I1013 18:15:37.083228 24205 net.cpp:399] fc2_face_drop2_face_0_split -> fc2_face_drop2_face_0_split_0
I1013 18:15:37.083238 24205 net.cpp:399] fc2_face_drop2_face_0_split -> fc2_face_drop2_face_0_split_1
I1013 18:15:37.083247 24205 net.cpp:399] fc2_face_drop2_face_0_split -> fc2_face_drop2_face_0_split_2
I1013 18:15:37.083256 24205 net.cpp:399] fc2_face_drop2_face_0_split -> fc2_face_drop2_face_0_split_3
I1013 18:15:37.083264 24205 net.cpp:399] fc2_face_drop2_face_0_split -> fc2_face_drop2_face_0_split_4
I1013 18:15:37.083273 24205 net.cpp:399] fc2_face_drop2_face_0_split -> fc2_face_drop2_face_0_split_5
I1013 18:15:37.083281 24205 net.cpp:399] fc2_face_drop2_face_0_split -> fc2_face_drop2_face_0_split_6
I1013 18:15:37.083376 24205 net.cpp:141] Setting up fc2_face_drop2_face_0_split
I1013 18:15:37.083385 24205 net.cpp:148] Top shape: 100 512 (51200)
I1013 18:15:37.083391 24205 net.cpp:148] Top shape: 100 512 (51200)
I1013 18:15:37.083396 24205 net.cpp:148] Top shape: 100 512 (51200)
I1013 18:15:37.083401 24205 net.cpp:148] Top shape: 100 512 (51200)
I1013 18:15:37.083406 24205 net.cpp:148] Top shape: 100 512 (51200)
I1013 18:15:37.083411 24205 net.cpp:148] Top shape: 100 512 (51200)
I1013 18:15:37.083416 24205 net.cpp:148] Top shape: 100 512 (51200)
I1013 18:15:37.083420 24205 net.cpp:156] Memory required for data: 3795949600
I1013 18:15:37.083425 24205 layer_factory.hpp:77] Creating layer conv3_rest
I1013 18:15:37.083443 24205 net.cpp:91] Creating Layer conv3_rest
I1013 18:15:37.083451 24205 net.cpp:425] conv3_rest <- pool3_pool3_0_split_5
I1013 18:15:37.083459 24205 net.cpp:399] conv3_rest -> conv3_rest
I1013 18:15:37.093998 24205 net.cpp:141] Setting up conv3_rest
I1013 18:15:37.094017 24205 net.cpp:148] Top shape: 100 300 7 7 (1470000)
I1013 18:15:37.094023 24205 net.cpp:156] Memory required for data: 3801829600
I1013 18:15:37.094032 24205 layer_factory.hpp:77] Creating layer conv3_rest_bn
I1013 18:15:37.094054 24205 net.cpp:91] Creating Layer conv3_rest_bn
I1013 18:15:37.094061 24205 net.cpp:425] conv3_rest_bn <- conv3_rest
I1013 18:15:37.094069 24205 net.cpp:386] conv3_rest_bn -> conv3_rest (in-place)
I1013 18:15:37.094293 24205 net.cpp:141] Setting up conv3_rest_bn
I1013 18:15:37.094305 24205 net.cpp:148] Top shape: 100 300 7 7 (1470000)
I1013 18:15:37.094310 24205 net.cpp:156] Memory required for data: 3807709600
I1013 18:15:37.094321 24205 layer_factory.hpp:77] Creating layer conv3_rest_scale
I1013 18:15:37.094328 24205 net.cpp:91] Creating Layer conv3_rest_scale
I1013 18:15:37.094338 24205 net.cpp:425] conv3_rest_scale <- conv3_rest
I1013 18:15:37.094346 24205 net.cpp:386] conv3_rest_scale -> conv3_rest (in-place)
I1013 18:15:37.094394 24205 layer_factory.hpp:77] Creating layer conv3_rest_scale
I1013 18:15:37.094528 24205 net.cpp:141] Setting up conv3_rest_scale
I1013 18:15:37.094538 24205 net.cpp:148] Top shape: 100 300 7 7 (1470000)
I1013 18:15:37.094542 24205 net.cpp:156] Memory required for data: 3813589600
I1013 18:15:37.094550 24205 layer_factory.hpp:77] Creating layer prelu3_rest
I1013 18:15:37.094558 24205 net.cpp:91] Creating Layer prelu3_rest
I1013 18:15:37.094563 24205 net.cpp:425] prelu3_rest <- conv3_rest
I1013 18:15:37.094569 24205 net.cpp:386] prelu3_rest -> conv3_rest (in-place)
I1013 18:15:37.094688 24205 net.cpp:141] Setting up prelu3_rest
I1013 18:15:37.094698 24205 net.cpp:148] Top shape: 100 300 7 7 (1470000)
I1013 18:15:37.094702 24205 net.cpp:156] Memory required for data: 3819469600
I1013 18:15:37.094708 24205 layer_factory.hpp:77] Creating layer pool3_rest
I1013 18:15:37.094717 24205 net.cpp:91] Creating Layer pool3_rest
I1013 18:15:37.094722 24205 net.cpp:425] pool3_rest <- conv3_rest
I1013 18:15:37.094729 24205 net.cpp:399] pool3_rest -> pool3_rest
I1013 18:15:37.094772 24205 net.cpp:141] Setting up pool3_rest
I1013 18:15:37.094781 24205 net.cpp:148] Top shape: 100 300 4 4 (480000)
I1013 18:15:37.094785 24205 net.cpp:156] Memory required for data: 3821389600
I1013 18:15:37.094789 24205 layer_factory.hpp:77] Creating layer pool3_rest_pool3_rest_0_split
I1013 18:15:37.094797 24205 net.cpp:91] Creating Layer pool3_rest_pool3_rest_0_split
I1013 18:15:37.094802 24205 net.cpp:425] pool3_rest_pool3_rest_0_split <- pool3_rest
I1013 18:15:37.094810 24205 net.cpp:399] pool3_rest_pool3_rest_0_split -> pool3_rest_pool3_rest_0_split_0
I1013 18:15:37.094820 24205 net.cpp:399] pool3_rest_pool3_rest_0_split -> pool3_rest_pool3_rest_0_split_1
I1013 18:15:37.094830 24205 net.cpp:399] pool3_rest_pool3_rest_0_split -> pool3_rest_pool3_rest_0_split_2
I1013 18:15:37.094840 24205 net.cpp:399] pool3_rest_pool3_rest_0_split -> pool3_rest_pool3_rest_0_split_3
I1013 18:15:37.094902 24205 net.cpp:141] Setting up pool3_rest_pool3_rest_0_split
I1013 18:15:37.094913 24205 net.cpp:148] Top shape: 100 300 4 4 (480000)
I1013 18:15:37.094918 24205 net.cpp:148] Top shape: 100 300 4 4 (480000)
I1013 18:15:37.094923 24205 net.cpp:148] Top shape: 100 300 4 4 (480000)
I1013 18:15:37.094928 24205 net.cpp:148] Top shape: 100 300 4 4 (480000)
I1013 18:15:37.094934 24205 net.cpp:156] Memory required for data: 3829069600
I1013 18:15:37.094938 24205 layer_factory.hpp:77] Creating layer fc1_aroundhead
I1013 18:15:37.094947 24205 net.cpp:91] Creating Layer fc1_aroundhead
I1013 18:15:37.094954 24205 net.cpp:425] fc1_aroundhead <- pool3_rest_pool3_rest_0_split_0
I1013 18:15:37.094961 24205 net.cpp:399] fc1_aroundhead -> fc1_aroundhead
I1013 18:15:37.118757 24205 net.cpp:141] Setting up fc1_aroundhead
I1013 18:15:37.118775 24205 net.cpp:148] Top shape: 100 512 (51200)
I1013 18:15:37.118780 24205 net.cpp:156] Memory required for data: 3829274400
I1013 18:15:37.118788 24205 layer_factory.hpp:77] Creating layer relu1_aroundhead
I1013 18:15:37.118798 24205 net.cpp:91] Creating Layer relu1_aroundhead
I1013 18:15:37.118803 24205 net.cpp:425] relu1_aroundhead <- fc1_aroundhead
I1013 18:15:37.118809 24205 net.cpp:386] relu1_aroundhead -> fc1_aroundhead (in-place)
I1013 18:15:37.118818 24205 net.cpp:141] Setting up relu1_aroundhead
I1013 18:15:37.118834 24205 net.cpp:148] Top shape: 100 512 (51200)
I1013 18:15:37.118839 24205 net.cpp:156] Memory required for data: 3829479200
I1013 18:15:37.118842 24205 layer_factory.hpp:77] Creating layer drop1_aroundhead
I1013 18:15:37.118850 24205 net.cpp:91] Creating Layer drop1_aroundhead
I1013 18:15:37.118855 24205 net.cpp:425] drop1_aroundhead <- fc1_aroundhead
I1013 18:15:37.118861 24205 net.cpp:386] drop1_aroundhead -> fc1_aroundhead (in-place)
I1013 18:15:37.118888 24205 net.cpp:141] Setting up drop1_aroundhead
I1013 18:15:37.118897 24205 net.cpp:148] Top shape: 100 512 (51200)
I1013 18:15:37.118901 24205 net.cpp:156] Memory required for data: 3829684000
I1013 18:15:37.118906 24205 layer_factory.hpp:77] Creating layer fc2_aroundhead
I1013 18:15:37.118914 24205 net.cpp:91] Creating Layer fc2_aroundhead
I1013 18:15:37.118918 24205 net.cpp:425] fc2_aroundhead <- fc1_aroundhead
I1013 18:15:37.118926 24205 net.cpp:399] fc2_aroundhead -> fc2_aroundhead
I1013 18:15:37.121526 24205 net.cpp:141] Setting up fc2_aroundhead
I1013 18:15:37.121542 24205 net.cpp:148] Top shape: 100 512 (51200)
I1013 18:15:37.121546 24205 net.cpp:156] Memory required for data: 3829888800
I1013 18:15:37.121554 24205 layer_factory.hpp:77] Creating layer relu2_aroundhead
I1013 18:15:37.121562 24205 net.cpp:91] Creating Layer relu2_aroundhead
I1013 18:15:37.121567 24205 net.cpp:425] relu2_aroundhead <- fc2_aroundhead
I1013 18:15:37.121573 24205 net.cpp:386] relu2_aroundhead -> fc2_aroundhead (in-place)
I1013 18:15:37.121583 24205 net.cpp:141] Setting up relu2_aroundhead
I1013 18:15:37.121588 24205 net.cpp:148] Top shape: 100 512 (51200)
I1013 18:15:37.121592 24205 net.cpp:156] Memory required for data: 3830093600
I1013 18:15:37.121597 24205 layer_factory.hpp:77] Creating layer drop2_aroundhead
I1013 18:15:37.121603 24205 net.cpp:91] Creating Layer drop2_aroundhead
I1013 18:15:37.121608 24205 net.cpp:425] drop2_aroundhead <- fc2_aroundhead
I1013 18:15:37.121613 24205 net.cpp:386] drop2_aroundhead -> fc2_aroundhead (in-place)
I1013 18:15:37.121639 24205 net.cpp:141] Setting up drop2_aroundhead
I1013 18:15:37.121647 24205 net.cpp:148] Top shape: 100 512 (51200)
I1013 18:15:37.121650 24205 net.cpp:156] Memory required for data: 3830298400
I1013 18:15:37.121654 24205 layer_factory.hpp:77] Creating layer fc2_aroundhead_drop2_aroundhead_0_split
I1013 18:15:37.121664 24205 net.cpp:91] Creating Layer fc2_aroundhead_drop2_aroundhead_0_split
I1013 18:15:37.121667 24205 net.cpp:425] fc2_aroundhead_drop2_aroundhead_0_split <- fc2_aroundhead
I1013 18:15:37.121675 24205 net.cpp:399] fc2_aroundhead_drop2_aroundhead_0_split -> fc2_aroundhead_drop2_aroundhead_0_split_0
…
I1013 18:15:37.121772 24205 net.cpp:399] fc2_aroundhead_drop2_aroundhead_0_split -> fc2_aroundhead_drop2_aroundhead_0_split_10
I1013 18:15:37.121783 24205 net.cpp:399] fc2_aroundhead_drop2_aroundhead_0_split -> fc2_aroundhead_drop2_aroundhead_0_split_11
I1013 18:15:37.121790 24205 net.cpp:399] fc2_aroundhead_drop2_aroundhead_0_split -> fc2_aroundhead_drop2_aroundhead_0_split_12
I1013 18:15:37.121811 24205 net.cpp:399] fc2_aroundhead_drop2_aroundhead_0_split -> fc2_aroundhead_drop2_aroundhead_0_split_13
I1013 18:15:37.121976 24205 net.cpp:141] Setting up fc2_aroundhead_drop2_aroundhead_0_split
I1013 18:15:37.121985 24205 net.cpp:148] Top shape: 100 512 (51200)
I1013 18:15:37.121990 24205 net.cpp:148] Top shape: 100 512 (51200)
I1013 18:15:37.121994 24205 net.cpp:148] Top shape: 100 512 (51200)
I1013 18:15:37.121999 24205 net.cpp:148] Top shape: 100 512 (51200)
I1013 18:15:37.122004 24205 net.cpp:148] Top shape: 100 512 (51200)
I1013 18:15:37.122007 24205 net.cpp:148] Top shape: 100 512 (51200)
I1013 18:15:37.122012 24205 net.cpp:148] Top shape: 100 512 (51200)
I1013 18:15:37.122016 24205 net.cpp:148] Top shape: 100 512 (51200)
I1013 18:15:37.122020 24205 net.cpp:148] Top shape: 100 512 (51200)
I1013 18:15:37.122025 24205 net.cpp:148] Top shape: 100 512 (51200)
I1013 18:15:37.122030 24205 net.cpp:148] Top shape: 100 512 (51200)
I1013 18:15:37.122035 24205 net.cpp:148] Top shape: 100 512 (51200)
I1013 18:15:37.122040 24205 net.cpp:148] Top shape: 100 512 (51200)
I1013 18:15:37.122045 24205 net.cpp:148] Top shape: 100 512 (51200)
I1013 18:15:37.122047 24205 net.cpp:156] Memory required for data: 3833165600
I1013 18:15:37.122051 24205 layer_factory.hpp:77] Creating layer fc1_facialhair
I1013 18:15:37.122061 24205 net.cpp:91] Creating Layer fc1_facialhair
I1013 18:15:37.122066 24205 net.cpp:425] fc1_facialhair <- pool3_rest_pool3_rest_0_split_1
I1013 18:15:37.122072 24205 net.cpp:399] fc1_facialhair -> fc1_facialhair
I1013 18:15:37.143682 24205 net.cpp:141] Setting up fc1_facialhair
I1013 18:15:37.143699 24205 net.cpp:148] Top shape: 100 512 (51200)
I1013 18:15:37.143704 24205 net.cpp:156] Memory required for data: 3833370400
I1013 18:15:37.143712 24205 layer_factory.hpp:77] Creating layer relu1_facialhair
I1013 18:15:37.143721 24205 net.cpp:91] Creating Layer relu1_facialhair
I1013 18:15:37.143726 24205 net.cpp:425] relu1_facialhair <- fc1_facialhair
I1013 18:15:37.143733 24205 net.cpp:386] relu1_facialhair -> fc1_facialhair (in-place)
I1013 18:15:37.143744 24205 net.cpp:141] Setting up relu1_facialhair
I1013 18:15:37.143749 24205 net.cpp:148] Top shape: 100 512 (51200)
I1013 18:15:37.143754 24205 net.cpp:156] Memory required for data: 3833575200
I1013 18:15:37.143756 24205 layer_factory.hpp:77] Creating layer drop1_facialhair
I1013 18:15:37.143764 24205 net.cpp:91] Creating Layer drop1_facialhair
I1013 18:15:37.143769 24205 net.cpp:425] drop1_facialhair <- fc1_facialhair
I1013 18:15:37.143774 24205 net.cpp:386] drop1_facialhair -> fc1_facialhair (in-place)
I1013 18:15:37.143800 24205 net.cpp:141] Setting up drop1_facialhair
I1013 18:15:37.143812 24205 net.cpp:148] Top shape: 100 512 (51200)
I1013 18:15:37.143817 24205 net.cpp:156] Memory required for data: 3833780000
I1013 18:15:37.143821 24205 layer_factory.hpp:77] Creating layer fc2_facialhair
I1013 18:15:37.143831 24205 net.cpp:91] Creating Layer fc2_facialhair
I1013 18:15:37.143836 24205 net.cpp:425] fc2_facialhair <- fc1_facialhair
I1013 18:15:37.143844 24205 net.cpp:399] fc2_facialhair -> fc2_facialhair
I1013 18:15:37.146443 24205 net.cpp:141] Setting up fc2_facialhair
I1013 18:15:37.146458 24205 net.cpp:148] Top shape: 100 512 (51200)
I1013 18:15:37.146462 24205 net.cpp:156] Memory required for data: 3833984800
I1013 18:15:37.146471 24205 layer_factory.hpp:77] Creating layer relu2_facialhair
I1013 18:15:37.146477 24205 net.cpp:91] Creating Layer relu2_facialhair
I1013 18:15:37.146482 24205 net.cpp:425] relu2_facialhair <- fc2_facialhair
I1013 18:15:37.146489 24205 net.cpp:386] relu2_facialhair -> fc2_facialhair (in-place)
I1013 18:15:37.146497 24205 net.cpp:141] Setting up relu2_facialhair
I1013 18:15:37.146502 24205 net.cpp:148] Top shape: 100 512 (51200)
I1013 18:15:37.146505 24205 net.cpp:156] Memory required for data: 3834189600
I1013 18:15:37.146509 24205 layer_factory.hpp:77] Creating layer drop2_facialhair
I1013 18:15:37.146517 24205 net.cpp:91] Creating Layer drop2_facialhair
I1013 18:15:37.146533 24205 net.cpp:425] drop2_facialhair <- fc2_facialhair
I1013 18:15:37.146540 24205 net.cpp:386] drop2_facialhair -> fc2_facialhair (in-place)
I1013 18:15:37.146567 24205 net.cpp:141] Setting up drop2_facialhair
I1013 18:15:37.146574 24205 net.cpp:148] Top shape: 100 512 (51200)
I1013 18:15:37.146577 24205 net.cpp:156] Memory required for data: 3834394400
I1013 18:15:37.146582 24205 layer_factory.hpp:77] Creating layer fc2_facialhair_drop2_facialhair_0_split
I1013 18:15:37.146590 24205 net.cpp:91] Creating Layer fc2_facialhair_drop2_facialhair_0_split
I1013 18:15:37.146595 24205 net.cpp:425] fc2_facialhair_drop2_facialhair_0_split <- fc2_facialhair
I1013 18:15:37.146601 24205 net.cpp:399] fc2_facialhair_drop2_facialhair_0_split -> fc2_facialhair_drop2_facialhair_0_split_0
I1013 18:15:37.146610 24205 net.cpp:399] fc2_facialhair_drop2_facialhair_0_split -> fc2_facialhair_drop2_facialhair_0_split_1
I1013 18:15:37.146617 24205 net.cpp:399] fc2_facialhair_drop2_facialhair_0_split -> fc2_facialhair_drop2_facialhair_0_split_2
I1013 18:15:37.146625 24205 net.cpp:399] fc2_facialhair_drop2_facialhair_0_split -> fc2_facialhair_drop2_facialhair_0_split_3
I1013 18:15:37.146647 24205 net.cpp:399] fc2_facialhair_drop2_facialhair_0_split -> fc2_facialhair_drop2_facialhair_0_split_4
I1013 18:15:37.146654 24205 net.cpp:399] fc2_facialhair_drop2_facialhair_0_split -> fc2_facialhair_drop2_facialhair_0_split_5
I1013 18:15:37.146734 24205 net.cpp:141] Setting up fc2_facialhair_drop2_facialhair_0_split
I1013 18:15:37.146749 24205 net.cpp:148] Top shape: 100 512 (51200)
I1013 18:15:37.146754 24205 net.cpp:148] Top shape: 100 512 (51200)
I1013 18:15:37.146757 24205 net.cpp:148] Top shape: 100 512 (51200)
I1013 18:15:37.146764 24205 net.cpp:148] Top shape: 100 512 (51200)
I1013 18:15:37.146769 24205 net.cpp:148] Top shape: 100 512 (51200)
I1013 18:15:37.146772 24205 net.cpp:148] Top shape: 100 512 (51200)
I1013 18:15:37.146776 24205 net.cpp:156] Memory required for data: 3835623200
I1013 18:15:37.146780 24205 layer_factory.hpp:77] Creating layer fc1_cheeks
I1013 18:15:37.146790 24205 net.cpp:91] Creating Layer fc1_cheeks
I1013 18:15:37.146795 24205 net.cpp:425] fc1_cheeks <- pool3_rest_pool3_rest_0_split_2
I1013 18:15:37.146802 24205 net.cpp:399] fc1_cheeks -> fc1_cheeks
I1013 18:15:37.168382 24205 net.cpp:141] Setting up fc1_cheeks
I1013 18:15:37.168401 24205 net.cpp:148] Top shape: 100 512 (51200)
I1013 18:15:37.168404 24205 net.cpp:156] Memory required for data: 3835828000
I1013 18:15:37.168412 24205 layer_factory.hpp:77] Creating layer relu1_cheeks
I1013 18:15:37.168421 24205 net.cpp:91] Creating Layer relu1_cheeks
I1013 18:15:37.168426 24205 net.cpp:425] relu1_cheeks <- fc1_cheeks
I1013 18:15:37.168433 24205 net.cpp:386] relu1_cheeks -> fc1_cheeks (in-place)
I1013 18:15:37.168440 24205 net.cpp:141] Setting up relu1_cheeks
I1013 18:15:37.168445 24205 net.cpp:148] Top shape: 100 512 (51200)
I1013 18:15:37.168449 24205 net.cpp:156] Memory required for data: 3836032800
I1013 18:15:37.168452 24205 layer_factory.hpp:77] Creating layer drop1_cheeks
I1013 18:15:37.168462 24205 net.cpp:91] Creating Layer drop1_cheeks
I1013 18:15:37.168467 24205 net.cpp:425] drop1_cheeks <- fc1_cheeks
I1013 18:15:37.168472 24205 net.cpp:386] drop1_cheeks -> fc1_cheeks (in-place)
I1013 18:15:37.168498 24205 net.cpp:141] Setting up drop1_cheeks
I1013 18:15:37.168504 24205 net.cpp:148] Top shape: 100 512 (51200)
I1013 18:15:37.168509 24205 net.cpp:156] Memory required for data: 3836237600
I1013 18:15:37.168512 24205 layer_factory.hpp:77] Creating layer fc2_cheeks
I1013 18:15:37.168520 24205 net.cpp:91] Creating Layer fc2_cheeks
I1013 18:15:37.168524 24205 net.cpp:425] fc2_cheeks <- fc1_cheeks
I1013 18:15:37.168532 24205 net.cpp:399] fc2_cheeks -> fc2_cheeks
I1013 18:15:37.171123 24205 net.cpp:141] Setting up fc2_cheeks
I1013 18:15:37.171138 24205 net.cpp:148] Top shape: 100 512 (51200)
I1013 18:15:37.171141 24205 net.cpp:156] Memory required for data: 3836442400
I1013 18:15:37.171149 24205 layer_factory.hpp:77] Creating layer relu2_cheeks
I1013 18:15:37.171167 24205 net.cpp:91] Creating Layer relu2_cheeks
I1013 18:15:37.171174 24205 net.cpp:425] relu2_cheeks <- fc2_cheeks
I1013 18:15:37.171180 24205 net.cpp:386] relu2_cheeks -> fc2_cheeks (in-place)
I1013 18:15:37.171188 24205 net.cpp:141] Setting up relu2_cheeks
I1013 18:15:37.171195 24205 net.cpp:148] Top shape: 100 512 (51200)
I1013 18:15:37.171200 24205 net.cpp:156] Memory required for data: 3836647200
I1013 18:15:37.171205 24205 layer_factory.hpp:77] Creating layer drop2_cheeks
I1013 18:15:37.171212 24205 net.cpp:91] Creating Layer drop2_cheeks
I1013 18:15:37.171216 24205 net.cpp:425] drop2_cheeks <- fc2_cheeks
I1013 18:15:37.171222 24205 net.cpp:386] drop2_cheeks -> fc2_cheeks (in-place)
I1013 18:15:37.171248 24205 net.cpp:141] Setting up drop2_cheeks
I1013 18:15:37.171255 24205 net.cpp:148] Top shape: 100 512 (51200)
I1013 18:15:37.171259 24205 net.cpp:156] Memory required for data: 3836852000
I1013 18:15:37.171263 24205 layer_factory.hpp:77] Creating layer fc2_cheeks_drop2_cheeks_0_split
I1013 18:15:37.171270 24205 net.cpp:91] Creating Layer fc2_cheeks_drop2_cheeks_0_split
I1013 18:15:37.171274 24205 net.cpp:425] fc2_cheeks_drop2_cheeks_0_split <- fc2_cheeks
I1013 18:15:37.171280 24205 net.cpp:399] fc2_cheeks_drop2_cheeks_0_split -> fc2_cheeks_drop2_cheeks_0_split_0
I1013 18:15:37.171288 24205 net.cpp:399] fc2_cheeks_drop2_cheeks_0_split -> fc2_cheeks_drop2_cheeks_0_split_1
I1013 18:15:37.171295 24205 net.cpp:399] fc2_cheeks_drop2_cheeks_0_split -> fc2_cheeks_drop2_cheeks_0_split_2
I1013 18:15:37.171341 24205 net.cpp:141] Setting up fc2_cheeks_drop2_cheeks_0_split
I1013 18:15:37.171349 24205 net.cpp:148] Top shape: 100 512 (51200)
I1013 18:15:37.171352 24205 net.cpp:148] Top shape: 100 512 (51200)
I1013 18:15:37.171357 24205 net.cpp:148] Top shape: 100 512 (51200)
I1013 18:15:37.171360 24205 net.cpp:156] Memory required for data: 3837466400
I1013 18:15:37.171365 24205 layer_factory.hpp:77] Creating layer fc1_fat
I1013 18:15:37.171372 24205 net.cpp:91] Creating Layer fc1_fat
I1013 18:15:37.171377 24205 net.cpp:425] fc1_fat <- pool3_rest_pool3_rest_0_split_3
I1013 18:15:37.171386 24205 net.cpp:399] fc1_fat -> fc1_fat
I1013 18:15:37.193100 24205 net.cpp:141] Setting up fc1_fat
I1013 18:15:37.193119 24205 net.cpp:148] Top shape: 100 512 (51200)
I1013 18:15:37.193123 24205 net.cpp:156] Memory required for data: 3837671200
I1013 18:15:37.193130 24205 layer_factory.hpp:77] Creating layer relu1_fat
I1013 18:15:37.193138 24205 net.cpp:91] Creating Layer relu1_fat
I1013 18:15:37.193143 24205 net.cpp:425] relu1_fat <- fc1_fat
I1013 18:15:37.193151 24205 net.cpp:386] relu1_fat -> fc1_fat (in-place)
I1013 18:15:37.193158 24205 net.cpp:141] Setting up relu1_fat
I1013 18:15:37.193163 24205 net.cpp:148] Top shape: 100 512 (51200)
I1013 18:15:37.193167 24205 net.cpp:156] Memory required for data: 3837876000
I1013 18:15:37.193171 24205 layer_factory.hpp:77] Creating layer drop1_fat
I1013 18:15:37.193179 24205 net.cpp:91] Creating Layer drop1_fat
I1013 18:15:37.193184 24205 net.cpp:425] drop1_fat <- fc1_fat
I1013 18:15:37.193191 24205 net.cpp:386] drop1_fat -> fc1_fat (in-place)
I1013 18:15:37.193217 24205 net.cpp:141] Setting up drop1_fat
I1013 18:15:37.193222 24205 net.cpp:148] Top shape: 100 512 (51200)
I1013 18:15:37.193226 24205 net.cpp:156] Memory required for data: 3838080800
I1013 18:15:37.193230 24205 layer_factory.hpp:77] Creating layer fc2_fat
I1013 18:15:37.193238 24205 net.cpp:91] Creating Layer fc2_fat
I1013 18:15:37.193243 24205 net.cpp:425] fc2_fat <- fc1_fat
I1013 18:15:37.193249 24205 net.cpp:399] fc2_fat -> fc2_fat
I1013 18:15:37.195840 24205 net.cpp:141] Setting up fc2_fat
I1013 18:15:37.195855 24205 net.cpp:148] Top shape: 100 512 (51200)
I1013 18:15:37.195860 24205 net.cpp:156] Memory required for data: 3838285600
I1013 18:15:37.195868 24205 layer_factory.hpp:77] Creating layer relu2_fat
I1013 18:15:37.195875 24205 net.cpp:91] Creating Layer relu2_fat
I1013 18:15:37.195880 24205 net.cpp:425] relu2_fat <- fc2_fat
I1013 18:15:37.195888 24205 net.cpp:386] relu2_fat -> fc2_fat (in-place)
I1013 18:15:37.195909 24205 net.cpp:141] Setting up relu2_fat
I1013 18:15:37.195914 24205 net.cpp:148] Top shape: 100 512 (51200)
I1013 18:15:37.195917 24205 net.cpp:156] Memory required for data: 3838490400
I1013 18:15:37.195921 24205 layer_factory.hpp:77] Creating layer drop2_fat
I1013 18:15:37.195929 24205 net.cpp:91] Creating Layer drop2_fat
I1013 18:15:37.195932 24205 net.cpp:425] drop2_fat <- fc2_fat
I1013 18:15:37.195938 24205 net.cpp:386] drop2_fat -> fc2_fat (in-place)
I1013 18:15:37.195966 24205 net.cpp:141] Setting up drop2_fat
I1013 18:15:37.195971 24205 net.cpp:148] Top shape: 100 512 (51200)
I1013 18:15:37.195976 24205 net.cpp:156] Memory required for data: 3838695200
I1013 18:15:37.195979 24205 layer_factory.hpp:77] Creating layer fc2_fat_drop2_fat_0_split
I1013 18:15:37.195986 24205 net.cpp:91] Creating Layer fc2_fat_drop2_fat_0_split
I1013 18:15:37.195991 24205 net.cpp:425] fc2_fat_drop2_fat_0_split <- fc2_fat
I1013 18:15:37.195996 24205 net.cpp:399] fc2_fat_drop2_fat_0_split -> fc2_fat_drop2_fat_0_split_0
I1013 18:15:37.196004 24205 net.cpp:399] fc2_fat_drop2_fat_0_split -> fc2_fat_drop2_fat_0_split_1
I1013 18:15:37.196012 24205 net.cpp:399] fc2_fat_drop2_fat_0_split -> fc2_fat_drop2_fat_0_split_2
I1013 18:15:37.196060 24205 net.cpp:141] Setting up fc2_fat_drop2_fat_0_split
I1013 18:15:37.196066 24205 net.cpp:148] Top shape: 100 512 (51200)
I1013 18:15:37.196071 24205 net.cpp:148] Top shape: 100 512 (51200)
I1013 18:15:37.196076 24205 net.cpp:148] Top shape: 100 512 (51200)
I1013 18:15:37.196079 24205 net.cpp:156] Memory required for data: 3839309600
I1013 18:15:37.196084 24205 layer_factory.hpp:77] Creating layer fc3_Male
I1013 18:15:37.196090 24205 net.cpp:91] Creating Layer fc3_Male
I1013 18:15:37.196095 24205 net.cpp:425] fc3_Male <- fc2_gender_drop2_gender_0_split_0
I1013 18:15:37.196104 24205 net.cpp:399] fc3_Male -> fc3_Male
I1013 18:15:37.196213 24205 net.cpp:141] Setting up fc3_Male
I1013 18:15:37.196223 24205 net.cpp:148] Top shape: 100 2 (200)
I1013 18:15:37.196228 24205 net.cpp:156] Memory required for data: 3839310400
I1013 18:15:37.196234 24205 layer_factory.hpp:77] Creating layer loss_Male
I1013 18:15:37.196249 24205 net.cpp:91] Creating Layer loss_Male
I1013 18:15:37.196254 24205 net.cpp:425] loss_Male <- fc3_Male
I1013 18:15:37.196260 24205 net.cpp:425] loss_Male <- label_Male
I1013 18:15:37.196269 24205 net.cpp:399] loss_Male -> loss_Male
I1013 18:15:37.196313 24205 net.cpp:141] Setting up loss_Male
I1013 18:15:37.196322 24205 net.cpp:148] Top shape: (1)
I1013 18:15:37.196326 24205 net.cpp:151]     with loss weight 1
I1013 18:15:37.196346 24205 net.cpp:156] Memory required for data: 3839310404
I1013 18:15:37.196352 24205 layer_factory.hpp:77] Creating layer fc3_Big_Nose
I1013 18:15:37.196358 24205 net.cpp:91] Creating Layer fc3_Big_Nose
I1013 18:15:37.196363 24205 net.cpp:425] fc3_Big_Nose <- fc2_nose_drop2_nose_0_split_0
I1013 18:15:37.196372 24205 net.cpp:399] fc3_Big_Nose -> fc3_Big_Nose
I1013 18:15:37.196480 24205 net.cpp:141] Setting up fc3_Big_Nose
I1013 18:15:37.196488 24205 net.cpp:148] Top shape: 100 2 (200)
I1013 18:15:37.196492 24205 net.cpp:156] Memory required for data: 3839311204
I1013 18:15:37.196499 24205 layer_factory.hpp:77] Creating layer loss_Big_Nose
I1013 18:15:37.196507 24205 net.cpp:91] Creating Layer loss_Big_Nose
I1013 18:15:37.196512 24205 net.cpp:425] loss_Big_Nose <- fc3_Big_Nose
I1013 18:15:37.196518 24205 net.cpp:425] loss_Big_Nose <- label_Big_Nose
I1013 18:15:37.196524 24205 net.cpp:399] loss_Big_Nose -> loss_Big_Nose
I1013 18:15:37.196563 24205 net.cpp:141] Setting up loss_Big_Nose
I1013 18:15:37.196576 24205 net.cpp:148] Top shape: (1)
I1013 18:15:37.196580 24205 net.cpp:151]     with loss weight 1
I1013 18:15:37.196586 24205 net.cpp:156] Memory required for data: 3839311208
I1013 18:15:37.196590 24205 layer_factory.hpp:77] Creating layer fc3_Pointy_Nose
I1013 18:15:37.196597 24205 net.cpp:91] Creating Layer fc3_Pointy_Nose
I1013 18:15:37.196602 24205 net.cpp:425] fc3_Pointy_Nose <- fc2_nose_drop2_nose_0_split_1
I1013 18:15:37.196619 24205 net.cpp:399] fc3_Pointy_Nose -> fc3_Pointy_Nose
I1013 18:15:37.196725 24205 net.cpp:141] Setting up fc3_Pointy_Nose
I1013 18:15:37.196735 24205 net.cpp:148] Top shape: 100 2 (200)
I1013 18:15:37.196739 24205 net.cpp:156] Memory required for data: 3839312008
I1013 18:15:37.196769 24205 layer_factory.hpp:77] Creating layer loss_Pointy_Nose
I1013 18:15:37.196784 24205 net.cpp:91] Creating Layer loss_Pointy_Nose
I1013 18:15:37.196789 24205 net.cpp:425] loss_Pointy_Nose <- fc3_Pointy_Nose
I1013 18:15:37.196795 24205 net.cpp:425] loss_Pointy_Nose <- label_Pointy_Nose
I1013 18:15:37.196802 24205 net.cpp:399] loss_Pointy_Nose -> loss_Pointy_Nose
I1013 18:15:37.196841 24205 net.cpp:141] Setting up loss_Pointy_Nose
I1013 18:15:37.196849 24205 net.cpp:148] Top shape: (1)
I1013 18:15:37.196852 24205 net.cpp:151]     with loss weight 1
I1013 18:15:37.196858 24205 net.cpp:156] Memory required for data: 3839312012
I1013 18:15:37.196862 24205 layer_factory.hpp:77] Creating layer fc3_Big_Lips
I1013 18:15:37.196871 24205 net.cpp:91] Creating Layer fc3_Big_Lips
I1013 18:15:37.196876 24205 net.cpp:425] fc3_Big_Lips <- fc2_mouth_drop2_mouth_0_split_0
I1013 18:15:37.196883 24205 net.cpp:399] fc3_Big_Lips -> fc3_Big_Lips
I1013 18:15:37.196987 24205 net.cpp:141] Setting up fc3_Big_Lips
I1013 18:15:37.196996 24205 net.cpp:148] Top shape: 100 2 (200)
I1013 18:15:37.197000 24205 net.cpp:156] Memory required for data: 3839312812
I1013 18:15:37.197007 24205 layer_factory.hpp:77] Creating layer loss_Big_Lips
I1013 18:15:37.197031 24205 net.cpp:91] Creating Layer loss_Big_Lips
I1013 18:15:37.197037 24205 net.cpp:425] loss_Big_Lips <- fc3_Big_Lips
I1013 18:15:37.197042 24205 net.cpp:425] loss_Big_Lips <- label_Big_Lips
I1013 18:15:37.197049 24205 net.cpp:399] loss_Big_Lips -> loss_Big_Lips
I1013 18:15:37.197089 24205 net.cpp:141] Setting up loss_Big_Lips
I1013 18:15:37.197098 24205 net.cpp:148] Top shape: (1)
I1013 18:15:37.197101 24205 net.cpp:151]     with loss weight 1
I1013 18:15:37.197108 24205 net.cpp:156] Memory required for data: 3839312816
I1013 18:15:37.197111 24205 layer_factory.hpp:77] Creating layer fc3_Smiling
I1013 18:15:37.197119 24205 net.cpp:91] Creating Layer fc3_Smiling
I1013 18:15:37.197124 24205 net.cpp:425] fc3_Smiling <- fc2_mouth_drop2_mouth_0_split_1
I1013 18:15:37.197131 24205 net.cpp:399] fc3_Smiling -> fc3_Smiling
I1013 18:15:37.197235 24205 net.cpp:141] Setting up fc3_Smiling
I1013 18:15:37.197244 24205 net.cpp:148] Top shape: 100 2 (200)
I1013 18:15:37.197247 24205 net.cpp:156] Memory required for data: 3839313616
I1013 18:15:37.197254 24205 layer_factory.hpp:77] Creating layer loss_Smiling
I1013 18:15:37.197263 24205 net.cpp:91] Creating Layer loss_Smiling
I1013 18:15:37.197268 24205 net.cpp:425] loss_Smiling <- fc3_Smiling
I1013 18:15:37.197273 24205 net.cpp:425] loss_Smiling <- label_Smiling
I1013 18:15:37.197279 24205 net.cpp:399] loss_Smiling -> loss_Smiling
I1013 18:15:37.197319 24205 net.cpp:141] Setting up loss_Smiling
I1013 18:15:37.197325 24205 net.cpp:148] Top shape: (1)
I1013 18:15:37.197329 24205 net.cpp:151]     with loss weight 1
I1013 18:15:37.197335 24205 net.cpp:156] Memory required for data: 3839313620
I1013 18:15:37.197338 24205 layer_factory.hpp:77] Creating layer fc3_Wearing_Lipstick
I1013 18:15:37.197346 24205 net.cpp:91] Creating Layer fc3_Wearing_Lipstick
I1013 18:15:37.197350 24205 net.cpp:425] fc3_Wearing_Lipstick <- fc2_mouth_drop2_mouth_0_split_2
I1013 18:15:37.197358 24205 net.cpp:399] fc3_Wearing_Lipstick -> fc3_Wearing_Lipstick
I1013 18:15:37.197461 24205 net.cpp:141] Setting up fc3_Wearing_Lipstick
I1013 18:15:37.197469 24205 net.cpp:148] Top shape: 100 2 (200)
I1013 18:15:37.197474 24205 net.cpp:156] Memory required for data: 3839314420
I1013 18:15:37.197480 24205 layer_factory.hpp:77] Creating layer loss_Wearing_Lipstick
I1013 18:15:37.197487 24205 net.cpp:91] Creating Layer loss_Wearing_Lipstick
I1013 18:15:37.197492 24205 net.cpp:425] loss_Wearing_Lipstick <- fc3_Wearing_Lipstick
I1013 18:15:37.197499 24205 net.cpp:425] loss_Wearing_Lipstick <- label_Wearing_Lipstick
I1013 18:15:37.197515 24205 net.cpp:399] loss_Wearing_Lipstick -> loss_Wearing_Lipstick
I1013 18:15:37.197556 24205 net.cpp:141] Setting up loss_Wearing_Lipstick
I1013 18:15:37.197563 24205 net.cpp:148] Top shape: (1)
I1013 18:15:37.197567 24205 net.cpp:151]     with loss weight 1
I1013 18:15:37.197573 24205 net.cpp:156] Memory required for data: 3839314424
I1013 18:15:37.197577 24205 layer_factory.hpp:77] Creating layer fc3_Mouth_Slightly_Open
I1013 18:15:37.197585 24205 net.cpp:91] Creating Layer fc3_Mouth_Slightly_Open
I1013 18:15:37.197589 24205 net.cpp:425] fc3_Mouth_Slightly_Open <- fc2_mouth_drop2_mouth_0_split_3
I1013 18:15:37.197597 24205 net.cpp:399] fc3_Mouth_Slightly_Open -> fc3_Mouth_Slightly_Open
I1013 18:15:37.197700 24205 net.cpp:141] Setting up fc3_Mouth_Slightly_Open
I1013 18:15:37.197708 24205 net.cpp:148] Top shape: 100 2 (200)
I1013 18:15:37.197712 24205 net.cpp:156] Memory required for data: 3839315224
I1013 18:15:37.197720 24205 layer_factory.hpp:77] Creating layer loss_Mouth_Slightly_Open
I1013 18:15:37.197726 24205 net.cpp:91] Creating Layer loss_Mouth_Slightly_Open
I1013 18:15:37.197731 24205 net.cpp:425] loss_Mouth_Slightly_Open <- fc3_Mouth_Slightly_Open
I1013 18:15:37.197737 24205 net.cpp:425] loss_Mouth_Slightly_Open <- label_Mouth_Slightly_Open
I1013 18:15:37.197743 24205 net.cpp:399] loss_Mouth_Slightly_Open -> loss_Mouth_Slightly_Open
I1013 18:15:37.197782 24205 net.cpp:141] Setting up loss_Mouth_Slightly_Open
I1013 18:15:37.197788 24205 net.cpp:148] Top shape: (1)
I1013 18:15:37.197793 24205 net.cpp:151]     with loss weight 1
I1013 18:15:37.197798 24205 net.cpp:156] Memory required for data: 3839315228
I1013 18:15:37.197801 24205 layer_factory.hpp:77] Creating layer fc3_Arched_Eyebrows
I1013 18:15:37.197808 24205 net.cpp:91] Creating Layer fc3_Arched_Eyebrows
I1013 18:15:37.197813 24205 net.cpp:425] fc3_Arched_Eyebrows <- fc2_eyes_drop2_eyes_0_split_0
I1013 18:15:37.197821 24205 net.cpp:399] fc3_Arched_Eyebrows -> fc3_Arched_Eyebrows
I1013 18:15:37.197931 24205 net.cpp:141] Setting up fc3_Arched_Eyebrows
I1013 18:15:37.197939 24205 net.cpp:148] Top shape: 100 2 (200)
I1013 18:15:37.197943 24205 net.cpp:156] Memory required for data: 3839316028
I1013 18:15:37.197950 24205 layer_factory.hpp:77] Creating layer loss_Arched_Eyebrows
I1013 18:15:37.197958 24205 net.cpp:91] Creating Layer loss_Arched_Eyebrows
I1013 18:15:37.197963 24205 net.cpp:425] loss_Arched_Eyebrows <- fc3_Arched_Eyebrows
I1013 18:15:37.197968 24205 net.cpp:425] loss_Arched_Eyebrows <- label_Arched_Eyebrows
I1013 18:15:37.197975 24205 net.cpp:399] loss_Arched_Eyebrows -> loss_Arched_Eyebrows
I1013 18:15:37.198014 24205 net.cpp:141] Setting up loss_Arched_Eyebrows
I1013 18:15:37.198022 24205 net.cpp:148] Top shape: (1)
I1013 18:15:37.198026 24205 net.cpp:151]     with loss weight 1
I1013 18:15:37.198031 24205 net.cpp:156] Memory required for data: 3839316032
I1013 18:15:37.198035 24205 layer_factory.hpp:77] Creating layer fc3_Bags_Under_Eyes
I1013 18:15:37.198043 24205 net.cpp:91] Creating Layer fc3_Bags_Under_Eyes
I1013 18:15:37.198047 24205 net.cpp:425] fc3_Bags_Under_Eyes <- fc2_eyes_drop2_eyes_0_split_1
I1013 18:15:37.198055 24205 net.cpp:399] fc3_Bags_Under_Eyes -> fc3_Bags_Under_Eyes
I1013 18:15:37.198158 24205 net.cpp:141] Setting up fc3_Bags_Under_Eyes
I1013 18:15:37.198168 24205 net.cpp:148] Top shape: 100 2 (200)
I1013 18:15:37.198171 24205 net.cpp:156] Memory required for data: 3839316832
I1013 18:15:37.198179 24205 layer_factory.hpp:77] Creating layer loss_Bags_Under_Eyes
I1013 18:15:37.198186 24205 net.cpp:91] Creating Layer loss_Bags_Under_Eyes
I1013 18:15:37.198190 24205 net.cpp:425] loss_Bags_Under_Eyes <- fc3_Bags_Under_Eyes
I1013 18:15:37.198195 24205 net.cpp:425] loss_Bags_Under_Eyes <- label_Bags_Under_Eyes
I1013 18:15:37.198202 24205 net.cpp:399] loss_Bags_Under_Eyes -> loss_Bags_Under_Eyes
I1013 18:15:37.198240 24205 net.cpp:141] Setting up loss_Bags_Under_Eyes
I1013 18:15:37.198248 24205 net.cpp:148] Top shape: (1)
I1013 18:15:37.198252 24205 net.cpp:151]     with loss weight 1
I1013 18:15:37.198257 24205 net.cpp:156] Memory required for data: 3839316836
I1013 18:15:37.198271 24205 layer_factory.hpp:77] Creating layer fc3_Bushy_Eyebrows
I1013 18:15:37.198278 24205 net.cpp:91] Creating Layer fc3_Bushy_Eyebrows
I1013 18:15:37.198282 24205 net.cpp:425] fc3_Bushy_Eyebrows <- fc2_eyes_drop2_eyes_0_split_2
I1013 18:15:37.198290 24205 net.cpp:399] fc3_Bushy_Eyebrows -> fc3_Bushy_Eyebrows
I1013 18:15:37.198396 24205 net.cpp:141] Setting up fc3_Bushy_Eyebrows
I1013 18:15:37.198405 24205 net.cpp:148] Top shape: 100 2 (200)
I1013 18:15:37.198410 24205 net.cpp:156] Memory required for data: 3839317636
I1013 18:15:37.198416 24205 layer_factory.hpp:77] Creating layer loss_Bushy_Eyebrows
I1013 18:15:37.198424 24205 net.cpp:91] Creating Layer loss_Bushy_Eyebrows
I1013 18:15:37.198429 24205 net.cpp:425] loss_Bushy_Eyebrows <- fc3_Bushy_Eyebrows
I1013 18:15:37.198436 24205 net.cpp:425] loss_Bushy_Eyebrows <- label_Bushy_Eyebrows
I1013 18:15:37.198442 24205 net.cpp:399] loss_Bushy_Eyebrows -> loss_Bushy_Eyebrows
I1013 18:15:37.198480 24205 net.cpp:141] Setting up loss_Bushy_Eyebrows
I1013 18:15:37.198488 24205 net.cpp:148] Top shape: (1)
I1013 18:15:37.198493 24205 net.cpp:151]     with loss weight 1
I1013 18:15:37.198498 24205 net.cpp:156] Memory required for data: 3839317640
I1013 18:15:37.198501 24205 layer_factory.hpp:77] Creating layer fc3_Narrow_Eyes
I1013 18:15:37.198509 24205 net.cpp:91] Creating Layer fc3_Narrow_Eyes
I1013 18:15:37.198513 24205 net.cpp:425] fc3_Narrow_Eyes <- fc2_eyes_drop2_eyes_0_split_3
I1013 18:15:37.198520 24205 net.cpp:399] fc3_Narrow_Eyes -> fc3_Narrow_Eyes
I1013 18:15:37.198626 24205 net.cpp:141] Setting up fc3_Narrow_Eyes
I1013 18:15:37.198634 24205 net.cpp:148] Top shape: 100 2 (200)
I1013 18:15:37.198638 24205 net.cpp:156] Memory required for data: 3839318440
I1013 18:15:37.198645 24205 layer_factory.hpp:77] Creating layer loss_Narrow_Eyes
I1013 18:15:37.198653 24205 net.cpp:91] Creating Layer loss_Narrow_Eyes
I1013 18:15:37.198657 24205 net.cpp:425] loss_Narrow_Eyes <- fc3_Narrow_Eyes
I1013 18:15:37.198663 24205 net.cpp:425] loss_Narrow_Eyes <- label_Narrow_Eyes
I1013 18:15:37.198670 24205 net.cpp:399] loss_Narrow_Eyes -> loss_Narrow_Eyes
I1013 18:15:37.198709 24205 net.cpp:141] Setting up loss_Narrow_Eyes
I1013 18:15:37.198719 24205 net.cpp:148] Top shape: (1)
I1013 18:15:37.198722 24205 net.cpp:151]     with loss weight 1
I1013 18:15:37.198727 24205 net.cpp:156] Memory required for data: 3839318444
I1013 18:15:37.198731 24205 layer_factory.hpp:77] Creating layer fc3_Eyeglasses
I1013 18:15:37.198740 24205 net.cpp:91] Creating Layer fc3_Eyeglasses
I1013 18:15:37.198743 24205 net.cpp:425] fc3_Eyeglasses <- fc2_eyes_drop2_eyes_0_split_4
I1013 18:15:37.198750 24205 net.cpp:399] fc3_Eyeglasses -> fc3_Eyeglasses
I1013 18:15:37.198853 24205 net.cpp:141] Setting up fc3_Eyeglasses
I1013 18:15:37.198861 24205 net.cpp:148] Top shape: 100 2 (200)
I1013 18:15:37.198865 24205 net.cpp:156] Memory required for data: 3839319244
I1013 18:15:37.198873 24205 layer_factory.hpp:77] Creating layer loss_Eyeglasses
I1013 18:15:37.198880 24205 net.cpp:91] Creating Layer loss_Eyeglasses
I1013 18:15:37.198884 24205 net.cpp:425] loss_Eyeglasses <- fc3_Eyeglasses
I1013 18:15:37.198890 24205 net.cpp:425] loss_Eyeglasses <- label_Eyeglasses
I1013 18:15:37.198896 24205 net.cpp:399] loss_Eyeglasses -> loss_Eyeglasses
I1013 18:15:37.198935 24205 net.cpp:141] Setting up loss_Eyeglasses
I1013 18:15:37.198940 24205 net.cpp:148] Top shape: (1)
I1013 18:15:37.198945 24205 net.cpp:151]     with loss weight 1
I1013 18:15:37.198950 24205 net.cpp:156] Memory required for data: 3839319248
I1013 18:15:37.198953 24205 layer_factory.hpp:77] Creating layer fc3_Attractive
I1013 18:15:37.198961 24205 net.cpp:91] Creating Layer fc3_Attractive
I1013 18:15:37.198966 24205 net.cpp:425] fc3_Attractive <- fc2_face_drop2_face_0_split_0
I1013 18:15:37.198972 24205 net.cpp:399] fc3_Attractive -> fc3_Attractive
I1013 18:15:37.199074 24205 net.cpp:141] Setting up fc3_Attractive
I1013 18:15:37.199082 24205 net.cpp:148] Top shape: 100 2 (200)
I1013 18:15:37.199086 24205 net.cpp:156] Memory required for data: 3839320048
I1013 18:15:37.199101 24205 layer_factory.hpp:77] Creating layer loss_Attractive
I1013 18:15:37.199110 24205 net.cpp:91] Creating Layer loss_Attractive
I1013 18:15:37.199115 24205 net.cpp:425] loss_Attractive <- fc3_Attractive
I1013 18:15:37.199120 24205 net.cpp:425] loss_Attractive <- label_Attractive
I1013 18:15:37.199127 24205 net.cpp:399] loss_Attractive -> loss_Attractive
I1013 18:15:37.199167 24205 net.cpp:141] Setting up loss_Attractive
I1013 18:15:37.199177 24205 net.cpp:148] Top shape: (1)
I1013 18:15:37.199180 24205 net.cpp:151]     with loss weight 1
I1013 18:15:37.199185 24205 net.cpp:156] Memory required for data: 3839320052
I1013 18:15:37.199189 24205 layer_factory.hpp:77] Creating layer fc3_Blurry
I1013 18:15:37.199198 24205 net.cpp:91] Creating Layer fc3_Blurry
I1013 18:15:37.199201 24205 net.cpp:425] fc3_Blurry <- fc2_face_drop2_face_0_split_1
I1013 18:15:37.199208 24205 net.cpp:399] fc3_Blurry -> fc3_Blurry
I1013 18:15:37.199312 24205 net.cpp:141] Setting up fc3_Blurry
I1013 18:15:37.199321 24205 net.cpp:148] Top shape: 100 2 (200)
I1013 18:15:37.199324 24205 net.cpp:156] Memory required for data: 3839320852
I1013 18:15:37.199331 24205 layer_factory.hpp:77] Creating layer loss_Blurry
I1013 18:15:37.199339 24205 net.cpp:91] Creating Layer loss_Blurry
I1013 18:15:37.199344 24205 net.cpp:425] loss_Blurry <- fc3_Blurry
I1013 18:15:37.199349 24205 net.cpp:425] loss_Blurry <- label_Blurry
I1013 18:15:37.199357 24205 net.cpp:399] loss_Blurry -> loss_Blurry
I1013 18:15:37.199393 24205 net.cpp:141] Setting up loss_Blurry
I1013 18:15:37.199403 24205 net.cpp:148] Top shape: (1)
I1013 18:15:37.199406 24205 net.cpp:151]     with loss weight 1
I1013 18:15:37.199411 24205 net.cpp:156] Memory required for data: 3839320856
I1013 18:15:37.199415 24205 layer_factory.hpp:77] Creating layer fc3_Oval_Face
I1013 18:15:37.199422 24205 net.cpp:91] Creating Layer fc3_Oval_Face
I1013 18:15:37.199427 24205 net.cpp:425] fc3_Oval_Face <- fc2_face_drop2_face_0_split_2
I1013 18:15:37.199434 24205 net.cpp:399] fc3_Oval_Face -> fc3_Oval_Face
I1013 18:15:37.199537 24205 net.cpp:141] Setting up fc3_Oval_Face
I1013 18:15:37.199545 24205 net.cpp:148] Top shape: 100 2 (200)
I1013 18:15:37.199549 24205 net.cpp:156] Memory required for data: 3839321656
I1013 18:15:37.199556 24205 layer_factory.hpp:77] Creating layer loss_Oval_Face
I1013 18:15:37.199563 24205 net.cpp:91] Creating Layer loss_Oval_Face
I1013 18:15:37.199568 24205 net.cpp:425] loss_Oval_Face <- fc3_Oval_Face
I1013 18:15:37.199573 24205 net.cpp:425] loss_Oval_Face <- label_Oval_Face
I1013 18:15:37.199580 24205 net.cpp:399] loss_Oval_Face -> loss_Oval_Face
I1013 18:15:37.199617 24205 net.cpp:141] Setting up loss_Oval_Face
I1013 18:15:37.199625 24205 net.cpp:148] Top shape: (1)
I1013 18:15:37.199630 24205 net.cpp:151]     with loss weight 1
I1013 18:15:37.199635 24205 net.cpp:156] Memory required for data: 3839321660
I1013 18:15:37.199640 24205 layer_factory.hpp:77] Creating layer fc3_Pale_Skin
I1013 18:15:37.199646 24205 net.cpp:91] Creating Layer fc3_Pale_Skin
I1013 18:15:37.199651 24205 net.cpp:425] fc3_Pale_Skin <- fc2_face_drop2_face_0_split_3
I1013 18:15:37.199657 24205 net.cpp:399] fc3_Pale_Skin -> fc3_Pale_Skin
I1013 18:15:37.199760 24205 net.cpp:141] Setting up fc3_Pale_Skin
I1013 18:15:37.199769 24205 net.cpp:148] Top shape: 100 2 (200)
I1013 18:15:37.199774 24205 net.cpp:156] Memory required for data: 3839322460
I1013 18:15:37.199779 24205 layer_factory.hpp:77] Creating layer loss_Pale_Skin
I1013 18:15:37.199787 24205 net.cpp:91] Creating Layer loss_Pale_Skin
I1013 18:15:37.199792 24205 net.cpp:425] loss_Pale_Skin <- fc3_Pale_Skin
I1013 18:15:37.199797 24205 net.cpp:425] loss_Pale_Skin <- label_Pale_Skin
I1013 18:15:37.199803 24205 net.cpp:399] loss_Pale_Skin -> loss_Pale_Skin
I1013 18:15:37.199849 24205 net.cpp:141] Setting up loss_Pale_Skin
I1013 18:15:37.199856 24205 net.cpp:148] Top shape: (1)
I1013 18:15:37.199861 24205 net.cpp:151]     with loss weight 1
I1013 18:15:37.199867 24205 net.cpp:156] Memory required for data: 3839322464
I1013 18:15:37.199880 24205 layer_factory.hpp:77] Creating layer fc3_Young
I1013 18:15:37.199888 24205 net.cpp:91] Creating Layer fc3_Young
I1013 18:15:37.199892 24205 net.cpp:425] fc3_Young <- fc2_face_drop2_face_0_split_4
I1013 18:15:37.199899 24205 net.cpp:399] fc3_Young -> fc3_Young
I1013 18:15:37.200006 24205 net.cpp:141] Setting up fc3_Young
I1013 18:15:37.200016 24205 net.cpp:148] Top shape: 100 2 (200)
I1013 18:15:37.200019 24205 net.cpp:156] Memory required for data: 3839323264
I1013 18:15:37.200026 24205 layer_factory.hpp:77] Creating layer loss_Young
I1013 18:15:37.200034 24205 net.cpp:91] Creating Layer loss_Young
I1013 18:15:37.200038 24205 net.cpp:425] loss_Young <- fc3_Young
I1013 18:15:37.200043 24205 net.cpp:425] loss_Young <- label_Young
I1013 18:15:37.200050 24205 net.cpp:399] loss_Young -> loss_Young
I1013 18:15:37.200089 24205 net.cpp:141] Setting up loss_Young
I1013 18:15:37.200098 24205 net.cpp:148] Top shape: (1)
I1013 18:15:37.200101 24205 net.cpp:151]     with loss weight 1
I1013 18:15:37.200108 24205 net.cpp:156] Memory required for data: 3839323268
I1013 18:15:37.200110 24205 layer_factory.hpp:77] Creating layer fc3_Heavy_Makeup
I1013 18:15:37.200120 24205 net.cpp:91] Creating Layer fc3_Heavy_Makeup
I1013 18:15:37.200124 24205 net.cpp:425] fc3_Heavy_Makeup <- fc2_face_drop2_face_0_split_5
I1013 18:15:37.200131 24205 net.cpp:399] fc3_Heavy_Makeup -> fc3_Heavy_Makeup
I1013 18:15:37.200237 24205 net.cpp:141] Setting up fc3_Heavy_Makeup
I1013 18:15:37.200245 24205 net.cpp:148] Top shape: 100 2 (200)
I1013 18:15:37.200249 24205 net.cpp:156] Memory required for data: 3839324068
I1013 18:15:37.200255 24205 layer_factory.hpp:77] Creating layer loss_Heavy_Makeup
I1013 18:15:37.200263 24205 net.cpp:91] Creating Layer loss_Heavy_Makeup
I1013 18:15:37.200268 24205 net.cpp:425] loss_Heavy_Makeup <- fc3_Heavy_Makeup
I1013 18:15:37.200273 24205 net.cpp:425] loss_Heavy_Makeup <- label_Heavy_Makeup
I1013 18:15:37.200280 24205 net.cpp:399] loss_Heavy_Makeup -> loss_Heavy_Makeup
I1013 18:15:37.200319 24205 net.cpp:141] Setting up loss_Heavy_Makeup
I1013 18:15:37.200326 24205 net.cpp:148] Top shape: (1)
I1013 18:15:37.200330 24205 net.cpp:151]     with loss weight 1
I1013 18:15:37.200335 24205 net.cpp:156] Memory required for data: 3839324072
I1013 18:15:37.200340 24205 layer_factory.hpp:77] Creating layer fc3_Black_Hair
I1013 18:15:37.200347 24205 net.cpp:91] Creating Layer fc3_Black_Hair
I1013 18:15:37.200352 24205 net.cpp:425] fc3_Black_Hair <- fc2_aroundhead_drop2_aroundhead_0_split_0
I1013 18:15:37.200359 24205 net.cpp:399] fc3_Black_Hair -> fc3_Black_Hair
I1013 18:15:37.200464 24205 net.cpp:141] Setting up fc3_Black_Hair
I1013 18:15:37.200471 24205 net.cpp:148] Top shape: 100 2 (200)
I1013 18:15:37.200475 24205 net.cpp:156] Memory required for data: 3839324872
I1013 18:15:37.200481 24205 layer_factory.hpp:77] Creating layer loss_Black_Hair
I1013 18:15:37.200489 24205 net.cpp:91] Creating Layer loss_Black_Hair
I1013 18:15:37.200495 24205 net.cpp:425] loss_Black_Hair <- fc3_Black_Hair
I1013 18:15:37.200500 24205 net.cpp:425] loss_Black_Hair <- label_Black_Hair
I1013 18:15:37.200506 24205 net.cpp:399] loss_Black_Hair -> loss_Black_Hair
I1013 18:15:37.200546 24205 net.cpp:141] Setting up loss_Black_Hair
I1013 18:15:37.200551 24205 net.cpp:148] Top shape: (1)
I1013 18:15:37.200556 24205 net.cpp:151]     with loss weight 1
I1013 18:15:37.200561 24205 net.cpp:156] Memory required for data: 3839324876
I1013 18:15:37.200564 24205 layer_factory.hpp:77] Creating layer fc3_Blond_Hair
I1013 18:15:37.200572 24205 net.cpp:91] Creating Layer fc3_Blond_Hair
I1013 18:15:37.200577 24205 net.cpp:425] fc3_Blond_Hair <- fc2_aroundhead_drop2_aroundhead_0_split_1
I1013 18:15:37.200582 24205 net.cpp:399] fc3_Blond_Hair -> fc3_Blond_Hair
I1013 18:15:37.200687 24205 net.cpp:141] Setting up fc3_Blond_Hair
I1013 18:15:37.200695 24205 net.cpp:148] Top shape: 100 2 (200)
I1013 18:15:37.200700 24205 net.cpp:156] Memory required for data: 3839325676
I1013 18:15:37.200706 24205 layer_factory.hpp:77] Creating layer loss_Blond_Hair
I1013 18:15:37.200723 24205 net.cpp:91] Creating Layer loss_Blond_Hair
I1013 18:15:37.200728 24205 net.cpp:425] loss_Blond_Hair <- fc3_Blond_Hair
I1013 18:15:37.200733 24205 net.cpp:425] loss_Blond_Hair <- label_Blond_Hair
I1013 18:15:37.200740 24205 net.cpp:399] loss_Blond_Hair -> loss_Blond_Hair
I1013 18:15:37.200779 24205 net.cpp:141] Setting up loss_Blond_Hair
I1013 18:15:37.200786 24205 net.cpp:148] Top shape: (1)
I1013 18:15:37.200790 24205 net.cpp:151]     with loss weight 1
I1013 18:15:37.200795 24205 net.cpp:156] Memory required for data: 3839325680
I1013 18:15:37.200799 24205 layer_factory.hpp:77] Creating layer fc3_Brown_Hair
I1013 18:15:37.200808 24205 net.cpp:91] Creating Layer fc3_Brown_Hair
I1013 18:15:37.200811 24205 net.cpp:425] fc3_Brown_Hair <- fc2_aroundhead_drop2_aroundhead_0_split_2
I1013 18:15:37.200819 24205 net.cpp:399] fc3_Brown_Hair -> fc3_Brown_Hair
I1013 18:15:37.200922 24205 net.cpp:141] Setting up fc3_Brown_Hair
I1013 18:15:37.200932 24205 net.cpp:148] Top shape: 100 2 (200)
I1013 18:15:37.200935 24205 net.cpp:156] Memory required for data: 3839326480
I1013 18:15:37.200942 24205 layer_factory.hpp:77] Creating layer loss_Brown_Hair
I1013 18:15:37.200949 24205 net.cpp:91] Creating Layer loss_Brown_Hair
I1013 18:15:37.200954 24205 net.cpp:425] loss_Brown_Hair <- fc3_Brown_Hair
I1013 18:15:37.200959 24205 net.cpp:425] loss_Brown_Hair <- label_Brown_Hair
I1013 18:15:37.200965 24205 net.cpp:399] loss_Brown_Hair -> loss_Brown_Hair
I1013 18:15:37.201004 24205 net.cpp:141] Setting up loss_Brown_Hair
I1013 18:15:37.201009 24205 net.cpp:148] Top shape: (1)
I1013 18:15:37.201014 24205 net.cpp:151]     with loss weight 1
I1013 18:15:37.201019 24205 net.cpp:156] Memory required for data: 3839326484
I1013 18:15:37.201022 24205 layer_factory.hpp:77] Creating layer fc3_Gray_Hair
I1013 18:15:37.201030 24205 net.cpp:91] Creating Layer fc3_Gray_Hair
I1013 18:15:37.201035 24205 net.cpp:425] fc3_Gray_Hair <- fc2_aroundhead_drop2_aroundhead_0_split_3
I1013 18:15:37.201041 24205 net.cpp:399] fc3_Gray_Hair -> fc3_Gray_Hair
I1013 18:15:37.201145 24205 net.cpp:141] Setting up fc3_Gray_Hair
I1013 18:15:37.201153 24205 net.cpp:148] Top shape: 100 2 (200)
I1013 18:15:37.201158 24205 net.cpp:156] Memory required for data: 3839327284
I1013 18:15:37.201164 24205 layer_factory.hpp:77] Creating layer loss_Gray_Hair
I1013 18:15:37.201171 24205 net.cpp:91] Creating Layer loss_Gray_Hair
I1013 18:15:37.201176 24205 net.cpp:425] loss_Gray_Hair <- fc3_Gray_Hair
I1013 18:15:37.201181 24205 net.cpp:425] loss_Gray_Hair <- label_Gray_Hair
I1013 18:15:37.201187 24205 net.cpp:399] loss_Gray_Hair -> loss_Gray_Hair
I1013 18:15:37.201226 24205 net.cpp:141] Setting up loss_Gray_Hair
I1013 18:15:37.201233 24205 net.cpp:148] Top shape: (1)
I1013 18:15:37.201237 24205 net.cpp:151]     with loss weight 1
I1013 18:15:37.201243 24205 net.cpp:156] Memory required for data: 3839327288
I1013 18:15:37.201246 24205 layer_factory.hpp:77] Creating layer fc3_Wearing_Earrings
I1013 18:15:37.201254 24205 net.cpp:91] Creating Layer fc3_Wearing_Earrings
I1013 18:15:37.201258 24205 net.cpp:425] fc3_Wearing_Earrings <- fc2_aroundhead_drop2_aroundhead_0_split_4
I1013 18:15:37.201266 24205 net.cpp:399] fc3_Wearing_Earrings -> fc3_Wearing_Earrings
I1013 18:15:37.201370 24205 net.cpp:141] Setting up fc3_Wearing_Earrings
I1013 18:15:37.201380 24205 net.cpp:148] Top shape: 100 2 (200)
I1013 18:15:37.201383 24205 net.cpp:156] Memory required for data: 3839328088
I1013 18:15:37.201390 24205 layer_factory.hpp:77] Creating layer loss_Wearing_Earrings
I1013 18:15:37.201398 24205 net.cpp:91] Creating Layer loss_Wearing_Earrings
I1013 18:15:37.201402 24205 net.cpp:425] loss_Wearing_Earrings <- fc3_Wearing_Earrings
I1013 18:15:37.201408 24205 net.cpp:425] loss_Wearing_Earrings <- label_Wearing_Earrings
I1013 18:15:37.201416 24205 net.cpp:399] loss_Wearing_Earrings -> loss_Wearing_Earrings
I1013 18:15:37.201453 24205 net.cpp:141] Setting up loss_Wearing_Earrings
I1013 18:15:37.201462 24205 net.cpp:148] Top shape: (1)
I1013 18:15:37.201465 24205 net.cpp:151]     with loss weight 1
I1013 18:15:37.201479 24205 net.cpp:156] Memory required for data: 3839328092
I1013 18:15:37.201483 24205 layer_factory.hpp:77] Creating layer fc3_Wearing_Necklace
I1013 18:15:37.201491 24205 net.cpp:91] Creating Layer fc3_Wearing_Necklace
I1013 18:15:37.201496 24205 net.cpp:425] fc3_Wearing_Necklace <- fc2_aroundhead_drop2_aroundhead_0_split_5
I1013 18:15:37.201503 24205 net.cpp:399] fc3_Wearing_Necklace -> fc3_Wearing_Necklace
I1013 18:15:37.201608 24205 net.cpp:141] Setting up fc3_Wearing_Necklace
I1013 18:15:37.201617 24205 net.cpp:148] Top shape: 100 2 (200)
I1013 18:15:37.201622 24205 net.cpp:156] Memory required for data: 3839328892
I1013 18:15:37.201627 24205 layer_factory.hpp:77] Creating layer loss_Wearing_Necklace
I1013 18:15:37.201635 24205 net.cpp:91] Creating Layer loss_Wearing_Necklace
I1013 18:15:37.201640 24205 net.cpp:425] loss_Wearing_Necklace <- fc3_Wearing_Necklace
I1013 18:15:37.201647 24205 net.cpp:425] loss_Wearing_Necklace <- label_Wearing_Necklace
I1013 18:15:37.201653 24205 net.cpp:399] loss_Wearing_Necklace -> loss_Wearing_Necklace
I1013 18:15:37.201690 24205 net.cpp:141] Setting up loss_Wearing_Necklace
I1013 18:15:37.201699 24205 net.cpp:148] Top shape: (1)
I1013 18:15:37.201702 24205 net.cpp:151]     with loss weight 1
I1013 18:15:37.201709 24205 net.cpp:156] Memory required for data: 3839328896
I1013 18:15:37.201712 24205 layer_factory.hpp:77] Creating layer fc3_Wearing_Necktie
I1013 18:15:37.201720 24205 net.cpp:91] Creating Layer fc3_Wearing_Necktie
I1013 18:15:37.201725 24205 net.cpp:425] fc3_Wearing_Necktie <- fc2_aroundhead_drop2_aroundhead_0_split_6
I1013 18:15:37.201731 24205 net.cpp:399] fc3_Wearing_Necktie -> fc3_Wearing_Necktie
I1013 18:15:37.201834 24205 net.cpp:141] Setting up fc3_Wearing_Necktie
I1013 18:15:37.201843 24205 net.cpp:148] Top shape: 100 2 (200)
I1013 18:15:37.201846 24205 net.cpp:156] Memory required for data: 3839329696
I1013 18:15:37.201853 24205 layer_factory.hpp:77] Creating layer loss_Wearing_Necktie
I1013 18:15:37.201861 24205 net.cpp:91] Creating Layer loss_Wearing_Necktie
I1013 18:15:37.201866 24205 net.cpp:425] loss_Wearing_Necktie <- fc3_Wearing_Necktie
I1013 18:15:37.201871 24205 net.cpp:425] loss_Wearing_Necktie <- label_Wearing_Necktie
I1013 18:15:37.201879 24205 net.cpp:399] loss_Wearing_Necktie -> loss_Wearing_Necktie
I1013 18:15:37.201916 24205 net.cpp:141] Setting up loss_Wearing_Necktie
I1013 18:15:37.201925 24205 net.cpp:148] Top shape: (1)
I1013 18:15:37.201927 24205 net.cpp:151]     with loss weight 1
I1013 18:15:37.201933 24205 net.cpp:156] Memory required for data: 3839329700
I1013 18:15:37.201936 24205 layer_factory.hpp:77] Creating layer fc3_Bald
I1013 18:15:37.201944 24205 net.cpp:91] Creating Layer fc3_Bald
I1013 18:15:37.201948 24205 net.cpp:425] fc3_Bald <- fc2_aroundhead_drop2_aroundhead_0_split_7
I1013 18:15:37.201956 24205 net.cpp:399] fc3_Bald -> fc3_Bald
I1013 18:15:37.202057 24205 net.cpp:141] Setting up fc3_Bald
I1013 18:15:37.202066 24205 net.cpp:148] Top shape: 100 2 (200)
I1013 18:15:37.202070 24205 net.cpp:156] Memory required for data: 3839330500
I1013 18:15:37.202076 24205 layer_factory.hpp:77] Creating layer loss_Bald
I1013 18:15:37.202085 24205 net.cpp:91] Creating Layer loss_Bald
I1013 18:15:37.202090 24205 net.cpp:425] loss_Bald <- fc3_Bald
I1013 18:15:37.202095 24205 net.cpp:425] loss_Bald <- label_Bald
I1013 18:15:37.202101 24205 net.cpp:399] loss_Bald -> loss_Bald
I1013 18:15:37.202139 24205 net.cpp:141] Setting up loss_Bald
I1013 18:15:37.202145 24205 net.cpp:148] Top shape: (1)
I1013 18:15:37.202149 24205 net.cpp:151]     with loss weight 1
I1013 18:15:37.202154 24205 net.cpp:156] Memory required for data: 3839330504
I1013 18:15:37.202158 24205 layer_factory.hpp:77] Creating layer fc3_Receding_Hairline
I1013 18:15:37.202167 24205 net.cpp:91] Creating Layer fc3_Receding_Hairline
I1013 18:15:37.202170 24205 net.cpp:425] fc3_Receding_Hairline <- fc2_aroundhead_drop2_aroundhead_0_split_8
I1013 18:15:37.202178 24205 net.cpp:399] fc3_Receding_Hairline -> fc3_Receding_Hairline
I1013 18:15:37.202280 24205 net.cpp:141] Setting up fc3_Receding_Hairline
I1013 18:15:37.202298 24205 net.cpp:148] Top shape: 100 2 (200)
I1013 18:15:37.202302 24205 net.cpp:156] Memory required for data: 3839331304
I1013 18:15:37.202309 24205 layer_factory.hpp:77] Creating layer loss_Receding_Hairline
I1013 18:15:37.202317 24205 net.cpp:91] Creating Layer loss_Receding_Hairline
I1013 18:15:37.202322 24205 net.cpp:425] loss_Receding_Hairline <- fc3_Receding_Hairline
I1013 18:15:37.202327 24205 net.cpp:425] loss_Receding_Hairline <- label_Receding_Hairline
I1013 18:15:37.202333 24205 net.cpp:399] loss_Receding_Hairline -> loss_Receding_Hairline
I1013 18:15:37.202374 24205 net.cpp:141] Setting up loss_Receding_Hairline
I1013 18:15:37.202383 24205 net.cpp:148] Top shape: (1)
I1013 18:15:37.202386 24205 net.cpp:151]     with loss weight 1
I1013 18:15:37.202391 24205 net.cpp:156] Memory required for data: 3839331308
I1013 18:15:37.202396 24205 layer_factory.hpp:77] Creating layer fc3_Bangs
I1013 18:15:37.202404 24205 net.cpp:91] Creating Layer fc3_Bangs
I1013 18:15:37.202409 24205 net.cpp:425] fc3_Bangs <- fc2_aroundhead_drop2_aroundhead_0_split_9
I1013 18:15:37.202415 24205 net.cpp:399] fc3_Bangs -> fc3_Bangs
I1013 18:15:37.202519 24205 net.cpp:141] Setting up fc3_Bangs
I1013 18:15:37.202528 24205 net.cpp:148] Top shape: 100 2 (200)
I1013 18:15:37.202533 24205 net.cpp:156] Memory required for data: 3839332108
I1013 18:15:37.202538 24205 layer_factory.hpp:77] Creating layer loss_Bangs
I1013 18:15:37.202546 24205 net.cpp:91] Creating Layer loss_Bangs
I1013 18:15:37.202550 24205 net.cpp:425] loss_Bangs <- fc3_Bangs
I1013 18:15:37.202556 24205 net.cpp:425] loss_Bangs <- label_Bangs
I1013 18:15:37.202563 24205 net.cpp:399] loss_Bangs -> loss_Bangs
I1013 18:15:37.202600 24205 net.cpp:141] Setting up loss_Bangs
I1013 18:15:37.202607 24205 net.cpp:148] Top shape: (1)
I1013 18:15:37.202611 24205 net.cpp:151]     with loss weight 1
I1013 18:15:37.202616 24205 net.cpp:156] Memory required for data: 3839332112
I1013 18:15:37.202620 24205 layer_factory.hpp:77] Creating layer fc3_Wearing_Hat
I1013 18:15:37.202628 24205 net.cpp:91] Creating Layer fc3_Wearing_Hat
I1013 18:15:37.202633 24205 net.cpp:425] fc3_Wearing_Hat <- fc2_aroundhead_drop2_aroundhead_0_split_10
I1013 18:15:37.202641 24205 net.cpp:399] fc3_Wearing_Hat -> fc3_Wearing_Hat
I1013 18:15:37.202742 24205 net.cpp:141] Setting up fc3_Wearing_Hat
I1013 18:15:37.202751 24205 net.cpp:148] Top shape: 100 2 (200)
I1013 18:15:37.202755 24205 net.cpp:156] Memory required for data: 3839332912
I1013 18:15:37.202761 24205 layer_factory.hpp:77] Creating layer loss_Wearing_Hat
I1013 18:15:37.202769 24205 net.cpp:91] Creating Layer loss_Wearing_Hat
I1013 18:15:37.202775 24205 net.cpp:425] loss_Wearing_Hat <- fc3_Wearing_Hat
I1013 18:15:37.202780 24205 net.cpp:425] loss_Wearing_Hat <- label_Wearing_Hat
I1013 18:15:37.202786 24205 net.cpp:399] loss_Wearing_Hat -> loss_Wearing_Hat
I1013 18:15:37.202824 24205 net.cpp:141] Setting up loss_Wearing_Hat
I1013 18:15:37.202832 24205 net.cpp:148] Top shape: (1)
I1013 18:15:37.202836 24205 net.cpp:151]     with loss weight 1
I1013 18:15:37.202841 24205 net.cpp:156] Memory required for data: 3839332916
I1013 18:15:37.202846 24205 layer_factory.hpp:77] Creating layer fc3_Straight_Hair
I1013 18:15:37.202853 24205 net.cpp:91] Creating Layer fc3_Straight_Hair
I1013 18:15:37.202857 24205 net.cpp:425] fc3_Straight_Hair <- fc2_aroundhead_drop2_aroundhead_0_split_11
I1013 18:15:37.202864 24205 net.cpp:399] fc3_Straight_Hair -> fc3_Straight_Hair
I1013 18:15:37.202967 24205 net.cpp:141] Setting up fc3_Straight_Hair
I1013 18:15:37.202976 24205 net.cpp:148] Top shape: 100 2 (200)
I1013 18:15:37.202980 24205 net.cpp:156] Memory required for data: 3839333716
I1013 18:15:37.202986 24205 layer_factory.hpp:77] Creating layer loss_Straight_Hair
I1013 18:15:37.202994 24205 net.cpp:91] Creating Layer loss_Straight_Hair
I1013 18:15:37.202998 24205 net.cpp:425] loss_Straight_Hair <- fc3_Straight_Hair
I1013 18:15:37.203004 24205 net.cpp:425] loss_Straight_Hair <- label_Straight_Hair
I1013 18:15:37.203011 24205 net.cpp:399] loss_Straight_Hair -> loss_Straight_Hair
I1013 18:15:37.203060 24205 net.cpp:141] Setting up loss_Straight_Hair
I1013 18:15:37.203069 24205 net.cpp:148] Top shape: (1)
I1013 18:15:37.203073 24205 net.cpp:151]     with loss weight 1
I1013 18:15:37.203079 24205 net.cpp:156] Memory required for data: 3839333720
I1013 18:15:37.203083 24205 layer_factory.hpp:77] Creating layer fc3_Wavy_Hair
I1013 18:15:37.203091 24205 net.cpp:91] Creating Layer fc3_Wavy_Hair
I1013 18:15:37.203096 24205 net.cpp:425] fc3_Wavy_Hair <- fc2_aroundhead_drop2_aroundhead_0_split_12
I1013 18:15:37.203104 24205 net.cpp:399] fc3_Wavy_Hair -> fc3_Wavy_Hair
I1013 18:15:37.203207 24205 net.cpp:141] Setting up fc3_Wavy_Hair
I1013 18:15:37.203217 24205 net.cpp:148] Top shape: 100 2 (200)
I1013 18:15:37.203220 24205 net.cpp:156] Memory required for data: 3839334520
I1013 18:15:37.203227 24205 layer_factory.hpp:77] Creating layer loss_Wavy_Hair
I1013 18:15:37.203234 24205 net.cpp:91] Creating Layer loss_Wavy_Hair
I1013 18:15:37.203239 24205 net.cpp:425] loss_Wavy_Hair <- fc3_Wavy_Hair
I1013 18:15:37.203244 24205 net.cpp:425] loss_Wavy_Hair <- label_Wavy_Hair
I1013 18:15:37.203251 24205 net.cpp:399] loss_Wavy_Hair -> loss_Wavy_Hair
I1013 18:15:37.203289 24205 net.cpp:141] Setting up loss_Wavy_Hair
I1013 18:15:37.203296 24205 net.cpp:148] Top shape: (1)
I1013 18:15:37.203300 24205 net.cpp:151]     with loss weight 1
I1013 18:15:37.203305 24205 net.cpp:156] Memory required for data: 3839334524
I1013 18:15:37.203310 24205 layer_factory.hpp:77] Creating layer fc3_5_o_Clock_Shadow
I1013 18:15:37.203317 24205 net.cpp:91] Creating Layer fc3_5_o_Clock_Shadow
I1013 18:15:37.203321 24205 net.cpp:425] fc3_5_o_Clock_Shadow <- fc2_facialhair_drop2_facialhair_0_split_0
I1013 18:15:37.203330 24205 net.cpp:399] fc3_5_o_Clock_Shadow -> fc3_5_o_Clock_Shadow
I1013 18:15:37.203433 24205 net.cpp:141] Setting up fc3_5_o_Clock_Shadow
I1013 18:15:37.203443 24205 net.cpp:148] Top shape: 100 2 (200)
I1013 18:15:37.203446 24205 net.cpp:156] Memory required for data: 3839335324
I1013 18:15:37.203452 24205 layer_factory.hpp:77] Creating layer loss_5_o_Clock_Shadow
I1013 18:15:37.203461 24205 net.cpp:91] Creating Layer loss_5_o_Clock_Shadow
I1013 18:15:37.203465 24205 net.cpp:425] loss_5_o_Clock_Shadow <- fc3_5_o_Clock_Shadow
I1013 18:15:37.203470 24205 net.cpp:425] loss_5_o_Clock_Shadow <- label_5_o_Clock_Shadow
I1013 18:15:37.203477 24205 net.cpp:399] loss_5_o_Clock_Shadow -> loss_5_o_Clock_Shadow
I1013 18:15:37.203516 24205 net.cpp:141] Setting up loss_5_o_Clock_Shadow
I1013 18:15:37.203523 24205 net.cpp:148] Top shape: (1)
I1013 18:15:37.203527 24205 net.cpp:151]     with loss weight 1
I1013 18:15:37.203532 24205 net.cpp:156] Memory required for data: 3839335328
I1013 18:15:37.203536 24205 layer_factory.hpp:77] Creating layer fc3_Mustache
I1013 18:15:37.203544 24205 net.cpp:91] Creating Layer fc3_Mustache
I1013 18:15:37.203548 24205 net.cpp:425] fc3_Mustache <- fc2_facialhair_drop2_facialhair_0_split_1
I1013 18:15:37.203555 24205 net.cpp:399] fc3_Mustache -> fc3_Mustache
I1013 18:15:37.203660 24205 net.cpp:141] Setting up fc3_Mustache
I1013 18:15:37.203668 24205 net.cpp:148] Top shape: 100 2 (200)
I1013 18:15:37.203672 24205 net.cpp:156] Memory required for data: 3839336128
I1013 18:15:37.203680 24205 layer_factory.hpp:77] Creating layer loss_Mustache
I1013 18:15:37.203687 24205 net.cpp:91] Creating Layer loss_Mustache
I1013 18:15:37.203692 24205 net.cpp:425] loss_Mustache <- fc3_Mustache
I1013 18:15:37.203697 24205 net.cpp:425] loss_Mustache <- label_Mustache
I1013 18:15:37.203704 24205 net.cpp:399] loss_Mustache -> loss_Mustache
I1013 18:15:37.203743 24205 net.cpp:141] Setting up loss_Mustache
I1013 18:15:37.203752 24205 net.cpp:148] Top shape: (1)
I1013 18:15:37.203755 24205 net.cpp:151]     with loss weight 1
I1013 18:15:37.203760 24205 net.cpp:156] Memory required for data: 3839336132
I1013 18:15:37.203764 24205 layer_factory.hpp:77] Creating layer fc3_No_Beard
I1013 18:15:37.203775 24205 net.cpp:91] Creating Layer fc3_No_Beard
I1013 18:15:37.203780 24205 net.cpp:425] fc3_No_Beard <- fc2_facialhair_drop2_facialhair_0_split_2
I1013 18:15:37.203796 24205 net.cpp:399] fc3_No_Beard -> fc3_No_Beard
I1013 18:15:37.203910 24205 net.cpp:141] Setting up fc3_No_Beard
I1013 18:15:37.203920 24205 net.cpp:148] Top shape: 100 2 (200)
I1013 18:15:37.203924 24205 net.cpp:156] Memory required for data: 3839336932
I1013 18:15:37.203932 24205 layer_factory.hpp:77] Creating layer loss_No_Beard
I1013 18:15:37.203939 24205 net.cpp:91] Creating Layer loss_No_Beard
I1013 18:15:37.203944 24205 net.cpp:425] loss_No_Beard <- fc3_No_Beard
I1013 18:15:37.203949 24205 net.cpp:425] loss_No_Beard <- label_No_Beard
I1013 18:15:37.203956 24205 net.cpp:399] loss_No_Beard -> loss_No_Beard
I1013 18:15:37.203995 24205 net.cpp:141] Setting up loss_No_Beard
I1013 18:15:37.204004 24205 net.cpp:148] Top shape: (1)
I1013 18:15:37.204007 24205 net.cpp:151]     with loss weight 1
I1013 18:15:37.204012 24205 net.cpp:156] Memory required for data: 3839336936
I1013 18:15:37.204016 24205 layer_factory.hpp:77] Creating layer fc3_Sideburns
I1013 18:15:37.204025 24205 net.cpp:91] Creating Layer fc3_Sideburns
I1013 18:15:37.204028 24205 net.cpp:425] fc3_Sideburns <- fc2_facialhair_drop2_facialhair_0_split_3
I1013 18:15:37.204036 24205 net.cpp:399] fc3_Sideburns -> fc3_Sideburns
I1013 18:15:37.204139 24205 net.cpp:141] Setting up fc3_Sideburns
I1013 18:15:37.204149 24205 net.cpp:148] Top shape: 100 2 (200)
I1013 18:15:37.204152 24205 net.cpp:156] Memory required for data: 3839337736
I1013 18:15:37.204159 24205 layer_factory.hpp:77] Creating layer loss_Sideburns
I1013 18:15:37.204166 24205 net.cpp:91] Creating Layer loss_Sideburns
I1013 18:15:37.204171 24205 net.cpp:425] loss_Sideburns <- fc3_Sideburns
I1013 18:15:37.204176 24205 net.cpp:425] loss_Sideburns <- label_Sideburns
I1013 18:15:37.204182 24205 net.cpp:399] loss_Sideburns -> loss_Sideburns
I1013 18:15:37.204221 24205 net.cpp:141] Setting up loss_Sideburns
I1013 18:15:37.204229 24205 net.cpp:148] Top shape: (1)
I1013 18:15:37.204233 24205 net.cpp:151]     with loss weight 1
I1013 18:15:37.204238 24205 net.cpp:156] Memory required for data: 3839337740
I1013 18:15:37.204243 24205 layer_factory.hpp:77] Creating layer fc3_Goatee
I1013 18:15:37.204251 24205 net.cpp:91] Creating Layer fc3_Goatee
I1013 18:15:37.204254 24205 net.cpp:425] fc3_Goatee <- fc2_facialhair_drop2_facialhair_0_split_4
I1013 18:15:37.204262 24205 net.cpp:399] fc3_Goatee -> fc3_Goatee
I1013 18:15:37.204365 24205 net.cpp:141] Setting up fc3_Goatee
I1013 18:15:37.204375 24205 net.cpp:148] Top shape: 100 2 (200)
I1013 18:15:37.204378 24205 net.cpp:156] Memory required for data: 3839338540
I1013 18:15:37.204385 24205 layer_factory.hpp:77] Creating layer loss_Goatee
I1013 18:15:37.204392 24205 net.cpp:91] Creating Layer loss_Goatee
I1013 18:15:37.204397 24205 net.cpp:425] loss_Goatee <- fc3_Goatee
I1013 18:15:37.204402 24205 net.cpp:425] loss_Goatee <- label_Goatee
I1013 18:15:37.204408 24205 net.cpp:399] loss_Goatee -> loss_Goatee
I1013 18:15:37.204447 24205 net.cpp:141] Setting up loss_Goatee
I1013 18:15:37.204454 24205 net.cpp:148] Top shape: (1)
I1013 18:15:37.204458 24205 net.cpp:151]     with loss weight 1
I1013 18:15:37.204463 24205 net.cpp:156] Memory required for data: 3839338544
I1013 18:15:37.204468 24205 layer_factory.hpp:77] Creating layer fc3_High_Cheekbones
I1013 18:15:37.204475 24205 net.cpp:91] Creating Layer fc3_High_Cheekbones
I1013 18:15:37.204479 24205 net.cpp:425] fc3_High_Cheekbones <- fc2_cheeks_drop2_cheeks_0_split_0
I1013 18:15:37.204488 24205 net.cpp:399] fc3_High_Cheekbones -> fc3_High_Cheekbones
I1013 18:15:37.204591 24205 net.cpp:141] Setting up fc3_High_Cheekbones
I1013 18:15:37.204601 24205 net.cpp:148] Top shape: 100 2 (200)
I1013 18:15:37.204603 24205 net.cpp:156] Memory required for data: 3839339344
I1013 18:15:37.204610 24205 layer_factory.hpp:77] Creating layer loss_High_Cheekbones
I1013 18:15:37.204618 24205 net.cpp:91] Creating Layer loss_High_Cheekbones
I1013 18:15:37.204623 24205 net.cpp:425] loss_High_Cheekbones <- fc3_High_Cheekbones
I1013 18:15:37.204629 24205 net.cpp:425] loss_High_Cheekbones <- label_High_Cheekbones
I1013 18:15:37.204645 24205 net.cpp:399] loss_High_Cheekbones -> loss_High_Cheekbones
I1013 18:15:37.204686 24205 net.cpp:141] Setting up loss_High_Cheekbones
I1013 18:15:37.204694 24205 net.cpp:148] Top shape: (1)
I1013 18:15:37.204699 24205 net.cpp:151]     with loss weight 1
I1013 18:15:37.204704 24205 net.cpp:156] Memory required for data: 3839339348
I1013 18:15:37.204708 24205 layer_factory.hpp:77] Creating layer fc3_Rosy_Cheeks
I1013 18:15:37.204715 24205 net.cpp:91] Creating Layer fc3_Rosy_Cheeks
I1013 18:15:37.204720 24205 net.cpp:425] fc3_Rosy_Cheeks <- fc2_cheeks_drop2_cheeks_0_split_1
I1013 18:15:37.204728 24205 net.cpp:399] fc3_Rosy_Cheeks -> fc3_Rosy_Cheeks
I1013 18:15:37.204833 24205 net.cpp:141] Setting up fc3_Rosy_Cheeks
I1013 18:15:37.204840 24205 net.cpp:148] Top shape: 100 2 (200)
I1013 18:15:37.204844 24205 net.cpp:156] Memory required for data: 3839340148
I1013 18:15:37.204851 24205 layer_factory.hpp:77] Creating layer loss_Rosy_Cheeks
I1013 18:15:37.204859 24205 net.cpp:91] Creating Layer loss_Rosy_Cheeks
I1013 18:15:37.204864 24205 net.cpp:425] loss_Rosy_Cheeks <- fc3_Rosy_Cheeks
I1013 18:15:37.204869 24205 net.cpp:425] loss_Rosy_Cheeks <- label_Rosy_Cheeks
I1013 18:15:37.204876 24205 net.cpp:399] loss_Rosy_Cheeks -> loss_Rosy_Cheeks
I1013 18:15:37.204915 24205 net.cpp:141] Setting up loss_Rosy_Cheeks
I1013 18:15:37.204922 24205 net.cpp:148] Top shape: (1)
I1013 18:15:37.204926 24205 net.cpp:151]     with loss weight 1
I1013 18:15:37.204931 24205 net.cpp:156] Memory required for data: 3839340152
I1013 18:15:37.204936 24205 layer_factory.hpp:77] Creating layer fc3_Chubby
I1013 18:15:37.204943 24205 net.cpp:91] Creating Layer fc3_Chubby
I1013 18:15:37.204948 24205 net.cpp:425] fc3_Chubby <- fc2_fat_drop2_fat_0_split_0
I1013 18:15:37.204957 24205 net.cpp:399] fc3_Chubby -> fc3_Chubby
I1013 18:15:37.205060 24205 net.cpp:141] Setting up fc3_Chubby
I1013 18:15:37.205070 24205 net.cpp:148] Top shape: 100 2 (200)
I1013 18:15:37.205072 24205 net.cpp:156] Memory required for data: 3839340952
I1013 18:15:37.205080 24205 layer_factory.hpp:77] Creating layer loss_Chubby
I1013 18:15:37.205087 24205 net.cpp:91] Creating Layer loss_Chubby
I1013 18:15:37.205092 24205 net.cpp:425] loss_Chubby <- fc3_Chubby
I1013 18:15:37.205097 24205 net.cpp:425] loss_Chubby <- label_Chubby
I1013 18:15:37.205103 24205 net.cpp:399] loss_Chubby -> loss_Chubby
I1013 18:15:37.205142 24205 net.cpp:141] Setting up loss_Chubby
I1013 18:15:37.205149 24205 net.cpp:148] Top shape: (1)
I1013 18:15:37.205153 24205 net.cpp:151]     with loss weight 1
I1013 18:15:37.205158 24205 net.cpp:156] Memory required for data: 3839340956
I1013 18:15:37.205163 24205 layer_factory.hpp:77] Creating layer fc3_Double_Chin
I1013 18:15:37.205170 24205 net.cpp:91] Creating Layer fc3_Double_Chin
I1013 18:15:37.205174 24205 net.cpp:425] fc3_Double_Chin <- fc2_fat_drop2_fat_0_split_1
I1013 18:15:37.205183 24205 net.cpp:399] fc3_Double_Chin -> fc3_Double_Chin
I1013 18:15:37.205284 24205 net.cpp:141] Setting up fc3_Double_Chin
I1013 18:15:37.205293 24205 net.cpp:148] Top shape: 100 2 (200)
I1013 18:15:37.205296 24205 net.cpp:156] Memory required for data: 3839341756
I1013 18:15:37.205303 24205 layer_factory.hpp:77] Creating layer loss_Double_Chin
I1013 18:15:37.205310 24205 net.cpp:91] Creating Layer loss_Double_Chin
I1013 18:15:37.205315 24205 net.cpp:425] loss_Double_Chin <- fc3_Double_Chin
I1013 18:15:37.205320 24205 net.cpp:425] loss_Double_Chin <- label_Double_Chin
I1013 18:15:37.205327 24205 net.cpp:399] loss_Double_Chin -> loss_Double_Chin
…
    slice_point: 24
    slice_point: 26
    slice_point: 28
    slice_point: 30
    slice_point: 32
    slice_point: 34
    slice_point: 36
    slice_point: 38
    slice_point: 40
    slice_point: 42
    slice_point: 44
    slice_point: 46
    slice_point: 48
    slice_point: 50
    slice_point: 52
    slice_point: 54
    slice_point: 56
    slice_point: 58
    slice_point: 60
    slice_point: 62
    slice_point: 64
    slice_point: 66
    slice_point: 68
    slice_point: 70
    slice_point: 72
    slice_point: 74
    slice_point: 76
    slice_point: 78
  }
}
layer {
  name: "conv1_bn"
  type: "BatchNorm"
  bottom: "conv1"
  top: "conv1"
  batch_norm_param {
    use_global_stats: false
  }
}
layer {
  name: "conv1_scale"
  type: "Scale"
  bottom: "conv1"
  top: "conv1"
  scale_param {
    bias_term: true
  }
}
layer {
  name: "prelu1"
  type: "PReLU"
  bottom: "conv1"
  top: "conv1"
}
layer {
  name: "pool1"
  type: "Pooling"
  bottom: "conv1"
  top: "pool1"
  pooling_param {
    pool: MAX
    kernel_size: 2
    stride: 2
  }
}
layer {
  name: "conv2a"
  type: "Convolution"
  bottom: "pool1"
  top: "conv2a"
  param {
    name: "conv2a_w"
    lr_mult: 1
    decay_mult: 1
  }
  param {
    name: "conv2a_b"
    lr_mult: 2
    decay_mult: 0
  }
  convolution_param {
    num_output: 64
    kernel_size: 1
    weight_filler {
      type: "xavier"
    }
    bias_filler {
      type: "constant"
      value: 0.2
    }
  }
}
layer {
  name: "conv2a_bn"
  type: "BatchNorm"
  bottom: "conv2a"
  top: "conv2a"
  batch_norm_param {
    use_global_stats: false
  }
}
layer {
  name: "conv2a_scale"
  type: "Scale"
  bottom: "conv2a"
  top: "conv2a"
  scale_param {
    bias_term: true
  }
}
layer {
  name: "prelu2a"
  type: "PReLU"
  bottom: "conv2a"
  top: "conv2a"
}
layer {
  name: "conv2"
  type: "Convolution"
  bottom: "conv2a"
  top: "conv2"
  param {
    name: "conv2_w"
    lr_mult: 1
    decay_mult: 1
  }
  param {
    name: "conv2_b"
    lr_mult: 2
    decay_mult: 0
  }
  convolution_param {
    num_output: 192
    pad: 1
    kernel_size: 3
    stride: 1
…
I1013 18:15:37.672579 24205 net.cpp:399] fc2_fat_drop2_fat_0_split -> fc2_fat_drop2_fat_0_split_2
I1013 18:15:37.672632 24205 net.cpp:141] Setting up fc2_fat_drop2_fat_0_split
I1013 18:15:37.672641 24205 net.cpp:148] Top shape: 64 512 (32768)
I1013 18:15:37.672646 24205 net.cpp:148] Top shape: 64 512 (32768)
I1013 18:15:37.672650 24205 net.cpp:148] Top shape: 64 512 (32768)
I1013 18:15:37.672653 24205 net.cpp:156] Memory required for data: 2457158912
I1013 18:15:37.672657 24205 layer_factory.hpp:77] Creating layer fc3_Male
I1013 18:15:37.672665 24205 net.cpp:91] Creating Layer fc3_Male
I1013 18:15:37.672682 24205 net.cpp:425] fc3_Male <- fc2_gender_drop2_gender_0_split_0
I1013 18:15:37.672689 24205 net.cpp:399] fc3_Male -> fc3_Male
I1013 18:15:37.672821 24205 net.cpp:141] Setting up fc3_Male
I1013 18:15:37.672834 24205 net.cpp:148] Top shape: 64 2 (128)
I1013 18:15:37.672838 24205 net.cpp:156] Memory required for data: 2457159424
I1013 18:15:37.672847 24205 layer_factory.hpp:77] Creating layer loss_Male
I1013 18:15:37.672854 24205 net.cpp:91] Creating Layer loss_Male
I1013 18:15:37.672859 24205 net.cpp:425] loss_Male <- fc3_Male
I1013 18:15:37.672865 24205 net.cpp:425] loss_Male <- label_Male
I1013 18:15:37.672874 24205 net.cpp:399] loss_Male -> loss_Male
I1013 18:15:37.672921 24205 net.cpp:141] Setting up loss_Male
I1013 18:15:37.672930 24205 net.cpp:148] Top shape: (1)
I1013 18:15:37.672935 24205 net.cpp:151]     with loss weight 1
I1013 18:15:37.672951 24205 net.cpp:156] Memory required for data: 2457159428
I1013 18:15:37.672955 24205 layer_factory.hpp:77] Creating layer fc3_Big_Nose
I1013 18:15:37.672966 24205 net.cpp:91] Creating Layer fc3_Big_Nose
I1013 18:15:37.672971 24205 net.cpp:425] fc3_Big_Nose <- fc2_nose_drop2_nose_0_split_0
I1013 18:15:37.672979 24205 net.cpp:399] fc3_Big_Nose -> fc3_Big_Nose
I1013 18:15:37.673099 24205 net.cpp:141] Setting up fc3_Big_Nose
I1013 18:15:37.673110 24205 net.cpp:148] Top shape: 64 2 (128)
I1013 18:15:37.673115 24205 net.cpp:156] Memory required for data: 2457159940
I1013 18:15:37.673121 24205 layer_factory.hpp:77] Creating layer loss_Big_Nose
I1013 18:15:37.673130 24205 net.cpp:91] Creating Layer loss_Big_Nose
I1013 18:15:37.673135 24205 net.cpp:425] loss_Big_Nose <- fc3_Big_Nose
I1013 18:15:37.673140 24205 net.cpp:425] loss_Big_Nose <- label_Big_Nose
I1013 18:15:37.673147 24205 net.cpp:399] loss_Big_Nose -> loss_Big_Nose
I1013 18:15:37.673192 24205 net.cpp:141] Setting up loss_Big_Nose
I1013 18:15:37.673200 24205 net.cpp:148] Top shape: (1)
I1013 18:15:37.673204 24205 net.cpp:151]     with loss weight 1
I1013 18:15:37.673209 24205 net.cpp:156] Memory required for data: 2457159944
I1013 18:15:37.673213 24205 layer_factory.hpp:77] Creating layer fc3_Pointy_Nose
I1013 18:15:37.673223 24205 net.cpp:91] Creating Layer fc3_Pointy_Nose
I1013 18:15:37.673228 24205 net.cpp:425] fc3_Pointy_Nose <- fc2_nose_drop2_nose_0_split_1
I1013 18:15:37.673234 24205 net.cpp:399] fc3_Pointy_Nose -> fc3_Pointy_Nose
I1013 18:15:37.673352 24205 net.cpp:141] Setting up fc3_Pointy_Nose
I1013 18:15:37.673363 24205 net.cpp:148] Top shape: 64 2 (128)
I1013 18:15:37.673367 24205 net.cpp:156] Memory required for data: 2457160456
I1013 18:15:37.673442 24205 layer_factory.hpp:77] Creating layer loss_Pointy_Nose
I1013 18:15:37.673456 24205 net.cpp:91] Creating Layer loss_Pointy_Nose
I1013 18:15:37.673461 24205 net.cpp:425] loss_Pointy_Nose <- fc3_Pointy_Nose
I1013 18:15:37.673467 24205 net.cpp:425] loss_Pointy_Nose <- label_Pointy_Nose
I1013 18:15:37.673473 24205 net.cpp:399] loss_Pointy_Nose -> loss_Pointy_Nose
I1013 18:15:37.673521 24205 net.cpp:141] Setting up loss_Pointy_Nose
I1013 18:15:37.673530 24205 net.cpp:148] Top shape: (1)
I1013 18:15:37.673534 24205 net.cpp:151]     with loss weight 1
I1013 18:15:37.673540 24205 net.cpp:156] Memory required for data: 2457160460
I1013 18:15:37.673543 24205 layer_factory.hpp:77] Creating layer fc3_Big_Lips
I1013 18:15:37.673590 24205 net.cpp:91] Creating Layer fc3_Big_Lips
I1013 18:15:37.673598 24205 net.cpp:425] fc3_Big_Lips <- fc2_mouth_drop2_mouth_0_split_0
I1013 18:15:37.673607 24205 net.cpp:399] fc3_Big_Lips -> fc3_Big_Lips
I1013 18:15:37.673738 24205 net.cpp:141] Setting up fc3_Big_Lips
I1013 18:15:37.673746 24205 net.cpp:148] Top shape: 64 2 (128)
I1013 18:15:37.673750 24205 net.cpp:156] Memory required for data: 2457160972
I1013 18:15:37.673759 24205 layer_factory.hpp:77] Creating layer loss_Big_Lips
I1013 18:15:37.673768 24205 net.cpp:91] Creating Layer loss_Big_Lips
I1013 18:15:37.673774 24205 net.cpp:425] loss_Big_Lips <- fc3_Big_Lips
I1013 18:15:37.673779 24205 net.cpp:425] loss_Big_Lips <- label_Big_Lips
I1013 18:15:37.673795 24205 net.cpp:399] loss_Big_Lips -> loss_Big_Lips
I1013 18:15:37.673842 24205 net.cpp:141] Setting up loss_Big_Lips
I1013 18:15:37.673852 24205 net.cpp:148] Top shape: (1)
I1013 18:15:37.673856 24205 net.cpp:151]     with loss weight 1
I1013 18:15:37.673862 24205 net.cpp:156] Memory required for data: 2457160976
I1013 18:15:37.673866 24205 layer_factory.hpp:77] Creating layer fc3_Smiling
I1013 18:15:37.673872 24205 net.cpp:91] Creating Layer fc3_Smiling
I1013 18:15:37.673877 24205 net.cpp:425] fc3_Smiling <- fc2_mouth_drop2_mouth_0_split_1
I1013 18:15:37.673885 24205 net.cpp:399] fc3_Smiling -> fc3_Smiling
I1013 18:15:37.674002 24205 net.cpp:141] Setting up fc3_Smiling
I1013 18:15:37.674011 24205 net.cpp:148] Top shape: 64 2 (128)
I1013 18:15:37.674015 24205 net.cpp:156] Memory required for data: 2457161488
I1013 18:15:37.674022 24205 layer_factory.hpp:77] Creating layer loss_Smiling
I1013 18:15:37.674032 24205 net.cpp:91] Creating Layer loss_Smiling
I1013 18:15:37.674037 24205 net.cpp:425] loss_Smiling <- fc3_Smiling
I1013 18:15:37.674043 24205 net.cpp:425] loss_Smiling <- label_Smiling
I1013 18:15:37.674051 24205 net.cpp:399] loss_Smiling -> loss_Smiling
I1013 18:15:37.674095 24205 net.cpp:141] Setting up loss_Smiling
I1013 18:15:37.674103 24205 net.cpp:148] Top shape: (1)
I1013 18:15:37.674108 24205 net.cpp:151]     with loss weight 1
I1013 18:15:37.674113 24205 net.cpp:156] Memory required for data: 2457161492
I1013 18:15:37.674116 24205 layer_factory.hpp:77] Creating layer fc3_Wearing_Lipstick
I1013 18:15:37.674125 24205 net.cpp:91] Creating Layer fc3_Wearing_Lipstick
I1013 18:15:37.674130 24205 net.cpp:425] fc3_Wearing_Lipstick <- fc2_mouth_drop2_mouth_0_split_2
I1013 18:15:37.674139 24205 net.cpp:399] fc3_Wearing_Lipstick -> fc3_Wearing_Lipstick
I1013 18:15:37.674260 24205 net.cpp:141] Setting up fc3_Wearing_Lipstick
I1013 18:15:37.674269 24205 net.cpp:148] Top shape: 64 2 (128)
I1013 18:15:37.674273 24205 net.cpp:156] Memory required for data: 2457162004
I1013 18:15:37.674280 24205 layer_factory.hpp:77] Creating layer loss_Wearing_Lipstick
I1013 18:15:37.674291 24205 net.cpp:91] Creating Layer loss_Wearing_Lipstick
I1013 18:15:37.674296 24205 net.cpp:425] loss_Wearing_Lipstick <- fc3_Wearing_Lipstick
I1013 18:15:37.674302 24205 net.cpp:425] loss_Wearing_Lipstick <- label_Wearing_Lipstick
I1013 18:15:37.674310 24205 net.cpp:399] loss_Wearing_Lipstick -> loss_Wearing_Lipstick
I1013 18:15:37.674355 24205 net.cpp:141] Setting up loss_Wearing_Lipstick
I1013 18:15:37.674365 24205 net.cpp:148] Top shape: (1)
I1013 18:15:37.674368 24205 net.cpp:151]     with loss weight 1
I1013 18:15:37.674373 24205 net.cpp:156] Memory required for data: 2457162008
I1013 18:15:37.674377 24205 layer_factory.hpp:77] Creating layer fc3_Mouth_Slightly_Open
I1013 18:15:37.674386 24205 net.cpp:91] Creating Layer fc3_Mouth_Slightly_Open
I1013 18:15:37.674391 24205 net.cpp:425] fc3_Mouth_Slightly_Open <- fc2_mouth_drop2_mouth_0_split_3
I1013 18:15:37.674398 24205 net.cpp:399] fc3_Mouth_Slightly_Open -> fc3_Mouth_Slightly_Open
I1013 18:15:37.674517 24205 net.cpp:141] Setting up fc3_Mouth_Slightly_Open
I1013 18:15:37.674526 24205 net.cpp:148] Top shape: 64 2 (128)
I1013 18:15:37.674530 24205 net.cpp:156] Memory required for data: 2457162520
I1013 18:15:37.674537 24205 layer_factory.hpp:77] Creating layer loss_Mouth_Slightly_Open
I1013 18:15:37.674549 24205 net.cpp:91] Creating Layer loss_Mouth_Slightly_Open
I1013 18:15:37.674554 24205 net.cpp:425] loss_Mouth_Slightly_Open <- fc3_Mouth_Slightly_Open
I1013 18:15:37.674561 24205 net.cpp:425] loss_Mouth_Slightly_Open <- label_Mouth_Slightly_Open
I1013 18:15:37.674567 24205 net.cpp:399] loss_Mouth_Slightly_Open -> loss_Mouth_Slightly_Open
I1013 18:15:37.674614 24205 net.cpp:141] Setting up loss_Mouth_Slightly_Open
I1013 18:15:37.674623 24205 net.cpp:148] Top shape: (1)
I1013 18:15:37.674626 24205 net.cpp:151]     with loss weight 1
I1013 18:15:37.674633 24205 net.cpp:156] Memory required for data: 2457162524
I1013 18:15:37.674636 24205 layer_factory.hpp:77] Creating layer fc3_Arched_Eyebrows
I1013 18:15:37.674654 24205 net.cpp:91] Creating Layer fc3_Arched_Eyebrows
I1013 18:15:37.674659 24205 net.cpp:425] fc3_Arched_Eyebrows <- fc2_eyes_drop2_eyes_0_split_0
I1013 18:15:37.674666 24205 net.cpp:399] fc3_Arched_Eyebrows -> fc3_Arched_Eyebrows
I1013 18:15:37.674788 24205 net.cpp:141] Setting up fc3_Arched_Eyebrows
I1013 18:15:37.674798 24205 net.cpp:148] Top shape: 64 2 (128)
I1013 18:15:37.674803 24205 net.cpp:156] Memory required for data: 2457163036
I1013 18:15:37.674809 24205 layer_factory.hpp:77] Creating layer loss_Arched_Eyebrows
I1013 18:15:37.674820 24205 net.cpp:91] Creating Layer loss_Arched_Eyebrows
I1013 18:15:37.674824 24205 net.cpp:425] loss_Arched_Eyebrows <- fc3_Arched_Eyebrows
I1013 18:15:37.674830 24205 net.cpp:425] loss_Arched_Eyebrows <- label_Arched_Eyebrows
I1013 18:15:37.674839 24205 net.cpp:399] loss_Arched_Eyebrows -> loss_Arched_Eyebrows
I1013 18:15:37.674881 24205 net.cpp:141] Setting up loss_Arched_Eyebrows
I1013 18:15:37.674890 24205 net.cpp:148] Top shape: (1)
I1013 18:15:37.674895 24205 net.cpp:151]     with loss weight 1
I1013 18:15:37.674899 24205 net.cpp:156] Memory required for data: 2457163040
I1013 18:15:37.674903 24205 layer_factory.hpp:77] Creating layer fc3_Bags_Under_Eyes
I1013 18:15:37.674913 24205 net.cpp:91] Creating Layer fc3_Bags_Under_Eyes
I1013 18:15:37.674917 24205 net.cpp:425] fc3_Bags_Under_Eyes <- fc2_eyes_drop2_eyes_0_split_1
I1013 18:15:37.674924 24205 net.cpp:399] fc3_Bags_Under_Eyes -> fc3_Bags_Under_Eyes
I1013 18:15:37.675045 24205 net.cpp:141] Setting up fc3_Bags_Under_Eyes
I1013 18:15:37.675055 24205 net.cpp:148] Top shape: 64 2 (128)
I1013 18:15:37.675057 24205 net.cpp:156] Memory required for data: 2457163552
I1013 18:15:37.675065 24205 layer_factory.hpp:77] Creating layer loss_Bags_Under_Eyes
I1013 18:15:37.675074 24205 net.cpp:91] Creating Layer loss_Bags_Under_Eyes
I1013 18:15:37.675079 24205 net.cpp:425] loss_Bags_Under_Eyes <- fc3_Bags_Under_Eyes
I1013 18:15:37.675084 24205 net.cpp:425] loss_Bags_Under_Eyes <- label_Bags_Under_Eyes
I1013 18:15:37.675092 24205 net.cpp:399] loss_Bags_Under_Eyes -> loss_Bags_Under_Eyes
I1013 18:15:37.675137 24205 net.cpp:141] Setting up loss_Bags_Under_Eyes
I1013 18:15:37.675144 24205 net.cpp:148] Top shape: (1)
I1013 18:15:37.675148 24205 net.cpp:151]     with loss weight 1
I1013 18:15:37.675154 24205 net.cpp:156] Memory required for data: 2457163556
I1013 18:15:37.675158 24205 layer_factory.hpp:77] Creating layer fc3_Bushy_Eyebrows
I1013 18:15:37.675165 24205 net.cpp:91] Creating Layer fc3_Bushy_Eyebrows
I1013 18:15:37.675170 24205 net.cpp:425] fc3_Bushy_Eyebrows <- fc2_eyes_drop2_eyes_0_split_2
I1013 18:15:37.675178 24205 net.cpp:399] fc3_Bushy_Eyebrows -> fc3_Bushy_Eyebrows
I1013 18:15:37.675300 24205 net.cpp:141] Setting up fc3_Bushy_Eyebrows
I1013 18:15:37.675309 24205 net.cpp:148] Top shape: 64 2 (128)
I1013 18:15:37.675313 24205 net.cpp:156] Memory required for data: 2457164068
I1013 18:15:37.675321 24205 layer_factory.hpp:77] Creating layer loss_Bushy_Eyebrows
I1013 18:15:37.675330 24205 net.cpp:91] Creating Layer loss_Bushy_Eyebrows
I1013 18:15:37.675335 24205 net.cpp:425] loss_Bushy_Eyebrows <- fc3_Bushy_Eyebrows
I1013 18:15:37.675340 24205 net.cpp:425] loss_Bushy_Eyebrows <- label_Bushy_Eyebrows
I1013 18:15:37.675348 24205 net.cpp:399] loss_Bushy_Eyebrows -> loss_Bushy_Eyebrows
I1013 18:15:37.675393 24205 net.cpp:141] Setting up loss_Bushy_Eyebrows
I1013 18:15:37.675401 24205 net.cpp:148] Top shape: (1)
I1013 18:15:37.675405 24205 net.cpp:151]     with loss weight 1
I1013 18:15:37.675411 24205 net.cpp:156] Memory required for data: 2457164072
I1013 18:15:37.675415 24205 layer_factory.hpp:77] Creating layer fc3_Narrow_Eyes
I1013 18:15:37.675423 24205 net.cpp:91] Creating Layer fc3_Narrow_Eyes
I1013 18:15:37.675428 24205 net.cpp:425] fc3_Narrow_Eyes <- fc2_eyes_drop2_eyes_0_split_3
I1013 18:15:37.675434 24205 net.cpp:399] fc3_Narrow_Eyes -> fc3_Narrow_Eyes
I1013 18:15:37.675555 24205 net.cpp:141] Setting up fc3_Narrow_Eyes
I1013 18:15:37.675565 24205 net.cpp:148] Top shape: 64 2 (128)
I1013 18:15:37.675577 24205 net.cpp:156] Memory required for data: 2457164584
I1013 18:15:37.675585 24205 layer_factory.hpp:77] Creating layer loss_Narrow_Eyes
I1013 18:15:37.675597 24205 net.cpp:91] Creating Layer loss_Narrow_Eyes
I1013 18:15:37.675602 24205 net.cpp:425] loss_Narrow_Eyes <- fc3_Narrow_Eyes
I1013 18:15:37.675607 24205 net.cpp:425] loss_Narrow_Eyes <- label_Narrow_Eyes
I1013 18:15:37.675616 24205 net.cpp:399] loss_Narrow_Eyes -> loss_Narrow_Eyes
I1013 18:15:37.675662 24205 net.cpp:141] Setting up loss_Narrow_Eyes
I1013 18:15:37.675671 24205 net.cpp:148] Top shape: (1)
I1013 18:15:37.675675 24205 net.cpp:151]     with loss weight 1
I1013 18:15:37.675681 24205 net.cpp:156] Memory required for data: 2457164588
I1013 18:15:37.675685 24205 layer_factory.hpp:77] Creating layer fc3_Eyeglasses
I1013 18:15:37.675693 24205 net.cpp:91] Creating Layer fc3_Eyeglasses
I1013 18:15:37.675696 24205 net.cpp:425] fc3_Eyeglasses <- fc2_eyes_drop2_eyes_0_split_4
I1013 18:15:37.675704 24205 net.cpp:399] fc3_Eyeglasses -> fc3_Eyeglasses
I1013 18:15:37.675832 24205 net.cpp:141] Setting up fc3_Eyeglasses
I1013 18:15:37.675843 24205 net.cpp:148] Top shape: 64 2 (128)
I1013 18:15:37.675846 24205 net.cpp:156] Memory required for data: 2457165100
I1013 18:15:37.675853 24205 layer_factory.hpp:77] Creating layer loss_Eyeglasses
I1013 18:15:37.675866 24205 net.cpp:91] Creating Layer loss_Eyeglasses
I1013 18:15:37.675871 24205 net.cpp:425] loss_Eyeglasses <- fc3_Eyeglasses
I1013 18:15:37.675878 24205 net.cpp:425] loss_Eyeglasses <- label_Eyeglasses
I1013 18:15:37.675884 24205 net.cpp:399] loss_Eyeglasses -> loss_Eyeglasses
I1013 18:15:37.675931 24205 net.cpp:141] Setting up loss_Eyeglasses
I1013 18:15:37.675940 24205 net.cpp:148] Top shape: (1)
I1013 18:15:37.675943 24205 net.cpp:151]     with loss weight 1
I1013 18:15:37.675950 24205 net.cpp:156] Memory required for data: 2457165104
I1013 18:15:37.675952 24205 layer_factory.hpp:77] Creating layer fc3_Attractive
I1013 18:15:37.675959 24205 net.cpp:91] Creating Layer fc3_Attractive
I1013 18:15:37.675964 24205 net.cpp:425] fc3_Attractive <- fc2_face_drop2_face_0_split_0
I1013 18:15:37.675971 24205 net.cpp:399] fc3_Attractive -> fc3_Attractive
I1013 18:15:37.676090 24205 net.cpp:141] Setting up fc3_Attractive
I1013 18:15:37.676100 24205 net.cpp:148] Top shape: 64 2 (128)
I1013 18:15:37.676103 24205 net.cpp:156] Memory required for data: 2457165616
I1013 18:15:37.676110 24205 layer_factory.hpp:77] Creating layer loss_Attractive
I1013 18:15:37.676120 24205 net.cpp:91] Creating Layer loss_Attractive
I1013 18:15:37.676126 24205 net.cpp:425] loss_Attractive <- fc3_Attractive
I1013 18:15:37.676131 24205 net.cpp:425] loss_Attractive <- label_Attractive
I1013 18:15:37.676136 24205 net.cpp:399] loss_Attractive -> loss_Attractive
I1013 18:15:37.676180 24205 net.cpp:141] Setting up loss_Attractive
I1013 18:15:37.676189 24205 net.cpp:148] Top shape: (1)
I1013 18:15:37.676193 24205 net.cpp:151]     with loss weight 1
I1013 18:15:37.676198 24205 net.cpp:156] Memory required for data: 2457165620
I1013 18:15:37.676201 24205 layer_factory.hpp:77] Creating layer fc3_Blurry
I1013 18:15:37.676208 24205 net.cpp:91] Creating Layer fc3_Blurry
I1013 18:15:37.676213 24205 net.cpp:425] fc3_Blurry <- fc2_face_drop2_face_0_split_1
I1013 18:15:37.676219 24205 net.cpp:399] fc3_Blurry -> fc3_Blurry
I1013 18:15:37.676340 24205 net.cpp:141] Setting up fc3_Blurry
I1013 18:15:37.676350 24205 net.cpp:148] Top shape: 64 2 (128)
I1013 18:15:37.676354 24205 net.cpp:156] Memory required for data: 2457166132
I1013 18:15:37.676362 24205 layer_factory.hpp:77] Creating layer loss_Blurry
I1013 18:15:37.676372 24205 net.cpp:91] Creating Layer loss_Blurry
I1013 18:15:37.676375 24205 net.cpp:425] loss_Blurry <- fc3_Blurry
I1013 18:15:37.676381 24205 net.cpp:425] loss_Blurry <- label_Blurry
I1013 18:15:37.676388 24205 net.cpp:399] loss_Blurry -> loss_Blurry
I1013 18:15:37.676434 24205 net.cpp:141] Setting up loss_Blurry
I1013 18:15:37.676442 24205 net.cpp:148] Top shape: (1)
I1013 18:15:37.676446 24205 net.cpp:151]     with loss weight 1
I1013 18:15:37.676462 24205 net.cpp:156] Memory required for data: 2457166136
I1013 18:15:37.676466 24205 layer_factory.hpp:77] Creating layer fc3_Oval_Face
I1013 18:15:37.676473 24205 net.cpp:91] Creating Layer fc3_Oval_Face
I1013 18:15:37.676478 24205 net.cpp:425] fc3_Oval_Face <- fc2_face_drop2_face_0_split_2
I1013 18:15:37.676484 24205 net.cpp:399] fc3_Oval_Face -> fc3_Oval_Face
I1013 18:15:37.676607 24205 net.cpp:141] Setting up fc3_Oval_Face
I1013 18:15:37.676617 24205 net.cpp:148] Top shape: 64 2 (128)
I1013 18:15:37.676621 24205 net.cpp:156] Memory required for data: 2457166648
I1013 18:15:37.676627 24205 layer_factory.hpp:77] Creating layer loss_Oval_Face
I1013 18:15:37.676640 24205 net.cpp:91] Creating Layer loss_Oval_Face
I1013 18:15:37.676645 24205 net.cpp:425] loss_Oval_Face <- fc3_Oval_Face
I1013 18:15:37.676650 24205 net.cpp:425] loss_Oval_Face <- label_Oval_Face
I1013 18:15:37.676656 24205 net.cpp:399] loss_Oval_Face -> loss_Oval_Face
I1013 18:15:37.676702 24205 net.cpp:141] Setting up loss_Oval_Face
I1013 18:15:37.676710 24205 net.cpp:148] Top shape: (1)
I1013 18:15:37.676714 24205 net.cpp:151]     with loss weight 1
I1013 18:15:37.676720 24205 net.cpp:156] Memory required for data: 2457166652
I1013 18:15:37.676724 24205 layer_factory.hpp:77] Creating layer fc3_Pale_Skin
I1013 18:15:37.676730 24205 net.cpp:91] Creating Layer fc3_Pale_Skin
I1013 18:15:37.676734 24205 net.cpp:425] fc3_Pale_Skin <- fc2_face_drop2_face_0_split_3
I1013 18:15:37.676741 24205 net.cpp:399] fc3_Pale_Skin -> fc3_Pale_Skin
I1013 18:15:37.676863 24205 net.cpp:141] Setting up fc3_Pale_Skin
I1013 18:15:37.676873 24205 net.cpp:148] Top shape: 64 2 (128)
I1013 18:15:37.676877 24205 net.cpp:156] Memory required for data: 2457167164
I1013 18:15:37.676884 24205 layer_factory.hpp:77] Creating layer loss_Pale_Skin
I1013 18:15:37.676894 24205 net.cpp:91] Creating Layer loss_Pale_Skin
I1013 18:15:37.676898 24205 net.cpp:425] loss_Pale_Skin <- fc3_Pale_Skin
I1013 18:15:37.676903 24205 net.cpp:425] loss_Pale_Skin <- label_Pale_Skin
I1013 18:15:37.676909 24205 net.cpp:399] loss_Pale_Skin -> loss_Pale_Skin
I1013 18:15:37.676954 24205 net.cpp:141] Setting up loss_Pale_Skin
I1013 18:15:37.676964 24205 net.cpp:148] Top shape: (1)
I1013 18:15:37.676967 24205 net.cpp:151]     with loss weight 1
I1013 18:15:37.676972 24205 net.cpp:156] Memory required for data: 2457167168
I1013 18:15:37.676976 24205 layer_factory.hpp:77] Creating layer fc3_Young
I1013 18:15:37.676983 24205 net.cpp:91] Creating Layer fc3_Young
I1013 18:15:37.676987 24205 net.cpp:425] fc3_Young <- fc2_face_drop2_face_0_split_4
I1013 18:15:37.676995 24205 net.cpp:399] fc3_Young -> fc3_Young
I1013 18:15:37.677114 24205 net.cpp:141] Setting up fc3_Young
I1013 18:15:37.677124 24205 net.cpp:148] Top shape: 64 2 (128)
I1013 18:15:37.677127 24205 net.cpp:156] Memory required for data: 2457167680
I1013 18:15:37.677134 24205 layer_factory.hpp:77] Creating layer loss_Young
I1013 18:15:37.677145 24205 net.cpp:91] Creating Layer loss_Young
I1013 18:15:37.677150 24205 net.cpp:425] loss_Young <- fc3_Young
I1013 18:15:37.677155 24205 net.cpp:425] loss_Young <- label_Young
I1013 18:15:37.677160 24205 net.cpp:399] loss_Young -> loss_Young
I1013 18:15:37.677207 24205 net.cpp:141] Setting up loss_Young
I1013 18:15:37.677215 24205 net.cpp:148] Top shape: (1)
I1013 18:15:37.677219 24205 net.cpp:151]     with loss weight 1
I1013 18:15:37.677224 24205 net.cpp:156] Memory required for data: 2457167684
I1013 18:15:37.677228 24205 layer_factory.hpp:77] Creating layer fc3_Heavy_Makeup
I1013 18:15:37.677235 24205 net.cpp:91] Creating Layer fc3_Heavy_Makeup
I1013 18:15:37.677239 24205 net.cpp:425] fc3_Heavy_Makeup <- fc2_face_drop2_face_0_split_5
I1013 18:15:37.677247 24205 net.cpp:399] fc3_Heavy_Makeup -> fc3_Heavy_Makeup
I1013 18:15:37.677364 24205 net.cpp:141] Setting up fc3_Heavy_Makeup
I1013 18:15:37.677373 24205 net.cpp:148] Top shape: 64 2 (128)
I1013 18:15:37.677377 24205 net.cpp:156] Memory required for data: 2457168196
I1013 18:15:37.677384 24205 layer_factory.hpp:77] Creating layer loss_Heavy_Makeup
I1013 18:15:37.677393 24205 net.cpp:91] Creating Layer loss_Heavy_Makeup
I1013 18:15:37.677407 24205 net.cpp:425] loss_Heavy_Makeup <- fc3_Heavy_Makeup
I1013 18:15:37.677413 24205 net.cpp:425] loss_Heavy_Makeup <- label_Heavy_Makeup
I1013 18:15:37.677420 24205 net.cpp:399] loss_Heavy_Makeup -> loss_Heavy_Makeup
I1013 18:15:37.677469 24205 net.cpp:141] Setting up loss_Heavy_Makeup
I1013 18:15:37.677477 24205 net.cpp:148] Top shape: (1)
I1013 18:15:37.677481 24205 net.cpp:151]     with loss weight 1
I1013 18:15:37.677487 24205 net.cpp:156] Memory required for data: 2457168200
I1013 18:15:37.677491 24205 layer_factory.hpp:77] Creating layer fc3_Black_Hair
I1013 18:15:37.677498 24205 net.cpp:91] Creating Layer fc3_Black_Hair
I1013 18:15:37.677503 24205 net.cpp:425] fc3_Black_Hair <- fc2_aroundhead_drop2_aroundhead_0_split_0
I1013 18:15:37.677510 24205 net.cpp:399] fc3_Black_Hair -> fc3_Black_Hair
I1013 18:15:37.677629 24205 net.cpp:141] Setting up fc3_Black_Hair
I1013 18:15:37.677639 24205 net.cpp:148] Top shape: 64 2 (128)
I1013 18:15:37.677642 24205 net.cpp:156] Memory required for data: 2457168712
I1013 18:15:37.677649 24205 layer_factory.hpp:77] Creating layer loss_Black_Hair
I1013 18:15:37.677657 24205 net.cpp:91] Creating Layer loss_Black_Hair
I1013 18:15:37.677662 24205 net.cpp:425] loss_Black_Hair <- fc3_Black_Hair
I1013 18:15:37.677669 24205 net.cpp:425] loss_Black_Hair <- label_Black_Hair
I1013 18:15:37.677675 24205 net.cpp:399] loss_Black_Hair -> loss_Black_Hair
I1013 18:15:37.677721 24205 net.cpp:141] Setting up loss_Black_Hair
I1013 18:15:37.677728 24205 net.cpp:148] Top shape: (1)
I1013 18:15:37.677732 24205 net.cpp:151]     with loss weight 1
I1013 18:15:37.677738 24205 net.cpp:156] Memory required for data: 2457168716
I1013 18:15:37.677742 24205 layer_factory.hpp:77] Creating layer fc3_Blond_Hair
I1013 18:15:37.677748 24205 net.cpp:91] Creating Layer fc3_Blond_Hair
I1013 18:15:37.677753 24205 net.cpp:425] fc3_Blond_Hair <- fc2_aroundhead_drop2_aroundhead_0_split_1
I1013 18:15:37.677759 24205 net.cpp:399] fc3_Blond_Hair -> fc3_Blond_Hair
I1013 18:15:37.677887 24205 net.cpp:141] Setting up fc3_Blond_Hair
I1013 18:15:37.677896 24205 net.cpp:148] Top shape: 64 2 (128)
I1013 18:15:37.677901 24205 net.cpp:156] Memory required for data: 2457169228
I1013 18:15:37.677907 24205 layer_factory.hpp:77] Creating layer loss_Blond_Hair
I1013 18:15:37.677917 24205 net.cpp:91] Creating Layer loss_Blond_Hair
I1013 18:15:37.677922 24205 net.cpp:425] loss_Blond_Hair <- fc3_Blond_Hair
I1013 18:15:37.677927 24205 net.cpp:425] loss_Blond_Hair <- label_Blond_Hair
I1013 18:15:37.677932 24205 net.cpp:399] loss_Blond_Hair -> loss_Blond_Hair
I1013 18:15:37.677978 24205 net.cpp:141] Setting up loss_Blond_Hair
I1013 18:15:37.677986 24205 net.cpp:148] Top shape: (1)
I1013 18:15:37.677990 24205 net.cpp:151]     with loss weight 1
I1013 18:15:37.677996 24205 net.cpp:156] Memory required for data: 2457169232
I1013 18:15:37.678000 24205 layer_factory.hpp:77] Creating layer fc3_Brown_Hair
I1013 18:15:37.678006 24205 net.cpp:91] Creating Layer fc3_Brown_Hair
I1013 18:15:37.678011 24205 net.cpp:425] fc3_Brown_Hair <- fc2_aroundhead_drop2_aroundhead_0_split_2
I1013 18:15:37.678019 24205 net.cpp:399] fc3_Brown_Hair -> fc3_Brown_Hair
I1013 18:15:37.678141 24205 net.cpp:141] Setting up fc3_Brown_Hair
I1013 18:15:37.678151 24205 net.cpp:148] Top shape: 64 2 (128)
I1013 18:15:37.678155 24205 net.cpp:156] Memory required for data: 2457169744
I1013 18:15:37.678163 24205 layer_factory.hpp:77] Creating layer loss_Brown_Hair
I1013 18:15:37.678171 24205 net.cpp:91] Creating Layer loss_Brown_Hair
I1013 18:15:37.678176 24205 net.cpp:425] loss_Brown_Hair <- fc3_Brown_Hair
I1013 18:15:37.678182 24205 net.cpp:425] loss_Brown_Hair <- label_Brown_Hair
I1013 18:15:37.678189 24205 net.cpp:399] loss_Brown_Hair -> loss_Brown_Hair
I1013 18:15:37.678236 24205 net.cpp:141] Setting up loss_Brown_Hair
I1013 18:15:37.678246 24205 net.cpp:148] Top shape: (1)
I1013 18:15:37.678249 24205 net.cpp:151]     with loss weight 1
I1013 18:15:37.678254 24205 net.cpp:156] Memory required for data: 2457169748
I1013 18:15:37.678267 24205 layer_factory.hpp:77] Creating layer fc3_Gray_Hair
I1013 18:15:37.678274 24205 net.cpp:91] Creating Layer fc3_Gray_Hair
I1013 18:15:37.678279 24205 net.cpp:425] fc3_Gray_Hair <- fc2_aroundhead_drop2_aroundhead_0_split_3
I1013 18:15:37.678287 24205 net.cpp:399] fc3_Gray_Hair -> fc3_Gray_Hair
I1013 18:15:37.678409 24205 net.cpp:141] Setting up fc3_Gray_Hair
I1013 18:15:37.678419 24205 net.cpp:148] Top shape: 64 2 (128)
I1013 18:15:37.678424 24205 net.cpp:156] Memory required for data: 2457170260
I1013 18:15:37.678431 24205 layer_factory.hpp:77] Creating layer loss_Gray_Hair
I1013 18:15:37.678441 24205 net.cpp:91] Creating Layer loss_Gray_Hair
I1013 18:15:37.678444 24205 net.cpp:425] loss_Gray_Hair <- fc3_Gray_Hair
I1013 18:15:37.678450 24205 net.cpp:425] loss_Gray_Hair <- label_Gray_Hair
I1013 18:15:37.678458 24205 net.cpp:399] loss_Gray_Hair -> loss_Gray_Hair
I1013 18:15:37.678503 24205 net.cpp:141] Setting up loss_Gray_Hair
I1013 18:15:37.678514 24205 net.cpp:148] Top shape: (1)
I1013 18:15:37.678519 24205 net.cpp:151]     with loss weight 1
I1013 18:15:37.678524 24205 net.cpp:156] Memory required for data: 2457170264
I1013 18:15:37.678529 24205 layer_factory.hpp:77] Creating layer fc3_Wearing_Earrings
I1013 18:15:37.678536 24205 net.cpp:91] Creating Layer fc3_Wearing_Earrings
I1013 18:15:37.678540 24205 net.cpp:425] fc3_Wearing_Earrings <- fc2_aroundhead_drop2_aroundhead_0_split_4
I1013 18:15:37.678547 24205 net.cpp:399] fc3_Wearing_Earrings -> fc3_Wearing_Earrings
I1013 18:15:37.678674 24205 net.cpp:141] Setting up fc3_Wearing_Earrings
I1013 18:15:37.678684 24205 net.cpp:148] Top shape: 64 2 (128)
I1013 18:15:37.678689 24205 net.cpp:156] Memory required for data: 2457170776
I1013 18:15:37.678695 24205 layer_factory.hpp:77] Creating layer loss_Wearing_Earrings
I1013 18:15:37.678705 24205 net.cpp:91] Creating Layer loss_Wearing_Earrings
I1013 18:15:37.678710 24205 net.cpp:425] loss_Wearing_Earrings <- fc3_Wearing_Earrings
I1013 18:15:37.678716 24205 net.cpp:425] loss_Wearing_Earrings <- label_Wearing_Earrings
I1013 18:15:37.678725 24205 net.cpp:399] loss_Wearing_Earrings -> loss_Wearing_Earrings
I1013 18:15:37.678769 24205 net.cpp:141] Setting up loss_Wearing_Earrings
I1013 18:15:37.678777 24205 net.cpp:148] Top shape: (1)
I1013 18:15:37.678781 24205 net.cpp:151]     with loss weight 1
I1013 18:15:37.678786 24205 net.cpp:156] Memory required for data: 2457170780
I1013 18:15:37.678791 24205 layer_factory.hpp:77] Creating layer fc3_Wearing_Necklace
I1013 18:15:37.678802 24205 net.cpp:91] Creating Layer fc3_Wearing_Necklace
I1013 18:15:37.678805 24205 net.cpp:425] fc3_Wearing_Necklace <- fc2_aroundhead_drop2_aroundhead_0_split_5
I1013 18:15:37.678812 24205 net.cpp:399] fc3_Wearing_Necklace -> fc3_Wearing_Necklace
I1013 18:15:37.678935 24205 net.cpp:141] Setting up fc3_Wearing_Necklace
I1013 18:15:37.678944 24205 net.cpp:148] Top shape: 64 2 (128)
I1013 18:15:37.678948 24205 net.cpp:156] Memory required for data: 2457171292
I1013 18:15:37.678956 24205 layer_factory.hpp:77] Creating layer loss_Wearing_Necklace
I1013 18:15:37.678966 24205 net.cpp:91] Creating Layer loss_Wearing_Necklace
I1013 18:15:37.678971 24205 net.cpp:425] loss_Wearing_Necklace <- fc3_Wearing_Necklace
I1013 18:15:37.678977 24205 net.cpp:425] loss_Wearing_Necklace <- label_Wearing_Necklace
I1013 18:15:37.678984 24205 net.cpp:399] loss_Wearing_Necklace -> loss_Wearing_Necklace
I1013 18:15:37.679029 24205 net.cpp:141] Setting up loss_Wearing_Necklace
I1013 18:15:37.679039 24205 net.cpp:148] Top shape: (1)
I1013 18:15:37.679042 24205 net.cpp:151]     with loss weight 1
I1013 18:15:37.679047 24205 net.cpp:156] Memory required for data: 2457171296
I1013 18:15:37.679051 24205 layer_factory.hpp:77] Creating layer fc3_Wearing_Necktie
I1013 18:15:37.679061 24205 net.cpp:91] Creating Layer fc3_Wearing_Necktie
I1013 18:15:37.679065 24205 net.cpp:425] fc3_Wearing_Necktie <- fc2_aroundhead_drop2_aroundhead_0_split_6
I1013 18:15:37.679072 24205 net.cpp:399] fc3_Wearing_Necktie -> fc3_Wearing_Necktie
I1013 18:15:37.679193 24205 net.cpp:141] Setting up fc3_Wearing_Necktie
I1013 18:15:37.679214 24205 net.cpp:148] Top shape: 64 2 (128)
I1013 18:15:37.679219 24205 net.cpp:156] Memory required for data: 2457171808
I1013 18:15:37.679225 24205 layer_factory.hpp:77] Creating layer loss_Wearing_Necktie
I1013 18:15:37.679234 24205 net.cpp:91] Creating Layer loss_Wearing_Necktie
I1013 18:15:37.679239 24205 net.cpp:425] loss_Wearing_Necktie <- fc3_Wearing_Necktie
I1013 18:15:37.679244 24205 net.cpp:425] loss_Wearing_Necktie <- label_Wearing_Necktie
I1013 18:15:37.679251 24205 net.cpp:399] loss_Wearing_Necktie -> loss_Wearing_Necktie
I1013 18:15:37.679297 24205 net.cpp:141] Setting up loss_Wearing_Necktie
I1013 18:15:37.679306 24205 net.cpp:148] Top shape: (1)
I1013 18:15:37.679309 24205 net.cpp:151]     with loss weight 1
I1013 18:15:37.679316 24205 net.cpp:156] Memory required for data: 2457171812
I1013 18:15:37.679319 24205 layer_factory.hpp:77] Creating layer fc3_Bald
I1013 18:15:37.679328 24205 net.cpp:91] Creating Layer fc3_Bald
I1013 18:15:37.679333 24205 net.cpp:425] fc3_Bald <- fc2_aroundhead_drop2_aroundhead_0_split_7
I1013 18:15:37.679339 24205 net.cpp:399] fc3_Bald -> fc3_Bald
I1013 18:15:37.679457 24205 net.cpp:141] Setting up fc3_Bald
I1013 18:15:37.679469 24205 net.cpp:148] Top shape: 64 2 (128)
I1013 18:15:37.679473 24205 net.cpp:156] Memory required for data: 2457172324
I1013 18:15:37.679481 24205 layer_factory.hpp:77] Creating layer loss_Bald
I1013 18:15:37.679488 24205 net.cpp:91] Creating Layer loss_Bald
I1013 18:15:37.679492 24205 net.cpp:425] loss_Bald <- fc3_Bald
I1013 18:15:37.679497 24205 net.cpp:425] loss_Bald <- label_Bald
I1013 18:15:37.679505 24205 net.cpp:399] loss_Bald -> loss_Bald
I1013 18:15:37.679548 24205 net.cpp:141] Setting up loss_Bald
I1013 18:15:37.679558 24205 net.cpp:148] Top shape: (1)
I1013 18:15:37.679561 24205 net.cpp:151]     with loss weight 1
I1013 18:15:37.679566 24205 net.cpp:156] Memory required for data: 2457172328
I1013 18:15:37.679570 24205 layer_factory.hpp:77] Creating layer fc3_Receding_Hairline
I1013 18:15:37.679579 24205 net.cpp:91] Creating Layer fc3_Receding_Hairline
I1013 18:15:37.679584 24205 net.cpp:425] fc3_Receding_Hairline <- fc2_aroundhead_drop2_aroundhead_0_split_8
I1013 18:15:37.679590 24205 net.cpp:399] fc3_Receding_Hairline -> fc3_Receding_Hairline
I1013 18:15:37.679708 24205 net.cpp:141] Setting up fc3_Receding_Hairline
I1013 18:15:37.679716 24205 net.cpp:148] Top shape: 64 2 (128)
I1013 18:15:37.679720 24205 net.cpp:156] Memory required for data: 2457172840
I1013 18:15:37.679726 24205 layer_factory.hpp:77] Creating layer loss_Receding_Hairline
I1013 18:15:37.679735 24205 net.cpp:91] Creating Layer loss_Receding_Hairline
I1013 18:15:37.679740 24205 net.cpp:425] loss_Receding_Hairline <- fc3_Receding_Hairline
I1013 18:15:37.679746 24205 net.cpp:425] loss_Receding_Hairline <- label_Receding_Hairline
I1013 18:15:37.679754 24205 net.cpp:399] loss_Receding_Hairline -> loss_Receding_Hairline
I1013 18:15:37.679800 24205 net.cpp:141] Setting up loss_Receding_Hairline
I1013 18:15:37.679813 24205 net.cpp:148] Top shape: (1)
I1013 18:15:37.679818 24205 net.cpp:151]     with loss weight 1
I1013 18:15:37.679823 24205 net.cpp:156] Memory required for data: 2457172844
I1013 18:15:37.679827 24205 layer_factory.hpp:77] Creating layer fc3_Bangs
I1013 18:15:37.679837 24205 net.cpp:91] Creating Layer fc3_Bangs
I1013 18:15:37.679842 24205 net.cpp:425] fc3_Bangs <- fc2_aroundhead_drop2_aroundhead_0_split_9
I1013 18:15:37.679849 24205 net.cpp:399] fc3_Bangs -> fc3_Bangs
I1013 18:15:37.679970 24205 net.cpp:141] Setting up fc3_Bangs
I1013 18:15:37.679981 24205 net.cpp:148] Top shape: 64 2 (128)
I1013 18:15:37.679986 24205 net.cpp:156] Memory required for data: 2457173356
I1013 18:15:37.679992 24205 layer_factory.hpp:77] Creating layer loss_Bangs
I1013 18:15:37.680001 24205 net.cpp:91] Creating Layer loss_Bangs
I1013 18:15:37.680006 24205 net.cpp:425] loss_Bangs <- fc3_Bangs
I1013 18:15:37.680011 24205 net.cpp:425] loss_Bangs <- label_Bangs
I1013 18:15:37.680021 24205 net.cpp:399] loss_Bangs -> loss_Bangs
I1013 18:15:37.680064 24205 net.cpp:141] Setting up loss_Bangs
I1013 18:15:37.680083 24205 net.cpp:148] Top shape: (1)
I1013 18:15:37.680088 24205 net.cpp:151]     with loss weight 1
I1013 18:15:37.680094 24205 net.cpp:156] Memory required for data: 2457173360
I1013 18:15:37.680097 24205 layer_factory.hpp:77] Creating layer fc3_Wearing_Hat
I1013 18:15:37.680110 24205 net.cpp:91] Creating Layer fc3_Wearing_Hat
I1013 18:15:37.680115 24205 net.cpp:425] fc3_Wearing_Hat <- fc2_aroundhead_drop2_aroundhead_0_split_10
I1013 18:15:37.680122 24205 net.cpp:399] fc3_Wearing_Hat -> fc3_Wearing_Hat
I1013 18:15:37.680243 24205 net.cpp:141] Setting up fc3_Wearing_Hat
I1013 18:15:37.680253 24205 net.cpp:148] Top shape: 64 2 (128)
I1013 18:15:37.680256 24205 net.cpp:156] Memory required for data: 2457173872
I1013 18:15:37.680263 24205 layer_factory.hpp:77] Creating layer loss_Wearing_Hat
I1013 18:15:37.680271 24205 net.cpp:91] Creating Layer loss_Wearing_Hat
I1013 18:15:37.680276 24205 net.cpp:425] loss_Wearing_Hat <- fc3_Wearing_Hat
I1013 18:15:37.680281 24205 net.cpp:425] loss_Wearing_Hat <- label_Wearing_Hat
I1013 18:15:37.680289 24205 net.cpp:399] loss_Wearing_Hat -> loss_Wearing_Hat
I1013 18:15:37.680333 24205 net.cpp:141] Setting up loss_Wearing_Hat
I1013 18:15:37.680342 24205 net.cpp:148] Top shape: (1)
I1013 18:15:37.680346 24205 net.cpp:151]     with loss weight 1
I1013 18:15:37.680351 24205 net.cpp:156] Memory required for data: 2457173876
I1013 18:15:37.680356 24205 layer_factory.hpp:77] Creating layer fc3_Straight_Hair
I1013 18:15:37.680364 24205 net.cpp:91] Creating Layer fc3_Straight_Hair
I1013 18:15:37.680369 24205 net.cpp:425] fc3_Straight_Hair <- fc2_aroundhead_drop2_aroundhead_0_split_11
I1013 18:15:37.680377 24205 net.cpp:399] fc3_Straight_Hair -> fc3_Straight_Hair
I1013 18:15:37.680492 24205 net.cpp:141] Setting up fc3_Straight_Hair
I1013 18:15:37.680501 24205 net.cpp:148] Top shape: 64 2 (128)
I1013 18:15:37.680505 24205 net.cpp:156] Memory required for data: 2457174388
I1013 18:15:37.680512 24205 layer_factory.hpp:77] Creating layer loss_Straight_Hair
I1013 18:15:37.680523 24205 net.cpp:91] Creating Layer loss_Straight_Hair
I1013 18:15:37.680527 24205 net.cpp:425] loss_Straight_Hair <- fc3_Straight_Hair
I1013 18:15:37.680533 24205 net.cpp:425] loss_Straight_Hair <- label_Straight_Hair
I1013 18:15:37.680539 24205 net.cpp:399] loss_Straight_Hair -> loss_Straight_Hair
I1013 18:15:37.680584 24205 net.cpp:141] Setting up loss_Straight_Hair
I1013 18:15:37.680593 24205 net.cpp:148] Top shape: (1)
I1013 18:15:37.680598 24205 net.cpp:151]     with loss weight 1
I1013 18:15:37.680603 24205 net.cpp:156] Memory required for data: 2457174392
I1013 18:15:37.680606 24205 layer_factory.hpp:77] Creating layer fc3_Wavy_Hair
I1013 18:15:37.680615 24205 net.cpp:91] Creating Layer fc3_Wavy_Hair
I1013 18:15:37.680619 24205 net.cpp:425] fc3_Wavy_Hair <- fc2_aroundhead_drop2_aroundhead_0_split_12
I1013 18:15:37.680626 24205 net.cpp:399] fc3_Wavy_Hair -> fc3_Wavy_Hair
I1013 18:15:37.680759 24205 net.cpp:141] Setting up fc3_Wavy_Hair
I1013 18:15:37.680770 24205 net.cpp:148] Top shape: 64 2 (128)
I1013 18:15:37.680773 24205 net.cpp:156] Memory required for data: 2457174904
I1013 18:15:37.680780 24205 layer_factory.hpp:77] Creating layer loss_Wavy_Hair
I1013 18:15:37.680789 24205 net.cpp:91] Creating Layer loss_Wavy_Hair
I1013 18:15:37.680794 24205 net.cpp:425] loss_Wavy_Hair <- fc3_Wavy_Hair
I1013 18:15:37.680799 24205 net.cpp:425] loss_Wavy_Hair <- label_Wavy_Hair
I1013 18:15:37.680804 24205 net.cpp:399] loss_Wavy_Hair -> loss_Wavy_Hair
I1013 18:15:37.680851 24205 net.cpp:141] Setting up loss_Wavy_Hair
I1013 18:15:37.680860 24205 net.cpp:148] Top shape: (1)
I1013 18:15:37.680865 24205 net.cpp:151]     with loss weight 1
I1013 18:15:37.680869 24205 net.cpp:156] Memory required for data: 2457174908
I1013 18:15:37.680873 24205 layer_factory.hpp:77] Creating layer fc3_5_o_Clock_Shadow
I1013 18:15:37.680883 24205 net.cpp:91] Creating Layer fc3_5_o_Clock_Shadow
I1013 18:15:37.680888 24205 net.cpp:425] fc3_5_o_Clock_Shadow <- fc2_facialhair_drop2_facialhair_0_split_0
I1013 18:15:37.680904 24205 net.cpp:399] fc3_5_o_Clock_Shadow -> fc3_5_o_Clock_Shadow
I1013 18:15:37.681026 24205 net.cpp:141] Setting up fc3_5_o_Clock_Shadow
I1013 18:15:37.681036 24205 net.cpp:148] Top shape: 64 2 (128)
I1013 18:15:37.681041 24205 net.cpp:156] Memory required for data: 2457175420
I1013 18:15:37.681047 24205 layer_factory.hpp:77] Creating layer loss_5_o_Clock_Shadow
I1013 18:15:37.681056 24205 net.cpp:91] Creating Layer loss_5_o_Clock_Shadow
I1013 18:15:37.681061 24205 net.cpp:425] loss_5_o_Clock_Shadow <- fc3_5_o_Clock_Shadow
I1013 18:15:37.681067 24205 net.cpp:425] loss_5_o_Clock_Shadow <- label_5_o_Clock_Shadow
I1013 18:15:37.681072 24205 net.cpp:399] loss_5_o_Clock_Shadow -> loss_5_o_Clock_Shadow
I1013 18:15:37.681123 24205 net.cpp:141] Setting up loss_5_o_Clock_Shadow
I1013 18:15:37.681131 24205 net.cpp:148] Top shape: (1)
I1013 18:15:37.681135 24205 net.cpp:151]     with loss weight 1
I1013 18:15:37.681140 24205 net.cpp:156] Memory required for data: 2457175424
I1013 18:15:37.681144 24205 layer_factory.hpp:77] Creating layer fc3_Mustache
I1013 18:15:37.681154 24205 net.cpp:91] Creating Layer fc3_Mustache
I1013 18:15:37.681157 24205 net.cpp:425] fc3_Mustache <- fc2_facialhair_drop2_facialhair_0_split_1
I1013 18:15:37.681164 24205 net.cpp:399] fc3_Mustache -> fc3_Mustache
I1013 18:15:37.681288 24205 net.cpp:141] Setting up fc3_Mustache
I1013 18:15:37.681296 24205 net.cpp:148] Top shape: 64 2 (128)
I1013 18:15:37.681300 24205 net.cpp:156] Memory required for data: 2457175936
I1013 18:15:37.681308 24205 layer_factory.hpp:77] Creating layer loss_Mustache
I1013 18:15:37.681316 24205 net.cpp:91] Creating Layer loss_Mustache
I1013 18:15:37.681321 24205 net.cpp:425] loss_Mustache <- fc3_Mustache
I1013 18:15:37.681326 24205 net.cpp:425] loss_Mustache <- label_Mustache
I1013 18:15:37.681332 24205 net.cpp:399] loss_Mustache -> loss_Mustache
I1013 18:15:37.681377 24205 net.cpp:141] Setting up loss_Mustache
I1013 18:15:37.681386 24205 net.cpp:148] Top shape: (1)
I1013 18:15:37.681391 24205 net.cpp:151]     with loss weight 1
I1013 18:15:37.681396 24205 net.cpp:156] Memory required for data: 2457175940
I1013 18:15:37.681399 24205 layer_factory.hpp:77] Creating layer fc3_No_Beard
I1013 18:15:37.681408 24205 net.cpp:91] Creating Layer fc3_No_Beard
I1013 18:15:37.681412 24205 net.cpp:425] fc3_No_Beard <- fc2_facialhair_drop2_facialhair_0_split_2
I1013 18:15:37.681419 24205 net.cpp:399] fc3_No_Beard -> fc3_No_Beard
I1013 18:15:37.681540 24205 net.cpp:141] Setting up fc3_No_Beard
I1013 18:15:37.681550 24205 net.cpp:148] Top shape: 64 2 (128)
I1013 18:15:37.681553 24205 net.cpp:156] Memory required for data: 2457176452
I1013 18:15:37.681560 24205 layer_factory.hpp:77] Creating layer loss_No_Beard
I1013 18:15:37.681569 24205 net.cpp:91] Creating Layer loss_No_Beard
I1013 18:15:37.681574 24205 net.cpp:425] loss_No_Beard <- fc3_No_Beard
I1013 18:15:37.681579 24205 net.cpp:425] loss_No_Beard <- label_No_Beard
I1013 18:15:37.681586 24205 net.cpp:399] loss_No_Beard -> loss_No_Beard
I1013 18:15:37.681633 24205 net.cpp:141] Setting up loss_No_Beard
I1013 18:15:37.681643 24205 net.cpp:148] Top shape: (1)
I1013 18:15:37.681646 24205 net.cpp:151]     with loss weight 1
I1013 18:15:37.681651 24205 net.cpp:156] Memory required for data: 2457176456
I1013 18:15:37.681655 24205 layer_factory.hpp:77] Creating layer fc3_Sideburns
I1013 18:15:37.681664 24205 net.cpp:91] Creating Layer fc3_Sideburns
I1013 18:15:37.681669 24205 net.cpp:425] fc3_Sideburns <- fc2_facialhair_drop2_facialhair_0_split_3
I1013 18:15:37.681675 24205 net.cpp:399] fc3_Sideburns -> fc3_Sideburns
I1013 18:15:37.681814 24205 net.cpp:141] Setting up fc3_Sideburns
I1013 18:15:37.681824 24205 net.cpp:148] Top shape: 64 2 (128)
I1013 18:15:37.681828 24205 net.cpp:156] Memory required for data: 2457176968
I1013 18:15:37.681835 24205 layer_factory.hpp:77] Creating layer loss_Sideburns
I1013 18:15:37.681845 24205 net.cpp:91] Creating Layer loss_Sideburns
I1013 18:15:37.681850 24205 net.cpp:425] loss_Sideburns <- fc3_Sideburns
I1013 18:15:37.681855 24205 net.cpp:425] loss_Sideburns <- label_Sideburns
I1013 18:15:37.681870 24205 net.cpp:399] loss_Sideburns -> loss_Sideburns
I1013 18:15:37.681923 24205 net.cpp:141] Setting up loss_Sideburns
I1013 18:15:37.681932 24205 net.cpp:148] Top shape: (1)
I1013 18:15:37.681936 24205 net.cpp:151]     with loss weight 1
I1013 18:15:37.681941 24205 net.cpp:156] Memory required for data: 2457176972
I1013 18:15:37.681946 24205 layer_factory.hpp:77] Creating layer fc3_Goatee
I1013 18:15:37.681954 24205 net.cpp:91] Creating Layer fc3_Goatee
I1013 18:15:37.681959 24205 net.cpp:425] fc3_Goatee <- fc2_facialhair_drop2_facialhair_0_split_4
I1013 18:15:37.681965 24205 net.cpp:399] fc3_Goatee -> fc3_Goatee
I1013 18:15:37.682685 24205 net.cpp:141] Setting up fc3_Goatee
I1013 18:15:37.682700 24205 net.cpp:148] Top shape: 64 2 (128)
I1013 18:15:37.682704 24205 net.cpp:156] Memory required for data: 2457177484
I1013 18:15:37.682713 24205 layer_factory.hpp:77] Creating layer loss_Goatee
I1013 18:15:37.682721 24205 net.cpp:91] Creating Layer loss_Goatee
I1013 18:15:37.682726 24205 net.cpp:425] loss_Goatee <- fc3_Goatee
I1013 18:15:37.682732 24205 net.cpp:425] loss_Goatee <- label_Goatee
I1013 18:15:37.682740 24205 net.cpp:399] loss_Goatee -> loss_Goatee
I1013 18:15:37.682780 24205 net.cpp:141] Setting up loss_Goatee
I1013 18:15:37.682786 24205 net.cpp:148] Top shape: (1)
I1013 18:15:37.682790 24205 net.cpp:151]     with loss weight 1
I1013 18:15:37.682796 24205 net.cpp:156] Memory required for data: 2457177488
I1013 18:15:37.682801 24205 layer_factory.hpp:77] Creating layer fc3_High_Cheekbones
I1013 18:15:37.682809 24205 net.cpp:91] Creating Layer fc3_High_Cheekbones
I1013 18:15:37.682814 24205 net.cpp:425] fc3_High_Cheekbones <- fc2_cheeks_drop2_cheeks_0_split_0
I1013 18:15:37.682821 24205 net.cpp:399] fc3_High_Cheekbones -> fc3_High_Cheekbones
I1013 18:15:37.682925 24205 net.cpp:141] Setting up fc3_High_Cheekbones
I1013 18:15:37.682935 24205 net.cpp:148] Top shape: 64 2 (128)
I1013 18:15:37.682940 24205 net.cpp:156] Memory required for data: 2457178000
I1013 18:15:37.682946 24205 layer_factory.hpp:77] Creating layer loss_High_Cheekbones
I1013 18:15:37.682955 24205 net.cpp:91] Creating Layer loss_High_Cheekbones
I1013 18:15:37.682960 24205 net.cpp:425] loss_High_Cheekbones <- fc3_High_Cheekbones
I1013 18:15:37.682965 24205 net.cpp:425] loss_High_Cheekbones <- label_High_Cheekbones
I1013 18:15:37.682971 24205 net.cpp:399] loss_High_Cheekbones -> loss_High_Cheekbones
I1013 18:15:37.683008 24205 net.cpp:141] Setting up loss_High_Cheekbones
I1013 18:15:37.683017 24205 net.cpp:148] Top shape: (1)
I1013 18:15:37.683020 24205 net.cpp:151]     with loss weight 1
I1013 18:15:37.683025 24205 net.cpp:156] Memory required for data: 2457178004
I1013 18:15:37.683029 24205 layer_factory.hpp:77] Creating layer fc3_Rosy_Cheeks
I1013 18:15:37.683039 24205 net.cpp:91] Creating Layer fc3_Rosy_Cheeks
I1013 18:15:37.683044 24205 net.cpp:425] fc3_Rosy_Cheeks <- fc2_cheeks_drop2_cheeks_0_split_1
I1013 18:15:37.683050 24205 net.cpp:399] fc3_Rosy_Cheeks -> fc3_Rosy_Cheeks
I1013 18:15:37.683153 24205 net.cpp:141] Setting up fc3_Rosy_Cheeks
I1013 18:15:37.683163 24205 net.cpp:148] Top shape: 64 2 (128)
I1013 18:15:37.683167 24205 net.cpp:156] Memory required for data: 2457178516
I1013 18:15:37.683173 24205 layer_factory.hpp:77] Creating layer loss_Rosy_Cheeks
I1013 18:15:37.683184 24205 net.cpp:91] Creating Layer loss_Rosy_Cheeks
I1013 18:15:37.683189 24205 net.cpp:425] loss_Rosy_Cheeks <- fc3_Rosy_Cheeks
I1013 18:15:37.683194 24205 net.cpp:425] loss_Rosy_Cheeks <- label_Rosy_Cheeks
I1013 18:15:37.683200 24205 net.cpp:399] loss_Rosy_Cheeks -> loss_Rosy_Cheeks
I1013 18:15:37.683238 24205 net.cpp:141] Setting up loss_Rosy_Cheeks
I1013 18:15:37.683245 24205 net.cpp:148] Top shape: (1)
I1013 18:15:37.683248 24205 net.cpp:151]     with loss weight 1
I1013 18:15:37.683254 24205 net.cpp:156] Memory required for data: 2457178520
I1013 18:15:37.683259 24205 layer_factory.hpp:77] Creating layer fc3_Chubby
I1013 18:15:37.683267 24205 net.cpp:91] Creating Layer fc3_Chubby
I1013 18:15:37.683272 24205 net.cpp:425] fc3_Chubby <- fc2_fat_drop2_fat_0_split_0
I1013 18:15:37.683290 24205 net.cpp:399] fc3_Chubby -> fc3_Chubby
I1013 18:15:37.683393 24205 net.cpp:141] Setting up fc3_Chubby
I1013 18:15:37.683403 24205 net.cpp:148] Top shape: 64 2 (128)
I1013 18:15:37.683408 24205 net.cpp:156] Memory required for data: 2457179032
I1013 18:15:37.683413 24205 layer_factory.hpp:77] Creating layer loss_Chubby
I1013 18:15:37.683423 24205 net.cpp:91] Creating Layer loss_Chubby
I1013 18:15:37.683428 24205 net.cpp:425] loss_Chubby <- fc3_Chubby
I1013 18:15:37.683432 24205 net.cpp:425] loss_Chubby <- label_Chubby
I1013 18:15:37.683439 24205 net.cpp:399] loss_Chubby -> loss_Chubby
I1013 18:15:37.683475 24205 net.cpp:141] Setting up loss_Chubby
I1013 18:15:37.683482 24205 net.cpp:148] Top shape: (1)
I1013 18:15:37.683486 24205 net.cpp:151]     with loss weight 1
I1013 18:15:37.683492 24205 net.cpp:156] Memory required for data: 2457179036
I1013 18:15:37.683496 24205 layer_factory.hpp:77] Creating layer fc3_Double_Chin
I1013 18:15:37.683506 24205 net.cpp:91] Creating Layer fc3_Double_Chin
I1013 18:15:37.683511 24205 net.cpp:425] fc3_Double_Chin <- fc2_fat_drop2_fat_0_split_1
I1013 18:15:37.683516 24205 net.cpp:399] fc3_Double_Chin -> fc3_Double_Chin
I1013 18:15:37.683617 24205 net.cpp:141] Setting up fc3_Double_Chin
I1013 18:15:37.683626 24205 net.cpp:148] Top shape: 64 2 (128)
I1013 18:15:37.683630 24205 net.cpp:156] Memory required for data: 2457179548
I1013 18:15:37.683637 24205 layer_factory.hpp:77] Creating layer loss_Double_Chin
I1013 18:15:37.683646 24205 net.cpp:91] Creating Layer loss_Double_Chin
I1013 18:15:37.683651 24205 net.cpp:425] loss_Double_Chin <- fc3_Double_Chin
I1013 18:15:37.683656 24205 net.cpp:425] loss_Double_Chin <- label_Double_Chin
I1013 18:15:37.683662 24205 net.cpp:399] loss_Double_Chin -> loss_Double_Chin
…
I1013 18:15:37.683781 24205 net.cpp:425] attr_top_feat <- fc2_face_drop2_face_0_split_6
I1013 18:15:37.683786 24205 net.cpp:425] attr_top_feat <- fc2_aroundhead_drop2_aroundhead_0_split_13
I1013 18:15:37.683790 24205 net.cpp:425] attr_top_feat <- fc2_facialhair_drop2_facialhair_0_split_5
I1013 18:15:37.683795 24205 net.cpp:425] attr_top_feat <- fc2_cheeks_drop2_cheeks_0_split_2
I1013 18:15:37.683799 24205 net.cpp:425] attr_top_feat <- fc2_fat_drop2_fat_0_split_2
I1013 18:15:37.683806 24205 net.cpp:399] attr_top_feat -> attr_top_feat
I1013 18:15:37.683840 24205 net.cpp:141] Setting up attr_top_feat
I1013 18:15:37.683846 24205 net.cpp:148] Top shape: 64 4608 (294912)
I1013 18:15:37.683851 24205 net.cpp:156] Memory required for data: 2458359200
I1013 18:15:37.683854 24205 layer_factory.hpp:77] Creating layer fc8_top_attr
I1013 18:15:37.683863 24205 net.cpp:91] Creating Layer fc8_top_attr
I1013 18:15:37.683868 24205 net.cpp:425] fc8_top_attr <- attr_top_feat
I1013 18:15:37.683874 24205 net.cpp:399] fc8_top_attr -> fc8_top_attr
I1013 18:15:37.801239 24205 net.cpp:141] Setting up fc8_top_attr
I1013 18:15:37.801277 24205 net.cpp:148] Top shape: 64 2837 (181568)
I1013 18:15:37.801306 24205 net.cpp:156] Memory required for data: 2459085472
I1013 18:15:37.801318 24205 layer_factory.hpp:77] Creating layer fc8_top_attr_fc8_top_attr_0_split
I1013 18:15:37.801329 24205 net.cpp:91] Creating Layer fc8_top_attr_fc8_top_attr_0_split
I1013 18:15:37.801337 24205 net.cpp:425] fc8_top_attr_fc8_top_attr_0_split <- fc8_top_attr
I1013 18:15:37.801347 24205 net.cpp:399] fc8_top_attr_fc8_top_attr_0_split -> fc8_top_attr_fc8_top_attr_0_split_0
I1013 18:15:37.801359 24205 net.cpp:399] fc8_top_attr_fc8_top_attr_0_split -> fc8_top_attr_fc8_top_attr_0_split_1
I1013 18:15:37.801367 24205 net.cpp:399] fc8_top_attr_fc8_top_attr_0_split -> fc8_top_attr_fc8_top_attr_0_split_2
I1013 18:15:37.801425 24205 net.cpp:141] Setting up fc8_top_attr_fc8_top_attr_0_split
I1013 18:15:37.801434 24205 net.cpp:148] Top shape: 64 2837 (181568)
I1013 18:15:37.801439 24205 net.cpp:148] Top shape: 64 2837 (181568)
I1013 18:15:37.801443 24205 net.cpp:148] Top shape: 64 2837 (181568)
I1013 18:15:37.801447 24205 net.cpp:156] Memory required for data: 2461264288
I1013 18:15:37.801451 24205 layer_factory.hpp:77] Creating layer loss_top_attr
I1013 18:15:37.801460 24205 net.cpp:91] Creating Layer loss_top_attr
I1013 18:15:37.801465 24205 net.cpp:425] loss_top_attr <- fc8_top_attr_fc8_top_attr_0_split_0
I1013 18:15:37.801471 24205 net.cpp:425] loss_top_attr <- label_data_1_split_0
…
