…
    slice_point: 24
    slice_point: 26
    slice_point: 28
    slice_point: 30
    slice_point: 32
    slice_point: 34
    slice_point: 36
    slice_point: 38
    slice_point: 40
    slice_point: 42
    slice_point: 44
    slice_point: 46
    slice_point: 48
    slice_point: 50
    slice_point: 52
    slice_point: 54
    slice_point: 56
    slice_point: 58
    slice_point: 60
    slice_point: 62
    slice_point: 64
    slice_point: 66
    slice_point: 68
    slice_point: 70
    slice_point: 72
    slice_point: 74
    slice_point: 76
    slice_point: 78
  }
}
layer {
  name: "conv1_bn"
  type: "BatchNorm"
  bottom: "conv1"
  top: "conv1"
  batch_norm_param {
    use_global_stats: false
  }
}
layer {
  name: "conv1_scale"
  type: "Scale"
  bottom: "conv1"
  top: "conv1"
  scale_param {
    bias_term: true
  }
}
layer {
  name: "prelu1"
  type: "PReLU"
  bottom: "conv1"
  top: "conv1"
}
layer {
  name: "pool1"
  type: "Pooling"
  bottom: "conv1"
  top: "pool1"
  pooling_param {
    pool: MAX
    kernel_size: 2
    stride: 2
  }
}
layer {
  name: "conv2a"
  type: "Convolution"
  bottom: "pool1"
  top: "conv2a"
  param {
    name: "conv2a_w"
    lr_mult: 1
    decay_mult: 1
  }
  param {
    name: "conv2a_b"
    lr_mult: 2
    decay_mult: 0
  }
  convolution_param {
    num_output: 64
    kernel_size: 1
    weight_filler {
      type: "xavier"
    }
    bias_filler {
      type: "constant"
      value: 0.2
    }
  }
}
layer {
  name: "conv2a_bn"
  type: "BatchNorm"
  bottom: "conv2a"
  top: "conv2a"
  batch_norm_param {
    use_global_stats: false
  }
}
layer {
  name: "conv2a_scale"
  type: "Scale"
  bottom: "conv2a"
  top: "conv2a"
  scale_param {
    bias_term: true
  }
}
layer {
  name: "prelu2a"
  type: "PReLU"
  bottom: "conv2a"
  top: "conv2a"
}
layer {
  name: "conv2"
  type: "Convolution"
  bottom: "conv2a"
  top: "conv2"
  param {
    name: "conv2_w"
    lr_mult: 1
    decay_mult: 1
  }
  param {
    name: "conv2_b"
    lr_mult: 2
    decay_mult: 0
  }
  convolution_param {
    num_output: 192
    pad: 1
    kernel_size: 3
    stride: 1
    weight_filler {
      type: "xavier"
    }
    bias_filler {
      type: "constant"
      value: 0.2
    }
  }
}
layer {
  name: "conv2_bn"
  type: "BatchNorm"
  bottom: "conv2"
  top: "conv2"
  batch_norm_param {
    use_global_stats: false
  }
}
layer {
  name: "conv2_scale"
  type: "Scale"
  bottom: "conv2"
  top: "conv2"
  scale_param {
    bias_term: true
  }
}
layer {
  name: "prelu2"
  type: "PReLU"
  bottom: "conv2"
  top: "conv2"
}
layer {
  name: "pool2"
  type: "Pooling"
  bottom: "conv2"
  top: "pool2"
  pooling_param {
    pool: MAX
    kernel_size: 2
    stride: 2
  }
}
layer {
  name: "conv3a"
  type: "Convolution"
  bottom: "pool2"
  top: "conv3a"
  param {
    name: "conv3a_w"
    lr_mult: 1
    decay_mult: 1
  }
  param {
    name: "conv3a_b"
    lr_mult: 2
    decay_mult: 0
  }
  convolution_param {
    num_output: 192
    kernel_size: 1
    weight_filler {
      type: "xavier"
    }
    bias_filler {
      type: "constant"
      value: 0.2
    }
  }
}
layer {
  name: "conv3a_bn"
  type: "BatchNorm"
  bottom: "conv3a"
  top: "conv3a"
  batch_norm_param {
    use_global_stats: false
  }
}
layer {
  name: "conv3a_scale"
  type: "Scale"
  bottom: "conv3a"
  top: "conv3a"
  scale_param {
    bias_term: true
  }
}
layer {
  name: "prelu3a"
  type: "PReLU"
  bottom: "conv3a"
  top: "conv3a"
}
layer {
  name: "conv3"
  type: "Convolution"
  bottom: "conv3a"
  top: "conv3"
  param {
    name: "conv3_w"
    lr_mult: 1
    decay_mult: 1
  }
  param {
    name: "conv3_b"
    lr_mult: 2
    decay_mult: 0
  }
  convolution_param {
    num_output: 384
    pad: 1
    kernel_size: 3
    stride: 1
    weight_filler {
      type: "xavier"
    }
    bias_filler {
      type: "constant"
      value: 0.2
    }
  }
}
layer {
  name: "conv3_bn"
  type: "BatchNorm"
  bottom: "conv3"
  top: "conv3"
  batch_norm_param {
    use_global_stats: false
  }
}
layer {
  name: "conv3_scale"
  type: "Scale"
  bottom: "conv3"
  top: "conv3"
  scale_param {
    bias_term: true
  }
}
layer {
  name: "prelu3"
  type: "PReLU"
  bottom: "conv3"
  top: "conv3"
}
layer {
  name: "pool3"
  type: "Pooling"
  bottom: "conv3"
  top: "pool3"
  pooling_param {
    pool: MAX
    kernel_size: 2
    stride: 2
  }
}
layer {
  name: "conv3_gender"
  type: "Convolution"
  bottom: "pool3"
  top: "conv3_gender"
  param {
    lr_mult: 1
    decay_mult: 1
  }
  param {
    lr_mult: 2
    decay_mult: 0
  }
  convolution_param {
    num_output: 300
    pad: 1
    kernel_size: 3
    stride: 2
    weight_filler {
      type: "xavier"
    }
    bias_filler {
      type: "constant"
      value: 0.2
    }
  }
}
layer {
  name: "conv3_gender_bn"
  type: "BatchNorm"
  bottom: "conv3_gender"
  top: "conv3_gender"
  batch_norm_param {
    use_global_stats: false
  }
}
layer {
  name: "conv3_gender_scale"
  type: "Scale"
  bottom: "conv3_gender"
  top: "conv3_gender"
  scale_param {
    bias_term: true
  }
}
layer {
  name: "prelu3_gender"
  type: "PReLU"
  bottom: "conv3_gender"
  top: "conv3_gender"
}
layer {
  name: "pool3_gender"
  type: "Pooling"
  bottom: "conv3_gender"
  top: "pool3_gender"
  pooling_param {
    pool: MAX
    kernel_size: 5
    stride: 2
    pad: 2
  }
}
layer {
  name: "fc1_gender"
  type: "InnerProduct"
  bottom: "pool3_gender"
  top: "fc1_gender"
  param {
    lr_mult: 1
    decay_mult: 1
  }
  param {
    lr_mult: 2
    decay_mult: 0
  }
  inner_product_param {
    num_output: 512
    weight_filler {
      type: "xavier"
    }
    bias_filler {
      type: "constant"
      value: 0.2
    }
  }
}
layer {
  name: "relu1_gender"
  type: "ReLU"
  bottom: "fc1_gender"
  top: "fc1_gender"
}
layer {
  name: "drop1_gender"
  type: "Dropout"
  bottom: "fc1_gender"
  top: "fc1_gender"
  dropout_param {
    dropout_ratio: 0.5
  }
}
layer {
  name: "fc2_gender"
  type: "InnerProduct"
  bottom: "fc1_gender"
  top: "fc2_gender"
  param {
    lr_mult: 1
    decay_mult: 1
  }
  param {
    lr_mult: 2
    decay_mult: 0
  }
  inner_product_param {
    num_output: 512
    weight_filler {
      type: "xavier"
    }
    bias_filler {
      type: "constant"
      value: 0.2
    }
  }
}
layer {
  name: "relu2_gender"
  type: "ReLU"
  bottom: "fc2_gender"
  top: "fc2_gender"
}
layer {
  name: "drop2_gender"
  type: "Dropout"
  bottom: "fc2_gender"
  top: "fc2_gender"
  dropout_param {
    dropout_ratio: 0.5
  }
}
layer {
  name: "conv3_nose"
  type: "Convolution"
  bottom: "pool3"
  top: "conv3_nose"
  param {
    lr_mult: 1
    decay_mult: 1
  }
  param {
    lr_mult: 2
    decay_mult: 0
  }
  convolution_param {
    num_output: 300
    pad: 1
    kernel_size: 3
    stride: 2
    weight_filler {
      type: "xavier"
    }
    bias_filler {
      type: "constant"
      value: 0.2
    }
  }
}
layer {
  name: "conv3_nose_bn"
  type: "BatchNorm"
  bottom: "conv3_nose"
  top: "conv3_nose"
  batch_norm_param {
    use_global_stats: false
  }
}
layer {
  name: "conv3_nose_scale"
  type: "Scale"
  bottom: "conv3_nose"
  top: "conv3_nose"
  scale_param {
    bias_term: true
  }
}
layer {
  name: "prelu3_nose"
  type: "PReLU"
  bottom: "conv3_nose"
  top: "conv3_nose"
}
layer {
  name: "pool3_nose"
  type: "Pooling"
  bottom: "conv3_nose"
  top: "pool3_nose"
  pooling_param {
    pool: MAX
    kernel_size: 5
    stride: 2
    pad: 2
  }
}
layer {
  name: "fc1_nose"
  type: "InnerProduct"
  bottom: "pool3_nose"
  top: "fc1_nose"
  param {
    lr_mult: 1
    decay_mult: 1
  }
  param {
    lr_mult: 2
    decay_mult: 0
  }
  inner_product_param {
    num_output: 512
    weight_filler {
      type: "xavier"
    }
    bias_filler {
      type: "constant"
      value: 0.2
    }
  }
}
layer {
  name: "relu1_nose"
  type: "ReLU"
  bottom: "fc1_nose"
  top: "fc1_nose"
}
layer {
  name: "drop1_nose"
  type: "Dropout"
  bottom: "fc1_nose"
  top: "fc1_nose"
  dropout_param {
    dropout_ratio: 0.5
  }
}
layer {
  name: "fc2_nose"
  type: "InnerProduct"
  bottom: "fc1_nose"
  top: "fc2_nose"
  param {
    lr_mult: 1
    decay_mult: 1
  }
  param {
    lr_mult: 2
    decay_mult: 0
  }
  inner_product_param {
    num_output: 512
    weight_filler {
      type: "xavier"
    }
    bias_filler {
      type: "constant"
      value: 0.2
    }
  }
}
layer {
  name: "relu2_nose"
  type: "ReLU"
  bottom: "fc2_nose"
  top: "fc2_nose"
}
layer {
  name: "drop2_nose"
  type: "Dropout"
  bottom: "fc2_nose"
  top: "fc2_nose"
  dropout_param {
    dropout_ratio: 0.5
  }
}
layer {
  name: "conv3_mouth"
  type: "Convolution"
  bottom: "pool3"
  top: "conv3_mouth"
  param {
    lr_mult: 1
    decay_mult: 1
  }
  param {
    lr_mult: 2
    decay_mult: 0
  }
  convolution_param {
    num_output: 300
    pad: 1
    kernel_size: 3
    stride: 2
    weight_filler {
      type: "xavier"
    }
    bias_filler {
      type: "constant"
      value: 0.2
    }
  }
}
layer {
  name: "conv3_mouth_bn"
  type: "BatchNorm"
  bottom: "conv3_mouth"
  top: "conv3_mouth"
  batch_norm_param {
    use_global_stats: false
  }
}
layer {
  name: "conv3_mouth_scale"
  type: "Scale"
  bottom: "conv3_mouth"
  top: "conv3_mouth"
  scale_param {
    bias_term: true
  }
}
layer {
  name: "prelu3_mouth"
  type: "PReLU"
  bottom: "conv3_mouth"
  top: "conv3_mouth"
}
layer {
  name: "pool3_mouth"
  type: "Pooling"
  bottom: "conv3_mouth"
  top: "pool3_mouth"
  pooling_param {
    pool: MAX
    kernel_size: 5
    stride: 2
    pad: 2
  }
}
layer {
  name: "fc1_mouth"
  type: "InnerProduct"
  bottom: "pool3_mouth"
  top: "fc1_mouth"
  param {
    lr_mult: 1
    decay_mult: 1
  }
  param {
    lr_mult: 2
    decay_mult: 0
  }
  inner_product_param {
    num_output: 512
    weight_filler {
      type: "xavier"
    }
    bias_filler {
      type: "constant"
      value: 0.2
    }
  }
}
layer {
  name: "relu1_mouth"
  type: "ReLU"
  bottom: "fc1_mouth"
  top: "fc1_mouth"
}
layer {
  name: "drop1_mouth"
  type: "Dropout"
  bottom: "fc1_mouth"
  top: "fc1_mouth"
  dropout_param {
    dropout_ratio: 0.5
  }
}
layer {
  name: "fc2_mouth"
  type: "InnerProduct"
  bottom: "fc1_mouth"
  top: "fc2_mouth"
  param {
    lr_mult: 1
    decay_mult: 1
  }
  param {
    lr_mult: 2
    decay_mult: 0
  }
  inner_product_param {
    num_output: 512
    weight_filler {
      type: "xavier"
    }
    bias_filler {
      type: "constant"
      value: 0.2
    }
  }
}
layer {
  name: "relu2_mouth"
  type: "ReLU"
  bottom: "fc2_mouth"
  top: "fc2_mouth"
}
layer {
  name: "drop2_mouth"
  type: "Dropout"
  bottom: "fc2_mouth"
  top: "fc2_mouth"
  dropout_param {
    dropout_ratio: 0.5
  }
}
layer {
  name: "conv3_eyes"
  type: "Convolution"
  bottom: "pool3"
  top: "conv3_eyes"
  param {
    lr_mult: 1
    decay_mult: 1
  }
  param {
    lr_mult: 2
    decay_mult: 0
  }
  convolution_param {
    num_output: 300
    pad: 1
    kernel_size: 3
    stride: 2
    weight_filler {
      type: "xavier"
    }
    bias_filler {
      type: "constant"
      value: 0.2
    }
  }
}
layer {
  name: "conv3_eyes_bn"
  type: "BatchNorm"
  bottom: "conv3_eyes"
  top: "conv3_eyes"
  batch_norm_param {
    use_global_stats: false
  }
}
layer {
  name: "conv3_eyes_scale"
  type: "Scale"
  bottom: "conv3_eyes"
  top: "conv3_eyes"
  scale_param {
    bias_term: true
  }
}
layer {
  name: "prelu3_eyes"
  type: "PReLU"
  bottom: "conv3_eyes"
  top: "conv3_eyes"
}
layer {
  name: "pool3_eyes"
  type: "Pooling"
  bottom: "conv3_eyes"
  top: "pool3_eyes"
  pooling_param {
    pool: MAX
    kernel_size: 5
    stride: 2
    pad: 2
  }
}
layer {
  name: "fc1_eyes"
  type: "InnerProduct"
  bottom: "pool3_eyes"
  top: "fc1_eyes"
  param {
    lr_mult: 1
    decay_mult: 1
  }
  param {
    lr_mult: 2
    decay_mult: 0
  }
  inner_product_param {
    num_output: 512
    weight_filler {
      type: "xavier"
    }
    bias_filler {
      type: "constant"
      value: 0.2
    }
  }
}
layer {
  name: "relu1_eyes"
  type: "ReLU"
  bottom: "fc1_eyes"
  top: "fc1_eyes"
}
layer {
  name: "drop1_eyes"
  type: "Dropout"
  bottom: "fc1_eyes"
  top: "fc1_eyes"
  dropout_param {
    dropout_ratio: 0.5
  }
}
layer {
  name: "fc2_eyes"
  type: "InnerProduct"
  bottom: "fc1_eyes"
  top: "fc2_eyes"
  param {
    lr_mult: 1
    decay_mult: 1
  }
  param {
    lr_mult: 2
    decay_mult: 0
  }
  inner_product_param {
    num_output: 512
    weight_filler {
      type: "xavier"
    }
    bias_filler {
      type: "constant"
      value: 0.2
    }
  }
}
layer {
  name: "relu2_eyes"
  type: "ReLU"
  bottom: "fc2_eyes"
  top: "fc2_eyes"
}
layer {
  name: "drop2_eyes"
  type: "Dropout"
  bottom: "fc2_eyes"
  top: "fc2_eyes"
  dropout_param {
    dropout_ratio: 0.5
  }
}
layer {
  name: "conv3_face"
  type: "Convolution"
  bottom: "pool3"
  top: "conv3_face"
  param {
    lr_mult: 1
    decay_mult: 1
  }
  param {
    lr_mult: 2
    decay_mult: 0
  }
  convolution_param {
    num_output: 300
    pad: 1
    kernel_size: 3
    stride: 2
    weight_filler {
      type: "xavier"
    }
    bias_filler {
      type: "constant"
      value: 0.2
    }
  }
}
layer {
  name: "conv3_face_bn"
  type: "BatchNorm"
  bottom: "conv3_face"
  top: "conv3_face"
  batch_norm_param {
    use_global_stats: false
  }
}
layer {
  name: "conv3_face_scale"
  type: "Scale"
  bottom: "conv3_face"
  top: "conv3_face"
  scale_param {
    bias_term: true
  }
}
layer {
  name: "prelu3_face"
  type: "PReLU"
  bottom: "conv3_face"
  top: "conv3_face"
}
layer {
  name: "pool3_face"
  type: "Pooling"
  bottom: "conv3_face"
  top: "pool3_face"
  pooling_param {
    pool: MAX
    kernel_size: 5
    stride: 2
    pad: 2
  }
}
layer {
  name: "fc1_face"
  type: "InnerProduct"
  bottom: "pool3_face"
  top: "fc1_face"
  param {
    lr_mult: 1
    decay_mult: 1
  }
  param {
    lr_mult: 2
    decay_mult: 0
  }
  inner_product_param {
    num_output: 512
    weight_filler {
      type: "xavier"
    }
    bias_filler {
      type: "constant"
      value: 0.2
    }
  }
}
layer {
  name: "relu1_face"
  type: "ReLU"
  bottom: "fc1_face"
  top: "fc1_face"
}
layer {
  name: "drop1_face"
  type: "Dropout"
  bottom: "fc1_face"
  top: "fc1_face"
  dropout_param {
    dropout_ratio: 0.5
  }
}
layer {
  name: "fc2_face"
  type: "InnerProduct"
  bottom: "fc1_face"
  top: "fc2_face"
  param {
    lr_mult: 1
    decay_mult: 1
  }
  param {
    lr_mult: 2
    decay_mult: 0
  }
  inner_product_param {
    num_output: 512
    weight_filler {
      type: "xavier"
    }
    bias_filler {
      type: "constant"
      value: 0.2
    }
  }
}
layer {
  name: "relu2_face"
  type: "ReLU"
  bottom: "fc2_face"
  top: "fc2_face"
}
layer {
  name: "drop2_face"
  type: "Dropout"
  bottom: "fc2_face"
  top: "fc2_face"
  dropout_param {
    dropout_ratio: 0.5
  }
}
layer {
  name: "conv3_rest"
  type: "Convolution"
  bottom: "pool3"
  top: "conv3_rest"
  param {
    lr_mult: 1
    decay_mult: 1
  }
  param {
    lr_mult: 2
    decay_mult: 0
  }
  convolution_param {
    num_output: 300
    pad: 1
    kernel_size: 3
    stride: 2
    weight_filler {
      type: "xavier"
    }
    bias_filler {
      type: "constant"
      value: 0.2
    }
  }
}
layer {
  name: "conv3_rest_bn"
  type: "BatchNorm"
  bottom: "conv3_rest"
  top: "conv3_rest"
  batch_norm_param {
    use_global_stats: false
  }
}
layer {
  name: "conv3_rest_scale"
  type: "Scale"
  bottom: "conv3_rest"
  top: "conv3_rest"
  scale_param {
    bias_term: true
  }
}
layer {
  name: "prelu3_rest"
  type: "PReLU"
  bottom: "conv3_rest"
  top: "conv3_rest"
}
layer {
  name: "pool3_rest"
  type: "Pooling"
  bottom: "conv3_rest"
  top: "pool3_rest"
  pooling_param {
    pool: MAX
    kernel_size: 5
    stride: 2
    pad: 2
  }
}
layer {
  name: "fc1_aroundhead"
  type: "InnerProduct"
  bottom: "pool3_rest"
  top: "fc1_aroundhead"
  param {
    lr_mult: 1
    decay_mult: 1
  }
  param {
    lr_mult: 2
    decay_mult: 0
  }
  inner_product_param {
    num_output: 512
    weight_filler {
      type: "xavier"
    }
    bias_filler {
      type: "constant"
      value: 0.2
    }
  }
}
layer {
  name: "relu1_aroundhead"
  type: "ReLU"
  bottom: "fc1_aroundhead"
  top: "fc1_aroundhead"
}
layer {
  name: "drop1_aroundhead"
  type: "Dropout"
  bottom: "fc1_aroundhead"
  top: "fc1_aroundhead"
  dropout_param {
    dropout_ratio: 0.5
  }
}
layer {
  name: "fc2_aroundhead"
  type: "InnerProduct"
  bottom: "fc1_aroundhead"
  top: "fc2_aroundhead"
  param {
    lr_mult: 1
    decay_mult: 1
  }
  param {
    lr_mult: 2
    decay_mult: 0
  }
  inner_product_param {
    num_output: 512
    weight_filler {
      type: "xavier"
    }
    bias_filler {
      type: "constant"
      value: 0.2
    }
  }
}
layer {
  name: "relu2_aroundhead"
  type: "ReLU"
  bottom: "fc2_aroundhead"
  top: "fc2_aroundhead"
}
layer {
  name: "drop2_aroundhead"
  type: "Dropout"
  bottom: "fc2_aroundhead"
  top: "fc2_aroundhead"
  dropout_param {
    dropout_ratio: 0.5
  }
}
layer {
  name: "fc1_facialhair"
  type: "InnerProduct"
  bottom: "pool3_rest"
  top: "fc1_facialhair"
  param {
    lr_mult: 1
    decay_mult: 1
  }
  param {
    lr_mult: 2
    decay_mult: 0
  }
  inner_product_param {
    num_output: 512
    weight_filler {
      type: "xavier"
    }
    bias_filler {
      type: "constant"
      value: 0.2
    }
  }
}
layer {
  name: "relu1_facialhair"
  type: "ReLU"
  bottom: "fc1_facialhair"
  top: "fc1_facialhair"
}
layer {
  name: "drop1_facialhair"
  type: "Dropout"
  bottom: "fc1_facialhair"
  top: "fc1_facialhair"
  dropout_param {
    dropout_ratio: 0.5
  }
}
layer {
  name: "fc2_facialhair"
  type: "InnerProduct"
  bottom: "fc1_facialhair"
  top: "fc2_facialhair"
  param {
    lr_mult: 1
    decay_mult: 1
  }
  param {
    lr_mult: 2
    decay_mult: 0
  }
  inner_product_param {
    num_output: 512
    weight_filler {
      type: "xavier"
    }
    bias_filler {
      type: "constant"
      value: 0.2
    }
  }
}
layer {
  name: "relu2_facialhair"
  type: "ReLU"
  bottom: "fc2_facialhair"
  top: "fc2_facialhair"
}
layer {
  name: "drop2_facialhair"
  type: "Dropout"
  bottom: "fc2_facialhair"
  top: "fc2_facialhair"
  dropout_param {
    dropout_ratio: 0.5
  }
}
layer {
  name: "fc1_cheeks"
  type: "InnerProduct"
  bottom: "pool3_rest"
  top: "fc1_cheeks"
  param {
    lr_mult: 1
    decay_mult: 1
  }
  param {
    lr_mult: 2
    decay_mult: 0
  }
  inner_product_param {
    num_output: 512
    weight_filler {
      type: "xavier"
    }
    bias_filler {
      type: "constant"
      value: 0.2
    }
  }
}
layer {
  name: "relu1_cheeks"
  type: "ReLU"
  bottom: "fc1_cheeks"
  top: "fc1_cheeks"
}
layer {
  name: "drop1_cheeks"
  type: "Dropout"
  bottom: "fc1_cheeks"
  top: "fc1_cheeks"
  dropout_param {
    dropout_ratio: 0.5
  }
}
layer {
  name: "fc2_cheeks"
  type: "InnerProduct"
  bottom: "fc1_cheeks"
  top: "fc2_cheeks"
  param {
    lr_mult: 1
    decay_mult: 1
  }
  param {
    lr_mult: 2
    decay_mult: 0
  }
  inner_product_param {
    num_output: 512
    weight_filler {
      type: "xavier"
    }
    bias_filler {
      type: "constant"
      value: 0.2
    }
  }
}
layer {
  name: "relu2_cheeks"
  type: "ReLU"
  bottom: "fc2_cheeks"
  top: "fc2_cheeks"
}
layer {
  name: "drop2_cheeks"
  type: "Dropout"
  bottom: "fc2_cheeks"
  top: "fc2_cheeks"
  dropout_param {
    dropout_ratio: 0.5
  }
}
layer {
  name: "fc1_fat"
  type: "InnerProduct"
  bottom: "pool3_rest"
  top: "fc1_fat"
  param {
    lr_mult: 1
    decay_mult: 1
  }
  param {
    lr_mult: 2
    decay_mult: 0
  }
  inner_product_param {
    num_output: 512
    weight_filler {
      type: "xavier"
    }
    bias_filler {
      type: "constant"
      value: 0.2
    }
  }
}
layer {
  name: "relu1_fat"
  type: "ReLU"
  bottom: "fc1_fat"
  top: "fc1_fat"
}
layer {
  name: "drop1_fat"
  type: "Dropout"
  bottom: "fc1_fat"
  top: "fc1_fat"
  dropout_param {
    dropout_ratio: 0.5
  }
}
layer {
  name: "fc2_fat"
  type: "InnerProduct"
  bottom: "fc1_fat"
  top: "fc2_fat"
  param {
    lr_mult: 1
    decay_mult: 1
  }
  param {
    lr_mult: 2
    decay_mult: 0
  }
  inner_product_param {
    num_output: 512
    weight_filler {
      type: "xavier"
    }
    bias_filler {
      type: "constant"
      value: 0.2
    }
  }
}
layer {
  name: "relu2_fat"
  type: "ReLU"
  bottom: "fc2_fat"
  top: "fc2_fat"
}
layer {
  name: "drop2_fat"
  type: "Dropout"
  bottom: "fc2_fat"
  top: "fc2_fat"
  dropout_param {
    dropout_ratio: 0.5
  }
}
layer {
  name: "fc3_Male"
  type: "InnerProduct"
  bottom: "fc2_gender"
  top: "fc3_Male"
  inner_product_param {
    num_output: 2
    weight_filler {
      type: "xavier"
    }
    bias_filler {
      type: "constant"
      value: 0
    }
  }
}
layer {
  name: "loss_Male"
  type: "SigmoidCrossEntropyLoss"
  bottom: "fc3_Male"
  bottom: "label_Male"
  top: "loss_Male"
}
layer {
  name: "fc3_Big_Nose"
  type: "InnerProduct"
  bottom: "fc2_nose"
  top: "fc3_Big_Nose"
  inner_product_param {
    num_output: 2
    weight_filler {
      type: "xavier"
    }
    bias_filler {
      type: "constant"
      value: 0
    }
  }
}
layer {
  name: "loss_Big_Nose"
  type: "SigmoidCrossEntropyLoss"
  bottom: "fc3_Big_Nose"
  bottom: "label_Big_Nose"
  top: "loss_Big_Nose"
}
layer {
  name: "fc3_Pointy_Nose"
  type: "InnerProduct"
  bottom: "fc2_nose"
  top: "fc3_Pointy_Nose"
  inner_product_param {
    num_output: 2
    weight_filler {
      type: "xavier"
    }
    bias_filler {
      type: "constant"
      value: 0
    }
  }
}
layer {
  name: "loss_Pointy_Nose"
  type: "SigmoidCrossEntropyLoss"
  bottom: "fc3_Pointy_Nose"
  bottom: "label_Pointy_Nose"
  top: "loss_Pointy_Nose"
}
layer {
  name: "fc3_Big_Lips"
  type: "InnerProduct"
  bottom: "fc2_mouth"
  top: "fc3_Big_Lips"
  inner_product_param {
    num_output: 2
    weight_filler {
      type: "xavier"
    }
    bias_filler {
      type: "constant"
      value: 0
    }
  }
}
layer {
  name: "loss_Big_Lips"
  type: "SigmoidCrossEntropyLoss"
  bottom: "fc3_Big_Lips"
  bottom: "label_Big_Lips"
  top: "loss_Big_Lips"
}
layer {
  name: "fc3_Smiling"
  type: "InnerProduct"
  bottom: "fc2_mouth"
  top: "fc3_Smiling"
  inner_product_param {
    num_output: 2
    weight_filler {
      type: "xavier"
    }
    bias_filler {
      type: "constant"
      value: 0
    }
  }
}
layer {
  name: "loss_Smiling"
  type: "SigmoidCrossEntropyLoss"
  bottom: "fc3_Smiling"
  bottom: "label_Smiling"
  top: "loss_Smiling"
}
layer {
  name: "fc3_Wearing_Lipstick"
  type: "InnerProduct"
  bottom: "fc2_mouth"
  top: "fc3_Wearing_Lipstick"
  inner_product_param {
    num_output: 2
    weight_filler {
      type: "xavier"
    }
    bias_filler {
      type: "constant"
      value: 0
    }
  }
}
layer {
  name: "loss_Wearing_Lipstick"
  type: "SigmoidCrossEntropyLoss"
  bottom: "fc3_Wearing_Lipstick"
  bottom: "label_Wearing_Lipstick"
  top: "loss_Wearing_Lipstick"
}
layer {
  name: "fc3_Mouth_Slightly_Open"
  type: "InnerProduct"
  bottom: "fc2_mouth"
  top: "fc3_Mouth_Slightly_Open"
  inner_product_param {
    num_output: 2
    weight_filler {
      type: "xavier"
    }
    bias_filler {
      type: "constant"
      value: 0
    }
  }
}
layer {
  name: "loss_Mouth_Slightly_Open"
  type: "SigmoidCrossEntropyLoss"
  bottom: "fc3_Mouth_Slightly_Open"
  bottom: "label_Mouth_Slightly_Open"
  top: "loss_Mouth_Slightly_Open"
}
layer {
  name: "fc3_Arched_Eyebrows"
  type: "InnerProduct"
  bottom: "fc2_eyes"
  top: "fc3_Arched_Eyebrows"
  inner_product_param {
    num_output: 2
    weight_filler {
      type: "xavier"
    }
    bias_filler {
      type: "constant"
      value: 0
    }
  }
}
layer {
  name: "loss_Arched_Eyebrows"
  type: "SigmoidCrossEntropyLoss"
  bottom: "fc3_Arched_Eyebrows"
  bottom: "label_Arched_Eyebrows"
  top: "loss_Arched_Eyebrows"
}
layer {
  name: "fc3_Bags_Under_Eyes"
  type: "InnerProduct"
  bottom: "fc2_eyes"
  top: "fc3_Bags_Under_Eyes"
  inner_product_param {
    num_output: 2
    weight_filler {
      type: "xavier"
    }
    bias_filler {
      type: "constant"
      value: 0
    }
  }
}
layer {
  name: "loss_Bags_Under_Eyes"
  type: "SigmoidCrossEntropyLoss"
  bottom: "fc3_Bags_Under_Eyes"
  bottom: "label_Bags_Under_Eyes"
  top: "loss_Bags_Under_Eyes"
}
layer {
  name: "fc3_Bushy_Eyebrows"
  type: "InnerProduct"
  bottom: "fc2_eyes"
  top: "fc3_Bushy_Eyebrows"
  inner_product_param {
    num_output: 2
    weight_filler {
      type: "xavier"
    }
    bias_filler {
      type: "constant"
      value: 0
    }
  }
}
layer {
  name: "loss_Bushy_Eyebrows"
  type: "SigmoidCrossEntropyLoss"
  bottom: "fc3_Bushy_Eyebrows"
  bottom: "label_Bushy_Eyebrows"
  top: "loss_Bushy_Eyebrows"
}
layer {
  name: "fc3_Narrow_Eyes"
  type: "InnerProduct"
  bottom: "fc2_eyes"
  top: "fc3_Narrow_Eyes"
  inner_product_param {
    num_output: 2
    weight_filler {
      type: "xavier"
    }
    bias_filler {
      type: "constant"
      value: 0
    }
  }
}
layer {
  name: "loss_Narrow_Eyes"
  type: "SigmoidCrossEntropyLoss"
  bottom: "fc3_Narrow_Eyes"
  bottom: "label_Narrow_Eyes"
  top: "loss_Narrow_Eyes"
}
layer {
  name: "fc3_Eyeglasses"
  type: "InnerProduct"
  bottom: "fc2_eyes"
  top: "fc3_Eyeglasses"
  inner_product_param {
    num_output: 2
    weight_filler {
      type: "xavier"
    }
    bias_filler {
      type: "constant"
      value: 0
    }
  }
}
layer {
  name: "loss_Eyeglasses"
  type: "SigmoidCrossEntropyLoss"
  bottom: "fc3_Eyeglasses"
  bottom: "label_Eyeglasses"
  top: "loss_Eyeglasses"
}
layer {
  name: "fc3_Attractive"
  type: "InnerProduct"
  bottom: "fc2_face"
  top: "fc3_Attractive"
  inner_product_param {
    num_output: 2
    weight_filler {
      type: "xavier"
    }
    bias_filler {
      type: "constant"
      value: 0
    }
  }
}
layer {
  name: "loss_Attractive"
  type: "SigmoidCrossEntropyLoss"
  bottom: "fc3_Attractive"
  bottom: "label_Attractive"
  top: "loss_Attractive"
}
layer {
  name: "fc3_Blurry"
  type: "InnerProduct"
  bottom: "fc2_face"
  top: "fc3_Blurry"
  inner_product_param {
    num_output: 2
    weight_filler {
      type: "xavier"
    }
    bias_filler {
      type: "constant"
      value: 0
    }
  }
}
layer {
  name: "loss_Blurry"
  type: "SigmoidCrossEntropyLoss"
  bottom: "fc3_Blurry"
  bottom: "label_Blurry"
  top: "loss_Blurry"
}
layer {
  name: "fc3_Oval_Face"
  type: "InnerProduct"
  bottom: "fc2_face"
  top: "fc3_Oval_Face"
  inner_product_param {
    num_output: 2
    weight_filler {
      type: "xavier"
    }
    bias_filler {
      type: "constant"
      value: 0
    }
  }
}
layer {
  name: "loss_Oval_Face"
  type: "SigmoidCrossEntropyLoss"
  bottom: "fc3_Oval_Face"
  bottom: "label_Oval_Face"
  top: "loss_Oval_Face"
}
layer {
  name: "fc3_Pale_Skin"
  type: "InnerProduct"
  bottom: "fc2_face"
  top: "fc3_Pale_Skin"
  inner_product_param {
    num_output: 2
    weight_filler {
      type: "xavier"
    }
    bias_filler {
      type: "constant"
      value: 0
    }
  }
}
layer {
  name: "loss_Pale_Skin"
  type: "SigmoidCrossEntropyLoss"
  bottom: "fc3_Pale_Skin"
  bottom: "label_Pale_Skin"
  top: "loss_Pale_Skin"
}
layer {
  name: "fc3_Young"
  type: "InnerProduct"
  bottom: "fc2_face"
  top: "fc3_Young"
  inner_product_param {
    num_output: 2
    weight_filler {
      type: "xavier"
    }
    bias_filler {
      type: "constant"
      value: 0
    }
  }
}
layer {
  name: "loss_Young"
  type: "SigmoidCrossEntropyLoss"
  bottom: "fc3_Young"
  
I1017 12:36:33.820283 19808 layer_factory.hpp:77] Creating layer data
I1017 12:36:33.820375 19808 net.cpp:91] Creating Layer data
I1017 12:36:33.820399 19808 net.cpp:399] data -> data
I1017 12:36:33.820464 19808 net.cpp:399] data -> fakelabel1
I1017 12:36:33.820500 19808 data_transformer.cpp:25] Loading mean file from: /home/caojiajiong/attribute_learning/data/train_attr_id.binaryproto
I1017 12:36:33.842538 19808 image_data_layer.cpp:38] Opening file /home/caojiajiong/attribute_learning/list/train_all.txt
I1017 12:36:37.197870 19808 image_data_layer.cpp:53] A total of 4800000 images.
I1017 12:36:37.200496 19808 image_data_layer.cpp:80] output data size: 100,3,112,112
I1017 12:36:37.230654 19808 net.cpp:141] Setting up data
I1017 12:36:37.230835 19808 net.cpp:148] Top shape: 100 3 112 112 (3763200)
I1017 12:36:37.230875 19808 net.cpp:148] Top shape: 100 (100)
I1017 12:36:37.230881 19808 net.cpp:156] Memory required for data: 15053200
I1017 12:36:37.230909 19808 layer_factory.hpp:77] Creating layer attr_data
I1017 12:36:37.231181 19808 net.cpp:91] Creating Layer attr_data
I1017 12:36:37.231205 19808 net.cpp:399] attr_data -> attr_data
I1017 12:36:37.231227 19808 net.cpp:399] attr_data -> fakelabel2
I1017 12:36:37.235280 19820 db_lmdb.cpp:40] Opened lmdb /home/caojiajiong/attribute_learning/data/train_label_new_all_lmdb
I1017 12:36:37.235590 19808 data_layer.cpp:41] output data size: 100,80,1,1
I1017 12:36:37.241271 19808 net.cpp:141] Setting up attr_data
I1017 12:36:37.241314 19808 net.cpp:148] Top shape: 100 80 1 1 (8000)
I1017 12:36:37.241328 19808 net.cpp:148] Top shape: 100 (100)
I1017 12:36:37.241338 19808 net.cpp:156] Memory required for data: 15085600
I1017 12:36:37.241349 19808 layer_factory.hpp:77] Creating layer conv1
I1017 12:36:37.241417 19808 net.cpp:91] Creating Layer conv1
I1017 12:36:37.241468 19808 net.cpp:425] conv1 <- data
I1017 12:36:37.241510 19808 net.cpp:399] conv1 -> conv1
I1017 12:36:37.401361 19808 net.cpp:141] Setting up conv1
I1017 12:36:37.401391 19808 net.cpp:148] Top shape: 100 64 112 112 (80281600)
I1017 12:36:37.401396 19808 net.cpp:156] Memory required for data: 336212000
I1017 12:36:37.401433 19808 layer_factory.hpp:77] Creating layer slice
I1017 12:36:37.401470 19808 net.cpp:91] Creating Layer slice
I1017 12:36:37.401476 19808 net.cpp:425] slice <- attr_data
I1017 12:36:37.401486 19808 net.cpp:399] slice -> label_5_o_Clock_Shadow
I1017 12:36:37.401504 19808 net.cpp:399] slice -> label_Arched_Eyebrows
…
I1017 12:36:37.401799 19808 net.cpp:399] slice -> label_Straight_Hair
I1017 12:36:37.401809 19808 net.cpp:399] slice -> label_Wavy_Hair
I1017 12:36:37.401819 19808 net.cpp:399] slice -> label_Wearing_Earrings
I1017 12:36:37.401829 19808 net.cpp:399] slice -> label_Wearing_Hat
I1017 12:36:37.401839 19808 net.cpp:399] slice -> label_Wearing_Lipstick
I1017 12:36:37.401847 19808 net.cpp:399] slice -> label_Wearing_Necklace
I1017 12:36:37.401856 19808 net.cpp:399] slice -> label_Wearing_Necktie
I1017 12:36:37.401866 19808 net.cpp:399] slice -> label_Young
I1017 12:36:37.402340 19808 net.cpp:141] Setting up slice
I1017 12:36:37.402354 19808 net.cpp:148] Top shape: 100 2 1 1 (200)
I1017 12:36:37.402359 19808 net.cpp:148] Top shape: 100 2 1 1 (200)
I1017 12:36:37.402364 19808 net.cpp:148] Top shape: 100 2 1 1 (200)
I1017 12:36:37.402369 19808 net.cpp:148] Top shape: 100 2 1 1 (200)
I1017 12:36:37.402374 19808 net.cpp:148] Top shape: 100 2 1 1 (200)
I1017 12:36:37.402379 19808 net.cpp:148] Top shape: 100 2 1 1 (200)
I1017 12:36:37.402384 19808 net.cpp:148] Top shape: 100 2 1 1 (200)
I1017 12:36:37.402400 19808 net.cpp:148] Top shape: 100 2 1 1 (200)
I1017 12:36:37.402405 19808 net.cpp:148] Top shape: 100 2 1 1 (200)
I1017 12:36:37.402410 19808 net.cpp:148] Top shape: 100 2 1 1 (200)
I1017 12:36:37.402413 19808 net.cpp:148] Top shape: 100 2 1 1 (200)
I1017 12:36:37.402418 19808 net.cpp:148] Top shape: 100 2 1 1 (200)
I1017 12:36:37.402449 19808 net.cpp:148] Top shape: 100 2 1 1 (200)
I1017 12:36:37.402456 19808 net.cpp:148] Top shape: 100 2 1 1 (200)
I1017 12:36:37.402461 19808 net.cpp:148] Top shape: 100 2 1 1 (200)
I1017 12:36:37.402464 19808 net.cpp:148] Top shape: 100 2 1 1 (200)
I1017 12:36:37.402469 19808 net.cpp:148] Top shape: 100 2 1 1 (200)
I1017 12:36:37.402473 19808 net.cpp:148] Top shape: 100 2 1 1 (200)
I1017 12:36:37.402478 19808 net.cpp:148] Top shape: 100 2 1 1 (200)
I1017 12:36:37.402482 19808 net.cpp:148] Top shape: 100 2 1 1 (200)
I1017 12:36:37.402487 19808 net.cpp:148] Top shape: 100 2 1 1 (200)
I1017 12:36:37.402492 19808 net.cpp:148] Top shape: 100 2 1 1 (200)
I1017 12:36:37.402496 19808 net.cpp:148] Top shape: 100 2 1 1 (200)
I1017 12:36:37.402500 19808 net.cpp:148] Top shape: 100 2 1 1 (200)
I1017 12:36:37.402505 19808 net.cpp:148] Top shape: 100 2 1 1 (200)
I1017 12:36:37.402509 19808 net.cpp:148] Top shape: 100 2 1 1 (200)
I1017 12:36:37.402513 19808 net.cpp:148] Top shape: 100 2 1 1 (200)
I1017 12:36:37.402518 19808 net.cpp:148] Top shape: 100 2 1 1 (200)
I1017 12:36:37.402523 19808 net.cpp:148] Top shape: 100 2 1 1 (200)
I1017 12:36:37.402528 19808 net.cpp:148] Top shape: 100 2 1 1 (200)
I1017 12:36:37.402532 19808 net.cpp:148] Top shape: 100 2 1 1 (200)
I1017 12:36:37.402536 19808 net.cpp:148] Top shape: 100 2 1 1 (200)
I1017 12:36:37.402541 19808 net.cpp:148] Top shape: 100 2 1 1 (200)
I1017 12:36:37.402545 19808 net.cpp:148] Top shape: 100 2 1 1 (200)
I1017 12:36:37.402550 19808 net.cpp:148] Top shape: 100 2 1 1 (200)
I1017 12:36:37.402554 19808 net.cpp:148] Top shape: 100 2 1 1 (200)
I1017 12:36:37.402559 19808 net.cpp:148] Top shape: 100 2 1 1 (200)
I1017 12:36:37.402564 19808 net.cpp:148] Top shape: 100 2 1 1 (200)
I1017 12:36:37.402567 19808 net.cpp:148] Top shape: 100 2 1 1 (200)
I1017 12:36:37.402572 19808 net.cpp:148] Top shape: 100 2 1 1 (200)
I1017 12:36:37.402576 19808 net.cpp:156] Memory required for data: 336244000
I1017 12:36:37.402581 19808 layer_factory.hpp:77] Creating layer conv1_bn
I1017 12:36:37.402595 19808 net.cpp:91] Creating Layer conv1_bn
I1017 12:36:37.402600 19808 net.cpp:425] conv1_bn <- conv1
I1017 12:36:37.402607 19808 net.cpp:386] conv1_bn -> conv1 (in-place)
I1017 12:36:37.402801 19808 net.cpp:141] Setting up conv1_bn
I1017 12:36:37.402813 19808 net.cpp:148] Top shape: 100 64 112 112 (80281600)
I1017 12:36:37.402818 19808 net.cpp:156] Memory required for data: 657370400
I1017 12:36:37.402835 19808 layer_factory.hpp:77] Creating layer conv1_scale
I1017 12:36:37.402859 19808 net.cpp:91] Creating Layer conv1_scale
I1017 12:36:37.402866 19808 net.cpp:425] conv1_scale <- conv1
I1017 12:36:37.402873 19808 net.cpp:386] conv1_scale -> conv1 (in-place)
I1017 12:36:37.402921 19808 layer_factory.hpp:77] Creating layer conv1_scale
I1017 12:36:37.403056 19808 net.cpp:141] Setting up conv1_scale
I1017 12:36:37.403066 19808 net.cpp:148] Top shape: 100 64 112 112 (80281600)
I1017 12:36:37.403071 19808 net.cpp:156] Memory required for data: 978496800
I1017 12:36:37.403079 19808 layer_factory.hpp:77] Creating layer prelu1
I1017 12:36:37.403086 19808 net.cpp:91] Creating Layer prelu1
I1017 12:36:37.403091 19808 net.cpp:425] prelu1 <- conv1
I1017 12:36:37.403097 19808 net.cpp:386] prelu1 -> conv1 (in-place)
I1017 12:36:37.405902 19808 net.cpp:141] Setting up prelu1
I1017 12:36:37.405918 19808 net.cpp:148] Top shape: 100 64 112 112 (80281600)
I1017 12:36:37.405923 19808 net.cpp:156] Memory required for data: 1299623200
I1017 12:36:37.405943 19808 layer_factory.hpp:77] Creating layer pool1
I1017 12:36:37.405956 19808 net.cpp:91] Creating Layer pool1
I1017 12:36:37.405966 19808 net.cpp:425] pool1 <- conv1
I1017 12:36:37.405972 19808 net.cpp:399] pool1 -> pool1
I1017 12:36:37.406025 19808 net.cpp:141] Setting up pool1
I1017 12:36:37.406034 19808 net.cpp:148] Top shape: 100 64 56 56 (20070400)
I1017 12:36:37.406038 19808 net.cpp:156] Memory required for data: 1379904800
I1017 12:36:37.406042 19808 layer_factory.hpp:77] Creating layer conv2a
I1017 12:36:37.406055 19808 net.cpp:91] Creating Layer conv2a
I1017 12:36:37.406072 19808 net.cpp:425] conv2a <- pool1
I1017 12:36:37.406080 19808 net.cpp:399] conv2a -> conv2a
I1017 12:36:37.407058 19808 net.cpp:141] Setting up conv2a
I1017 12:36:37.407073 19808 net.cpp:148] Top shape: 100 64 56 56 (20070400)
I1017 12:36:37.407078 19808 net.cpp:156] Memory required for data: 1460186400
I1017 12:36:37.407099 19808 layer_factory.hpp:77] Creating layer conv2a_bn
I1017 12:36:37.407107 19808 net.cpp:91] Creating Layer conv2a_bn
I1017 12:36:37.407112 19808 net.cpp:425] conv2a_bn <- conv2a
I1017 12:36:37.407119 19808 net.cpp:386] conv2a_bn -> conv2a (in-place)
I1017 12:36:37.407287 19808 net.cpp:141] Setting up conv2a_bn
I1017 12:36:37.407296 19808 net.cpp:148] Top shape: 100 64 56 56 (20070400)
I1017 12:36:37.407301 19808 net.cpp:156] Memory required for data: 1540468000
I1017 12:36:37.407310 19808 layer_factory.hpp:77] Creating layer conv2a_scale
I1017 12:36:37.407320 19808 net.cpp:91] Creating Layer conv2a_scale
I1017 12:36:37.407325 19808 net.cpp:425] conv2a_scale <- conv2a
I1017 12:36:37.407331 19808 net.cpp:386] conv2a_scale -> conv2a (in-place)
I1017 12:36:37.407367 19808 layer_factory.hpp:77] Creating layer conv2a_scale
I1017 12:36:37.407485 19808 net.cpp:141] Setting up conv2a_scale
I1017 12:36:37.407495 19808 net.cpp:148] Top shape: 100 64 56 56 (20070400)
I1017 12:36:37.407500 19808 net.cpp:156] Memory required for data: 1620749600
I1017 12:36:37.407507 19808 layer_factory.hpp:77] Creating layer prelu2a
I1017 12:36:37.407513 19808 net.cpp:91] Creating Layer prelu2a
I1017 12:36:37.407518 19808 net.cpp:425] prelu2a <- conv2a
I1017 12:36:37.407524 19808 net.cpp:386] prelu2a -> conv2a (in-place)
I1017 12:36:37.408361 19808 net.cpp:141] Setting up prelu2a
I1017 12:36:37.408375 19808 net.cpp:148] Top shape: 100 64 56 56 (20070400)
I1017 12:36:37.408380 19808 net.cpp:156] Memory required for data: 1701031200
I1017 12:36:37.408397 19808 layer_factory.hpp:77] Creating layer conv2
I1017 12:36:37.408411 19808 net.cpp:91] Creating Layer conv2
I1017 12:36:37.408416 19808 net.cpp:425] conv2 <- conv2a
I1017 12:36:37.408424 19808 net.cpp:399] conv2 -> conv2
I1017 12:36:37.411079 19808 net.cpp:141] Setting up conv2
I1017 12:36:37.411098 19808 net.cpp:148] Top shape: 100 192 56 56 (60211200)
I1017 12:36:37.411104 19808 net.cpp:156] Memory required for data: 1941876000
I1017 12:36:37.411118 19808 layer_factory.hpp:77] Creating layer conv2_bn
I1017 12:36:37.411129 19808 net.cpp:91] Creating Layer conv2_bn
I1017 12:36:37.411139 19808 net.cpp:425] conv2_bn <- conv2
I1017 12:36:37.411146 19808 net.cpp:386] conv2_bn -> conv2 (in-place)
I1017 12:36:37.411357 19808 net.cpp:141] Setting up conv2_bn
I1017 12:36:37.411368 19808 net.cpp:148] Top shape: 100 192 56 56 (60211200)
I1017 12:36:37.411372 19808 net.cpp:156] Memory required for data: 2182720800
I1017 12:36:37.411383 19808 layer_factory.hpp:77] Creating layer conv2_scale
I1017 12:36:37.411393 19808 net.cpp:91] Creating Layer conv2_scale
I1017 12:36:37.411398 19808 net.cpp:425] conv2_scale <- conv2
I1017 12:36:37.411406 19808 net.cpp:386] conv2_scale -> conv2 (in-place)
I1017 12:36:37.411447 19808 layer_factory.hpp:77] Creating layer conv2_scale
I1017 12:36:37.411589 19808 net.cpp:141] Setting up conv2_scale
I1017 12:36:37.411600 19808 net.cpp:148] Top shape: 100 192 56 56 (60211200)
I1017 12:36:37.411605 19808 net.cpp:156] Memory required for data: 2423565600
I1017 12:36:37.411613 19808 layer_factory.hpp:77] Creating layer prelu2
I1017 12:36:37.411622 19808 net.cpp:91] Creating Layer prelu2
I1017 12:36:37.411626 19808 net.cpp:425] prelu2 <- conv2
I1017 12:36:37.411633 19808 net.cpp:386] prelu2 -> conv2 (in-place)
I1017 12:36:37.413401 19808 net.cpp:141] Setting up prelu2
I1017 12:36:37.413419 19808 net.cpp:148] Top shape: 100 192 56 56 (60211200)
I1017 12:36:37.413425 19808 net.cpp:156] Memory required for data: 2664410400
I1017 12:36:37.413432 19808 layer_factory.hpp:77] Creating layer pool2
I1017 12:36:37.413444 19808 net.cpp:91] Creating Layer pool2
I1017 12:36:37.413449 19808 net.cpp:425] pool2 <- conv2
I1017 12:36:37.413475 19808 net.cpp:399] pool2 -> pool2
I1017 12:36:37.413527 19808 net.cpp:141] Setting up pool2
I1017 12:36:37.413537 19808 net.cpp:148] Top shape: 100 192 28 28 (15052800)
I1017 12:36:37.413542 19808 net.cpp:156] Memory required for data: 2724621600
I1017 12:36:37.413547 19808 layer_factory.hpp:77] Creating layer conv3a
I1017 12:36:37.413563 19808 net.cpp:91] Creating Layer conv3a
I1017 12:36:37.413568 19808 net.cpp:425] conv3a <- pool2
I1017 12:36:37.413576 19808 net.cpp:399] conv3a -> conv3a
I1017 12:36:37.415848 19808 net.cpp:141] Setting up conv3a
I1017 12:36:37.415874 19808 net.cpp:148] Top shape: 100 192 28 28 (15052800)
I1017 12:36:37.415879 19808 net.cpp:156] Memory required for data: 2784832800
I1017 12:36:37.415894 19808 layer_factory.hpp:77] Creating layer conv3a_bn
I1017 12:36:37.415906 19808 net.cpp:91] Creating Layer conv3a_bn
I1017 12:36:37.415911 19808 net.cpp:425] conv3a_bn <- conv3a
I1017 12:36:37.415918 19808 net.cpp:386] conv3a_bn -> conv3a (in-place)
I1017 12:36:37.416136 19808 net.cpp:141] Setting up conv3a_bn
I1017 12:36:37.416162 19808 net.cpp:148] Top shape: 100 192 28 28 (15052800)
I1017 12:36:37.416167 19808 net.cpp:156] Memory required for data: 2845044000
I1017 12:36:37.416177 19808 layer_factory.hpp:77] Creating layer conv3a_scale
I1017 12:36:37.416187 19808 net.cpp:91] Creating Layer conv3a_scale
I1017 12:36:37.416191 19808 net.cpp:425] conv3a_scale <- conv3a
I1017 12:36:37.416198 19808 net.cpp:386] conv3a_scale -> conv3a (in-place)
I1017 12:36:37.416260 19808 layer_factory.hpp:77] Creating layer conv3a_scale
I1017 12:36:37.416395 19808 net.cpp:141] Setting up conv3a_scale
I1017 12:36:37.416407 19808 net.cpp:148] Top shape: 100 192 28 28 (15052800)
I1017 12:36:37.416412 19808 net.cpp:156] Memory required for data: 2905255200
I1017 12:36:37.416420 19808 layer_factory.hpp:77] Creating layer prelu3a
I1017 12:36:37.416429 19808 net.cpp:91] Creating Layer prelu3a
I1017 12:36:37.416435 19808 net.cpp:425] prelu3a <- conv3a
I1017 12:36:37.416441 19808 net.cpp:386] prelu3a -> conv3a (in-place)
I1017 12:36:37.416654 19808 net.cpp:141] Setting up prelu3a
I1017 12:36:37.416666 19808 net.cpp:148] Top shape: 100 192 28 28 (15052800)
I1017 12:36:37.416671 19808 net.cpp:156] Memory required for data: 2965466400
I1017 12:36:37.416676 19808 layer_factory.hpp:77] Creating layer conv3
I1017 12:36:37.416697 19808 net.cpp:91] Creating Layer conv3
I1017 12:36:37.416705 19808 net.cpp:425] conv3 <- conv3a
I1017 12:36:37.416716 19808 net.cpp:399] conv3 -> conv3
I1017 12:36:37.424398 19808 net.cpp:141] Setting up conv3
I1017 12:36:37.424414 19808 net.cpp:148] Top shape: 100 384 28 28 (30105600)
I1017 12:36:37.424419 19808 net.cpp:156] Memory required for data: 3085888800
I1017 12:36:37.424448 19808 layer_factory.hpp:77] Creating layer conv3_bn
I1017 12:36:37.424458 19808 net.cpp:91] Creating Layer conv3_bn
I1017 12:36:37.424463 19808 net.cpp:425] conv3_bn <- conv3
I1017 12:36:37.424470 19808 net.cpp:386] conv3_bn -> conv3 (in-place)
I1017 12:36:37.424646 19808 net.cpp:141] Setting up conv3_bn
I1017 12:36:37.424655 19808 net.cpp:148] Top shape: 100 384 28 28 (30105600)
I1017 12:36:37.424659 19808 net.cpp:156] Memory required for data: 3206311200
I1017 12:36:37.424669 19808 layer_factory.hpp:77] Creating layer conv3_scale
I1017 12:36:37.424676 19808 net.cpp:91] Creating Layer conv3_scale
I1017 12:36:37.424680 19808 net.cpp:425] conv3_scale <- conv3
I1017 12:36:37.424686 19808 net.cpp:386] conv3_scale -> conv3 (in-place)
I1017 12:36:37.424726 19808 layer_factory.hpp:77] Creating layer conv3_scale
I1017 12:36:37.424839 19808 net.cpp:141] Setting up conv3_scale
I1017 12:36:37.424849 19808 net.cpp:148] Top shape: 100 384 28 28 (30105600)
I1017 12:36:37.424852 19808 net.cpp:156] Memory required for data: 3326733600
I1017 12:36:37.424860 19808 layer_factory.hpp:77] Creating layer prelu3
I1017 12:36:37.424865 19808 net.cpp:91] Creating Layer prelu3
I1017 12:36:37.424870 19808 net.cpp:425] prelu3 <- conv3
I1017 12:36:37.424880 19808 net.cpp:386] prelu3 -> conv3 (in-place)
I1017 12:36:37.425974 19808 net.cpp:141] Setting up prelu3
I1017 12:36:37.426000 19808 net.cpp:148] Top shape: 100 384 28 28 (30105600)
I1017 12:36:37.426005 19808 net.cpp:156] Memory required for data: 3447156000
I1017 12:36:37.426023 19808 layer_factory.hpp:77] Creating layer pool3
I1017 12:36:37.426030 19808 net.cpp:91] Creating Layer pool3
I1017 12:36:37.426035 19808 net.cpp:425] pool3 <- conv3
I1017 12:36:37.426041 19808 net.cpp:399] pool3 -> pool3
I1017 12:36:37.426084 19808 net.cpp:141] Setting up pool3
I1017 12:36:37.426093 19808 net.cpp:148] Top shape: 100 384 14 14 (7526400)
I1017 12:36:37.426097 19808 net.cpp:156] Memory required for data: 3477261600
I1017 12:36:37.426101 19808 layer_factory.hpp:77] Creating layer pool3_pool3_0_split
I1017 12:36:37.426116 19808 net.cpp:91] Creating Layer pool3_pool3_0_split
I1017 12:36:37.426121 19808 net.cpp:425] pool3_pool3_0_split <- pool3
I1017 12:36:37.426129 19808 net.cpp:399] pool3_pool3_0_split -> pool3_pool3_0_split_0
I1017 12:36:37.426136 19808 net.cpp:399] pool3_pool3_0_split -> pool3_pool3_0_split_1
I1017 12:36:37.426143 19808 net.cpp:399] pool3_pool3_0_split -> pool3_pool3_0_split_2
I1017 12:36:37.426152 19808 net.cpp:399] pool3_pool3_0_split -> pool3_pool3_0_split_3
I1017 12:36:37.426158 19808 net.cpp:399] pool3_pool3_0_split -> pool3_pool3_0_split_4
I1017 12:36:37.426164 19808 net.cpp:399] pool3_pool3_0_split -> pool3_pool3_0_split_5
I1017 12:36:37.426239 19808 net.cpp:141] Setting up pool3_pool3_0_split
I1017 12:36:37.426247 19808 net.cpp:148] Top shape: 100 384 14 14 (7526400)
I1017 12:36:37.426252 19808 net.cpp:148] Top shape: 100 384 14 14 (7526400)
I1017 12:36:37.426256 19808 net.cpp:148] Top shape: 100 384 14 14 (7526400)
I1017 12:36:37.426261 19808 net.cpp:148] Top shape: 100 384 14 14 (7526400)
I1017 12:36:37.426265 19808 net.cpp:148] Top shape: 100 384 14 14 (7526400)
I1017 12:36:37.426270 19808 net.cpp:148] Top shape: 100 384 14 14 (7526400)
I1017 12:36:37.426280 19808 net.cpp:156] Memory required for data: 3657895200
I1017 12:36:37.426285 19808 layer_factory.hpp:77] Creating layer conv3_gender
I1017 12:36:37.426303 19808 net.cpp:91] Creating Layer conv3_gender
I1017 12:36:37.426308 19808 net.cpp:425] conv3_gender <- pool3_pool3_0_split_0
I1017 12:36:37.426318 19808 net.cpp:399] conv3_gender -> conv3_gender
I1017 12:36:37.436134 19808 net.cpp:141] Setting up conv3_gender
I1017 12:36:37.436158 19808 net.cpp:148] Top shape: 100 300 7 7 (1470000)
I1017 12:36:37.436163 19808 net.cpp:156] Memory required for data: 3663775200
I1017 12:36:37.436185 19808 layer_factory.hpp:77] Creating layer conv3_gender_bn
I1017 12:36:37.436194 19808 net.cpp:91] Creating Layer conv3_gender_bn
I1017 12:36:37.436200 19808 net.cpp:425] conv3_gender_bn <- conv3_gender
I1017 12:36:37.436206 19808 net.cpp:386] conv3_gender_bn -> conv3_gender (in-place)
I1017 12:36:37.436411 19808 net.cpp:141] Setting up conv3_gender_bn
I1017 12:36:37.436422 19808 net.cpp:148] Top shape: 100 300 7 7 (1470000)
I1017 12:36:37.436426 19808 net.cpp:156] Memory required for data: 3669655200
I1017 12:36:37.436435 19808 layer_factory.hpp:77] Creating layer conv3_gender_scale
I1017 12:36:37.436444 19808 net.cpp:91] Creating Layer conv3_gender_scale
I1017 12:36:37.436450 19808 net.cpp:425] conv3_gender_scale <- conv3_gender
I1017 12:36:37.436455 19808 net.cpp:386] conv3_gender_scale -> conv3_gender (in-place)
I1017 12:36:37.436496 19808 layer_factory.hpp:77] Creating layer conv3_gender_scale
I1017 12:36:37.436614 19808 net.cpp:141] Setting up conv3_gender_scale
I1017 12:36:37.436622 19808 net.cpp:148] Top shape: 100 300 7 7 (1470000)
I1017 12:36:37.436626 19808 net.cpp:156] Memory required for data: 3675535200
I1017 12:36:37.436633 19808 layer_factory.hpp:77] Creating layer prelu3_gender
I1017 12:36:37.436641 19808 net.cpp:91] Creating Layer prelu3_gender
I1017 12:36:37.436646 19808 net.cpp:425] prelu3_gender <- conv3_gender
I1017 12:36:37.436653 19808 net.cpp:386] prelu3_gender -> conv3_gender (in-place)
I1017 12:36:37.436758 19808 net.cpp:141] Setting up prelu3_gender
I1017 12:36:37.436767 19808 net.cpp:148] Top shape: 100 300 7 7 (1470000)
I1017 12:36:37.436784 19808 net.cpp:156] Memory required for data: 3681415200
I1017 12:36:37.436790 19808 layer_factory.hpp:77] Creating layer pool3_gender
I1017 12:36:37.436802 19808 net.cpp:91] Creating Layer pool3_gender
I1017 12:36:37.436806 19808 net.cpp:425] pool3_gender <- conv3_gender
I1017 12:36:37.436813 19808 net.cpp:399] pool3_gender -> pool3_gender
I1017 12:36:37.436861 19808 net.cpp:141] Setting up pool3_gender
I1017 12:36:37.436872 19808 net.cpp:148] Top shape: 100 300 4 4 (480000)
I1017 12:36:37.436875 19808 net.cpp:156] Memory required for data: 3683335200
I1017 12:36:37.436879 19808 layer_factory.hpp:77] Creating layer fc1_gender
I1017 12:36:37.436898 19808 net.cpp:91] Creating Layer fc1_gender
I1017 12:36:37.436903 19808 net.cpp:425] fc1_gender <- pool3_gender
I1017 12:36:37.436920 19808 net.cpp:399] fc1_gender -> fc1_gender
I1017 12:36:37.457944 19808 net.cpp:141] Setting up fc1_gender
I1017 12:36:37.457965 19808 net.cpp:148] Top shape: 100 512 (51200)
I1017 12:36:37.457970 19808 net.cpp:156] Memory required for data: 3683540000
I1017 12:36:37.457980 19808 layer_factory.hpp:77] Creating layer relu1_gender
I1017 12:36:37.457990 19808 net.cpp:91] Creating Layer relu1_gender
I1017 12:36:37.457996 19808 net.cpp:425] relu1_gender <- fc1_gender
I1017 12:36:37.458005 19808 net.cpp:386] relu1_gender -> fc1_gender (in-place)
I1017 12:36:37.458199 19808 net.cpp:141] Setting up relu1_gender
I1017 12:36:37.458210 19808 net.cpp:148] Top shape: 100 512 (51200)
I1017 12:36:37.458215 19808 net.cpp:156] Memory required for data: 3683744800
I1017 12:36:37.458221 19808 layer_factory.hpp:77] Creating layer drop1_gender
I1017 12:36:37.458235 19808 net.cpp:91] Creating Layer drop1_gender
I1017 12:36:37.458240 19808 net.cpp:425] drop1_gender <- fc1_gender
I1017 12:36:37.458246 19808 net.cpp:386] drop1_gender -> fc1_gender (in-place)
I1017 12:36:37.458295 19808 net.cpp:141] Setting up drop1_gender
I1017 12:36:37.458304 19808 net.cpp:148] Top shape: 100 512 (51200)
I1017 12:36:37.458308 19808 net.cpp:156] Memory required for data: 3683949600
I1017 12:36:37.458312 19808 layer_factory.hpp:77] Creating layer fc2_gender
I1017 12:36:37.458325 19808 net.cpp:91] Creating Layer fc2_gender
I1017 12:36:37.458330 19808 net.cpp:425] fc2_gender <- fc1_gender
I1017 12:36:37.458338 19808 net.cpp:399] fc2_gender -> fc2_gender
I1017 12:36:37.460947 19808 net.cpp:141] Setting up fc2_gender
I1017 12:36:37.460965 19808 net.cpp:148] Top shape: 100 512 (51200)
I1017 12:36:37.460969 19808 net.cpp:156] Memory required for data: 3684154400
I1017 12:36:37.460978 19808 layer_factory.hpp:77] Creating layer relu2_gender
I1017 12:36:37.460984 19808 net.cpp:91] Creating Layer relu2_gender
I1017 12:36:37.460988 19808 net.cpp:425] relu2_gender <- fc2_gender
I1017 12:36:37.460994 19808 net.cpp:386] relu2_gender -> fc2_gender (in-place)
I1017 12:36:37.461320 19808 net.cpp:141] Setting up relu2_gender
I1017 12:36:37.461336 19808 net.cpp:148] Top shape: 100 512 (51200)
I1017 12:36:37.461341 19808 net.cpp:156] Memory required for data: 3684359200
I1017 12:36:37.461345 19808 layer_factory.hpp:77] Creating layer drop2_gender
I1017 12:36:37.461354 19808 net.cpp:91] Creating Layer drop2_gender
I1017 12:36:37.461359 19808 net.cpp:425] drop2_gender <- fc2_gender
I1017 12:36:37.461365 19808 net.cpp:386] drop2_gender -> fc2_gender (in-place)
I1017 12:36:37.461395 19808 net.cpp:141] Setting up drop2_gender
I1017 12:36:37.461402 19808 net.cpp:148] Top shape: 100 512 (51200)
I1017 12:36:37.461406 19808 net.cpp:156] Memory required for data: 3684564000
I1017 12:36:37.461410 19808 layer_factory.hpp:77] Creating layer conv3_nose
I1017 12:36:37.461423 19808 net.cpp:91] Creating Layer conv3_nose
I1017 12:36:37.461428 19808 net.cpp:425] conv3_nose <- pool3_pool3_0_split_1
I1017 12:36:37.461447 19808 net.cpp:399] conv3_nose -> conv3_nose
I1017 12:36:37.471545 19808 net.cpp:141] Setting up conv3_nose
I1017 12:36:37.471562 19808 net.cpp:148] Top shape: 100 300 7 7 (1470000)
I1017 12:36:37.471567 19808 net.cpp:156] Memory required for data: 3690444000
I1017 12:36:37.471586 19808 layer_factory.hpp:77] Creating layer conv3_nose_bn
I1017 12:36:37.471613 19808 net.cpp:91] Creating Layer conv3_nose_bn
I1017 12:36:37.471621 19808 net.cpp:425] conv3_nose_bn <- conv3_nose
I1017 12:36:37.471626 19808 net.cpp:386] conv3_nose_bn -> conv3_nose (in-place)
I1017 12:36:37.471829 19808 net.cpp:141] Setting up conv3_nose_bn
I1017 12:36:37.471839 19808 net.cpp:148] Top shape: 100 300 7 7 (1470000)
I1017 12:36:37.471843 19808 net.cpp:156] Memory required for data: 3696324000
I1017 12:36:37.471853 19808 layer_factory.hpp:77] Creating layer conv3_nose_scale
I1017 12:36:37.471863 19808 net.cpp:91] Creating Layer conv3_nose_scale
I1017 12:36:37.471868 19808 net.cpp:425] conv3_nose_scale <- conv3_nose
I1017 12:36:37.471873 19808 net.cpp:386] conv3_nose_scale -> conv3_nose (in-place)
I1017 12:36:37.471918 19808 layer_factory.hpp:77] Creating layer conv3_nose_scale
I1017 12:36:37.472038 19808 net.cpp:141] Setting up conv3_nose_scale
I1017 12:36:37.472046 19808 net.cpp:148] Top shape: 100 300 7 7 (1470000)
I1017 12:36:37.472050 19808 net.cpp:156] Memory required for data: 3702204000
I1017 12:36:37.472067 19808 layer_factory.hpp:77] Creating layer prelu3_nose
I1017 12:36:37.472076 19808 net.cpp:91] Creating Layer prelu3_nose
I1017 12:36:37.472080 19808 net.cpp:425] prelu3_nose <- conv3_nose
I1017 12:36:37.472086 19808 net.cpp:386] prelu3_nose -> conv3_nose (in-place)
I1017 12:36:37.472194 19808 net.cpp:141] Setting up prelu3_nose
I1017 12:36:37.472211 19808 net.cpp:148] Top shape: 100 300 7 7 (1470000)
I1017 12:36:37.472226 19808 net.cpp:156] Memory required for data: 3708084000
I1017 12:36:37.472234 19808 layer_factory.hpp:77] Creating layer pool3_nose
I1017 12:36:37.472242 19808 net.cpp:91] Creating Layer pool3_nose
I1017 12:36:37.472246 19808 net.cpp:425] pool3_nose <- conv3_nose
I1017 12:36:37.472254 19808 net.cpp:399] pool3_nose -> pool3_nose
I1017 12:36:37.472296 19808 net.cpp:141] Setting up pool3_nose
I1017 12:36:37.472307 19808 net.cpp:148] Top shape: 100 300 4 4 (480000)
I1017 12:36:37.472317 19808 net.cpp:156] Memory required for data: 3710004000
I1017 12:36:37.472322 19808 layer_factory.hpp:77] Creating layer fc1_nose
I1017 12:36:37.472337 19808 net.cpp:91] Creating Layer fc1_nose
I1017 12:36:37.472342 19808 net.cpp:425] fc1_nose <- pool3_nose
I1017 12:36:37.472350 19808 net.cpp:399] fc1_nose -> fc1_nose
I1017 12:36:37.493134 19808 net.cpp:141] Setting up fc1_nose
I1017 12:36:37.493155 19808 net.cpp:148] Top shape: 100 512 (51200)
I1017 12:36:37.493160 19808 net.cpp:156] Memory required for data: 3710208800
I1017 12:36:37.493180 19808 layer_factory.hpp:77] Creating layer relu1_nose
I1017 12:36:37.493190 19808 net.cpp:91] Creating Layer relu1_nose
I1017 12:36:37.493196 19808 net.cpp:425] relu1_nose <- fc1_nose
I1017 12:36:37.493203 19808 net.cpp:386] relu1_nose -> fc1_nose (in-place)
I1017 12:36:37.493414 19808 net.cpp:141] Setting up relu1_nose
I1017 12:36:37.493427 19808 net.cpp:148] Top shape: 100 512 (51200)
I1017 12:36:37.493432 19808 net.cpp:156] Memory required for data: 3710413600
I1017 12:36:37.493435 19808 layer_factory.hpp:77] Creating layer drop1_nose
I1017 12:36:37.493445 19808 net.cpp:91] Creating Layer drop1_nose
I1017 12:36:37.493450 19808 net.cpp:425] drop1_nose <- fc1_nose
I1017 12:36:37.493456 19808 net.cpp:386] drop1_nose -> fc1_nose (in-place)
I1017 12:36:37.493486 19808 net.cpp:141] Setting up drop1_nose
I1017 12:36:37.493492 19808 net.cpp:148] Top shape: 100 512 (51200)
I1017 12:36:37.493496 19808 net.cpp:156] Memory required for data: 3710618400
I1017 12:36:37.493502 19808 layer_factory.hpp:77] Creating layer fc2_nose
I1017 12:36:37.493511 19808 net.cpp:91] Creating Layer fc2_nose
I1017 12:36:37.493515 19808 net.cpp:425] fc2_nose <- fc1_nose
I1017 12:36:37.493523 19808 net.cpp:399] fc2_nose -> fc2_nose
I1017 12:36:37.496060 19808 net.cpp:141] Setting up fc2_nose
I1017 12:36:37.496075 19808 net.cpp:148] Top shape: 100 512 (51200)
I1017 12:36:37.496079 19808 net.cpp:156] Memory required for data: 3710823200
I1017 12:36:37.496086 19808 layer_factory.hpp:77] Creating layer relu2_nose
I1017 12:36:37.496106 19808 net.cpp:91] Creating Layer relu2_nose
I1017 12:36:37.496127 19808 net.cpp:425] relu2_nose <- fc2_nose
I1017 12:36:37.496140 19808 net.cpp:386] relu2_nose -> fc2_nose (in-place)
I1017 12:36:37.496470 19808 net.cpp:141] Setting up relu2_nose
I1017 12:36:37.496484 19808 net.cpp:148] Top shape: 100 512 (51200)
I1017 12:36:37.496489 19808 net.cpp:156] Memory required for data: 3711028000
I1017 12:36:37.496505 19808 layer_factory.hpp:77] Creating layer drop2_nose
I1017 12:36:37.496526 19808 net.cpp:91] Creating Layer drop2_nose
I1017 12:36:37.496541 19808 net.cpp:425] drop2_nose <- fc2_nose
I1017 12:36:37.496547 19808 net.cpp:386] drop2_nose -> fc2_nose (in-place)
I1017 12:36:37.496583 19808 net.cpp:141] Setting up drop2_nose
I1017 12:36:37.496592 19808 net.cpp:148] Top shape: 100 512 (51200)
I1017 12:36:37.496597 19808 net.cpp:156] Memory required for data: 3711232800
I1017 12:36:37.496600 19808 layer_factory.hpp:77] Creating layer fc2_nose_drop2_nose_0_split
I1017 12:36:37.496609 19808 net.cpp:91] Creating Layer fc2_nose_drop2_nose_0_split
I1017 12:36:37.496614 19808 net.cpp:425] fc2_nose_drop2_nose_0_split <- fc2_nose
I1017 12:36:37.496632 19808 net.cpp:399] fc2_nose_drop2_nose_0_split -> fc2_nose_drop2_nose_0_split_0
I1017 12:36:37.496640 19808 net.cpp:399] fc2_nose_drop2_nose_0_split -> fc2_nose_drop2_nose_0_split_1
I1017 12:36:37.496680 19808 net.cpp:141] Setting up fc2_nose_drop2_nose_0_split
I1017 12:36:37.496691 19808 net.cpp:148] Top shape: 100 512 (51200)
I1017 12:36:37.496698 19808 net.cpp:148] Top shape: 100 512 (51200)
I1017 12:36:37.496702 19808 net.cpp:156] Memory required for data: 3711642400
I1017 12:36:37.496708 19808 layer_factory.hpp:77] Creating layer conv3_mouth
I1017 12:36:37.496721 19808 net.cpp:91] Creating Layer conv3_mouth
I1017 12:36:37.496726 19808 net.cpp:425] conv3_mouth <- pool3_pool3_0_split_2
I1017 12:36:37.496734 19808 net.cpp:399] conv3_mouth -> conv3_mouth
I1017 12:36:37.506564 19808 net.cpp:141] Setting up conv3_mouth
I1017 12:36:37.506582 19808 net.cpp:148] Top shape: 100 300 7 7 (1470000)
I1017 12:36:37.506587 19808 net.cpp:156] Memory required for data: 3717522400
I1017 12:36:37.506628 19808 layer_factory.hpp:77] Creating layer conv3_mouth_bn
I1017 12:36:37.506641 19808 net.cpp:91] Creating Layer conv3_mouth_bn
I1017 12:36:37.506647 19808 net.cpp:425] conv3_mouth_bn <- conv3_mouth
I1017 12:36:37.506655 19808 net.cpp:386] conv3_mouth_bn -> conv3_mouth (in-place)
I1017 12:36:37.506853 19808 net.cpp:141] Setting up conv3_mouth_bn
I1017 12:36:37.506863 19808 net.cpp:148] Top shape: 100 300 7 7 (1470000)
I1017 12:36:37.506867 19808 net.cpp:156] Memory required for data: 3723402400
I1017 12:36:37.506876 19808 layer_factory.hpp:77] Creating layer conv3_mouth_scale
I1017 12:36:37.506887 19808 net.cpp:91] Creating Layer conv3_mouth_scale
I1017 12:36:37.506892 19808 net.cpp:425] conv3_mouth_scale <- conv3_mouth
I1017 12:36:37.506898 19808 net.cpp:386] conv3_mouth_scale -> conv3_mouth (in-place)
I1017 12:36:37.506943 19808 layer_factory.hpp:77] Creating layer conv3_mouth_scale
I1017 12:36:37.507076 19808 net.cpp:141] Setting up conv3_mouth_scale
I1017 12:36:37.507087 19808 net.cpp:148] Top shape: 100 300 7 7 (1470000)
I1017 12:36:37.507091 19808 net.cpp:156] Memory required for data: 3729282400
I1017 12:36:37.507098 19808 layer_factory.hpp:77] Creating layer prelu3_mouth
I1017 12:36:37.507105 19808 net.cpp:91] Creating Layer prelu3_mouth
I1017 12:36:37.507109 19808 net.cpp:425] prelu3_mouth <- conv3_mouth
I1017 12:36:37.507117 19808 net.cpp:386] prelu3_mouth -> conv3_mouth (in-place)
I1017 12:36:37.507238 19808 net.cpp:141] Setting up prelu3_mouth
I1017 12:36:37.507248 19808 net.cpp:148] Top shape: 100 300 7 7 (1470000)
I1017 12:36:37.507252 19808 net.cpp:156] Memory required for data: 3735162400
I1017 12:36:37.507259 19808 layer_factory.hpp:77] Creating layer pool3_mouth
I1017 12:36:37.507274 19808 net.cpp:91] Creating Layer pool3_mouth
I1017 12:36:37.507280 19808 net.cpp:425] pool3_mouth <- conv3_mouth
I1017 12:36:37.507287 19808 net.cpp:399] pool3_mouth -> pool3_mouth
I1017 12:36:37.507328 19808 net.cpp:141] Setting up pool3_mouth
I1017 12:36:37.507351 19808 net.cpp:148] Top shape: 100 300 4 4 (480000)
I1017 12:36:37.507356 19808 net.cpp:156] Memory required for data: 3737082400
I1017 12:36:37.507361 19808 layer_factory.hpp:77] Creating layer fc1_mouth
I1017 12:36:37.507369 19808 net.cpp:91] Creating Layer fc1_mouth
I1017 12:36:37.507374 19808 net.cpp:425] fc1_mouth <- pool3_mouth
I1017 12:36:37.507381 19808 net.cpp:399] fc1_mouth -> fc1_mouth
I1017 12:36:37.528116 19808 net.cpp:141] Setting up fc1_mouth
I1017 12:36:37.528137 19808 net.cpp:148] Top shape: 100 512 (51200)
I1017 12:36:37.528142 19808 net.cpp:156] Memory required for data: 3737287200
I1017 12:36:37.528151 19808 layer_factory.hpp:77] Creating layer relu1_mouth
I1017 12:36:37.528172 19808 net.cpp:91] Creating Layer relu1_mouth
I1017 12:36:37.528177 19808 net.cpp:425] relu1_mouth <- fc1_mouth
I1017 12:36:37.528187 19808 net.cpp:386] relu1_mouth -> fc1_mouth (in-place)
I1017 12:36:37.528380 19808 net.cpp:141] Setting up relu1_mouth
I1017 12:36:37.528393 19808 net.cpp:148] Top shape: 100 512 (51200)
I1017 12:36:37.528396 19808 net.cpp:156] Memory required for data: 3737492000
I1017 12:36:37.528401 19808 layer_factory.hpp:77] Creating layer drop1_mouth
I1017 12:36:37.528411 19808 net.cpp:91] Creating Layer drop1_mouth
I1017 12:36:37.528416 19808 net.cpp:425] drop1_mouth <- fc1_mouth
I1017 12:36:37.528424 19808 net.cpp:386] drop1_mouth -> fc1_mouth (in-place)
I1017 12:36:37.528451 19808 net.cpp:141] Setting up drop1_mouth
I1017 12:36:37.528458 19808 net.cpp:148] Top shape: 100 512 (51200)
I1017 12:36:37.528462 19808 net.cpp:156] Memory required for data: 3737696800
I1017 12:36:37.528468 19808 layer_factory.hpp:77] Creating layer fc2_mouth
I1017 12:36:37.528478 19808 net.cpp:91] Creating Layer fc2_mouth
I1017 12:36:37.528483 19808 net.cpp:425] fc2_mouth <- fc1_mouth
I1017 12:36:37.528491 19808 net.cpp:399] fc2_mouth -> fc2_mouth
I1017 12:36:37.531056 19808 net.cpp:141] Setting up fc2_mouth
I1017 12:36:37.531075 19808 net.cpp:148] Top shape: 100 512 (51200)
I1017 12:36:37.531080 19808 net.cpp:156] Memory required for data: 3737901600
I1017 12:36:37.531097 19808 layer_factory.hpp:77] Creating layer relu2_mouth
I1017 12:36:37.531105 19808 net.cpp:91] Creating Layer relu2_mouth
I1017 12:36:37.531110 19808 net.cpp:425] relu2_mouth <- fc2_mouth
I1017 12:36:37.531116 19808 net.cpp:386] relu2_mouth -> fc2_mouth (in-place)
I1017 12:36:37.531438 19808 net.cpp:141] Setting up relu2_mouth
I1017 12:36:37.531457 19808 net.cpp:148] Top shape: 100 512 (51200)
I1017 12:36:37.531461 19808 net.cpp:156] Memory required for data: 3738106400
I1017 12:36:37.531466 19808 layer_factory.hpp:77] Creating layer drop2_mouth
I1017 12:36:37.531473 19808 net.cpp:91] Creating Layer drop2_mouth
I1017 12:36:37.531478 19808 net.cpp:425] drop2_mouth <- fc2_mouth
I1017 12:36:37.531486 19808 net.cpp:386] drop2_mouth -> fc2_mouth (in-place)
I1017 12:36:37.531549 19808 net.cpp:141] Setting up drop2_mouth
I1017 12:36:37.531559 19808 net.cpp:148] Top shape: 100 512 (51200)
I1017 12:36:37.531563 19808 net.cpp:156] Memory required for data: 3738311200
I1017 12:36:37.531568 19808 layer_factory.hpp:77] Creating layer fc2_mouth_drop2_mouth_0_split
I1017 12:36:37.531576 19808 net.cpp:91] Creating Layer fc2_mouth_drop2_mouth_0_split
I1017 12:36:37.531581 19808 net.cpp:425] fc2_mouth_drop2_mouth_0_split <- fc2_mouth
I1017 12:36:37.531587 19808 net.cpp:399] fc2_mouth_drop2_mouth_0_split -> fc2_mouth_drop2_mouth_0_split_0
I1017 12:36:37.531595 19808 net.cpp:399] fc2_mouth_drop2_mouth_0_split -> fc2_mouth_drop2_mouth_0_split_1
I1017 12:36:37.531602 19808 net.cpp:399] fc2_mouth_drop2_mouth_0_split -> fc2_mouth_drop2_mouth_0_split_2
I1017 12:36:37.531610 19808 net.cpp:399] fc2_mouth_drop2_mouth_0_split -> fc2_mouth_drop2_mouth_0_split_3
I1017 12:36:37.531672 19808 net.cpp:141] Setting up fc2_mouth_drop2_mouth_0_split
I1017 12:36:37.531679 19808 net.cpp:148] Top shape: 100 512 (51200)
I1017 12:36:37.531684 19808 net.cpp:148] Top shape: 100 512 (51200)
I1017 12:36:37.531688 19808 net.cpp:148] Top shape: 100 512 (51200)
I1017 12:36:37.531708 19808 net.cpp:148] Top shape: 100 512 (51200)
I1017 12:36:37.531713 19808 net.cpp:156] Memory required for data: 3739130400
I1017 12:36:37.531719 19808 layer_factory.hpp:77] Creating layer conv3_eyes
I1017 12:36:37.531733 19808 net.cpp:91] Creating Layer conv3_eyes
I1017 12:36:37.531738 19808 net.cpp:425] conv3_eyes <- pool3_pool3_0_split_3
I1017 12:36:37.531751 19808 net.cpp:399] conv3_eyes -> conv3_eyes
I1017 12:36:37.541582 19808 net.cpp:141] Setting up conv3_eyes
I1017 12:36:37.541599 19808 net.cpp:148] Top shape: 100 300 7 7 (1470000)
I1017 12:36:37.541604 19808 net.cpp:156] Memory required for data: 3745010400
I1017 12:36:37.541621 19808 layer_factory.hpp:77] Creating layer conv3_eyes_bn
I1017 12:36:37.541632 19808 net.cpp:91] Creating Layer conv3_eyes_bn
I1017 12:36:37.541637 19808 net.cpp:425] conv3_eyes_bn <- conv3_eyes
I1017 12:36:37.541646 19808 net.cpp:386] conv3_eyes_bn -> conv3_eyes (in-place)
I1017 12:36:37.541846 19808 net.cpp:141] Setting up conv3_eyes_bn
I1017 12:36:37.541856 19808 net.cpp:148] Top shape: 100 300 7 7 (1470000)
I1017 12:36:37.541859 19808 net.cpp:156] Memory required for data: 3750890400
I1017 12:36:37.541870 19808 layer_factory.hpp:77] Creating layer conv3_eyes_scale
I1017 12:36:37.541888 19808 net.cpp:91] Creating Layer conv3_eyes_scale
I1017 12:36:37.541893 19808 net.cpp:425] conv3_eyes_scale <- conv3_eyes
I1017 12:36:37.541898 19808 net.cpp:386] conv3_eyes_scale -> conv3_eyes (in-place)
I1017 12:36:37.541954 19808 layer_factory.hpp:77] Creating layer conv3_eyes_scale
I1017 12:36:37.542090 19808 net.cpp:141] Setting up conv3_eyes_scale
I1017 12:36:37.542099 19808 net.cpp:148] Top shape: 100 300 7 7 (1470000)
I1017 12:36:37.542104 19808 net.cpp:156] Memory required for data: 3756770400
I1017 12:36:37.542111 19808 layer_factory.hpp:77] Creating layer prelu3_eyes
I1017 12:36:37.542119 19808 net.cpp:91] Creating Layer prelu3_eyes
I1017 12:36:37.542124 19808 net.cpp:425] prelu3_eyes <- conv3_eyes
I1017 12:36:37.542131 19808 net.cpp:386] prelu3_eyes -> conv3_eyes (in-place)
I1017 12:36:37.542240 19808 net.cpp:141] Setting up prelu3_eyes
I1017 12:36:37.542249 19808 net.cpp:148] Top shape: 100 300 7 7 (1470000)
I1017 12:36:37.542263 19808 net.cpp:156] Memory required for data: 3762650400
I1017 12:36:37.542270 19808 layer_factory.hpp:77] Creating layer pool3_eyes
I1017 12:36:37.542292 19808 net.cpp:91] Creating Layer pool3_eyes
I1017 12:36:37.542297 19808 net.cpp:425] pool3_eyes <- conv3_eyes
I1017 12:36:37.542306 19808 net.cpp:399] pool3_eyes -> pool3_eyes
I1017 12:36:37.542351 19808 net.cpp:141] Setting up pool3_eyes
I1017 12:36:37.542361 19808 net.cpp:148] Top shape: 100 300 4 4 (480000)
I1017 12:36:37.542364 19808 net.cpp:156] Memory required for data: 3764570400
I1017 12:36:37.542368 19808 layer_factory.hpp:77] Creating layer fc1_eyes
I1017 12:36:37.542382 19808 net.cpp:91] Creating Layer fc1_eyes
I1017 12:36:37.542387 19808 net.cpp:425] fc1_eyes <- pool3_eyes
I1017 12:36:37.542393 19808 net.cpp:399] fc1_eyes -> fc1_eyes
I1017 12:36:37.563123 19808 net.cpp:141] Setting up fc1_eyes
I1017 12:36:37.563145 19808 net.cpp:148] Top shape: 100 512 (51200)
I1017 12:36:37.563149 19808 net.cpp:156] Memory required for data: 3764775200
I1017 12:36:37.563158 19808 layer_factory.hpp:77] Creating layer relu1_eyes
I1017 12:36:37.563179 19808 net.cpp:91] Creating Layer relu1_eyes
I1017 12:36:37.563185 19808 net.cpp:425] relu1_eyes <- fc1_eyes
I1017 12:36:37.563194 19808 net.cpp:386] relu1_eyes -> fc1_eyes (in-place)
I1017 12:36:37.563406 19808 net.cpp:141] Setting up relu1_eyes
I1017 12:36:37.563418 19808 net.cpp:148] Top shape: 100 512 (51200)
I1017 12:36:37.563422 19808 net.cpp:156] Memory required for data: 3764980000
I1017 12:36:37.563426 19808 layer_factory.hpp:77] Creating layer drop1_eyes
I1017 12:36:37.563437 19808 net.cpp:91] Creating Layer drop1_eyes
I1017 12:36:37.563442 19808 net.cpp:425] drop1_eyes <- fc1_eyes
I1017 12:36:37.563447 19808 net.cpp:386] drop1_eyes -> fc1_eyes (in-place)
I1017 12:36:37.563480 19808 net.cpp:141] Setting up drop1_eyes
I1017 12:36:37.563504 19808 net.cpp:148] Top shape: 100 512 (51200)
I1017 12:36:37.563509 19808 net.cpp:156] Memory required for data: 3765184800
I1017 12:36:37.563515 19808 layer_factory.hpp:77] Creating layer fc2_eyes
I1017 12:36:37.563537 19808 net.cpp:91] Creating Layer fc2_eyes
I1017 12:36:37.563544 19808 net.cpp:425] fc2_eyes <- fc1_eyes
I1017 12:36:37.563550 19808 net.cpp:399] fc2_eyes -> fc2_eyes
I1017 12:36:37.566066 19808 net.cpp:141] Setting up fc2_eyes
I1017 12:36:37.566079 19808 net.cpp:148] Top shape: 100 512 (51200)
I1017 12:36:37.566084 19808 net.cpp:156] Memory required for data: 3765389600
I1017 12:36:37.566103 19808 layer_factory.hpp:77] Creating layer relu2_eyes
I1017 12:36:37.566112 19808 net.cpp:91] Creating Layer relu2_eyes
I1017 12:36:37.566118 19808 net.cpp:425] relu2_eyes <- fc2_eyes
I1017 12:36:37.566123 19808 net.cpp:386] relu2_eyes -> fc2_eyes (in-place)
I1017 12:36:37.566458 19808 net.cpp:141] Setting up relu2_eyes
I1017 12:36:37.566473 19808 net.cpp:148] Top shape: 100 512 (51200)
I1017 12:36:37.566478 19808 net.cpp:156] Memory required for data: 3765594400
I1017 12:36:37.566481 19808 layer_factory.hpp:77] Creating layer drop2_eyes
I1017 12:36:37.566524 19808 net.cpp:91] Creating Layer drop2_eyes
I1017 12:36:37.566529 19808 net.cpp:425] drop2_eyes <- fc2_eyes
I1017 12:36:37.566536 19808 net.cpp:386] drop2_eyes -> fc2_eyes (in-place)
I1017 12:36:37.566568 19808 net.cpp:141] Setting up drop2_eyes
I1017 12:36:37.566576 19808 net.cpp:148] Top shape: 100 512 (51200)
I1017 12:36:37.566579 19808 net.cpp:156] Memory required for data: 3765799200
I1017 12:36:37.566583 19808 layer_factory.hpp:77] Creating layer fc2_eyes_drop2_eyes_0_split
I1017 12:36:37.566591 19808 net.cpp:91] Creating Layer fc2_eyes_drop2_eyes_0_split
I1017 12:36:37.566596 19808 net.cpp:425] fc2_eyes_drop2_eyes_0_split <- fc2_eyes
I1017 12:36:37.566603 19808 net.cpp:399] fc2_eyes_drop2_eyes_0_split -> fc2_eyes_drop2_eyes_0_split_0
I1017 12:36:37.566612 19808 net.cpp:399] fc2_eyes_drop2_eyes_0_split -> fc2_eyes_drop2_eyes_0_split_1
I1017 12:36:37.566618 19808 net.cpp:399] fc2_eyes_drop2_eyes_0_split -> fc2_eyes_drop2_eyes_0_split_2
I1017 12:36:37.566625 19808 net.cpp:399] fc2_eyes_drop2_eyes_0_split -> fc2_eyes_drop2_eyes_0_split_3
I1017 12:36:37.566633 19808 net.cpp:399] fc2_eyes_drop2_eyes_0_split -> fc2_eyes_drop2_eyes_0_split_4
I1017 12:36:37.566706 19808 net.cpp:141] Setting up fc2_eyes_drop2_eyes_0_split
I1017 12:36:37.566715 19808 net.cpp:148] Top shape: 100 512 (51200)
I1017 12:36:37.566720 19808 net.cpp:148] Top shape: 100 512 (51200)
I1017 12:36:37.566725 19808 net.cpp:148] Top shape: 100 512 (51200)
I1017 12:36:37.566728 19808 net.cpp:148] Top shape: 100 512 (51200)
I1017 12:36:37.566732 19808 net.cpp:148] Top shape: 100 512 (51200)
I1017 12:36:37.566736 19808 net.cpp:156] Memory required for data: 3766823200
I1017 12:36:37.566741 19808 layer_factory.hpp:77] Creating layer conv3_face
I1017 12:36:37.566754 19808 net.cpp:91] Creating Layer conv3_face
I1017 12:36:37.566761 19808 net.cpp:425] conv3_face <- pool3_pool3_0_split_4
I1017 12:36:37.566769 19808 net.cpp:399] conv3_face -> conv3_face
I1017 12:36:37.577041 19808 net.cpp:141] Setting up conv3_face
I1017 12:36:37.577059 19808 net.cpp:148] Top shape: 100 300 7 7 (1470000)
I1017 12:36:37.577064 19808 net.cpp:156] Memory required for data: 3772703200
I1017 12:36:37.577070 19808 layer_factory.hpp:77] Creating layer conv3_face_bn
I1017 12:36:37.577095 19808 net.cpp:91] Creating Layer conv3_face_bn
I1017 12:36:37.577100 19808 net.cpp:425] conv3_face_bn <- conv3_face
I1017 12:36:37.577107 19808 net.cpp:386] conv3_face_bn -> conv3_face (in-place)
I1017 12:36:37.577311 19808 net.cpp:141] Setting up conv3_face_bn
I1017 12:36:37.577322 19808 net.cpp:148] Top shape: 100 300 7 7 (1470000)
I1017 12:36:37.577325 19808 net.cpp:156] Memory required for data: 3778583200
I1017 12:36:37.577333 19808 layer_factory.hpp:77] Creating layer conv3_face_scale
I1017 12:36:37.577345 19808 net.cpp:91] Creating Layer conv3_face_scale
I1017 12:36:37.577350 19808 net.cpp:425] conv3_face_scale <- conv3_face
I1017 12:36:37.577369 19808 net.cpp:386] conv3_face_scale -> conv3_face (in-place)
I1017 12:36:37.577416 19808 layer_factory.hpp:77] Creating layer conv3_face_scale
I1017 12:36:37.577563 19808 net.cpp:141] Setting up conv3_face_scale
I1017 12:36:37.577571 19808 net.cpp:148] Top shape: 100 300 7 7 (1470000)
I1017 12:36:37.577575 19808 net.cpp:156] Memory required for data: 3784463200
I1017 12:36:37.577582 19808 layer_factory.hpp:77] Creating layer prelu3_face
I1017 12:36:37.577589 19808 net.cpp:91] Creating Layer prelu3_face
I1017 12:36:37.577594 19808 net.cpp:425] prelu3_face <- conv3_face
I1017 12:36:37.577601 19808 net.cpp:386] prelu3_face -> conv3_face (in-place)
I1017 12:36:37.577714 19808 net.cpp:141] Setting up prelu3_face
I1017 12:36:37.577723 19808 net.cpp:148] Top shape: 100 300 7 7 (1470000)
I1017 12:36:37.577728 19808 net.cpp:156] Memory required for data: 3790343200
I1017 12:36:37.577734 19808 layer_factory.hpp:77] Creating layer pool3_face
I1017 12:36:37.577741 19808 net.cpp:91] Creating Layer pool3_face
I1017 12:36:37.577746 19808 net.cpp:425] pool3_face <- conv3_face
I1017 12:36:37.577752 19808 net.cpp:399] pool3_face -> pool3_face
I1017 12:36:37.577805 19808 net.cpp:141] Setting up pool3_face
I1017 12:36:37.577816 19808 net.cpp:148] Top shape: 100 300 4 4 (480000)
I1017 12:36:37.577821 19808 net.cpp:156] Memory required for data: 3792263200
I1017 12:36:37.577824 19808 layer_factory.hpp:77] Creating layer fc1_face
I1017 12:36:37.577834 19808 net.cpp:91] Creating Layer fc1_face
I1017 12:36:37.577839 19808 net.cpp:425] fc1_face <- pool3_face
I1017 12:36:37.577847 19808 net.cpp:399] fc1_face -> fc1_face
I1017 12:36:37.600258 19808 net.cpp:141] Setting up fc1_face
I1017 12:36:37.600282 19808 net.cpp:148] Top shape: 100 512 (51200)
I1017 12:36:37.600287 19808 net.cpp:156] Memory required for data: 3792468000
I1017 12:36:37.600296 19808 layer_factory.hpp:77] Creating layer relu1_face
I1017 12:36:37.600317 19808 net.cpp:91] Creating Layer relu1_face
I1017 12:36:37.600323 19808 net.cpp:425] relu1_face <- fc1_face
I1017 12:36:37.600330 19808 net.cpp:386] relu1_face -> fc1_face (in-place)
I1017 12:36:37.600692 19808 net.cpp:141] Setting up relu1_face
I1017 12:36:37.600716 19808 net.cpp:148] Top shape: 100 512 (51200)
I1017 12:36:37.600721 19808 net.cpp:156] Memory required for data: 3792672800
I1017 12:36:37.600738 19808 layer_factory.hpp:77] Creating layer drop1_face
I1017 12:36:37.600759 19808 net.cpp:91] Creating Layer drop1_face
I1017 12:36:37.600764 19808 net.cpp:425] drop1_face <- fc1_face
I1017 12:36:37.600770 19808 net.cpp:386] drop1_face -> fc1_face (in-place)
I1017 12:36:37.600805 19808 net.cpp:141] Setting up drop1_face
I1017 12:36:37.600812 19808 net.cpp:148] Top shape: 100 512 (51200)
I1017 12:36:37.600816 19808 net.cpp:156] Memory required for data: 3792877600
I1017 12:36:37.600822 19808 layer_factory.hpp:77] Creating layer fc2_face
I1017 12:36:37.600834 19808 net.cpp:91] Creating Layer fc2_face
I1017 12:36:37.600839 19808 net.cpp:425] fc2_face <- fc1_face
I1017 12:36:37.600846 19808 net.cpp:399] fc2_face -> fc2_face
I1017 12:36:37.603368 19808 net.cpp:141] Setting up fc2_face
I1017 12:36:37.603382 19808 net.cpp:148] Top shape: 100 512 (51200)
I1017 12:36:37.603386 19808 net.cpp:156] Memory required for data: 3793082400
I1017 12:36:37.603394 19808 layer_factory.hpp:77] Creating layer relu2_face
I1017 12:36:37.603412 19808 net.cpp:91] Creating Layer relu2_face
I1017 12:36:37.603416 19808 net.cpp:425] relu2_face <- fc2_face
I1017 12:36:37.603425 19808 net.cpp:386] relu2_face -> fc2_face (in-place)
I1017 12:36:37.603597 19808 net.cpp:141] Setting up relu2_face
I1017 12:36:37.603611 19808 net.cpp:148] Top shape: 100 512 (51200)
I1017 12:36:37.603616 19808 net.cpp:156] Memory required for data: 3793287200
I1017 12:36:37.603621 19808 layer_factory.hpp:77] Creating layer drop2_face
I1017 12:36:37.603627 19808 net.cpp:91] Creating Layer drop2_face
I1017 12:36:37.603632 19808 net.cpp:425] drop2_face <- fc2_face
I1017 12:36:37.603638 19808 net.cpp:386] drop2_face -> fc2_face (in-place)
I1017 12:36:37.603668 19808 net.cpp:141] Setting up drop2_face
I1017 12:36:37.603691 19808 net.cpp:148] Top shape: 100 512 (51200)
I1017 12:36:37.603696 19808 net.cpp:156] Memory required for data: 3793492000
I1017 12:36:37.603700 19808 layer_factory.hpp:77] Creating layer fc2_face_drop2_face_0_split
I1017 12:36:37.603709 19808 net.cpp:91] Creating Layer fc2_face_drop2_face_0_split
I1017 12:36:37.603714 19808 net.cpp:425] fc2_face_drop2_face_0_split <- fc2_face
I1017 12:36:37.603720 19808 net.cpp:399] fc2_face_drop2_face_0_split -> fc2_face_drop2_face_0_split_0
I1017 12:36:37.603729 19808 net.cpp:399] fc2_face_drop2_face_0_split -> fc2_face_drop2_face_0_split_1
I1017 12:36:37.603735 19808 net.cpp:399] fc2_face_drop2_face_0_split -> fc2_face_drop2_face_0_split_2
I1017 12:36:37.603752 19808 net.cpp:399] fc2_face_drop2_face_0_split -> fc2_face_drop2_face_0_split_3
I1017 12:36:37.603760 19808 net.cpp:399] fc2_face_drop2_face_0_split -> fc2_face_drop2_face_0_split_4
I1017 12:36:37.603768 19808 net.cpp:399] fc2_face_drop2_face_0_split -> fc2_face_drop2_face_0_split_5
I1017 12:36:37.603864 19808 net.cpp:141] Setting up fc2_face_drop2_face_0_split
I1017 12:36:37.603873 19808 net.cpp:148] Top shape: 100 512 (51200)
I1017 12:36:37.603878 19808 net.cpp:148] Top shape: 100 512 (51200)
I1017 12:36:37.603883 19808 net.cpp:148] Top shape: 100 512 (51200)
I1017 12:36:37.603888 19808 net.cpp:148] Top shape: 100 512 (51200)
I1017 12:36:37.603893 19808 net.cpp:148] Top shape: 100 512 (51200)
I1017 12:36:37.603896 19808 net.cpp:148] Top shape: 100 512 (51200)
I1017 12:36:37.603900 19808 net.cpp:156] Memory required for data: 3794720800
I1017 12:36:37.603905 19808 layer_factory.hpp:77] Creating layer conv3_rest
I1017 12:36:37.603919 19808 net.cpp:91] Creating Layer conv3_rest
I1017 12:36:37.603924 19808 net.cpp:425] conv3_rest <- pool3_pool3_0_split_5
I1017 12:36:37.603934 19808 net.cpp:399] conv3_rest -> conv3_rest
I1017 12:36:37.613700 19808 net.cpp:141] Setting up conv3_rest
I1017 12:36:37.613716 19808 net.cpp:148] Top shape: 100 300 7 7 (1470000)
I1017 12:36:37.613721 19808 net.cpp:156] Memory required for data: 3800600800
I1017 12:36:37.613739 19808 layer_factory.hpp:77] Creating layer conv3_rest_bn
I1017 12:36:37.613752 19808 net.cpp:91] Creating Layer conv3_rest_bn
I1017 12:36:37.613759 19808 net.cpp:425] conv3_rest_bn <- conv3_rest
I1017 12:36:37.613766 19808 net.cpp:386] conv3_rest_bn -> conv3_rest (in-place)
I1017 12:36:37.613978 19808 net.cpp:141] Setting up conv3_rest_bn
I1017 12:36:37.613987 19808 net.cpp:148] Top shape: 100 300 7 7 (1470000)
I1017 12:36:37.613992 19808 net.cpp:156] Memory required for data: 3806480800
I1017 12:36:37.614002 19808 layer_factory.hpp:77] Creating layer conv3_rest_scale
I1017 12:36:37.614011 19808 net.cpp:91] Creating Layer conv3_rest_scale
I1017 12:36:37.614015 19808 net.cpp:425] conv3_rest_scale <- conv3_rest
I1017 12:36:37.614022 19808 net.cpp:386] conv3_rest_scale -> conv3_rest (in-place)
I1017 12:36:37.614065 19808 layer_factory.hpp:77] Creating layer conv3_rest_scale
I1017 12:36:37.614202 19808 net.cpp:141] Setting up conv3_rest_scale
I1017 12:36:37.614212 19808 net.cpp:148] Top shape: 100 300 7 7 (1470000)
I1017 12:36:37.614217 19808 net.cpp:156] Memory required for data: 3812360800
I1017 12:36:37.614223 19808 layer_factory.hpp:77] Creating layer prelu3_rest
I1017 12:36:37.614233 19808 net.cpp:91] Creating Layer prelu3_rest
I1017 12:36:37.614238 19808 net.cpp:425] prelu3_rest <- conv3_rest
I1017 12:36:37.614243 19808 net.cpp:386] prelu3_rest -> conv3_rest (in-place)
I1017 12:36:37.614378 19808 net.cpp:141] Setting up prelu3_rest
I1017 12:36:37.614390 19808 net.cpp:148] Top shape: 100 300 7 7 (1470000)
I1017 12:36:37.614394 19808 net.cpp:156] Memory required for data: 3818240800
I1017 12:36:37.614401 19808 layer_factory.hpp:77] Creating layer pool3_rest
I1017 12:36:37.614410 19808 net.cpp:91] Creating Layer pool3_rest
I1017 12:36:37.614415 19808 net.cpp:425] pool3_rest <- conv3_rest
I1017 12:36:37.614421 19808 net.cpp:399] pool3_rest -> pool3_rest
I1017 12:36:37.614465 19808 net.cpp:141] Setting up pool3_rest
I1017 12:36:37.614485 19808 net.cpp:148] Top shape: 100 300 4 4 (480000)
I1017 12:36:37.614490 19808 net.cpp:156] Memory required for data: 3820160800
I1017 12:36:37.614495 19808 layer_factory.hpp:77] Creating layer pool3_rest_pool3_rest_0_split
I1017 12:36:37.614501 19808 net.cpp:91] Creating Layer pool3_rest_pool3_rest_0_split
I1017 12:36:37.614506 19808 net.cpp:425] pool3_rest_pool3_rest_0_split <- pool3_rest
I1017 12:36:37.614514 19808 net.cpp:399] pool3_rest_pool3_rest_0_split -> pool3_rest_pool3_rest_0_split_0
I1017 12:36:37.614521 19808 net.cpp:399] pool3_rest_pool3_rest_0_split -> pool3_rest_pool3_rest_0_split_1
I1017 12:36:37.614528 19808 net.cpp:399] pool3_rest_pool3_rest_0_split -> pool3_rest_pool3_rest_0_split_2
I1017 12:36:37.614534 19808 net.cpp:399] pool3_rest_pool3_rest_0_split -> pool3_rest_pool3_rest_0_split_3
I1017 12:36:37.614609 19808 net.cpp:141] Setting up pool3_rest_pool3_rest_0_split
I1017 12:36:37.614617 19808 net.cpp:148] Top shape: 100 300 4 4 (480000)
I1017 12:36:37.614622 19808 net.cpp:148] Top shape: 100 300 4 4 (480000)
I1017 12:36:37.614627 19808 net.cpp:148] Top shape: 100 300 4 4 (480000)
I1017 12:36:37.614631 19808 net.cpp:148] Top shape: 100 300 4 4 (480000)
I1017 12:36:37.614635 19808 net.cpp:156] Memory required for data: 3827840800
I1017 12:36:37.614639 19808 layer_factory.hpp:77] Creating layer fc1_aroundhead
I1017 12:36:37.614648 19808 net.cpp:91] Creating Layer fc1_aroundhead
I1017 12:36:37.614653 19808 net.cpp:425] fc1_aroundhead <- pool3_rest_pool3_rest_0_split_0
I1017 12:36:37.614660 19808 net.cpp:399] fc1_aroundhead -> fc1_aroundhead
I1017 12:36:37.635318 19808 net.cpp:141] Setting up fc1_aroundhead
I1017 12:36:37.635336 19808 net.cpp:148] Top shape: 100 512 (51200)
I1017 12:36:37.635341 19808 net.cpp:156] Memory required for data: 3828045600
I1017 12:36:37.635349 19808 layer_factory.hpp:77] Creating layer relu1_aroundhead
I1017 12:36:37.635368 19808 net.cpp:91] Creating Layer relu1_aroundhead
I1017 12:36:37.635375 19808 net.cpp:425] relu1_aroundhead <- fc1_aroundhead
I1017 12:36:37.635385 19808 net.cpp:386] relu1_aroundhead -> fc1_aroundhead (in-place)
I1017 12:36:37.635753 19808 net.cpp:141] Setting up relu1_aroundhead
I1017 12:36:37.635778 19808 net.cpp:148] Top shape: 100 512 (51200)
I1017 12:36:37.635783 19808 net.cpp:156] Memory required for data: 3828250400
I1017 12:36:37.635800 19808 layer_factory.hpp:77] Creating layer drop1_aroundhead
I1017 12:36:37.635817 19808 net.cpp:91] Creating Layer drop1_aroundhead
I1017 12:36:37.635823 19808 net.cpp:425] drop1_aroundhead <- fc1_aroundhead
I1017 12:36:37.635828 19808 net.cpp:386] drop1_aroundhead -> fc1_aroundhead (in-place)
I1017 12:36:37.635864 19808 net.cpp:141] Setting up drop1_aroundhead
I1017 12:36:37.635870 19808 net.cpp:148] Top shape: 100 512 (51200)
I1017 12:36:37.635874 19808 net.cpp:156] Memory required for data: 3828455200
I1017 12:36:37.635879 19808 layer_factory.hpp:77] Creating layer fc2_aroundhead
I1017 12:36:37.635886 19808 net.cpp:91] Creating Layer fc2_aroundhead
I1017 12:36:37.635890 19808 net.cpp:425] fc2_aroundhead <- fc1_aroundhead
I1017 12:36:37.635898 19808 net.cpp:399] fc2_aroundhead -> fc2_aroundhead
I1017 12:36:37.638411 19808 net.cpp:141] Setting up fc2_aroundhead
I1017 12:36:37.638424 19808 net.cpp:148] Top shape: 100 512 (51200)
I1017 12:36:37.638429 19808 net.cpp:156] Memory required for data: 3828660000
I1017 12:36:37.638448 19808 layer_factory.hpp:77] Creating layer relu2_aroundhead
I1017 12:36:37.638458 19808 net.cpp:91] Creating Layer relu2_aroundhead
I1017 12:36:37.638463 19808 net.cpp:425] relu2_aroundhead <- fc2_aroundhead
I1017 12:36:37.638468 19808 net.cpp:386] relu2_aroundhead -> fc2_aroundhead (in-place)
I1017 12:36:37.638643 19808 net.cpp:141] Setting up relu2_aroundhead
I1017 12:36:37.638655 19808 net.cpp:148] Top shape: 100 512 (51200)
I1017 12:36:37.638659 19808 net.cpp:156] Memory required for data: 3828864800
I1017 12:36:37.638664 19808 layer_factory.hpp:77] Creating layer drop2_aroundhead
I1017 12:36:37.638674 19808 net.cpp:91] Creating Layer drop2_aroundhead
I1017 12:36:37.638679 19808 net.cpp:425] drop2_aroundhead <- fc2_aroundhead
I1017 12:36:37.638701 19808 net.cpp:386] drop2_aroundhead -> fc2_aroundhead (in-place)
I1017 12:36:37.638734 19808 net.cpp:141] Setting up drop2_aroundhead
I1017 12:36:37.638741 19808 net.cpp:148] Top shape: 100 512 (51200)
I1017 12:36:37.638744 19808 net.cpp:156] Memory required for data: 3829069600
I1017 12:36:37.638749 19808 layer_factory.hpp:77] Creating layer fc2_aroundhead_drop2_aroundhead_0_split
I1017 12:36:37.638761 19808 net.cpp:91] Creating Layer fc2_aroundhead_drop2_aroundhead_0_split
I1017 12:36:37.638766 19808 net.cpp:425] fc2_aroundhead_drop2_aroundhead_0_split <- fc2_aroundhead
I1017 12:36:37.638772 19808 net.cpp:399] fc2_aroundhead_drop2_aroundhead_0_split -> fc2_aroundhead_drop2_aroundhead_0_split_0
…
I1017 12:36:37.638836 19808 net.cpp:399] fc2_aroundhead_drop2_aroundhead_0_split -> fc2_aroundhead_drop2_aroundhead_0_split_9
I1017 12:36:37.638844 19808 net.cpp:399] fc2_aroundhead_drop2_aroundhead_0_split -> fc2_aroundhead_drop2_aroundhead_0_split_10
I1017 12:36:37.638850 19808 net.cpp:399] fc2_aroundhead_drop2_aroundhead_0_split -> fc2_aroundhead_drop2_aroundhead_0_split_11
I1017 12:36:37.638857 19808 net.cpp:399] fc2_aroundhead_drop2_aroundhead_0_split -> fc2_aroundhead_drop2_aroundhead_0_split_12
I1017 12:36:37.639047 19808 net.cpp:141] Setting up fc2_aroundhead_drop2_aroundhead_0_split
I1017 12:36:37.639057 19808 net.cpp:148] Top shape: 100 512 (51200)
I1017 12:36:37.639062 19808 net.cpp:148] Top shape: 100 512 (51200)
I1017 12:36:37.639066 19808 net.cpp:148] Top shape: 100 512 (51200)
I1017 12:36:37.639070 19808 net.cpp:148] Top shape: 100 512 (51200)
I1017 12:36:37.639075 19808 net.cpp:148] Top shape: 100 512 (51200)
I1017 12:36:37.639080 19808 net.cpp:148] Top shape: 100 512 (51200)
I1017 12:36:37.639083 19808 net.cpp:148] Top shape: 100 512 (51200)
I1017 12:36:37.639088 19808 net.cpp:148] Top shape: 100 512 (51200)
I1017 12:36:37.639098 19808 net.cpp:148] Top shape: 100 512 (51200)
I1017 12:36:37.639103 19808 net.cpp:148] Top shape: 100 512 (51200)
I1017 12:36:37.639107 19808 net.cpp:148] Top shape: 100 512 (51200)
I1017 12:36:37.639111 19808 net.cpp:148] Top shape: 100 512 (51200)
I1017 12:36:37.639117 19808 net.cpp:148] Top shape: 100 512 (51200)
I1017 12:36:37.639119 19808 net.cpp:156] Memory required for data: 3831732000
I1017 12:36:37.639124 19808 layer_factory.hpp:77] Creating layer fc1_facialhair
I1017 12:36:37.639133 19808 net.cpp:91] Creating Layer fc1_facialhair
I1017 12:36:37.639139 19808 net.cpp:425] fc1_facialhair <- pool3_rest_pool3_rest_0_split_1
I1017 12:36:37.639147 19808 net.cpp:399] fc1_facialhair -> fc1_facialhair
I1017 12:36:37.659787 19808 net.cpp:141] Setting up fc1_facialhair
I1017 12:36:37.659809 19808 net.cpp:148] Top shape: 100 512 (51200)
I1017 12:36:37.659814 19808 net.cpp:156] Memory required for data: 3831936800
I1017 12:36:37.659822 19808 layer_factory.hpp:77] Creating layer relu1_facialhair
I1017 12:36:37.659842 19808 net.cpp:91] Creating Layer relu1_facialhair
I1017 12:36:37.659847 19808 net.cpp:425] relu1_facialhair <- fc1_facialhair
I1017 12:36:37.659869 19808 net.cpp:386] relu1_facialhair -> fc1_facialhair (in-place)
I1017 12:36:37.660256 19808 net.cpp:141] Setting up relu1_facialhair
I1017 12:36:37.660272 19808 net.cpp:148] Top shape: 100 512 (51200)
I1017 12:36:37.660277 19808 net.cpp:156] Memory required for data: 3832141600
I1017 12:36:37.660282 19808 layer_factory.hpp:77] Creating layer drop1_facialhair
I1017 12:36:37.660301 19808 net.cpp:91] Creating Layer drop1_facialhair
I1017 12:36:37.660305 19808 net.cpp:425] drop1_facialhair <- fc1_facialhair
I1017 12:36:37.660311 19808 net.cpp:386] drop1_facialhair -> fc1_facialhair (in-place)
I1017 12:36:37.660346 19808 net.cpp:141] Setting up drop1_facialhair
I1017 12:36:37.660352 19808 net.cpp:148] Top shape: 100 512 (51200)
I1017 12:36:37.660356 19808 net.cpp:156] Memory required for data: 3832346400
I1017 12:36:37.660362 19808 layer_factory.hpp:77] Creating layer fc2_facialhair
I1017 12:36:37.660373 19808 net.cpp:91] Creating Layer fc2_facialhair
I1017 12:36:37.660378 19808 net.cpp:425] fc2_facialhair <- fc1_facialhair
I1017 12:36:37.660384 19808 net.cpp:399] fc2_facialhair -> fc2_facialhair
I1017 12:36:37.662909 19808 net.cpp:141] Setting up fc2_facialhair
I1017 12:36:37.662922 19808 net.cpp:148] Top shape: 100 512 (51200)
I1017 12:36:37.662927 19808 net.cpp:156] Memory required for data: 3832551200
I1017 12:36:37.662945 19808 layer_factory.hpp:77] Creating layer relu2_facialhair
I1017 12:36:37.662955 19808 net.cpp:91] Creating Layer relu2_facialhair
I1017 12:36:37.662959 19808 net.cpp:425] relu2_facialhair <- fc2_facialhair
I1017 12:36:37.662966 19808 net.cpp:386] relu2_facialhair -> fc2_facialhair (in-place)
I1017 12:36:37.663168 19808 net.cpp:141] Setting up relu2_facialhair
I1017 12:36:37.663180 19808 net.cpp:148] Top shape: 100 512 (51200)
I1017 12:36:37.663185 19808 net.cpp:156] Memory required for data: 3832756000
I1017 12:36:37.663190 19808 layer_factory.hpp:77] Creating layer drop2_facialhair
I1017 12:36:37.663197 19808 net.cpp:91] Creating Layer drop2_facialhair
I1017 12:36:37.663202 19808 net.cpp:425] drop2_facialhair <- fc2_facialhair
I1017 12:36:37.663210 19808 net.cpp:386] drop2_facialhair -> fc2_facialhair (in-place)
I1017 12:36:37.663241 19808 net.cpp:141] Setting up drop2_facialhair
I1017 12:36:37.663247 19808 net.cpp:148] Top shape: 100 512 (51200)
I1017 12:36:37.663254 19808 net.cpp:156] Memory required for data: 3832960800
I1017 12:36:37.663257 19808 layer_factory.hpp:77] Creating layer fc2_facialhair_drop2_facialhair_0_split
I1017 12:36:37.663265 19808 net.cpp:91] Creating Layer fc2_facialhair_drop2_facialhair_0_split
I1017 12:36:37.663270 19808 net.cpp:425] fc2_facialhair_drop2_facialhair_0_split <- fc2_facialhair
I1017 12:36:37.663276 19808 net.cpp:399] fc2_facialhair_drop2_facialhair_0_split -> fc2_facialhair_drop2_facialhair_0_split_0
I1017 12:36:37.663285 19808 net.cpp:399] fc2_facialhair_drop2_facialhair_0_split -> fc2_facialhair_drop2_facialhair_0_split_1
I1017 12:36:37.663291 19808 net.cpp:399] fc2_facialhair_drop2_facialhair_0_split -> fc2_facialhair_drop2_facialhair_0_split_2
I1017 12:36:37.663300 19808 net.cpp:399] fc2_facialhair_drop2_facialhair_0_split -> fc2_facialhair_drop2_facialhair_0_split_3
I1017 12:36:37.663306 19808 net.cpp:399] fc2_facialhair_drop2_facialhair_0_split -> fc2_facialhair_drop2_facialhair_0_split_4
I1017 12:36:37.663404 19808 net.cpp:141] Setting up fc2_facialhair_drop2_facialhair_0_split
I1017 12:36:37.663414 19808 net.cpp:148] Top shape: 100 512 (51200)
I1017 12:36:37.663419 19808 net.cpp:148] Top shape: 100 512 (51200)
I1017 12:36:37.663424 19808 net.cpp:148] Top shape: 100 512 (51200)
I1017 12:36:37.663427 19808 net.cpp:148] Top shape: 100 512 (51200)
I1017 12:36:37.663431 19808 net.cpp:148] Top shape: 100 512 (51200)
I1017 12:36:37.663435 19808 net.cpp:156] Memory required for data: 3833984800
I1017 12:36:37.663441 19808 layer_factory.hpp:77] Creating layer fc1_cheeks
I1017 12:36:37.663452 19808 net.cpp:91] Creating Layer fc1_cheeks
I1017 12:36:37.663457 19808 net.cpp:425] fc1_cheeks <- pool3_rest_pool3_rest_0_split_2
I1017 12:36:37.663476 19808 net.cpp:399] fc1_cheeks -> fc1_cheeks
I1017 12:36:37.684111 19808 net.cpp:141] Setting up fc1_cheeks
I1017 12:36:37.684131 19808 net.cpp:148] Top shape: 100 512 (51200)
I1017 12:36:37.684135 19808 net.cpp:156] Memory required for data: 3834189600
I1017 12:36:37.684144 19808 layer_factory.hpp:77] Creating layer relu1_cheeks
I1017 12:36:37.684165 19808 net.cpp:91] Creating Layer relu1_cheeks
I1017 12:36:37.684171 19808 net.cpp:425] relu1_cheeks <- fc1_cheeks
I1017 12:36:37.684178 19808 net.cpp:386] relu1_cheeks -> fc1_cheeks (in-place)
I1017 12:36:37.684564 19808 net.cpp:141] Setting up relu1_cheeks
I1017 12:36:37.684578 19808 net.cpp:148] Top shape: 100 512 (51200)
I1017 12:36:37.684582 19808 net.cpp:156] Memory required for data: 3834394400
I1017 12:36:37.684587 19808 layer_factory.hpp:77] Creating layer drop1_cheeks
I1017 12:36:37.684612 19808 net.cpp:91] Creating Layer drop1_cheeks
I1017 12:36:37.684617 19808 net.cpp:425] drop1_cheeks <- fc1_cheeks
I1017 12:36:37.684623 19808 net.cpp:386] drop1_cheeks -> fc1_cheeks (in-place)
I1017 12:36:37.684658 19808 net.cpp:141] Setting up drop1_cheeks
I1017 12:36:37.684664 19808 net.cpp:148] Top shape: 100 512 (51200)
I1017 12:36:37.684667 19808 net.cpp:156] Memory required for data: 3834599200
I1017 12:36:37.684672 19808 layer_factory.hpp:77] Creating layer fc2_cheeks
I1017 12:36:37.684684 19808 net.cpp:91] Creating Layer fc2_cheeks
I1017 12:36:37.684689 19808 net.cpp:425] fc2_cheeks <- fc1_cheeks
I1017 12:36:37.684695 19808 net.cpp:399] fc2_cheeks -> fc2_cheeks
I1017 12:36:37.687212 19808 net.cpp:141] Setting up fc2_cheeks
I1017 12:36:37.687227 19808 net.cpp:148] Top shape: 100 512 (51200)
I1017 12:36:37.687232 19808 net.cpp:156] Memory required for data: 3834804000
I1017 12:36:37.687250 19808 layer_factory.hpp:77] Creating layer relu2_cheeks
I1017 12:36:37.687260 19808 net.cpp:91] Creating Layer relu2_cheeks
I1017 12:36:37.687265 19808 net.cpp:425] relu2_cheeks <- fc2_cheeks
I1017 12:36:37.687271 19808 net.cpp:386] relu2_cheeks -> fc2_cheeks (in-place)
I1017 12:36:37.687708 19808 net.cpp:141] Setting up relu2_cheeks
I1017 12:36:37.687724 19808 net.cpp:148] Top shape: 100 512 (51200)
I1017 12:36:37.687728 19808 net.cpp:156] Memory required for data: 3835008800
I1017 12:36:37.687744 19808 layer_factory.hpp:77] Creating layer drop2_cheeks
I1017 12:36:37.687752 19808 net.cpp:91] Creating Layer drop2_cheeks
I1017 12:36:37.687755 19808 net.cpp:425] drop2_cheeks <- fc2_cheeks
I1017 12:36:37.687762 19808 net.cpp:386] drop2_cheeks -> fc2_cheeks (in-place)
I1017 12:36:37.687795 19808 net.cpp:141] Setting up drop2_cheeks
I1017 12:36:37.687801 19808 net.cpp:148] Top shape: 100 512 (51200)
I1017 12:36:37.687805 19808 net.cpp:156] Memory required for data: 3835213600
I1017 12:36:37.687809 19808 layer_factory.hpp:77] Creating layer fc2_cheeks_drop2_cheeks_0_split
I1017 12:36:37.687815 19808 net.cpp:91] Creating Layer fc2_cheeks_drop2_cheeks_0_split
I1017 12:36:37.687821 19808 net.cpp:425] fc2_cheeks_drop2_cheeks_0_split <- fc2_cheeks
I1017 12:36:37.687839 19808 net.cpp:399] fc2_cheeks_drop2_cheeks_0_split -> fc2_cheeks_drop2_cheeks_0_split_0
I1017 12:36:37.687846 19808 net.cpp:399] fc2_cheeks_drop2_cheeks_0_split -> fc2_cheeks_drop2_cheeks_0_split_1
I1017 12:36:37.687887 19808 net.cpp:141] Setting up fc2_cheeks_drop2_cheeks_0_split
I1017 12:36:37.687893 19808 net.cpp:148] Top shape: 100 512 (51200)
I1017 12:36:37.687898 19808 net.cpp:148] Top shape: 100 512 (51200)
I1017 12:36:37.687902 19808 net.cpp:156] Memory required for data: 3835623200
I1017 12:36:37.687906 19808 layer_factory.hpp:77] Creating layer fc1_fat
I1017 12:36:37.687916 19808 net.cpp:91] Creating Layer fc1_fat
I1017 12:36:37.687922 19808 net.cpp:425] fc1_fat <- pool3_rest_pool3_rest_0_split_3
I1017 12:36:37.687929 19808 net.cpp:399] fc1_fat -> fc1_fat
I1017 12:36:37.708528 19808 net.cpp:141] Setting up fc1_fat
I1017 12:36:37.708552 19808 net.cpp:148] Top shape: 100 512 (51200)
I1017 12:36:37.708557 19808 net.cpp:156] Memory required for data: 3835828000
I1017 12:36:37.708577 19808 layer_factory.hpp:77] Creating layer relu1_fat
I1017 12:36:37.708606 19808 net.cpp:91] Creating Layer relu1_fat
I1017 12:36:37.708613 19808 net.cpp:425] relu1_fat <- fc1_fat
I1017 12:36:37.708622 19808 net.cpp:386] relu1_fat -> fc1_fat (in-place)
I1017 12:36:37.708972 19808 net.cpp:141] Setting up relu1_fat
I1017 12:36:37.708987 19808 net.cpp:148] Top shape: 100 512 (51200)
I1017 12:36:37.709002 19808 net.cpp:156] Memory required for data: 3836032800
I1017 12:36:37.709007 19808 layer_factory.hpp:77] Creating layer drop1_fat
I1017 12:36:37.709025 19808 net.cpp:91] Creating Layer drop1_fat
I1017 12:36:37.709033 19808 net.cpp:425] drop1_fat <- fc1_fat
I1017 12:36:37.709038 19808 net.cpp:386] drop1_fat -> fc1_fat (in-place)
I1017 12:36:37.709084 19808 net.cpp:141] Setting up drop1_fat
I1017 12:36:37.709094 19808 net.cpp:148] Top shape: 100 512 (51200)
I1017 12:36:37.709097 19808 net.cpp:156] Memory required for data: 3836237600
I1017 12:36:37.709102 19808 layer_factory.hpp:77] Creating layer fc2_fat
I1017 12:36:37.709112 19808 net.cpp:91] Creating Layer fc2_fat
I1017 12:36:37.709117 19808 net.cpp:425] fc2_fat <- fc1_fat
I1017 12:36:37.709126 19808 net.cpp:399] fc2_fat -> fc2_fat
I1017 12:36:37.711663 19808 net.cpp:141] Setting up fc2_fat
I1017 12:36:37.711680 19808 net.cpp:148] Top shape: 100 512 (51200)
I1017 12:36:37.711685 19808 net.cpp:156] Memory required for data: 3836442400
I1017 12:36:37.711704 19808 layer_factory.hpp:77] Creating layer relu2_fat
I1017 12:36:37.711712 19808 net.cpp:91] Creating Layer relu2_fat
I1017 12:36:37.711717 19808 net.cpp:425] relu2_fat <- fc2_fat
I1017 12:36:37.711724 19808 net.cpp:386] relu2_fat -> fc2_fat (in-place)
I1017 12:36:37.712051 19808 net.cpp:141] Setting up relu2_fat
I1017 12:36:37.712074 19808 net.cpp:148] Top shape: 100 512 (51200)
I1017 12:36:37.712080 19808 net.cpp:156] Memory required for data: 3836647200
I1017 12:36:37.712085 19808 layer_factory.hpp:77] Creating layer drop2_fat
I1017 12:36:37.712092 19808 net.cpp:91] Creating Layer drop2_fat
I1017 12:36:37.712108 19808 net.cpp:425] drop2_fat <- fc2_fat
I1017 12:36:37.712115 19808 net.cpp:386] drop2_fat -> fc2_fat (in-place)
I1017 12:36:37.712160 19808 net.cpp:141] Setting up drop2_fat
I1017 12:36:37.712174 19808 net.cpp:148] Top shape: 100 512 (51200)
I1017 12:36:37.712178 19808 net.cpp:156] Memory required for data: 3836852000
I1017 12:36:37.712184 19808 layer_factory.hpp:77] Creating layer fc2_fat_drop2_fat_0_split
I1017 12:36:37.712193 19808 net.cpp:91] Creating Layer fc2_fat_drop2_fat_0_split
I1017 12:36:37.712198 19808 net.cpp:425] fc2_fat_drop2_fat_0_split <- fc2_fat
I1017 12:36:37.712203 19808 net.cpp:399] fc2_fat_drop2_fat_0_split -> fc2_fat_drop2_fat_0_split_0
I1017 12:36:37.712211 19808 net.cpp:399] fc2_fat_drop2_fat_0_split -> fc2_fat_drop2_fat_0_split_1
I1017 12:36:37.712252 19808 net.cpp:141] Setting up fc2_fat_drop2_fat_0_split
I1017 12:36:37.712260 19808 net.cpp:148] Top shape: 100 512 (51200)
I1017 12:36:37.712263 19808 net.cpp:148] Top shape: 100 512 (51200)
I1017 12:36:37.712267 19808 net.cpp:156] Memory required for data: 3837261600
I1017 12:36:37.712271 19808 layer_factory.hpp:77] Creating layer fc3_Male
I1017 12:36:37.712280 19808 net.cpp:91] Creating Layer fc3_Male
I1017 12:36:37.712283 19808 net.cpp:425] fc3_Male <- fc2_gender
I1017 12:36:37.712291 19808 net.cpp:399] fc3_Male -> fc3_Male
I1017 12:36:37.712419 19808 net.cpp:141] Setting up fc3_Male
I1017 12:36:37.712429 19808 net.cpp:148] Top shape: 100 2 (200)
I1017 12:36:37.712432 19808 net.cpp:156] Memory required for data: 3837262400
I1017 12:36:37.712440 19808 layer_factory.hpp:77] Creating layer loss_Male
I1017 12:36:37.712457 19808 net.cpp:91] Creating Layer loss_Male
I1017 12:36:37.712462 19808 net.cpp:425] loss_Male <- fc3_Male
I1017 12:36:37.712468 19808 net.cpp:425] loss_Male <- label_Male
I1017 12:36:37.712474 19808 net.cpp:399] loss_Male -> loss_Male
I1017 12:36:37.712524 19808 net.cpp:141] Setting up loss_Male
I1017 12:36:37.712532 19808 net.cpp:148] Top shape: (1)
I1017 12:36:37.712538 19808 net.cpp:151]     with loss weight 1
I1017 12:36:37.712563 19808 net.cpp:156] Memory required for data: 3837262404
I1017 12:36:37.712579 19808 layer_factory.hpp:77] Creating layer fc3_Big_Nose
I1017 12:36:37.712594 19808 net.cpp:91] Creating Layer fc3_Big_Nose
I1017 12:36:37.712599 19808 net.cpp:425] fc3_Big_Nose <- fc2_nose_drop2_nose_0_split_0
I1017 12:36:37.712610 19808 net.cpp:399] fc3_Big_Nose -> fc3_Big_Nose
I1017 12:36:37.712721 19808 net.cpp:141] Setting up fc3_Big_Nose
I1017 12:36:37.712739 19808 net.cpp:148] Top shape: 100 2 (200)
I1017 12:36:37.712744 19808 net.cpp:156] Memory required for data: 3837263204
I1017 12:36:37.712751 19808 layer_factory.hpp:77] Creating layer loss_Big_Nose
I1017 12:36:37.712761 19808 net.cpp:91] Creating Layer loss_Big_Nose
I1017 12:36:37.712766 19808 net.cpp:425] loss_Big_Nose <- fc3_Big_Nose
I1017 12:36:37.712772 19808 net.cpp:425] loss_Big_Nose <- label_Big_Nose
I1017 12:36:37.712779 19808 net.cpp:399] loss_Big_Nose -> loss_Big_Nose
I1017 12:36:37.712821 19808 net.cpp:141] Setting up loss_Big_Nose
I1017 12:36:37.712834 19808 net.cpp:148] Top shape: (1)
I1017 12:36:37.712837 19808 net.cpp:151]     with loss weight 1
I1017 12:36:37.712844 19808 net.cpp:156] Memory required for data: 3837263208
I1017 12:36:37.712848 19808 layer_factory.hpp:77] Creating layer fc3_Pointy_Nose
I1017 12:36:37.712857 19808 net.cpp:91] Creating Layer fc3_Pointy_Nose
I1017 12:36:37.712860 19808 net.cpp:425] fc3_Pointy_Nose <- fc2_nose_drop2_nose_0_split_1
I1017 12:36:37.712868 19808 net.cpp:399] fc3_Pointy_Nose -> fc3_Pointy_Nose
I1017 12:36:37.712992 19808 net.cpp:141] Setting up fc3_Pointy_Nose
I1017 12:36:37.713001 19808 net.cpp:148] Top shape: 100 2 (200)
I1017 12:36:37.713006 19808 net.cpp:156] Memory required for data: 3837264008
I1017 12:36:37.713034 19808 layer_factory.hpp:77] Creating layer loss_Pointy_Nose
I1017 12:36:37.713043 19808 net.cpp:91] Creating Layer loss_Pointy_Nose
I1017 12:36:37.713049 19808 net.cpp:425] loss_Pointy_Nose <- fc3_Pointy_Nose
I1017 12:36:37.713054 19808 net.cpp:425] loss_Pointy_Nose <- label_Pointy_Nose
I1017 12:36:37.713060 19808 net.cpp:399] loss_Pointy_Nose -> loss_Pointy_Nose
I1017 12:36:37.713102 19808 net.cpp:141] Setting up loss_Pointy_Nose
I1017 12:36:37.713110 19808 net.cpp:148] Top shape: (1)
I1017 12:36:37.713114 19808 net.cpp:151]     with loss weight 1
I1017 12:36:37.713120 19808 net.cpp:156] Memory required for data: 3837264012
I1017 12:36:37.713124 19808 layer_factory.hpp:77] Creating layer fc3_Big_Lips
I1017 12:36:37.713140 19808 net.cpp:91] Creating Layer fc3_Big_Lips
I1017 12:36:37.713146 19808 net.cpp:425] fc3_Big_Lips <- fc2_mouth_drop2_mouth_0_split_0
I1017 12:36:37.713153 19808 net.cpp:399] fc3_Big_Lips -> fc3_Big_Lips
I1017 12:36:37.713269 19808 net.cpp:141] Setting up fc3_Big_Lips
I1017 12:36:37.713279 19808 net.cpp:148] Top shape: 100 2 (200)
I1017 12:36:37.713284 19808 net.cpp:156] Memory required for data: 3837264812
I1017 12:36:37.713290 19808 layer_factory.hpp:77] Creating layer loss_Big_Lips
I1017 12:36:37.713299 19808 net.cpp:91] Creating Layer loss_Big_Lips
I1017 12:36:37.713304 19808 net.cpp:425] loss_Big_Lips <- fc3_Big_Lips
I1017 12:36:37.713310 19808 net.cpp:425] loss_Big_Lips <- label_Big_Lips
I1017 12:36:37.713316 19808 net.cpp:399] loss_Big_Lips -> loss_Big_Lips
I1017 12:36:37.713361 19808 net.cpp:141] Setting up loss_Big_Lips
I1017 12:36:37.713369 19808 net.cpp:148] Top shape: (1)
I1017 12:36:37.713373 19808 net.cpp:151]     with loss weight 1
I1017 12:36:37.713379 19808 net.cpp:156] Memory required for data: 3837264816
I1017 12:36:37.713383 19808 layer_factory.hpp:77] Creating layer fc3_Smiling
I1017 12:36:37.713416 19808 net.cpp:91] Creating Layer fc3_Smiling
I1017 12:36:37.713423 19808 net.cpp:425] fc3_Smiling <- fc2_mouth_drop2_mouth_0_split_1
I1017 12:36:37.713430 19808 net.cpp:399] fc3_Smiling -> fc3_Smiling
I1017 12:36:37.713542 19808 net.cpp:141] Setting up fc3_Smiling
I1017 12:36:37.713553 19808 net.cpp:148] Top shape: 100 2 (200)
I1017 12:36:37.713557 19808 net.cpp:156] Memory required for data: 3837265616
I1017 12:36:37.713564 19808 layer_factory.hpp:77] Creating layer loss_Smiling
I1017 12:36:37.713582 19808 net.cpp:91] Creating Layer loss_Smiling
I1017 12:36:37.713587 19808 net.cpp:425] loss_Smiling <- fc3_Smiling
I1017 12:36:37.713593 19808 net.cpp:425] loss_Smiling <- label_Smiling
I1017 12:36:37.713600 19808 net.cpp:399] loss_Smiling -> loss_Smiling
I1017 12:36:37.713650 19808 net.cpp:141] Setting up loss_Smiling
I1017 12:36:37.713660 19808 net.cpp:148] Top shape: (1)
I1017 12:36:37.713665 19808 net.cpp:151]     with loss weight 1
I1017 12:36:37.713670 19808 net.cpp:156] Memory required for data: 3837265620
I1017 12:36:37.713675 19808 layer_factory.hpp:77] Creating layer fc3_Wearing_Lipstick
I1017 12:36:37.713685 19808 net.cpp:91] Creating Layer fc3_Wearing_Lipstick
I1017 12:36:37.713690 19808 net.cpp:425] fc3_Wearing_Lipstick <- fc2_mouth_drop2_mouth_0_split_2
I1017 12:36:37.713696 19808 net.cpp:399] fc3_Wearing_Lipstick -> fc3_Wearing_Lipstick
I1017 12:36:37.713805 19808 net.cpp:141] Setting up fc3_Wearing_Lipstick
I1017 12:36:37.713816 19808 net.cpp:148] Top shape: 100 2 (200)
I1017 12:36:37.713820 19808 net.cpp:156] Memory required for data: 3837266420
I1017 12:36:37.713827 19808 layer_factory.hpp:77] Creating layer loss_Wearing_Lipstick
I1017 12:36:37.713835 19808 net.cpp:91] Creating Layer loss_Wearing_Lipstick
I1017 12:36:37.713840 19808 net.cpp:425] loss_Wearing_Lipstick <- fc3_Wearing_Lipstick
I1017 12:36:37.713845 19808 net.cpp:425] loss_Wearing_Lipstick <- label_Wearing_Lipstick
I1017 12:36:37.713853 19808 net.cpp:399] loss_Wearing_Lipstick -> loss_Wearing_Lipstick
I1017 12:36:37.713906 19808 net.cpp:141] Setting up loss_Wearing_Lipstick
I1017 12:36:37.713914 19808 net.cpp:148] Top shape: (1)
I1017 12:36:37.713918 19808 net.cpp:151]     with loss weight 1
I1017 12:36:37.713924 19808 net.cpp:156] Memory required for data: 3837266424
I1017 12:36:37.713928 19808 layer_factory.hpp:77] Creating layer fc3_Mouth_Slightly_Open
I1017 12:36:37.713937 19808 net.cpp:91] Creating Layer fc3_Mouth_Slightly_Open
I1017 12:36:37.713943 19808 net.cpp:425] fc3_Mouth_Slightly_Open <- fc2_mouth_drop2_mouth_0_split_3
I1017 12:36:37.713948 19808 net.cpp:399] fc3_Mouth_Slightly_Open -> fc3_Mouth_Slightly_Open
I1017 12:36:37.714066 19808 net.cpp:141] Setting up fc3_Mouth_Slightly_Open
I1017 12:36:37.714077 19808 net.cpp:148] Top shape: 100 2 (200)
I1017 12:36:37.714082 19808 net.cpp:156] Memory required for data: 3837267224
I1017 12:36:37.714087 19808 layer_factory.hpp:77] Creating layer loss_Mouth_Slightly_Open
I1017 12:36:37.714095 19808 net.cpp:91] Creating Layer loss_Mouth_Slightly_Open
I1017 12:36:37.714100 19808 net.cpp:425] loss_Mouth_Slightly_Open <- fc3_Mouth_Slightly_Open
I1017 12:36:37.714107 19808 net.cpp:425] loss_Mouth_Slightly_Open <- label_Mouth_Slightly_Open
I1017 12:36:37.714113 19808 net.cpp:399] loss_Mouth_Slightly_Open -> loss_Mouth_Slightly_Open
I1017 12:36:37.714164 19808 net.cpp:141] Setting up loss_Mouth_Slightly_Open
I1017 12:36:37.714174 19808 net.cpp:148] Top shape: (1)
I1017 12:36:37.714179 19808 net.cpp:151]     with loss weight 1
I1017 12:36:37.714186 19808 net.cpp:156] Memory required for data: 3837267228
I1017 12:36:37.714191 19808 layer_factory.hpp:77] Creating layer fc3_Arched_Eyebrows
I1017 12:36:37.714202 19808 net.cpp:91] Creating Layer fc3_Arched_Eyebrows
I1017 12:36:37.714208 19808 net.cpp:425] fc3_Arched_Eyebrows <- fc2_eyes_drop2_eyes_0_split_0
I1017 12:36:37.714216 19808 net.cpp:399] fc3_Arched_Eyebrows -> fc3_Arched_Eyebrows
I1017 12:36:37.714372 19808 net.cpp:141] Setting up fc3_Arched_Eyebrows
I1017 12:36:37.714390 19808 net.cpp:148] Top shape: 100 2 (200)
I1017 12:36:37.714393 19808 net.cpp:156] Memory required for data: 3837268028
I1017 12:36:37.714401 19808 layer_factory.hpp:77] Creating layer loss_Arched_Eyebrows
I1017 12:36:37.714419 19808 net.cpp:91] Creating Layer loss_Arched_Eyebrows
I1017 12:36:37.714424 19808 net.cpp:425] loss_Arched_Eyebrows <- fc3_Arched_Eyebrows
I1017 12:36:37.714431 19808 net.cpp:425] loss_Arched_Eyebrows <- label_Arched_Eyebrows
I1017 12:36:37.714438 19808 net.cpp:399] loss_Arched_Eyebrows -> loss_Arched_Eyebrows
I1017 12:36:37.714484 19808 net.cpp:141] Setting up loss_Arched_Eyebrows
I1017 12:36:37.714506 19808 net.cpp:148] Top shape: (1)
I1017 12:36:37.714511 19808 net.cpp:151]     with loss weight 1
I1017 12:36:37.714519 19808 net.cpp:156] Memory required for data: 3837268032
I1017 12:36:37.714530 19808 layer_factory.hpp:77] Creating layer fc3_Bags_Under_Eyes
I1017 12:36:37.714540 19808 net.cpp:91] Creating Layer fc3_Bags_Under_Eyes
I1017 12:36:37.714545 19808 net.cpp:425] fc3_Bags_Under_Eyes <- fc2_eyes_drop2_eyes_0_split_1
I1017 12:36:37.714552 19808 net.cpp:399] fc3_Bags_Under_Eyes -> fc3_Bags_Under_Eyes
I1017 12:36:37.714673 19808 net.cpp:141] Setting up fc3_Bags_Under_Eyes
I1017 12:36:37.714681 19808 net.cpp:148] Top shape: 100 2 (200)
I1017 12:36:37.714685 19808 net.cpp:156] Memory required for data: 3837268832
I1017 12:36:37.714692 19808 layer_factory.hpp:77] Creating layer loss_Bags_Under_Eyes
I1017 12:36:37.714702 19808 net.cpp:91] Creating Layer loss_Bags_Under_Eyes
I1017 12:36:37.714706 19808 net.cpp:425] loss_Bags_Under_Eyes <- fc3_Bags_Under_Eyes
I1017 12:36:37.714712 19808 net.cpp:425] loss_Bags_Under_Eyes <- label_Bags_Under_Eyes
I1017 12:36:37.714720 19808 net.cpp:399] loss_Bags_Under_Eyes -> loss_Bags_Under_Eyes
I1017 12:36:37.714762 19808 net.cpp:141] Setting up loss_Bags_Under_Eyes
I1017 12:36:37.714768 19808 net.cpp:148] Top shape: (1)
I1017 12:36:37.714772 19808 net.cpp:151]     with loss weight 1
I1017 12:36:37.714778 19808 net.cpp:156] Memory required for data: 3837268836
I1017 12:36:37.714789 19808 layer_factory.hpp:77] Creating layer fc3_Bushy_Eyebrows
I1017 12:36:37.714799 19808 net.cpp:91] Creating Layer fc3_Bushy_Eyebrows
I1017 12:36:37.714804 19808 net.cpp:425] fc3_Bushy_Eyebrows <- fc2_eyes_drop2_eyes_0_split_2
I1017 12:36:37.714810 19808 net.cpp:399] fc3_Bushy_Eyebrows -> fc3_Bushy_Eyebrows
I1017 12:36:37.714925 19808 net.cpp:141] Setting up fc3_Bushy_Eyebrows
I1017 12:36:37.714933 19808 net.cpp:148] Top shape: 100 2 (200)
I1017 12:36:37.714937 19808 net.cpp:156] Memory required for data: 3837269636
I1017 12:36:37.714946 19808 layer_factory.hpp:77] Creating layer loss_Bushy_Eyebrows
I1017 12:36:37.714954 19808 net.cpp:91] Creating Layer loss_Bushy_Eyebrows
I1017 12:36:37.714959 19808 net.cpp:425] loss_Bushy_Eyebrows <- fc3_Bushy_Eyebrows
I1017 12:36:37.714965 19808 net.cpp:425] loss_Bushy_Eyebrows <- label_Bushy_Eyebrows
I1017 12:36:37.714973 19808 net.cpp:399] loss_Bushy_Eyebrows -> loss_Bushy_Eyebrows
I1017 12:36:37.715016 19808 net.cpp:141] Setting up loss_Bushy_Eyebrows
I1017 12:36:37.715025 19808 net.cpp:148] Top shape: (1)
I1017 12:36:37.715036 19808 net.cpp:151]     with loss weight 1
I1017 12:36:37.715041 19808 net.cpp:156] Memory required for data: 3837269640
I1017 12:36:37.715045 19808 layer_factory.hpp:77] Creating layer fc3_Narrow_Eyes
I1017 12:36:37.715054 19808 net.cpp:91] Creating Layer fc3_Narrow_Eyes
I1017 12:36:37.715059 19808 net.cpp:425] fc3_Narrow_Eyes <- fc2_eyes_drop2_eyes_0_split_3
I1017 12:36:37.715065 19808 net.cpp:399] fc3_Narrow_Eyes -> fc3_Narrow_Eyes
I1017 12:36:37.715183 19808 net.cpp:141] Setting up fc3_Narrow_Eyes
I1017 12:36:37.715191 19808 net.cpp:148] Top shape: 100 2 (200)
I1017 12:36:37.715195 19808 net.cpp:156] Memory required for data: 3837270440
I1017 12:36:37.715203 19808 layer_factory.hpp:77] Creating layer loss_Narrow_Eyes
I1017 12:36:37.715210 19808 net.cpp:91] Creating Layer loss_Narrow_Eyes
I1017 12:36:37.715215 19808 net.cpp:425] loss_Narrow_Eyes <- fc3_Narrow_Eyes
I1017 12:36:37.715220 19808 net.cpp:425] loss_Narrow_Eyes <- label_Narrow_Eyes
I1017 12:36:37.715226 19808 net.cpp:399] loss_Narrow_Eyes -> loss_Narrow_Eyes
I1017 12:36:37.715270 19808 net.cpp:141] Setting up loss_Narrow_Eyes
I1017 12:36:37.715276 19808 net.cpp:148] Top shape: (1)
I1017 12:36:37.715279 19808 net.cpp:151]     with loss weight 1
I1017 12:36:37.715286 19808 net.cpp:156] Memory required for data: 3837270444
I1017 12:36:37.715289 19808 layer_factory.hpp:77] Creating layer fc3_Eyeglasses
I1017 12:36:37.715299 19808 net.cpp:91] Creating Layer fc3_Eyeglasses
I1017 12:36:37.715311 19808 net.cpp:425] fc3_Eyeglasses <- fc2_eyes_drop2_eyes_0_split_4
I1017 12:36:37.715328 19808 net.cpp:399] fc3_Eyeglasses -> fc3_Eyeglasses
I1017 12:36:37.715448 19808 net.cpp:141] Setting up fc3_Eyeglasses
I1017 12:36:37.715459 19808 net.cpp:148] Top shape: 100 2 (200)
I1017 12:36:37.715463 19808 net.cpp:156] Memory required for data: 3837271244
I1017 12:36:37.715471 19808 layer_factory.hpp:77] Creating layer loss_Eyeglasses
I1017 12:36:37.715481 19808 net.cpp:91] Creating Layer loss_Eyeglasses
I1017 12:36:37.715486 19808 net.cpp:425] loss_Eyeglasses <- fc3_Eyeglasses
I1017 12:36:37.715492 19808 net.cpp:425] loss_Eyeglasses <- label_Eyeglasses
I1017 12:36:37.715497 19808 net.cpp:399] loss_Eyeglasses -> loss_Eyeglasses
I1017 12:36:37.715546 19808 net.cpp:141] Setting up loss_Eyeglasses
I1017 12:36:37.715555 19808 net.cpp:148] Top shape: (1)
I1017 12:36:37.715559 19808 net.cpp:151]     with loss weight 1
I1017 12:36:37.715565 19808 net.cpp:156] Memory required for data: 3837271248
I1017 12:36:37.715569 19808 layer_factory.hpp:77] Creating layer fc3_Attractive
I1017 12:36:37.715579 19808 net.cpp:91] Creating Layer fc3_Attractive
I1017 12:36:37.715584 19808 net.cpp:425] fc3_Attractive <- fc2_face_drop2_face_0_split_0
I1017 12:36:37.715590 19808 net.cpp:399] fc3_Attractive -> fc3_Attractive
I1017 12:36:37.715708 19808 net.cpp:141] Setting up fc3_Attractive
I1017 12:36:37.715718 19808 net.cpp:148] Top shape: 100 2 (200)
I1017 12:36:37.715723 19808 net.cpp:156] Memory required for data: 3837272048
I1017 12:36:37.715729 19808 layer_factory.hpp:77] Creating layer loss_Attractive
I1017 12:36:37.715740 19808 net.cpp:91] Creating Layer loss_Attractive
I1017 12:36:37.715745 19808 net.cpp:425] loss_Attractive <- fc3_Attractive
I1017 12:36:37.715750 19808 net.cpp:425] loss_Attractive <- label_Attractive
I1017 12:36:37.715756 19808 net.cpp:399] loss_Attractive -> loss_Attractive
I1017 12:36:37.715801 19808 net.cpp:141] Setting up loss_Attractive
I1017 12:36:37.715806 19808 net.cpp:148] Top shape: (1)
I1017 12:36:37.715811 19808 net.cpp:151]     with loss weight 1
I1017 12:36:37.715816 19808 net.cpp:156] Memory required for data: 3837272052
I1017 12:36:37.715821 19808 layer_factory.hpp:77] Creating layer fc3_Blurry
I1017 12:36:37.715837 19808 net.cpp:91] Creating Layer fc3_Blurry
I1017 12:36:37.715842 19808 net.cpp:425] fc3_Blurry <- fc2_face_drop2_face_0_split_1
I1017 12:36:37.715848 19808 net.cpp:399] fc3_Blurry -> fc3_Blurry
I1017 12:36:37.715965 19808 net.cpp:141] Setting up fc3_Blurry
I1017 12:36:37.715975 19808 net.cpp:148] Top shape: 100 2 (200)
I1017 12:36:37.715978 19808 net.cpp:156] Memory required for data: 3837272852
I1017 12:36:37.715986 19808 layer_factory.hpp:77] Creating layer loss_Blurry
I1017 12:36:37.715994 19808 net.cpp:91] Creating Layer loss_Blurry
I1017 12:36:37.715999 19808 net.cpp:425] loss_Blurry <- fc3_Blurry
I1017 12:36:37.716004 19808 net.cpp:425] loss_Blurry <- label_Blurry
I1017 12:36:37.716011 19808 net.cpp:399] loss_Blurry -> loss_Blurry
I1017 12:36:37.716060 19808 net.cpp:141] Setting up loss_Blurry
I1017 12:36:37.716068 19808 net.cpp:148] Top shape: (1)
I1017 12:36:37.716073 19808 net.cpp:151]     with loss weight 1
I1017 12:36:37.716078 19808 net.cpp:156] Memory required for data: 3837272856
I1017 12:36:37.716083 19808 layer_factory.hpp:77] Creating layer fc3_Oval_Face
I1017 12:36:37.716094 19808 net.cpp:91] Creating Layer fc3_Oval_Face
I1017 12:36:37.716099 19808 net.cpp:425] fc3_Oval_Face <- fc2_face_drop2_face_0_split_2
I1017 12:36:37.716104 19808 net.cpp:399] fc3_Oval_Face -> fc3_Oval_Face
I1017 12:36:37.716223 19808 net.cpp:141] Setting up fc3_Oval_Face
I1017 12:36:37.716233 19808 net.cpp:148] Top shape: 100 2 (200)
I1017 12:36:37.716236 19808 net.cpp:156] Memory required for data: 3837273656
I1017 12:36:37.716243 19808 layer_factory.hpp:77] Creating layer loss_Oval_Face
I1017 12:36:37.716251 19808 net.cpp:91] Creating Layer loss_Oval_Face
I1017 12:36:37.716255 19808 net.cpp:425] loss_Oval_Face <- fc3_Oval_Face
I1017 12:36:37.716261 19808 net.cpp:425] loss_Oval_Face <- label_Oval_Face
I1017 12:36:37.716267 19808 net.cpp:399] loss_Oval_Face -> loss_Oval_Face
I1017 12:36:37.716327 19808 net.cpp:141] Setting up loss_Oval_Face
I1017 12:36:37.716337 19808 net.cpp:148] Top shape: (1)
I1017 12:36:37.716341 19808 net.cpp:151]     with loss weight 1
I1017 12:36:37.716347 19808 net.cpp:156] Memory required for data: 3837273660
I1017 12:36:37.716351 19808 layer_factory.hpp:77] Creating layer fc3_Pale_Skin
I1017 12:36:37.716361 19808 net.cpp:91] Creating Layer fc3_Pale_Skin
I1017 12:36:37.716365 19808 net.cpp:425] fc3_Pale_Skin <- fc2_face_drop2_face_0_split_3
I1017 12:36:37.716372 19808 net.cpp:399] fc3_Pale_Skin -> fc3_Pale_Skin
I1017 12:36:37.716488 19808 net.cpp:141] Setting up fc3_Pale_Skin
I1017 12:36:37.716498 19808 net.cpp:148] Top shape: 100 2 (200)
I1017 12:36:37.716502 19808 net.cpp:156] Memory required for data: 3837274460
I1017 12:36:37.716511 19808 layer_factory.hpp:77] Creating layer loss_Pale_Skin
I1017 12:36:37.716519 19808 net.cpp:91] Creating Layer loss_Pale_Skin
I1017 12:36:37.716524 19808 net.cpp:425] loss_Pale_Skin <- fc3_Pale_Skin
I1017 12:36:37.716529 19808 net.cpp:425] loss_Pale_Skin <- label_Pale_Skin
I1017 12:36:37.716536 19808 net.cpp:399] loss_Pale_Skin -> loss_Pale_Skin
I1017 12:36:37.716581 19808 net.cpp:141] Setting up loss_Pale_Skin
I1017 12:36:37.716589 19808 net.cpp:148] Top shape: (1)
I1017 12:36:37.716593 19808 net.cpp:151]     with loss weight 1
I1017 12:36:37.716599 19808 net.cpp:156] Memory required for data: 3837274464
I1017 12:36:37.716603 19808 layer_factory.hpp:77] Creating layer fc3_Young
I1017 12:36:37.716619 19808 net.cpp:91] Creating Layer fc3_Young
I1017 12:36:37.716624 19808 net.cpp:425] fc3_Young <- fc2_face_drop2_face_0_split_4
I1017 12:36:37.716631 19808 net.cpp:399] fc3_Young -> fc3_Young
I1017 12:36:37.716763 19808 net.cpp:141] Setting up fc3_Young
I1017 12:36:37.716773 19808 net.cpp:148] Top shape: 100 2 (200)
I1017 12:36:37.716776 19808 net.cpp:156] Memory required for data: 3837275264
I1017 12:36:37.716784 19808 layer_factory.hpp:77] Creating layer loss_Young
I1017 12:36:37.716791 19808 net.cpp:91] Creating Layer loss_Young
I1017 12:36:37.716802 19808 net.cpp:425] loss_Young <- fc3_Young
I1017 12:36:37.716809 19808 net.cpp:425] loss_Young <- label_Young
I1017 12:36:37.716814 19808 net.cpp:399] loss_Young -> loss_Young
I1017 12:36:37.716861 19808 net.cpp:141] Setting up loss_Young
I1017 12:36:37.716869 19808 net.cpp:148] Top shape: (1)
I1017 12:36:37.716873 19808 net.cpp:151]     with loss weight 1
I1017 12:36:37.716879 19808 net.cpp:156] Memory required for data: 3837275268
I1017 12:36:37.716883 19808 layer_factory.hpp:77] Creating layer fc3_Heavy_Makeup
I1017 12:36:37.716892 19808 net.cpp:91] Creating Layer fc3_Heavy_Makeup
I1017 12:36:37.716904 19808 net.cpp:425] fc3_Heavy_Makeup <- fc2_face_drop2_face_0_split_5
I1017 12:36:37.716912 19808 net.cpp:399] fc3_Heavy_Makeup -> fc3_Heavy_Makeup
I1017 12:36:37.717032 19808 net.cpp:141] Setting up fc3_Heavy_Makeup
I1017 12:36:37.717042 19808 net.cpp:148] Top shape: 100 2 (200)
I1017 12:36:37.717046 19808 net.cpp:156] Memory required for data: 3837276068
I1017 12:36:37.717054 19808 layer_factory.hpp:77] Creating layer loss_Heavy_Makeup
I1017 12:36:37.717064 19808 net.cpp:91] Creating Layer loss_Heavy_Makeup
I1017 12:36:37.717069 19808 net.cpp:425] loss_Heavy_Makeup <- fc3_Heavy_Makeup
I1017 12:36:37.717074 19808 net.cpp:425] loss_Heavy_Makeup <- label_Heavy_Makeup
I1017 12:36:37.717080 19808 net.cpp:399] loss_Heavy_Makeup -> loss_Heavy_Makeup
I1017 12:36:37.717133 19808 net.cpp:141] Setting up loss_Heavy_Makeup
I1017 12:36:37.717141 19808 net.cpp:148] Top shape: (1)
I1017 12:36:37.717145 19808 net.cpp:151]     with loss weight 1
I1017 12:36:37.717151 19808 net.cpp:156] Memory required for data: 3837276072
I1017 12:36:37.717155 19808 layer_factory.hpp:77] Creating layer fc3_Black_Hair
I1017 12:36:37.717169 19808 net.cpp:91] Creating Layer fc3_Black_Hair
I1017 12:36:37.717175 19808 net.cpp:425] fc3_Black_Hair <- fc2_aroundhead_drop2_aroundhead_0_split_0
I1017 12:36:37.717182 19808 net.cpp:399] fc3_Black_Hair -> fc3_Black_Hair
I1017 12:36:37.717304 19808 net.cpp:141] Setting up fc3_Black_Hair
I1017 12:36:37.717324 19808 net.cpp:148] Top shape: 100 2 (200)
I1017 12:36:37.717329 19808 net.cpp:156] Memory required for data: 3837276872
I1017 12:36:37.717335 19808 layer_factory.hpp:77] Creating layer loss_Black_Hair
I1017 12:36:37.717344 19808 net.cpp:91] Creating Layer loss_Black_Hair
I1017 12:36:37.717350 19808 net.cpp:425] loss_Black_Hair <- fc3_Black_Hair
I1017 12:36:37.717355 19808 net.cpp:425] loss_Black_Hair <- label_Black_Hair
I1017 12:36:37.717361 19808 net.cpp:399] loss_Black_Hair -> loss_Black_Hair
I1017 12:36:37.717407 19808 net.cpp:141] Setting up loss_Black_Hair
I1017 12:36:37.717417 19808 net.cpp:148] Top shape: (1)
I1017 12:36:37.717420 19808 net.cpp:151]     with loss weight 1
I1017 12:36:37.717427 19808 net.cpp:156] Memory required for data: 3837276876
I1017 12:36:37.717439 19808 layer_factory.hpp:77] Creating layer fc3_Blond_Hair
I1017 12:36:37.717447 19808 net.cpp:91] Creating Layer fc3_Blond_Hair
I1017 12:36:37.717452 19808 net.cpp:425] fc3_Blond_Hair <- fc2_aroundhead_drop2_aroundhead_0_split_1
I1017 12:36:37.717460 19808 net.cpp:399] fc3_Blond_Hair -> fc3_Blond_Hair
I1017 12:36:37.717587 19808 net.cpp:141] Setting up fc3_Blond_Hair
I1017 12:36:37.717598 19808 net.cpp:148] Top shape: 100 2 (200)
I1017 12:36:37.717602 19808 net.cpp:156] Memory required for data: 3837277676
I1017 12:36:37.717610 19808 layer_factory.hpp:77] Creating layer loss_Blond_Hair
I1017 12:36:37.717619 19808 net.cpp:91] Creating Layer loss_Blond_Hair
I1017 12:36:37.717624 19808 net.cpp:425] loss_Blond_Hair <- fc3_Blond_Hair
I1017 12:36:37.717630 19808 net.cpp:425] loss_Blond_Hair <- label_Blond_Hair
I1017 12:36:37.717636 19808 net.cpp:399] loss_Blond_Hair -> loss_Blond_Hair
I1017 12:36:37.717689 19808 net.cpp:141] Setting up loss_Blond_Hair
I1017 12:36:37.717697 19808 net.cpp:148] Top shape: (1)
I1017 12:36:37.717701 19808 net.cpp:151]     with loss weight 1
I1017 12:36:37.717707 19808 net.cpp:156] Memory required for data: 3837277680
I1017 12:36:37.717711 19808 layer_factory.hpp:77] Creating layer fc3_Brown_Hair
I1017 12:36:37.717718 19808 net.cpp:91] Creating Layer fc3_Brown_Hair
I1017 12:36:37.717725 19808 net.cpp:425] fc3_Brown_Hair <- fc2_aroundhead_drop2_aroundhead_0_split_2
I1017 12:36:37.717732 19808 net.cpp:399] fc3_Brown_Hair -> fc3_Brown_Hair
I1017 12:36:37.717854 19808 net.cpp:141] Setting up fc3_Brown_Hair
I1017 12:36:37.717864 19808 net.cpp:148] Top shape: 100 2 (200)
I1017 12:36:37.717867 19808 net.cpp:156] Memory required for data: 3837278480
I1017 12:36:37.717875 19808 layer_factory.hpp:77] Creating layer loss_Brown_Hair
I1017 12:36:37.717885 19808 net.cpp:91] Creating Layer loss_Brown_Hair
I1017 12:36:37.717895 19808 net.cpp:425] loss_Brown_Hair <- fc3_Brown_Hair
I1017 12:36:37.717900 19808 net.cpp:425] loss_Brown_Hair <- label_Brown_Hair
I1017 12:36:37.717906 19808 net.cpp:399] loss_Brown_Hair -> loss_Brown_Hair
I1017 12:36:37.717949 19808 net.cpp:141] Setting up loss_Brown_Hair
I1017 12:36:37.717958 19808 net.cpp:148] Top shape: (1)
I1017 12:36:37.717962 19808 net.cpp:151]     with loss weight 1
I1017 12:36:37.717968 19808 net.cpp:156] Memory required for data: 3837278484
I1017 12:36:37.717972 19808 layer_factory.hpp:77] Creating layer fc3_Gray_Hair
I1017 12:36:37.717979 19808 net.cpp:91] Creating Layer fc3_Gray_Hair
I1017 12:36:37.717984 19808 net.cpp:425] fc3_Gray_Hair <- fc2_aroundhead_drop2_aroundhead_0_split_3
I1017 12:36:37.717993 19808 net.cpp:399] fc3_Gray_Hair -> fc3_Gray_Hair
I1017 12:36:37.718124 19808 net.cpp:141] Setting up fc3_Gray_Hair
I1017 12:36:37.718133 19808 net.cpp:148] Top shape: 100 2 (200)
I1017 12:36:37.718137 19808 net.cpp:156] Memory required for data: 3837279284
I1017 12:36:37.718145 19808 layer_factory.hpp:77] Creating layer loss_Gray_Hair
I1017 12:36:37.718158 19808 net.cpp:91] Creating Layer loss_Gray_Hair
I1017 12:36:37.718163 19808 net.cpp:425] loss_Gray_Hair <- fc3_Gray_Hair
I1017 12:36:37.718168 19808 net.cpp:425] loss_Gray_Hair <- label_Gray_Hair
I1017 12:36:37.718173 19808 net.cpp:399] loss_Gray_Hair -> loss_Gray_Hair
I1017 12:36:37.718235 19808 net.cpp:141] Setting up loss_Gray_Hair
I1017 12:36:37.718245 19808 net.cpp:148] Top shape: (1)
I1017 12:36:37.718250 19808 net.cpp:151]     with loss weight 1
I1017 12:36:37.718255 19808 net.cpp:156] Memory required for data: 3837279288
I1017 12:36:37.718261 19808 layer_factory.hpp:77] Creating layer fc3_Wearing_Earrings
I1017 12:36:37.718268 19808 net.cpp:91] Creating Layer fc3_Wearing_Earrings
I1017 12:36:37.718291 19808 net.cpp:425] fc3_Wearing_Earrings <- fc2_aroundhead_drop2_aroundhead_0_split_4
I1017 12:36:37.718303 19808 net.cpp:399] fc3_Wearing_Earrings -> fc3_Wearing_Earrings
I1017 12:36:37.718425 19808 net.cpp:141] Setting up fc3_Wearing_Earrings
I1017 12:36:37.718433 19808 net.cpp:148] Top shape: 100 2 (200)
I1017 12:36:37.718437 19808 net.cpp:156] Memory required for data: 3837280088
I1017 12:36:37.718444 19808 layer_factory.hpp:77] Creating layer loss_Wearing_Earrings
I1017 12:36:37.718454 19808 net.cpp:91] Creating Layer loss_Wearing_Earrings
I1017 12:36:37.718459 19808 net.cpp:425] loss_Wearing_Earrings <- fc3_Wearing_Earrings
I1017 12:36:37.718466 19808 net.cpp:425] loss_Wearing_Earrings <- label_Wearing_Earrings
I1017 12:36:37.718472 19808 net.cpp:399] loss_Wearing_Earrings -> loss_Wearing_Earrings
I1017 12:36:37.718519 19808 net.cpp:141] Setting up loss_Wearing_Earrings
I1017 12:36:37.718528 19808 net.cpp:148] Top shape: (1)
I1017 12:36:37.718533 19808 net.cpp:151]     with loss weight 1
I1017 12:36:37.718538 19808 net.cpp:156] Memory required for data: 3837280092
I1017 12:36:37.718542 19808 layer_factory.hpp:77] Creating layer fc3_Wearing_Necklace
I1017 12:36:37.718549 19808 net.cpp:91] Creating Layer fc3_Wearing_Necklace
I1017 12:36:37.718554 19808 net.cpp:425] fc3_Wearing_Necklace <- fc2_aroundhead_drop2_aroundhead_0_split_5
I1017 12:36:37.718561 19808 net.cpp:399] fc3_Wearing_Necklace -> fc3_Wearing_Necklace
I1017 12:36:37.718678 19808 net.cpp:141] Setting up fc3_Wearing_Necklace
I1017 12:36:37.718688 19808 net.cpp:148] Top shape: 100 2 (200)
I1017 12:36:37.718693 19808 net.cpp:156] Memory required for data: 3837280892
I1017 12:36:37.718699 19808 layer_factory.hpp:77] Creating layer loss_Wearing_Necklace
I1017 12:36:37.718711 19808 net.cpp:91] Creating Layer loss_Wearing_Necklace
I1017 12:36:37.718716 19808 net.cpp:425] loss_Wearing_Necklace <- fc3_Wearing_Necklace
I1017 12:36:37.718721 19808 net.cpp:425] loss_Wearing_Necklace <- label_Wearing_Necklace
I1017 12:36:37.718727 19808 net.cpp:399] loss_Wearing_Necklace -> loss_Wearing_Necklace
I1017 12:36:37.718775 19808 net.cpp:141] Setting up loss_Wearing_Necklace
I1017 12:36:37.718785 19808 net.cpp:148] Top shape: (1)
I1017 12:36:37.718788 19808 net.cpp:151]     with loss weight 1
I1017 12:36:37.718793 19808 net.cpp:156] Memory required for data: 3837280896
I1017 12:36:37.718798 19808 layer_factory.hpp:77] Creating layer fc3_Wearing_Necktie
I1017 12:36:37.718804 19808 net.cpp:91] Creating Layer fc3_Wearing_Necktie
I1017 12:36:37.718809 19808 net.cpp:425] fc3_Wearing_Necktie <- fc2_aroundhead_drop2_aroundhead_0_split_6
I1017 12:36:37.718817 19808 net.cpp:399] fc3_Wearing_Necktie -> fc3_Wearing_Necktie
I1017 12:36:37.718925 19808 net.cpp:141] Setting up fc3_Wearing_Necktie
I1017 12:36:37.718933 19808 net.cpp:148] Top shape: 100 2 (200)
I1017 12:36:37.718948 19808 net.cpp:156] Memory required for data: 3837281696
I1017 12:36:37.718955 19808 layer_factory.hpp:77] Creating layer loss_Wearing_Necktie
I1017 12:36:37.718966 19808 net.cpp:91] Creating Layer loss_Wearing_Necktie
I1017 12:36:37.718971 19808 net.cpp:425] loss_Wearing_Necktie <- fc3_Wearing_Necktie
I1017 12:36:37.718976 19808 net.cpp:425] loss_Wearing_Necktie <- label_Wearing_Necktie
I1017 12:36:37.718982 19808 net.cpp:399] loss_Wearing_Necktie -> loss_Wearing_Necktie
I1017 12:36:37.719032 19808 net.cpp:141] Setting up loss_Wearing_Necktie
I1017 12:36:37.719040 19808 net.cpp:148] Top shape: (1)
I1017 12:36:37.719044 19808 net.cpp:151]     with loss weight 1
I1017 12:36:37.719050 19808 net.cpp:156] Memory required for data: 3837281700
I1017 12:36:37.719054 19808 layer_factory.hpp:77] Creating layer fc3_Bald
I1017 12:36:37.719074 19808 net.cpp:91] Creating Layer fc3_Bald
I1017 12:36:37.719079 19808 net.cpp:425] fc3_Bald <- fc2_aroundhead_drop2_aroundhead_0_split_7
I1017 12:36:37.719087 19808 net.cpp:399] fc3_Bald -> fc3_Bald
I1017 12:36:37.719208 19808 net.cpp:141] Setting up fc3_Bald
I1017 12:36:37.719218 19808 net.cpp:148] Top shape: 100 2 (200)
I1017 12:36:37.719221 19808 net.cpp:156] Memory required for data: 3837282500
I1017 12:36:37.719229 19808 layer_factory.hpp:77] Creating layer loss_Bald
I1017 12:36:37.719238 19808 net.cpp:91] Creating Layer loss_Bald
I1017 12:36:37.719244 19808 net.cpp:425] loss_Bald <- fc3_Bald
I1017 12:36:37.719249 19808 net.cpp:425] loss_Bald <- label_Bald
I1017 12:36:37.719255 19808 net.cpp:399] loss_Bald -> loss_Bald
I1017 12:36:37.719300 19808 net.cpp:141] Setting up loss_Bald
I1017 12:36:37.719310 19808 net.cpp:148] Top shape: (1)
I1017 12:36:37.719313 19808 net.cpp:151]     with loss weight 1
I1017 12:36:37.719319 19808 net.cpp:156] Memory required for data: 3837282504
I1017 12:36:37.719323 19808 layer_factory.hpp:77] Creating layer fc3_Receding_Hairline
I1017 12:36:37.719329 19808 net.cpp:91] Creating Layer fc3_Receding_Hairline
I1017 12:36:37.719334 19808 net.cpp:425] fc3_Receding_Hairline <- fc2_aroundhead_drop2_aroundhead_0_split_8
I1017 12:36:37.719346 19808 net.cpp:399] fc3_Receding_Hairline -> fc3_Receding_Hairline
I1017 12:36:37.719461 19808 net.cpp:141] Setting up fc3_Receding_Hairline
I1017 12:36:37.719471 19808 net.cpp:148] Top shape: 100 2 (200)
I1017 12:36:37.719475 19808 net.cpp:156] Memory required for data: 3837283304
I1017 12:36:37.719481 19808 layer_factory.hpp:77] Creating layer loss_Receding_Hairline
I1017 12:36:37.719491 19808 net.cpp:91] Creating Layer loss_Receding_Hairline
I1017 12:36:37.719496 19808 net.cpp:425] loss_Receding_Hairline <- fc3_Receding_Hairline
I1017 12:36:37.719501 19808 net.cpp:425] loss_Receding_Hairline <- label_Receding_Hairline
I1017 12:36:37.719509 19808 net.cpp:399] loss_Receding_Hairline -> loss_Receding_Hairline
I1017 12:36:37.719558 19808 net.cpp:141] Setting up loss_Receding_Hairline
I1017 12:36:37.719566 19808 net.cpp:148] Top shape: (1)
I1017 12:36:37.719570 19808 net.cpp:151]     with loss weight 1
I1017 12:36:37.719576 19808 net.cpp:156] Memory required for data: 3837283308
I1017 12:36:37.719580 19808 layer_factory.hpp:77] Creating layer fc3_Bangs
I1017 12:36:37.719586 19808 net.cpp:91] Creating Layer fc3_Bangs
I1017 12:36:37.719591 19808 net.cpp:425] fc3_Bangs <- fc2_aroundhead_drop2_aroundhead_0_split_9
I1017 12:36:37.719599 19808 net.cpp:399] fc3_Bangs -> fc3_Bangs
I1017 12:36:37.719732 19808 net.cpp:141] Setting up fc3_Bangs
I1017 12:36:37.719743 19808 net.cpp:148] Top shape: 100 2 (200)
I1017 12:36:37.719746 19808 net.cpp:156] Memory required for data: 3837284108
I1017 12:36:37.719754 19808 layer_factory.hpp:77] Creating layer loss_Bangs
I1017 12:36:37.719769 19808 net.cpp:91] Creating Layer loss_Bangs
I1017 12:36:37.719774 19808 net.cpp:425] loss_Bangs <- fc3_Bangs
I1017 12:36:37.719780 19808 net.cpp:425] loss_Bangs <- label_Bangs
I1017 12:36:37.719789 19808 net.cpp:399] loss_Bangs -> loss_Bangs
I1017 12:36:37.719831 19808 net.cpp:141] Setting up loss_Bangs
I1017 12:36:37.719841 19808 net.cpp:148] Top shape: (1)
I1017 12:36:37.719844 19808 net.cpp:151]     with loss weight 1
I1017 12:36:37.719851 19808 net.cpp:156] Memory required for data: 3837284112
I1017 12:36:37.719854 19808 layer_factory.hpp:77] Creating layer fc3_Wearing_Hat
I1017 12:36:37.719862 19808 net.cpp:91] Creating Layer fc3_Wearing_Hat
I1017 12:36:37.719867 19808 net.cpp:425] fc3_Wearing_Hat <- fc2_aroundhead_drop2_aroundhead_0_split_10
I1017 12:36:37.719876 19808 net.cpp:399] fc3_Wearing_Hat -> fc3_Wearing_Hat
I1017 12:36:37.720005 19808 net.cpp:141] Setting up fc3_Wearing_Hat
I1017 12:36:37.720015 19808 net.cpp:148] Top shape: 100 2 (200)
I1017 12:36:37.720018 19808 net.cpp:156] Memory required for data: 3837284912
I1017 12:36:37.720024 19808 layer_factory.hpp:77] Creating layer loss_Wearing_Hat
I1017 12:36:37.720033 19808 net.cpp:91] Creating Layer loss_Wearing_Hat
I1017 12:36:37.720054 19808 net.cpp:425] loss_Wearing_Hat <- fc3_Wearing_Hat
I1017 12:36:37.720062 19808 net.cpp:425] loss_Wearing_Hat <- label_Wearing_Hat
I1017 12:36:37.720069 19808 net.cpp:399] loss_Wearing_Hat -> loss_Wearing_Hat
I1017 12:36:37.720113 19808 net.cpp:141] Setting up loss_Wearing_Hat
I1017 12:36:37.720121 19808 net.cpp:148] Top shape: (1)
I1017 12:36:37.720125 19808 net.cpp:151]     with loss weight 1
I1017 12:36:37.720131 19808 net.cpp:156] Memory required for data: 3837284916
I1017 12:36:37.720135 19808 layer_factory.hpp:77] Creating layer fc3_Straight_Hair
I1017 12:36:37.720142 19808 net.cpp:91] Creating Layer fc3_Straight_Hair
I1017 12:36:37.720147 19808 net.cpp:425] fc3_Straight_Hair <- fc2_aroundhead_drop2_aroundhead_0_split_11
I1017 12:36:37.720155 19808 net.cpp:399] fc3_Straight_Hair -> fc3_Straight_Hair
I1017 12:36:37.720274 19808 net.cpp:141] Setting up fc3_Straight_Hair
I1017 12:36:37.720283 19808 net.cpp:148] Top shape: 100 2 (200)
I1017 12:36:37.720288 19808 net.cpp:156] Memory required for data: 3837285716
I1017 12:36:37.720294 19808 layer_factory.hpp:77] Creating layer loss_Straight_Hair
I1017 12:36:37.720305 19808 net.cpp:91] Creating Layer loss_Straight_Hair
I1017 12:36:37.720309 19808 net.cpp:425] loss_Straight_Hair <- fc3_Straight_Hair
I1017 12:36:37.720315 19808 net.cpp:425] loss_Straight_Hair <- label_Straight_Hair
I1017 12:36:37.720324 19808 net.cpp:399] loss_Straight_Hair -> loss_Straight_Hair
I1017 12:36:37.720373 19808 net.cpp:141] Setting up loss_Straight_Hair
I1017 12:36:37.720382 19808 net.cpp:148] Top shape: (1)
I1017 12:36:37.720386 19808 net.cpp:151]     with loss weight 1
I1017 12:36:37.720392 19808 net.cpp:156] Memory required for data: 3837285720
I1017 12:36:37.720396 19808 layer_factory.hpp:77] Creating layer fc3_Wavy_Hair
I1017 12:36:37.720403 19808 net.cpp:91] Creating Layer fc3_Wavy_Hair
I1017 12:36:37.720407 19808 net.cpp:425] fc3_Wavy_Hair <- fc2_aroundhead_drop2_aroundhead_0_split_12
I1017 12:36:37.720414 19808 net.cpp:399] fc3_Wavy_Hair -> fc3_Wavy_Hair
I1017 12:36:37.720535 19808 net.cpp:141] Setting up fc3_Wavy_Hair
I1017 12:36:37.720546 19808 net.cpp:148] Top shape: 100 2 (200)
I1017 12:36:37.720549 19808 net.cpp:156] Memory required for data: 3837286520
I1017 12:36:37.720556 19808 layer_factory.hpp:77] Creating layer loss_Wavy_Hair
I1017 12:36:37.720564 19808 net.cpp:91] Creating Layer loss_Wavy_Hair
I1017 12:36:37.720569 19808 net.cpp:425] loss_Wavy_Hair <- fc3_Wavy_Hair
I1017 12:36:37.720574 19808 net.cpp:425] loss_Wavy_Hair <- label_Wavy_Hair
I1017 12:36:37.720582 19808 net.cpp:399] loss_Wavy_Hair -> loss_Wavy_Hair
I1017 12:36:37.720624 19808 net.cpp:141] Setting up loss_Wavy_Hair
I1017 12:36:37.720630 19808 net.cpp:148] Top shape: (1)
I1017 12:36:37.720634 19808 net.cpp:151]     with loss weight 1
I1017 12:36:37.720640 19808 net.cpp:156] Memory required for data: 3837286524
I1017 12:36:37.720644 19808 layer_factory.hpp:77] Creating layer fc3_5_o_Clock_Shadow
I1017 12:36:37.720659 19808 net.cpp:91] Creating Layer fc3_5_o_Clock_Shadow
I1017 12:36:37.720664 19808 net.cpp:425] fc3_5_o_Clock_Shadow <- fc2_facialhair_drop2_facialhair_0_split_0
I1017 12:36:37.720670 19808 net.cpp:399] fc3_5_o_Clock_Shadow -> fc3_5_o_Clock_Shadow
I1017 12:36:37.720788 19808 net.cpp:141] Setting up fc3_5_o_Clock_Shadow
I1017 12:36:37.720798 19808 net.cpp:148] Top shape: 100 2 (200)
I1017 12:36:37.720801 19808 net.cpp:156] Memory required for data: 3837287324
I1017 12:36:37.720808 19808 layer_factory.hpp:77] Creating layer loss_5_o_Clock_Shadow
I1017 12:36:37.720818 19808 net.cpp:91] Creating Layer loss_5_o_Clock_Shadow
I1017 12:36:37.720823 19808 net.cpp:425] loss_5_o_Clock_Shadow <- fc3_5_o_Clock_Shadow
I1017 12:36:37.720827 19808 net.cpp:425] loss_5_o_Clock_Shadow <- label_5_o_Clock_Shadow
I1017 12:36:37.720835 19808 net.cpp:399] loss_5_o_Clock_Shadow -> loss_5_o_Clock_Shadow
I1017 12:36:37.720875 19808 net.cpp:141] Setting up loss_5_o_Clock_Shadow
I1017 12:36:37.720890 19808 net.cpp:148] Top shape: (1)
I1017 12:36:37.720895 19808 net.cpp:151]     with loss weight 1
I1017 12:36:37.720909 19808 net.cpp:156] Memory required for data: 3837287328
I1017 12:36:37.720914 19808 layer_factory.hpp:77] Creating layer fc3_Mustache
I1017 12:36:37.720922 19808 net.cpp:91] Creating Layer fc3_Mustache
I1017 12:36:37.720927 19808 net.cpp:425] fc3_Mustache <- fc2_facialhair_drop2_facialhair_0_split_1
I1017 12:36:37.720933 19808 net.cpp:399] fc3_Mustache -> fc3_Mustache
I1017 12:36:37.721057 19808 net.cpp:141] Setting up fc3_Mustache
I1017 12:36:37.721066 19808 net.cpp:148] Top shape: 100 2 (200)
I1017 12:36:37.721071 19808 net.cpp:156] Memory required for data: 3837288128
I1017 12:36:37.721076 19808 layer_factory.hpp:77] Creating layer loss_Mustache
I1017 12:36:37.721088 19808 net.cpp:91] Creating Layer loss_Mustache
I1017 12:36:37.721093 19808 net.cpp:425] loss_Mustache <- fc3_Mustache
I1017 12:36:37.721099 19808 net.cpp:425] loss_Mustache <- label_Mustache
I1017 12:36:37.721108 19808 net.cpp:399] loss_Mustache -> loss_Mustache
I1017 12:36:37.721158 19808 net.cpp:141] Setting up loss_Mustache
I1017 12:36:37.721168 19808 net.cpp:148] Top shape: (1)
I1017 12:36:37.721171 19808 net.cpp:151]     with loss weight 1
I1017 12:36:37.721177 19808 net.cpp:156] Memory required for data: 3837288132
I1017 12:36:37.721182 19808 layer_factory.hpp:77] Creating layer fc3_No_Beard
I1017 12:36:37.721189 19808 net.cpp:91] Creating Layer fc3_No_Beard
I1017 12:36:37.721194 19808 net.cpp:425] fc3_No_Beard <- fc2_facialhair_drop2_facialhair_0_split_2
I1017 12:36:37.721200 19808 net.cpp:399] fc3_No_Beard -> fc3_No_Beard
I1017 12:36:37.721321 19808 net.cpp:141] Setting up fc3_No_Beard
I1017 12:36:37.721331 19808 net.cpp:148] Top shape: 100 2 (200)
I1017 12:36:37.721335 19808 net.cpp:156] Memory required for data: 3837288932
I1017 12:36:37.721341 19808 layer_factory.hpp:77] Creating layer loss_No_Beard
I1017 12:36:37.721355 19808 net.cpp:91] Creating Layer loss_No_Beard
I1017 12:36:37.721361 19808 net.cpp:425] loss_No_Beard <- fc3_No_Beard
I1017 12:36:37.721366 19808 net.cpp:425] loss_No_Beard <- label_No_Beard
I1017 12:36:37.721374 19808 net.cpp:399] loss_No_Beard -> loss_No_Beard
I1017 12:36:37.721415 19808 net.cpp:141] Setting up loss_No_Beard
I1017 12:36:37.721424 19808 net.cpp:148] Top shape: (1)
I1017 12:36:37.721428 19808 net.cpp:151]     with loss weight 1
I1017 12:36:37.721433 19808 net.cpp:156] Memory required for data: 3837288936
I1017 12:36:37.721437 19808 layer_factory.hpp:77] Creating layer fc3_Sideburns
I1017 12:36:37.721444 19808 net.cpp:91] Creating Layer fc3_Sideburns
I1017 12:36:37.721449 19808 net.cpp:425] fc3_Sideburns <- fc2_facialhair_drop2_facialhair_0_split_3
I1017 12:36:37.721456 19808 net.cpp:399] fc3_Sideburns -> fc3_Sideburns
I1017 12:36:37.721570 19808 net.cpp:141] Setting up fc3_Sideburns
I1017 12:36:37.721580 19808 net.cpp:148] Top shape: 100 2 (200)
I1017 12:36:37.721585 19808 net.cpp:156] Memory required for data: 3837289736
I1017 12:36:37.721591 19808 layer_factory.hpp:77] Creating layer loss_Sideburns
I1017 12:36:37.721601 19808 net.cpp:91] Creating Layer loss_Sideburns
I1017 12:36:37.721606 19808 net.cpp:425] loss_Sideburns <- fc3_Sideburns
I1017 12:36:37.721611 19808 net.cpp:425] loss_Sideburns <- label_Sideburns
I1017 12:36:37.721619 19808 net.cpp:399] loss_Sideburns -> loss_Sideburns
I1017 12:36:37.721660 19808 net.cpp:141] Setting up loss_Sideburns
I1017 12:36:37.721667 19808 net.cpp:148] Top shape: (1)
I1017 12:36:37.721670 19808 net.cpp:151]     with loss weight 1
I1017 12:36:37.721676 19808 net.cpp:156] Memory required for data: 3837289740
I1017 12:36:37.721680 19808 layer_factory.hpp:77] Creating layer fc3_Goatee
I1017 12:36:37.721688 19808 net.cpp:91] Creating Layer fc3_Goatee
I1017 12:36:37.721691 19808 net.cpp:425] fc3_Goatee <- fc2_facialhair_drop2_facialhair_0_split_4
I1017 12:36:37.721698 19808 net.cpp:399] fc3_Goatee -> fc3_Goatee
I1017 12:36:37.721815 19808 net.cpp:141] Setting up fc3_Goatee
I1017 12:36:37.721825 19808 net.cpp:148] Top shape: 100 2 (200)
I1017 12:36:37.721828 19808 net.cpp:156] Memory required for data: 3837290540
I1017 12:36:37.721835 19808 layer_factory.hpp:77] Creating layer loss_Goatee
I1017 12:36:37.721855 19808 net.cpp:91] Creating Layer loss_Goatee
I1017 12:36:37.721860 19808 net.cpp:425] loss_Goatee <- fc3_Goatee
I1017 12:36:37.721866 19808 net.cpp:425] loss_Goatee <- label_Goatee
I1017 12:36:37.721873 19808 net.cpp:399] loss_Goatee -> loss_Goatee
I1017 12:36:37.721925 19808 net.cpp:141] Setting up loss_Goatee
I1017 12:36:37.721935 19808 net.cpp:148] Top shape: (1)
I1017 12:36:37.721940 19808 net.cpp:151]     with loss weight 1
I1017 12:36:37.721946 19808 net.cpp:156] Memory required for data: 3837290544
I1017 12:36:37.721949 19808 layer_factory.hpp:77] Creating layer fc3_High_Cheekbones
I1017 12:36:37.721957 19808 net.cpp:91] Creating Layer fc3_High_Cheekbones
I1017 12:36:37.721963 19808 net.cpp:425] fc3_High_Cheekbones <- fc2_cheeks_drop2_cheeks_0_split_0
I1017 12:36:37.721969 19808 net.cpp:399] fc3_High_Cheekbones -> fc3_High_Cheekbones
I1017 12:36:37.722090 19808 net.cpp:141] Setting up fc3_High_Cheekbones
I1017 12:36:37.722100 19808 net.cpp:148] Top shape: 100 2 (200)
I1017 12:36:37.722103 19808 net.cpp:156] Memory required for data: 3837291344
I1017 12:36:37.722110 19808 layer_factory.hpp:77] Creating layer loss_High_Cheekbones
I1017 12:36:37.722120 19808 net.cpp:91] Creating Layer loss_High_Cheekbones
I1017 12:36:37.722123 19808 net.cpp:425] loss_High_Cheekbones <- fc3_High_Cheekbones
I1017 12:36:37.722129 19808 net.cpp:425] loss_High_Cheekbones <- label_High_Cheekbones
I1017 12:36:37.722136 19808 net.cpp:399] loss_High_Cheekbones -> loss_High_Cheekbones
I1017 12:36:37.722185 19808 net.cpp:141] Setting up loss_High_Cheekbones
I1017 12:36:37.722194 19808 net.cpp:148] Top shape: (1)
I1017 12:36:37.722198 19808 net.cpp:151]     with loss weight 1
I1017 12:36:37.722204 19808 net.cpp:156] Memory required for data: 3837291348
I1017 12:36:37.722208 19808 layer_factory.hpp:77] Creating layer fc3_Rosy_Cheeks
I1017 12:36:37.722215 19808 net.cpp:91] Creating Layer fc3_Rosy_Cheeks
I1017 12:36:37.722220 19808 net.cpp:425] fc3_Rosy_Cheeks <- fc2_cheeks_drop2_cheeks_0_split_1
I1017 12:36:37.722226 19808 net.cpp:399] fc3_Rosy_Cheeks -> fc3_Rosy_Cheeks
I1017 12:36:37.722357 19808 net.cpp:141] Setting up fc3_Rosy_Cheeks
I1017 12:36:37.722368 19808 net.cpp:148] Top shape: 100 2 (200)
I1017 12:36:37.722373 19808 net.cpp:156] Memory required for data: 3837292148
I1017 12:36:37.722379 19808 layer_factory.hpp:77] Creating layer loss_Rosy_Cheeks
I1017 12:36:37.722389 19808 net.cpp:91] Creating Layer loss_Rosy_Cheeks
I1017 12:36:37.722395 19808 net.cpp:425] loss_Rosy_Cheeks <- fc3_Rosy_Cheeks
I1017 12:36:37.722400 19808 net.cpp:425] loss_Rosy_Cheeks <- label_Rosy_Cheeks
I1017 12:36:37.722406 19808 net.cpp:399] loss_Rosy_Cheeks -> loss_Rosy_Cheeks
I1017 12:36:37.722452 19808 net.cpp:141] Setting up loss_Rosy_Cheeks
I1017 12:36:37.722467 19808 net.cpp:148] Top shape: (1)
I1017 12:36:37.722472 19808 net.cpp:151]     with loss weight 1
I1017 12:36:37.722478 19808 net.cpp:156] Memory required for data: 3837292152
I1017 12:36:37.722482 19808 layer_factory.hpp:77] Creating layer fc3_Chubby
I1017 12:36:37.722489 19808 net.cpp:91] Creating Layer fc3_Chubby
I1017 12:36:37.722501 19808 net.cpp:425] fc3_Chubby <- fc2_fat_drop2_fat_0_split_0
I1017 12:36:37.722506 19808 net.cpp:399] fc3_Chubby -> fc3_Chubby
I1017 12:36:37.722627 19808 net.cpp:141] Setting up fc3_Chubby
I1017 12:36:37.722637 19808 net.cpp:148] Top shape: 100 2 (200)
I1017 12:36:37.722641 19808 net.cpp:156] Memory required for data: 3837292952
I1017 12:36:37.722647 19808 layer_factory.hpp:77] Creating layer loss_Chubby
I1017 12:36:37.722656 19808 net.cpp:91] Creating Layer loss_Chubby
I1017 12:36:37.722661 19808 net.cpp:425] loss_Chubby <- fc3_Chubby
I1017 12:36:37.722666 19808 net.cpp:425] loss_Chubby <- label_Chubby
I1017 12:36:37.722672 19808 net.cpp:399] loss_Chubby -> loss_Chubby
I1017 12:36:37.722723 19808 net.cpp:141] Setting up loss_Chubby
I1017 12:36:37.722731 19808 net.cpp:148] Top shape: (1)
I1017 12:36:37.722735 19808 net.cpp:151]     with loss weight 1
I1017 12:36:37.722740 19808 net.cpp:156] Memory required for data: 3837292956
I1017 12:36:37.722755 19808 layer_factory.hpp:77] Creating layer fc3_Double_Chin
I1017 12:36:37.722764 19808 net.cpp:91] Creating Layer fc3_Double_Chin
I1017 12:36:37.722770 19808 net.cpp:425] fc3_Double_Chin <- fc2_fat_drop2_fat_0_split_1
I1017 12:36:37.722777 19808 net.cpp:399] fc3_Double_Chin -> fc3_Double_Chin
I1017 12:36:37.722901 19808 net.cpp:141] Setting up fc3_Double_Chin
I1017 12:36:37.722911 19808 net.cpp:148] Top shape: 100 2 (200)
I1017 12:36:37.722915 19808 net.cpp:156] Memory required for data: 3837293756
I1017 12:36:37.722921 19808 layer_factory.hpp:77] Creating layer loss_Double_Chin
I1017 12:36:37.722930 19808 net.cpp:91] Creating Layer loss_Double_Chin
I1017 12:36:37.722935 19808 net.cpp:425] loss_Double_Chin <- fc3_Double_Chin
I1017 12:36:37.722940 19808 net.cpp:425] loss_Double_Chin <- label_Double_Chin
I1017 12:36:37.722946 19808 net.cpp:399] loss_Double_Chin -> loss_Double_Chin
…
    slice_point: 24
    slice_point: 26
    slice_point: 28
    slice_point: 30
    slice_point: 32
    slice_point: 34
    slice_point: 36
    slice_point: 38
    slice_point: 40
    slice_point: 42
    slice_point: 44
    slice_point: 46
    slice_point: 48
    slice_point: 50
    slice_point: 52
    slice_point: 54
    slice_point: 56
    slice_point: 58
    slice_point: 60
    slice_point: 62
    slice_point: 64
    slice_point: 66
    slice_point: 68
    slice_point: 70
    slice_point: 72
    slice_point: 74
    slice_point: 76
    slice_point: 78
  }
}
layer {
  name: "conv1_bn"
  type: "BatchNorm"
  bottom: "conv1"
  top: "conv1"
  batch_norm_param {
    use_global_stats: false
  }
}
layer {
  name: "conv1_scale"
  type: "Scale"
  bottom: "conv1"
  top: "conv1"
  scale_param {
    bias_term: true
  }
}
layer {
  name: "prelu1"
  type: "PReLU"
  bottom: "conv1"
  top: "conv1"
}
layer {
  name: "pool1"
  type: "Pooling"
  bottom: "conv1"
  top: "pool1"
  pooling_param {
    pool: MAX
    kernel_size: 2
    stride: 2
  }
}
layer {
  name: "conv2a"
  type: "Convolution"
  bottom: "pool1"
  top: "conv2a"
  param {
    name: "conv2a_w"
    lr_mult: 1
    decay_mult: 1
  }
  param {
    name: "conv2a_b"
    lr_mult: 2
    decay_mult: 0
  }
  convolution_param {
    num_output: 64
    kernel_size: 1
    weight_filler {
      type: "xavier"
    }
    bias_filler {
      type: "constant"
      value: 0.2
    }
  }
}
layer {
  name: "conv2a_bn"
  type: "BatchNorm"
  bottom: "conv2a"
  top: "conv2a"
  batch_norm_param {
    use_global_stats: false
  }
}
layer {
  name: "conv2a_scale"
  type: "Scale"
  bottom: "conv2a"
  top: "conv2a"
  scale_param {
    bias_term: true
  }
}
layer {
  name: "prelu2a"
  type: "PReLU"
  bottom: "conv2a"
  top: "conv2a"
}
layer {
  name: "conv2"
  type: "Convolution"
  bottom: "conv2a"
  top: "conv2"
  param {
    name: "conv2_w"
    lr_mult: 1
    decay_mult: 1
  }
  param {
    name: "conv2_b"
    lr_mult: 2
    decay_mult: 0
  }
  convolution_param {
    num_output: 192
    pad: 1
    kernel_size: 3
    stride: 1
    weight_filler {
      type: "xavier"
    }
    bias_filler {
      type: "constant"
      value: 0.2
    }
  }
}
layer {
  name: "conv2_bn"
  type: "BatchNorm"
  bottom: "conv2"
  top: "conv2"
  batch_norm_param {
    use_global_stats: false
  }
}
layer {
  name: "conv2_scale"
  type: "Scale"
  bottom: "conv2"
  top: "conv2"
  scale_param {
    bias_term: true
  }
}
layer {
  name: "prelu2"
  type: "PReLU"
  bottom: "conv2"
  top: "conv2"
}
layer {
  name: "pool2"
  type: "Pooling"
  bottom: "conv2"
  top: "pool2"
  pooling_param {
    pool: MAX
    kernel_size: 2
    stride: 2
  }
}
layer {
  name: "conv3a"
  type: "Convolution"
  bottom: "pool2"
  top: "conv3a"
  param {
    name: "conv3a_w"
    lr_mult: 1
    decay_mult: 1
  }
  param {
    name: "conv3a_b"
    lr_mult: 2
    decay_mult: 0
  }
  convolution_param {
    num_output: 192
    kernel_size: 1
    weight_filler {
      type: "xavier"
    }
    bias_filler {
      type: "constant"
      value: 0.2
    }
  }
}
layer {
  name: "conv3a_bn"
  type: "BatchNorm"
  bottom: "conv3a"
  top: "conv3a"
  batch_norm_param {
    use_global_stats: false
  }
}
layer {
  name: "conv3a_scale"
  type: "Scale"
  bottom: "conv3a"
  top: "conv3a"
  scale_param {
    bias_term: true
  }
}
layer {
  name: "prelu3a"
  type: "PReLU"
  bottom: "conv3a"
  top: "conv3a"
}
layer {
  name: "conv3"
  type: "Convolution"
  bottom: "conv3a"
  top: "conv3"
  param {
    name: "conv3_w"
    lr_mult: 1
    decay_mult: 1
  }
  param {
    name: "conv3_b"
    lr_mult: 2
    decay_mult: 0
  }
  convolution_param {
    num_output: 384
    pad: 1
    kernel_size: 3
    stride: 1
    weight_filler {
      type: "xavier"
    }
    bias_filler {
      type: "constant"
      value: 0.2
    }
  }
}
layer {
  name: "conv3_bn"
  type: "BatchNorm"
  bottom: "conv3"
  top: "conv3"
  batch_norm_param {
    use_global_stats: false
  }
}
layer {
  name: "conv3_scale"
  type: "Scale"
  bottom: "conv3"
  top: "conv3"
  scale_param {
    bias_term: true
  }
}
layer {
  name: "prelu3"
  type: "PReLU"
  bottom: "conv3"
  top: "conv3"
…
I1017 12:36:38.330989 19808 net.cpp:91] Creating Layer relu1_fat
I1017 12:36:38.330996 19808 net.cpp:425] relu1_fat <- fc1_fat
I1017 12:36:38.331003 19808 net.cpp:386] relu1_fat -> fc1_fat (in-place)
I1017 12:36:38.331379 19808 net.cpp:141] Setting up relu1_fat
I1017 12:36:38.331393 19808 net.cpp:148] Top shape: 64 512 (32768)
I1017 12:36:38.331409 19808 net.cpp:156] Memory required for data: 2455060992
I1017 12:36:38.331413 19808 layer_factory.hpp:77] Creating layer drop1_fat
I1017 12:36:38.331421 19808 net.cpp:91] Creating Layer drop1_fat
I1017 12:36:38.331426 19808 net.cpp:425] drop1_fat <- fc1_fat
I1017 12:36:38.331434 19808 net.cpp:386] drop1_fat -> fc1_fat (in-place)
I1017 12:36:38.331470 19808 net.cpp:141] Setting up drop1_fat
I1017 12:36:38.331477 19808 net.cpp:148] Top shape: 64 512 (32768)
I1017 12:36:38.331481 19808 net.cpp:156] Memory required for data: 2455192064
I1017 12:36:38.331485 19808 layer_factory.hpp:77] Creating layer fc2_fat
I1017 12:36:38.331493 19808 net.cpp:91] Creating Layer fc2_fat
I1017 12:36:38.331497 19808 net.cpp:425] fc2_fat <- fc1_fat
I1017 12:36:38.331506 19808 net.cpp:399] fc2_fat -> fc2_fat
I1017 12:36:38.333974 19808 net.cpp:141] Setting up fc2_fat
I1017 12:36:38.334002 19808 net.cpp:148] Top shape: 64 512 (32768)
I1017 12:36:38.334007 19808 net.cpp:156] Memory required for data: 2455323136
I1017 12:36:38.334015 19808 layer_factory.hpp:77] Creating layer relu2_fat
I1017 12:36:38.334022 19808 net.cpp:91] Creating Layer relu2_fat
I1017 12:36:38.334028 19808 net.cpp:425] relu2_fat <- fc2_fat
I1017 12:36:38.334035 19808 net.cpp:386] relu2_fat -> fc2_fat (in-place)
I1017 12:36:38.334220 19808 net.cpp:141] Setting up relu2_fat
I1017 12:36:38.334231 19808 net.cpp:148] Top shape: 64 512 (32768)
I1017 12:36:38.334235 19808 net.cpp:156] Memory required for data: 2455454208
I1017 12:36:38.334239 19808 layer_factory.hpp:77] Creating layer drop2_fat
I1017 12:36:38.334246 19808 net.cpp:91] Creating Layer drop2_fat
I1017 12:36:38.334251 19808 net.cpp:425] drop2_fat <- fc2_fat
I1017 12:36:38.334259 19808 net.cpp:386] drop2_fat -> fc2_fat (in-place)
I1017 12:36:38.334309 19808 net.cpp:141] Setting up drop2_fat
I1017 12:36:38.334319 19808 net.cpp:148] Top shape: 64 512 (32768)
I1017 12:36:38.334324 19808 net.cpp:156] Memory required for data: 2455585280
I1017 12:36:38.334328 19808 layer_factory.hpp:77] Creating layer fc2_fat_drop2_fat_0_split
I1017 12:36:38.334336 19808 net.cpp:91] Creating Layer fc2_fat_drop2_fat_0_split
I1017 12:36:38.334342 19808 net.cpp:425] fc2_fat_drop2_fat_0_split <- fc2_fat
I1017 12:36:38.334347 19808 net.cpp:399] fc2_fat_drop2_fat_0_split -> fc2_fat_drop2_fat_0_split_0
I1017 12:36:38.334357 19808 net.cpp:399] fc2_fat_drop2_fat_0_split -> fc2_fat_drop2_fat_0_split_1
I1017 12:36:38.334410 19808 net.cpp:141] Setting up fc2_fat_drop2_fat_0_split
I1017 12:36:38.334419 19808 net.cpp:148] Top shape: 64 512 (32768)
I1017 12:36:38.334424 19808 net.cpp:148] Top shape: 64 512 (32768)
I1017 12:36:38.334427 19808 net.cpp:156] Memory required for data: 2455847424
I1017 12:36:38.334430 19808 layer_factory.hpp:77] Creating layer fc3_Male
I1017 12:36:38.334440 19808 net.cpp:91] Creating Layer fc3_Male
I1017 12:36:38.334445 19808 net.cpp:425] fc3_Male <- fc2_gender
I1017 12:36:38.334451 19808 net.cpp:399] fc3_Male -> fc3_Male
I1017 12:36:38.334583 19808 net.cpp:141] Setting up fc3_Male
I1017 12:36:38.334594 19808 net.cpp:148] Top shape: 64 2 (128)
I1017 12:36:38.334614 19808 net.cpp:156] Memory required for data: 2455847936
I1017 12:36:38.334622 19808 layer_factory.hpp:77] Creating layer loss_Male
I1017 12:36:38.334632 19808 net.cpp:91] Creating Layer loss_Male
I1017 12:36:38.334637 19808 net.cpp:425] loss_Male <- fc3_Male
I1017 12:36:38.334643 19808 net.cpp:425] loss_Male <- label_Male
I1017 12:36:38.334650 19808 net.cpp:399] loss_Male -> loss_Male
I1017 12:36:38.334700 19808 net.cpp:141] Setting up loss_Male
I1017 12:36:38.334707 19808 net.cpp:148] Top shape: (1)
I1017 12:36:38.334712 19808 net.cpp:151]     with loss weight 1
I1017 12:36:38.334725 19808 net.cpp:156] Memory required for data: 2455847940
I1017 12:36:38.334729 19808 layer_factory.hpp:77] Creating layer fc3_Big_Nose
I1017 12:36:38.334738 19808 net.cpp:91] Creating Layer fc3_Big_Nose
I1017 12:36:38.334744 19808 net.cpp:425] fc3_Big_Nose <- fc2_nose_drop2_nose_0_split_0
I1017 12:36:38.334750 19808 net.cpp:399] fc3_Big_Nose -> fc3_Big_Nose
I1017 12:36:38.334873 19808 net.cpp:141] Setting up fc3_Big_Nose
I1017 12:36:38.334882 19808 net.cpp:148] Top shape: 64 2 (128)
I1017 12:36:38.334887 19808 net.cpp:156] Memory required for data: 2455848452
I1017 12:36:38.334892 19808 layer_factory.hpp:77] Creating layer loss_Big_Nose
I1017 12:36:38.334902 19808 net.cpp:91] Creating Layer loss_Big_Nose
I1017 12:36:38.334906 19808 net.cpp:425] loss_Big_Nose <- fc3_Big_Nose
I1017 12:36:38.334913 19808 net.cpp:425] loss_Big_Nose <- label_Big_Nose
I1017 12:36:38.334918 19808 net.cpp:399] loss_Big_Nose -> loss_Big_Nose
I1017 12:36:38.334965 19808 net.cpp:141] Setting up loss_Big_Nose
I1017 12:36:38.334972 19808 net.cpp:148] Top shape: (1)
I1017 12:36:38.334976 19808 net.cpp:151]     with loss weight 1
I1017 12:36:38.334981 19808 net.cpp:156] Memory required for data: 2455848456
I1017 12:36:38.334985 19808 layer_factory.hpp:77] Creating layer fc3_Pointy_Nose
I1017 12:36:38.334995 19808 net.cpp:91] Creating Layer fc3_Pointy_Nose
I1017 12:36:38.335000 19808 net.cpp:425] fc3_Pointy_Nose <- fc2_nose_drop2_nose_0_split_1
I1017 12:36:38.335005 19808 net.cpp:399] fc3_Pointy_Nose -> fc3_Pointy_Nose
I1017 12:36:38.335126 19808 net.cpp:141] Setting up fc3_Pointy_Nose
I1017 12:36:38.335135 19808 net.cpp:148] Top shape: 64 2 (128)
I1017 12:36:38.335139 19808 net.cpp:156] Memory required for data: 2455848968
I1017 12:36:38.335173 19808 layer_factory.hpp:77] Creating layer loss_Pointy_Nose
I1017 12:36:38.335181 19808 net.cpp:91] Creating Layer loss_Pointy_Nose
I1017 12:36:38.335186 19808 net.cpp:425] loss_Pointy_Nose <- fc3_Pointy_Nose
I1017 12:36:38.335192 19808 net.cpp:425] loss_Pointy_Nose <- label_Pointy_Nose
I1017 12:36:38.335197 19808 net.cpp:399] loss_Pointy_Nose -> loss_Pointy_Nose
I1017 12:36:38.335245 19808 net.cpp:141] Setting up loss_Pointy_Nose
I1017 12:36:38.335253 19808 net.cpp:148] Top shape: (1)
I1017 12:36:38.335258 19808 net.cpp:151]     with loss weight 1
I1017 12:36:38.335263 19808 net.cpp:156] Memory required for data: 2455848972
I1017 12:36:38.335266 19808 layer_factory.hpp:77] Creating layer fc3_Big_Lips
I1017 12:36:38.335274 19808 net.cpp:91] Creating Layer fc3_Big_Lips
I1017 12:36:38.335278 19808 net.cpp:425] fc3_Big_Lips <- fc2_mouth_drop2_mouth_0_split_0
I1017 12:36:38.335288 19808 net.cpp:399] fc3_Big_Lips -> fc3_Big_Lips
I1017 12:36:38.335412 19808 net.cpp:141] Setting up fc3_Big_Lips
I1017 12:36:38.335420 19808 net.cpp:148] Top shape: 64 2 (128)
I1017 12:36:38.335424 19808 net.cpp:156] Memory required for data: 2455849484
I1017 12:36:38.335430 19808 layer_factory.hpp:77] Creating layer loss_Big_Lips
I1017 12:36:38.335439 19808 net.cpp:91] Creating Layer loss_Big_Lips
I1017 12:36:38.335444 19808 net.cpp:425] loss_Big_Lips <- fc3_Big_Lips
I1017 12:36:38.335449 19808 net.cpp:425] loss_Big_Lips <- label_Big_Lips
I1017 12:36:38.335455 19808 net.cpp:399] loss_Big_Lips -> loss_Big_Lips
I1017 12:36:38.335500 19808 net.cpp:141] Setting up loss_Big_Lips
I1017 12:36:38.335507 19808 net.cpp:148] Top shape: (1)
I1017 12:36:38.335511 19808 net.cpp:151]     with loss weight 1
I1017 12:36:38.335516 19808 net.cpp:156] Memory required for data: 2455849488
I1017 12:36:38.335530 19808 layer_factory.hpp:77] Creating layer fc3_Smiling
I1017 12:36:38.335554 19808 net.cpp:91] Creating Layer fc3_Smiling
I1017 12:36:38.335561 19808 net.cpp:425] fc3_Smiling <- fc2_mouth_drop2_mouth_0_split_1
I1017 12:36:38.335567 19808 net.cpp:399] fc3_Smiling -> fc3_Smiling
I1017 12:36:38.335695 19808 net.cpp:141] Setting up fc3_Smiling
I1017 12:36:38.335703 19808 net.cpp:148] Top shape: 64 2 (128)
I1017 12:36:38.335707 19808 net.cpp:156] Memory required for data: 2455850000
I1017 12:36:38.335714 19808 layer_factory.hpp:77] Creating layer loss_Smiling
I1017 12:36:38.335723 19808 net.cpp:91] Creating Layer loss_Smiling
I1017 12:36:38.335728 19808 net.cpp:425] loss_Smiling <- fc3_Smiling
I1017 12:36:38.335734 19808 net.cpp:425] loss_Smiling <- label_Smiling
I1017 12:36:38.335739 19808 net.cpp:399] loss_Smiling -> loss_Smiling
I1017 12:36:38.335784 19808 net.cpp:141] Setting up loss_Smiling
I1017 12:36:38.335790 19808 net.cpp:148] Top shape: (1)
I1017 12:36:38.335794 19808 net.cpp:151]     with loss weight 1
I1017 12:36:38.335799 19808 net.cpp:156] Memory required for data: 2455850004
I1017 12:36:38.335803 19808 layer_factory.hpp:77] Creating layer fc3_Wearing_Lipstick
I1017 12:36:38.335811 19808 net.cpp:91] Creating Layer fc3_Wearing_Lipstick
I1017 12:36:38.335815 19808 net.cpp:425] fc3_Wearing_Lipstick <- fc2_mouth_drop2_mouth_0_split_2
I1017 12:36:38.335821 19808 net.cpp:399] fc3_Wearing_Lipstick -> fc3_Wearing_Lipstick
I1017 12:36:38.335945 19808 net.cpp:141] Setting up fc3_Wearing_Lipstick
I1017 12:36:38.335954 19808 net.cpp:148] Top shape: 64 2 (128)
I1017 12:36:38.335958 19808 net.cpp:156] Memory required for data: 2455850516
I1017 12:36:38.335964 19808 layer_factory.hpp:77] Creating layer loss_Wearing_Lipstick
I1017 12:36:38.335973 19808 net.cpp:91] Creating Layer loss_Wearing_Lipstick
I1017 12:36:38.335978 19808 net.cpp:425] loss_Wearing_Lipstick <- fc3_Wearing_Lipstick
I1017 12:36:38.335983 19808 net.cpp:425] loss_Wearing_Lipstick <- label_Wearing_Lipstick
I1017 12:36:38.335989 19808 net.cpp:399] loss_Wearing_Lipstick -> loss_Wearing_Lipstick
I1017 12:36:38.336035 19808 net.cpp:141] Setting up loss_Wearing_Lipstick
I1017 12:36:38.336042 19808 net.cpp:148] Top shape: (1)
I1017 12:36:38.336046 19808 net.cpp:151]     with loss weight 1
I1017 12:36:38.336051 19808 net.cpp:156] Memory required for data: 2455850520
I1017 12:36:38.336055 19808 layer_factory.hpp:77] Creating layer fc3_Mouth_Slightly_Open
I1017 12:36:38.336062 19808 net.cpp:91] Creating Layer fc3_Mouth_Slightly_Open
I1017 12:36:38.336066 19808 net.cpp:425] fc3_Mouth_Slightly_Open <- fc2_mouth_drop2_mouth_0_split_3
I1017 12:36:38.336073 19808 net.cpp:399] fc3_Mouth_Slightly_Open -> fc3_Mouth_Slightly_Open
I1017 12:36:38.336194 19808 net.cpp:141] Setting up fc3_Mouth_Slightly_Open
I1017 12:36:38.336201 19808 net.cpp:148] Top shape: 64 2 (128)
I1017 12:36:38.336205 19808 net.cpp:156] Memory required for data: 2455851032
I1017 12:36:38.336211 19808 layer_factory.hpp:77] Creating layer loss_Mouth_Slightly_Open
I1017 12:36:38.336221 19808 net.cpp:91] Creating Layer loss_Mouth_Slightly_Open
I1017 12:36:38.336226 19808 net.cpp:425] loss_Mouth_Slightly_Open <- fc3_Mouth_Slightly_Open
I1017 12:36:38.336231 19808 net.cpp:425] loss_Mouth_Slightly_Open <- label_Mouth_Slightly_Open
I1017 12:36:38.336237 19808 net.cpp:399] loss_Mouth_Slightly_Open -> loss_Mouth_Slightly_Open
I1017 12:36:38.336283 19808 net.cpp:141] Setting up loss_Mouth_Slightly_Open
I1017 12:36:38.336290 19808 net.cpp:148] Top shape: (1)
I1017 12:36:38.336293 19808 net.cpp:151]     with loss weight 1
I1017 12:36:38.336298 19808 net.cpp:156] Memory required for data: 2455851036
I1017 12:36:38.336303 19808 layer_factory.hpp:77] Creating layer fc3_Arched_Eyebrows
I1017 12:36:38.336310 19808 net.cpp:91] Creating Layer fc3_Arched_Eyebrows
I1017 12:36:38.336315 19808 net.cpp:425] fc3_Arched_Eyebrows <- fc2_eyes_drop2_eyes_0_split_0
I1017 12:36:38.336320 19808 net.cpp:399] fc3_Arched_Eyebrows -> fc3_Arched_Eyebrows
I1017 12:36:38.336443 19808 net.cpp:141] Setting up fc3_Arched_Eyebrows
I1017 12:36:38.336462 19808 net.cpp:148] Top shape: 64 2 (128)
I1017 12:36:38.336465 19808 net.cpp:156] Memory required for data: 2455851548
I1017 12:36:38.336472 19808 layer_factory.hpp:77] Creating layer loss_Arched_Eyebrows
I1017 12:36:38.336482 19808 net.cpp:91] Creating Layer loss_Arched_Eyebrows
I1017 12:36:38.336486 19808 net.cpp:425] loss_Arched_Eyebrows <- fc3_Arched_Eyebrows
I1017 12:36:38.336491 19808 net.cpp:425] loss_Arched_Eyebrows <- label_Arched_Eyebrows
I1017 12:36:38.336498 19808 net.cpp:399] loss_Arched_Eyebrows -> loss_Arched_Eyebrows
I1017 12:36:38.336549 19808 net.cpp:141] Setting up loss_Arched_Eyebrows
I1017 12:36:38.336557 19808 net.cpp:148] Top shape: (1)
I1017 12:36:38.336561 19808 net.cpp:151]     with loss weight 1
I1017 12:36:38.336566 19808 net.cpp:156] Memory required for data: 2455851552
I1017 12:36:38.336571 19808 layer_factory.hpp:77] Creating layer fc3_Bags_Under_Eyes
I1017 12:36:38.336578 19808 net.cpp:91] Creating Layer fc3_Bags_Under_Eyes
I1017 12:36:38.336583 19808 net.cpp:425] fc3_Bags_Under_Eyes <- fc2_eyes_drop2_eyes_0_split_1
I1017 12:36:38.336590 19808 net.cpp:399] fc3_Bags_Under_Eyes -> fc3_Bags_Under_Eyes
I1017 12:36:38.336714 19808 net.cpp:141] Setting up fc3_Bags_Under_Eyes
I1017 12:36:38.336724 19808 net.cpp:148] Top shape: 64 2 (128)
I1017 12:36:38.336726 19808 net.cpp:156] Memory required for data: 2455852064
I1017 12:36:38.336733 19808 layer_factory.hpp:77] Creating layer loss_Bags_Under_Eyes
I1017 12:36:38.336741 19808 net.cpp:91] Creating Layer loss_Bags_Under_Eyes
I1017 12:36:38.336746 19808 net.cpp:425] loss_Bags_Under_Eyes <- fc3_Bags_Under_Eyes
I1017 12:36:38.336752 19808 net.cpp:425] loss_Bags_Under_Eyes <- label_Bags_Under_Eyes
I1017 12:36:38.336757 19808 net.cpp:399] loss_Bags_Under_Eyes -> loss_Bags_Under_Eyes
I1017 12:36:38.336807 19808 net.cpp:141] Setting up loss_Bags_Under_Eyes
I1017 12:36:38.336813 19808 net.cpp:148] Top shape: (1)
I1017 12:36:38.336817 19808 net.cpp:151]     with loss weight 1
I1017 12:36:38.336822 19808 net.cpp:156] Memory required for data: 2455852068
I1017 12:36:38.336827 19808 layer_factory.hpp:77] Creating layer fc3_Bushy_Eyebrows
I1017 12:36:38.336833 19808 net.cpp:91] Creating Layer fc3_Bushy_Eyebrows
I1017 12:36:38.336838 19808 net.cpp:425] fc3_Bushy_Eyebrows <- fc2_eyes_drop2_eyes_0_split_2
I1017 12:36:38.336843 19808 net.cpp:399] fc3_Bushy_Eyebrows -> fc3_Bushy_Eyebrows
I1017 12:36:38.336969 19808 net.cpp:141] Setting up fc3_Bushy_Eyebrows
I1017 12:36:38.336978 19808 net.cpp:148] Top shape: 64 2 (128)
I1017 12:36:38.336982 19808 net.cpp:156] Memory required for data: 2455852580
I1017 12:36:38.336988 19808 layer_factory.hpp:77] Creating layer loss_Bushy_Eyebrows
I1017 12:36:38.336997 19808 net.cpp:91] Creating Layer loss_Bushy_Eyebrows
I1017 12:36:38.337002 19808 net.cpp:425] loss_Bushy_Eyebrows <- fc3_Bushy_Eyebrows
I1017 12:36:38.337007 19808 net.cpp:425] loss_Bushy_Eyebrows <- label_Bushy_Eyebrows
I1017 12:36:38.337013 19808 net.cpp:399] loss_Bushy_Eyebrows -> loss_Bushy_Eyebrows
I1017 12:36:38.337060 19808 net.cpp:141] Setting up loss_Bushy_Eyebrows
I1017 12:36:38.337066 19808 net.cpp:148] Top shape: (1)
I1017 12:36:38.337070 19808 net.cpp:151]     with loss weight 1
I1017 12:36:38.337075 19808 net.cpp:156] Memory required for data: 2455852584
I1017 12:36:38.337080 19808 layer_factory.hpp:77] Creating layer fc3_Narrow_Eyes
I1017 12:36:38.337086 19808 net.cpp:91] Creating Layer fc3_Narrow_Eyes
I1017 12:36:38.337091 19808 net.cpp:425] fc3_Narrow_Eyes <- fc2_eyes_drop2_eyes_0_split_3
I1017 12:36:38.337097 19808 net.cpp:399] fc3_Narrow_Eyes -> fc3_Narrow_Eyes
I1017 12:36:38.337220 19808 net.cpp:141] Setting up fc3_Narrow_Eyes
I1017 12:36:38.337229 19808 net.cpp:148] Top shape: 64 2 (128)
I1017 12:36:38.337232 19808 net.cpp:156] Memory required for data: 2455853096
I1017 12:36:38.337239 19808 layer_factory.hpp:77] Creating layer loss_Narrow_Eyes
I1017 12:36:38.337245 19808 net.cpp:91] Creating Layer loss_Narrow_Eyes
I1017 12:36:38.337250 19808 net.cpp:425] loss_Narrow_Eyes <- fc3_Narrow_Eyes
I1017 12:36:38.337266 19808 net.cpp:425] loss_Narrow_Eyes <- label_Narrow_Eyes
I1017 12:36:38.337273 19808 net.cpp:399] loss_Narrow_Eyes -> loss_Narrow_Eyes
I1017 12:36:38.337322 19808 net.cpp:141] Setting up loss_Narrow_Eyes
I1017 12:36:38.337332 19808 net.cpp:148] Top shape: (1)
I1017 12:36:38.337335 19808 net.cpp:151]     with loss weight 1
I1017 12:36:38.337342 19808 net.cpp:156] Memory required for data: 2455853100
I1017 12:36:38.337345 19808 layer_factory.hpp:77] Creating layer fc3_Eyeglasses
I1017 12:36:38.337352 19808 net.cpp:91] Creating Layer fc3_Eyeglasses
I1017 12:36:38.337357 19808 net.cpp:425] fc3_Eyeglasses <- fc2_eyes_drop2_eyes_0_split_4
I1017 12:36:38.337363 19808 net.cpp:399] fc3_Eyeglasses -> fc3_Eyeglasses
I1017 12:36:38.337487 19808 net.cpp:141] Setting up fc3_Eyeglasses
I1017 12:36:38.337496 19808 net.cpp:148] Top shape: 64 2 (128)
I1017 12:36:38.337499 19808 net.cpp:156] Memory required for data: 2455853612
I1017 12:36:38.337505 19808 layer_factory.hpp:77] Creating layer loss_Eyeglasses
I1017 12:36:38.337512 19808 net.cpp:91] Creating Layer loss_Eyeglasses
I1017 12:36:38.337517 19808 net.cpp:425] loss_Eyeglasses <- fc3_Eyeglasses
I1017 12:36:38.337522 19808 net.cpp:425] loss_Eyeglasses <- label_Eyeglasses
I1017 12:36:38.337529 19808 net.cpp:399] loss_Eyeglasses -> loss_Eyeglasses
I1017 12:36:38.337575 19808 net.cpp:141] Setting up loss_Eyeglasses
I1017 12:36:38.337584 19808 net.cpp:148] Top shape: (1)
I1017 12:36:38.337587 19808 net.cpp:151]     with loss weight 1
I1017 12:36:38.337594 19808 net.cpp:156] Memory required for data: 2455853616
I1017 12:36:38.337597 19808 layer_factory.hpp:77] Creating layer fc3_Attractive
I1017 12:36:38.337604 19808 net.cpp:91] Creating Layer fc3_Attractive
I1017 12:36:38.337610 19808 net.cpp:425] fc3_Attractive <- fc2_face_drop2_face_0_split_0
I1017 12:36:38.337615 19808 net.cpp:399] fc3_Attractive -> fc3_Attractive
I1017 12:36:38.337739 19808 net.cpp:141] Setting up fc3_Attractive
I1017 12:36:38.337748 19808 net.cpp:148] Top shape: 64 2 (128)
I1017 12:36:38.337751 19808 net.cpp:156] Memory required for data: 2455854128
I1017 12:36:38.337759 19808 layer_factory.hpp:77] Creating layer loss_Attractive
I1017 12:36:38.337765 19808 net.cpp:91] Creating Layer loss_Attractive
I1017 12:36:38.337769 19808 net.cpp:425] loss_Attractive <- fc3_Attractive
I1017 12:36:38.337775 19808 net.cpp:425] loss_Attractive <- label_Attractive
I1017 12:36:38.337782 19808 net.cpp:399] loss_Attractive -> loss_Attractive
I1017 12:36:38.337828 19808 net.cpp:141] Setting up loss_Attractive
I1017 12:36:38.337836 19808 net.cpp:148] Top shape: (1)
I1017 12:36:38.337839 19808 net.cpp:151]     with loss weight 1
I1017 12:36:38.337844 19808 net.cpp:156] Memory required for data: 2455854132
I1017 12:36:38.337848 19808 layer_factory.hpp:77] Creating layer fc3_Blurry
I1017 12:36:38.337857 19808 net.cpp:91] Creating Layer fc3_Blurry
I1017 12:36:38.337862 19808 net.cpp:425] fc3_Blurry <- fc2_face_drop2_face_0_split_1
I1017 12:36:38.337867 19808 net.cpp:399] fc3_Blurry -> fc3_Blurry
I1017 12:36:38.337991 19808 net.cpp:141] Setting up fc3_Blurry
I1017 12:36:38.338001 19808 net.cpp:148] Top shape: 64 2 (128)
I1017 12:36:38.338006 19808 net.cpp:156] Memory required for data: 2455854644
I1017 12:36:38.338011 19808 layer_factory.hpp:77] Creating layer loss_Blurry
I1017 12:36:38.338018 19808 net.cpp:91] Creating Layer loss_Blurry
I1017 12:36:38.338023 19808 net.cpp:425] loss_Blurry <- fc3_Blurry
I1017 12:36:38.338028 19808 net.cpp:425] loss_Blurry <- label_Blurry
I1017 12:36:38.338035 19808 net.cpp:399] loss_Blurry -> loss_Blurry
I1017 12:36:38.338084 19808 net.cpp:141] Setting up loss_Blurry
I1017 12:36:38.338090 19808 net.cpp:148] Top shape: (1)
I1017 12:36:38.338094 19808 net.cpp:151]     with loss weight 1
I1017 12:36:38.338099 19808 net.cpp:156] Memory required for data: 2455854648
I1017 12:36:38.338104 19808 layer_factory.hpp:77] Creating layer fc3_Oval_Face
I1017 12:36:38.338112 19808 net.cpp:91] Creating Layer fc3_Oval_Face
I1017 12:36:38.338116 19808 net.cpp:425] fc3_Oval_Face <- fc2_face_drop2_face_0_split_2
I1017 12:36:38.338131 19808 net.cpp:399] fc3_Oval_Face -> fc3_Oval_Face
I1017 12:36:38.338255 19808 net.cpp:141] Setting up fc3_Oval_Face
I1017 12:36:38.338266 19808 net.cpp:148] Top shape: 64 2 (128)
I1017 12:36:38.338270 19808 net.cpp:156] Memory required for data: 2455855160
I1017 12:36:38.338282 19808 layer_factory.hpp:77] Creating layer loss_Oval_Face
I1017 12:36:38.338289 19808 net.cpp:91] Creating Layer loss_Oval_Face
I1017 12:36:38.338294 19808 net.cpp:425] loss_Oval_Face <- fc3_Oval_Face
I1017 12:36:38.338299 19808 net.cpp:425] loss_Oval_Face <- label_Oval_Face
I1017 12:36:38.338306 19808 net.cpp:399] loss_Oval_Face -> loss_Oval_Face
I1017 12:36:38.338353 19808 net.cpp:141] Setting up loss_Oval_Face
I1017 12:36:38.338361 19808 net.cpp:148] Top shape: (1)
I1017 12:36:38.338363 19808 net.cpp:151]     with loss weight 1
I1017 12:36:38.338369 19808 net.cpp:156] Memory required for data: 2455855164
I1017 12:36:38.338373 19808 layer_factory.hpp:77] Creating layer fc3_Pale_Skin
I1017 12:36:38.338382 19808 net.cpp:91] Creating Layer fc3_Pale_Skin
I1017 12:36:38.338387 19808 net.cpp:425] fc3_Pale_Skin <- fc2_face_drop2_face_0_split_3
I1017 12:36:38.338392 19808 net.cpp:399] fc3_Pale_Skin -> fc3_Pale_Skin
I1017 12:36:38.338516 19808 net.cpp:141] Setting up fc3_Pale_Skin
I1017 12:36:38.338526 19808 net.cpp:148] Top shape: 64 2 (128)
I1017 12:36:38.338531 19808 net.cpp:156] Memory required for data: 2455855676
I1017 12:36:38.338536 19808 layer_factory.hpp:77] Creating layer loss_Pale_Skin
I1017 12:36:38.338543 19808 net.cpp:91] Creating Layer loss_Pale_Skin
I1017 12:36:38.338547 19808 net.cpp:425] loss_Pale_Skin <- fc3_Pale_Skin
I1017 12:36:38.338552 19808 net.cpp:425] loss_Pale_Skin <- label_Pale_Skin
I1017 12:36:38.338559 19808 net.cpp:399] loss_Pale_Skin -> loss_Pale_Skin
I1017 12:36:38.338604 19808 net.cpp:141] Setting up loss_Pale_Skin
I1017 12:36:38.338611 19808 net.cpp:148] Top shape: (1)
I1017 12:36:38.338614 19808 net.cpp:151]     with loss weight 1
I1017 12:36:38.338619 19808 net.cpp:156] Memory required for data: 2455855680
I1017 12:36:38.338624 19808 layer_factory.hpp:77] Creating layer fc3_Young
I1017 12:36:38.338634 19808 net.cpp:91] Creating Layer fc3_Young
I1017 12:36:38.338637 19808 net.cpp:425] fc3_Young <- fc2_face_drop2_face_0_split_4
I1017 12:36:38.338644 19808 net.cpp:399] fc3_Young -> fc3_Young
I1017 12:36:38.338764 19808 net.cpp:141] Setting up fc3_Young
I1017 12:36:38.338773 19808 net.cpp:148] Top shape: 64 2 (128)
I1017 12:36:38.338776 19808 net.cpp:156] Memory required for data: 2455856192
I1017 12:36:38.338783 19808 layer_factory.hpp:77] Creating layer loss_Young
I1017 12:36:38.338791 19808 net.cpp:91] Creating Layer loss_Young
I1017 12:36:38.338796 19808 net.cpp:425] loss_Young <- fc3_Young
I1017 12:36:38.338801 19808 net.cpp:425] loss_Young <- label_Young
I1017 12:36:38.338809 19808 net.cpp:399] loss_Young -> loss_Young
I1017 12:36:38.338853 19808 net.cpp:141] Setting up loss_Young
I1017 12:36:38.338860 19808 net.cpp:148] Top shape: (1)
I1017 12:36:38.338865 19808 net.cpp:151]     with loss weight 1
I1017 12:36:38.338870 19808 net.cpp:156] Memory required for data: 2455856196
I1017 12:36:38.338873 19808 layer_factory.hpp:77] Creating layer fc3_Heavy_Makeup
I1017 12:36:38.338882 19808 net.cpp:91] Creating Layer fc3_Heavy_Makeup
I1017 12:36:38.338887 19808 net.cpp:425] fc3_Heavy_Makeup <- fc2_face_drop2_face_0_split_5
I1017 12:36:38.338892 19808 net.cpp:399] fc3_Heavy_Makeup -> fc3_Heavy_Makeup
I1017 12:36:38.339012 19808 net.cpp:141] Setting up fc3_Heavy_Makeup
I1017 12:36:38.339021 19808 net.cpp:148] Top shape: 64 2 (128)
I1017 12:36:38.339025 19808 net.cpp:156] Memory required for data: 2455856708
I1017 12:36:38.339031 19808 layer_factory.hpp:77] Creating layer loss_Heavy_Makeup
I1017 12:36:38.339040 19808 net.cpp:91] Creating Layer loss_Heavy_Makeup
I1017 12:36:38.339045 19808 net.cpp:425] loss_Heavy_Makeup <- fc3_Heavy_Makeup
I1017 12:36:38.339049 19808 net.cpp:425] loss_Heavy_Makeup <- label_Heavy_Makeup
I1017 12:36:38.339057 19808 net.cpp:399] loss_Heavy_Makeup -> loss_Heavy_Makeup
I1017 12:36:38.339114 19808 net.cpp:141] Setting up loss_Heavy_Makeup
I1017 12:36:38.339121 19808 net.cpp:148] Top shape: (1)
I1017 12:36:38.339125 19808 net.cpp:151]     with loss weight 1
I1017 12:36:38.339131 19808 net.cpp:156] Memory required for data: 2455856712
I1017 12:36:38.339135 19808 layer_factory.hpp:77] Creating layer fc3_Black_Hair
I1017 12:36:38.339144 19808 net.cpp:91] Creating Layer fc3_Black_Hair
I1017 12:36:38.339149 19808 net.cpp:425] fc3_Black_Hair <- fc2_aroundhead_drop2_aroundhead_0_split_0
I1017 12:36:38.339155 19808 net.cpp:399] fc3_Black_Hair -> fc3_Black_Hair
I1017 12:36:38.339277 19808 net.cpp:141] Setting up fc3_Black_Hair
I1017 12:36:38.339287 19808 net.cpp:148] Top shape: 64 2 (128)
I1017 12:36:38.339290 19808 net.cpp:156] Memory required for data: 2455857224
I1017 12:36:38.339296 19808 layer_factory.hpp:77] Creating layer loss_Black_Hair
I1017 12:36:38.339304 19808 net.cpp:91] Creating Layer loss_Black_Hair
I1017 12:36:38.339309 19808 net.cpp:425] loss_Black_Hair <- fc3_Black_Hair
I1017 12:36:38.339314 19808 net.cpp:425] loss_Black_Hair <- label_Black_Hair
I1017 12:36:38.339323 19808 net.cpp:399] loss_Black_Hair -> loss_Black_Hair
I1017 12:36:38.339367 19808 net.cpp:141] Setting up loss_Black_Hair
I1017 12:36:38.339373 19808 net.cpp:148] Top shape: (1)
I1017 12:36:38.339377 19808 net.cpp:151]     with loss weight 1
I1017 12:36:38.339382 19808 net.cpp:156] Memory required for data: 2455857228
I1017 12:36:38.339386 19808 layer_factory.hpp:77] Creating layer fc3_Blond_Hair
I1017 12:36:38.339395 19808 net.cpp:91] Creating Layer fc3_Blond_Hair
I1017 12:36:38.339401 19808 net.cpp:425] fc3_Blond_Hair <- fc2_aroundhead_drop2_aroundhead_0_split_1
I1017 12:36:38.339406 19808 net.cpp:399] fc3_Blond_Hair -> fc3_Blond_Hair
I1017 12:36:38.339531 19808 net.cpp:141] Setting up fc3_Blond_Hair
I1017 12:36:38.339540 19808 net.cpp:148] Top shape: 64 2 (128)
I1017 12:36:38.339545 19808 net.cpp:156] Memory required for data: 2455857740
I1017 12:36:38.339550 19808 layer_factory.hpp:77] Creating layer loss_Blond_Hair
I1017 12:36:38.339560 19808 net.cpp:91] Creating Layer loss_Blond_Hair
I1017 12:36:38.339563 19808 net.cpp:425] loss_Blond_Hair <- fc3_Blond_Hair
I1017 12:36:38.339568 19808 net.cpp:425] loss_Blond_Hair <- label_Blond_Hair
I1017 12:36:38.339575 19808 net.cpp:399] loss_Blond_Hair -> loss_Blond_Hair
I1017 12:36:38.339625 19808 net.cpp:141] Setting up loss_Blond_Hair
I1017 12:36:38.339632 19808 net.cpp:148] Top shape: (1)
I1017 12:36:38.339635 19808 net.cpp:151]     with loss weight 1
I1017 12:36:38.339640 19808 net.cpp:156] Memory required for data: 2455857744
I1017 12:36:38.339644 19808 layer_factory.hpp:77] Creating layer fc3_Brown_Hair
I1017 12:36:38.339653 19808 net.cpp:91] Creating Layer fc3_Brown_Hair
I1017 12:36:38.339658 19808 net.cpp:425] fc3_Brown_Hair <- fc2_aroundhead_drop2_aroundhead_0_split_2
I1017 12:36:38.339664 19808 net.cpp:399] fc3_Brown_Hair -> fc3_Brown_Hair
I1017 12:36:38.339784 19808 net.cpp:141] Setting up fc3_Brown_Hair
I1017 12:36:38.339793 19808 net.cpp:148] Top shape: 64 2 (128)
I1017 12:36:38.339797 19808 net.cpp:156] Memory required for data: 2455858256
I1017 12:36:38.339803 19808 layer_factory.hpp:77] Creating layer loss_Brown_Hair
I1017 12:36:38.339812 19808 net.cpp:91] Creating Layer loss_Brown_Hair
I1017 12:36:38.339817 19808 net.cpp:425] loss_Brown_Hair <- fc3_Brown_Hair
I1017 12:36:38.339821 19808 net.cpp:425] loss_Brown_Hair <- label_Brown_Hair
I1017 12:36:38.339828 19808 net.cpp:399] loss_Brown_Hair -> loss_Brown_Hair
I1017 12:36:38.339874 19808 net.cpp:141] Setting up loss_Brown_Hair
I1017 12:36:38.339879 19808 net.cpp:148] Top shape: (1)
I1017 12:36:38.339884 19808 net.cpp:151]     with loss weight 1
I1017 12:36:38.339889 19808 net.cpp:156] Memory required for data: 2455858260
I1017 12:36:38.339892 19808 layer_factory.hpp:77] Creating layer fc3_Gray_Hair
I1017 12:36:38.339900 19808 net.cpp:91] Creating Layer fc3_Gray_Hair
I1017 12:36:38.339905 19808 net.cpp:425] fc3_Gray_Hair <- fc2_aroundhead_drop2_aroundhead_0_split_3
I1017 12:36:38.339911 19808 net.cpp:399] fc3_Gray_Hair -> fc3_Gray_Hair
I1017 12:36:38.340044 19808 net.cpp:141] Setting up fc3_Gray_Hair
I1017 12:36:38.340054 19808 net.cpp:148] Top shape: 64 2 (128)
I1017 12:36:38.340057 19808 net.cpp:156] Memory required for data: 2455858772
I1017 12:36:38.340064 19808 layer_factory.hpp:77] Creating layer loss_Gray_Hair
I1017 12:36:38.340072 19808 net.cpp:91] Creating Layer loss_Gray_Hair
I1017 12:36:38.340076 19808 net.cpp:425] loss_Gray_Hair <- fc3_Gray_Hair
I1017 12:36:38.340082 19808 net.cpp:425] loss_Gray_Hair <- label_Gray_Hair
I1017 12:36:38.340087 19808 net.cpp:399] loss_Gray_Hair -> loss_Gray_Hair
I1017 12:36:38.340134 19808 net.cpp:141] Setting up loss_Gray_Hair
I1017 12:36:38.340140 19808 net.cpp:148] Top shape: (1)
I1017 12:36:38.340144 19808 net.cpp:151]     with loss weight 1
I1017 12:36:38.340149 19808 net.cpp:156] Memory required for data: 2455858776
I1017 12:36:38.340153 19808 layer_factory.hpp:77] Creating layer fc3_Wearing_Earrings
I1017 12:36:38.340162 19808 net.cpp:91] Creating Layer fc3_Wearing_Earrings
I1017 12:36:38.340167 19808 net.cpp:425] fc3_Wearing_Earrings <- fc2_aroundhead_drop2_aroundhead_0_split_4
I1017 12:36:38.340173 19808 net.cpp:399] fc3_Wearing_Earrings -> fc3_Wearing_Earrings
I1017 12:36:38.340293 19808 net.cpp:141] Setting up fc3_Wearing_Earrings
I1017 12:36:38.340302 19808 net.cpp:148] Top shape: 64 2 (128)
I1017 12:36:38.340306 19808 net.cpp:156] Memory required for data: 2455859288
I1017 12:36:38.340312 19808 layer_factory.hpp:77] Creating layer loss_Wearing_Earrings
I1017 12:36:38.340322 19808 net.cpp:91] Creating Layer loss_Wearing_Earrings
I1017 12:36:38.340325 19808 net.cpp:425] loss_Wearing_Earrings <- fc3_Wearing_Earrings
I1017 12:36:38.340332 19808 net.cpp:425] loss_Wearing_Earrings <- label_Wearing_Earrings
I1017 12:36:38.340337 19808 net.cpp:399] loss_Wearing_Earrings -> loss_Wearing_Earrings
I1017 12:36:38.340384 19808 net.cpp:141] Setting up loss_Wearing_Earrings
I1017 12:36:38.340389 19808 net.cpp:148] Top shape: (1)
I1017 12:36:38.340394 19808 net.cpp:151]     with loss weight 1
I1017 12:36:38.340399 19808 net.cpp:156] Memory required for data: 2455859292
I1017 12:36:38.340402 19808 layer_factory.hpp:77] Creating layer fc3_Wearing_Necklace
I1017 12:36:38.340411 19808 net.cpp:91] Creating Layer fc3_Wearing_Necklace
I1017 12:36:38.340416 19808 net.cpp:425] fc3_Wearing_Necklace <- fc2_aroundhead_drop2_aroundhead_0_split_5
I1017 12:36:38.340422 19808 net.cpp:399] fc3_Wearing_Necklace -> fc3_Wearing_Necklace
I1017 12:36:38.340546 19808 net.cpp:141] Setting up fc3_Wearing_Necklace
I1017 12:36:38.340554 19808 net.cpp:148] Top shape: 64 2 (128)
I1017 12:36:38.340559 19808 net.cpp:156] Memory required for data: 2455859804
I1017 12:36:38.340564 19808 layer_factory.hpp:77] Creating layer loss_Wearing_Necklace
I1017 12:36:38.340572 19808 net.cpp:91] Creating Layer loss_Wearing_Necklace
I1017 12:36:38.340577 19808 net.cpp:425] loss_Wearing_Necklace <- fc3_Wearing_Necklace
I1017 12:36:38.340584 19808 net.cpp:425] loss_Wearing_Necklace <- label_Wearing_Necklace
I1017 12:36:38.340589 19808 net.cpp:399] loss_Wearing_Necklace -> loss_Wearing_Necklace
I1017 12:36:38.340636 19808 net.cpp:141] Setting up loss_Wearing_Necklace
I1017 12:36:38.340641 19808 net.cpp:148] Top shape: (1)
I1017 12:36:38.340646 19808 net.cpp:151]     with loss weight 1
I1017 12:36:38.340651 19808 net.cpp:156] Memory required for data: 2455859808
I1017 12:36:38.340654 19808 layer_factory.hpp:77] Creating layer fc3_Wearing_Necktie
I1017 12:36:38.340662 19808 net.cpp:91] Creating Layer fc3_Wearing_Necktie
I1017 12:36:38.340667 19808 net.cpp:425] fc3_Wearing_Necktie <- fc2_aroundhead_drop2_aroundhead_0_split_6
I1017 12:36:38.340673 19808 net.cpp:399] fc3_Wearing_Necktie -> fc3_Wearing_Necktie
I1017 12:36:38.340795 19808 net.cpp:141] Setting up fc3_Wearing_Necktie
I1017 12:36:38.340803 19808 net.cpp:148] Top shape: 64 2 (128)
I1017 12:36:38.340807 19808 net.cpp:156] Memory required for data: 2455860320
I1017 12:36:38.340813 19808 layer_factory.hpp:77] Creating layer loss_Wearing_Necktie
I1017 12:36:38.340822 19808 net.cpp:91] Creating Layer loss_Wearing_Necktie
I1017 12:36:38.340836 19808 net.cpp:425] loss_Wearing_Necktie <- fc3_Wearing_Necktie
I1017 12:36:38.340842 19808 net.cpp:425] loss_Wearing_Necktie <- label_Wearing_Necktie
I1017 12:36:38.340847 19808 net.cpp:399] loss_Wearing_Necktie -> loss_Wearing_Necktie
I1017 12:36:38.340895 19808 net.cpp:141] Setting up loss_Wearing_Necktie
I1017 12:36:38.340904 19808 net.cpp:148] Top shape: (1)
I1017 12:36:38.340909 19808 net.cpp:151]     with loss weight 1
I1017 12:36:38.340914 19808 net.cpp:156] Memory required for data: 2455860324
I1017 12:36:38.340919 19808 layer_factory.hpp:77] Creating layer fc3_Bald
I1017 12:36:38.340929 19808 net.cpp:91] Creating Layer fc3_Bald
I1017 12:36:38.340932 19808 net.cpp:425] fc3_Bald <- fc2_aroundhead_drop2_aroundhead_0_split_7
I1017 12:36:38.340939 19808 net.cpp:399] fc3_Bald -> fc3_Bald
I1017 12:36:38.341060 19808 net.cpp:141] Setting up fc3_Bald
I1017 12:36:38.341068 19808 net.cpp:148] Top shape: 64 2 (128)
I1017 12:36:38.341073 19808 net.cpp:156] Memory required for data: 2455860836
I1017 12:36:38.341078 19808 layer_factory.hpp:77] Creating layer loss_Bald
I1017 12:36:38.341089 19808 net.cpp:91] Creating Layer loss_Bald
I1017 12:36:38.341094 19808 net.cpp:425] loss_Bald <- fc3_Bald
I1017 12:36:38.341099 19808 net.cpp:425] loss_Bald <- label_Bald
I1017 12:36:38.341105 19808 net.cpp:399] loss_Bald -> loss_Bald
I1017 12:36:38.341151 19808 net.cpp:141] Setting up loss_Bald
I1017 12:36:38.341157 19808 net.cpp:148] Top shape: (1)
I1017 12:36:38.341161 19808 net.cpp:151]     with loss weight 1
I1017 12:36:38.341166 19808 net.cpp:156] Memory required for data: 2455860840
I1017 12:36:38.341171 19808 layer_factory.hpp:77] Creating layer fc3_Receding_Hairline
I1017 12:36:38.341179 19808 net.cpp:91] Creating Layer fc3_Receding_Hairline
I1017 12:36:38.341184 19808 net.cpp:425] fc3_Receding_Hairline <- fc2_aroundhead_drop2_aroundhead_0_split_8
I1017 12:36:38.341190 19808 net.cpp:399] fc3_Receding_Hairline -> fc3_Receding_Hairline
I1017 12:36:38.341316 19808 net.cpp:141] Setting up fc3_Receding_Hairline
I1017 12:36:38.341325 19808 net.cpp:148] Top shape: 64 2 (128)
I1017 12:36:38.341330 19808 net.cpp:156] Memory required for data: 2455861352
I1017 12:36:38.341336 19808 layer_factory.hpp:77] Creating layer loss_Receding_Hairline
I1017 12:36:38.341346 19808 net.cpp:91] Creating Layer loss_Receding_Hairline
I1017 12:36:38.341351 19808 net.cpp:425] loss_Receding_Hairline <- fc3_Receding_Hairline
I1017 12:36:38.341356 19808 net.cpp:425] loss_Receding_Hairline <- label_Receding_Hairline
I1017 12:36:38.341361 19808 net.cpp:399] loss_Receding_Hairline -> loss_Receding_Hairline
I1017 12:36:38.341409 19808 net.cpp:141] Setting up loss_Receding_Hairline
I1017 12:36:38.341415 19808 net.cpp:148] Top shape: (1)
I1017 12:36:38.341419 19808 net.cpp:151]     with loss weight 1
I1017 12:36:38.341424 19808 net.cpp:156] Memory required for data: 2455861356
I1017 12:36:38.341428 19808 layer_factory.hpp:77] Creating layer fc3_Bangs
I1017 12:36:38.341437 19808 net.cpp:91] Creating Layer fc3_Bangs
I1017 12:36:38.341441 19808 net.cpp:425] fc3_Bangs <- fc2_aroundhead_drop2_aroundhead_0_split_9
I1017 12:36:38.341450 19808 net.cpp:399] fc3_Bangs -> fc3_Bangs
I1017 12:36:38.341575 19808 net.cpp:141] Setting up fc3_Bangs
I1017 12:36:38.341584 19808 net.cpp:148] Top shape: 64 2 (128)
I1017 12:36:38.341588 19808 net.cpp:156] Memory required for data: 2455861868
I1017 12:36:38.341594 19808 layer_factory.hpp:77] Creating layer loss_Bangs
I1017 12:36:38.341604 19808 net.cpp:91] Creating Layer loss_Bangs
I1017 12:36:38.341609 19808 net.cpp:425] loss_Bangs <- fc3_Bangs
I1017 12:36:38.341614 19808 net.cpp:425] loss_Bangs <- label_Bangs
I1017 12:36:38.341620 19808 net.cpp:399] loss_Bangs -> loss_Bangs
I1017 12:36:38.341667 19808 net.cpp:141] Setting up loss_Bangs
I1017 12:36:38.341675 19808 net.cpp:148] Top shape: (1)
I1017 12:36:38.341678 19808 net.cpp:151]     with loss weight 1
I1017 12:36:38.341683 19808 net.cpp:156] Memory required for data: 2455861872
I1017 12:36:38.341687 19808 layer_factory.hpp:77] Creating layer fc3_Wearing_Hat
I1017 12:36:38.341706 19808 net.cpp:91] Creating Layer fc3_Wearing_Hat
I1017 12:36:38.341711 19808 net.cpp:425] fc3_Wearing_Hat <- fc2_aroundhead_drop2_aroundhead_0_split_10
I1017 12:36:38.341718 19808 net.cpp:399] fc3_Wearing_Hat -> fc3_Wearing_Hat
I1017 12:36:38.341847 19808 net.cpp:141] Setting up fc3_Wearing_Hat
I1017 12:36:38.341857 19808 net.cpp:148] Top shape: 64 2 (128)
I1017 12:36:38.341861 19808 net.cpp:156] Memory required for data: 2455862384
I1017 12:36:38.341867 19808 layer_factory.hpp:77] Creating layer loss_Wearing_Hat
I1017 12:36:38.341876 19808 net.cpp:91] Creating Layer loss_Wearing_Hat
I1017 12:36:38.341881 19808 net.cpp:425] loss_Wearing_Hat <- fc3_Wearing_Hat
I1017 12:36:38.341886 19808 net.cpp:425] loss_Wearing_Hat <- label_Wearing_Hat
I1017 12:36:38.341892 19808 net.cpp:399] loss_Wearing_Hat -> loss_Wearing_Hat
I1017 12:36:38.341938 19808 net.cpp:141] Setting up loss_Wearing_Hat
I1017 12:36:38.341944 19808 net.cpp:148] Top shape: (1)
I1017 12:36:38.341948 19808 net.cpp:151]     with loss weight 1
I1017 12:36:38.341953 19808 net.cpp:156] Memory required for data: 2455862388
I1017 12:36:38.341958 19808 layer_factory.hpp:77] Creating layer fc3_Straight_Hair
I1017 12:36:38.341965 19808 net.cpp:91] Creating Layer fc3_Straight_Hair
I1017 12:36:38.341970 19808 net.cpp:425] fc3_Straight_Hair <- fc2_aroundhead_drop2_aroundhead_0_split_11
I1017 12:36:38.341979 19808 net.cpp:399] fc3_Straight_Hair -> fc3_Straight_Hair
I1017 12:36:38.342105 19808 net.cpp:141] Setting up fc3_Straight_Hair
I1017 12:36:38.342114 19808 net.cpp:148] Top shape: 64 2 (128)
I1017 12:36:38.342118 19808 net.cpp:156] Memory required for data: 2455862900
I1017 12:36:38.342124 19808 layer_factory.hpp:77] Creating layer loss_Straight_Hair
I1017 12:36:38.342133 19808 net.cpp:91] Creating Layer loss_Straight_Hair
I1017 12:36:38.342139 19808 net.cpp:425] loss_Straight_Hair <- fc3_Straight_Hair
I1017 12:36:38.342144 19808 net.cpp:425] loss_Straight_Hair <- label_Straight_Hair
I1017 12:36:38.342149 19808 net.cpp:399] loss_Straight_Hair -> loss_Straight_Hair
I1017 12:36:38.342195 19808 net.cpp:141] Setting up loss_Straight_Hair
I1017 12:36:38.342201 19808 net.cpp:148] Top shape: (1)
I1017 12:36:38.342205 19808 net.cpp:151]     with loss weight 1
I1017 12:36:38.342209 19808 net.cpp:156] Memory required for data: 2455862904
I1017 12:36:38.342214 19808 layer_factory.hpp:77] Creating layer fc3_Wavy_Hair
I1017 12:36:38.342222 19808 net.cpp:91] Creating Layer fc3_Wavy_Hair
I1017 12:36:38.342227 19808 net.cpp:425] fc3_Wavy_Hair <- fc2_aroundhead_drop2_aroundhead_0_split_12
I1017 12:36:38.342236 19808 net.cpp:399] fc3_Wavy_Hair -> fc3_Wavy_Hair
I1017 12:36:38.342365 19808 net.cpp:141] Setting up fc3_Wavy_Hair
I1017 12:36:38.342375 19808 net.cpp:148] Top shape: 64 2 (128)
I1017 12:36:38.342380 19808 net.cpp:156] Memory required for data: 2455863416
I1017 12:36:38.342386 19808 layer_factory.hpp:77] Creating layer loss_Wavy_Hair
I1017 12:36:38.342396 19808 net.cpp:91] Creating Layer loss_Wavy_Hair
I1017 12:36:38.342401 19808 net.cpp:425] loss_Wavy_Hair <- fc3_Wavy_Hair
I1017 12:36:38.342406 19808 net.cpp:425] loss_Wavy_Hair <- label_Wavy_Hair
I1017 12:36:38.342412 19808 net.cpp:399] loss_Wavy_Hair -> loss_Wavy_Hair
I1017 12:36:38.342458 19808 net.cpp:141] Setting up loss_Wavy_Hair
I1017 12:36:38.342464 19808 net.cpp:148] Top shape: (1)
I1017 12:36:38.342468 19808 net.cpp:151]     with loss weight 1
I1017 12:36:38.342473 19808 net.cpp:156] Memory required for data: 2455863420
I1017 12:36:38.342478 19808 layer_factory.hpp:77] Creating layer fc3_5_o_Clock_Shadow
I1017 12:36:38.342486 19808 net.cpp:91] Creating Layer fc3_5_o_Clock_Shadow
I1017 12:36:38.342490 19808 net.cpp:425] fc3_5_o_Clock_Shadow <- fc2_facialhair_drop2_facialhair_0_split_0
I1017 12:36:38.342499 19808 net.cpp:399] fc3_5_o_Clock_Shadow -> fc3_5_o_Clock_Shadow
I1017 12:36:38.342629 19808 net.cpp:141] Setting up fc3_5_o_Clock_Shadow
I1017 12:36:38.342638 19808 net.cpp:148] Top shape: 64 2 (128)
I1017 12:36:38.342643 19808 net.cpp:156] Memory required for data: 2455863932
I1017 12:36:38.342659 19808 layer_factory.hpp:77] Creating layer loss_5_o_Clock_Shadow
I1017 12:36:38.342672 19808 net.cpp:91] Creating Layer loss_5_o_Clock_Shadow
I1017 12:36:38.342677 19808 net.cpp:425] loss_5_o_Clock_Shadow <- fc3_5_o_Clock_Shadow
I1017 12:36:38.342682 19808 net.cpp:425] loss_5_o_Clock_Shadow <- label_5_o_Clock_Shadow
I1017 12:36:38.342689 19808 net.cpp:399] loss_5_o_Clock_Shadow -> loss_5_o_Clock_Shadow
I1017 12:36:38.342737 19808 net.cpp:141] Setting up loss_5_o_Clock_Shadow
I1017 12:36:38.342744 19808 net.cpp:148] Top shape: (1)
I1017 12:36:38.342747 19808 net.cpp:151]     with loss weight 1
I1017 12:36:38.342753 19808 net.cpp:156] Memory required for data: 2455863936
I1017 12:36:38.342757 19808 layer_factory.hpp:77] Creating layer fc3_Mustache
I1017 12:36:38.342766 19808 net.cpp:91] Creating Layer fc3_Mustache
I1017 12:36:38.342769 19808 net.cpp:425] fc3_Mustache <- fc2_facialhair_drop2_facialhair_0_split_1
I1017 12:36:38.342777 19808 net.cpp:399] fc3_Mustache -> fc3_Mustache
I1017 12:36:38.342902 19808 net.cpp:141] Setting up fc3_Mustache
I1017 12:36:38.342911 19808 net.cpp:148] Top shape: 64 2 (128)
I1017 12:36:38.342916 19808 net.cpp:156] Memory required for data: 2455864448
I1017 12:36:38.342921 19808 layer_factory.hpp:77] Creating layer loss_Mustache
I1017 12:36:38.342931 19808 net.cpp:91] Creating Layer loss_Mustache
I1017 12:36:38.342936 19808 net.cpp:425] loss_Mustache <- fc3_Mustache
I1017 12:36:38.342942 19808 net.cpp:425] loss_Mustache <- label_Mustache
I1017 12:36:38.342948 19808 net.cpp:399] loss_Mustache -> loss_Mustache
I1017 12:36:38.342993 19808 net.cpp:141] Setting up loss_Mustache
I1017 12:36:38.343000 19808 net.cpp:148] Top shape: (1)
I1017 12:36:38.343004 19808 net.cpp:151]     with loss weight 1
I1017 12:36:38.343009 19808 net.cpp:156] Memory required for data: 2455864452
I1017 12:36:38.343014 19808 layer_factory.hpp:77] Creating layer fc3_No_Beard
I1017 12:36:38.343020 19808 net.cpp:91] Creating Layer fc3_No_Beard
I1017 12:36:38.343025 19808 net.cpp:425] fc3_No_Beard <- fc2_facialhair_drop2_facialhair_0_split_2
I1017 12:36:38.343035 19808 net.cpp:399] fc3_No_Beard -> fc3_No_Beard
I1017 12:36:38.343163 19808 net.cpp:141] Setting up fc3_No_Beard
I1017 12:36:38.343171 19808 net.cpp:148] Top shape: 64 2 (128)
I1017 12:36:38.343175 19808 net.cpp:156] Memory required for data: 2455864964
I1017 12:36:38.343181 19808 layer_factory.hpp:77] Creating layer loss_No_Beard
I1017 12:36:38.343194 19808 net.cpp:91] Creating Layer loss_No_Beard
I1017 12:36:38.343197 19808 net.cpp:425] loss_No_Beard <- fc3_No_Beard
I1017 12:36:38.343204 19808 net.cpp:425] loss_No_Beard <- label_No_Beard
I1017 12:36:38.343209 19808 net.cpp:399] loss_No_Beard -> loss_No_Beard
I1017 12:36:38.343255 19808 net.cpp:141] Setting up loss_No_Beard
I1017 12:36:38.343262 19808 net.cpp:148] Top shape: (1)
I1017 12:36:38.343266 19808 net.cpp:151]     with loss weight 1
I1017 12:36:38.343271 19808 net.cpp:156] Memory required for data: 2455864968
I1017 12:36:38.343276 19808 layer_factory.hpp:77] Creating layer fc3_Sideburns
I1017 12:36:38.343284 19808 net.cpp:91] Creating Layer fc3_Sideburns
I1017 12:36:38.343289 19808 net.cpp:425] fc3_Sideburns <- fc2_facialhair_drop2_facialhair_0_split_3
I1017 12:36:38.343297 19808 net.cpp:399] fc3_Sideburns -> fc3_Sideburns
I1017 12:36:38.343428 19808 net.cpp:141] Setting up fc3_Sideburns
I1017 12:36:38.343437 19808 net.cpp:148] Top shape: 64 2 (128)
I1017 12:36:38.343441 19808 net.cpp:156] Memory required for data: 2455865480
I1017 12:36:38.343447 19808 layer_factory.hpp:77] Creating layer loss_Sideburns
I1017 12:36:38.343457 19808 net.cpp:91] Creating Layer loss_Sideburns
I1017 12:36:38.343463 19808 net.cpp:425] loss_Sideburns <- fc3_Sideburns
I1017 12:36:38.343469 19808 net.cpp:425] loss_Sideburns <- label_Sideburns
I1017 12:36:38.343474 19808 net.cpp:399] loss_Sideburns -> loss_Sideburns
I1017 12:36:38.343521 19808 net.cpp:141] Setting up loss_Sideburns
I1017 12:36:38.343528 19808 net.cpp:148] Top shape: (1)
I1017 12:36:38.343531 19808 net.cpp:151]     with loss weight 1
I1017 12:36:38.343547 19808 net.cpp:156] Memory required for data: 2455865484
I1017 12:36:38.343551 19808 layer_factory.hpp:77] Creating layer fc3_Goatee
I1017 12:36:38.343560 19808 net.cpp:91] Creating Layer fc3_Goatee
I1017 12:36:38.343564 19808 net.cpp:425] fc3_Goatee <- fc2_facialhair_drop2_facialhair_0_split_4
I1017 12:36:38.343574 19808 net.cpp:399] fc3_Goatee -> fc3_Goatee
I1017 12:36:38.343704 19808 net.cpp:141] Setting up fc3_Goatee
I1017 12:36:38.343713 19808 net.cpp:148] Top shape: 64 2 (128)
I1017 12:36:38.343718 19808 net.cpp:156] Memory required for data: 2455865996
I1017 12:36:38.343724 19808 layer_factory.hpp:77] Creating layer loss_Goatee
I1017 12:36:38.343734 19808 net.cpp:91] Creating Layer loss_Goatee
I1017 12:36:38.343739 19808 net.cpp:425] loss_Goatee <- fc3_Goatee
I1017 12:36:38.343744 19808 net.cpp:425] loss_Goatee <- label_Goatee
I1017 12:36:38.343751 19808 net.cpp:399] loss_Goatee -> loss_Goatee
I1017 12:36:38.343797 19808 net.cpp:141] Setting up loss_Goatee
I1017 12:36:38.343804 19808 net.cpp:148] Top shape: (1)
I1017 12:36:38.343807 19808 net.cpp:151]     with loss weight 1
I1017 12:36:38.343813 19808 net.cpp:156] Memory required for data: 2455866000
I1017 12:36:38.343817 19808 layer_factory.hpp:77] Creating layer fc3_High_Cheekbones
I1017 12:36:38.343825 19808 net.cpp:91] Creating Layer fc3_High_Cheekbones
I1017 12:36:38.343830 19808 net.cpp:425] fc3_High_Cheekbones <- fc2_cheeks_drop2_cheeks_0_split_0
I1017 12:36:38.343838 19808 net.cpp:399] fc3_High_Cheekbones -> fc3_High_Cheekbones
I1017 12:36:38.343968 19808 net.cpp:141] Setting up fc3_High_Cheekbones
I1017 12:36:38.343977 19808 net.cpp:148] Top shape: 64 2 (128)
I1017 12:36:38.343981 19808 net.cpp:156] Memory required for data: 2455866512
I1017 12:36:38.343987 19808 layer_factory.hpp:77] Creating layer loss_High_Cheekbones
I1017 12:36:38.343997 19808 net.cpp:91] Creating Layer loss_High_Cheekbones
I1017 12:36:38.344002 19808 net.cpp:425] loss_High_Cheekbones <- fc3_High_Cheekbones
I1017 12:36:38.344007 19808 net.cpp:425] loss_High_Cheekbones <- label_High_Cheekbones
I1017 12:36:38.344014 19808 net.cpp:399] loss_High_Cheekbones -> loss_High_Cheekbones
I1017 12:36:38.344061 19808 net.cpp:141] Setting up loss_High_Cheekbones
I1017 12:36:38.344069 19808 net.cpp:148] Top shape: (1)
I1017 12:36:38.344071 19808 net.cpp:151]     with loss weight 1
I1017 12:36:38.344077 19808 net.cpp:156] Memory required for data: 2455866516
I1017 12:36:38.344081 19808 layer_factory.hpp:77] Creating layer fc3_Rosy_Cheeks
I1017 12:36:38.344090 19808 net.cpp:91] Creating Layer fc3_Rosy_Cheeks
I1017 12:36:38.344094 19808 net.cpp:425] fc3_Rosy_Cheeks <- fc2_cheeks_drop2_cheeks_0_split_1
I1017 12:36:38.344105 19808 net.cpp:399] fc3_Rosy_Cheeks -> fc3_Rosy_Cheeks
I1017 12:36:38.344233 19808 net.cpp:141] Setting up fc3_Rosy_Cheeks
I1017 12:36:38.344240 19808 net.cpp:148] Top shape: 64 2 (128)
I1017 12:36:38.344244 19808 net.cpp:156] Memory required for data: 2455867028
I1017 12:36:38.344251 19808 layer_factory.hpp:77] Creating layer loss_Rosy_Cheeks
I1017 12:36:38.344260 19808 net.cpp:91] Creating Layer loss_Rosy_Cheeks
I1017 12:36:38.344265 19808 net.cpp:425] loss_Rosy_Cheeks <- fc3_Rosy_Cheeks
I1017 12:36:38.344270 19808 net.cpp:425] loss_Rosy_Cheeks <- label_Rosy_Cheeks
I1017 12:36:38.344279 19808 net.cpp:399] loss_Rosy_Cheeks -> loss_Rosy_Cheeks
I1017 12:36:38.344324 19808 net.cpp:141] Setting up loss_Rosy_Cheeks
I1017 12:36:38.344331 19808 net.cpp:148] Top shape: (1)
I1017 12:36:38.344334 19808 net.cpp:151]     with loss weight 1
I1017 12:36:38.344339 19808 net.cpp:156] Memory required for data: 2455867032
I1017 12:36:38.344344 19808 layer_factory.hpp:77] Creating layer fc3_Chubby
I1017 12:36:38.344352 19808 net.cpp:91] Creating Layer fc3_Chubby
I1017 12:36:38.344357 19808 net.cpp:425] fc3_Chubby <- fc2_fat_drop2_fat_0_split_0
I1017 12:36:38.344365 19808 net.cpp:399] fc3_Chubby -> fc3_Chubby
I1017 12:36:38.344498 19808 net.cpp:141] Setting up fc3_Chubby
I1017 12:36:38.344507 19808 net.cpp:148] Top shape: 64 2 (128)
I1017 12:36:38.344511 19808 net.cpp:156] Memory required for data: 2455867544
I1017 12:36:38.344527 19808 layer_factory.hpp:77] Creating layer loss_Chubby
I1017 12:36:38.344537 19808 net.cpp:91] Creating Layer loss_Chubby
I1017 12:36:38.344542 19808 net.cpp:425] loss_Chubby <- fc3_Chubby
I1017 12:36:38.344547 19808 net.cpp:425] loss_Chubby <- label_Chubby
I1017 12:36:38.344554 19808 net.cpp:399] loss_Chubby -> loss_Chubby
I1017 12:36:38.344606 19808 net.cpp:141] Setting up loss_Chubby
I1017 12:36:38.344612 19808 net.cpp:148] Top shape: (1)
I1017 12:36:38.344616 19808 net.cpp:151]     with loss weight 1
I1017 12:36:38.344621 19808 net.cpp:156] Memory required for data: 2455867548
I1017 12:36:38.344625 19808 layer_factory.hpp:77] Creating layer fc3_Double_Chin
I1017 12:36:38.344635 19808 net.cpp:91] Creating Layer fc3_Double_Chin
I1017 12:36:38.344640 19808 net.cpp:425] fc3_Double_Chin <- fc2_fat_drop2_fat_0_split_1
I1017 12:36:38.344646 19808 net.cpp:399] fc3_Double_Chin -> fc3_Double_Chin
I1017 12:36:38.345381 19808 net.cpp:141] Setting up fc3_Double_Chin
I1017 12:36:38.345396 19808 net.cpp:148] Top shape: 64 2 (128)
I1017 12:36:38.345399 19808 net.cpp:156] Memory required for data: 2455868060
I1017 12:36:38.345407 19808 layer_factory.hpp:77] Creating layer loss_Double_Chin
I1017 12:36:38.345420 19808 net.cpp:91] Creating Layer loss_Double_Chin
I1017 12:36:38.345425 19808 net.cpp:425] loss_Double_Chin <- fc3_Double_Chin
I1017 12:36:38.345432 19808 net.cpp:425] loss_Double_Chin <- label_Double_Chin
I1017 12:36:38.345438 19808 net.cpp:399] loss_Double_Chin -> loss_Double_Chin
…
