…
    slice_point: 24
    slice_point: 26
    slice_point: 28
    slice_point: 30
    slice_point: 32
    slice_point: 34
    slice_point: 36
    slice_point: 38
    slice_point: 40
    slice_point: 42
    slice_point: 44
    slice_point: 46
    slice_point: 48
    slice_point: 50
    slice_point: 52
    slice_point: 54
    slice_point: 56
    slice_point: 58
    slice_point: 60
    slice_point: 62
    slice_point: 64
    slice_point: 66
    slice_point: 68
    slice_point: 70
    slice_point: 72
    slice_point: 74
    slice_point: 76
    slice_point: 78
  }
}
layer {
  name: "conv1_bn"
  type: "BatchNorm"
  bottom: "conv1"
  top: "conv1"
  batch_norm_param {
    use_global_stats: false
  }
}
layer {
  name: "conv1_scale"
  type: "Scale"
  bottom: "conv1"
  top: "conv1"
  scale_param {
    bias_term: true
  }
}
layer {
  name: "prelu1"
  type: "PReLU"
  bottom: "conv1"
  top: "conv1"
}
layer {
  name: "pool1"
  type: "Pooling"
  bottom: "conv1"
  top: "pool1"
  pooling_param {
    pool: MAX
    kernel_size: 2
    stride: 2
  }
}
layer {
  name: "conv2a"
  type: "Convolution"
  bottom: "pool1"
  top: "conv2a"
  param {
    name: "conv2a_w"
    lr_mult: 1
    decay_mult: 1
  }
  param {
    name: "conv2a_b"
    lr_mult: 2
    decay_mult: 0
  }
  convolution_param {
    num_output: 64
    kernel_size: 1
    weight_filler {
      type: "xavier"
    }
    bias_filler {
      type: "constant"
      value: 0.2
    }
  }
}
layer {
  name: "conv2a_bn"
  type: "BatchNorm"
  bottom: "conv2a"
  top: "conv2a"
  batch_norm_param {
    use_global_stats: false
  }
}
layer {
  name: "conv2a_scale"
  type: "Scale"
  bottom: "conv2a"
  top: "conv2a"
  scale_param {
    bias_term: true
  }
}
layer {
  name: "prelu2a"
  type: "PReLU"
  bottom: "conv2a"
  top: "conv2a"
}
layer {
  name: "conv2"
  type: "Convolution"
  bottom: "conv2a"
  top: "conv2"
  param {
    name: "conv2_w"
    lr_mult: 1
    decay_mult: 1
  }
  param {
    name: "conv2_b"
    lr_mult: 2
    decay_mult: 0
  }
  convolution_param {
    num_output: 192
    pad: 1
    kernel_size: 3
    stride: 1
    weight_filler {
      type: "xavier"
    }
    bias_filler {
      type: "constant"
      value: 0.2
    }
  }
}
layer {
  name: "conv2_bn"
  type: "BatchNorm"
  bottom: "conv2"
  top: "conv2"
  batch_norm_param {
    use_global_stats: false
  }
}
layer {
  name: "conv2_scale"
  type: "Scale"
  bottom: "conv2"
  top: "conv2"
  scale_param {
    bias_term: true
  }
}
layer {
  name: "prelu2"
  type: "PReLU"
  bottom: "conv2"
  top: "conv2"
}
layer {
  name: "pool2"
  type: "Pooling"
  bottom: "conv2"
  top: "pool2"
  pooling_param {
    pool: MAX
    kernel_size: 2
    stride: 2
  }
}
layer {
  name: "conv3a"
  type: "Convolution"
  bottom: "pool2"
  top: "conv3a"
  param {
    name: "conv3a_w"
    lr_mult: 1
    decay_mult: 1
  }
  param {
    name: "conv3a_b"
    lr_mult: 2
    decay_mult: 0
  }
  convolution_param {
    num_output: 192
    kernel_size: 1
    weight_filler {
      type: "xavier"
    }
    bias_filler {
      type: "constant"
      value: 0.2
    }
  }
}
layer {
  name: "conv3a_bn"
  type: "BatchNorm"
  bottom: "conv3a"
  top: "conv3a"
  batch_norm_param {
    use_global_stats: false
  }
}
layer {
  name: "conv3a_scale"
  type: "Scale"
  bottom: "conv3a"
  top: "conv3a"
  scale_param {
    bias_term: true
  }
}
layer {
  name: "prelu3a"
  type: "PReLU"
  bottom: "conv3a"
  top: "conv3a"
}
layer {
  name: "conv3"
  type: "Convolution"
  bottom: "conv3a"
  top: "conv3"
  param {
    name: "conv3_w"
    lr_mult: 1
    decay_mult: 1
  }
  param {
    name: "conv3_b"
    lr_mult: 2
    decay_mult: 0
  }
  convolution_param {
    num_output: 384
    pad: 1
    kernel_size: 3
    stride: 1
    weight_filler {
      type: "xavier"
    }
    bias_filler {
      type: "constant"
      value: 0.2
    }
  }
}
layer {
  name: "conv3_bn"
  type: "BatchNorm"
  bottom: "conv3"
  top: "conv3"
  batch_norm_param {
    use_global_stats: false
  }
}
layer {
  name: "conv3_scale"
  type: "Scale"
  bottom: "conv3"
  top: "conv3"
  scale_param {
    bias_term: true
  }
}
layer {
  name: "prelu3"
  type: "PReLU"
  bottom: "conv3"
  top: "conv3"
}
layer {
  name: "pool3"
  type: "Pooling"
  bottom: "conv3"
  top: "pool3"
  pooling_param {
    pool: MAX
    kernel_size: 2
    stride: 2
  }
}
layer {
  name: "conv3_gender"
  type: "Convolution"
  bottom: "pool3"
  top: "conv3_gender"
  param {
    lr_mult: 1
    decay_mult: 1
  }
  param {
    lr_mult: 2
    decay_mult: 0
  }
  convolution_param {
    num_output: 512
    pad: 1
    kernel_size: 3
    stride: 2
    weight_filler {
      type: "xavier"
    }
    bias_filler {
      type: "constant"
      value: 0.2
    }
  }
}
layer {
  name: "conv3_gender_bn"
  type: "BatchNorm"
  bottom: "conv3_gender"
  top: "conv3_gender"
  batch_norm_param {
    use_global_stats: false
  }
}
layer {
  name: "conv3_gender_scale"
  type: "Scale"
  bottom: "conv3_gender"
  top: "conv3_gender"
  scale_param {
    bias_term: true
  }
}
layer {
  name: "prelu3_gender"
  type: "PReLU"
  bottom: "conv3_gender"
  top: "conv3_gender"
}
layer {
  name: "pool3_gender"
  type: "Pooling"
  bottom: "conv3_gender"
  top: "pool3_gender"
  pooling_param {
    pool: MAX
    kernel_size: 5
    stride: 2
    pad: 2
  }
}
layer {
  name: "fc1_gender"
  type: "InnerProduct"
  bottom: "pool3_gender"
  top: "fc1_gender"
  param {
    lr_mult: 1
    decay_mult: 1
  }
  param {
    lr_mult: 2
    decay_mult: 0
  }
  inner_product_param {
    num_output: 1024
    weight_filler {
      type: "xavier"
    }
    bias_filler {
      type: "constant"
      value: 0.2
    }
  }
}
layer {
  name: "relu1_gender"
  type: "ReLU"
  bottom: "fc1_gender"
  top: "fc1_gender"
}
layer {
  name: "drop1_gender"
  type: "Dropout"
  bottom: "fc1_gender"
  top: "fc1_gender"
  dropout_param {
    dropout_ratio: 0.5
  }
}
layer {
  name: "fc2_gender"
  type: "InnerProduct"
  bottom: "fc1_gender"
  top: "fc2_gender"
  param {
    lr_mult: 1
    decay_mult: 1
  }
  param {
    lr_mult: 2
    decay_mult: 0
  }
  inner_product_param {
    num_output: 1024
    weight_filler {
      type: "xavier"
    }
    bias_filler {
      type: "constant"
      value: 0.2
    }
  }
}
layer {
  name: "relu2_gender"
  type: "ReLU"
  bottom: "fc2_gender"
  top: "fc2_gender"
}
layer {
  name: "drop2_gender"
  type: "Dropout"
  bottom: "fc2_gender"
  top: "fc2_gender"
  dropout_param {
    dropout_ratio: 0.5
  }
}
layer {
  name: "conv3_nose"
  type: "Convolution"
  bottom: "pool3"
  top: "conv3_nose"
  param {
    lr_mult: 1
    decay_mult: 1
  }
  param {
    lr_mult: 2
    decay_mult: 0
  }
  convolution_param {
    num_output: 512
    pad: 1
    kernel_size: 3
    stride: 2
    weight_filler {
      type: "xavier"
    }
    bias_filler {
      type: "constant"
      value: 0.2
    }
  }
}
layer {
  name: "conv3_nose_bn"
  type: "BatchNorm"
  bottom: "conv3_nose"
  top: "conv3_nose"
  batch_norm_param {
    use_global_stats: false
  }
}
layer {
  name: "conv3_nose_scale"
  type: "Scale"
  bottom: "conv3_nose"
  top: "conv3_nose"
  scale_param {
    bias_term: true
  }
}
layer {
  name: "prelu3_nose"
  type: "PReLU"
  bottom: "conv3_nose"
  top: "conv3_nose"
}
layer {
  name: "pool3_nose"
  type: "Pooling"
  bottom: "conv3_nose"
  top: "pool3_nose"
  pooling_param {
    pool: MAX
    kernel_size: 5
    stride: 2
    pad: 2
  }
}
layer {
  name: "fc1_nose"
  type: "InnerProduct"
  bottom: "pool3_nose"
  top: "fc1_nose"
  param {
    lr_mult: 1
    decay_mult: 1
  }
  param {
    lr_mult: 2
    decay_mult: 0
  }
  inner_product_param {
    num_output: 1024
    weight_filler {
      type: "xavier"
    }
    bias_filler {
      type: "constant"
      value: 0.2
    }
  }
}
layer {
  name: "relu1_nose"
  type: "ReLU"
  bottom: "fc1_nose"
  top: "fc1_nose"
}
layer {
  name: "drop1_nose"
  type: "Dropout"
  bottom: "fc1_nose"
  top: "fc1_nose"
  dropout_param {
    dropout_ratio: 0.5
  }
}
layer {
  name: "fc2_nose"
  type: "InnerProduct"
  bottom: "fc1_nose"
  top: "fc2_nose"
  param {
    lr_mult: 1
    decay_mult: 1
  }
  param {
    lr_mult: 2
    decay_mult: 0
  }
  inner_product_param {
    num_output: 1024
    weight_filler {
      type: "xavier"
    }
    bias_filler {
      type: "constant"
      value: 0.2
    }
  }
}
layer {
  name: "relu2_nose"
  type: "ReLU"
  bottom: "fc2_nose"
  top: "fc2_nose"
}
layer {
  name: "drop2_nose"
  type: "Dropout"
  bottom: "fc2_nose"
  top: "fc2_nose"
  dropout_param {
    dropout_ratio: 0.5
  }
}
layer {
  name: "conv3_mouth"
  type: "Convolution"
  bottom: "pool3"
  top: "conv3_mouth"
  param {
    lr_mult: 1
    decay_mult: 1
  }
  param {
    lr_mult: 2
    decay_mult: 0
  }
  convolution_param {
    num_output: 512
    pad: 1
    kernel_size: 3
    stride: 2
    weight_filler {
      type: "xavier"
    }
    bias_filler {
      type: "constant"
      value: 0.2
    }
  }
}
layer {
  name: "conv3_mouth_bn"
  type: "BatchNorm"
  bottom: "conv3_mouth"
  top: "conv3_mouth"
  batch_norm_param {
    use_global_stats: false
  }
}
layer {
  name: "conv3_mouth_scale"
  type: "Scale"
  bottom: "conv3_mouth"
  top: "conv3_mouth"
  scale_param {
    bias_term: true
  }
}
layer {
  name: "prelu3_mouth"
  type: "PReLU"
  bottom: "conv3_mouth"
  top: "conv3_mouth"
}
layer {
  name: "pool3_mouth"
  type: "Pooling"
  bottom: "conv3_mouth"
  top: "pool3_mouth"
  pooling_param {
    pool: MAX
    kernel_size: 5
    stride: 2
    pad: 2
  }
}
layer {
  name: "fc1_mouth"
  type: "InnerProduct"
  bottom: "pool3_mouth"
  top: "fc1_mouth"
  param {
    lr_mult: 1
    decay_mult: 1
  }
  param {
    lr_mult: 2
    decay_mult: 0
  }
  inner_product_param {
    num_output: 1024
    weight_filler {
      type: "xavier"
    }
    bias_filler {
      type: "constant"
      value: 0.2
    }
  }
}
layer {
  name: "relu1_mouth"
  type: "ReLU"
  bottom: "fc1_mouth"
  top: "fc1_mouth"
}
layer {
  name: "drop1_mouth"
  type: "Dropout"
  bottom: "fc1_mouth"
  top: "fc1_mouth"
  dropout_param {
    dropout_ratio: 0.5
  }
}
layer {
  name: "fc2_mouth"
  type: "InnerProduct"
  bottom: "fc1_mouth"
  top: "fc2_mouth"
  param {
    lr_mult: 1
    decay_mult: 1
  }
  param {
    lr_mult: 2
    decay_mult: 0
  }
  inner_product_param {
    num_output: 1024
    weight_filler {
      type: "xavier"
    }
    bias_filler {
      type: "constant"
      value: 0.2
    }
  }
}
layer {
  name: "relu2_mouth"
  type: "ReLU"
  bottom: "fc2_mouth"
  top: "fc2_mouth"
}
layer {
  name: "drop2_mouth"
  type: "Dropout"
  bottom: "fc2_mouth"
  top: "fc2_mouth"
  dropout_param {
    dropout_ratio: 0.5
  }
}
layer {
  name: "conv3_eyes"
  type: "Convolution"
  bottom: "pool3"
  top: "conv3_eyes"
  param {
    lr_mult: 1
    decay_mult: 1
  }
  param {
    lr_mult: 2
    decay_mult: 0
  }
  convolution_param {
    num_output: 512
    pad: 1
    kernel_size: 3
    stride: 2
    weight_filler {
      type: "xavier"
    }
    bias_filler {
      type: "constant"
      value: 0.2
    }
  }
}
layer {
  name: "conv3_eyes_bn"
  type: "BatchNorm"
  bottom: "conv3_eyes"
  top: "conv3_eyes"
  batch_norm_param {
    use_global_stats: false
  }
}
layer {
  name: "conv3_eyes_scale"
  type: "Scale"
  bottom: "conv3_eyes"
  top: "conv3_eyes"
  scale_param {
    bias_term: true
  }
}
layer {
  name: "prelu3_eyes"
  type: "PReLU"
  bottom: "conv3_eyes"
  top: "conv3_eyes"
}
layer {
  name: "pool3_eyes"
  type: "Pooling"
  bottom: "conv3_eyes"
  top: "pool3_eyes"
  pooling_param {
    pool: MAX
    kernel_size: 5
    stride: 2
    pad: 2
  }
}
layer {
  name: "fc1_eyes"
  type: "InnerProduct"
  bottom: "pool3_eyes"
  top: "fc1_eyes"
  param {
    lr_mult: 1
    decay_mult: 1
  }
  param {
    lr_mult: 2
    decay_mult: 0
  }
  inner_product_param {
    num_output: 1024
    weight_filler {
      type: "xavier"
    }
    bias_filler {
      type: "constant"
      value: 0.2
    }
  }
}
layer {
  name: "relu1_eyes"
  type: "ReLU"
  bottom: "fc1_eyes"
  top: "fc1_eyes"
}
layer {
  name: "drop1_eyes"
  type: "Dropout"
  bottom: "fc1_eyes"
  top: "fc1_eyes"
  dropout_param {
    dropout_ratio: 0.5
  }
}
layer {
  name: "fc2_eyes"
  type: "InnerProduct"
  bottom: "fc1_eyes"
  top: "fc2_eyes"
  param {
    lr_mult: 1
    decay_mult: 1
  }
  param {
    lr_mult: 2
    decay_mult: 0
  }
  inner_product_param {
    num_output: 1024
    weight_filler {
      type: "xavier"
    }
    bias_filler {
      type: "constant"
      value: 0.2
    }
  }
}
layer {
  name: "relu2_eyes"
  type: "ReLU"
  bottom: "fc2_eyes"
  top: "fc2_eyes"
}
layer {
  name: "drop2_eyes"
  type: "Dropout"
  bottom: "fc2_eyes"
  top: "fc2_eyes"
  dropout_param {
    dropout_ratio: 0.5
  }
}
layer {
  name: "conv3_face"
  type: "Convolution"
  bottom: "pool3"
  top: "conv3_face"
  param {
    lr_mult: 1
    decay_mult: 1
  }
  param {
    lr_mult: 2
    decay_mult: 0
  }
  convolution_param {
    num_output: 512
    pad: 1
    kernel_size: 3
    stride: 2
    weight_filler {
      type: "xavier"
    }
    bias_filler {
      type: "constant"
      value: 0.2
    }
  }
}
layer {
  name: "conv3_face_bn"
  type: "BatchNorm"
  bottom: "conv3_face"
  top: "conv3_face"
  batch_norm_param {
    use_global_stats: false
  }
}
layer {
  name: "conv3_face_scale"
  type: "Scale"
  bottom: "conv3_face"
  top: "conv3_face"
  scale_param {
    bias_term: true
  }
}
layer {
  name: "prelu3_face"
  type: "PReLU"
  bottom: "conv3_face"
  top: "conv3_face"
}
layer {
  name: "pool3_face"
  type: "Pooling"
  bottom: "conv3_face"
  top: "pool3_face"
  pooling_param {
    pool: MAX
    kernel_size: 5
    stride: 2
    pad: 2
  }
}
layer {
  name: "fc1_face"
  type: "InnerProduct"
  bottom: "pool3_face"
  top: "fc1_face"
  param {
    lr_mult: 1
    decay_mult: 1
  }
  param {
    lr_mult: 2
    decay_mult: 0
  }
  inner_product_param {
    num_output: 1024
    weight_filler {
      type: "xavier"
    }
    bias_filler {
      type: "constant"
      value: 0.2
    }
  }
}
layer {
  name: "relu1_face"
  type: "ReLU"
  bottom: "fc1_face"
  top: "fc1_face"
}
layer {
  name: "drop1_face"
  type: "Dropout"
  bottom: "fc1_face"
  top: "fc1_face"
  dropout_param {
    dropout_ratio: 0.5
  }
}
layer {
  name: "fc2_face"
  type: "InnerProduct"
  bottom: "fc1_face"
  top: "fc2_face"
  param {
    lr_mult: 1
    decay_mult: 1
  }
  param {
    lr_mult: 2
    decay_mult: 0
  }
  inner_product_param {
    num_output: 1024
    weight_filler {
      type: "xavier"
    }
    bias_filler {
      type: "constant"
      value: 0.2
    }
  }
}
layer {
  name: "relu2_face"
  type: "ReLU"
  bottom: "fc2_face"
  top: "fc2_face"
}
layer {
  name: "drop2_face"
  type: "Dropout"
  bottom: "fc2_face"
  top: "fc2_face"
  dropout_param {
    dropout_ratio: 0.5
  }
}
layer {
  name: "conv3_rest"
  type: "Convolution"
  bottom: "pool3"
  top: "conv3_rest"
  param {
    lr_mult: 1
    decay_mult: 1
  }
  param {
    lr_mult: 2
    decay_mult: 0
  }
  convolution_param {
    num_output: 512
    pad: 1
    kernel_size: 3
    stride: 2
    weight_filler {
      type: "xavier"
    }
    bias_filler {
      type: "constant"
      value: 0.2
    }
  }
}
layer {
  name: "conv3_rest_bn"
  type: "BatchNorm"
  bottom: "conv3_rest"
  top: "conv3_rest"
  batch_norm_param {
    use_global_stats: false
  }
}
layer {
  name: "conv3_rest_scale"
  type: "Scale"
  bottom: "conv3_rest"
  top: "conv3_rest"
  scale_param {
    bias_term: true
  }
}
layer {
  name: "prelu3_rest"
  type: "PReLU"
  bottom: "conv3_rest"
  top: "conv3_rest"
}
layer {
  name: "pool3_rest"
  type: "Pooling"
  bottom: "conv3_rest"
  top: "pool3_rest"
  pooling_param {
    pool: MAX
    kernel_size: 5
    stride: 2
    pad: 2
  }
}
layer {
  name: "fc1_aroundhead"
  type: "InnerProduct"
  bottom: "pool3_rest"
  top: "fc1_aroundhead"
  param {
    lr_mult: 1
    decay_mult: 1
  }
  param {
    lr_mult: 2
    decay_mult: 0
  }
  inner_product_param {
    num_output: 1024
    weight_filler {
      type: "xavier"
    }
    bias_filler {
      type: "constant"
      value: 0.2
    }
  }
}
layer {
  name: "relu1_aroundhead"
  type: "ReLU"
  bottom: "fc1_aroundhead"
  top: "fc1_aroundhead"
}
layer {
  name: "drop1_aroundhead"
  type: "Dropout"
  bottom: "fc1_aroundhead"
  top: "fc1_aroundhead"
  dropout_param {
    dropout_ratio: 0.5
  }
}
layer {
  name: "fc2_aroundhead"
  type: "InnerProduct"
  bottom: "fc1_aroundhead"
  top: "fc2_aroundhead"
  param {
    lr_mult: 1
    decay_mult: 1
  }
  param {
    lr_mult: 2
    decay_mult: 0
  }
  inner_product_param {
    num_output: 1024
    weight_filler {
      type: "xavier"
    }
    bias_filler {
      type: "constant"
      value: 0.2
    }
  }
}
layer {
  name: "relu2_aroundhead"
  type: "ReLU"
  bottom: "fc2_aroundhead"
  top: "fc2_aroundhead"
}
layer {
  name: "drop2_aroundhead"
  type: "Dropout"
  bottom: "fc2_aroundhead"
  top: "fc2_aroundhead"
  dropout_param {
    dropout_ratio: 0.5
  }
}
layer {
  name: "fc1_facialhair"
  type: "InnerProduct"
  bottom: "pool3_rest"
  top: "fc1_facialhair"
  param {
    lr_mult: 1
    decay_mult: 1
  }
  param {
    lr_mult: 2
    decay_mult: 0
  }
  inner_product_param {
    num_output: 1024
    weight_filler {
      type: "xavier"
    }
    bias_filler {
      type: "constant"
      value: 0.2
    }
  }
}
layer {
  name: "relu1_facialhair"
  type: "ReLU"
  bottom: "fc1_facialhair"
  top: "fc1_facialhair"
}
layer {
  name: "drop1_facialhair"
  type: "Dropout"
  bottom: "fc1_facialhair"
  top: "fc1_facialhair"
  dropout_param {
    dropout_ratio: 0.5
  }
}
layer {
  name: "fc2_facialhair"
  type: "InnerProduct"
  bottom: "fc1_facialhair"
  top: "fc2_facialhair"
  param {
    lr_mult: 1
    decay_mult: 1
  }
  param {
    lr_mult: 2
    decay_mult: 0
  }
  inner_product_param {
    num_output: 1024
    weight_filler {
      type: "xavier"
    }
    bias_filler {
      type: "constant"
      value: 0.2
    }
  }
}
layer {
  name: "relu2_facialhair"
  type: "ReLU"
  bottom: "fc2_facialhair"
  top: "fc2_facialhair"
}
layer {
  name: "drop2_facialhair"
  type: "Dropout"
  bottom: "fc2_facialhair"
  top: "fc2_facialhair"
  dropout_param {
    dropout_ratio: 0.5
  }
}
layer {
  name: "fc1_cheeks"
  type: "InnerProduct"
  bottom: "pool3_rest"
  top: "fc1_cheeks"
  param {
    lr_mult: 1
    decay_mult: 1
  }
  param {
    lr_mult: 2
    decay_mult: 0
  }
  inner_product_param {
    num_output: 1024
    weight_filler {
      type: "xavier"
    }
    bias_filler {
      type: "constant"
      value: 0.2
    }
  }
}
layer {
  name: "relu1_cheeks"
  type: "ReLU"
  bottom: "fc1_cheeks"
  top: "fc1_cheeks"
}
layer {
  name: "drop1_cheeks"
  type: "Dropout"
  bottom: "fc1_cheeks"
  top: "fc1_cheeks"
  dropout_param {
    dropout_ratio: 0.5
  }
}
layer {
  name: "fc2_cheeks"
  type: "InnerProduct"
  bottom: "fc1_cheeks"
  top: "fc2_cheeks"
  param {
    lr_mult: 1
    decay_mult: 1
  }
  param {
    lr_mult: 2
    decay_mult: 0
  }
  inner_product_param {
    num_output: 1024
    weight_filler {
      type: "xavier"
    }
    bias_filler {
      type: "constant"
      value: 0.2
    }
  }
}
layer {
  name: "relu2_cheeks"
  type: "ReLU"
  bottom: "fc2_cheeks"
  top: "fc2_cheeks"
}
layer {
  name: "drop2_cheeks"
  type: "Dropout"
  bottom: "fc2_cheeks"
  top: "fc2_cheeks"
  dropout_param {
    dropout_ratio: 0.5
  }
}
layer {
  name: "fc1_fat"
  type: "InnerProduct"
  bottom: "pool3_rest"
  top: "fc1_fat"
  param {
    lr_mult: 1
    decay_mult: 1
  }
  param {
    lr_mult: 2
    decay_mult: 0
  }
  inner_product_param {
    num_output: 1024
    weight_filler {
      type: "xavier"
    }
    bias_filler {
      type: "constant"
      value: 0.2
    }
  }
}
layer {
  name: "relu1_fat"
  type: "ReLU"
  bottom: "fc1_fat"
  top: "fc1_fat"
}
layer {
  name: "drop1_fat"
  type: "Dropout"
  bottom: "fc1_fat"
  top: "fc1_fat"
  dropout_param {
    dropout_ratio: 0.5
  }
}
layer {
  name: "fc2_fat"
  type: "InnerProduct"
  bottom: "fc1_fat"
  top: "fc2_fat"
  param {
    lr_mult: 1
    decay_mult: 1
  }
  param {
    lr_mult: 2
    decay_mult: 0
  }
  inner_product_param {
    num_output: 1024
    weight_filler {
      type: "xavier"
    }
    bias_filler {
      type: "constant"
      value: 0.2
    }
  }
}
layer {
  name: "relu2_fat"
  type: "ReLU"
  bottom: "fc2_fat"
  top: "fc2_fat"
}
layer {
  name: "drop2_fat"
  type: "Dropout"
  bottom: "fc2_fat"
  top: "fc2_fat"
  dropout_param {
    dropout_ratio: 0.5
  }
}
layer {
  name: "fc3_Male"
  type: "InnerProduct"
  bottom: "fc2_gender"
  top: "fc3_Male"
  inner_product_param {
    num_output: 2
    weight_filler {
      type: "xavier"
    }
    bias_filler {
      type: "constant"
      value: 0
    }
  }
}
layer {
  name: "loss_Male"
  type: "SigmoidCrossEntropyLoss"
  bottom: "fc3_Male"
  bottom: "label_Male"
  top: "loss_Male"
}
layer {
  name: "fc3_Big_Nose"
  type: "InnerProduct"
  bottom: "fc2_nose"
  top: "fc3_Big_Nose"
  inner_product_param {
    num_output: 2
    weight_filler {
      type: "xavier"
    }
    bias_filler {
      type: "constant"
      value: 0
    }
  }
}
layer {
  name: "loss_Big_Nose"
  type: "SigmoidCrossEntropyLoss"
  bottom: "fc3_Big_Nose"
  bottom: "label_Big_Nose"
  top: "loss_Big_Nose"
}
layer {
  name: "fc3_Pointy_Nose"
  type: "InnerProduct"
  bottom: "fc2_nose"
  top: "fc3_Pointy_Nose"
  inner_product_param {
    num_output: 2
    weight_filler {
      type: "xavier"
    }
    bias_filler {
      type: "constant"
      value: 0
    }
  }
}
layer {
  name: "loss_Pointy_Nose"
  type: "SigmoidCrossEntropyLoss"
  bottom: "fc3_Pointy_Nose"
  bottom: "label_Pointy_Nose"
  top: "loss_Pointy_Nose"
}
layer {
  name: "fc3_Big_Lips"
  type: "InnerProduct"
  bottom: "fc2_mouth"
  top: "fc3_Big_Lips"
  inner_product_param {
    num_output: 2
    weight_filler {
      type: "xavier"
    }
    bias_filler {
      type: "constant"
      value: 0
    }
  }
}
layer {
  name: "loss_Big_Lips"
  type: "SigmoidCrossEntropyLoss"
  bottom: "fc3_Big_Lips"
  bottom: "label_Big_Lips"
  top: "loss_Big_Lips"
}
layer {
  name: "fc3_Smiling"
  type: "InnerProduct"
  bottom: "fc2_mouth"
  top: "fc3_Smiling"
  inner_product_param {
    num_output: 2
    weight_filler {
      type: "xavier"
    }
    bias_filler {
      type: "constant"
      value: 0
    }
  }
}
layer {
  name: "loss_Smiling"
  type: "SigmoidCrossEntropyLoss"
  bottom: "fc3_Smiling"
  bottom: "label_Smiling"
  top: "loss_Smiling"
}
layer {
  name: "fc3_Wearing_Lipstick"
  type: "InnerProduct"
  bottom: "fc2_mouth"
  top: "fc3_Wearing_Lipstick"
  inner_product_param {
    num_output: 2
    weight_filler {
      type: "xavier"
    }
    bias_filler {
      type: "constant"
      value: 0
    }
  }
}
layer {
  name: "loss_Wearing_Lipstick"
  type: "SigmoidCrossEntropyLoss"
  bottom: "fc3_Wearing_Lipstick"
  bottom: "label_Wearing_Lipstick"
  top: "loss_Wearing_Lipstick"
}
layer {
  name: "fc3_Mouth_Slightly_Open"
  type: "InnerProduct"
  bottom: "fc2_mouth"
  top: "fc3_Mouth_Slightly_Open"
  inner_product_param {
    num_output: 2
    weight_filler {
      type: "xavier"
    }
    bias_filler {
      type: "constant"
      value: 0
    }
  }
}
layer {
  name: "loss_Mouth_Slightly_Open"
  type: "SigmoidCrossEntropyLoss"
  bottom: "fc3_Mouth_Slightly_Open"
  bottom: "label_Mouth_Slightly_Open"
  top: "loss_Mouth_Slightly_Open"
}
layer {
  name: "fc3_Arched_Eyebrows"
  type: "InnerProduct"
  bottom: "fc2_eyes"
  top: "fc3_Arched_Eyebrows"
  inner_product_param {
    num_output: 2
    weight_filler {
      type: "xavier"
    }
    bias_filler {
      type: "constant"
      value: 0
    }
  }
}
layer {
  name: "loss_Arched_Eyebrows"
  type: "SigmoidCrossEntropyLoss"
  bottom: "fc3_Arched_Eyebrows"
  bottom: "label_Arched_Eyebrows"
  top: "loss_Arched_Eyebrows"
}
layer {
  name: "fc3_Bags_Under_Eyes"
  type: "InnerProduct"
  bottom: "fc2_eyes"
  top: "fc3_Bags_Under_Eyes"
  inner_product_param {
    num_output: 2
    weight_filler {
      type: "xavier"
    }
    bias_filler {
      type: "constant"
      value: 0
    }
  }
}
layer {
  name: "loss_Bags_Under_Eyes"
  type: "SigmoidCrossEntropyLoss"
  bottom: "fc3_Bags_Under_Eyes"
  bottom: "label_Bags_Under_Eyes"
  top: "loss_Bags_Under_Eyes"
}
layer {
  name: "fc3_Bushy_Eyebrows"
  type: "InnerProduct"
  bottom: "fc2_eyes"
  top: "fc3_Bushy_Eyebrows"
  inner_product_param {
    num_output: 2
    weight_filler {
      type: "xavier"
    }
    bias_filler {
      type: "constant"
      value: 0
    }
  }
}
layer {
  name: "loss_Bushy_Eyebrows"
  type: "SigmoidCrossEntropyLoss"
  bottom: "fc3_Bushy_Eyebrows"
  bottom: "label_Bushy_Eyebrows"
  top: "loss_Bushy_Eyebrows"
}
layer {
  name: "fc3_Narrow_Eyes"
  type: "InnerProduct"
  bottom: "fc2_eyes"
  top: "fc3_Narrow_Eyes"
  inner_product_param {
    num_output: 2
    weight_filler {
      type: "xavier"
    }
    bias_filler {
      type: "constant"
      value: 0
    }
  }
}
layer {
  name: "loss_Narrow_Eyes"
  type: "SigmoidCrossEntropyLoss"
  bottom: "fc3_Narrow_Eyes"
  bottom: "label_Narrow_Eyes"
  top: "loss_Narrow_Eyes"
}
layer {
  name: "fc3_Eyeglasses"
  type: "InnerProduct"
  bottom: "fc2_eyes"
  top: "fc3_Eyeglasses"
  inner_product_param {
    num_output: 2
    weight_filler {
      type: "xavier"
    }
    bias_filler {
      type: "constant"
      value: 0
    }
  }
}
layer {
  name: "loss_Eyeglasses"
  type: "SigmoidCrossEntropyLoss"
  bottom: "fc3_Eyeglasses"
  bottom: "label_Eyeglasses"
  top: "loss_Eyeglasses"
}
layer {
  name: "fc3_Attractive"
  type: "InnerProduct"
  bottom: "fc2_face"
  top: "fc3_Attractive"
  inner_product_param {
    num_output: 2
    weight_filler {
      type: "xavier"
    }
    bias_filler {
      type: "constant"
      value: 0
    }
  }
}
layer {
  name: "loss_Attractive"
  type: "SigmoidCrossEntropyLoss"
  bottom: "fc3_Attractive"
  bottom: "label_Attractive"
  top: "loss_Attractive"
}
layer {
  name: "fc3_Blurry"
  type: "InnerProduct"
  bottom: "fc2_face"
  top: "fc3_Blurry"
  inner_product_param {
    num_output: 2
    weight_filler {
      type: "xavier"
    }
    bias_filler {
      type: "constant"
      value: 0
    }
  }
}
layer {
  name: "loss_Blurry"
  type: "SigmoidCrossEntropyLoss"
  bottom: "fc3_Blurry"
  bottom: "label_Blurry"
  top: "loss_Blurry"
}
layer {
  name: "fc3_Oval_Face"
  type: "InnerProduct"
  bottom: "fc2_face"
  top: "fc3_Oval_Face"
  inner_product_param {
    num_output: 2
    weight_filler {
      type: "xavier"
    }
    bias_filler {
      type: "constant"
      value: 0
    }
  }
}
layer {
  name: "loss_Oval_Face"
  type: "SigmoidCrossEntropyLoss"
  bottom: "fc3_Oval_Face"
  bottom: "label_Oval_Face"
  top: "loss_Oval_Face"
}
layer {
  name: "fc3_Pale_Skin"
  type: "InnerProduct"
  bottom: "fc2_face"
  top: "fc3_Pale_Skin"
  inner_product_param {
    num_output: 2
    weight_filler {
      type: "xavier"
    }
    bias_filler {
      type: "constant"
      value: 0
    }
  }
}
layer {
  name: "loss_Pale_Skin"
  type: "SigmoidCrossEntropyLoss"
  bottom: "fc3_Pale_Skin"
  bottom: "label_Pale_Skin"
  top: "loss_Pale_Skin"
}
layer {
  name: "fc3_Young"
  type: "InnerProduct"
  bottom: "fc2_face"
  top: "fc3_Young"
  inner_product_param {
    num_output: 2
    weight_filler {
      type: "xavier"
    }
    bias_filler {
      type: "constant"
      value: 0
    }
  }
}
layer {
  name: "loss_Young"
  type
I1025 10:56:33.434015 20556 layer_factory.hpp:77] Creating layer data
I1025 10:56:33.434080 20556 net.cpp:106] Creating Layer data
I1025 10:56:33.434098 20556 net.cpp:411] data -> data
I1025 10:56:33.434139 20556 net.cpp:411] data -> label
I1025 10:56:33.434156 20556 data_transformer.cpp:26] Loading mean file from: /home/zhangyuan/caojiajiong/attribute_learning/data/train_attr_id.binaryproto
I1025 10:56:33.450429 20556 image_data_layer.cpp:38] Opening file /home/zhangyuan/caojiajiong/attribute_learning/list/train_45p_shuffle.txt
I1025 10:56:33.471412 20556 image_data_layer.cpp:53] A total of 49685 images.
I1025 10:56:33.472510 20556 image_data_layer.cpp:80] output data size: 70,3,112,112
I1025 10:56:33.494452 20556 net.cpp:150] Setting up data
I1025 10:56:33.494500 20556 net.cpp:157] Top shape: 70 3 112 112 (2634240)
I1025 10:56:33.494508 20556 net.cpp:157] Top shape: 70 (70)
I1025 10:56:33.494513 20556 net.cpp:165] Memory required for data: 10537240
I1025 10:56:33.494526 20556 layer_factory.hpp:77] Creating layer label_data_1_split
I1025 10:56:33.494557 20556 net.cpp:106] Creating Layer label_data_1_split
I1025 10:56:33.494566 20556 net.cpp:454] label_data_1_split <- label
I1025 10:56:33.494583 20556 net.cpp:411] label_data_1_split -> label_data_1_split_0
I1025 10:56:33.494601 20556 net.cpp:411] label_data_1_split -> label_data_1_split_1
I1025 10:56:33.494701 20556 net.cpp:150] Setting up label_data_1_split
I1025 10:56:33.494712 20556 net.cpp:157] Top shape: 70 (70)
I1025 10:56:33.494717 20556 net.cpp:157] Top shape: 70 (70)
I1025 10:56:33.494721 20556 net.cpp:165] Memory required for data: 10537800
I1025 10:56:33.494725 20556 layer_factory.hpp:77] Creating layer attr_data
I1025 10:56:33.494875 20556 net.cpp:106] Creating Layer attr_data
I1025 10:56:33.494889 20556 net.cpp:411] attr_data -> attr_data
I1025 10:56:33.494902 20556 net.cpp:411] attr_data -> fakelabel
I1025 10:56:33.498921 20561 db_lmdb.cpp:38] Opened lmdb /home/zhangyuan/caojiajiong/attribute_learning/data/attr_train_45p
I1025 10:56:33.499200 20556 data_layer.cpp:41] output data size: 70,80,1,1
I1025 10:56:33.500344 20556 net.cpp:150] Setting up attr_data
I1025 10:56:33.500362 20556 net.cpp:157] Top shape: 70 80 1 1 (5600)
I1025 10:56:33.500370 20556 net.cpp:157] Top shape: 70 (70)
I1025 10:56:33.500375 20556 net.cpp:165] Memory required for data: 10560480
I1025 10:56:33.500380 20556 layer_factory.hpp:77] Creating layer conv1
I1025 10:56:33.500407 20556 net.cpp:106] Creating Layer conv1
I1025 10:56:33.500412 20556 net.cpp:454] conv1 <- data
I1025 10:56:33.500424 20556 net.cpp:411] conv1 -> conv1
I1025 10:56:33.736191 20556 net.cpp:150] Setting up conv1
I1025 10:56:33.736232 20556 net.cpp:157] Top shape: 70 64 112 112 (56197120)
I1025 10:56:33.736238 20556 net.cpp:165] Memory required for data: 235348960
I1025 10:56:33.736263 20556 layer_factory.hpp:77] Creating layer slice
I1025 10:56:33.736299 20556 net.cpp:106] Creating Layer slice
I1025 10:56:33.736305 20556 net.cpp:454] slice <- attr_data
I1025 10:56:33.736316 20556 net.cpp:411] slice -> label_5_o_Clock_Shadow
I1025 10:56:33.736335 20556 net.cpp:411] slice -> label_Arched_Eyebrows
…
I1025 10:56:33.736644 20556 net.cpp:411] slice -> label_Straight_Hair
I1025 10:56:33.736654 20556 net.cpp:411] slice -> label_Wavy_Hair
I1025 10:56:33.736665 20556 net.cpp:411] slice -> label_Wearing_Earrings
I1025 10:56:33.736675 20556 net.cpp:411] slice -> label_Wearing_Hat
I1025 10:56:33.736707 20556 net.cpp:411] slice -> label_Wearing_Lipstick
I1025 10:56:33.736718 20556 net.cpp:411] slice -> label_Wearing_Necklace
I1025 10:56:33.736728 20556 net.cpp:411] slice -> label_Wearing_Necktie
I1025 10:56:33.736738 20556 net.cpp:411] slice -> label_Young
I1025 10:56:33.737217 20556 net.cpp:150] Setting up slice
I1025 10:56:33.737229 20556 net.cpp:157] Top shape: 70 2 1 1 (140)
I1025 10:56:33.737236 20556 net.cpp:157] Top shape: 70 2 1 1 (140)
I1025 10:56:33.737241 20556 net.cpp:157] Top shape: 70 2 1 1 (140)
I1025 10:56:33.737246 20556 net.cpp:157] Top shape: 70 2 1 1 (140)
I1025 10:56:33.737249 20556 net.cpp:157] Top shape: 70 2 1 1 (140)
I1025 10:56:33.737254 20556 net.cpp:157] Top shape: 70 2 1 1 (140)
I1025 10:56:33.737259 20556 net.cpp:157] Top shape: 70 2 1 1 (140)
I1025 10:56:33.737263 20556 net.cpp:157] Top shape: 70 2 1 1 (140)
I1025 10:56:33.737268 20556 net.cpp:157] Top shape: 70 2 1 1 (140)
I1025 10:56:33.737273 20556 net.cpp:157] Top shape: 70 2 1 1 (140)
I1025 10:56:33.737277 20556 net.cpp:157] Top shape: 70 2 1 1 (140)
I1025 10:56:33.737282 20556 net.cpp:157] Top shape: 70 2 1 1 (140)
I1025 10:56:33.737287 20556 net.cpp:157] Top shape: 70 2 1 1 (140)
I1025 10:56:33.737292 20556 net.cpp:157] Top shape: 70 2 1 1 (140)
I1025 10:56:33.737295 20556 net.cpp:157] Top shape: 70 2 1 1 (140)
I1025 10:56:33.737300 20556 net.cpp:157] Top shape: 70 2 1 1 (140)
I1025 10:56:33.737305 20556 net.cpp:157] Top shape: 70 2 1 1 (140)
I1025 10:56:33.737309 20556 net.cpp:157] Top shape: 70 2 1 1 (140)
I1025 10:56:33.737314 20556 net.cpp:157] Top shape: 70 2 1 1 (140)
I1025 10:56:33.737318 20556 net.cpp:157] Top shape: 70 2 1 1 (140)
I1025 10:56:33.737323 20556 net.cpp:157] Top shape: 70 2 1 1 (140)
I1025 10:56:33.737327 20556 net.cpp:157] Top shape: 70 2 1 1 (140)
I1025 10:56:33.737332 20556 net.cpp:157] Top shape: 70 2 1 1 (140)
I1025 10:56:33.737337 20556 net.cpp:157] Top shape: 70 2 1 1 (140)
I1025 10:56:33.737341 20556 net.cpp:157] Top shape: 70 2 1 1 (140)
I1025 10:56:33.737346 20556 net.cpp:157] Top shape: 70 2 1 1 (140)
I1025 10:56:33.737351 20556 net.cpp:157] Top shape: 70 2 1 1 (140)
I1025 10:56:33.737355 20556 net.cpp:157] Top shape: 70 2 1 1 (140)
I1025 10:56:33.737360 20556 net.cpp:157] Top shape: 70 2 1 1 (140)
I1025 10:56:33.737365 20556 net.cpp:157] Top shape: 70 2 1 1 (140)
I1025 10:56:33.737368 20556 net.cpp:157] Top shape: 70 2 1 1 (140)
I1025 10:56:33.737373 20556 net.cpp:157] Top shape: 70 2 1 1 (140)
I1025 10:56:33.737377 20556 net.cpp:157] Top shape: 70 2 1 1 (140)
I1025 10:56:33.737382 20556 net.cpp:157] Top shape: 70 2 1 1 (140)
I1025 10:56:33.737386 20556 net.cpp:157] Top shape: 70 2 1 1 (140)
I1025 10:56:33.737391 20556 net.cpp:157] Top shape: 70 2 1 1 (140)
I1025 10:56:33.737396 20556 net.cpp:157] Top shape: 70 2 1 1 (140)
I1025 10:56:33.737401 20556 net.cpp:157] Top shape: 70 2 1 1 (140)
I1025 10:56:33.737404 20556 net.cpp:157] Top shape: 70 2 1 1 (140)
I1025 10:56:33.737411 20556 net.cpp:157] Top shape: 70 2 1 1 (140)
I1025 10:56:33.737416 20556 net.cpp:165] Memory required for data: 235371360
I1025 10:56:33.737419 20556 layer_factory.hpp:77] Creating layer conv1_bn
I1025 10:56:33.737429 20556 net.cpp:106] Creating Layer conv1_bn
I1025 10:56:33.737434 20556 net.cpp:454] conv1_bn <- conv1
I1025 10:56:33.737440 20556 net.cpp:397] conv1_bn -> conv1 (in-place)
I1025 10:56:33.737655 20556 net.cpp:150] Setting up conv1_bn
I1025 10:56:33.737666 20556 net.cpp:157] Top shape: 70 64 112 112 (56197120)
I1025 10:56:33.737670 20556 net.cpp:165] Memory required for data: 460159840
I1025 10:56:33.737685 20556 layer_factory.hpp:77] Creating layer conv1_scale
I1025 10:56:33.737704 20556 net.cpp:106] Creating Layer conv1_scale
I1025 10:56:33.737707 20556 net.cpp:454] conv1_scale <- conv1
I1025 10:56:33.737714 20556 net.cpp:397] conv1_scale -> conv1 (in-place)
I1025 10:56:33.737771 20556 layer_factory.hpp:77] Creating layer conv1_scale
I1025 10:56:33.737938 20556 net.cpp:150] Setting up conv1_scale
I1025 10:56:33.737951 20556 net.cpp:157] Top shape: 70 64 112 112 (56197120)
I1025 10:56:33.737974 20556 net.cpp:165] Memory required for data: 684948320
I1025 10:56:33.737983 20556 layer_factory.hpp:77] Creating layer prelu1
I1025 10:56:33.737992 20556 net.cpp:106] Creating Layer prelu1
I1025 10:56:33.737995 20556 net.cpp:454] prelu1 <- conv1
I1025 10:56:33.738001 20556 net.cpp:397] prelu1 -> conv1 (in-place)
I1025 10:56:33.740519 20556 net.cpp:150] Setting up prelu1
I1025 10:56:33.740537 20556 net.cpp:157] Top shape: 70 64 112 112 (56197120)
I1025 10:56:33.740542 20556 net.cpp:165] Memory required for data: 909736800
I1025 10:56:33.740550 20556 layer_factory.hpp:77] Creating layer pool1
I1025 10:56:33.740561 20556 net.cpp:106] Creating Layer pool1
I1025 10:56:33.740566 20556 net.cpp:454] pool1 <- conv1
I1025 10:56:33.740573 20556 net.cpp:411] pool1 -> pool1
I1025 10:56:33.740988 20556 net.cpp:150] Setting up pool1
I1025 10:56:33.741008 20556 net.cpp:157] Top shape: 70 64 56 56 (14049280)
I1025 10:56:33.741013 20556 net.cpp:165] Memory required for data: 965933920
I1025 10:56:33.741017 20556 layer_factory.hpp:77] Creating layer conv2a
I1025 10:56:33.741030 20556 net.cpp:106] Creating Layer conv2a
I1025 10:56:33.741035 20556 net.cpp:454] conv2a <- pool1
I1025 10:56:33.741044 20556 net.cpp:411] conv2a -> conv2a
I1025 10:56:33.742197 20556 net.cpp:150] Setting up conv2a
I1025 10:56:33.742216 20556 net.cpp:157] Top shape: 70 64 56 56 (14049280)
I1025 10:56:33.742221 20556 net.cpp:165] Memory required for data: 1022131040
I1025 10:56:33.742233 20556 layer_factory.hpp:77] Creating layer conv2a_bn
I1025 10:56:33.742241 20556 net.cpp:106] Creating Layer conv2a_bn
I1025 10:56:33.742246 20556 net.cpp:454] conv2a_bn <- conv2a
I1025 10:56:33.742252 20556 net.cpp:397] conv2a_bn -> conv2a (in-place)
I1025 10:56:33.742460 20556 net.cpp:150] Setting up conv2a_bn
I1025 10:56:33.742470 20556 net.cpp:157] Top shape: 70 64 56 56 (14049280)
I1025 10:56:33.742475 20556 net.cpp:165] Memory required for data: 1078328160
I1025 10:56:33.742485 20556 layer_factory.hpp:77] Creating layer conv2a_scale
I1025 10:56:33.742492 20556 net.cpp:106] Creating Layer conv2a_scale
I1025 10:56:33.742496 20556 net.cpp:454] conv2a_scale <- conv2a
I1025 10:56:33.742502 20556 net.cpp:397] conv2a_scale -> conv2a (in-place)
I1025 10:56:33.742547 20556 layer_factory.hpp:77] Creating layer conv2a_scale
I1025 10:56:33.742684 20556 net.cpp:150] Setting up conv2a_scale
I1025 10:56:33.742696 20556 net.cpp:157] Top shape: 70 64 56 56 (14049280)
I1025 10:56:33.742699 20556 net.cpp:165] Memory required for data: 1134525280
I1025 10:56:33.742707 20556 layer_factory.hpp:77] Creating layer prelu2a
I1025 10:56:33.742713 20556 net.cpp:106] Creating Layer prelu2a
I1025 10:56:33.742718 20556 net.cpp:454] prelu2a <- conv2a
I1025 10:56:33.742723 20556 net.cpp:397] prelu2a -> conv2a (in-place)
I1025 10:56:33.743715 20556 net.cpp:150] Setting up prelu2a
I1025 10:56:33.743732 20556 net.cpp:157] Top shape: 70 64 56 56 (14049280)
I1025 10:56:33.743737 20556 net.cpp:165] Memory required for data: 1190722400
I1025 10:56:33.743744 20556 layer_factory.hpp:77] Creating layer conv2
I1025 10:56:33.743757 20556 net.cpp:106] Creating Layer conv2
I1025 10:56:33.743763 20556 net.cpp:454] conv2 <- conv2a
I1025 10:56:33.743782 20556 net.cpp:411] conv2 -> conv2
I1025 10:56:33.746415 20556 net.cpp:150] Setting up conv2
I1025 10:56:33.746435 20556 net.cpp:157] Top shape: 70 192 56 56 (42147840)
I1025 10:56:33.746439 20556 net.cpp:165] Memory required for data: 1359313760
I1025 10:56:33.746454 20556 layer_factory.hpp:77] Creating layer conv2_bn
I1025 10:56:33.746465 20556 net.cpp:106] Creating Layer conv2_bn
I1025 10:56:33.746470 20556 net.cpp:454] conv2_bn <- conv2
I1025 10:56:33.746476 20556 net.cpp:397] conv2_bn -> conv2 (in-place)
I1025 10:56:33.746707 20556 net.cpp:150] Setting up conv2_bn
I1025 10:56:33.746719 20556 net.cpp:157] Top shape: 70 192 56 56 (42147840)
I1025 10:56:33.746723 20556 net.cpp:165] Memory required for data: 1527905120
I1025 10:56:33.746733 20556 layer_factory.hpp:77] Creating layer conv2_scale
I1025 10:56:33.746742 20556 net.cpp:106] Creating Layer conv2_scale
I1025 10:56:33.746760 20556 net.cpp:454] conv2_scale <- conv2
I1025 10:56:33.746767 20556 net.cpp:397] conv2_scale -> conv2 (in-place)
I1025 10:56:33.746819 20556 layer_factory.hpp:77] Creating layer conv2_scale
I1025 10:56:33.746968 20556 net.cpp:150] Setting up conv2_scale
I1025 10:56:33.746978 20556 net.cpp:157] Top shape: 70 192 56 56 (42147840)
I1025 10:56:33.746981 20556 net.cpp:165] Memory required for data: 1696496480
I1025 10:56:33.746989 20556 layer_factory.hpp:77] Creating layer prelu2
I1025 10:56:33.747000 20556 net.cpp:106] Creating Layer prelu2
I1025 10:56:33.747004 20556 net.cpp:454] prelu2 <- conv2
I1025 10:56:33.747010 20556 net.cpp:397] prelu2 -> conv2 (in-place)
I1025 10:56:33.748962 20556 net.cpp:150] Setting up prelu2
I1025 10:56:33.748981 20556 net.cpp:157] Top shape: 70 192 56 56 (42147840)
I1025 10:56:33.748986 20556 net.cpp:165] Memory required for data: 1865087840
I1025 10:56:33.748992 20556 layer_factory.hpp:77] Creating layer pool2
I1025 10:56:33.749001 20556 net.cpp:106] Creating Layer pool2
I1025 10:56:33.749006 20556 net.cpp:454] pool2 <- conv2
I1025 10:56:33.749016 20556 net.cpp:411] pool2 -> pool2
I1025 10:56:33.749424 20556 net.cpp:150] Setting up pool2
I1025 10:56:33.749442 20556 net.cpp:157] Top shape: 70 192 28 28 (10536960)
I1025 10:56:33.749446 20556 net.cpp:165] Memory required for data: 1907235680
I1025 10:56:33.749451 20556 layer_factory.hpp:77] Creating layer conv3a
I1025 10:56:33.749472 20556 net.cpp:106] Creating Layer conv3a
I1025 10:56:33.749478 20556 net.cpp:454] conv3a <- pool2
I1025 10:56:33.749486 20556 net.cpp:411] conv3a -> conv3a
I1025 10:56:33.751739 20556 net.cpp:150] Setting up conv3a
I1025 10:56:33.751759 20556 net.cpp:157] Top shape: 70 192 28 28 (10536960)
I1025 10:56:33.751763 20556 net.cpp:165] Memory required for data: 1949383520
I1025 10:56:33.751780 20556 layer_factory.hpp:77] Creating layer conv3a_bn
I1025 10:56:33.751792 20556 net.cpp:106] Creating Layer conv3a_bn
I1025 10:56:33.751797 20556 net.cpp:454] conv3a_bn <- conv3a
I1025 10:56:33.751803 20556 net.cpp:397] conv3a_bn -> conv3a (in-place)
I1025 10:56:33.752043 20556 net.cpp:150] Setting up conv3a_bn
I1025 10:56:33.752055 20556 net.cpp:157] Top shape: 70 192 28 28 (10536960)
I1025 10:56:33.752059 20556 net.cpp:165] Memory required for data: 1991531360
I1025 10:56:33.752069 20556 layer_factory.hpp:77] Creating layer conv3a_scale
I1025 10:56:33.752081 20556 net.cpp:106] Creating Layer conv3a_scale
I1025 10:56:33.752085 20556 net.cpp:454] conv3a_scale <- conv3a
I1025 10:56:33.752091 20556 net.cpp:397] conv3a_scale -> conv3a (in-place)
I1025 10:56:33.752142 20556 layer_factory.hpp:77] Creating layer conv3a_scale
I1025 10:56:33.752279 20556 net.cpp:150] Setting up conv3a_scale
I1025 10:56:33.752290 20556 net.cpp:157] Top shape: 70 192 28 28 (10536960)
I1025 10:56:33.752295 20556 net.cpp:165] Memory required for data: 2033679200
I1025 10:56:33.752302 20556 layer_factory.hpp:77] Creating layer prelu3a
I1025 10:56:33.752311 20556 net.cpp:106] Creating Layer prelu3a
I1025 10:56:33.752315 20556 net.cpp:454] prelu3a <- conv3a
I1025 10:56:33.752323 20556 net.cpp:397] prelu3a -> conv3a (in-place)
I1025 10:56:33.752542 20556 net.cpp:150] Setting up prelu3a
I1025 10:56:33.752552 20556 net.cpp:157] Top shape: 70 192 28 28 (10536960)
I1025 10:56:33.752557 20556 net.cpp:165] Memory required for data: 2075827040
I1025 10:56:33.752562 20556 layer_factory.hpp:77] Creating layer conv3
I1025 10:56:33.752578 20556 net.cpp:106] Creating Layer conv3
I1025 10:56:33.752583 20556 net.cpp:454] conv3 <- conv3a
I1025 10:56:33.752589 20556 net.cpp:411] conv3 -> conv3
I1025 10:56:33.761528 20556 net.cpp:150] Setting up conv3
I1025 10:56:33.761575 20556 net.cpp:157] Top shape: 70 384 28 28 (21073920)
I1025 10:56:33.761585 20556 net.cpp:165] Memory required for data: 2160122720
I1025 10:56:33.761620 20556 layer_factory.hpp:77] Creating layer conv3_bn
I1025 10:56:33.761647 20556 net.cpp:106] Creating Layer conv3_bn
I1025 10:56:33.761658 20556 net.cpp:454] conv3_bn <- conv3
I1025 10:56:33.761673 20556 net.cpp:397] conv3_bn -> conv3 (in-place)
I1025 10:56:33.762125 20556 net.cpp:150] Setting up conv3_bn
I1025 10:56:33.762146 20556 net.cpp:157] Top shape: 70 384 28 28 (21073920)
I1025 10:56:33.762154 20556 net.cpp:165] Memory required for data: 2244418400
I1025 10:56:33.762176 20556 layer_factory.hpp:77] Creating layer conv3_scale
I1025 10:56:33.762192 20556 net.cpp:106] Creating Layer conv3_scale
I1025 10:56:33.762202 20556 net.cpp:454] conv3_scale <- conv3
I1025 10:56:33.762217 20556 net.cpp:397] conv3_scale -> conv3 (in-place)
I1025 10:56:33.762311 20556 layer_factory.hpp:77] Creating layer conv3_scale
I1025 10:56:33.762538 20556 net.cpp:150] Setting up conv3_scale
I1025 10:56:33.762557 20556 net.cpp:157] Top shape: 70 384 28 28 (21073920)
I1025 10:56:33.762567 20556 net.cpp:165] Memory required for data: 2328714080
I1025 10:56:33.762581 20556 layer_factory.hpp:77] Creating layer prelu3
I1025 10:56:33.762593 20556 net.cpp:106] Creating Layer prelu3
I1025 10:56:33.762601 20556 net.cpp:454] prelu3 <- conv3
I1025 10:56:33.762611 20556 net.cpp:397] prelu3 -> conv3 (in-place)
I1025 10:56:33.764389 20556 net.cpp:150] Setting up prelu3
I1025 10:56:33.764421 20556 net.cpp:157] Top shape: 70 384 28 28 (21073920)
I1025 10:56:33.764430 20556 net.cpp:165] Memory required for data: 2413009760
I1025 10:56:33.764442 20556 layer_factory.hpp:77] Creating layer pool3
I1025 10:56:33.764461 20556 net.cpp:106] Creating Layer pool3
I1025 10:56:33.764470 20556 net.cpp:454] pool3 <- conv3
I1025 10:56:33.764489 20556 net.cpp:411] pool3 -> pool3
I1025 10:56:33.765197 20556 net.cpp:150] Setting up pool3
I1025 10:56:33.765228 20556 net.cpp:157] Top shape: 70 384 14 14 (5268480)
I1025 10:56:33.765236 20556 net.cpp:165] Memory required for data: 2434083680
I1025 10:56:33.765244 20556 layer_factory.hpp:77] Creating layer pool3_pool3_0_split
I1025 10:56:33.765262 20556 net.cpp:106] Creating Layer pool3_pool3_0_split
I1025 10:56:33.765271 20556 net.cpp:454] pool3_pool3_0_split <- pool3
I1025 10:56:33.765287 20556 net.cpp:411] pool3_pool3_0_split -> pool3_pool3_0_split_0
I1025 10:56:33.765306 20556 net.cpp:411] pool3_pool3_0_split -> pool3_pool3_0_split_1
I1025 10:56:33.765321 20556 net.cpp:411] pool3_pool3_0_split -> pool3_pool3_0_split_2
I1025 10:56:33.765333 20556 net.cpp:411] pool3_pool3_0_split -> pool3_pool3_0_split_3
I1025 10:56:33.765346 20556 net.cpp:411] pool3_pool3_0_split -> pool3_pool3_0_split_4
I1025 10:56:33.765357 20556 net.cpp:411] pool3_pool3_0_split -> pool3_pool3_0_split_5
I1025 10:56:33.765540 20556 net.cpp:150] Setting up pool3_pool3_0_split
I1025 10:56:33.765559 20556 net.cpp:157] Top shape: 70 384 14 14 (5268480)
I1025 10:56:33.765571 20556 net.cpp:157] Top shape: 70 384 14 14 (5268480)
I1025 10:56:33.765580 20556 net.cpp:157] Top shape: 70 384 14 14 (5268480)
I1025 10:56:33.765589 20556 net.cpp:157] Top shape: 70 384 14 14 (5268480)
I1025 10:56:33.765597 20556 net.cpp:157] Top shape: 70 384 14 14 (5268480)
I1025 10:56:33.765606 20556 net.cpp:157] Top shape: 70 384 14 14 (5268480)
I1025 10:56:33.765614 20556 net.cpp:165] Memory required for data: 2560527200
I1025 10:56:33.765620 20556 layer_factory.hpp:77] Creating layer conv3_gender
I1025 10:56:33.765642 20556 net.cpp:106] Creating Layer conv3_gender
I1025 10:56:33.765655 20556 net.cpp:454] conv3_gender <- pool3_pool3_0_split_0
I1025 10:56:33.765669 20556 net.cpp:411] conv3_gender -> conv3_gender
I1025 10:56:33.798246 20556 net.cpp:150] Setting up conv3_gender
I1025 10:56:33.798279 20556 net.cpp:157] Top shape: 70 512 7 7 (1756160)
I1025 10:56:33.798286 20556 net.cpp:165] Memory required for data: 2567551840
I1025 10:56:33.798301 20556 layer_factory.hpp:77] Creating layer conv3_gender_bn
I1025 10:56:33.798318 20556 net.cpp:106] Creating Layer conv3_gender_bn
I1025 10:56:33.798327 20556 net.cpp:454] conv3_gender_bn <- conv3_gender
I1025 10:56:33.798337 20556 net.cpp:397] conv3_gender_bn -> conv3_gender (in-place)
I1025 10:56:33.798701 20556 net.cpp:150] Setting up conv3_gender_bn
I1025 10:56:33.798717 20556 net.cpp:157] Top shape: 70 512 7 7 (1756160)
I1025 10:56:33.798723 20556 net.cpp:165] Memory required for data: 2574576480
I1025 10:56:33.798760 20556 layer_factory.hpp:77] Creating layer conv3_gender_scale
I1025 10:56:33.798774 20556 net.cpp:106] Creating Layer conv3_gender_scale
I1025 10:56:33.798781 20556 net.cpp:454] conv3_gender_scale <- conv3_gender
I1025 10:56:33.798794 20556 net.cpp:397] conv3_gender_scale -> conv3_gender (in-place)
I1025 10:56:33.798873 20556 layer_factory.hpp:77] Creating layer conv3_gender_scale
I1025 10:56:33.799082 20556 net.cpp:150] Setting up conv3_gender_scale
I1025 10:56:33.799098 20556 net.cpp:157] Top shape: 70 512 7 7 (1756160)
I1025 10:56:33.799104 20556 net.cpp:165] Memory required for data: 2581601120
I1025 10:56:33.799116 20556 layer_factory.hpp:77] Creating layer prelu3_gender
I1025 10:56:33.799130 20556 net.cpp:106] Creating Layer prelu3_gender
I1025 10:56:33.799137 20556 net.cpp:454] prelu3_gender <- conv3_gender
I1025 10:56:33.799146 20556 net.cpp:397] prelu3_gender -> conv3_gender (in-place)
I1025 10:56:33.799340 20556 net.cpp:150] Setting up prelu3_gender
I1025 10:56:33.799356 20556 net.cpp:157] Top shape: 70 512 7 7 (1756160)
I1025 10:56:33.799362 20556 net.cpp:165] Memory required for data: 2588625760
I1025 10:56:33.799371 20556 layer_factory.hpp:77] Creating layer pool3_gender
I1025 10:56:33.799389 20556 net.cpp:106] Creating Layer pool3_gender
I1025 10:56:33.799396 20556 net.cpp:454] pool3_gender <- conv3_gender
I1025 10:56:33.799407 20556 net.cpp:411] pool3_gender -> pool3_gender
I1025 10:56:33.799839 20556 net.cpp:150] Setting up pool3_gender
I1025 10:56:33.799861 20556 net.cpp:157] Top shape: 70 512 4 4 (573440)
I1025 10:56:33.799868 20556 net.cpp:165] Memory required for data: 2590919520
I1025 10:56:33.799875 20556 layer_factory.hpp:77] Creating layer pool3_gender_pool3_gender_0_split
I1025 10:56:33.799886 20556 net.cpp:106] Creating Layer pool3_gender_pool3_gender_0_split
I1025 10:56:33.799895 20556 net.cpp:454] pool3_gender_pool3_gender_0_split <- pool3_gender
I1025 10:56:33.799914 20556 net.cpp:411] pool3_gender_pool3_gender_0_split -> pool3_gender_pool3_gender_0_split_0
I1025 10:56:33.799928 20556 net.cpp:411] pool3_gender_pool3_gender_0_split -> pool3_gender_pool3_gender_0_split_1
I1025 10:56:33.800001 20556 net.cpp:150] Setting up pool3_gender_pool3_gender_0_split
I1025 10:56:33.800016 20556 net.cpp:157] Top shape: 70 512 4 4 (573440)
I1025 10:56:33.800024 20556 net.cpp:157] Top shape: 70 512 4 4 (573440)
I1025 10:56:33.800030 20556 net.cpp:165] Memory required for data: 2595507040
I1025 10:56:33.800036 20556 layer_factory.hpp:77] Creating layer fc1_gender
I1025 10:56:33.800058 20556 net.cpp:106] Creating Layer fc1_gender
I1025 10:56:33.800066 20556 net.cpp:454] fc1_gender <- pool3_gender_pool3_gender_0_split_0
I1025 10:56:33.800081 20556 net.cpp:411] fc1_gender -> fc1_gender
I1025 10:56:33.902956 20556 net.cpp:150] Setting up fc1_gender
I1025 10:56:33.903010 20556 net.cpp:157] Top shape: 70 1024 (71680)
I1025 10:56:33.903017 20556 net.cpp:165] Memory required for data: 2595793760
I1025 10:56:33.903028 20556 layer_factory.hpp:77] Creating layer relu1_gender
I1025 10:56:33.903044 20556 net.cpp:106] Creating Layer relu1_gender
I1025 10:56:33.903053 20556 net.cpp:454] relu1_gender <- fc1_gender
I1025 10:56:33.903060 20556 net.cpp:397] relu1_gender -> fc1_gender (in-place)
I1025 10:56:33.903623 20556 net.cpp:150] Setting up relu1_gender
I1025 10:56:33.903642 20556 net.cpp:157] Top shape: 70 1024 (71680)
I1025 10:56:33.903647 20556 net.cpp:165] Memory required for data: 2596080480
I1025 10:56:33.903652 20556 layer_factory.hpp:77] Creating layer drop1_gender
I1025 10:56:33.903661 20556 net.cpp:106] Creating Layer drop1_gender
I1025 10:56:33.903666 20556 net.cpp:454] drop1_gender <- fc1_gender
I1025 10:56:33.903676 20556 net.cpp:397] drop1_gender -> fc1_gender (in-place)
I1025 10:56:33.903723 20556 net.cpp:150] Setting up drop1_gender
I1025 10:56:33.903731 20556 net.cpp:157] Top shape: 70 1024 (71680)
I1025 10:56:33.903735 20556 net.cpp:165] Memory required for data: 2596367200
I1025 10:56:33.903739 20556 layer_factory.hpp:77] Creating layer fc2_gender
I1025 10:56:33.903784 20556 net.cpp:106] Creating Layer fc2_gender
I1025 10:56:33.903789 20556 net.cpp:454] fc2_gender <- fc1_gender
I1025 10:56:33.903798 20556 net.cpp:411] fc2_gender -> fc2_gender
I1025 10:56:33.914710 20556 net.cpp:150] Setting up fc2_gender
I1025 10:56:33.914731 20556 net.cpp:157] Top shape: 70 1024 (71680)
I1025 10:56:33.914734 20556 net.cpp:165] Memory required for data: 2596653920
I1025 10:56:33.914743 20556 layer_factory.hpp:77] Creating layer relu2_gender
I1025 10:56:33.914750 20556 net.cpp:106] Creating Layer relu2_gender
I1025 10:56:33.914755 20556 net.cpp:454] relu2_gender <- fc2_gender
I1025 10:56:33.914764 20556 net.cpp:397] relu2_gender -> fc2_gender (in-place)
I1025 10:56:33.914978 20556 net.cpp:150] Setting up relu2_gender
I1025 10:56:33.914991 20556 net.cpp:157] Top shape: 70 1024 (71680)
I1025 10:56:33.914996 20556 net.cpp:165] Memory required for data: 2596940640
I1025 10:56:33.915000 20556 layer_factory.hpp:77] Creating layer drop2_gender
I1025 10:56:33.915007 20556 net.cpp:106] Creating Layer drop2_gender
I1025 10:56:33.915011 20556 net.cpp:454] drop2_gender <- fc2_gender
I1025 10:56:33.915019 20556 net.cpp:397] drop2_gender -> fc2_gender (in-place)
I1025 10:56:33.915056 20556 net.cpp:150] Setting up drop2_gender
I1025 10:56:33.915071 20556 net.cpp:157] Top shape: 70 1024 (71680)
I1025 10:56:33.915076 20556 net.cpp:165] Memory required for data: 2597227360
I1025 10:56:33.915079 20556 layer_factory.hpp:77] Creating layer fc2_gender_drop2_gender_0_split
I1025 10:56:33.915086 20556 net.cpp:106] Creating Layer fc2_gender_drop2_gender_0_split
I1025 10:56:33.915091 20556 net.cpp:454] fc2_gender_drop2_gender_0_split <- fc2_gender
I1025 10:56:33.915096 20556 net.cpp:411] fc2_gender_drop2_gender_0_split -> fc2_gender_drop2_gender_0_split_0
I1025 10:56:33.915107 20556 net.cpp:411] fc2_gender_drop2_gender_0_split -> fc2_gender_drop2_gender_0_split_1
I1025 10:56:33.915153 20556 net.cpp:150] Setting up fc2_gender_drop2_gender_0_split
I1025 10:56:33.915168 20556 net.cpp:157] Top shape: 70 1024 (71680)
I1025 10:56:33.915172 20556 net.cpp:157] Top shape: 70 1024 (71680)
I1025 10:56:33.915176 20556 net.cpp:165] Memory required for data: 2597800800
I1025 10:56:33.915180 20556 layer_factory.hpp:77] Creating layer conv3_nose
I1025 10:56:33.915196 20556 net.cpp:106] Creating Layer conv3_nose
I1025 10:56:33.915204 20556 net.cpp:454] conv3_nose <- pool3_pool3_0_split_1
I1025 10:56:33.915211 20556 net.cpp:411] conv3_nose -> conv3_nose
I1025 10:56:33.934305 20556 net.cpp:150] Setting up conv3_nose
I1025 10:56:33.934326 20556 net.cpp:157] Top shape: 70 512 7 7 (1756160)
I1025 10:56:33.934331 20556 net.cpp:165] Memory required for data: 2604825440
I1025 10:56:33.934340 20556 layer_factory.hpp:77] Creating layer conv3_nose_bn
I1025 10:56:33.934350 20556 net.cpp:106] Creating Layer conv3_nose_bn
I1025 10:56:33.934355 20556 net.cpp:454] conv3_nose_bn <- conv3_nose
I1025 10:56:33.934363 20556 net.cpp:397] conv3_nose_bn -> conv3_nose (in-place)
I1025 10:56:33.934589 20556 net.cpp:150] Setting up conv3_nose_bn
I1025 10:56:33.934600 20556 net.cpp:157] Top shape: 70 512 7 7 (1756160)
I1025 10:56:33.934604 20556 net.cpp:165] Memory required for data: 2611850080
I1025 10:56:33.934614 20556 layer_factory.hpp:77] Creating layer conv3_nose_scale
I1025 10:56:33.934623 20556 net.cpp:106] Creating Layer conv3_nose_scale
I1025 10:56:33.934628 20556 net.cpp:454] conv3_nose_scale <- conv3_nose
I1025 10:56:33.934633 20556 net.cpp:397] conv3_nose_scale -> conv3_nose (in-place)
I1025 10:56:33.934680 20556 layer_factory.hpp:77] Creating layer conv3_nose_scale
I1025 10:56:33.934816 20556 net.cpp:150] Setting up conv3_nose_scale
I1025 10:56:33.934828 20556 net.cpp:157] Top shape: 70 512 7 7 (1756160)
I1025 10:56:33.934831 20556 net.cpp:165] Memory required for data: 2618874720
I1025 10:56:33.934839 20556 layer_factory.hpp:77] Creating layer prelu3_nose
I1025 10:56:33.934849 20556 net.cpp:106] Creating Layer prelu3_nose
I1025 10:56:33.934854 20556 net.cpp:454] prelu3_nose <- conv3_nose
I1025 10:56:33.934859 20556 net.cpp:397] prelu3_nose -> conv3_nose (in-place)
I1025 10:56:33.935009 20556 net.cpp:150] Setting up prelu3_nose
I1025 10:56:33.935022 20556 net.cpp:157] Top shape: 70 512 7 7 (1756160)
I1025 10:56:33.935026 20556 net.cpp:165] Memory required for data: 2625899360
I1025 10:56:33.935032 20556 layer_factory.hpp:77] Creating layer pool3_nose
I1025 10:56:33.935042 20556 net.cpp:106] Creating Layer pool3_nose
I1025 10:56:33.935047 20556 net.cpp:454] pool3_nose <- conv3_nose
I1025 10:56:33.935053 20556 net.cpp:411] pool3_nose -> pool3_nose
I1025 10:56:33.935487 20556 net.cpp:150] Setting up pool3_nose
I1025 10:56:33.935505 20556 net.cpp:157] Top shape: 70 512 4 4 (573440)
I1025 10:56:33.935510 20556 net.cpp:165] Memory required for data: 2628193120
I1025 10:56:33.935514 20556 layer_factory.hpp:77] Creating layer pool3_nose_pool3_nose_0_split
I1025 10:56:33.935523 20556 net.cpp:106] Creating Layer pool3_nose_pool3_nose_0_split
I1025 10:56:33.935528 20556 net.cpp:454] pool3_nose_pool3_nose_0_split <- pool3_nose
I1025 10:56:33.935537 20556 net.cpp:411] pool3_nose_pool3_nose_0_split -> pool3_nose_pool3_nose_0_split_0
I1025 10:56:33.935546 20556 net.cpp:411] pool3_nose_pool3_nose_0_split -> pool3_nose_pool3_nose_0_split_1
I1025 10:56:33.935591 20556 net.cpp:150] Setting up pool3_nose_pool3_nose_0_split
I1025 10:56:33.935600 20556 net.cpp:157] Top shape: 70 512 4 4 (573440)
I1025 10:56:33.935606 20556 net.cpp:157] Top shape: 70 512 4 4 (573440)
I1025 10:56:33.935608 20556 net.cpp:165] Memory required for data: 2632780640
I1025 10:56:33.935612 20556 layer_factory.hpp:77] Creating layer fc1_nose
I1025 10:56:33.935621 20556 net.cpp:106] Creating Layer fc1_nose
I1025 10:56:33.935626 20556 net.cpp:454] fc1_nose <- pool3_nose_pool3_nose_0_split_0
I1025 10:56:33.935634 20556 net.cpp:411] fc1_nose -> fc1_nose
I1025 10:56:34.021361 20556 net.cpp:150] Setting up fc1_nose
I1025 10:56:34.021419 20556 net.cpp:157] Top shape: 70 1024 (71680)
I1025 10:56:34.021425 20556 net.cpp:165] Memory required for data: 2633067360
I1025 10:56:34.021437 20556 layer_factory.hpp:77] Creating layer relu1_nose
I1025 10:56:34.021450 20556 net.cpp:106] Creating Layer relu1_nose
I1025 10:56:34.021458 20556 net.cpp:454] relu1_nose <- fc1_nose
I1025 10:56:34.021469 20556 net.cpp:397] relu1_nose -> fc1_nose (in-place)
I1025 10:56:34.021775 20556 net.cpp:150] Setting up relu1_nose
I1025 10:56:34.021790 20556 net.cpp:157] Top shape: 70 1024 (71680)
I1025 10:56:34.021795 20556 net.cpp:165] Memory required for data: 2633354080
I1025 10:56:34.021798 20556 layer_factory.hpp:77] Creating layer drop1_nose
I1025 10:56:34.021807 20556 net.cpp:106] Creating Layer drop1_nose
I1025 10:56:34.021812 20556 net.cpp:454] drop1_nose <- fc1_nose
I1025 10:56:34.021821 20556 net.cpp:397] drop1_nose -> fc1_nose (in-place)
I1025 10:56:34.021863 20556 net.cpp:150] Setting up drop1_nose
I1025 10:56:34.021873 20556 net.cpp:157] Top shape: 70 1024 (71680)
I1025 10:56:34.021878 20556 net.cpp:165] Memory required for data: 2633640800
I1025 10:56:34.021881 20556 layer_factory.hpp:77] Creating layer fc2_nose
I1025 10:56:34.021891 20556 net.cpp:106] Creating Layer fc2_nose
I1025 10:56:34.021896 20556 net.cpp:454] fc2_nose <- fc1_nose
I1025 10:56:34.021906 20556 net.cpp:411] fc2_nose -> fc2_nose
I1025 10:56:34.032832 20556 net.cpp:150] Setting up fc2_nose
I1025 10:56:34.032851 20556 net.cpp:157] Top shape: 70 1024 (71680)
I1025 10:56:34.032856 20556 net.cpp:165] Memory required for data: 2633927520
I1025 10:56:34.032865 20556 layer_factory.hpp:77] Creating layer relu2_nose
I1025 10:56:34.032872 20556 net.cpp:106] Creating Layer relu2_nose
I1025 10:56:34.032877 20556 net.cpp:454] relu2_nose <- fc2_nose
I1025 10:56:34.032886 20556 net.cpp:397] relu2_nose -> fc2_nose (in-place)
I1025 10:56:34.033278 20556 net.cpp:150] Setting up relu2_nose
I1025 10:56:34.033296 20556 net.cpp:157] Top shape: 70 1024 (71680)
I1025 10:56:34.033301 20556 net.cpp:165] Memory required for data: 2634214240
I1025 10:56:34.033306 20556 layer_factory.hpp:77] Creating layer drop2_nose
I1025 10:56:34.033315 20556 net.cpp:106] Creating Layer drop2_nose
I1025 10:56:34.033320 20556 net.cpp:454] drop2_nose <- fc2_nose
I1025 10:56:34.033349 20556 net.cpp:397] drop2_nose -> fc2_nose (in-place)
I1025 10:56:34.033387 20556 net.cpp:150] Setting up drop2_nose
I1025 10:56:34.033395 20556 net.cpp:157] Top shape: 70 1024 (71680)
I1025 10:56:34.033398 20556 net.cpp:165] Memory required for data: 2634500960
I1025 10:56:34.033402 20556 layer_factory.hpp:77] Creating layer fc2_nose_drop2_nose_0_split
I1025 10:56:34.033412 20556 net.cpp:106] Creating Layer fc2_nose_drop2_nose_0_split
I1025 10:56:34.033416 20556 net.cpp:454] fc2_nose_drop2_nose_0_split <- fc2_nose
I1025 10:56:34.033426 20556 net.cpp:411] fc2_nose_drop2_nose_0_split -> fc2_nose_drop2_nose_0_split_0
I1025 10:56:34.033433 20556 net.cpp:411] fc2_nose_drop2_nose_0_split -> fc2_nose_drop2_nose_0_split_1
I1025 10:56:34.033440 20556 net.cpp:411] fc2_nose_drop2_nose_0_split -> fc2_nose_drop2_nose_0_split_2
I1025 10:56:34.033501 20556 net.cpp:150] Setting up fc2_nose_drop2_nose_0_split
I1025 10:56:34.033511 20556 net.cpp:157] Top shape: 70 1024 (71680)
I1025 10:56:34.033516 20556 net.cpp:157] Top shape: 70 1024 (71680)
I1025 10:56:34.033520 20556 net.cpp:157] Top shape: 70 1024 (71680)
I1025 10:56:34.033524 20556 net.cpp:165] Memory required for data: 2635361120
I1025 10:56:34.033527 20556 layer_factory.hpp:77] Creating layer conv3_mouth
I1025 10:56:34.033543 20556 net.cpp:106] Creating Layer conv3_mouth
I1025 10:56:34.033550 20556 net.cpp:454] conv3_mouth <- pool3_pool3_0_split_2
I1025 10:56:34.033560 20556 net.cpp:411] conv3_mouth -> conv3_mouth
I1025 10:56:34.052589 20556 net.cpp:150] Setting up conv3_mouth
I1025 10:56:34.052610 20556 net.cpp:157] Top shape: 70 512 7 7 (1756160)
I1025 10:56:34.052615 20556 net.cpp:165] Memory required for data: 2642385760
I1025 10:56:34.052644 20556 layer_factory.hpp:77] Creating layer conv3_mouth_bn
I1025 10:56:34.052654 20556 net.cpp:106] Creating Layer conv3_mouth_bn
I1025 10:56:34.052659 20556 net.cpp:454] conv3_mouth_bn <- conv3_mouth
I1025 10:56:34.052667 20556 net.cpp:397] conv3_mouth_bn -> conv3_mouth (in-place)
I1025 10:56:34.052903 20556 net.cpp:150] Setting up conv3_mouth_bn
I1025 10:56:34.052916 20556 net.cpp:157] Top shape: 70 512 7 7 (1756160)
I1025 10:56:34.052919 20556 net.cpp:165] Memory required for data: 2649410400
I1025 10:56:34.052929 20556 layer_factory.hpp:77] Creating layer conv3_mouth_scale
I1025 10:56:34.052938 20556 net.cpp:106] Creating Layer conv3_mouth_scale
I1025 10:56:34.052943 20556 net.cpp:454] conv3_mouth_scale <- conv3_mouth
I1025 10:56:34.052949 20556 net.cpp:397] conv3_mouth_scale -> conv3_mouth (in-place)
I1025 10:56:34.052999 20556 layer_factory.hpp:77] Creating layer conv3_mouth_scale
I1025 10:56:34.053141 20556 net.cpp:150] Setting up conv3_mouth_scale
I1025 10:56:34.053153 20556 net.cpp:157] Top shape: 70 512 7 7 (1756160)
I1025 10:56:34.053158 20556 net.cpp:165] Memory required for data: 2656435040
I1025 10:56:34.053164 20556 layer_factory.hpp:77] Creating layer prelu3_mouth
I1025 10:56:34.053171 20556 net.cpp:106] Creating Layer prelu3_mouth
I1025 10:56:34.053176 20556 net.cpp:454] prelu3_mouth <- conv3_mouth
I1025 10:56:34.053184 20556 net.cpp:397] prelu3_mouth -> conv3_mouth (in-place)
I1025 10:56:34.053314 20556 net.cpp:150] Setting up prelu3_mouth
I1025 10:56:34.053325 20556 net.cpp:157] Top shape: 70 512 7 7 (1756160)
I1025 10:56:34.053329 20556 net.cpp:165] Memory required for data: 2663459680
I1025 10:56:34.053335 20556 layer_factory.hpp:77] Creating layer pool3_mouth
I1025 10:56:34.053345 20556 net.cpp:106] Creating Layer pool3_mouth
I1025 10:56:34.053350 20556 net.cpp:454] pool3_mouth <- conv3_mouth
I1025 10:56:34.053356 20556 net.cpp:411] pool3_mouth -> pool3_mouth
I1025 10:56:34.053613 20556 net.cpp:150] Setting up pool3_mouth
I1025 10:56:34.053628 20556 net.cpp:157] Top shape: 70 512 4 4 (573440)
I1025 10:56:34.053632 20556 net.cpp:165] Memory required for data: 2665753440
I1025 10:56:34.053637 20556 layer_factory.hpp:77] Creating layer pool3_mouth_pool3_mouth_0_split
I1025 10:56:34.053644 20556 net.cpp:106] Creating Layer pool3_mouth_pool3_mouth_0_split
I1025 10:56:34.053663 20556 net.cpp:454] pool3_mouth_pool3_mouth_0_split <- pool3_mouth
I1025 10:56:34.053673 20556 net.cpp:411] pool3_mouth_pool3_mouth_0_split -> pool3_mouth_pool3_mouth_0_split_0
I1025 10:56:34.053681 20556 net.cpp:411] pool3_mouth_pool3_mouth_0_split -> pool3_mouth_pool3_mouth_0_split_1
I1025 10:56:34.053728 20556 net.cpp:150] Setting up pool3_mouth_pool3_mouth_0_split
I1025 10:56:34.053741 20556 net.cpp:157] Top shape: 70 512 4 4 (573440)
I1025 10:56:34.053746 20556 net.cpp:157] Top shape: 70 512 4 4 (573440)
I1025 10:56:34.053750 20556 net.cpp:165] Memory required for data: 2670340960
I1025 10:56:34.053753 20556 layer_factory.hpp:77] Creating layer fc1_mouth
I1025 10:56:34.053766 20556 net.cpp:106] Creating Layer fc1_mouth
I1025 10:56:34.053771 20556 net.cpp:454] fc1_mouth <- pool3_mouth_pool3_mouth_0_split_0
I1025 10:56:34.053778 20556 net.cpp:411] fc1_mouth -> fc1_mouth
I1025 10:56:34.139470 20556 net.cpp:150] Setting up fc1_mouth
I1025 10:56:34.139519 20556 net.cpp:157] Top shape: 70 1024 (71680)
I1025 10:56:34.139525 20556 net.cpp:165] Memory required for data: 2670627680
I1025 10:56:34.139538 20556 layer_factory.hpp:77] Creating layer relu1_mouth
I1025 10:56:34.139550 20556 net.cpp:106] Creating Layer relu1_mouth
I1025 10:56:34.139557 20556 net.cpp:454] relu1_mouth <- fc1_mouth
I1025 10:56:34.139564 20556 net.cpp:397] relu1_mouth -> fc1_mouth (in-place)
I1025 10:56:34.140100 20556 net.cpp:150] Setting up relu1_mouth
I1025 10:56:34.140120 20556 net.cpp:157] Top shape: 70 1024 (71680)
I1025 10:56:34.140125 20556 net.cpp:165] Memory required for data: 2670914400
I1025 10:56:34.140130 20556 layer_factory.hpp:77] Creating layer drop1_mouth
I1025 10:56:34.140137 20556 net.cpp:106] Creating Layer drop1_mouth
I1025 10:56:34.140142 20556 net.cpp:454] drop1_mouth <- fc1_mouth
I1025 10:56:34.140161 20556 net.cpp:397] drop1_mouth -> fc1_mouth (in-place)
I1025 10:56:34.140204 20556 net.cpp:150] Setting up drop1_mouth
I1025 10:56:34.140214 20556 net.cpp:157] Top shape: 70 1024 (71680)
I1025 10:56:34.140218 20556 net.cpp:165] Memory required for data: 2671201120
I1025 10:56:34.140223 20556 layer_factory.hpp:77] Creating layer fc2_mouth
I1025 10:56:34.140231 20556 net.cpp:106] Creating Layer fc2_mouth
I1025 10:56:34.140236 20556 net.cpp:454] fc2_mouth <- fc1_mouth
I1025 10:56:34.140247 20556 net.cpp:411] fc2_mouth -> fc2_mouth
I1025 10:56:34.151064 20556 net.cpp:150] Setting up fc2_mouth
I1025 10:56:34.151083 20556 net.cpp:157] Top shape: 70 1024 (71680)
I1025 10:56:34.151087 20556 net.cpp:165] Memory required for data: 2671487840
I1025 10:56:34.151095 20556 layer_factory.hpp:77] Creating layer relu2_mouth
I1025 10:56:34.151118 20556 net.cpp:106] Creating Layer relu2_mouth
I1025 10:56:34.151124 20556 net.cpp:454] relu2_mouth <- fc2_mouth
I1025 10:56:34.151129 20556 net.cpp:397] relu2_mouth -> fc2_mouth (in-place)
I1025 10:56:34.151342 20556 net.cpp:150] Setting up relu2_mouth
I1025 10:56:34.151357 20556 net.cpp:157] Top shape: 70 1024 (71680)
I1025 10:56:34.151361 20556 net.cpp:165] Memory required for data: 2671774560
I1025 10:56:34.151366 20556 layer_factory.hpp:77] Creating layer drop2_mouth
I1025 10:56:34.151373 20556 net.cpp:106] Creating Layer drop2_mouth
I1025 10:56:34.151378 20556 net.cpp:454] drop2_mouth <- fc2_mouth
I1025 10:56:34.151386 20556 net.cpp:397] drop2_mouth -> fc2_mouth (in-place)
I1025 10:56:34.151422 20556 net.cpp:150] Setting up drop2_mouth
I1025 10:56:34.151438 20556 net.cpp:157] Top shape: 70 1024 (71680)
I1025 10:56:34.151443 20556 net.cpp:165] Memory required for data: 2672061280
I1025 10:56:34.151446 20556 layer_factory.hpp:77] Creating layer fc2_mouth_drop2_mouth_0_split
I1025 10:56:34.151456 20556 net.cpp:106] Creating Layer fc2_mouth_drop2_mouth_0_split
I1025 10:56:34.151461 20556 net.cpp:454] fc2_mouth_drop2_mouth_0_split <- fc2_mouth
I1025 10:56:34.151468 20556 net.cpp:411] fc2_mouth_drop2_mouth_0_split -> fc2_mouth_drop2_mouth_0_split_0
I1025 10:56:34.151479 20556 net.cpp:411] fc2_mouth_drop2_mouth_0_split -> fc2_mouth_drop2_mouth_0_split_1
I1025 10:56:34.151486 20556 net.cpp:411] fc2_mouth_drop2_mouth_0_split -> fc2_mouth_drop2_mouth_0_split_2
I1025 10:56:34.151516 20556 net.cpp:411] fc2_mouth_drop2_mouth_0_split -> fc2_mouth_drop2_mouth_0_split_3
I1025 10:56:34.151523 20556 net.cpp:411] fc2_mouth_drop2_mouth_0_split -> fc2_mouth_drop2_mouth_0_split_4
I1025 10:56:34.151618 20556 net.cpp:150] Setting up fc2_mouth_drop2_mouth_0_split
I1025 10:56:34.151628 20556 net.cpp:157] Top shape: 70 1024 (71680)
I1025 10:56:34.151633 20556 net.cpp:157] Top shape: 70 1024 (71680)
I1025 10:56:34.151638 20556 net.cpp:157] Top shape: 70 1024 (71680)
I1025 10:56:34.151643 20556 net.cpp:157] Top shape: 70 1024 (71680)
I1025 10:56:34.151646 20556 net.cpp:157] Top shape: 70 1024 (71680)
I1025 10:56:34.151650 20556 net.cpp:165] Memory required for data: 2673494880
I1025 10:56:34.151654 20556 layer_factory.hpp:77] Creating layer conv3_eyes
I1025 10:56:34.151670 20556 net.cpp:106] Creating Layer conv3_eyes
I1025 10:56:34.151676 20556 net.cpp:454] conv3_eyes <- pool3_pool3_0_split_3
I1025 10:56:34.151684 20556 net.cpp:411] conv3_eyes -> conv3_eyes
I1025 10:56:34.170714 20556 net.cpp:150] Setting up conv3_eyes
I1025 10:56:34.170735 20556 net.cpp:157] Top shape: 70 512 7 7 (1756160)
I1025 10:56:34.170740 20556 net.cpp:165] Memory required for data: 2680519520
I1025 10:56:34.170748 20556 layer_factory.hpp:77] Creating layer conv3_eyes_bn
I1025 10:56:34.170760 20556 net.cpp:106] Creating Layer conv3_eyes_bn
I1025 10:56:34.170766 20556 net.cpp:454] conv3_eyes_bn <- conv3_eyes
I1025 10:56:34.170773 20556 net.cpp:397] conv3_eyes_bn -> conv3_eyes (in-place)
I1025 10:56:34.171008 20556 net.cpp:150] Setting up conv3_eyes_bn
I1025 10:56:34.171020 20556 net.cpp:157] Top shape: 70 512 7 7 (1756160)
I1025 10:56:34.171023 20556 net.cpp:165] Memory required for data: 2687544160
I1025 10:56:34.171036 20556 layer_factory.hpp:77] Creating layer conv3_eyes_scale
I1025 10:56:34.171044 20556 net.cpp:106] Creating Layer conv3_eyes_scale
I1025 10:56:34.171049 20556 net.cpp:454] conv3_eyes_scale <- conv3_eyes
I1025 10:56:34.171054 20556 net.cpp:397] conv3_eyes_scale -> conv3_eyes (in-place)
I1025 10:56:34.171103 20556 layer_factory.hpp:77] Creating layer conv3_eyes_scale
I1025 10:56:34.171248 20556 net.cpp:150] Setting up conv3_eyes_scale
I1025 10:56:34.171260 20556 net.cpp:157] Top shape: 70 512 7 7 (1756160)
I1025 10:56:34.171264 20556 net.cpp:165] Memory required for data: 2694568800
I1025 10:56:34.171272 20556 layer_factory.hpp:77] Creating layer prelu3_eyes
I1025 10:56:34.171284 20556 net.cpp:106] Creating Layer prelu3_eyes
I1025 10:56:34.171289 20556 net.cpp:454] prelu3_eyes <- conv3_eyes
I1025 10:56:34.171295 20556 net.cpp:397] prelu3_eyes -> conv3_eyes (in-place)
I1025 10:56:34.171432 20556 net.cpp:150] Setting up prelu3_eyes
I1025 10:56:34.171442 20556 net.cpp:157] Top shape: 70 512 7 7 (1756160)
I1025 10:56:34.171447 20556 net.cpp:165] Memory required for data: 2701593440
I1025 10:56:34.171452 20556 layer_factory.hpp:77] Creating layer pool3_eyes
I1025 10:56:34.171459 20556 net.cpp:106] Creating Layer pool3_eyes
I1025 10:56:34.171464 20556 net.cpp:454] pool3_eyes <- conv3_eyes
I1025 10:56:34.171473 20556 net.cpp:411] pool3_eyes -> pool3_eyes
I1025 10:56:34.171910 20556 net.cpp:150] Setting up pool3_eyes
I1025 10:56:34.171928 20556 net.cpp:157] Top shape: 70 512 4 4 (573440)
I1025 10:56:34.171932 20556 net.cpp:165] Memory required for data: 2703887200
I1025 10:56:34.171937 20556 layer_factory.hpp:77] Creating layer pool3_eyes_pool3_eyes_0_split
I1025 10:56:34.171947 20556 net.cpp:106] Creating Layer pool3_eyes_pool3_eyes_0_split
I1025 10:56:34.171952 20556 net.cpp:454] pool3_eyes_pool3_eyes_0_split <- pool3_eyes
I1025 10:56:34.171960 20556 net.cpp:411] pool3_eyes_pool3_eyes_0_split -> pool3_eyes_pool3_eyes_0_split_0
I1025 10:56:34.171968 20556 net.cpp:411] pool3_eyes_pool3_eyes_0_split -> pool3_eyes_pool3_eyes_0_split_1
I1025 10:56:34.172020 20556 net.cpp:150] Setting up pool3_eyes_pool3_eyes_0_split
I1025 10:56:34.172027 20556 net.cpp:157] Top shape: 70 512 4 4 (573440)
I1025 10:56:34.172032 20556 net.cpp:157] Top shape: 70 512 4 4 (573440)
I1025 10:56:34.172049 20556 net.cpp:165] Memory required for data: 2708474720
I1025 10:56:34.172054 20556 layer_factory.hpp:77] Creating layer fc1_eyes
I1025 10:56:34.172065 20556 net.cpp:106] Creating Layer fc1_eyes
I1025 10:56:34.172070 20556 net.cpp:454] fc1_eyes <- pool3_eyes_pool3_eyes_0_split_0
I1025 10:56:34.172077 20556 net.cpp:411] fc1_eyes -> fc1_eyes
I1025 10:56:34.258008 20556 net.cpp:150] Setting up fc1_eyes
I1025 10:56:34.258060 20556 net.cpp:157] Top shape: 70 1024 (71680)
I1025 10:56:34.258066 20556 net.cpp:165] Memory required for data: 2708761440
I1025 10:56:34.258079 20556 layer_factory.hpp:77] Creating layer relu1_eyes
I1025 10:56:34.258091 20556 net.cpp:106] Creating Layer relu1_eyes
I1025 10:56:34.258100 20556 net.cpp:454] relu1_eyes <- fc1_eyes
I1025 10:56:34.258110 20556 net.cpp:397] relu1_eyes -> fc1_eyes (in-place)
I1025 10:56:34.258400 20556 net.cpp:150] Setting up relu1_eyes
I1025 10:56:34.258416 20556 net.cpp:157] Top shape: 70 1024 (71680)
I1025 10:56:34.258420 20556 net.cpp:165] Memory required for data: 2709048160
I1025 10:56:34.258425 20556 layer_factory.hpp:77] Creating layer drop1_eyes
I1025 10:56:34.258433 20556 net.cpp:106] Creating Layer drop1_eyes
I1025 10:56:34.258438 20556 net.cpp:454] drop1_eyes <- fc1_eyes
I1025 10:56:34.258445 20556 net.cpp:397] drop1_eyes -> fc1_eyes (in-place)
I1025 10:56:34.258489 20556 net.cpp:150] Setting up drop1_eyes
I1025 10:56:34.258499 20556 net.cpp:157] Top shape: 70 1024 (71680)
I1025 10:56:34.258503 20556 net.cpp:165] Memory required for data: 2709334880
I1025 10:56:34.258507 20556 layer_factory.hpp:77] Creating layer fc2_eyes
I1025 10:56:34.258519 20556 net.cpp:106] Creating Layer fc2_eyes
I1025 10:56:34.258523 20556 net.cpp:454] fc2_eyes <- fc1_eyes
I1025 10:56:34.258530 20556 net.cpp:411] fc2_eyes -> fc2_eyes
I1025 10:56:34.269428 20556 net.cpp:150] Setting up fc2_eyes
I1025 10:56:34.269448 20556 net.cpp:157] Top shape: 70 1024 (71680)
I1025 10:56:34.269453 20556 net.cpp:165] Memory required for data: 2709621600
I1025 10:56:34.269460 20556 layer_factory.hpp:77] Creating layer relu2_eyes
I1025 10:56:34.269470 20556 net.cpp:106] Creating Layer relu2_eyes
I1025 10:56:34.269475 20556 net.cpp:454] relu2_eyes <- fc2_eyes
I1025 10:56:34.269482 20556 net.cpp:397] relu2_eyes -> fc2_eyes (in-place)
I1025 10:56:34.269897 20556 net.cpp:150] Setting up relu2_eyes
I1025 10:56:34.269914 20556 net.cpp:157] Top shape: 70 1024 (71680)
I1025 10:56:34.269918 20556 net.cpp:165] Memory required for data: 2709908320
I1025 10:56:34.269923 20556 layer_factory.hpp:77] Creating layer drop2_eyes
I1025 10:56:34.269933 20556 net.cpp:106] Creating Layer drop2_eyes
I1025 10:56:34.269938 20556 net.cpp:454] drop2_eyes <- fc2_eyes
I1025 10:56:34.269945 20556 net.cpp:397] drop2_eyes -> fc2_eyes (in-place)
I1025 10:56:34.269987 20556 net.cpp:150] Setting up drop2_eyes
I1025 10:56:34.269994 20556 net.cpp:157] Top shape: 70 1024 (71680)
I1025 10:56:34.269999 20556 net.cpp:165] Memory required for data: 2710195040
I1025 10:56:34.270002 20556 layer_factory.hpp:77] Creating layer fc2_eyes_drop2_eyes_0_split
I1025 10:56:34.270010 20556 net.cpp:106] Creating Layer fc2_eyes_drop2_eyes_0_split
I1025 10:56:34.270015 20556 net.cpp:454] fc2_eyes_drop2_eyes_0_split <- fc2_eyes
I1025 10:56:34.270023 20556 net.cpp:411] fc2_eyes_drop2_eyes_0_split -> fc2_eyes_drop2_eyes_0_split_0
I1025 10:56:34.270032 20556 net.cpp:411] fc2_eyes_drop2_eyes_0_split -> fc2_eyes_drop2_eyes_0_split_1
I1025 10:56:34.270040 20556 net.cpp:411] fc2_eyes_drop2_eyes_0_split -> fc2_eyes_drop2_eyes_0_split_2
I1025 10:56:34.270050 20556 net.cpp:411] fc2_eyes_drop2_eyes_0_split -> fc2_eyes_drop2_eyes_0_split_3
I1025 10:56:34.270056 20556 net.cpp:411] fc2_eyes_drop2_eyes_0_split -> fc2_eyes_drop2_eyes_0_split_4
I1025 10:56:34.270062 20556 net.cpp:411] fc2_eyes_drop2_eyes_0_split -> fc2_eyes_drop2_eyes_0_split_5
I1025 10:56:34.270169 20556 net.cpp:150] Setting up fc2_eyes_drop2_eyes_0_split
I1025 10:56:34.270179 20556 net.cpp:157] Top shape: 70 1024 (71680)
I1025 10:56:34.270184 20556 net.cpp:157] Top shape: 70 1024 (71680)
I1025 10:56:34.270210 20556 net.cpp:157] Top shape: 70 1024 (71680)
I1025 10:56:34.270215 20556 net.cpp:157] Top shape: 70 1024 (71680)
I1025 10:56:34.270220 20556 net.cpp:157] Top shape: 70 1024 (71680)
I1025 10:56:34.270225 20556 net.cpp:157] Top shape: 70 1024 (71680)
I1025 10:56:34.270227 20556 net.cpp:165] Memory required for data: 2711915360
I1025 10:56:34.270231 20556 layer_factory.hpp:77] Creating layer conv3_face
I1025 10:56:34.270246 20556 net.cpp:106] Creating Layer conv3_face
I1025 10:56:34.270252 20556 net.cpp:454] conv3_face <- pool3_pool3_0_split_4
I1025 10:56:34.270262 20556 net.cpp:411] conv3_face -> conv3_face
I1025 10:56:34.289158 20556 net.cpp:150] Setting up conv3_face
I1025 10:56:34.289181 20556 net.cpp:157] Top shape: 70 512 7 7 (1756160)
I1025 10:56:34.289186 20556 net.cpp:165] Memory required for data: 2718940000
I1025 10:56:34.289194 20556 layer_factory.hpp:77] Creating layer conv3_face_bn
I1025 10:56:34.289204 20556 net.cpp:106] Creating Layer conv3_face_bn
I1025 10:56:34.289209 20556 net.cpp:454] conv3_face_bn <- conv3_face
I1025 10:56:34.289218 20556 net.cpp:397] conv3_face_bn -> conv3_face (in-place)
I1025 10:56:34.289463 20556 net.cpp:150] Setting up conv3_face_bn
I1025 10:56:34.289474 20556 net.cpp:157] Top shape: 70 512 7 7 (1756160)
I1025 10:56:34.289479 20556 net.cpp:165] Memory required for data: 2725964640
I1025 10:56:34.289489 20556 layer_factory.hpp:77] Creating layer conv3_face_scale
I1025 10:56:34.289497 20556 net.cpp:106] Creating Layer conv3_face_scale
I1025 10:56:34.289501 20556 net.cpp:454] conv3_face_scale <- conv3_face
I1025 10:56:34.289507 20556 net.cpp:397] conv3_face_scale -> conv3_face (in-place)
I1025 10:56:34.289558 20556 layer_factory.hpp:77] Creating layer conv3_face_scale
I1025 10:56:34.289707 20556 net.cpp:150] Setting up conv3_face_scale
I1025 10:56:34.289719 20556 net.cpp:157] Top shape: 70 512 7 7 (1756160)
I1025 10:56:34.289722 20556 net.cpp:165] Memory required for data: 2732989280
I1025 10:56:34.289731 20556 layer_factory.hpp:77] Creating layer prelu3_face
I1025 10:56:34.289737 20556 net.cpp:106] Creating Layer prelu3_face
I1025 10:56:34.289743 20556 net.cpp:454] prelu3_face <- conv3_face
I1025 10:56:34.289749 20556 net.cpp:397] prelu3_face -> conv3_face (in-place)
I1025 10:56:34.289888 20556 net.cpp:150] Setting up prelu3_face
I1025 10:56:34.289901 20556 net.cpp:157] Top shape: 70 512 7 7 (1756160)
I1025 10:56:34.289903 20556 net.cpp:165] Memory required for data: 2740013920
I1025 10:56:34.289909 20556 layer_factory.hpp:77] Creating layer pool3_face
I1025 10:56:34.289922 20556 net.cpp:106] Creating Layer pool3_face
I1025 10:56:34.289927 20556 net.cpp:454] pool3_face <- conv3_face
I1025 10:56:34.289933 20556 net.cpp:411] pool3_face -> pool3_face
I1025 10:56:34.290364 20556 net.cpp:150] Setting up pool3_face
I1025 10:56:34.290382 20556 net.cpp:157] Top shape: 70 512 4 4 (573440)
I1025 10:56:34.290386 20556 net.cpp:165] Memory required for data: 2742307680
I1025 10:56:34.290391 20556 layer_factory.hpp:77] Creating layer pool3_face_pool3_face_0_split
I1025 10:56:34.290405 20556 net.cpp:106] Creating Layer pool3_face_pool3_face_0_split
I1025 10:56:34.290410 20556 net.cpp:454] pool3_face_pool3_face_0_split <- pool3_face
I1025 10:56:34.290419 20556 net.cpp:411] pool3_face_pool3_face_0_split -> pool3_face_pool3_face_0_split_0
I1025 10:56:34.290427 20556 net.cpp:411] pool3_face_pool3_face_0_split -> pool3_face_pool3_face_0_split_1
I1025 10:56:34.290475 20556 net.cpp:150] Setting up pool3_face_pool3_face_0_split
I1025 10:56:34.290483 20556 net.cpp:157] Top shape: 70 512 4 4 (573440)
I1025 10:56:34.290488 20556 net.cpp:157] Top shape: 70 512 4 4 (573440)
I1025 10:56:34.290491 20556 net.cpp:165] Memory required for data: 2746895200
I1025 10:56:34.290495 20556 layer_factory.hpp:77] Creating layer fc1_face
I1025 10:56:34.290505 20556 net.cpp:106] Creating Layer fc1_face
I1025 10:56:34.290510 20556 net.cpp:454] fc1_face <- pool3_face_pool3_face_0_split_0
I1025 10:56:34.290518 20556 net.cpp:411] fc1_face -> fc1_face
I1025 10:56:34.376230 20556 net.cpp:150] Setting up fc1_face
I1025 10:56:34.376312 20556 net.cpp:157] Top shape: 70 1024 (71680)
I1025 10:56:34.376318 20556 net.cpp:165] Memory required for data: 2747181920
I1025 10:56:34.376330 20556 layer_factory.hpp:77] Creating layer relu1_face
I1025 10:56:34.376345 20556 net.cpp:106] Creating Layer relu1_face
I1025 10:56:34.376353 20556 net.cpp:454] relu1_face <- fc1_face
I1025 10:56:34.376360 20556 net.cpp:397] relu1_face -> fc1_face (in-place)
I1025 10:56:34.376649 20556 net.cpp:150] Setting up relu1_face
I1025 10:56:34.376664 20556 net.cpp:157] Top shape: 70 1024 (71680)
I1025 10:56:34.376669 20556 net.cpp:165] Memory required for data: 2747468640
I1025 10:56:34.376673 20556 layer_factory.hpp:77] Creating layer drop1_face
I1025 10:56:34.376682 20556 net.cpp:106] Creating Layer drop1_face
I1025 10:56:34.376687 20556 net.cpp:454] drop1_face <- fc1_face
I1025 10:56:34.376699 20556 net.cpp:397] drop1_face -> fc1_face (in-place)
I1025 10:56:34.376744 20556 net.cpp:150] Setting up drop1_face
I1025 10:56:34.376754 20556 net.cpp:157] Top shape: 70 1024 (71680)
I1025 10:56:34.376757 20556 net.cpp:165] Memory required for data: 2747755360
I1025 10:56:34.376761 20556 layer_factory.hpp:77] Creating layer fc2_face
I1025 10:56:34.376771 20556 net.cpp:106] Creating Layer fc2_face
I1025 10:56:34.376775 20556 net.cpp:454] fc2_face <- fc1_face
I1025 10:56:34.376785 20556 net.cpp:411] fc2_face -> fc2_face
I1025 10:56:34.387678 20556 net.cpp:150] Setting up fc2_face
I1025 10:56:34.387697 20556 net.cpp:157] Top shape: 70 1024 (71680)
I1025 10:56:34.387701 20556 net.cpp:165] Memory required for data: 2748042080
I1025 10:56:34.387711 20556 layer_factory.hpp:77] Creating layer relu2_face
I1025 10:56:34.387717 20556 net.cpp:106] Creating Layer relu2_face
I1025 10:56:34.387723 20556 net.cpp:454] relu2_face <- fc2_face
I1025 10:56:34.387732 20556 net.cpp:397] relu2_face -> fc2_face (in-place)
I1025 10:56:34.388134 20556 net.cpp:150] Setting up relu2_face
I1025 10:56:34.388154 20556 net.cpp:157] Top shape: 70 1024 (71680)
I1025 10:56:34.388157 20556 net.cpp:165] Memory required for data: 2748328800
I1025 10:56:34.388162 20556 layer_factory.hpp:77] Creating layer drop2_face
I1025 10:56:34.388170 20556 net.cpp:106] Creating Layer drop2_face
I1025 10:56:34.388175 20556 net.cpp:454] drop2_face <- fc2_face
I1025 10:56:34.388185 20556 net.cpp:397] drop2_face -> fc2_face (in-place)
I1025 10:56:34.388223 20556 net.cpp:150] Setting up drop2_face
I1025 10:56:34.388231 20556 net.cpp:157] Top shape: 70 1024 (71680)
I1025 10:56:34.388234 20556 net.cpp:165] Memory required for data: 2748615520
I1025 10:56:34.388238 20556 layer_factory.hpp:77] Creating layer fc2_face_drop2_face_0_split
I1025 10:56:34.388249 20556 net.cpp:106] Creating Layer fc2_face_drop2_face_0_split
I1025 10:56:34.388253 20556 net.cpp:454] fc2_face_drop2_face_0_split <- fc2_face
I1025 10:56:34.388263 20556 net.cpp:411] fc2_face_drop2_face_0_split -> fc2_face_drop2_face_0_split_0
I1025 10:56:34.388272 20556 net.cpp:411] fc2_face_drop2_face_0_split -> fc2_face_drop2_face_0_split_1
I1025 10:56:34.388279 20556 net.cpp:411] fc2_face_drop2_face_0_split -> fc2_face_drop2_face_0_split_2
I1025 10:56:34.388286 20556 net.cpp:411] fc2_face_drop2_face_0_split -> fc2_face_drop2_face_0_split_3
I1025 10:56:34.388293 20556 net.cpp:411] fc2_face_drop2_face_0_split -> fc2_face_drop2_face_0_split_4
I1025 10:56:34.388299 20556 net.cpp:411] fc2_face_drop2_face_0_split -> fc2_face_drop2_face_0_split_5
I1025 10:56:34.388305 20556 net.cpp:411] fc2_face_drop2_face_0_split -> fc2_face_drop2_face_0_split_6
I1025 10:56:34.388429 20556 net.cpp:150] Setting up fc2_face_drop2_face_0_split
I1025 10:56:34.388440 20556 net.cpp:157] Top shape: 70 1024 (71680)
I1025 10:56:34.388445 20556 net.cpp:157] Top shape: 70 1024 (71680)
I1025 10:56:34.388450 20556 net.cpp:157] Top shape: 70 1024 (71680)
I1025 10:56:34.388454 20556 net.cpp:157] Top shape: 70 1024 (71680)
I1025 10:56:34.388458 20556 net.cpp:157] Top shape: 70 1024 (71680)
I1025 10:56:34.388463 20556 net.cpp:157] Top shape: 70 1024 (71680)
I1025 10:56:34.388468 20556 net.cpp:157] Top shape: 70 1024 (71680)
I1025 10:56:34.388484 20556 net.cpp:165] Memory required for data: 2750622560
I1025 10:56:34.388489 20556 layer_factory.hpp:77] Creating layer conv3_rest
I1025 10:56:34.388505 20556 net.cpp:106] Creating Layer conv3_rest
I1025 10:56:34.388511 20556 net.cpp:454] conv3_rest <- pool3_pool3_0_split_5
I1025 10:56:34.388520 20556 net.cpp:411] conv3_rest -> conv3_rest
I1025 10:56:34.407589 20556 net.cpp:150] Setting up conv3_rest
I1025 10:56:34.407610 20556 net.cpp:157] Top shape: 70 512 7 7 (1756160)
I1025 10:56:34.407615 20556 net.cpp:165] Memory required for data: 2757647200
I1025 10:56:34.407624 20556 layer_factory.hpp:77] Creating layer conv3_rest_bn
I1025 10:56:34.407635 20556 net.cpp:106] Creating Layer conv3_rest_bn
I1025 10:56:34.407641 20556 net.cpp:454] conv3_rest_bn <- conv3_rest
I1025 10:56:34.407649 20556 net.cpp:397] conv3_rest_bn -> conv3_rest (in-place)
I1025 10:56:34.410778 20556 net.cpp:150] Setting up conv3_rest_bn
I1025 10:56:34.410797 20556 net.cpp:157] Top shape: 70 512 7 7 (1756160)
I1025 10:56:34.410801 20556 net.cpp:165] Memory required for data: 2764671840
I1025 10:56:34.410832 20556 layer_factory.hpp:77] Creating layer conv3_rest_scale
I1025 10:56:34.410848 20556 net.cpp:106] Creating Layer conv3_rest_scale
I1025 10:56:34.410864 20556 net.cpp:454] conv3_rest_scale <- conv3_rest
I1025 10:56:34.410871 20556 net.cpp:397] conv3_rest_scale -> conv3_rest (in-place)
I1025 10:56:34.410972 20556 layer_factory.hpp:77] Creating layer conv3_rest_scale
I1025 10:56:34.411128 20556 net.cpp:150] Setting up conv3_rest_scale
I1025 10:56:34.411140 20556 net.cpp:157] Top shape: 70 512 7 7 (1756160)
I1025 10:56:34.411144 20556 net.cpp:165] Memory required for data: 2771696480
I1025 10:56:34.411151 20556 layer_factory.hpp:77] Creating layer prelu3_rest
I1025 10:56:34.411162 20556 net.cpp:106] Creating Layer prelu3_rest
I1025 10:56:34.411166 20556 net.cpp:454] prelu3_rest <- conv3_rest
I1025 10:56:34.411173 20556 net.cpp:397] prelu3_rest -> conv3_rest (in-place)
I1025 10:56:34.411322 20556 net.cpp:150] Setting up prelu3_rest
I1025 10:56:34.411334 20556 net.cpp:157] Top shape: 70 512 7 7 (1756160)
I1025 10:56:34.411337 20556 net.cpp:165] Memory required for data: 2778721120
I1025 10:56:34.411345 20556 layer_factory.hpp:77] Creating layer pool3_rest
I1025 10:56:34.411355 20556 net.cpp:106] Creating Layer pool3_rest
I1025 10:56:34.411360 20556 net.cpp:454] pool3_rest <- conv3_rest
I1025 10:56:34.411367 20556 net.cpp:411] pool3_rest -> pool3_rest
I1025 10:56:34.411747 20556 net.cpp:150] Setting up pool3_rest
I1025 10:56:34.411764 20556 net.cpp:157] Top shape: 70 512 4 4 (573440)
I1025 10:56:34.411777 20556 net.cpp:165] Memory required for data: 2781014880
I1025 10:56:34.411782 20556 layer_factory.hpp:77] Creating layer pool3_rest_pool3_rest_0_split
I1025 10:56:34.411790 20556 net.cpp:106] Creating Layer pool3_rest_pool3_rest_0_split
I1025 10:56:34.411795 20556 net.cpp:454] pool3_rest_pool3_rest_0_split <- pool3_rest
I1025 10:56:34.411803 20556 net.cpp:411] pool3_rest_pool3_rest_0_split -> pool3_rest_pool3_rest_0_split_0
I1025 10:56:34.411810 20556 net.cpp:411] pool3_rest_pool3_rest_0_split -> pool3_rest_pool3_rest_0_split_1
I1025 10:56:34.411819 20556 net.cpp:411] pool3_rest_pool3_rest_0_split -> pool3_rest_pool3_rest_0_split_2
I1025 10:56:34.411826 20556 net.cpp:411] pool3_rest_pool3_rest_0_split -> pool3_rest_pool3_rest_0_split_3
I1025 10:56:34.411833 20556 net.cpp:411] pool3_rest_pool3_rest_0_split -> pool3_rest_pool3_rest_0_split_4
I1025 10:56:34.411926 20556 net.cpp:150] Setting up pool3_rest_pool3_rest_0_split
I1025 10:56:34.411936 20556 net.cpp:157] Top shape: 70 512 4 4 (573440)
I1025 10:56:34.411941 20556 net.cpp:157] Top shape: 70 512 4 4 (573440)
I1025 10:56:34.411945 20556 net.cpp:157] Top shape: 70 512 4 4 (573440)
I1025 10:56:34.411949 20556 net.cpp:157] Top shape: 70 512 4 4 (573440)
I1025 10:56:34.411954 20556 net.cpp:157] Top shape: 70 512 4 4 (573440)
I1025 10:56:34.411957 20556 net.cpp:165] Memory required for data: 2792483680
I1025 10:56:34.411962 20556 layer_factory.hpp:77] Creating layer fc1_aroundhead
I1025 10:56:34.411986 20556 net.cpp:106] Creating Layer fc1_aroundhead
I1025 10:56:34.411993 20556 net.cpp:454] fc1_aroundhead <- pool3_rest_pool3_rest_0_split_0
I1025 10:56:34.412003 20556 net.cpp:411] fc1_aroundhead -> fc1_aroundhead
I1025 10:56:34.497709 20556 net.cpp:150] Setting up fc1_aroundhead
I1025 10:56:34.497763 20556 net.cpp:157] Top shape: 70 1024 (71680)
I1025 10:56:34.497768 20556 net.cpp:165] Memory required for data: 2792770400
I1025 10:56:34.497781 20556 layer_factory.hpp:77] Creating layer relu1_aroundhead
I1025 10:56:34.497802 20556 net.cpp:106] Creating Layer relu1_aroundhead
I1025 10:56:34.497810 20556 net.cpp:454] relu1_aroundhead <- fc1_aroundhead
I1025 10:56:34.497819 20556 net.cpp:397] relu1_aroundhead -> fc1_aroundhead (in-place)
I1025 10:56:34.498641 20556 net.cpp:150] Setting up relu1_aroundhead
I1025 10:56:34.498661 20556 net.cpp:157] Top shape: 70 1024 (71680)
I1025 10:56:34.498667 20556 net.cpp:165] Memory required for data: 2793057120
I1025 10:56:34.498672 20556 layer_factory.hpp:77] Creating layer drop1_aroundhead
I1025 10:56:34.498682 20556 net.cpp:106] Creating Layer drop1_aroundhead
I1025 10:56:34.498688 20556 net.cpp:454] drop1_aroundhead <- fc1_aroundhead
I1025 10:56:34.498694 20556 net.cpp:397] drop1_aroundhead -> fc1_aroundhead (in-place)
I1025 10:56:34.498745 20556 net.cpp:150] Setting up drop1_aroundhead
I1025 10:56:34.498754 20556 net.cpp:157] Top shape: 70 1024 (71680)
I1025 10:56:34.498757 20556 net.cpp:165] Memory required for data: 2793343840
I1025 10:56:34.498761 20556 layer_factory.hpp:77] Creating layer fc2_aroundhead
I1025 10:56:34.498772 20556 net.cpp:106] Creating Layer fc2_aroundhead
I1025 10:56:34.498777 20556 net.cpp:454] fc2_aroundhead <- fc1_aroundhead
I1025 10:56:34.498785 20556 net.cpp:411] fc2_aroundhead -> fc2_aroundhead
I1025 10:56:34.509608 20556 net.cpp:150] Setting up fc2_aroundhead
I1025 10:56:34.509627 20556 net.cpp:157] Top shape: 70 1024 (71680)
I1025 10:56:34.509631 20556 net.cpp:165] Memory required for data: 2793630560
I1025 10:56:34.509640 20556 layer_factory.hpp:77] Creating layer relu2_aroundhead
I1025 10:56:34.509651 20556 net.cpp:106] Creating Layer relu2_aroundhead
I1025 10:56:34.509657 20556 net.cpp:454] relu2_aroundhead <- fc2_aroundhead
I1025 10:56:34.509662 20556 net.cpp:397] relu2_aroundhead -> fc2_aroundhead (in-place)
I1025 10:56:34.509896 20556 net.cpp:150] Setting up relu2_aroundhead
I1025 10:56:34.509912 20556 net.cpp:157] Top shape: 70 1024 (71680)
I1025 10:56:34.509915 20556 net.cpp:165] Memory required for data: 2793917280
I1025 10:56:34.509920 20556 layer_factory.hpp:77] Creating layer drop2_aroundhead
I1025 10:56:34.509927 20556 net.cpp:106] Creating Layer drop2_aroundhead
I1025 10:56:34.509932 20556 net.cpp:454] drop2_aroundhead <- fc2_aroundhead
I1025 10:56:34.509941 20556 net.cpp:397] drop2_aroundhead -> fc2_aroundhead (in-place)
I1025 10:56:34.509979 20556 net.cpp:150] Setting up drop2_aroundhead
I1025 10:56:34.509991 20556 net.cpp:157] Top shape: 70 1024 (71680)
I1025 10:56:34.509995 20556 net.cpp:165] Memory required for data: 2794204000
I1025 10:56:34.510001 20556 layer_factory.hpp:77] Creating layer fc2_aroundhead_drop2_aroundhead_0_split
I1025 10:56:34.510015 20556 net.cpp:106] Creating Layer fc2_aroundhead_drop2_aroundhead_0_split
I1025 10:56:34.510020 20556 net.cpp:454] fc2_aroundhead_drop2_aroundhead_0_split <- fc2_aroundhead
I1025 10:56:34.510025 20556 net.cpp:411] fc2_aroundhead_drop2_aroundhead_0_split -> fc2_aroundhead_drop2_aroundhead_0_split_0
…
I1025 10:56:34.510167 20556 net.cpp:411] fc2_aroundhead_drop2_aroundhead_0_split -> fc2_aroundhead_drop2_aroundhead_0_split_10
I1025 10:56:34.510176 20556 net.cpp:411] fc2_aroundhead_drop2_aroundhead_0_split -> fc2_aroundhead_drop2_aroundhead_0_split_11
I1025 10:56:34.510184 20556 net.cpp:411] fc2_aroundhead_drop2_aroundhead_0_split -> fc2_aroundhead_drop2_aroundhead_0_split_12
I1025 10:56:34.510190 20556 net.cpp:411] fc2_aroundhead_drop2_aroundhead_0_split -> fc2_aroundhead_drop2_aroundhead_0_split_13
I1025 10:56:34.510424 20556 net.cpp:150] Setting up fc2_aroundhead_drop2_aroundhead_0_split
I1025 10:56:34.510435 20556 net.cpp:157] Top shape: 70 1024 (71680)
I1025 10:56:34.510440 20556 net.cpp:157] Top shape: 70 1024 (71680)
I1025 10:56:34.510445 20556 net.cpp:157] Top shape: 70 1024 (71680)
I1025 10:56:34.510449 20556 net.cpp:157] Top shape: 70 1024 (71680)
I1025 10:56:34.510453 20556 net.cpp:157] Top shape: 70 1024 (71680)
I1025 10:56:34.510458 20556 net.cpp:157] Top shape: 70 1024 (71680)
I1025 10:56:34.510463 20556 net.cpp:157] Top shape: 70 1024 (71680)
I1025 10:56:34.510468 20556 net.cpp:157] Top shape: 70 1024 (71680)
I1025 10:56:34.510473 20556 net.cpp:157] Top shape: 70 1024 (71680)
I1025 10:56:34.510476 20556 net.cpp:157] Top shape: 70 1024 (71680)
I1025 10:56:34.510481 20556 net.cpp:157] Top shape: 70 1024 (71680)
I1025 10:56:34.510485 20556 net.cpp:157] Top shape: 70 1024 (71680)
I1025 10:56:34.510489 20556 net.cpp:157] Top shape: 70 1024 (71680)
I1025 10:56:34.510494 20556 net.cpp:157] Top shape: 70 1024 (71680)
I1025 10:56:34.510498 20556 net.cpp:165] Memory required for data: 2798218080
I1025 10:56:34.510501 20556 layer_factory.hpp:77] Creating layer fc1_facialhair
I1025 10:56:34.510511 20556 net.cpp:106] Creating Layer fc1_facialhair
I1025 10:56:34.510517 20556 net.cpp:454] fc1_facialhair <- pool3_rest_pool3_rest_0_split_1
I1025 10:56:34.510525 20556 net.cpp:411] fc1_facialhair -> fc1_facialhair
I1025 10:56:34.581171 20556 net.cpp:150] Setting up fc1_facialhair
I1025 10:56:34.581230 20556 net.cpp:157] Top shape: 70 1024 (71680)
I1025 10:56:34.581235 20556 net.cpp:165] Memory required for data: 2798504800
I1025 10:56:34.581245 20556 layer_factory.hpp:77] Creating layer relu1_facialhair
I1025 10:56:34.581260 20556 net.cpp:106] Creating Layer relu1_facialhair
I1025 10:56:34.581267 20556 net.cpp:454] relu1_facialhair <- fc1_facialhair
I1025 10:56:34.581274 20556 net.cpp:397] relu1_facialhair -> fc1_facialhair (in-place)
I1025 10:56:34.581765 20556 net.cpp:150] Setting up relu1_facialhair
I1025 10:56:34.581779 20556 net.cpp:157] Top shape: 70 1024 (71680)
I1025 10:56:34.581794 20556 net.cpp:165] Memory required for data: 2798791520
I1025 10:56:34.581799 20556 layer_factory.hpp:77] Creating layer drop1_facialhair
I1025 10:56:34.581807 20556 net.cpp:106] Creating Layer drop1_facialhair
I1025 10:56:34.581811 20556 net.cpp:454] drop1_facialhair <- fc1_facialhair
I1025 10:56:34.581816 20556 net.cpp:397] drop1_facialhair -> fc1_facialhair (in-place)
I1025 10:56:34.581859 20556 net.cpp:150] Setting up drop1_facialhair
I1025 10:56:34.581866 20556 net.cpp:157] Top shape: 70 1024 (71680)
I1025 10:56:34.581868 20556 net.cpp:165] Memory required for data: 2799078240
I1025 10:56:34.581871 20556 layer_factory.hpp:77] Creating layer fc2_facialhair
I1025 10:56:34.581883 20556 net.cpp:106] Creating Layer fc2_facialhair
I1025 10:56:34.581887 20556 net.cpp:454] fc2_facialhair <- fc1_facialhair
I1025 10:56:34.581893 20556 net.cpp:411] fc2_facialhair -> fc2_facialhair
I1025 10:56:34.590399 20556 net.cpp:150] Setting up fc2_facialhair
I1025 10:56:34.590426 20556 net.cpp:157] Top shape: 70 1024 (71680)
I1025 10:56:34.590430 20556 net.cpp:165] Memory required for data: 2799364960
I1025 10:56:34.590436 20556 layer_factory.hpp:77] Creating layer relu2_facialhair
I1025 10:56:34.590445 20556 net.cpp:106] Creating Layer relu2_facialhair
I1025 10:56:34.590450 20556 net.cpp:454] relu2_facialhair <- fc2_facialhair
I1025 10:56:34.590454 20556 net.cpp:397] relu2_facialhair -> fc2_facialhair (in-place)
I1025 10:56:34.590639 20556 net.cpp:150] Setting up relu2_facialhair
I1025 10:56:34.590651 20556 net.cpp:157] Top shape: 70 1024 (71680)
I1025 10:56:34.590654 20556 net.cpp:165] Memory required for data: 2799651680
I1025 10:56:34.590658 20556 layer_factory.hpp:77] Creating layer drop2_facialhair
I1025 10:56:34.590665 20556 net.cpp:106] Creating Layer drop2_facialhair
I1025 10:56:34.590669 20556 net.cpp:454] drop2_facialhair <- fc2_facialhair
I1025 10:56:34.590675 20556 net.cpp:397] drop2_facialhair -> fc2_facialhair (in-place)
I1025 10:56:34.590708 20556 net.cpp:150] Setting up drop2_facialhair
I1025 10:56:34.590714 20556 net.cpp:157] Top shape: 70 1024 (71680)
I1025 10:56:34.590718 20556 net.cpp:165] Memory required for data: 2799938400
I1025 10:56:34.590721 20556 layer_factory.hpp:77] Creating layer fc2_facialhair_drop2_facialhair_0_split
I1025 10:56:34.590728 20556 net.cpp:106] Creating Layer fc2_facialhair_drop2_facialhair_0_split
I1025 10:56:34.590731 20556 net.cpp:454] fc2_facialhair_drop2_facialhair_0_split <- fc2_facialhair
I1025 10:56:34.590736 20556 net.cpp:411] fc2_facialhair_drop2_facialhair_0_split -> fc2_facialhair_drop2_facialhair_0_split_0
I1025 10:56:34.590746 20556 net.cpp:411] fc2_facialhair_drop2_facialhair_0_split -> fc2_facialhair_drop2_facialhair_0_split_1
I1025 10:56:34.590754 20556 net.cpp:411] fc2_facialhair_drop2_facialhair_0_split -> fc2_facialhair_drop2_facialhair_0_split_2
I1025 10:56:34.590759 20556 net.cpp:411] fc2_facialhair_drop2_facialhair_0_split -> fc2_facialhair_drop2_facialhair_0_split_3
I1025 10:56:34.590764 20556 net.cpp:411] fc2_facialhair_drop2_facialhair_0_split -> fc2_facialhair_drop2_facialhair_0_split_4
I1025 10:56:34.590770 20556 net.cpp:411] fc2_facialhair_drop2_facialhair_0_split -> fc2_facialhair_drop2_facialhair_0_split_5
I1025 10:56:34.590865 20556 net.cpp:150] Setting up fc2_facialhair_drop2_facialhair_0_split
I1025 10:56:34.590873 20556 net.cpp:157] Top shape: 70 1024 (71680)
I1025 10:56:34.590878 20556 net.cpp:157] Top shape: 70 1024 (71680)
I1025 10:56:34.590881 20556 net.cpp:157] Top shape: 70 1024 (71680)
I1025 10:56:34.590884 20556 net.cpp:157] Top shape: 70 1024 (71680)
I1025 10:56:34.590888 20556 net.cpp:157] Top shape: 70 1024 (71680)
I1025 10:56:34.590893 20556 net.cpp:157] Top shape: 70 1024 (71680)
I1025 10:56:34.590895 20556 net.cpp:165] Memory required for data: 2801658720
I1025 10:56:34.590899 20556 layer_factory.hpp:77] Creating layer fc1_cheeks
I1025 10:56:34.590908 20556 net.cpp:106] Creating Layer fc1_cheeks
I1025 10:56:34.590912 20556 net.cpp:454] fc1_cheeks <- pool3_rest_pool3_rest_0_split_2
I1025 10:56:34.590920 20556 net.cpp:411] fc1_cheeks -> fc1_cheeks
I1025 10:56:34.657603 20556 net.cpp:150] Setting up fc1_cheeks
I1025 10:56:34.657657 20556 net.cpp:157] Top shape: 70 1024 (71680)
I1025 10:56:34.657662 20556 net.cpp:165] Memory required for data: 2801945440
I1025 10:56:34.657672 20556 layer_factory.hpp:77] Creating layer relu1_cheeks
I1025 10:56:34.657683 20556 net.cpp:106] Creating Layer relu1_cheeks
I1025 10:56:34.657691 20556 net.cpp:454] relu1_cheeks <- fc1_cheeks
I1025 10:56:34.657696 20556 net.cpp:397] relu1_cheeks -> fc1_cheeks (in-place)
I1025 10:56:34.658165 20556 net.cpp:150] Setting up relu1_cheeks
I1025 10:56:34.658179 20556 net.cpp:157] Top shape: 70 1024 (71680)
I1025 10:56:34.658195 20556 net.cpp:165] Memory required for data: 2802232160
I1025 10:56:34.658198 20556 layer_factory.hpp:77] Creating layer drop1_cheeks
I1025 10:56:34.658208 20556 net.cpp:106] Creating Layer drop1_cheeks
I1025 10:56:34.658213 20556 net.cpp:454] drop1_cheeks <- fc1_cheeks
I1025 10:56:34.658236 20556 net.cpp:397] drop1_cheeks -> fc1_cheeks (in-place)
I1025 10:56:34.658282 20556 net.cpp:150] Setting up drop1_cheeks
I1025 10:56:34.658288 20556 net.cpp:157] Top shape: 70 1024 (71680)
I1025 10:56:34.658290 20556 net.cpp:165] Memory required for data: 2802518880
I1025 10:56:34.658294 20556 layer_factory.hpp:77] Creating layer fc2_cheeks
I1025 10:56:34.658304 20556 net.cpp:106] Creating Layer fc2_cheeks
I1025 10:56:34.658308 20556 net.cpp:454] fc2_cheeks <- fc1_cheeks
I1025 10:56:34.658313 20556 net.cpp:411] fc2_cheeks -> fc2_cheeks
I1025 10:56:34.666713 20556 net.cpp:150] Setting up fc2_cheeks
I1025 10:56:34.666728 20556 net.cpp:157] Top shape: 70 1024 (71680)
I1025 10:56:34.666743 20556 net.cpp:165] Memory required for data: 2802805600
I1025 10:56:34.666750 20556 layer_factory.hpp:77] Creating layer relu2_cheeks
I1025 10:56:34.666759 20556 net.cpp:106] Creating Layer relu2_cheeks
I1025 10:56:34.666762 20556 net.cpp:454] relu2_cheeks <- fc2_cheeks
I1025 10:56:34.666767 20556 net.cpp:397] relu2_cheeks -> fc2_cheeks (in-place)
I1025 10:56:34.667093 20556 net.cpp:150] Setting up relu2_cheeks
I1025 10:56:34.667109 20556 net.cpp:157] Top shape: 70 1024 (71680)
I1025 10:56:34.667111 20556 net.cpp:165] Memory required for data: 2803092320
I1025 10:56:34.667115 20556 layer_factory.hpp:77] Creating layer drop2_cheeks
I1025 10:56:34.667124 20556 net.cpp:106] Creating Layer drop2_cheeks
I1025 10:56:34.667129 20556 net.cpp:454] drop2_cheeks <- fc2_cheeks
I1025 10:56:34.667136 20556 net.cpp:397] drop2_cheeks -> fc2_cheeks (in-place)
I1025 10:56:34.667170 20556 net.cpp:150] Setting up drop2_cheeks
I1025 10:56:34.667176 20556 net.cpp:157] Top shape: 70 1024 (71680)
I1025 10:56:34.667178 20556 net.cpp:165] Memory required for data: 2803379040
I1025 10:56:34.667181 20556 layer_factory.hpp:77] Creating layer fc2_cheeks_drop2_cheeks_0_split
I1025 10:56:34.667187 20556 net.cpp:106] Creating Layer fc2_cheeks_drop2_cheeks_0_split
I1025 10:56:34.667191 20556 net.cpp:454] fc2_cheeks_drop2_cheeks_0_split <- fc2_cheeks
I1025 10:56:34.667199 20556 net.cpp:411] fc2_cheeks_drop2_cheeks_0_split -> fc2_cheeks_drop2_cheeks_0_split_0
I1025 10:56:34.667207 20556 net.cpp:411] fc2_cheeks_drop2_cheeks_0_split -> fc2_cheeks_drop2_cheeks_0_split_1
I1025 10:56:34.667212 20556 net.cpp:411] fc2_cheeks_drop2_cheeks_0_split -> fc2_cheeks_drop2_cheeks_0_split_2
I1025 10:56:34.667269 20556 net.cpp:150] Setting up fc2_cheeks_drop2_cheeks_0_split
I1025 10:56:34.667278 20556 net.cpp:157] Top shape: 70 1024 (71680)
I1025 10:56:34.667281 20556 net.cpp:157] Top shape: 70 1024 (71680)
I1025 10:56:34.667285 20556 net.cpp:157] Top shape: 70 1024 (71680)
I1025 10:56:34.667289 20556 net.cpp:165] Memory required for data: 2804239200
I1025 10:56:34.667291 20556 layer_factory.hpp:77] Creating layer fc1_fat
I1025 10:56:34.667299 20556 net.cpp:106] Creating Layer fc1_fat
I1025 10:56:34.667304 20556 net.cpp:454] fc1_fat <- pool3_rest_pool3_rest_0_split_3
I1025 10:56:34.667311 20556 net.cpp:411] fc1_fat -> fc1_fat
I1025 10:56:34.733839 20556 net.cpp:150] Setting up fc1_fat
I1025 10:56:34.733893 20556 net.cpp:157] Top shape: 70 1024 (71680)
I1025 10:56:34.733898 20556 net.cpp:165] Memory required for data: 2804525920
I1025 10:56:34.733908 20556 layer_factory.hpp:77] Creating layer relu1_fat
I1025 10:56:34.733919 20556 net.cpp:106] Creating Layer relu1_fat
I1025 10:56:34.733925 20556 net.cpp:454] relu1_fat <- fc1_fat
I1025 10:56:34.733932 20556 net.cpp:397] relu1_fat -> fc1_fat (in-place)
I1025 10:56:34.734210 20556 net.cpp:150] Setting up relu1_fat
I1025 10:56:34.734221 20556 net.cpp:157] Top shape: 70 1024 (71680)
I1025 10:56:34.734225 20556 net.cpp:165] Memory required for data: 2804812640
I1025 10:56:34.734230 20556 layer_factory.hpp:77] Creating layer drop1_fat
I1025 10:56:34.734238 20556 net.cpp:106] Creating Layer drop1_fat
I1025 10:56:34.734242 20556 net.cpp:454] drop1_fat <- fc1_fat
I1025 10:56:34.734248 20556 net.cpp:397] drop1_fat -> fc1_fat (in-place)
I1025 10:56:34.734284 20556 net.cpp:150] Setting up drop1_fat
I1025 10:56:34.734318 20556 net.cpp:157] Top shape: 70 1024 (71680)
I1025 10:56:34.734323 20556 net.cpp:165] Memory required for data: 2805099360
I1025 10:56:34.734326 20556 layer_factory.hpp:77] Creating layer fc2_fat
I1025 10:56:34.734334 20556 net.cpp:106] Creating Layer fc2_fat
I1025 10:56:34.734338 20556 net.cpp:454] fc2_fat <- fc1_fat
I1025 10:56:34.734344 20556 net.cpp:411] fc2_fat -> fc2_fat
I1025 10:56:34.742794 20556 net.cpp:150] Setting up fc2_fat
I1025 10:56:34.742821 20556 net.cpp:157] Top shape: 70 1024 (71680)
I1025 10:56:34.742825 20556 net.cpp:165] Memory required for data: 2805386080
I1025 10:56:34.742831 20556 layer_factory.hpp:77] Creating layer relu2_fat
I1025 10:56:34.742840 20556 net.cpp:106] Creating Layer relu2_fat
I1025 10:56:34.742844 20556 net.cpp:454] relu2_fat <- fc2_fat
I1025 10:56:34.742849 20556 net.cpp:397] relu2_fat -> fc2_fat (in-place)
I1025 10:56:34.743197 20556 net.cpp:150] Setting up relu2_fat
I1025 10:56:34.743235 20556 net.cpp:157] Top shape: 70 1024 (71680)
I1025 10:56:34.743239 20556 net.cpp:165] Memory required for data: 2805672800
I1025 10:56:34.743243 20556 layer_factory.hpp:77] Creating layer drop2_fat
I1025 10:56:34.743250 20556 net.cpp:106] Creating Layer drop2_fat
I1025 10:56:34.743255 20556 net.cpp:454] drop2_fat <- fc2_fat
I1025 10:56:34.743260 20556 net.cpp:397] drop2_fat -> fc2_fat (in-place)
I1025 10:56:34.743296 20556 net.cpp:150] Setting up drop2_fat
I1025 10:56:34.743302 20556 net.cpp:157] Top shape: 70 1024 (71680)
I1025 10:56:34.743305 20556 net.cpp:165] Memory required for data: 2805959520
I1025 10:56:34.743309 20556 layer_factory.hpp:77] Creating layer fc2_fat_drop2_fat_0_split
I1025 10:56:34.743316 20556 net.cpp:106] Creating Layer fc2_fat_drop2_fat_0_split
I1025 10:56:34.743320 20556 net.cpp:454] fc2_fat_drop2_fat_0_split <- fc2_fat
I1025 10:56:34.743325 20556 net.cpp:411] fc2_fat_drop2_fat_0_split -> fc2_fat_drop2_fat_0_split_0
I1025 10:56:34.743331 20556 net.cpp:411] fc2_fat_drop2_fat_0_split -> fc2_fat_drop2_fat_0_split_1
I1025 10:56:34.743337 20556 net.cpp:411] fc2_fat_drop2_fat_0_split -> fc2_fat_drop2_fat_0_split_2
I1025 10:56:34.743396 20556 net.cpp:150] Setting up fc2_fat_drop2_fat_0_split
I1025 10:56:34.743402 20556 net.cpp:157] Top shape: 70 1024 (71680)
I1025 10:56:34.743405 20556 net.cpp:157] Top shape: 70 1024 (71680)
I1025 10:56:34.743409 20556 net.cpp:157] Top shape: 70 1024 (71680)
I1025 10:56:34.743412 20556 net.cpp:165] Memory required for data: 2806819680
I1025 10:56:34.743415 20556 layer_factory.hpp:77] Creating layer fc3_Male
I1025 10:56:34.743422 20556 net.cpp:106] Creating Layer fc3_Male
I1025 10:56:34.743427 20556 net.cpp:454] fc3_Male <- fc2_gender_drop2_gender_0_split_0
I1025 10:56:34.743438 20556 net.cpp:411] fc3_Male -> fc3_Male
I1025 10:56:34.743579 20556 net.cpp:150] Setting up fc3_Male
I1025 10:56:34.743588 20556 net.cpp:157] Top shape: 70 2 (140)
I1025 10:56:34.743592 20556 net.cpp:165] Memory required for data: 2806820240
I1025 10:56:34.743598 20556 layer_factory.hpp:77] Creating layer loss_Male
I1025 10:56:34.743651 20556 net.cpp:106] Creating Layer loss_Male
I1025 10:56:34.743657 20556 net.cpp:454] loss_Male <- fc3_Male
I1025 10:56:34.743664 20556 net.cpp:454] loss_Male <- label_Male
I1025 10:56:34.743670 20556 net.cpp:411] loss_Male -> loss_Male
I1025 10:56:34.743722 20556 net.cpp:150] Setting up loss_Male
I1025 10:56:34.743731 20556 net.cpp:157] Top shape: (1)
I1025 10:56:34.743733 20556 net.cpp:160]     with loss weight 1
I1025 10:56:34.743763 20556 net.cpp:165] Memory required for data: 2806820244
I1025 10:56:34.743773 20556 layer_factory.hpp:77] Creating layer fc3_Big_Nose
I1025 10:56:34.743782 20556 net.cpp:106] Creating Layer fc3_Big_Nose
I1025 10:56:34.743788 20556 net.cpp:454] fc3_Big_Nose <- fc2_nose_drop2_nose_0_split_0
I1025 10:56:34.743793 20556 net.cpp:411] fc3_Big_Nose -> fc3_Big_Nose
I1025 10:56:34.743921 20556 net.cpp:150] Setting up fc3_Big_Nose
I1025 10:56:34.743929 20556 net.cpp:157] Top shape: 70 2 (140)
I1025 10:56:34.743932 20556 net.cpp:165] Memory required for data: 2806820804
I1025 10:56:34.743950 20556 layer_factory.hpp:77] Creating layer loss_Big_Nose
I1025 10:56:34.743959 20556 net.cpp:106] Creating Layer loss_Big_Nose
I1025 10:56:34.743963 20556 net.cpp:454] loss_Big_Nose <- fc3_Big_Nose
I1025 10:56:34.743968 20556 net.cpp:454] loss_Big_Nose <- label_Big_Nose
I1025 10:56:34.743975 20556 net.cpp:411] loss_Big_Nose -> loss_Big_Nose
I1025 10:56:34.744019 20556 net.cpp:150] Setting up loss_Big_Nose
I1025 10:56:34.744026 20556 net.cpp:157] Top shape: (1)
I1025 10:56:34.744029 20556 net.cpp:160]     with loss weight 1
I1025 10:56:34.744035 20556 net.cpp:165] Memory required for data: 2806820808
I1025 10:56:34.744038 20556 layer_factory.hpp:77] Creating layer fc3_Pointy_Nose
I1025 10:56:34.744046 20556 net.cpp:106] Creating Layer fc3_Pointy_Nose
I1025 10:56:34.744050 20556 net.cpp:454] fc3_Pointy_Nose <- fc2_nose_drop2_nose_0_split_1
I1025 10:56:34.744056 20556 net.cpp:411] fc3_Pointy_Nose -> fc3_Pointy_Nose
I1025 10:56:34.744176 20556 net.cpp:150] Setting up fc3_Pointy_Nose
I1025 10:56:34.744187 20556 net.cpp:157] Top shape: 70 2 (140)
I1025 10:56:34.744190 20556 net.cpp:165] Memory required for data: 2806821368
I1025 10:56:34.744235 20556 layer_factory.hpp:77] Creating layer loss_Pointy_Nose
I1025 10:56:34.744245 20556 net.cpp:106] Creating Layer loss_Pointy_Nose
I1025 10:56:34.744248 20556 net.cpp:454] loss_Pointy_Nose <- fc3_Pointy_Nose
I1025 10:56:34.744254 20556 net.cpp:454] loss_Pointy_Nose <- label_Pointy_Nose
I1025 10:56:34.744259 20556 net.cpp:411] loss_Pointy_Nose -> loss_Pointy_Nose
I1025 10:56:34.744305 20556 net.cpp:150] Setting up loss_Pointy_Nose
I1025 10:56:34.744313 20556 net.cpp:157] Top shape: (1)
I1025 10:56:34.744316 20556 net.cpp:160]     with loss weight 1
I1025 10:56:34.744321 20556 net.cpp:165] Memory required for data: 2806821372
I1025 10:56:34.744324 20556 layer_factory.hpp:77] Creating layer fc3_Big_Lips
I1025 10:56:34.744333 20556 net.cpp:106] Creating Layer fc3_Big_Lips
I1025 10:56:34.744338 20556 net.cpp:454] fc3_Big_Lips <- fc2_mouth_drop2_mouth_0_split_0
I1025 10:56:34.744343 20556 net.cpp:411] fc3_Big_Lips -> fc3_Big_Lips
I1025 10:56:34.744467 20556 net.cpp:150] Setting up fc3_Big_Lips
I1025 10:56:34.744477 20556 net.cpp:157] Top shape: 70 2 (140)
I1025 10:56:34.744479 20556 net.cpp:165] Memory required for data: 2806821932
I1025 10:56:34.744485 20556 layer_factory.hpp:77] Creating layer loss_Big_Lips
I1025 10:56:34.744490 20556 net.cpp:106] Creating Layer loss_Big_Lips
I1025 10:56:34.744494 20556 net.cpp:454] loss_Big_Lips <- fc3_Big_Lips
I1025 10:56:34.744500 20556 net.cpp:454] loss_Big_Lips <- label_Big_Lips
I1025 10:56:34.744505 20556 net.cpp:411] loss_Big_Lips -> loss_Big_Lips
I1025 10:56:34.744550 20556 net.cpp:150] Setting up loss_Big_Lips
I1025 10:56:34.744557 20556 net.cpp:157] Top shape: (1)
I1025 10:56:34.744561 20556 net.cpp:160]     with loss weight 1
I1025 10:56:34.744565 20556 net.cpp:165] Memory required for data: 2806821936
I1025 10:56:34.744570 20556 layer_factory.hpp:77] Creating layer fc3_Smiling
I1025 10:56:34.744576 20556 net.cpp:106] Creating Layer fc3_Smiling
I1025 10:56:34.744580 20556 net.cpp:454] fc3_Smiling <- fc2_mouth_drop2_mouth_0_split_1
I1025 10:56:34.744586 20556 net.cpp:411] fc3_Smiling -> fc3_Smiling
I1025 10:56:34.744704 20556 net.cpp:150] Setting up fc3_Smiling
I1025 10:56:34.744714 20556 net.cpp:157] Top shape: 70 2 (140)
I1025 10:56:34.744716 20556 net.cpp:165] Memory required for data: 2806822496
I1025 10:56:34.744722 20556 layer_factory.hpp:77] Creating layer loss_Smiling
I1025 10:56:34.744730 20556 net.cpp:106] Creating Layer loss_Smiling
I1025 10:56:34.744735 20556 net.cpp:454] loss_Smiling <- fc3_Smiling
I1025 10:56:34.744740 20556 net.cpp:454] loss_Smiling <- label_Smiling
I1025 10:56:34.744743 20556 net.cpp:411] loss_Smiling -> loss_Smiling
I1025 10:56:34.744786 20556 net.cpp:150] Setting up loss_Smiling
I1025 10:56:34.744794 20556 net.cpp:157] Top shape: (1)
I1025 10:56:34.744797 20556 net.cpp:160]     with loss weight 1
I1025 10:56:34.744802 20556 net.cpp:165] Memory required for data: 2806822500
I1025 10:56:34.744806 20556 layer_factory.hpp:77] Creating layer fc3_Wearing_Lipstick
I1025 10:56:34.744825 20556 net.cpp:106] Creating Layer fc3_Wearing_Lipstick
I1025 10:56:34.744829 20556 net.cpp:454] fc3_Wearing_Lipstick <- fc2_mouth_drop2_mouth_0_split_2
I1025 10:56:34.744835 20556 net.cpp:411] fc3_Wearing_Lipstick -> fc3_Wearing_Lipstick
I1025 10:56:34.744957 20556 net.cpp:150] Setting up fc3_Wearing_Lipstick
I1025 10:56:34.744966 20556 net.cpp:157] Top shape: 70 2 (140)
I1025 10:56:34.744969 20556 net.cpp:165] Memory required for data: 2806823060
I1025 10:56:34.744974 20556 layer_factory.hpp:77] Creating layer loss_Wearing_Lipstick
I1025 10:56:34.744982 20556 net.cpp:106] Creating Layer loss_Wearing_Lipstick
I1025 10:56:34.744987 20556 net.cpp:454] loss_Wearing_Lipstick <- fc3_Wearing_Lipstick
I1025 10:56:34.744992 20556 net.cpp:454] loss_Wearing_Lipstick <- label_Wearing_Lipstick
I1025 10:56:34.744997 20556 net.cpp:411] loss_Wearing_Lipstick -> loss_Wearing_Lipstick
I1025 10:56:34.745041 20556 net.cpp:150] Setting up loss_Wearing_Lipstick
I1025 10:56:34.745048 20556 net.cpp:157] Top shape: (1)
I1025 10:56:34.745051 20556 net.cpp:160]     with loss weight 1
I1025 10:56:34.745056 20556 net.cpp:165] Memory required for data: 2806823064
I1025 10:56:34.745059 20556 layer_factory.hpp:77] Creating layer fc3_Mouth_Slightly_Open
I1025 10:56:34.745069 20556 net.cpp:106] Creating Layer fc3_Mouth_Slightly_Open
I1025 10:56:34.745072 20556 net.cpp:454] fc3_Mouth_Slightly_Open <- fc2_mouth_drop2_mouth_0_split_3
I1025 10:56:34.745077 20556 net.cpp:411] fc3_Mouth_Slightly_Open -> fc3_Mouth_Slightly_Open
I1025 10:56:34.745196 20556 net.cpp:150] Setting up fc3_Mouth_Slightly_Open
I1025 10:56:34.745205 20556 net.cpp:157] Top shape: 70 2 (140)
I1025 10:56:34.745208 20556 net.cpp:165] Memory required for data: 2806823624
I1025 10:56:34.745215 20556 layer_factory.hpp:77] Creating layer loss_Mouth_Slightly_Open
I1025 10:56:34.745223 20556 net.cpp:106] Creating Layer loss_Mouth_Slightly_Open
I1025 10:56:34.745226 20556 net.cpp:454] loss_Mouth_Slightly_Open <- fc3_Mouth_Slightly_Open
I1025 10:56:34.745230 20556 net.cpp:454] loss_Mouth_Slightly_Open <- label_Mouth_Slightly_Open
I1025 10:56:34.745235 20556 net.cpp:411] loss_Mouth_Slightly_Open -> loss_Mouth_Slightly_Open
I1025 10:56:34.745280 20556 net.cpp:150] Setting up loss_Mouth_Slightly_Open
I1025 10:56:34.745286 20556 net.cpp:157] Top shape: (1)
I1025 10:56:34.745290 20556 net.cpp:160]     with loss weight 1
I1025 10:56:34.745295 20556 net.cpp:165] Memory required for data: 2806823628
I1025 10:56:34.745298 20556 layer_factory.hpp:77] Creating layer fc3_Arched_Eyebrows
I1025 10:56:34.745306 20556 net.cpp:106] Creating Layer fc3_Arched_Eyebrows
I1025 10:56:34.745311 20556 net.cpp:454] fc3_Arched_Eyebrows <- fc2_eyes_drop2_eyes_0_split_0
I1025 10:56:34.745316 20556 net.cpp:411] fc3_Arched_Eyebrows -> fc3_Arched_Eyebrows
I1025 10:56:34.745434 20556 net.cpp:150] Setting up fc3_Arched_Eyebrows
I1025 10:56:34.745441 20556 net.cpp:157] Top shape: 70 2 (140)
I1025 10:56:34.745445 20556 net.cpp:165] Memory required for data: 2806824188
I1025 10:56:34.745450 20556 layer_factory.hpp:77] Creating layer loss_Arched_Eyebrows
I1025 10:56:34.745457 20556 net.cpp:106] Creating Layer loss_Arched_Eyebrows
I1025 10:56:34.745461 20556 net.cpp:454] loss_Arched_Eyebrows <- fc3_Arched_Eyebrows
I1025 10:56:34.745465 20556 net.cpp:454] loss_Arched_Eyebrows <- label_Arched_Eyebrows
I1025 10:56:34.745471 20556 net.cpp:411] loss_Arched_Eyebrows -> loss_Arched_Eyebrows
I1025 10:56:34.745512 20556 net.cpp:150] Setting up loss_Arched_Eyebrows
I1025 10:56:34.745520 20556 net.cpp:157] Top shape: (1)
I1025 10:56:34.745523 20556 net.cpp:160]     with loss weight 1
I1025 10:56:34.745528 20556 net.cpp:165] Memory required for data: 2806824192
I1025 10:56:34.745532 20556 layer_factory.hpp:77] Creating layer fc3_Bags_Under_Eyes
I1025 10:56:34.745539 20556 net.cpp:106] Creating Layer fc3_Bags_Under_Eyes
I1025 10:56:34.745544 20556 net.cpp:454] fc3_Bags_Under_Eyes <- fc2_eyes_drop2_eyes_0_split_1
I1025 10:56:34.745549 20556 net.cpp:411] fc3_Bags_Under_Eyes -> fc3_Bags_Under_Eyes
I1025 10:56:34.745676 20556 net.cpp:150] Setting up fc3_Bags_Under_Eyes
I1025 10:56:34.745685 20556 net.cpp:157] Top shape: 70 2 (140)
I1025 10:56:34.745689 20556 net.cpp:165] Memory required for data: 2806824752
I1025 10:56:34.745695 20556 layer_factory.hpp:77] Creating layer loss_Bags_Under_Eyes
I1025 10:56:34.745703 20556 net.cpp:106] Creating Layer loss_Bags_Under_Eyes
I1025 10:56:34.745707 20556 net.cpp:454] loss_Bags_Under_Eyes <- fc3_Bags_Under_Eyes
I1025 10:56:34.745712 20556 net.cpp:454] loss_Bags_Under_Eyes <- label_Bags_Under_Eyes
I1025 10:56:34.745717 20556 net.cpp:411] loss_Bags_Under_Eyes -> loss_Bags_Under_Eyes
I1025 10:56:34.745761 20556 net.cpp:150] Setting up loss_Bags_Under_Eyes
I1025 10:56:34.745769 20556 net.cpp:157] Top shape: (1)
I1025 10:56:34.745771 20556 net.cpp:160]     with loss weight 1
I1025 10:56:34.745776 20556 net.cpp:165] Memory required for data: 2806824756
I1025 10:56:34.745779 20556 layer_factory.hpp:77] Creating layer fc3_Bushy_Eyebrows
I1025 10:56:34.745787 20556 net.cpp:106] Creating Layer fc3_Bushy_Eyebrows
I1025 10:56:34.745791 20556 net.cpp:454] fc3_Bushy_Eyebrows <- fc2_eyes_drop2_eyes_0_split_2
I1025 10:56:34.745796 20556 net.cpp:411] fc3_Bushy_Eyebrows -> fc3_Bushy_Eyebrows
I1025 10:56:34.745914 20556 net.cpp:150] Setting up fc3_Bushy_Eyebrows
I1025 10:56:34.745923 20556 net.cpp:157] Top shape: 70 2 (140)
I1025 10:56:34.745926 20556 net.cpp:165] Memory required for data: 2806825316
I1025 10:56:34.745931 20556 layer_factory.hpp:77] Creating layer loss_Bushy_Eyebrows
I1025 10:56:34.745939 20556 net.cpp:106] Creating Layer loss_Bushy_Eyebrows
I1025 10:56:34.745942 20556 net.cpp:454] loss_Bushy_Eyebrows <- fc3_Bushy_Eyebrows
I1025 10:56:34.745949 20556 net.cpp:454] loss_Bushy_Eyebrows <- label_Bushy_Eyebrows
I1025 10:56:34.745954 20556 net.cpp:411] loss_Bushy_Eyebrows -> loss_Bushy_Eyebrows
I1025 10:56:34.745995 20556 net.cpp:150] Setting up loss_Bushy_Eyebrows
I1025 10:56:34.746002 20556 net.cpp:157] Top shape: (1)
I1025 10:56:34.746006 20556 net.cpp:160]     with loss weight 1
I1025 10:56:34.746011 20556 net.cpp:165] Memory required for data: 2806825320
I1025 10:56:34.746013 20556 layer_factory.hpp:77] Creating layer fc3_Narrow_Eyes
I1025 10:56:34.746022 20556 net.cpp:106] Creating Layer fc3_Narrow_Eyes
I1025 10:56:34.746026 20556 net.cpp:454] fc3_Narrow_Eyes <- fc2_eyes_drop2_eyes_0_split_3
I1025 10:56:34.746031 20556 net.cpp:411] fc3_Narrow_Eyes -> fc3_Narrow_Eyes
I1025 10:56:34.746151 20556 net.cpp:150] Setting up fc3_Narrow_Eyes
I1025 10:56:34.746160 20556 net.cpp:157] Top shape: 70 2 (140)
I1025 10:56:34.746163 20556 net.cpp:165] Memory required for data: 2806825880
I1025 10:56:34.746170 20556 layer_factory.hpp:77] Creating layer loss_Narrow_Eyes
I1025 10:56:34.746177 20556 net.cpp:106] Creating Layer loss_Narrow_Eyes
I1025 10:56:34.746181 20556 net.cpp:454] loss_Narrow_Eyes <- fc3_Narrow_Eyes
I1025 10:56:34.746186 20556 net.cpp:454] loss_Narrow_Eyes <- label_Narrow_Eyes
I1025 10:56:34.746191 20556 net.cpp:411] loss_Narrow_Eyes -> loss_Narrow_Eyes
I1025 10:56:34.746233 20556 net.cpp:150] Setting up loss_Narrow_Eyes
I1025 10:56:34.746240 20556 net.cpp:157] Top shape: (1)
I1025 10:56:34.746243 20556 net.cpp:160]     with loss weight 1
I1025 10:56:34.746248 20556 net.cpp:165] Memory required for data: 2806825884
I1025 10:56:34.746253 20556 layer_factory.hpp:77] Creating layer fc3_Eyeglasses
I1025 10:56:34.746263 20556 net.cpp:106] Creating Layer fc3_Eyeglasses
I1025 10:56:34.746266 20556 net.cpp:454] fc3_Eyeglasses <- fc2_eyes_drop2_eyes_0_split_4
I1025 10:56:34.746271 20556 net.cpp:411] fc3_Eyeglasses -> fc3_Eyeglasses
I1025 10:56:34.746388 20556 net.cpp:150] Setting up fc3_Eyeglasses
I1025 10:56:34.746397 20556 net.cpp:157] Top shape: 70 2 (140)
I1025 10:56:34.746400 20556 net.cpp:165] Memory required for data: 2806826444
I1025 10:56:34.746405 20556 layer_factory.hpp:77] Creating layer loss_Eyeglasses
I1025 10:56:34.746414 20556 net.cpp:106] Creating Layer loss_Eyeglasses
I1025 10:56:34.746417 20556 net.cpp:454] loss_Eyeglasses <- fc3_Eyeglasses
I1025 10:56:34.746431 20556 net.cpp:454] loss_Eyeglasses <- label_Eyeglasses
I1025 10:56:34.746436 20556 net.cpp:411] loss_Eyeglasses -> loss_Eyeglasses
I1025 10:56:34.746482 20556 net.cpp:150] Setting up loss_Eyeglasses
I1025 10:56:34.746490 20556 net.cpp:157] Top shape: (1)
I1025 10:56:34.746493 20556 net.cpp:160]     with loss weight 1
I1025 10:56:34.746498 20556 net.cpp:165] Memory required for data: 2806826448
I1025 10:56:34.746501 20556 layer_factory.hpp:77] Creating layer fc3_Attractive
I1025 10:56:34.746510 20556 net.cpp:106] Creating Layer fc3_Attractive
I1025 10:56:34.746513 20556 net.cpp:454] fc3_Attractive <- fc2_face_drop2_face_0_split_0
I1025 10:56:34.746518 20556 net.cpp:411] fc3_Attractive -> fc3_Attractive
I1025 10:56:34.746639 20556 net.cpp:150] Setting up fc3_Attractive
I1025 10:56:34.746647 20556 net.cpp:157] Top shape: 70 2 (140)
I1025 10:56:34.746650 20556 net.cpp:165] Memory required for data: 2806827008
I1025 10:56:34.746656 20556 layer_factory.hpp:77] Creating layer loss_Attractive
I1025 10:56:34.746665 20556 net.cpp:106] Creating Layer loss_Attractive
I1025 10:56:34.746668 20556 net.cpp:454] loss_Attractive <- fc3_Attractive
I1025 10:56:34.746672 20556 net.cpp:454] loss_Attractive <- label_Attractive
I1025 10:56:34.746677 20556 net.cpp:411] loss_Attractive -> loss_Attractive
I1025 10:56:34.746719 20556 net.cpp:150] Setting up loss_Attractive
I1025 10:56:34.746726 20556 net.cpp:157] Top shape: (1)
I1025 10:56:34.746731 20556 net.cpp:160]     with loss weight 1
I1025 10:56:34.746734 20556 net.cpp:165] Memory required for data: 2806827012
I1025 10:56:34.746737 20556 layer_factory.hpp:77] Creating layer fc3_Blurry
I1025 10:56:34.746747 20556 net.cpp:106] Creating Layer fc3_Blurry
I1025 10:56:34.746752 20556 net.cpp:454] fc3_Blurry <- fc2_face_drop2_face_0_split_1
I1025 10:56:34.746757 20556 net.cpp:411] fc3_Blurry -> fc3_Blurry
I1025 10:56:34.746873 20556 net.cpp:150] Setting up fc3_Blurry
I1025 10:56:34.746881 20556 net.cpp:157] Top shape: 70 2 (140)
I1025 10:56:34.746884 20556 net.cpp:165] Memory required for data: 2806827572
I1025 10:56:34.746889 20556 layer_factory.hpp:77] Creating layer loss_Blurry
I1025 10:56:34.746896 20556 net.cpp:106] Creating Layer loss_Blurry
I1025 10:56:34.746901 20556 net.cpp:454] loss_Blurry <- fc3_Blurry
I1025 10:56:34.746906 20556 net.cpp:454] loss_Blurry <- label_Blurry
I1025 10:56:34.746909 20556 net.cpp:411] loss_Blurry -> loss_Blurry
I1025 10:56:34.746953 20556 net.cpp:150] Setting up loss_Blurry
I1025 10:56:34.746959 20556 net.cpp:157] Top shape: (1)
I1025 10:56:34.746963 20556 net.cpp:160]     with loss weight 1
I1025 10:56:34.746966 20556 net.cpp:165] Memory required for data: 2806827576
I1025 10:56:34.746970 20556 layer_factory.hpp:77] Creating layer fc3_Oval_Face
I1025 10:56:34.746978 20556 net.cpp:106] Creating Layer fc3_Oval_Face
I1025 10:56:34.746981 20556 net.cpp:454] fc3_Oval_Face <- fc2_face_drop2_face_0_split_2
I1025 10:56:34.746986 20556 net.cpp:411] fc3_Oval_Face -> fc3_Oval_Face
I1025 10:56:34.747104 20556 net.cpp:150] Setting up fc3_Oval_Face
I1025 10:56:34.747112 20556 net.cpp:157] Top shape: 70 2 (140)
I1025 10:56:34.747115 20556 net.cpp:165] Memory required for data: 2806828136
I1025 10:56:34.747123 20556 layer_factory.hpp:77] Creating layer loss_Oval_Face
I1025 10:56:34.747129 20556 net.cpp:106] Creating Layer loss_Oval_Face
I1025 10:56:34.747133 20556 net.cpp:454] loss_Oval_Face <- fc3_Oval_Face
I1025 10:56:34.747138 20556 net.cpp:454] loss_Oval_Face <- label_Oval_Face
I1025 10:56:34.747143 20556 net.cpp:411] loss_Oval_Face -> loss_Oval_Face
I1025 10:56:34.747185 20556 net.cpp:150] Setting up loss_Oval_Face
I1025 10:56:34.747192 20556 net.cpp:157] Top shape: (1)
I1025 10:56:34.747195 20556 net.cpp:160]     with loss weight 1
I1025 10:56:34.747200 20556 net.cpp:165] Memory required for data: 2806828140
I1025 10:56:34.747203 20556 layer_factory.hpp:77] Creating layer fc3_Pale_Skin
I1025 10:56:34.747211 20556 net.cpp:106] Creating Layer fc3_Pale_Skin
I1025 10:56:34.747215 20556 net.cpp:454] fc3_Pale_Skin <- fc2_face_drop2_face_0_split_3
I1025 10:56:34.747228 20556 net.cpp:411] fc3_Pale_Skin -> fc3_Pale_Skin
I1025 10:56:34.747347 20556 net.cpp:150] Setting up fc3_Pale_Skin
I1025 10:56:34.747355 20556 net.cpp:157] Top shape: 70 2 (140)
I1025 10:56:34.747359 20556 net.cpp:165] Memory required for data: 2806828700
I1025 10:56:34.747364 20556 layer_factory.hpp:77] Creating layer loss_Pale_Skin
I1025 10:56:34.747371 20556 net.cpp:106] Creating Layer loss_Pale_Skin
I1025 10:56:34.747375 20556 net.cpp:454] loss_Pale_Skin <- fc3_Pale_Skin
I1025 10:56:34.747380 20556 net.cpp:454] loss_Pale_Skin <- label_Pale_Skin
I1025 10:56:34.747385 20556 net.cpp:411] loss_Pale_Skin -> loss_Pale_Skin
I1025 10:56:34.747426 20556 net.cpp:150] Setting up loss_Pale_Skin
I1025 10:56:34.747433 20556 net.cpp:157] Top shape: (1)
I1025 10:56:34.747437 20556 net.cpp:160]     with loss weight 1
I1025 10:56:34.747442 20556 net.cpp:165] Memory required for data: 2806828704
I1025 10:56:34.747444 20556 layer_factory.hpp:77] Creating layer fc3_Young
I1025 10:56:34.747452 20556 net.cpp:106] Creating Layer fc3_Young
I1025 10:56:34.747457 20556 net.cpp:454] fc3_Young <- fc2_face_drop2_face_0_split_4
I1025 10:56:34.747462 20556 net.cpp:411] fc3_Young -> fc3_Young
I1025 10:56:34.747581 20556 net.cpp:150] Setting up fc3_Young
I1025 10:56:34.747589 20556 net.cpp:157] Top shape: 70 2 (140)
I1025 10:56:34.747592 20556 net.cpp:165] Memory required for data: 2806829264
I1025 10:56:34.747598 20556 layer_factory.hpp:77] Creating layer loss_Young
I1025 10:56:34.747606 20556 net.cpp:106] Creating Layer loss_Young
I1025 10:56:34.747609 20556 net.cpp:454] loss_Young <- fc3_Young
I1025 10:56:34.747614 20556 net.cpp:454] loss_Young <- label_Young
I1025 10:56:34.747618 20556 net.cpp:411] loss_Young -> loss_Young
I1025 10:56:34.747663 20556 net.cpp:150] Setting up loss_Young
I1025 10:56:34.747671 20556 net.cpp:157] Top shape: (1)
I1025 10:56:34.747674 20556 net.cpp:160]     with loss weight 1
I1025 10:56:34.747678 20556 net.cpp:165] Memory required for data: 2806829268
I1025 10:56:34.747683 20556 layer_factory.hpp:77] Creating layer fc3_Heavy_Makeup
I1025 10:56:34.747689 20556 net.cpp:106] Creating Layer fc3_Heavy_Makeup
I1025 10:56:34.747694 20556 net.cpp:454] fc3_Heavy_Makeup <- fc2_face_drop2_face_0_split_5
I1025 10:56:34.747699 20556 net.cpp:411] fc3_Heavy_Makeup -> fc3_Heavy_Makeup
I1025 10:56:34.747826 20556 net.cpp:150] Setting up fc3_Heavy_Makeup
I1025 10:56:34.747836 20556 net.cpp:157] Top shape: 70 2 (140)
I1025 10:56:34.747840 20556 net.cpp:165] Memory required for data: 2806829828
I1025 10:56:34.747845 20556 layer_factory.hpp:77] Creating layer loss_Heavy_Makeup
I1025 10:56:34.747854 20556 net.cpp:106] Creating Layer loss_Heavy_Makeup
I1025 10:56:34.747859 20556 net.cpp:454] loss_Heavy_Makeup <- fc3_Heavy_Makeup
I1025 10:56:34.747864 20556 net.cpp:454] loss_Heavy_Makeup <- label_Heavy_Makeup
I1025 10:56:34.747869 20556 net.cpp:411] loss_Heavy_Makeup -> loss_Heavy_Makeup
I1025 10:56:34.747913 20556 net.cpp:150] Setting up loss_Heavy_Makeup
I1025 10:56:34.747920 20556 net.cpp:157] Top shape: (1)
I1025 10:56:34.747923 20556 net.cpp:160]     with loss weight 1
I1025 10:56:34.747928 20556 net.cpp:165] Memory required for data: 2806829832
I1025 10:56:34.747932 20556 layer_factory.hpp:77] Creating layer fc3_Black_Hair
I1025 10:56:34.747939 20556 net.cpp:106] Creating Layer fc3_Black_Hair
I1025 10:56:34.747943 20556 net.cpp:454] fc3_Black_Hair <- fc2_aroundhead_drop2_aroundhead_0_split_0
I1025 10:56:34.747951 20556 net.cpp:411] fc3_Black_Hair -> fc3_Black_Hair
I1025 10:56:34.748070 20556 net.cpp:150] Setting up fc3_Black_Hair
I1025 10:56:34.748077 20556 net.cpp:157] Top shape: 70 2 (140)
I1025 10:56:34.748080 20556 net.cpp:165] Memory required for data: 2806830392
I1025 10:56:34.748087 20556 layer_factory.hpp:77] Creating layer loss_Black_Hair
I1025 10:56:34.748095 20556 net.cpp:106] Creating Layer loss_Black_Hair
I1025 10:56:34.748098 20556 net.cpp:454] loss_Black_Hair <- fc3_Black_Hair
I1025 10:56:34.748102 20556 net.cpp:454] loss_Black_Hair <- label_Black_Hair
I1025 10:56:34.748107 20556 net.cpp:411] loss_Black_Hair -> loss_Black_Hair
I1025 10:56:34.748162 20556 net.cpp:150] Setting up loss_Black_Hair
I1025 10:56:34.748170 20556 net.cpp:157] Top shape: (1)
I1025 10:56:34.748173 20556 net.cpp:160]     with loss weight 1
I1025 10:56:34.748178 20556 net.cpp:165] Memory required for data: 2806830396
I1025 10:56:34.748181 20556 layer_factory.hpp:77] Creating layer fc3_Blond_Hair
I1025 10:56:34.748190 20556 net.cpp:106] Creating Layer fc3_Blond_Hair
I1025 10:56:34.748194 20556 net.cpp:454] fc3_Blond_Hair <- fc2_aroundhead_drop2_aroundhead_0_split_1
I1025 10:56:34.748199 20556 net.cpp:411] fc3_Blond_Hair -> fc3_Blond_Hair
I1025 10:56:34.748317 20556 net.cpp:150] Setting up fc3_Blond_Hair
I1025 10:56:34.748325 20556 net.cpp:157] Top shape: 70 2 (140)
I1025 10:56:34.748328 20556 net.cpp:165] Memory required for data: 2806830956
I1025 10:56:34.748333 20556 layer_factory.hpp:77] Creating layer loss_Blond_Hair
I1025 10:56:34.748342 20556 net.cpp:106] Creating Layer loss_Blond_Hair
I1025 10:56:34.748347 20556 net.cpp:454] loss_Blond_Hair <- fc3_Blond_Hair
I1025 10:56:34.748350 20556 net.cpp:454] loss_Blond_Hair <- label_Blond_Hair
I1025 10:56:34.748354 20556 net.cpp:411] loss_Blond_Hair -> loss_Blond_Hair
I1025 10:56:34.748397 20556 net.cpp:150] Setting up loss_Blond_Hair
I1025 10:56:34.748405 20556 net.cpp:157] Top shape: (1)
I1025 10:56:34.748409 20556 net.cpp:160]     with loss weight 1
I1025 10:56:34.748414 20556 net.cpp:165] Memory required for data: 2806830960
I1025 10:56:34.748416 20556 layer_factory.hpp:77] Creating layer fc3_Brown_Hair
I1025 10:56:34.748423 20556 net.cpp:106] Creating Layer fc3_Brown_Hair
I1025 10:56:34.748427 20556 net.cpp:454] fc3_Brown_Hair <- fc2_aroundhead_drop2_aroundhead_0_split_2
I1025 10:56:34.748433 20556 net.cpp:411] fc3_Brown_Hair -> fc3_Brown_Hair
I1025 10:56:34.748549 20556 net.cpp:150] Setting up fc3_Brown_Hair
I1025 10:56:34.748558 20556 net.cpp:157] Top shape: 70 2 (140)
I1025 10:56:34.748560 20556 net.cpp:165] Memory required for data: 2806831520
I1025 10:56:34.748567 20556 layer_factory.hpp:77] Creating layer loss_Brown_Hair
I1025 10:56:34.748574 20556 net.cpp:106] Creating Layer loss_Brown_Hair
I1025 10:56:34.748579 20556 net.cpp:454] loss_Brown_Hair <- fc3_Brown_Hair
I1025 10:56:34.748582 20556 net.cpp:454] loss_Brown_Hair <- label_Brown_Hair
I1025 10:56:34.748587 20556 net.cpp:411] loss_Brown_Hair -> loss_Brown_Hair
I1025 10:56:34.748631 20556 net.cpp:150] Setting up loss_Brown_Hair
I1025 10:56:34.748638 20556 net.cpp:157] Top shape: (1)
I1025 10:56:34.748641 20556 net.cpp:160]     with loss weight 1
I1025 10:56:34.748646 20556 net.cpp:165] Memory required for data: 2806831524
I1025 10:56:34.748649 20556 layer_factory.hpp:77] Creating layer fc3_Gray_Hair
I1025 10:56:34.748656 20556 net.cpp:106] Creating Layer fc3_Gray_Hair
I1025 10:56:34.748661 20556 net.cpp:454] fc3_Gray_Hair <- fc2_aroundhead_drop2_aroundhead_0_split_3
I1025 10:56:34.748666 20556 net.cpp:411] fc3_Gray_Hair -> fc3_Gray_Hair
I1025 10:56:34.748782 20556 net.cpp:150] Setting up fc3_Gray_Hair
I1025 10:56:34.748790 20556 net.cpp:157] Top shape: 70 2 (140)
I1025 10:56:34.748793 20556 net.cpp:165] Memory required for data: 2806832084
I1025 10:56:34.748798 20556 layer_factory.hpp:77] Creating layer loss_Gray_Hair
I1025 10:56:34.748805 20556 net.cpp:106] Creating Layer loss_Gray_Hair
I1025 10:56:34.748809 20556 net.cpp:454] loss_Gray_Hair <- fc3_Gray_Hair
I1025 10:56:34.748813 20556 net.cpp:454] loss_Gray_Hair <- label_Gray_Hair
I1025 10:56:34.748818 20556 net.cpp:411] loss_Gray_Hair -> loss_Gray_Hair
I1025 10:56:34.748862 20556 net.cpp:150] Setting up loss_Gray_Hair
I1025 10:56:34.748868 20556 net.cpp:157] Top shape: (1)
I1025 10:56:34.748872 20556 net.cpp:160]     with loss weight 1
I1025 10:56:34.748877 20556 net.cpp:165] Memory required for data: 2806832088
I1025 10:56:34.748879 20556 layer_factory.hpp:77] Creating layer fc3_Wearing_Earrings
I1025 10:56:34.748888 20556 net.cpp:106] Creating Layer fc3_Wearing_Earrings
I1025 10:56:34.748891 20556 net.cpp:454] fc3_Wearing_Earrings <- fc2_aroundhead_drop2_aroundhead_0_split_4
I1025 10:56:34.748905 20556 net.cpp:411] fc3_Wearing_Earrings -> fc3_Wearing_Earrings
I1025 10:56:34.749028 20556 net.cpp:150] Setting up fc3_Wearing_Earrings
I1025 10:56:34.749037 20556 net.cpp:157] Top shape: 70 2 (140)
I1025 10:56:34.749039 20556 net.cpp:165] Memory required for data: 2806832648
I1025 10:56:34.749047 20556 layer_factory.hpp:77] Creating layer loss_Wearing_Earrings
I1025 10:56:34.749053 20556 net.cpp:106] Creating Layer loss_Wearing_Earrings
I1025 10:56:34.749058 20556 net.cpp:454] loss_Wearing_Earrings <- fc3_Wearing_Earrings
I1025 10:56:34.749063 20556 net.cpp:454] loss_Wearing_Earrings <- label_Wearing_Earrings
I1025 10:56:34.749066 20556 net.cpp:411] loss_Wearing_Earrings -> loss_Wearing_Earrings
I1025 10:56:34.749114 20556 net.cpp:150] Setting up loss_Wearing_Earrings
I1025 10:56:34.749121 20556 net.cpp:157] Top shape: (1)
I1025 10:56:34.749125 20556 net.cpp:160]     with loss weight 1
I1025 10:56:34.749130 20556 net.cpp:165] Memory required for data: 2806832652
I1025 10:56:34.749132 20556 layer_factory.hpp:77] Creating layer fc3_Wearing_Necklace
I1025 10:56:34.749140 20556 net.cpp:106] Creating Layer fc3_Wearing_Necklace
I1025 10:56:34.749145 20556 net.cpp:454] fc3_Wearing_Necklace <- fc2_aroundhead_drop2_aroundhead_0_split_5
I1025 10:56:34.749150 20556 net.cpp:411] fc3_Wearing_Necklace -> fc3_Wearing_Necklace
I1025 10:56:34.749269 20556 net.cpp:150] Setting up fc3_Wearing_Necklace
I1025 10:56:34.749277 20556 net.cpp:157] Top shape: 70 2 (140)
I1025 10:56:34.749280 20556 net.cpp:165] Memory required for data: 2806833212
I1025 10:56:34.749285 20556 layer_factory.hpp:77] Creating layer loss_Wearing_Necklace
I1025 10:56:34.749294 20556 net.cpp:106] Creating Layer loss_Wearing_Necklace
I1025 10:56:34.749297 20556 net.cpp:454] loss_Wearing_Necklace <- fc3_Wearing_Necklace
I1025 10:56:34.749301 20556 net.cpp:454] loss_Wearing_Necklace <- label_Wearing_Necklace
I1025 10:56:34.749306 20556 net.cpp:411] loss_Wearing_Necklace -> loss_Wearing_Necklace
I1025 10:56:34.749349 20556 net.cpp:150] Setting up loss_Wearing_Necklace
I1025 10:56:34.749356 20556 net.cpp:157] Top shape: (1)
I1025 10:56:34.749361 20556 net.cpp:160]     with loss weight 1
I1025 10:56:34.749364 20556 net.cpp:165] Memory required for data: 2806833216
I1025 10:56:34.749367 20556 layer_factory.hpp:77] Creating layer fc3_Wearing_Necktie
I1025 10:56:34.749375 20556 net.cpp:106] Creating Layer fc3_Wearing_Necktie
I1025 10:56:34.749379 20556 net.cpp:454] fc3_Wearing_Necktie <- fc2_aroundhead_drop2_aroundhead_0_split_6
I1025 10:56:34.749385 20556 net.cpp:411] fc3_Wearing_Necktie -> fc3_Wearing_Necktie
I1025 10:56:34.749505 20556 net.cpp:150] Setting up fc3_Wearing_Necktie
I1025 10:56:34.749512 20556 net.cpp:157] Top shape: 70 2 (140)
I1025 10:56:34.749516 20556 net.cpp:165] Memory required for data: 2806833776
I1025 10:56:34.749521 20556 layer_factory.hpp:77] Creating layer loss_Wearing_Necktie
I1025 10:56:34.749528 20556 net.cpp:106] Creating Layer loss_Wearing_Necktie
I1025 10:56:34.749532 20556 net.cpp:454] loss_Wearing_Necktie <- fc3_Wearing_Necktie
I1025 10:56:34.749536 20556 net.cpp:454] loss_Wearing_Necktie <- label_Wearing_Necktie
I1025 10:56:34.749541 20556 net.cpp:411] loss_Wearing_Necktie -> loss_Wearing_Necktie
I1025 10:56:34.749585 20556 net.cpp:150] Setting up loss_Wearing_Necktie
I1025 10:56:34.749593 20556 net.cpp:157] Top shape: (1)
I1025 10:56:34.749595 20556 net.cpp:160]     with loss weight 1
I1025 10:56:34.749600 20556 net.cpp:165] Memory required for data: 2806833780
I1025 10:56:34.749603 20556 layer_factory.hpp:77] Creating layer fc3_Bald
I1025 10:56:34.749610 20556 net.cpp:106] Creating Layer fc3_Bald
I1025 10:56:34.749615 20556 net.cpp:454] fc3_Bald <- fc2_aroundhead_drop2_aroundhead_0_split_7
I1025 10:56:34.749620 20556 net.cpp:411] fc3_Bald -> fc3_Bald
I1025 10:56:34.749740 20556 net.cpp:150] Setting up fc3_Bald
I1025 10:56:34.749748 20556 net.cpp:157] Top shape: 70 2 (140)
I1025 10:56:34.749752 20556 net.cpp:165] Memory required for data: 2806834340
I1025 10:56:34.749758 20556 layer_factory.hpp:77] Creating layer loss_Bald
I1025 10:56:34.749773 20556 net.cpp:106] Creating Layer loss_Bald
I1025 10:56:34.749778 20556 net.cpp:454] loss_Bald <- fc3_Bald
I1025 10:56:34.749783 20556 net.cpp:454] loss_Bald <- label_Bald
I1025 10:56:34.749788 20556 net.cpp:411] loss_Bald -> loss_Bald
I1025 10:56:34.749833 20556 net.cpp:150] Setting up loss_Bald
I1025 10:56:34.749840 20556 net.cpp:157] Top shape: (1)
I1025 10:56:34.749845 20556 net.cpp:160]     with loss weight 1
I1025 10:56:34.749850 20556 net.cpp:165] Memory required for data: 2806834344
I1025 10:56:34.749852 20556 layer_factory.hpp:77] Creating layer fc3_Receding_Hairline
I1025 10:56:34.749861 20556 net.cpp:106] Creating Layer fc3_Receding_Hairline
I1025 10:56:34.749864 20556 net.cpp:454] fc3_Receding_Hairline <- fc2_aroundhead_drop2_aroundhead_0_split_8
I1025 10:56:34.749869 20556 net.cpp:411] fc3_Receding_Hairline -> fc3_Receding_Hairline
I1025 10:56:34.749990 20556 net.cpp:150] Setting up fc3_Receding_Hairline
I1025 10:56:34.750000 20556 net.cpp:157] Top shape: 70 2 (140)
I1025 10:56:34.750002 20556 net.cpp:165] Memory required for data: 2806834904
I1025 10:56:34.750008 20556 layer_factory.hpp:77] Creating layer loss_Receding_Hairline
I1025 10:56:34.750016 20556 net.cpp:106] Creating Layer loss_Receding_Hairline
I1025 10:56:34.750020 20556 net.cpp:454] loss_Receding_Hairline <- fc3_Receding_Hairline
I1025 10:56:34.750025 20556 net.cpp:454] loss_Receding_Hairline <- label_Receding_Hairline
I1025 10:56:34.750030 20556 net.cpp:411] loss_Receding_Hairline -> loss_Receding_Hairline
I1025 10:56:34.750073 20556 net.cpp:150] Setting up loss_Receding_Hairline
I1025 10:56:34.750080 20556 net.cpp:157] Top shape: (1)
I1025 10:56:34.750083 20556 net.cpp:160]     with loss weight 1
I1025 10:56:34.750088 20556 net.cpp:165] Memory required for data: 2806834908
I1025 10:56:34.750092 20556 layer_factory.hpp:77] Creating layer fc3_Bangs
I1025 10:56:34.750098 20556 net.cpp:106] Creating Layer fc3_Bangs
I1025 10:56:34.750103 20556 net.cpp:454] fc3_Bangs <- fc2_aroundhead_drop2_aroundhead_0_split_9
I1025 10:56:34.750108 20556 net.cpp:411] fc3_Bangs -> fc3_Bangs
I1025 10:56:34.750233 20556 net.cpp:150] Setting up fc3_Bangs
I1025 10:56:34.750242 20556 net.cpp:157] Top shape: 70 2 (140)
I1025 10:56:34.750246 20556 net.cpp:165] Memory required for data: 2806835468
I1025 10:56:34.750250 20556 layer_factory.hpp:77] Creating layer loss_Bangs
I1025 10:56:34.750259 20556 net.cpp:106] Creating Layer loss_Bangs
I1025 10:56:34.750263 20556 net.cpp:454] loss_Bangs <- fc3_Bangs
I1025 10:56:34.750268 20556 net.cpp:454] loss_Bangs <- label_Bangs
I1025 10:56:34.750273 20556 net.cpp:411] loss_Bangs -> loss_Bangs
I1025 10:56:34.750316 20556 net.cpp:150] Setting up loss_Bangs
I1025 10:56:34.750324 20556 net.cpp:157] Top shape: (1)
I1025 10:56:34.750327 20556 net.cpp:160]     with loss weight 1
I1025 10:56:34.750331 20556 net.cpp:165] Memory required for data: 2806835472
I1025 10:56:34.750335 20556 layer_factory.hpp:77] Creating layer fc3_Wearing_Hat
I1025 10:56:34.750344 20556 net.cpp:106] Creating Layer fc3_Wearing_Hat
I1025 10:56:34.750347 20556 net.cpp:454] fc3_Wearing_Hat <- fc2_aroundhead_drop2_aroundhead_0_split_10
I1025 10:56:34.750354 20556 net.cpp:411] fc3_Wearing_Hat -> fc3_Wearing_Hat
I1025 10:56:34.750470 20556 net.cpp:150] Setting up fc3_Wearing_Hat
I1025 10:56:34.750479 20556 net.cpp:157] Top shape: 70 2 (140)
I1025 10:56:34.750483 20556 net.cpp:165] Memory required for data: 2806836032
I1025 10:56:34.750488 20556 layer_factory.hpp:77] Creating layer loss_Wearing_Hat
I1025 10:56:34.750495 20556 net.cpp:106] Creating Layer loss_Wearing_Hat
I1025 10:56:34.750499 20556 net.cpp:454] loss_Wearing_Hat <- fc3_Wearing_Hat
I1025 10:56:34.750504 20556 net.cpp:454] loss_Wearing_Hat <- label_Wearing_Hat
I1025 10:56:34.750509 20556 net.cpp:411] loss_Wearing_Hat -> loss_Wearing_Hat
I1025 10:56:34.750555 20556 net.cpp:150] Setting up loss_Wearing_Hat
I1025 10:56:34.750562 20556 net.cpp:157] Top shape: (1)
I1025 10:56:34.750566 20556 net.cpp:160]     with loss weight 1
I1025 10:56:34.750571 20556 net.cpp:165] Memory required for data: 2806836036
I1025 10:56:34.750582 20556 layer_factory.hpp:77] Creating layer fc3_Straight_Hair
I1025 10:56:34.750591 20556 net.cpp:106] Creating Layer fc3_Straight_Hair
I1025 10:56:34.750594 20556 net.cpp:454] fc3_Straight_Hair <- fc2_aroundhead_drop2_aroundhead_0_split_11
I1025 10:56:34.750599 20556 net.cpp:411] fc3_Straight_Hair -> fc3_Straight_Hair
I1025 10:56:34.750720 20556 net.cpp:150] Setting up fc3_Straight_Hair
I1025 10:56:34.750728 20556 net.cpp:157] Top shape: 70 2 (140)
I1025 10:56:34.750732 20556 net.cpp:165] Memory required for data: 2806836596
I1025 10:56:34.750737 20556 layer_factory.hpp:77] Creating layer loss_Straight_Hair
I1025 10:56:34.750744 20556 net.cpp:106] Creating Layer loss_Straight_Hair
I1025 10:56:34.750748 20556 net.cpp:454] loss_Straight_Hair <- fc3_Straight_Hair
I1025 10:56:34.750753 20556 net.cpp:454] loss_Straight_Hair <- label_Straight_Hair
I1025 10:56:34.750758 20556 net.cpp:411] loss_Straight_Hair -> loss_Straight_Hair
I1025 10:56:34.750802 20556 net.cpp:150] Setting up loss_Straight_Hair
I1025 10:56:34.750810 20556 net.cpp:157] Top shape: (1)
I1025 10:56:34.750813 20556 net.cpp:160]     with loss weight 1
I1025 10:56:34.750818 20556 net.cpp:165] Memory required for data: 2806836600
I1025 10:56:34.750821 20556 layer_factory.hpp:77] Creating layer fc3_Wavy_Hair
I1025 10:56:34.750830 20556 net.cpp:106] Creating Layer fc3_Wavy_Hair
I1025 10:56:34.750834 20556 net.cpp:454] fc3_Wavy_Hair <- fc2_aroundhead_drop2_aroundhead_0_split_12
I1025 10:56:34.750839 20556 net.cpp:411] fc3_Wavy_Hair -> fc3_Wavy_Hair
I1025 10:56:34.750959 20556 net.cpp:150] Setting up fc3_Wavy_Hair
I1025 10:56:34.750967 20556 net.cpp:157] Top shape: 70 2 (140)
I1025 10:56:34.750970 20556 net.cpp:165] Memory required for data: 2806837160
I1025 10:56:34.750977 20556 layer_factory.hpp:77] Creating layer loss_Wavy_Hair
I1025 10:56:34.750983 20556 net.cpp:106] Creating Layer loss_Wavy_Hair
I1025 10:56:34.750988 20556 net.cpp:454] loss_Wavy_Hair <- fc3_Wavy_Hair
I1025 10:56:34.750991 20556 net.cpp:454] loss_Wavy_Hair <- label_Wavy_Hair
I1025 10:56:34.750996 20556 net.cpp:411] loss_Wavy_Hair -> loss_Wavy_Hair
I1025 10:56:34.751039 20556 net.cpp:150] Setting up loss_Wavy_Hair
I1025 10:56:34.751045 20556 net.cpp:157] Top shape: (1)
I1025 10:56:34.751049 20556 net.cpp:160]     with loss weight 1
I1025 10:56:34.751054 20556 net.cpp:165] Memory required for data: 2806837164
I1025 10:56:34.751056 20556 layer_factory.hpp:77] Creating layer fc3_5_o_Clock_Shadow
I1025 10:56:34.751065 20556 net.cpp:106] Creating Layer fc3_5_o_Clock_Shadow
I1025 10:56:34.751068 20556 net.cpp:454] fc3_5_o_Clock_Shadow <- fc2_facialhair_drop2_facialhair_0_split_0
I1025 10:56:34.751075 20556 net.cpp:411] fc3_5_o_Clock_Shadow -> fc3_5_o_Clock_Shadow
I1025 10:56:34.751194 20556 net.cpp:150] Setting up fc3_5_o_Clock_Shadow
I1025 10:56:34.751202 20556 net.cpp:157] Top shape: 70 2 (140)
I1025 10:56:34.751206 20556 net.cpp:165] Memory required for data: 2806837724
I1025 10:56:34.751211 20556 layer_factory.hpp:77] Creating layer loss_5_o_Clock_Shadow
I1025 10:56:34.751219 20556 net.cpp:106] Creating Layer loss_5_o_Clock_Shadow
I1025 10:56:34.751224 20556 net.cpp:454] loss_5_o_Clock_Shadow <- fc3_5_o_Clock_Shadow
I1025 10:56:34.751229 20556 net.cpp:454] loss_5_o_Clock_Shadow <- label_5_o_Clock_Shadow
I1025 10:56:34.751232 20556 net.cpp:411] loss_5_o_Clock_Shadow -> loss_5_o_Clock_Shadow
I1025 10:56:34.751276 20556 net.cpp:150] Setting up loss_5_o_Clock_Shadow
I1025 10:56:34.751283 20556 net.cpp:157] Top shape: (1)
I1025 10:56:34.751286 20556 net.cpp:160]     with loss weight 1
I1025 10:56:34.751291 20556 net.cpp:165] Memory required for data: 2806837728
I1025 10:56:34.751294 20556 layer_factory.hpp:77] Creating layer fc3_Mustache
I1025 10:56:34.751302 20556 net.cpp:106] Creating Layer fc3_Mustache
I1025 10:56:34.751307 20556 net.cpp:454] fc3_Mustache <- fc2_facialhair_drop2_facialhair_0_split_1
I1025 10:56:34.751312 20556 net.cpp:411] fc3_Mustache -> fc3_Mustache
I1025 10:56:34.751431 20556 net.cpp:150] Setting up fc3_Mustache
I1025 10:56:34.751440 20556 net.cpp:157] Top shape: 70 2 (140)
I1025 10:56:34.751451 20556 net.cpp:165] Memory required for data: 2806838288
I1025 10:56:34.751456 20556 layer_factory.hpp:77] Creating layer loss_Mustache
I1025 10:56:34.751466 20556 net.cpp:106] Creating Layer loss_Mustache
I1025 10:56:34.751468 20556 net.cpp:454] loss_Mustache <- fc3_Mustache
I1025 10:56:34.751473 20556 net.cpp:454] loss_Mustache <- label_Mustache
I1025 10:56:34.751478 20556 net.cpp:411] loss_Mustache -> loss_Mustache
I1025 10:56:34.751524 20556 net.cpp:150] Setting up loss_Mustache
I1025 10:56:34.751531 20556 net.cpp:157] Top shape: (1)
I1025 10:56:34.751534 20556 net.cpp:160]     with loss weight 1
I1025 10:56:34.751539 20556 net.cpp:165] Memory required for data: 2806838292
I1025 10:56:34.751543 20556 layer_factory.hpp:77] Creating layer fc3_No_Beard
I1025 10:56:34.751551 20556 net.cpp:106] Creating Layer fc3_No_Beard
I1025 10:56:34.751555 20556 net.cpp:454] fc3_No_Beard <- fc2_facialhair_drop2_facialhair_0_split_2
I1025 10:56:34.751560 20556 net.cpp:411] fc3_No_Beard -> fc3_No_Beard
I1025 10:56:34.751682 20556 net.cpp:150] Setting up fc3_No_Beard
I1025 10:56:34.751690 20556 net.cpp:157] Top shape: 70 2 (140)
I1025 10:56:34.751693 20556 net.cpp:165] Memory required for data: 2806838852
I1025 10:56:34.751699 20556 layer_factory.hpp:77] Creating layer loss_No_Beard
I1025 10:56:34.751706 20556 net.cpp:106] Creating Layer loss_No_Beard
I1025 10:56:34.751710 20556 net.cpp:454] loss_No_Beard <- fc3_No_Beard
I1025 10:56:34.751714 20556 net.cpp:454] loss_No_Beard <- label_No_Beard
I1025 10:56:34.751719 20556 net.cpp:411] loss_No_Beard -> loss_No_Beard
I1025 10:56:34.751761 20556 net.cpp:150] Setting up loss_No_Beard
I1025 10:56:34.751775 20556 net.cpp:157] Top shape: (1)
I1025 10:56:34.751778 20556 net.cpp:160]     with loss weight 1
I1025 10:56:34.751783 20556 net.cpp:165] Memory required for data: 2806838856
I1025 10:56:34.751787 20556 layer_factory.hpp:77] Creating layer fc3_Sideburns
I1025 10:56:34.751796 20556 net.cpp:106] Creating Layer fc3_Sideburns
I1025 10:56:34.751799 20556 net.cpp:454] fc3_Sideburns <- fc2_facialhair_drop2_facialhair_0_split_3
I1025 10:56:34.751806 20556 net.cpp:411] fc3_Sideburns -> fc3_Sideburns
I1025 10:56:34.751926 20556 net.cpp:150] Setting up fc3_Sideburns
I1025 10:56:34.751935 20556 net.cpp:157] Top shape: 70 2 (140)
I1025 10:56:34.751938 20556 net.cpp:165] Memory required for data: 2806839416
I1025 10:56:34.751943 20556 layer_factory.hpp:77] Creating layer loss_Sideburns
I1025 10:56:34.751955 20556 net.cpp:106] Creating Layer loss_Sideburns
I1025 10:56:34.751958 20556 net.cpp:454] loss_Sideburns <- fc3_Sideburns
I1025 10:56:34.751963 20556 net.cpp:454] loss_Sideburns <- label_Sideburns
I1025 10:56:34.751967 20556 net.cpp:411] loss_Sideburns -> loss_Sideburns
I1025 10:56:34.752010 20556 net.cpp:150] Setting up loss_Sideburns
I1025 10:56:34.752018 20556 net.cpp:157] Top shape: (1)
I1025 10:56:34.752022 20556 net.cpp:160]     with loss weight 1
I1025 10:56:34.752025 20556 net.cpp:165] Memory required for data: 2806839420
I1025 10:56:34.752029 20556 layer_factory.hpp:77] Creating layer fc3_Goatee
I1025 10:56:34.752037 20556 net.cpp:106] Creating Layer fc3_Goatee
I1025 10:56:34.752040 20556 net.cpp:454] fc3_Goatee <- fc2_facialhair_drop2_facialhair_0_split_4
I1025 10:56:34.752045 20556 net.cpp:411] fc3_Goatee -> fc3_Goatee
I1025 10:56:34.752163 20556 net.cpp:150] Setting up fc3_Goatee
I1025 10:56:34.752171 20556 net.cpp:157] Top shape: 70 2 (140)
I1025 10:56:34.752174 20556 net.cpp:165] Memory required for data: 2806839980
I1025 10:56:34.752180 20556 layer_factory.hpp:77] Creating layer loss_Goatee
I1025 10:56:34.752187 20556 net.cpp:106] Creating Layer loss_Goatee
I1025 10:56:34.752192 20556 net.cpp:454] loss_Goatee <- fc3_Goatee
I1025 10:56:34.752195 20556 net.cpp:454] loss_Goatee <- label_Goatee
I1025 10:56:34.752200 20556 net.cpp:411] loss_Goatee -> loss_Goatee
I1025 10:56:34.752243 20556 net.cpp:150] Setting up loss_Goatee
I1025 10:56:34.752250 20556 net.cpp:157] Top shape: (1)
I1025 10:56:34.752254 20556 net.cpp:160]     with loss weight 1
I1025 10:56:34.752267 20556 net.cpp:165] Memory required for data: 2806839984
I1025 10:56:34.752270 20556 layer_factory.hpp:77] Creating layer fc3_High_Cheekbones
I1025 10:56:34.752279 20556 net.cpp:106] Creating Layer fc3_High_Cheekbones
I1025 10:56:34.752285 20556 net.cpp:454] fc3_High_Cheekbones <- fc2_cheeks_drop2_cheeks_0_split_0
I1025 10:56:34.752290 20556 net.cpp:411] fc3_High_Cheekbones -> fc3_High_Cheekbones
I1025 10:56:34.752410 20556 net.cpp:150] Setting up fc3_High_Cheekbones
I1025 10:56:34.752418 20556 net.cpp:157] Top shape: 70 2 (140)
I1025 10:56:34.752421 20556 net.cpp:165] Memory required for data: 2806840544
I1025 10:56:34.752427 20556 layer_factory.hpp:77] Creating layer loss_High_Cheekbones
I1025 10:56:34.752434 20556 net.cpp:106] Creating Layer loss_High_Cheekbones
I1025 10:56:34.752439 20556 net.cpp:454] loss_High_Cheekbones <- fc3_High_Cheekbones
I1025 10:56:34.752442 20556 net.cpp:454] loss_High_Cheekbones <- label_High_Cheekbones
I1025 10:56:34.752447 20556 net.cpp:411] loss_High_Cheekbones -> loss_High_Cheekbones
I1025 10:56:34.752490 20556 net.cpp:150] Setting up loss_High_Cheekbones
I1025 10:56:34.752497 20556 net.cpp:157] Top shape: (1)
I1025 10:56:34.752501 20556 net.cpp:160]     with loss weight 1
I1025 10:56:34.752506 20556 net.cpp:165] Memory required for data: 2806840548
I1025 10:56:34.752508 20556 layer_factory.hpp:77] Creating layer fc3_Rosy_Cheeks
I1025 10:56:34.752516 20556 net.cpp:106] Creating Layer fc3_Rosy_Cheeks
I1025 10:56:34.752519 20556 net.cpp:454] fc3_Rosy_Cheeks <- fc2_cheeks_drop2_cheeks_0_split_1
I1025 10:56:34.752526 20556 net.cpp:411] fc3_Rosy_Cheeks -> fc3_Rosy_Cheeks
…
I1025 10:56:37.029510 20556 net.cpp:157] Top shape: (1)
I1025 10:56:37.029512 20556 net.cpp:160]     with loss weight 1
I1025 10:56:37.029525 20556 net.cpp:165] Memory required for data: 2566236676
I1025 10:56:37.029530 20556 layer_factory.hpp:77] Creating layer fc3_Big_Nose
I1025 10:56:37.029537 20556 net.cpp:106] Creating Layer fc3_Big_Nose
I1025 10:56:37.029542 20556 net.cpp:454] fc3_Big_Nose <- fc2_nose_drop2_nose_0_split_0
I1025 10:56:37.029547 20556 net.cpp:411] fc3_Big_Nose -> fc3_Big_Nose
I1025 10:56:37.029691 20556 net.cpp:150] Setting up fc3_Big_Nose
I1025 10:56:37.029700 20556 net.cpp:157] Top shape: 64 2 (128)
I1025 10:56:37.029703 20556 net.cpp:165] Memory required for data: 2566237188
I1025 10:56:37.029708 20556 layer_factory.hpp:77] Creating layer loss_Big_Nose
I1025 10:56:37.029716 20556 net.cpp:106] Creating Layer loss_Big_Nose
I1025 10:56:37.029721 20556 net.cpp:454] loss_Big_Nose <- fc3_Big_Nose
I1025 10:56:37.029726 20556 net.cpp:454] loss_Big_Nose <- label_Big_Nose
I1025 10:56:37.029732 20556 net.cpp:411] loss_Big_Nose -> loss_Big_Nose
I1025 10:56:37.029779 20556 net.cpp:150] Setting up loss_Big_Nose
I1025 10:56:37.029788 20556 net.cpp:157] Top shape: (1)
I1025 10:56:37.029789 20556 net.cpp:160]     with loss weight 1
I1025 10:56:37.029795 20556 net.cpp:165] Memory required for data: 2566237192
I1025 10:56:37.029798 20556 layer_factory.hpp:77] Creating layer fc3_Pointy_Nose
I1025 10:56:37.029808 20556 net.cpp:106] Creating Layer fc3_Pointy_Nose
I1025 10:56:37.029811 20556 net.cpp:454] fc3_Pointy_Nose <- fc2_nose_drop2_nose_0_split_1
I1025 10:56:37.029816 20556 net.cpp:411] fc3_Pointy_Nose -> fc3_Pointy_Nose
I1025 10:56:37.029953 20556 net.cpp:150] Setting up fc3_Pointy_Nose
I1025 10:56:37.029961 20556 net.cpp:157] Top shape: 64 2 (128)
I1025 10:56:37.029964 20556 net.cpp:165] Memory required for data: 2566237704
I1025 10:56:37.030015 20556 layer_factory.hpp:77] Creating layer loss_Pointy_Nose
I1025 10:56:37.030026 20556 net.cpp:106] Creating Layer loss_Pointy_Nose
I1025 10:56:37.030030 20556 net.cpp:454] loss_Pointy_Nose <- fc3_Pointy_Nose
I1025 10:56:37.030035 20556 net.cpp:454] loss_Pointy_Nose <- label_Pointy_Nose
I1025 10:56:37.030040 20556 net.cpp:411] loss_Pointy_Nose -> loss_Pointy_Nose
I1025 10:56:37.030092 20556 net.cpp:150] Setting up loss_Pointy_Nose
I1025 10:56:37.030099 20556 net.cpp:157] Top shape: (1)
I1025 10:56:37.030103 20556 net.cpp:160]     with loss weight 1
I1025 10:56:37.030107 20556 net.cpp:165] Memory required for data: 2566237708
I1025 10:56:37.030120 20556 layer_factory.hpp:77] Creating layer fc3_Big_Lips
I1025 10:56:37.030128 20556 net.cpp:106] Creating Layer fc3_Big_Lips
I1025 10:56:37.030131 20556 net.cpp:454] fc3_Big_Lips <- fc2_mouth_drop2_mouth_0_split_0
I1025 10:56:37.030138 20556 net.cpp:411] fc3_Big_Lips -> fc3_Big_Lips
I1025 10:56:37.030287 20556 net.cpp:150] Setting up fc3_Big_Lips
I1025 10:56:37.030295 20556 net.cpp:157] Top shape: 64 2 (128)
I1025 10:56:37.030298 20556 net.cpp:165] Memory required for data: 2566238220
I1025 10:56:37.030303 20556 layer_factory.hpp:77] Creating layer loss_Big_Lips
I1025 10:56:37.030310 20556 net.cpp:106] Creating Layer loss_Big_Lips
I1025 10:56:37.030314 20556 net.cpp:454] loss_Big_Lips <- fc3_Big_Lips
I1025 10:56:37.030319 20556 net.cpp:454] loss_Big_Lips <- label_Big_Lips
I1025 10:56:37.030323 20556 net.cpp:411] loss_Big_Lips -> loss_Big_Lips
I1025 10:56:37.030374 20556 net.cpp:150] Setting up loss_Big_Lips
I1025 10:56:37.030381 20556 net.cpp:157] Top shape: (1)
I1025 10:56:37.030385 20556 net.cpp:160]     with loss weight 1
I1025 10:56:37.030390 20556 net.cpp:165] Memory required for data: 2566238224
I1025 10:56:37.030392 20556 layer_factory.hpp:77] Creating layer fc3_Smiling
I1025 10:56:37.030398 20556 net.cpp:106] Creating Layer fc3_Smiling
I1025 10:56:37.030402 20556 net.cpp:454] fc3_Smiling <- fc2_mouth_drop2_mouth_0_split_1
I1025 10:56:37.030410 20556 net.cpp:411] fc3_Smiling -> fc3_Smiling
I1025 10:56:37.030549 20556 net.cpp:150] Setting up fc3_Smiling
I1025 10:56:37.030556 20556 net.cpp:157] Top shape: 64 2 (128)
I1025 10:56:37.030560 20556 net.cpp:165] Memory required for data: 2566238736
I1025 10:56:37.030565 20556 layer_factory.hpp:77] Creating layer loss_Smiling
I1025 10:56:37.030572 20556 net.cpp:106] Creating Layer loss_Smiling
I1025 10:56:37.030575 20556 net.cpp:454] loss_Smiling <- fc3_Smiling
I1025 10:56:37.030580 20556 net.cpp:454] loss_Smiling <- label_Smiling
I1025 10:56:37.030585 20556 net.cpp:411] loss_Smiling -> loss_Smiling
I1025 10:56:37.030634 20556 net.cpp:150] Setting up loss_Smiling
I1025 10:56:37.030642 20556 net.cpp:157] Top shape: (1)
I1025 10:56:37.030644 20556 net.cpp:160]     with loss weight 1
I1025 10:56:37.030649 20556 net.cpp:165] Memory required for data: 2566238740
I1025 10:56:37.030652 20556 layer_factory.hpp:77] Creating layer fc3_Wearing_Lipstick
I1025 10:56:37.030659 20556 net.cpp:106] Creating Layer fc3_Wearing_Lipstick
I1025 10:56:37.030664 20556 net.cpp:454] fc3_Wearing_Lipstick <- fc2_mouth_drop2_mouth_0_split_2
I1025 10:56:37.030670 20556 net.cpp:411] fc3_Wearing_Lipstick -> fc3_Wearing_Lipstick
I1025 10:56:37.030813 20556 net.cpp:150] Setting up fc3_Wearing_Lipstick
I1025 10:56:37.030822 20556 net.cpp:157] Top shape: 64 2 (128)
I1025 10:56:37.030825 20556 net.cpp:165] Memory required for data: 2566239252
I1025 10:56:37.030830 20556 layer_factory.hpp:77] Creating layer loss_Wearing_Lipstick
I1025 10:56:37.030838 20556 net.cpp:106] Creating Layer loss_Wearing_Lipstick
I1025 10:56:37.030843 20556 net.cpp:454] loss_Wearing_Lipstick <- fc3_Wearing_Lipstick
I1025 10:56:37.030848 20556 net.cpp:454] loss_Wearing_Lipstick <- label_Wearing_Lipstick
I1025 10:56:37.030853 20556 net.cpp:411] loss_Wearing_Lipstick -> loss_Wearing_Lipstick
I1025 10:56:37.030905 20556 net.cpp:150] Setting up loss_Wearing_Lipstick
I1025 10:56:37.030912 20556 net.cpp:157] Top shape: (1)
I1025 10:56:37.030915 20556 net.cpp:160]     with loss weight 1
I1025 10:56:37.030920 20556 net.cpp:165] Memory required for data: 2566239256
I1025 10:56:37.030923 20556 layer_factory.hpp:77] Creating layer fc3_Mouth_Slightly_Open
I1025 10:56:37.030930 20556 net.cpp:106] Creating Layer fc3_Mouth_Slightly_Open
I1025 10:56:37.030933 20556 net.cpp:454] fc3_Mouth_Slightly_Open <- fc2_mouth_drop2_mouth_0_split_3
I1025 10:56:37.030939 20556 net.cpp:411] fc3_Mouth_Slightly_Open -> fc3_Mouth_Slightly_Open
I1025 10:56:37.031082 20556 net.cpp:150] Setting up fc3_Mouth_Slightly_Open
I1025 10:56:37.031090 20556 net.cpp:157] Top shape: 64 2 (128)
I1025 10:56:37.031093 20556 net.cpp:165] Memory required for data: 2566239768
I1025 10:56:37.031107 20556 layer_factory.hpp:77] Creating layer loss_Mouth_Slightly_Open
I1025 10:56:37.031117 20556 net.cpp:106] Creating Layer loss_Mouth_Slightly_Open
I1025 10:56:37.031121 20556 net.cpp:454] loss_Mouth_Slightly_Open <- fc3_Mouth_Slightly_Open
I1025 10:56:37.031126 20556 net.cpp:454] loss_Mouth_Slightly_Open <- label_Mouth_Slightly_Open
I1025 10:56:37.031131 20556 net.cpp:411] loss_Mouth_Slightly_Open -> loss_Mouth_Slightly_Open
I1025 10:56:37.031180 20556 net.cpp:150] Setting up loss_Mouth_Slightly_Open
I1025 10:56:37.031188 20556 net.cpp:157] Top shape: (1)
I1025 10:56:37.031191 20556 net.cpp:160]     with loss weight 1
I1025 10:56:37.031196 20556 net.cpp:165] Memory required for data: 2566239772
I1025 10:56:37.031200 20556 layer_factory.hpp:77] Creating layer fc3_Arched_Eyebrows
I1025 10:56:37.031206 20556 net.cpp:106] Creating Layer fc3_Arched_Eyebrows
I1025 10:56:37.031213 20556 net.cpp:454] fc3_Arched_Eyebrows <- fc2_eyes_drop2_eyes_0_split_0
I1025 10:56:37.031219 20556 net.cpp:411] fc3_Arched_Eyebrows -> fc3_Arched_Eyebrows
I1025 10:56:37.031360 20556 net.cpp:150] Setting up fc3_Arched_Eyebrows
I1025 10:56:37.031369 20556 net.cpp:157] Top shape: 64 2 (128)
I1025 10:56:37.031373 20556 net.cpp:165] Memory required for data: 2566240284
I1025 10:56:37.031378 20556 layer_factory.hpp:77] Creating layer loss_Arched_Eyebrows
I1025 10:56:37.031385 20556 net.cpp:106] Creating Layer loss_Arched_Eyebrows
I1025 10:56:37.031389 20556 net.cpp:454] loss_Arched_Eyebrows <- fc3_Arched_Eyebrows
I1025 10:56:37.031394 20556 net.cpp:454] loss_Arched_Eyebrows <- label_Arched_Eyebrows
I1025 10:56:37.031399 20556 net.cpp:411] loss_Arched_Eyebrows -> loss_Arched_Eyebrows
I1025 10:56:37.031446 20556 net.cpp:150] Setting up loss_Arched_Eyebrows
I1025 10:56:37.031453 20556 net.cpp:157] Top shape: (1)
I1025 10:56:37.031457 20556 net.cpp:160]     with loss weight 1
I1025 10:56:37.031461 20556 net.cpp:165] Memory required for data: 2566240288
I1025 10:56:37.031464 20556 layer_factory.hpp:77] Creating layer fc3_Bags_Under_Eyes
I1025 10:56:37.031472 20556 net.cpp:106] Creating Layer fc3_Bags_Under_Eyes
I1025 10:56:37.031476 20556 net.cpp:454] fc3_Bags_Under_Eyes <- fc2_eyes_drop2_eyes_0_split_1
I1025 10:56:37.031482 20556 net.cpp:411] fc3_Bags_Under_Eyes -> fc3_Bags_Under_Eyes
I1025 10:56:37.031620 20556 net.cpp:150] Setting up fc3_Bags_Under_Eyes
I1025 10:56:37.031628 20556 net.cpp:157] Top shape: 64 2 (128)
I1025 10:56:37.031631 20556 net.cpp:165] Memory required for data: 2566240800
I1025 10:56:37.031636 20556 layer_factory.hpp:77] Creating layer loss_Bags_Under_Eyes
I1025 10:56:37.031644 20556 net.cpp:106] Creating Layer loss_Bags_Under_Eyes
I1025 10:56:37.031648 20556 net.cpp:454] loss_Bags_Under_Eyes <- fc3_Bags_Under_Eyes
I1025 10:56:37.031652 20556 net.cpp:454] loss_Bags_Under_Eyes <- label_Bags_Under_Eyes
I1025 10:56:37.031656 20556 net.cpp:411] loss_Bags_Under_Eyes -> loss_Bags_Under_Eyes
I1025 10:56:37.031705 20556 net.cpp:150] Setting up loss_Bags_Under_Eyes
I1025 10:56:37.031713 20556 net.cpp:157] Top shape: (1)
I1025 10:56:37.031715 20556 net.cpp:160]     with loss weight 1
I1025 10:56:37.031720 20556 net.cpp:165] Memory required for data: 2566240804
I1025 10:56:37.031724 20556 layer_factory.hpp:77] Creating layer fc3_Bushy_Eyebrows
I1025 10:56:37.031731 20556 net.cpp:106] Creating Layer fc3_Bushy_Eyebrows
I1025 10:56:37.031735 20556 net.cpp:454] fc3_Bushy_Eyebrows <- fc2_eyes_drop2_eyes_0_split_2
I1025 10:56:37.031743 20556 net.cpp:411] fc3_Bushy_Eyebrows -> fc3_Bushy_Eyebrows
I1025 10:56:37.031893 20556 net.cpp:150] Setting up fc3_Bushy_Eyebrows
I1025 10:56:37.031903 20556 net.cpp:157] Top shape: 64 2 (128)
I1025 10:56:37.031905 20556 net.cpp:165] Memory required for data: 2566241316
I1025 10:56:37.031910 20556 layer_factory.hpp:77] Creating layer loss_Bushy_Eyebrows
I1025 10:56:37.031919 20556 net.cpp:106] Creating Layer loss_Bushy_Eyebrows
I1025 10:56:37.031922 20556 net.cpp:454] loss_Bushy_Eyebrows <- fc3_Bushy_Eyebrows
I1025 10:56:37.031927 20556 net.cpp:454] loss_Bushy_Eyebrows <- label_Bushy_Eyebrows
I1025 10:56:37.031942 20556 net.cpp:411] loss_Bushy_Eyebrows -> loss_Bushy_Eyebrows
I1025 10:56:37.031996 20556 net.cpp:150] Setting up loss_Bushy_Eyebrows
I1025 10:56:37.032003 20556 net.cpp:157] Top shape: (1)
I1025 10:56:37.032006 20556 net.cpp:160]     with loss weight 1
I1025 10:56:37.032011 20556 net.cpp:165] Memory required for data: 2566241320
I1025 10:56:37.032014 20556 layer_factory.hpp:77] Creating layer fc3_Narrow_Eyes
I1025 10:56:37.032021 20556 net.cpp:106] Creating Layer fc3_Narrow_Eyes
I1025 10:56:37.032025 20556 net.cpp:454] fc3_Narrow_Eyes <- fc2_eyes_drop2_eyes_0_split_3
I1025 10:56:37.032032 20556 net.cpp:411] fc3_Narrow_Eyes -> fc3_Narrow_Eyes
I1025 10:56:37.032176 20556 net.cpp:150] Setting up fc3_Narrow_Eyes
I1025 10:56:37.032184 20556 net.cpp:157] Top shape: 64 2 (128)
I1025 10:56:37.032187 20556 net.cpp:165] Memory required for data: 2566241832
I1025 10:56:37.032192 20556 layer_factory.hpp:77] Creating layer loss_Narrow_Eyes
I1025 10:56:37.032202 20556 net.cpp:106] Creating Layer loss_Narrow_Eyes
I1025 10:56:37.032207 20556 net.cpp:454] loss_Narrow_Eyes <- fc3_Narrow_Eyes
I1025 10:56:37.032212 20556 net.cpp:454] loss_Narrow_Eyes <- label_Narrow_Eyes
I1025 10:56:37.032217 20556 net.cpp:411] loss_Narrow_Eyes -> loss_Narrow_Eyes
I1025 10:56:37.032265 20556 net.cpp:150] Setting up loss_Narrow_Eyes
I1025 10:56:37.032274 20556 net.cpp:157] Top shape: (1)
I1025 10:56:37.032276 20556 net.cpp:160]     with loss weight 1
I1025 10:56:37.032280 20556 net.cpp:165] Memory required for data: 2566241836
I1025 10:56:37.032284 20556 layer_factory.hpp:77] Creating layer fc3_Eyeglasses
I1025 10:56:37.032291 20556 net.cpp:106] Creating Layer fc3_Eyeglasses
I1025 10:56:37.032295 20556 net.cpp:454] fc3_Eyeglasses <- fc2_eyes_drop2_eyes_0_split_4
I1025 10:56:37.032302 20556 net.cpp:411] fc3_Eyeglasses -> fc3_Eyeglasses
I1025 10:56:37.032444 20556 net.cpp:150] Setting up fc3_Eyeglasses
I1025 10:56:37.032451 20556 net.cpp:157] Top shape: 64 2 (128)
I1025 10:56:37.032454 20556 net.cpp:165] Memory required for data: 2566242348
I1025 10:56:37.032459 20556 layer_factory.hpp:77] Creating layer loss_Eyeglasses
I1025 10:56:37.032469 20556 net.cpp:106] Creating Layer loss_Eyeglasses
I1025 10:56:37.032472 20556 net.cpp:454] loss_Eyeglasses <- fc3_Eyeglasses
I1025 10:56:37.032476 20556 net.cpp:454] loss_Eyeglasses <- label_Eyeglasses
I1025 10:56:37.032480 20556 net.cpp:411] loss_Eyeglasses -> loss_Eyeglasses
I1025 10:56:37.032529 20556 net.cpp:150] Setting up loss_Eyeglasses
I1025 10:56:37.032536 20556 net.cpp:157] Top shape: (1)
I1025 10:56:37.032539 20556 net.cpp:160]     with loss weight 1
I1025 10:56:37.032544 20556 net.cpp:165] Memory required for data: 2566242352
I1025 10:56:37.032546 20556 layer_factory.hpp:77] Creating layer fc3_Attractive
I1025 10:56:37.032553 20556 net.cpp:106] Creating Layer fc3_Attractive
I1025 10:56:37.032557 20556 net.cpp:454] fc3_Attractive <- fc2_face_drop2_face_0_split_0
I1025 10:56:37.032567 20556 net.cpp:411] fc3_Attractive -> fc3_Attractive
I1025 10:56:37.032706 20556 net.cpp:150] Setting up fc3_Attractive
I1025 10:56:37.032714 20556 net.cpp:157] Top shape: 64 2 (128)
I1025 10:56:37.032717 20556 net.cpp:165] Memory required for data: 2566242864
I1025 10:56:37.032723 20556 layer_factory.hpp:77] Creating layer loss_Attractive
I1025 10:56:37.032732 20556 net.cpp:106] Creating Layer loss_Attractive
I1025 10:56:37.032734 20556 net.cpp:454] loss_Attractive <- fc3_Attractive
I1025 10:56:37.032739 20556 net.cpp:454] loss_Attractive <- label_Attractive
I1025 10:56:37.032743 20556 net.cpp:411] loss_Attractive -> loss_Attractive
I1025 10:56:37.032791 20556 net.cpp:150] Setting up loss_Attractive
I1025 10:56:37.032799 20556 net.cpp:157] Top shape: (1)
I1025 10:56:37.032801 20556 net.cpp:160]     with loss weight 1
I1025 10:56:37.032806 20556 net.cpp:165] Memory required for data: 2566242868
I1025 10:56:37.032810 20556 layer_factory.hpp:77] Creating layer fc3_Blurry
I1025 10:56:37.032815 20556 net.cpp:106] Creating Layer fc3_Blurry
I1025 10:56:37.032819 20556 net.cpp:454] fc3_Blurry <- fc2_face_drop2_face_0_split_1
I1025 10:56:37.032836 20556 net.cpp:411] fc3_Blurry -> fc3_Blurry
I1025 10:56:37.032976 20556 net.cpp:150] Setting up fc3_Blurry
I1025 10:56:37.032986 20556 net.cpp:157] Top shape: 64 2 (128)
I1025 10:56:37.032989 20556 net.cpp:165] Memory required for data: 2566243380
I1025 10:56:37.032994 20556 layer_factory.hpp:77] Creating layer loss_Blurry
I1025 10:56:37.033001 20556 net.cpp:106] Creating Layer loss_Blurry
I1025 10:56:37.033005 20556 net.cpp:454] loss_Blurry <- fc3_Blurry
I1025 10:56:37.033010 20556 net.cpp:454] loss_Blurry <- label_Blurry
I1025 10:56:37.033015 20556 net.cpp:411] loss_Blurry -> loss_Blurry
I1025 10:56:37.033062 20556 net.cpp:150] Setting up loss_Blurry
I1025 10:56:37.033071 20556 net.cpp:157] Top shape: (1)
I1025 10:56:37.033073 20556 net.cpp:160]     with loss weight 1
I1025 10:56:37.033077 20556 net.cpp:165] Memory required for data: 2566243384
I1025 10:56:37.033080 20556 layer_factory.hpp:77] Creating layer fc3_Oval_Face
I1025 10:56:37.033087 20556 net.cpp:106] Creating Layer fc3_Oval_Face
I1025 10:56:37.033089 20556 net.cpp:454] fc3_Oval_Face <- fc2_face_drop2_face_0_split_2
I1025 10:56:37.033097 20556 net.cpp:411] fc3_Oval_Face -> fc3_Oval_Face
I1025 10:56:37.033237 20556 net.cpp:150] Setting up fc3_Oval_Face
I1025 10:56:37.033246 20556 net.cpp:157] Top shape: 64 2 (128)
I1025 10:56:37.033248 20556 net.cpp:165] Memory required for data: 2566243896
I1025 10:56:37.033253 20556 layer_factory.hpp:77] Creating layer loss_Oval_Face
I1025 10:56:37.033263 20556 net.cpp:106] Creating Layer loss_Oval_Face
I1025 10:56:37.033267 20556 net.cpp:454] loss_Oval_Face <- fc3_Oval_Face
I1025 10:56:37.033272 20556 net.cpp:454] loss_Oval_Face <- label_Oval_Face
I1025 10:56:37.033275 20556 net.cpp:411] loss_Oval_Face -> loss_Oval_Face
I1025 10:56:37.033325 20556 net.cpp:150] Setting up loss_Oval_Face
I1025 10:56:37.033332 20556 net.cpp:157] Top shape: (1)
I1025 10:56:37.033335 20556 net.cpp:160]     with loss weight 1
I1025 10:56:37.033340 20556 net.cpp:165] Memory required for data: 2566243900
I1025 10:56:37.033344 20556 layer_factory.hpp:77] Creating layer fc3_Pale_Skin
I1025 10:56:37.033349 20556 net.cpp:106] Creating Layer fc3_Pale_Skin
I1025 10:56:37.033352 20556 net.cpp:454] fc3_Pale_Skin <- fc2_face_drop2_face_0_split_3
I1025 10:56:37.033360 20556 net.cpp:411] fc3_Pale_Skin -> fc3_Pale_Skin
I1025 10:56:37.033498 20556 net.cpp:150] Setting up fc3_Pale_Skin
I1025 10:56:37.033505 20556 net.cpp:157] Top shape: 64 2 (128)
I1025 10:56:37.033509 20556 net.cpp:165] Memory required for data: 2566244412
I1025 10:56:37.033514 20556 layer_factory.hpp:77] Creating layer loss_Pale_Skin
I1025 10:56:37.033522 20556 net.cpp:106] Creating Layer loss_Pale_Skin
I1025 10:56:37.033526 20556 net.cpp:454] loss_Pale_Skin <- fc3_Pale_Skin
I1025 10:56:37.033530 20556 net.cpp:454] loss_Pale_Skin <- label_Pale_Skin
I1025 10:56:37.033535 20556 net.cpp:411] loss_Pale_Skin -> loss_Pale_Skin
I1025 10:56:37.033582 20556 net.cpp:150] Setting up loss_Pale_Skin
I1025 10:56:37.033591 20556 net.cpp:157] Top shape: (1)
I1025 10:56:37.033593 20556 net.cpp:160]     with loss weight 1
I1025 10:56:37.033597 20556 net.cpp:165] Memory required for data: 2566244416
I1025 10:56:37.033601 20556 layer_factory.hpp:77] Creating layer fc3_Young
I1025 10:56:37.033605 20556 net.cpp:106] Creating Layer fc3_Young
I1025 10:56:37.033609 20556 net.cpp:454] fc3_Young <- fc2_face_drop2_face_0_split_4
I1025 10:56:37.033617 20556 net.cpp:411] fc3_Young -> fc3_Young
I1025 10:56:37.033756 20556 net.cpp:150] Setting up fc3_Young
I1025 10:56:37.033763 20556 net.cpp:157] Top shape: 64 2 (128)
I1025 10:56:37.033766 20556 net.cpp:165] Memory required for data: 2566244928
I1025 10:56:37.033771 20556 layer_factory.hpp:77] Creating layer loss_Young
I1025 10:56:37.033778 20556 net.cpp:106] Creating Layer loss_Young
I1025 10:56:37.033782 20556 net.cpp:454] loss_Young <- fc3_Young
I1025 10:56:37.033787 20556 net.cpp:454] loss_Young <- label_Young
I1025 10:56:37.033792 20556 net.cpp:411] loss_Young -> loss_Young
I1025 10:56:37.033840 20556 net.cpp:150] Setting up loss_Young
I1025 10:56:37.033856 20556 net.cpp:157] Top shape: (1)
I1025 10:56:37.033859 20556 net.cpp:160]     with loss weight 1
I1025 10:56:37.033864 20556 net.cpp:165] Memory required for data: 2566244932
I1025 10:56:37.033867 20556 layer_factory.hpp:77] Creating layer fc3_Heavy_Makeup
I1025 10:56:37.033875 20556 net.cpp:106] Creating Layer fc3_Heavy_Makeup
I1025 10:56:37.033879 20556 net.cpp:454] fc3_Heavy_Makeup <- fc2_face_drop2_face_0_split_5
I1025 10:56:37.033885 20556 net.cpp:411] fc3_Heavy_Makeup -> fc3_Heavy_Makeup
I1025 10:56:37.034025 20556 net.cpp:150] Setting up fc3_Heavy_Makeup
I1025 10:56:37.034034 20556 net.cpp:157] Top shape: 64 2 (128)
I1025 10:56:37.034036 20556 net.cpp:165] Memory required for data: 2566245444
I1025 10:56:37.034041 20556 layer_factory.hpp:77] Creating layer loss_Heavy_Makeup
I1025 10:56:37.034049 20556 net.cpp:106] Creating Layer loss_Heavy_Makeup
I1025 10:56:37.034054 20556 net.cpp:454] loss_Heavy_Makeup <- fc3_Heavy_Makeup
I1025 10:56:37.034059 20556 net.cpp:454] loss_Heavy_Makeup <- label_Heavy_Makeup
I1025 10:56:37.034062 20556 net.cpp:411] loss_Heavy_Makeup -> loss_Heavy_Makeup
I1025 10:56:37.034111 20556 net.cpp:150] Setting up loss_Heavy_Makeup
I1025 10:56:37.034119 20556 net.cpp:157] Top shape: (1)
I1025 10:56:37.034122 20556 net.cpp:160]     with loss weight 1
I1025 10:56:37.034126 20556 net.cpp:165] Memory required for data: 2566245448
I1025 10:56:37.034129 20556 layer_factory.hpp:77] Creating layer fc3_Black_Hair
I1025 10:56:37.034137 20556 net.cpp:106] Creating Layer fc3_Black_Hair
I1025 10:56:37.034140 20556 net.cpp:454] fc3_Black_Hair <- fc2_aroundhead_drop2_aroundhead_0_split_0
I1025 10:56:37.034147 20556 net.cpp:411] fc3_Black_Hair -> fc3_Black_Hair
I1025 10:56:37.034286 20556 net.cpp:150] Setting up fc3_Black_Hair
I1025 10:56:37.034296 20556 net.cpp:157] Top shape: 64 2 (128)
I1025 10:56:37.034298 20556 net.cpp:165] Memory required for data: 2566245960
I1025 10:56:37.034303 20556 layer_factory.hpp:77] Creating layer loss_Black_Hair
I1025 10:56:37.034310 20556 net.cpp:106] Creating Layer loss_Black_Hair
I1025 10:56:37.034314 20556 net.cpp:454] loss_Black_Hair <- fc3_Black_Hair
I1025 10:56:37.034319 20556 net.cpp:454] loss_Black_Hair <- label_Black_Hair
I1025 10:56:37.034323 20556 net.cpp:411] loss_Black_Hair -> loss_Black_Hair
I1025 10:56:37.034371 20556 net.cpp:150] Setting up loss_Black_Hair
I1025 10:56:37.034379 20556 net.cpp:157] Top shape: (1)
I1025 10:56:37.034382 20556 net.cpp:160]     with loss weight 1
I1025 10:56:37.034386 20556 net.cpp:165] Memory required for data: 2566245964
I1025 10:56:37.034389 20556 layer_factory.hpp:77] Creating layer fc3_Blond_Hair
I1025 10:56:37.034399 20556 net.cpp:106] Creating Layer fc3_Blond_Hair
I1025 10:56:37.034404 20556 net.cpp:454] fc3_Blond_Hair <- fc2_aroundhead_drop2_aroundhead_0_split_1
I1025 10:56:37.034409 20556 net.cpp:411] fc3_Blond_Hair -> fc3_Blond_Hair
I1025 10:56:37.034544 20556 net.cpp:150] Setting up fc3_Blond_Hair
I1025 10:56:37.034553 20556 net.cpp:157] Top shape: 64 2 (128)
I1025 10:56:37.034555 20556 net.cpp:165] Memory required for data: 2566246476
I1025 10:56:37.034560 20556 layer_factory.hpp:77] Creating layer loss_Blond_Hair
I1025 10:56:37.034569 20556 net.cpp:106] Creating Layer loss_Blond_Hair
I1025 10:56:37.034571 20556 net.cpp:454] loss_Blond_Hair <- fc3_Blond_Hair
I1025 10:56:37.034575 20556 net.cpp:454] loss_Blond_Hair <- label_Blond_Hair
I1025 10:56:37.034579 20556 net.cpp:411] loss_Blond_Hair -> loss_Blond_Hair
I1025 10:56:37.034627 20556 net.cpp:150] Setting up loss_Blond_Hair
I1025 10:56:37.034636 20556 net.cpp:157] Top shape: (1)
I1025 10:56:37.034638 20556 net.cpp:160]     with loss weight 1
I1025 10:56:37.034642 20556 net.cpp:165] Memory required for data: 2566246480
I1025 10:56:37.034646 20556 layer_factory.hpp:77] Creating layer fc3_Brown_Hair
I1025 10:56:37.034652 20556 net.cpp:106] Creating Layer fc3_Brown_Hair
I1025 10:56:37.034657 20556 net.cpp:454] fc3_Brown_Hair <- fc2_aroundhead_drop2_aroundhead_0_split_2
I1025 10:56:37.034662 20556 net.cpp:411] fc3_Brown_Hair -> fc3_Brown_Hair
I1025 10:56:37.034807 20556 net.cpp:150] Setting up fc3_Brown_Hair
I1025 10:56:37.034816 20556 net.cpp:157] Top shape: 64 2 (128)
I1025 10:56:37.034819 20556 net.cpp:165] Memory required for data: 2566246992
I1025 10:56:37.034826 20556 layer_factory.hpp:77] Creating layer loss_Brown_Hair
I1025 10:56:37.034832 20556 net.cpp:106] Creating Layer loss_Brown_Hair
I1025 10:56:37.034837 20556 net.cpp:454] loss_Brown_Hair <- fc3_Brown_Hair
I1025 10:56:37.034840 20556 net.cpp:454] loss_Brown_Hair <- label_Brown_Hair
I1025 10:56:37.034845 20556 net.cpp:411] loss_Brown_Hair -> loss_Brown_Hair
I1025 10:56:37.034896 20556 net.cpp:150] Setting up loss_Brown_Hair
I1025 10:56:37.034904 20556 net.cpp:157] Top shape: (1)
I1025 10:56:37.034906 20556 net.cpp:160]     with loss weight 1
I1025 10:56:37.034911 20556 net.cpp:165] Memory required for data: 2566246996
I1025 10:56:37.034914 20556 layer_factory.hpp:77] Creating layer fc3_Gray_Hair
I1025 10:56:37.034921 20556 net.cpp:106] Creating Layer fc3_Gray_Hair
I1025 10:56:37.034925 20556 net.cpp:454] fc3_Gray_Hair <- fc2_aroundhead_drop2_aroundhead_0_split_3
I1025 10:56:37.034930 20556 net.cpp:411] fc3_Gray_Hair -> fc3_Gray_Hair
I1025 10:56:37.035066 20556 net.cpp:150] Setting up fc3_Gray_Hair
I1025 10:56:37.035074 20556 net.cpp:157] Top shape: 64 2 (128)
I1025 10:56:37.035078 20556 net.cpp:165] Memory required for data: 2566247508
I1025 10:56:37.035082 20556 layer_factory.hpp:77] Creating layer loss_Gray_Hair
I1025 10:56:37.035090 20556 net.cpp:106] Creating Layer loss_Gray_Hair
I1025 10:56:37.035094 20556 net.cpp:454] loss_Gray_Hair <- fc3_Gray_Hair
I1025 10:56:37.035099 20556 net.cpp:454] loss_Gray_Hair <- label_Gray_Hair
I1025 10:56:37.035104 20556 net.cpp:411] loss_Gray_Hair -> loss_Gray_Hair
I1025 10:56:37.035152 20556 net.cpp:150] Setting up loss_Gray_Hair
I1025 10:56:37.035159 20556 net.cpp:157] Top shape: (1)
I1025 10:56:37.035162 20556 net.cpp:160]     with loss weight 1
I1025 10:56:37.035167 20556 net.cpp:165] Memory required for data: 2566247512
I1025 10:56:37.035171 20556 layer_factory.hpp:77] Creating layer fc3_Wearing_Earrings
I1025 10:56:37.035179 20556 net.cpp:106] Creating Layer fc3_Wearing_Earrings
I1025 10:56:37.035183 20556 net.cpp:454] fc3_Wearing_Earrings <- fc2_aroundhead_drop2_aroundhead_0_split_4
I1025 10:56:37.035188 20556 net.cpp:411] fc3_Wearing_Earrings -> fc3_Wearing_Earrings
I1025 10:56:37.035325 20556 net.cpp:150] Setting up fc3_Wearing_Earrings
I1025 10:56:37.035332 20556 net.cpp:157] Top shape: 64 2 (128)
I1025 10:56:37.035336 20556 net.cpp:165] Memory required for data: 2566248024
I1025 10:56:37.035341 20556 layer_factory.hpp:77] Creating layer loss_Wearing_Earrings
I1025 10:56:37.035351 20556 net.cpp:106] Creating Layer loss_Wearing_Earrings
I1025 10:56:37.035354 20556 net.cpp:454] loss_Wearing_Earrings <- fc3_Wearing_Earrings
I1025 10:56:37.035358 20556 net.cpp:454] loss_Wearing_Earrings <- label_Wearing_Earrings
I1025 10:56:37.035363 20556 net.cpp:411] loss_Wearing_Earrings -> loss_Wearing_Earrings
I1025 10:56:37.035414 20556 net.cpp:150] Setting up loss_Wearing_Earrings
I1025 10:56:37.035423 20556 net.cpp:157] Top shape: (1)
I1025 10:56:37.035426 20556 net.cpp:160]     with loss weight 1
I1025 10:56:37.035430 20556 net.cpp:165] Memory required for data: 2566248028
I1025 10:56:37.035434 20556 layer_factory.hpp:77] Creating layer fc3_Wearing_Necklace
I1025 10:56:37.035442 20556 net.cpp:106] Creating Layer fc3_Wearing_Necklace
I1025 10:56:37.035446 20556 net.cpp:454] fc3_Wearing_Necklace <- fc2_aroundhead_drop2_aroundhead_0_split_5
I1025 10:56:37.035450 20556 net.cpp:411] fc3_Wearing_Necklace -> fc3_Wearing_Necklace
I1025 10:56:37.035590 20556 net.cpp:150] Setting up fc3_Wearing_Necklace
I1025 10:56:37.035599 20556 net.cpp:157] Top shape: 64 2 (128)
I1025 10:56:37.035603 20556 net.cpp:165] Memory required for data: 2566248540
I1025 10:56:37.035606 20556 layer_factory.hpp:77] Creating layer loss_Wearing_Necklace
I1025 10:56:37.035614 20556 net.cpp:106] Creating Layer loss_Wearing_Necklace
I1025 10:56:37.035617 20556 net.cpp:454] loss_Wearing_Necklace <- fc3_Wearing_Necklace
I1025 10:56:37.035629 20556 net.cpp:454] loss_Wearing_Necklace <- label_Wearing_Necklace
I1025 10:56:37.035634 20556 net.cpp:411] loss_Wearing_Necklace -> loss_Wearing_Necklace
I1025 10:56:37.035686 20556 net.cpp:150] Setting up loss_Wearing_Necklace
I1025 10:56:37.035693 20556 net.cpp:157] Top shape: (1)
I1025 10:56:37.035696 20556 net.cpp:160]     with loss weight 1
I1025 10:56:37.035701 20556 net.cpp:165] Memory required for data: 2566248544
I1025 10:56:37.035704 20556 layer_factory.hpp:77] Creating layer fc3_Wearing_Necktie
I1025 10:56:37.035712 20556 net.cpp:106] Creating Layer fc3_Wearing_Necktie
I1025 10:56:37.035715 20556 net.cpp:454] fc3_Wearing_Necktie <- fc2_aroundhead_drop2_aroundhead_0_split_6
I1025 10:56:37.035720 20556 net.cpp:411] fc3_Wearing_Necktie -> fc3_Wearing_Necktie
I1025 10:56:37.035863 20556 net.cpp:150] Setting up fc3_Wearing_Necktie
I1025 10:56:37.035874 20556 net.cpp:157] Top shape: 64 2 (128)
I1025 10:56:37.035877 20556 net.cpp:165] Memory required for data: 2566249056
I1025 10:56:37.035883 20556 layer_factory.hpp:77] Creating layer loss_Wearing_Necktie
I1025 10:56:37.035889 20556 net.cpp:106] Creating Layer loss_Wearing_Necktie
I1025 10:56:37.035893 20556 net.cpp:454] loss_Wearing_Necktie <- fc3_Wearing_Necktie
I1025 10:56:37.035898 20556 net.cpp:454] loss_Wearing_Necktie <- label_Wearing_Necktie
I1025 10:56:37.035903 20556 net.cpp:411] loss_Wearing_Necktie -> loss_Wearing_Necktie
I1025 10:56:37.035954 20556 net.cpp:150] Setting up loss_Wearing_Necktie
I1025 10:56:37.035962 20556 net.cpp:157] Top shape: (1)
I1025 10:56:37.035965 20556 net.cpp:160]     with loss weight 1
I1025 10:56:37.035969 20556 net.cpp:165] Memory required for data: 2566249060
I1025 10:56:37.035972 20556 layer_factory.hpp:77] Creating layer fc3_Bald
I1025 10:56:37.035984 20556 net.cpp:106] Creating Layer fc3_Bald
I1025 10:56:37.035987 20556 net.cpp:454] fc3_Bald <- fc2_aroundhead_drop2_aroundhead_0_split_7
I1025 10:56:37.035992 20556 net.cpp:411] fc3_Bald -> fc3_Bald
I1025 10:56:37.036130 20556 net.cpp:150] Setting up fc3_Bald
I1025 10:56:37.036139 20556 net.cpp:157] Top shape: 64 2 (128)
I1025 10:56:37.036141 20556 net.cpp:165] Memory required for data: 2566249572
I1025 10:56:37.036146 20556 layer_factory.hpp:77] Creating layer loss_Bald
I1025 10:56:37.036154 20556 net.cpp:106] Creating Layer loss_Bald
I1025 10:56:37.036157 20556 net.cpp:454] loss_Bald <- fc3_Bald
I1025 10:56:37.036161 20556 net.cpp:454] loss_Bald <- label_Bald
I1025 10:56:37.036166 20556 net.cpp:411] loss_Bald -> loss_Bald
I1025 10:56:37.036216 20556 net.cpp:150] Setting up loss_Bald
I1025 10:56:37.036223 20556 net.cpp:157] Top shape: (1)
I1025 10:56:37.036226 20556 net.cpp:160]     with loss weight 1
I1025 10:56:37.036231 20556 net.cpp:165] Memory required for data: 2566249576
I1025 10:56:37.036234 20556 layer_factory.hpp:77] Creating layer fc3_Receding_Hairline
I1025 10:56:37.036243 20556 net.cpp:106] Creating Layer fc3_Receding_Hairline
I1025 10:56:37.036247 20556 net.cpp:454] fc3_Receding_Hairline <- fc2_aroundhead_drop2_aroundhead_0_split_8
I1025 10:56:37.036252 20556 net.cpp:411] fc3_Receding_Hairline -> fc3_Receding_Hairline
I1025 10:56:37.036389 20556 net.cpp:150] Setting up fc3_Receding_Hairline
I1025 10:56:37.036398 20556 net.cpp:157] Top shape: 64 2 (128)
I1025 10:56:37.036401 20556 net.cpp:165] Memory required for data: 2566250088
I1025 10:56:37.036406 20556 layer_factory.hpp:77] Creating layer loss_Receding_Hairline
I1025 10:56:37.036413 20556 net.cpp:106] Creating Layer loss_Receding_Hairline
I1025 10:56:37.036417 20556 net.cpp:454] loss_Receding_Hairline <- fc3_Receding_Hairline
I1025 10:56:37.036422 20556 net.cpp:454] loss_Receding_Hairline <- label_Receding_Hairline
I1025 10:56:37.036427 20556 net.cpp:411] loss_Receding_Hairline -> loss_Receding_Hairline
I1025 10:56:37.036476 20556 net.cpp:150] Setting up loss_Receding_Hairline
I1025 10:56:37.036484 20556 net.cpp:157] Top shape: (1)
I1025 10:56:37.036486 20556 net.cpp:160]     with loss weight 1
I1025 10:56:37.036491 20556 net.cpp:165] Memory required for data: 2566250092
I1025 10:56:37.036502 20556 layer_factory.hpp:77] Creating layer fc3_Bangs
I1025 10:56:37.036510 20556 net.cpp:106] Creating Layer fc3_Bangs
I1025 10:56:37.036514 20556 net.cpp:454] fc3_Bangs <- fc2_aroundhead_drop2_aroundhead_0_split_9
I1025 10:56:37.036520 20556 net.cpp:411] fc3_Bangs -> fc3_Bangs
I1025 10:56:37.036660 20556 net.cpp:150] Setting up fc3_Bangs
I1025 10:56:37.036669 20556 net.cpp:157] Top shape: 64 2 (128)
I1025 10:56:37.036672 20556 net.cpp:165] Memory required for data: 2566250604
I1025 10:56:37.036677 20556 layer_factory.hpp:77] Creating layer loss_Bangs
I1025 10:56:37.036685 20556 net.cpp:106] Creating Layer loss_Bangs
I1025 10:56:37.036689 20556 net.cpp:454] loss_Bangs <- fc3_Bangs
I1025 10:56:37.036694 20556 net.cpp:454] loss_Bangs <- label_Bangs
I1025 10:56:37.036698 20556 net.cpp:411] loss_Bangs -> loss_Bangs
I1025 10:56:37.036749 20556 net.cpp:150] Setting up loss_Bangs
I1025 10:56:37.036756 20556 net.cpp:157] Top shape: (1)
I1025 10:56:37.036759 20556 net.cpp:160]     with loss weight 1
I1025 10:56:37.036763 20556 net.cpp:165] Memory required for data: 2566250608
I1025 10:56:37.036767 20556 layer_factory.hpp:77] Creating layer fc3_Wearing_Hat
I1025 10:56:37.036774 20556 net.cpp:106] Creating Layer fc3_Wearing_Hat
I1025 10:56:37.036778 20556 net.cpp:454] fc3_Wearing_Hat <- fc2_aroundhead_drop2_aroundhead_0_split_10
I1025 10:56:37.036783 20556 net.cpp:411] fc3_Wearing_Hat -> fc3_Wearing_Hat
I1025 10:56:37.036921 20556 net.cpp:150] Setting up fc3_Wearing_Hat
I1025 10:56:37.036928 20556 net.cpp:157] Top shape: 64 2 (128)
I1025 10:56:37.036931 20556 net.cpp:165] Memory required for data: 2566251120
I1025 10:56:37.036937 20556 layer_factory.hpp:77] Creating layer loss_Wearing_Hat
I1025 10:56:37.036944 20556 net.cpp:106] Creating Layer loss_Wearing_Hat
I1025 10:56:37.036948 20556 net.cpp:454] loss_Wearing_Hat <- fc3_Wearing_Hat
I1025 10:56:37.036953 20556 net.cpp:454] loss_Wearing_Hat <- label_Wearing_Hat
I1025 10:56:37.036957 20556 net.cpp:411] loss_Wearing_Hat -> loss_Wearing_Hat
I1025 10:56:37.037009 20556 net.cpp:150] Setting up loss_Wearing_Hat
I1025 10:56:37.037015 20556 net.cpp:157] Top shape: (1)
I1025 10:56:37.037019 20556 net.cpp:160]     with loss weight 1
I1025 10:56:37.037022 20556 net.cpp:165] Memory required for data: 2566251124
I1025 10:56:37.037025 20556 layer_factory.hpp:77] Creating layer fc3_Straight_Hair
I1025 10:56:37.037034 20556 net.cpp:106] Creating Layer fc3_Straight_Hair
I1025 10:56:37.037037 20556 net.cpp:454] fc3_Straight_Hair <- fc2_aroundhead_drop2_aroundhead_0_split_11
I1025 10:56:37.037042 20556 net.cpp:411] fc3_Straight_Hair -> fc3_Straight_Hair
I1025 10:56:37.037181 20556 net.cpp:150] Setting up fc3_Straight_Hair
I1025 10:56:37.037189 20556 net.cpp:157] Top shape: 64 2 (128)
I1025 10:56:37.037192 20556 net.cpp:165] Memory required for data: 2566251636
I1025 10:56:37.037197 20556 layer_factory.hpp:77] Creating layer loss_Straight_Hair
I1025 10:56:37.037204 20556 net.cpp:106] Creating Layer loss_Straight_Hair
I1025 10:56:37.037209 20556 net.cpp:454] loss_Straight_Hair <- fc3_Straight_Hair
I1025 10:56:37.037214 20556 net.cpp:454] loss_Straight_Hair <- label_Straight_Hair
I1025 10:56:37.037217 20556 net.cpp:411] loss_Straight_Hair -> loss_Straight_Hair
I1025 10:56:37.037268 20556 net.cpp:150] Setting up loss_Straight_Hair
I1025 10:56:37.037276 20556 net.cpp:157] Top shape: (1)
I1025 10:56:37.037278 20556 net.cpp:160]     with loss weight 1
I1025 10:56:37.037282 20556 net.cpp:165] Memory required for data: 2566251640
I1025 10:56:37.037286 20556 layer_factory.hpp:77] Creating layer fc3_Wavy_Hair
I1025 10:56:37.037292 20556 net.cpp:106] Creating Layer fc3_Wavy_Hair
I1025 10:56:37.037297 20556 net.cpp:454] fc3_Wavy_Hair <- fc2_aroundhead_drop2_aroundhead_0_split_12
I1025 10:56:37.037302 20556 net.cpp:411] fc3_Wavy_Hair -> fc3_Wavy_Hair
I1025 10:56:37.038000 20556 net.cpp:150] Setting up fc3_Wavy_Hair
I1025 10:56:37.038012 20556 net.cpp:157] Top shape: 64 2 (128)
I1025 10:56:37.038017 20556 net.cpp:165] Memory required for data: 2566252152
I1025 10:56:37.038023 20556 layer_factory.hpp:77] Creating layer loss_Wavy_Hair
I1025 10:56:37.038041 20556 net.cpp:106] Creating Layer loss_Wavy_Hair
I1025 10:56:37.038046 20556 net.cpp:454] loss_Wavy_Hair <- fc3_Wavy_Hair
I1025 10:56:37.038051 20556 net.cpp:454] loss_Wavy_Hair <- label_Wavy_Hair
I1025 10:56:37.038058 20556 net.cpp:411] loss_Wavy_Hair -> loss_Wavy_Hair
I1025 10:56:37.038095 20556 net.cpp:150] Setting up loss_Wavy_Hair
I1025 10:56:37.038105 20556 net.cpp:157] Top shape: (1)
I1025 10:56:37.038107 20556 net.cpp:160]     with loss weight 1
I1025 10:56:37.038113 20556 net.cpp:165] Memory required for data: 2566252156
I1025 10:56:37.038116 20556 layer_factory.hpp:77] Creating layer fc3_5_o_Clock_Shadow
I1025 10:56:37.038125 20556 net.cpp:106] Creating Layer fc3_5_o_Clock_Shadow
I1025 10:56:37.038128 20556 net.cpp:454] fc3_5_o_Clock_Shadow <- fc2_facialhair_drop2_facialhair_0_split_0
I1025 10:56:37.038133 20556 net.cpp:411] fc3_5_o_Clock_Shadow -> fc3_5_o_Clock_Shadow
I1025 10:56:37.038242 20556 net.cpp:150] Setting up fc3_5_o_Clock_Shadow
I1025 10:56:37.038251 20556 net.cpp:157] Top shape: 64 2 (128)
I1025 10:56:37.038254 20556 net.cpp:165] Memory required for data: 2566252668
I1025 10:56:37.038259 20556 layer_factory.hpp:77] Creating layer loss_5_o_Clock_Shadow
I1025 10:56:37.038266 20556 net.cpp:106] Creating Layer loss_5_o_Clock_Shadow
I1025 10:56:37.038270 20556 net.cpp:454] loss_5_o_Clock_Shadow <- fc3_5_o_Clock_Shadow
I1025 10:56:37.038275 20556 net.cpp:454] loss_5_o_Clock_Shadow <- label_5_o_Clock_Shadow
I1025 10:56:37.038280 20556 net.cpp:411] loss_5_o_Clock_Shadow -> loss_5_o_Clock_Shadow
I1025 10:56:37.038312 20556 net.cpp:150] Setting up loss_5_o_Clock_Shadow
I1025 10:56:37.038317 20556 net.cpp:157] Top shape: (1)
I1025 10:56:37.038321 20556 net.cpp:160]     with loss weight 1
I1025 10:56:37.038326 20556 net.cpp:165] Memory required for data: 2566252672
I1025 10:56:37.038328 20556 layer_factory.hpp:77] Creating layer fc3_Mustache
I1025 10:56:37.038337 20556 net.cpp:106] Creating Layer fc3_Mustache
I1025 10:56:37.038341 20556 net.cpp:454] fc3_Mustache <- fc2_facialhair_drop2_facialhair_0_split_1
I1025 10:56:37.038347 20556 net.cpp:411] fc3_Mustache -> fc3_Mustache
I1025 10:56:37.038453 20556 net.cpp:150] Setting up fc3_Mustache
I1025 10:56:37.038462 20556 net.cpp:157] Top shape: 64 2 (128)
I1025 10:56:37.038465 20556 net.cpp:165] Memory required for data: 2566253184
I1025 10:56:37.038471 20556 layer_factory.hpp:77] Creating layer loss_Mustache
I1025 10:56:37.038480 20556 net.cpp:106] Creating Layer loss_Mustache
I1025 10:56:37.038482 20556 net.cpp:454] loss_Mustache <- fc3_Mustache
I1025 10:56:37.038487 20556 net.cpp:454] loss_Mustache <- label_Mustache
I1025 10:56:37.038493 20556 net.cpp:411] loss_Mustache -> loss_Mustache
I1025 10:56:37.038524 20556 net.cpp:150] Setting up loss_Mustache
I1025 10:56:37.038529 20556 net.cpp:157] Top shape: (1)
I1025 10:56:37.038532 20556 net.cpp:160]     with loss weight 1
I1025 10:56:37.038537 20556 net.cpp:165] Memory required for data: 2566253188
I1025 10:56:37.038540 20556 layer_factory.hpp:77] Creating layer fc3_No_Beard
I1025 10:56:37.038547 20556 net.cpp:106] Creating Layer fc3_No_Beard
I1025 10:56:37.038550 20556 net.cpp:454] fc3_No_Beard <- fc2_facialhair_drop2_facialhair_0_split_2
I1025 10:56:37.038555 20556 net.cpp:411] fc3_No_Beard -> fc3_No_Beard
I1025 10:56:37.038658 20556 net.cpp:150] Setting up fc3_No_Beard
I1025 10:56:37.038667 20556 net.cpp:157] Top shape: 64 2 (128)
I1025 10:56:37.038671 20556 net.cpp:165] Memory required for data: 2566253700
I1025 10:56:37.038676 20556 layer_factory.hpp:77] Creating layer loss_No_Beard
I1025 10:56:37.038682 20556 net.cpp:106] Creating Layer loss_No_Beard
I1025 10:56:37.038686 20556 net.cpp:454] loss_No_Beard <- fc3_No_Beard
I1025 10:56:37.038689 20556 net.cpp:454] loss_No_Beard <- label_No_Beard
I1025 10:56:37.038696 20556 net.cpp:411] loss_No_Beard -> loss_No_Beard
I1025 10:56:37.038727 20556 net.cpp:150] Setting up loss_No_Beard
I1025 10:56:37.038732 20556 net.cpp:157] Top shape: (1)
I1025 10:56:37.038733 20556 net.cpp:160]     with loss weight 1
I1025 10:56:37.038746 20556 net.cpp:165] Memory required for data: 2566253704
I1025 10:56:37.038750 20556 layer_factory.hpp:77] Creating layer fc3_Sideburns
I1025 10:56:37.038758 20556 net.cpp:106] Creating Layer fc3_Sideburns
I1025 10:56:37.038763 20556 net.cpp:454] fc3_Sideburns <- fc2_facialhair_drop2_facialhair_0_split_3
I1025 10:56:37.038767 20556 net.cpp:411] fc3_Sideburns -> fc3_Sideburns
I1025 10:56:37.038872 20556 net.cpp:150] Setting up fc3_Sideburns
I1025 10:56:37.038882 20556 net.cpp:157] Top shape: 64 2 (128)
I1025 10:56:37.038884 20556 net.cpp:165] Memory required for data: 2566254216
I1025 10:56:37.038890 20556 layer_factory.hpp:77] Creating layer loss_Sideburns
I1025 10:56:37.038897 20556 net.cpp:106] Creating Layer loss_Sideburns
I1025 10:56:37.038900 20556 net.cpp:454] loss_Sideburns <- fc3_Sideburns
I1025 10:56:37.038904 20556 net.cpp:454] loss_Sideburns <- label_Sideburns
I1025 10:56:37.038911 20556 net.cpp:411] loss_Sideburns -> loss_Sideburns
I1025 10:56:37.038943 20556 net.cpp:150] Setting up loss_Sideburns
I1025 10:56:37.038947 20556 net.cpp:157] Top shape: (1)
I1025 10:56:37.038950 20556 net.cpp:160]     with loss weight 1
I1025 10:56:37.038955 20556 net.cpp:165] Memory required for data: 2566254220
I1025 10:56:37.038959 20556 layer_factory.hpp:77] Creating layer fc3_Goatee
I1025 10:56:37.038965 20556 net.cpp:106] Creating Layer fc3_Goatee
I1025 10:56:37.038969 20556 net.cpp:454] fc3_Goatee <- fc2_facialhair_drop2_facialhair_0_split_4
I1025 10:56:37.038974 20556 net.cpp:411] fc3_Goatee -> fc3_Goatee
I1025 10:56:37.039079 20556 net.cpp:150] Setting up fc3_Goatee
I1025 10:56:37.039088 20556 net.cpp:157] Top shape: 64 2 (128)
I1025 10:56:37.039090 20556 net.cpp:165] Memory required for data: 2566254732
I1025 10:56:37.039095 20556 layer_factory.hpp:77] Creating layer loss_Goatee
I1025 10:56:37.039103 20556 net.cpp:106] Creating Layer loss_Goatee
I1025 10:56:37.039105 20556 net.cpp:454] loss_Goatee <- fc3_Goatee
I1025 10:56:37.039110 20556 net.cpp:454] loss_Goatee <- label_Goatee
I1025 10:56:37.039116 20556 net.cpp:411] loss_Goatee -> loss_Goatee
I1025 10:56:37.039147 20556 net.cpp:150] Setting up loss_Goatee
I1025 10:56:37.039153 20556 net.cpp:157] Top shape: (1)
I1025 10:56:37.039155 20556 net.cpp:160]     with loss weight 1
I1025 10:56:37.039160 20556 net.cpp:165] Memory required for data: 2566254736
I1025 10:56:37.039163 20556 layer_factory.hpp:77] Creating layer fc3_High_Cheekbones
I1025 10:56:37.039171 20556 net.cpp:106] Creating Layer fc3_High_Cheekbones
I1025 10:56:37.039175 20556 net.cpp:454] fc3_High_Cheekbones <- fc2_cheeks_drop2_cheeks_0_split_0
I1025 10:56:37.039180 20556 net.cpp:411] fc3_High_Cheekbones -> fc3_High_Cheekbones
I1025 10:56:37.039283 20556 net.cpp:150] Setting up fc3_High_Cheekbones
I1025 10:56:37.039291 20556 net.cpp:157] Top shape: 64 2 (128)
I1025 10:56:37.039294 20556 net.cpp:165] Memory required for data: 2566255248
I1025 10:56:37.039299 20556 layer_factory.hpp:77] Creating layer loss_High_Cheekbones
I1025 10:56:37.039305 20556 net.cpp:106] Creating Layer loss_High_Cheekbones
I1025 10:56:37.039309 20556 net.cpp:454] loss_High_Cheekbones <- fc3_High_Cheekbones
I1025 10:56:37.039314 20556 net.cpp:454] loss_High_Cheekbones <- label_High_Cheekbones
I1025 10:56:37.039319 20556 net.cpp:411] loss_High_Cheekbones -> loss_High_Cheekbones
I1025 10:56:37.039350 20556 net.cpp:150] Setting up loss_High_Cheekbones
I1025 10:56:37.039355 20556 net.cpp:157] Top shape: (1)
I1025 10:56:37.039357 20556 net.cpp:160]     with loss weight 1
I1025 10:56:37.039362 20556 net.cpp:165] Memory required for data: 2566255252
I1025 10:56:37.039366 20556 layer_factory.hpp:77] Creating layer fc3_Rosy_Cheeks
I1025 10:56:37.039372 20556 net.cpp:106] Creating Layer fc3_Rosy_Cheeks
I1025 10:56:37.039376 20556 net.cpp:454] fc3_Rosy_Cheeks <- fc2_cheeks_drop2_cheeks_0_split_1
I1025 10:56:37.039381 20556 net.cpp:411] fc3_Rosy_Cheeks -> fc3_Rosy_Cheeks
I1025 10:56:37.039484 20556 net.cpp:150] Setting up fc3_Rosy_Cheeks
I1025 10:56:37.039491 20556 net.cpp:157] Top shape: 64 2 (128)
I1025 10:56:37.039494 20556 net.cpp:165] Memory required for data: 2566255764
I1025 10:56:37.039508 20556 layer_factory.hpp:77] Creating layer loss_Rosy_Cheeks
I1025 10:56:37.039516 20556 net.cpp:106] Creating Layer loss_Rosy_Cheeks
I1025 10:56:37.039520 20556 net.cpp:454] loss_Rosy_Cheeks <- fc3_Rosy_Cheeks
I1025 10:56:37.039525 20556 net.cpp:454] loss_Rosy_Cheeks <- label_Rosy_Cheeks
I1025 10:56:37.039530 20556 net.cpp:411] loss_Rosy_Cheeks -> loss_Rosy_Cheeks
I1025 10:56:37.039563 20556 net.cpp:150] Setting up loss_Rosy_Cheeks
I1025 10:56:37.039568 20556 net.cpp:157] Top shape: (1)
I1025 10:56:37.039572 20556 net.cpp:160]     with loss weight 1
I1025 10:56:37.039575 20556 net.cpp:165] Memory required for data: 2566255768
I1025 10:56:37.039578 20556 layer_factory.hpp:77] Creating layer fc3_Chubby
I1025 10:56:37.039587 20556 net.cpp:106] Creating Layer fc3_Chubby
I1025 10:56:37.039590 20556 net.cpp:454] fc3_Chubby <- fc2_fat_drop2_fat_0_split_0
I1025 10:56:37.039595 20556 net.cpp:411] fc3_Chubby -> fc3_Chubby
I1025 10:56:37.039700 20556 net.cpp:150] Setting up fc3_Chubby
I1025 10:56:37.039710 20556 net.cpp:157] Top shape: 64 2 (128)
I1025 10:56:37.039712 20556 net.cpp:165] Memory required for data: 2566256280
I1025 10:56:37.039718 20556 layer_factory.hpp:77] Creating layer loss_Chubby
I1025 10:56:37.039726 20556 net.cpp:106] Creating Layer loss_Chubby
I1025 10:56:37.039729 20556 net.cpp:454] loss_Chubby <- fc3_Chubby
I1025 10:56:37.039733 20556 net.cpp:454] loss_Chubby <- label_Chubby
I1025 10:56:37.039738 20556 net.cpp:411] loss_Chubby -> loss_Chubby
I1025 10:56:37.039777 20556 net.cpp:150] Setting up loss_Chubby
I1025 10:56:37.039783 20556 net.cpp:157] Top shape: (1)
I1025 10:56:37.039785 20556 net.cpp:160]     with loss weight 1
I1025 10:56:37.039790 20556 net.cpp:165] Memory required for data: 2566256284
I1025 10:56:37.039793 20556 layer_factory.hpp:77] Creating layer fc3_Double_Chin
I1025 10:56:37.039800 20556 net.cpp:106] Creating Layer fc3_Double_Chin
I1025 10:56:37.039804 20556 net.cpp:454] fc3_Double_Chin <- fc2_fat_drop2_fat_0_split_1
I1025 10:56:37.039810 20556 net.cpp:411] fc3_Double_Chin -> fc3_Double_Chin
I1025 10:56:37.039917 20556 net.cpp:150] Setting up fc3_Double_Chin
I1025 10:56:37.039927 20556 net.cpp:157] Top shape: 64 2 (128)
I1025 10:56:37.039929 20556 net.cpp:165] Memory required for data: 2566256796
I1025 10:56:37.039934 20556 layer_factory.hpp:77] Creating layer loss_Double_Chin
I1025 10:56:37.039940 20556 net.cpp:106] Creating Layer loss_Double_Chin
I1025 10:56:37.039945 20556 net.cpp:454] loss_Double_Chin <- fc3_Double_Chin
I1025 10:56:37.039949 20556 net.cpp:454] loss_Double_Chin <- label_Double_Chin
I1025 10:56:37.039955 20556 net.cpp:411] loss_Double_Chin -> loss_Double_Chin
…
I1025 10:56:37.040037 20556 net.cpp:454] attr_mid_feat <- pool3_mouth_pool3_mouth_0_split_1
I1025 10:56:37.040041 20556 net.cpp:454] attr_mid_feat <- pool3_nose_pool3_nose_0_split_1
I1025 10:56:37.040045 20556 net.cpp:454] attr_mid_feat <- pool3_eyes_pool3_eyes_0_split_1
I1025 10:56:37.040048 20556 net.cpp:454] attr_mid_feat <- pool3_face_pool3_face_0_split_1
I1025 10:56:37.040053 20556 net.cpp:454] attr_mid_feat <- pool3_rest_pool3_rest_0_split_4
I1025 10:56:37.040060 20556 net.cpp:411] attr_mid_feat -> attr_mid_feat
I1025 10:56:37.040091 20556 net.cpp:150] Setting up attr_mid_feat
I1025 10:56:37.040098 20556 net.cpp:157] Top shape: 64 3072 4 4 (3145728)
I1025 10:56:37.040101 20556 net.cpp:165] Memory required for data: 2578839712
I1025 10:56:37.040103 20556 layer_factory.hpp:77] Creating layer attr_top_feat
I1025 10:56:37.040109 20556 net.cpp:106] Creating Layer attr_top_feat
I1025 10:56:37.040112 20556 net.cpp:454] attr_top_feat <- fc2_gender_drop2_gender_0_split_1
I1025 10:56:37.040117 20556 net.cpp:454] attr_top_feat <- fc2_nose_drop2_nose_0_split_2
I1025 10:56:37.040122 20556 net.cpp:454] attr_top_feat <- fc2_mouth_drop2_mouth_0_split_4
I1025 10:56:37.040124 20556 net.cpp:454] attr_top_feat <- fc2_eyes_drop2_eyes_0_split_5
I1025 10:56:37.040128 20556 net.cpp:454] attr_top_feat <- fc2_face_drop2_face_0_split_6
I1025 10:56:37.040132 20556 net.cpp:454] attr_top_feat <- fc2_aroundhead_drop2_aroundhead_0_split_13
I1025 10:56:37.040135 20556 net.cpp:454] attr_top_feat <- fc2_facialhair_drop2_facialhair_0_split_5
I1025 10:56:37.040139 20556 net.cpp:454] attr_top_feat <- fc2_cheeks_drop2_cheeks_0_split_2
I1025 10:56:37.040143 20556 net.cpp:454] attr_top_feat <- fc2_fat_drop2_fat_0_split_2
I1025 10:56:37.040148 20556 net.cpp:411] attr_top_feat -> attr_top_feat
I1025 10:56:37.040166 20556 net.cpp:150] Setting up attr_top_feat
I1025 10:56:37.040171 20556 net.cpp:157] Top shape: 64 9216 (589824)
I1025 10:56:37.040174 20556 net.cpp:165] Memory required for data: 2581199008
I1025 10:56:37.040176 20556 layer_factory.hpp:77] Creating layer fc8_top_attr
I1025 10:56:37.040184 20556 net.cpp:106] Creating Layer fc8_top_attr
I1025 10:56:37.040187 20556 net.cpp:454] fc8_top_attr <- attr_top_feat
I1025 10:56:37.040192 20556 net.cpp:411] fc8_top_attr -> fc8_top_attr
I1025 10:56:37.267194 20556 net.cpp:150] Setting up fc8_top_attr
I1025 10:56:37.267240 20556 net.cpp:157] Top shape: 64 3115 (199360)
I1025 10:56:37.267243 20556 net.cpp:165] Memory required for data: 2581996448
I1025 10:56:37.267267 20556 layer_factory.hpp:77] Creating layer fc8_top_attr_fc8_top_attr_0_split
I1025 10:56:37.267278 20556 net.cpp:106] Creating Layer fc8_top_attr_fc8_top_attr_0_split
I1025 10:56:37.267285 20556 net.cpp:454] fc8_top_attr_fc8_top_attr_0_split <- fc8_top_attr
I1025 10:56:37.267295 20556 net.cpp:411] fc8_top_attr_fc8_top_attr_0_split -> fc8_top_attr_fc8_top_attr_0_split_0
I1025 10:56:37.267304 20556 net.cpp:411] fc8_top_attr_fc8_top_attr_0_split -> fc8_top_attr_fc8_top_attr_0_split_1
I1025 10:56:37.267310 20556 net.cpp:411] fc8_top_attr_fc8_top_attr_0_split -> fc8_top_attr_fc8_top_attr_0_split_2
I1025 10:56:37.267359 20556 net.cpp:150] Setting up fc8_top_attr_fc8_top_attr_0_split
I1025 10:56:37.267367 20556 net.cpp:157] Top shape: 64 3115 (199360)
I1025 10:56:37.267371 20556 net.cpp:157] Top shape: 64 3115 (199360)
I1025 10:56:37.267375 20556 net.cpp:157] Top shape: 64 3115 (199360)
I1025 10:56:37.267379 20556 net.cpp:165] Memory required for data: 2584388768
I1025 10:56:37.267382 20556 layer_factory.hpp:77] Creating layer loss_top_attr
I1025 10:56:37.267388 20556 net.cpp:106] Creating Layer loss_top_attr
I1025 10:56:37.267392 20556 net.cpp:454] loss_top_attr <- fc8_top_attr_fc8_top_attr_0_split_0
I1025 10:56:37.267398 20556 net.cpp:454] loss_top_attr <- label_data_1_split_0
…
