…
    slice_point: 24
    slice_point: 26
    slice_point: 28
    slice_point: 30
    slice_point: 32
    slice_point: 34
    slice_point: 36
    slice_point: 38
    slice_point: 40
    slice_point: 42
    slice_point: 44
    slice_point: 46
    slice_point: 48
    slice_point: 50
    slice_point: 52
    slice_point: 54
    slice_point: 56
    slice_point: 58
    slice_point: 60
    slice_point: 62
    slice_point: 64
    slice_point: 66
    slice_point: 68
    slice_point: 70
    slice_point: 72
    slice_point: 74
    slice_point: 76
    slice_point: 78
  }
}
layer {
  name: "conv1_bn"
  type: "BatchNorm"
  bottom: "conv1"
  top: "conv1"
  batch_norm_param {
    use_global_stats: false
  }
}
layer {
  name: "conv1_scale"
  type: "Scale"
  bottom: "conv1"
  top: "conv1"
  scale_param {
    bias_term: true
  }
}
layer {
  name: "prelu1"
  type: "PReLU"
  bottom: "conv1"
  top: "conv1"
}
layer {
  name: "pool1"
  type: "Pooling"
  bottom: "conv1"
  top: "pool1"
  pooling_param {
    pool: MAX
    kernel_size: 2
    stride: 2
  }
}
layer {
  name: "conv2a"
  type: "Convolution"
  bottom: "pool1"
  top: "conv2a"
  param {
    name: "conv2a_w"
    lr_mult: 1
    decay_mult: 1
  }
  param {
    name: "conv2a_b"
    lr_mult: 2
    decay_mult: 0
  }
  convolution_param {
    num_output: 64
    kernel_size: 1
    weight_filler {
      type: "xavier"
    }
    bias_filler {
      type: "constant"
      value: 0.2
    }
  }
}
layer {
  name: "conv2a_bn"
  type: "BatchNorm"
  bottom: "conv2a"
  top: "conv2a"
  batch_norm_param {
    use_global_stats: false
  }
}
layer {
  name: "conv2a_scale"
  type: "Scale"
  bottom: "conv2a"
  top: "conv2a"
  scale_param {
    bias_term: true
  }
}
layer {
  name: "prelu2a"
  type: "PReLU"
  bottom: "conv2a"
  top: "conv2a"
}
layer {
  name: "conv2"
  type: "Convolution"
  bottom: "conv2a"
  top: "conv2"
  param {
    name: "conv2_w"
    lr_mult: 1
    decay_mult: 1
  }
  param {
    name: "conv2_b"
    lr_mult: 2
    decay_mult: 0
  }
  convolution_param {
    num_output: 192
    pad: 1
    kernel_size: 3
    stride: 1
    weight_filler {
      type: "xavier"
    }
    bias_filler {
      type: "constant"
      value: 0.2
    }
  }
}
layer {
  name: "conv2_bn"
  type: "BatchNorm"
  bottom: "conv2"
  top: "conv2"
  batch_norm_param {
    use_global_stats: false
  }
}
layer {
  name: "conv2_scale"
  type: "Scale"
  bottom: "conv2"
  top: "conv2"
  scale_param {
    bias_term: true
  }
}
layer {
  name: "prelu2"
  type: "PReLU"
  bottom: "conv2"
  top: "conv2"
}
layer {
  name: "pool2"
  type: "Pooling"
  bottom: "conv2"
  top: "pool2"
  pooling_param {
    pool: MAX
    kernel_size: 2
    stride: 2
  }
}
layer {
  name: "conv3a"
  type: "Convolution"
  bottom: "pool2"
  top: "conv3a"
  param {
    name: "conv3a_w"
    lr_mult: 1
    decay_mult: 1
  }
  param {
    name: "conv3a_b"
    lr_mult: 2
    decay_mult: 0
  }
  convolution_param {
    num_output: 192
    kernel_size: 1
    weight_filler {
      type: "xavier"
    }
    bias_filler {
      type: "constant"
      value: 0.2
    }
  }
}
layer {
  name: "conv3a_bn"
  type: "BatchNorm"
  bottom: "conv3a"
  top: "conv3a"
  batch_norm_param {
    use_global_stats: false
  }
}
layer {
  name: "conv3a_scale"
  type: "Scale"
  bottom: "conv3a"
  top: "conv3a"
  scale_param {
    bias_term: true
  }
}
layer {
  name: "prelu3a"
  type: "PReLU"
  bottom: "conv3a"
  top: "conv3a"
}
layer {
  name: "conv3"
  type: "Convolution"
  bottom: "conv3a"
  top: "conv3"
  param {
    name: "conv3_w"
    lr_mult: 1
    decay_mult: 1
  }
  param {
    name: "conv3_b"
    lr_mult: 2
    decay_mult: 0
  }
  convolution_param {
    num_output: 384
    pad: 1
    kernel_size: 3
    stride: 1
    weight_filler {
      type: "xavier"
    }
    bias_filler {
      type: "constant"
      value: 0.2
    }
  }
}
layer {
  name: "conv3_bn"
  type: "BatchNorm"
  bottom: "conv3"
  top: "conv3"
  batch_norm_param {
    use_global_stats: false
  }
}
layer {
  name: "conv3_scale"
  type: "Scale"
  bottom: "conv3"
  top: "conv3"
  scale_param {
    bias_term: true
  }
}
layer {
  name: "prelu3"
  type: "PReLU"
  bottom: "conv3"
  top: "conv3"
}
layer {
  name: "pool3"
  type: "Pooling"
  bottom: "conv3"
  top: "pool3"
  pooling_param {
    pool: MAX
    kernel_size: 2
    stride: 2
  }
}
layer {
  name: "conv3_gender"
  type: "Convolution"
  bottom: "pool3"
  top: "conv3_gender"
  param {
    lr_mult: 1
    decay_mult: 1
  }
  param {
    lr_mult: 2
    decay_mult: 0
  }
  convolution_param {
    num_output: 512
    pad: 1
    kernel_size: 3
    stride: 2
    weight_filler {
      type: "xavier"
    }
    bias_filler {
      type: "constant"
      value: 0.2
    }
  }
}
layer {
  name: "conv3_gender_bn"
  type: "BatchNorm"
  bottom: "conv3_gender"
  top: "conv3_gender"
  batch_norm_param {
    use_global_stats: false
  }
}
layer {
  name: "conv3_gender_scale"
  type: "Scale"
  bottom: "conv3_gender"
  top: "conv3_gender"
  scale_param {
    bias_term: true
  }
}
layer {
  name: "prelu3_gender"
  type: "PReLU"
  bottom: "conv3_gender"
  top: "conv3_gender"
}
layer {
  name: "pool3_gender"
  type: "Pooling"
  bottom: "conv3_gender"
  top: "pool3_gender"
  pooling_param {
    pool: MAX
    kernel_size: 5
    stride: 2
    pad: 2
  }
}
layer {
  name: "fc1_gender"
  type: "InnerProduct"
  bottom: "pool3_gender"
  top: "fc1_gender"
  param {
    lr_mult: 1
    decay_mult: 1
  }
  param {
    lr_mult: 2
    decay_mult: 0
  }
  inner_product_param {
    num_output: 1024
    weight_filler {
      type: "xavier"
    }
    bias_filler {
      type: "constant"
      value: 0.2
    }
  }
}
layer {
  name: "relu1_gender"
  type: "ReLU"
  bottom: "fc1_gender"
  top: "fc1_gender"
}
layer {
  name: "drop1_gender"
  type: "Dropout"
  bottom: "fc1_gender"
  top: "fc1_gender"
  dropout_param {
    dropout_ratio: 0.5
  }
}
layer {
  name: "fc2_gender"
  type: "InnerProduct"
  bottom: "fc1_gender"
  top: "fc2_gender"
  param {
    lr_mult: 1
    decay_mult: 1
  }
  param {
    lr_mult: 2
    decay_mult: 0
  }
  inner_product_param {
    num_output: 1024
    weight_filler {
      type: "xavier"
    }
    bias_filler {
      type: "constant"
      value: 0.2
    }
  }
}
layer {
  name: "relu2_gender"
  type: "ReLU"
  bottom: "fc2_gender"
  top: "fc2_gender"
}
layer {
  name: "drop2_gender"
  type: "Dropout"
  bottom: "fc2_gender"
  top: "fc2_gender"
  dropout_param {
    dropout_ratio: 0.5
  }
}
layer {
  name: "conv3_nose"
  type: "Convolution"
  bottom: "pool3"
  top: "conv3_nose"
  param {
    lr_mult: 1
    decay_mult: 1
  }
  param {
    lr_mult: 2
    decay_mult: 0
  }
  convolution_param {
    num_output: 512
    pad: 1
    kernel_size: 3
    stride: 2
    weight_filler {
      type: "xavier"
    }
    bias_filler {
      type: "constant"
      value: 0.2
    }
  }
}
layer {
  name: "conv3_nose_bn"
  type: "BatchNorm"
  bottom: "conv3_nose"
  top: "conv3_nose"
  batch_norm_param {
    use_global_stats: false
  }
}
layer {
  name: "conv3_nose_scale"
  type: "Scale"
  bottom: "conv3_nose"
  top: "conv3_nose"
  scale_param {
    bias_term: true
  }
}
layer {
  name: "prelu3_nose"
  type: "PReLU"
  bottom: "conv3_nose"
  top: "conv3_nose"
}
layer {
  name: "pool3_nose"
  type: "Pooling"
  bottom: "conv3_nose"
  top: "pool3_nose"
  pooling_param {
    pool: MAX
    kernel_size: 5
    stride: 2
    pad: 2
  }
}
layer {
  name: "fc1_nose"
  type: "InnerProduct"
  bottom: "pool3_nose"
  top: "fc1_nose"
  param {
    lr_mult: 1
    decay_mult: 1
  }
  param {
    lr_mult: 2
    decay_mult: 0
  }
  inner_product_param {
    num_output: 1024
    weight_filler {
      type: "xavier"
    }
    bias_filler {
      type: "constant"
      value: 0.2
    }
  }
}
layer {
  name: "relu1_nose"
  type: "ReLU"
  bottom: "fc1_nose"
  top: "fc1_nose"
}
layer {
  name: "drop1_nose"
  type: "Dropout"
  bottom: "fc1_nose"
  top: "fc1_nose"
  dropout_param {
    dropout_ratio: 0.5
  }
}
layer {
  name: "fc2_nose"
  type: "InnerProduct"
  bottom: "fc1_nose"
  top: "fc2_nose"
  param {
    lr_mult: 1
    decay_mult: 1
  }
  param {
    lr_mult: 2
    decay_mult: 0
  }
  inner_product_param {
    num_output: 1024
    weight_filler {
      type: "xavier"
    }
    bias_filler {
      type: "constant"
      value: 0.2
    }
  }
}
layer {
  name: "relu2_nose"
  type: "ReLU"
  bottom: "fc2_nose"
  top: "fc2_nose"
}
layer {
  name: "drop2_nose"
  type: "Dropout"
  bottom: "fc2_nose"
  top: "fc2_nose"
  dropout_param {
    dropout_ratio: 0.5
  }
}
layer {
  name: "conv3_mouth"
  type: "Convolution"
  bottom: "pool3"
  top: "conv3_mouth"
  param {
    lr_mult: 1
    decay_mult: 1
  }
  param {
    lr_mult: 2
    decay_mult: 0
  }
  convolution_param {
    num_output: 512
    pad: 1
    kernel_size: 3
    stride: 2
    weight_filler {
      type: "xavier"
    }
    bias_filler {
      type: "constant"
      value: 0.2
    }
  }
}
layer {
  name: "conv3_mouth_bn"
  type: "BatchNorm"
  bottom: "conv3_mouth"
  top: "conv3_mouth"
  batch_norm_param {
    use_global_stats: false
  }
}
layer {
  name: "conv3_mouth_scale"
  type: "Scale"
  bottom: "conv3_mouth"
  top: "conv3_mouth"
  scale_param {
    bias_term: true
  }
}
layer {
  name: "prelu3_mouth"
  type: "PReLU"
  bottom: "conv3_mouth"
  top: "conv3_mouth"
}
layer {
  name: "pool3_mouth"
  type: "Pooling"
  bottom: "conv3_mouth"
  top: "pool3_mouth"
  pooling_param {
    pool: MAX
    kernel_size: 5
    stride: 2
    pad: 2
  }
}
layer {
  name: "fc1_mouth"
  type: "InnerProduct"
  bottom: "pool3_mouth"
  top: "fc1_mouth"
  param {
    lr_mult: 1
    decay_mult: 1
  }
  param {
    lr_mult: 2
    decay_mult: 0
  }
  inner_product_param {
    num_output: 1024
    weight_filler {
      type: "xavier"
    }
    bias_filler {
      type: "constant"
      value: 0.2
    }
  }
}
layer {
  name: "relu1_mouth"
  type: "ReLU"
  bottom: "fc1_mouth"
  top: "fc1_mouth"
}
layer {
  name: "drop1_mouth"
  type: "Dropout"
  bottom: "fc1_mouth"
  top: "fc1_mouth"
  dropout_param {
    dropout_ratio: 0.5
  }
}
layer {
  name: "fc2_mouth"
  type: "InnerProduct"
  bottom: "fc1_mouth"
  top: "fc2_mouth"
  param {
    lr_mult: 1
    decay_mult: 1
  }
  param {
    lr_mult: 2
    decay_mult: 0
  }
  inner_product_param {
    num_output: 1024
    weight_filler {
      type: "xavier"
    }
    bias_filler {
      type: "constant"
      value: 0.2
    }
  }
}
layer {
  name: "relu2_mouth"
  type: "ReLU"
  bottom: "fc2_mouth"
  top: "fc2_mouth"
}
layer {
  name: "drop2_mouth"
  type: "Dropout"
  bottom: "fc2_mouth"
  top: "fc2_mouth"
  dropout_param {
    dropout_ratio: 0.5
  }
}
layer {
  name: "conv3_eyes"
  type: "Convolution"
  bottom: "pool3"
  top: "conv3_eyes"
  param {
    lr_mult: 1
    decay_mult: 1
  }
  param {
    lr_mult: 2
    decay_mult: 0
  }
  convolution_param {
    num_output: 512
    pad: 1
    kernel_size: 3
    stride: 2
    weight_filler {
      type: "xavier"
    }
    bias_filler {
      type: "constant"
      value: 0.2
    }
  }
}
layer {
  name: "conv3_eyes_bn"
  type: "BatchNorm"
  bottom: "conv3_eyes"
  top: "conv3_eyes"
  batch_norm_param {
    use_global_stats: false
  }
}
layer {
  name: "conv3_eyes_scale"
  type: "Scale"
  bottom: "conv3_eyes"
  top: "conv3_eyes"
  scale_param {
    bias_term: true
  }
}
layer {
  name: "prelu3_eyes"
  type: "PReLU"
  bottom: "conv3_eyes"
  top: "conv3_eyes"
}
layer {
  name: "pool3_eyes"
  type: "Pooling"
  bottom: "conv3_eyes"
  top: "pool3_eyes"
  pooling_param {
    pool: MAX
    kernel_size: 5
    stride: 2
    pad: 2
  }
}
layer {
  name: "fc1_eyes"
  type: "InnerProduct"
  bottom: "pool3_eyes"
  top: "fc1_eyes"
  param {
    lr_mult: 1
    decay_mult: 1
  }
  param {
    lr_mult: 2
    decay_mult: 0
  }
  inner_product_param {
    num_output: 1024
    weight_filler {
      type: "xavier"
    }
    bias_filler {
      type: "constant"
      value: 0.2
    }
  }
}
layer {
  name: "relu1_eyes"
  type: "ReLU"
  bottom: "fc1_eyes"
  top: "fc1_eyes"
}
layer {
  name: "drop1_eyes"
  type: "Dropout"
  bottom: "fc1_eyes"
  top: "fc1_eyes"
  dropout_param {
    dropout_ratio: 0.5
  }
}
layer {
  name: "fc2_eyes"
  type: "InnerProduct"
  bottom: "fc1_eyes"
  top: "fc2_eyes"
  param {
    lr_mult: 1
    decay_mult: 1
  }
  param {
    lr_mult: 2
    decay_mult: 0
  }
  inner_product_param {
    num_output: 1024
    weight_filler {
      type: "xavier"
    }
    bias_filler {
      type: "constant"
      value: 0.2
    }
  }
}
layer {
  name: "relu2_eyes"
  type: "ReLU"
  bottom: "fc2_eyes"
  top: "fc2_eyes"
}
layer {
  name: "drop2_eyes"
  type: "Dropout"
  bottom: "fc2_eyes"
  top: "fc2_eyes"
  dropout_param {
    dropout_ratio: 0.5
  }
}
layer {
  name: "conv3_face"
  type: "Convolution"
  bottom: "pool3"
  top: "conv3_face"
  param {
    lr_mult: 1
    decay_mult: 1
  }
  param {
    lr_mult: 2
    decay_mult: 0
  }
  convolution_param {
    num_output: 512
    pad: 1
    kernel_size: 3
    stride: 2
    weight_filler {
      type: "xavier"
    }
    bias_filler {
      type: "constant"
      value: 0.2
    }
  }
}
layer {
  name: "conv3_face_bn"
  type: "BatchNorm"
  bottom: "conv3_face"
  top: "conv3_face"
  batch_norm_param {
    use_global_stats: false
  }
}
layer {
  name: "conv3_face_scale"
  type: "Scale"
  bottom: "conv3_face"
  top: "conv3_face"
  scale_param {
    bias_term: true
  }
}
layer {
  name: "prelu3_face"
  type: "PReLU"
  bottom: "conv3_face"
  top: "conv3_face"
}
layer {
  name: "pool3_face"
  type: "Pooling"
  bottom: "conv3_face"
  top: "pool3_face"
  pooling_param {
    pool: MAX
    kernel_size: 5
    stride: 2
    pad: 2
  }
}
layer {
  name: "fc1_face"
  type: "InnerProduct"
  bottom: "pool3_face"
  top: "fc1_face"
  param {
    lr_mult: 1
    decay_mult: 1
  }
  param {
    lr_mult: 2
    decay_mult: 0
  }
  inner_product_param {
    num_output: 1024
    weight_filler {
      type: "xavier"
    }
    bias_filler {
      type: "constant"
      value: 0.2
    }
  }
}
layer {
  name: "relu1_face"
  type: "ReLU"
  bottom: "fc1_face"
  top: "fc1_face"
}
layer {
  name: "drop1_face"
  type: "Dropout"
  bottom: "fc1_face"
  top: "fc1_face"
  dropout_param {
    dropout_ratio: 0.5
  }
}
layer {
  name: "fc2_face"
  type: "InnerProduct"
  bottom: "fc1_face"
  top: "fc2_face"
  param {
    lr_mult: 1
    decay_mult: 1
  }
  param {
    lr_mult: 2
    decay_mult: 0
  }
  inner_product_param {
    num_output: 1024
    weight_filler {
      type: "xavier"
    }
    bias_filler {
      type: "constant"
      value: 0.2
    }
  }
}
layer {
  name: "relu2_face"
  type: "ReLU"
  bottom: "fc2_face"
  top: "fc2_face"
}
layer {
  name: "drop2_face"
  type: "Dropout"
  bottom: "fc2_face"
  top: "fc2_face"
  dropout_param {
    dropout_ratio: 0.5
  }
}
layer {
  name: "conv3_rest"
  type: "Convolution"
  bottom: "pool3"
  top: "conv3_rest"
  param {
    lr_mult: 1
    decay_mult: 1
  }
  param {
    lr_mult: 2
    decay_mult: 0
  }
  convolution_param {
    num_output: 512
    pad: 1
    kernel_size: 3
    stride: 2
    weight_filler {
      type: "xavier"
    }
    bias_filler {
      type: "constant"
      value: 0.2
    }
  }
}
layer {
  name: "conv3_rest_bn"
  type: "BatchNorm"
  bottom: "conv3_rest"
  top: "conv3_rest"
  batch_norm_param {
    use_global_stats: false
  }
}
layer {
  name: "conv3_rest_scale"
  type: "Scale"
  bottom: "conv3_rest"
  top: "conv3_rest"
  scale_param {
    bias_term: true
  }
}
layer {
  name: "prelu3_rest"
  type: "PReLU"
  bottom: "conv3_rest"
  top: "conv3_rest"
}
layer {
  name: "pool3_rest"
  type: "Pooling"
  bottom: "conv3_rest"
  top: "pool3_rest"
  pooling_param {
    pool: MAX
    kernel_size: 5
    stride: 2
    pad: 2
  }
}
layer {
  name: "fc1_aroundhead"
  type: "InnerProduct"
  bottom: "pool3_rest"
  top: "fc1_aroundhead"
  param {
    lr_mult: 1
    decay_mult: 1
  }
  param {
    lr_mult: 2
    decay_mult: 0
  }
  inner_product_param {
    num_output: 1024
    weight_filler {
      type: "xavier"
    }
    bias_filler {
      type: "constant"
      value: 0.2
    }
  }
}
layer {
  name: "relu1_aroundhead"
  type: "ReLU"
  bottom: "fc1_aroundhead"
  top: "fc1_aroundhead"
}
layer {
  name: "drop1_aroundhead"
  type: "Dropout"
  bottom: "fc1_aroundhead"
  top: "fc1_aroundhead"
  dropout_param {
    dropout_ratio: 0.5
  }
}
layer {
  name: "fc2_aroundhead"
  type: "InnerProduct"
  bottom: "fc1_aroundhead"
  top: "fc2_aroundhead"
  param {
    lr_mult: 1
    decay_mult: 1
  }
  param {
    lr_mult: 2
    decay_mult: 0
  }
  inner_product_param {
    num_output: 1024
    weight_filler {
      type: "xavier"
    }
    bias_filler {
      type: "constant"
      value: 0.2
    }
  }
}
layer {
  name: "relu2_aroundhead"
  type: "ReLU"
  bottom: "fc2_aroundhead"
  top: "fc2_aroundhead"
}
layer {
  name: "drop2_aroundhead"
  type: "Dropout"
  bottom: "fc2_aroundhead"
  top: "fc2_aroundhead"
  dropout_param {
    dropout_ratio: 0.5
  }
}
layer {
  name: "fc1_facialhair"
  type: "InnerProduct"
  bottom: "pool3_rest"
  top: "fc1_facialhair"
  param {
    lr_mult: 1
    decay_mult: 1
  }
  param {
    lr_mult: 2
    decay_mult: 0
  }
  inner_product_param {
    num_output: 1024
    weight_filler {
      type: "xavier"
    }
    bias_filler {
      type: "constant"
      value: 0.2
    }
  }
}
layer {
  name: "relu1_facialhair"
  type: "ReLU"
  bottom: "fc1_facialhair"
  top: "fc1_facialhair"
}
layer {
  name: "drop1_facialhair"
  type: "Dropout"
  bottom: "fc1_facialhair"
  top: "fc1_facialhair"
  dropout_param {
    dropout_ratio: 0.5
  }
}
layer {
  name: "fc2_facialhair"
  type: "InnerProduct"
  bottom: "fc1_facialhair"
  top: "fc2_facialhair"
  param {
    lr_mult: 1
    decay_mult: 1
  }
  param {
    lr_mult: 2
    decay_mult: 0
  }
  inner_product_param {
    num_output: 1024
    weight_filler {
      type: "xavier"
    }
    bias_filler {
      type: "constant"
      value: 0.2
    }
  }
}
layer {
  name: "relu2_facialhair"
  type: "ReLU"
  bottom: "fc2_facialhair"
  top: "fc2_facialhair"
}
layer {
  name: "drop2_facialhair"
  type: "Dropout"
  bottom: "fc2_facialhair"
  top: "fc2_facialhair"
  dropout_param {
    dropout_ratio: 0.5
  }
}
layer {
  name: "fc1_cheeks"
  type: "InnerProduct"
  bottom: "pool3_rest"
  top: "fc1_cheeks"
  param {
    lr_mult: 1
    decay_mult: 1
  }
  param {
    lr_mult: 2
    decay_mult: 0
  }
  inner_product_param {
    num_output: 1024
    weight_filler {
      type: "xavier"
    }
    bias_filler {
      type: "constant"
      value: 0.2
    }
  }
}
layer {
  name: "relu1_cheeks"
  type: "ReLU"
  bottom: "fc1_cheeks"
  top: "fc1_cheeks"
}
layer {
  name: "drop1_cheeks"
  type: "Dropout"
  bottom: "fc1_cheeks"
  top: "fc1_cheeks"
  dropout_param {
    dropout_ratio: 0.5
  }
}
layer {
  name: "fc2_cheeks"
  type: "InnerProduct"
  bottom: "fc1_cheeks"
  top: "fc2_cheeks"
  param {
    lr_mult: 1
    decay_mult: 1
  }
  param {
    lr_mult: 2
    decay_mult: 0
  }
  inner_product_param {
    num_output: 1024
    weight_filler {
      type: "xavier"
    }
    bias_filler {
      type: "constant"
      value: 0.2
    }
  }
}
layer {
  name: "relu2_cheeks"
  type: "ReLU"
  bottom: "fc2_cheeks"
  top: "fc2_cheeks"
}
layer {
  name: "drop2_cheeks"
  type: "Dropout"
  bottom: "fc2_cheeks"
  top: "fc2_cheeks"
  dropout_param {
    dropout_ratio: 0.5
  }
}
layer {
  name: "fc1_fat"
  type: "InnerProduct"
  bottom: "pool3_rest"
  top: "fc1_fat"
  param {
    lr_mult: 1
    decay_mult: 1
  }
  param {
    lr_mult: 2
    decay_mult: 0
  }
  inner_product_param {
    num_output: 1024
    weight_filler {
      type: "xavier"
    }
    bias_filler {
      type: "constant"
      value: 0.2
    }
  }
}
layer {
  name: "relu1_fat"
  type: "ReLU"
  bottom: "fc1_fat"
  top: "fc1_fat"
}
layer {
  name: "drop1_fat"
  type: "Dropout"
  bottom: "fc1_fat"
  top: "fc1_fat"
  dropout_param {
    dropout_ratio: 0.5
  }
}
layer {
  name: "fc2_fat"
  type: "InnerProduct"
  bottom: "fc1_fat"
  top: "fc2_fat"
  param {
    lr_mult: 1
    decay_mult: 1
  }
  param {
    lr_mult: 2
    decay_mult: 0
  }
  inner_product_param {
    num_output: 1024
    weight_filler {
      type: "xavier"
    }
    bias_filler {
      type: "constant"
      value: 0.2
    }
  }
}
layer {
  name: "relu2_fat"
  type: "ReLU"
  bottom: "fc2_fat"
  top: "fc2_fat"
}
layer {
  name: "drop2_fat"
  type: "Dropout"
  bottom: "fc2_fat"
  top: "fc2_fat"
  dropout_param {
    dropout_ratio: 0.5
  }
}
layer {
  name: "fc3_Male"
  type: "InnerProduct"
  bottom: "fc2_gender"
  top: "fc3_Male"
  inner_product_param {
    num_output: 2
    weight_filler {
      type: "xavier"
    }
    bias_filler {
      type: "constant"
      value: 0
    }
  }
}
layer {
  name: "loss_Male"
  type: "SigmoidCrossEntropyLoss"
  bottom: "fc3_Male"
  bottom: "label_Male"
  top: "loss_Male"
}
layer {
  name: "fc3_Big_Nose"
  type: "InnerProduct"
  bottom: "fc2_nose"
  top: "fc3_Big_Nose"
  inner_product_param {
    num_output: 2
    weight_filler {
      type: "xavier"
    }
    bias_filler {
      type: "constant"
      value: 0
    }
  }
}
layer {
  name: "loss_Big_Nose"
  type: "SigmoidCrossEntropyLoss"
  bottom: "fc3_Big_Nose"
  bottom: "label_Big_Nose"
  top: "loss_Big_Nose"
}
layer {
  name: "fc3_Pointy_Nose"
  type: "InnerProduct"
  bottom: "fc2_nose"
  top: "fc3_Pointy_Nose"
  inner_product_param {
    num_output: 2
    weight_filler {
      type: "xavier"
    }
    bias_filler {
      type: "constant"
      value: 0
    }
  }
}
layer {
  name: "loss_Pointy_Nose"
  type: "SigmoidCrossEntropyLoss"
  bottom: "fc3_Pointy_Nose"
  bottom: "label_Pointy_Nose"
  top: "loss_Pointy_Nose"
}
layer {
  name: "fc3_Big_Lips"
  type: "InnerProduct"
  bottom: "fc2_mouth"
  top: "fc3_Big_Lips"
  inner_product_param {
    num_output: 2
    weight_filler {
      type: "xavier"
    }
    bias_filler {
      type: "constant"
      value: 0
    }
  }
}
layer {
  name: "loss_Big_Lips"
  type: "SigmoidCrossEntropyLoss"
  bottom: "fc3_Big_Lips"
  bottom: "label_Big_Lips"
  top: "loss_Big_Lips"
}
layer {
  name: "fc3_Smiling"
  type: "InnerProduct"
  bottom: "fc2_mouth"
  top: "fc3_Smiling"
  inner_product_param {
    num_output: 2
    weight_filler {
      type: "xavier"
    }
    bias_filler {
      type: "constant"
      value: 0
    }
  }
}
layer {
  name: "loss_Smiling"
  type: "SigmoidCrossEntropyLoss"
  bottom: "fc3_Smiling"
  bottom: "label_Smiling"
  top: "loss_Smiling"
}
layer {
  name: "fc3_Wearing_Lipstick"
  type: "InnerProduct"
  bottom: "fc2_mouth"
  top: "fc3_Wearing_Lipstick"
  inner_product_param {
    num_output: 2
    weight_filler {
      type: "xavier"
    }
    bias_filler {
      type: "constant"
      value: 0
    }
  }
}
layer {
  name: "loss_Wearing_Lipstick"
  type: "SigmoidCrossEntropyLoss"
  bottom: "fc3_Wearing_Lipstick"
  bottom: "label_Wearing_Lipstick"
  top: "loss_Wearing_Lipstick"
}
layer {
  name: "fc3_Mouth_Slightly_Open"
  type: "InnerProduct"
  bottom: "fc2_mouth"
  top: "fc3_Mouth_Slightly_Open"
  inner_product_param {
    num_output: 2
    weight_filler {
      type: "xavier"
    }
    bias_filler {
      type: "constant"
      value: 0
    }
  }
}
layer {
  name: "loss_Mouth_Slightly_Open"
  type: "SigmoidCrossEntropyLoss"
  bottom: "fc3_Mouth_Slightly_Open"
  bottom: "label_Mouth_Slightly_Open"
  top: "loss_Mouth_Slightly_Open"
}
layer {
  name: "fc3_Arched_Eyebrows"
  type: "InnerProduct"
  bottom: "fc2_eyes"
  top: "fc3_Arched_Eyebrows"
  inner_product_param {
    num_output: 2
    weight_filler {
      type: "xavier"
    }
    bias_filler {
      type: "constant"
      value: 0
    }
  }
}
layer {
  name: "loss_Arched_Eyebrows"
  type: "SigmoidCrossEntropyLoss"
  bottom: "fc3_Arched_Eyebrows"
  bottom: "label_Arched_Eyebrows"
  top: "loss_Arched_Eyebrows"
}
layer {
  name: "fc3_Bags_Under_Eyes"
  type: "InnerProduct"
  bottom: "fc2_eyes"
  top: "fc3_Bags_Under_Eyes"
  inner_product_param {
    num_output: 2
    weight_filler {
      type: "xavier"
    }
    bias_filler {
      type: "constant"
      value: 0
    }
  }
}
layer {
  name: "loss_Bags_Under_Eyes"
  type: "SigmoidCrossEntropyLoss"
  bottom: "fc3_Bags_Under_Eyes"
  bottom: "label_Bags_Under_Eyes"
  top: "loss_Bags_Under_Eyes"
}
layer {
  name: "fc3_Bushy_Eyebrows"
  type: "InnerProduct"
  bottom: "fc2_eyes"
  top: "fc3_Bushy_Eyebrows"
  inner_product_param {
    num_output: 2
    weight_filler {
      type: "xavier"
    }
    bias_filler {
      type: "constant"
      value: 0
    }
  }
}
layer {
  name: "loss_Bushy_Eyebrows"
  type: "SigmoidCrossEntropyLoss"
  bottom: "fc3_Bushy_Eyebrows"
  bottom: "label_Bushy_Eyebrows"
  top: "loss_Bushy_Eyebrows"
}
layer {
  name: "fc3_Narrow_Eyes"
  type: "InnerProduct"
  bottom: "fc2_eyes"
  top: "fc3_Narrow_Eyes"
  inner_product_param {
    num_output: 2
    weight_filler {
      type: "xavier"
    }
    bias_filler {
      type: "constant"
      value: 0
    }
  }
}
layer {
  name: "loss_Narrow_Eyes"
  type: "SigmoidCrossEntropyLoss"
  bottom: "fc3_Narrow_Eyes"
  bottom: "label_Narrow_Eyes"
  top: "loss_Narrow_Eyes"
}
layer {
  name: "fc3_Eyeglasses"
  type: "InnerProduct"
  bottom: "fc2_eyes"
  top: "fc3_Eyeglasses"
  inner_product_param {
    num_output: 2
    weight_filler {
      type: "xavier"
    }
    bias_filler {
      type: "constant"
      value: 0
    }
  }
}
layer {
  name: "loss_Eyeglasses"
  type: "SigmoidCrossEntropyLoss"
  bottom: "fc3_Eyeglasses"
  bottom: "label_Eyeglasses"
  top: "loss_Eyeglasses"
}
layer {
  name: "fc3_Attractive"
  type: "InnerProduct"
  bottom: "fc2_face"
  top: "fc3_Attractive"
  inner_product_param {
    num_output: 2
    weight_filler {
      type: "xavier"
    }
    bias_filler {
      type: "constant"
      value: 0
    }
  }
}
layer {
  name: "loss_Attractive"
  type: "SigmoidCrossEntropyLoss"
  bottom: "fc3_Attractive"
  bottom: "label_Attractive"
  top: "loss_Attractive"
}
layer {
  name: "fc3_Blurry"
  type: "InnerProduct"
  bottom: "fc2_face"
  top: "fc3_Blurry"
  inner_product_param {
    num_output: 2
    weight_filler {
      type: "xavier"
    }
    bias_filler {
      type: "constant"
      value: 0
    }
  }
}
layer {
  name: "loss_Blurry"
  type: "SigmoidCrossEntropyLoss"
  bottom: "fc3_Blurry"
  bottom: "label_Blurry"
  top: "loss_Blurry"
}
layer {
  name: "fc3_Oval_Face"
  type: "InnerProduct"
  bottom: "fc2_face"
  top: "fc3_Oval_Face"
  inner_product_param {
    num_output: 2
    weight_filler {
      type: "xavier"
    }
    bias_filler {
      type: "constant"
      value: 0
    }
  }
}
layer {
  name: "loss_Oval_Face"
  type: "SigmoidCrossEntropyLoss"
  bottom: "fc3_Oval_Face"
  bottom: "label_Oval_Face"
  top: "loss_Oval_Face"
}
layer {
  name: "fc3_Pale_Skin"
  type: "InnerProduct"
  bottom: "fc2_face"
  top: "fc3_Pale_Skin"
  inner_product_param {
    num_output: 2
    weight_filler {
      type: "xavier"
    }
    bias_filler {
      type: "constant"
      value: 0
    }
  }
}
layer {
  name: "loss_Pale_Skin"
  type: "SigmoidCrossEntropyLoss"
  bottom: "fc3_Pale_Skin"
  bottom: "label_Pale_Skin"
  top: "loss_Pale_Skin"
}
layer {
  name: "fc3_Young"
  type: "InnerProduct"
  bottom: "fc2_face"
  top: "fc3_Young"
  inner_product_param {
    num_output: 2
    weight_filler {
      type: "xavier"
    }
    bias_filler {
      type: "constant"
      value: 0
    }
  }
}
layer {
  name: "loss_Young"
  type
I1025 11:36:49.888947 23388 layer_factory.hpp:77] Creating layer data
I1025 11:36:49.888998 23388 net.cpp:106] Creating Layer data
I1025 11:36:49.889008 23388 net.cpp:411] data -> data
I1025 11:36:49.889039 23388 net.cpp:411] data -> label
I1025 11:36:49.889055 23388 data_transformer.cpp:26] Loading mean file from: /home/zhangyuan/caojiajiong/attribute_learning/data/train_attr_id.binaryproto
I1025 11:36:49.904700 23388 image_data_layer.cpp:38] Opening file /home/zhangyuan/caojiajiong/attribute_learning/list/train_85p_shuffle.txt
I1025 11:36:49.920550 23388 image_data_layer.cpp:53] A total of 36313 images.
I1025 11:36:49.921537 23388 image_data_layer.cpp:80] output data size: 70,3,112,112
I1025 11:36:49.941185 23388 net.cpp:150] Setting up data
I1025 11:36:49.941229 23388 net.cpp:157] Top shape: 70 3 112 112 (2634240)
I1025 11:36:49.941237 23388 net.cpp:157] Top shape: 70 (70)
I1025 11:36:49.941241 23388 net.cpp:165] Memory required for data: 10537240
I1025 11:36:49.941253 23388 layer_factory.hpp:77] Creating layer label_data_1_split
I1025 11:36:49.941279 23388 net.cpp:106] Creating Layer label_data_1_split
I1025 11:36:49.941289 23388 net.cpp:454] label_data_1_split <- label
I1025 11:36:49.941304 23388 net.cpp:411] label_data_1_split -> label_data_1_split_0
I1025 11:36:49.941320 23388 net.cpp:411] label_data_1_split -> label_data_1_split_1
I1025 11:36:49.941393 23388 net.cpp:150] Setting up label_data_1_split
I1025 11:36:49.941406 23388 net.cpp:157] Top shape: 70 (70)
I1025 11:36:49.941411 23388 net.cpp:157] Top shape: 70 (70)
I1025 11:36:49.941414 23388 net.cpp:165] Memory required for data: 10537800
I1025 11:36:49.941418 23388 layer_factory.hpp:77] Creating layer attr_data
I1025 11:36:49.987911 23388 net.cpp:106] Creating Layer attr_data
I1025 11:36:49.987954 23388 net.cpp:411] attr_data -> attr_data
I1025 11:36:49.987974 23388 net.cpp:411] attr_data -> fakelabel
I1025 11:36:49.990449 23393 db_lmdb.cpp:38] Opened lmdb /home/zhangyuan/caojiajiong/attribute_learning/data/attr_train_85p
I1025 11:36:49.990978 23388 data_layer.cpp:41] output data size: 70,80,1,1
I1025 11:36:49.991991 23388 net.cpp:150] Setting up attr_data
I1025 11:36:49.992012 23388 net.cpp:157] Top shape: 70 80 1 1 (5600)
I1025 11:36:49.992022 23388 net.cpp:157] Top shape: 70 (70)
I1025 11:36:49.992025 23388 net.cpp:165] Memory required for data: 10560480
I1025 11:36:49.992032 23388 layer_factory.hpp:77] Creating layer conv1
I1025 11:36:49.992055 23388 net.cpp:106] Creating Layer conv1
I1025 11:36:49.992068 23388 net.cpp:454] conv1 <- data
I1025 11:36:49.992079 23388 net.cpp:411] conv1 -> conv1
I1025 11:36:50.373003 23388 net.cpp:150] Setting up conv1
I1025 11:36:50.373039 23388 net.cpp:157] Top shape: 70 64 112 112 (56197120)
I1025 11:36:50.373045 23388 net.cpp:165] Memory required for data: 235348960
I1025 11:36:50.373085 23388 layer_factory.hpp:77] Creating layer slice
I1025 11:36:50.373117 23388 net.cpp:106] Creating Layer slice
I1025 11:36:50.373132 23388 net.cpp:454] slice <- attr_data
I1025 11:36:50.373144 23388 net.cpp:411] slice -> label_5_o_Clock_Shadow
I1025 11:36:50.373162 23388 net.cpp:411] slice -> label_Arched_Eyebrows
…
I1025 11:36:50.373508 23388 net.cpp:411] slice -> label_Straight_Hair
I1025 11:36:50.373518 23388 net.cpp:411] slice -> label_Wavy_Hair
I1025 11:36:50.373530 23388 net.cpp:411] slice -> label_Wearing_Earrings
I1025 11:36:50.373540 23388 net.cpp:411] slice -> label_Wearing_Hat
I1025 11:36:50.373571 23388 net.cpp:411] slice -> label_Wearing_Lipstick
I1025 11:36:50.373582 23388 net.cpp:411] slice -> label_Wearing_Necklace
I1025 11:36:50.373591 23388 net.cpp:411] slice -> label_Wearing_Necktie
I1025 11:36:50.373601 23388 net.cpp:411] slice -> label_Young
I1025 11:36:50.374080 23388 net.cpp:150] Setting up slice
I1025 11:36:50.374091 23388 net.cpp:157] Top shape: 70 2 1 1 (140)
I1025 11:36:50.374097 23388 net.cpp:157] Top shape: 70 2 1 1 (140)
I1025 11:36:50.374102 23388 net.cpp:157] Top shape: 70 2 1 1 (140)
I1025 11:36:50.374106 23388 net.cpp:157] Top shape: 70 2 1 1 (140)
I1025 11:36:50.374111 23388 net.cpp:157] Top shape: 70 2 1 1 (140)
I1025 11:36:50.374115 23388 net.cpp:157] Top shape: 70 2 1 1 (140)
I1025 11:36:50.374120 23388 net.cpp:157] Top shape: 70 2 1 1 (140)
I1025 11:36:50.374125 23388 net.cpp:157] Top shape: 70 2 1 1 (140)
I1025 11:36:50.374128 23388 net.cpp:157] Top shape: 70 2 1 1 (140)
I1025 11:36:50.374133 23388 net.cpp:157] Top shape: 70 2 1 1 (140)
I1025 11:36:50.374138 23388 net.cpp:157] Top shape: 70 2 1 1 (140)
I1025 11:36:50.374142 23388 net.cpp:157] Top shape: 70 2 1 1 (140)
I1025 11:36:50.374146 23388 net.cpp:157] Top shape: 70 2 1 1 (140)
I1025 11:36:50.374151 23388 net.cpp:157] Top shape: 70 2 1 1 (140)
I1025 11:36:50.374155 23388 net.cpp:157] Top shape: 70 2 1 1 (140)
I1025 11:36:50.374161 23388 net.cpp:157] Top shape: 70 2 1 1 (140)
I1025 11:36:50.374166 23388 net.cpp:157] Top shape: 70 2 1 1 (140)
I1025 11:36:50.374169 23388 net.cpp:157] Top shape: 70 2 1 1 (140)
I1025 11:36:50.374174 23388 net.cpp:157] Top shape: 70 2 1 1 (140)
I1025 11:36:50.374178 23388 net.cpp:157] Top shape: 70 2 1 1 (140)
I1025 11:36:50.374182 23388 net.cpp:157] Top shape: 70 2 1 1 (140)
I1025 11:36:50.374187 23388 net.cpp:157] Top shape: 70 2 1 1 (140)
I1025 11:36:50.374191 23388 net.cpp:157] Top shape: 70 2 1 1 (140)
I1025 11:36:50.374195 23388 net.cpp:157] Top shape: 70 2 1 1 (140)
I1025 11:36:50.374200 23388 net.cpp:157] Top shape: 70 2 1 1 (140)
I1025 11:36:50.374205 23388 net.cpp:157] Top shape: 70 2 1 1 (140)
I1025 11:36:50.374210 23388 net.cpp:157] Top shape: 70 2 1 1 (140)
I1025 11:36:50.374215 23388 net.cpp:157] Top shape: 70 2 1 1 (140)
I1025 11:36:50.374219 23388 net.cpp:157] Top shape: 70 2 1 1 (140)
I1025 11:36:50.374223 23388 net.cpp:157] Top shape: 70 2 1 1 (140)
I1025 11:36:50.374228 23388 net.cpp:157] Top shape: 70 2 1 1 (140)
I1025 11:36:50.374233 23388 net.cpp:157] Top shape: 70 2 1 1 (140)
I1025 11:36:50.374236 23388 net.cpp:157] Top shape: 70 2 1 1 (140)
I1025 11:36:50.374241 23388 net.cpp:157] Top shape: 70 2 1 1 (140)
I1025 11:36:50.374245 23388 net.cpp:157] Top shape: 70 2 1 1 (140)
I1025 11:36:50.374249 23388 net.cpp:157] Top shape: 70 2 1 1 (140)
I1025 11:36:50.374255 23388 net.cpp:157] Top shape: 70 2 1 1 (140)
I1025 11:36:50.374259 23388 net.cpp:157] Top shape: 70 2 1 1 (140)
I1025 11:36:50.374264 23388 net.cpp:157] Top shape: 70 2 1 1 (140)
I1025 11:36:50.374269 23388 net.cpp:157] Top shape: 70 2 1 1 (140)
I1025 11:36:50.374271 23388 net.cpp:165] Memory required for data: 235371360
I1025 11:36:50.374277 23388 layer_factory.hpp:77] Creating layer conv1_bn
I1025 11:36:50.374287 23388 net.cpp:106] Creating Layer conv1_bn
I1025 11:36:50.374292 23388 net.cpp:454] conv1_bn <- conv1
I1025 11:36:50.374299 23388 net.cpp:397] conv1_bn -> conv1 (in-place)
I1025 11:36:50.374510 23388 net.cpp:150] Setting up conv1_bn
I1025 11:36:50.374519 23388 net.cpp:157] Top shape: 70 64 112 112 (56197120)
I1025 11:36:50.374523 23388 net.cpp:165] Memory required for data: 460159840
I1025 11:36:50.374538 23388 layer_factory.hpp:77] Creating layer conv1_scale
I1025 11:36:50.374555 23388 net.cpp:106] Creating Layer conv1_scale
I1025 11:36:50.374562 23388 net.cpp:454] conv1_scale <- conv1
I1025 11:36:50.374567 23388 net.cpp:397] conv1_scale -> conv1 (in-place)
I1025 11:36:50.374629 23388 layer_factory.hpp:77] Creating layer conv1_scale
I1025 11:36:50.374788 23388 net.cpp:150] Setting up conv1_scale
I1025 11:36:50.374800 23388 net.cpp:157] Top shape: 70 64 112 112 (56197120)
I1025 11:36:50.374819 23388 net.cpp:165] Memory required for data: 684948320
I1025 11:36:50.374826 23388 layer_factory.hpp:77] Creating layer prelu1
I1025 11:36:50.374835 23388 net.cpp:106] Creating Layer prelu1
I1025 11:36:50.374838 23388 net.cpp:454] prelu1 <- conv1
I1025 11:36:50.374845 23388 net.cpp:397] prelu1 -> conv1 (in-place)
I1025 11:36:50.377256 23388 net.cpp:150] Setting up prelu1
I1025 11:36:50.377274 23388 net.cpp:157] Top shape: 70 64 112 112 (56197120)
I1025 11:36:50.377279 23388 net.cpp:165] Memory required for data: 909736800
I1025 11:36:50.377290 23388 layer_factory.hpp:77] Creating layer pool1
I1025 11:36:50.377300 23388 net.cpp:106] Creating Layer pool1
I1025 11:36:50.377305 23388 net.cpp:454] pool1 <- conv1
I1025 11:36:50.377311 23388 net.cpp:411] pool1 -> pool1
I1025 11:36:50.377727 23388 net.cpp:150] Setting up pool1
I1025 11:36:50.377745 23388 net.cpp:157] Top shape: 70 64 56 56 (14049280)
I1025 11:36:50.377750 23388 net.cpp:165] Memory required for data: 965933920
I1025 11:36:50.377754 23388 layer_factory.hpp:77] Creating layer conv2a
I1025 11:36:50.377769 23388 net.cpp:106] Creating Layer conv2a
I1025 11:36:50.377774 23388 net.cpp:454] conv2a <- pool1
I1025 11:36:50.377781 23388 net.cpp:411] conv2a -> conv2a
I1025 11:36:50.378931 23388 net.cpp:150] Setting up conv2a
I1025 11:36:50.378949 23388 net.cpp:157] Top shape: 70 64 56 56 (14049280)
I1025 11:36:50.378954 23388 net.cpp:165] Memory required for data: 1022131040
I1025 11:36:50.378965 23388 layer_factory.hpp:77] Creating layer conv2a_bn
I1025 11:36:50.378973 23388 net.cpp:106] Creating Layer conv2a_bn
I1025 11:36:50.378978 23388 net.cpp:454] conv2a_bn <- conv2a
I1025 11:36:50.378986 23388 net.cpp:397] conv2a_bn -> conv2a (in-place)
I1025 11:36:50.379194 23388 net.cpp:150] Setting up conv2a_bn
I1025 11:36:50.379204 23388 net.cpp:157] Top shape: 70 64 56 56 (14049280)
I1025 11:36:50.379209 23388 net.cpp:165] Memory required for data: 1078328160
I1025 11:36:50.379218 23388 layer_factory.hpp:77] Creating layer conv2a_scale
I1025 11:36:50.379225 23388 net.cpp:106] Creating Layer conv2a_scale
I1025 11:36:50.379230 23388 net.cpp:454] conv2a_scale <- conv2a
I1025 11:36:50.379235 23388 net.cpp:397] conv2a_scale -> conv2a (in-place)
I1025 11:36:50.379278 23388 layer_factory.hpp:77] Creating layer conv2a_scale
I1025 11:36:50.379411 23388 net.cpp:150] Setting up conv2a_scale
I1025 11:36:50.379421 23388 net.cpp:157] Top shape: 70 64 56 56 (14049280)
I1025 11:36:50.379426 23388 net.cpp:165] Memory required for data: 1134525280
I1025 11:36:50.379434 23388 layer_factory.hpp:77] Creating layer prelu2a
I1025 11:36:50.379441 23388 net.cpp:106] Creating Layer prelu2a
I1025 11:36:50.379446 23388 net.cpp:454] prelu2a <- conv2a
I1025 11:36:50.379451 23388 net.cpp:397] prelu2a -> conv2a (in-place)
I1025 11:36:50.380398 23388 net.cpp:150] Setting up prelu2a
I1025 11:36:50.380414 23388 net.cpp:157] Top shape: 70 64 56 56 (14049280)
I1025 11:36:50.380419 23388 net.cpp:165] Memory required for data: 1190722400
I1025 11:36:50.380425 23388 layer_factory.hpp:77] Creating layer conv2
I1025 11:36:50.380439 23388 net.cpp:106] Creating Layer conv2
I1025 11:36:50.380445 23388 net.cpp:454] conv2 <- conv2a
I1025 11:36:50.380451 23388 net.cpp:411] conv2 -> conv2
I1025 11:36:50.383025 23388 net.cpp:150] Setting up conv2
I1025 11:36:50.383044 23388 net.cpp:157] Top shape: 70 192 56 56 (42147840)
I1025 11:36:50.383050 23388 net.cpp:165] Memory required for data: 1359313760
I1025 11:36:50.383061 23388 layer_factory.hpp:77] Creating layer conv2_bn
I1025 11:36:50.383069 23388 net.cpp:106] Creating Layer conv2_bn
I1025 11:36:50.383074 23388 net.cpp:454] conv2_bn <- conv2
I1025 11:36:50.383080 23388 net.cpp:397] conv2_bn -> conv2 (in-place)
I1025 11:36:50.383286 23388 net.cpp:150] Setting up conv2_bn
I1025 11:36:50.383297 23388 net.cpp:157] Top shape: 70 192 56 56 (42147840)
I1025 11:36:50.383301 23388 net.cpp:165] Memory required for data: 1527905120
I1025 11:36:50.383311 23388 layer_factory.hpp:77] Creating layer conv2_scale
I1025 11:36:50.383322 23388 net.cpp:106] Creating Layer conv2_scale
I1025 11:36:50.383343 23388 net.cpp:454] conv2_scale <- conv2
I1025 11:36:50.383350 23388 net.cpp:397] conv2_scale -> conv2 (in-place)
I1025 11:36:50.383404 23388 layer_factory.hpp:77] Creating layer conv2_scale
I1025 11:36:50.383536 23388 net.cpp:150] Setting up conv2_scale
I1025 11:36:50.383546 23388 net.cpp:157] Top shape: 70 192 56 56 (42147840)
I1025 11:36:50.383553 23388 net.cpp:165] Memory required for data: 1696496480
I1025 11:36:50.383559 23388 layer_factory.hpp:77] Creating layer prelu2
I1025 11:36:50.383570 23388 net.cpp:106] Creating Layer prelu2
I1025 11:36:50.383576 23388 net.cpp:454] prelu2 <- conv2
I1025 11:36:50.383582 23388 net.cpp:397] prelu2 -> conv2 (in-place)
I1025 11:36:50.385288 23388 net.cpp:150] Setting up prelu2
I1025 11:36:50.385306 23388 net.cpp:157] Top shape: 70 192 56 56 (42147840)
I1025 11:36:50.385310 23388 net.cpp:165] Memory required for data: 1865087840
I1025 11:36:50.385318 23388 layer_factory.hpp:77] Creating layer pool2
I1025 11:36:50.385326 23388 net.cpp:106] Creating Layer pool2
I1025 11:36:50.385330 23388 net.cpp:454] pool2 <- conv2
I1025 11:36:50.385337 23388 net.cpp:411] pool2 -> pool2
I1025 11:36:50.385728 23388 net.cpp:150] Setting up pool2
I1025 11:36:50.385746 23388 net.cpp:157] Top shape: 70 192 28 28 (10536960)
I1025 11:36:50.385751 23388 net.cpp:165] Memory required for data: 1907235680
I1025 11:36:50.385754 23388 layer_factory.hpp:77] Creating layer conv3a
I1025 11:36:50.385766 23388 net.cpp:106] Creating Layer conv3a
I1025 11:36:50.385771 23388 net.cpp:454] conv3a <- pool2
I1025 11:36:50.385778 23388 net.cpp:411] conv3a -> conv3a
I1025 11:36:50.387887 23388 net.cpp:150] Setting up conv3a
I1025 11:36:50.387908 23388 net.cpp:157] Top shape: 70 192 28 28 (10536960)
I1025 11:36:50.387913 23388 net.cpp:165] Memory required for data: 1949383520
I1025 11:36:50.387923 23388 layer_factory.hpp:77] Creating layer conv3a_bn
I1025 11:36:50.387933 23388 net.cpp:106] Creating Layer conv3a_bn
I1025 11:36:50.387938 23388 net.cpp:454] conv3a_bn <- conv3a
I1025 11:36:50.387948 23388 net.cpp:397] conv3a_bn -> conv3a (in-place)
I1025 11:36:50.388176 23388 net.cpp:150] Setting up conv3a_bn
I1025 11:36:50.388187 23388 net.cpp:157] Top shape: 70 192 28 28 (10536960)
I1025 11:36:50.388191 23388 net.cpp:165] Memory required for data: 1991531360
I1025 11:36:50.388200 23388 layer_factory.hpp:77] Creating layer conv3a_scale
I1025 11:36:50.388207 23388 net.cpp:106] Creating Layer conv3a_scale
I1025 11:36:50.388212 23388 net.cpp:454] conv3a_scale <- conv3a
I1025 11:36:50.388221 23388 net.cpp:397] conv3a_scale -> conv3a (in-place)
I1025 11:36:50.388265 23388 layer_factory.hpp:77] Creating layer conv3a_scale
I1025 11:36:50.388404 23388 net.cpp:150] Setting up conv3a_scale
I1025 11:36:50.388414 23388 net.cpp:157] Top shape: 70 192 28 28 (10536960)
I1025 11:36:50.388418 23388 net.cpp:165] Memory required for data: 2033679200
I1025 11:36:50.388427 23388 layer_factory.hpp:77] Creating layer prelu3a
I1025 11:36:50.388433 23388 net.cpp:106] Creating Layer prelu3a
I1025 11:36:50.388438 23388 net.cpp:454] prelu3a <- conv3a
I1025 11:36:50.388944 23388 net.cpp:397] prelu3a -> conv3a (in-place)
I1025 11:36:50.389168 23388 net.cpp:150] Setting up prelu3a
I1025 11:36:50.389179 23388 net.cpp:157] Top shape: 70 192 28 28 (10536960)
I1025 11:36:50.389183 23388 net.cpp:165] Memory required for data: 2075827040
I1025 11:36:50.389191 23388 layer_factory.hpp:77] Creating layer conv3
I1025 11:36:50.389204 23388 net.cpp:106] Creating Layer conv3
I1025 11:36:50.389209 23388 net.cpp:454] conv3 <- conv3a
I1025 11:36:50.389217 23388 net.cpp:411] conv3 -> conv3
I1025 11:36:50.396984 23388 net.cpp:150] Setting up conv3
I1025 11:36:50.397004 23388 net.cpp:157] Top shape: 70 384 28 28 (21073920)
I1025 11:36:50.397009 23388 net.cpp:165] Memory required for data: 2160122720
I1025 11:36:50.397027 23388 layer_factory.hpp:77] Creating layer conv3_bn
I1025 11:36:50.397038 23388 net.cpp:106] Creating Layer conv3_bn
I1025 11:36:50.397043 23388 net.cpp:454] conv3_bn <- conv3
I1025 11:36:50.397052 23388 net.cpp:397] conv3_bn -> conv3 (in-place)
I1025 11:36:50.397277 23388 net.cpp:150] Setting up conv3_bn
I1025 11:36:50.397289 23388 net.cpp:157] Top shape: 70 384 28 28 (21073920)
I1025 11:36:50.397294 23388 net.cpp:165] Memory required for data: 2244418400
I1025 11:36:50.397302 23388 layer_factory.hpp:77] Creating layer conv3_scale
I1025 11:36:50.397310 23388 net.cpp:106] Creating Layer conv3_scale
I1025 11:36:50.397315 23388 net.cpp:454] conv3_scale <- conv3
I1025 11:36:50.397322 23388 net.cpp:397] conv3_scale -> conv3 (in-place)
I1025 11:36:50.397369 23388 layer_factory.hpp:77] Creating layer conv3_scale
I1025 11:36:50.397491 23388 net.cpp:150] Setting up conv3_scale
I1025 11:36:50.397501 23388 net.cpp:157] Top shape: 70 384 28 28 (21073920)
I1025 11:36:50.397505 23388 net.cpp:165] Memory required for data: 2328714080
I1025 11:36:50.397512 23388 layer_factory.hpp:77] Creating layer prelu3
I1025 11:36:50.397521 23388 net.cpp:106] Creating Layer prelu3
I1025 11:36:50.397524 23388 net.cpp:454] prelu3 <- conv3
I1025 11:36:50.397529 23388 net.cpp:397] prelu3 -> conv3 (in-place)
I1025 11:36:50.398563 23388 net.cpp:150] Setting up prelu3
I1025 11:36:50.398581 23388 net.cpp:157] Top shape: 70 384 28 28 (21073920)
I1025 11:36:50.398584 23388 net.cpp:165] Memory required for data: 2413009760
I1025 11:36:50.398591 23388 layer_factory.hpp:77] Creating layer pool3
I1025 11:36:50.398602 23388 net.cpp:106] Creating Layer pool3
I1025 11:36:50.398605 23388 net.cpp:454] pool3 <- conv3
I1025 11:36:50.398613 23388 net.cpp:411] pool3 -> pool3
I1025 11:36:50.399015 23388 net.cpp:150] Setting up pool3
I1025 11:36:50.399032 23388 net.cpp:157] Top shape: 70 384 14 14 (5268480)
I1025 11:36:50.399036 23388 net.cpp:165] Memory required for data: 2434083680
I1025 11:36:50.399041 23388 layer_factory.hpp:77] Creating layer pool3_pool3_0_split
I1025 11:36:50.399049 23388 net.cpp:106] Creating Layer pool3_pool3_0_split
I1025 11:36:50.399054 23388 net.cpp:454] pool3_pool3_0_split <- pool3
I1025 11:36:50.399062 23388 net.cpp:411] pool3_pool3_0_split -> pool3_pool3_0_split_0
I1025 11:36:50.399070 23388 net.cpp:411] pool3_pool3_0_split -> pool3_pool3_0_split_1
I1025 11:36:50.399078 23388 net.cpp:411] pool3_pool3_0_split -> pool3_pool3_0_split_2
I1025 11:36:50.399086 23388 net.cpp:411] pool3_pool3_0_split -> pool3_pool3_0_split_3
I1025 11:36:50.399092 23388 net.cpp:411] pool3_pool3_0_split -> pool3_pool3_0_split_4
I1025 11:36:50.399098 23388 net.cpp:411] pool3_pool3_0_split -> pool3_pool3_0_split_5
I1025 11:36:50.399194 23388 net.cpp:150] Setting up pool3_pool3_0_split
I1025 11:36:50.399204 23388 net.cpp:157] Top shape: 70 384 14 14 (5268480)
I1025 11:36:50.399209 23388 net.cpp:157] Top shape: 70 384 14 14 (5268480)
I1025 11:36:50.399214 23388 net.cpp:157] Top shape: 70 384 14 14 (5268480)
I1025 11:36:50.399217 23388 net.cpp:157] Top shape: 70 384 14 14 (5268480)
I1025 11:36:50.399222 23388 net.cpp:157] Top shape: 70 384 14 14 (5268480)
I1025 11:36:50.399226 23388 net.cpp:157] Top shape: 70 384 14 14 (5268480)
I1025 11:36:50.399230 23388 net.cpp:165] Memory required for data: 2560527200
I1025 11:36:50.399233 23388 layer_factory.hpp:77] Creating layer conv3_gender
I1025 11:36:50.399247 23388 net.cpp:106] Creating Layer conv3_gender
I1025 11:36:50.399252 23388 net.cpp:454] conv3_gender <- pool3_pool3_0_split_0
I1025 11:36:50.399261 23388 net.cpp:411] conv3_gender -> conv3_gender
I1025 11:36:50.418485 23388 net.cpp:150] Setting up conv3_gender
I1025 11:36:50.418505 23388 net.cpp:157] Top shape: 70 512 7 7 (1756160)
I1025 11:36:50.418510 23388 net.cpp:165] Memory required for data: 2567551840
I1025 11:36:50.418520 23388 layer_factory.hpp:77] Creating layer conv3_gender_bn
I1025 11:36:50.418530 23388 net.cpp:106] Creating Layer conv3_gender_bn
I1025 11:36:50.418536 23388 net.cpp:454] conv3_gender_bn <- conv3_gender
I1025 11:36:50.418545 23388 net.cpp:397] conv3_gender_bn -> conv3_gender (in-place)
I1025 11:36:50.418768 23388 net.cpp:150] Setting up conv3_gender_bn
I1025 11:36:50.418781 23388 net.cpp:157] Top shape: 70 512 7 7 (1756160)
I1025 11:36:50.418784 23388 net.cpp:165] Memory required for data: 2574576480
I1025 11:36:50.418807 23388 layer_factory.hpp:77] Creating layer conv3_gender_scale
I1025 11:36:50.418817 23388 net.cpp:106] Creating Layer conv3_gender_scale
I1025 11:36:50.418822 23388 net.cpp:454] conv3_gender_scale <- conv3_gender
I1025 11:36:50.418828 23388 net.cpp:397] conv3_gender_scale -> conv3_gender (in-place)
I1025 11:36:50.418876 23388 layer_factory.hpp:77] Creating layer conv3_gender_scale
I1025 11:36:50.419013 23388 net.cpp:150] Setting up conv3_gender_scale
I1025 11:36:50.419023 23388 net.cpp:157] Top shape: 70 512 7 7 (1756160)
I1025 11:36:50.419026 23388 net.cpp:165] Memory required for data: 2581601120
I1025 11:36:50.419034 23388 layer_factory.hpp:77] Creating layer prelu3_gender
I1025 11:36:50.419041 23388 net.cpp:106] Creating Layer prelu3_gender
I1025 11:36:50.419045 23388 net.cpp:454] prelu3_gender <- conv3_gender
I1025 11:36:50.419051 23388 net.cpp:397] prelu3_gender -> conv3_gender (in-place)
I1025 11:36:50.419183 23388 net.cpp:150] Setting up prelu3_gender
I1025 11:36:50.419193 23388 net.cpp:157] Top shape: 70 512 7 7 (1756160)
I1025 11:36:50.419198 23388 net.cpp:165] Memory required for data: 2588625760
I1025 11:36:50.419203 23388 layer_factory.hpp:77] Creating layer pool3_gender
I1025 11:36:50.419216 23388 net.cpp:106] Creating Layer pool3_gender
I1025 11:36:50.419220 23388 net.cpp:454] pool3_gender <- conv3_gender
I1025 11:36:50.419227 23388 net.cpp:411] pool3_gender -> pool3_gender
I1025 11:36:50.419483 23388 net.cpp:150] Setting up pool3_gender
I1025 11:36:50.419497 23388 net.cpp:157] Top shape: 70 512 4 4 (573440)
I1025 11:36:50.419502 23388 net.cpp:165] Memory required for data: 2590919520
I1025 11:36:50.419505 23388 layer_factory.hpp:77] Creating layer pool3_gender_pool3_gender_0_split
I1025 11:36:50.419514 23388 net.cpp:106] Creating Layer pool3_gender_pool3_gender_0_split
I1025 11:36:50.419519 23388 net.cpp:454] pool3_gender_pool3_gender_0_split <- pool3_gender
I1025 11:36:50.419525 23388 net.cpp:411] pool3_gender_pool3_gender_0_split -> pool3_gender_pool3_gender_0_split_0
I1025 11:36:50.419535 23388 net.cpp:411] pool3_gender_pool3_gender_0_split -> pool3_gender_pool3_gender_0_split_1
I1025 11:36:50.419579 23388 net.cpp:150] Setting up pool3_gender_pool3_gender_0_split
I1025 11:36:50.419585 23388 net.cpp:157] Top shape: 70 512 4 4 (573440)
I1025 11:36:50.419590 23388 net.cpp:157] Top shape: 70 512 4 4 (573440)
I1025 11:36:50.419594 23388 net.cpp:165] Memory required for data: 2595507040
I1025 11:36:50.419597 23388 layer_factory.hpp:77] Creating layer fc1_gender
I1025 11:36:50.419615 23388 net.cpp:106] Creating Layer fc1_gender
I1025 11:36:50.419620 23388 net.cpp:454] fc1_gender <- pool3_gender_pool3_gender_0_split_0
I1025 11:36:50.419628 23388 net.cpp:411] fc1_gender -> fc1_gender
I1025 11:36:50.505776 23388 net.cpp:150] Setting up fc1_gender
I1025 11:36:50.505813 23388 net.cpp:157] Top shape: 70 1024 (71680)
I1025 11:36:50.505820 23388 net.cpp:165] Memory required for data: 2595793760
I1025 11:36:50.505833 23388 layer_factory.hpp:77] Creating layer relu1_gender
I1025 11:36:50.505846 23388 net.cpp:106] Creating Layer relu1_gender
I1025 11:36:50.505853 23388 net.cpp:454] relu1_gender <- fc1_gender
I1025 11:36:50.505862 23388 net.cpp:397] relu1_gender -> fc1_gender (in-place)
I1025 11:36:50.506431 23388 net.cpp:150] Setting up relu1_gender
I1025 11:36:50.506448 23388 net.cpp:157] Top shape: 70 1024 (71680)
I1025 11:36:50.506455 23388 net.cpp:165] Memory required for data: 2596080480
I1025 11:36:50.506460 23388 layer_factory.hpp:77] Creating layer drop1_gender
I1025 11:36:50.506471 23388 net.cpp:106] Creating Layer drop1_gender
I1025 11:36:50.506475 23388 net.cpp:454] drop1_gender <- fc1_gender
I1025 11:36:50.506484 23388 net.cpp:397] drop1_gender -> fc1_gender (in-place)
I1025 11:36:50.506530 23388 net.cpp:150] Setting up drop1_gender
I1025 11:36:50.506537 23388 net.cpp:157] Top shape: 70 1024 (71680)
I1025 11:36:50.506541 23388 net.cpp:165] Memory required for data: 2596367200
I1025 11:36:50.506546 23388 layer_factory.hpp:77] Creating layer fc2_gender
I1025 11:36:50.506578 23388 net.cpp:106] Creating Layer fc2_gender
I1025 11:36:50.506583 23388 net.cpp:454] fc2_gender <- fc1_gender
I1025 11:36:50.506592 23388 net.cpp:411] fc2_gender -> fc2_gender
I1025 11:36:50.517354 23388 net.cpp:150] Setting up fc2_gender
I1025 11:36:50.517372 23388 net.cpp:157] Top shape: 70 1024 (71680)
I1025 11:36:50.517376 23388 net.cpp:165] Memory required for data: 2596653920
I1025 11:36:50.517385 23388 layer_factory.hpp:77] Creating layer relu2_gender
I1025 11:36:50.517391 23388 net.cpp:106] Creating Layer relu2_gender
I1025 11:36:50.517396 23388 net.cpp:454] relu2_gender <- fc2_gender
I1025 11:36:50.517405 23388 net.cpp:397] relu2_gender -> fc2_gender (in-place)
I1025 11:36:50.517622 23388 net.cpp:150] Setting up relu2_gender
I1025 11:36:50.517637 23388 net.cpp:157] Top shape: 70 1024 (71680)
I1025 11:36:50.517640 23388 net.cpp:165] Memory required for data: 2596940640
I1025 11:36:50.517644 23388 layer_factory.hpp:77] Creating layer drop2_gender
I1025 11:36:50.517652 23388 net.cpp:106] Creating Layer drop2_gender
I1025 11:36:50.517655 23388 net.cpp:454] drop2_gender <- fc2_gender
I1025 11:36:50.517662 23388 net.cpp:397] drop2_gender -> fc2_gender (in-place)
I1025 11:36:50.517698 23388 net.cpp:150] Setting up drop2_gender
I1025 11:36:50.517714 23388 net.cpp:157] Top shape: 70 1024 (71680)
I1025 11:36:50.517717 23388 net.cpp:165] Memory required for data: 2597227360
I1025 11:36:50.517722 23388 layer_factory.hpp:77] Creating layer fc2_gender_drop2_gender_0_split
I1025 11:36:50.517732 23388 net.cpp:106] Creating Layer fc2_gender_drop2_gender_0_split
I1025 11:36:50.517736 23388 net.cpp:454] fc2_gender_drop2_gender_0_split <- fc2_gender
I1025 11:36:50.517743 23388 net.cpp:411] fc2_gender_drop2_gender_0_split -> fc2_gender_drop2_gender_0_split_0
I1025 11:36:50.517750 23388 net.cpp:411] fc2_gender_drop2_gender_0_split -> fc2_gender_drop2_gender_0_split_1
I1025 11:36:50.517799 23388 net.cpp:150] Setting up fc2_gender_drop2_gender_0_split
I1025 11:36:50.517808 23388 net.cpp:157] Top shape: 70 1024 (71680)
I1025 11:36:50.517813 23388 net.cpp:157] Top shape: 70 1024 (71680)
I1025 11:36:50.517817 23388 net.cpp:165] Memory required for data: 2597800800
I1025 11:36:50.517823 23388 layer_factory.hpp:77] Creating layer conv3_nose
I1025 11:36:50.517838 23388 net.cpp:106] Creating Layer conv3_nose
I1025 11:36:50.517845 23388 net.cpp:454] conv3_nose <- pool3_pool3_0_split_1
I1025 11:36:50.517855 23388 net.cpp:411] conv3_nose -> conv3_nose
I1025 11:36:50.536870 23388 net.cpp:150] Setting up conv3_nose
I1025 11:36:50.536891 23388 net.cpp:157] Top shape: 70 512 7 7 (1756160)
I1025 11:36:50.536896 23388 net.cpp:165] Memory required for data: 2604825440
I1025 11:36:50.536905 23388 layer_factory.hpp:77] Creating layer conv3_nose_bn
I1025 11:36:50.536921 23388 net.cpp:106] Creating Layer conv3_nose_bn
I1025 11:36:50.536926 23388 net.cpp:454] conv3_nose_bn <- conv3_nose
I1025 11:36:50.536933 23388 net.cpp:397] conv3_nose_bn -> conv3_nose (in-place)
I1025 11:36:50.537161 23388 net.cpp:150] Setting up conv3_nose_bn
I1025 11:36:50.537173 23388 net.cpp:157] Top shape: 70 512 7 7 (1756160)
I1025 11:36:50.537178 23388 net.cpp:165] Memory required for data: 2611850080
I1025 11:36:50.537189 23388 layer_factory.hpp:77] Creating layer conv3_nose_scale
I1025 11:36:50.537199 23388 net.cpp:106] Creating Layer conv3_nose_scale
I1025 11:36:50.537202 23388 net.cpp:454] conv3_nose_scale <- conv3_nose
I1025 11:36:50.537209 23388 net.cpp:397] conv3_nose_scale -> conv3_nose (in-place)
I1025 11:36:50.537256 23388 layer_factory.hpp:77] Creating layer conv3_nose_scale
I1025 11:36:50.537397 23388 net.cpp:150] Setting up conv3_nose_scale
I1025 11:36:50.537410 23388 net.cpp:157] Top shape: 70 512 7 7 (1756160)
I1025 11:36:50.537413 23388 net.cpp:165] Memory required for data: 2618874720
I1025 11:36:50.537420 23388 layer_factory.hpp:77] Creating layer prelu3_nose
I1025 11:36:50.537428 23388 net.cpp:106] Creating Layer prelu3_nose
I1025 11:36:50.537433 23388 net.cpp:454] prelu3_nose <- conv3_nose
I1025 11:36:50.537441 23388 net.cpp:397] prelu3_nose -> conv3_nose (in-place)
I1025 11:36:50.537598 23388 net.cpp:150] Setting up prelu3_nose
I1025 11:36:50.537611 23388 net.cpp:157] Top shape: 70 512 7 7 (1756160)
I1025 11:36:50.537614 23388 net.cpp:165] Memory required for data: 2625899360
I1025 11:36:50.537621 23388 layer_factory.hpp:77] Creating layer pool3_nose
I1025 11:36:50.537631 23388 net.cpp:106] Creating Layer pool3_nose
I1025 11:36:50.537636 23388 net.cpp:454] pool3_nose <- conv3_nose
I1025 11:36:50.537642 23388 net.cpp:411] pool3_nose -> pool3_nose
I1025 11:36:50.538061 23388 net.cpp:150] Setting up pool3_nose
I1025 11:36:50.538079 23388 net.cpp:157] Top shape: 70 512 4 4 (573440)
I1025 11:36:50.538084 23388 net.cpp:165] Memory required for data: 2628193120
I1025 11:36:50.538089 23388 layer_factory.hpp:77] Creating layer pool3_nose_pool3_nose_0_split
I1025 11:36:50.538100 23388 net.cpp:106] Creating Layer pool3_nose_pool3_nose_0_split
I1025 11:36:50.538105 23388 net.cpp:454] pool3_nose_pool3_nose_0_split <- pool3_nose
I1025 11:36:50.538112 23388 net.cpp:411] pool3_nose_pool3_nose_0_split -> pool3_nose_pool3_nose_0_split_0
I1025 11:36:50.538121 23388 net.cpp:411] pool3_nose_pool3_nose_0_split -> pool3_nose_pool3_nose_0_split_1
I1025 11:36:50.538169 23388 net.cpp:150] Setting up pool3_nose_pool3_nose_0_split
I1025 11:36:50.538177 23388 net.cpp:157] Top shape: 70 512 4 4 (573440)
I1025 11:36:50.538182 23388 net.cpp:157] Top shape: 70 512 4 4 (573440)
I1025 11:36:50.538185 23388 net.cpp:165] Memory required for data: 2632780640
I1025 11:36:50.538189 23388 layer_factory.hpp:77] Creating layer fc1_nose
I1025 11:36:50.538199 23388 net.cpp:106] Creating Layer fc1_nose
I1025 11:36:50.538204 23388 net.cpp:454] fc1_nose <- pool3_nose_pool3_nose_0_split_0
I1025 11:36:50.538211 23388 net.cpp:411] fc1_nose -> fc1_nose
I1025 11:36:50.625280 23388 net.cpp:150] Setting up fc1_nose
I1025 11:36:50.625326 23388 net.cpp:157] Top shape: 70 1024 (71680)
I1025 11:36:50.625331 23388 net.cpp:165] Memory required for data: 2633067360
I1025 11:36:50.625344 23388 layer_factory.hpp:77] Creating layer relu1_nose
I1025 11:36:50.625357 23388 net.cpp:106] Creating Layer relu1_nose
I1025 11:36:50.625365 23388 net.cpp:454] relu1_nose <- fc1_nose
I1025 11:36:50.625375 23388 net.cpp:397] relu1_nose -> fc1_nose (in-place)
I1025 11:36:50.625661 23388 net.cpp:150] Setting up relu1_nose
I1025 11:36:50.625675 23388 net.cpp:157] Top shape: 70 1024 (71680)
I1025 11:36:50.625679 23388 net.cpp:165] Memory required for data: 2633354080
I1025 11:36:50.625684 23388 layer_factory.hpp:77] Creating layer drop1_nose
I1025 11:36:50.625695 23388 net.cpp:106] Creating Layer drop1_nose
I1025 11:36:50.625699 23388 net.cpp:454] drop1_nose <- fc1_nose
I1025 11:36:50.625705 23388 net.cpp:397] drop1_nose -> fc1_nose (in-place)
I1025 11:36:50.625747 23388 net.cpp:150] Setting up drop1_nose
I1025 11:36:50.625757 23388 net.cpp:157] Top shape: 70 1024 (71680)
I1025 11:36:50.625761 23388 net.cpp:165] Memory required for data: 2633640800
I1025 11:36:50.625766 23388 layer_factory.hpp:77] Creating layer fc2_nose
I1025 11:36:50.625777 23388 net.cpp:106] Creating Layer fc2_nose
I1025 11:36:50.625782 23388 net.cpp:454] fc2_nose <- fc1_nose
I1025 11:36:50.625788 23388 net.cpp:411] fc2_nose -> fc2_nose
I1025 11:36:50.636723 23388 net.cpp:150] Setting up fc2_nose
I1025 11:36:50.636741 23388 net.cpp:157] Top shape: 70 1024 (71680)
I1025 11:36:50.636745 23388 net.cpp:165] Memory required for data: 2633927520
I1025 11:36:50.636754 23388 layer_factory.hpp:77] Creating layer relu2_nose
I1025 11:36:50.636764 23388 net.cpp:106] Creating Layer relu2_nose
I1025 11:36:50.636770 23388 net.cpp:454] relu2_nose <- fc2_nose
I1025 11:36:50.636775 23388 net.cpp:397] relu2_nose -> fc2_nose (in-place)
I1025 11:36:50.637151 23388 net.cpp:150] Setting up relu2_nose
I1025 11:36:50.637167 23388 net.cpp:157] Top shape: 70 1024 (71680)
I1025 11:36:50.637172 23388 net.cpp:165] Memory required for data: 2634214240
I1025 11:36:50.637176 23388 layer_factory.hpp:77] Creating layer drop2_nose
I1025 11:36:50.637187 23388 net.cpp:106] Creating Layer drop2_nose
I1025 11:36:50.637208 23388 net.cpp:454] drop2_nose <- fc2_nose
I1025 11:36:50.637219 23388 net.cpp:397] drop2_nose -> fc2_nose (in-place)
I1025 11:36:50.637255 23388 net.cpp:150] Setting up drop2_nose
I1025 11:36:50.637262 23388 net.cpp:157] Top shape: 70 1024 (71680)
I1025 11:36:50.637266 23388 net.cpp:165] Memory required for data: 2634500960
I1025 11:36:50.637269 23388 layer_factory.hpp:77] Creating layer fc2_nose_drop2_nose_0_split
I1025 11:36:50.637276 23388 net.cpp:106] Creating Layer fc2_nose_drop2_nose_0_split
I1025 11:36:50.637280 23388 net.cpp:454] fc2_nose_drop2_nose_0_split <- fc2_nose
I1025 11:36:50.637289 23388 net.cpp:411] fc2_nose_drop2_nose_0_split -> fc2_nose_drop2_nose_0_split_0
I1025 11:36:50.637297 23388 net.cpp:411] fc2_nose_drop2_nose_0_split -> fc2_nose_drop2_nose_0_split_1
I1025 11:36:50.637305 23388 net.cpp:411] fc2_nose_drop2_nose_0_split -> fc2_nose_drop2_nose_0_split_2
I1025 11:36:50.637367 23388 net.cpp:150] Setting up fc2_nose_drop2_nose_0_split
I1025 11:36:50.637379 23388 net.cpp:157] Top shape: 70 1024 (71680)
I1025 11:36:50.637384 23388 net.cpp:157] Top shape: 70 1024 (71680)
I1025 11:36:50.637388 23388 net.cpp:157] Top shape: 70 1024 (71680)
I1025 11:36:50.637392 23388 net.cpp:165] Memory required for data: 2635361120
I1025 11:36:50.637397 23388 layer_factory.hpp:77] Creating layer conv3_mouth
I1025 11:36:50.637411 23388 net.cpp:106] Creating Layer conv3_mouth
I1025 11:36:50.637418 23388 net.cpp:454] conv3_mouth <- pool3_pool3_0_split_2
I1025 11:36:50.637428 23388 net.cpp:411] conv3_mouth -> conv3_mouth
I1025 11:36:50.656020 23388 net.cpp:150] Setting up conv3_mouth
I1025 11:36:50.656040 23388 net.cpp:157] Top shape: 70 512 7 7 (1756160)
I1025 11:36:50.656045 23388 net.cpp:165] Memory required for data: 2642385760
I1025 11:36:50.656075 23388 layer_factory.hpp:77] Creating layer conv3_mouth_bn
I1025 11:36:50.656085 23388 net.cpp:106] Creating Layer conv3_mouth_bn
I1025 11:36:50.656090 23388 net.cpp:454] conv3_mouth_bn <- conv3_mouth
I1025 11:36:50.656096 23388 net.cpp:397] conv3_mouth_bn -> conv3_mouth (in-place)
I1025 11:36:50.656325 23388 net.cpp:150] Setting up conv3_mouth_bn
I1025 11:36:50.656337 23388 net.cpp:157] Top shape: 70 512 7 7 (1756160)
I1025 11:36:50.656342 23388 net.cpp:165] Memory required for data: 2649410400
I1025 11:36:50.656350 23388 layer_factory.hpp:77] Creating layer conv3_mouth_scale
I1025 11:36:50.656363 23388 net.cpp:106] Creating Layer conv3_mouth_scale
I1025 11:36:50.656366 23388 net.cpp:454] conv3_mouth_scale <- conv3_mouth
I1025 11:36:50.656373 23388 net.cpp:397] conv3_mouth_scale -> conv3_mouth (in-place)
I1025 11:36:50.656420 23388 layer_factory.hpp:77] Creating layer conv3_mouth_scale
I1025 11:36:50.656560 23388 net.cpp:150] Setting up conv3_mouth_scale
I1025 11:36:50.656570 23388 net.cpp:157] Top shape: 70 512 7 7 (1756160)
I1025 11:36:50.656574 23388 net.cpp:165] Memory required for data: 2656435040
I1025 11:36:50.656581 23388 layer_factory.hpp:77] Creating layer prelu3_mouth
I1025 11:36:50.656590 23388 net.cpp:106] Creating Layer prelu3_mouth
I1025 11:36:50.656594 23388 net.cpp:454] prelu3_mouth <- conv3_mouth
I1025 11:36:50.656600 23388 net.cpp:397] prelu3_mouth -> conv3_mouth (in-place)
I1025 11:36:50.656736 23388 net.cpp:150] Setting up prelu3_mouth
I1025 11:36:50.656747 23388 net.cpp:157] Top shape: 70 512 7 7 (1756160)
I1025 11:36:50.656751 23388 net.cpp:165] Memory required for data: 2663459680
I1025 11:36:50.656756 23388 layer_factory.hpp:77] Creating layer pool3_mouth
I1025 11:36:50.656764 23388 net.cpp:106] Creating Layer pool3_mouth
I1025 11:36:50.656769 23388 net.cpp:454] pool3_mouth <- conv3_mouth
I1025 11:36:50.656779 23388 net.cpp:411] pool3_mouth -> pool3_mouth
I1025 11:36:50.657023 23388 net.cpp:150] Setting up pool3_mouth
I1025 11:36:50.657037 23388 net.cpp:157] Top shape: 70 512 4 4 (573440)
I1025 11:36:50.657043 23388 net.cpp:165] Memory required for data: 2665753440
I1025 11:36:50.657049 23388 layer_factory.hpp:77] Creating layer pool3_mouth_pool3_mouth_0_split
I1025 11:36:50.657057 23388 net.cpp:106] Creating Layer pool3_mouth_pool3_mouth_0_split
I1025 11:36:50.657073 23388 net.cpp:454] pool3_mouth_pool3_mouth_0_split <- pool3_mouth
I1025 11:36:50.657080 23388 net.cpp:411] pool3_mouth_pool3_mouth_0_split -> pool3_mouth_pool3_mouth_0_split_0
I1025 11:36:50.657088 23388 net.cpp:411] pool3_mouth_pool3_mouth_0_split -> pool3_mouth_pool3_mouth_0_split_1
I1025 11:36:50.657136 23388 net.cpp:150] Setting up pool3_mouth_pool3_mouth_0_split
I1025 11:36:50.657145 23388 net.cpp:157] Top shape: 70 512 4 4 (573440)
I1025 11:36:50.657150 23388 net.cpp:157] Top shape: 70 512 4 4 (573440)
I1025 11:36:50.657152 23388 net.cpp:165] Memory required for data: 2670340960
I1025 11:36:50.657156 23388 layer_factory.hpp:77] Creating layer fc1_mouth
I1025 11:36:50.657167 23388 net.cpp:106] Creating Layer fc1_mouth
I1025 11:36:50.657173 23388 net.cpp:454] fc1_mouth <- pool3_mouth_pool3_mouth_0_split_0
I1025 11:36:50.657179 23388 net.cpp:411] fc1_mouth -> fc1_mouth
I1025 11:36:50.739317 23388 net.cpp:150] Setting up fc1_mouth
I1025 11:36:50.739368 23388 net.cpp:157] Top shape: 70 1024 (71680)
I1025 11:36:50.739373 23388 net.cpp:165] Memory required for data: 2670627680
I1025 11:36:50.739384 23388 layer_factory.hpp:77] Creating layer relu1_mouth
I1025 11:36:50.739398 23388 net.cpp:106] Creating Layer relu1_mouth
I1025 11:36:50.739404 23388 net.cpp:454] relu1_mouth <- fc1_mouth
I1025 11:36:50.739411 23388 net.cpp:397] relu1_mouth -> fc1_mouth (in-place)
I1025 11:36:50.739971 23388 net.cpp:150] Setting up relu1_mouth
I1025 11:36:50.739986 23388 net.cpp:157] Top shape: 70 1024 (71680)
I1025 11:36:50.740001 23388 net.cpp:165] Memory required for data: 2670914400
I1025 11:36:50.740005 23388 layer_factory.hpp:77] Creating layer drop1_mouth
I1025 11:36:50.740016 23388 net.cpp:106] Creating Layer drop1_mouth
I1025 11:36:50.740021 23388 net.cpp:454] drop1_mouth <- fc1_mouth
I1025 11:36:50.740026 23388 net.cpp:397] drop1_mouth -> fc1_mouth (in-place)
I1025 11:36:50.740070 23388 net.cpp:150] Setting up drop1_mouth
I1025 11:36:50.740079 23388 net.cpp:157] Top shape: 70 1024 (71680)
I1025 11:36:50.740083 23388 net.cpp:165] Memory required for data: 2671201120
I1025 11:36:50.740087 23388 layer_factory.hpp:77] Creating layer fc2_mouth
I1025 11:36:50.740101 23388 net.cpp:106] Creating Layer fc2_mouth
I1025 11:36:50.740108 23388 net.cpp:454] fc2_mouth <- fc1_mouth
I1025 11:36:50.740114 23388 net.cpp:411] fc2_mouth -> fc2_mouth
I1025 11:36:50.748625 23388 net.cpp:150] Setting up fc2_mouth
I1025 11:36:50.748651 23388 net.cpp:157] Top shape: 70 1024 (71680)
I1025 11:36:50.748654 23388 net.cpp:165] Memory required for data: 2671487840
I1025 11:36:50.748661 23388 layer_factory.hpp:77] Creating layer relu2_mouth
I1025 11:36:50.748677 23388 net.cpp:106] Creating Layer relu2_mouth
I1025 11:36:50.748684 23388 net.cpp:454] relu2_mouth <- fc2_mouth
I1025 11:36:50.748689 23388 net.cpp:397] relu2_mouth -> fc2_mouth (in-place)
I1025 11:36:50.748893 23388 net.cpp:150] Setting up relu2_mouth
I1025 11:36:50.748905 23388 net.cpp:157] Top shape: 70 1024 (71680)
I1025 11:36:50.748909 23388 net.cpp:165] Memory required for data: 2671774560
I1025 11:36:50.748914 23388 layer_factory.hpp:77] Creating layer drop2_mouth
I1025 11:36:50.748921 23388 net.cpp:106] Creating Layer drop2_mouth
I1025 11:36:50.748925 23388 net.cpp:454] drop2_mouth <- fc2_mouth
I1025 11:36:50.748930 23388 net.cpp:397] drop2_mouth -> fc2_mouth (in-place)
I1025 11:36:50.748963 23388 net.cpp:150] Setting up drop2_mouth
I1025 11:36:50.748970 23388 net.cpp:157] Top shape: 70 1024 (71680)
I1025 11:36:50.748975 23388 net.cpp:165] Memory required for data: 2672061280
I1025 11:36:50.748977 23388 layer_factory.hpp:77] Creating layer fc2_mouth_drop2_mouth_0_split
I1025 11:36:50.748986 23388 net.cpp:106] Creating Layer fc2_mouth_drop2_mouth_0_split
I1025 11:36:50.748989 23388 net.cpp:454] fc2_mouth_drop2_mouth_0_split <- fc2_mouth
I1025 11:36:50.748998 23388 net.cpp:411] fc2_mouth_drop2_mouth_0_split -> fc2_mouth_drop2_mouth_0_split_0
I1025 11:36:50.749006 23388 net.cpp:411] fc2_mouth_drop2_mouth_0_split -> fc2_mouth_drop2_mouth_0_split_1
I1025 11:36:50.749012 23388 net.cpp:411] fc2_mouth_drop2_mouth_0_split -> fc2_mouth_drop2_mouth_0_split_2
I1025 11:36:50.749035 23388 net.cpp:411] fc2_mouth_drop2_mouth_0_split -> fc2_mouth_drop2_mouth_0_split_3
I1025 11:36:50.749042 23388 net.cpp:411] fc2_mouth_drop2_mouth_0_split -> fc2_mouth_drop2_mouth_0_split_4
I1025 11:36:50.749126 23388 net.cpp:150] Setting up fc2_mouth_drop2_mouth_0_split
I1025 11:36:50.749135 23388 net.cpp:157] Top shape: 70 1024 (71680)
I1025 11:36:50.749140 23388 net.cpp:157] Top shape: 70 1024 (71680)
I1025 11:36:50.749145 23388 net.cpp:157] Top shape: 70 1024 (71680)
I1025 11:36:50.749148 23388 net.cpp:157] Top shape: 70 1024 (71680)
I1025 11:36:50.749151 23388 net.cpp:157] Top shape: 70 1024 (71680)
I1025 11:36:50.749155 23388 net.cpp:165] Memory required for data: 2673494880
I1025 11:36:50.749158 23388 layer_factory.hpp:77] Creating layer conv3_eyes
I1025 11:36:50.749172 23388 net.cpp:106] Creating Layer conv3_eyes
I1025 11:36:50.749177 23388 net.cpp:454] conv3_eyes <- pool3_pool3_0_split_3
I1025 11:36:50.749186 23388 net.cpp:411] conv3_eyes -> conv3_eyes
I1025 11:36:50.764966 23388 net.cpp:150] Setting up conv3_eyes
I1025 11:36:50.764993 23388 net.cpp:157] Top shape: 70 512 7 7 (1756160)
I1025 11:36:50.764997 23388 net.cpp:165] Memory required for data: 2680519520
I1025 11:36:50.765004 23388 layer_factory.hpp:77] Creating layer conv3_eyes_bn
I1025 11:36:50.765014 23388 net.cpp:106] Creating Layer conv3_eyes_bn
I1025 11:36:50.765019 23388 net.cpp:454] conv3_eyes_bn <- conv3_eyes
I1025 11:36:50.765027 23388 net.cpp:397] conv3_eyes_bn -> conv3_eyes (in-place)
I1025 11:36:50.765242 23388 net.cpp:150] Setting up conv3_eyes_bn
I1025 11:36:50.765252 23388 net.cpp:157] Top shape: 70 512 7 7 (1756160)
I1025 11:36:50.765255 23388 net.cpp:165] Memory required for data: 2687544160
I1025 11:36:50.765264 23388 layer_factory.hpp:77] Creating layer conv3_eyes_scale
I1025 11:36:50.765272 23388 net.cpp:106] Creating Layer conv3_eyes_scale
I1025 11:36:50.765277 23388 net.cpp:454] conv3_eyes_scale <- conv3_eyes
I1025 11:36:50.765282 23388 net.cpp:397] conv3_eyes_scale -> conv3_eyes (in-place)
I1025 11:36:50.765323 23388 layer_factory.hpp:77] Creating layer conv3_eyes_scale
I1025 11:36:50.765451 23388 net.cpp:150] Setting up conv3_eyes_scale
I1025 11:36:50.765461 23388 net.cpp:157] Top shape: 70 512 7 7 (1756160)
I1025 11:36:50.765465 23388 net.cpp:165] Memory required for data: 2694568800
I1025 11:36:50.765470 23388 layer_factory.hpp:77] Creating layer prelu3_eyes
I1025 11:36:50.765478 23388 net.cpp:106] Creating Layer prelu3_eyes
I1025 11:36:50.765482 23388 net.cpp:454] prelu3_eyes <- conv3_eyes
I1025 11:36:50.765492 23388 net.cpp:397] prelu3_eyes -> conv3_eyes (in-place)
I1025 11:36:50.765620 23388 net.cpp:150] Setting up prelu3_eyes
I1025 11:36:50.765631 23388 net.cpp:157] Top shape: 70 512 7 7 (1756160)
I1025 11:36:50.765635 23388 net.cpp:165] Memory required for data: 2701593440
I1025 11:36:50.765640 23388 layer_factory.hpp:77] Creating layer pool3_eyes
I1025 11:36:50.765646 23388 net.cpp:106] Creating Layer pool3_eyes
I1025 11:36:50.765650 23388 net.cpp:454] pool3_eyes <- conv3_eyes
I1025 11:36:50.765655 23388 net.cpp:411] pool3_eyes -> pool3_eyes
I1025 11:36:50.766041 23388 net.cpp:150] Setting up pool3_eyes
I1025 11:36:50.766067 23388 net.cpp:157] Top shape: 70 512 4 4 (573440)
I1025 11:36:50.766070 23388 net.cpp:165] Memory required for data: 2703887200
I1025 11:36:50.766074 23388 layer_factory.hpp:77] Creating layer pool3_eyes_pool3_eyes_0_split
I1025 11:36:50.766080 23388 net.cpp:106] Creating Layer pool3_eyes_pool3_eyes_0_split
I1025 11:36:50.766084 23388 net.cpp:454] pool3_eyes_pool3_eyes_0_split <- pool3_eyes
I1025 11:36:50.766091 23388 net.cpp:411] pool3_eyes_pool3_eyes_0_split -> pool3_eyes_pool3_eyes_0_split_0
I1025 11:36:50.766100 23388 net.cpp:411] pool3_eyes_pool3_eyes_0_split -> pool3_eyes_pool3_eyes_0_split_1
I1025 11:36:50.766144 23388 net.cpp:150] Setting up pool3_eyes_pool3_eyes_0_split
I1025 11:36:50.766151 23388 net.cpp:157] Top shape: 70 512 4 4 (573440)
I1025 11:36:50.766155 23388 net.cpp:157] Top shape: 70 512 4 4 (573440)
I1025 11:36:50.766170 23388 net.cpp:165] Memory required for data: 2708474720
I1025 11:36:50.766175 23388 layer_factory.hpp:77] Creating layer fc1_eyes
I1025 11:36:50.766185 23388 net.cpp:106] Creating Layer fc1_eyes
I1025 11:36:50.766191 23388 net.cpp:454] fc1_eyes <- pool3_eyes_pool3_eyes_0_split_0
I1025 11:36:50.766198 23388 net.cpp:411] fc1_eyes -> fc1_eyes
I1025 11:36:50.838551 23388 net.cpp:150] Setting up fc1_eyes
I1025 11:36:50.838598 23388 net.cpp:157] Top shape: 70 1024 (71680)
I1025 11:36:50.838603 23388 net.cpp:165] Memory required for data: 2708761440
I1025 11:36:50.838616 23388 layer_factory.hpp:77] Creating layer relu1_eyes
I1025 11:36:50.838629 23388 net.cpp:106] Creating Layer relu1_eyes
I1025 11:36:50.838635 23388 net.cpp:454] relu1_eyes <- fc1_eyes
I1025 11:36:50.838654 23388 net.cpp:397] relu1_eyes -> fc1_eyes (in-place)
I1025 11:36:50.838903 23388 net.cpp:150] Setting up relu1_eyes
I1025 11:36:50.838915 23388 net.cpp:157] Top shape: 70 1024 (71680)
I1025 11:36:50.838919 23388 net.cpp:165] Memory required for data: 2709048160
I1025 11:36:50.838923 23388 layer_factory.hpp:77] Creating layer drop1_eyes
I1025 11:36:50.838934 23388 net.cpp:106] Creating Layer drop1_eyes
I1025 11:36:50.838938 23388 net.cpp:454] drop1_eyes <- fc1_eyes
I1025 11:36:50.838943 23388 net.cpp:397] drop1_eyes -> fc1_eyes (in-place)
I1025 11:36:50.838979 23388 net.cpp:150] Setting up drop1_eyes
I1025 11:36:50.838992 23388 net.cpp:157] Top shape: 70 1024 (71680)
I1025 11:36:50.838995 23388 net.cpp:165] Memory required for data: 2709334880
I1025 11:36:50.838999 23388 layer_factory.hpp:77] Creating layer fc2_eyes
I1025 11:36:50.839011 23388 net.cpp:106] Creating Layer fc2_eyes
I1025 11:36:50.839015 23388 net.cpp:454] fc2_eyes <- fc1_eyes
I1025 11:36:50.839023 23388 net.cpp:411] fc2_eyes -> fc2_eyes
I1025 11:36:50.848151 23388 net.cpp:150] Setting up fc2_eyes
I1025 11:36:50.848178 23388 net.cpp:157] Top shape: 70 1024 (71680)
I1025 11:36:50.848182 23388 net.cpp:165] Memory required for data: 2709621600
I1025 11:36:50.848189 23388 layer_factory.hpp:77] Creating layer relu2_eyes
I1025 11:36:50.848196 23388 net.cpp:106] Creating Layer relu2_eyes
I1025 11:36:50.848199 23388 net.cpp:454] relu2_eyes <- fc2_eyes
I1025 11:36:50.848206 23388 net.cpp:397] relu2_eyes -> fc2_eyes (in-place)
I1025 11:36:50.848594 23388 net.cpp:150] Setting up relu2_eyes
I1025 11:36:50.848608 23388 net.cpp:157] Top shape: 70 1024 (71680)
I1025 11:36:50.848624 23388 net.cpp:165] Memory required for data: 2709908320
I1025 11:36:50.848640 23388 layer_factory.hpp:77] Creating layer drop2_eyes
I1025 11:36:50.848649 23388 net.cpp:106] Creating Layer drop2_eyes
I1025 11:36:50.848652 23388 net.cpp:454] drop2_eyes <- fc2_eyes
I1025 11:36:50.848659 23388 net.cpp:397] drop2_eyes -> fc2_eyes (in-place)
I1025 11:36:50.848693 23388 net.cpp:150] Setting up drop2_eyes
I1025 11:36:50.848703 23388 net.cpp:157] Top shape: 70 1024 (71680)
I1025 11:36:50.848707 23388 net.cpp:165] Memory required for data: 2710195040
I1025 11:36:50.848711 23388 layer_factory.hpp:77] Creating layer fc2_eyes_drop2_eyes_0_split
I1025 11:36:50.848717 23388 net.cpp:106] Creating Layer fc2_eyes_drop2_eyes_0_split
I1025 11:36:50.848721 23388 net.cpp:454] fc2_eyes_drop2_eyes_0_split <- fc2_eyes
I1025 11:36:50.848726 23388 net.cpp:411] fc2_eyes_drop2_eyes_0_split -> fc2_eyes_drop2_eyes_0_split_0
I1025 11:36:50.848736 23388 net.cpp:411] fc2_eyes_drop2_eyes_0_split -> fc2_eyes_drop2_eyes_0_split_1
I1025 11:36:50.848742 23388 net.cpp:411] fc2_eyes_drop2_eyes_0_split -> fc2_eyes_drop2_eyes_0_split_2
I1025 11:36:50.848748 23388 net.cpp:411] fc2_eyes_drop2_eyes_0_split -> fc2_eyes_drop2_eyes_0_split_3
I1025 11:36:50.848753 23388 net.cpp:411] fc2_eyes_drop2_eyes_0_split -> fc2_eyes_drop2_eyes_0_split_4
I1025 11:36:50.848759 23388 net.cpp:411] fc2_eyes_drop2_eyes_0_split -> fc2_eyes_drop2_eyes_0_split_5
I1025 11:36:50.848860 23388 net.cpp:150] Setting up fc2_eyes_drop2_eyes_0_split
I1025 11:36:50.848868 23388 net.cpp:157] Top shape: 70 1024 (71680)
I1025 11:36:50.848872 23388 net.cpp:157] Top shape: 70 1024 (71680)
I1025 11:36:50.848894 23388 net.cpp:157] Top shape: 70 1024 (71680)
I1025 11:36:50.848898 23388 net.cpp:157] Top shape: 70 1024 (71680)
I1025 11:36:50.848902 23388 net.cpp:157] Top shape: 70 1024 (71680)
I1025 11:36:50.848906 23388 net.cpp:157] Top shape: 70 1024 (71680)
I1025 11:36:50.848909 23388 net.cpp:165] Memory required for data: 2711915360
I1025 11:36:50.848912 23388 layer_factory.hpp:77] Creating layer conv3_face
I1025 11:36:50.848927 23388 net.cpp:106] Creating Layer conv3_face
I1025 11:36:50.848933 23388 net.cpp:454] conv3_face <- pool3_pool3_0_split_4
I1025 11:36:50.848942 23388 net.cpp:411] conv3_face -> conv3_face
I1025 11:36:50.866392 23388 net.cpp:150] Setting up conv3_face
I1025 11:36:50.866467 23388 net.cpp:157] Top shape: 70 512 7 7 (1756160)
I1025 11:36:50.866478 23388 net.cpp:165] Memory required for data: 2718940000
I1025 11:36:50.866504 23388 layer_factory.hpp:77] Creating layer conv3_face_bn
I1025 11:36:50.866526 23388 net.cpp:106] Creating Layer conv3_face_bn
I1025 11:36:50.866544 23388 net.cpp:454] conv3_face_bn <- conv3_face
I1025 11:36:50.866557 23388 net.cpp:397] conv3_face_bn -> conv3_face (in-place)
I1025 11:36:50.867017 23388 net.cpp:150] Setting up conv3_face_bn
I1025 11:36:50.867036 23388 net.cpp:157] Top shape: 70 512 7 7 (1756160)
I1025 11:36:50.867044 23388 net.cpp:165] Memory required for data: 2725964640
I1025 11:36:50.867074 23388 layer_factory.hpp:77] Creating layer conv3_face_scale
I1025 11:36:50.867096 23388 net.cpp:106] Creating Layer conv3_face_scale
I1025 11:36:50.867110 23388 net.cpp:454] conv3_face_scale <- conv3_face
I1025 11:36:50.867122 23388 net.cpp:397] conv3_face_scale -> conv3_face (in-place)
I1025 11:36:50.867216 23388 layer_factory.hpp:77] Creating layer conv3_face_scale
I1025 11:36:50.867486 23388 net.cpp:150] Setting up conv3_face_scale
I1025 11:36:50.867507 23388 net.cpp:157] Top shape: 70 512 7 7 (1756160)
I1025 11:36:50.867514 23388 net.cpp:165] Memory required for data: 2732989280
I1025 11:36:50.867527 23388 layer_factory.hpp:77] Creating layer prelu3_face
I1025 11:36:50.867547 23388 net.cpp:106] Creating Layer prelu3_face
I1025 11:36:50.867555 23388 net.cpp:454] prelu3_face <- conv3_face
I1025 11:36:50.867566 23388 net.cpp:397] prelu3_face -> conv3_face (in-place)
I1025 11:36:50.867833 23388 net.cpp:150] Setting up prelu3_face
I1025 11:36:50.867856 23388 net.cpp:157] Top shape: 70 512 7 7 (1756160)
I1025 11:36:50.867862 23388 net.cpp:165] Memory required for data: 2740013920
I1025 11:36:50.867873 23388 layer_factory.hpp:77] Creating layer pool3_face
I1025 11:36:50.867898 23388 net.cpp:106] Creating Layer pool3_face
I1025 11:36:50.867910 23388 net.cpp:454] pool3_face <- conv3_face
I1025 11:36:50.867934 23388 net.cpp:411] pool3_face -> pool3_face
I1025 11:36:50.868635 23388 net.cpp:150] Setting up pool3_face
I1025 11:36:50.868666 23388 net.cpp:157] Top shape: 70 512 4 4 (573440)
I1025 11:36:50.868675 23388 net.cpp:165] Memory required for data: 2742307680
I1025 11:36:50.868683 23388 layer_factory.hpp:77] Creating layer pool3_face_pool3_face_0_split
I1025 11:36:50.868697 23388 net.cpp:106] Creating Layer pool3_face_pool3_face_0_split
I1025 11:36:50.868706 23388 net.cpp:454] pool3_face_pool3_face_0_split <- pool3_face
I1025 11:36:50.868727 23388 net.cpp:411] pool3_face_pool3_face_0_split -> pool3_face_pool3_face_0_split_0
I1025 11:36:50.868751 23388 net.cpp:411] pool3_face_pool3_face_0_split -> pool3_face_pool3_face_0_split_1
I1025 11:36:50.868844 23388 net.cpp:150] Setting up pool3_face_pool3_face_0_split
I1025 11:36:50.868862 23388 net.cpp:157] Top shape: 70 512 4 4 (573440)
I1025 11:36:50.868872 23388 net.cpp:157] Top shape: 70 512 4 4 (573440)
I1025 11:36:50.868882 23388 net.cpp:165] Memory required for data: 2746895200
I1025 11:36:50.868901 23388 layer_factory.hpp:77] Creating layer fc1_face
I1025 11:36:50.868927 23388 net.cpp:106] Creating Layer fc1_face
I1025 11:36:50.868940 23388 net.cpp:454] fc1_face <- pool3_face_pool3_face_0_split_0
I1025 11:36:50.868955 23388 net.cpp:411] fc1_face -> fc1_face
I1025 11:36:50.987893 23388 net.cpp:150] Setting up fc1_face
I1025 11:36:50.987973 23388 net.cpp:157] Top shape: 70 1024 (71680)
I1025 11:36:50.987980 23388 net.cpp:165] Memory required for data: 2747181920
I1025 11:36:50.987993 23388 layer_factory.hpp:77] Creating layer relu1_face
I1025 11:36:50.988015 23388 net.cpp:106] Creating Layer relu1_face
I1025 11:36:50.988030 23388 net.cpp:454] relu1_face <- fc1_face
I1025 11:36:50.988041 23388 net.cpp:397] relu1_face -> fc1_face (in-place)
I1025 11:36:50.988351 23388 net.cpp:150] Setting up relu1_face
I1025 11:36:50.988369 23388 net.cpp:157] Top shape: 70 1024 (71680)
I1025 11:36:50.988374 23388 net.cpp:165] Memory required for data: 2747468640
I1025 11:36:50.988380 23388 layer_factory.hpp:77] Creating layer drop1_face
I1025 11:36:50.988389 23388 net.cpp:106] Creating Layer drop1_face
I1025 11:36:50.988394 23388 net.cpp:454] drop1_face <- fc1_face
I1025 11:36:50.988402 23388 net.cpp:397] drop1_face -> fc1_face (in-place)
I1025 11:36:50.988459 23388 net.cpp:150] Setting up drop1_face
I1025 11:36:50.988469 23388 net.cpp:157] Top shape: 70 1024 (71680)
I1025 11:36:50.988473 23388 net.cpp:165] Memory required for data: 2747755360
I1025 11:36:50.988478 23388 layer_factory.hpp:77] Creating layer fc2_face
I1025 11:36:50.988493 23388 net.cpp:106] Creating Layer fc2_face
I1025 11:36:50.988502 23388 net.cpp:454] fc2_face <- fc1_face
I1025 11:36:50.988512 23388 net.cpp:411] fc2_face -> fc2_face
I1025 11:36:51.000201 23388 net.cpp:150] Setting up fc2_face
I1025 11:36:51.000238 23388 net.cpp:157] Top shape: 70 1024 (71680)
I1025 11:36:51.000250 23388 net.cpp:165] Memory required for data: 2748042080
I1025 11:36:51.000259 23388 layer_factory.hpp:77] Creating layer relu2_face
I1025 11:36:51.000272 23388 net.cpp:106] Creating Layer relu2_face
I1025 11:36:51.000278 23388 net.cpp:454] relu2_face <- fc2_face
I1025 11:36:51.000285 23388 net.cpp:397] relu2_face -> fc2_face (in-place)
I1025 11:36:51.000699 23388 net.cpp:150] Setting up relu2_face
I1025 11:36:51.000718 23388 net.cpp:157] Top shape: 70 1024 (71680)
I1025 11:36:51.000728 23388 net.cpp:165] Memory required for data: 2748328800
I1025 11:36:51.000733 23388 layer_factory.hpp:77] Creating layer drop2_face
I1025 11:36:51.000743 23388 net.cpp:106] Creating Layer drop2_face
I1025 11:36:51.000749 23388 net.cpp:454] drop2_face <- fc2_face
I1025 11:36:51.000756 23388 net.cpp:397] drop2_face -> fc2_face (in-place)
I1025 11:36:51.000804 23388 net.cpp:150] Setting up drop2_face
I1025 11:36:51.000816 23388 net.cpp:157] Top shape: 70 1024 (71680)
I1025 11:36:51.000821 23388 net.cpp:165] Memory required for data: 2748615520
I1025 11:36:51.000825 23388 layer_factory.hpp:77] Creating layer fc2_face_drop2_face_0_split
I1025 11:36:51.000836 23388 net.cpp:106] Creating Layer fc2_face_drop2_face_0_split
I1025 11:36:51.000844 23388 net.cpp:454] fc2_face_drop2_face_0_split <- fc2_face
I1025 11:36:51.000854 23388 net.cpp:411] fc2_face_drop2_face_0_split -> fc2_face_drop2_face_0_split_0
I1025 11:36:51.000864 23388 net.cpp:411] fc2_face_drop2_face_0_split -> fc2_face_drop2_face_0_split_1
I1025 11:36:51.000874 23388 net.cpp:411] fc2_face_drop2_face_0_split -> fc2_face_drop2_face_0_split_2
I1025 11:36:51.000881 23388 net.cpp:411] fc2_face_drop2_face_0_split -> fc2_face_drop2_face_0_split_3
I1025 11:36:51.000891 23388 net.cpp:411] fc2_face_drop2_face_0_split -> fc2_face_drop2_face_0_split_4
I1025 11:36:51.000900 23388 net.cpp:411] fc2_face_drop2_face_0_split -> fc2_face_drop2_face_0_split_5
I1025 11:36:51.000906 23388 net.cpp:411] fc2_face_drop2_face_0_split -> fc2_face_drop2_face_0_split_6
I1025 11:36:51.001044 23388 net.cpp:150] Setting up fc2_face_drop2_face_0_split
I1025 11:36:51.001055 23388 net.cpp:157] Top shape: 70 1024 (71680)
I1025 11:36:51.001060 23388 net.cpp:157] Top shape: 70 1024 (71680)
I1025 11:36:51.001065 23388 net.cpp:157] Top shape: 70 1024 (71680)
I1025 11:36:51.001070 23388 net.cpp:157] Top shape: 70 1024 (71680)
I1025 11:36:51.001075 23388 net.cpp:157] Top shape: 70 1024 (71680)
I1025 11:36:51.001080 23388 net.cpp:157] Top shape: 70 1024 (71680)
I1025 11:36:51.001085 23388 net.cpp:157] Top shape: 70 1024 (71680)
I1025 11:36:51.001102 23388 net.cpp:165] Memory required for data: 2750622560
I1025 11:36:51.001108 23388 layer_factory.hpp:77] Creating layer conv3_rest
I1025 11:36:51.001126 23388 net.cpp:106] Creating Layer conv3_rest
I1025 11:36:51.001137 23388 net.cpp:454] conv3_rest <- pool3_pool3_0_split_5
I1025 11:36:51.001149 23388 net.cpp:411] conv3_rest -> conv3_rest
I1025 11:36:51.024425 23388 net.cpp:150] Setting up conv3_rest
I1025 11:36:51.024456 23388 net.cpp:157] Top shape: 70 512 7 7 (1756160)
I1025 11:36:51.024466 23388 net.cpp:165] Memory required for data: 2757647200
I1025 11:36:51.024482 23388 layer_factory.hpp:77] Creating layer conv3_rest_bn
I1025 11:36:51.024502 23388 net.cpp:106] Creating Layer conv3_rest_bn
I1025 11:36:51.024523 23388 net.cpp:454] conv3_rest_bn <- conv3_rest
I1025 11:36:51.024535 23388 net.cpp:397] conv3_rest_bn -> conv3_rest (in-place)
I1025 11:36:51.024912 23388 net.cpp:150] Setting up conv3_rest_bn
I1025 11:36:51.024931 23388 net.cpp:157] Top shape: 70 512 7 7 (1756160)
I1025 11:36:51.024940 23388 net.cpp:165] Memory required for data: 2764671840
I1025 11:36:51.024957 23388 layer_factory.hpp:77] Creating layer conv3_rest_scale
I1025 11:36:51.024974 23388 net.cpp:106] Creating Layer conv3_rest_scale
I1025 11:36:51.024983 23388 net.cpp:454] conv3_rest_scale <- conv3_rest
I1025 11:36:51.025001 23388 net.cpp:397] conv3_rest_scale -> conv3_rest (in-place)
I1025 11:36:51.025074 23388 layer_factory.hpp:77] Creating layer conv3_rest_scale
I1025 11:36:51.025297 23388 net.cpp:150] Setting up conv3_rest_scale
I1025 11:36:51.025316 23388 net.cpp:157] Top shape: 70 512 7 7 (1756160)
I1025 11:36:51.025326 23388 net.cpp:165] Memory required for data: 2771696480
I1025 11:36:51.025341 23388 layer_factory.hpp:77] Creating layer prelu3_rest
I1025 11:36:51.025357 23388 net.cpp:106] Creating Layer prelu3_rest
I1025 11:36:51.025367 23388 net.cpp:454] prelu3_rest <- conv3_rest
I1025 11:36:51.025377 23388 net.cpp:397] prelu3_rest -> conv3_rest (in-place)
I1025 11:36:51.025594 23388 net.cpp:150] Setting up prelu3_rest
I1025 11:36:51.025615 23388 net.cpp:157] Top shape: 70 512 7 7 (1756160)
I1025 11:36:51.025626 23388 net.cpp:165] Memory required for data: 2778721120
I1025 11:36:51.025638 23388 layer_factory.hpp:77] Creating layer pool3_rest
I1025 11:36:51.025655 23388 net.cpp:106] Creating Layer pool3_rest
I1025 11:36:51.025663 23388 net.cpp:454] pool3_rest <- conv3_rest
I1025 11:36:51.025678 23388 net.cpp:411] pool3_rest -> pool3_rest
I1025 11:36:51.026034 23388 net.cpp:150] Setting up pool3_rest
I1025 11:36:51.026056 23388 net.cpp:157] Top shape: 70 512 4 4 (573440)
I1025 11:36:51.026064 23388 net.cpp:165] Memory required for data: 2781014880
I1025 11:36:51.026074 23388 layer_factory.hpp:77] Creating layer pool3_rest_pool3_rest_0_split
I1025 11:36:51.026087 23388 net.cpp:106] Creating Layer pool3_rest_pool3_rest_0_split
I1025 11:36:51.026095 23388 net.cpp:454] pool3_rest_pool3_rest_0_split <- pool3_rest
I1025 11:36:51.026109 23388 net.cpp:411] pool3_rest_pool3_rest_0_split -> pool3_rest_pool3_rest_0_split_0
I1025 11:36:51.026127 23388 net.cpp:411] pool3_rest_pool3_rest_0_split -> pool3_rest_pool3_rest_0_split_1
I1025 11:36:51.026140 23388 net.cpp:411] pool3_rest_pool3_rest_0_split -> pool3_rest_pool3_rest_0_split_2
I1025 11:36:51.026152 23388 net.cpp:411] pool3_rest_pool3_rest_0_split -> pool3_rest_pool3_rest_0_split_3
I1025 11:36:51.026163 23388 net.cpp:411] pool3_rest_pool3_rest_0_split -> pool3_rest_pool3_rest_0_split_4
I1025 11:36:51.026299 23388 net.cpp:150] Setting up pool3_rest_pool3_rest_0_split
I1025 11:36:51.026319 23388 net.cpp:157] Top shape: 70 512 4 4 (573440)
I1025 11:36:51.026330 23388 net.cpp:157] Top shape: 70 512 4 4 (573440)
I1025 11:36:51.026340 23388 net.cpp:157] Top shape: 70 512 4 4 (573440)
I1025 11:36:51.026350 23388 net.cpp:157] Top shape: 70 512 4 4 (573440)
I1025 11:36:51.026360 23388 net.cpp:157] Top shape: 70 512 4 4 (573440)
I1025 11:36:51.026367 23388 net.cpp:165] Memory required for data: 2792483680
I1025 11:36:51.026376 23388 layer_factory.hpp:77] Creating layer fc1_aroundhead
I1025 11:36:51.026412 23388 net.cpp:106] Creating Layer fc1_aroundhead
I1025 11:36:51.026424 23388 net.cpp:454] fc1_aroundhead <- pool3_rest_pool3_rest_0_split_0
I1025 11:36:51.026442 23388 net.cpp:411] fc1_aroundhead -> fc1_aroundhead
I1025 11:36:51.128621 23388 net.cpp:150] Setting up fc1_aroundhead
I1025 11:36:51.128667 23388 net.cpp:157] Top shape: 70 1024 (71680)
I1025 11:36:51.128676 23388 net.cpp:165] Memory required for data: 2792770400
I1025 11:36:51.128692 23388 layer_factory.hpp:77] Creating layer relu1_aroundhead
I1025 11:36:51.128707 23388 net.cpp:106] Creating Layer relu1_aroundhead
I1025 11:36:51.128718 23388 net.cpp:454] relu1_aroundhead <- fc1_aroundhead
I1025 11:36:51.128733 23388 net.cpp:397] relu1_aroundhead -> fc1_aroundhead (in-place)
I1025 11:36:51.129699 23388 net.cpp:150] Setting up relu1_aroundhead
I1025 11:36:51.129727 23388 net.cpp:157] Top shape: 70 1024 (71680)
I1025 11:36:51.129735 23388 net.cpp:165] Memory required for data: 2793057120
I1025 11:36:51.129743 23388 layer_factory.hpp:77] Creating layer drop1_aroundhead
I1025 11:36:51.129768 23388 net.cpp:106] Creating Layer drop1_aroundhead
I1025 11:36:51.129776 23388 net.cpp:454] drop1_aroundhead <- fc1_aroundhead
I1025 11:36:51.129791 23388 net.cpp:397] drop1_aroundhead -> fc1_aroundhead (in-place)
I1025 11:36:51.129860 23388 net.cpp:150] Setting up drop1_aroundhead
I1025 11:36:51.129876 23388 net.cpp:157] Top shape: 70 1024 (71680)
I1025 11:36:51.129884 23388 net.cpp:165] Memory required for data: 2793343840
I1025 11:36:51.129890 23388 layer_factory.hpp:77] Creating layer fc2_aroundhead
I1025 11:36:51.129909 23388 net.cpp:106] Creating Layer fc2_aroundhead
I1025 11:36:51.129916 23388 net.cpp:454] fc2_aroundhead <- fc1_aroundhead
I1025 11:36:51.129931 23388 net.cpp:411] fc2_aroundhead -> fc2_aroundhead
I1025 11:36:51.147311 23388 net.cpp:150] Setting up fc2_aroundhead
I1025 11:36:51.147338 23388 net.cpp:157] Top shape: 70 1024 (71680)
I1025 11:36:51.147346 23388 net.cpp:165] Memory required for data: 2793630560
I1025 11:36:51.147358 23388 layer_factory.hpp:77] Creating layer relu2_aroundhead
I1025 11:36:51.147369 23388 net.cpp:106] Creating Layer relu2_aroundhead
I1025 11:36:51.147377 23388 net.cpp:454] relu2_aroundhead <- fc2_aroundhead
I1025 11:36:51.147387 23388 net.cpp:397] relu2_aroundhead -> fc2_aroundhead (in-place)
I1025 11:36:51.147740 23388 net.cpp:150] Setting up relu2_aroundhead
I1025 11:36:51.147760 23388 net.cpp:157] Top shape: 70 1024 (71680)
I1025 11:36:51.147781 23388 net.cpp:165] Memory required for data: 2793917280
I1025 11:36:51.147789 23388 layer_factory.hpp:77] Creating layer drop2_aroundhead
I1025 11:36:51.147804 23388 net.cpp:106] Creating Layer drop2_aroundhead
I1025 11:36:51.147811 23388 net.cpp:454] drop2_aroundhead <- fc2_aroundhead
I1025 11:36:51.147821 23388 net.cpp:397] drop2_aroundhead -> fc2_aroundhead (in-place)
I1025 11:36:51.147879 23388 net.cpp:150] Setting up drop2_aroundhead
I1025 11:36:51.147893 23388 net.cpp:157] Top shape: 70 1024 (71680)
I1025 11:36:51.147899 23388 net.cpp:165] Memory required for data: 2794204000
I1025 11:36:51.147908 23388 layer_factory.hpp:77] Creating layer fc2_aroundhead_drop2_aroundhead_0_split
I1025 11:36:51.147920 23388 net.cpp:106] Creating Layer fc2_aroundhead_drop2_aroundhead_0_split
I1025 11:36:51.147927 23388 net.cpp:454] fc2_aroundhead_drop2_aroundhead_0_split <- fc2_aroundhead
I1025 11:36:51.147943 23388 net.cpp:411] fc2_aroundhead_drop2_aroundhead_0_split -> fc2_aroundhead_drop2_aroundhead_0_split_0
…
I1025 11:36:51.148144 23388 net.cpp:411] fc2_aroundhead_drop2_aroundhead_0_split -> fc2_aroundhead_drop2_aroundhead_0_split_10
I1025 11:36:51.148157 23388 net.cpp:411] fc2_aroundhead_drop2_aroundhead_0_split -> fc2_aroundhead_drop2_aroundhead_0_split_11
I1025 11:36:51.148169 23388 net.cpp:411] fc2_aroundhead_drop2_aroundhead_0_split -> fc2_aroundhead_drop2_aroundhead_0_split_12
I1025 11:36:51.148178 23388 net.cpp:411] fc2_aroundhead_drop2_aroundhead_0_split -> fc2_aroundhead_drop2_aroundhead_0_split_13
I1025 11:36:51.148547 23388 net.cpp:150] Setting up fc2_aroundhead_drop2_aroundhead_0_split
I1025 11:36:51.148562 23388 net.cpp:157] Top shape: 70 1024 (71680)
I1025 11:36:51.148569 23388 net.cpp:157] Top shape: 70 1024 (71680)
I1025 11:36:51.148576 23388 net.cpp:157] Top shape: 70 1024 (71680)
I1025 11:36:51.148583 23388 net.cpp:157] Top shape: 70 1024 (71680)
I1025 11:36:51.148591 23388 net.cpp:157] Top shape: 70 1024 (71680)
I1025 11:36:51.148597 23388 net.cpp:157] Top shape: 70 1024 (71680)
I1025 11:36:51.148604 23388 net.cpp:157] Top shape: 70 1024 (71680)
I1025 11:36:51.148612 23388 net.cpp:157] Top shape: 70 1024 (71680)
I1025 11:36:51.148618 23388 net.cpp:157] Top shape: 70 1024 (71680)
I1025 11:36:51.148625 23388 net.cpp:157] Top shape: 70 1024 (71680)
I1025 11:36:51.148633 23388 net.cpp:157] Top shape: 70 1024 (71680)
I1025 11:36:51.148638 23388 net.cpp:157] Top shape: 70 1024 (71680)
I1025 11:36:51.148645 23388 net.cpp:157] Top shape: 70 1024 (71680)
I1025 11:36:51.148653 23388 net.cpp:157] Top shape: 70 1024 (71680)
I1025 11:36:51.148658 23388 net.cpp:165] Memory required for data: 2798218080
I1025 11:36:51.148664 23388 layer_factory.hpp:77] Creating layer fc1_facialhair
I1025 11:36:51.148676 23388 net.cpp:106] Creating Layer fc1_facialhair
I1025 11:36:51.148686 23388 net.cpp:454] fc1_facialhair <- pool3_rest_pool3_rest_0_split_1
I1025 11:36:51.148701 23388 net.cpp:411] fc1_facialhair -> fc1_facialhair
I1025 11:36:51.252110 23388 net.cpp:150] Setting up fc1_facialhair
I1025 11:36:51.252154 23388 net.cpp:157] Top shape: 70 1024 (71680)
I1025 11:36:51.252159 23388 net.cpp:165] Memory required for data: 2798504800
I1025 11:36:51.252172 23388 layer_factory.hpp:77] Creating layer relu1_facialhair
I1025 11:36:51.252185 23388 net.cpp:106] Creating Layer relu1_facialhair
I1025 11:36:51.252195 23388 net.cpp:454] relu1_facialhair <- fc1_facialhair
I1025 11:36:51.252205 23388 net.cpp:397] relu1_facialhair -> fc1_facialhair (in-place)
I1025 11:36:51.252759 23388 net.cpp:150] Setting up relu1_facialhair
I1025 11:36:51.252777 23388 net.cpp:157] Top shape: 70 1024 (71680)
I1025 11:36:51.252781 23388 net.cpp:165] Memory required for data: 2798791520
I1025 11:36:51.252786 23388 layer_factory.hpp:77] Creating layer drop1_facialhair
I1025 11:36:51.252806 23388 net.cpp:106] Creating Layer drop1_facialhair
I1025 11:36:51.252812 23388 net.cpp:454] drop1_facialhair <- fc1_facialhair
I1025 11:36:51.252818 23388 net.cpp:397] drop1_facialhair -> fc1_facialhair (in-place)
I1025 11:36:51.252864 23388 net.cpp:150] Setting up drop1_facialhair
I1025 11:36:51.252872 23388 net.cpp:157] Top shape: 70 1024 (71680)
I1025 11:36:51.252876 23388 net.cpp:165] Memory required for data: 2799078240
I1025 11:36:51.252881 23388 layer_factory.hpp:77] Creating layer fc2_facialhair
I1025 11:36:51.252894 23388 net.cpp:106] Creating Layer fc2_facialhair
I1025 11:36:51.252899 23388 net.cpp:454] fc2_facialhair <- fc1_facialhair
I1025 11:36:51.252910 23388 net.cpp:411] fc2_facialhair -> fc2_facialhair
I1025 11:36:51.263828 23388 net.cpp:150] Setting up fc2_facialhair
I1025 11:36:51.263846 23388 net.cpp:157] Top shape: 70 1024 (71680)
I1025 11:36:51.263850 23388 net.cpp:165] Memory required for data: 2799364960
I1025 11:36:51.263859 23388 layer_factory.hpp:77] Creating layer relu2_facialhair
I1025 11:36:51.263865 23388 net.cpp:106] Creating Layer relu2_facialhair
I1025 11:36:51.263870 23388 net.cpp:454] relu2_facialhair <- fc2_facialhair
I1025 11:36:51.263880 23388 net.cpp:397] relu2_facialhair -> fc2_facialhair (in-place)
I1025 11:36:51.264091 23388 net.cpp:150] Setting up relu2_facialhair
I1025 11:36:51.264106 23388 net.cpp:157] Top shape: 70 1024 (71680)
I1025 11:36:51.264111 23388 net.cpp:165] Memory required for data: 2799651680
I1025 11:36:51.264116 23388 layer_factory.hpp:77] Creating layer drop2_facialhair
I1025 11:36:51.264124 23388 net.cpp:106] Creating Layer drop2_facialhair
I1025 11:36:51.264128 23388 net.cpp:454] drop2_facialhair <- fc2_facialhair
I1025 11:36:51.264134 23388 net.cpp:397] drop2_facialhair -> fc2_facialhair (in-place)
I1025 11:36:51.264173 23388 net.cpp:150] Setting up drop2_facialhair
I1025 11:36:51.264183 23388 net.cpp:157] Top shape: 70 1024 (71680)
I1025 11:36:51.264186 23388 net.cpp:165] Memory required for data: 2799938400
I1025 11:36:51.264191 23388 layer_factory.hpp:77] Creating layer fc2_facialhair_drop2_facialhair_0_split
I1025 11:36:51.264199 23388 net.cpp:106] Creating Layer fc2_facialhair_drop2_facialhair_0_split
I1025 11:36:51.264207 23388 net.cpp:454] fc2_facialhair_drop2_facialhair_0_split <- fc2_facialhair
I1025 11:36:51.264214 23388 net.cpp:411] fc2_facialhair_drop2_facialhair_0_split -> fc2_facialhair_drop2_facialhair_0_split_0
I1025 11:36:51.264221 23388 net.cpp:411] fc2_facialhair_drop2_facialhair_0_split -> fc2_facialhair_drop2_facialhair_0_split_1
I1025 11:36:51.264230 23388 net.cpp:411] fc2_facialhair_drop2_facialhair_0_split -> fc2_facialhair_drop2_facialhair_0_split_2
I1025 11:36:51.264235 23388 net.cpp:411] fc2_facialhair_drop2_facialhair_0_split -> fc2_facialhair_drop2_facialhair_0_split_3
I1025 11:36:51.264242 23388 net.cpp:411] fc2_facialhair_drop2_facialhair_0_split -> fc2_facialhair_drop2_facialhair_0_split_4
I1025 11:36:51.264250 23388 net.cpp:411] fc2_facialhair_drop2_facialhair_0_split -> fc2_facialhair_drop2_facialhair_0_split_5
I1025 11:36:51.264586 23388 net.cpp:150] Setting up fc2_facialhair_drop2_facialhair_0_split
I1025 11:36:51.264600 23388 net.cpp:157] Top shape: 70 1024 (71680)
I1025 11:36:51.264605 23388 net.cpp:157] Top shape: 70 1024 (71680)
I1025 11:36:51.264610 23388 net.cpp:157] Top shape: 70 1024 (71680)
I1025 11:36:51.264614 23388 net.cpp:157] Top shape: 70 1024 (71680)
I1025 11:36:51.264618 23388 net.cpp:157] Top shape: 70 1024 (71680)
I1025 11:36:51.264622 23388 net.cpp:157] Top shape: 70 1024 (71680)
I1025 11:36:51.264626 23388 net.cpp:165] Memory required for data: 2801658720
I1025 11:36:51.264632 23388 layer_factory.hpp:77] Creating layer fc1_cheeks
I1025 11:36:51.264641 23388 net.cpp:106] Creating Layer fc1_cheeks
I1025 11:36:51.264647 23388 net.cpp:454] fc1_cheeks <- pool3_rest_pool3_rest_0_split_2
I1025 11:36:51.264657 23388 net.cpp:411] fc1_cheeks -> fc1_cheeks
I1025 11:36:51.348507 23388 net.cpp:150] Setting up fc1_cheeks
I1025 11:36:51.348551 23388 net.cpp:157] Top shape: 70 1024 (71680)
I1025 11:36:51.348556 23388 net.cpp:165] Memory required for data: 2801945440
I1025 11:36:51.348569 23388 layer_factory.hpp:77] Creating layer relu1_cheeks
I1025 11:36:51.348582 23388 net.cpp:106] Creating Layer relu1_cheeks
I1025 11:36:51.348590 23388 net.cpp:454] relu1_cheeks <- fc1_cheeks
I1025 11:36:51.348599 23388 net.cpp:397] relu1_cheeks -> fc1_cheeks (in-place)
I1025 11:36:51.349153 23388 net.cpp:150] Setting up relu1_cheeks
I1025 11:36:51.349169 23388 net.cpp:157] Top shape: 70 1024 (71680)
I1025 11:36:51.349174 23388 net.cpp:165] Memory required for data: 2802232160
I1025 11:36:51.349179 23388 layer_factory.hpp:77] Creating layer drop1_cheeks
I1025 11:36:51.349190 23388 net.cpp:106] Creating Layer drop1_cheeks
I1025 11:36:51.349215 23388 net.cpp:454] drop1_cheeks <- fc1_cheeks
I1025 11:36:51.349221 23388 net.cpp:397] drop1_cheeks -> fc1_cheeks (in-place)
I1025 11:36:51.349270 23388 net.cpp:150] Setting up drop1_cheeks
I1025 11:36:51.349278 23388 net.cpp:157] Top shape: 70 1024 (71680)
I1025 11:36:51.349282 23388 net.cpp:165] Memory required for data: 2802518880
I1025 11:36:51.349287 23388 layer_factory.hpp:77] Creating layer fc2_cheeks
I1025 11:36:51.349306 23388 net.cpp:106] Creating Layer fc2_cheeks
I1025 11:36:51.349310 23388 net.cpp:454] fc2_cheeks <- fc1_cheeks
I1025 11:36:51.349319 23388 net.cpp:411] fc2_cheeks -> fc2_cheeks
I1025 11:36:51.359940 23388 net.cpp:150] Setting up fc2_cheeks
I1025 11:36:51.359957 23388 net.cpp:157] Top shape: 70 1024 (71680)
I1025 11:36:51.359961 23388 net.cpp:165] Memory required for data: 2802805600
I1025 11:36:51.359971 23388 layer_factory.hpp:77] Creating layer relu2_cheeks
I1025 11:36:51.359978 23388 net.cpp:106] Creating Layer relu2_cheeks
I1025 11:36:51.359982 23388 net.cpp:454] relu2_cheeks <- fc2_cheeks
I1025 11:36:51.359992 23388 net.cpp:397] relu2_cheeks -> fc2_cheeks (in-place)
I1025 11:36:51.360368 23388 net.cpp:150] Setting up relu2_cheeks
I1025 11:36:51.360383 23388 net.cpp:157] Top shape: 70 1024 (71680)
I1025 11:36:51.360388 23388 net.cpp:165] Memory required for data: 2803092320
I1025 11:36:51.360393 23388 layer_factory.hpp:77] Creating layer drop2_cheeks
I1025 11:36:51.360399 23388 net.cpp:106] Creating Layer drop2_cheeks
I1025 11:36:51.360404 23388 net.cpp:454] drop2_cheeks <- fc2_cheeks
I1025 11:36:51.360412 23388 net.cpp:397] drop2_cheeks -> fc2_cheeks (in-place)
I1025 11:36:51.360455 23388 net.cpp:150] Setting up drop2_cheeks
I1025 11:36:51.360463 23388 net.cpp:157] Top shape: 70 1024 (71680)
I1025 11:36:51.360466 23388 net.cpp:165] Memory required for data: 2803379040
I1025 11:36:51.360471 23388 layer_factory.hpp:77] Creating layer fc2_cheeks_drop2_cheeks_0_split
I1025 11:36:51.360477 23388 net.cpp:106] Creating Layer fc2_cheeks_drop2_cheeks_0_split
I1025 11:36:51.360481 23388 net.cpp:454] fc2_cheeks_drop2_cheeks_0_split <- fc2_cheeks
I1025 11:36:51.360487 23388 net.cpp:411] fc2_cheeks_drop2_cheeks_0_split -> fc2_cheeks_drop2_cheeks_0_split_0
I1025 11:36:51.360497 23388 net.cpp:411] fc2_cheeks_drop2_cheeks_0_split -> fc2_cheeks_drop2_cheeks_0_split_1
I1025 11:36:51.360504 23388 net.cpp:411] fc2_cheeks_drop2_cheeks_0_split -> fc2_cheeks_drop2_cheeks_0_split_2
I1025 11:36:51.360574 23388 net.cpp:150] Setting up fc2_cheeks_drop2_cheeks_0_split
I1025 11:36:51.360582 23388 net.cpp:157] Top shape: 70 1024 (71680)
I1025 11:36:51.360589 23388 net.cpp:157] Top shape: 70 1024 (71680)
I1025 11:36:51.360594 23388 net.cpp:157] Top shape: 70 1024 (71680)
I1025 11:36:51.360599 23388 net.cpp:165] Memory required for data: 2804239200
I1025 11:36:51.360602 23388 layer_factory.hpp:77] Creating layer fc1_fat
I1025 11:36:51.360611 23388 net.cpp:106] Creating Layer fc1_fat
I1025 11:36:51.360618 23388 net.cpp:454] fc1_fat <- pool3_rest_pool3_rest_0_split_3
I1025 11:36:51.360630 23388 net.cpp:411] fc1_fat -> fc1_fat
I1025 11:36:51.445364 23388 net.cpp:150] Setting up fc1_fat
I1025 11:36:51.445410 23388 net.cpp:157] Top shape: 70 1024 (71680)
I1025 11:36:51.445415 23388 net.cpp:165] Memory required for data: 2804525920
I1025 11:36:51.445437 23388 layer_factory.hpp:77] Creating layer relu1_fat
I1025 11:36:51.445452 23388 net.cpp:106] Creating Layer relu1_fat
I1025 11:36:51.445461 23388 net.cpp:454] relu1_fat <- fc1_fat
I1025 11:36:51.445469 23388 net.cpp:397] relu1_fat -> fc1_fat (in-place)
I1025 11:36:51.445781 23388 net.cpp:150] Setting up relu1_fat
I1025 11:36:51.445796 23388 net.cpp:157] Top shape: 70 1024 (71680)
I1025 11:36:51.445799 23388 net.cpp:165] Memory required for data: 2804812640
I1025 11:36:51.445804 23388 layer_factory.hpp:77] Creating layer drop1_fat
I1025 11:36:51.445812 23388 net.cpp:106] Creating Layer drop1_fat
I1025 11:36:51.445817 23388 net.cpp:454] drop1_fat <- fc1_fat
I1025 11:36:51.445824 23388 net.cpp:397] drop1_fat -> fc1_fat (in-place)
I1025 11:36:51.445868 23388 net.cpp:150] Setting up drop1_fat
I1025 11:36:51.445897 23388 net.cpp:157] Top shape: 70 1024 (71680)
I1025 11:36:51.445901 23388 net.cpp:165] Memory required for data: 2805099360
I1025 11:36:51.445905 23388 layer_factory.hpp:77] Creating layer fc2_fat
I1025 11:36:51.445917 23388 net.cpp:106] Creating Layer fc2_fat
I1025 11:36:51.445922 23388 net.cpp:454] fc2_fat <- fc1_fat
I1025 11:36:51.445932 23388 net.cpp:411] fc2_fat -> fc2_fat
I1025 11:36:51.456670 23388 net.cpp:150] Setting up fc2_fat
I1025 11:36:51.456689 23388 net.cpp:157] Top shape: 70 1024 (71680)
I1025 11:36:51.456693 23388 net.cpp:165] Memory required for data: 2805386080
I1025 11:36:51.456701 23388 layer_factory.hpp:77] Creating layer relu2_fat
I1025 11:36:51.456708 23388 net.cpp:106] Creating Layer relu2_fat
I1025 11:36:51.456713 23388 net.cpp:454] relu2_fat <- fc2_fat
I1025 11:36:51.456722 23388 net.cpp:397] relu2_fat -> fc2_fat (in-place)
I1025 11:36:51.457123 23388 net.cpp:150] Setting up relu2_fat
I1025 11:36:51.457140 23388 net.cpp:157] Top shape: 70 1024 (71680)
I1025 11:36:51.457144 23388 net.cpp:165] Memory required for data: 2805672800
I1025 11:36:51.457150 23388 layer_factory.hpp:77] Creating layer drop2_fat
I1025 11:36:51.457159 23388 net.cpp:106] Creating Layer drop2_fat
I1025 11:36:51.457162 23388 net.cpp:454] drop2_fat <- fc2_fat
I1025 11:36:51.457170 23388 net.cpp:397] drop2_fat -> fc2_fat (in-place)
I1025 11:36:51.457211 23388 net.cpp:150] Setting up drop2_fat
I1025 11:36:51.457217 23388 net.cpp:157] Top shape: 70 1024 (71680)
I1025 11:36:51.457221 23388 net.cpp:165] Memory required for data: 2805959520
I1025 11:36:51.457224 23388 layer_factory.hpp:77] Creating layer fc2_fat_drop2_fat_0_split
I1025 11:36:51.457233 23388 net.cpp:106] Creating Layer fc2_fat_drop2_fat_0_split
I1025 11:36:51.457237 23388 net.cpp:454] fc2_fat_drop2_fat_0_split <- fc2_fat
I1025 11:36:51.457243 23388 net.cpp:411] fc2_fat_drop2_fat_0_split -> fc2_fat_drop2_fat_0_split_0
I1025 11:36:51.457257 23388 net.cpp:411] fc2_fat_drop2_fat_0_split -> fc2_fat_drop2_fat_0_split_1
I1025 11:36:51.457264 23388 net.cpp:411] fc2_fat_drop2_fat_0_split -> fc2_fat_drop2_fat_0_split_2
I1025 11:36:51.457334 23388 net.cpp:150] Setting up fc2_fat_drop2_fat_0_split
I1025 11:36:51.457345 23388 net.cpp:157] Top shape: 70 1024 (71680)
I1025 11:36:51.457348 23388 net.cpp:157] Top shape: 70 1024 (71680)
I1025 11:36:51.457352 23388 net.cpp:157] Top shape: 70 1024 (71680)
I1025 11:36:51.457356 23388 net.cpp:165] Memory required for data: 2806819680
I1025 11:36:51.457360 23388 layer_factory.hpp:77] Creating layer fc3_Male
I1025 11:36:51.457370 23388 net.cpp:106] Creating Layer fc3_Male
I1025 11:36:51.457376 23388 net.cpp:454] fc3_Male <- fc2_gender_drop2_gender_0_split_0
I1025 11:36:51.457383 23388 net.cpp:411] fc3_Male -> fc3_Male
I1025 11:36:51.457550 23388 net.cpp:150] Setting up fc3_Male
I1025 11:36:51.457559 23388 net.cpp:157] Top shape: 70 2 (140)
I1025 11:36:51.457563 23388 net.cpp:165] Memory required for data: 2806820240
I1025 11:36:51.457571 23388 layer_factory.hpp:77] Creating layer loss_Male
I1025 11:36:51.457608 23388 net.cpp:106] Creating Layer loss_Male
I1025 11:36:51.457617 23388 net.cpp:454] loss_Male <- fc3_Male
I1025 11:36:51.457623 23388 net.cpp:454] loss_Male <- label_Male
I1025 11:36:51.457629 23388 net.cpp:411] loss_Male -> loss_Male
I1025 11:36:51.457692 23388 net.cpp:150] Setting up loss_Male
I1025 11:36:51.457702 23388 net.cpp:157] Top shape: (1)
I1025 11:36:51.457706 23388 net.cpp:160]     with loss weight 1
I1025 11:36:51.457736 23388 net.cpp:165] Memory required for data: 2806820244
I1025 11:36:51.457742 23388 layer_factory.hpp:77] Creating layer fc3_Big_Nose
I1025 11:36:51.457751 23388 net.cpp:106] Creating Layer fc3_Big_Nose
I1025 11:36:51.457756 23388 net.cpp:454] fc3_Big_Nose <- fc2_nose_drop2_nose_0_split_0
I1025 11:36:51.457764 23388 net.cpp:411] fc3_Big_Nose -> fc3_Big_Nose
I1025 11:36:51.457917 23388 net.cpp:150] Setting up fc3_Big_Nose
I1025 11:36:51.457927 23388 net.cpp:157] Top shape: 70 2 (140)
I1025 11:36:51.457931 23388 net.cpp:165] Memory required for data: 2806820804
I1025 11:36:51.457952 23388 layer_factory.hpp:77] Creating layer loss_Big_Nose
I1025 11:36:51.457963 23388 net.cpp:106] Creating Layer loss_Big_Nose
I1025 11:36:51.457968 23388 net.cpp:454] loss_Big_Nose <- fc3_Big_Nose
I1025 11:36:51.457974 23388 net.cpp:454] loss_Big_Nose <- label_Big_Nose
I1025 11:36:51.457980 23388 net.cpp:411] loss_Big_Nose -> loss_Big_Nose
I1025 11:36:51.458034 23388 net.cpp:150] Setting up loss_Big_Nose
I1025 11:36:51.458042 23388 net.cpp:157] Top shape: (1)
I1025 11:36:51.458046 23388 net.cpp:160]     with loss weight 1
I1025 11:36:51.458052 23388 net.cpp:165] Memory required for data: 2806820808
I1025 11:36:51.458056 23388 layer_factory.hpp:77] Creating layer fc3_Pointy_Nose
I1025 11:36:51.458063 23388 net.cpp:106] Creating Layer fc3_Pointy_Nose
I1025 11:36:51.458068 23388 net.cpp:454] fc3_Pointy_Nose <- fc2_nose_drop2_nose_0_split_1
I1025 11:36:51.458076 23388 net.cpp:411] fc3_Pointy_Nose -> fc3_Pointy_Nose
I1025 11:36:51.458221 23388 net.cpp:150] Setting up fc3_Pointy_Nose
I1025 11:36:51.458231 23388 net.cpp:157] Top shape: 70 2 (140)
I1025 11:36:51.458235 23388 net.cpp:165] Memory required for data: 2806821368
I1025 11:36:51.458268 23388 layer_factory.hpp:77] Creating layer loss_Pointy_Nose
I1025 11:36:51.458278 23388 net.cpp:106] Creating Layer loss_Pointy_Nose
I1025 11:36:51.458283 23388 net.cpp:454] loss_Pointy_Nose <- fc3_Pointy_Nose
I1025 11:36:51.458289 23388 net.cpp:454] loss_Pointy_Nose <- label_Pointy_Nose
I1025 11:36:51.458297 23388 net.cpp:411] loss_Pointy_Nose -> loss_Pointy_Nose
I1025 11:36:51.458351 23388 net.cpp:150] Setting up loss_Pointy_Nose
I1025 11:36:51.458360 23388 net.cpp:157] Top shape: (1)
I1025 11:36:51.458364 23388 net.cpp:160]     with loss weight 1
I1025 11:36:51.458370 23388 net.cpp:165] Memory required for data: 2806821372
I1025 11:36:51.458375 23388 layer_factory.hpp:77] Creating layer fc3_Big_Lips
I1025 11:36:51.458384 23388 net.cpp:106] Creating Layer fc3_Big_Lips
I1025 11:36:51.458389 23388 net.cpp:454] fc3_Big_Lips <- fc2_mouth_drop2_mouth_0_split_0
I1025 11:36:51.458397 23388 net.cpp:411] fc3_Big_Lips -> fc3_Big_Lips
I1025 11:36:51.458544 23388 net.cpp:150] Setting up fc3_Big_Lips
I1025 11:36:51.458554 23388 net.cpp:157] Top shape: 70 2 (140)
I1025 11:36:51.458557 23388 net.cpp:165] Memory required for data: 2806821932
I1025 11:36:51.458564 23388 layer_factory.hpp:77] Creating layer loss_Big_Lips
I1025 11:36:51.458573 23388 net.cpp:106] Creating Layer loss_Big_Lips
I1025 11:36:51.458577 23388 net.cpp:454] loss_Big_Lips <- fc3_Big_Lips
I1025 11:36:51.458582 23388 net.cpp:454] loss_Big_Lips <- label_Big_Lips
I1025 11:36:51.458588 23388 net.cpp:411] loss_Big_Lips -> loss_Big_Lips
I1025 11:36:51.458639 23388 net.cpp:150] Setting up loss_Big_Lips
I1025 11:36:51.458648 23388 net.cpp:157] Top shape: (1)
I1025 11:36:51.458652 23388 net.cpp:160]     with loss weight 1
I1025 11:36:51.458658 23388 net.cpp:165] Memory required for data: 2806821936
I1025 11:36:51.458662 23388 layer_factory.hpp:77] Creating layer fc3_Smiling
I1025 11:36:51.458669 23388 net.cpp:106] Creating Layer fc3_Smiling
I1025 11:36:51.458674 23388 net.cpp:454] fc3_Smiling <- fc2_mouth_drop2_mouth_0_split_1
I1025 11:36:51.458683 23388 net.cpp:411] fc3_Smiling -> fc3_Smiling
I1025 11:36:51.458824 23388 net.cpp:150] Setting up fc3_Smiling
I1025 11:36:51.458834 23388 net.cpp:157] Top shape: 70 2 (140)
I1025 11:36:51.458838 23388 net.cpp:165] Memory required for data: 2806822496
I1025 11:36:51.458844 23388 layer_factory.hpp:77] Creating layer loss_Smiling
I1025 11:36:51.458853 23388 net.cpp:106] Creating Layer loss_Smiling
I1025 11:36:51.458858 23388 net.cpp:454] loss_Smiling <- fc3_Smiling
I1025 11:36:51.458863 23388 net.cpp:454] loss_Smiling <- label_Smiling
I1025 11:36:51.458871 23388 net.cpp:411] loss_Smiling -> loss_Smiling
I1025 11:36:51.458920 23388 net.cpp:150] Setting up loss_Smiling
I1025 11:36:51.458928 23388 net.cpp:157] Top shape: (1)
I1025 11:36:51.458932 23388 net.cpp:160]     with loss weight 1
I1025 11:36:51.458937 23388 net.cpp:165] Memory required for data: 2806822500
I1025 11:36:51.458942 23388 layer_factory.hpp:77] Creating layer fc3_Wearing_Lipstick
I1025 11:36:51.458961 23388 net.cpp:106] Creating Layer fc3_Wearing_Lipstick
I1025 11:36:51.458967 23388 net.cpp:454] fc3_Wearing_Lipstick <- fc2_mouth_drop2_mouth_0_split_2
I1025 11:36:51.458976 23388 net.cpp:411] fc3_Wearing_Lipstick -> fc3_Wearing_Lipstick
I1025 11:36:51.459120 23388 net.cpp:150] Setting up fc3_Wearing_Lipstick
I1025 11:36:51.459131 23388 net.cpp:157] Top shape: 70 2 (140)
I1025 11:36:51.459134 23388 net.cpp:165] Memory required for data: 2806823060
I1025 11:36:51.459141 23388 layer_factory.hpp:77] Creating layer loss_Wearing_Lipstick
I1025 11:36:51.459149 23388 net.cpp:106] Creating Layer loss_Wearing_Lipstick
I1025 11:36:51.459154 23388 net.cpp:454] loss_Wearing_Lipstick <- fc3_Wearing_Lipstick
I1025 11:36:51.459161 23388 net.cpp:454] loss_Wearing_Lipstick <- label_Wearing_Lipstick
I1025 11:36:51.459167 23388 net.cpp:411] loss_Wearing_Lipstick -> loss_Wearing_Lipstick
I1025 11:36:51.459216 23388 net.cpp:150] Setting up loss_Wearing_Lipstick
I1025 11:36:51.459225 23388 net.cpp:157] Top shape: (1)
I1025 11:36:51.459228 23388 net.cpp:160]     with loss weight 1
I1025 11:36:51.459235 23388 net.cpp:165] Memory required for data: 2806823064
I1025 11:36:51.459239 23388 layer_factory.hpp:77] Creating layer fc3_Mouth_Slightly_Open
I1025 11:36:51.459245 23388 net.cpp:106] Creating Layer fc3_Mouth_Slightly_Open
I1025 11:36:51.459250 23388 net.cpp:454] fc3_Mouth_Slightly_Open <- fc2_mouth_drop2_mouth_0_split_3
I1025 11:36:51.459259 23388 net.cpp:411] fc3_Mouth_Slightly_Open -> fc3_Mouth_Slightly_Open
I1025 11:36:51.459399 23388 net.cpp:150] Setting up fc3_Mouth_Slightly_Open
I1025 11:36:51.459408 23388 net.cpp:157] Top shape: 70 2 (140)
I1025 11:36:51.459413 23388 net.cpp:165] Memory required for data: 2806823624
I1025 11:36:51.459419 23388 layer_factory.hpp:77] Creating layer loss_Mouth_Slightly_Open
I1025 11:36:51.459429 23388 net.cpp:106] Creating Layer loss_Mouth_Slightly_Open
I1025 11:36:51.459434 23388 net.cpp:454] loss_Mouth_Slightly_Open <- fc3_Mouth_Slightly_Open
I1025 11:36:51.459439 23388 net.cpp:454] loss_Mouth_Slightly_Open <- label_Mouth_Slightly_Open
I1025 11:36:51.459446 23388 net.cpp:411] loss_Mouth_Slightly_Open -> loss_Mouth_Slightly_Open
I1025 11:36:51.459496 23388 net.cpp:150] Setting up loss_Mouth_Slightly_Open
I1025 11:36:51.459506 23388 net.cpp:157] Top shape: (1)
I1025 11:36:51.459509 23388 net.cpp:160]     with loss weight 1
I1025 11:36:51.459514 23388 net.cpp:165] Memory required for data: 2806823628
I1025 11:36:51.459519 23388 layer_factory.hpp:77] Creating layer fc3_Arched_Eyebrows
I1025 11:36:51.459527 23388 net.cpp:106] Creating Layer fc3_Arched_Eyebrows
I1025 11:36:51.459532 23388 net.cpp:454] fc3_Arched_Eyebrows <- fc2_eyes_drop2_eyes_0_split_0
I1025 11:36:51.459542 23388 net.cpp:411] fc3_Arched_Eyebrows -> fc3_Arched_Eyebrows
I1025 11:36:51.459682 23388 net.cpp:150] Setting up fc3_Arched_Eyebrows
I1025 11:36:51.459692 23388 net.cpp:157] Top shape: 70 2 (140)
I1025 11:36:51.459697 23388 net.cpp:165] Memory required for data: 2806824188
I1025 11:36:51.459702 23388 layer_factory.hpp:77] Creating layer loss_Arched_Eyebrows
I1025 11:36:51.459712 23388 net.cpp:106] Creating Layer loss_Arched_Eyebrows
I1025 11:36:51.459715 23388 net.cpp:454] loss_Arched_Eyebrows <- fc3_Arched_Eyebrows
I1025 11:36:51.459722 23388 net.cpp:454] loss_Arched_Eyebrows <- label_Arched_Eyebrows
I1025 11:36:51.459728 23388 net.cpp:411] loss_Arched_Eyebrows -> loss_Arched_Eyebrows
I1025 11:36:51.459784 23388 net.cpp:150] Setting up loss_Arched_Eyebrows
I1025 11:36:51.459794 23388 net.cpp:157] Top shape: (1)
I1025 11:36:51.459797 23388 net.cpp:160]     with loss weight 1
I1025 11:36:51.459803 23388 net.cpp:165] Memory required for data: 2806824192
I1025 11:36:51.459807 23388 layer_factory.hpp:77] Creating layer fc3_Bags_Under_Eyes
I1025 11:36:51.459815 23388 net.cpp:106] Creating Layer fc3_Bags_Under_Eyes
I1025 11:36:51.459820 23388 net.cpp:454] fc3_Bags_Under_Eyes <- fc2_eyes_drop2_eyes_0_split_1
I1025 11:36:51.459827 23388 net.cpp:411] fc3_Bags_Under_Eyes -> fc3_Bags_Under_Eyes
I1025 11:36:51.459982 23388 net.cpp:150] Setting up fc3_Bags_Under_Eyes
I1025 11:36:51.459993 23388 net.cpp:157] Top shape: 70 2 (140)
I1025 11:36:51.459996 23388 net.cpp:165] Memory required for data: 2806824752
I1025 11:36:51.460003 23388 layer_factory.hpp:77] Creating layer loss_Bags_Under_Eyes
I1025 11:36:51.460011 23388 net.cpp:106] Creating Layer loss_Bags_Under_Eyes
I1025 11:36:51.460016 23388 net.cpp:454] loss_Bags_Under_Eyes <- fc3_Bags_Under_Eyes
I1025 11:36:51.460021 23388 net.cpp:454] loss_Bags_Under_Eyes <- label_Bags_Under_Eyes
I1025 11:36:51.460029 23388 net.cpp:411] loss_Bags_Under_Eyes -> loss_Bags_Under_Eyes
I1025 11:36:51.460080 23388 net.cpp:150] Setting up loss_Bags_Under_Eyes
I1025 11:36:51.460089 23388 net.cpp:157] Top shape: (1)
I1025 11:36:51.460093 23388 net.cpp:160]     with loss weight 1
I1025 11:36:51.460098 23388 net.cpp:165] Memory required for data: 2806824756
I1025 11:36:51.460103 23388 layer_factory.hpp:77] Creating layer fc3_Bushy_Eyebrows
I1025 11:36:51.460111 23388 net.cpp:106] Creating Layer fc3_Bushy_Eyebrows
I1025 11:36:51.460116 23388 net.cpp:454] fc3_Bushy_Eyebrows <- fc2_eyes_drop2_eyes_0_split_2
I1025 11:36:51.460124 23388 net.cpp:411] fc3_Bushy_Eyebrows -> fc3_Bushy_Eyebrows
I1025 11:36:51.460268 23388 net.cpp:150] Setting up fc3_Bushy_Eyebrows
I1025 11:36:51.460278 23388 net.cpp:157] Top shape: 70 2 (140)
I1025 11:36:51.460283 23388 net.cpp:165] Memory required for data: 2806825316
I1025 11:36:51.460289 23388 layer_factory.hpp:77] Creating layer loss_Bushy_Eyebrows
I1025 11:36:51.460296 23388 net.cpp:106] Creating Layer loss_Bushy_Eyebrows
I1025 11:36:51.460301 23388 net.cpp:454] loss_Bushy_Eyebrows <- fc3_Bushy_Eyebrows
I1025 11:36:51.460307 23388 net.cpp:454] loss_Bushy_Eyebrows <- label_Bushy_Eyebrows
I1025 11:36:51.460315 23388 net.cpp:411] loss_Bushy_Eyebrows -> loss_Bushy_Eyebrows
I1025 11:36:51.460364 23388 net.cpp:150] Setting up loss_Bushy_Eyebrows
I1025 11:36:51.460373 23388 net.cpp:157] Top shape: (1)
I1025 11:36:51.460377 23388 net.cpp:160]     with loss weight 1
I1025 11:36:51.460382 23388 net.cpp:165] Memory required for data: 2806825320
I1025 11:36:51.460386 23388 layer_factory.hpp:77] Creating layer fc3_Narrow_Eyes
I1025 11:36:51.460393 23388 net.cpp:106] Creating Layer fc3_Narrow_Eyes
I1025 11:36:51.460398 23388 net.cpp:454] fc3_Narrow_Eyes <- fc2_eyes_drop2_eyes_0_split_3
I1025 11:36:51.460408 23388 net.cpp:411] fc3_Narrow_Eyes -> fc3_Narrow_Eyes
I1025 11:36:51.460551 23388 net.cpp:150] Setting up fc3_Narrow_Eyes
I1025 11:36:51.460559 23388 net.cpp:157] Top shape: 70 2 (140)
I1025 11:36:51.460563 23388 net.cpp:165] Memory required for data: 2806825880
I1025 11:36:51.460569 23388 layer_factory.hpp:77] Creating layer loss_Narrow_Eyes
I1025 11:36:51.460579 23388 net.cpp:106] Creating Layer loss_Narrow_Eyes
I1025 11:36:51.460583 23388 net.cpp:454] loss_Narrow_Eyes <- fc3_Narrow_Eyes
I1025 11:36:51.460590 23388 net.cpp:454] loss_Narrow_Eyes <- label_Narrow_Eyes
I1025 11:36:51.460597 23388 net.cpp:411] loss_Narrow_Eyes -> loss_Narrow_Eyes
I1025 11:36:51.460645 23388 net.cpp:150] Setting up loss_Narrow_Eyes
I1025 11:36:51.460654 23388 net.cpp:157] Top shape: (1)
I1025 11:36:51.460657 23388 net.cpp:160]     with loss weight 1
I1025 11:36:51.460664 23388 net.cpp:165] Memory required for data: 2806825884
I1025 11:36:51.460669 23388 layer_factory.hpp:77] Creating layer fc3_Eyeglasses
I1025 11:36:51.460675 23388 net.cpp:106] Creating Layer fc3_Eyeglasses
I1025 11:36:51.460680 23388 net.cpp:454] fc3_Eyeglasses <- fc2_eyes_drop2_eyes_0_split_4
I1025 11:36:51.460687 23388 net.cpp:411] fc3_Eyeglasses -> fc3_Eyeglasses
I1025 11:36:51.460829 23388 net.cpp:150] Setting up fc3_Eyeglasses
I1025 11:36:51.460839 23388 net.cpp:157] Top shape: 70 2 (140)
I1025 11:36:51.460841 23388 net.cpp:165] Memory required for data: 2806826444
I1025 11:36:51.460849 23388 layer_factory.hpp:77] Creating layer loss_Eyeglasses
I1025 11:36:51.460856 23388 net.cpp:106] Creating Layer loss_Eyeglasses
I1025 11:36:51.460863 23388 net.cpp:454] loss_Eyeglasses <- fc3_Eyeglasses
I1025 11:36:51.460880 23388 net.cpp:454] loss_Eyeglasses <- label_Eyeglasses
I1025 11:36:51.460886 23388 net.cpp:411] loss_Eyeglasses -> loss_Eyeglasses
I1025 11:36:51.460937 23388 net.cpp:150] Setting up loss_Eyeglasses
I1025 11:36:51.460947 23388 net.cpp:157] Top shape: (1)
I1025 11:36:51.460950 23388 net.cpp:160]     with loss weight 1
I1025 11:36:51.460957 23388 net.cpp:165] Memory required for data: 2806826448
I1025 11:36:51.460960 23388 layer_factory.hpp:77] Creating layer fc3_Attractive
I1025 11:36:51.460968 23388 net.cpp:106] Creating Layer fc3_Attractive
I1025 11:36:51.460973 23388 net.cpp:454] fc3_Attractive <- fc2_face_drop2_face_0_split_0
I1025 11:36:51.460980 23388 net.cpp:411] fc3_Attractive -> fc3_Attractive
I1025 11:36:51.461127 23388 net.cpp:150] Setting up fc3_Attractive
I1025 11:36:51.461136 23388 net.cpp:157] Top shape: 70 2 (140)
I1025 11:36:51.461140 23388 net.cpp:165] Memory required for data: 2806827008
I1025 11:36:51.461146 23388 layer_factory.hpp:77] Creating layer loss_Attractive
I1025 11:36:51.461155 23388 net.cpp:106] Creating Layer loss_Attractive
I1025 11:36:51.461161 23388 net.cpp:454] loss_Attractive <- fc3_Attractive
I1025 11:36:51.461166 23388 net.cpp:454] loss_Attractive <- label_Attractive
I1025 11:36:51.461171 23388 net.cpp:411] loss_Attractive -> loss_Attractive
I1025 11:36:51.461221 23388 net.cpp:150] Setting up loss_Attractive
I1025 11:36:51.461230 23388 net.cpp:157] Top shape: (1)
I1025 11:36:51.461233 23388 net.cpp:160]     with loss weight 1
I1025 11:36:51.461239 23388 net.cpp:165] Memory required for data: 2806827012
I1025 11:36:51.461244 23388 layer_factory.hpp:77] Creating layer fc3_Blurry
I1025 11:36:51.461251 23388 net.cpp:106] Creating Layer fc3_Blurry
I1025 11:36:51.461256 23388 net.cpp:454] fc3_Blurry <- fc2_face_drop2_face_0_split_1
I1025 11:36:51.461263 23388 net.cpp:411] fc3_Blurry -> fc3_Blurry
I1025 11:36:51.461405 23388 net.cpp:150] Setting up fc3_Blurry
I1025 11:36:51.461416 23388 net.cpp:157] Top shape: 70 2 (140)
I1025 11:36:51.461419 23388 net.cpp:165] Memory required for data: 2806827572
I1025 11:36:51.461426 23388 layer_factory.hpp:77] Creating layer loss_Blurry
I1025 11:36:51.461434 23388 net.cpp:106] Creating Layer loss_Blurry
I1025 11:36:51.461441 23388 net.cpp:454] loss_Blurry <- fc3_Blurry
I1025 11:36:51.461447 23388 net.cpp:454] loss_Blurry <- label_Blurry
I1025 11:36:51.461452 23388 net.cpp:411] loss_Blurry -> loss_Blurry
I1025 11:36:51.461501 23388 net.cpp:150] Setting up loss_Blurry
I1025 11:36:51.461510 23388 net.cpp:157] Top shape: (1)
I1025 11:36:51.461514 23388 net.cpp:160]     with loss weight 1
I1025 11:36:51.461519 23388 net.cpp:165] Memory required for data: 2806827576
I1025 11:36:51.461524 23388 layer_factory.hpp:77] Creating layer fc3_Oval_Face
I1025 11:36:51.461531 23388 net.cpp:106] Creating Layer fc3_Oval_Face
I1025 11:36:51.461535 23388 net.cpp:454] fc3_Oval_Face <- fc2_face_drop2_face_0_split_2
I1025 11:36:51.461544 23388 net.cpp:411] fc3_Oval_Face -> fc3_Oval_Face
I1025 11:36:51.461683 23388 net.cpp:150] Setting up fc3_Oval_Face
I1025 11:36:51.461694 23388 net.cpp:157] Top shape: 70 2 (140)
I1025 11:36:51.461697 23388 net.cpp:165] Memory required for data: 2806828136
I1025 11:36:51.461704 23388 layer_factory.hpp:77] Creating layer loss_Oval_Face
I1025 11:36:51.461711 23388 net.cpp:106] Creating Layer loss_Oval_Face
I1025 11:36:51.461717 23388 net.cpp:454] loss_Oval_Face <- fc3_Oval_Face
I1025 11:36:51.461724 23388 net.cpp:454] loss_Oval_Face <- label_Oval_Face
I1025 11:36:51.461729 23388 net.cpp:411] loss_Oval_Face -> loss_Oval_Face
I1025 11:36:51.461777 23388 net.cpp:150] Setting up loss_Oval_Face
I1025 11:36:51.461786 23388 net.cpp:157] Top shape: (1)
I1025 11:36:51.461791 23388 net.cpp:160]     with loss weight 1
I1025 11:36:51.461796 23388 net.cpp:165] Memory required for data: 2806828140
I1025 11:36:51.461801 23388 layer_factory.hpp:77] Creating layer fc3_Pale_Skin
I1025 11:36:51.461808 23388 net.cpp:106] Creating Layer fc3_Pale_Skin
I1025 11:36:51.461813 23388 net.cpp:454] fc3_Pale_Skin <- fc2_face_drop2_face_0_split_3
I1025 11:36:51.461832 23388 net.cpp:411] fc3_Pale_Skin -> fc3_Pale_Skin
I1025 11:36:51.461974 23388 net.cpp:150] Setting up fc3_Pale_Skin
I1025 11:36:51.461984 23388 net.cpp:157] Top shape: 70 2 (140)
I1025 11:36:51.461988 23388 net.cpp:165] Memory required for data: 2806828700
I1025 11:36:51.461994 23388 layer_factory.hpp:77] Creating layer loss_Pale_Skin
I1025 11:36:51.462003 23388 net.cpp:106] Creating Layer loss_Pale_Skin
I1025 11:36:51.462009 23388 net.cpp:454] loss_Pale_Skin <- fc3_Pale_Skin
I1025 11:36:51.462014 23388 net.cpp:454] loss_Pale_Skin <- label_Pale_Skin
I1025 11:36:51.462019 23388 net.cpp:411] loss_Pale_Skin -> loss_Pale_Skin
I1025 11:36:51.462072 23388 net.cpp:150] Setting up loss_Pale_Skin
I1025 11:36:51.462081 23388 net.cpp:157] Top shape: (1)
I1025 11:36:51.462085 23388 net.cpp:160]     with loss weight 1
I1025 11:36:51.462091 23388 net.cpp:165] Memory required for data: 2806828704
I1025 11:36:51.462095 23388 layer_factory.hpp:77] Creating layer fc3_Young
I1025 11:36:51.462101 23388 net.cpp:106] Creating Layer fc3_Young
I1025 11:36:51.462106 23388 net.cpp:454] fc3_Young <- fc2_face_drop2_face_0_split_4
I1025 11:36:51.462116 23388 net.cpp:411] fc3_Young -> fc3_Young
I1025 11:36:51.462260 23388 net.cpp:150] Setting up fc3_Young
I1025 11:36:51.462270 23388 net.cpp:157] Top shape: 70 2 (140)
I1025 11:36:51.462275 23388 net.cpp:165] Memory required for data: 2806829264
I1025 11:36:51.462280 23388 layer_factory.hpp:77] Creating layer loss_Young
I1025 11:36:51.462291 23388 net.cpp:106] Creating Layer loss_Young
I1025 11:36:51.462296 23388 net.cpp:454] loss_Young <- fc3_Young
I1025 11:36:51.462301 23388 net.cpp:454] loss_Young <- label_Young
I1025 11:36:51.462307 23388 net.cpp:411] loss_Young -> loss_Young
I1025 11:36:51.462358 23388 net.cpp:150] Setting up loss_Young
I1025 11:36:51.462366 23388 net.cpp:157] Top shape: (1)
I1025 11:36:51.462370 23388 net.cpp:160]     with loss weight 1
I1025 11:36:51.462376 23388 net.cpp:165] Memory required for data: 2806829268
I1025 11:36:51.462381 23388 layer_factory.hpp:77] Creating layer fc3_Heavy_Makeup
I1025 11:36:51.462388 23388 net.cpp:106] Creating Layer fc3_Heavy_Makeup
I1025 11:36:51.462393 23388 net.cpp:454] fc3_Heavy_Makeup <- fc2_face_drop2_face_0_split_5
I1025 11:36:51.462400 23388 net.cpp:411] fc3_Heavy_Makeup -> fc3_Heavy_Makeup
I1025 11:36:51.462543 23388 net.cpp:150] Setting up fc3_Heavy_Makeup
I1025 11:36:51.462553 23388 net.cpp:157] Top shape: 70 2 (140)
I1025 11:36:51.462555 23388 net.cpp:165] Memory required for data: 2806829828
I1025 11:36:51.462561 23388 layer_factory.hpp:77] Creating layer loss_Heavy_Makeup
I1025 11:36:51.462571 23388 net.cpp:106] Creating Layer loss_Heavy_Makeup
I1025 11:36:51.462576 23388 net.cpp:454] loss_Heavy_Makeup <- fc3_Heavy_Makeup
I1025 11:36:51.462581 23388 net.cpp:454] loss_Heavy_Makeup <- label_Heavy_Makeup
I1025 11:36:51.462587 23388 net.cpp:411] loss_Heavy_Makeup -> loss_Heavy_Makeup
I1025 11:36:51.462636 23388 net.cpp:150] Setting up loss_Heavy_Makeup
I1025 11:36:51.462646 23388 net.cpp:157] Top shape: (1)
I1025 11:36:51.462649 23388 net.cpp:160]     with loss weight 1
I1025 11:36:51.462654 23388 net.cpp:165] Memory required for data: 2806829832
I1025 11:36:51.462658 23388 layer_factory.hpp:77] Creating layer fc3_Black_Hair
I1025 11:36:51.462666 23388 net.cpp:106] Creating Layer fc3_Black_Hair
I1025 11:36:51.462671 23388 net.cpp:454] fc3_Black_Hair <- fc2_aroundhead_drop2_aroundhead_0_split_0
I1025 11:36:51.462679 23388 net.cpp:411] fc3_Black_Hair -> fc3_Black_Hair
I1025 11:36:51.462821 23388 net.cpp:150] Setting up fc3_Black_Hair
I1025 11:36:51.462831 23388 net.cpp:157] Top shape: 70 2 (140)
I1025 11:36:51.462833 23388 net.cpp:165] Memory required for data: 2806830392
I1025 11:36:51.462841 23388 layer_factory.hpp:77] Creating layer loss_Black_Hair
I1025 11:36:51.462849 23388 net.cpp:106] Creating Layer loss_Black_Hair
I1025 11:36:51.462854 23388 net.cpp:454] loss_Black_Hair <- fc3_Black_Hair
I1025 11:36:51.462859 23388 net.cpp:454] loss_Black_Hair <- label_Black_Hair
I1025 11:36:51.462865 23388 net.cpp:411] loss_Black_Hair -> loss_Black_Hair
I1025 11:36:51.462927 23388 net.cpp:150] Setting up loss_Black_Hair
I1025 11:36:51.462937 23388 net.cpp:157] Top shape: (1)
I1025 11:36:51.462941 23388 net.cpp:160]     with loss weight 1
I1025 11:36:51.462946 23388 net.cpp:165] Memory required for data: 2806830396
I1025 11:36:51.462951 23388 layer_factory.hpp:77] Creating layer fc3_Blond_Hair
I1025 11:36:51.462960 23388 net.cpp:106] Creating Layer fc3_Blond_Hair
I1025 11:36:51.462963 23388 net.cpp:454] fc3_Blond_Hair <- fc2_aroundhead_drop2_aroundhead_0_split_1
I1025 11:36:51.462971 23388 net.cpp:411] fc3_Blond_Hair -> fc3_Blond_Hair
I1025 11:36:51.463115 23388 net.cpp:150] Setting up fc3_Blond_Hair
I1025 11:36:51.463125 23388 net.cpp:157] Top shape: 70 2 (140)
I1025 11:36:51.463129 23388 net.cpp:165] Memory required for data: 2806830956
I1025 11:36:51.463135 23388 layer_factory.hpp:77] Creating layer loss_Blond_Hair
I1025 11:36:51.463147 23388 net.cpp:106] Creating Layer loss_Blond_Hair
I1025 11:36:51.463152 23388 net.cpp:454] loss_Blond_Hair <- fc3_Blond_Hair
I1025 11:36:51.463157 23388 net.cpp:454] loss_Blond_Hair <- label_Blond_Hair
I1025 11:36:51.463162 23388 net.cpp:411] loss_Blond_Hair -> loss_Blond_Hair
I1025 11:36:51.463212 23388 net.cpp:150] Setting up loss_Blond_Hair
I1025 11:36:51.463222 23388 net.cpp:157] Top shape: (1)
I1025 11:36:51.463224 23388 net.cpp:160]     with loss weight 1
I1025 11:36:51.463230 23388 net.cpp:165] Memory required for data: 2806830960
I1025 11:36:51.463234 23388 layer_factory.hpp:77] Creating layer fc3_Brown_Hair
I1025 11:36:51.463241 23388 net.cpp:106] Creating Layer fc3_Brown_Hair
I1025 11:36:51.463245 23388 net.cpp:454] fc3_Brown_Hair <- fc2_aroundhead_drop2_aroundhead_0_split_2
I1025 11:36:51.463254 23388 net.cpp:411] fc3_Brown_Hair -> fc3_Brown_Hair
I1025 11:36:51.463397 23388 net.cpp:150] Setting up fc3_Brown_Hair
I1025 11:36:51.463407 23388 net.cpp:157] Top shape: 70 2 (140)
I1025 11:36:51.463410 23388 net.cpp:165] Memory required for data: 2806831520
I1025 11:36:51.463418 23388 layer_factory.hpp:77] Creating layer loss_Brown_Hair
I1025 11:36:51.463428 23388 net.cpp:106] Creating Layer loss_Brown_Hair
I1025 11:36:51.463433 23388 net.cpp:454] loss_Brown_Hair <- fc3_Brown_Hair
I1025 11:36:51.463438 23388 net.cpp:454] loss_Brown_Hair <- label_Brown_Hair
I1025 11:36:51.463443 23388 net.cpp:411] loss_Brown_Hair -> loss_Brown_Hair
I1025 11:36:51.463493 23388 net.cpp:150] Setting up loss_Brown_Hair
I1025 11:36:51.463501 23388 net.cpp:157] Top shape: (1)
I1025 11:36:51.463505 23388 net.cpp:160]     with loss weight 1
I1025 11:36:51.463511 23388 net.cpp:165] Memory required for data: 2806831524
I1025 11:36:51.463515 23388 layer_factory.hpp:77] Creating layer fc3_Gray_Hair
I1025 11:36:51.463523 23388 net.cpp:106] Creating Layer fc3_Gray_Hair
I1025 11:36:51.463527 23388 net.cpp:454] fc3_Gray_Hair <- fc2_aroundhead_drop2_aroundhead_0_split_3
I1025 11:36:51.463536 23388 net.cpp:411] fc3_Gray_Hair -> fc3_Gray_Hair
I1025 11:36:51.463676 23388 net.cpp:150] Setting up fc3_Gray_Hair
I1025 11:36:51.463686 23388 net.cpp:157] Top shape: 70 2 (140)
I1025 11:36:51.463690 23388 net.cpp:165] Memory required for data: 2806832084
I1025 11:36:51.463696 23388 layer_factory.hpp:77] Creating layer loss_Gray_Hair
I1025 11:36:51.463706 23388 net.cpp:106] Creating Layer loss_Gray_Hair
I1025 11:36:51.463711 23388 net.cpp:454] loss_Gray_Hair <- fc3_Gray_Hair
I1025 11:36:51.463716 23388 net.cpp:454] loss_Gray_Hair <- label_Gray_Hair
I1025 11:36:51.463721 23388 net.cpp:411] loss_Gray_Hair -> loss_Gray_Hair
I1025 11:36:51.463781 23388 net.cpp:150] Setting up loss_Gray_Hair
I1025 11:36:51.463791 23388 net.cpp:157] Top shape: (1)
I1025 11:36:51.463795 23388 net.cpp:160]     with loss weight 1
I1025 11:36:51.463801 23388 net.cpp:165] Memory required for data: 2806832088
I1025 11:36:51.463805 23388 layer_factory.hpp:77] Creating layer fc3_Wearing_Earrings
I1025 11:36:51.463812 23388 net.cpp:106] Creating Layer fc3_Wearing_Earrings
I1025 11:36:51.463816 23388 net.cpp:454] fc3_Wearing_Earrings <- fc2_aroundhead_drop2_aroundhead_0_split_4
I1025 11:36:51.463837 23388 net.cpp:411] fc3_Wearing_Earrings -> fc3_Wearing_Earrings
I1025 11:36:51.463985 23388 net.cpp:150] Setting up fc3_Wearing_Earrings
I1025 11:36:51.463995 23388 net.cpp:157] Top shape: 70 2 (140)
I1025 11:36:51.463999 23388 net.cpp:165] Memory required for data: 2806832648
I1025 11:36:51.464006 23388 layer_factory.hpp:77] Creating layer loss_Wearing_Earrings
I1025 11:36:51.464020 23388 net.cpp:106] Creating Layer loss_Wearing_Earrings
I1025 11:36:51.464025 23388 net.cpp:454] loss_Wearing_Earrings <- fc3_Wearing_Earrings
I1025 11:36:51.464031 23388 net.cpp:454] loss_Wearing_Earrings <- label_Wearing_Earrings
I1025 11:36:51.464037 23388 net.cpp:411] loss_Wearing_Earrings -> loss_Wearing_Earrings
I1025 11:36:51.464088 23388 net.cpp:150] Setting up loss_Wearing_Earrings
I1025 11:36:51.464097 23388 net.cpp:157] Top shape: (1)
I1025 11:36:51.464100 23388 net.cpp:160]     with loss weight 1
I1025 11:36:51.464107 23388 net.cpp:165] Memory required for data: 2806832652
I1025 11:36:51.464112 23388 layer_factory.hpp:77] Creating layer fc3_Wearing_Necklace
I1025 11:36:51.464118 23388 net.cpp:106] Creating Layer fc3_Wearing_Necklace
I1025 11:36:51.464123 23388 net.cpp:454] fc3_Wearing_Necklace <- fc2_aroundhead_drop2_aroundhead_0_split_5
I1025 11:36:51.464130 23388 net.cpp:411] fc3_Wearing_Necklace -> fc3_Wearing_Necklace
I1025 11:36:51.464273 23388 net.cpp:150] Setting up fc3_Wearing_Necklace
I1025 11:36:51.464283 23388 net.cpp:157] Top shape: 70 2 (140)
I1025 11:36:51.464287 23388 net.cpp:165] Memory required for data: 2806833212
I1025 11:36:51.464293 23388 layer_factory.hpp:77] Creating layer loss_Wearing_Necklace
I1025 11:36:51.464303 23388 net.cpp:106] Creating Layer loss_Wearing_Necklace
I1025 11:36:51.464308 23388 net.cpp:454] loss_Wearing_Necklace <- fc3_Wearing_Necklace
I1025 11:36:51.464313 23388 net.cpp:454] loss_Wearing_Necklace <- label_Wearing_Necklace
I1025 11:36:51.464319 23388 net.cpp:411] loss_Wearing_Necklace -> loss_Wearing_Necklace
I1025 11:36:51.464368 23388 net.cpp:150] Setting up loss_Wearing_Necklace
I1025 11:36:51.464377 23388 net.cpp:157] Top shape: (1)
I1025 11:36:51.464380 23388 net.cpp:160]     with loss weight 1
I1025 11:36:51.464386 23388 net.cpp:165] Memory required for data: 2806833216
I1025 11:36:51.464390 23388 layer_factory.hpp:77] Creating layer fc3_Wearing_Necktie
I1025 11:36:51.464398 23388 net.cpp:106] Creating Layer fc3_Wearing_Necktie
I1025 11:36:51.464402 23388 net.cpp:454] fc3_Wearing_Necktie <- fc2_aroundhead_drop2_aroundhead_0_split_6
I1025 11:36:51.464411 23388 net.cpp:411] fc3_Wearing_Necktie -> fc3_Wearing_Necktie
I1025 11:36:51.464553 23388 net.cpp:150] Setting up fc3_Wearing_Necktie
I1025 11:36:51.464563 23388 net.cpp:157] Top shape: 70 2 (140)
I1025 11:36:51.464567 23388 net.cpp:165] Memory required for data: 2806833776
I1025 11:36:51.464573 23388 layer_factory.hpp:77] Creating layer loss_Wearing_Necktie
I1025 11:36:51.464584 23388 net.cpp:106] Creating Layer loss_Wearing_Necktie
I1025 11:36:51.464588 23388 net.cpp:454] loss_Wearing_Necktie <- fc3_Wearing_Necktie
I1025 11:36:51.464594 23388 net.cpp:454] loss_Wearing_Necktie <- label_Wearing_Necktie
I1025 11:36:51.464599 23388 net.cpp:411] loss_Wearing_Necktie -> loss_Wearing_Necktie
I1025 11:36:51.464650 23388 net.cpp:150] Setting up loss_Wearing_Necktie
I1025 11:36:51.464658 23388 net.cpp:157] Top shape: (1)
I1025 11:36:51.464663 23388 net.cpp:160]     with loss weight 1
I1025 11:36:51.464668 23388 net.cpp:165] Memory required for data: 2806833780
I1025 11:36:51.464673 23388 layer_factory.hpp:77] Creating layer fc3_Bald
I1025 11:36:51.464679 23388 net.cpp:106] Creating Layer fc3_Bald
I1025 11:36:51.464684 23388 net.cpp:454] fc3_Bald <- fc2_aroundhead_drop2_aroundhead_0_split_7
I1025 11:36:51.464691 23388 net.cpp:411] fc3_Bald -> fc3_Bald
I1025 11:36:51.464833 23388 net.cpp:150] Setting up fc3_Bald
I1025 11:36:51.464843 23388 net.cpp:157] Top shape: 70 2 (140)
I1025 11:36:51.464848 23388 net.cpp:165] Memory required for data: 2806834340
I1025 11:36:51.464854 23388 layer_factory.hpp:77] Creating layer loss_Bald
I1025 11:36:51.464875 23388 net.cpp:106] Creating Layer loss_Bald
I1025 11:36:51.464880 23388 net.cpp:454] loss_Bald <- fc3_Bald
I1025 11:36:51.464885 23388 net.cpp:454] loss_Bald <- label_Bald
I1025 11:36:51.464891 23388 net.cpp:411] loss_Bald -> loss_Bald
I1025 11:36:51.464944 23388 net.cpp:150] Setting up loss_Bald
I1025 11:36:51.464953 23388 net.cpp:157] Top shape: (1)
I1025 11:36:51.464957 23388 net.cpp:160]     with loss weight 1
I1025 11:36:51.464963 23388 net.cpp:165] Memory required for data: 2806834344
I1025 11:36:51.464967 23388 layer_factory.hpp:77] Creating layer fc3_Receding_Hairline
I1025 11:36:51.464973 23388 net.cpp:106] Creating Layer fc3_Receding_Hairline
I1025 11:36:51.464978 23388 net.cpp:454] fc3_Receding_Hairline <- fc2_aroundhead_drop2_aroundhead_0_split_8
I1025 11:36:51.464987 23388 net.cpp:411] fc3_Receding_Hairline -> fc3_Receding_Hairline
I1025 11:36:51.465132 23388 net.cpp:150] Setting up fc3_Receding_Hairline
I1025 11:36:51.465142 23388 net.cpp:157] Top shape: 70 2 (140)
I1025 11:36:51.465147 23388 net.cpp:165] Memory required for data: 2806834904
I1025 11:36:51.465152 23388 layer_factory.hpp:77] Creating layer loss_Receding_Hairline
I1025 11:36:51.465163 23388 net.cpp:106] Creating Layer loss_Receding_Hairline
I1025 11:36:51.465168 23388 net.cpp:454] loss_Receding_Hairline <- fc3_Receding_Hairline
I1025 11:36:51.465173 23388 net.cpp:454] loss_Receding_Hairline <- label_Receding_Hairline
I1025 11:36:51.465179 23388 net.cpp:411] loss_Receding_Hairline -> loss_Receding_Hairline
I1025 11:36:51.465229 23388 net.cpp:150] Setting up loss_Receding_Hairline
I1025 11:36:51.465239 23388 net.cpp:157] Top shape: (1)
I1025 11:36:51.465242 23388 net.cpp:160]     with loss weight 1
I1025 11:36:51.465248 23388 net.cpp:165] Memory required for data: 2806834908
I1025 11:36:51.465253 23388 layer_factory.hpp:77] Creating layer fc3_Bangs
I1025 11:36:51.465261 23388 net.cpp:106] Creating Layer fc3_Bangs
I1025 11:36:51.465265 23388 net.cpp:454] fc3_Bangs <- fc2_aroundhead_drop2_aroundhead_0_split_9
I1025 11:36:51.465273 23388 net.cpp:411] fc3_Bangs -> fc3_Bangs
I1025 11:36:51.465416 23388 net.cpp:150] Setting up fc3_Bangs
I1025 11:36:51.465426 23388 net.cpp:157] Top shape: 70 2 (140)
I1025 11:36:51.465430 23388 net.cpp:165] Memory required for data: 2806835468
I1025 11:36:51.465436 23388 layer_factory.hpp:77] Creating layer loss_Bangs
I1025 11:36:51.465451 23388 net.cpp:106] Creating Layer loss_Bangs
I1025 11:36:51.465456 23388 net.cpp:454] loss_Bangs <- fc3_Bangs
I1025 11:36:51.465461 23388 net.cpp:454] loss_Bangs <- label_Bangs
I1025 11:36:51.465466 23388 net.cpp:411] loss_Bangs -> loss_Bangs
I1025 11:36:51.465515 23388 net.cpp:150] Setting up loss_Bangs
I1025 11:36:51.465524 23388 net.cpp:157] Top shape: (1)
I1025 11:36:51.465528 23388 net.cpp:160]     with loss weight 1
I1025 11:36:51.465534 23388 net.cpp:165] Memory required for data: 2806835472
I1025 11:36:51.465539 23388 layer_factory.hpp:77] Creating layer fc3_Wearing_Hat
I1025 11:36:51.465545 23388 net.cpp:106] Creating Layer fc3_Wearing_Hat
I1025 11:36:51.465550 23388 net.cpp:454] fc3_Wearing_Hat <- fc2_aroundhead_drop2_aroundhead_0_split_10
I1025 11:36:51.465559 23388 net.cpp:411] fc3_Wearing_Hat -> fc3_Wearing_Hat
I1025 11:36:51.465701 23388 net.cpp:150] Setting up fc3_Wearing_Hat
I1025 11:36:51.465710 23388 net.cpp:157] Top shape: 70 2 (140)
I1025 11:36:51.465714 23388 net.cpp:165] Memory required for data: 2806836032
I1025 11:36:51.465721 23388 layer_factory.hpp:77] Creating layer loss_Wearing_Hat
I1025 11:36:51.465733 23388 net.cpp:106] Creating Layer loss_Wearing_Hat
I1025 11:36:51.465737 23388 net.cpp:454] loss_Wearing_Hat <- fc3_Wearing_Hat
I1025 11:36:51.465744 23388 net.cpp:454] loss_Wearing_Hat <- label_Wearing_Hat
I1025 11:36:51.465749 23388 net.cpp:411] loss_Wearing_Hat -> loss_Wearing_Hat
I1025 11:36:51.465800 23388 net.cpp:150] Setting up loss_Wearing_Hat
I1025 11:36:51.465808 23388 net.cpp:157] Top shape: (1)
I1025 11:36:51.465812 23388 net.cpp:160]     with loss weight 1
I1025 11:36:51.465818 23388 net.cpp:165] Memory required for data: 2806836036
I1025 11:36:51.465831 23388 layer_factory.hpp:77] Creating layer fc3_Straight_Hair
I1025 11:36:51.465839 23388 net.cpp:106] Creating Layer fc3_Straight_Hair
I1025 11:36:51.465844 23388 net.cpp:454] fc3_Straight_Hair <- fc2_aroundhead_drop2_aroundhead_0_split_11
I1025 11:36:51.465852 23388 net.cpp:411] fc3_Straight_Hair -> fc3_Straight_Hair
I1025 11:36:51.466001 23388 net.cpp:150] Setting up fc3_Straight_Hair
I1025 11:36:51.466012 23388 net.cpp:157] Top shape: 70 2 (140)
I1025 11:36:51.466017 23388 net.cpp:165] Memory required for data: 2806836596
I1025 11:36:51.466022 23388 layer_factory.hpp:77] Creating layer loss_Straight_Hair
I1025 11:36:51.466032 23388 net.cpp:106] Creating Layer loss_Straight_Hair
I1025 11:36:51.466037 23388 net.cpp:454] loss_Straight_Hair <- fc3_Straight_Hair
I1025 11:36:51.466042 23388 net.cpp:454] loss_Straight_Hair <- label_Straight_Hair
I1025 11:36:51.466048 23388 net.cpp:411] loss_Straight_Hair -> loss_Straight_Hair
I1025 11:36:51.466100 23388 net.cpp:150] Setting up loss_Straight_Hair
I1025 11:36:51.466109 23388 net.cpp:157] Top shape: (1)
I1025 11:36:51.466114 23388 net.cpp:160]     with loss weight 1
I1025 11:36:51.466120 23388 net.cpp:165] Memory required for data: 2806836600
I1025 11:36:51.466122 23388 layer_factory.hpp:77] Creating layer fc3_Wavy_Hair
I1025 11:36:51.466131 23388 net.cpp:106] Creating Layer fc3_Wavy_Hair
I1025 11:36:51.466135 23388 net.cpp:454] fc3_Wavy_Hair <- fc2_aroundhead_drop2_aroundhead_0_split_12
I1025 11:36:51.466145 23388 net.cpp:411] fc3_Wavy_Hair -> fc3_Wavy_Hair
I1025 11:36:51.466289 23388 net.cpp:150] Setting up fc3_Wavy_Hair
I1025 11:36:51.466300 23388 net.cpp:157] Top shape: 70 2 (140)
I1025 11:36:51.466303 23388 net.cpp:165] Memory required for data: 2806837160
I1025 11:36:51.466310 23388 layer_factory.hpp:77] Creating layer loss_Wavy_Hair
I1025 11:36:51.466321 23388 net.cpp:106] Creating Layer loss_Wavy_Hair
I1025 11:36:51.466325 23388 net.cpp:454] loss_Wavy_Hair <- fc3_Wavy_Hair
I1025 11:36:51.466331 23388 net.cpp:454] loss_Wavy_Hair <- label_Wavy_Hair
I1025 11:36:51.466336 23388 net.cpp:411] loss_Wavy_Hair -> loss_Wavy_Hair
I1025 11:36:51.466387 23388 net.cpp:150] Setting up loss_Wavy_Hair
I1025 11:36:51.466397 23388 net.cpp:157] Top shape: (1)
I1025 11:36:51.466400 23388 net.cpp:160]     with loss weight 1
I1025 11:36:51.466406 23388 net.cpp:165] Memory required for data: 2806837164
I1025 11:36:51.466410 23388 layer_factory.hpp:77] Creating layer fc3_5_o_Clock_Shadow
I1025 11:36:51.466416 23388 net.cpp:106] Creating Layer fc3_5_o_Clock_Shadow
I1025 11:36:51.466421 23388 net.cpp:454] fc3_5_o_Clock_Shadow <- fc2_facialhair_drop2_facialhair_0_split_0
I1025 11:36:51.466429 23388 net.cpp:411] fc3_5_o_Clock_Shadow -> fc3_5_o_Clock_Shadow
I1025 11:36:51.466572 23388 net.cpp:150] Setting up fc3_5_o_Clock_Shadow
I1025 11:36:51.466583 23388 net.cpp:157] Top shape: 70 2 (140)
I1025 11:36:51.466585 23388 net.cpp:165] Memory required for data: 2806837724
I1025 11:36:51.466593 23388 layer_factory.hpp:77] Creating layer loss_5_o_Clock_Shadow
I1025 11:36:51.466603 23388 net.cpp:106] Creating Layer loss_5_o_Clock_Shadow
I1025 11:36:51.466608 23388 net.cpp:454] loss_5_o_Clock_Shadow <- fc3_5_o_Clock_Shadow
I1025 11:36:51.466614 23388 net.cpp:454] loss_5_o_Clock_Shadow <- label_5_o_Clock_Shadow
I1025 11:36:51.466619 23388 net.cpp:411] loss_5_o_Clock_Shadow -> loss_5_o_Clock_Shadow
I1025 11:36:51.466670 23388 net.cpp:150] Setting up loss_5_o_Clock_Shadow
I1025 11:36:51.466678 23388 net.cpp:157] Top shape: (1)
I1025 11:36:51.466681 23388 net.cpp:160]     with loss weight 1
I1025 11:36:51.466687 23388 net.cpp:165] Memory required for data: 2806837728
I1025 11:36:51.466691 23388 layer_factory.hpp:77] Creating layer fc3_Mustache
I1025 11:36:51.466697 23388 net.cpp:106] Creating Layer fc3_Mustache
I1025 11:36:51.466702 23388 net.cpp:454] fc3_Mustache <- fc2_facialhair_drop2_facialhair_0_split_1
I1025 11:36:51.466711 23388 net.cpp:411] fc3_Mustache -> fc3_Mustache
I1025 11:36:51.466856 23388 net.cpp:150] Setting up fc3_Mustache
I1025 11:36:51.466866 23388 net.cpp:157] Top shape: 70 2 (140)
I1025 11:36:51.466879 23388 net.cpp:165] Memory required for data: 2806838288
I1025 11:36:51.466887 23388 layer_factory.hpp:77] Creating layer loss_Mustache
I1025 11:36:51.466898 23388 net.cpp:106] Creating Layer loss_Mustache
I1025 11:36:51.466903 23388 net.cpp:454] loss_Mustache <- fc3_Mustache
I1025 11:36:51.466908 23388 net.cpp:454] loss_Mustache <- label_Mustache
I1025 11:36:51.466914 23388 net.cpp:411] loss_Mustache -> loss_Mustache
I1025 11:36:51.466969 23388 net.cpp:150] Setting up loss_Mustache
I1025 11:36:51.466977 23388 net.cpp:157] Top shape: (1)
I1025 11:36:51.466981 23388 net.cpp:160]     with loss weight 1
I1025 11:36:51.466987 23388 net.cpp:165] Memory required for data: 2806838292
I1025 11:36:51.466991 23388 layer_factory.hpp:77] Creating layer fc3_No_Beard
I1025 11:36:51.467000 23388 net.cpp:106] Creating Layer fc3_No_Beard
I1025 11:36:51.467005 23388 net.cpp:454] fc3_No_Beard <- fc2_facialhair_drop2_facialhair_0_split_2
I1025 11:36:51.467012 23388 net.cpp:411] fc3_No_Beard -> fc3_No_Beard
I1025 11:36:51.467159 23388 net.cpp:150] Setting up fc3_No_Beard
I1025 11:36:51.467170 23388 net.cpp:157] Top shape: 70 2 (140)
I1025 11:36:51.467172 23388 net.cpp:165] Memory required for data: 2806838852
I1025 11:36:51.467180 23388 layer_factory.hpp:77] Creating layer loss_No_Beard
I1025 11:36:51.467191 23388 net.cpp:106] Creating Layer loss_No_Beard
I1025 11:36:51.467196 23388 net.cpp:454] loss_No_Beard <- fc3_No_Beard
I1025 11:36:51.467201 23388 net.cpp:454] loss_No_Beard <- label_No_Beard
I1025 11:36:51.467207 23388 net.cpp:411] loss_No_Beard -> loss_No_Beard
I1025 11:36:51.467257 23388 net.cpp:150] Setting up loss_No_Beard
I1025 11:36:51.467267 23388 net.cpp:157] Top shape: (1)
I1025 11:36:51.467270 23388 net.cpp:160]     with loss weight 1
I1025 11:36:51.467275 23388 net.cpp:165] Memory required for data: 2806838856
I1025 11:36:51.467279 23388 layer_factory.hpp:77] Creating layer fc3_Sideburns
I1025 11:36:51.467285 23388 net.cpp:106] Creating Layer fc3_Sideburns
I1025 11:36:51.467290 23388 net.cpp:454] fc3_Sideburns <- fc2_facialhair_drop2_facialhair_0_split_3
I1025 11:36:51.467299 23388 net.cpp:411] fc3_Sideburns -> fc3_Sideburns
I1025 11:36:51.467442 23388 net.cpp:150] Setting up fc3_Sideburns
I1025 11:36:51.467453 23388 net.cpp:157] Top shape: 70 2 (140)
I1025 11:36:51.467455 23388 net.cpp:165] Memory required for data: 2806839416
I1025 11:36:51.467461 23388 layer_factory.hpp:77] Creating layer loss_Sideburns
I1025 11:36:51.467473 23388 net.cpp:106] Creating Layer loss_Sideburns
I1025 11:36:51.467478 23388 net.cpp:454] loss_Sideburns <- fc3_Sideburns
I1025 11:36:51.467483 23388 net.cpp:454] loss_Sideburns <- label_Sideburns
I1025 11:36:51.467489 23388 net.cpp:411] loss_Sideburns -> loss_Sideburns
I1025 11:36:51.467538 23388 net.cpp:150] Setting up loss_Sideburns
I1025 11:36:51.467547 23388 net.cpp:157] Top shape: (1)
I1025 11:36:51.467551 23388 net.cpp:160]     with loss weight 1
I1025 11:36:51.467557 23388 net.cpp:165] Memory required for data: 2806839420
I1025 11:36:51.467561 23388 layer_factory.hpp:77] Creating layer fc3_Goatee
I1025 11:36:51.467567 23388 net.cpp:106] Creating Layer fc3_Goatee
I1025 11:36:51.467572 23388 net.cpp:454] fc3_Goatee <- fc2_facialhair_drop2_facialhair_0_split_4
I1025 11:36:51.467581 23388 net.cpp:411] fc3_Goatee -> fc3_Goatee
I1025 11:36:51.467722 23388 net.cpp:150] Setting up fc3_Goatee
I1025 11:36:51.467731 23388 net.cpp:157] Top shape: 70 2 (140)
I1025 11:36:51.467736 23388 net.cpp:165] Memory required for data: 2806839980
I1025 11:36:51.467741 23388 layer_factory.hpp:77] Creating layer loss_Goatee
I1025 11:36:51.467752 23388 net.cpp:106] Creating Layer loss_Goatee
I1025 11:36:51.467757 23388 net.cpp:454] loss_Goatee <- fc3_Goatee
I1025 11:36:51.467762 23388 net.cpp:454] loss_Goatee <- label_Goatee
I1025 11:36:51.467777 23388 net.cpp:411] loss_Goatee -> loss_Goatee
I1025 11:36:51.467829 23388 net.cpp:150] Setting up loss_Goatee
I1025 11:36:51.467836 23388 net.cpp:157] Top shape: (1)
I1025 11:36:51.467840 23388 net.cpp:160]     with loss weight 1
I1025 11:36:51.467857 23388 net.cpp:165] Memory required for data: 2806839984
I1025 11:36:51.467862 23388 layer_factory.hpp:77] Creating layer fc3_High_Cheekbones
I1025 11:36:51.467869 23388 net.cpp:106] Creating Layer fc3_High_Cheekbones
I1025 11:36:51.467875 23388 net.cpp:454] fc3_High_Cheekbones <- fc2_cheeks_drop2_cheeks_0_split_0
I1025 11:36:51.467885 23388 net.cpp:411] fc3_High_Cheekbones -> fc3_High_Cheekbones
I1025 11:36:51.468032 23388 net.cpp:150] Setting up fc3_High_Cheekbones
I1025 11:36:51.468044 23388 net.cpp:157] Top shape: 70 2 (140)
I1025 11:36:51.468047 23388 net.cpp:165] Memory required for data: 2806840544
I1025 11:36:51.468055 23388 layer_factory.hpp:77] Creating layer loss_High_Cheekbones
I1025 11:36:51.468071 23388 net.cpp:106] Creating Layer loss_High_Cheekbones
I1025 11:36:51.468076 23388 net.cpp:454] loss_High_Cheekbones <- fc3_High_Cheekbones
I1025 11:36:51.468081 23388 net.cpp:454] loss_High_Cheekbones <- label_High_Cheekbones
I1025 11:36:51.468087 23388 net.cpp:411] loss_High_Cheekbones -> loss_High_Cheekbones
I1025 11:36:51.468139 23388 net.cpp:150] Setting up loss_High_Cheekbones
I1025 11:36:51.468149 23388 net.cpp:157] Top shape: (1)
I1025 11:36:51.468152 23388 net.cpp:160]     with loss weight 1
I1025 11:36:51.468158 23388 net.cpp:165] Memory required for data: 2806840548
I1025 11:36:51.468163 23388 layer_factory.hpp:77] Creating layer fc3_Rosy_Cheeks
I1025 11:36:51.468169 23388 net.cpp:106] Creating Layer fc3_Rosy_Cheeks
I1025 11:36:51.468174 23388 net.cpp:454] fc3_Rosy_Cheeks <- fc2_cheeks_drop2_cheeks_0_split_1
I1025 11:36:51.468183 23388 net.cpp:411] fc3_Rosy_Cheeks -> fc3_Rosy_Cheeks
…
I1025 11:36:52.655726 23388 net.cpp:157] Top shape: (1)
I1025 11:36:52.655730 23388 net.cpp:160]     with loss weight 1
I1025 11:36:52.655743 23388 net.cpp:165] Memory required for data: 2566236676
I1025 11:36:52.655747 23388 layer_factory.hpp:77] Creating layer fc3_Big_Nose
I1025 11:36:52.655753 23388 net.cpp:106] Creating Layer fc3_Big_Nose
I1025 11:36:52.655757 23388 net.cpp:454] fc3_Big_Nose <- fc2_nose_drop2_nose_0_split_0
I1025 11:36:52.655763 23388 net.cpp:411] fc3_Big_Nose -> fc3_Big_Nose
I1025 11:36:52.655951 23388 net.cpp:150] Setting up fc3_Big_Nose
I1025 11:36:52.655961 23388 net.cpp:157] Top shape: 64 2 (128)
I1025 11:36:52.655964 23388 net.cpp:165] Memory required for data: 2566237188
I1025 11:36:52.655971 23388 layer_factory.hpp:77] Creating layer loss_Big_Nose
I1025 11:36:52.655978 23388 net.cpp:106] Creating Layer loss_Big_Nose
I1025 11:36:52.655982 23388 net.cpp:454] loss_Big_Nose <- fc3_Big_Nose
I1025 11:36:52.655987 23388 net.cpp:454] loss_Big_Nose <- label_Big_Nose
I1025 11:36:52.655993 23388 net.cpp:411] loss_Big_Nose -> loss_Big_Nose
I1025 11:36:52.656049 23388 net.cpp:150] Setting up loss_Big_Nose
I1025 11:36:52.656057 23388 net.cpp:157] Top shape: (1)
I1025 11:36:52.656061 23388 net.cpp:160]     with loss weight 1
I1025 11:36:52.656066 23388 net.cpp:165] Memory required for data: 2566237192
I1025 11:36:52.656070 23388 layer_factory.hpp:77] Creating layer fc3_Pointy_Nose
I1025 11:36:52.656078 23388 net.cpp:106] Creating Layer fc3_Pointy_Nose
I1025 11:36:52.656083 23388 net.cpp:454] fc3_Pointy_Nose <- fc2_nose_drop2_nose_0_split_1
I1025 11:36:52.656090 23388 net.cpp:411] fc3_Pointy_Nose -> fc3_Pointy_Nose
I1025 11:36:52.656255 23388 net.cpp:150] Setting up fc3_Pointy_Nose
I1025 11:36:52.656265 23388 net.cpp:157] Top shape: 64 2 (128)
I1025 11:36:52.656267 23388 net.cpp:165] Memory required for data: 2566237704
I1025 11:36:52.656296 23388 layer_factory.hpp:77] Creating layer loss_Pointy_Nose
I1025 11:36:52.656309 23388 net.cpp:106] Creating Layer loss_Pointy_Nose
I1025 11:36:52.656314 23388 net.cpp:454] loss_Pointy_Nose <- fc3_Pointy_Nose
I1025 11:36:52.656321 23388 net.cpp:454] loss_Pointy_Nose <- label_Pointy_Nose
I1025 11:36:52.656325 23388 net.cpp:411] loss_Pointy_Nose -> loss_Pointy_Nose
I1025 11:36:52.656381 23388 net.cpp:150] Setting up loss_Pointy_Nose
I1025 11:36:52.656389 23388 net.cpp:157] Top shape: (1)
I1025 11:36:52.656393 23388 net.cpp:160]     with loss weight 1
I1025 11:36:52.656399 23388 net.cpp:165] Memory required for data: 2566237708
I1025 11:36:52.656415 23388 layer_factory.hpp:77] Creating layer fc3_Big_Lips
I1025 11:36:52.656425 23388 net.cpp:106] Creating Layer fc3_Big_Lips
I1025 11:36:52.656430 23388 net.cpp:454] fc3_Big_Lips <- fc2_mouth_drop2_mouth_0_split_0
I1025 11:36:52.656436 23388 net.cpp:411] fc3_Big_Lips -> fc3_Big_Lips
I1025 11:36:52.656595 23388 net.cpp:150] Setting up fc3_Big_Lips
I1025 11:36:52.656605 23388 net.cpp:157] Top shape: 64 2 (128)
I1025 11:36:52.656608 23388 net.cpp:165] Memory required for data: 2566238220
I1025 11:36:52.656615 23388 layer_factory.hpp:77] Creating layer loss_Big_Lips
I1025 11:36:52.656620 23388 net.cpp:106] Creating Layer loss_Big_Lips
I1025 11:36:52.656625 23388 net.cpp:454] loss_Big_Lips <- fc3_Big_Lips
I1025 11:36:52.656630 23388 net.cpp:454] loss_Big_Lips <- label_Big_Lips
I1025 11:36:52.656637 23388 net.cpp:411] loss_Big_Lips -> loss_Big_Lips
I1025 11:36:52.656692 23388 net.cpp:150] Setting up loss_Big_Lips
I1025 11:36:52.656702 23388 net.cpp:157] Top shape: (1)
I1025 11:36:52.656705 23388 net.cpp:160]     with loss weight 1
I1025 11:36:52.656711 23388 net.cpp:165] Memory required for data: 2566238224
I1025 11:36:52.656714 23388 layer_factory.hpp:77] Creating layer fc3_Smiling
I1025 11:36:52.656721 23388 net.cpp:106] Creating Layer fc3_Smiling
I1025 11:36:52.656725 23388 net.cpp:454] fc3_Smiling <- fc2_mouth_drop2_mouth_0_split_1
I1025 11:36:52.656730 23388 net.cpp:411] fc3_Smiling -> fc3_Smiling
I1025 11:36:52.656884 23388 net.cpp:150] Setting up fc3_Smiling
I1025 11:36:52.656893 23388 net.cpp:157] Top shape: 64 2 (128)
I1025 11:36:52.656898 23388 net.cpp:165] Memory required for data: 2566238736
I1025 11:36:52.656903 23388 layer_factory.hpp:77] Creating layer loss_Smiling
I1025 11:36:52.656908 23388 net.cpp:106] Creating Layer loss_Smiling
I1025 11:36:52.656913 23388 net.cpp:454] loss_Smiling <- fc3_Smiling
I1025 11:36:52.656918 23388 net.cpp:454] loss_Smiling <- label_Smiling
I1025 11:36:52.656924 23388 net.cpp:411] loss_Smiling -> loss_Smiling
I1025 11:36:52.656978 23388 net.cpp:150] Setting up loss_Smiling
I1025 11:36:52.656988 23388 net.cpp:157] Top shape: (1)
I1025 11:36:52.656992 23388 net.cpp:160]     with loss weight 1
I1025 11:36:52.656997 23388 net.cpp:165] Memory required for data: 2566238740
I1025 11:36:52.657001 23388 layer_factory.hpp:77] Creating layer fc3_Wearing_Lipstick
I1025 11:36:52.657006 23388 net.cpp:106] Creating Layer fc3_Wearing_Lipstick
I1025 11:36:52.657011 23388 net.cpp:454] fc3_Wearing_Lipstick <- fc2_mouth_drop2_mouth_0_split_2
I1025 11:36:52.657016 23388 net.cpp:411] fc3_Wearing_Lipstick -> fc3_Wearing_Lipstick
I1025 11:36:52.657174 23388 net.cpp:150] Setting up fc3_Wearing_Lipstick
I1025 11:36:52.657183 23388 net.cpp:157] Top shape: 64 2 (128)
I1025 11:36:52.657187 23388 net.cpp:165] Memory required for data: 2566239252
I1025 11:36:52.657192 23388 layer_factory.hpp:77] Creating layer loss_Wearing_Lipstick
I1025 11:36:52.657198 23388 net.cpp:106] Creating Layer loss_Wearing_Lipstick
I1025 11:36:52.657202 23388 net.cpp:454] loss_Wearing_Lipstick <- fc3_Wearing_Lipstick
I1025 11:36:52.657207 23388 net.cpp:454] loss_Wearing_Lipstick <- label_Wearing_Lipstick
I1025 11:36:52.657214 23388 net.cpp:411] loss_Wearing_Lipstick -> loss_Wearing_Lipstick
I1025 11:36:52.657270 23388 net.cpp:150] Setting up loss_Wearing_Lipstick
I1025 11:36:52.657280 23388 net.cpp:157] Top shape: (1)
I1025 11:36:52.657284 23388 net.cpp:160]     with loss weight 1
I1025 11:36:52.657289 23388 net.cpp:165] Memory required for data: 2566239256
I1025 11:36:52.657292 23388 layer_factory.hpp:77] Creating layer fc3_Mouth_Slightly_Open
I1025 11:36:52.657299 23388 net.cpp:106] Creating Layer fc3_Mouth_Slightly_Open
I1025 11:36:52.657302 23388 net.cpp:454] fc3_Mouth_Slightly_Open <- fc2_mouth_drop2_mouth_0_split_3
I1025 11:36:52.657308 23388 net.cpp:411] fc3_Mouth_Slightly_Open -> fc3_Mouth_Slightly_Open
I1025 11:36:52.657462 23388 net.cpp:150] Setting up fc3_Mouth_Slightly_Open
I1025 11:36:52.657471 23388 net.cpp:157] Top shape: 64 2 (128)
I1025 11:36:52.657474 23388 net.cpp:165] Memory required for data: 2566239768
I1025 11:36:52.657491 23388 layer_factory.hpp:77] Creating layer loss_Mouth_Slightly_Open
I1025 11:36:52.657498 23388 net.cpp:106] Creating Layer loss_Mouth_Slightly_Open
I1025 11:36:52.657502 23388 net.cpp:454] loss_Mouth_Slightly_Open <- fc3_Mouth_Slightly_Open
I1025 11:36:52.657507 23388 net.cpp:454] loss_Mouth_Slightly_Open <- label_Mouth_Slightly_Open
I1025 11:36:52.657515 23388 net.cpp:411] loss_Mouth_Slightly_Open -> loss_Mouth_Slightly_Open
I1025 11:36:52.657573 23388 net.cpp:150] Setting up loss_Mouth_Slightly_Open
I1025 11:36:52.657582 23388 net.cpp:157] Top shape: (1)
I1025 11:36:52.657585 23388 net.cpp:160]     with loss weight 1
I1025 11:36:52.657590 23388 net.cpp:165] Memory required for data: 2566239772
I1025 11:36:52.657594 23388 layer_factory.hpp:77] Creating layer fc3_Arched_Eyebrows
I1025 11:36:52.657601 23388 net.cpp:106] Creating Layer fc3_Arched_Eyebrows
I1025 11:36:52.657606 23388 net.cpp:454] fc3_Arched_Eyebrows <- fc2_eyes_drop2_eyes_0_split_0
I1025 11:36:52.657613 23388 net.cpp:411] fc3_Arched_Eyebrows -> fc3_Arched_Eyebrows
I1025 11:36:52.657764 23388 net.cpp:150] Setting up fc3_Arched_Eyebrows
I1025 11:36:52.657773 23388 net.cpp:157] Top shape: 64 2 (128)
I1025 11:36:52.657776 23388 net.cpp:165] Memory required for data: 2566240284
I1025 11:36:52.657781 23388 layer_factory.hpp:77] Creating layer loss_Arched_Eyebrows
I1025 11:36:52.657788 23388 net.cpp:106] Creating Layer loss_Arched_Eyebrows
I1025 11:36:52.657791 23388 net.cpp:454] loss_Arched_Eyebrows <- fc3_Arched_Eyebrows
I1025 11:36:52.657795 23388 net.cpp:454] loss_Arched_Eyebrows <- label_Arched_Eyebrows
I1025 11:36:52.657802 23388 net.cpp:411] loss_Arched_Eyebrows -> loss_Arched_Eyebrows
I1025 11:36:52.657856 23388 net.cpp:150] Setting up loss_Arched_Eyebrows
I1025 11:36:52.657865 23388 net.cpp:157] Top shape: (1)
I1025 11:36:52.657868 23388 net.cpp:160]     with loss weight 1
I1025 11:36:52.657872 23388 net.cpp:165] Memory required for data: 2566240288
I1025 11:36:52.657876 23388 layer_factory.hpp:77] Creating layer fc3_Bags_Under_Eyes
I1025 11:36:52.657882 23388 net.cpp:106] Creating Layer fc3_Bags_Under_Eyes
I1025 11:36:52.657886 23388 net.cpp:454] fc3_Bags_Under_Eyes <- fc2_eyes_drop2_eyes_0_split_1
I1025 11:36:52.657891 23388 net.cpp:411] fc3_Bags_Under_Eyes -> fc3_Bags_Under_Eyes
I1025 11:36:52.658040 23388 net.cpp:150] Setting up fc3_Bags_Under_Eyes
I1025 11:36:52.658049 23388 net.cpp:157] Top shape: 64 2 (128)
I1025 11:36:52.658052 23388 net.cpp:165] Memory required for data: 2566240800
I1025 11:36:52.658058 23388 layer_factory.hpp:77] Creating layer loss_Bags_Under_Eyes
I1025 11:36:52.658063 23388 net.cpp:106] Creating Layer loss_Bags_Under_Eyes
I1025 11:36:52.658067 23388 net.cpp:454] loss_Bags_Under_Eyes <- fc3_Bags_Under_Eyes
I1025 11:36:52.658072 23388 net.cpp:454] loss_Bags_Under_Eyes <- label_Bags_Under_Eyes
I1025 11:36:52.658078 23388 net.cpp:411] loss_Bags_Under_Eyes -> loss_Bags_Under_Eyes
I1025 11:36:52.658134 23388 net.cpp:150] Setting up loss_Bags_Under_Eyes
I1025 11:36:52.658143 23388 net.cpp:157] Top shape: (1)
I1025 11:36:52.658145 23388 net.cpp:160]     with loss weight 1
I1025 11:36:52.658150 23388 net.cpp:165] Memory required for data: 2566240804
I1025 11:36:52.658154 23388 layer_factory.hpp:77] Creating layer fc3_Bushy_Eyebrows
I1025 11:36:52.658159 23388 net.cpp:106] Creating Layer fc3_Bushy_Eyebrows
I1025 11:36:52.658164 23388 net.cpp:454] fc3_Bushy_Eyebrows <- fc2_eyes_drop2_eyes_0_split_2
I1025 11:36:52.658169 23388 net.cpp:411] fc3_Bushy_Eyebrows -> fc3_Bushy_Eyebrows
I1025 11:36:52.658320 23388 net.cpp:150] Setting up fc3_Bushy_Eyebrows
I1025 11:36:52.658329 23388 net.cpp:157] Top shape: 64 2 (128)
I1025 11:36:52.658334 23388 net.cpp:165] Memory required for data: 2566241316
I1025 11:36:52.658339 23388 layer_factory.hpp:77] Creating layer loss_Bushy_Eyebrows
I1025 11:36:52.658344 23388 net.cpp:106] Creating Layer loss_Bushy_Eyebrows
I1025 11:36:52.658349 23388 net.cpp:454] loss_Bushy_Eyebrows <- fc3_Bushy_Eyebrows
I1025 11:36:52.658354 23388 net.cpp:454] loss_Bushy_Eyebrows <- label_Bushy_Eyebrows
I1025 11:36:52.658370 23388 net.cpp:411] loss_Bushy_Eyebrows -> loss_Bushy_Eyebrows
I1025 11:36:52.658428 23388 net.cpp:150] Setting up loss_Bushy_Eyebrows
I1025 11:36:52.658437 23388 net.cpp:157] Top shape: (1)
I1025 11:36:52.658440 23388 net.cpp:160]     with loss weight 1
I1025 11:36:52.658445 23388 net.cpp:165] Memory required for data: 2566241320
I1025 11:36:52.658449 23388 layer_factory.hpp:77] Creating layer fc3_Narrow_Eyes
I1025 11:36:52.658455 23388 net.cpp:106] Creating Layer fc3_Narrow_Eyes
I1025 11:36:52.658459 23388 net.cpp:454] fc3_Narrow_Eyes <- fc2_eyes_drop2_eyes_0_split_3
I1025 11:36:52.658464 23388 net.cpp:411] fc3_Narrow_Eyes -> fc3_Narrow_Eyes
I1025 11:36:52.658618 23388 net.cpp:150] Setting up fc3_Narrow_Eyes
I1025 11:36:52.658627 23388 net.cpp:157] Top shape: 64 2 (128)
I1025 11:36:52.658630 23388 net.cpp:165] Memory required for data: 2566241832
I1025 11:36:52.658637 23388 layer_factory.hpp:77] Creating layer loss_Narrow_Eyes
I1025 11:36:52.658643 23388 net.cpp:106] Creating Layer loss_Narrow_Eyes
I1025 11:36:52.658646 23388 net.cpp:454] loss_Narrow_Eyes <- fc3_Narrow_Eyes
I1025 11:36:52.658653 23388 net.cpp:454] loss_Narrow_Eyes <- label_Narrow_Eyes
I1025 11:36:52.658658 23388 net.cpp:411] loss_Narrow_Eyes -> loss_Narrow_Eyes
I1025 11:36:52.658712 23388 net.cpp:150] Setting up loss_Narrow_Eyes
I1025 11:36:52.658720 23388 net.cpp:157] Top shape: (1)
I1025 11:36:52.658723 23388 net.cpp:160]     with loss weight 1
I1025 11:36:52.658728 23388 net.cpp:165] Memory required for data: 2566241836
I1025 11:36:52.658732 23388 layer_factory.hpp:77] Creating layer fc3_Eyeglasses
I1025 11:36:52.658740 23388 net.cpp:106] Creating Layer fc3_Eyeglasses
I1025 11:36:52.658743 23388 net.cpp:454] fc3_Eyeglasses <- fc2_eyes_drop2_eyes_0_split_4
I1025 11:36:52.658749 23388 net.cpp:411] fc3_Eyeglasses -> fc3_Eyeglasses
I1025 11:36:52.658905 23388 net.cpp:150] Setting up fc3_Eyeglasses
I1025 11:36:52.658915 23388 net.cpp:157] Top shape: 64 2 (128)
I1025 11:36:52.658918 23388 net.cpp:165] Memory required for data: 2566242348
I1025 11:36:52.658923 23388 layer_factory.hpp:77] Creating layer loss_Eyeglasses
I1025 11:36:52.658929 23388 net.cpp:106] Creating Layer loss_Eyeglasses
I1025 11:36:52.658933 23388 net.cpp:454] loss_Eyeglasses <- fc3_Eyeglasses
I1025 11:36:52.658941 23388 net.cpp:454] loss_Eyeglasses <- label_Eyeglasses
I1025 11:36:52.658946 23388 net.cpp:411] loss_Eyeglasses -> loss_Eyeglasses
I1025 11:36:52.659000 23388 net.cpp:150] Setting up loss_Eyeglasses
I1025 11:36:52.659008 23388 net.cpp:157] Top shape: (1)
I1025 11:36:52.659013 23388 net.cpp:160]     with loss weight 1
I1025 11:36:52.659018 23388 net.cpp:165] Memory required for data: 2566242352
I1025 11:36:52.659020 23388 layer_factory.hpp:77] Creating layer fc3_Attractive
I1025 11:36:52.659027 23388 net.cpp:106] Creating Layer fc3_Attractive
I1025 11:36:52.659031 23388 net.cpp:454] fc3_Attractive <- fc2_face_drop2_face_0_split_0
I1025 11:36:52.659036 23388 net.cpp:411] fc3_Attractive -> fc3_Attractive
I1025 11:36:52.659188 23388 net.cpp:150] Setting up fc3_Attractive
I1025 11:36:52.659196 23388 net.cpp:157] Top shape: 64 2 (128)
I1025 11:36:52.659200 23388 net.cpp:165] Memory required for data: 2566242864
I1025 11:36:52.659205 23388 layer_factory.hpp:77] Creating layer loss_Attractive
I1025 11:36:52.659211 23388 net.cpp:106] Creating Layer loss_Attractive
I1025 11:36:52.659215 23388 net.cpp:454] loss_Attractive <- fc3_Attractive
I1025 11:36:52.659221 23388 net.cpp:454] loss_Attractive <- label_Attractive
I1025 11:36:52.659226 23388 net.cpp:411] loss_Attractive -> loss_Attractive
I1025 11:36:52.659281 23388 net.cpp:150] Setting up loss_Attractive
I1025 11:36:52.659291 23388 net.cpp:157] Top shape: (1)
I1025 11:36:52.659293 23388 net.cpp:160]     with loss weight 1
I1025 11:36:52.659298 23388 net.cpp:165] Memory required for data: 2566242868
I1025 11:36:52.659301 23388 layer_factory.hpp:77] Creating layer fc3_Blurry
I1025 11:36:52.659307 23388 net.cpp:106] Creating Layer fc3_Blurry
I1025 11:36:52.659312 23388 net.cpp:454] fc3_Blurry <- fc2_face_drop2_face_0_split_1
I1025 11:36:52.659327 23388 net.cpp:411] fc3_Blurry -> fc3_Blurry
I1025 11:36:52.659482 23388 net.cpp:150] Setting up fc3_Blurry
I1025 11:36:52.659490 23388 net.cpp:157] Top shape: 64 2 (128)
I1025 11:36:52.659494 23388 net.cpp:165] Memory required for data: 2566243380
I1025 11:36:52.659499 23388 layer_factory.hpp:77] Creating layer loss_Blurry
I1025 11:36:52.659505 23388 net.cpp:106] Creating Layer loss_Blurry
I1025 11:36:52.659509 23388 net.cpp:454] loss_Blurry <- fc3_Blurry
I1025 11:36:52.659517 23388 net.cpp:454] loss_Blurry <- label_Blurry
I1025 11:36:52.659521 23388 net.cpp:411] loss_Blurry -> loss_Blurry
I1025 11:36:52.659575 23388 net.cpp:150] Setting up loss_Blurry
I1025 11:36:52.659584 23388 net.cpp:157] Top shape: (1)
I1025 11:36:52.659587 23388 net.cpp:160]     with loss weight 1
I1025 11:36:52.659593 23388 net.cpp:165] Memory required for data: 2566243384
I1025 11:36:52.659596 23388 layer_factory.hpp:77] Creating layer fc3_Oval_Face
I1025 11:36:52.659602 23388 net.cpp:106] Creating Layer fc3_Oval_Face
I1025 11:36:52.659606 23388 net.cpp:454] fc3_Oval_Face <- fc2_face_drop2_face_0_split_2
I1025 11:36:52.659612 23388 net.cpp:411] fc3_Oval_Face -> fc3_Oval_Face
I1025 11:36:52.659783 23388 net.cpp:150] Setting up fc3_Oval_Face
I1025 11:36:52.659795 23388 net.cpp:157] Top shape: 64 2 (128)
I1025 11:36:52.659797 23388 net.cpp:165] Memory required for data: 2566243896
I1025 11:36:52.659803 23388 layer_factory.hpp:77] Creating layer loss_Oval_Face
I1025 11:36:52.659809 23388 net.cpp:106] Creating Layer loss_Oval_Face
I1025 11:36:52.659813 23388 net.cpp:454] loss_Oval_Face <- fc3_Oval_Face
I1025 11:36:52.659819 23388 net.cpp:454] loss_Oval_Face <- label_Oval_Face
I1025 11:36:52.659826 23388 net.cpp:411] loss_Oval_Face -> loss_Oval_Face
I1025 11:36:52.659884 23388 net.cpp:150] Setting up loss_Oval_Face
I1025 11:36:52.659891 23388 net.cpp:157] Top shape: (1)
I1025 11:36:52.659894 23388 net.cpp:160]     with loss weight 1
I1025 11:36:52.659899 23388 net.cpp:165] Memory required for data: 2566243900
I1025 11:36:52.659904 23388 layer_factory.hpp:77] Creating layer fc3_Pale_Skin
I1025 11:36:52.659909 23388 net.cpp:106] Creating Layer fc3_Pale_Skin
I1025 11:36:52.659914 23388 net.cpp:454] fc3_Pale_Skin <- fc2_face_drop2_face_0_split_3
I1025 11:36:52.659919 23388 net.cpp:411] fc3_Pale_Skin -> fc3_Pale_Skin
I1025 11:36:52.660079 23388 net.cpp:150] Setting up fc3_Pale_Skin
I1025 11:36:52.660089 23388 net.cpp:157] Top shape: 64 2 (128)
I1025 11:36:52.660092 23388 net.cpp:165] Memory required for data: 2566244412
I1025 11:36:52.660097 23388 layer_factory.hpp:77] Creating layer loss_Pale_Skin
I1025 11:36:52.660104 23388 net.cpp:106] Creating Layer loss_Pale_Skin
I1025 11:36:52.660109 23388 net.cpp:454] loss_Pale_Skin <- fc3_Pale_Skin
I1025 11:36:52.660115 23388 net.cpp:454] loss_Pale_Skin <- label_Pale_Skin
I1025 11:36:52.660120 23388 net.cpp:411] loss_Pale_Skin -> loss_Pale_Skin
I1025 11:36:52.660187 23388 net.cpp:150] Setting up loss_Pale_Skin
I1025 11:36:52.660195 23388 net.cpp:157] Top shape: (1)
I1025 11:36:52.660198 23388 net.cpp:160]     with loss weight 1
I1025 11:36:52.660203 23388 net.cpp:165] Memory required for data: 2566244416
I1025 11:36:52.660207 23388 layer_factory.hpp:77] Creating layer fc3_Young
I1025 11:36:52.660212 23388 net.cpp:106] Creating Layer fc3_Young
I1025 11:36:52.660217 23388 net.cpp:454] fc3_Young <- fc2_face_drop2_face_0_split_4
I1025 11:36:52.660223 23388 net.cpp:411] fc3_Young -> fc3_Young
I1025 11:36:52.660377 23388 net.cpp:150] Setting up fc3_Young
I1025 11:36:52.660387 23388 net.cpp:157] Top shape: 64 2 (128)
I1025 11:36:52.660389 23388 net.cpp:165] Memory required for data: 2566244928
I1025 11:36:52.660395 23388 layer_factory.hpp:77] Creating layer loss_Young
I1025 11:36:52.660401 23388 net.cpp:106] Creating Layer loss_Young
I1025 11:36:52.660405 23388 net.cpp:454] loss_Young <- fc3_Young
I1025 11:36:52.660411 23388 net.cpp:454] loss_Young <- label_Young
I1025 11:36:52.660416 23388 net.cpp:411] loss_Young -> loss_Young
I1025 11:36:52.660473 23388 net.cpp:150] Setting up loss_Young
I1025 11:36:52.660495 23388 net.cpp:157] Top shape: (1)
I1025 11:36:52.660500 23388 net.cpp:160]     with loss weight 1
I1025 11:36:52.660504 23388 net.cpp:165] Memory required for data: 2566244932
I1025 11:36:52.660507 23388 layer_factory.hpp:77] Creating layer fc3_Heavy_Makeup
I1025 11:36:52.660514 23388 net.cpp:106] Creating Layer fc3_Heavy_Makeup
I1025 11:36:52.660518 23388 net.cpp:454] fc3_Heavy_Makeup <- fc2_face_drop2_face_0_split_5
I1025 11:36:52.660524 23388 net.cpp:411] fc3_Heavy_Makeup -> fc3_Heavy_Makeup
I1025 11:36:52.660679 23388 net.cpp:150] Setting up fc3_Heavy_Makeup
I1025 11:36:52.660689 23388 net.cpp:157] Top shape: 64 2 (128)
I1025 11:36:52.660692 23388 net.cpp:165] Memory required for data: 2566245444
I1025 11:36:52.660698 23388 layer_factory.hpp:77] Creating layer loss_Heavy_Makeup
I1025 11:36:52.660704 23388 net.cpp:106] Creating Layer loss_Heavy_Makeup
I1025 11:36:52.660708 23388 net.cpp:454] loss_Heavy_Makeup <- fc3_Heavy_Makeup
I1025 11:36:52.660714 23388 net.cpp:454] loss_Heavy_Makeup <- label_Heavy_Makeup
I1025 11:36:52.660719 23388 net.cpp:411] loss_Heavy_Makeup -> loss_Heavy_Makeup
I1025 11:36:52.660774 23388 net.cpp:150] Setting up loss_Heavy_Makeup
I1025 11:36:52.660784 23388 net.cpp:157] Top shape: (1)
I1025 11:36:52.660787 23388 net.cpp:160]     with loss weight 1
I1025 11:36:52.660792 23388 net.cpp:165] Memory required for data: 2566245448
I1025 11:36:52.660795 23388 layer_factory.hpp:77] Creating layer fc3_Black_Hair
I1025 11:36:52.660801 23388 net.cpp:106] Creating Layer fc3_Black_Hair
I1025 11:36:52.660806 23388 net.cpp:454] fc3_Black_Hair <- fc2_aroundhead_drop2_aroundhead_0_split_0
I1025 11:36:52.660811 23388 net.cpp:411] fc3_Black_Hair -> fc3_Black_Hair
I1025 11:36:52.660964 23388 net.cpp:150] Setting up fc3_Black_Hair
I1025 11:36:52.660972 23388 net.cpp:157] Top shape: 64 2 (128)
I1025 11:36:52.660976 23388 net.cpp:165] Memory required for data: 2566245960
I1025 11:36:52.660981 23388 layer_factory.hpp:77] Creating layer loss_Black_Hair
I1025 11:36:52.660987 23388 net.cpp:106] Creating Layer loss_Black_Hair
I1025 11:36:52.660991 23388 net.cpp:454] loss_Black_Hair <- fc3_Black_Hair
I1025 11:36:52.660997 23388 net.cpp:454] loss_Black_Hair <- label_Black_Hair
I1025 11:36:52.661002 23388 net.cpp:411] loss_Black_Hair -> loss_Black_Hair
I1025 11:36:52.661056 23388 net.cpp:150] Setting up loss_Black_Hair
I1025 11:36:52.661064 23388 net.cpp:157] Top shape: (1)
I1025 11:36:52.661068 23388 net.cpp:160]     with loss weight 1
I1025 11:36:52.661073 23388 net.cpp:165] Memory required for data: 2566245964
I1025 11:36:52.661077 23388 layer_factory.hpp:77] Creating layer fc3_Blond_Hair
I1025 11:36:52.661082 23388 net.cpp:106] Creating Layer fc3_Blond_Hair
I1025 11:36:52.661087 23388 net.cpp:454] fc3_Blond_Hair <- fc2_aroundhead_drop2_aroundhead_0_split_1
I1025 11:36:52.661092 23388 net.cpp:411] fc3_Blond_Hair -> fc3_Blond_Hair
I1025 11:36:52.661243 23388 net.cpp:150] Setting up fc3_Blond_Hair
I1025 11:36:52.661253 23388 net.cpp:157] Top shape: 64 2 (128)
I1025 11:36:52.661257 23388 net.cpp:165] Memory required for data: 2566246476
I1025 11:36:52.661262 23388 layer_factory.hpp:77] Creating layer loss_Blond_Hair
I1025 11:36:52.661270 23388 net.cpp:106] Creating Layer loss_Blond_Hair
I1025 11:36:52.661274 23388 net.cpp:454] loss_Blond_Hair <- fc3_Blond_Hair
I1025 11:36:52.661278 23388 net.cpp:454] loss_Blond_Hair <- label_Blond_Hair
I1025 11:36:52.661283 23388 net.cpp:411] loss_Blond_Hair -> loss_Blond_Hair
I1025 11:36:52.661337 23388 net.cpp:150] Setting up loss_Blond_Hair
I1025 11:36:52.661346 23388 net.cpp:157] Top shape: (1)
I1025 11:36:52.661350 23388 net.cpp:160]     with loss weight 1
I1025 11:36:52.661355 23388 net.cpp:165] Memory required for data: 2566246480
I1025 11:36:52.661358 23388 layer_factory.hpp:77] Creating layer fc3_Brown_Hair
I1025 11:36:52.661365 23388 net.cpp:106] Creating Layer fc3_Brown_Hair
I1025 11:36:52.661368 23388 net.cpp:454] fc3_Brown_Hair <- fc2_aroundhead_drop2_aroundhead_0_split_2
I1025 11:36:52.661375 23388 net.cpp:411] fc3_Brown_Hair -> fc3_Brown_Hair
I1025 11:36:52.661537 23388 net.cpp:150] Setting up fc3_Brown_Hair
I1025 11:36:52.661547 23388 net.cpp:157] Top shape: 64 2 (128)
I1025 11:36:52.661551 23388 net.cpp:165] Memory required for data: 2566246992
I1025 11:36:52.661556 23388 layer_factory.hpp:77] Creating layer loss_Brown_Hair
I1025 11:36:52.661564 23388 net.cpp:106] Creating Layer loss_Brown_Hair
I1025 11:36:52.661568 23388 net.cpp:454] loss_Brown_Hair <- fc3_Brown_Hair
I1025 11:36:52.661572 23388 net.cpp:454] loss_Brown_Hair <- label_Brown_Hair
I1025 11:36:52.661577 23388 net.cpp:411] loss_Brown_Hair -> loss_Brown_Hair
I1025 11:36:52.661633 23388 net.cpp:150] Setting up loss_Brown_Hair
I1025 11:36:52.661641 23388 net.cpp:157] Top shape: (1)
I1025 11:36:52.661645 23388 net.cpp:160]     with loss weight 1
I1025 11:36:52.661650 23388 net.cpp:165] Memory required for data: 2566246996
I1025 11:36:52.661654 23388 layer_factory.hpp:77] Creating layer fc3_Gray_Hair
I1025 11:36:52.661660 23388 net.cpp:106] Creating Layer fc3_Gray_Hair
I1025 11:36:52.661665 23388 net.cpp:454] fc3_Gray_Hair <- fc2_aroundhead_drop2_aroundhead_0_split_3
I1025 11:36:52.661670 23388 net.cpp:411] fc3_Gray_Hair -> fc3_Gray_Hair
I1025 11:36:52.661824 23388 net.cpp:150] Setting up fc3_Gray_Hair
I1025 11:36:52.661834 23388 net.cpp:157] Top shape: 64 2 (128)
I1025 11:36:52.661837 23388 net.cpp:165] Memory required for data: 2566247508
I1025 11:36:52.661842 23388 layer_factory.hpp:77] Creating layer loss_Gray_Hair
I1025 11:36:52.661850 23388 net.cpp:106] Creating Layer loss_Gray_Hair
I1025 11:36:52.661854 23388 net.cpp:454] loss_Gray_Hair <- fc3_Gray_Hair
I1025 11:36:52.661859 23388 net.cpp:454] loss_Gray_Hair <- label_Gray_Hair
I1025 11:36:52.661864 23388 net.cpp:411] loss_Gray_Hair -> loss_Gray_Hair
I1025 11:36:52.661919 23388 net.cpp:150] Setting up loss_Gray_Hair
I1025 11:36:52.661927 23388 net.cpp:157] Top shape: (1)
I1025 11:36:52.661931 23388 net.cpp:160]     with loss weight 1
I1025 11:36:52.661936 23388 net.cpp:165] Memory required for data: 2566247512
I1025 11:36:52.661941 23388 layer_factory.hpp:77] Creating layer fc3_Wearing_Earrings
I1025 11:36:52.661947 23388 net.cpp:106] Creating Layer fc3_Wearing_Earrings
I1025 11:36:52.661950 23388 net.cpp:454] fc3_Wearing_Earrings <- fc2_aroundhead_drop2_aroundhead_0_split_4
I1025 11:36:52.661955 23388 net.cpp:411] fc3_Wearing_Earrings -> fc3_Wearing_Earrings
I1025 11:36:52.662111 23388 net.cpp:150] Setting up fc3_Wearing_Earrings
I1025 11:36:52.662120 23388 net.cpp:157] Top shape: 64 2 (128)
I1025 11:36:52.662123 23388 net.cpp:165] Memory required for data: 2566248024
I1025 11:36:52.662128 23388 layer_factory.hpp:77] Creating layer loss_Wearing_Earrings
I1025 11:36:52.662137 23388 net.cpp:106] Creating Layer loss_Wearing_Earrings
I1025 11:36:52.662142 23388 net.cpp:454] loss_Wearing_Earrings <- fc3_Wearing_Earrings
I1025 11:36:52.662145 23388 net.cpp:454] loss_Wearing_Earrings <- label_Wearing_Earrings
I1025 11:36:52.662150 23388 net.cpp:411] loss_Wearing_Earrings -> loss_Wearing_Earrings
I1025 11:36:52.662211 23388 net.cpp:150] Setting up loss_Wearing_Earrings
I1025 11:36:52.662220 23388 net.cpp:157] Top shape: (1)
I1025 11:36:52.662222 23388 net.cpp:160]     with loss weight 1
I1025 11:36:52.662227 23388 net.cpp:165] Memory required for data: 2566248028
I1025 11:36:52.662231 23388 layer_factory.hpp:77] Creating layer fc3_Wearing_Necklace
I1025 11:36:52.662236 23388 net.cpp:106] Creating Layer fc3_Wearing_Necklace
I1025 11:36:52.662240 23388 net.cpp:454] fc3_Wearing_Necklace <- fc2_aroundhead_drop2_aroundhead_0_split_5
I1025 11:36:52.662246 23388 net.cpp:411] fc3_Wearing_Necklace -> fc3_Wearing_Necklace
I1025 11:36:52.662407 23388 net.cpp:150] Setting up fc3_Wearing_Necklace
I1025 11:36:52.662417 23388 net.cpp:157] Top shape: 64 2 (128)
I1025 11:36:52.662420 23388 net.cpp:165] Memory required for data: 2566248540
I1025 11:36:52.662426 23388 layer_factory.hpp:77] Creating layer loss_Wearing_Necklace
I1025 11:36:52.662433 23388 net.cpp:106] Creating Layer loss_Wearing_Necklace
I1025 11:36:52.662437 23388 net.cpp:454] loss_Wearing_Necklace <- fc3_Wearing_Necklace
I1025 11:36:52.662451 23388 net.cpp:454] loss_Wearing_Necklace <- label_Wearing_Necklace
I1025 11:36:52.662457 23388 net.cpp:411] loss_Wearing_Necklace -> loss_Wearing_Necklace
I1025 11:36:52.662518 23388 net.cpp:150] Setting up loss_Wearing_Necklace
I1025 11:36:52.662526 23388 net.cpp:157] Top shape: (1)
I1025 11:36:52.662529 23388 net.cpp:160]     with loss weight 1
I1025 11:36:52.662535 23388 net.cpp:165] Memory required for data: 2566248544
I1025 11:36:52.662539 23388 layer_factory.hpp:77] Creating layer fc3_Wearing_Necktie
I1025 11:36:52.662544 23388 net.cpp:106] Creating Layer fc3_Wearing_Necktie
I1025 11:36:52.662549 23388 net.cpp:454] fc3_Wearing_Necktie <- fc2_aroundhead_drop2_aroundhead_0_split_6
I1025 11:36:52.662554 23388 net.cpp:411] fc3_Wearing_Necktie -> fc3_Wearing_Necktie
I1025 11:36:52.662708 23388 net.cpp:150] Setting up fc3_Wearing_Necktie
I1025 11:36:52.662716 23388 net.cpp:157] Top shape: 64 2 (128)
I1025 11:36:52.662719 23388 net.cpp:165] Memory required for data: 2566249056
I1025 11:36:52.662725 23388 layer_factory.hpp:77] Creating layer loss_Wearing_Necktie
I1025 11:36:52.662732 23388 net.cpp:106] Creating Layer loss_Wearing_Necktie
I1025 11:36:52.662736 23388 net.cpp:454] loss_Wearing_Necktie <- fc3_Wearing_Necktie
I1025 11:36:52.662741 23388 net.cpp:454] loss_Wearing_Necktie <- label_Wearing_Necktie
I1025 11:36:52.662746 23388 net.cpp:411] loss_Wearing_Necktie -> loss_Wearing_Necktie
I1025 11:36:52.662803 23388 net.cpp:150] Setting up loss_Wearing_Necktie
I1025 11:36:52.662812 23388 net.cpp:157] Top shape: (1)
I1025 11:36:52.662816 23388 net.cpp:160]     with loss weight 1
I1025 11:36:52.662820 23388 net.cpp:165] Memory required for data: 2566249060
I1025 11:36:52.662823 23388 layer_factory.hpp:77] Creating layer fc3_Bald
I1025 11:36:52.662830 23388 net.cpp:106] Creating Layer fc3_Bald
I1025 11:36:52.662834 23388 net.cpp:454] fc3_Bald <- fc2_aroundhead_drop2_aroundhead_0_split_7
I1025 11:36:52.662840 23388 net.cpp:411] fc3_Bald -> fc3_Bald
I1025 11:36:52.662992 23388 net.cpp:150] Setting up fc3_Bald
I1025 11:36:52.663002 23388 net.cpp:157] Top shape: 64 2 (128)
I1025 11:36:52.663004 23388 net.cpp:165] Memory required for data: 2566249572
I1025 11:36:52.663009 23388 layer_factory.hpp:77] Creating layer loss_Bald
I1025 11:36:52.663017 23388 net.cpp:106] Creating Layer loss_Bald
I1025 11:36:52.663022 23388 net.cpp:454] loss_Bald <- fc3_Bald
I1025 11:36:52.663025 23388 net.cpp:454] loss_Bald <- label_Bald
I1025 11:36:52.663030 23388 net.cpp:411] loss_Bald -> loss_Bald
I1025 11:36:52.663084 23388 net.cpp:150] Setting up loss_Bald
I1025 11:36:52.663094 23388 net.cpp:157] Top shape: (1)
I1025 11:36:52.663096 23388 net.cpp:160]     with loss weight 1
I1025 11:36:52.663101 23388 net.cpp:165] Memory required for data: 2566249576
I1025 11:36:52.663105 23388 layer_factory.hpp:77] Creating layer fc3_Receding_Hairline
I1025 11:36:52.663110 23388 net.cpp:106] Creating Layer fc3_Receding_Hairline
I1025 11:36:52.663115 23388 net.cpp:454] fc3_Receding_Hairline <- fc2_aroundhead_drop2_aroundhead_0_split_8
I1025 11:36:52.663120 23388 net.cpp:411] fc3_Receding_Hairline -> fc3_Receding_Hairline
I1025 11:36:52.663275 23388 net.cpp:150] Setting up fc3_Receding_Hairline
I1025 11:36:52.663283 23388 net.cpp:157] Top shape: 64 2 (128)
I1025 11:36:52.663287 23388 net.cpp:165] Memory required for data: 2566250088
I1025 11:36:52.663292 23388 layer_factory.hpp:77] Creating layer loss_Receding_Hairline
I1025 11:36:52.663300 23388 net.cpp:106] Creating Layer loss_Receding_Hairline
I1025 11:36:52.663303 23388 net.cpp:454] loss_Receding_Hairline <- fc3_Receding_Hairline
I1025 11:36:52.663308 23388 net.cpp:454] loss_Receding_Hairline <- label_Receding_Hairline
I1025 11:36:52.663313 23388 net.cpp:411] loss_Receding_Hairline -> loss_Receding_Hairline
I1025 11:36:52.663369 23388 net.cpp:150] Setting up loss_Receding_Hairline
I1025 11:36:52.663378 23388 net.cpp:157] Top shape: (1)
I1025 11:36:52.663381 23388 net.cpp:160]     with loss weight 1
I1025 11:36:52.663386 23388 net.cpp:165] Memory required for data: 2566250092
I1025 11:36:52.663399 23388 layer_factory.hpp:77] Creating layer fc3_Bangs
I1025 11:36:52.663406 23388 net.cpp:106] Creating Layer fc3_Bangs
I1025 11:36:52.663410 23388 net.cpp:454] fc3_Bangs <- fc2_aroundhead_drop2_aroundhead_0_split_9
I1025 11:36:52.663415 23388 net.cpp:411] fc3_Bangs -> fc3_Bangs
I1025 11:36:52.663573 23388 net.cpp:150] Setting up fc3_Bangs
I1025 11:36:52.663583 23388 net.cpp:157] Top shape: 64 2 (128)
I1025 11:36:52.663585 23388 net.cpp:165] Memory required for data: 2566250604
I1025 11:36:52.663591 23388 layer_factory.hpp:77] Creating layer loss_Bangs
I1025 11:36:52.663599 23388 net.cpp:106] Creating Layer loss_Bangs
I1025 11:36:52.663604 23388 net.cpp:454] loss_Bangs <- fc3_Bangs
I1025 11:36:52.663607 23388 net.cpp:454] loss_Bangs <- label_Bangs
I1025 11:36:52.663614 23388 net.cpp:411] loss_Bangs -> loss_Bangs
I1025 11:36:52.663669 23388 net.cpp:150] Setting up loss_Bangs
I1025 11:36:52.663677 23388 net.cpp:157] Top shape: (1)
I1025 11:36:52.663681 23388 net.cpp:160]     with loss weight 1
I1025 11:36:52.663686 23388 net.cpp:165] Memory required for data: 2566250608
I1025 11:36:52.663689 23388 layer_factory.hpp:77] Creating layer fc3_Wearing_Hat
I1025 11:36:52.663696 23388 net.cpp:106] Creating Layer fc3_Wearing_Hat
I1025 11:36:52.663699 23388 net.cpp:454] fc3_Wearing_Hat <- fc2_aroundhead_drop2_aroundhead_0_split_10
I1025 11:36:52.663705 23388 net.cpp:411] fc3_Wearing_Hat -> fc3_Wearing_Hat
I1025 11:36:52.663887 23388 net.cpp:150] Setting up fc3_Wearing_Hat
I1025 11:36:52.663898 23388 net.cpp:157] Top shape: 64 2 (128)
I1025 11:36:52.663902 23388 net.cpp:165] Memory required for data: 2566251120
I1025 11:36:52.663908 23388 layer_factory.hpp:77] Creating layer loss_Wearing_Hat
I1025 11:36:52.663916 23388 net.cpp:106] Creating Layer loss_Wearing_Hat
I1025 11:36:52.663920 23388 net.cpp:454] loss_Wearing_Hat <- fc3_Wearing_Hat
I1025 11:36:52.663925 23388 net.cpp:454] loss_Wearing_Hat <- label_Wearing_Hat
I1025 11:36:52.663931 23388 net.cpp:411] loss_Wearing_Hat -> loss_Wearing_Hat
I1025 11:36:52.663995 23388 net.cpp:150] Setting up loss_Wearing_Hat
I1025 11:36:52.664003 23388 net.cpp:157] Top shape: (1)
I1025 11:36:52.664007 23388 net.cpp:160]     with loss weight 1
I1025 11:36:52.664012 23388 net.cpp:165] Memory required for data: 2566251124
I1025 11:36:52.664016 23388 layer_factory.hpp:77] Creating layer fc3_Straight_Hair
I1025 11:36:52.664022 23388 net.cpp:106] Creating Layer fc3_Straight_Hair
I1025 11:36:52.664026 23388 net.cpp:454] fc3_Straight_Hair <- fc2_aroundhead_drop2_aroundhead_0_split_11
I1025 11:36:52.664032 23388 net.cpp:411] fc3_Straight_Hair -> fc3_Straight_Hair
I1025 11:36:52.664201 23388 net.cpp:150] Setting up fc3_Straight_Hair
I1025 11:36:52.664211 23388 net.cpp:157] Top shape: 64 2 (128)
I1025 11:36:52.664214 23388 net.cpp:165] Memory required for data: 2566251636
I1025 11:36:52.664219 23388 layer_factory.hpp:77] Creating layer loss_Straight_Hair
I1025 11:36:52.664227 23388 net.cpp:106] Creating Layer loss_Straight_Hair
I1025 11:36:52.664232 23388 net.cpp:454] loss_Straight_Hair <- fc3_Straight_Hair
I1025 11:36:52.664237 23388 net.cpp:454] loss_Straight_Hair <- label_Straight_Hair
I1025 11:36:52.664240 23388 net.cpp:411] loss_Straight_Hair -> loss_Straight_Hair
I1025 11:36:52.664297 23388 net.cpp:150] Setting up loss_Straight_Hair
I1025 11:36:52.664305 23388 net.cpp:157] Top shape: (1)
I1025 11:36:52.664309 23388 net.cpp:160]     with loss weight 1
I1025 11:36:52.664314 23388 net.cpp:165] Memory required for data: 2566251640
I1025 11:36:52.664317 23388 layer_factory.hpp:77] Creating layer fc3_Wavy_Hair
I1025 11:36:52.664324 23388 net.cpp:106] Creating Layer fc3_Wavy_Hair
I1025 11:36:52.664327 23388 net.cpp:454] fc3_Wavy_Hair <- fc2_aroundhead_drop2_aroundhead_0_split_12
I1025 11:36:52.664333 23388 net.cpp:411] fc3_Wavy_Hair -> fc3_Wavy_Hair
I1025 11:36:52.665107 23388 net.cpp:150] Setting up fc3_Wavy_Hair
I1025 11:36:52.665132 23388 net.cpp:157] Top shape: 64 2 (128)
I1025 11:36:52.665135 23388 net.cpp:165] Memory required for data: 2566252152
I1025 11:36:52.665141 23388 layer_factory.hpp:77] Creating layer loss_Wavy_Hair
I1025 11:36:52.665161 23388 net.cpp:106] Creating Layer loss_Wavy_Hair
I1025 11:36:52.665166 23388 net.cpp:454] loss_Wavy_Hair <- fc3_Wavy_Hair
I1025 11:36:52.665172 23388 net.cpp:454] loss_Wavy_Hair <- label_Wavy_Hair
I1025 11:36:52.665179 23388 net.cpp:411] loss_Wavy_Hair -> loss_Wavy_Hair
I1025 11:36:52.665220 23388 net.cpp:150] Setting up loss_Wavy_Hair
I1025 11:36:52.665226 23388 net.cpp:157] Top shape: (1)
I1025 11:36:52.665230 23388 net.cpp:160]     with loss weight 1
I1025 11:36:52.665235 23388 net.cpp:165] Memory required for data: 2566252156
I1025 11:36:52.665238 23388 layer_factory.hpp:77] Creating layer fc3_5_o_Clock_Shadow
I1025 11:36:52.665246 23388 net.cpp:106] Creating Layer fc3_5_o_Clock_Shadow
I1025 11:36:52.665249 23388 net.cpp:454] fc3_5_o_Clock_Shadow <- fc2_facialhair_drop2_facialhair_0_split_0
I1025 11:36:52.665254 23388 net.cpp:411] fc3_5_o_Clock_Shadow -> fc3_5_o_Clock_Shadow
I1025 11:36:52.665379 23388 net.cpp:150] Setting up fc3_5_o_Clock_Shadow
I1025 11:36:52.665388 23388 net.cpp:157] Top shape: 64 2 (128)
I1025 11:36:52.665391 23388 net.cpp:165] Memory required for data: 2566252668
I1025 11:36:52.665397 23388 layer_factory.hpp:77] Creating layer loss_5_o_Clock_Shadow
I1025 11:36:52.665405 23388 net.cpp:106] Creating Layer loss_5_o_Clock_Shadow
I1025 11:36:52.665410 23388 net.cpp:454] loss_5_o_Clock_Shadow <- fc3_5_o_Clock_Shadow
I1025 11:36:52.665415 23388 net.cpp:454] loss_5_o_Clock_Shadow <- label_5_o_Clock_Shadow
I1025 11:36:52.665421 23388 net.cpp:411] loss_5_o_Clock_Shadow -> loss_5_o_Clock_Shadow
I1025 11:36:52.665457 23388 net.cpp:150] Setting up loss_5_o_Clock_Shadow
I1025 11:36:52.665465 23388 net.cpp:157] Top shape: (1)
I1025 11:36:52.665468 23388 net.cpp:160]     with loss weight 1
I1025 11:36:52.665473 23388 net.cpp:165] Memory required for data: 2566252672
I1025 11:36:52.665477 23388 layer_factory.hpp:77] Creating layer fc3_Mustache
I1025 11:36:52.665483 23388 net.cpp:106] Creating Layer fc3_Mustache
I1025 11:36:52.665488 23388 net.cpp:454] fc3_Mustache <- fc2_facialhair_drop2_facialhair_0_split_1
I1025 11:36:52.665493 23388 net.cpp:411] fc3_Mustache -> fc3_Mustache
I1025 11:36:52.665613 23388 net.cpp:150] Setting up fc3_Mustache
I1025 11:36:52.665622 23388 net.cpp:157] Top shape: 64 2 (128)
I1025 11:36:52.665626 23388 net.cpp:165] Memory required for data: 2566253184
I1025 11:36:52.665632 23388 layer_factory.hpp:77] Creating layer loss_Mustache
I1025 11:36:52.665638 23388 net.cpp:106] Creating Layer loss_Mustache
I1025 11:36:52.665643 23388 net.cpp:454] loss_Mustache <- fc3_Mustache
I1025 11:36:52.665647 23388 net.cpp:454] loss_Mustache <- label_Mustache
I1025 11:36:52.665654 23388 net.cpp:411] loss_Mustache -> loss_Mustache
I1025 11:36:52.665689 23388 net.cpp:150] Setting up loss_Mustache
I1025 11:36:52.665696 23388 net.cpp:157] Top shape: (1)
I1025 11:36:52.665700 23388 net.cpp:160]     with loss weight 1
I1025 11:36:52.665705 23388 net.cpp:165] Memory required for data: 2566253188
I1025 11:36:52.665709 23388 layer_factory.hpp:77] Creating layer fc3_No_Beard
I1025 11:36:52.665714 23388 net.cpp:106] Creating Layer fc3_No_Beard
I1025 11:36:52.665719 23388 net.cpp:454] fc3_No_Beard <- fc2_facialhair_drop2_facialhair_0_split_2
I1025 11:36:52.665724 23388 net.cpp:411] fc3_No_Beard -> fc3_No_Beard
I1025 11:36:52.665846 23388 net.cpp:150] Setting up fc3_No_Beard
I1025 11:36:52.665855 23388 net.cpp:157] Top shape: 64 2 (128)
I1025 11:36:52.665858 23388 net.cpp:165] Memory required for data: 2566253700
I1025 11:36:52.665864 23388 layer_factory.hpp:77] Creating layer loss_No_Beard
I1025 11:36:52.665871 23388 net.cpp:106] Creating Layer loss_No_Beard
I1025 11:36:52.665876 23388 net.cpp:454] loss_No_Beard <- fc3_No_Beard
I1025 11:36:52.665880 23388 net.cpp:454] loss_No_Beard <- label_No_Beard
I1025 11:36:52.665886 23388 net.cpp:411] loss_No_Beard -> loss_No_Beard
I1025 11:36:52.665920 23388 net.cpp:150] Setting up loss_No_Beard
I1025 11:36:52.665930 23388 net.cpp:157] Top shape: (1)
I1025 11:36:52.665933 23388 net.cpp:160]     with loss weight 1
I1025 11:36:52.665948 23388 net.cpp:165] Memory required for data: 2566253704
I1025 11:36:52.665952 23388 layer_factory.hpp:77] Creating layer fc3_Sideburns
I1025 11:36:52.665958 23388 net.cpp:106] Creating Layer fc3_Sideburns
I1025 11:36:52.665963 23388 net.cpp:454] fc3_Sideburns <- fc2_facialhair_drop2_facialhair_0_split_3
I1025 11:36:52.665968 23388 net.cpp:411] fc3_Sideburns -> fc3_Sideburns
I1025 11:36:52.666090 23388 net.cpp:150] Setting up fc3_Sideburns
I1025 11:36:52.666100 23388 net.cpp:157] Top shape: 64 2 (128)
I1025 11:36:52.666102 23388 net.cpp:165] Memory required for data: 2566254216
I1025 11:36:52.666108 23388 layer_factory.hpp:77] Creating layer loss_Sideburns
I1025 11:36:52.666116 23388 net.cpp:106] Creating Layer loss_Sideburns
I1025 11:36:52.666121 23388 net.cpp:454] loss_Sideburns <- fc3_Sideburns
I1025 11:36:52.666126 23388 net.cpp:454] loss_Sideburns <- label_Sideburns
I1025 11:36:52.666131 23388 net.cpp:411] loss_Sideburns -> loss_Sideburns
I1025 11:36:52.666167 23388 net.cpp:150] Setting up loss_Sideburns
I1025 11:36:52.666173 23388 net.cpp:157] Top shape: (1)
I1025 11:36:52.666177 23388 net.cpp:160]     with loss weight 1
I1025 11:36:52.666182 23388 net.cpp:165] Memory required for data: 2566254220
I1025 11:36:52.666185 23388 layer_factory.hpp:77] Creating layer fc3_Goatee
I1025 11:36:52.666191 23388 net.cpp:106] Creating Layer fc3_Goatee
I1025 11:36:52.666195 23388 net.cpp:454] fc3_Goatee <- fc2_facialhair_drop2_facialhair_0_split_4
I1025 11:36:52.666200 23388 net.cpp:411] fc3_Goatee -> fc3_Goatee
I1025 11:36:52.666321 23388 net.cpp:150] Setting up fc3_Goatee
I1025 11:36:52.666329 23388 net.cpp:157] Top shape: 64 2 (128)
I1025 11:36:52.666333 23388 net.cpp:165] Memory required for data: 2566254732
I1025 11:36:52.666338 23388 layer_factory.hpp:77] Creating layer loss_Goatee
I1025 11:36:52.666347 23388 net.cpp:106] Creating Layer loss_Goatee
I1025 11:36:52.666350 23388 net.cpp:454] loss_Goatee <- fc3_Goatee
I1025 11:36:52.666355 23388 net.cpp:454] loss_Goatee <- label_Goatee
I1025 11:36:52.666362 23388 net.cpp:411] loss_Goatee -> loss_Goatee
I1025 11:36:52.666396 23388 net.cpp:150] Setting up loss_Goatee
I1025 11:36:52.666404 23388 net.cpp:157] Top shape: (1)
I1025 11:36:52.666407 23388 net.cpp:160]     with loss weight 1
I1025 11:36:52.666412 23388 net.cpp:165] Memory required for data: 2566254736
I1025 11:36:52.666415 23388 layer_factory.hpp:77] Creating layer fc3_High_Cheekbones
I1025 11:36:52.666421 23388 net.cpp:106] Creating Layer fc3_High_Cheekbones
I1025 11:36:52.666425 23388 net.cpp:454] fc3_High_Cheekbones <- fc2_cheeks_drop2_cheeks_0_split_0
I1025 11:36:52.666431 23388 net.cpp:411] fc3_High_Cheekbones -> fc3_High_Cheekbones
I1025 11:36:52.666548 23388 net.cpp:150] Setting up fc3_High_Cheekbones
I1025 11:36:52.666558 23388 net.cpp:157] Top shape: 64 2 (128)
I1025 11:36:52.666561 23388 net.cpp:165] Memory required for data: 2566255248
I1025 11:36:52.666568 23388 layer_factory.hpp:77] Creating layer loss_High_Cheekbones
I1025 11:36:52.666574 23388 net.cpp:106] Creating Layer loss_High_Cheekbones
I1025 11:36:52.666579 23388 net.cpp:454] loss_High_Cheekbones <- fc3_High_Cheekbones
I1025 11:36:52.666584 23388 net.cpp:454] loss_High_Cheekbones <- label_High_Cheekbones
I1025 11:36:52.666590 23388 net.cpp:411] loss_High_Cheekbones -> loss_High_Cheekbones
I1025 11:36:52.666625 23388 net.cpp:150] Setting up loss_High_Cheekbones
I1025 11:36:52.666631 23388 net.cpp:157] Top shape: (1)
I1025 11:36:52.666635 23388 net.cpp:160]     with loss weight 1
I1025 11:36:52.666640 23388 net.cpp:165] Memory required for data: 2566255252
I1025 11:36:52.666643 23388 layer_factory.hpp:77] Creating layer fc3_Rosy_Cheeks
I1025 11:36:52.666649 23388 net.cpp:106] Creating Layer fc3_Rosy_Cheeks
I1025 11:36:52.666653 23388 net.cpp:454] fc3_Rosy_Cheeks <- fc2_cheeks_drop2_cheeks_0_split_1
I1025 11:36:52.666659 23388 net.cpp:411] fc3_Rosy_Cheeks -> fc3_Rosy_Cheeks
I1025 11:36:52.666779 23388 net.cpp:150] Setting up fc3_Rosy_Cheeks
I1025 11:36:52.666788 23388 net.cpp:157] Top shape: 64 2 (128)
I1025 11:36:52.666800 23388 net.cpp:165] Memory required for data: 2566255764
I1025 11:36:52.666807 23388 layer_factory.hpp:77] Creating layer loss_Rosy_Cheeks
I1025 11:36:52.666815 23388 net.cpp:106] Creating Layer loss_Rosy_Cheeks
I1025 11:36:52.666820 23388 net.cpp:454] loss_Rosy_Cheeks <- fc3_Rosy_Cheeks
I1025 11:36:52.666824 23388 net.cpp:454] loss_Rosy_Cheeks <- label_Rosy_Cheeks
I1025 11:36:52.666831 23388 net.cpp:411] loss_Rosy_Cheeks -> loss_Rosy_Cheeks
I1025 11:36:52.666867 23388 net.cpp:150] Setting up loss_Rosy_Cheeks
I1025 11:36:52.666875 23388 net.cpp:157] Top shape: (1)
I1025 11:36:52.666878 23388 net.cpp:160]     with loss weight 1
I1025 11:36:52.666883 23388 net.cpp:165] Memory required for data: 2566255768
I1025 11:36:52.666887 23388 layer_factory.hpp:77] Creating layer fc3_Chubby
I1025 11:36:52.666893 23388 net.cpp:106] Creating Layer fc3_Chubby
I1025 11:36:52.666898 23388 net.cpp:454] fc3_Chubby <- fc2_fat_drop2_fat_0_split_0
I1025 11:36:52.666903 23388 net.cpp:411] fc3_Chubby -> fc3_Chubby
I1025 11:36:52.667019 23388 net.cpp:150] Setting up fc3_Chubby
I1025 11:36:52.667029 23388 net.cpp:157] Top shape: 64 2 (128)
I1025 11:36:52.667033 23388 net.cpp:165] Memory required for data: 2566256280
I1025 11:36:52.667038 23388 layer_factory.hpp:77] Creating layer loss_Chubby
I1025 11:36:52.667045 23388 net.cpp:106] Creating Layer loss_Chubby
I1025 11:36:52.667050 23388 net.cpp:454] loss_Chubby <- fc3_Chubby
I1025 11:36:52.667054 23388 net.cpp:454] loss_Chubby <- label_Chubby
I1025 11:36:52.667062 23388 net.cpp:411] loss_Chubby -> loss_Chubby
I1025 11:36:52.667099 23388 net.cpp:150] Setting up loss_Chubby
I1025 11:36:52.667106 23388 net.cpp:157] Top shape: (1)
I1025 11:36:52.667110 23388 net.cpp:160]     with loss weight 1
I1025 11:36:52.667114 23388 net.cpp:165] Memory required for data: 2566256284
I1025 11:36:52.667119 23388 layer_factory.hpp:77] Creating layer fc3_Double_Chin
I1025 11:36:52.667124 23388 net.cpp:106] Creating Layer fc3_Double_Chin
I1025 11:36:52.667129 23388 net.cpp:454] fc3_Double_Chin <- fc2_fat_drop2_fat_0_split_1
I1025 11:36:52.667135 23388 net.cpp:411] fc3_Double_Chin -> fc3_Double_Chin
I1025 11:36:52.667253 23388 net.cpp:150] Setting up fc3_Double_Chin
I1025 11:36:52.667261 23388 net.cpp:157] Top shape: 64 2 (128)
I1025 11:36:52.667265 23388 net.cpp:165] Memory required for data: 2566256796
I1025 11:36:52.667270 23388 layer_factory.hpp:77] Creating layer loss_Double_Chin
I1025 11:36:52.667278 23388 net.cpp:106] Creating Layer loss_Double_Chin
I1025 11:36:52.667282 23388 net.cpp:454] loss_Double_Chin <- fc3_Double_Chin
I1025 11:36:52.667286 23388 net.cpp:454] loss_Double_Chin <- label_Double_Chin
I1025 11:36:52.667292 23388 net.cpp:411] loss_Double_Chin -> loss_Double_Chin
…
I1025 11:36:52.667382 23388 net.cpp:454] attr_mid_feat <- pool3_mouth_pool3_mouth_0_split_1
I1025 11:36:52.667387 23388 net.cpp:454] attr_mid_feat <- pool3_nose_pool3_nose_0_split_1
I1025 11:36:52.667392 23388 net.cpp:454] attr_mid_feat <- pool3_eyes_pool3_eyes_0_split_1
I1025 11:36:52.667395 23388 net.cpp:454] attr_mid_feat <- pool3_face_pool3_face_0_split_1
I1025 11:36:52.667399 23388 net.cpp:454] attr_mid_feat <- pool3_rest_pool3_rest_0_split_4
I1025 11:36:52.667407 23388 net.cpp:411] attr_mid_feat -> attr_mid_feat
I1025 11:36:52.667443 23388 net.cpp:150] Setting up attr_mid_feat
I1025 11:36:52.667449 23388 net.cpp:157] Top shape: 64 512 4 4 (524288)
I1025 11:36:52.667453 23388 net.cpp:165] Memory required for data: 2568353952
I1025 11:36:52.667455 23388 layer_factory.hpp:77] Creating layer attr_top_feat
I1025 11:36:52.667461 23388 net.cpp:106] Creating Layer attr_top_feat
I1025 11:36:52.667465 23388 net.cpp:454] attr_top_feat <- fc2_gender_drop2_gender_0_split_1
I1025 11:36:52.667471 23388 net.cpp:454] attr_top_feat <- fc2_nose_drop2_nose_0_split_2
I1025 11:36:52.667475 23388 net.cpp:454] attr_top_feat <- fc2_mouth_drop2_mouth_0_split_4
I1025 11:36:52.667479 23388 net.cpp:454] attr_top_feat <- fc2_eyes_drop2_eyes_0_split_5
I1025 11:36:52.667484 23388 net.cpp:454] attr_top_feat <- fc2_face_drop2_face_0_split_6
I1025 11:36:52.667487 23388 net.cpp:454] attr_top_feat <- fc2_aroundhead_drop2_aroundhead_0_split_13
I1025 11:36:52.667491 23388 net.cpp:454] attr_top_feat <- fc2_facialhair_drop2_facialhair_0_split_5
I1025 11:36:52.667495 23388 net.cpp:454] attr_top_feat <- fc2_cheeks_drop2_cheeks_0_split_2
I1025 11:36:52.667500 23388 net.cpp:454] attr_top_feat <- fc2_fat_drop2_fat_0_split_2
I1025 11:36:52.667506 23388 net.cpp:411] attr_top_feat -> attr_top_feat
I1025 11:36:52.667529 23388 net.cpp:150] Setting up attr_top_feat
I1025 11:36:52.667534 23388 net.cpp:157] Top shape: 64 1024 (65536)
I1025 11:36:52.667537 23388 net.cpp:165] Memory required for data: 2568616096
I1025 11:36:52.667541 23388 layer_factory.hpp:77] Creating layer fc8_top_attr
I1025 11:36:52.667547 23388 net.cpp:106] Creating Layer fc8_top_attr
I1025 11:36:52.667551 23388 net.cpp:454] fc8_top_attr <- attr_top_feat
I1025 11:36:52.667558 23388 net.cpp:411] fc8_top_attr -> fc8_top_attr
I1025 11:36:52.689939 23388 net.cpp:150] Setting up fc8_top_attr
I1025 11:36:52.689955 23388 net.cpp:157] Top shape: 64 2776 (177664)
I1025 11:36:52.689960 23388 net.cpp:165] Memory required for data: 2569326752
I1025 11:36:52.689965 23388 layer_factory.hpp:77] Creating layer fc8_top_attr_fc8_top_attr_0_split
I1025 11:36:52.689971 23388 net.cpp:106] Creating Layer fc8_top_attr_fc8_top_attr_0_split
I1025 11:36:52.689975 23388 net.cpp:454] fc8_top_attr_fc8_top_attr_0_split <- fc8_top_attr
I1025 11:36:52.689980 23388 net.cpp:411] fc8_top_attr_fc8_top_attr_0_split -> fc8_top_attr_fc8_top_attr_0_split_0
I1025 11:36:52.689987 23388 net.cpp:411] fc8_top_attr_fc8_top_attr_0_split -> fc8_top_attr_fc8_top_attr_0_split_1
I1025 11:36:52.689993 23388 net.cpp:411] fc8_top_attr_fc8_top_attr_0_split -> fc8_top_attr_fc8_top_attr_0_split_2
I1025 11:36:52.690052 23388 net.cpp:150] Setting up fc8_top_attr_fc8_top_attr_0_split
I1025 11:36:52.690058 23388 net.cpp:157] Top shape: 64 2776 (177664)
I1025 11:36:52.690062 23388 net.cpp:157] Top shape: 64 2776 (177664)
I1025 11:36:52.690065 23388 net.cpp:157] Top shape: 64 2776 (177664)
I1025 11:36:52.690068 23388 net.cpp:165] Memory required for data: 2571458720
I1025 11:36:52.690071 23388 layer_factory.hpp:77] Creating layer loss_top_attr
I1025 11:36:52.690078 23388 net.cpp:106] Creating Layer loss_top_attr
I1025 11:36:52.690083 23388 net.cpp:454] loss_top_attr <- fc8_top_attr_fc8_top_attr_0_split_0
I1025 11:36:52.690088 23388 net.cpp:454] loss_top_attr <- label_data_1_split_0
…
