…
    slice_point: 24
    slice_point: 26
    slice_point: 28
    slice_point: 30
    slice_point: 32
    slice_point: 34
    slice_point: 36
    slice_point: 38
    slice_point: 40
    slice_point: 42
    slice_point: 44
    slice_point: 46
    slice_point: 48
    slice_point: 50
    slice_point: 52
    slice_point: 54
    slice_point: 56
    slice_point: 58
    slice_point: 60
    slice_point: 62
    slice_point: 64
    slice_point: 66
    slice_point: 68
    slice_point: 70
    slice_point: 72
    slice_point: 74
    slice_point: 76
    slice_point: 78
  }
}
layer {
  name: "conv1_bn"
  type: "BatchNorm"
  bottom: "conv1"
  top: "conv1"
  batch_norm_param {
    use_global_stats: false
  }
}
layer {
  name: "conv1_scale"
  type: "Scale"
  bottom: "conv1"
  top: "conv1"
  scale_param {
    bias_term: true
  }
}
layer {
  name: "prelu1"
  type: "PReLU"
  bottom: "conv1"
  top: "conv1"
}
layer {
  name: "pool1"
  type: "Pooling"
  bottom: "conv1"
  top: "pool1"
  pooling_param {
    pool: MAX
    kernel_size: 2
    stride: 2
  }
}
layer {
  name: "conv2a"
  type: "Convolution"
  bottom: "pool1"
  top: "conv2a"
  param {
    name: "conv2a_w"
    lr_mult: 1
    decay_mult: 1
  }
  param {
    name: "conv2a_b"
    lr_mult: 2
    decay_mult: 0
  }
  convolution_param {
    num_output: 64
    kernel_size: 1
    weight_filler {
      type: "xavier"
    }
    bias_filler {
      type: "constant"
      value: 0.2
    }
  }
}
layer {
  name: "conv2a_bn"
  type: "BatchNorm"
  bottom: "conv2a"
  top: "conv2a"
  batch_norm_param {
    use_global_stats: false
  }
}
layer {
  name: "conv2a_scale"
  type: "Scale"
  bottom: "conv2a"
  top: "conv2a"
  scale_param {
    bias_term: true
  }
}
layer {
  name: "prelu2a"
  type: "PReLU"
  bottom: "conv2a"
  top: "conv2a"
}
layer {
  name: "conv2"
  type: "Convolution"
  bottom: "conv2a"
  top: "conv2"
  param {
    name: "conv2_w"
    lr_mult: 1
    decay_mult: 1
  }
  param {
    name: "conv2_b"
    lr_mult: 2
    decay_mult: 0
  }
  convolution_param {
    num_output: 192
    pad: 1
    kernel_size: 3
    stride: 1
    weight_filler {
      type: "xavier"
    }
    bias_filler {
      type: "constant"
      value: 0.2
    }
  }
}
layer {
  name: "conv2_bn"
  type: "BatchNorm"
  bottom: "conv2"
  top: "conv2"
  batch_norm_param {
    use_global_stats: false
  }
}
layer {
  name: "conv2_scale"
  type: "Scale"
  bottom: "conv2"
  top: "conv2"
  scale_param {
    bias_term: true
  }
}
layer {
  name: "prelu2"
  type: "PReLU"
  bottom: "conv2"
  top: "conv2"
}
layer {
  name: "pool2"
  type: "Pooling"
  bottom: "conv2"
  top: "pool2"
  pooling_param {
    pool: MAX
    kernel_size: 2
    stride: 2
  }
}
layer {
  name: "conv3a"
  type: "Convolution"
  bottom: "pool2"
  top: "conv3a"
  param {
    name: "conv3a_w"
    lr_mult: 1
    decay_mult: 1
  }
  param {
    name: "conv3a_b"
    lr_mult: 2
    decay_mult: 0
  }
  convolution_param {
    num_output: 192
    kernel_size: 1
    weight_filler {
      type: "xavier"
    }
    bias_filler {
      type: "constant"
      value: 0.2
    }
  }
}
layer {
  name: "conv3a_bn"
  type: "BatchNorm"
  bottom: "conv3a"
  top: "conv3a"
  batch_norm_param {
    use_global_stats: false
  }
}
layer {
  name: "conv3a_scale"
  type: "Scale"
  bottom: "conv3a"
  top: "conv3a"
  scale_param {
    bias_term: true
  }
}
layer {
  name: "prelu3a"
  type: "PReLU"
  bottom: "conv3a"
  top: "conv3a"
}
layer {
  name: "conv3"
  type: "Convolution"
  bottom: "conv3a"
  top: "conv3"
  param {
    name: "conv3_w"
    lr_mult: 1
    decay_mult: 1
  }
  param {
    name: "conv3_b"
    lr_mult: 2
    decay_mult: 0
  }
  convolution_param {
    num_output: 384
    pad: 1
    kernel_size: 3
    stride: 1
    weight_filler {
      type: "xavier"
    }
    bias_filler {
      type: "constant"
      value: 0.2
    }
  }
}
layer {
  name: "conv3_bn"
  type: "BatchNorm"
  bottom: "conv3"
  top: "conv3"
  batch_norm_param {
    use_global_stats: false
  }
}
layer {
  name: "conv3_scale"
  type: "Scale"
  bottom: "conv3"
  top: "conv3"
  scale_param {
    bias_term: true
  }
}
layer {
  name: "prelu3"
  type: "PReLU"
  bottom: "conv3"
  top: "conv3"
}
layer {
  name: "pool3"
  type: "Pooling"
  bottom: "conv3"
  top: "pool3"
  pooling_param {
    pool: MAX
    kernel_size: 2
    stride: 2
  }
}
layer {
  name: "conv3_gender"
  type: "Convolution"
  bottom: "pool3"
  top: "conv3_gender"
  param {
    lr_mult: 1
    decay_mult: 1
  }
  param {
    lr_mult: 2
    decay_mult: 0
  }
  convolution_param {
    num_output: 512
    pad: 1
    kernel_size: 3
    stride: 2
    weight_filler {
      type: "xavier"
    }
    bias_filler {
      type: "constant"
      value: 0.2
    }
  }
}
layer {
  name: "conv3_gender_bn"
  type: "BatchNorm"
  bottom: "conv3_gender"
  top: "conv3_gender"
  batch_norm_param {
    use_global_stats: false
  }
}
layer {
  name: "conv3_gender_scale"
  type: "Scale"
  bottom: "conv3_gender"
  top: "conv3_gender"
  scale_param {
    bias_term: true
  }
}
layer {
  name: "prelu3_gender"
  type: "PReLU"
  bottom: "conv3_gender"
  top: "conv3_gender"
}
layer {
  name: "pool3_gender"
  type: "Pooling"
  bottom: "conv3_gender"
  top: "pool3_gender"
  pooling_param {
    pool: MAX
    kernel_size: 5
    stride: 2
    pad: 2
  }
}
layer {
  name: "fc1_gender"
  type: "InnerProduct"
  bottom: "pool3_gender"
  top: "fc1_gender"
  param {
    lr_mult: 1
    decay_mult: 1
  }
  param {
    lr_mult: 2
    decay_mult: 0
  }
  inner_product_param {
    num_output: 1024
    weight_filler {
      type: "xavier"
    }
    bias_filler {
      type: "constant"
      value: 0.2
    }
  }
}
layer {
  name: "relu1_gender"
  type: "ReLU"
  bottom: "fc1_gender"
  top: "fc1_gender"
}
layer {
  name: "drop1_gender"
  type: "Dropout"
  bottom: "fc1_gender"
  top: "fc1_gender"
  dropout_param {
    dropout_ratio: 0.5
  }
}
layer {
  name: "fc2_gender"
  type: "InnerProduct"
  bottom: "fc1_gender"
  top: "fc2_gender"
  param {
    lr_mult: 1
    decay_mult: 1
  }
  param {
    lr_mult: 2
    decay_mult: 0
  }
  inner_product_param {
    num_output: 1024
    weight_filler {
      type: "xavier"
    }
    bias_filler {
      type: "constant"
      value: 0.2
    }
  }
}
layer {
  name: "relu2_gender"
  type: "ReLU"
  bottom: "fc2_gender"
  top: "fc2_gender"
}
layer {
  name: "drop2_gender"
  type: "Dropout"
  bottom: "fc2_gender"
  top: "fc2_gender"
  dropout_param {
    dropout_ratio: 0.5
  }
}
layer {
  name: "conv3_nose"
  type: "Convolution"
  bottom: "pool3"
  top: "conv3_nose"
  param {
    lr_mult: 1
    decay_mult: 1
  }
  param {
    lr_mult: 2
    decay_mult: 0
  }
  convolution_param {
    num_output: 512
    pad: 1
    kernel_size: 3
    stride: 2
    weight_filler {
      type: "xavier"
    }
    bias_filler {
      type: "constant"
      value: 0.2
    }
  }
}
layer {
  name: "conv3_nose_bn"
  type: "BatchNorm"
  bottom: "conv3_nose"
  top: "conv3_nose"
  batch_norm_param {
    use_global_stats: false
  }
}
layer {
  name: "conv3_nose_scale"
  type: "Scale"
  bottom: "conv3_nose"
  top: "conv3_nose"
  scale_param {
    bias_term: true
  }
}
layer {
  name: "prelu3_nose"
  type: "PReLU"
  bottom: "conv3_nose"
  top: "conv3_nose"
}
layer {
  name: "pool3_nose"
  type: "Pooling"
  bottom: "conv3_nose"
  top: "pool3_nose"
  pooling_param {
    pool: MAX
    kernel_size: 5
    stride: 2
    pad: 2
  }
}
layer {
  name: "fc1_nose"
  type: "InnerProduct"
  bottom: "pool3_nose"
  top: "fc1_nose"
  param {
    lr_mult: 1
    decay_mult: 1
  }
  param {
    lr_mult: 2
    decay_mult: 0
  }
  inner_product_param {
    num_output: 1024
    weight_filler {
      type: "xavier"
    }
    bias_filler {
      type: "constant"
      value: 0.2
    }
  }
}
layer {
  name: "relu1_nose"
  type: "ReLU"
  bottom: "fc1_nose"
  top: "fc1_nose"
}
layer {
  name: "drop1_nose"
  type: "Dropout"
  bottom: "fc1_nose"
  top: "fc1_nose"
  dropout_param {
    dropout_ratio: 0.5
  }
}
layer {
  name: "fc2_nose"
  type: "InnerProduct"
  bottom: "fc1_nose"
  top: "fc2_nose"
  param {
    lr_mult: 1
    decay_mult: 1
  }
  param {
    lr_mult: 2
    decay_mult: 0
  }
  inner_product_param {
    num_output: 1024
    weight_filler {
      type: "xavier"
    }
    bias_filler {
      type: "constant"
      value: 0.2
    }
  }
}
layer {
  name: "relu2_nose"
  type: "ReLU"
  bottom: "fc2_nose"
  top: "fc2_nose"
}
layer {
  name: "drop2_nose"
  type: "Dropout"
  bottom: "fc2_nose"
  top: "fc2_nose"
  dropout_param {
    dropout_ratio: 0.5
  }
}
layer {
  name: "conv3_mouth"
  type: "Convolution"
  bottom: "pool3"
  top: "conv3_mouth"
  param {
    lr_mult: 1
    decay_mult: 1
  }
  param {
    lr_mult: 2
    decay_mult: 0
  }
  convolution_param {
    num_output: 512
    pad: 1
    kernel_size: 3
    stride: 2
    weight_filler {
      type: "xavier"
    }
    bias_filler {
      type: "constant"
      value: 0.2
    }
  }
}
layer {
  name: "conv3_mouth_bn"
  type: "BatchNorm"
  bottom: "conv3_mouth"
  top: "conv3_mouth"
  batch_norm_param {
    use_global_stats: false
  }
}
layer {
  name: "conv3_mouth_scale"
  type: "Scale"
  bottom: "conv3_mouth"
  top: "conv3_mouth"
  scale_param {
    bias_term: true
  }
}
layer {
  name: "prelu3_mouth"
  type: "PReLU"
  bottom: "conv3_mouth"
  top: "conv3_mouth"
}
layer {
  name: "pool3_mouth"
  type: "Pooling"
  bottom: "conv3_mouth"
  top: "pool3_mouth"
  pooling_param {
    pool: MAX
    kernel_size: 5
    stride: 2
    pad: 2
  }
}
layer {
  name: "fc1_mouth"
  type: "InnerProduct"
  bottom: "pool3_mouth"
  top: "fc1_mouth"
  param {
    lr_mult: 1
    decay_mult: 1
  }
  param {
    lr_mult: 2
    decay_mult: 0
  }
  inner_product_param {
    num_output: 1024
    weight_filler {
      type: "xavier"
    }
    bias_filler {
      type: "constant"
      value: 0.2
    }
  }
}
layer {
  name: "relu1_mouth"
  type: "ReLU"
  bottom: "fc1_mouth"
  top: "fc1_mouth"
}
layer {
  name: "drop1_mouth"
  type: "Dropout"
  bottom: "fc1_mouth"
  top: "fc1_mouth"
  dropout_param {
    dropout_ratio: 0.5
  }
}
layer {
  name: "fc2_mouth"
  type: "InnerProduct"
  bottom: "fc1_mouth"
  top: "fc2_mouth"
  param {
    lr_mult: 1
    decay_mult: 1
  }
  param {
    lr_mult: 2
    decay_mult: 0
  }
  inner_product_param {
    num_output: 1024
    weight_filler {
      type: "xavier"
    }
    bias_filler {
      type: "constant"
      value: 0.2
    }
  }
}
layer {
  name: "relu2_mouth"
  type: "ReLU"
  bottom: "fc2_mouth"
  top: "fc2_mouth"
}
layer {
  name: "drop2_mouth"
  type: "Dropout"
  bottom: "fc2_mouth"
  top: "fc2_mouth"
  dropout_param {
    dropout_ratio: 0.5
  }
}
layer {
  name: "conv3_eyes"
  type: "Convolution"
  bottom: "pool3"
  top: "conv3_eyes"
  param {
    lr_mult: 1
    decay_mult: 1
  }
  param {
    lr_mult: 2
    decay_mult: 0
  }
  convolution_param {
    num_output: 512
    pad: 1
    kernel_size: 3
    stride: 2
    weight_filler {
      type: "xavier"
    }
    bias_filler {
      type: "constant"
      value: 0.2
    }
  }
}
layer {
  name: "conv3_eyes_bn"
  type: "BatchNorm"
  bottom: "conv3_eyes"
  top: "conv3_eyes"
  batch_norm_param {
    use_global_stats: false
  }
}
layer {
  name: "conv3_eyes_scale"
  type: "Scale"
  bottom: "conv3_eyes"
  top: "conv3_eyes"
  scale_param {
    bias_term: true
  }
}
layer {
  name: "prelu3_eyes"
  type: "PReLU"
  bottom: "conv3_eyes"
  top: "conv3_eyes"
}
layer {
  name: "pool3_eyes"
  type: "Pooling"
  bottom: "conv3_eyes"
  top: "pool3_eyes"
  pooling_param {
    pool: MAX
    kernel_size: 5
    stride: 2
    pad: 2
  }
}
layer {
  name: "fc1_eyes"
  type: "InnerProduct"
  bottom: "pool3_eyes"
  top: "fc1_eyes"
  param {
    lr_mult: 1
    decay_mult: 1
  }
  param {
    lr_mult: 2
    decay_mult: 0
  }
  inner_product_param {
    num_output: 1024
    weight_filler {
      type: "xavier"
    }
    bias_filler {
      type: "constant"
      value: 0.2
    }
  }
}
layer {
  name: "relu1_eyes"
  type: "ReLU"
  bottom: "fc1_eyes"
  top: "fc1_eyes"
}
layer {
  name: "drop1_eyes"
  type: "Dropout"
  bottom: "fc1_eyes"
  top: "fc1_eyes"
  dropout_param {
    dropout_ratio: 0.5
  }
}
layer {
  name: "fc2_eyes"
  type: "InnerProduct"
  bottom: "fc1_eyes"
  top: "fc2_eyes"
  param {
    lr_mult: 1
    decay_mult: 1
  }
  param {
    lr_mult: 2
    decay_mult: 0
  }
  inner_product_param {
    num_output: 1024
    weight_filler {
      type: "xavier"
    }
    bias_filler {
      type: "constant"
      value: 0.2
    }
  }
}
layer {
  name: "relu2_eyes"
  type: "ReLU"
  bottom: "fc2_eyes"
  top: "fc2_eyes"
}
layer {
  name: "drop2_eyes"
  type: "Dropout"
  bottom: "fc2_eyes"
  top: "fc2_eyes"
  dropout_param {
    dropout_ratio: 0.5
  }
}
layer {
  name: "conv3_face"
  type: "Convolution"
  bottom: "pool3"
  top: "conv3_face"
  param {
    lr_mult: 1
    decay_mult: 1
  }
  param {
    lr_mult: 2
    decay_mult: 0
  }
  convolution_param {
    num_output: 512
    pad: 1
    kernel_size: 3
    stride: 2
    weight_filler {
      type: "xavier"
    }
    bias_filler {
      type: "constant"
      value: 0.2
    }
  }
}
layer {
  name: "conv3_face_bn"
  type: "BatchNorm"
  bottom: "conv3_face"
  top: "conv3_face"
  batch_norm_param {
    use_global_stats: false
  }
}
layer {
  name: "conv3_face_scale"
  type: "Scale"
  bottom: "conv3_face"
  top: "conv3_face"
  scale_param {
    bias_term: true
  }
}
layer {
  name: "prelu3_face"
  type: "PReLU"
  bottom: "conv3_face"
  top: "conv3_face"
}
layer {
  name: "pool3_face"
  type: "Pooling"
  bottom: "conv3_face"
  top: "pool3_face"
  pooling_param {
    pool: MAX
    kernel_size: 5
    stride: 2
    pad: 2
  }
}
layer {
  name: "fc1_face"
  type: "InnerProduct"
  bottom: "pool3_face"
  top: "fc1_face"
  param {
    lr_mult: 1
    decay_mult: 1
  }
  param {
    lr_mult: 2
    decay_mult: 0
  }
  inner_product_param {
    num_output: 1024
    weight_filler {
      type: "xavier"
    }
    bias_filler {
      type: "constant"
      value: 0.2
    }
  }
}
layer {
  name: "relu1_face"
  type: "ReLU"
  bottom: "fc1_face"
  top: "fc1_face"
}
layer {
  name: "drop1_face"
  type: "Dropout"
  bottom: "fc1_face"
  top: "fc1_face"
  dropout_param {
    dropout_ratio: 0.5
  }
}
layer {
  name: "fc2_face"
  type: "InnerProduct"
  bottom: "fc1_face"
  top: "fc2_face"
  param {
    lr_mult: 1
    decay_mult: 1
  }
  param {
    lr_mult: 2
    decay_mult: 0
  }
  inner_product_param {
    num_output: 1024
    weight_filler {
      type: "xavier"
    }
    bias_filler {
      type: "constant"
      value: 0.2
    }
  }
}
layer {
  name: "relu2_face"
  type: "ReLU"
  bottom: "fc2_face"
  top: "fc2_face"
}
layer {
  name: "drop2_face"
  type: "Dropout"
  bottom: "fc2_face"
  top: "fc2_face"
  dropout_param {
    dropout_ratio: 0.5
  }
}
layer {
  name: "conv3_rest"
  type: "Convolution"
  bottom: "pool3"
  top: "conv3_rest"
  param {
    lr_mult: 1
    decay_mult: 1
  }
  param {
    lr_mult: 2
    decay_mult: 0
  }
  convolution_param {
    num_output: 512
    pad: 1
    kernel_size: 3
    stride: 2
    weight_filler {
      type: "xavier"
    }
    bias_filler {
      type: "constant"
      value: 0.2
    }
  }
}
layer {
  name: "conv3_rest_bn"
  type: "BatchNorm"
  bottom: "conv3_rest"
  top: "conv3_rest"
  batch_norm_param {
    use_global_stats: false
  }
}
layer {
  name: "conv3_rest_scale"
  type: "Scale"
  bottom: "conv3_rest"
  top: "conv3_rest"
  scale_param {
    bias_term: true
  }
}
layer {
  name: "prelu3_rest"
  type: "PReLU"
  bottom: "conv3_rest"
  top: "conv3_rest"
}
layer {
  name: "pool3_rest"
  type: "Pooling"
  bottom: "conv3_rest"
  top: "pool3_rest"
  pooling_param {
    pool: MAX
    kernel_size: 5
    stride: 2
    pad: 2
  }
}
layer {
  name: "fc1_aroundhead"
  type: "InnerProduct"
  bottom: "pool3_rest"
  top: "fc1_aroundhead"
  param {
    lr_mult: 1
    decay_mult: 1
  }
  param {
    lr_mult: 2
    decay_mult: 0
  }
  inner_product_param {
    num_output: 1024
    weight_filler {
      type: "xavier"
    }
    bias_filler {
      type: "constant"
      value: 0.2
    }
  }
}
layer {
  name: "relu1_aroundhead"
  type: "ReLU"
  bottom: "fc1_aroundhead"
  top: "fc1_aroundhead"
}
layer {
  name: "drop1_aroundhead"
  type: "Dropout"
  bottom: "fc1_aroundhead"
  top: "fc1_aroundhead"
  dropout_param {
    dropout_ratio: 0.5
  }
}
layer {
  name: "fc2_aroundhead"
  type: "InnerProduct"
  bottom: "fc1_aroundhead"
  top: "fc2_aroundhead"
  param {
    lr_mult: 1
    decay_mult: 1
  }
  param {
    lr_mult: 2
    decay_mult: 0
  }
  inner_product_param {
    num_output: 1024
    weight_filler {
      type: "xavier"
    }
    bias_filler {
      type: "constant"
      value: 0.2
    }
  }
}
layer {
  name: "relu2_aroundhead"
  type: "ReLU"
  bottom: "fc2_aroundhead"
  top: "fc2_aroundhead"
}
layer {
  name: "drop2_aroundhead"
  type: "Dropout"
  bottom: "fc2_aroundhead"
  top: "fc2_aroundhead"
  dropout_param {
    dropout_ratio: 0.5
  }
}
layer {
  name: "fc1_facialhair"
  type: "InnerProduct"
  bottom: "pool3_rest"
  top: "fc1_facialhair"
  param {
    lr_mult: 1
    decay_mult: 1
  }
  param {
    lr_mult: 2
    decay_mult: 0
  }
  inner_product_param {
    num_output: 1024
    weight_filler {
      type: "xavier"
    }
    bias_filler {
      type: "constant"
      value: 0.2
    }
  }
}
layer {
  name: "relu1_facialhair"
  type: "ReLU"
  bottom: "fc1_facialhair"
  top: "fc1_facialhair"
}
layer {
  name: "drop1_facialhair"
  type: "Dropout"
  bottom: "fc1_facialhair"
  top: "fc1_facialhair"
  dropout_param {
    dropout_ratio: 0.5
  }
}
layer {
  name: "fc2_facialhair"
  type: "InnerProduct"
  bottom: "fc1_facialhair"
  top: "fc2_facialhair"
  param {
    lr_mult: 1
    decay_mult: 1
  }
  param {
    lr_mult: 2
    decay_mult: 0
  }
  inner_product_param {
    num_output: 1024
    weight_filler {
      type: "xavier"
    }
    bias_filler {
      type: "constant"
      value: 0.2
    }
  }
}
layer {
  name: "relu2_facialhair"
  type: "ReLU"
  bottom: "fc2_facialhair"
  top: "fc2_facialhair"
}
layer {
  name: "drop2_facialhair"
  type: "Dropout"
  bottom: "fc2_facialhair"
  top: "fc2_facialhair"
  dropout_param {
    dropout_ratio: 0.5
  }
}
layer {
  name: "fc1_cheeks"
  type: "InnerProduct"
  bottom: "pool3_rest"
  top: "fc1_cheeks"
  param {
    lr_mult: 1
    decay_mult: 1
  }
  param {
    lr_mult: 2
    decay_mult: 0
  }
  inner_product_param {
    num_output: 1024
    weight_filler {
      type: "xavier"
    }
    bias_filler {
      type: "constant"
      value: 0.2
    }
  }
}
layer {
  name: "relu1_cheeks"
  type: "ReLU"
  bottom: "fc1_cheeks"
  top: "fc1_cheeks"
}
layer {
  name: "drop1_cheeks"
  type: "Dropout"
  bottom: "fc1_cheeks"
  top: "fc1_cheeks"
  dropout_param {
    dropout_ratio: 0.5
  }
}
layer {
  name: "fc2_cheeks"
  type: "InnerProduct"
  bottom: "fc1_cheeks"
  top: "fc2_cheeks"
  param {
    lr_mult: 1
    decay_mult: 1
  }
  param {
    lr_mult: 2
    decay_mult: 0
  }
  inner_product_param {
    num_output: 1024
    weight_filler {
      type: "xavier"
    }
    bias_filler {
      type: "constant"
      value: 0.2
    }
  }
}
layer {
  name: "relu2_cheeks"
  type: "ReLU"
  bottom: "fc2_cheeks"
  top: "fc2_cheeks"
}
layer {
  name: "drop2_cheeks"
  type: "Dropout"
  bottom: "fc2_cheeks"
  top: "fc2_cheeks"
  dropout_param {
    dropout_ratio: 0.5
  }
}
layer {
  name: "fc1_fat"
  type: "InnerProduct"
  bottom: "pool3_rest"
  top: "fc1_fat"
  param {
    lr_mult: 1
    decay_mult: 1
  }
  param {
    lr_mult: 2
    decay_mult: 0
  }
  inner_product_param {
    num_output: 1024
    weight_filler {
      type: "xavier"
    }
    bias_filler {
      type: "constant"
      value: 0.2
    }
  }
}
layer {
  name: "relu1_fat"
  type: "ReLU"
  bottom: "fc1_fat"
  top: "fc1_fat"
}
layer {
  name: "drop1_fat"
  type: "Dropout"
  bottom: "fc1_fat"
  top: "fc1_fat"
  dropout_param {
    dropout_ratio: 0.5
  }
}
layer {
  name: "fc2_fat"
  type: "InnerProduct"
  bottom: "fc1_fat"
  top: "fc2_fat"
  param {
    lr_mult: 1
    decay_mult: 1
  }
  param {
    lr_mult: 2
    decay_mult: 0
  }
  inner_product_param {
    num_output: 1024
    weight_filler {
      type: "xavier"
    }
    bias_filler {
      type: "constant"
      value: 0.2
    }
  }
}
layer {
  name: "relu2_fat"
  type: "ReLU"
  bottom: "fc2_fat"
  top: "fc2_fat"
}
layer {
  name: "drop2_fat"
  type: "Dropout"
  bottom: "fc2_fat"
  top: "fc2_fat"
  dropout_param {
    dropout_ratio: 0.5
  }
}
layer {
  name: "fc3_Male"
  type: "InnerProduct"
  bottom: "fc2_gender"
  top: "fc3_Male"
  inner_product_param {
    num_output: 2
    weight_filler {
      type: "xavier"
    }
    bias_filler {
      type: "constant"
      value: 0
    }
  }
}
layer {
  name: "loss_Male"
  type: "SigmoidCrossEntropyLoss"
  bottom: "fc3_Male"
  bottom: "label_Male"
  top: "loss_Male"
}
layer {
  name: "fc3_Big_Nose"
  type: "InnerProduct"
  bottom: "fc2_nose"
  top: "fc3_Big_Nose"
  inner_product_param {
    num_output: 2
    weight_filler {
      type: "xavier"
    }
    bias_filler {
      type: "constant"
      value: 0
    }
  }
}
layer {
  name: "loss_Big_Nose"
  type: "SigmoidCrossEntropyLoss"
  bottom: "fc3_Big_Nose"
  bottom: "label_Big_Nose"
  top: "loss_Big_Nose"
}
layer {
  name: "fc3_Pointy_Nose"
  type: "InnerProduct"
  bottom: "fc2_nose"
  top: "fc3_Pointy_Nose"
  inner_product_param {
    num_output: 2
    weight_filler {
      type: "xavier"
    }
    bias_filler {
      type: "constant"
      value: 0
    }
  }
}
layer {
  name: "loss_Pointy_Nose"
  type: "SigmoidCrossEntropyLoss"
  bottom: "fc3_Pointy_Nose"
  bottom: "label_Pointy_Nose"
  top: "loss_Pointy_Nose"
}
layer {
  name: "fc3_Big_Lips"
  type: "InnerProduct"
  bottom: "fc2_mouth"
  top: "fc3_Big_Lips"
  inner_product_param {
    num_output: 2
    weight_filler {
      type: "xavier"
    }
    bias_filler {
      type: "constant"
      value: 0
    }
  }
}
layer {
  name: "loss_Big_Lips"
  type: "SigmoidCrossEntropyLoss"
  bottom: "fc3_Big_Lips"
  bottom: "label_Big_Lips"
  top: "loss_Big_Lips"
}
layer {
  name: "fc3_Smiling"
  type: "InnerProduct"
  bottom: "fc2_mouth"
  top: "fc3_Smiling"
  inner_product_param {
    num_output: 2
    weight_filler {
      type: "xavier"
    }
    bias_filler {
      type: "constant"
      value: 0
    }
  }
}
layer {
  name: "loss_Smiling"
  type: "SigmoidCrossEntropyLoss"
  bottom: "fc3_Smiling"
  bottom: "label_Smiling"
  top: "loss_Smiling"
}
layer {
  name: "fc3_Wearing_Lipstick"
  type: "InnerProduct"
  bottom: "fc2_mouth"
  top: "fc3_Wearing_Lipstick"
  inner_product_param {
    num_output: 2
    weight_filler {
      type: "xavier"
    }
    bias_filler {
      type: "constant"
      value: 0
    }
  }
}
layer {
  name: "loss_Wearing_Lipstick"
  type: "SigmoidCrossEntropyLoss"
  bottom: "fc3_Wearing_Lipstick"
  bottom: "label_Wearing_Lipstick"
  top: "loss_Wearing_Lipstick"
}
layer {
  name: "fc3_Mouth_Slightly_Open"
  type: "InnerProduct"
  bottom: "fc2_mouth"
  top: "fc3_Mouth_Slightly_Open"
  inner_product_param {
    num_output: 2
    weight_filler {
      type: "xavier"
    }
    bias_filler {
      type: "constant"
      value: 0
    }
  }
}
layer {
  name: "loss_Mouth_Slightly_Open"
  type: "SigmoidCrossEntropyLoss"
  bottom: "fc3_Mouth_Slightly_Open"
  bottom: "label_Mouth_Slightly_Open"
  top: "loss_Mouth_Slightly_Open"
}
layer {
  name: "fc3_Arched_Eyebrows"
  type: "InnerProduct"
  bottom: "fc2_eyes"
  top: "fc3_Arched_Eyebrows"
  inner_product_param {
    num_output: 2
    weight_filler {
      type: "xavier"
    }
    bias_filler {
      type: "constant"
      value: 0
    }
  }
}
layer {
  name: "loss_Arched_Eyebrows"
  type: "SigmoidCrossEntropyLoss"
  bottom: "fc3_Arched_Eyebrows"
  bottom: "label_Arched_Eyebrows"
  top: "loss_Arched_Eyebrows"
}
layer {
  name: "fc3_Bags_Under_Eyes"
  type: "InnerProduct"
  bottom: "fc2_eyes"
  top: "fc3_Bags_Under_Eyes"
  inner_product_param {
    num_output: 2
    weight_filler {
      type: "xavier"
    }
    bias_filler {
      type: "constant"
      value: 0
    }
  }
}
layer {
  name: "loss_Bags_Under_Eyes"
  type: "SigmoidCrossEntropyLoss"
  bottom: "fc3_Bags_Under_Eyes"
  bottom: "label_Bags_Under_Eyes"
  top: "loss_Bags_Under_Eyes"
}
layer {
  name: "fc3_Bushy_Eyebrows"
  type: "InnerProduct"
  bottom: "fc2_eyes"
  top: "fc3_Bushy_Eyebrows"
  inner_product_param {
    num_output: 2
    weight_filler {
      type: "xavier"
    }
    bias_filler {
      type: "constant"
      value: 0
    }
  }
}
layer {
  name: "loss_Bushy_Eyebrows"
  type: "SigmoidCrossEntropyLoss"
  bottom: "fc3_Bushy_Eyebrows"
  bottom: "label_Bushy_Eyebrows"
  top: "loss_Bushy_Eyebrows"
}
layer {
  name: "fc3_Narrow_Eyes"
  type: "InnerProduct"
  bottom: "fc2_eyes"
  top: "fc3_Narrow_Eyes"
  inner_product_param {
    num_output: 2
    weight_filler {
      type: "xavier"
    }
    bias_filler {
      type: "constant"
      value: 0
    }
  }
}
layer {
  name: "loss_Narrow_Eyes"
  type: "SigmoidCrossEntropyLoss"
  bottom: "fc3_Narrow_Eyes"
  bottom: "label_Narrow_Eyes"
  top: "loss_Narrow_Eyes"
}
layer {
  name: "fc3_Eyeglasses"
  type: "InnerProduct"
  bottom: "fc2_eyes"
  top: "fc3_Eyeglasses"
  inner_product_param {
    num_output: 2
    weight_filler {
      type: "xavier"
    }
    bias_filler {
      type: "constant"
      value: 0
    }
  }
}
layer {
  name: "loss_Eyeglasses"
  type: "SigmoidCrossEntropyLoss"
  bottom: "fc3_Eyeglasses"
  bottom: "label_Eyeglasses"
  top: "loss_Eyeglasses"
}
layer {
  name: "fc3_Attractive"
  type: "InnerProduct"
  bottom: "fc2_face"
  top: "fc3_Attractive"
  inner_product_param {
    num_output: 2
    weight_filler {
      type: "xavier"
    }
    bias_filler {
      type: "constant"
      value: 0
    }
  }
}
layer {
  name: "loss_Attractive"
  type: "SigmoidCrossEntropyLoss"
  bottom: "fc3_Attractive"
  bottom: "label_Attractive"
  top: "loss_Attractive"
}
layer {
  name: "fc3_Blurry"
  type: "InnerProduct"
  bottom: "fc2_face"
  top: "fc3_Blurry"
  inner_product_param {
    num_output: 2
    weight_filler {
      type: "xavier"
    }
    bias_filler {
      type: "constant"
      value: 0
    }
  }
}
layer {
  name: "loss_Blurry"
  type: "SigmoidCrossEntropyLoss"
  bottom: "fc3_Blurry"
  bottom: "label_Blurry"
  top: "loss_Blurry"
}
layer {
  name: "fc3_Oval_Face"
  type: "InnerProduct"
  bottom: "fc2_face"
  top: "fc3_Oval_Face"
  inner_product_param {
    num_output: 2
    weight_filler {
      type: "xavier"
    }
    bias_filler {
      type: "constant"
      value: 0
    }
  }
}
layer {
  name: "loss_Oval_Face"
  type: "SigmoidCrossEntropyLoss"
  bottom: "fc3_Oval_Face"
  bottom: "label_Oval_Face"
  top: "loss_Oval_Face"
}
layer {
  name: "fc3_Pale_Skin"
  type: "InnerProduct"
  bottom: "fc2_face"
  top: "fc3_Pale_Skin"
  inner_product_param {
    num_output: 2
    weight_filler {
      type: "xavier"
    }
    bias_filler {
      type: "constant"
      value: 0
    }
  }
}
layer {
  name: "loss_Pale_Skin"
  type: "SigmoidCrossEntropyLoss"
  bottom: "fc3_Pale_Skin"
  bottom: "label_Pale_Skin"
  top: "loss_Pale_Skin"
}
layer {
  name: "fc3_Young"
  type: "InnerProduct"
  bottom: "fc2_face"
  top: "fc3_Young"
  inner_product_param {
    num_output: 2
    weight_filler {
      type: "xavier"
    }
    bias_filler {
      type: "constant"
      value: 0
    }
  }
}
layer {
  name: "loss_Young"
  type
I1025 11:06:11.085630 21272 layer_factory.hpp:77] Creating layer data
I1025 11:06:11.085681 21272 net.cpp:106] Creating Layer data
I1025 11:06:11.085690 21272 net.cpp:411] data -> data
I1025 11:06:11.085721 21272 net.cpp:411] data -> label
I1025 11:06:11.085736 21272 data_transformer.cpp:26] Loading mean file from: /home/zhangyuan/caojiajiong/attribute_learning/data/train_attr_id.binaryproto
I1025 11:06:11.101758 21272 image_data_layer.cpp:38] Opening file /home/zhangyuan/caojiajiong/attribute_learning/list/train_55p_shuffle.txt
I1025 11:06:11.121793 21272 image_data_layer.cpp:53] A total of 47449 images.
I1025 11:06:11.122874 21272 image_data_layer.cpp:80] output data size: 70,3,112,112
I1025 11:06:11.144959 21272 net.cpp:150] Setting up data
I1025 11:06:11.144997 21272 net.cpp:157] Top shape: 70 3 112 112 (2634240)
I1025 11:06:11.145005 21272 net.cpp:157] Top shape: 70 (70)
I1025 11:06:11.145009 21272 net.cpp:165] Memory required for data: 10537240
I1025 11:06:11.145023 21272 layer_factory.hpp:77] Creating layer label_data_1_split
I1025 11:06:11.145047 21272 net.cpp:106] Creating Layer label_data_1_split
I1025 11:06:11.145056 21272 net.cpp:454] label_data_1_split <- label
I1025 11:06:11.145071 21272 net.cpp:411] label_data_1_split -> label_data_1_split_0
I1025 11:06:11.145086 21272 net.cpp:411] label_data_1_split -> label_data_1_split_1
I1025 11:06:11.145198 21272 net.cpp:150] Setting up label_data_1_split
I1025 11:06:11.145212 21272 net.cpp:157] Top shape: 70 (70)
I1025 11:06:11.145217 21272 net.cpp:157] Top shape: 70 (70)
I1025 11:06:11.145220 21272 net.cpp:165] Memory required for data: 10537800
I1025 11:06:11.145226 21272 layer_factory.hpp:77] Creating layer attr_data
I1025 11:06:11.145356 21272 net.cpp:106] Creating Layer attr_data
I1025 11:06:11.145370 21272 net.cpp:411] attr_data -> attr_data
I1025 11:06:11.145381 21272 net.cpp:411] attr_data -> fakelabel
I1025 11:06:11.148943 21277 db_lmdb.cpp:38] Opened lmdb /home/zhangyuan/caojiajiong/attribute_learning/data/attr_train_55p
I1025 11:06:11.149189 21272 data_layer.cpp:41] output data size: 70,80,1,1
I1025 11:06:11.150854 21272 net.cpp:150] Setting up attr_data
I1025 11:06:11.150874 21272 net.cpp:157] Top shape: 70 80 1 1 (5600)
I1025 11:06:11.150881 21272 net.cpp:157] Top shape: 70 (70)
I1025 11:06:11.150884 21272 net.cpp:165] Memory required for data: 10560480
I1025 11:06:11.150889 21272 layer_factory.hpp:77] Creating layer conv1
I1025 11:06:11.150918 21272 net.cpp:106] Creating Layer conv1
I1025 11:06:11.150923 21272 net.cpp:454] conv1 <- data
I1025 11:06:11.150933 21272 net.cpp:411] conv1 -> conv1
I1025 11:06:11.390964 21272 net.cpp:150] Setting up conv1
I1025 11:06:11.391016 21272 net.cpp:157] Top shape: 70 64 112 112 (56197120)
I1025 11:06:11.391026 21272 net.cpp:165] Memory required for data: 235348960
I1025 11:06:11.391049 21272 layer_factory.hpp:77] Creating layer slice
I1025 11:06:11.391080 21272 net.cpp:106] Creating Layer slice
I1025 11:06:11.391098 21272 net.cpp:454] slice <- attr_data
I1025 11:06:11.391110 21272 net.cpp:411] slice -> label_5_o_Clock_Shadow
I1025 11:06:11.391134 21272 net.cpp:411] slice -> label_Arched_Eyebrows
…
I1025 11:06:11.391629 21272 net.cpp:411] slice -> label_Straight_Hair
I1025 11:06:11.391646 21272 net.cpp:411] slice -> label_Wavy_Hair
I1025 11:06:11.391662 21272 net.cpp:411] slice -> label_Wearing_Earrings
I1025 11:06:11.391679 21272 net.cpp:411] slice -> label_Wearing_Hat
I1025 11:06:11.391721 21272 net.cpp:411] slice -> label_Wearing_Lipstick
I1025 11:06:11.391738 21272 net.cpp:411] slice -> label_Wearing_Necklace
I1025 11:06:11.391754 21272 net.cpp:411] slice -> label_Wearing_Necktie
I1025 11:06:11.391780 21272 net.cpp:411] slice -> label_Young
I1025 11:06:11.392453 21272 net.cpp:150] Setting up slice
I1025 11:06:11.392468 21272 net.cpp:157] Top shape: 70 2 1 1 (140)
I1025 11:06:11.392479 21272 net.cpp:157] Top shape: 70 2 1 1 (140)
I1025 11:06:11.392487 21272 net.cpp:157] Top shape: 70 2 1 1 (140)
I1025 11:06:11.392493 21272 net.cpp:157] Top shape: 70 2 1 1 (140)
I1025 11:06:11.392503 21272 net.cpp:157] Top shape: 70 2 1 1 (140)
I1025 11:06:11.392509 21272 net.cpp:157] Top shape: 70 2 1 1 (140)
I1025 11:06:11.392515 21272 net.cpp:157] Top shape: 70 2 1 1 (140)
I1025 11:06:11.392523 21272 net.cpp:157] Top shape: 70 2 1 1 (140)
I1025 11:06:11.392529 21272 net.cpp:157] Top shape: 70 2 1 1 (140)
I1025 11:06:11.392539 21272 net.cpp:157] Top shape: 70 2 1 1 (140)
I1025 11:06:11.392545 21272 net.cpp:157] Top shape: 70 2 1 1 (140)
I1025 11:06:11.392551 21272 net.cpp:157] Top shape: 70 2 1 1 (140)
I1025 11:06:11.392559 21272 net.cpp:157] Top shape: 70 2 1 1 (140)
I1025 11:06:11.392566 21272 net.cpp:157] Top shape: 70 2 1 1 (140)
I1025 11:06:11.392573 21272 net.cpp:157] Top shape: 70 2 1 1 (140)
I1025 11:06:11.392580 21272 net.cpp:157] Top shape: 70 2 1 1 (140)
I1025 11:06:11.392586 21272 net.cpp:157] Top shape: 70 2 1 1 (140)
I1025 11:06:11.392593 21272 net.cpp:157] Top shape: 70 2 1 1 (140)
I1025 11:06:11.392601 21272 net.cpp:157] Top shape: 70 2 1 1 (140)
I1025 11:06:11.392607 21272 net.cpp:157] Top shape: 70 2 1 1 (140)
I1025 11:06:11.392614 21272 net.cpp:157] Top shape: 70 2 1 1 (140)
I1025 11:06:11.392621 21272 net.cpp:157] Top shape: 70 2 1 1 (140)
I1025 11:06:11.392629 21272 net.cpp:157] Top shape: 70 2 1 1 (140)
I1025 11:06:11.392637 21272 net.cpp:157] Top shape: 70 2 1 1 (140)
I1025 11:06:11.392642 21272 net.cpp:157] Top shape: 70 2 1 1 (140)
I1025 11:06:11.392649 21272 net.cpp:157] Top shape: 70 2 1 1 (140)
I1025 11:06:11.392659 21272 net.cpp:157] Top shape: 70 2 1 1 (140)
I1025 11:06:11.392666 21272 net.cpp:157] Top shape: 70 2 1 1 (140)
I1025 11:06:11.392673 21272 net.cpp:157] Top shape: 70 2 1 1 (140)
I1025 11:06:11.392678 21272 net.cpp:157] Top shape: 70 2 1 1 (140)
I1025 11:06:11.392688 21272 net.cpp:157] Top shape: 70 2 1 1 (140)
I1025 11:06:11.392693 21272 net.cpp:157] Top shape: 70 2 1 1 (140)
I1025 11:06:11.392700 21272 net.cpp:157] Top shape: 70 2 1 1 (140)
I1025 11:06:11.392706 21272 net.cpp:157] Top shape: 70 2 1 1 (140)
I1025 11:06:11.392714 21272 net.cpp:157] Top shape: 70 2 1 1 (140)
I1025 11:06:11.392721 21272 net.cpp:157] Top shape: 70 2 1 1 (140)
I1025 11:06:11.392727 21272 net.cpp:157] Top shape: 70 2 1 1 (140)
I1025 11:06:11.392735 21272 net.cpp:157] Top shape: 70 2 1 1 (140)
I1025 11:06:11.392740 21272 net.cpp:157] Top shape: 70 2 1 1 (140)
I1025 11:06:11.392750 21272 net.cpp:157] Top shape: 70 2 1 1 (140)
I1025 11:06:11.392755 21272 net.cpp:165] Memory required for data: 235371360
I1025 11:06:11.392760 21272 layer_factory.hpp:77] Creating layer conv1_bn
I1025 11:06:11.392772 21272 net.cpp:106] Creating Layer conv1_bn
I1025 11:06:11.392781 21272 net.cpp:454] conv1_bn <- conv1
I1025 11:06:11.392789 21272 net.cpp:397] conv1_bn -> conv1 (in-place)
I1025 11:06:11.393072 21272 net.cpp:150] Setting up conv1_bn
I1025 11:06:11.393085 21272 net.cpp:157] Top shape: 70 64 112 112 (56197120)
I1025 11:06:11.393091 21272 net.cpp:165] Memory required for data: 460159840
I1025 11:06:11.393111 21272 layer_factory.hpp:77] Creating layer conv1_scale
I1025 11:06:11.393132 21272 net.cpp:106] Creating Layer conv1_scale
I1025 11:06:11.393141 21272 net.cpp:454] conv1_scale <- conv1
I1025 11:06:11.393148 21272 net.cpp:397] conv1_scale -> conv1 (in-place)
I1025 11:06:11.393218 21272 layer_factory.hpp:77] Creating layer conv1_scale
I1025 11:06:11.393415 21272 net.cpp:150] Setting up conv1_scale
I1025 11:06:11.393429 21272 net.cpp:157] Top shape: 70 64 112 112 (56197120)
I1025 11:06:11.393450 21272 net.cpp:165] Memory required for data: 684948320
I1025 11:06:11.393462 21272 layer_factory.hpp:77] Creating layer prelu1
I1025 11:06:11.393479 21272 net.cpp:106] Creating Layer prelu1
I1025 11:06:11.393487 21272 net.cpp:454] prelu1 <- conv1
I1025 11:06:11.393496 21272 net.cpp:397] prelu1 -> conv1 (in-place)
I1025 11:06:11.396257 21272 net.cpp:150] Setting up prelu1
I1025 11:06:11.396281 21272 net.cpp:157] Top shape: 70 64 112 112 (56197120)
I1025 11:06:11.396287 21272 net.cpp:165] Memory required for data: 909736800
I1025 11:06:11.396296 21272 layer_factory.hpp:77] Creating layer pool1
I1025 11:06:11.396309 21272 net.cpp:106] Creating Layer pool1
I1025 11:06:11.396317 21272 net.cpp:454] pool1 <- conv1
I1025 11:06:11.396325 21272 net.cpp:411] pool1 -> pool1
I1025 11:06:11.396845 21272 net.cpp:150] Setting up pool1
I1025 11:06:11.396867 21272 net.cpp:157] Top shape: 70 64 56 56 (14049280)
I1025 11:06:11.396874 21272 net.cpp:165] Memory required for data: 965933920
I1025 11:06:11.396880 21272 layer_factory.hpp:77] Creating layer conv2a
I1025 11:06:11.396896 21272 net.cpp:106] Creating Layer conv2a
I1025 11:06:11.396903 21272 net.cpp:454] conv2a <- pool1
I1025 11:06:11.396914 21272 net.cpp:411] conv2a -> conv2a
I1025 11:06:11.398994 21272 net.cpp:150] Setting up conv2a
I1025 11:06:11.399046 21272 net.cpp:157] Top shape: 70 64 56 56 (14049280)
I1025 11:06:11.399057 21272 net.cpp:165] Memory required for data: 1022131040
I1025 11:06:11.399082 21272 layer_factory.hpp:77] Creating layer conv2a_bn
I1025 11:06:11.399102 21272 net.cpp:106] Creating Layer conv2a_bn
I1025 11:06:11.399112 21272 net.cpp:454] conv2a_bn <- conv2a
I1025 11:06:11.399125 21272 net.cpp:397] conv2a_bn -> conv2a (in-place)
I1025 11:06:11.399513 21272 net.cpp:150] Setting up conv2a_bn
I1025 11:06:11.399530 21272 net.cpp:157] Top shape: 70 64 56 56 (14049280)
I1025 11:06:11.399538 21272 net.cpp:165] Memory required for data: 1078328160
I1025 11:06:11.399555 21272 layer_factory.hpp:77] Creating layer conv2a_scale
I1025 11:06:11.399572 21272 net.cpp:106] Creating Layer conv2a_scale
I1025 11:06:11.399580 21272 net.cpp:454] conv2a_scale <- conv2a
I1025 11:06:11.399591 21272 net.cpp:397] conv2a_scale -> conv2a (in-place)
I1025 11:06:11.399679 21272 layer_factory.hpp:77] Creating layer conv2a_scale
I1025 11:06:11.399947 21272 net.cpp:150] Setting up conv2a_scale
I1025 11:06:11.399968 21272 net.cpp:157] Top shape: 70 64 56 56 (14049280)
I1025 11:06:11.399976 21272 net.cpp:165] Memory required for data: 1134525280
I1025 11:06:11.399991 21272 layer_factory.hpp:77] Creating layer prelu2a
I1025 11:06:11.400004 21272 net.cpp:106] Creating Layer prelu2a
I1025 11:06:11.400012 21272 net.cpp:454] prelu2a <- conv2a
I1025 11:06:11.400023 21272 net.cpp:397] prelu2a -> conv2a (in-place)
I1025 11:06:11.401460 21272 net.cpp:150] Setting up prelu2a
I1025 11:06:11.401489 21272 net.cpp:157] Top shape: 70 64 56 56 (14049280)
I1025 11:06:11.401496 21272 net.cpp:165] Memory required for data: 1190722400
I1025 11:06:11.401507 21272 layer_factory.hpp:77] Creating layer conv2
I1025 11:06:11.401530 21272 net.cpp:106] Creating Layer conv2
I1025 11:06:11.401538 21272 net.cpp:454] conv2 <- conv2a
I1025 11:06:11.401551 21272 net.cpp:411] conv2 -> conv2
I1025 11:06:11.405701 21272 net.cpp:150] Setting up conv2
I1025 11:06:11.405732 21272 net.cpp:157] Top shape: 70 192 56 56 (42147840)
I1025 11:06:11.405742 21272 net.cpp:165] Memory required for data: 1359313760
I1025 11:06:11.405762 21272 layer_factory.hpp:77] Creating layer conv2_bn
I1025 11:06:11.405783 21272 net.cpp:106] Creating Layer conv2_bn
I1025 11:06:11.405791 21272 net.cpp:454] conv2_bn <- conv2
I1025 11:06:11.405803 21272 net.cpp:397] conv2_bn -> conv2 (in-place)
I1025 11:06:11.406157 21272 net.cpp:150] Setting up conv2_bn
I1025 11:06:11.406173 21272 net.cpp:157] Top shape: 70 192 56 56 (42147840)
I1025 11:06:11.406179 21272 net.cpp:165] Memory required for data: 1527905120
I1025 11:06:11.406195 21272 layer_factory.hpp:77] Creating layer conv2_scale
I1025 11:06:11.406208 21272 net.cpp:106] Creating Layer conv2_scale
I1025 11:06:11.406244 21272 net.cpp:454] conv2_scale <- conv2
I1025 11:06:11.406257 21272 net.cpp:397] conv2_scale -> conv2 (in-place)
I1025 11:06:11.406333 21272 layer_factory.hpp:77] Creating layer conv2_scale
I1025 11:06:11.406554 21272 net.cpp:150] Setting up conv2_scale
I1025 11:06:11.406569 21272 net.cpp:157] Top shape: 70 192 56 56 (42147840)
I1025 11:06:11.406576 21272 net.cpp:165] Memory required for data: 1696496480
I1025 11:06:11.406589 21272 layer_factory.hpp:77] Creating layer prelu2
I1025 11:06:11.406605 21272 net.cpp:106] Creating Layer prelu2
I1025 11:06:11.406611 21272 net.cpp:454] prelu2 <- conv2
I1025 11:06:11.406621 21272 net.cpp:397] prelu2 -> conv2 (in-place)
I1025 11:06:11.409343 21272 net.cpp:150] Setting up prelu2
I1025 11:06:11.409371 21272 net.cpp:157] Top shape: 70 192 56 56 (42147840)
I1025 11:06:11.409379 21272 net.cpp:165] Memory required for data: 1865087840
I1025 11:06:11.409391 21272 layer_factory.hpp:77] Creating layer pool2
I1025 11:06:11.409406 21272 net.cpp:106] Creating Layer pool2
I1025 11:06:11.409415 21272 net.cpp:454] pool2 <- conv2
I1025 11:06:11.409426 21272 net.cpp:411] pool2 -> pool2
I1025 11:06:11.410025 21272 net.cpp:150] Setting up pool2
I1025 11:06:11.410053 21272 net.cpp:157] Top shape: 70 192 28 28 (10536960)
I1025 11:06:11.410061 21272 net.cpp:165] Memory required for data: 1907235680
I1025 11:06:11.410069 21272 layer_factory.hpp:77] Creating layer conv3a
I1025 11:06:11.410090 21272 net.cpp:106] Creating Layer conv3a
I1025 11:06:11.410099 21272 net.cpp:454] conv3a <- pool2
I1025 11:06:11.410112 21272 net.cpp:411] conv3a -> conv3a
I1025 11:06:11.413408 21272 net.cpp:150] Setting up conv3a
I1025 11:06:11.413435 21272 net.cpp:157] Top shape: 70 192 28 28 (10536960)
I1025 11:06:11.413444 21272 net.cpp:165] Memory required for data: 1949383520
I1025 11:06:11.413455 21272 layer_factory.hpp:77] Creating layer conv3a_bn
I1025 11:06:11.413468 21272 net.cpp:106] Creating Layer conv3a_bn
I1025 11:06:11.413475 21272 net.cpp:454] conv3a_bn <- conv3a
I1025 11:06:11.413488 21272 net.cpp:397] conv3a_bn -> conv3a (in-place)
I1025 11:06:11.413843 21272 net.cpp:150] Setting up conv3a_bn
I1025 11:06:11.413859 21272 net.cpp:157] Top shape: 70 192 28 28 (10536960)
I1025 11:06:11.413866 21272 net.cpp:165] Memory required for data: 1991531360
I1025 11:06:11.413882 21272 layer_factory.hpp:77] Creating layer conv3a_scale
I1025 11:06:11.413892 21272 net.cpp:106] Creating Layer conv3a_scale
I1025 11:06:11.413899 21272 net.cpp:454] conv3a_scale <- conv3a
I1025 11:06:11.413913 21272 net.cpp:397] conv3a_scale -> conv3a (in-place)
I1025 11:06:11.413985 21272 layer_factory.hpp:77] Creating layer conv3a_scale
I1025 11:06:11.414197 21272 net.cpp:150] Setting up conv3a_scale
I1025 11:06:11.414212 21272 net.cpp:157] Top shape: 70 192 28 28 (10536960)
I1025 11:06:11.414218 21272 net.cpp:165] Memory required for data: 2033679200
I1025 11:06:11.414229 21272 layer_factory.hpp:77] Creating layer prelu3a
I1025 11:06:11.414242 21272 net.cpp:106] Creating Layer prelu3a
I1025 11:06:11.414249 21272 net.cpp:454] prelu3a <- conv3a
I1025 11:06:11.414258 21272 net.cpp:397] prelu3a -> conv3a (in-place)
I1025 11:06:11.414587 21272 net.cpp:150] Setting up prelu3a
I1025 11:06:11.414602 21272 net.cpp:157] Top shape: 70 192 28 28 (10536960)
I1025 11:06:11.414608 21272 net.cpp:165] Memory required for data: 2075827040
I1025 11:06:11.414616 21272 layer_factory.hpp:77] Creating layer conv3
I1025 11:06:11.414640 21272 net.cpp:106] Creating Layer conv3
I1025 11:06:11.414649 21272 net.cpp:454] conv3 <- conv3a
I1025 11:06:11.414659 21272 net.cpp:411] conv3 -> conv3
I1025 11:06:11.426806 21272 net.cpp:150] Setting up conv3
I1025 11:06:11.426834 21272 net.cpp:157] Top shape: 70 384 28 28 (21073920)
I1025 11:06:11.426841 21272 net.cpp:165] Memory required for data: 2160122720
I1025 11:06:11.426863 21272 layer_factory.hpp:77] Creating layer conv3_bn
I1025 11:06:11.426878 21272 net.cpp:106] Creating Layer conv3_bn
I1025 11:06:11.426887 21272 net.cpp:454] conv3_bn <- conv3
I1025 11:06:11.426895 21272 net.cpp:397] conv3_bn -> conv3 (in-place)
I1025 11:06:11.427228 21272 net.cpp:150] Setting up conv3_bn
I1025 11:06:11.427244 21272 net.cpp:157] Top shape: 70 384 28 28 (21073920)
I1025 11:06:11.427250 21272 net.cpp:165] Memory required for data: 2244418400
I1025 11:06:11.427264 21272 layer_factory.hpp:77] Creating layer conv3_scale
I1025 11:06:11.427274 21272 net.cpp:106] Creating Layer conv3_scale
I1025 11:06:11.427281 21272 net.cpp:454] conv3_scale <- conv3
I1025 11:06:11.427289 21272 net.cpp:397] conv3_scale -> conv3 (in-place)
I1025 11:06:11.427357 21272 layer_factory.hpp:77] Creating layer conv3_scale
I1025 11:06:11.427532 21272 net.cpp:150] Setting up conv3_scale
I1025 11:06:11.427546 21272 net.cpp:157] Top shape: 70 384 28 28 (21073920)
I1025 11:06:11.427552 21272 net.cpp:165] Memory required for data: 2328714080
I1025 11:06:11.427562 21272 layer_factory.hpp:77] Creating layer prelu3
I1025 11:06:11.427574 21272 net.cpp:106] Creating Layer prelu3
I1025 11:06:11.427580 21272 net.cpp:454] prelu3 <- conv3
I1025 11:06:11.427589 21272 net.cpp:397] prelu3 -> conv3 (in-place)
I1025 11:06:11.429046 21272 net.cpp:150] Setting up prelu3
I1025 11:06:11.429069 21272 net.cpp:157] Top shape: 70 384 28 28 (21073920)
I1025 11:06:11.429075 21272 net.cpp:165] Memory required for data: 2413009760
I1025 11:06:11.429085 21272 layer_factory.hpp:77] Creating layer pool3
I1025 11:06:11.429095 21272 net.cpp:106] Creating Layer pool3
I1025 11:06:11.429102 21272 net.cpp:454] pool3 <- conv3
I1025 11:06:11.429114 21272 net.cpp:411] pool3 -> pool3
I1025 11:06:11.429657 21272 net.cpp:150] Setting up pool3
I1025 11:06:11.429682 21272 net.cpp:157] Top shape: 70 384 14 14 (5268480)
I1025 11:06:11.429688 21272 net.cpp:165] Memory required for data: 2434083680
I1025 11:06:11.429694 21272 layer_factory.hpp:77] Creating layer pool3_pool3_0_split
I1025 11:06:11.429709 21272 net.cpp:106] Creating Layer pool3_pool3_0_split
I1025 11:06:11.429716 21272 net.cpp:454] pool3_pool3_0_split <- pool3
I1025 11:06:11.429726 21272 net.cpp:411] pool3_pool3_0_split -> pool3_pool3_0_split_0
I1025 11:06:11.429741 21272 net.cpp:411] pool3_pool3_0_split -> pool3_pool3_0_split_1
I1025 11:06:11.429752 21272 net.cpp:411] pool3_pool3_0_split -> pool3_pool3_0_split_2
I1025 11:06:11.429764 21272 net.cpp:411] pool3_pool3_0_split -> pool3_pool3_0_split_3
I1025 11:06:11.429772 21272 net.cpp:411] pool3_pool3_0_split -> pool3_pool3_0_split_4
I1025 11:06:11.429781 21272 net.cpp:411] pool3_pool3_0_split -> pool3_pool3_0_split_5
I1025 11:06:11.429919 21272 net.cpp:150] Setting up pool3_pool3_0_split
I1025 11:06:11.429934 21272 net.cpp:157] Top shape: 70 384 14 14 (5268480)
I1025 11:06:11.429940 21272 net.cpp:157] Top shape: 70 384 14 14 (5268480)
I1025 11:06:11.429947 21272 net.cpp:157] Top shape: 70 384 14 14 (5268480)
I1025 11:06:11.429955 21272 net.cpp:157] Top shape: 70 384 14 14 (5268480)
I1025 11:06:11.429960 21272 net.cpp:157] Top shape: 70 384 14 14 (5268480)
I1025 11:06:11.429967 21272 net.cpp:157] Top shape: 70 384 14 14 (5268480)
I1025 11:06:11.429972 21272 net.cpp:165] Memory required for data: 2560527200
I1025 11:06:11.429978 21272 layer_factory.hpp:77] Creating layer conv3_gender
I1025 11:06:11.429996 21272 net.cpp:106] Creating Layer conv3_gender
I1025 11:06:11.430004 21272 net.cpp:454] conv3_gender <- pool3_pool3_0_split_0
I1025 11:06:11.430018 21272 net.cpp:411] conv3_gender -> conv3_gender
I1025 11:06:11.456635 21272 net.cpp:150] Setting up conv3_gender
I1025 11:06:11.456660 21272 net.cpp:157] Top shape: 70 512 7 7 (1756160)
I1025 11:06:11.456666 21272 net.cpp:165] Memory required for data: 2567551840
I1025 11:06:11.456677 21272 layer_factory.hpp:77] Creating layer conv3_gender_bn
I1025 11:06:11.456691 21272 net.cpp:106] Creating Layer conv3_gender_bn
I1025 11:06:11.456698 21272 net.cpp:454] conv3_gender_bn <- conv3_gender
I1025 11:06:11.456707 21272 net.cpp:397] conv3_gender_bn -> conv3_gender (in-place)
I1025 11:06:11.456996 21272 net.cpp:150] Setting up conv3_gender_bn
I1025 11:06:11.457010 21272 net.cpp:157] Top shape: 70 512 7 7 (1756160)
I1025 11:06:11.457015 21272 net.cpp:165] Memory required for data: 2574576480
I1025 11:06:11.457043 21272 layer_factory.hpp:77] Creating layer conv3_gender_scale
I1025 11:06:11.457054 21272 net.cpp:106] Creating Layer conv3_gender_scale
I1025 11:06:11.457061 21272 net.cpp:454] conv3_gender_scale <- conv3_gender
I1025 11:06:11.457072 21272 net.cpp:397] conv3_gender_scale -> conv3_gender (in-place)
I1025 11:06:11.457126 21272 layer_factory.hpp:77] Creating layer conv3_gender_scale
I1025 11:06:11.457296 21272 net.cpp:150] Setting up conv3_gender_scale
I1025 11:06:11.457311 21272 net.cpp:157] Top shape: 70 512 7 7 (1756160)
I1025 11:06:11.457316 21272 net.cpp:165] Memory required for data: 2581601120
I1025 11:06:11.457325 21272 layer_factory.hpp:77] Creating layer prelu3_gender
I1025 11:06:11.457334 21272 net.cpp:106] Creating Layer prelu3_gender
I1025 11:06:11.457340 21272 net.cpp:454] prelu3_gender <- conv3_gender
I1025 11:06:11.457347 21272 net.cpp:397] prelu3_gender -> conv3_gender (in-place)
I1025 11:06:11.457509 21272 net.cpp:150] Setting up prelu3_gender
I1025 11:06:11.457522 21272 net.cpp:157] Top shape: 70 512 7 7 (1756160)
I1025 11:06:11.457527 21272 net.cpp:165] Memory required for data: 2588625760
I1025 11:06:11.457535 21272 layer_factory.hpp:77] Creating layer pool3_gender
I1025 11:06:11.457548 21272 net.cpp:106] Creating Layer pool3_gender
I1025 11:06:11.457554 21272 net.cpp:454] pool3_gender <- conv3_gender
I1025 11:06:11.457563 21272 net.cpp:411] pool3_gender -> pool3_gender
I1025 11:06:11.457896 21272 net.cpp:150] Setting up pool3_gender
I1025 11:06:11.457916 21272 net.cpp:157] Top shape: 70 512 4 4 (573440)
I1025 11:06:11.457921 21272 net.cpp:165] Memory required for data: 2590919520
I1025 11:06:11.457926 21272 layer_factory.hpp:77] Creating layer pool3_gender_pool3_gender_0_split
I1025 11:06:11.457934 21272 net.cpp:106] Creating Layer pool3_gender_pool3_gender_0_split
I1025 11:06:11.457940 21272 net.cpp:454] pool3_gender_pool3_gender_0_split <- pool3_gender
I1025 11:06:11.457952 21272 net.cpp:411] pool3_gender_pool3_gender_0_split -> pool3_gender_pool3_gender_0_split_0
I1025 11:06:11.457963 21272 net.cpp:411] pool3_gender_pool3_gender_0_split -> pool3_gender_pool3_gender_0_split_1
I1025 11:06:11.458016 21272 net.cpp:150] Setting up pool3_gender_pool3_gender_0_split
I1025 11:06:11.458040 21272 net.cpp:157] Top shape: 70 512 4 4 (573440)
I1025 11:06:11.458047 21272 net.cpp:157] Top shape: 70 512 4 4 (573440)
I1025 11:06:11.458052 21272 net.cpp:165] Memory required for data: 2595507040
I1025 11:06:11.458057 21272 layer_factory.hpp:77] Creating layer fc1_gender
I1025 11:06:11.458076 21272 net.cpp:106] Creating Layer fc1_gender
I1025 11:06:11.458082 21272 net.cpp:454] fc1_gender <- pool3_gender_pool3_gender_0_split_0
I1025 11:06:11.458094 21272 net.cpp:411] fc1_gender -> fc1_gender
I1025 11:06:11.551795 21272 net.cpp:150] Setting up fc1_gender
I1025 11:06:11.551849 21272 net.cpp:157] Top shape: 70 1024 (71680)
I1025 11:06:11.551856 21272 net.cpp:165] Memory required for data: 2595793760
I1025 11:06:11.551868 21272 layer_factory.hpp:77] Creating layer relu1_gender
I1025 11:06:11.551882 21272 net.cpp:106] Creating Layer relu1_gender
I1025 11:06:11.551889 21272 net.cpp:454] relu1_gender <- fc1_gender
I1025 11:06:11.551898 21272 net.cpp:397] relu1_gender -> fc1_gender (in-place)
I1025 11:06:11.552414 21272 net.cpp:150] Setting up relu1_gender
I1025 11:06:11.552431 21272 net.cpp:157] Top shape: 70 1024 (71680)
I1025 11:06:11.552436 21272 net.cpp:165] Memory required for data: 2596080480
I1025 11:06:11.552440 21272 layer_factory.hpp:77] Creating layer drop1_gender
I1025 11:06:11.552450 21272 net.cpp:106] Creating Layer drop1_gender
I1025 11:06:11.552455 21272 net.cpp:454] drop1_gender <- fc1_gender
I1025 11:06:11.552461 21272 net.cpp:397] drop1_gender -> fc1_gender (in-place)
I1025 11:06:11.552510 21272 net.cpp:150] Setting up drop1_gender
I1025 11:06:11.552517 21272 net.cpp:157] Top shape: 70 1024 (71680)
I1025 11:06:11.552521 21272 net.cpp:165] Memory required for data: 2596367200
I1025 11:06:11.552525 21272 layer_factory.hpp:77] Creating layer fc2_gender
I1025 11:06:11.552556 21272 net.cpp:106] Creating Layer fc2_gender
I1025 11:06:11.552561 21272 net.cpp:454] fc2_gender <- fc1_gender
I1025 11:06:11.552568 21272 net.cpp:411] fc2_gender -> fc2_gender
I1025 11:06:11.563314 21272 net.cpp:150] Setting up fc2_gender
I1025 11:06:11.563331 21272 net.cpp:157] Top shape: 70 1024 (71680)
I1025 11:06:11.563335 21272 net.cpp:165] Memory required for data: 2596653920
I1025 11:06:11.563344 21272 layer_factory.hpp:77] Creating layer relu2_gender
I1025 11:06:11.563354 21272 net.cpp:106] Creating Layer relu2_gender
I1025 11:06:11.563357 21272 net.cpp:454] relu2_gender <- fc2_gender
I1025 11:06:11.563364 21272 net.cpp:397] relu2_gender -> fc2_gender (in-place)
I1025 11:06:11.563568 21272 net.cpp:150] Setting up relu2_gender
I1025 11:06:11.563581 21272 net.cpp:157] Top shape: 70 1024 (71680)
I1025 11:06:11.563585 21272 net.cpp:165] Memory required for data: 2596940640
I1025 11:06:11.563590 21272 layer_factory.hpp:77] Creating layer drop2_gender
I1025 11:06:11.563596 21272 net.cpp:106] Creating Layer drop2_gender
I1025 11:06:11.563601 21272 net.cpp:454] drop2_gender <- fc2_gender
I1025 11:06:11.563609 21272 net.cpp:397] drop2_gender -> fc2_gender (in-place)
I1025 11:06:11.563642 21272 net.cpp:150] Setting up drop2_gender
I1025 11:06:11.563652 21272 net.cpp:157] Top shape: 70 1024 (71680)
I1025 11:06:11.563657 21272 net.cpp:165] Memory required for data: 2597227360
I1025 11:06:11.563660 21272 layer_factory.hpp:77] Creating layer fc2_gender_drop2_gender_0_split
I1025 11:06:11.563668 21272 net.cpp:106] Creating Layer fc2_gender_drop2_gender_0_split
I1025 11:06:11.563673 21272 net.cpp:454] fc2_gender_drop2_gender_0_split <- fc2_gender
I1025 11:06:11.563678 21272 net.cpp:411] fc2_gender_drop2_gender_0_split -> fc2_gender_drop2_gender_0_split_0
I1025 11:06:11.563685 21272 net.cpp:411] fc2_gender_drop2_gender_0_split -> fc2_gender_drop2_gender_0_split_1
I1025 11:06:11.563732 21272 net.cpp:150] Setting up fc2_gender_drop2_gender_0_split
I1025 11:06:11.563741 21272 net.cpp:157] Top shape: 70 1024 (71680)
I1025 11:06:11.563745 21272 net.cpp:157] Top shape: 70 1024 (71680)
I1025 11:06:11.563750 21272 net.cpp:165] Memory required for data: 2597800800
I1025 11:06:11.563752 21272 layer_factory.hpp:77] Creating layer conv3_nose
I1025 11:06:11.563774 21272 net.cpp:106] Creating Layer conv3_nose
I1025 11:06:11.563782 21272 net.cpp:454] conv3_nose <- pool3_pool3_0_split_1
I1025 11:06:11.563791 21272 net.cpp:411] conv3_nose -> conv3_nose
I1025 11:06:11.582717 21272 net.cpp:150] Setting up conv3_nose
I1025 11:06:11.582738 21272 net.cpp:157] Top shape: 70 512 7 7 (1756160)
I1025 11:06:11.582743 21272 net.cpp:165] Memory required for data: 2604825440
I1025 11:06:11.582751 21272 layer_factory.hpp:77] Creating layer conv3_nose_bn
I1025 11:06:11.582762 21272 net.cpp:106] Creating Layer conv3_nose_bn
I1025 11:06:11.582767 21272 net.cpp:454] conv3_nose_bn <- conv3_nose
I1025 11:06:11.582775 21272 net.cpp:397] conv3_nose_bn -> conv3_nose (in-place)
I1025 11:06:11.582995 21272 net.cpp:150] Setting up conv3_nose_bn
I1025 11:06:11.583006 21272 net.cpp:157] Top shape: 70 512 7 7 (1756160)
I1025 11:06:11.583010 21272 net.cpp:165] Memory required for data: 2611850080
I1025 11:06:11.583020 21272 layer_factory.hpp:77] Creating layer conv3_nose_scale
I1025 11:06:11.583029 21272 net.cpp:106] Creating Layer conv3_nose_scale
I1025 11:06:11.583034 21272 net.cpp:454] conv3_nose_scale <- conv3_nose
I1025 11:06:11.583039 21272 net.cpp:397] conv3_nose_scale -> conv3_nose (in-place)
I1025 11:06:11.583084 21272 layer_factory.hpp:77] Creating layer conv3_nose_scale
I1025 11:06:11.583223 21272 net.cpp:150] Setting up conv3_nose_scale
I1025 11:06:11.583235 21272 net.cpp:157] Top shape: 70 512 7 7 (1756160)
I1025 11:06:11.583237 21272 net.cpp:165] Memory required for data: 2618874720
I1025 11:06:11.583245 21272 layer_factory.hpp:77] Creating layer prelu3_nose
I1025 11:06:11.583253 21272 net.cpp:106] Creating Layer prelu3_nose
I1025 11:06:11.583258 21272 net.cpp:454] prelu3_nose <- conv3_nose
I1025 11:06:11.583266 21272 net.cpp:397] prelu3_nose -> conv3_nose (in-place)
I1025 11:06:11.583415 21272 net.cpp:150] Setting up prelu3_nose
I1025 11:06:11.583426 21272 net.cpp:157] Top shape: 70 512 7 7 (1756160)
I1025 11:06:11.583431 21272 net.cpp:165] Memory required for data: 2625899360
I1025 11:06:11.583436 21272 layer_factory.hpp:77] Creating layer pool3_nose
I1025 11:06:11.583446 21272 net.cpp:106] Creating Layer pool3_nose
I1025 11:06:11.583451 21272 net.cpp:454] pool3_nose <- conv3_nose
I1025 11:06:11.583457 21272 net.cpp:411] pool3_nose -> pool3_nose
I1025 11:06:11.583871 21272 net.cpp:150] Setting up pool3_nose
I1025 11:06:11.583889 21272 net.cpp:157] Top shape: 70 512 4 4 (573440)
I1025 11:06:11.583894 21272 net.cpp:165] Memory required for data: 2628193120
I1025 11:06:11.583897 21272 layer_factory.hpp:77] Creating layer pool3_nose_pool3_nose_0_split
I1025 11:06:11.583907 21272 net.cpp:106] Creating Layer pool3_nose_pool3_nose_0_split
I1025 11:06:11.583911 21272 net.cpp:454] pool3_nose_pool3_nose_0_split <- pool3_nose
I1025 11:06:11.583920 21272 net.cpp:411] pool3_nose_pool3_nose_0_split -> pool3_nose_pool3_nose_0_split_0
I1025 11:06:11.583930 21272 net.cpp:411] pool3_nose_pool3_nose_0_split -> pool3_nose_pool3_nose_0_split_1
I1025 11:06:11.583973 21272 net.cpp:150] Setting up pool3_nose_pool3_nose_0_split
I1025 11:06:11.583981 21272 net.cpp:157] Top shape: 70 512 4 4 (573440)
I1025 11:06:11.583986 21272 net.cpp:157] Top shape: 70 512 4 4 (573440)
I1025 11:06:11.583989 21272 net.cpp:165] Memory required for data: 2632780640
I1025 11:06:11.583993 21272 layer_factory.hpp:77] Creating layer fc1_nose
I1025 11:06:11.584003 21272 net.cpp:106] Creating Layer fc1_nose
I1025 11:06:11.584008 21272 net.cpp:454] fc1_nose <- pool3_nose_pool3_nose_0_split_0
I1025 11:06:11.584014 21272 net.cpp:411] fc1_nose -> fc1_nose
I1025 11:06:11.671684 21272 net.cpp:150] Setting up fc1_nose
I1025 11:06:11.671727 21272 net.cpp:157] Top shape: 70 1024 (71680)
I1025 11:06:11.671732 21272 net.cpp:165] Memory required for data: 2633067360
I1025 11:06:11.671746 21272 layer_factory.hpp:77] Creating layer relu1_nose
I1025 11:06:11.671761 21272 net.cpp:106] Creating Layer relu1_nose
I1025 11:06:11.671782 21272 net.cpp:454] relu1_nose <- fc1_nose
I1025 11:06:11.671789 21272 net.cpp:397] relu1_nose -> fc1_nose (in-place)
I1025 11:06:11.672083 21272 net.cpp:150] Setting up relu1_nose
I1025 11:06:11.672097 21272 net.cpp:157] Top shape: 70 1024 (71680)
I1025 11:06:11.672102 21272 net.cpp:165] Memory required for data: 2633354080
I1025 11:06:11.672106 21272 layer_factory.hpp:77] Creating layer drop1_nose
I1025 11:06:11.672116 21272 net.cpp:106] Creating Layer drop1_nose
I1025 11:06:11.672121 21272 net.cpp:454] drop1_nose <- fc1_nose
I1025 11:06:11.672128 21272 net.cpp:397] drop1_nose -> fc1_nose (in-place)
I1025 11:06:11.672170 21272 net.cpp:150] Setting up drop1_nose
I1025 11:06:11.672183 21272 net.cpp:157] Top shape: 70 1024 (71680)
I1025 11:06:11.672186 21272 net.cpp:165] Memory required for data: 2633640800
I1025 11:06:11.672190 21272 layer_factory.hpp:77] Creating layer fc2_nose
I1025 11:06:11.672201 21272 net.cpp:106] Creating Layer fc2_nose
I1025 11:06:11.672206 21272 net.cpp:454] fc2_nose <- fc1_nose
I1025 11:06:11.672214 21272 net.cpp:411] fc2_nose -> fc2_nose
I1025 11:06:11.682991 21272 net.cpp:150] Setting up fc2_nose
I1025 11:06:11.683009 21272 net.cpp:157] Top shape: 70 1024 (71680)
I1025 11:06:11.683013 21272 net.cpp:165] Memory required for data: 2633927520
I1025 11:06:11.683022 21272 layer_factory.hpp:77] Creating layer relu2_nose
I1025 11:06:11.683029 21272 net.cpp:106] Creating Layer relu2_nose
I1025 11:06:11.683033 21272 net.cpp:454] relu2_nose <- fc2_nose
I1025 11:06:11.683043 21272 net.cpp:397] relu2_nose -> fc2_nose (in-place)
I1025 11:06:11.683408 21272 net.cpp:150] Setting up relu2_nose
I1025 11:06:11.683424 21272 net.cpp:157] Top shape: 70 1024 (71680)
I1025 11:06:11.683429 21272 net.cpp:165] Memory required for data: 2634214240
I1025 11:06:11.683434 21272 layer_factory.hpp:77] Creating layer drop2_nose
I1025 11:06:11.683441 21272 net.cpp:106] Creating Layer drop2_nose
I1025 11:06:11.683468 21272 net.cpp:454] drop2_nose <- fc2_nose
I1025 11:06:11.683477 21272 net.cpp:397] drop2_nose -> fc2_nose (in-place)
I1025 11:06:11.683511 21272 net.cpp:150] Setting up drop2_nose
I1025 11:06:11.683518 21272 net.cpp:157] Top shape: 70 1024 (71680)
I1025 11:06:11.683522 21272 net.cpp:165] Memory required for data: 2634500960
I1025 11:06:11.683526 21272 layer_factory.hpp:77] Creating layer fc2_nose_drop2_nose_0_split
I1025 11:06:11.683537 21272 net.cpp:106] Creating Layer fc2_nose_drop2_nose_0_split
I1025 11:06:11.683542 21272 net.cpp:454] fc2_nose_drop2_nose_0_split <- fc2_nose
I1025 11:06:11.683547 21272 net.cpp:411] fc2_nose_drop2_nose_0_split -> fc2_nose_drop2_nose_0_split_0
I1025 11:06:11.683557 21272 net.cpp:411] fc2_nose_drop2_nose_0_split -> fc2_nose_drop2_nose_0_split_1
I1025 11:06:11.683565 21272 net.cpp:411] fc2_nose_drop2_nose_0_split -> fc2_nose_drop2_nose_0_split_2
I1025 11:06:11.683624 21272 net.cpp:150] Setting up fc2_nose_drop2_nose_0_split
I1025 11:06:11.683643 21272 net.cpp:157] Top shape: 70 1024 (71680)
I1025 11:06:11.683648 21272 net.cpp:157] Top shape: 70 1024 (71680)
I1025 11:06:11.683652 21272 net.cpp:157] Top shape: 70 1024 (71680)
I1025 11:06:11.683655 21272 net.cpp:165] Memory required for data: 2635361120
I1025 11:06:11.683660 21272 layer_factory.hpp:77] Creating layer conv3_mouth
I1025 11:06:11.683675 21272 net.cpp:106] Creating Layer conv3_mouth
I1025 11:06:11.683686 21272 net.cpp:454] conv3_mouth <- pool3_pool3_0_split_2
I1025 11:06:11.683696 21272 net.cpp:411] conv3_mouth -> conv3_mouth
I1025 11:06:11.702471 21272 net.cpp:150] Setting up conv3_mouth
I1025 11:06:11.702497 21272 net.cpp:157] Top shape: 70 512 7 7 (1756160)
I1025 11:06:11.702502 21272 net.cpp:165] Memory required for data: 2642385760
I1025 11:06:11.702530 21272 layer_factory.hpp:77] Creating layer conv3_mouth_bn
I1025 11:06:11.702541 21272 net.cpp:106] Creating Layer conv3_mouth_bn
I1025 11:06:11.702546 21272 net.cpp:454] conv3_mouth_bn <- conv3_mouth
I1025 11:06:11.702553 21272 net.cpp:397] conv3_mouth_bn -> conv3_mouth (in-place)
I1025 11:06:11.702785 21272 net.cpp:150] Setting up conv3_mouth_bn
I1025 11:06:11.702795 21272 net.cpp:157] Top shape: 70 512 7 7 (1756160)
I1025 11:06:11.702800 21272 net.cpp:165] Memory required for data: 2649410400
I1025 11:06:11.702811 21272 layer_factory.hpp:77] Creating layer conv3_mouth_scale
I1025 11:06:11.702821 21272 net.cpp:106] Creating Layer conv3_mouth_scale
I1025 11:06:11.702826 21272 net.cpp:454] conv3_mouth_scale <- conv3_mouth
I1025 11:06:11.702831 21272 net.cpp:397] conv3_mouth_scale -> conv3_mouth (in-place)
I1025 11:06:11.702880 21272 layer_factory.hpp:77] Creating layer conv3_mouth_scale
I1025 11:06:11.703021 21272 net.cpp:150] Setting up conv3_mouth_scale
I1025 11:06:11.703030 21272 net.cpp:157] Top shape: 70 512 7 7 (1756160)
I1025 11:06:11.703034 21272 net.cpp:165] Memory required for data: 2656435040
I1025 11:06:11.703042 21272 layer_factory.hpp:77] Creating layer prelu3_mouth
I1025 11:06:11.703050 21272 net.cpp:106] Creating Layer prelu3_mouth
I1025 11:06:11.703055 21272 net.cpp:454] prelu3_mouth <- conv3_mouth
I1025 11:06:11.703063 21272 net.cpp:397] prelu3_mouth -> conv3_mouth (in-place)
I1025 11:06:11.703196 21272 net.cpp:150] Setting up prelu3_mouth
I1025 11:06:11.703205 21272 net.cpp:157] Top shape: 70 512 7 7 (1756160)
I1025 11:06:11.703209 21272 net.cpp:165] Memory required for data: 2663459680
I1025 11:06:11.703214 21272 layer_factory.hpp:77] Creating layer pool3_mouth
I1025 11:06:11.703223 21272 net.cpp:106] Creating Layer pool3_mouth
I1025 11:06:11.703227 21272 net.cpp:454] pool3_mouth <- conv3_mouth
I1025 11:06:11.703235 21272 net.cpp:411] pool3_mouth -> pool3_mouth
I1025 11:06:11.703477 21272 net.cpp:150] Setting up pool3_mouth
I1025 11:06:11.703491 21272 net.cpp:157] Top shape: 70 512 4 4 (573440)
I1025 11:06:11.703495 21272 net.cpp:165] Memory required for data: 2665753440
I1025 11:06:11.703500 21272 layer_factory.hpp:77] Creating layer pool3_mouth_pool3_mouth_0_split
I1025 11:06:11.703506 21272 net.cpp:106] Creating Layer pool3_mouth_pool3_mouth_0_split
I1025 11:06:11.703524 21272 net.cpp:454] pool3_mouth_pool3_mouth_0_split <- pool3_mouth
I1025 11:06:11.703531 21272 net.cpp:411] pool3_mouth_pool3_mouth_0_split -> pool3_mouth_pool3_mouth_0_split_0
I1025 11:06:11.703541 21272 net.cpp:411] pool3_mouth_pool3_mouth_0_split -> pool3_mouth_pool3_mouth_0_split_1
I1025 11:06:11.703586 21272 net.cpp:150] Setting up pool3_mouth_pool3_mouth_0_split
I1025 11:06:11.703596 21272 net.cpp:157] Top shape: 70 512 4 4 (573440)
I1025 11:06:11.703601 21272 net.cpp:157] Top shape: 70 512 4 4 (573440)
I1025 11:06:11.703604 21272 net.cpp:165] Memory required for data: 2670340960
I1025 11:06:11.703608 21272 layer_factory.hpp:77] Creating layer fc1_mouth
I1025 11:06:11.703619 21272 net.cpp:106] Creating Layer fc1_mouth
I1025 11:06:11.703624 21272 net.cpp:454] fc1_mouth <- pool3_mouth_pool3_mouth_0_split_0
I1025 11:06:11.703632 21272 net.cpp:411] fc1_mouth -> fc1_mouth
I1025 11:06:11.791506 21272 net.cpp:150] Setting up fc1_mouth
I1025 11:06:11.791541 21272 net.cpp:157] Top shape: 70 1024 (71680)
I1025 11:06:11.791546 21272 net.cpp:165] Memory required for data: 2670627680
I1025 11:06:11.791559 21272 layer_factory.hpp:77] Creating layer relu1_mouth
I1025 11:06:11.791575 21272 net.cpp:106] Creating Layer relu1_mouth
I1025 11:06:11.791584 21272 net.cpp:454] relu1_mouth <- fc1_mouth
I1025 11:06:11.791592 21272 net.cpp:397] relu1_mouth -> fc1_mouth (in-place)
I1025 11:06:11.792155 21272 net.cpp:150] Setting up relu1_mouth
I1025 11:06:11.792173 21272 net.cpp:157] Top shape: 70 1024 (71680)
I1025 11:06:11.792177 21272 net.cpp:165] Memory required for data: 2670914400
I1025 11:06:11.792182 21272 layer_factory.hpp:77] Creating layer drop1_mouth
I1025 11:06:11.792191 21272 net.cpp:106] Creating Layer drop1_mouth
I1025 11:06:11.792196 21272 net.cpp:454] drop1_mouth <- fc1_mouth
I1025 11:06:11.792202 21272 net.cpp:397] drop1_mouth -> fc1_mouth (in-place)
I1025 11:06:11.792258 21272 net.cpp:150] Setting up drop1_mouth
I1025 11:06:11.792264 21272 net.cpp:157] Top shape: 70 1024 (71680)
I1025 11:06:11.792268 21272 net.cpp:165] Memory required for data: 2671201120
I1025 11:06:11.792273 21272 layer_factory.hpp:77] Creating layer fc2_mouth
I1025 11:06:11.792285 21272 net.cpp:106] Creating Layer fc2_mouth
I1025 11:06:11.792289 21272 net.cpp:454] fc2_mouth <- fc1_mouth
I1025 11:06:11.792296 21272 net.cpp:411] fc2_mouth -> fc2_mouth
I1025 11:06:11.803159 21272 net.cpp:150] Setting up fc2_mouth
I1025 11:06:11.803177 21272 net.cpp:157] Top shape: 70 1024 (71680)
I1025 11:06:11.803181 21272 net.cpp:165] Memory required for data: 2671487840
I1025 11:06:11.803192 21272 layer_factory.hpp:77] Creating layer relu2_mouth
I1025 11:06:11.803215 21272 net.cpp:106] Creating Layer relu2_mouth
I1025 11:06:11.803221 21272 net.cpp:454] relu2_mouth <- fc2_mouth
I1025 11:06:11.803227 21272 net.cpp:397] relu2_mouth -> fc2_mouth (in-place)
I1025 11:06:11.803432 21272 net.cpp:150] Setting up relu2_mouth
I1025 11:06:11.803445 21272 net.cpp:157] Top shape: 70 1024 (71680)
I1025 11:06:11.803450 21272 net.cpp:165] Memory required for data: 2671774560
I1025 11:06:11.803455 21272 layer_factory.hpp:77] Creating layer drop2_mouth
I1025 11:06:11.803463 21272 net.cpp:106] Creating Layer drop2_mouth
I1025 11:06:11.803468 21272 net.cpp:454] drop2_mouth <- fc2_mouth
I1025 11:06:11.803477 21272 net.cpp:397] drop2_mouth -> fc2_mouth (in-place)
I1025 11:06:11.803509 21272 net.cpp:150] Setting up drop2_mouth
I1025 11:06:11.803520 21272 net.cpp:157] Top shape: 70 1024 (71680)
I1025 11:06:11.803524 21272 net.cpp:165] Memory required for data: 2672061280
I1025 11:06:11.803529 21272 layer_factory.hpp:77] Creating layer fc2_mouth_drop2_mouth_0_split
I1025 11:06:11.803540 21272 net.cpp:106] Creating Layer fc2_mouth_drop2_mouth_0_split
I1025 11:06:11.803544 21272 net.cpp:454] fc2_mouth_drop2_mouth_0_split <- fc2_mouth
I1025 11:06:11.803550 21272 net.cpp:411] fc2_mouth_drop2_mouth_0_split -> fc2_mouth_drop2_mouth_0_split_0
I1025 11:06:11.803558 21272 net.cpp:411] fc2_mouth_drop2_mouth_0_split -> fc2_mouth_drop2_mouth_0_split_1
I1025 11:06:11.803568 21272 net.cpp:411] fc2_mouth_drop2_mouth_0_split -> fc2_mouth_drop2_mouth_0_split_2
I1025 11:06:11.803596 21272 net.cpp:411] fc2_mouth_drop2_mouth_0_split -> fc2_mouth_drop2_mouth_0_split_3
I1025 11:06:11.803602 21272 net.cpp:411] fc2_mouth_drop2_mouth_0_split -> fc2_mouth_drop2_mouth_0_split_4
I1025 11:06:11.803696 21272 net.cpp:150] Setting up fc2_mouth_drop2_mouth_0_split
I1025 11:06:11.803706 21272 net.cpp:157] Top shape: 70 1024 (71680)
I1025 11:06:11.803710 21272 net.cpp:157] Top shape: 70 1024 (71680)
I1025 11:06:11.803715 21272 net.cpp:157] Top shape: 70 1024 (71680)
I1025 11:06:11.803719 21272 net.cpp:157] Top shape: 70 1024 (71680)
I1025 11:06:11.803724 21272 net.cpp:157] Top shape: 70 1024 (71680)
I1025 11:06:11.803726 21272 net.cpp:165] Memory required for data: 2673494880
I1025 11:06:11.803730 21272 layer_factory.hpp:77] Creating layer conv3_eyes
I1025 11:06:11.803746 21272 net.cpp:106] Creating Layer conv3_eyes
I1025 11:06:11.803753 21272 net.cpp:454] conv3_eyes <- pool3_pool3_0_split_3
I1025 11:06:11.803762 21272 net.cpp:411] conv3_eyes -> conv3_eyes
I1025 11:06:11.823171 21272 net.cpp:150] Setting up conv3_eyes
I1025 11:06:11.823194 21272 net.cpp:157] Top shape: 70 512 7 7 (1756160)
I1025 11:06:11.823205 21272 net.cpp:165] Memory required for data: 2680519520
I1025 11:06:11.823215 21272 layer_factory.hpp:77] Creating layer conv3_eyes_bn
I1025 11:06:11.823226 21272 net.cpp:106] Creating Layer conv3_eyes_bn
I1025 11:06:11.823232 21272 net.cpp:454] conv3_eyes_bn <- conv3_eyes
I1025 11:06:11.823238 21272 net.cpp:397] conv3_eyes_bn -> conv3_eyes (in-place)
I1025 11:06:11.823477 21272 net.cpp:150] Setting up conv3_eyes_bn
I1025 11:06:11.823488 21272 net.cpp:157] Top shape: 70 512 7 7 (1756160)
I1025 11:06:11.823493 21272 net.cpp:165] Memory required for data: 2687544160
I1025 11:06:11.823501 21272 layer_factory.hpp:77] Creating layer conv3_eyes_scale
I1025 11:06:11.823513 21272 net.cpp:106] Creating Layer conv3_eyes_scale
I1025 11:06:11.823518 21272 net.cpp:454] conv3_eyes_scale <- conv3_eyes
I1025 11:06:11.823524 21272 net.cpp:397] conv3_eyes_scale -> conv3_eyes (in-place)
I1025 11:06:11.823573 21272 layer_factory.hpp:77] Creating layer conv3_eyes_scale
I1025 11:06:11.823717 21272 net.cpp:150] Setting up conv3_eyes_scale
I1025 11:06:11.823727 21272 net.cpp:157] Top shape: 70 512 7 7 (1756160)
I1025 11:06:11.823731 21272 net.cpp:165] Memory required for data: 2694568800
I1025 11:06:11.823737 21272 layer_factory.hpp:77] Creating layer prelu3_eyes
I1025 11:06:11.823750 21272 net.cpp:106] Creating Layer prelu3_eyes
I1025 11:06:11.823755 21272 net.cpp:454] prelu3_eyes <- conv3_eyes
I1025 11:06:11.823761 21272 net.cpp:397] prelu3_eyes -> conv3_eyes (in-place)
I1025 11:06:11.823911 21272 net.cpp:150] Setting up prelu3_eyes
I1025 11:06:11.823923 21272 net.cpp:157] Top shape: 70 512 7 7 (1756160)
I1025 11:06:11.823927 21272 net.cpp:165] Memory required for data: 2701593440
I1025 11:06:11.823932 21272 layer_factory.hpp:77] Creating layer pool3_eyes
I1025 11:06:11.823941 21272 net.cpp:106] Creating Layer pool3_eyes
I1025 11:06:11.823945 21272 net.cpp:454] pool3_eyes <- conv3_eyes
I1025 11:06:11.823954 21272 net.cpp:411] pool3_eyes -> pool3_eyes
I1025 11:06:11.824359 21272 net.cpp:150] Setting up pool3_eyes
I1025 11:06:11.824376 21272 net.cpp:157] Top shape: 70 512 4 4 (573440)
I1025 11:06:11.824386 21272 net.cpp:165] Memory required for data: 2703887200
I1025 11:06:11.824390 21272 layer_factory.hpp:77] Creating layer pool3_eyes_pool3_eyes_0_split
I1025 11:06:11.824398 21272 net.cpp:106] Creating Layer pool3_eyes_pool3_eyes_0_split
I1025 11:06:11.824404 21272 net.cpp:454] pool3_eyes_pool3_eyes_0_split <- pool3_eyes
I1025 11:06:11.824412 21272 net.cpp:411] pool3_eyes_pool3_eyes_0_split -> pool3_eyes_pool3_eyes_0_split_0
I1025 11:06:11.824421 21272 net.cpp:411] pool3_eyes_pool3_eyes_0_split -> pool3_eyes_pool3_eyes_0_split_1
I1025 11:06:11.824470 21272 net.cpp:150] Setting up pool3_eyes_pool3_eyes_0_split
I1025 11:06:11.824477 21272 net.cpp:157] Top shape: 70 512 4 4 (573440)
I1025 11:06:11.824481 21272 net.cpp:157] Top shape: 70 512 4 4 (573440)
I1025 11:06:11.824499 21272 net.cpp:165] Memory required for data: 2708474720
I1025 11:06:11.824503 21272 layer_factory.hpp:77] Creating layer fc1_eyes
I1025 11:06:11.824514 21272 net.cpp:106] Creating Layer fc1_eyes
I1025 11:06:11.824519 21272 net.cpp:454] fc1_eyes <- pool3_eyes_pool3_eyes_0_split_0
I1025 11:06:11.824528 21272 net.cpp:411] fc1_eyes -> fc1_eyes
I1025 11:06:11.915472 21272 net.cpp:150] Setting up fc1_eyes
I1025 11:06:11.915531 21272 net.cpp:157] Top shape: 70 1024 (71680)
I1025 11:06:11.915537 21272 net.cpp:165] Memory required for data: 2708761440
I1025 11:06:11.915566 21272 layer_factory.hpp:77] Creating layer relu1_eyes
I1025 11:06:11.915594 21272 net.cpp:106] Creating Layer relu1_eyes
I1025 11:06:11.915614 21272 net.cpp:454] relu1_eyes <- fc1_eyes
I1025 11:06:11.915628 21272 net.cpp:397] relu1_eyes -> fc1_eyes (in-place)
I1025 11:06:11.916170 21272 net.cpp:150] Setting up relu1_eyes
I1025 11:06:11.916185 21272 net.cpp:157] Top shape: 70 1024 (71680)
I1025 11:06:11.916193 21272 net.cpp:165] Memory required for data: 2709048160
I1025 11:06:11.916198 21272 layer_factory.hpp:77] Creating layer drop1_eyes
I1025 11:06:11.916208 21272 net.cpp:106] Creating Layer drop1_eyes
I1025 11:06:11.916213 21272 net.cpp:454] drop1_eyes <- fc1_eyes
I1025 11:06:11.916219 21272 net.cpp:397] drop1_eyes -> fc1_eyes (in-place)
I1025 11:06:11.916295 21272 net.cpp:150] Setting up drop1_eyes
I1025 11:06:11.916304 21272 net.cpp:157] Top shape: 70 1024 (71680)
I1025 11:06:11.916308 21272 net.cpp:165] Memory required for data: 2709334880
I1025 11:06:11.916312 21272 layer_factory.hpp:77] Creating layer fc2_eyes
I1025 11:06:11.916328 21272 net.cpp:106] Creating Layer fc2_eyes
I1025 11:06:11.916332 21272 net.cpp:454] fc2_eyes <- fc1_eyes
I1025 11:06:11.916343 21272 net.cpp:411] fc2_eyes -> fc2_eyes
I1025 11:06:11.927371 21272 net.cpp:150] Setting up fc2_eyes
I1025 11:06:11.927388 21272 net.cpp:157] Top shape: 70 1024 (71680)
I1025 11:06:11.927397 21272 net.cpp:165] Memory required for data: 2709621600
I1025 11:06:11.927404 21272 layer_factory.hpp:77] Creating layer relu2_eyes
I1025 11:06:11.927412 21272 net.cpp:106] Creating Layer relu2_eyes
I1025 11:06:11.927417 21272 net.cpp:454] relu2_eyes <- fc2_eyes
I1025 11:06:11.927426 21272 net.cpp:397] relu2_eyes -> fc2_eyes (in-place)
I1025 11:06:11.927825 21272 net.cpp:150] Setting up relu2_eyes
I1025 11:06:11.927841 21272 net.cpp:157] Top shape: 70 1024 (71680)
I1025 11:06:11.927846 21272 net.cpp:165] Memory required for data: 2709908320
I1025 11:06:11.927853 21272 layer_factory.hpp:77] Creating layer drop2_eyes
I1025 11:06:11.927865 21272 net.cpp:106] Creating Layer drop2_eyes
I1025 11:06:11.927870 21272 net.cpp:454] drop2_eyes <- fc2_eyes
I1025 11:06:11.927875 21272 net.cpp:397] drop2_eyes -> fc2_eyes (in-place)
I1025 11:06:11.927914 21272 net.cpp:150] Setting up drop2_eyes
I1025 11:06:11.927922 21272 net.cpp:157] Top shape: 70 1024 (71680)
I1025 11:06:11.927925 21272 net.cpp:165] Memory required for data: 2710195040
I1025 11:06:11.927929 21272 layer_factory.hpp:77] Creating layer fc2_eyes_drop2_eyes_0_split
I1025 11:06:11.927945 21272 net.cpp:106] Creating Layer fc2_eyes_drop2_eyes_0_split
I1025 11:06:11.927950 21272 net.cpp:454] fc2_eyes_drop2_eyes_0_split <- fc2_eyes
I1025 11:06:11.927959 21272 net.cpp:411] fc2_eyes_drop2_eyes_0_split -> fc2_eyes_drop2_eyes_0_split_0
I1025 11:06:11.927968 21272 net.cpp:411] fc2_eyes_drop2_eyes_0_split -> fc2_eyes_drop2_eyes_0_split_1
I1025 11:06:11.927975 21272 net.cpp:411] fc2_eyes_drop2_eyes_0_split -> fc2_eyes_drop2_eyes_0_split_2
I1025 11:06:11.927983 21272 net.cpp:411] fc2_eyes_drop2_eyes_0_split -> fc2_eyes_drop2_eyes_0_split_3
I1025 11:06:11.927989 21272 net.cpp:411] fc2_eyes_drop2_eyes_0_split -> fc2_eyes_drop2_eyes_0_split_4
I1025 11:06:11.928002 21272 net.cpp:411] fc2_eyes_drop2_eyes_0_split -> fc2_eyes_drop2_eyes_0_split_5
I1025 11:06:11.928112 21272 net.cpp:150] Setting up fc2_eyes_drop2_eyes_0_split
I1025 11:06:11.928122 21272 net.cpp:157] Top shape: 70 1024 (71680)
I1025 11:06:11.928128 21272 net.cpp:157] Top shape: 70 1024 (71680)
I1025 11:06:11.928151 21272 net.cpp:157] Top shape: 70 1024 (71680)
I1025 11:06:11.928156 21272 net.cpp:157] Top shape: 70 1024 (71680)
I1025 11:06:11.928161 21272 net.cpp:157] Top shape: 70 1024 (71680)
I1025 11:06:11.928165 21272 net.cpp:157] Top shape: 70 1024 (71680)
I1025 11:06:11.928169 21272 net.cpp:165] Memory required for data: 2711915360
I1025 11:06:11.928172 21272 layer_factory.hpp:77] Creating layer conv3_face
I1025 11:06:11.928189 21272 net.cpp:106] Creating Layer conv3_face
I1025 11:06:11.928202 21272 net.cpp:454] conv3_face <- pool3_pool3_0_split_4
I1025 11:06:11.928218 21272 net.cpp:411] conv3_face -> conv3_face
I1025 11:06:11.947278 21272 net.cpp:150] Setting up conv3_face
I1025 11:06:11.947298 21272 net.cpp:157] Top shape: 70 512 7 7 (1756160)
I1025 11:06:11.947309 21272 net.cpp:165] Memory required for data: 2718940000
I1025 11:06:11.947317 21272 layer_factory.hpp:77] Creating layer conv3_face_bn
I1025 11:06:11.947332 21272 net.cpp:106] Creating Layer conv3_face_bn
I1025 11:06:11.947337 21272 net.cpp:454] conv3_face_bn <- conv3_face
I1025 11:06:11.947345 21272 net.cpp:397] conv3_face_bn -> conv3_face (in-place)
I1025 11:06:11.947602 21272 net.cpp:150] Setting up conv3_face_bn
I1025 11:06:11.947614 21272 net.cpp:157] Top shape: 70 512 7 7 (1756160)
I1025 11:06:11.947618 21272 net.cpp:165] Memory required for data: 2725964640
I1025 11:06:11.947628 21272 layer_factory.hpp:77] Creating layer conv3_face_scale
I1025 11:06:11.947639 21272 net.cpp:106] Creating Layer conv3_face_scale
I1025 11:06:11.947644 21272 net.cpp:454] conv3_face_scale <- conv3_face
I1025 11:06:11.947650 21272 net.cpp:397] conv3_face_scale -> conv3_face (in-place)
I1025 11:06:11.947705 21272 layer_factory.hpp:77] Creating layer conv3_face_scale
I1025 11:06:11.947865 21272 net.cpp:150] Setting up conv3_face_scale
I1025 11:06:11.947876 21272 net.cpp:157] Top shape: 70 512 7 7 (1756160)
I1025 11:06:11.947880 21272 net.cpp:165] Memory required for data: 2732989280
I1025 11:06:11.947887 21272 layer_factory.hpp:77] Creating layer prelu3_face
I1025 11:06:11.947896 21272 net.cpp:106] Creating Layer prelu3_face
I1025 11:06:11.947901 21272 net.cpp:454] prelu3_face <- conv3_face
I1025 11:06:11.947911 21272 net.cpp:397] prelu3_face -> conv3_face (in-place)
I1025 11:06:11.948065 21272 net.cpp:150] Setting up prelu3_face
I1025 11:06:11.948076 21272 net.cpp:157] Top shape: 70 512 7 7 (1756160)
I1025 11:06:11.948081 21272 net.cpp:165] Memory required for data: 2740013920
I1025 11:06:11.948086 21272 layer_factory.hpp:77] Creating layer pool3_face
I1025 11:06:11.948096 21272 net.cpp:106] Creating Layer pool3_face
I1025 11:06:11.948101 21272 net.cpp:454] pool3_face <- conv3_face
I1025 11:06:11.948112 21272 net.cpp:411] pool3_face -> pool3_face
I1025 11:06:11.948524 21272 net.cpp:150] Setting up pool3_face
I1025 11:06:11.948540 21272 net.cpp:157] Top shape: 70 512 4 4 (573440)
I1025 11:06:11.948550 21272 net.cpp:165] Memory required for data: 2742307680
I1025 11:06:11.948555 21272 layer_factory.hpp:77] Creating layer pool3_face_pool3_face_0_split
I1025 11:06:11.948570 21272 net.cpp:106] Creating Layer pool3_face_pool3_face_0_split
I1025 11:06:11.948576 21272 net.cpp:454] pool3_face_pool3_face_0_split <- pool3_face
I1025 11:06:11.948583 21272 net.cpp:411] pool3_face_pool3_face_0_split -> pool3_face_pool3_face_0_split_0
I1025 11:06:11.948593 21272 net.cpp:411] pool3_face_pool3_face_0_split -> pool3_face_pool3_face_0_split_1
I1025 11:06:11.948640 21272 net.cpp:150] Setting up pool3_face_pool3_face_0_split
I1025 11:06:11.948648 21272 net.cpp:157] Top shape: 70 512 4 4 (573440)
I1025 11:06:11.948652 21272 net.cpp:157] Top shape: 70 512 4 4 (573440)
I1025 11:06:11.948657 21272 net.cpp:165] Memory required for data: 2746895200
I1025 11:06:11.948660 21272 layer_factory.hpp:77] Creating layer fc1_face
I1025 11:06:11.948673 21272 net.cpp:106] Creating Layer fc1_face
I1025 11:06:11.948678 21272 net.cpp:454] fc1_face <- pool3_face_pool3_face_0_split_0
I1025 11:06:11.948684 21272 net.cpp:411] fc1_face -> fc1_face
I1025 11:06:12.037726 21272 net.cpp:150] Setting up fc1_face
I1025 11:06:12.037794 21272 net.cpp:157] Top shape: 70 1024 (71680)
I1025 11:06:12.037801 21272 net.cpp:165] Memory required for data: 2747181920
I1025 11:06:12.037813 21272 layer_factory.hpp:77] Creating layer relu1_face
I1025 11:06:12.037832 21272 net.cpp:106] Creating Layer relu1_face
I1025 11:06:12.037842 21272 net.cpp:454] relu1_face <- fc1_face
I1025 11:06:12.037849 21272 net.cpp:397] relu1_face -> fc1_face (in-place)
I1025 11:06:12.038148 21272 net.cpp:150] Setting up relu1_face
I1025 11:06:12.038162 21272 net.cpp:157] Top shape: 70 1024 (71680)
I1025 11:06:12.038167 21272 net.cpp:165] Memory required for data: 2747468640
I1025 11:06:12.038172 21272 layer_factory.hpp:77] Creating layer drop1_face
I1025 11:06:12.038180 21272 net.cpp:106] Creating Layer drop1_face
I1025 11:06:12.038185 21272 net.cpp:454] drop1_face <- fc1_face
I1025 11:06:12.038193 21272 net.cpp:397] drop1_face -> fc1_face (in-place)
I1025 11:06:12.038244 21272 net.cpp:150] Setting up drop1_face
I1025 11:06:12.038255 21272 net.cpp:157] Top shape: 70 1024 (71680)
I1025 11:06:12.038259 21272 net.cpp:165] Memory required for data: 2747755360
I1025 11:06:12.038264 21272 layer_factory.hpp:77] Creating layer fc2_face
I1025 11:06:12.038282 21272 net.cpp:106] Creating Layer fc2_face
I1025 11:06:12.038287 21272 net.cpp:454] fc2_face <- fc1_face
I1025 11:06:12.038296 21272 net.cpp:411] fc2_face -> fc2_face
I1025 11:06:12.049238 21272 net.cpp:150] Setting up fc2_face
I1025 11:06:12.049255 21272 net.cpp:157] Top shape: 70 1024 (71680)
I1025 11:06:12.049259 21272 net.cpp:165] Memory required for data: 2748042080
I1025 11:06:12.049266 21272 layer_factory.hpp:77] Creating layer relu2_face
I1025 11:06:12.049276 21272 net.cpp:106] Creating Layer relu2_face
I1025 11:06:12.049281 21272 net.cpp:454] relu2_face <- fc2_face
I1025 11:06:12.049288 21272 net.cpp:397] relu2_face -> fc2_face (in-place)
I1025 11:06:12.049660 21272 net.cpp:150] Setting up relu2_face
I1025 11:06:12.049676 21272 net.cpp:157] Top shape: 70 1024 (71680)
I1025 11:06:12.049681 21272 net.cpp:165] Memory required for data: 2748328800
I1025 11:06:12.049686 21272 layer_factory.hpp:77] Creating layer drop2_face
I1025 11:06:12.049695 21272 net.cpp:106] Creating Layer drop2_face
I1025 11:06:12.049700 21272 net.cpp:454] drop2_face <- fc2_face
I1025 11:06:12.049711 21272 net.cpp:397] drop2_face -> fc2_face (in-place)
I1025 11:06:12.049748 21272 net.cpp:150] Setting up drop2_face
I1025 11:06:12.049756 21272 net.cpp:157] Top shape: 70 1024 (71680)
I1025 11:06:12.049758 21272 net.cpp:165] Memory required for data: 2748615520
I1025 11:06:12.049762 21272 layer_factory.hpp:77] Creating layer fc2_face_drop2_face_0_split
I1025 11:06:12.049777 21272 net.cpp:106] Creating Layer fc2_face_drop2_face_0_split
I1025 11:06:12.049782 21272 net.cpp:454] fc2_face_drop2_face_0_split <- fc2_face
I1025 11:06:12.049788 21272 net.cpp:411] fc2_face_drop2_face_0_split -> fc2_face_drop2_face_0_split_0
I1025 11:06:12.049799 21272 net.cpp:411] fc2_face_drop2_face_0_split -> fc2_face_drop2_face_0_split_1
I1025 11:06:12.049808 21272 net.cpp:411] fc2_face_drop2_face_0_split -> fc2_face_drop2_face_0_split_2
I1025 11:06:12.049814 21272 net.cpp:411] fc2_face_drop2_face_0_split -> fc2_face_drop2_face_0_split_3
I1025 11:06:12.049821 21272 net.cpp:411] fc2_face_drop2_face_0_split -> fc2_face_drop2_face_0_split_4
I1025 11:06:12.049829 21272 net.cpp:411] fc2_face_drop2_face_0_split -> fc2_face_drop2_face_0_split_5
I1025 11:06:12.049834 21272 net.cpp:411] fc2_face_drop2_face_0_split -> fc2_face_drop2_face_0_split_6
I1025 11:06:12.049955 21272 net.cpp:150] Setting up fc2_face_drop2_face_0_split
I1025 11:06:12.049965 21272 net.cpp:157] Top shape: 70 1024 (71680)
I1025 11:06:12.049970 21272 net.cpp:157] Top shape: 70 1024 (71680)
I1025 11:06:12.049974 21272 net.cpp:157] Top shape: 70 1024 (71680)
I1025 11:06:12.049978 21272 net.cpp:157] Top shape: 70 1024 (71680)
I1025 11:06:12.049983 21272 net.cpp:157] Top shape: 70 1024 (71680)
I1025 11:06:12.049988 21272 net.cpp:157] Top shape: 70 1024 (71680)
I1025 11:06:12.049991 21272 net.cpp:157] Top shape: 70 1024 (71680)
I1025 11:06:12.050007 21272 net.cpp:165] Memory required for data: 2750622560
I1025 11:06:12.050015 21272 layer_factory.hpp:77] Creating layer conv3_rest
I1025 11:06:12.050034 21272 net.cpp:106] Creating Layer conv3_rest
I1025 11:06:12.050041 21272 net.cpp:454] conv3_rest <- pool3_pool3_0_split_5
I1025 11:06:12.050055 21272 net.cpp:411] conv3_rest -> conv3_rest
I1025 11:06:12.069090 21272 net.cpp:150] Setting up conv3_rest
I1025 11:06:12.069109 21272 net.cpp:157] Top shape: 70 512 7 7 (1756160)
I1025 11:06:12.069114 21272 net.cpp:165] Memory required for data: 2757647200
I1025 11:06:12.069123 21272 layer_factory.hpp:77] Creating layer conv3_rest_bn
I1025 11:06:12.069134 21272 net.cpp:106] Creating Layer conv3_rest_bn
I1025 11:06:12.069140 21272 net.cpp:454] conv3_rest_bn <- conv3_rest
I1025 11:06:12.069147 21272 net.cpp:397] conv3_rest_bn -> conv3_rest (in-place)
I1025 11:06:12.069392 21272 net.cpp:150] Setting up conv3_rest_bn
I1025 11:06:12.069403 21272 net.cpp:157] Top shape: 70 512 7 7 (1756160)
I1025 11:06:12.069407 21272 net.cpp:165] Memory required for data: 2764671840
I1025 11:06:12.069419 21272 layer_factory.hpp:77] Creating layer conv3_rest_scale
I1025 11:06:12.069429 21272 net.cpp:106] Creating Layer conv3_rest_scale
I1025 11:06:12.069433 21272 net.cpp:454] conv3_rest_scale <- conv3_rest
I1025 11:06:12.069439 21272 net.cpp:397] conv3_rest_scale -> conv3_rest (in-place)
I1025 11:06:12.069489 21272 layer_factory.hpp:77] Creating layer conv3_rest_scale
I1025 11:06:12.069640 21272 net.cpp:150] Setting up conv3_rest_scale
I1025 11:06:12.069650 21272 net.cpp:157] Top shape: 70 512 7 7 (1756160)
I1025 11:06:12.069653 21272 net.cpp:165] Memory required for data: 2771696480
I1025 11:06:12.069660 21272 layer_factory.hpp:77] Creating layer prelu3_rest
I1025 11:06:12.069671 21272 net.cpp:106] Creating Layer prelu3_rest
I1025 11:06:12.069676 21272 net.cpp:454] prelu3_rest <- conv3_rest
I1025 11:06:12.069681 21272 net.cpp:397] prelu3_rest -> conv3_rest (in-place)
I1025 11:06:12.069826 21272 net.cpp:150] Setting up prelu3_rest
I1025 11:06:12.069836 21272 net.cpp:157] Top shape: 70 512 7 7 (1756160)
I1025 11:06:12.069840 21272 net.cpp:165] Memory required for data: 2778721120
I1025 11:06:12.069849 21272 layer_factory.hpp:77] Creating layer pool3_rest
I1025 11:06:12.069860 21272 net.cpp:106] Creating Layer pool3_rest
I1025 11:06:12.069865 21272 net.cpp:454] pool3_rest <- conv3_rest
I1025 11:06:12.069874 21272 net.cpp:411] pool3_rest -> pool3_rest
I1025 11:06:12.070118 21272 net.cpp:150] Setting up pool3_rest
I1025 11:06:12.070132 21272 net.cpp:157] Top shape: 70 512 4 4 (573440)
I1025 11:06:12.070137 21272 net.cpp:165] Memory required for data: 2781014880
I1025 11:06:12.070142 21272 layer_factory.hpp:77] Creating layer pool3_rest_pool3_rest_0_split
I1025 11:06:12.070152 21272 net.cpp:106] Creating Layer pool3_rest_pool3_rest_0_split
I1025 11:06:12.070157 21272 net.cpp:454] pool3_rest_pool3_rest_0_split <- pool3_rest
I1025 11:06:12.070163 21272 net.cpp:411] pool3_rest_pool3_rest_0_split -> pool3_rest_pool3_rest_0_split_0
I1025 11:06:12.070170 21272 net.cpp:411] pool3_rest_pool3_rest_0_split -> pool3_rest_pool3_rest_0_split_1
I1025 11:06:12.070178 21272 net.cpp:411] pool3_rest_pool3_rest_0_split -> pool3_rest_pool3_rest_0_split_2
I1025 11:06:12.070185 21272 net.cpp:411] pool3_rest_pool3_rest_0_split -> pool3_rest_pool3_rest_0_split_3
I1025 11:06:12.070191 21272 net.cpp:411] pool3_rest_pool3_rest_0_split -> pool3_rest_pool3_rest_0_split_4
I1025 11:06:12.070284 21272 net.cpp:150] Setting up pool3_rest_pool3_rest_0_split
I1025 11:06:12.070293 21272 net.cpp:157] Top shape: 70 512 4 4 (573440)
I1025 11:06:12.070298 21272 net.cpp:157] Top shape: 70 512 4 4 (573440)
I1025 11:06:12.070302 21272 net.cpp:157] Top shape: 70 512 4 4 (573440)
I1025 11:06:12.070307 21272 net.cpp:157] Top shape: 70 512 4 4 (573440)
I1025 11:06:12.070312 21272 net.cpp:157] Top shape: 70 512 4 4 (573440)
I1025 11:06:12.070314 21272 net.cpp:165] Memory required for data: 2792483680
I1025 11:06:12.070318 21272 layer_factory.hpp:77] Creating layer fc1_aroundhead
I1025 11:06:12.070343 21272 net.cpp:106] Creating Layer fc1_aroundhead
I1025 11:06:12.070348 21272 net.cpp:454] fc1_aroundhead <- pool3_rest_pool3_rest_0_split_0
I1025 11:06:12.070354 21272 net.cpp:411] fc1_aroundhead -> fc1_aroundhead
I1025 11:06:12.158504 21272 net.cpp:150] Setting up fc1_aroundhead
I1025 11:06:12.158547 21272 net.cpp:157] Top shape: 70 1024 (71680)
I1025 11:06:12.158552 21272 net.cpp:165] Memory required for data: 2792770400
I1025 11:06:12.158566 21272 layer_factory.hpp:77] Creating layer relu1_aroundhead
I1025 11:06:12.158589 21272 net.cpp:106] Creating Layer relu1_aroundhead
I1025 11:06:12.158598 21272 net.cpp:454] relu1_aroundhead <- fc1_aroundhead
I1025 11:06:12.158609 21272 net.cpp:397] relu1_aroundhead -> fc1_aroundhead (in-place)
I1025 11:06:12.159400 21272 net.cpp:150] Setting up relu1_aroundhead
I1025 11:06:12.159417 21272 net.cpp:157] Top shape: 70 1024 (71680)
I1025 11:06:12.159422 21272 net.cpp:165] Memory required for data: 2793057120
I1025 11:06:12.159430 21272 layer_factory.hpp:77] Creating layer drop1_aroundhead
I1025 11:06:12.159440 21272 net.cpp:106] Creating Layer drop1_aroundhead
I1025 11:06:12.159446 21272 net.cpp:454] drop1_aroundhead <- fc1_aroundhead
I1025 11:06:12.159452 21272 net.cpp:397] drop1_aroundhead -> fc1_aroundhead (in-place)
I1025 11:06:12.159504 21272 net.cpp:150] Setting up drop1_aroundhead
I1025 11:06:12.159512 21272 net.cpp:157] Top shape: 70 1024 (71680)
I1025 11:06:12.159515 21272 net.cpp:165] Memory required for data: 2793343840
I1025 11:06:12.159519 21272 layer_factory.hpp:77] Creating layer fc2_aroundhead
I1025 11:06:12.159531 21272 net.cpp:106] Creating Layer fc2_aroundhead
I1025 11:06:12.159536 21272 net.cpp:454] fc2_aroundhead <- fc1_aroundhead
I1025 11:06:12.159549 21272 net.cpp:411] fc2_aroundhead -> fc2_aroundhead
I1025 11:06:12.168923 21272 net.cpp:150] Setting up fc2_aroundhead
I1025 11:06:12.168938 21272 net.cpp:157] Top shape: 70 1024 (71680)
I1025 11:06:12.168953 21272 net.cpp:165] Memory required for data: 2793630560
I1025 11:06:12.168961 21272 layer_factory.hpp:77] Creating layer relu2_aroundhead
I1025 11:06:12.168967 21272 net.cpp:106] Creating Layer relu2_aroundhead
I1025 11:06:12.168972 21272 net.cpp:454] relu2_aroundhead <- fc2_aroundhead
I1025 11:06:12.168982 21272 net.cpp:397] relu2_aroundhead -> fc2_aroundhead (in-place)
I1025 11:06:12.169196 21272 net.cpp:150] Setting up relu2_aroundhead
I1025 11:06:12.169211 21272 net.cpp:157] Top shape: 70 1024 (71680)
I1025 11:06:12.169215 21272 net.cpp:165] Memory required for data: 2793917280
I1025 11:06:12.169220 21272 layer_factory.hpp:77] Creating layer drop2_aroundhead
I1025 11:06:12.169226 21272 net.cpp:106] Creating Layer drop2_aroundhead
I1025 11:06:12.169230 21272 net.cpp:454] drop2_aroundhead <- fc2_aroundhead
I1025 11:06:12.169237 21272 net.cpp:397] drop2_aroundhead -> fc2_aroundhead (in-place)
I1025 11:06:12.169273 21272 net.cpp:150] Setting up drop2_aroundhead
I1025 11:06:12.169284 21272 net.cpp:157] Top shape: 70 1024 (71680)
I1025 11:06:12.169287 21272 net.cpp:165] Memory required for data: 2794204000
I1025 11:06:12.169292 21272 layer_factory.hpp:77] Creating layer fc2_aroundhead_drop2_aroundhead_0_split
I1025 11:06:12.169304 21272 net.cpp:106] Creating Layer fc2_aroundhead_drop2_aroundhead_0_split
I1025 11:06:12.169308 21272 net.cpp:454] fc2_aroundhead_drop2_aroundhead_0_split <- fc2_aroundhead
I1025 11:06:12.169314 21272 net.cpp:411] fc2_aroundhead_drop2_aroundhead_0_split -> fc2_aroundhead_drop2_aroundhead_0_split_0
…
I1025 11:06:12.169443 21272 net.cpp:411] fc2_aroundhead_drop2_aroundhead_0_split -> fc2_aroundhead_drop2_aroundhead_0_split_10
I1025 11:06:12.169450 21272 net.cpp:411] fc2_aroundhead_drop2_aroundhead_0_split -> fc2_aroundhead_drop2_aroundhead_0_split_11
I1025 11:06:12.169456 21272 net.cpp:411] fc2_aroundhead_drop2_aroundhead_0_split -> fc2_aroundhead_drop2_aroundhead_0_split_12
I1025 11:06:12.169463 21272 net.cpp:411] fc2_aroundhead_drop2_aroundhead_0_split -> fc2_aroundhead_drop2_aroundhead_0_split_13
I1025 11:06:12.169663 21272 net.cpp:150] Setting up fc2_aroundhead_drop2_aroundhead_0_split
I1025 11:06:12.169672 21272 net.cpp:157] Top shape: 70 1024 (71680)
I1025 11:06:12.169677 21272 net.cpp:157] Top shape: 70 1024 (71680)
I1025 11:06:12.169680 21272 net.cpp:157] Top shape: 70 1024 (71680)
I1025 11:06:12.169683 21272 net.cpp:157] Top shape: 70 1024 (71680)
I1025 11:06:12.169687 21272 net.cpp:157] Top shape: 70 1024 (71680)
I1025 11:06:12.169692 21272 net.cpp:157] Top shape: 70 1024 (71680)
I1025 11:06:12.169697 21272 net.cpp:157] Top shape: 70 1024 (71680)
I1025 11:06:12.169700 21272 net.cpp:157] Top shape: 70 1024 (71680)
I1025 11:06:12.169704 21272 net.cpp:157] Top shape: 70 1024 (71680)
I1025 11:06:12.169708 21272 net.cpp:157] Top shape: 70 1024 (71680)
I1025 11:06:12.169711 21272 net.cpp:157] Top shape: 70 1024 (71680)
I1025 11:06:12.169715 21272 net.cpp:157] Top shape: 70 1024 (71680)
I1025 11:06:12.169718 21272 net.cpp:157] Top shape: 70 1024 (71680)
I1025 11:06:12.169723 21272 net.cpp:157] Top shape: 70 1024 (71680)
I1025 11:06:12.169725 21272 net.cpp:165] Memory required for data: 2798218080
I1025 11:06:12.169729 21272 layer_factory.hpp:77] Creating layer fc1_facialhair
I1025 11:06:12.169739 21272 net.cpp:106] Creating Layer fc1_facialhair
I1025 11:06:12.169744 21272 net.cpp:454] fc1_facialhair <- pool3_rest_pool3_rest_0_split_1
I1025 11:06:12.169750 21272 net.cpp:411] fc1_facialhair -> fc1_facialhair
I1025 11:06:12.246944 21272 net.cpp:150] Setting up fc1_facialhair
I1025 11:06:12.247001 21272 net.cpp:157] Top shape: 70 1024 (71680)
I1025 11:06:12.247006 21272 net.cpp:165] Memory required for data: 2798504800
I1025 11:06:12.247018 21272 layer_factory.hpp:77] Creating layer relu1_facialhair
I1025 11:06:12.247032 21272 net.cpp:106] Creating Layer relu1_facialhair
I1025 11:06:12.247041 21272 net.cpp:454] relu1_facialhair <- fc1_facialhair
I1025 11:06:12.247048 21272 net.cpp:397] relu1_facialhair -> fc1_facialhair (in-place)
I1025 11:06:12.247589 21272 net.cpp:150] Setting up relu1_facialhair
I1025 11:06:12.247618 21272 net.cpp:157] Top shape: 70 1024 (71680)
I1025 11:06:12.247623 21272 net.cpp:165] Memory required for data: 2798791520
I1025 11:06:12.247627 21272 layer_factory.hpp:77] Creating layer drop1_facialhair
I1025 11:06:12.247640 21272 net.cpp:106] Creating Layer drop1_facialhair
I1025 11:06:12.247645 21272 net.cpp:454] drop1_facialhair <- fc1_facialhair
I1025 11:06:12.247651 21272 net.cpp:397] drop1_facialhair -> fc1_facialhair (in-place)
I1025 11:06:12.247699 21272 net.cpp:150] Setting up drop1_facialhair
I1025 11:06:12.247705 21272 net.cpp:157] Top shape: 70 1024 (71680)
I1025 11:06:12.247710 21272 net.cpp:165] Memory required for data: 2799078240
I1025 11:06:12.247716 21272 layer_factory.hpp:77] Creating layer fc2_facialhair
I1025 11:06:12.247727 21272 net.cpp:106] Creating Layer fc2_facialhair
I1025 11:06:12.247731 21272 net.cpp:454] fc2_facialhair <- fc1_facialhair
I1025 11:06:12.247738 21272 net.cpp:411] fc2_facialhair -> fc2_facialhair
I1025 11:06:12.267467 21272 net.cpp:150] Setting up fc2_facialhair
I1025 11:06:12.267523 21272 net.cpp:157] Top shape: 70 1024 (71680)
I1025 11:06:12.267532 21272 net.cpp:165] Memory required for data: 2799364960
I1025 11:06:12.267549 21272 layer_factory.hpp:77] Creating layer relu2_facialhair
I1025 11:06:12.267565 21272 net.cpp:106] Creating Layer relu2_facialhair
I1025 11:06:12.267576 21272 net.cpp:454] relu2_facialhair <- fc2_facialhair
I1025 11:06:12.267601 21272 net.cpp:397] relu2_facialhair -> fc2_facialhair (in-place)
I1025 11:06:12.268059 21272 net.cpp:150] Setting up relu2_facialhair
I1025 11:06:12.268086 21272 net.cpp:157] Top shape: 70 1024 (71680)
I1025 11:06:12.268095 21272 net.cpp:165] Memory required for data: 2799651680
I1025 11:06:12.268102 21272 layer_factory.hpp:77] Creating layer drop2_facialhair
I1025 11:06:12.268117 21272 net.cpp:106] Creating Layer drop2_facialhair
I1025 11:06:12.268126 21272 net.cpp:454] drop2_facialhair <- fc2_facialhair
I1025 11:06:12.268138 21272 net.cpp:397] drop2_facialhair -> fc2_facialhair (in-place)
I1025 11:06:12.268224 21272 net.cpp:150] Setting up drop2_facialhair
I1025 11:06:12.268239 21272 net.cpp:157] Top shape: 70 1024 (71680)
I1025 11:06:12.268245 21272 net.cpp:165] Memory required for data: 2799938400
I1025 11:06:12.268256 21272 layer_factory.hpp:77] Creating layer fc2_facialhair_drop2_facialhair_0_split
I1025 11:06:12.268272 21272 net.cpp:106] Creating Layer fc2_facialhair_drop2_facialhair_0_split
I1025 11:06:12.268281 21272 net.cpp:454] fc2_facialhair_drop2_facialhair_0_split <- fc2_facialhair
I1025 11:06:12.268293 21272 net.cpp:411] fc2_facialhair_drop2_facialhair_0_split -> fc2_facialhair_drop2_facialhair_0_split_0
I1025 11:06:12.268311 21272 net.cpp:411] fc2_facialhair_drop2_facialhair_0_split -> fc2_facialhair_drop2_facialhair_0_split_1
I1025 11:06:12.268324 21272 net.cpp:411] fc2_facialhair_drop2_facialhair_0_split -> fc2_facialhair_drop2_facialhair_0_split_2
I1025 11:06:12.268339 21272 net.cpp:411] fc2_facialhair_drop2_facialhair_0_split -> fc2_facialhair_drop2_facialhair_0_split_3
I1025 11:06:12.268350 21272 net.cpp:411] fc2_facialhair_drop2_facialhair_0_split -> fc2_facialhair_drop2_facialhair_0_split_4
I1025 11:06:12.268362 21272 net.cpp:411] fc2_facialhair_drop2_facialhair_0_split -> fc2_facialhair_drop2_facialhair_0_split_5
I1025 11:06:12.268553 21272 net.cpp:150] Setting up fc2_facialhair_drop2_facialhair_0_split
I1025 11:06:12.268568 21272 net.cpp:157] Top shape: 70 1024 (71680)
I1025 11:06:12.268576 21272 net.cpp:157] Top shape: 70 1024 (71680)
I1025 11:06:12.268584 21272 net.cpp:157] Top shape: 70 1024 (71680)
I1025 11:06:12.268591 21272 net.cpp:157] Top shape: 70 1024 (71680)
I1025 11:06:12.268599 21272 net.cpp:157] Top shape: 70 1024 (71680)
I1025 11:06:12.268606 21272 net.cpp:157] Top shape: 70 1024 (71680)
I1025 11:06:12.268612 21272 net.cpp:165] Memory required for data: 2801658720
I1025 11:06:12.268620 21272 layer_factory.hpp:77] Creating layer fc1_cheeks
I1025 11:06:12.268636 21272 net.cpp:106] Creating Layer fc1_cheeks
I1025 11:06:12.268646 21272 net.cpp:454] fc1_cheeks <- pool3_rest_pool3_rest_0_split_2
I1025 11:06:12.268664 21272 net.cpp:411] fc1_cheeks -> fc1_cheeks
I1025 11:06:12.376756 21272 net.cpp:150] Setting up fc1_cheeks
I1025 11:06:12.376802 21272 net.cpp:157] Top shape: 70 1024 (71680)
I1025 11:06:12.376807 21272 net.cpp:165] Memory required for data: 2801945440
I1025 11:06:12.376818 21272 layer_factory.hpp:77] Creating layer relu1_cheeks
I1025 11:06:12.376829 21272 net.cpp:106] Creating Layer relu1_cheeks
I1025 11:06:12.376837 21272 net.cpp:454] relu1_cheeks <- fc1_cheeks
I1025 11:06:12.376844 21272 net.cpp:397] relu1_cheeks -> fc1_cheeks (in-place)
I1025 11:06:12.377357 21272 net.cpp:150] Setting up relu1_cheeks
I1025 11:06:12.377377 21272 net.cpp:157] Top shape: 70 1024 (71680)
I1025 11:06:12.377383 21272 net.cpp:165] Memory required for data: 2802232160
I1025 11:06:12.377388 21272 layer_factory.hpp:77] Creating layer drop1_cheeks
I1025 11:06:12.377398 21272 net.cpp:106] Creating Layer drop1_cheeks
I1025 11:06:12.377423 21272 net.cpp:454] drop1_cheeks <- fc1_cheeks
I1025 11:06:12.377429 21272 net.cpp:397] drop1_cheeks -> fc1_cheeks (in-place)
I1025 11:06:12.377477 21272 net.cpp:150] Setting up drop1_cheeks
I1025 11:06:12.377485 21272 net.cpp:157] Top shape: 70 1024 (71680)
I1025 11:06:12.377490 21272 net.cpp:165] Memory required for data: 2802518880
I1025 11:06:12.377493 21272 layer_factory.hpp:77] Creating layer fc2_cheeks
I1025 11:06:12.377503 21272 net.cpp:106] Creating Layer fc2_cheeks
I1025 11:06:12.377508 21272 net.cpp:454] fc2_cheeks <- fc1_cheeks
I1025 11:06:12.377516 21272 net.cpp:411] fc2_cheeks -> fc2_cheeks
I1025 11:06:12.388500 21272 net.cpp:150] Setting up fc2_cheeks
I1025 11:06:12.388517 21272 net.cpp:157] Top shape: 70 1024 (71680)
I1025 11:06:12.388526 21272 net.cpp:165] Memory required for data: 2802805600
I1025 11:06:12.388535 21272 layer_factory.hpp:77] Creating layer relu2_cheeks
I1025 11:06:12.388543 21272 net.cpp:106] Creating Layer relu2_cheeks
I1025 11:06:12.388550 21272 net.cpp:454] relu2_cheeks <- fc2_cheeks
I1025 11:06:12.388556 21272 net.cpp:397] relu2_cheeks -> fc2_cheeks (in-place)
I1025 11:06:12.388921 21272 net.cpp:150] Setting up relu2_cheeks
I1025 11:06:12.388944 21272 net.cpp:157] Top shape: 70 1024 (71680)
I1025 11:06:12.388948 21272 net.cpp:165] Memory required for data: 2803092320
I1025 11:06:12.388953 21272 layer_factory.hpp:77] Creating layer drop2_cheeks
I1025 11:06:12.388969 21272 net.cpp:106] Creating Layer drop2_cheeks
I1025 11:06:12.388974 21272 net.cpp:454] drop2_cheeks <- fc2_cheeks
I1025 11:06:12.388981 21272 net.cpp:397] drop2_cheeks -> fc2_cheeks (in-place)
I1025 11:06:12.389022 21272 net.cpp:150] Setting up drop2_cheeks
I1025 11:06:12.389029 21272 net.cpp:157] Top shape: 70 1024 (71680)
I1025 11:06:12.389032 21272 net.cpp:165] Memory required for data: 2803379040
I1025 11:06:12.389036 21272 layer_factory.hpp:77] Creating layer fc2_cheeks_drop2_cheeks_0_split
I1025 11:06:12.389044 21272 net.cpp:106] Creating Layer fc2_cheeks_drop2_cheeks_0_split
I1025 11:06:12.389047 21272 net.cpp:454] fc2_cheeks_drop2_cheeks_0_split <- fc2_cheeks
I1025 11:06:12.389055 21272 net.cpp:411] fc2_cheeks_drop2_cheeks_0_split -> fc2_cheeks_drop2_cheeks_0_split_0
I1025 11:06:12.389063 21272 net.cpp:411] fc2_cheeks_drop2_cheeks_0_split -> fc2_cheeks_drop2_cheeks_0_split_1
I1025 11:06:12.389070 21272 net.cpp:411] fc2_cheeks_drop2_cheeks_0_split -> fc2_cheeks_drop2_cheeks_0_split_2
I1025 11:06:12.389137 21272 net.cpp:150] Setting up fc2_cheeks_drop2_cheeks_0_split
I1025 11:06:12.389147 21272 net.cpp:157] Top shape: 70 1024 (71680)
I1025 11:06:12.389152 21272 net.cpp:157] Top shape: 70 1024 (71680)
I1025 11:06:12.389155 21272 net.cpp:157] Top shape: 70 1024 (71680)
I1025 11:06:12.389158 21272 net.cpp:165] Memory required for data: 2804239200
I1025 11:06:12.389163 21272 layer_factory.hpp:77] Creating layer fc1_fat
I1025 11:06:12.389171 21272 net.cpp:106] Creating Layer fc1_fat
I1025 11:06:12.389178 21272 net.cpp:454] fc1_fat <- pool3_rest_pool3_rest_0_split_3
I1025 11:06:12.389186 21272 net.cpp:411] fc1_fat -> fc1_fat
I1025 11:06:12.472401 21272 net.cpp:150] Setting up fc1_fat
I1025 11:06:12.472441 21272 net.cpp:157] Top shape: 70 1024 (71680)
I1025 11:06:12.472446 21272 net.cpp:165] Memory required for data: 2804525920
I1025 11:06:12.472456 21272 layer_factory.hpp:77] Creating layer relu1_fat
I1025 11:06:12.472467 21272 net.cpp:106] Creating Layer relu1_fat
I1025 11:06:12.472476 21272 net.cpp:454] relu1_fat <- fc1_fat
I1025 11:06:12.472483 21272 net.cpp:397] relu1_fat -> fc1_fat (in-place)
I1025 11:06:12.472767 21272 net.cpp:150] Setting up relu1_fat
I1025 11:06:12.472780 21272 net.cpp:157] Top shape: 70 1024 (71680)
I1025 11:06:12.472785 21272 net.cpp:165] Memory required for data: 2804812640
I1025 11:06:12.472790 21272 layer_factory.hpp:77] Creating layer drop1_fat
I1025 11:06:12.472797 21272 net.cpp:106] Creating Layer drop1_fat
I1025 11:06:12.472802 21272 net.cpp:454] drop1_fat <- fc1_fat
I1025 11:06:12.472810 21272 net.cpp:397] drop1_fat -> fc1_fat (in-place)
I1025 11:06:12.472852 21272 net.cpp:150] Setting up drop1_fat
I1025 11:06:12.472878 21272 net.cpp:157] Top shape: 70 1024 (71680)
I1025 11:06:12.472883 21272 net.cpp:165] Memory required for data: 2805099360
I1025 11:06:12.472887 21272 layer_factory.hpp:77] Creating layer fc2_fat
I1025 11:06:12.472900 21272 net.cpp:106] Creating Layer fc2_fat
I1025 11:06:12.472905 21272 net.cpp:454] fc2_fat <- fc1_fat
I1025 11:06:12.472913 21272 net.cpp:411] fc2_fat -> fc2_fat
I1025 11:06:12.483492 21272 net.cpp:150] Setting up fc2_fat
I1025 11:06:12.483510 21272 net.cpp:157] Top shape: 70 1024 (71680)
I1025 11:06:12.483513 21272 net.cpp:165] Memory required for data: 2805386080
I1025 11:06:12.483523 21272 layer_factory.hpp:77] Creating layer relu2_fat
I1025 11:06:12.483532 21272 net.cpp:106] Creating Layer relu2_fat
I1025 11:06:12.483537 21272 net.cpp:454] relu2_fat <- fc2_fat
I1025 11:06:12.483543 21272 net.cpp:397] relu2_fat -> fc2_fat (in-place)
I1025 11:06:12.483937 21272 net.cpp:150] Setting up relu2_fat
I1025 11:06:12.483954 21272 net.cpp:157] Top shape: 70 1024 (71680)
I1025 11:06:12.483964 21272 net.cpp:165] Memory required for data: 2805672800
I1025 11:06:12.483970 21272 layer_factory.hpp:77] Creating layer drop2_fat
I1025 11:06:12.483979 21272 net.cpp:106] Creating Layer drop2_fat
I1025 11:06:12.483986 21272 net.cpp:454] drop2_fat <- fc2_fat
I1025 11:06:12.483992 21272 net.cpp:397] drop2_fat -> fc2_fat (in-place)
I1025 11:06:12.484031 21272 net.cpp:150] Setting up drop2_fat
I1025 11:06:12.484038 21272 net.cpp:157] Top shape: 70 1024 (71680)
I1025 11:06:12.484042 21272 net.cpp:165] Memory required for data: 2805959520
I1025 11:06:12.484045 21272 layer_factory.hpp:77] Creating layer fc2_fat_drop2_fat_0_split
I1025 11:06:12.484052 21272 net.cpp:106] Creating Layer fc2_fat_drop2_fat_0_split
I1025 11:06:12.484056 21272 net.cpp:454] fc2_fat_drop2_fat_0_split <- fc2_fat
I1025 11:06:12.484066 21272 net.cpp:411] fc2_fat_drop2_fat_0_split -> fc2_fat_drop2_fat_0_split_0
I1025 11:06:12.484072 21272 net.cpp:411] fc2_fat_drop2_fat_0_split -> fc2_fat_drop2_fat_0_split_1
I1025 11:06:12.484081 21272 net.cpp:411] fc2_fat_drop2_fat_0_split -> fc2_fat_drop2_fat_0_split_2
I1025 11:06:12.484145 21272 net.cpp:150] Setting up fc2_fat_drop2_fat_0_split
I1025 11:06:12.484155 21272 net.cpp:157] Top shape: 70 1024 (71680)
I1025 11:06:12.484160 21272 net.cpp:157] Top shape: 70 1024 (71680)
I1025 11:06:12.484164 21272 net.cpp:157] Top shape: 70 1024 (71680)
I1025 11:06:12.484169 21272 net.cpp:165] Memory required for data: 2806819680
I1025 11:06:12.484171 21272 layer_factory.hpp:77] Creating layer fc3_Male
I1025 11:06:12.484181 21272 net.cpp:106] Creating Layer fc3_Male
I1025 11:06:12.484187 21272 net.cpp:454] fc3_Male <- fc2_gender_drop2_gender_0_split_0
I1025 11:06:12.484196 21272 net.cpp:411] fc3_Male -> fc3_Male
I1025 11:06:12.484364 21272 net.cpp:150] Setting up fc3_Male
I1025 11:06:12.484375 21272 net.cpp:157] Top shape: 70 2 (140)
I1025 11:06:12.484378 21272 net.cpp:165] Memory required for data: 2806820240
I1025 11:06:12.484385 21272 layer_factory.hpp:77] Creating layer loss_Male
I1025 11:06:12.484436 21272 net.cpp:106] Creating Layer loss_Male
I1025 11:06:12.484442 21272 net.cpp:454] loss_Male <- fc3_Male
I1025 11:06:12.484449 21272 net.cpp:454] loss_Male <- label_Male
I1025 11:06:12.484459 21272 net.cpp:411] loss_Male -> loss_Male
I1025 11:06:12.484525 21272 net.cpp:150] Setting up loss_Male
I1025 11:06:12.484534 21272 net.cpp:157] Top shape: (1)
I1025 11:06:12.484537 21272 net.cpp:160]     with loss weight 1
I1025 11:06:12.484570 21272 net.cpp:165] Memory required for data: 2806820244
I1025 11:06:12.484576 21272 layer_factory.hpp:77] Creating layer fc3_Big_Nose
I1025 11:06:12.484585 21272 net.cpp:106] Creating Layer fc3_Big_Nose
I1025 11:06:12.484591 21272 net.cpp:454] fc3_Big_Nose <- fc2_nose_drop2_nose_0_split_0
I1025 11:06:12.484597 21272 net.cpp:411] fc3_Big_Nose -> fc3_Big_Nose
I1025 11:06:12.484745 21272 net.cpp:150] Setting up fc3_Big_Nose
I1025 11:06:12.484755 21272 net.cpp:157] Top shape: 70 2 (140)
I1025 11:06:12.484758 21272 net.cpp:165] Memory required for data: 2806820804
I1025 11:06:12.484778 21272 layer_factory.hpp:77] Creating layer loss_Big_Nose
I1025 11:06:12.484789 21272 net.cpp:106] Creating Layer loss_Big_Nose
I1025 11:06:12.484794 21272 net.cpp:454] loss_Big_Nose <- fc3_Big_Nose
I1025 11:06:12.484799 21272 net.cpp:454] loss_Big_Nose <- label_Big_Nose
I1025 11:06:12.484807 21272 net.cpp:411] loss_Big_Nose -> loss_Big_Nose
I1025 11:06:12.484858 21272 net.cpp:150] Setting up loss_Big_Nose
I1025 11:06:12.484866 21272 net.cpp:157] Top shape: (1)
I1025 11:06:12.484870 21272 net.cpp:160]     with loss weight 1
I1025 11:06:12.484876 21272 net.cpp:165] Memory required for data: 2806820808
I1025 11:06:12.484880 21272 layer_factory.hpp:77] Creating layer fc3_Pointy_Nose
I1025 11:06:12.484891 21272 net.cpp:106] Creating Layer fc3_Pointy_Nose
I1025 11:06:12.484896 21272 net.cpp:454] fc3_Pointy_Nose <- fc2_nose_drop2_nose_0_split_1
I1025 11:06:12.484904 21272 net.cpp:411] fc3_Pointy_Nose -> fc3_Pointy_Nose
I1025 11:06:12.485044 21272 net.cpp:150] Setting up fc3_Pointy_Nose
I1025 11:06:12.485054 21272 net.cpp:157] Top shape: 70 2 (140)
I1025 11:06:12.485059 21272 net.cpp:165] Memory required for data: 2806821368
I1025 11:06:12.485102 21272 layer_factory.hpp:77] Creating layer loss_Pointy_Nose
I1025 11:06:12.485111 21272 net.cpp:106] Creating Layer loss_Pointy_Nose
I1025 11:06:12.485116 21272 net.cpp:454] loss_Pointy_Nose <- fc3_Pointy_Nose
I1025 11:06:12.485123 21272 net.cpp:454] loss_Pointy_Nose <- label_Pointy_Nose
I1025 11:06:12.485131 21272 net.cpp:411] loss_Pointy_Nose -> loss_Pointy_Nose
I1025 11:06:12.485183 21272 net.cpp:150] Setting up loss_Pointy_Nose
I1025 11:06:12.485190 21272 net.cpp:157] Top shape: (1)
I1025 11:06:12.485194 21272 net.cpp:160]     with loss weight 1
I1025 11:06:12.485200 21272 net.cpp:165] Memory required for data: 2806821372
I1025 11:06:12.485205 21272 layer_factory.hpp:77] Creating layer fc3_Big_Lips
I1025 11:06:12.485213 21272 net.cpp:106] Creating Layer fc3_Big_Lips
I1025 11:06:12.485218 21272 net.cpp:454] fc3_Big_Lips <- fc2_mouth_drop2_mouth_0_split_0
I1025 11:06:12.485226 21272 net.cpp:411] fc3_Big_Lips -> fc3_Big_Lips
I1025 11:06:12.485375 21272 net.cpp:150] Setting up fc3_Big_Lips
I1025 11:06:12.485385 21272 net.cpp:157] Top shape: 70 2 (140)
I1025 11:06:12.485389 21272 net.cpp:165] Memory required for data: 2806821932
I1025 11:06:12.485395 21272 layer_factory.hpp:77] Creating layer loss_Big_Lips
I1025 11:06:12.485404 21272 net.cpp:106] Creating Layer loss_Big_Lips
I1025 11:06:12.485407 21272 net.cpp:454] loss_Big_Lips <- fc3_Big_Lips
I1025 11:06:12.485414 21272 net.cpp:454] loss_Big_Lips <- label_Big_Lips
I1025 11:06:12.485419 21272 net.cpp:411] loss_Big_Lips -> loss_Big_Lips
I1025 11:06:12.485471 21272 net.cpp:150] Setting up loss_Big_Lips
I1025 11:06:12.485479 21272 net.cpp:157] Top shape: (1)
I1025 11:06:12.485483 21272 net.cpp:160]     with loss weight 1
I1025 11:06:12.485488 21272 net.cpp:165] Memory required for data: 2806821936
I1025 11:06:12.485492 21272 layer_factory.hpp:77] Creating layer fc3_Smiling
I1025 11:06:12.485499 21272 net.cpp:106] Creating Layer fc3_Smiling
I1025 11:06:12.485504 21272 net.cpp:454] fc3_Smiling <- fc2_mouth_drop2_mouth_0_split_1
I1025 11:06:12.485512 21272 net.cpp:411] fc3_Smiling -> fc3_Smiling
I1025 11:06:12.485654 21272 net.cpp:150] Setting up fc3_Smiling
I1025 11:06:12.485664 21272 net.cpp:157] Top shape: 70 2 (140)
I1025 11:06:12.485668 21272 net.cpp:165] Memory required for data: 2806822496
I1025 11:06:12.485674 21272 layer_factory.hpp:77] Creating layer loss_Smiling
I1025 11:06:12.485684 21272 net.cpp:106] Creating Layer loss_Smiling
I1025 11:06:12.485689 21272 net.cpp:454] loss_Smiling <- fc3_Smiling
I1025 11:06:12.485695 21272 net.cpp:454] loss_Smiling <- label_Smiling
I1025 11:06:12.485700 21272 net.cpp:411] loss_Smiling -> loss_Smiling
I1025 11:06:12.485751 21272 net.cpp:150] Setting up loss_Smiling
I1025 11:06:12.485759 21272 net.cpp:157] Top shape: (1)
I1025 11:06:12.485764 21272 net.cpp:160]     with loss weight 1
I1025 11:06:12.485769 21272 net.cpp:165] Memory required for data: 2806822500
I1025 11:06:12.485772 21272 layer_factory.hpp:77] Creating layer fc3_Wearing_Lipstick
I1025 11:06:12.485790 21272 net.cpp:106] Creating Layer fc3_Wearing_Lipstick
I1025 11:06:12.485795 21272 net.cpp:454] fc3_Wearing_Lipstick <- fc2_mouth_drop2_mouth_0_split_2
I1025 11:06:12.485803 21272 net.cpp:411] fc3_Wearing_Lipstick -> fc3_Wearing_Lipstick
I1025 11:06:12.485949 21272 net.cpp:150] Setting up fc3_Wearing_Lipstick
I1025 11:06:12.485958 21272 net.cpp:157] Top shape: 70 2 (140)
I1025 11:06:12.485961 21272 net.cpp:165] Memory required for data: 2806823060
I1025 11:06:12.485968 21272 layer_factory.hpp:77] Creating layer loss_Wearing_Lipstick
I1025 11:06:12.485976 21272 net.cpp:106] Creating Layer loss_Wearing_Lipstick
I1025 11:06:12.485981 21272 net.cpp:454] loss_Wearing_Lipstick <- fc3_Wearing_Lipstick
I1025 11:06:12.485988 21272 net.cpp:454] loss_Wearing_Lipstick <- label_Wearing_Lipstick
I1025 11:06:12.485994 21272 net.cpp:411] loss_Wearing_Lipstick -> loss_Wearing_Lipstick
I1025 11:06:12.486044 21272 net.cpp:150] Setting up loss_Wearing_Lipstick
I1025 11:06:12.486053 21272 net.cpp:157] Top shape: (1)
I1025 11:06:12.486057 21272 net.cpp:160]     with loss weight 1
I1025 11:06:12.486063 21272 net.cpp:165] Memory required for data: 2806823064
I1025 11:06:12.486066 21272 layer_factory.hpp:77] Creating layer fc3_Mouth_Slightly_Open
I1025 11:06:12.486074 21272 net.cpp:106] Creating Layer fc3_Mouth_Slightly_Open
I1025 11:06:12.486079 21272 net.cpp:454] fc3_Mouth_Slightly_Open <- fc2_mouth_drop2_mouth_0_split_3
I1025 11:06:12.486088 21272 net.cpp:411] fc3_Mouth_Slightly_Open -> fc3_Mouth_Slightly_Open
I1025 11:06:12.486230 21272 net.cpp:150] Setting up fc3_Mouth_Slightly_Open
I1025 11:06:12.486239 21272 net.cpp:157] Top shape: 70 2 (140)
I1025 11:06:12.486243 21272 net.cpp:165] Memory required for data: 2806823624
I1025 11:06:12.486250 21272 layer_factory.hpp:77] Creating layer loss_Mouth_Slightly_Open
I1025 11:06:12.486259 21272 net.cpp:106] Creating Layer loss_Mouth_Slightly_Open
I1025 11:06:12.486264 21272 net.cpp:454] loss_Mouth_Slightly_Open <- fc3_Mouth_Slightly_Open
I1025 11:06:12.486269 21272 net.cpp:454] loss_Mouth_Slightly_Open <- label_Mouth_Slightly_Open
I1025 11:06:12.486275 21272 net.cpp:411] loss_Mouth_Slightly_Open -> loss_Mouth_Slightly_Open
I1025 11:06:12.486325 21272 net.cpp:150] Setting up loss_Mouth_Slightly_Open
I1025 11:06:12.486333 21272 net.cpp:157] Top shape: (1)
I1025 11:06:12.486337 21272 net.cpp:160]     with loss weight 1
I1025 11:06:12.486342 21272 net.cpp:165] Memory required for data: 2806823628
I1025 11:06:12.486346 21272 layer_factory.hpp:77] Creating layer fc3_Arched_Eyebrows
I1025 11:06:12.486353 21272 net.cpp:106] Creating Layer fc3_Arched_Eyebrows
I1025 11:06:12.486358 21272 net.cpp:454] fc3_Arched_Eyebrows <- fc2_eyes_drop2_eyes_0_split_0
I1025 11:06:12.486367 21272 net.cpp:411] fc3_Arched_Eyebrows -> fc3_Arched_Eyebrows
I1025 11:06:12.486510 21272 net.cpp:150] Setting up fc3_Arched_Eyebrows
I1025 11:06:12.486520 21272 net.cpp:157] Top shape: 70 2 (140)
I1025 11:06:12.486523 21272 net.cpp:165] Memory required for data: 2806824188
I1025 11:06:12.486529 21272 layer_factory.hpp:77] Creating layer loss_Arched_Eyebrows
I1025 11:06:12.486539 21272 net.cpp:106] Creating Layer loss_Arched_Eyebrows
I1025 11:06:12.486543 21272 net.cpp:454] loss_Arched_Eyebrows <- fc3_Arched_Eyebrows
I1025 11:06:12.486549 21272 net.cpp:454] loss_Arched_Eyebrows <- label_Arched_Eyebrows
I1025 11:06:12.486554 21272 net.cpp:411] loss_Arched_Eyebrows -> loss_Arched_Eyebrows
I1025 11:06:12.486603 21272 net.cpp:150] Setting up loss_Arched_Eyebrows
I1025 11:06:12.486611 21272 net.cpp:157] Top shape: (1)
I1025 11:06:12.486615 21272 net.cpp:160]     with loss weight 1
I1025 11:06:12.486621 21272 net.cpp:165] Memory required for data: 2806824192
I1025 11:06:12.486625 21272 layer_factory.hpp:77] Creating layer fc3_Bags_Under_Eyes
I1025 11:06:12.486632 21272 net.cpp:106] Creating Layer fc3_Bags_Under_Eyes
I1025 11:06:12.486636 21272 net.cpp:454] fc3_Bags_Under_Eyes <- fc2_eyes_drop2_eyes_0_split_1
I1025 11:06:12.486644 21272 net.cpp:411] fc3_Bags_Under_Eyes -> fc3_Bags_Under_Eyes
I1025 11:06:12.486796 21272 net.cpp:150] Setting up fc3_Bags_Under_Eyes
I1025 11:06:12.486806 21272 net.cpp:157] Top shape: 70 2 (140)
I1025 11:06:12.486810 21272 net.cpp:165] Memory required for data: 2806824752
I1025 11:06:12.486816 21272 layer_factory.hpp:77] Creating layer loss_Bags_Under_Eyes
I1025 11:06:12.486826 21272 net.cpp:106] Creating Layer loss_Bags_Under_Eyes
I1025 11:06:12.486830 21272 net.cpp:454] loss_Bags_Under_Eyes <- fc3_Bags_Under_Eyes
I1025 11:06:12.486836 21272 net.cpp:454] loss_Bags_Under_Eyes <- label_Bags_Under_Eyes
I1025 11:06:12.486841 21272 net.cpp:411] loss_Bags_Under_Eyes -> loss_Bags_Under_Eyes
I1025 11:06:12.486891 21272 net.cpp:150] Setting up loss_Bags_Under_Eyes
I1025 11:06:12.486901 21272 net.cpp:157] Top shape: (1)
I1025 11:06:12.486904 21272 net.cpp:160]     with loss weight 1
I1025 11:06:12.486909 21272 net.cpp:165] Memory required for data: 2806824756
I1025 11:06:12.486913 21272 layer_factory.hpp:77] Creating layer fc3_Bushy_Eyebrows
I1025 11:06:12.486920 21272 net.cpp:106] Creating Layer fc3_Bushy_Eyebrows
I1025 11:06:12.486924 21272 net.cpp:454] fc3_Bushy_Eyebrows <- fc2_eyes_drop2_eyes_0_split_2
I1025 11:06:12.486932 21272 net.cpp:411] fc3_Bushy_Eyebrows -> fc3_Bushy_Eyebrows
I1025 11:06:12.487074 21272 net.cpp:150] Setting up fc3_Bushy_Eyebrows
I1025 11:06:12.487083 21272 net.cpp:157] Top shape: 70 2 (140)
I1025 11:06:12.487087 21272 net.cpp:165] Memory required for data: 2806825316
I1025 11:06:12.487093 21272 layer_factory.hpp:77] Creating layer loss_Bushy_Eyebrows
I1025 11:06:12.487102 21272 net.cpp:106] Creating Layer loss_Bushy_Eyebrows
I1025 11:06:12.487107 21272 net.cpp:454] loss_Bushy_Eyebrows <- fc3_Bushy_Eyebrows
I1025 11:06:12.487112 21272 net.cpp:454] loss_Bushy_Eyebrows <- label_Bushy_Eyebrows
I1025 11:06:12.487118 21272 net.cpp:411] loss_Bushy_Eyebrows -> loss_Bushy_Eyebrows
I1025 11:06:12.487166 21272 net.cpp:150] Setting up loss_Bushy_Eyebrows
I1025 11:06:12.487175 21272 net.cpp:157] Top shape: (1)
I1025 11:06:12.487179 21272 net.cpp:160]     with loss weight 1
I1025 11:06:12.487185 21272 net.cpp:165] Memory required for data: 2806825320
I1025 11:06:12.487187 21272 layer_factory.hpp:77] Creating layer fc3_Narrow_Eyes
I1025 11:06:12.487195 21272 net.cpp:106] Creating Layer fc3_Narrow_Eyes
I1025 11:06:12.487200 21272 net.cpp:454] fc3_Narrow_Eyes <- fc2_eyes_drop2_eyes_0_split_3
I1025 11:06:12.487208 21272 net.cpp:411] fc3_Narrow_Eyes -> fc3_Narrow_Eyes
I1025 11:06:12.487350 21272 net.cpp:150] Setting up fc3_Narrow_Eyes
I1025 11:06:12.487360 21272 net.cpp:157] Top shape: 70 2 (140)
I1025 11:06:12.487365 21272 net.cpp:165] Memory required for data: 2806825880
I1025 11:06:12.487370 21272 layer_factory.hpp:77] Creating layer loss_Narrow_Eyes
I1025 11:06:12.487380 21272 net.cpp:106] Creating Layer loss_Narrow_Eyes
I1025 11:06:12.487385 21272 net.cpp:454] loss_Narrow_Eyes <- fc3_Narrow_Eyes
I1025 11:06:12.487390 21272 net.cpp:454] loss_Narrow_Eyes <- label_Narrow_Eyes
I1025 11:06:12.487396 21272 net.cpp:411] loss_Narrow_Eyes -> loss_Narrow_Eyes
I1025 11:06:12.487447 21272 net.cpp:150] Setting up loss_Narrow_Eyes
I1025 11:06:12.487455 21272 net.cpp:157] Top shape: (1)
I1025 11:06:12.487458 21272 net.cpp:160]     with loss weight 1
I1025 11:06:12.487464 21272 net.cpp:165] Memory required for data: 2806825884
I1025 11:06:12.487468 21272 layer_factory.hpp:77] Creating layer fc3_Eyeglasses
I1025 11:06:12.487475 21272 net.cpp:106] Creating Layer fc3_Eyeglasses
I1025 11:06:12.487479 21272 net.cpp:454] fc3_Eyeglasses <- fc2_eyes_drop2_eyes_0_split_4
I1025 11:06:12.487488 21272 net.cpp:411] fc3_Eyeglasses -> fc3_Eyeglasses
I1025 11:06:12.487627 21272 net.cpp:150] Setting up fc3_Eyeglasses
I1025 11:06:12.487637 21272 net.cpp:157] Top shape: 70 2 (140)
I1025 11:06:12.487639 21272 net.cpp:165] Memory required for data: 2806826444
I1025 11:06:12.487645 21272 layer_factory.hpp:77] Creating layer loss_Eyeglasses
I1025 11:06:12.487655 21272 net.cpp:106] Creating Layer loss_Eyeglasses
I1025 11:06:12.487660 21272 net.cpp:454] loss_Eyeglasses <- fc3_Eyeglasses
I1025 11:06:12.487675 21272 net.cpp:454] loss_Eyeglasses <- label_Eyeglasses
I1025 11:06:12.487682 21272 net.cpp:411] loss_Eyeglasses -> loss_Eyeglasses
I1025 11:06:12.487733 21272 net.cpp:150] Setting up loss_Eyeglasses
I1025 11:06:12.487742 21272 net.cpp:157] Top shape: (1)
I1025 11:06:12.487746 21272 net.cpp:160]     with loss weight 1
I1025 11:06:12.487751 21272 net.cpp:165] Memory required for data: 2806826448
I1025 11:06:12.487756 21272 layer_factory.hpp:77] Creating layer fc3_Attractive
I1025 11:06:12.487761 21272 net.cpp:106] Creating Layer fc3_Attractive
I1025 11:06:12.487771 21272 net.cpp:454] fc3_Attractive <- fc2_face_drop2_face_0_split_0
I1025 11:06:12.487781 21272 net.cpp:411] fc3_Attractive -> fc3_Attractive
I1025 11:06:12.487926 21272 net.cpp:150] Setting up fc3_Attractive
I1025 11:06:12.487936 21272 net.cpp:157] Top shape: 70 2 (140)
I1025 11:06:12.487938 21272 net.cpp:165] Memory required for data: 2806827008
I1025 11:06:12.487946 21272 layer_factory.hpp:77] Creating layer loss_Attractive
I1025 11:06:12.487954 21272 net.cpp:106] Creating Layer loss_Attractive
I1025 11:06:12.487958 21272 net.cpp:454] loss_Attractive <- fc3_Attractive
I1025 11:06:12.487963 21272 net.cpp:454] loss_Attractive <- label_Attractive
I1025 11:06:12.487969 21272 net.cpp:411] loss_Attractive -> loss_Attractive
I1025 11:06:12.488018 21272 net.cpp:150] Setting up loss_Attractive
I1025 11:06:12.488026 21272 net.cpp:157] Top shape: (1)
I1025 11:06:12.488030 21272 net.cpp:160]     with loss weight 1
I1025 11:06:12.488036 21272 net.cpp:165] Memory required for data: 2806827012
I1025 11:06:12.488040 21272 layer_factory.hpp:77] Creating layer fc3_Blurry
I1025 11:06:12.488047 21272 net.cpp:106] Creating Layer fc3_Blurry
I1025 11:06:12.488052 21272 net.cpp:454] fc3_Blurry <- fc2_face_drop2_face_0_split_1
I1025 11:06:12.488060 21272 net.cpp:411] fc3_Blurry -> fc3_Blurry
I1025 11:06:12.488201 21272 net.cpp:150] Setting up fc3_Blurry
I1025 11:06:12.488210 21272 net.cpp:157] Top shape: 70 2 (140)
I1025 11:06:12.488214 21272 net.cpp:165] Memory required for data: 2806827572
I1025 11:06:12.488220 21272 layer_factory.hpp:77] Creating layer loss_Blurry
I1025 11:06:12.488229 21272 net.cpp:106] Creating Layer loss_Blurry
I1025 11:06:12.488234 21272 net.cpp:454] loss_Blurry <- fc3_Blurry
I1025 11:06:12.488240 21272 net.cpp:454] loss_Blurry <- label_Blurry
I1025 11:06:12.488245 21272 net.cpp:411] loss_Blurry -> loss_Blurry
I1025 11:06:12.488292 21272 net.cpp:150] Setting up loss_Blurry
I1025 11:06:12.488301 21272 net.cpp:157] Top shape: (1)
I1025 11:06:12.488304 21272 net.cpp:160]     with loss weight 1
I1025 11:06:12.488311 21272 net.cpp:165] Memory required for data: 2806827576
I1025 11:06:12.488314 21272 layer_factory.hpp:77] Creating layer fc3_Oval_Face
I1025 11:06:12.488320 21272 net.cpp:106] Creating Layer fc3_Oval_Face
I1025 11:06:12.488325 21272 net.cpp:454] fc3_Oval_Face <- fc2_face_drop2_face_0_split_2
I1025 11:06:12.488333 21272 net.cpp:411] fc3_Oval_Face -> fc3_Oval_Face
I1025 11:06:12.488471 21272 net.cpp:150] Setting up fc3_Oval_Face
I1025 11:06:12.488481 21272 net.cpp:157] Top shape: 70 2 (140)
I1025 11:06:12.488484 21272 net.cpp:165] Memory required for data: 2806828136
I1025 11:06:12.488492 21272 layer_factory.hpp:77] Creating layer loss_Oval_Face
I1025 11:06:12.488502 21272 net.cpp:106] Creating Layer loss_Oval_Face
I1025 11:06:12.488507 21272 net.cpp:454] loss_Oval_Face <- fc3_Oval_Face
I1025 11:06:12.488512 21272 net.cpp:454] loss_Oval_Face <- label_Oval_Face
I1025 11:06:12.488517 21272 net.cpp:411] loss_Oval_Face -> loss_Oval_Face
I1025 11:06:12.488566 21272 net.cpp:150] Setting up loss_Oval_Face
I1025 11:06:12.488574 21272 net.cpp:157] Top shape: (1)
I1025 11:06:12.488579 21272 net.cpp:160]     with loss weight 1
I1025 11:06:12.488584 21272 net.cpp:165] Memory required for data: 2806828140
I1025 11:06:12.488589 21272 layer_factory.hpp:77] Creating layer fc3_Pale_Skin
I1025 11:06:12.488595 21272 net.cpp:106] Creating Layer fc3_Pale_Skin
I1025 11:06:12.488600 21272 net.cpp:454] fc3_Pale_Skin <- fc2_face_drop2_face_0_split_3
I1025 11:06:12.488618 21272 net.cpp:411] fc3_Pale_Skin -> fc3_Pale_Skin
I1025 11:06:12.488759 21272 net.cpp:150] Setting up fc3_Pale_Skin
I1025 11:06:12.488768 21272 net.cpp:157] Top shape: 70 2 (140)
I1025 11:06:12.488771 21272 net.cpp:165] Memory required for data: 2806828700
I1025 11:06:12.488778 21272 layer_factory.hpp:77] Creating layer loss_Pale_Skin
I1025 11:06:12.488786 21272 net.cpp:106] Creating Layer loss_Pale_Skin
I1025 11:06:12.488791 21272 net.cpp:454] loss_Pale_Skin <- fc3_Pale_Skin
I1025 11:06:12.488795 21272 net.cpp:454] loss_Pale_Skin <- label_Pale_Skin
I1025 11:06:12.488801 21272 net.cpp:411] loss_Pale_Skin -> loss_Pale_Skin
I1025 11:06:12.488850 21272 net.cpp:150] Setting up loss_Pale_Skin
I1025 11:06:12.488858 21272 net.cpp:157] Top shape: (1)
I1025 11:06:12.488862 21272 net.cpp:160]     with loss weight 1
I1025 11:06:12.488868 21272 net.cpp:165] Memory required for data: 2806828704
I1025 11:06:12.488872 21272 layer_factory.hpp:77] Creating layer fc3_Young
I1025 11:06:12.488878 21272 net.cpp:106] Creating Layer fc3_Young
I1025 11:06:12.488883 21272 net.cpp:454] fc3_Young <- fc2_face_drop2_face_0_split_4
I1025 11:06:12.488891 21272 net.cpp:411] fc3_Young -> fc3_Young
I1025 11:06:12.489032 21272 net.cpp:150] Setting up fc3_Young
I1025 11:06:12.489040 21272 net.cpp:157] Top shape: 70 2 (140)
I1025 11:06:12.489044 21272 net.cpp:165] Memory required for data: 2806829264
I1025 11:06:12.489051 21272 layer_factory.hpp:77] Creating layer loss_Young
I1025 11:06:12.489060 21272 net.cpp:106] Creating Layer loss_Young
I1025 11:06:12.489065 21272 net.cpp:454] loss_Young <- fc3_Young
I1025 11:06:12.489071 21272 net.cpp:454] loss_Young <- label_Young
I1025 11:06:12.489076 21272 net.cpp:411] loss_Young -> loss_Young
I1025 11:06:12.489125 21272 net.cpp:150] Setting up loss_Young
I1025 11:06:12.489133 21272 net.cpp:157] Top shape: (1)
I1025 11:06:12.489137 21272 net.cpp:160]     with loss weight 1
I1025 11:06:12.489142 21272 net.cpp:165] Memory required for data: 2806829268
I1025 11:06:12.489146 21272 layer_factory.hpp:77] Creating layer fc3_Heavy_Makeup
I1025 11:06:12.489152 21272 net.cpp:106] Creating Layer fc3_Heavy_Makeup
I1025 11:06:12.489157 21272 net.cpp:454] fc3_Heavy_Makeup <- fc2_face_drop2_face_0_split_5
I1025 11:06:12.489167 21272 net.cpp:411] fc3_Heavy_Makeup -> fc3_Heavy_Makeup
I1025 11:06:12.489310 21272 net.cpp:150] Setting up fc3_Heavy_Makeup
I1025 11:06:12.489320 21272 net.cpp:157] Top shape: 70 2 (140)
I1025 11:06:12.489323 21272 net.cpp:165] Memory required for data: 2806829828
I1025 11:06:12.489329 21272 layer_factory.hpp:77] Creating layer loss_Heavy_Makeup
I1025 11:06:12.489337 21272 net.cpp:106] Creating Layer loss_Heavy_Makeup
I1025 11:06:12.489342 21272 net.cpp:454] loss_Heavy_Makeup <- fc3_Heavy_Makeup
I1025 11:06:12.489348 21272 net.cpp:454] loss_Heavy_Makeup <- label_Heavy_Makeup
I1025 11:06:12.489354 21272 net.cpp:411] loss_Heavy_Makeup -> loss_Heavy_Makeup
I1025 11:06:12.489403 21272 net.cpp:150] Setting up loss_Heavy_Makeup
I1025 11:06:12.489413 21272 net.cpp:157] Top shape: (1)
I1025 11:06:12.489416 21272 net.cpp:160]     with loss weight 1
I1025 11:06:12.489421 21272 net.cpp:165] Memory required for data: 2806829832
I1025 11:06:12.489425 21272 layer_factory.hpp:77] Creating layer fc3_Black_Hair
I1025 11:06:12.489433 21272 net.cpp:106] Creating Layer fc3_Black_Hair
I1025 11:06:12.489437 21272 net.cpp:454] fc3_Black_Hair <- fc2_aroundhead_drop2_aroundhead_0_split_0
I1025 11:06:12.489447 21272 net.cpp:411] fc3_Black_Hair -> fc3_Black_Hair
I1025 11:06:12.489586 21272 net.cpp:150] Setting up fc3_Black_Hair
I1025 11:06:12.489596 21272 net.cpp:157] Top shape: 70 2 (140)
I1025 11:06:12.489600 21272 net.cpp:165] Memory required for data: 2806830392
I1025 11:06:12.489608 21272 layer_factory.hpp:77] Creating layer loss_Black_Hair
I1025 11:06:12.489616 21272 net.cpp:106] Creating Layer loss_Black_Hair
I1025 11:06:12.489621 21272 net.cpp:454] loss_Black_Hair <- fc3_Black_Hair
I1025 11:06:12.489626 21272 net.cpp:454] loss_Black_Hair <- label_Black_Hair
I1025 11:06:12.489632 21272 net.cpp:411] loss_Black_Hair -> loss_Black_Hair
I1025 11:06:12.489691 21272 net.cpp:150] Setting up loss_Black_Hair
I1025 11:06:12.489701 21272 net.cpp:157] Top shape: (1)
I1025 11:06:12.489706 21272 net.cpp:160]     with loss weight 1
I1025 11:06:12.489711 21272 net.cpp:165] Memory required for data: 2806830396
I1025 11:06:12.489714 21272 layer_factory.hpp:77] Creating layer fc3_Blond_Hair
I1025 11:06:12.489722 21272 net.cpp:106] Creating Layer fc3_Blond_Hair
I1025 11:06:12.489725 21272 net.cpp:454] fc3_Blond_Hair <- fc2_aroundhead_drop2_aroundhead_0_split_1
I1025 11:06:12.489737 21272 net.cpp:411] fc3_Blond_Hair -> fc3_Blond_Hair
I1025 11:06:12.489881 21272 net.cpp:150] Setting up fc3_Blond_Hair
I1025 11:06:12.489891 21272 net.cpp:157] Top shape: 70 2 (140)
I1025 11:06:12.489893 21272 net.cpp:165] Memory required for data: 2806830956
I1025 11:06:12.489899 21272 layer_factory.hpp:77] Creating layer loss_Blond_Hair
I1025 11:06:12.489909 21272 net.cpp:106] Creating Layer loss_Blond_Hair
I1025 11:06:12.489914 21272 net.cpp:454] loss_Blond_Hair <- fc3_Blond_Hair
I1025 11:06:12.489919 21272 net.cpp:454] loss_Blond_Hair <- label_Blond_Hair
I1025 11:06:12.489925 21272 net.cpp:411] loss_Blond_Hair -> loss_Blond_Hair
I1025 11:06:12.489974 21272 net.cpp:150] Setting up loss_Blond_Hair
I1025 11:06:12.489982 21272 net.cpp:157] Top shape: (1)
I1025 11:06:12.489986 21272 net.cpp:160]     with loss weight 1
I1025 11:06:12.489992 21272 net.cpp:165] Memory required for data: 2806830960
I1025 11:06:12.489995 21272 layer_factory.hpp:77] Creating layer fc3_Brown_Hair
I1025 11:06:12.490002 21272 net.cpp:106] Creating Layer fc3_Brown_Hair
I1025 11:06:12.490007 21272 net.cpp:454] fc3_Brown_Hair <- fc2_aroundhead_drop2_aroundhead_0_split_2
I1025 11:06:12.490015 21272 net.cpp:411] fc3_Brown_Hair -> fc3_Brown_Hair
I1025 11:06:12.490156 21272 net.cpp:150] Setting up fc3_Brown_Hair
I1025 11:06:12.490166 21272 net.cpp:157] Top shape: 70 2 (140)
I1025 11:06:12.490170 21272 net.cpp:165] Memory required for data: 2806831520
I1025 11:06:12.490176 21272 layer_factory.hpp:77] Creating layer loss_Brown_Hair
I1025 11:06:12.490185 21272 net.cpp:106] Creating Layer loss_Brown_Hair
I1025 11:06:12.490190 21272 net.cpp:454] loss_Brown_Hair <- fc3_Brown_Hair
I1025 11:06:12.490195 21272 net.cpp:454] loss_Brown_Hair <- label_Brown_Hair
I1025 11:06:12.490200 21272 net.cpp:411] loss_Brown_Hair -> loss_Brown_Hair
I1025 11:06:12.490252 21272 net.cpp:150] Setting up loss_Brown_Hair
I1025 11:06:12.490262 21272 net.cpp:157] Top shape: (1)
I1025 11:06:12.490264 21272 net.cpp:160]     with loss weight 1
I1025 11:06:12.490270 21272 net.cpp:165] Memory required for data: 2806831524
I1025 11:06:12.490274 21272 layer_factory.hpp:77] Creating layer fc3_Gray_Hair
I1025 11:06:12.490280 21272 net.cpp:106] Creating Layer fc3_Gray_Hair
I1025 11:06:12.490285 21272 net.cpp:454] fc3_Gray_Hair <- fc2_aroundhead_drop2_aroundhead_0_split_3
I1025 11:06:12.490293 21272 net.cpp:411] fc3_Gray_Hair -> fc3_Gray_Hair
I1025 11:06:12.490434 21272 net.cpp:150] Setting up fc3_Gray_Hair
I1025 11:06:12.490443 21272 net.cpp:157] Top shape: 70 2 (140)
I1025 11:06:12.490447 21272 net.cpp:165] Memory required for data: 2806832084
I1025 11:06:12.490453 21272 layer_factory.hpp:77] Creating layer loss_Gray_Hair
I1025 11:06:12.490461 21272 net.cpp:106] Creating Layer loss_Gray_Hair
I1025 11:06:12.490465 21272 net.cpp:454] loss_Gray_Hair <- fc3_Gray_Hair
I1025 11:06:12.490471 21272 net.cpp:454] loss_Gray_Hair <- label_Gray_Hair
I1025 11:06:12.490476 21272 net.cpp:411] loss_Gray_Hair -> loss_Gray_Hair
I1025 11:06:12.490525 21272 net.cpp:150] Setting up loss_Gray_Hair
I1025 11:06:12.490533 21272 net.cpp:157] Top shape: (1)
I1025 11:06:12.490537 21272 net.cpp:160]     with loss weight 1
I1025 11:06:12.490542 21272 net.cpp:165] Memory required for data: 2806832088
I1025 11:06:12.490546 21272 layer_factory.hpp:77] Creating layer fc3_Wearing_Earrings
I1025 11:06:12.490552 21272 net.cpp:106] Creating Layer fc3_Wearing_Earrings
I1025 11:06:12.490557 21272 net.cpp:454] fc3_Wearing_Earrings <- fc2_aroundhead_drop2_aroundhead_0_split_4
I1025 11:06:12.490576 21272 net.cpp:411] fc3_Wearing_Earrings -> fc3_Wearing_Earrings
I1025 11:06:12.490720 21272 net.cpp:150] Setting up fc3_Wearing_Earrings
I1025 11:06:12.490731 21272 net.cpp:157] Top shape: 70 2 (140)
I1025 11:06:12.490734 21272 net.cpp:165] Memory required for data: 2806832648
I1025 11:06:12.490741 21272 layer_factory.hpp:77] Creating layer loss_Wearing_Earrings
I1025 11:06:12.490751 21272 net.cpp:106] Creating Layer loss_Wearing_Earrings
I1025 11:06:12.490756 21272 net.cpp:454] loss_Wearing_Earrings <- fc3_Wearing_Earrings
I1025 11:06:12.490761 21272 net.cpp:454] loss_Wearing_Earrings <- label_Wearing_Earrings
I1025 11:06:12.490767 21272 net.cpp:411] loss_Wearing_Earrings -> loss_Wearing_Earrings
I1025 11:06:12.490816 21272 net.cpp:150] Setting up loss_Wearing_Earrings
I1025 11:06:12.490825 21272 net.cpp:157] Top shape: (1)
I1025 11:06:12.490829 21272 net.cpp:160]     with loss weight 1
I1025 11:06:12.490834 21272 net.cpp:165] Memory required for data: 2806832652
I1025 11:06:12.490839 21272 layer_factory.hpp:77] Creating layer fc3_Wearing_Necklace
I1025 11:06:12.490845 21272 net.cpp:106] Creating Layer fc3_Wearing_Necklace
I1025 11:06:12.490849 21272 net.cpp:454] fc3_Wearing_Necklace <- fc2_aroundhead_drop2_aroundhead_0_split_5
I1025 11:06:12.490857 21272 net.cpp:411] fc3_Wearing_Necklace -> fc3_Wearing_Necklace
I1025 11:06:12.491000 21272 net.cpp:150] Setting up fc3_Wearing_Necklace
I1025 11:06:12.491009 21272 net.cpp:157] Top shape: 70 2 (140)
I1025 11:06:12.491014 21272 net.cpp:165] Memory required for data: 2806833212
I1025 11:06:12.491019 21272 layer_factory.hpp:77] Creating layer loss_Wearing_Necklace
I1025 11:06:12.491029 21272 net.cpp:106] Creating Layer loss_Wearing_Necklace
I1025 11:06:12.491034 21272 net.cpp:454] loss_Wearing_Necklace <- fc3_Wearing_Necklace
I1025 11:06:12.491039 21272 net.cpp:454] loss_Wearing_Necklace <- label_Wearing_Necklace
I1025 11:06:12.491044 21272 net.cpp:411] loss_Wearing_Necklace -> loss_Wearing_Necklace
I1025 11:06:12.491093 21272 net.cpp:150] Setting up loss_Wearing_Necklace
I1025 11:06:12.491101 21272 net.cpp:157] Top shape: (1)
I1025 11:06:12.491106 21272 net.cpp:160]     with loss weight 1
I1025 11:06:12.491111 21272 net.cpp:165] Memory required for data: 2806833216
I1025 11:06:12.491114 21272 layer_factory.hpp:77] Creating layer fc3_Wearing_Necktie
I1025 11:06:12.491122 21272 net.cpp:106] Creating Layer fc3_Wearing_Necktie
I1025 11:06:12.491125 21272 net.cpp:454] fc3_Wearing_Necktie <- fc2_aroundhead_drop2_aroundhead_0_split_6
I1025 11:06:12.491134 21272 net.cpp:411] fc3_Wearing_Necktie -> fc3_Wearing_Necktie
I1025 11:06:12.491274 21272 net.cpp:150] Setting up fc3_Wearing_Necktie
I1025 11:06:12.491283 21272 net.cpp:157] Top shape: 70 2 (140)
I1025 11:06:12.491287 21272 net.cpp:165] Memory required for data: 2806833776
I1025 11:06:12.491294 21272 layer_factory.hpp:77] Creating layer loss_Wearing_Necktie
I1025 11:06:12.491302 21272 net.cpp:106] Creating Layer loss_Wearing_Necktie
I1025 11:06:12.491307 21272 net.cpp:454] loss_Wearing_Necktie <- fc3_Wearing_Necktie
I1025 11:06:12.491312 21272 net.cpp:454] loss_Wearing_Necktie <- label_Wearing_Necktie
I1025 11:06:12.491318 21272 net.cpp:411] loss_Wearing_Necktie -> loss_Wearing_Necktie
I1025 11:06:12.491369 21272 net.cpp:150] Setting up loss_Wearing_Necktie
I1025 11:06:12.491376 21272 net.cpp:157] Top shape: (1)
I1025 11:06:12.491380 21272 net.cpp:160]     with loss weight 1
I1025 11:06:12.491385 21272 net.cpp:165] Memory required for data: 2806833780
I1025 11:06:12.491389 21272 layer_factory.hpp:77] Creating layer fc3_Bald
I1025 11:06:12.491396 21272 net.cpp:106] Creating Layer fc3_Bald
I1025 11:06:12.491400 21272 net.cpp:454] fc3_Bald <- fc2_aroundhead_drop2_aroundhead_0_split_7
I1025 11:06:12.491411 21272 net.cpp:411] fc3_Bald -> fc3_Bald
I1025 11:06:12.491554 21272 net.cpp:150] Setting up fc3_Bald
I1025 11:06:12.491564 21272 net.cpp:157] Top shape: 70 2 (140)
I1025 11:06:12.491566 21272 net.cpp:165] Memory required for data: 2806834340
I1025 11:06:12.491572 21272 layer_factory.hpp:77] Creating layer loss_Bald
I1025 11:06:12.491591 21272 net.cpp:106] Creating Layer loss_Bald
I1025 11:06:12.491596 21272 net.cpp:454] loss_Bald <- fc3_Bald
I1025 11:06:12.491601 21272 net.cpp:454] loss_Bald <- label_Bald
I1025 11:06:12.491607 21272 net.cpp:411] loss_Bald -> loss_Bald
I1025 11:06:12.491657 21272 net.cpp:150] Setting up loss_Bald
I1025 11:06:12.491667 21272 net.cpp:157] Top shape: (1)
I1025 11:06:12.491670 21272 net.cpp:160]     with loss weight 1
I1025 11:06:12.491677 21272 net.cpp:165] Memory required for data: 2806834344
I1025 11:06:12.491680 21272 layer_factory.hpp:77] Creating layer fc3_Receding_Hairline
I1025 11:06:12.491686 21272 net.cpp:106] Creating Layer fc3_Receding_Hairline
I1025 11:06:12.491691 21272 net.cpp:454] fc3_Receding_Hairline <- fc2_aroundhead_drop2_aroundhead_0_split_8
I1025 11:06:12.491699 21272 net.cpp:411] fc3_Receding_Hairline -> fc3_Receding_Hairline
I1025 11:06:12.491849 21272 net.cpp:150] Setting up fc3_Receding_Hairline
I1025 11:06:12.491859 21272 net.cpp:157] Top shape: 70 2 (140)
I1025 11:06:12.491863 21272 net.cpp:165] Memory required for data: 2806834904
I1025 11:06:12.491871 21272 layer_factory.hpp:77] Creating layer loss_Receding_Hairline
I1025 11:06:12.491879 21272 net.cpp:106] Creating Layer loss_Receding_Hairline
I1025 11:06:12.491884 21272 net.cpp:454] loss_Receding_Hairline <- fc3_Receding_Hairline
I1025 11:06:12.491890 21272 net.cpp:454] loss_Receding_Hairline <- label_Receding_Hairline
I1025 11:06:12.491895 21272 net.cpp:411] loss_Receding_Hairline -> loss_Receding_Hairline
I1025 11:06:12.491945 21272 net.cpp:150] Setting up loss_Receding_Hairline
I1025 11:06:12.491953 21272 net.cpp:157] Top shape: (1)
I1025 11:06:12.491956 21272 net.cpp:160]     with loss weight 1
I1025 11:06:12.491962 21272 net.cpp:165] Memory required for data: 2806834908
I1025 11:06:12.491966 21272 layer_factory.hpp:77] Creating layer fc3_Bangs
I1025 11:06:12.491974 21272 net.cpp:106] Creating Layer fc3_Bangs
I1025 11:06:12.491978 21272 net.cpp:454] fc3_Bangs <- fc2_aroundhead_drop2_aroundhead_0_split_9
I1025 11:06:12.491986 21272 net.cpp:411] fc3_Bangs -> fc3_Bangs
I1025 11:06:12.492133 21272 net.cpp:150] Setting up fc3_Bangs
I1025 11:06:12.492143 21272 net.cpp:157] Top shape: 70 2 (140)
I1025 11:06:12.492147 21272 net.cpp:165] Memory required for data: 2806835468
I1025 11:06:12.492153 21272 layer_factory.hpp:77] Creating layer loss_Bangs
I1025 11:06:12.492161 21272 net.cpp:106] Creating Layer loss_Bangs
I1025 11:06:12.492166 21272 net.cpp:454] loss_Bangs <- fc3_Bangs
I1025 11:06:12.492172 21272 net.cpp:454] loss_Bangs <- label_Bangs
I1025 11:06:12.492177 21272 net.cpp:411] loss_Bangs -> loss_Bangs
I1025 11:06:12.492226 21272 net.cpp:150] Setting up loss_Bangs
I1025 11:06:12.492234 21272 net.cpp:157] Top shape: (1)
I1025 11:06:12.492238 21272 net.cpp:160]     with loss weight 1
I1025 11:06:12.492244 21272 net.cpp:165] Memory required for data: 2806835472
I1025 11:06:12.492247 21272 layer_factory.hpp:77] Creating layer fc3_Wearing_Hat
I1025 11:06:12.492254 21272 net.cpp:106] Creating Layer fc3_Wearing_Hat
I1025 11:06:12.492259 21272 net.cpp:454] fc3_Wearing_Hat <- fc2_aroundhead_drop2_aroundhead_0_split_10
I1025 11:06:12.492267 21272 net.cpp:411] fc3_Wearing_Hat -> fc3_Wearing_Hat
I1025 11:06:12.492408 21272 net.cpp:150] Setting up fc3_Wearing_Hat
I1025 11:06:12.492418 21272 net.cpp:157] Top shape: 70 2 (140)
I1025 11:06:12.492421 21272 net.cpp:165] Memory required for data: 2806836032
I1025 11:06:12.492429 21272 layer_factory.hpp:77] Creating layer loss_Wearing_Hat
I1025 11:06:12.492439 21272 net.cpp:106] Creating Layer loss_Wearing_Hat
I1025 11:06:12.492444 21272 net.cpp:454] loss_Wearing_Hat <- fc3_Wearing_Hat
I1025 11:06:12.492449 21272 net.cpp:454] loss_Wearing_Hat <- label_Wearing_Hat
I1025 11:06:12.492455 21272 net.cpp:411] loss_Wearing_Hat -> loss_Wearing_Hat
I1025 11:06:12.492503 21272 net.cpp:150] Setting up loss_Wearing_Hat
I1025 11:06:12.492512 21272 net.cpp:157] Top shape: (1)
I1025 11:06:12.492516 21272 net.cpp:160]     with loss weight 1
I1025 11:06:12.492522 21272 net.cpp:165] Memory required for data: 2806836036
I1025 11:06:12.492535 21272 layer_factory.hpp:77] Creating layer fc3_Straight_Hair
I1025 11:06:12.492544 21272 net.cpp:106] Creating Layer fc3_Straight_Hair
I1025 11:06:12.492549 21272 net.cpp:454] fc3_Straight_Hair <- fc2_aroundhead_drop2_aroundhead_0_split_11
I1025 11:06:12.492557 21272 net.cpp:411] fc3_Straight_Hair -> fc3_Straight_Hair
I1025 11:06:12.492697 21272 net.cpp:150] Setting up fc3_Straight_Hair
I1025 11:06:12.492707 21272 net.cpp:157] Top shape: 70 2 (140)
I1025 11:06:12.492712 21272 net.cpp:165] Memory required for data: 2806836596
I1025 11:06:12.492717 21272 layer_factory.hpp:77] Creating layer loss_Straight_Hair
I1025 11:06:12.492725 21272 net.cpp:106] Creating Layer loss_Straight_Hair
I1025 11:06:12.492730 21272 net.cpp:454] loss_Straight_Hair <- fc3_Straight_Hair
I1025 11:06:12.492735 21272 net.cpp:454] loss_Straight_Hair <- label_Straight_Hair
I1025 11:06:12.492741 21272 net.cpp:411] loss_Straight_Hair -> loss_Straight_Hair
I1025 11:06:12.492791 21272 net.cpp:150] Setting up loss_Straight_Hair
I1025 11:06:12.492800 21272 net.cpp:157] Top shape: (1)
I1025 11:06:12.492804 21272 net.cpp:160]     with loss weight 1
I1025 11:06:12.492810 21272 net.cpp:165] Memory required for data: 2806836600
I1025 11:06:12.492813 21272 layer_factory.hpp:77] Creating layer fc3_Wavy_Hair
I1025 11:06:12.492823 21272 net.cpp:106] Creating Layer fc3_Wavy_Hair
I1025 11:06:12.492827 21272 net.cpp:454] fc3_Wavy_Hair <- fc2_aroundhead_drop2_aroundhead_0_split_12
I1025 11:06:12.492835 21272 net.cpp:411] fc3_Wavy_Hair -> fc3_Wavy_Hair
I1025 11:06:12.492977 21272 net.cpp:150] Setting up fc3_Wavy_Hair
I1025 11:06:12.492987 21272 net.cpp:157] Top shape: 70 2 (140)
I1025 11:06:12.492991 21272 net.cpp:165] Memory required for data: 2806837160
I1025 11:06:12.492998 21272 layer_factory.hpp:77] Creating layer loss_Wavy_Hair
I1025 11:06:12.493006 21272 net.cpp:106] Creating Layer loss_Wavy_Hair
I1025 11:06:12.493011 21272 net.cpp:454] loss_Wavy_Hair <- fc3_Wavy_Hair
I1025 11:06:12.493017 21272 net.cpp:454] loss_Wavy_Hair <- label_Wavy_Hair
I1025 11:06:12.493023 21272 net.cpp:411] loss_Wavy_Hair -> loss_Wavy_Hair
I1025 11:06:12.493077 21272 net.cpp:150] Setting up loss_Wavy_Hair
I1025 11:06:12.493085 21272 net.cpp:157] Top shape: (1)
I1025 11:06:12.493089 21272 net.cpp:160]     with loss weight 1
I1025 11:06:12.493094 21272 net.cpp:165] Memory required for data: 2806837164
I1025 11:06:12.493098 21272 layer_factory.hpp:77] Creating layer fc3_5_o_Clock_Shadow
I1025 11:06:12.493106 21272 net.cpp:106] Creating Layer fc3_5_o_Clock_Shadow
I1025 11:06:12.493111 21272 net.cpp:454] fc3_5_o_Clock_Shadow <- fc2_facialhair_drop2_facialhair_0_split_0
I1025 11:06:12.493119 21272 net.cpp:411] fc3_5_o_Clock_Shadow -> fc3_5_o_Clock_Shadow
I1025 11:06:12.493257 21272 net.cpp:150] Setting up fc3_5_o_Clock_Shadow
I1025 11:06:12.493268 21272 net.cpp:157] Top shape: 70 2 (140)
I1025 11:06:12.493270 21272 net.cpp:165] Memory required for data: 2806837724
I1025 11:06:12.493276 21272 layer_factory.hpp:77] Creating layer loss_5_o_Clock_Shadow
I1025 11:06:12.493285 21272 net.cpp:106] Creating Layer loss_5_o_Clock_Shadow
I1025 11:06:12.493290 21272 net.cpp:454] loss_5_o_Clock_Shadow <- fc3_5_o_Clock_Shadow
I1025 11:06:12.493295 21272 net.cpp:454] loss_5_o_Clock_Shadow <- label_5_o_Clock_Shadow
I1025 11:06:12.493301 21272 net.cpp:411] loss_5_o_Clock_Shadow -> loss_5_o_Clock_Shadow
I1025 11:06:12.493350 21272 net.cpp:150] Setting up loss_5_o_Clock_Shadow
I1025 11:06:12.493357 21272 net.cpp:157] Top shape: (1)
I1025 11:06:12.493361 21272 net.cpp:160]     with loss weight 1
I1025 11:06:12.493366 21272 net.cpp:165] Memory required for data: 2806837728
I1025 11:06:12.493371 21272 layer_factory.hpp:77] Creating layer fc3_Mustache
I1025 11:06:12.493379 21272 net.cpp:106] Creating Layer fc3_Mustache
I1025 11:06:12.493383 21272 net.cpp:454] fc3_Mustache <- fc2_facialhair_drop2_facialhair_0_split_1
I1025 11:06:12.493389 21272 net.cpp:411] fc3_Mustache -> fc3_Mustache
I1025 11:06:12.493530 21272 net.cpp:150] Setting up fc3_Mustache
I1025 11:06:12.493540 21272 net.cpp:157] Top shape: 70 2 (140)
I1025 11:06:12.493551 21272 net.cpp:165] Memory required for data: 2806838288
I1025 11:06:12.493561 21272 layer_factory.hpp:77] Creating layer loss_Mustache
I1025 11:06:12.493568 21272 net.cpp:106] Creating Layer loss_Mustache
I1025 11:06:12.493573 21272 net.cpp:454] loss_Mustache <- fc3_Mustache
I1025 11:06:12.493578 21272 net.cpp:454] loss_Mustache <- label_Mustache
I1025 11:06:12.493584 21272 net.cpp:411] loss_Mustache -> loss_Mustache
I1025 11:06:12.493638 21272 net.cpp:150] Setting up loss_Mustache
I1025 11:06:12.493646 21272 net.cpp:157] Top shape: (1)
I1025 11:06:12.493650 21272 net.cpp:160]     with loss weight 1
I1025 11:06:12.493656 21272 net.cpp:165] Memory required for data: 2806838292
I1025 11:06:12.493659 21272 layer_factory.hpp:77] Creating layer fc3_No_Beard
I1025 11:06:12.493669 21272 net.cpp:106] Creating Layer fc3_No_Beard
I1025 11:06:12.493674 21272 net.cpp:454] fc3_No_Beard <- fc2_facialhair_drop2_facialhair_0_split_2
I1025 11:06:12.493680 21272 net.cpp:411] fc3_No_Beard -> fc3_No_Beard
I1025 11:06:12.493820 21272 net.cpp:150] Setting up fc3_No_Beard
I1025 11:06:12.493830 21272 net.cpp:157] Top shape: 70 2 (140)
I1025 11:06:12.493834 21272 net.cpp:165] Memory required for data: 2806838852
I1025 11:06:12.493840 21272 layer_factory.hpp:77] Creating layer loss_No_Beard
I1025 11:06:12.493849 21272 net.cpp:106] Creating Layer loss_No_Beard
I1025 11:06:12.493854 21272 net.cpp:454] loss_No_Beard <- fc3_No_Beard
I1025 11:06:12.493858 21272 net.cpp:454] loss_No_Beard <- label_No_Beard
I1025 11:06:12.493863 21272 net.cpp:411] loss_No_Beard -> loss_No_Beard
I1025 11:06:12.493913 21272 net.cpp:150] Setting up loss_No_Beard
I1025 11:06:12.493921 21272 net.cpp:157] Top shape: (1)
I1025 11:06:12.493926 21272 net.cpp:160]     with loss weight 1
I1025 11:06:12.493930 21272 net.cpp:165] Memory required for data: 2806838856
I1025 11:06:12.493934 21272 layer_factory.hpp:77] Creating layer fc3_Sideburns
I1025 11:06:12.493943 21272 net.cpp:106] Creating Layer fc3_Sideburns
I1025 11:06:12.493947 21272 net.cpp:454] fc3_Sideburns <- fc2_facialhair_drop2_facialhair_0_split_3
I1025 11:06:12.493954 21272 net.cpp:411] fc3_Sideburns -> fc3_Sideburns
I1025 11:06:12.494091 21272 net.cpp:150] Setting up fc3_Sideburns
I1025 11:06:12.494102 21272 net.cpp:157] Top shape: 70 2 (140)
I1025 11:06:12.494104 21272 net.cpp:165] Memory required for data: 2806839416
I1025 11:06:12.494112 21272 layer_factory.hpp:77] Creating layer loss_Sideburns
I1025 11:06:12.494119 21272 net.cpp:106] Creating Layer loss_Sideburns
I1025 11:06:12.494124 21272 net.cpp:454] loss_Sideburns <- fc3_Sideburns
I1025 11:06:12.494129 21272 net.cpp:454] loss_Sideburns <- label_Sideburns
I1025 11:06:12.494135 21272 net.cpp:411] loss_Sideburns -> loss_Sideburns
I1025 11:06:12.494185 21272 net.cpp:150] Setting up loss_Sideburns
I1025 11:06:12.494194 21272 net.cpp:157] Top shape: (1)
I1025 11:06:12.494197 21272 net.cpp:160]     with loss weight 1
I1025 11:06:12.494202 21272 net.cpp:165] Memory required for data: 2806839420
I1025 11:06:12.494206 21272 layer_factory.hpp:77] Creating layer fc3_Goatee
I1025 11:06:12.494215 21272 net.cpp:106] Creating Layer fc3_Goatee
I1025 11:06:12.494220 21272 net.cpp:454] fc3_Goatee <- fc2_facialhair_drop2_facialhair_0_split_4
I1025 11:06:12.494226 21272 net.cpp:411] fc3_Goatee -> fc3_Goatee
I1025 11:06:12.494364 21272 net.cpp:150] Setting up fc3_Goatee
I1025 11:06:12.494372 21272 net.cpp:157] Top shape: 70 2 (140)
I1025 11:06:12.494375 21272 net.cpp:165] Memory required for data: 2806839980
I1025 11:06:12.494382 21272 layer_factory.hpp:77] Creating layer loss_Goatee
I1025 11:06:12.494390 21272 net.cpp:106] Creating Layer loss_Goatee
I1025 11:06:12.494395 21272 net.cpp:454] loss_Goatee <- fc3_Goatee
I1025 11:06:12.494400 21272 net.cpp:454] loss_Goatee <- label_Goatee
I1025 11:06:12.494405 21272 net.cpp:411] loss_Goatee -> loss_Goatee
I1025 11:06:12.494457 21272 net.cpp:150] Setting up loss_Goatee
I1025 11:06:12.494467 21272 net.cpp:157] Top shape: (1)
I1025 11:06:12.494469 21272 net.cpp:160]     with loss weight 1
I1025 11:06:12.494484 21272 net.cpp:165] Memory required for data: 2806839984
I1025 11:06:12.494488 21272 layer_factory.hpp:77] Creating layer fc3_High_Cheekbones
I1025 11:06:12.494498 21272 net.cpp:106] Creating Layer fc3_High_Cheekbones
I1025 11:06:12.494503 21272 net.cpp:454] fc3_High_Cheekbones <- fc2_cheeks_drop2_cheeks_0_split_0
I1025 11:06:12.494510 21272 net.cpp:411] fc3_High_Cheekbones -> fc3_High_Cheekbones
I1025 11:06:12.494652 21272 net.cpp:150] Setting up fc3_High_Cheekbones
I1025 11:06:12.494662 21272 net.cpp:157] Top shape: 70 2 (140)
I1025 11:06:12.494665 21272 net.cpp:165] Memory required for data: 2806840544
I1025 11:06:12.494671 21272 layer_factory.hpp:77] Creating layer loss_High_Cheekbones
I1025 11:06:12.494679 21272 net.cpp:106] Creating Layer loss_High_Cheekbones
I1025 11:06:12.494684 21272 net.cpp:454] loss_High_Cheekbones <- fc3_High_Cheekbones
I1025 11:06:12.494689 21272 net.cpp:454] loss_High_Cheekbones <- label_High_Cheekbones
I1025 11:06:12.494695 21272 net.cpp:411] loss_High_Cheekbones -> loss_High_Cheekbones
I1025 11:06:12.494747 21272 net.cpp:150] Setting up loss_High_Cheekbones
I1025 11:06:12.494756 21272 net.cpp:157] Top shape: (1)
I1025 11:06:12.494760 21272 net.cpp:160]     with loss weight 1
I1025 11:06:12.494765 21272 net.cpp:165] Memory required for data: 2806840548
I1025 11:06:12.494770 21272 layer_factory.hpp:77] Creating layer fc3_Rosy_Cheeks
I1025 11:06:12.494777 21272 net.cpp:106] Creating Layer fc3_Rosy_Cheeks
I1025 11:06:12.494782 21272 net.cpp:454] fc3_Rosy_Cheeks <- fc2_cheeks_drop2_cheeks_0_split_1
I1025 11:06:12.494789 21272 net.cpp:411] fc3_Rosy_Cheeks -> fc3_Rosy_Cheeks
…
I1025 11:06:15.291399 21272 net.cpp:157] Top shape: (1)
I1025 11:06:15.291402 21272 net.cpp:160]     with loss weight 1
I1025 11:06:15.291419 21272 net.cpp:165] Memory required for data: 2566236676
I1025 11:06:15.291425 21272 layer_factory.hpp:77] Creating layer fc3_Big_Nose
I1025 11:06:15.291435 21272 net.cpp:106] Creating Layer fc3_Big_Nose
I1025 11:06:15.291440 21272 net.cpp:454] fc3_Big_Nose <- fc2_nose_drop2_nose_0_split_0
I1025 11:06:15.291446 21272 net.cpp:411] fc3_Big_Nose -> fc3_Big_Nose
I1025 11:06:15.291625 21272 net.cpp:150] Setting up fc3_Big_Nose
I1025 11:06:15.291635 21272 net.cpp:157] Top shape: 64 2 (128)
I1025 11:06:15.291638 21272 net.cpp:165] Memory required for data: 2566237188
I1025 11:06:15.291645 21272 layer_factory.hpp:77] Creating layer loss_Big_Nose
I1025 11:06:15.291656 21272 net.cpp:106] Creating Layer loss_Big_Nose
I1025 11:06:15.291661 21272 net.cpp:454] loss_Big_Nose <- fc3_Big_Nose
I1025 11:06:15.291667 21272 net.cpp:454] loss_Big_Nose <- label_Big_Nose
I1025 11:06:15.291673 21272 net.cpp:411] loss_Big_Nose -> loss_Big_Nose
I1025 11:06:15.291731 21272 net.cpp:150] Setting up loss_Big_Nose
I1025 11:06:15.291740 21272 net.cpp:157] Top shape: (1)
I1025 11:06:15.291743 21272 net.cpp:160]     with loss weight 1
I1025 11:06:15.291749 21272 net.cpp:165] Memory required for data: 2566237192
I1025 11:06:15.291754 21272 layer_factory.hpp:77] Creating layer fc3_Pointy_Nose
I1025 11:06:15.291762 21272 net.cpp:106] Creating Layer fc3_Pointy_Nose
I1025 11:06:15.291774 21272 net.cpp:454] fc3_Pointy_Nose <- fc2_nose_drop2_nose_0_split_1
I1025 11:06:15.291781 21272 net.cpp:411] fc3_Pointy_Nose -> fc3_Pointy_Nose
I1025 11:06:15.291954 21272 net.cpp:150] Setting up fc3_Pointy_Nose
I1025 11:06:15.291965 21272 net.cpp:157] Top shape: 64 2 (128)
I1025 11:06:15.291968 21272 net.cpp:165] Memory required for data: 2566237704
I1025 11:06:15.291998 21272 layer_factory.hpp:77] Creating layer loss_Pointy_Nose
I1025 11:06:15.292011 21272 net.cpp:106] Creating Layer loss_Pointy_Nose
I1025 11:06:15.292016 21272 net.cpp:454] loss_Pointy_Nose <- fc3_Pointy_Nose
I1025 11:06:15.292021 21272 net.cpp:454] loss_Pointy_Nose <- label_Pointy_Nose
I1025 11:06:15.292029 21272 net.cpp:411] loss_Pointy_Nose -> loss_Pointy_Nose
I1025 11:06:15.292089 21272 net.cpp:150] Setting up loss_Pointy_Nose
I1025 11:06:15.292098 21272 net.cpp:157] Top shape: (1)
I1025 11:06:15.292103 21272 net.cpp:160]     with loss weight 1
I1025 11:06:15.292109 21272 net.cpp:165] Memory required for data: 2566237708
I1025 11:06:15.292125 21272 layer_factory.hpp:77] Creating layer fc3_Big_Lips
I1025 11:06:15.292135 21272 net.cpp:106] Creating Layer fc3_Big_Lips
I1025 11:06:15.292140 21272 net.cpp:454] fc3_Big_Lips <- fc2_mouth_drop2_mouth_0_split_0
I1025 11:06:15.292146 21272 net.cpp:411] fc3_Big_Lips -> fc3_Big_Lips
I1025 11:06:15.292323 21272 net.cpp:150] Setting up fc3_Big_Lips
I1025 11:06:15.292333 21272 net.cpp:157] Top shape: 64 2 (128)
I1025 11:06:15.292337 21272 net.cpp:165] Memory required for data: 2566238220
I1025 11:06:15.292343 21272 layer_factory.hpp:77] Creating layer loss_Big_Lips
I1025 11:06:15.292353 21272 net.cpp:106] Creating Layer loss_Big_Lips
I1025 11:06:15.292358 21272 net.cpp:454] loss_Big_Lips <- fc3_Big_Lips
I1025 11:06:15.292363 21272 net.cpp:454] loss_Big_Lips <- label_Big_Lips
I1025 11:06:15.292371 21272 net.cpp:411] loss_Big_Lips -> loss_Big_Lips
I1025 11:06:15.292430 21272 net.cpp:150] Setting up loss_Big_Lips
I1025 11:06:15.292439 21272 net.cpp:157] Top shape: (1)
I1025 11:06:15.292443 21272 net.cpp:160]     with loss weight 1
I1025 11:06:15.292449 21272 net.cpp:165] Memory required for data: 2566238224
I1025 11:06:15.292453 21272 layer_factory.hpp:77] Creating layer fc3_Smiling
I1025 11:06:15.292461 21272 net.cpp:106] Creating Layer fc3_Smiling
I1025 11:06:15.292466 21272 net.cpp:454] fc3_Smiling <- fc2_mouth_drop2_mouth_0_split_1
I1025 11:06:15.292474 21272 net.cpp:411] fc3_Smiling -> fc3_Smiling
I1025 11:06:15.292644 21272 net.cpp:150] Setting up fc3_Smiling
I1025 11:06:15.292654 21272 net.cpp:157] Top shape: 64 2 (128)
I1025 11:06:15.292656 21272 net.cpp:165] Memory required for data: 2566238736
I1025 11:06:15.292664 21272 layer_factory.hpp:77] Creating layer loss_Smiling
I1025 11:06:15.292672 21272 net.cpp:106] Creating Layer loss_Smiling
I1025 11:06:15.292677 21272 net.cpp:454] loss_Smiling <- fc3_Smiling
I1025 11:06:15.292682 21272 net.cpp:454] loss_Smiling <- label_Smiling
I1025 11:06:15.292690 21272 net.cpp:411] loss_Smiling -> loss_Smiling
I1025 11:06:15.292752 21272 net.cpp:150] Setting up loss_Smiling
I1025 11:06:15.292762 21272 net.cpp:157] Top shape: (1)
I1025 11:06:15.292765 21272 net.cpp:160]     with loss weight 1
I1025 11:06:15.292770 21272 net.cpp:165] Memory required for data: 2566238740
I1025 11:06:15.292775 21272 layer_factory.hpp:77] Creating layer fc3_Wearing_Lipstick
I1025 11:06:15.292784 21272 net.cpp:106] Creating Layer fc3_Wearing_Lipstick
I1025 11:06:15.292789 21272 net.cpp:454] fc3_Wearing_Lipstick <- fc2_mouth_drop2_mouth_0_split_2
I1025 11:06:15.292796 21272 net.cpp:411] fc3_Wearing_Lipstick -> fc3_Wearing_Lipstick
I1025 11:06:15.292968 21272 net.cpp:150] Setting up fc3_Wearing_Lipstick
I1025 11:06:15.292979 21272 net.cpp:157] Top shape: 64 2 (128)
I1025 11:06:15.292982 21272 net.cpp:165] Memory required for data: 2566239252
I1025 11:06:15.292989 21272 layer_factory.hpp:77] Creating layer loss_Wearing_Lipstick
I1025 11:06:15.292999 21272 net.cpp:106] Creating Layer loss_Wearing_Lipstick
I1025 11:06:15.293004 21272 net.cpp:454] loss_Wearing_Lipstick <- fc3_Wearing_Lipstick
I1025 11:06:15.293009 21272 net.cpp:454] loss_Wearing_Lipstick <- label_Wearing_Lipstick
I1025 11:06:15.293016 21272 net.cpp:411] loss_Wearing_Lipstick -> loss_Wearing_Lipstick
I1025 11:06:15.293076 21272 net.cpp:150] Setting up loss_Wearing_Lipstick
I1025 11:06:15.293086 21272 net.cpp:157] Top shape: (1)
I1025 11:06:15.293088 21272 net.cpp:160]     with loss weight 1
I1025 11:06:15.293094 21272 net.cpp:165] Memory required for data: 2566239256
I1025 11:06:15.293098 21272 layer_factory.hpp:77] Creating layer fc3_Mouth_Slightly_Open
I1025 11:06:15.293107 21272 net.cpp:106] Creating Layer fc3_Mouth_Slightly_Open
I1025 11:06:15.293112 21272 net.cpp:454] fc3_Mouth_Slightly_Open <- fc2_mouth_drop2_mouth_0_split_3
I1025 11:06:15.293119 21272 net.cpp:411] fc3_Mouth_Slightly_Open -> fc3_Mouth_Slightly_Open
I1025 11:06:15.293288 21272 net.cpp:150] Setting up fc3_Mouth_Slightly_Open
I1025 11:06:15.293298 21272 net.cpp:157] Top shape: 64 2 (128)
I1025 11:06:15.293303 21272 net.cpp:165] Memory required for data: 2566239768
I1025 11:06:15.293318 21272 layer_factory.hpp:77] Creating layer loss_Mouth_Slightly_Open
I1025 11:06:15.293330 21272 net.cpp:106] Creating Layer loss_Mouth_Slightly_Open
I1025 11:06:15.293335 21272 net.cpp:454] loss_Mouth_Slightly_Open <- fc3_Mouth_Slightly_Open
I1025 11:06:15.293341 21272 net.cpp:454] loss_Mouth_Slightly_Open <- label_Mouth_Slightly_Open
I1025 11:06:15.293349 21272 net.cpp:411] loss_Mouth_Slightly_Open -> loss_Mouth_Slightly_Open
I1025 11:06:15.293408 21272 net.cpp:150] Setting up loss_Mouth_Slightly_Open
I1025 11:06:15.293417 21272 net.cpp:157] Top shape: (1)
I1025 11:06:15.293421 21272 net.cpp:160]     with loss weight 1
I1025 11:06:15.293427 21272 net.cpp:165] Memory required for data: 2566239772
I1025 11:06:15.293432 21272 layer_factory.hpp:77] Creating layer fc3_Arched_Eyebrows
I1025 11:06:15.293442 21272 net.cpp:106] Creating Layer fc3_Arched_Eyebrows
I1025 11:06:15.293448 21272 net.cpp:454] fc3_Arched_Eyebrows <- fc2_eyes_drop2_eyes_0_split_0
I1025 11:06:15.293454 21272 net.cpp:411] fc3_Arched_Eyebrows -> fc3_Arched_Eyebrows
I1025 11:06:15.293622 21272 net.cpp:150] Setting up fc3_Arched_Eyebrows
I1025 11:06:15.293632 21272 net.cpp:157] Top shape: 64 2 (128)
I1025 11:06:15.293635 21272 net.cpp:165] Memory required for data: 2566240284
I1025 11:06:15.293642 21272 layer_factory.hpp:77] Creating layer loss_Arched_Eyebrows
I1025 11:06:15.293653 21272 net.cpp:106] Creating Layer loss_Arched_Eyebrows
I1025 11:06:15.293658 21272 net.cpp:454] loss_Arched_Eyebrows <- fc3_Arched_Eyebrows
I1025 11:06:15.293663 21272 net.cpp:454] loss_Arched_Eyebrows <- label_Arched_Eyebrows
I1025 11:06:15.293671 21272 net.cpp:411] loss_Arched_Eyebrows -> loss_Arched_Eyebrows
I1025 11:06:15.293728 21272 net.cpp:150] Setting up loss_Arched_Eyebrows
I1025 11:06:15.293737 21272 net.cpp:157] Top shape: (1)
I1025 11:06:15.293741 21272 net.cpp:160]     with loss weight 1
I1025 11:06:15.293746 21272 net.cpp:165] Memory required for data: 2566240288
I1025 11:06:15.293751 21272 layer_factory.hpp:77] Creating layer fc3_Bags_Under_Eyes
I1025 11:06:15.293761 21272 net.cpp:106] Creating Layer fc3_Bags_Under_Eyes
I1025 11:06:15.293766 21272 net.cpp:454] fc3_Bags_Under_Eyes <- fc2_eyes_drop2_eyes_0_split_1
I1025 11:06:15.293773 21272 net.cpp:411] fc3_Bags_Under_Eyes -> fc3_Bags_Under_Eyes
I1025 11:06:15.293939 21272 net.cpp:150] Setting up fc3_Bags_Under_Eyes
I1025 11:06:15.293948 21272 net.cpp:157] Top shape: 64 2 (128)
I1025 11:06:15.293952 21272 net.cpp:165] Memory required for data: 2566240800
I1025 11:06:15.293958 21272 layer_factory.hpp:77] Creating layer loss_Bags_Under_Eyes
I1025 11:06:15.293968 21272 net.cpp:106] Creating Layer loss_Bags_Under_Eyes
I1025 11:06:15.293973 21272 net.cpp:454] loss_Bags_Under_Eyes <- fc3_Bags_Under_Eyes
I1025 11:06:15.293978 21272 net.cpp:454] loss_Bags_Under_Eyes <- label_Bags_Under_Eyes
I1025 11:06:15.293985 21272 net.cpp:411] loss_Bags_Under_Eyes -> loss_Bags_Under_Eyes
I1025 11:06:15.294044 21272 net.cpp:150] Setting up loss_Bags_Under_Eyes
I1025 11:06:15.294051 21272 net.cpp:157] Top shape: (1)
I1025 11:06:15.294055 21272 net.cpp:160]     with loss weight 1
I1025 11:06:15.294061 21272 net.cpp:165] Memory required for data: 2566240804
I1025 11:06:15.294066 21272 layer_factory.hpp:77] Creating layer fc3_Bushy_Eyebrows
I1025 11:06:15.294076 21272 net.cpp:106] Creating Layer fc3_Bushy_Eyebrows
I1025 11:06:15.294081 21272 net.cpp:454] fc3_Bushy_Eyebrows <- fc2_eyes_drop2_eyes_0_split_2
I1025 11:06:15.294087 21272 net.cpp:411] fc3_Bushy_Eyebrows -> fc3_Bushy_Eyebrows
I1025 11:06:15.294255 21272 net.cpp:150] Setting up fc3_Bushy_Eyebrows
I1025 11:06:15.294265 21272 net.cpp:157] Top shape: 64 2 (128)
I1025 11:06:15.294270 21272 net.cpp:165] Memory required for data: 2566241316
I1025 11:06:15.294275 21272 layer_factory.hpp:77] Creating layer loss_Bushy_Eyebrows
I1025 11:06:15.294286 21272 net.cpp:106] Creating Layer loss_Bushy_Eyebrows
I1025 11:06:15.294291 21272 net.cpp:454] loss_Bushy_Eyebrows <- fc3_Bushy_Eyebrows
I1025 11:06:15.294297 21272 net.cpp:454] loss_Bushy_Eyebrows <- label_Bushy_Eyebrows
I1025 11:06:15.294314 21272 net.cpp:411] loss_Bushy_Eyebrows -> loss_Bushy_Eyebrows
I1025 11:06:15.294375 21272 net.cpp:150] Setting up loss_Bushy_Eyebrows
I1025 11:06:15.294384 21272 net.cpp:157] Top shape: (1)
I1025 11:06:15.294389 21272 net.cpp:160]     with loss weight 1
I1025 11:06:15.294394 21272 net.cpp:165] Memory required for data: 2566241320
I1025 11:06:15.294399 21272 layer_factory.hpp:77] Creating layer fc3_Narrow_Eyes
I1025 11:06:15.294409 21272 net.cpp:106] Creating Layer fc3_Narrow_Eyes
I1025 11:06:15.294414 21272 net.cpp:454] fc3_Narrow_Eyes <- fc2_eyes_drop2_eyes_0_split_3
I1025 11:06:15.294420 21272 net.cpp:411] fc3_Narrow_Eyes -> fc3_Narrow_Eyes
I1025 11:06:15.294592 21272 net.cpp:150] Setting up fc3_Narrow_Eyes
I1025 11:06:15.294602 21272 net.cpp:157] Top shape: 64 2 (128)
I1025 11:06:15.294606 21272 net.cpp:165] Memory required for data: 2566241832
I1025 11:06:15.294612 21272 layer_factory.hpp:77] Creating layer loss_Narrow_Eyes
I1025 11:06:15.294623 21272 net.cpp:106] Creating Layer loss_Narrow_Eyes
I1025 11:06:15.294627 21272 net.cpp:454] loss_Narrow_Eyes <- fc3_Narrow_Eyes
I1025 11:06:15.294633 21272 net.cpp:454] loss_Narrow_Eyes <- label_Narrow_Eyes
I1025 11:06:15.294641 21272 net.cpp:411] loss_Narrow_Eyes -> loss_Narrow_Eyes
I1025 11:06:15.294700 21272 net.cpp:150] Setting up loss_Narrow_Eyes
I1025 11:06:15.294709 21272 net.cpp:157] Top shape: (1)
I1025 11:06:15.294713 21272 net.cpp:160]     with loss weight 1
I1025 11:06:15.294718 21272 net.cpp:165] Memory required for data: 2566241836
I1025 11:06:15.294723 21272 layer_factory.hpp:77] Creating layer fc3_Eyeglasses
I1025 11:06:15.294734 21272 net.cpp:106] Creating Layer fc3_Eyeglasses
I1025 11:06:15.294737 21272 net.cpp:454] fc3_Eyeglasses <- fc2_eyes_drop2_eyes_0_split_4
I1025 11:06:15.294744 21272 net.cpp:411] fc3_Eyeglasses -> fc3_Eyeglasses
I1025 11:06:15.294914 21272 net.cpp:150] Setting up fc3_Eyeglasses
I1025 11:06:15.294924 21272 net.cpp:157] Top shape: 64 2 (128)
I1025 11:06:15.294929 21272 net.cpp:165] Memory required for data: 2566242348
I1025 11:06:15.294934 21272 layer_factory.hpp:77] Creating layer loss_Eyeglasses
I1025 11:06:15.294945 21272 net.cpp:106] Creating Layer loss_Eyeglasses
I1025 11:06:15.294950 21272 net.cpp:454] loss_Eyeglasses <- fc3_Eyeglasses
I1025 11:06:15.294955 21272 net.cpp:454] loss_Eyeglasses <- label_Eyeglasses
I1025 11:06:15.294962 21272 net.cpp:411] loss_Eyeglasses -> loss_Eyeglasses
I1025 11:06:15.295020 21272 net.cpp:150] Setting up loss_Eyeglasses
I1025 11:06:15.295028 21272 net.cpp:157] Top shape: (1)
I1025 11:06:15.295032 21272 net.cpp:160]     with loss weight 1
I1025 11:06:15.295038 21272 net.cpp:165] Memory required for data: 2566242352
I1025 11:06:15.295042 21272 layer_factory.hpp:77] Creating layer fc3_Attractive
I1025 11:06:15.295052 21272 net.cpp:106] Creating Layer fc3_Attractive
I1025 11:06:15.295056 21272 net.cpp:454] fc3_Attractive <- fc2_face_drop2_face_0_split_0
I1025 11:06:15.295063 21272 net.cpp:411] fc3_Attractive -> fc3_Attractive
I1025 11:06:15.295230 21272 net.cpp:150] Setting up fc3_Attractive
I1025 11:06:15.295240 21272 net.cpp:157] Top shape: 64 2 (128)
I1025 11:06:15.295244 21272 net.cpp:165] Memory required for data: 2566242864
I1025 11:06:15.295250 21272 layer_factory.hpp:77] Creating layer loss_Attractive
I1025 11:06:15.295261 21272 net.cpp:106] Creating Layer loss_Attractive
I1025 11:06:15.295265 21272 net.cpp:454] loss_Attractive <- fc3_Attractive
I1025 11:06:15.295271 21272 net.cpp:454] loss_Attractive <- label_Attractive
I1025 11:06:15.295279 21272 net.cpp:411] loss_Attractive -> loss_Attractive
I1025 11:06:15.295336 21272 net.cpp:150] Setting up loss_Attractive
I1025 11:06:15.295346 21272 net.cpp:157] Top shape: (1)
I1025 11:06:15.295349 21272 net.cpp:160]     with loss weight 1
I1025 11:06:15.295354 21272 net.cpp:165] Memory required for data: 2566242868
I1025 11:06:15.295359 21272 layer_factory.hpp:77] Creating layer fc3_Blurry
I1025 11:06:15.295368 21272 net.cpp:106] Creating Layer fc3_Blurry
I1025 11:06:15.295372 21272 net.cpp:454] fc3_Blurry <- fc2_face_drop2_face_0_split_1
I1025 11:06:15.295389 21272 net.cpp:411] fc3_Blurry -> fc3_Blurry
I1025 11:06:15.295557 21272 net.cpp:150] Setting up fc3_Blurry
I1025 11:06:15.295567 21272 net.cpp:157] Top shape: 64 2 (128)
I1025 11:06:15.295572 21272 net.cpp:165] Memory required for data: 2566243380
I1025 11:06:15.295578 21272 layer_factory.hpp:77] Creating layer loss_Blurry
I1025 11:06:15.295588 21272 net.cpp:106] Creating Layer loss_Blurry
I1025 11:06:15.295593 21272 net.cpp:454] loss_Blurry <- fc3_Blurry
I1025 11:06:15.295598 21272 net.cpp:454] loss_Blurry <- label_Blurry
I1025 11:06:15.295604 21272 net.cpp:411] loss_Blurry -> loss_Blurry
I1025 11:06:15.295662 21272 net.cpp:150] Setting up loss_Blurry
I1025 11:06:15.295670 21272 net.cpp:157] Top shape: (1)
I1025 11:06:15.295675 21272 net.cpp:160]     with loss weight 1
I1025 11:06:15.295680 21272 net.cpp:165] Memory required for data: 2566243384
I1025 11:06:15.295683 21272 layer_factory.hpp:77] Creating layer fc3_Oval_Face
I1025 11:06:15.295692 21272 net.cpp:106] Creating Layer fc3_Oval_Face
I1025 11:06:15.295696 21272 net.cpp:454] fc3_Oval_Face <- fc2_face_drop2_face_0_split_2
I1025 11:06:15.295703 21272 net.cpp:411] fc3_Oval_Face -> fc3_Oval_Face
I1025 11:06:15.295879 21272 net.cpp:150] Setting up fc3_Oval_Face
I1025 11:06:15.295891 21272 net.cpp:157] Top shape: 64 2 (128)
I1025 11:06:15.295894 21272 net.cpp:165] Memory required for data: 2566243896
I1025 11:06:15.295900 21272 layer_factory.hpp:77] Creating layer loss_Oval_Face
I1025 11:06:15.295912 21272 net.cpp:106] Creating Layer loss_Oval_Face
I1025 11:06:15.295917 21272 net.cpp:454] loss_Oval_Face <- fc3_Oval_Face
I1025 11:06:15.295922 21272 net.cpp:454] loss_Oval_Face <- label_Oval_Face
I1025 11:06:15.295929 21272 net.cpp:411] loss_Oval_Face -> loss_Oval_Face
I1025 11:06:15.295989 21272 net.cpp:150] Setting up loss_Oval_Face
I1025 11:06:15.295997 21272 net.cpp:157] Top shape: (1)
I1025 11:06:15.296001 21272 net.cpp:160]     with loss weight 1
I1025 11:06:15.296007 21272 net.cpp:165] Memory required for data: 2566243900
I1025 11:06:15.296012 21272 layer_factory.hpp:77] Creating layer fc3_Pale_Skin
I1025 11:06:15.296020 21272 net.cpp:106] Creating Layer fc3_Pale_Skin
I1025 11:06:15.296025 21272 net.cpp:454] fc3_Pale_Skin <- fc2_face_drop2_face_0_split_3
I1025 11:06:15.296031 21272 net.cpp:411] fc3_Pale_Skin -> fc3_Pale_Skin
I1025 11:06:15.296200 21272 net.cpp:150] Setting up fc3_Pale_Skin
I1025 11:06:15.296210 21272 net.cpp:157] Top shape: 64 2 (128)
I1025 11:06:15.296212 21272 net.cpp:165] Memory required for data: 2566244412
I1025 11:06:15.296219 21272 layer_factory.hpp:77] Creating layer loss_Pale_Skin
I1025 11:06:15.296229 21272 net.cpp:106] Creating Layer loss_Pale_Skin
I1025 11:06:15.296234 21272 net.cpp:454] loss_Pale_Skin <- fc3_Pale_Skin
I1025 11:06:15.296239 21272 net.cpp:454] loss_Pale_Skin <- label_Pale_Skin
I1025 11:06:15.296247 21272 net.cpp:411] loss_Pale_Skin -> loss_Pale_Skin
I1025 11:06:15.296305 21272 net.cpp:150] Setting up loss_Pale_Skin
I1025 11:06:15.296314 21272 net.cpp:157] Top shape: (1)
I1025 11:06:15.296319 21272 net.cpp:160]     with loss weight 1
I1025 11:06:15.296324 21272 net.cpp:165] Memory required for data: 2566244416
I1025 11:06:15.296327 21272 layer_factory.hpp:77] Creating layer fc3_Young
I1025 11:06:15.296336 21272 net.cpp:106] Creating Layer fc3_Young
I1025 11:06:15.296341 21272 net.cpp:454] fc3_Young <- fc2_face_drop2_face_0_split_4
I1025 11:06:15.296347 21272 net.cpp:411] fc3_Young -> fc3_Young
I1025 11:06:15.296512 21272 net.cpp:150] Setting up fc3_Young
I1025 11:06:15.296524 21272 net.cpp:157] Top shape: 64 2 (128)
I1025 11:06:15.296527 21272 net.cpp:165] Memory required for data: 2566244928
I1025 11:06:15.296533 21272 layer_factory.hpp:77] Creating layer loss_Young
I1025 11:06:15.296541 21272 net.cpp:106] Creating Layer loss_Young
I1025 11:06:15.296545 21272 net.cpp:454] loss_Young <- fc3_Young
I1025 11:06:15.296551 21272 net.cpp:454] loss_Young <- label_Young
I1025 11:06:15.296561 21272 net.cpp:411] loss_Young -> loss_Young
I1025 11:06:15.296617 21272 net.cpp:150] Setting up loss_Young
I1025 11:06:15.296638 21272 net.cpp:157] Top shape: (1)
I1025 11:06:15.296641 21272 net.cpp:160]     with loss weight 1
I1025 11:06:15.296648 21272 net.cpp:165] Memory required for data: 2566244932
I1025 11:06:15.296653 21272 layer_factory.hpp:77] Creating layer fc3_Heavy_Makeup
I1025 11:06:15.296663 21272 net.cpp:106] Creating Layer fc3_Heavy_Makeup
I1025 11:06:15.296667 21272 net.cpp:454] fc3_Heavy_Makeup <- fc2_face_drop2_face_0_split_5
I1025 11:06:15.296674 21272 net.cpp:411] fc3_Heavy_Makeup -> fc3_Heavy_Makeup
I1025 11:06:15.296844 21272 net.cpp:150] Setting up fc3_Heavy_Makeup
I1025 11:06:15.296856 21272 net.cpp:157] Top shape: 64 2 (128)
I1025 11:06:15.296860 21272 net.cpp:165] Memory required for data: 2566245444
I1025 11:06:15.296866 21272 layer_factory.hpp:77] Creating layer loss_Heavy_Makeup
I1025 11:06:15.296875 21272 net.cpp:106] Creating Layer loss_Heavy_Makeup
I1025 11:06:15.296880 21272 net.cpp:454] loss_Heavy_Makeup <- fc3_Heavy_Makeup
I1025 11:06:15.296885 21272 net.cpp:454] loss_Heavy_Makeup <- label_Heavy_Makeup
I1025 11:06:15.296891 21272 net.cpp:411] loss_Heavy_Makeup -> loss_Heavy_Makeup
I1025 11:06:15.296948 21272 net.cpp:150] Setting up loss_Heavy_Makeup
I1025 11:06:15.296957 21272 net.cpp:157] Top shape: (1)
I1025 11:06:15.296962 21272 net.cpp:160]     with loss weight 1
I1025 11:06:15.296967 21272 net.cpp:165] Memory required for data: 2566245448
I1025 11:06:15.296970 21272 layer_factory.hpp:77] Creating layer fc3_Black_Hair
I1025 11:06:15.296978 21272 net.cpp:106] Creating Layer fc3_Black_Hair
I1025 11:06:15.296983 21272 net.cpp:454] fc3_Black_Hair <- fc2_aroundhead_drop2_aroundhead_0_split_0
I1025 11:06:15.296990 21272 net.cpp:411] fc3_Black_Hair -> fc3_Black_Hair
I1025 11:06:15.297157 21272 net.cpp:150] Setting up fc3_Black_Hair
I1025 11:06:15.297166 21272 net.cpp:157] Top shape: 64 2 (128)
I1025 11:06:15.297170 21272 net.cpp:165] Memory required for data: 2566245960
I1025 11:06:15.297178 21272 layer_factory.hpp:77] Creating layer loss_Black_Hair
I1025 11:06:15.297185 21272 net.cpp:106] Creating Layer loss_Black_Hair
I1025 11:06:15.297189 21272 net.cpp:454] loss_Black_Hair <- fc3_Black_Hair
I1025 11:06:15.297195 21272 net.cpp:454] loss_Black_Hair <- label_Black_Hair
I1025 11:06:15.297202 21272 net.cpp:411] loss_Black_Hair -> loss_Black_Hair
I1025 11:06:15.297260 21272 net.cpp:150] Setting up loss_Black_Hair
I1025 11:06:15.297268 21272 net.cpp:157] Top shape: (1)
I1025 11:06:15.297272 21272 net.cpp:160]     with loss weight 1
I1025 11:06:15.297277 21272 net.cpp:165] Memory required for data: 2566245964
I1025 11:06:15.297281 21272 layer_factory.hpp:77] Creating layer fc3_Blond_Hair
I1025 11:06:15.297291 21272 net.cpp:106] Creating Layer fc3_Blond_Hair
I1025 11:06:15.297296 21272 net.cpp:454] fc3_Blond_Hair <- fc2_aroundhead_drop2_aroundhead_0_split_1
I1025 11:06:15.297302 21272 net.cpp:411] fc3_Blond_Hair -> fc3_Blond_Hair
I1025 11:06:15.297469 21272 net.cpp:150] Setting up fc3_Blond_Hair
I1025 11:06:15.297480 21272 net.cpp:157] Top shape: 64 2 (128)
I1025 11:06:15.297484 21272 net.cpp:165] Memory required for data: 2566246476
I1025 11:06:15.297490 21272 layer_factory.hpp:77] Creating layer loss_Blond_Hair
I1025 11:06:15.297497 21272 net.cpp:106] Creating Layer loss_Blond_Hair
I1025 11:06:15.297502 21272 net.cpp:454] loss_Blond_Hair <- fc3_Blond_Hair
I1025 11:06:15.297507 21272 net.cpp:454] loss_Blond_Hair <- label_Blond_Hair
I1025 11:06:15.297513 21272 net.cpp:411] loss_Blond_Hair -> loss_Blond_Hair
I1025 11:06:15.297572 21272 net.cpp:150] Setting up loss_Blond_Hair
I1025 11:06:15.297580 21272 net.cpp:157] Top shape: (1)
I1025 11:06:15.297585 21272 net.cpp:160]     with loss weight 1
I1025 11:06:15.297590 21272 net.cpp:165] Memory required for data: 2566246480
I1025 11:06:15.297595 21272 layer_factory.hpp:77] Creating layer fc3_Brown_Hair
I1025 11:06:15.297605 21272 net.cpp:106] Creating Layer fc3_Brown_Hair
I1025 11:06:15.297610 21272 net.cpp:454] fc3_Brown_Hair <- fc2_aroundhead_drop2_aroundhead_0_split_2
I1025 11:06:15.297616 21272 net.cpp:411] fc3_Brown_Hair -> fc3_Brown_Hair
I1025 11:06:15.297793 21272 net.cpp:150] Setting up fc3_Brown_Hair
I1025 11:06:15.297806 21272 net.cpp:157] Top shape: 64 2 (128)
I1025 11:06:15.297809 21272 net.cpp:165] Memory required for data: 2566246992
I1025 11:06:15.297816 21272 layer_factory.hpp:77] Creating layer loss_Brown_Hair
I1025 11:06:15.297824 21272 net.cpp:106] Creating Layer loss_Brown_Hair
I1025 11:06:15.297829 21272 net.cpp:454] loss_Brown_Hair <- fc3_Brown_Hair
I1025 11:06:15.297834 21272 net.cpp:454] loss_Brown_Hair <- label_Brown_Hair
I1025 11:06:15.297842 21272 net.cpp:411] loss_Brown_Hair -> loss_Brown_Hair
I1025 11:06:15.297900 21272 net.cpp:150] Setting up loss_Brown_Hair
I1025 11:06:15.297909 21272 net.cpp:157] Top shape: (1)
I1025 11:06:15.297912 21272 net.cpp:160]     with loss weight 1
I1025 11:06:15.297919 21272 net.cpp:165] Memory required for data: 2566246996
I1025 11:06:15.297922 21272 layer_factory.hpp:77] Creating layer fc3_Gray_Hair
I1025 11:06:15.297932 21272 net.cpp:106] Creating Layer fc3_Gray_Hair
I1025 11:06:15.297936 21272 net.cpp:454] fc3_Gray_Hair <- fc2_aroundhead_drop2_aroundhead_0_split_3
I1025 11:06:15.297943 21272 net.cpp:411] fc3_Gray_Hair -> fc3_Gray_Hair
I1025 11:06:15.298110 21272 net.cpp:150] Setting up fc3_Gray_Hair
I1025 11:06:15.298122 21272 net.cpp:157] Top shape: 64 2 (128)
I1025 11:06:15.298126 21272 net.cpp:165] Memory required for data: 2566247508
I1025 11:06:15.298132 21272 layer_factory.hpp:77] Creating layer loss_Gray_Hair
I1025 11:06:15.298141 21272 net.cpp:106] Creating Layer loss_Gray_Hair
I1025 11:06:15.298146 21272 net.cpp:454] loss_Gray_Hair <- fc3_Gray_Hair
I1025 11:06:15.298151 21272 net.cpp:454] loss_Gray_Hair <- label_Gray_Hair
I1025 11:06:15.298158 21272 net.cpp:411] loss_Gray_Hair -> loss_Gray_Hair
I1025 11:06:15.298215 21272 net.cpp:150] Setting up loss_Gray_Hair
I1025 11:06:15.298224 21272 net.cpp:157] Top shape: (1)
I1025 11:06:15.298228 21272 net.cpp:160]     with loss weight 1
I1025 11:06:15.298233 21272 net.cpp:165] Memory required for data: 2566247512
I1025 11:06:15.298238 21272 layer_factory.hpp:77] Creating layer fc3_Wearing_Earrings
I1025 11:06:15.298247 21272 net.cpp:106] Creating Layer fc3_Wearing_Earrings
I1025 11:06:15.298252 21272 net.cpp:454] fc3_Wearing_Earrings <- fc2_aroundhead_drop2_aroundhead_0_split_4
I1025 11:06:15.298259 21272 net.cpp:411] fc3_Wearing_Earrings -> fc3_Wearing_Earrings
I1025 11:06:15.298425 21272 net.cpp:150] Setting up fc3_Wearing_Earrings
I1025 11:06:15.298439 21272 net.cpp:157] Top shape: 64 2 (128)
I1025 11:06:15.298444 21272 net.cpp:165] Memory required for data: 2566248024
I1025 11:06:15.298450 21272 layer_factory.hpp:77] Creating layer loss_Wearing_Earrings
I1025 11:06:15.298460 21272 net.cpp:106] Creating Layer loss_Wearing_Earrings
I1025 11:06:15.298465 21272 net.cpp:454] loss_Wearing_Earrings <- fc3_Wearing_Earrings
I1025 11:06:15.298471 21272 net.cpp:454] loss_Wearing_Earrings <- label_Wearing_Earrings
I1025 11:06:15.298478 21272 net.cpp:411] loss_Wearing_Earrings -> loss_Wearing_Earrings
I1025 11:06:15.298537 21272 net.cpp:150] Setting up loss_Wearing_Earrings
I1025 11:06:15.298545 21272 net.cpp:157] Top shape: (1)
I1025 11:06:15.298549 21272 net.cpp:160]     with loss weight 1
I1025 11:06:15.298555 21272 net.cpp:165] Memory required for data: 2566248028
I1025 11:06:15.298558 21272 layer_factory.hpp:77] Creating layer fc3_Wearing_Necklace
I1025 11:06:15.298569 21272 net.cpp:106] Creating Layer fc3_Wearing_Necklace
I1025 11:06:15.298573 21272 net.cpp:454] fc3_Wearing_Necklace <- fc2_aroundhead_drop2_aroundhead_0_split_5
I1025 11:06:15.298580 21272 net.cpp:411] fc3_Wearing_Necklace -> fc3_Wearing_Necklace
I1025 11:06:15.298750 21272 net.cpp:150] Setting up fc3_Wearing_Necklace
I1025 11:06:15.298763 21272 net.cpp:157] Top shape: 64 2 (128)
I1025 11:06:15.298766 21272 net.cpp:165] Memory required for data: 2566248540
I1025 11:06:15.298773 21272 layer_factory.hpp:77] Creating layer loss_Wearing_Necklace
I1025 11:06:15.298782 21272 net.cpp:106] Creating Layer loss_Wearing_Necklace
I1025 11:06:15.298787 21272 net.cpp:454] loss_Wearing_Necklace <- fc3_Wearing_Necklace
I1025 11:06:15.298801 21272 net.cpp:454] loss_Wearing_Necklace <- label_Wearing_Necklace
I1025 11:06:15.298810 21272 net.cpp:411] loss_Wearing_Necklace -> loss_Wearing_Necklace
I1025 11:06:15.298871 21272 net.cpp:150] Setting up loss_Wearing_Necklace
I1025 11:06:15.298879 21272 net.cpp:157] Top shape: (1)
I1025 11:06:15.298883 21272 net.cpp:160]     with loss weight 1
I1025 11:06:15.298888 21272 net.cpp:165] Memory required for data: 2566248544
I1025 11:06:15.298892 21272 layer_factory.hpp:77] Creating layer fc3_Wearing_Necktie
I1025 11:06:15.298902 21272 net.cpp:106] Creating Layer fc3_Wearing_Necktie
I1025 11:06:15.298907 21272 net.cpp:454] fc3_Wearing_Necktie <- fc2_aroundhead_drop2_aroundhead_0_split_6
I1025 11:06:15.298913 21272 net.cpp:411] fc3_Wearing_Necktie -> fc3_Wearing_Necktie
I1025 11:06:15.299080 21272 net.cpp:150] Setting up fc3_Wearing_Necktie
I1025 11:06:15.299093 21272 net.cpp:157] Top shape: 64 2 (128)
I1025 11:06:15.299096 21272 net.cpp:165] Memory required for data: 2566249056
I1025 11:06:15.299103 21272 layer_factory.hpp:77] Creating layer loss_Wearing_Necktie
I1025 11:06:15.299110 21272 net.cpp:106] Creating Layer loss_Wearing_Necktie
I1025 11:06:15.299115 21272 net.cpp:454] loss_Wearing_Necktie <- fc3_Wearing_Necktie
I1025 11:06:15.299121 21272 net.cpp:454] loss_Wearing_Necktie <- label_Wearing_Necktie
I1025 11:06:15.299129 21272 net.cpp:411] loss_Wearing_Necktie -> loss_Wearing_Necktie
I1025 11:06:15.299187 21272 net.cpp:150] Setting up loss_Wearing_Necktie
I1025 11:06:15.299196 21272 net.cpp:157] Top shape: (1)
I1025 11:06:15.299201 21272 net.cpp:160]     with loss weight 1
I1025 11:06:15.299206 21272 net.cpp:165] Memory required for data: 2566249060
I1025 11:06:15.299209 21272 layer_factory.hpp:77] Creating layer fc3_Bald
I1025 11:06:15.299219 21272 net.cpp:106] Creating Layer fc3_Bald
I1025 11:06:15.299223 21272 net.cpp:454] fc3_Bald <- fc2_aroundhead_drop2_aroundhead_0_split_7
I1025 11:06:15.299230 21272 net.cpp:411] fc3_Bald -> fc3_Bald
I1025 11:06:15.299398 21272 net.cpp:150] Setting up fc3_Bald
I1025 11:06:15.299409 21272 net.cpp:157] Top shape: 64 2 (128)
I1025 11:06:15.299413 21272 net.cpp:165] Memory required for data: 2566249572
I1025 11:06:15.299419 21272 layer_factory.hpp:77] Creating layer loss_Bald
I1025 11:06:15.299427 21272 net.cpp:106] Creating Layer loss_Bald
I1025 11:06:15.299430 21272 net.cpp:454] loss_Bald <- fc3_Bald
I1025 11:06:15.299435 21272 net.cpp:454] loss_Bald <- label_Bald
I1025 11:06:15.299443 21272 net.cpp:411] loss_Bald -> loss_Bald
I1025 11:06:15.299499 21272 net.cpp:150] Setting up loss_Bald
I1025 11:06:15.299509 21272 net.cpp:157] Top shape: (1)
I1025 11:06:15.299512 21272 net.cpp:160]     with loss weight 1
I1025 11:06:15.299517 21272 net.cpp:165] Memory required for data: 2566249576
I1025 11:06:15.299521 21272 layer_factory.hpp:77] Creating layer fc3_Receding_Hairline
I1025 11:06:15.299530 21272 net.cpp:106] Creating Layer fc3_Receding_Hairline
I1025 11:06:15.299535 21272 net.cpp:454] fc3_Receding_Hairline <- fc2_aroundhead_drop2_aroundhead_0_split_8
I1025 11:06:15.299541 21272 net.cpp:411] fc3_Receding_Hairline -> fc3_Receding_Hairline
I1025 11:06:15.299713 21272 net.cpp:150] Setting up fc3_Receding_Hairline
I1025 11:06:15.299726 21272 net.cpp:157] Top shape: 64 2 (128)
I1025 11:06:15.299729 21272 net.cpp:165] Memory required for data: 2566250088
I1025 11:06:15.299736 21272 layer_factory.hpp:77] Creating layer loss_Receding_Hairline
I1025 11:06:15.299743 21272 net.cpp:106] Creating Layer loss_Receding_Hairline
I1025 11:06:15.299748 21272 net.cpp:454] loss_Receding_Hairline <- fc3_Receding_Hairline
I1025 11:06:15.299753 21272 net.cpp:454] loss_Receding_Hairline <- label_Receding_Hairline
I1025 11:06:15.299762 21272 net.cpp:411] loss_Receding_Hairline -> loss_Receding_Hairline
I1025 11:06:15.299829 21272 net.cpp:150] Setting up loss_Receding_Hairline
I1025 11:06:15.299839 21272 net.cpp:157] Top shape: (1)
I1025 11:06:15.299842 21272 net.cpp:160]     with loss weight 1
I1025 11:06:15.299849 21272 net.cpp:165] Memory required for data: 2566250092
I1025 11:06:15.299862 21272 layer_factory.hpp:77] Creating layer fc3_Bangs
I1025 11:06:15.299871 21272 net.cpp:106] Creating Layer fc3_Bangs
I1025 11:06:15.299876 21272 net.cpp:454] fc3_Bangs <- fc2_aroundhead_drop2_aroundhead_0_split_9
I1025 11:06:15.299883 21272 net.cpp:411] fc3_Bangs -> fc3_Bangs
I1025 11:06:15.300056 21272 net.cpp:150] Setting up fc3_Bangs
I1025 11:06:15.300068 21272 net.cpp:157] Top shape: 64 2 (128)
I1025 11:06:15.300072 21272 net.cpp:165] Memory required for data: 2566250604
I1025 11:06:15.300079 21272 layer_factory.hpp:77] Creating layer loss_Bangs
I1025 11:06:15.300086 21272 net.cpp:106] Creating Layer loss_Bangs
I1025 11:06:15.300091 21272 net.cpp:454] loss_Bangs <- fc3_Bangs
I1025 11:06:15.300096 21272 net.cpp:454] loss_Bangs <- label_Bangs
I1025 11:06:15.300106 21272 net.cpp:411] loss_Bangs -> loss_Bangs
I1025 11:06:15.300163 21272 net.cpp:150] Setting up loss_Bangs
I1025 11:06:15.300173 21272 net.cpp:157] Top shape: (1)
I1025 11:06:15.300176 21272 net.cpp:160]     with loss weight 1
I1025 11:06:15.300181 21272 net.cpp:165] Memory required for data: 2566250608
I1025 11:06:15.300185 21272 layer_factory.hpp:77] Creating layer fc3_Wearing_Hat
I1025 11:06:15.300194 21272 net.cpp:106] Creating Layer fc3_Wearing_Hat
I1025 11:06:15.300199 21272 net.cpp:454] fc3_Wearing_Hat <- fc2_aroundhead_drop2_aroundhead_0_split_10
I1025 11:06:15.300205 21272 net.cpp:411] fc3_Wearing_Hat -> fc3_Wearing_Hat
I1025 11:06:15.300379 21272 net.cpp:150] Setting up fc3_Wearing_Hat
I1025 11:06:15.300390 21272 net.cpp:157] Top shape: 64 2 (128)
I1025 11:06:15.300395 21272 net.cpp:165] Memory required for data: 2566251120
I1025 11:06:15.300402 21272 layer_factory.hpp:77] Creating layer loss_Wearing_Hat
I1025 11:06:15.300410 21272 net.cpp:106] Creating Layer loss_Wearing_Hat
I1025 11:06:15.300413 21272 net.cpp:454] loss_Wearing_Hat <- fc3_Wearing_Hat
I1025 11:06:15.300420 21272 net.cpp:454] loss_Wearing_Hat <- label_Wearing_Hat
I1025 11:06:15.300426 21272 net.cpp:411] loss_Wearing_Hat -> loss_Wearing_Hat
I1025 11:06:15.300488 21272 net.cpp:150] Setting up loss_Wearing_Hat
I1025 11:06:15.300498 21272 net.cpp:157] Top shape: (1)
I1025 11:06:15.300500 21272 net.cpp:160]     with loss weight 1
I1025 11:06:15.300506 21272 net.cpp:165] Memory required for data: 2566251124
I1025 11:06:15.300510 21272 layer_factory.hpp:77] Creating layer fc3_Straight_Hair
I1025 11:06:15.300518 21272 net.cpp:106] Creating Layer fc3_Straight_Hair
I1025 11:06:15.300523 21272 net.cpp:454] fc3_Straight_Hair <- fc2_aroundhead_drop2_aroundhead_0_split_11
I1025 11:06:15.300530 21272 net.cpp:411] fc3_Straight_Hair -> fc3_Straight_Hair
I1025 11:06:15.300701 21272 net.cpp:150] Setting up fc3_Straight_Hair
I1025 11:06:15.300714 21272 net.cpp:157] Top shape: 64 2 (128)
I1025 11:06:15.300717 21272 net.cpp:165] Memory required for data: 2566251636
I1025 11:06:15.300724 21272 layer_factory.hpp:77] Creating layer loss_Straight_Hair
I1025 11:06:15.300730 21272 net.cpp:106] Creating Layer loss_Straight_Hair
I1025 11:06:15.300735 21272 net.cpp:454] loss_Straight_Hair <- fc3_Straight_Hair
I1025 11:06:15.300740 21272 net.cpp:454] loss_Straight_Hair <- label_Straight_Hair
I1025 11:06:15.300748 21272 net.cpp:411] loss_Straight_Hair -> loss_Straight_Hair
I1025 11:06:15.300807 21272 net.cpp:150] Setting up loss_Straight_Hair
I1025 11:06:15.300817 21272 net.cpp:157] Top shape: (1)
I1025 11:06:15.300820 21272 net.cpp:160]     with loss weight 1
I1025 11:06:15.300825 21272 net.cpp:165] Memory required for data: 2566251640
I1025 11:06:15.300829 21272 layer_factory.hpp:77] Creating layer fc3_Wavy_Hair
I1025 11:06:15.300838 21272 net.cpp:106] Creating Layer fc3_Wavy_Hair
I1025 11:06:15.300843 21272 net.cpp:454] fc3_Wavy_Hair <- fc2_aroundhead_drop2_aroundhead_0_split_12
I1025 11:06:15.300849 21272 net.cpp:411] fc3_Wavy_Hair -> fc3_Wavy_Hair
I1025 11:06:15.301630 21272 net.cpp:150] Setting up fc3_Wavy_Hair
I1025 11:06:15.301646 21272 net.cpp:157] Top shape: 64 2 (128)
I1025 11:06:15.301651 21272 net.cpp:165] Memory required for data: 2566252152
I1025 11:06:15.301671 21272 layer_factory.hpp:77] Creating layer loss_Wavy_Hair
I1025 11:06:15.301681 21272 net.cpp:106] Creating Layer loss_Wavy_Hair
I1025 11:06:15.301687 21272 net.cpp:454] loss_Wavy_Hair <- fc3_Wavy_Hair
I1025 11:06:15.301692 21272 net.cpp:454] loss_Wavy_Hair <- label_Wavy_Hair
I1025 11:06:15.301698 21272 net.cpp:411] loss_Wavy_Hair -> loss_Wavy_Hair
I1025 11:06:15.301745 21272 net.cpp:150] Setting up loss_Wavy_Hair
I1025 11:06:15.301754 21272 net.cpp:157] Top shape: (1)
I1025 11:06:15.301759 21272 net.cpp:160]     with loss weight 1
I1025 11:06:15.301765 21272 net.cpp:165] Memory required for data: 2566252156
I1025 11:06:15.301769 21272 layer_factory.hpp:77] Creating layer fc3_5_o_Clock_Shadow
I1025 11:06:15.301776 21272 net.cpp:106] Creating Layer fc3_5_o_Clock_Shadow
I1025 11:06:15.301781 21272 net.cpp:454] fc3_5_o_Clock_Shadow <- fc2_facialhair_drop2_facialhair_0_split_0
I1025 11:06:15.301787 21272 net.cpp:411] fc3_5_o_Clock_Shadow -> fc3_5_o_Clock_Shadow
I1025 11:06:15.301923 21272 net.cpp:150] Setting up fc3_5_o_Clock_Shadow
I1025 11:06:15.301934 21272 net.cpp:157] Top shape: 64 2 (128)
I1025 11:06:15.301936 21272 net.cpp:165] Memory required for data: 2566252668
I1025 11:06:15.301944 21272 layer_factory.hpp:77] Creating layer loss_5_o_Clock_Shadow
I1025 11:06:15.301952 21272 net.cpp:106] Creating Layer loss_5_o_Clock_Shadow
I1025 11:06:15.301957 21272 net.cpp:454] loss_5_o_Clock_Shadow <- fc3_5_o_Clock_Shadow
I1025 11:06:15.301962 21272 net.cpp:454] loss_5_o_Clock_Shadow <- label_5_o_Clock_Shadow
I1025 11:06:15.301969 21272 net.cpp:411] loss_5_o_Clock_Shadow -> loss_5_o_Clock_Shadow
I1025 11:06:15.302011 21272 net.cpp:150] Setting up loss_5_o_Clock_Shadow
I1025 11:06:15.302018 21272 net.cpp:157] Top shape: (1)
I1025 11:06:15.302022 21272 net.cpp:160]     with loss weight 1
I1025 11:06:15.302027 21272 net.cpp:165] Memory required for data: 2566252672
I1025 11:06:15.302031 21272 layer_factory.hpp:77] Creating layer fc3_Mustache
I1025 11:06:15.302038 21272 net.cpp:106] Creating Layer fc3_Mustache
I1025 11:06:15.302042 21272 net.cpp:454] fc3_Mustache <- fc2_facialhair_drop2_facialhair_0_split_1
I1025 11:06:15.302049 21272 net.cpp:411] fc3_Mustache -> fc3_Mustache
I1025 11:06:15.302181 21272 net.cpp:150] Setting up fc3_Mustache
I1025 11:06:15.302191 21272 net.cpp:157] Top shape: 64 2 (128)
I1025 11:06:15.302196 21272 net.cpp:165] Memory required for data: 2566253184
I1025 11:06:15.302203 21272 layer_factory.hpp:77] Creating layer loss_Mustache
I1025 11:06:15.302214 21272 net.cpp:106] Creating Layer loss_Mustache
I1025 11:06:15.302218 21272 net.cpp:454] loss_Mustache <- fc3_Mustache
I1025 11:06:15.302224 21272 net.cpp:454] loss_Mustache <- label_Mustache
I1025 11:06:15.302230 21272 net.cpp:411] loss_Mustache -> loss_Mustache
I1025 11:06:15.302270 21272 net.cpp:150] Setting up loss_Mustache
I1025 11:06:15.302279 21272 net.cpp:157] Top shape: (1)
I1025 11:06:15.302283 21272 net.cpp:160]     with loss weight 1
I1025 11:06:15.302289 21272 net.cpp:165] Memory required for data: 2566253188
I1025 11:06:15.302292 21272 layer_factory.hpp:77] Creating layer fc3_No_Beard
I1025 11:06:15.302299 21272 net.cpp:106] Creating Layer fc3_No_Beard
I1025 11:06:15.302304 21272 net.cpp:454] fc3_No_Beard <- fc2_facialhair_drop2_facialhair_0_split_2
I1025 11:06:15.302309 21272 net.cpp:411] fc3_No_Beard -> fc3_No_Beard
I1025 11:06:15.302440 21272 net.cpp:150] Setting up fc3_No_Beard
I1025 11:06:15.302451 21272 net.cpp:157] Top shape: 64 2 (128)
I1025 11:06:15.302455 21272 net.cpp:165] Memory required for data: 2566253700
I1025 11:06:15.302461 21272 layer_factory.hpp:77] Creating layer loss_No_Beard
I1025 11:06:15.302470 21272 net.cpp:106] Creating Layer loss_No_Beard
I1025 11:06:15.302475 21272 net.cpp:454] loss_No_Beard <- fc3_No_Beard
I1025 11:06:15.302480 21272 net.cpp:454] loss_No_Beard <- label_No_Beard
I1025 11:06:15.302485 21272 net.cpp:411] loss_No_Beard -> loss_No_Beard
I1025 11:06:15.302528 21272 net.cpp:150] Setting up loss_No_Beard
I1025 11:06:15.302536 21272 net.cpp:157] Top shape: (1)
I1025 11:06:15.302541 21272 net.cpp:160]     with loss weight 1
I1025 11:06:15.302556 21272 net.cpp:165] Memory required for data: 2566253704
I1025 11:06:15.302559 21272 layer_factory.hpp:77] Creating layer fc3_Sideburns
I1025 11:06:15.302567 21272 net.cpp:106] Creating Layer fc3_Sideburns
I1025 11:06:15.302572 21272 net.cpp:454] fc3_Sideburns <- fc2_facialhair_drop2_facialhair_0_split_3
I1025 11:06:15.302577 21272 net.cpp:411] fc3_Sideburns -> fc3_Sideburns
I1025 11:06:15.302708 21272 net.cpp:150] Setting up fc3_Sideburns
I1025 11:06:15.302718 21272 net.cpp:157] Top shape: 64 2 (128)
I1025 11:06:15.302722 21272 net.cpp:165] Memory required for data: 2566254216
I1025 11:06:15.302729 21272 layer_factory.hpp:77] Creating layer loss_Sideburns
I1025 11:06:15.302738 21272 net.cpp:106] Creating Layer loss_Sideburns
I1025 11:06:15.302743 21272 net.cpp:454] loss_Sideburns <- fc3_Sideburns
I1025 11:06:15.302748 21272 net.cpp:454] loss_Sideburns <- label_Sideburns
I1025 11:06:15.302754 21272 net.cpp:411] loss_Sideburns -> loss_Sideburns
I1025 11:06:15.302795 21272 net.cpp:150] Setting up loss_Sideburns
I1025 11:06:15.302803 21272 net.cpp:157] Top shape: (1)
I1025 11:06:15.302808 21272 net.cpp:160]     with loss weight 1
I1025 11:06:15.302812 21272 net.cpp:165] Memory required for data: 2566254220
I1025 11:06:15.302816 21272 layer_factory.hpp:77] Creating layer fc3_Goatee
I1025 11:06:15.302824 21272 net.cpp:106] Creating Layer fc3_Goatee
I1025 11:06:15.302827 21272 net.cpp:454] fc3_Goatee <- fc2_facialhair_drop2_facialhair_0_split_4
I1025 11:06:15.302834 21272 net.cpp:411] fc3_Goatee -> fc3_Goatee
I1025 11:06:15.302964 21272 net.cpp:150] Setting up fc3_Goatee
I1025 11:06:15.302974 21272 net.cpp:157] Top shape: 64 2 (128)
I1025 11:06:15.302978 21272 net.cpp:165] Memory required for data: 2566254732
I1025 11:06:15.302984 21272 layer_factory.hpp:77] Creating layer loss_Goatee
I1025 11:06:15.302992 21272 net.cpp:106] Creating Layer loss_Goatee
I1025 11:06:15.302997 21272 net.cpp:454] loss_Goatee <- fc3_Goatee
I1025 11:06:15.303004 21272 net.cpp:454] loss_Goatee <- label_Goatee
I1025 11:06:15.303009 21272 net.cpp:411] loss_Goatee -> loss_Goatee
I1025 11:06:15.303050 21272 net.cpp:150] Setting up loss_Goatee
I1025 11:06:15.303057 21272 net.cpp:157] Top shape: (1)
I1025 11:06:15.303061 21272 net.cpp:160]     with loss weight 1
I1025 11:06:15.303066 21272 net.cpp:165] Memory required for data: 2566254736
I1025 11:06:15.303071 21272 layer_factory.hpp:77] Creating layer fc3_High_Cheekbones
I1025 11:06:15.303078 21272 net.cpp:106] Creating Layer fc3_High_Cheekbones
I1025 11:06:15.303082 21272 net.cpp:454] fc3_High_Cheekbones <- fc2_cheeks_drop2_cheeks_0_split_0
I1025 11:06:15.303089 21272 net.cpp:411] fc3_High_Cheekbones -> fc3_High_Cheekbones
I1025 11:06:15.303220 21272 net.cpp:150] Setting up fc3_High_Cheekbones
I1025 11:06:15.303231 21272 net.cpp:157] Top shape: 64 2 (128)
I1025 11:06:15.303233 21272 net.cpp:165] Memory required for data: 2566255248
I1025 11:06:15.303241 21272 layer_factory.hpp:77] Creating layer loss_High_Cheekbones
I1025 11:06:15.303248 21272 net.cpp:106] Creating Layer loss_High_Cheekbones
I1025 11:06:15.303253 21272 net.cpp:454] loss_High_Cheekbones <- fc3_High_Cheekbones
I1025 11:06:15.303258 21272 net.cpp:454] loss_High_Cheekbones <- label_High_Cheekbones
I1025 11:06:15.303264 21272 net.cpp:411] loss_High_Cheekbones -> loss_High_Cheekbones
I1025 11:06:15.303303 21272 net.cpp:150] Setting up loss_High_Cheekbones
I1025 11:06:15.303311 21272 net.cpp:157] Top shape: (1)
I1025 11:06:15.303315 21272 net.cpp:160]     with loss weight 1
I1025 11:06:15.303320 21272 net.cpp:165] Memory required for data: 2566255252
I1025 11:06:15.303324 21272 layer_factory.hpp:77] Creating layer fc3_Rosy_Cheeks
I1025 11:06:15.303331 21272 net.cpp:106] Creating Layer fc3_Rosy_Cheeks
I1025 11:06:15.303335 21272 net.cpp:454] fc3_Rosy_Cheeks <- fc2_cheeks_drop2_cheeks_0_split_1
I1025 11:06:15.303342 21272 net.cpp:411] fc3_Rosy_Cheeks -> fc3_Rosy_Cheeks
I1025 11:06:15.303469 21272 net.cpp:150] Setting up fc3_Rosy_Cheeks
I1025 11:06:15.303479 21272 net.cpp:157] Top shape: 64 2 (128)
I1025 11:06:15.303493 21272 net.cpp:165] Memory required for data: 2566255764
I1025 11:06:15.303498 21272 layer_factory.hpp:77] Creating layer loss_Rosy_Cheeks
I1025 11:06:15.303508 21272 net.cpp:106] Creating Layer loss_Rosy_Cheeks
I1025 11:06:15.303513 21272 net.cpp:454] loss_Rosy_Cheeks <- fc3_Rosy_Cheeks
I1025 11:06:15.303517 21272 net.cpp:454] loss_Rosy_Cheeks <- label_Rosy_Cheeks
I1025 11:06:15.303524 21272 net.cpp:411] loss_Rosy_Cheeks -> loss_Rosy_Cheeks
I1025 11:06:15.303565 21272 net.cpp:150] Setting up loss_Rosy_Cheeks
I1025 11:06:15.303573 21272 net.cpp:157] Top shape: (1)
I1025 11:06:15.303576 21272 net.cpp:160]     with loss weight 1
I1025 11:06:15.303582 21272 net.cpp:165] Memory required for data: 2566255768
I1025 11:06:15.303586 21272 layer_factory.hpp:77] Creating layer fc3_Chubby
I1025 11:06:15.303592 21272 net.cpp:106] Creating Layer fc3_Chubby
I1025 11:06:15.303596 21272 net.cpp:454] fc3_Chubby <- fc2_fat_drop2_fat_0_split_0
I1025 11:06:15.303603 21272 net.cpp:411] fc3_Chubby -> fc3_Chubby
I1025 11:06:15.303736 21272 net.cpp:150] Setting up fc3_Chubby
I1025 11:06:15.303745 21272 net.cpp:157] Top shape: 64 2 (128)
I1025 11:06:15.303750 21272 net.cpp:165] Memory required for data: 2566256280
I1025 11:06:15.303755 21272 layer_factory.hpp:77] Creating layer loss_Chubby
I1025 11:06:15.303763 21272 net.cpp:106] Creating Layer loss_Chubby
I1025 11:06:15.303784 21272 net.cpp:454] loss_Chubby <- fc3_Chubby
I1025 11:06:15.303789 21272 net.cpp:454] loss_Chubby <- label_Chubby
I1025 11:06:15.303795 21272 net.cpp:411] loss_Chubby -> loss_Chubby
I1025 11:06:15.303838 21272 net.cpp:150] Setting up loss_Chubby
I1025 11:06:15.303846 21272 net.cpp:157] Top shape: (1)
I1025 11:06:15.303850 21272 net.cpp:160]     with loss weight 1
I1025 11:06:15.303855 21272 net.cpp:165] Memory required for data: 2566256284
I1025 11:06:15.303859 21272 layer_factory.hpp:77] Creating layer fc3_Double_Chin
I1025 11:06:15.303866 21272 net.cpp:106] Creating Layer fc3_Double_Chin
I1025 11:06:15.303870 21272 net.cpp:454] fc3_Double_Chin <- fc2_fat_drop2_fat_0_split_1
I1025 11:06:15.303877 21272 net.cpp:411] fc3_Double_Chin -> fc3_Double_Chin
I1025 11:06:15.304008 21272 net.cpp:150] Setting up fc3_Double_Chin
I1025 11:06:15.304018 21272 net.cpp:157] Top shape: 64 2 (128)
I1025 11:06:15.304021 21272 net.cpp:165] Memory required for data: 2566256796
I1025 11:06:15.304028 21272 layer_factory.hpp:77] Creating layer loss_Double_Chin
I1025 11:06:15.304038 21272 net.cpp:106] Creating Layer loss_Double_Chin
I1025 11:06:15.304042 21272 net.cpp:454] loss_Double_Chin <- fc3_Double_Chin
I1025 11:06:15.304047 21272 net.cpp:454] loss_Double_Chin <- label_Double_Chin
I1025 11:06:15.304054 21272 net.cpp:411] loss_Double_Chin -> loss_Double_Chin
…
I1025 11:06:15.304160 21272 net.cpp:454] attr_mid_feat <- pool3_mouth_pool3_mouth_0_split_1
I1025 11:06:15.304170 21272 net.cpp:454] attr_mid_feat <- pool3_nose_pool3_nose_0_split_1
I1025 11:06:15.304175 21272 net.cpp:454] attr_mid_feat <- pool3_eyes_pool3_eyes_0_split_1
I1025 11:06:15.304179 21272 net.cpp:454] attr_mid_feat <- pool3_face_pool3_face_0_split_1
I1025 11:06:15.304184 21272 net.cpp:454] attr_mid_feat <- pool3_rest_pool3_rest_0_split_4
I1025 11:06:15.304190 21272 net.cpp:411] attr_mid_feat -> attr_mid_feat
I1025 11:06:15.304234 21272 net.cpp:150] Setting up attr_mid_feat
I1025 11:06:15.304241 21272 net.cpp:157] Top shape: 64 3072 4 4 (3145728)
I1025 11:06:15.304245 21272 net.cpp:165] Memory required for data: 2578839712
I1025 11:06:15.304250 21272 layer_factory.hpp:77] Creating layer attr_top_feat
I1025 11:06:15.304257 21272 net.cpp:106] Creating Layer attr_top_feat
I1025 11:06:15.304261 21272 net.cpp:454] attr_top_feat <- fc2_gender_drop2_gender_0_split_1
I1025 11:06:15.304267 21272 net.cpp:454] attr_top_feat <- fc2_nose_drop2_nose_0_split_2
I1025 11:06:15.304271 21272 net.cpp:454] attr_top_feat <- fc2_mouth_drop2_mouth_0_split_4
I1025 11:06:15.304276 21272 net.cpp:454] attr_top_feat <- fc2_eyes_drop2_eyes_0_split_5
I1025 11:06:15.304281 21272 net.cpp:454] attr_top_feat <- fc2_face_drop2_face_0_split_6
I1025 11:06:15.304286 21272 net.cpp:454] attr_top_feat <- fc2_aroundhead_drop2_aroundhead_0_split_13
I1025 11:06:15.304291 21272 net.cpp:454] attr_top_feat <- fc2_facialhair_drop2_facialhair_0_split_5
I1025 11:06:15.304296 21272 net.cpp:454] attr_top_feat <- fc2_cheeks_drop2_cheeks_0_split_2
I1025 11:06:15.304299 21272 net.cpp:454] attr_top_feat <- fc2_fat_drop2_fat_0_split_2
I1025 11:06:15.304306 21272 net.cpp:411] attr_top_feat -> attr_top_feat
I1025 11:06:15.304332 21272 net.cpp:150] Setting up attr_top_feat
I1025 11:06:15.304338 21272 net.cpp:157] Top shape: 64 9216 (589824)
I1025 11:06:15.304342 21272 net.cpp:165] Memory required for data: 2581199008
I1025 11:06:15.304347 21272 layer_factory.hpp:77] Creating layer fc8_top_attr
I1025 11:06:15.304353 21272 net.cpp:106] Creating Layer fc8_top_attr
I1025 11:06:15.304358 21272 net.cpp:454] fc8_top_attr <- attr_top_feat
I1025 11:06:15.304363 21272 net.cpp:411] fc8_top_attr -> fc8_top_attr
I1025 11:06:15.574524 21272 net.cpp:150] Setting up fc8_top_attr
I1025 11:06:15.574560 21272 net.cpp:157] Top shape: 64 2962 (189568)
I1025 11:06:15.574565 21272 net.cpp:165] Memory required for data: 2581957280
I1025 11:06:15.574575 21272 layer_factory.hpp:77] Creating layer fc8_top_attr_fc8_top_attr_0_split
I1025 11:06:15.574589 21272 net.cpp:106] Creating Layer fc8_top_attr_fc8_top_attr_0_split
I1025 11:06:15.574596 21272 net.cpp:454] fc8_top_attr_fc8_top_attr_0_split <- fc8_top_attr
I1025 11:06:15.574605 21272 net.cpp:411] fc8_top_attr_fc8_top_attr_0_split -> fc8_top_attr_fc8_top_attr_0_split_0
I1025 11:06:15.574616 21272 net.cpp:411] fc8_top_attr_fc8_top_attr_0_split -> fc8_top_attr_fc8_top_attr_0_split_1
I1025 11:06:15.574623 21272 net.cpp:411] fc8_top_attr_fc8_top_attr_0_split -> fc8_top_attr_fc8_top_attr_0_split_2
I1025 11:06:15.574681 21272 net.cpp:150] Setting up fc8_top_attr_fc8_top_attr_0_split
I1025 11:06:15.574687 21272 net.cpp:157] Top shape: 64 2962 (189568)
I1025 11:06:15.574692 21272 net.cpp:157] Top shape: 64 2962 (189568)
I1025 11:06:15.574697 21272 net.cpp:157] Top shape: 64 2962 (189568)
I1025 11:06:15.574700 21272 net.cpp:165] Memory required for data: 2584232096
I1025 11:06:15.574704 21272 layer_factory.hpp:77] Creating layer loss_top_attr
I1025 11:06:15.574712 21272 net.cpp:106] Creating Layer loss_top_attr
I1025 11:06:15.574717 21272 net.cpp:454] loss_top_attr <- fc8_top_attr_fc8_top_attr_0_split_0
I1025 11:06:15.574723 21272 net.cpp:454] loss_top_attr <- label_data_1_split_0
…
