…
    slice_point: 24
    slice_point: 26
    slice_point: 28
    slice_point: 30
    slice_point: 32
    slice_point: 34
    slice_point: 36
    slice_point: 38
    slice_point: 40
    slice_point: 42
    slice_point: 44
    slice_point: 46
    slice_point: 48
    slice_point: 50
    slice_point: 52
    slice_point: 54
    slice_point: 56
    slice_point: 58
    slice_point: 60
    slice_point: 62
    slice_point: 64
    slice_point: 66
    slice_point: 68
    slice_point: 70
    slice_point: 72
    slice_point: 74
    slice_point: 76
    slice_point: 78
  }
}
layer {
  name: "conv1_bn"
  type: "BatchNorm"
  bottom: "conv1"
  top: "conv1"
  batch_norm_param {
    use_global_stats: false
  }
}
layer {
  name: "conv1_scale"
  type: "Scale"
  bottom: "conv1"
  top: "conv1"
  scale_param {
    bias_term: true
  }
}
layer {
  name: "prelu1"
  type: "PReLU"
  bottom: "conv1"
  top: "conv1"
}
layer {
  name: "pool1"
  type: "Pooling"
  bottom: "conv1"
  top: "pool1"
  pooling_param {
    pool: MAX
    kernel_size: 2
    stride: 2
  }
}
layer {
  name: "conv2a"
  type: "Convolution"
  bottom: "pool1"
  top: "conv2a"
  param {
    name: "conv2a_w"
    lr_mult: 1
    decay_mult: 1
  }
  param {
    name: "conv2a_b"
    lr_mult: 2
    decay_mult: 0
  }
  convolution_param {
    num_output: 64
    kernel_size: 1
    weight_filler {
      type: "xavier"
    }
    bias_filler {
      type: "constant"
      value: 0.2
    }
  }
}
layer {
  name: "conv2a_bn"
  type: "BatchNorm"
  bottom: "conv2a"
  top: "conv2a"
  batch_norm_param {
    use_global_stats: false
  }
}
layer {
  name: "conv2a_scale"
  type: "Scale"
  bottom: "conv2a"
  top: "conv2a"
  scale_param {
    bias_term: true
  }
}
layer {
  name: "prelu2a"
  type: "PReLU"
  bottom: "conv2a"
  top: "conv2a"
}
layer {
  name: "conv2"
  type: "Convolution"
  bottom: "conv2a"
  top: "conv2"
  param {
    name: "conv2_w"
    lr_mult: 1
    decay_mult: 1
  }
  param {
    name: "conv2_b"
    lr_mult: 2
    decay_mult: 0
  }
  convolution_param {
    num_output: 192
    pad: 1
    kernel_size: 3
    stride: 1
    weight_filler {
      type: "xavier"
    }
    bias_filler {
      type: "constant"
      value: 0.2
    }
  }
}
layer {
  name: "conv2_bn"
  type: "BatchNorm"
  bottom: "conv2"
  top: "conv2"
  batch_norm_param {
    use_global_stats: false
  }
}
layer {
  name: "conv2_scale"
  type: "Scale"
  bottom: "conv2"
  top: "conv2"
  scale_param {
    bias_term: true
  }
}
layer {
  name: "prelu2"
  type: "PReLU"
  bottom: "conv2"
  top: "conv2"
}
layer {
  name: "pool2"
  type: "Pooling"
  bottom: "conv2"
  top: "pool2"
  pooling_param {
    pool: MAX
    kernel_size: 2
    stride: 2
  }
}
layer {
  name: "conv3a"
  type: "Convolution"
  bottom: "pool2"
  top: "conv3a"
  param {
    name: "conv3a_w"
    lr_mult: 1
    decay_mult: 1
  }
  param {
    name: "conv3a_b"
    lr_mult: 2
    decay_mult: 0
  }
  convolution_param {
    num_output: 192
    kernel_size: 1
    weight_filler {
      type: "xavier"
    }
    bias_filler {
      type: "constant"
      value: 0.2
    }
  }
}
layer {
  name: "conv3a_bn"
  type: "BatchNorm"
  bottom: "conv3a"
  top: "conv3a"
  batch_norm_param {
    use_global_stats: false
  }
}
layer {
  name: "conv3a_scale"
  type: "Scale"
  bottom: "conv3a"
  top: "conv3a"
  scale_param {
    bias_term: true
  }
}
layer {
  name: "prelu3a"
  type: "PReLU"
  bottom: "conv3a"
  top: "conv3a"
}
layer {
  name: "conv3"
  type: "Convolution"
  bottom: "conv3a"
  top: "conv3"
  param {
    name: "conv3_w"
    lr_mult: 1
    decay_mult: 1
  }
  param {
    name: "conv3_b"
    lr_mult: 2
    decay_mult: 0
  }
  convolution_param {
    num_output: 384
    pad: 1
    kernel_size: 3
    stride: 1
    weight_filler {
      type: "xavier"
    }
    bias_filler {
      type: "constant"
      value: 0.2
    }
  }
}
layer {
  name: "conv3_bn"
  type: "BatchNorm"
  bottom: "conv3"
  top: "conv3"
  batch_norm_param {
    use_global_stats: false
  }
}
layer {
  name: "conv3_scale"
  type: "Scale"
  bottom: "conv3"
  top: "conv3"
  scale_param {
    bias_term: true
  }
}
layer {
  name: "prelu3"
  type: "PReLU"
  bottom: "conv3"
  top: "conv3"
}
layer {
  name: "pool3"
  type: "Pooling"
  bottom: "conv3"
  top: "pool3"
  pooling_param {
    pool: MAX
    kernel_size: 2
    stride: 2
  }
}
layer {
  name: "conv3_gender"
  type: "Convolution"
  bottom: "pool3"
  top: "conv3_gender"
  param {
    lr_mult: 1
    decay_mult: 1
  }
  param {
    lr_mult: 2
    decay_mult: 0
  }
  convolution_param {
    num_output: 512
    pad: 1
    kernel_size: 3
    stride: 2
    weight_filler {
      type: "xavier"
    }
    bias_filler {
      type: "constant"
      value: 0.2
    }
  }
}
layer {
  name: "conv3_gender_bn"
  type: "BatchNorm"
  bottom: "conv3_gender"
  top: "conv3_gender"
  batch_norm_param {
    use_global_stats: false
  }
}
layer {
  name: "conv3_gender_scale"
  type: "Scale"
  bottom: "conv3_gender"
  top: "conv3_gender"
  scale_param {
    bias_term: true
  }
}
layer {
  name: "prelu3_gender"
  type: "PReLU"
  bottom: "conv3_gender"
  top: "conv3_gender"
}
layer {
  name: "pool3_gender"
  type: "Pooling"
  bottom: "conv3_gender"
  top: "pool3_gender"
  pooling_param {
    pool: MAX
    kernel_size: 5
    stride: 2
    pad: 2
  }
}
layer {
  name: "fc1_gender"
  type: "InnerProduct"
  bottom: "pool3_gender"
  top: "fc1_gender"
  param {
    lr_mult: 1
    decay_mult: 1
  }
  param {
    lr_mult: 2
    decay_mult: 0
  }
  inner_product_param {
    num_output: 1024
    weight_filler {
      type: "xavier"
    }
    bias_filler {
      type: "constant"
      value: 0.2
    }
  }
}
layer {
  name: "relu1_gender"
  type: "ReLU"
  bottom: "fc1_gender"
  top: "fc1_gender"
}
layer {
  name: "drop1_gender"
  type: "Dropout"
  bottom: "fc1_gender"
  top: "fc1_gender"
  dropout_param {
    dropout_ratio: 0.5
  }
}
layer {
  name: "fc2_gender"
  type: "InnerProduct"
  bottom: "fc1_gender"
  top: "fc2_gender"
  param {
    lr_mult: 1
    decay_mult: 1
  }
  param {
    lr_mult: 2
    decay_mult: 0
  }
  inner_product_param {
    num_output: 1024
    weight_filler {
      type: "xavier"
    }
    bias_filler {
      type: "constant"
      value: 0.2
    }
  }
}
layer {
  name: "relu2_gender"
  type: "ReLU"
  bottom: "fc2_gender"
  top: "fc2_gender"
}
layer {
  name: "drop2_gender"
  type: "Dropout"
  bottom: "fc2_gender"
  top: "fc2_gender"
  dropout_param {
    dropout_ratio: 0.5
  }
}
layer {
  name: "conv3_nose"
  type: "Convolution"
  bottom: "pool3"
  top: "conv3_nose"
  param {
    lr_mult: 1
    decay_mult: 1
  }
  param {
    lr_mult: 2
    decay_mult: 0
  }
  convolution_param {
    num_output: 512
    pad: 1
    kernel_size: 3
    stride: 2
    weight_filler {
      type: "xavier"
    }
    bias_filler {
      type: "constant"
      value: 0.2
    }
  }
}
layer {
  name: "conv3_nose_bn"
  type: "BatchNorm"
  bottom: "conv3_nose"
  top: "conv3_nose"
  batch_norm_param {
    use_global_stats: false
  }
}
layer {
  name: "conv3_nose_scale"
  type: "Scale"
  bottom: "conv3_nose"
  top: "conv3_nose"
  scale_param {
    bias_term: true
  }
}
layer {
  name: "prelu3_nose"
  type: "PReLU"
  bottom: "conv3_nose"
  top: "conv3_nose"
}
layer {
  name: "pool3_nose"
  type: "Pooling"
  bottom: "conv3_nose"
  top: "pool3_nose"
  pooling_param {
    pool: MAX
    kernel_size: 5
    stride: 2
    pad: 2
  }
}
layer {
  name: "fc1_nose"
  type: "InnerProduct"
  bottom: "pool3_nose"
  top: "fc1_nose"
  param {
    lr_mult: 1
    decay_mult: 1
  }
  param {
    lr_mult: 2
    decay_mult: 0
  }
  inner_product_param {
    num_output: 1024
    weight_filler {
      type: "xavier"
    }
    bias_filler {
      type: "constant"
      value: 0.2
    }
  }
}
layer {
  name: "relu1_nose"
  type: "ReLU"
  bottom: "fc1_nose"
  top: "fc1_nose"
}
layer {
  name: "drop1_nose"
  type: "Dropout"
  bottom: "fc1_nose"
  top: "fc1_nose"
  dropout_param {
    dropout_ratio: 0.5
  }
}
layer {
  name: "fc2_nose"
  type: "InnerProduct"
  bottom: "fc1_nose"
  top: "fc2_nose"
  param {
    lr_mult: 1
    decay_mult: 1
  }
  param {
    lr_mult: 2
    decay_mult: 0
  }
  inner_product_param {
    num_output: 1024
    weight_filler {
      type: "xavier"
    }
    bias_filler {
      type: "constant"
      value: 0.2
    }
  }
}
layer {
  name: "relu2_nose"
  type: "ReLU"
  bottom: "fc2_nose"
  top: "fc2_nose"
}
layer {
  name: "drop2_nose"
  type: "Dropout"
  bottom: "fc2_nose"
  top: "fc2_nose"
  dropout_param {
    dropout_ratio: 0.5
  }
}
layer {
  name: "conv3_mouth"
  type: "Convolution"
  bottom: "pool3"
  top: "conv3_mouth"
  param {
    lr_mult: 1
    decay_mult: 1
  }
  param {
    lr_mult: 2
    decay_mult: 0
  }
  convolution_param {
    num_output: 512
    pad: 1
    kernel_size: 3
    stride: 2
    weight_filler {
      type: "xavier"
    }
    bias_filler {
      type: "constant"
      value: 0.2
    }
  }
}
layer {
  name: "conv3_mouth_bn"
  type: "BatchNorm"
  bottom: "conv3_mouth"
  top: "conv3_mouth"
  batch_norm_param {
    use_global_stats: false
  }
}
layer {
  name: "conv3_mouth_scale"
  type: "Scale"
  bottom: "conv3_mouth"
  top: "conv3_mouth"
  scale_param {
    bias_term: true
  }
}
layer {
  name: "prelu3_mouth"
  type: "PReLU"
  bottom: "conv3_mouth"
  top: "conv3_mouth"
}
layer {
  name: "pool3_mouth"
  type: "Pooling"
  bottom: "conv3_mouth"
  top: "pool3_mouth"
  pooling_param {
    pool: MAX
    kernel_size: 5
    stride: 2
    pad: 2
  }
}
layer {
  name: "fc1_mouth"
  type: "InnerProduct"
  bottom: "pool3_mouth"
  top: "fc1_mouth"
  param {
    lr_mult: 1
    decay_mult: 1
  }
  param {
    lr_mult: 2
    decay_mult: 0
  }
  inner_product_param {
    num_output: 1024
    weight_filler {
      type: "xavier"
    }
    bias_filler {
      type: "constant"
      value: 0.2
    }
  }
}
layer {
  name: "relu1_mouth"
  type: "ReLU"
  bottom: "fc1_mouth"
  top: "fc1_mouth"
}
layer {
  name: "drop1_mouth"
  type: "Dropout"
  bottom: "fc1_mouth"
  top: "fc1_mouth"
  dropout_param {
    dropout_ratio: 0.5
  }
}
layer {
  name: "fc2_mouth"
  type: "InnerProduct"
  bottom: "fc1_mouth"
  top: "fc2_mouth"
  param {
    lr_mult: 1
    decay_mult: 1
  }
  param {
    lr_mult: 2
    decay_mult: 0
  }
  inner_product_param {
    num_output: 1024
    weight_filler {
      type: "xavier"
    }
    bias_filler {
      type: "constant"
      value: 0.2
    }
  }
}
layer {
  name: "relu2_mouth"
  type: "ReLU"
  bottom: "fc2_mouth"
  top: "fc2_mouth"
}
layer {
  name: "drop2_mouth"
  type: "Dropout"
  bottom: "fc2_mouth"
  top: "fc2_mouth"
  dropout_param {
    dropout_ratio: 0.5
  }
}
layer {
  name: "conv3_eyes"
  type: "Convolution"
  bottom: "pool3"
  top: "conv3_eyes"
  param {
    lr_mult: 1
    decay_mult: 1
  }
  param {
    lr_mult: 2
    decay_mult: 0
  }
  convolution_param {
    num_output: 512
    pad: 1
    kernel_size: 3
    stride: 2
    weight_filler {
      type: "xavier"
    }
    bias_filler {
      type: "constant"
      value: 0.2
    }
  }
}
layer {
  name: "conv3_eyes_bn"
  type: "BatchNorm"
  bottom: "conv3_eyes"
  top: "conv3_eyes"
  batch_norm_param {
    use_global_stats: false
  }
}
layer {
  name: "conv3_eyes_scale"
  type: "Scale"
  bottom: "conv3_eyes"
  top: "conv3_eyes"
  scale_param {
    bias_term: true
  }
}
layer {
  name: "prelu3_eyes"
  type: "PReLU"
  bottom: "conv3_eyes"
  top: "conv3_eyes"
}
layer {
  name: "pool3_eyes"
  type: "Pooling"
  bottom: "conv3_eyes"
  top: "pool3_eyes"
  pooling_param {
    pool: MAX
    kernel_size: 5
    stride: 2
    pad: 2
  }
}
layer {
  name: "fc1_eyes"
  type: "InnerProduct"
  bottom: "pool3_eyes"
  top: "fc1_eyes"
  param {
    lr_mult: 1
    decay_mult: 1
  }
  param {
    lr_mult: 2
    decay_mult: 0
  }
  inner_product_param {
    num_output: 1024
    weight_filler {
      type: "xavier"
    }
    bias_filler {
      type: "constant"
      value: 0.2
    }
  }
}
layer {
  name: "relu1_eyes"
  type: "ReLU"
  bottom: "fc1_eyes"
  top: "fc1_eyes"
}
layer {
  name: "drop1_eyes"
  type: "Dropout"
  bottom: "fc1_eyes"
  top: "fc1_eyes"
  dropout_param {
    dropout_ratio: 0.5
  }
}
layer {
  name: "fc2_eyes"
  type: "InnerProduct"
  bottom: "fc1_eyes"
  top: "fc2_eyes"
  param {
    lr_mult: 1
    decay_mult: 1
  }
  param {
    lr_mult: 2
    decay_mult: 0
  }
  inner_product_param {
    num_output: 1024
    weight_filler {
      type: "xavier"
    }
    bias_filler {
      type: "constant"
      value: 0.2
    }
  }
}
layer {
  name: "relu2_eyes"
  type: "ReLU"
  bottom: "fc2_eyes"
  top: "fc2_eyes"
}
layer {
  name: "drop2_eyes"
  type: "Dropout"
  bottom: "fc2_eyes"
  top: "fc2_eyes"
  dropout_param {
    dropout_ratio: 0.5
  }
}
layer {
  name: "conv3_face"
  type: "Convolution"
  bottom: "pool3"
  top: "conv3_face"
  param {
    lr_mult: 1
    decay_mult: 1
  }
  param {
    lr_mult: 2
    decay_mult: 0
  }
  convolution_param {
    num_output: 512
    pad: 1
    kernel_size: 3
    stride: 2
    weight_filler {
      type: "xavier"
    }
    bias_filler {
      type: "constant"
      value: 0.2
    }
  }
}
layer {
  name: "conv3_face_bn"
  type: "BatchNorm"
  bottom: "conv3_face"
  top: "conv3_face"
  batch_norm_param {
    use_global_stats: false
  }
}
layer {
  name: "conv3_face_scale"
  type: "Scale"
  bottom: "conv3_face"
  top: "conv3_face"
  scale_param {
    bias_term: true
  }
}
layer {
  name: "prelu3_face"
  type: "PReLU"
  bottom: "conv3_face"
  top: "conv3_face"
}
layer {
  name: "pool3_face"
  type: "Pooling"
  bottom: "conv3_face"
  top: "pool3_face"
  pooling_param {
    pool: MAX
    kernel_size: 5
    stride: 2
    pad: 2
  }
}
layer {
  name: "fc1_face"
  type: "InnerProduct"
  bottom: "pool3_face"
  top: "fc1_face"
  param {
    lr_mult: 1
    decay_mult: 1
  }
  param {
    lr_mult: 2
    decay_mult: 0
  }
  inner_product_param {
    num_output: 1024
    weight_filler {
      type: "xavier"
    }
    bias_filler {
      type: "constant"
      value: 0.2
    }
  }
}
layer {
  name: "relu1_face"
  type: "ReLU"
  bottom: "fc1_face"
  top: "fc1_face"
}
layer {
  name: "drop1_face"
  type: "Dropout"
  bottom: "fc1_face"
  top: "fc1_face"
  dropout_param {
    dropout_ratio: 0.5
  }
}
layer {
  name: "fc2_face"
  type: "InnerProduct"
  bottom: "fc1_face"
  top: "fc2_face"
  param {
    lr_mult: 1
    decay_mult: 1
  }
  param {
    lr_mult: 2
    decay_mult: 0
  }
  inner_product_param {
    num_output: 1024
    weight_filler {
      type: "xavier"
    }
    bias_filler {
      type: "constant"
      value: 0.2
    }
  }
}
layer {
  name: "relu2_face"
  type: "ReLU"
  bottom: "fc2_face"
  top: "fc2_face"
}
layer {
  name: "drop2_face"
  type: "Dropout"
  bottom: "fc2_face"
  top: "fc2_face"
  dropout_param {
    dropout_ratio: 0.5
  }
}
layer {
  name: "conv3_rest"
  type: "Convolution"
  bottom: "pool3"
  top: "conv3_rest"
  param {
    lr_mult: 1
    decay_mult: 1
  }
  param {
    lr_mult: 2
    decay_mult: 0
  }
  convolution_param {
    num_output: 512
    pad: 1
    kernel_size: 3
    stride: 2
    weight_filler {
      type: "xavier"
    }
    bias_filler {
      type: "constant"
      value: 0.2
    }
  }
}
layer {
  name: "conv3_rest_bn"
  type: "BatchNorm"
  bottom: "conv3_rest"
  top: "conv3_rest"
  batch_norm_param {
    use_global_stats: false
  }
}
layer {
  name: "conv3_rest_scale"
  type: "Scale"
  bottom: "conv3_rest"
  top: "conv3_rest"
  scale_param {
    bias_term: true
  }
}
layer {
  name: "prelu3_rest"
  type: "PReLU"
  bottom: "conv3_rest"
  top: "conv3_rest"
}
layer {
  name: "pool3_rest"
  type: "Pooling"
  bottom: "conv3_rest"
  top: "pool3_rest"
  pooling_param {
    pool: MAX
    kernel_size: 5
    stride: 2
    pad: 2
  }
}
layer {
  name: "fc1_aroundhead"
  type: "InnerProduct"
  bottom: "pool3_rest"
  top: "fc1_aroundhead"
  param {
    lr_mult: 1
    decay_mult: 1
  }
  param {
    lr_mult: 2
    decay_mult: 0
  }
  inner_product_param {
    num_output: 1024
    weight_filler {
      type: "xavier"
    }
    bias_filler {
      type: "constant"
      value: 0.2
    }
  }
}
layer {
  name: "relu1_aroundhead"
  type: "ReLU"
  bottom: "fc1_aroundhead"
  top: "fc1_aroundhead"
}
layer {
  name: "drop1_aroundhead"
  type: "Dropout"
  bottom: "fc1_aroundhead"
  top: "fc1_aroundhead"
  dropout_param {
    dropout_ratio: 0.5
  }
}
layer {
  name: "fc2_aroundhead"
  type: "InnerProduct"
  bottom: "fc1_aroundhead"
  top: "fc2_aroundhead"
  param {
    lr_mult: 1
    decay_mult: 1
  }
  param {
    lr_mult: 2
    decay_mult: 0
  }
  inner_product_param {
    num_output: 1024
    weight_filler {
      type: "xavier"
    }
    bias_filler {
      type: "constant"
      value: 0.2
    }
  }
}
layer {
  name: "relu2_aroundhead"
  type: "ReLU"
  bottom: "fc2_aroundhead"
  top: "fc2_aroundhead"
}
layer {
  name: "drop2_aroundhead"
  type: "Dropout"
  bottom: "fc2_aroundhead"
  top: "fc2_aroundhead"
  dropout_param {
    dropout_ratio: 0.5
  }
}
layer {
  name: "fc1_facialhair"
  type: "InnerProduct"
  bottom: "pool3_rest"
  top: "fc1_facialhair"
  param {
    lr_mult: 1
    decay_mult: 1
  }
  param {
    lr_mult: 2
    decay_mult: 0
  }
  inner_product_param {
    num_output: 1024
    weight_filler {
      type: "xavier"
    }
    bias_filler {
      type: "constant"
      value: 0.2
    }
  }
}
layer {
  name: "relu1_facialhair"
  type: "ReLU"
  bottom: "fc1_facialhair"
  top: "fc1_facialhair"
}
layer {
  name: "drop1_facialhair"
  type: "Dropout"
  bottom: "fc1_facialhair"
  top: "fc1_facialhair"
  dropout_param {
    dropout_ratio: 0.5
  }
}
layer {
  name: "fc2_facialhair"
  type: "InnerProduct"
  bottom: "fc1_facialhair"
  top: "fc2_facialhair"
  param {
    lr_mult: 1
    decay_mult: 1
  }
  param {
    lr_mult: 2
    decay_mult: 0
  }
  inner_product_param {
    num_output: 1024
    weight_filler {
      type: "xavier"
    }
    bias_filler {
      type: "constant"
      value: 0.2
    }
  }
}
layer {
  name: "relu2_facialhair"
  type: "ReLU"
  bottom: "fc2_facialhair"
  top: "fc2_facialhair"
}
layer {
  name: "drop2_facialhair"
  type: "Dropout"
  bottom: "fc2_facialhair"
  top: "fc2_facialhair"
  dropout_param {
    dropout_ratio: 0.5
  }
}
layer {
  name: "fc1_cheeks"
  type: "InnerProduct"
  bottom: "pool3_rest"
  top: "fc1_cheeks"
  param {
    lr_mult: 1
    decay_mult: 1
  }
  param {
    lr_mult: 2
    decay_mult: 0
  }
  inner_product_param {
    num_output: 1024
    weight_filler {
      type: "xavier"
    }
    bias_filler {
      type: "constant"
      value: 0.2
    }
  }
}
layer {
  name: "relu1_cheeks"
  type: "ReLU"
  bottom: "fc1_cheeks"
  top: "fc1_cheeks"
}
layer {
  name: "drop1_cheeks"
  type: "Dropout"
  bottom: "fc1_cheeks"
  top: "fc1_cheeks"
  dropout_param {
    dropout_ratio: 0.5
  }
}
layer {
  name: "fc2_cheeks"
  type: "InnerProduct"
  bottom: "fc1_cheeks"
  top: "fc2_cheeks"
  param {
    lr_mult: 1
    decay_mult: 1
  }
  param {
    lr_mult: 2
    decay_mult: 0
  }
  inner_product_param {
    num_output: 1024
    weight_filler {
      type: "xavier"
    }
    bias_filler {
      type: "constant"
      value: 0.2
    }
  }
}
layer {
  name: "relu2_cheeks"
  type: "ReLU"
  bottom: "fc2_cheeks"
  top: "fc2_cheeks"
}
layer {
  name: "drop2_cheeks"
  type: "Dropout"
  bottom: "fc2_cheeks"
  top: "fc2_cheeks"
  dropout_param {
    dropout_ratio: 0.5
  }
}
layer {
  name: "fc1_fat"
  type: "InnerProduct"
  bottom: "pool3_rest"
  top: "fc1_fat"
  param {
    lr_mult: 1
    decay_mult: 1
  }
  param {
    lr_mult: 2
    decay_mult: 0
  }
  inner_product_param {
    num_output: 1024
    weight_filler {
      type: "xavier"
    }
    bias_filler {
      type: "constant"
      value: 0.2
    }
  }
}
layer {
  name: "relu1_fat"
  type: "ReLU"
  bottom: "fc1_fat"
  top: "fc1_fat"
}
layer {
  name: "drop1_fat"
  type: "Dropout"
  bottom: "fc1_fat"
  top: "fc1_fat"
  dropout_param {
    dropout_ratio: 0.5
  }
}
layer {
  name: "fc2_fat"
  type: "InnerProduct"
  bottom: "fc1_fat"
  top: "fc2_fat"
  param {
    lr_mult: 1
    decay_mult: 1
  }
  param {
    lr_mult: 2
    decay_mult: 0
  }
  inner_product_param {
    num_output: 1024
    weight_filler {
      type: "xavier"
    }
    bias_filler {
      type: "constant"
      value: 0.2
    }
  }
}
layer {
  name: "relu2_fat"
  type: "ReLU"
  bottom: "fc2_fat"
  top: "fc2_fat"
}
layer {
  name: "drop2_fat"
  type: "Dropout"
  bottom: "fc2_fat"
  top: "fc2_fat"
  dropout_param {
    dropout_ratio: 0.5
  }
}
layer {
  name: "fc3_Male"
  type: "InnerProduct"
  bottom: "fc2_gender"
  top: "fc3_Male"
  inner_product_param {
    num_output: 2
    weight_filler {
      type: "xavier"
    }
    bias_filler {
      type: "constant"
      value: 0
    }
  }
}
layer {
  name: "loss_Male"
  type: "SigmoidCrossEntropyLoss"
  bottom: "fc3_Male"
  bottom: "label_Male"
  top: "loss_Male"
}
layer {
  name: "fc3_Big_Nose"
  type: "InnerProduct"
  bottom: "fc2_nose"
  top: "fc3_Big_Nose"
  inner_product_param {
    num_output: 2
    weight_filler {
      type: "xavier"
    }
    bias_filler {
      type: "constant"
      value: 0
    }
  }
}
layer {
  name: "loss_Big_Nose"
  type: "SigmoidCrossEntropyLoss"
  bottom: "fc3_Big_Nose"
  bottom: "label_Big_Nose"
  top: "loss_Big_Nose"
}
layer {
  name: "fc3_Pointy_Nose"
  type: "InnerProduct"
  bottom: "fc2_nose"
  top: "fc3_Pointy_Nose"
  inner_product_param {
    num_output: 2
    weight_filler {
      type: "xavier"
    }
    bias_filler {
      type: "constant"
      value: 0
    }
  }
}
layer {
  name: "loss_Pointy_Nose"
  type: "SigmoidCrossEntropyLoss"
  bottom: "fc3_Pointy_Nose"
  bottom: "label_Pointy_Nose"
  top: "loss_Pointy_Nose"
}
layer {
  name: "fc3_Big_Lips"
  type: "InnerProduct"
  bottom: "fc2_mouth"
  top: "fc3_Big_Lips"
  inner_product_param {
    num_output: 2
    weight_filler {
      type: "xavier"
    }
    bias_filler {
      type: "constant"
      value: 0
    }
  }
}
layer {
  name: "loss_Big_Lips"
  type: "SigmoidCrossEntropyLoss"
  bottom: "fc3_Big_Lips"
  bottom: "label_Big_Lips"
  top: "loss_Big_Lips"
}
layer {
  name: "fc3_Smiling"
  type: "InnerProduct"
  bottom: "fc2_mouth"
  top: "fc3_Smiling"
  inner_product_param {
    num_output: 2
    weight_filler {
      type: "xavier"
    }
    bias_filler {
      type: "constant"
      value: 0
    }
  }
}
layer {
  name: "loss_Smiling"
  type: "SigmoidCrossEntropyLoss"
  bottom: "fc3_Smiling"
  bottom: "label_Smiling"
  top: "loss_Smiling"
}
layer {
  name: "fc3_Wearing_Lipstick"
  type: "InnerProduct"
  bottom: "fc2_mouth"
  top: "fc3_Wearing_Lipstick"
  inner_product_param {
    num_output: 2
    weight_filler {
      type: "xavier"
    }
    bias_filler {
      type: "constant"
      value: 0
    }
  }
}
layer {
  name: "loss_Wearing_Lipstick"
  type: "SigmoidCrossEntropyLoss"
  bottom: "fc3_Wearing_Lipstick"
  bottom: "label_Wearing_Lipstick"
  top: "loss_Wearing_Lipstick"
}
layer {
  name: "fc3_Mouth_Slightly_Open"
  type: "InnerProduct"
  bottom: "fc2_mouth"
  top: "fc3_Mouth_Slightly_Open"
  inner_product_param {
    num_output: 2
    weight_filler {
      type: "xavier"
    }
    bias_filler {
      type: "constant"
      value: 0
    }
  }
}
layer {
  name: "loss_Mouth_Slightly_Open"
  type: "SigmoidCrossEntropyLoss"
  bottom: "fc3_Mouth_Slightly_Open"
  bottom: "label_Mouth_Slightly_Open"
  top: "loss_Mouth_Slightly_Open"
}
layer {
  name: "fc3_Arched_Eyebrows"
  type: "InnerProduct"
  bottom: "fc2_eyes"
  top: "fc3_Arched_Eyebrows"
  inner_product_param {
    num_output: 2
    weight_filler {
      type: "xavier"
    }
    bias_filler {
      type: "constant"
      value: 0
    }
  }
}
layer {
  name: "loss_Arched_Eyebrows"
  type: "SigmoidCrossEntropyLoss"
  bottom: "fc3_Arched_Eyebrows"
  bottom: "label_Arched_Eyebrows"
  top: "loss_Arched_Eyebrows"
}
layer {
  name: "fc3_Bags_Under_Eyes"
  type: "InnerProduct"
  bottom: "fc2_eyes"
  top: "fc3_Bags_Under_Eyes"
  inner_product_param {
    num_output: 2
    weight_filler {
      type: "xavier"
    }
    bias_filler {
      type: "constant"
      value: 0
    }
  }
}
layer {
  name: "loss_Bags_Under_Eyes"
  type: "SigmoidCrossEntropyLoss"
  bottom: "fc3_Bags_Under_Eyes"
  bottom: "label_Bags_Under_Eyes"
  top: "loss_Bags_Under_Eyes"
}
layer {
  name: "fc3_Bushy_Eyebrows"
  type: "InnerProduct"
  bottom: "fc2_eyes"
  top: "fc3_Bushy_Eyebrows"
  inner_product_param {
    num_output: 2
    weight_filler {
      type: "xavier"
    }
    bias_filler {
      type: "constant"
      value: 0
    }
  }
}
layer {
  name: "loss_Bushy_Eyebrows"
  type: "SigmoidCrossEntropyLoss"
  bottom: "fc3_Bushy_Eyebrows"
  bottom: "label_Bushy_Eyebrows"
  top: "loss_Bushy_Eyebrows"
}
layer {
  name: "fc3_Narrow_Eyes"
  type: "InnerProduct"
  bottom: "fc2_eyes"
  top: "fc3_Narrow_Eyes"
  inner_product_param {
    num_output: 2
    weight_filler {
      type: "xavier"
    }
    bias_filler {
      type: "constant"
      value: 0
    }
  }
}
layer {
  name: "loss_Narrow_Eyes"
  type: "SigmoidCrossEntropyLoss"
  bottom: "fc3_Narrow_Eyes"
  bottom: "label_Narrow_Eyes"
  top: "loss_Narrow_Eyes"
}
layer {
  name: "fc3_Eyeglasses"
  type: "InnerProduct"
  bottom: "fc2_eyes"
  top: "fc3_Eyeglasses"
  inner_product_param {
    num_output: 2
    weight_filler {
      type: "xavier"
    }
    bias_filler {
      type: "constant"
      value: 0
    }
  }
}
layer {
  name: "loss_Eyeglasses"
  type: "SigmoidCrossEntropyLoss"
  bottom: "fc3_Eyeglasses"
  bottom: "label_Eyeglasses"
  top: "loss_Eyeglasses"
}
layer {
  name: "fc3_Attractive"
  type: "InnerProduct"
  bottom: "fc2_face"
  top: "fc3_Attractive"
  inner_product_param {
    num_output: 2
    weight_filler {
      type: "xavier"
    }
    bias_filler {
      type: "constant"
      value: 0
    }
  }
}
layer {
  name: "loss_Attractive"
  type: "SigmoidCrossEntropyLoss"
  bottom: "fc3_Attractive"
  bottom: "label_Attractive"
  top: "loss_Attractive"
}
layer {
  name: "fc3_Blurry"
  type: "InnerProduct"
  bottom: "fc2_face"
  top: "fc3_Blurry"
  inner_product_param {
    num_output: 2
    weight_filler {
      type: "xavier"
    }
    bias_filler {
      type: "constant"
      value: 0
    }
  }
}
layer {
  name: "loss_Blurry"
  type: "SigmoidCrossEntropyLoss"
  bottom: "fc3_Blurry"
  bottom: "label_Blurry"
  top: "loss_Blurry"
}
layer {
  name: "fc3_Oval_Face"
  type: "InnerProduct"
  bottom: "fc2_face"
  top: "fc3_Oval_Face"
  inner_product_param {
    num_output: 2
    weight_filler {
      type: "xavier"
    }
    bias_filler {
      type: "constant"
      value: 0
    }
  }
}
layer {
  name: "loss_Oval_Face"
  type: "SigmoidCrossEntropyLoss"
  bottom: "fc3_Oval_Face"
  bottom: "label_Oval_Face"
  top: "loss_Oval_Face"
}
layer {
  name: "fc3_Pale_Skin"
  type: "InnerProduct"
  bottom: "fc2_face"
  top: "fc3_Pale_Skin"
  inner_product_param {
    num_output: 2
    weight_filler {
      type: "xavier"
    }
    bias_filler {
      type: "constant"
      value: 0
    }
  }
}
layer {
  name: "loss_Pale_Skin"
  type: "SigmoidCrossEntropyLoss"
  bottom: "fc3_Pale_Skin"
  bottom: "label_Pale_Skin"
  top: "loss_Pale_Skin"
}
layer {
  name: "fc3_Young"
  type: "InnerProduct"
  bottom: "fc2_face"
  top: "fc3_Young"
  inner_product_param {
    num_output: 2
    weight_filler {
      type: "xavier"
    }
    bias_filler {
      type: "constant"
      value: 0
    }
  }
}
layer {
  name: "loss_Young"
  type
I1025 11:38:26.335721 23485 layer_factory.hpp:77] Creating layer data
I1025 11:38:26.335783 23485 net.cpp:106] Creating Layer data
I1025 11:38:26.335794 23485 net.cpp:411] data -> data
I1025 11:38:26.335826 23485 net.cpp:411] data -> label
I1025 11:38:26.335844 23485 data_transformer.cpp:26] Loading mean file from: /home/zhangyuan/caojiajiong/attribute_learning/data/train_attr_id.binaryproto
I1025 11:38:26.353859 23485 image_data_layer.cpp:38] Opening file /home/zhangyuan/caojiajiong/attribute_learning/list/train_65p_shuffle.txt
I1025 11:38:26.375291 23485 image_data_layer.cpp:53] A total of 44952 images.
I1025 11:38:26.376368 23485 image_data_layer.cpp:80] output data size: 70,3,112,112
I1025 11:38:26.395397 23485 net.cpp:150] Setting up data
I1025 11:38:26.395437 23485 net.cpp:157] Top shape: 70 3 112 112 (2634240)
I1025 11:38:26.395444 23485 net.cpp:157] Top shape: 70 (70)
I1025 11:38:26.395449 23485 net.cpp:165] Memory required for data: 10537240
I1025 11:38:26.395460 23485 layer_factory.hpp:77] Creating layer label_data_1_split
I1025 11:38:26.395481 23485 net.cpp:106] Creating Layer label_data_1_split
I1025 11:38:26.395490 23485 net.cpp:454] label_data_1_split <- label
I1025 11:38:26.395505 23485 net.cpp:411] label_data_1_split -> label_data_1_split_0
I1025 11:38:26.395519 23485 net.cpp:411] label_data_1_split -> label_data_1_split_1
I1025 11:38:26.395591 23485 net.cpp:150] Setting up label_data_1_split
I1025 11:38:26.395601 23485 net.cpp:157] Top shape: 70 (70)
I1025 11:38:26.395606 23485 net.cpp:157] Top shape: 70 (70)
I1025 11:38:26.395611 23485 net.cpp:165] Memory required for data: 10537800
I1025 11:38:26.395614 23485 layer_factory.hpp:77] Creating layer attr_data
I1025 11:38:26.395732 23485 net.cpp:106] Creating Layer attr_data
I1025 11:38:26.395745 23485 net.cpp:411] attr_data -> attr_data
I1025 11:38:26.395756 23485 net.cpp:411] attr_data -> fakelabel
I1025 11:38:26.398473 23490 db_lmdb.cpp:38] Opened lmdb /home/zhangyuan/caojiajiong/attribute_learning/data/attr_train_65p
I1025 11:38:26.398694 23485 data_layer.cpp:41] output data size: 70,80,1,1
I1025 11:38:26.400187 23485 net.cpp:150] Setting up attr_data
I1025 11:38:26.400223 23485 net.cpp:157] Top shape: 70 80 1 1 (5600)
I1025 11:38:26.400233 23485 net.cpp:157] Top shape: 70 (70)
I1025 11:38:26.400241 23485 net.cpp:165] Memory required for data: 10560480
I1025 11:38:26.400250 23485 layer_factory.hpp:77] Creating layer conv1
I1025 11:38:26.400282 23485 net.cpp:106] Creating Layer conv1
I1025 11:38:26.400296 23485 net.cpp:454] conv1 <- data
I1025 11:38:26.400312 23485 net.cpp:411] conv1 -> conv1
I1025 11:38:27.051486 23485 net.cpp:150] Setting up conv1
I1025 11:38:27.051520 23485 net.cpp:157] Top shape: 70 64 112 112 (56197120)
I1025 11:38:27.051528 23485 net.cpp:165] Memory required for data: 235348960
I1025 11:38:27.051549 23485 layer_factory.hpp:77] Creating layer slice
I1025 11:38:27.051569 23485 net.cpp:106] Creating Layer slice
I1025 11:38:27.051574 23485 net.cpp:454] slice <- attr_data
I1025 11:38:27.051584 23485 net.cpp:411] slice -> label_5_o_Clock_Shadow
I1025 11:38:27.051602 23485 net.cpp:411] slice -> label_Arched_Eyebrows
…
I1025 11:38:27.051928 23485 net.cpp:411] slice -> label_Straight_Hair
I1025 11:38:27.051937 23485 net.cpp:411] slice -> label_Wavy_Hair
I1025 11:38:27.051947 23485 net.cpp:411] slice -> label_Wearing_Earrings
I1025 11:38:27.051957 23485 net.cpp:411] slice -> label_Wearing_Hat
I1025 11:38:27.051988 23485 net.cpp:411] slice -> label_Wearing_Lipstick
I1025 11:38:27.052000 23485 net.cpp:411] slice -> label_Wearing_Necklace
I1025 11:38:27.052009 23485 net.cpp:411] slice -> label_Wearing_Necktie
I1025 11:38:27.052019 23485 net.cpp:411] slice -> label_Young
I1025 11:38:27.052495 23485 net.cpp:150] Setting up slice
I1025 11:38:27.052507 23485 net.cpp:157] Top shape: 70 2 1 1 (140)
I1025 11:38:27.052515 23485 net.cpp:157] Top shape: 70 2 1 1 (140)
I1025 11:38:27.052520 23485 net.cpp:157] Top shape: 70 2 1 1 (140)
I1025 11:38:27.052523 23485 net.cpp:157] Top shape: 70 2 1 1 (140)
I1025 11:38:27.052528 23485 net.cpp:157] Top shape: 70 2 1 1 (140)
I1025 11:38:27.052532 23485 net.cpp:157] Top shape: 70 2 1 1 (140)
I1025 11:38:27.052538 23485 net.cpp:157] Top shape: 70 2 1 1 (140)
I1025 11:38:27.052543 23485 net.cpp:157] Top shape: 70 2 1 1 (140)
I1025 11:38:27.052547 23485 net.cpp:157] Top shape: 70 2 1 1 (140)
I1025 11:38:27.052552 23485 net.cpp:157] Top shape: 70 2 1 1 (140)
I1025 11:38:27.052557 23485 net.cpp:157] Top shape: 70 2 1 1 (140)
I1025 11:38:27.052562 23485 net.cpp:157] Top shape: 70 2 1 1 (140)
I1025 11:38:27.052567 23485 net.cpp:157] Top shape: 70 2 1 1 (140)
I1025 11:38:27.052570 23485 net.cpp:157] Top shape: 70 2 1 1 (140)
I1025 11:38:27.052575 23485 net.cpp:157] Top shape: 70 2 1 1 (140)
I1025 11:38:27.052579 23485 net.cpp:157] Top shape: 70 2 1 1 (140)
I1025 11:38:27.052584 23485 net.cpp:157] Top shape: 70 2 1 1 (140)
I1025 11:38:27.052588 23485 net.cpp:157] Top shape: 70 2 1 1 (140)
I1025 11:38:27.052593 23485 net.cpp:157] Top shape: 70 2 1 1 (140)
I1025 11:38:27.052597 23485 net.cpp:157] Top shape: 70 2 1 1 (140)
I1025 11:38:27.052603 23485 net.cpp:157] Top shape: 70 2 1 1 (140)
I1025 11:38:27.052606 23485 net.cpp:157] Top shape: 70 2 1 1 (140)
I1025 11:38:27.052611 23485 net.cpp:157] Top shape: 70 2 1 1 (140)
I1025 11:38:27.052615 23485 net.cpp:157] Top shape: 70 2 1 1 (140)
I1025 11:38:27.052620 23485 net.cpp:157] Top shape: 70 2 1 1 (140)
I1025 11:38:27.052624 23485 net.cpp:157] Top shape: 70 2 1 1 (140)
I1025 11:38:27.052629 23485 net.cpp:157] Top shape: 70 2 1 1 (140)
I1025 11:38:27.052634 23485 net.cpp:157] Top shape: 70 2 1 1 (140)
I1025 11:38:27.052639 23485 net.cpp:157] Top shape: 70 2 1 1 (140)
I1025 11:38:27.052642 23485 net.cpp:157] Top shape: 70 2 1 1 (140)
I1025 11:38:27.052647 23485 net.cpp:157] Top shape: 70 2 1 1 (140)
I1025 11:38:27.052651 23485 net.cpp:157] Top shape: 70 2 1 1 (140)
I1025 11:38:27.052656 23485 net.cpp:157] Top shape: 70 2 1 1 (140)
I1025 11:38:27.052660 23485 net.cpp:157] Top shape: 70 2 1 1 (140)
I1025 11:38:27.052664 23485 net.cpp:157] Top shape: 70 2 1 1 (140)
I1025 11:38:27.052670 23485 net.cpp:157] Top shape: 70 2 1 1 (140)
I1025 11:38:27.052673 23485 net.cpp:157] Top shape: 70 2 1 1 (140)
I1025 11:38:27.052678 23485 net.cpp:157] Top shape: 70 2 1 1 (140)
I1025 11:38:27.052682 23485 net.cpp:157] Top shape: 70 2 1 1 (140)
I1025 11:38:27.052686 23485 net.cpp:157] Top shape: 70 2 1 1 (140)
I1025 11:38:27.052690 23485 net.cpp:165] Memory required for data: 235371360
I1025 11:38:27.052695 23485 layer_factory.hpp:77] Creating layer conv1_bn
I1025 11:38:27.052703 23485 net.cpp:106] Creating Layer conv1_bn
I1025 11:38:27.052708 23485 net.cpp:454] conv1_bn <- conv1
I1025 11:38:27.052714 23485 net.cpp:397] conv1_bn -> conv1 (in-place)
I1025 11:38:27.052917 23485 net.cpp:150] Setting up conv1_bn
I1025 11:38:27.052928 23485 net.cpp:157] Top shape: 70 64 112 112 (56197120)
I1025 11:38:27.052932 23485 net.cpp:165] Memory required for data: 460159840
I1025 11:38:27.052947 23485 layer_factory.hpp:77] Creating layer conv1_scale
I1025 11:38:27.052961 23485 net.cpp:106] Creating Layer conv1_scale
I1025 11:38:27.052966 23485 net.cpp:454] conv1_scale <- conv1
I1025 11:38:27.052973 23485 net.cpp:397] conv1_scale -> conv1 (in-place)
I1025 11:38:27.053025 23485 layer_factory.hpp:77] Creating layer conv1_scale
I1025 11:38:27.053177 23485 net.cpp:150] Setting up conv1_scale
I1025 11:38:27.053189 23485 net.cpp:157] Top shape: 70 64 112 112 (56197120)
I1025 11:38:27.053207 23485 net.cpp:165] Memory required for data: 684948320
I1025 11:38:27.053215 23485 layer_factory.hpp:77] Creating layer prelu1
I1025 11:38:27.053223 23485 net.cpp:106] Creating Layer prelu1
I1025 11:38:27.053228 23485 net.cpp:454] prelu1 <- conv1
I1025 11:38:27.053233 23485 net.cpp:397] prelu1 -> conv1 (in-place)
I1025 11:38:27.055423 23485 net.cpp:150] Setting up prelu1
I1025 11:38:27.055441 23485 net.cpp:157] Top shape: 70 64 112 112 (56197120)
I1025 11:38:27.055445 23485 net.cpp:165] Memory required for data: 909736800
I1025 11:38:27.055452 23485 layer_factory.hpp:77] Creating layer pool1
I1025 11:38:27.055464 23485 net.cpp:106] Creating Layer pool1
I1025 11:38:27.055467 23485 net.cpp:454] pool1 <- conv1
I1025 11:38:27.055474 23485 net.cpp:411] pool1 -> pool1
I1025 11:38:27.055905 23485 net.cpp:150] Setting up pool1
I1025 11:38:27.055922 23485 net.cpp:157] Top shape: 70 64 56 56 (14049280)
I1025 11:38:27.055927 23485 net.cpp:165] Memory required for data: 965933920
I1025 11:38:27.055932 23485 layer_factory.hpp:77] Creating layer conv2a
I1025 11:38:27.055946 23485 net.cpp:106] Creating Layer conv2a
I1025 11:38:27.055953 23485 net.cpp:454] conv2a <- pool1
I1025 11:38:27.055961 23485 net.cpp:411] conv2a -> conv2a
I1025 11:38:27.057155 23485 net.cpp:150] Setting up conv2a
I1025 11:38:27.057176 23485 net.cpp:157] Top shape: 70 64 56 56 (14049280)
I1025 11:38:27.057181 23485 net.cpp:165] Memory required for data: 1022131040
I1025 11:38:27.057193 23485 layer_factory.hpp:77] Creating layer conv2a_bn
I1025 11:38:27.057200 23485 net.cpp:106] Creating Layer conv2a_bn
I1025 11:38:27.057205 23485 net.cpp:454] conv2a_bn <- conv2a
I1025 11:38:27.057214 23485 net.cpp:397] conv2a_bn -> conv2a (in-place)
I1025 11:38:27.057431 23485 net.cpp:150] Setting up conv2a_bn
I1025 11:38:27.057442 23485 net.cpp:157] Top shape: 70 64 56 56 (14049280)
I1025 11:38:27.057447 23485 net.cpp:165] Memory required for data: 1078328160
I1025 11:38:27.057456 23485 layer_factory.hpp:77] Creating layer conv2a_scale
I1025 11:38:27.057466 23485 net.cpp:106] Creating Layer conv2a_scale
I1025 11:38:27.057471 23485 net.cpp:454] conv2a_scale <- conv2a
I1025 11:38:27.057478 23485 net.cpp:397] conv2a_scale -> conv2a (in-place)
I1025 11:38:27.057526 23485 layer_factory.hpp:77] Creating layer conv2a_scale
I1025 11:38:27.057667 23485 net.cpp:150] Setting up conv2a_scale
I1025 11:38:27.057678 23485 net.cpp:157] Top shape: 70 64 56 56 (14049280)
I1025 11:38:27.057682 23485 net.cpp:165] Memory required for data: 1134525280
I1025 11:38:27.057689 23485 layer_factory.hpp:77] Creating layer prelu2a
I1025 11:38:27.057698 23485 net.cpp:106] Creating Layer prelu2a
I1025 11:38:27.057703 23485 net.cpp:454] prelu2a <- conv2a
I1025 11:38:27.057708 23485 net.cpp:397] prelu2a -> conv2a (in-place)
I1025 11:38:27.058601 23485 net.cpp:150] Setting up prelu2a
I1025 11:38:27.058617 23485 net.cpp:157] Top shape: 70 64 56 56 (14049280)
I1025 11:38:27.058622 23485 net.cpp:165] Memory required for data: 1190722400
I1025 11:38:27.058629 23485 layer_factory.hpp:77] Creating layer conv2
I1025 11:38:27.058640 23485 net.cpp:106] Creating Layer conv2
I1025 11:38:27.058645 23485 net.cpp:454] conv2 <- conv2a
I1025 11:38:27.058653 23485 net.cpp:411] conv2 -> conv2
I1025 11:38:27.061236 23485 net.cpp:150] Setting up conv2
I1025 11:38:27.061256 23485 net.cpp:157] Top shape: 70 192 56 56 (42147840)
I1025 11:38:27.061261 23485 net.cpp:165] Memory required for data: 1359313760
I1025 11:38:27.061272 23485 layer_factory.hpp:77] Creating layer conv2_bn
I1025 11:38:27.061282 23485 net.cpp:106] Creating Layer conv2_bn
I1025 11:38:27.061287 23485 net.cpp:454] conv2_bn <- conv2
I1025 11:38:27.061296 23485 net.cpp:397] conv2_bn -> conv2 (in-place)
I1025 11:38:27.061513 23485 net.cpp:150] Setting up conv2_bn
I1025 11:38:27.061524 23485 net.cpp:157] Top shape: 70 192 56 56 (42147840)
I1025 11:38:27.061529 23485 net.cpp:165] Memory required for data: 1527905120
I1025 11:38:27.061538 23485 layer_factory.hpp:77] Creating layer conv2_scale
I1025 11:38:27.061547 23485 net.cpp:106] Creating Layer conv2_scale
I1025 11:38:27.061566 23485 net.cpp:454] conv2_scale <- conv2
I1025 11:38:27.061573 23485 net.cpp:397] conv2_scale -> conv2 (in-place)
I1025 11:38:27.061624 23485 layer_factory.hpp:77] Creating layer conv2_scale
I1025 11:38:27.061769 23485 net.cpp:150] Setting up conv2_scale
I1025 11:38:27.061780 23485 net.cpp:157] Top shape: 70 192 56 56 (42147840)
I1025 11:38:27.061784 23485 net.cpp:165] Memory required for data: 1696496480
I1025 11:38:27.061791 23485 layer_factory.hpp:77] Creating layer prelu2
I1025 11:38:27.061801 23485 net.cpp:106] Creating Layer prelu2
I1025 11:38:27.061806 23485 net.cpp:454] prelu2 <- conv2
I1025 11:38:27.061811 23485 net.cpp:397] prelu2 -> conv2 (in-place)
I1025 11:38:27.063531 23485 net.cpp:150] Setting up prelu2
I1025 11:38:27.063549 23485 net.cpp:157] Top shape: 70 192 56 56 (42147840)
I1025 11:38:27.063554 23485 net.cpp:165] Memory required for data: 1865087840
I1025 11:38:27.063560 23485 layer_factory.hpp:77] Creating layer pool2
I1025 11:38:27.063567 23485 net.cpp:106] Creating Layer pool2
I1025 11:38:27.063571 23485 net.cpp:454] pool2 <- conv2
I1025 11:38:27.063580 23485 net.cpp:411] pool2 -> pool2
I1025 11:38:27.063988 23485 net.cpp:150] Setting up pool2
I1025 11:38:27.064005 23485 net.cpp:157] Top shape: 70 192 28 28 (10536960)
I1025 11:38:27.064009 23485 net.cpp:165] Memory required for data: 1907235680
I1025 11:38:27.064014 23485 layer_factory.hpp:77] Creating layer conv3a
I1025 11:38:27.064026 23485 net.cpp:106] Creating Layer conv3a
I1025 11:38:27.064034 23485 net.cpp:454] conv3a <- pool2
I1025 11:38:27.064043 23485 net.cpp:411] conv3a -> conv3a
I1025 11:38:27.066179 23485 net.cpp:150] Setting up conv3a
I1025 11:38:27.066196 23485 net.cpp:157] Top shape: 70 192 28 28 (10536960)
I1025 11:38:27.066201 23485 net.cpp:165] Memory required for data: 1949383520
I1025 11:38:27.066210 23485 layer_factory.hpp:77] Creating layer conv3a_bn
I1025 11:38:27.066217 23485 net.cpp:106] Creating Layer conv3a_bn
I1025 11:38:27.066222 23485 net.cpp:454] conv3a_bn <- conv3a
I1025 11:38:27.066231 23485 net.cpp:397] conv3a_bn -> conv3a (in-place)
I1025 11:38:27.066458 23485 net.cpp:150] Setting up conv3a_bn
I1025 11:38:27.066469 23485 net.cpp:157] Top shape: 70 192 28 28 (10536960)
I1025 11:38:27.066473 23485 net.cpp:165] Memory required for data: 1991531360
I1025 11:38:27.066483 23485 layer_factory.hpp:77] Creating layer conv3a_scale
I1025 11:38:27.066489 23485 net.cpp:106] Creating Layer conv3a_scale
I1025 11:38:27.066493 23485 net.cpp:454] conv3a_scale <- conv3a
I1025 11:38:27.066503 23485 net.cpp:397] conv3a_scale -> conv3a (in-place)
I1025 11:38:27.066547 23485 layer_factory.hpp:77] Creating layer conv3a_scale
I1025 11:38:27.066680 23485 net.cpp:150] Setting up conv3a_scale
I1025 11:38:27.066691 23485 net.cpp:157] Top shape: 70 192 28 28 (10536960)
I1025 11:38:27.066695 23485 net.cpp:165] Memory required for data: 2033679200
I1025 11:38:27.066702 23485 layer_factory.hpp:77] Creating layer prelu3a
I1025 11:38:27.066711 23485 net.cpp:106] Creating Layer prelu3a
I1025 11:38:27.066715 23485 net.cpp:454] prelu3a <- conv3a
I1025 11:38:27.066720 23485 net.cpp:397] prelu3a -> conv3a (in-place)
I1025 11:38:27.066928 23485 net.cpp:150] Setting up prelu3a
I1025 11:38:27.066939 23485 net.cpp:157] Top shape: 70 192 28 28 (10536960)
I1025 11:38:27.066943 23485 net.cpp:165] Memory required for data: 2075827040
I1025 11:38:27.066948 23485 layer_factory.hpp:77] Creating layer conv3
I1025 11:38:27.066961 23485 net.cpp:106] Creating Layer conv3
I1025 11:38:27.066965 23485 net.cpp:454] conv3 <- conv3a
I1025 11:38:27.066973 23485 net.cpp:411] conv3 -> conv3
I1025 11:38:27.074724 23485 net.cpp:150] Setting up conv3
I1025 11:38:27.074743 23485 net.cpp:157] Top shape: 70 384 28 28 (21073920)
I1025 11:38:27.074748 23485 net.cpp:165] Memory required for data: 2160122720
I1025 11:38:27.074765 23485 layer_factory.hpp:77] Creating layer conv3_bn
I1025 11:38:27.074775 23485 net.cpp:106] Creating Layer conv3_bn
I1025 11:38:27.074780 23485 net.cpp:454] conv3_bn <- conv3
I1025 11:38:27.074790 23485 net.cpp:397] conv3_bn -> conv3 (in-place)
I1025 11:38:27.075012 23485 net.cpp:150] Setting up conv3_bn
I1025 11:38:27.075024 23485 net.cpp:157] Top shape: 70 384 28 28 (21073920)
I1025 11:38:27.075028 23485 net.cpp:165] Memory required for data: 2244418400
I1025 11:38:27.075037 23485 layer_factory.hpp:77] Creating layer conv3_scale
I1025 11:38:27.075044 23485 net.cpp:106] Creating Layer conv3_scale
I1025 11:38:27.075048 23485 net.cpp:454] conv3_scale <- conv3
I1025 11:38:27.075054 23485 net.cpp:397] conv3_scale -> conv3 (in-place)
I1025 11:38:27.075103 23485 layer_factory.hpp:77] Creating layer conv3_scale
I1025 11:38:27.075222 23485 net.cpp:150] Setting up conv3_scale
I1025 11:38:27.075232 23485 net.cpp:157] Top shape: 70 384 28 28 (21073920)
I1025 11:38:27.075237 23485 net.cpp:165] Memory required for data: 2328714080
I1025 11:38:27.075243 23485 layer_factory.hpp:77] Creating layer prelu3
I1025 11:38:27.075253 23485 net.cpp:106] Creating Layer prelu3
I1025 11:38:27.075258 23485 net.cpp:454] prelu3 <- conv3
I1025 11:38:27.075263 23485 net.cpp:397] prelu3 -> conv3 (in-place)
I1025 11:38:27.076308 23485 net.cpp:150] Setting up prelu3
I1025 11:38:27.076325 23485 net.cpp:157] Top shape: 70 384 28 28 (21073920)
I1025 11:38:27.076329 23485 net.cpp:165] Memory required for data: 2413009760
I1025 11:38:27.076335 23485 layer_factory.hpp:77] Creating layer pool3
I1025 11:38:27.076344 23485 net.cpp:106] Creating Layer pool3
I1025 11:38:27.076349 23485 net.cpp:454] pool3 <- conv3
I1025 11:38:27.076356 23485 net.cpp:411] pool3 -> pool3
I1025 11:38:27.076750 23485 net.cpp:150] Setting up pool3
I1025 11:38:27.076766 23485 net.cpp:157] Top shape: 70 384 14 14 (5268480)
I1025 11:38:27.076771 23485 net.cpp:165] Memory required for data: 2434083680
I1025 11:38:27.076774 23485 layer_factory.hpp:77] Creating layer pool3_pool3_0_split
I1025 11:38:27.076786 23485 net.cpp:106] Creating Layer pool3_pool3_0_split
I1025 11:38:27.076792 23485 net.cpp:454] pool3_pool3_0_split <- pool3
I1025 11:38:27.076799 23485 net.cpp:411] pool3_pool3_0_split -> pool3_pool3_0_split_0
I1025 11:38:27.076807 23485 net.cpp:411] pool3_pool3_0_split -> pool3_pool3_0_split_1
I1025 11:38:27.076818 23485 net.cpp:411] pool3_pool3_0_split -> pool3_pool3_0_split_2
I1025 11:38:27.076825 23485 net.cpp:411] pool3_pool3_0_split -> pool3_pool3_0_split_3
I1025 11:38:27.076831 23485 net.cpp:411] pool3_pool3_0_split -> pool3_pool3_0_split_4
I1025 11:38:27.076838 23485 net.cpp:411] pool3_pool3_0_split -> pool3_pool3_0_split_5
I1025 11:38:27.076934 23485 net.cpp:150] Setting up pool3_pool3_0_split
I1025 11:38:27.076943 23485 net.cpp:157] Top shape: 70 384 14 14 (5268480)
I1025 11:38:27.076948 23485 net.cpp:157] Top shape: 70 384 14 14 (5268480)
I1025 11:38:27.076953 23485 net.cpp:157] Top shape: 70 384 14 14 (5268480)
I1025 11:38:27.076957 23485 net.cpp:157] Top shape: 70 384 14 14 (5268480)
I1025 11:38:27.076962 23485 net.cpp:157] Top shape: 70 384 14 14 (5268480)
I1025 11:38:27.076967 23485 net.cpp:157] Top shape: 70 384 14 14 (5268480)
I1025 11:38:27.076969 23485 net.cpp:165] Memory required for data: 2560527200
I1025 11:38:27.076973 23485 layer_factory.hpp:77] Creating layer conv3_gender
I1025 11:38:27.076985 23485 net.cpp:106] Creating Layer conv3_gender
I1025 11:38:27.076990 23485 net.cpp:454] conv3_gender <- pool3_pool3_0_split_0
I1025 11:38:27.077000 23485 net.cpp:411] conv3_gender -> conv3_gender
I1025 11:38:27.096019 23485 net.cpp:150] Setting up conv3_gender
I1025 11:38:27.096038 23485 net.cpp:157] Top shape: 70 512 7 7 (1756160)
I1025 11:38:27.096043 23485 net.cpp:165] Memory required for data: 2567551840
I1025 11:38:27.096051 23485 layer_factory.hpp:77] Creating layer conv3_gender_bn
I1025 11:38:27.096062 23485 net.cpp:106] Creating Layer conv3_gender_bn
I1025 11:38:27.096068 23485 net.cpp:454] conv3_gender_bn <- conv3_gender
I1025 11:38:27.096077 23485 net.cpp:397] conv3_gender_bn -> conv3_gender (in-place)
I1025 11:38:27.096299 23485 net.cpp:150] Setting up conv3_gender_bn
I1025 11:38:27.096310 23485 net.cpp:157] Top shape: 70 512 7 7 (1756160)
I1025 11:38:27.096314 23485 net.cpp:165] Memory required for data: 2574576480
I1025 11:38:27.096336 23485 layer_factory.hpp:77] Creating layer conv3_gender_scale
I1025 11:38:27.096345 23485 net.cpp:106] Creating Layer conv3_gender_scale
I1025 11:38:27.096349 23485 net.cpp:454] conv3_gender_scale <- conv3_gender
I1025 11:38:27.096355 23485 net.cpp:397] conv3_gender_scale -> conv3_gender (in-place)
I1025 11:38:27.096402 23485 layer_factory.hpp:77] Creating layer conv3_gender_scale
I1025 11:38:27.096534 23485 net.cpp:150] Setting up conv3_gender_scale
I1025 11:38:27.096544 23485 net.cpp:157] Top shape: 70 512 7 7 (1756160)
I1025 11:38:27.096549 23485 net.cpp:165] Memory required for data: 2581601120
I1025 11:38:27.096555 23485 layer_factory.hpp:77] Creating layer prelu3_gender
I1025 11:38:27.096563 23485 net.cpp:106] Creating Layer prelu3_gender
I1025 11:38:27.096568 23485 net.cpp:454] prelu3_gender <- conv3_gender
I1025 11:38:27.096573 23485 net.cpp:397] prelu3_gender -> conv3_gender (in-place)
I1025 11:38:27.096696 23485 net.cpp:150] Setting up prelu3_gender
I1025 11:38:27.096707 23485 net.cpp:157] Top shape: 70 512 7 7 (1756160)
I1025 11:38:27.096711 23485 net.cpp:165] Memory required for data: 2588625760
I1025 11:38:27.096716 23485 layer_factory.hpp:77] Creating layer pool3_gender
I1025 11:38:27.096730 23485 net.cpp:106] Creating Layer pool3_gender
I1025 11:38:27.096735 23485 net.cpp:454] pool3_gender <- conv3_gender
I1025 11:38:27.096741 23485 net.cpp:411] pool3_gender -> pool3_gender
I1025 11:38:27.096989 23485 net.cpp:150] Setting up pool3_gender
I1025 11:38:27.097003 23485 net.cpp:157] Top shape: 70 512 4 4 (573440)
I1025 11:38:27.097007 23485 net.cpp:165] Memory required for data: 2590919520
I1025 11:38:27.097012 23485 layer_factory.hpp:77] Creating layer pool3_gender_pool3_gender_0_split
I1025 11:38:27.097019 23485 net.cpp:106] Creating Layer pool3_gender_pool3_gender_0_split
I1025 11:38:27.097024 23485 net.cpp:454] pool3_gender_pool3_gender_0_split <- pool3_gender
I1025 11:38:27.097033 23485 net.cpp:411] pool3_gender_pool3_gender_0_split -> pool3_gender_pool3_gender_0_split_0
I1025 11:38:27.097041 23485 net.cpp:411] pool3_gender_pool3_gender_0_split -> pool3_gender_pool3_gender_0_split_1
I1025 11:38:27.097084 23485 net.cpp:150] Setting up pool3_gender_pool3_gender_0_split
I1025 11:38:27.097092 23485 net.cpp:157] Top shape: 70 512 4 4 (573440)
I1025 11:38:27.097097 23485 net.cpp:157] Top shape: 70 512 4 4 (573440)
I1025 11:38:27.097100 23485 net.cpp:165] Memory required for data: 2595507040
I1025 11:38:27.097105 23485 layer_factory.hpp:77] Creating layer fc1_gender
I1025 11:38:27.097121 23485 net.cpp:106] Creating Layer fc1_gender
I1025 11:38:27.097126 23485 net.cpp:454] fc1_gender <- pool3_gender_pool3_gender_0_split_0
I1025 11:38:27.097136 23485 net.cpp:411] fc1_gender -> fc1_gender
I1025 11:38:27.183576 23485 net.cpp:150] Setting up fc1_gender
I1025 11:38:27.183635 23485 net.cpp:157] Top shape: 70 1024 (71680)
I1025 11:38:27.183642 23485 net.cpp:165] Memory required for data: 2595793760
I1025 11:38:27.183668 23485 layer_factory.hpp:77] Creating layer relu1_gender
I1025 11:38:27.183687 23485 net.cpp:106] Creating Layer relu1_gender
I1025 11:38:27.183699 23485 net.cpp:454] relu1_gender <- fc1_gender
I1025 11:38:27.183711 23485 net.cpp:397] relu1_gender -> fc1_gender (in-place)
I1025 11:38:27.184531 23485 net.cpp:150] Setting up relu1_gender
I1025 11:38:27.184551 23485 net.cpp:157] Top shape: 70 1024 (71680)
I1025 11:38:27.184556 23485 net.cpp:165] Memory required for data: 2596080480
I1025 11:38:27.184561 23485 layer_factory.hpp:77] Creating layer drop1_gender
I1025 11:38:27.184569 23485 net.cpp:106] Creating Layer drop1_gender
I1025 11:38:27.184574 23485 net.cpp:454] drop1_gender <- fc1_gender
I1025 11:38:27.184581 23485 net.cpp:397] drop1_gender -> fc1_gender (in-place)
I1025 11:38:27.184661 23485 net.cpp:150] Setting up drop1_gender
I1025 11:38:27.184670 23485 net.cpp:157] Top shape: 70 1024 (71680)
I1025 11:38:27.184674 23485 net.cpp:165] Memory required for data: 2596367200
I1025 11:38:27.184679 23485 layer_factory.hpp:77] Creating layer fc2_gender
I1025 11:38:27.184725 23485 net.cpp:106] Creating Layer fc2_gender
I1025 11:38:27.184731 23485 net.cpp:454] fc2_gender <- fc1_gender
I1025 11:38:27.184738 23485 net.cpp:411] fc2_gender -> fc2_gender
I1025 11:38:27.195276 23485 net.cpp:150] Setting up fc2_gender
I1025 11:38:27.195292 23485 net.cpp:157] Top shape: 70 1024 (71680)
I1025 11:38:27.195303 23485 net.cpp:165] Memory required for data: 2596653920
I1025 11:38:27.195312 23485 layer_factory.hpp:77] Creating layer relu2_gender
I1025 11:38:27.195322 23485 net.cpp:106] Creating Layer relu2_gender
I1025 11:38:27.195327 23485 net.cpp:454] relu2_gender <- fc2_gender
I1025 11:38:27.195333 23485 net.cpp:397] relu2_gender -> fc2_gender (in-place)
I1025 11:38:27.195546 23485 net.cpp:150] Setting up relu2_gender
I1025 11:38:27.195559 23485 net.cpp:157] Top shape: 70 1024 (71680)
I1025 11:38:27.195564 23485 net.cpp:165] Memory required for data: 2596940640
I1025 11:38:27.195569 23485 layer_factory.hpp:77] Creating layer drop2_gender
I1025 11:38:27.195575 23485 net.cpp:106] Creating Layer drop2_gender
I1025 11:38:27.195580 23485 net.cpp:454] drop2_gender <- fc2_gender
I1025 11:38:27.195587 23485 net.cpp:397] drop2_gender -> fc2_gender (in-place)
I1025 11:38:27.195622 23485 net.cpp:150] Setting up drop2_gender
I1025 11:38:27.195636 23485 net.cpp:157] Top shape: 70 1024 (71680)
I1025 11:38:27.195643 23485 net.cpp:165] Memory required for data: 2597227360
I1025 11:38:27.195647 23485 layer_factory.hpp:77] Creating layer fc2_gender_drop2_gender_0_split
I1025 11:38:27.195657 23485 net.cpp:106] Creating Layer fc2_gender_drop2_gender_0_split
I1025 11:38:27.195660 23485 net.cpp:454] fc2_gender_drop2_gender_0_split <- fc2_gender
I1025 11:38:27.195667 23485 net.cpp:411] fc2_gender_drop2_gender_0_split -> fc2_gender_drop2_gender_0_split_0
I1025 11:38:27.195675 23485 net.cpp:411] fc2_gender_drop2_gender_0_split -> fc2_gender_drop2_gender_0_split_1
I1025 11:38:27.195722 23485 net.cpp:150] Setting up fc2_gender_drop2_gender_0_split
I1025 11:38:27.195731 23485 net.cpp:157] Top shape: 70 1024 (71680)
I1025 11:38:27.195736 23485 net.cpp:157] Top shape: 70 1024 (71680)
I1025 11:38:27.195739 23485 net.cpp:165] Memory required for data: 2597800800
I1025 11:38:27.195744 23485 layer_factory.hpp:77] Creating layer conv3_nose
I1025 11:38:27.195758 23485 net.cpp:106] Creating Layer conv3_nose
I1025 11:38:27.195771 23485 net.cpp:454] conv3_nose <- pool3_pool3_0_split_1
I1025 11:38:27.195782 23485 net.cpp:411] conv3_nose -> conv3_nose
I1025 11:38:27.214319 23485 net.cpp:150] Setting up conv3_nose
I1025 11:38:27.214339 23485 net.cpp:157] Top shape: 70 512 7 7 (1756160)
I1025 11:38:27.214344 23485 net.cpp:165] Memory required for data: 2604825440
I1025 11:38:27.214354 23485 layer_factory.hpp:77] Creating layer conv3_nose_bn
I1025 11:38:27.214365 23485 net.cpp:106] Creating Layer conv3_nose_bn
I1025 11:38:27.214371 23485 net.cpp:454] conv3_nose_bn <- conv3_nose
I1025 11:38:27.214378 23485 net.cpp:397] conv3_nose_bn -> conv3_nose (in-place)
I1025 11:38:27.214604 23485 net.cpp:150] Setting up conv3_nose_bn
I1025 11:38:27.214615 23485 net.cpp:157] Top shape: 70 512 7 7 (1756160)
I1025 11:38:27.214619 23485 net.cpp:165] Memory required for data: 2611850080
I1025 11:38:27.214628 23485 layer_factory.hpp:77] Creating layer conv3_nose_scale
I1025 11:38:27.214637 23485 net.cpp:106] Creating Layer conv3_nose_scale
I1025 11:38:27.214643 23485 net.cpp:454] conv3_nose_scale <- conv3_nose
I1025 11:38:27.214648 23485 net.cpp:397] conv3_nose_scale -> conv3_nose (in-place)
I1025 11:38:27.214697 23485 layer_factory.hpp:77] Creating layer conv3_nose_scale
I1025 11:38:27.214836 23485 net.cpp:150] Setting up conv3_nose_scale
I1025 11:38:27.214846 23485 net.cpp:157] Top shape: 70 512 7 7 (1756160)
I1025 11:38:27.214850 23485 net.cpp:165] Memory required for data: 2618874720
I1025 11:38:27.214857 23485 layer_factory.hpp:77] Creating layer prelu3_nose
I1025 11:38:27.214864 23485 net.cpp:106] Creating Layer prelu3_nose
I1025 11:38:27.214869 23485 net.cpp:454] prelu3_nose <- conv3_nose
I1025 11:38:27.214876 23485 net.cpp:397] prelu3_nose -> conv3_nose (in-place)
I1025 11:38:27.215018 23485 net.cpp:150] Setting up prelu3_nose
I1025 11:38:27.215029 23485 net.cpp:157] Top shape: 70 512 7 7 (1756160)
I1025 11:38:27.215032 23485 net.cpp:165] Memory required for data: 2625899360
I1025 11:38:27.215039 23485 layer_factory.hpp:77] Creating layer pool3_nose
I1025 11:38:27.215049 23485 net.cpp:106] Creating Layer pool3_nose
I1025 11:38:27.215054 23485 net.cpp:454] pool3_nose <- conv3_nose
I1025 11:38:27.215060 23485 net.cpp:411] pool3_nose -> pool3_nose
I1025 11:38:27.215456 23485 net.cpp:150] Setting up pool3_nose
I1025 11:38:27.215473 23485 net.cpp:157] Top shape: 70 512 4 4 (573440)
I1025 11:38:27.215477 23485 net.cpp:165] Memory required for data: 2628193120
I1025 11:38:27.215482 23485 layer_factory.hpp:77] Creating layer pool3_nose_pool3_nose_0_split
I1025 11:38:27.215492 23485 net.cpp:106] Creating Layer pool3_nose_pool3_nose_0_split
I1025 11:38:27.215497 23485 net.cpp:454] pool3_nose_pool3_nose_0_split <- pool3_nose
I1025 11:38:27.215504 23485 net.cpp:411] pool3_nose_pool3_nose_0_split -> pool3_nose_pool3_nose_0_split_0
I1025 11:38:27.215512 23485 net.cpp:411] pool3_nose_pool3_nose_0_split -> pool3_nose_pool3_nose_0_split_1
I1025 11:38:27.215560 23485 net.cpp:150] Setting up pool3_nose_pool3_nose_0_split
I1025 11:38:27.215567 23485 net.cpp:157] Top shape: 70 512 4 4 (573440)
I1025 11:38:27.215572 23485 net.cpp:157] Top shape: 70 512 4 4 (573440)
I1025 11:38:27.215576 23485 net.cpp:165] Memory required for data: 2632780640
I1025 11:38:27.215580 23485 layer_factory.hpp:77] Creating layer fc1_nose
I1025 11:38:27.215591 23485 net.cpp:106] Creating Layer fc1_nose
I1025 11:38:27.215596 23485 net.cpp:454] fc1_nose <- pool3_nose_pool3_nose_0_split_0
I1025 11:38:27.215603 23485 net.cpp:411] fc1_nose -> fc1_nose
I1025 11:38:27.292217 23485 net.cpp:150] Setting up fc1_nose
I1025 11:38:27.292251 23485 net.cpp:157] Top shape: 70 1024 (71680)
I1025 11:38:27.292256 23485 net.cpp:165] Memory required for data: 2633067360
I1025 11:38:27.292268 23485 layer_factory.hpp:77] Creating layer relu1_nose
I1025 11:38:27.292285 23485 net.cpp:106] Creating Layer relu1_nose
I1025 11:38:27.292292 23485 net.cpp:454] relu1_nose <- fc1_nose
I1025 11:38:27.292301 23485 net.cpp:397] relu1_nose -> fc1_nose (in-place)
I1025 11:38:27.292563 23485 net.cpp:150] Setting up relu1_nose
I1025 11:38:27.292577 23485 net.cpp:157] Top shape: 70 1024 (71680)
I1025 11:38:27.292580 23485 net.cpp:165] Memory required for data: 2633354080
I1025 11:38:27.292583 23485 layer_factory.hpp:77] Creating layer drop1_nose
I1025 11:38:27.292593 23485 net.cpp:106] Creating Layer drop1_nose
I1025 11:38:27.292598 23485 net.cpp:454] drop1_nose <- fc1_nose
I1025 11:38:27.292605 23485 net.cpp:397] drop1_nose -> fc1_nose (in-place)
I1025 11:38:27.292640 23485 net.cpp:150] Setting up drop1_nose
I1025 11:38:27.292652 23485 net.cpp:157] Top shape: 70 1024 (71680)
I1025 11:38:27.292659 23485 net.cpp:165] Memory required for data: 2633640800
I1025 11:38:27.292662 23485 layer_factory.hpp:77] Creating layer fc2_nose
I1025 11:38:27.292671 23485 net.cpp:106] Creating Layer fc2_nose
I1025 11:38:27.292675 23485 net.cpp:454] fc2_nose <- fc1_nose
I1025 11:38:27.292682 23485 net.cpp:411] fc2_nose -> fc2_nose
I1025 11:38:27.302161 23485 net.cpp:150] Setting up fc2_nose
I1025 11:38:27.302177 23485 net.cpp:157] Top shape: 70 1024 (71680)
I1025 11:38:27.302181 23485 net.cpp:165] Memory required for data: 2633927520
I1025 11:38:27.302189 23485 layer_factory.hpp:77] Creating layer relu2_nose
I1025 11:38:27.302198 23485 net.cpp:106] Creating Layer relu2_nose
I1025 11:38:27.302203 23485 net.cpp:454] relu2_nose <- fc2_nose
I1025 11:38:27.302208 23485 net.cpp:397] relu2_nose -> fc2_nose (in-place)
I1025 11:38:27.302551 23485 net.cpp:150] Setting up relu2_nose
I1025 11:38:27.302567 23485 net.cpp:157] Top shape: 70 1024 (71680)
I1025 11:38:27.302570 23485 net.cpp:165] Memory required for data: 2634214240
I1025 11:38:27.302574 23485 layer_factory.hpp:77] Creating layer drop2_nose
I1025 11:38:27.302583 23485 net.cpp:106] Creating Layer drop2_nose
I1025 11:38:27.302604 23485 net.cpp:454] drop2_nose <- fc2_nose
I1025 11:38:27.302613 23485 net.cpp:397] drop2_nose -> fc2_nose (in-place)
I1025 11:38:27.302644 23485 net.cpp:150] Setting up drop2_nose
I1025 11:38:27.302659 23485 net.cpp:157] Top shape: 70 1024 (71680)
I1025 11:38:27.302661 23485 net.cpp:165] Memory required for data: 2634500960
I1025 11:38:27.302665 23485 layer_factory.hpp:77] Creating layer fc2_nose_drop2_nose_0_split
I1025 11:38:27.302675 23485 net.cpp:106] Creating Layer fc2_nose_drop2_nose_0_split
I1025 11:38:27.302678 23485 net.cpp:454] fc2_nose_drop2_nose_0_split <- fc2_nose
I1025 11:38:27.302685 23485 net.cpp:411] fc2_nose_drop2_nose_0_split -> fc2_nose_drop2_nose_0_split_0
I1025 11:38:27.302690 23485 net.cpp:411] fc2_nose_drop2_nose_0_split -> fc2_nose_drop2_nose_0_split_1
I1025 11:38:27.302697 23485 net.cpp:411] fc2_nose_drop2_nose_0_split -> fc2_nose_drop2_nose_0_split_2
I1025 11:38:27.302753 23485 net.cpp:150] Setting up fc2_nose_drop2_nose_0_split
I1025 11:38:27.302762 23485 net.cpp:157] Top shape: 70 1024 (71680)
I1025 11:38:27.302765 23485 net.cpp:157] Top shape: 70 1024 (71680)
I1025 11:38:27.302769 23485 net.cpp:157] Top shape: 70 1024 (71680)
I1025 11:38:27.302772 23485 net.cpp:165] Memory required for data: 2635361120
I1025 11:38:27.302777 23485 layer_factory.hpp:77] Creating layer conv3_mouth
I1025 11:38:27.302789 23485 net.cpp:106] Creating Layer conv3_mouth
I1025 11:38:27.302795 23485 net.cpp:454] conv3_mouth <- pool3_pool3_0_split_2
I1025 11:38:27.302804 23485 net.cpp:411] conv3_mouth -> conv3_mouth
I1025 11:38:27.319030 23485 net.cpp:150] Setting up conv3_mouth
I1025 11:38:27.319046 23485 net.cpp:157] Top shape: 70 512 7 7 (1756160)
I1025 11:38:27.319062 23485 net.cpp:165] Memory required for data: 2642385760
I1025 11:38:27.319099 23485 layer_factory.hpp:77] Creating layer conv3_mouth_bn
I1025 11:38:27.319109 23485 net.cpp:106] Creating Layer conv3_mouth_bn
I1025 11:38:27.319114 23485 net.cpp:454] conv3_mouth_bn <- conv3_mouth
I1025 11:38:27.319120 23485 net.cpp:397] conv3_mouth_bn -> conv3_mouth (in-place)
I1025 11:38:27.319324 23485 net.cpp:150] Setting up conv3_mouth_bn
I1025 11:38:27.319334 23485 net.cpp:157] Top shape: 70 512 7 7 (1756160)
I1025 11:38:27.319337 23485 net.cpp:165] Memory required for data: 2649410400
I1025 11:38:27.319346 23485 layer_factory.hpp:77] Creating layer conv3_mouth_scale
I1025 11:38:27.319356 23485 net.cpp:106] Creating Layer conv3_mouth_scale
I1025 11:38:27.319360 23485 net.cpp:454] conv3_mouth_scale <- conv3_mouth
I1025 11:38:27.319365 23485 net.cpp:397] conv3_mouth_scale -> conv3_mouth (in-place)
I1025 11:38:27.319411 23485 layer_factory.hpp:77] Creating layer conv3_mouth_scale
I1025 11:38:27.319533 23485 net.cpp:150] Setting up conv3_mouth_scale
I1025 11:38:27.319543 23485 net.cpp:157] Top shape: 70 512 7 7 (1756160)
I1025 11:38:27.319547 23485 net.cpp:165] Memory required for data: 2656435040
I1025 11:38:27.319553 23485 layer_factory.hpp:77] Creating layer prelu3_mouth
I1025 11:38:27.319562 23485 net.cpp:106] Creating Layer prelu3_mouth
I1025 11:38:27.319566 23485 net.cpp:454] prelu3_mouth <- conv3_mouth
I1025 11:38:27.319571 23485 net.cpp:397] prelu3_mouth -> conv3_mouth (in-place)
I1025 11:38:27.319687 23485 net.cpp:150] Setting up prelu3_mouth
I1025 11:38:27.319696 23485 net.cpp:157] Top shape: 70 512 7 7 (1756160)
I1025 11:38:27.319700 23485 net.cpp:165] Memory required for data: 2663459680
I1025 11:38:27.319705 23485 layer_factory.hpp:77] Creating layer pool3_mouth
I1025 11:38:27.319712 23485 net.cpp:106] Creating Layer pool3_mouth
I1025 11:38:27.319716 23485 net.cpp:454] pool3_mouth <- conv3_mouth
I1025 11:38:27.319723 23485 net.cpp:411] pool3_mouth -> pool3_mouth
I1025 11:38:27.319949 23485 net.cpp:150] Setting up pool3_mouth
I1025 11:38:27.319967 23485 net.cpp:157] Top shape: 70 512 4 4 (573440)
I1025 11:38:27.319970 23485 net.cpp:165] Memory required for data: 2665753440
I1025 11:38:27.319975 23485 layer_factory.hpp:77] Creating layer pool3_mouth_pool3_mouth_0_split
I1025 11:38:27.319982 23485 net.cpp:106] Creating Layer pool3_mouth_pool3_mouth_0_split
I1025 11:38:27.319996 23485 net.cpp:454] pool3_mouth_pool3_mouth_0_split <- pool3_mouth
I1025 11:38:27.320003 23485 net.cpp:411] pool3_mouth_pool3_mouth_0_split -> pool3_mouth_pool3_mouth_0_split_0
I1025 11:38:27.320010 23485 net.cpp:411] pool3_mouth_pool3_mouth_0_split -> pool3_mouth_pool3_mouth_0_split_1
I1025 11:38:27.320053 23485 net.cpp:150] Setting up pool3_mouth_pool3_mouth_0_split
I1025 11:38:27.320066 23485 net.cpp:157] Top shape: 70 512 4 4 (573440)
I1025 11:38:27.320070 23485 net.cpp:157] Top shape: 70 512 4 4 (573440)
I1025 11:38:27.320073 23485 net.cpp:165] Memory required for data: 2670340960
I1025 11:38:27.320077 23485 layer_factory.hpp:77] Creating layer fc1_mouth
I1025 11:38:27.320086 23485 net.cpp:106] Creating Layer fc1_mouth
I1025 11:38:27.320091 23485 net.cpp:454] fc1_mouth <- pool3_mouth_pool3_mouth_0_split_0
I1025 11:38:27.320098 23485 net.cpp:411] fc1_mouth -> fc1_mouth
I1025 11:38:27.386936 23485 net.cpp:150] Setting up fc1_mouth
I1025 11:38:27.386992 23485 net.cpp:157] Top shape: 70 1024 (71680)
I1025 11:38:27.386996 23485 net.cpp:165] Memory required for data: 2670627680
I1025 11:38:27.387008 23485 layer_factory.hpp:77] Creating layer relu1_mouth
I1025 11:38:27.387020 23485 net.cpp:106] Creating Layer relu1_mouth
I1025 11:38:27.387027 23485 net.cpp:454] relu1_mouth <- fc1_mouth
I1025 11:38:27.387034 23485 net.cpp:397] relu1_mouth -> fc1_mouth (in-place)
I1025 11:38:27.387526 23485 net.cpp:150] Setting up relu1_mouth
I1025 11:38:27.387552 23485 net.cpp:157] Top shape: 70 1024 (71680)
I1025 11:38:27.387557 23485 net.cpp:165] Memory required for data: 2670914400
I1025 11:38:27.387560 23485 layer_factory.hpp:77] Creating layer drop1_mouth
I1025 11:38:27.387568 23485 net.cpp:106] Creating Layer drop1_mouth
I1025 11:38:27.387573 23485 net.cpp:454] drop1_mouth <- fc1_mouth
I1025 11:38:27.387578 23485 net.cpp:397] drop1_mouth -> fc1_mouth (in-place)
I1025 11:38:27.387632 23485 net.cpp:150] Setting up drop1_mouth
I1025 11:38:27.387640 23485 net.cpp:157] Top shape: 70 1024 (71680)
I1025 11:38:27.387643 23485 net.cpp:165] Memory required for data: 2671201120
I1025 11:38:27.387648 23485 layer_factory.hpp:77] Creating layer fc2_mouth
I1025 11:38:27.387660 23485 net.cpp:106] Creating Layer fc2_mouth
I1025 11:38:27.387665 23485 net.cpp:454] fc2_mouth <- fc1_mouth
I1025 11:38:27.387670 23485 net.cpp:411] fc2_mouth -> fc2_mouth
I1025 11:38:27.396137 23485 net.cpp:150] Setting up fc2_mouth
I1025 11:38:27.396152 23485 net.cpp:157] Top shape: 70 1024 (71680)
I1025 11:38:27.396167 23485 net.cpp:165] Memory required for data: 2671487840
I1025 11:38:27.396173 23485 layer_factory.hpp:77] Creating layer relu2_mouth
I1025 11:38:27.396198 23485 net.cpp:106] Creating Layer relu2_mouth
I1025 11:38:27.396214 23485 net.cpp:454] relu2_mouth <- fc2_mouth
I1025 11:38:27.396219 23485 net.cpp:397] relu2_mouth -> fc2_mouth (in-place)
I1025 11:38:27.396399 23485 net.cpp:150] Setting up relu2_mouth
I1025 11:38:27.396411 23485 net.cpp:157] Top shape: 70 1024 (71680)
I1025 11:38:27.396415 23485 net.cpp:165] Memory required for data: 2671774560
I1025 11:38:27.396420 23485 layer_factory.hpp:77] Creating layer drop2_mouth
I1025 11:38:27.396427 23485 net.cpp:106] Creating Layer drop2_mouth
I1025 11:38:27.396431 23485 net.cpp:454] drop2_mouth <- fc2_mouth
I1025 11:38:27.396436 23485 net.cpp:397] drop2_mouth -> fc2_mouth (in-place)
I1025 11:38:27.396467 23485 net.cpp:150] Setting up drop2_mouth
I1025 11:38:27.396474 23485 net.cpp:157] Top shape: 70 1024 (71680)
I1025 11:38:27.396477 23485 net.cpp:165] Memory required for data: 2672061280
I1025 11:38:27.396481 23485 layer_factory.hpp:77] Creating layer fc2_mouth_drop2_mouth_0_split
I1025 11:38:27.396487 23485 net.cpp:106] Creating Layer fc2_mouth_drop2_mouth_0_split
I1025 11:38:27.396492 23485 net.cpp:454] fc2_mouth_drop2_mouth_0_split <- fc2_mouth
I1025 11:38:27.396499 23485 net.cpp:411] fc2_mouth_drop2_mouth_0_split -> fc2_mouth_drop2_mouth_0_split_0
I1025 11:38:27.396507 23485 net.cpp:411] fc2_mouth_drop2_mouth_0_split -> fc2_mouth_drop2_mouth_0_split_1
I1025 11:38:27.396512 23485 net.cpp:411] fc2_mouth_drop2_mouth_0_split -> fc2_mouth_drop2_mouth_0_split_2
I1025 11:38:27.396535 23485 net.cpp:411] fc2_mouth_drop2_mouth_0_split -> fc2_mouth_drop2_mouth_0_split_3
I1025 11:38:27.396543 23485 net.cpp:411] fc2_mouth_drop2_mouth_0_split -> fc2_mouth_drop2_mouth_0_split_4
I1025 11:38:27.396622 23485 net.cpp:150] Setting up fc2_mouth_drop2_mouth_0_split
I1025 11:38:27.396631 23485 net.cpp:157] Top shape: 70 1024 (71680)
I1025 11:38:27.396636 23485 net.cpp:157] Top shape: 70 1024 (71680)
I1025 11:38:27.396639 23485 net.cpp:157] Top shape: 70 1024 (71680)
I1025 11:38:27.396643 23485 net.cpp:157] Top shape: 70 1024 (71680)
I1025 11:38:27.396646 23485 net.cpp:157] Top shape: 70 1024 (71680)
I1025 11:38:27.396649 23485 net.cpp:165] Memory required for data: 2673494880
I1025 11:38:27.396654 23485 layer_factory.hpp:77] Creating layer conv3_eyes
I1025 11:38:27.396667 23485 net.cpp:106] Creating Layer conv3_eyes
I1025 11:38:27.396673 23485 net.cpp:454] conv3_eyes <- pool3_pool3_0_split_3
I1025 11:38:27.396682 23485 net.cpp:411] conv3_eyes -> conv3_eyes
I1025 11:38:27.411492 23485 net.cpp:150] Setting up conv3_eyes
I1025 11:38:27.411509 23485 net.cpp:157] Top shape: 70 512 7 7 (1756160)
I1025 11:38:27.411525 23485 net.cpp:165] Memory required for data: 2680519520
I1025 11:38:27.411532 23485 layer_factory.hpp:77] Creating layer conv3_eyes_bn
I1025 11:38:27.411543 23485 net.cpp:106] Creating Layer conv3_eyes_bn
I1025 11:38:27.411548 23485 net.cpp:454] conv3_eyes_bn <- conv3_eyes
I1025 11:38:27.411553 23485 net.cpp:397] conv3_eyes_bn -> conv3_eyes (in-place)
I1025 11:38:27.411764 23485 net.cpp:150] Setting up conv3_eyes_bn
I1025 11:38:27.411792 23485 net.cpp:157] Top shape: 70 512 7 7 (1756160)
I1025 11:38:27.411795 23485 net.cpp:165] Memory required for data: 2687544160
I1025 11:38:27.411803 23485 layer_factory.hpp:77] Creating layer conv3_eyes_scale
I1025 11:38:27.411813 23485 net.cpp:106] Creating Layer conv3_eyes_scale
I1025 11:38:27.411818 23485 net.cpp:454] conv3_eyes_scale <- conv3_eyes
I1025 11:38:27.411823 23485 net.cpp:397] conv3_eyes_scale -> conv3_eyes (in-place)
I1025 11:38:27.411869 23485 layer_factory.hpp:77] Creating layer conv3_eyes_scale
I1025 11:38:27.411996 23485 net.cpp:150] Setting up conv3_eyes_scale
I1025 11:38:27.412006 23485 net.cpp:157] Top shape: 70 512 7 7 (1756160)
I1025 11:38:27.412010 23485 net.cpp:165] Memory required for data: 2694568800
I1025 11:38:27.412016 23485 layer_factory.hpp:77] Creating layer prelu3_eyes
I1025 11:38:27.412029 23485 net.cpp:106] Creating Layer prelu3_eyes
I1025 11:38:27.412034 23485 net.cpp:454] prelu3_eyes <- conv3_eyes
I1025 11:38:27.412039 23485 net.cpp:397] prelu3_eyes -> conv3_eyes (in-place)
I1025 11:38:27.412158 23485 net.cpp:150] Setting up prelu3_eyes
I1025 11:38:27.412168 23485 net.cpp:157] Top shape: 70 512 7 7 (1756160)
I1025 11:38:27.412170 23485 net.cpp:165] Memory required for data: 2701593440
I1025 11:38:27.412175 23485 layer_factory.hpp:77] Creating layer pool3_eyes
I1025 11:38:27.412184 23485 net.cpp:106] Creating Layer pool3_eyes
I1025 11:38:27.412187 23485 net.cpp:454] pool3_eyes <- conv3_eyes
I1025 11:38:27.412194 23485 net.cpp:411] pool3_eyes -> pool3_eyes
I1025 11:38:27.412596 23485 net.cpp:150] Setting up pool3_eyes
I1025 11:38:27.412611 23485 net.cpp:157] Top shape: 70 512 4 4 (573440)
I1025 11:38:27.412626 23485 net.cpp:165] Memory required for data: 2703887200
I1025 11:38:27.412629 23485 layer_factory.hpp:77] Creating layer pool3_eyes_pool3_eyes_0_split
I1025 11:38:27.412634 23485 net.cpp:106] Creating Layer pool3_eyes_pool3_eyes_0_split
I1025 11:38:27.412639 23485 net.cpp:454] pool3_eyes_pool3_eyes_0_split <- pool3_eyes
I1025 11:38:27.412647 23485 net.cpp:411] pool3_eyes_pool3_eyes_0_split -> pool3_eyes_pool3_eyes_0_split_0
I1025 11:38:27.412653 23485 net.cpp:411] pool3_eyes_pool3_eyes_0_split -> pool3_eyes_pool3_eyes_0_split_1
I1025 11:38:27.412708 23485 net.cpp:150] Setting up pool3_eyes_pool3_eyes_0_split
I1025 11:38:27.412714 23485 net.cpp:157] Top shape: 70 512 4 4 (573440)
I1025 11:38:27.412717 23485 net.cpp:157] Top shape: 70 512 4 4 (573440)
I1025 11:38:27.412731 23485 net.cpp:165] Memory required for data: 2708474720
I1025 11:38:27.412735 23485 layer_factory.hpp:77] Creating layer fc1_eyes
I1025 11:38:27.412745 23485 net.cpp:106] Creating Layer fc1_eyes
I1025 11:38:27.412750 23485 net.cpp:454] fc1_eyes <- pool3_eyes_pool3_eyes_0_split_0
I1025 11:38:27.412757 23485 net.cpp:411] fc1_eyes -> fc1_eyes
I1025 11:38:27.481683 23485 net.cpp:150] Setting up fc1_eyes
I1025 11:38:27.481731 23485 net.cpp:157] Top shape: 70 1024 (71680)
I1025 11:38:27.481736 23485 net.cpp:165] Memory required for data: 2708761440
I1025 11:38:27.481747 23485 layer_factory.hpp:77] Creating layer relu1_eyes
I1025 11:38:27.481763 23485 net.cpp:106] Creating Layer relu1_eyes
I1025 11:38:27.481770 23485 net.cpp:454] relu1_eyes <- fc1_eyes
I1025 11:38:27.481777 23485 net.cpp:397] relu1_eyes -> fc1_eyes (in-place)
I1025 11:38:27.482031 23485 net.cpp:150] Setting up relu1_eyes
I1025 11:38:27.482043 23485 net.cpp:157] Top shape: 70 1024 (71680)
I1025 11:38:27.482046 23485 net.cpp:165] Memory required for data: 2709048160
I1025 11:38:27.482050 23485 layer_factory.hpp:77] Creating layer drop1_eyes
I1025 11:38:27.482060 23485 net.cpp:106] Creating Layer drop1_eyes
I1025 11:38:27.482065 23485 net.cpp:454] drop1_eyes <- fc1_eyes
I1025 11:38:27.482070 23485 net.cpp:397] drop1_eyes -> fc1_eyes (in-place)
I1025 11:38:27.482108 23485 net.cpp:150] Setting up drop1_eyes
I1025 11:38:27.482120 23485 net.cpp:157] Top shape: 70 1024 (71680)
I1025 11:38:27.482125 23485 net.cpp:165] Memory required for data: 2709334880
I1025 11:38:27.482127 23485 layer_factory.hpp:77] Creating layer fc2_eyes
I1025 11:38:27.482136 23485 net.cpp:106] Creating Layer fc2_eyes
I1025 11:38:27.482143 23485 net.cpp:454] fc2_eyes <- fc1_eyes
I1025 11:38:27.482148 23485 net.cpp:411] fc2_eyes -> fc2_eyes
I1025 11:38:27.490741 23485 net.cpp:150] Setting up fc2_eyes
I1025 11:38:27.490754 23485 net.cpp:157] Top shape: 70 1024 (71680)
I1025 11:38:27.490768 23485 net.cpp:165] Memory required for data: 2709621600
I1025 11:38:27.490775 23485 layer_factory.hpp:77] Creating layer relu2_eyes
I1025 11:38:27.490782 23485 net.cpp:106] Creating Layer relu2_eyes
I1025 11:38:27.490787 23485 net.cpp:454] relu2_eyes <- fc2_eyes
I1025 11:38:27.490793 23485 net.cpp:397] relu2_eyes -> fc2_eyes (in-place)
I1025 11:38:27.491163 23485 net.cpp:150] Setting up relu2_eyes
I1025 11:38:27.491189 23485 net.cpp:157] Top shape: 70 1024 (71680)
I1025 11:38:27.491192 23485 net.cpp:165] Memory required for data: 2709908320
I1025 11:38:27.491196 23485 layer_factory.hpp:77] Creating layer drop2_eyes
I1025 11:38:27.491215 23485 net.cpp:106] Creating Layer drop2_eyes
I1025 11:38:27.491219 23485 net.cpp:454] drop2_eyes <- fc2_eyes
I1025 11:38:27.491226 23485 net.cpp:397] drop2_eyes -> fc2_eyes (in-place)
I1025 11:38:27.491273 23485 net.cpp:150] Setting up drop2_eyes
I1025 11:38:27.491281 23485 net.cpp:157] Top shape: 70 1024 (71680)
I1025 11:38:27.491283 23485 net.cpp:165] Memory required for data: 2710195040
I1025 11:38:27.491287 23485 layer_factory.hpp:77] Creating layer fc2_eyes_drop2_eyes_0_split
I1025 11:38:27.491293 23485 net.cpp:106] Creating Layer fc2_eyes_drop2_eyes_0_split
I1025 11:38:27.491297 23485 net.cpp:454] fc2_eyes_drop2_eyes_0_split <- fc2_eyes
I1025 11:38:27.491305 23485 net.cpp:411] fc2_eyes_drop2_eyes_0_split -> fc2_eyes_drop2_eyes_0_split_0
I1025 11:38:27.491312 23485 net.cpp:411] fc2_eyes_drop2_eyes_0_split -> fc2_eyes_drop2_eyes_0_split_1
I1025 11:38:27.491319 23485 net.cpp:411] fc2_eyes_drop2_eyes_0_split -> fc2_eyes_drop2_eyes_0_split_2
I1025 11:38:27.491325 23485 net.cpp:411] fc2_eyes_drop2_eyes_0_split -> fc2_eyes_drop2_eyes_0_split_3
I1025 11:38:27.491330 23485 net.cpp:411] fc2_eyes_drop2_eyes_0_split -> fc2_eyes_drop2_eyes_0_split_4
I1025 11:38:27.491336 23485 net.cpp:411] fc2_eyes_drop2_eyes_0_split -> fc2_eyes_drop2_eyes_0_split_5
I1025 11:38:27.491431 23485 net.cpp:150] Setting up fc2_eyes_drop2_eyes_0_split
I1025 11:38:27.491439 23485 net.cpp:157] Top shape: 70 1024 (71680)
I1025 11:38:27.491444 23485 net.cpp:157] Top shape: 70 1024 (71680)
I1025 11:38:27.491463 23485 net.cpp:157] Top shape: 70 1024 (71680)
I1025 11:38:27.491468 23485 net.cpp:157] Top shape: 70 1024 (71680)
I1025 11:38:27.491472 23485 net.cpp:157] Top shape: 70 1024 (71680)
I1025 11:38:27.491475 23485 net.cpp:157] Top shape: 70 1024 (71680)
I1025 11:38:27.491479 23485 net.cpp:165] Memory required for data: 2711915360
I1025 11:38:27.491482 23485 layer_factory.hpp:77] Creating layer conv3_face
I1025 11:38:27.491497 23485 net.cpp:106] Creating Layer conv3_face
I1025 11:38:27.491503 23485 net.cpp:454] conv3_face <- pool3_pool3_0_split_4
I1025 11:38:27.491510 23485 net.cpp:411] conv3_face -> conv3_face
I1025 11:38:27.506428 23485 net.cpp:150] Setting up conv3_face
I1025 11:38:27.506454 23485 net.cpp:157] Top shape: 70 512 7 7 (1756160)
I1025 11:38:27.506458 23485 net.cpp:165] Memory required for data: 2718940000
I1025 11:38:27.506465 23485 layer_factory.hpp:77] Creating layer conv3_face_bn
I1025 11:38:27.506475 23485 net.cpp:106] Creating Layer conv3_face_bn
I1025 11:38:27.506480 23485 net.cpp:454] conv3_face_bn <- conv3_face
I1025 11:38:27.506485 23485 net.cpp:397] conv3_face_bn -> conv3_face (in-place)
I1025 11:38:27.506708 23485 net.cpp:150] Setting up conv3_face_bn
I1025 11:38:27.506718 23485 net.cpp:157] Top shape: 70 512 7 7 (1756160)
I1025 11:38:27.506722 23485 net.cpp:165] Memory required for data: 2725964640
I1025 11:38:27.506733 23485 layer_factory.hpp:77] Creating layer conv3_face_scale
I1025 11:38:27.506742 23485 net.cpp:106] Creating Layer conv3_face_scale
I1025 11:38:27.506745 23485 net.cpp:454] conv3_face_scale <- conv3_face
I1025 11:38:27.506752 23485 net.cpp:397] conv3_face_scale -> conv3_face (in-place)
I1025 11:38:27.506795 23485 layer_factory.hpp:77] Creating layer conv3_face_scale
I1025 11:38:27.506925 23485 net.cpp:150] Setting up conv3_face_scale
I1025 11:38:27.506934 23485 net.cpp:157] Top shape: 70 512 7 7 (1756160)
I1025 11:38:27.506938 23485 net.cpp:165] Memory required for data: 2732989280
I1025 11:38:27.506944 23485 layer_factory.hpp:77] Creating layer prelu3_face
I1025 11:38:27.506953 23485 net.cpp:106] Creating Layer prelu3_face
I1025 11:38:27.506956 23485 net.cpp:454] prelu3_face <- conv3_face
I1025 11:38:27.506963 23485 net.cpp:397] prelu3_face -> conv3_face (in-place)
I1025 11:38:27.507077 23485 net.cpp:150] Setting up prelu3_face
I1025 11:38:27.507086 23485 net.cpp:157] Top shape: 70 512 7 7 (1756160)
I1025 11:38:27.507091 23485 net.cpp:165] Memory required for data: 2740013920
I1025 11:38:27.507096 23485 layer_factory.hpp:77] Creating layer pool3_face
I1025 11:38:27.507102 23485 net.cpp:106] Creating Layer pool3_face
I1025 11:38:27.507105 23485 net.cpp:454] pool3_face <- conv3_face
I1025 11:38:27.507114 23485 net.cpp:411] pool3_face -> pool3_face
I1025 11:38:27.507495 23485 net.cpp:150] Setting up pool3_face
I1025 11:38:27.507509 23485 net.cpp:157] Top shape: 70 512 4 4 (573440)
I1025 11:38:27.507524 23485 net.cpp:165] Memory required for data: 2742307680
I1025 11:38:27.507527 23485 layer_factory.hpp:77] Creating layer pool3_face_pool3_face_0_split
I1025 11:38:27.507537 23485 net.cpp:106] Creating Layer pool3_face_pool3_face_0_split
I1025 11:38:27.507542 23485 net.cpp:454] pool3_face_pool3_face_0_split <- pool3_face
I1025 11:38:27.507549 23485 net.cpp:411] pool3_face_pool3_face_0_split -> pool3_face_pool3_face_0_split_0
I1025 11:38:27.507555 23485 net.cpp:411] pool3_face_pool3_face_0_split -> pool3_face_pool3_face_0_split_1
I1025 11:38:27.507609 23485 net.cpp:150] Setting up pool3_face_pool3_face_0_split
I1025 11:38:27.507616 23485 net.cpp:157] Top shape: 70 512 4 4 (573440)
I1025 11:38:27.507621 23485 net.cpp:157] Top shape: 70 512 4 4 (573440)
I1025 11:38:27.507623 23485 net.cpp:165] Memory required for data: 2746895200
I1025 11:38:27.507628 23485 layer_factory.hpp:77] Creating layer fc1_face
I1025 11:38:27.507637 23485 net.cpp:106] Creating Layer fc1_face
I1025 11:38:27.507642 23485 net.cpp:454] fc1_face <- pool3_face_pool3_face_0_split_0
I1025 11:38:27.507647 23485 net.cpp:411] fc1_face -> fc1_face
I1025 11:38:27.576436 23485 net.cpp:150] Setting up fc1_face
I1025 11:38:27.576506 23485 net.cpp:157] Top shape: 70 1024 (71680)
I1025 11:38:27.576511 23485 net.cpp:165] Memory required for data: 2747181920
I1025 11:38:27.576524 23485 layer_factory.hpp:77] Creating layer relu1_face
I1025 11:38:27.576536 23485 net.cpp:106] Creating Layer relu1_face
I1025 11:38:27.576542 23485 net.cpp:454] relu1_face <- fc1_face
I1025 11:38:27.576563 23485 net.cpp:397] relu1_face -> fc1_face (in-place)
I1025 11:38:27.576814 23485 net.cpp:150] Setting up relu1_face
I1025 11:38:27.576827 23485 net.cpp:157] Top shape: 70 1024 (71680)
I1025 11:38:27.576830 23485 net.cpp:165] Memory required for data: 2747468640
I1025 11:38:27.576834 23485 layer_factory.hpp:77] Creating layer drop1_face
I1025 11:38:27.576843 23485 net.cpp:106] Creating Layer drop1_face
I1025 11:38:27.576846 23485 net.cpp:454] drop1_face <- fc1_face
I1025 11:38:27.576851 23485 net.cpp:397] drop1_face -> fc1_face (in-place)
I1025 11:38:27.576889 23485 net.cpp:150] Setting up drop1_face
I1025 11:38:27.576902 23485 net.cpp:157] Top shape: 70 1024 (71680)
I1025 11:38:27.576905 23485 net.cpp:165] Memory required for data: 2747755360
I1025 11:38:27.576910 23485 layer_factory.hpp:77] Creating layer fc2_face
I1025 11:38:27.576921 23485 net.cpp:106] Creating Layer fc2_face
I1025 11:38:27.576926 23485 net.cpp:454] fc2_face <- fc1_face
I1025 11:38:27.576932 23485 net.cpp:411] fc2_face -> fc2_face
I1025 11:38:27.585950 23485 net.cpp:150] Setting up fc2_face
I1025 11:38:27.585965 23485 net.cpp:157] Top shape: 70 1024 (71680)
I1025 11:38:27.585980 23485 net.cpp:165] Memory required for data: 2748042080
I1025 11:38:27.585989 23485 layer_factory.hpp:77] Creating layer relu2_face
I1025 11:38:27.585997 23485 net.cpp:106] Creating Layer relu2_face
I1025 11:38:27.586004 23485 net.cpp:454] relu2_face <- fc2_face
I1025 11:38:27.586009 23485 net.cpp:397] relu2_face -> fc2_face (in-place)
I1025 11:38:27.586385 23485 net.cpp:150] Setting up relu2_face
I1025 11:38:27.586410 23485 net.cpp:157] Top shape: 70 1024 (71680)
I1025 11:38:27.586424 23485 net.cpp:165] Memory required for data: 2748328800
I1025 11:38:27.586428 23485 layer_factory.hpp:77] Creating layer drop2_face
I1025 11:38:27.586436 23485 net.cpp:106] Creating Layer drop2_face
I1025 11:38:27.586441 23485 net.cpp:454] drop2_face <- fc2_face
I1025 11:38:27.586447 23485 net.cpp:397] drop2_face -> fc2_face (in-place)
I1025 11:38:27.586493 23485 net.cpp:150] Setting up drop2_face
I1025 11:38:27.586499 23485 net.cpp:157] Top shape: 70 1024 (71680)
I1025 11:38:27.586503 23485 net.cpp:165] Memory required for data: 2748615520
I1025 11:38:27.586506 23485 layer_factory.hpp:77] Creating layer fc2_face_drop2_face_0_split
I1025 11:38:27.586514 23485 net.cpp:106] Creating Layer fc2_face_drop2_face_0_split
I1025 11:38:27.586519 23485 net.cpp:454] fc2_face_drop2_face_0_split <- fc2_face
I1025 11:38:27.586527 23485 net.cpp:411] fc2_face_drop2_face_0_split -> fc2_face_drop2_face_0_split_0
I1025 11:38:27.586535 23485 net.cpp:411] fc2_face_drop2_face_0_split -> fc2_face_drop2_face_0_split_1
I1025 11:38:27.586541 23485 net.cpp:411] fc2_face_drop2_face_0_split -> fc2_face_drop2_face_0_split_2
I1025 11:38:27.586550 23485 net.cpp:411] fc2_face_drop2_face_0_split -> fc2_face_drop2_face_0_split_3
I1025 11:38:27.586555 23485 net.cpp:411] fc2_face_drop2_face_0_split -> fc2_face_drop2_face_0_split_4
I1025 11:38:27.586561 23485 net.cpp:411] fc2_face_drop2_face_0_split -> fc2_face_drop2_face_0_split_5
I1025 11:38:27.586567 23485 net.cpp:411] fc2_face_drop2_face_0_split -> fc2_face_drop2_face_0_split_6
I1025 11:38:27.586676 23485 net.cpp:150] Setting up fc2_face_drop2_face_0_split
I1025 11:38:27.586685 23485 net.cpp:157] Top shape: 70 1024 (71680)
I1025 11:38:27.586689 23485 net.cpp:157] Top shape: 70 1024 (71680)
I1025 11:38:27.586694 23485 net.cpp:157] Top shape: 70 1024 (71680)
I1025 11:38:27.586697 23485 net.cpp:157] Top shape: 70 1024 (71680)
I1025 11:38:27.586700 23485 net.cpp:157] Top shape: 70 1024 (71680)
I1025 11:38:27.586704 23485 net.cpp:157] Top shape: 70 1024 (71680)
I1025 11:38:27.586709 23485 net.cpp:157] Top shape: 70 1024 (71680)
I1025 11:38:27.586724 23485 net.cpp:165] Memory required for data: 2750622560
I1025 11:38:27.586727 23485 layer_factory.hpp:77] Creating layer conv3_rest
I1025 11:38:27.586740 23485 net.cpp:106] Creating Layer conv3_rest
I1025 11:38:27.586746 23485 net.cpp:454] conv3_rest <- pool3_pool3_0_split_5
I1025 11:38:27.586755 23485 net.cpp:411] conv3_rest -> conv3_rest
I1025 11:38:27.602748 23485 net.cpp:150] Setting up conv3_rest
I1025 11:38:27.602776 23485 net.cpp:157] Top shape: 70 512 7 7 (1756160)
I1025 11:38:27.602780 23485 net.cpp:165] Memory required for data: 2757647200
I1025 11:38:27.602788 23485 layer_factory.hpp:77] Creating layer conv3_rest_bn
I1025 11:38:27.602799 23485 net.cpp:106] Creating Layer conv3_rest_bn
I1025 11:38:27.602805 23485 net.cpp:454] conv3_rest_bn <- conv3_rest
I1025 11:38:27.602810 23485 net.cpp:397] conv3_rest_bn -> conv3_rest (in-place)
I1025 11:38:27.603040 23485 net.cpp:150] Setting up conv3_rest_bn
I1025 11:38:27.603050 23485 net.cpp:157] Top shape: 70 512 7 7 (1756160)
I1025 11:38:27.603055 23485 net.cpp:165] Memory required for data: 2764671840
I1025 11:38:27.603062 23485 layer_factory.hpp:77] Creating layer conv3_rest_scale
I1025 11:38:27.603072 23485 net.cpp:106] Creating Layer conv3_rest_scale
I1025 11:38:27.603076 23485 net.cpp:454] conv3_rest_scale <- conv3_rest
I1025 11:38:27.603081 23485 net.cpp:397] conv3_rest_scale -> conv3_rest (in-place)
I1025 11:38:27.603128 23485 layer_factory.hpp:77] Creating layer conv3_rest_scale
I1025 11:38:27.603263 23485 net.cpp:150] Setting up conv3_rest_scale
I1025 11:38:27.603273 23485 net.cpp:157] Top shape: 70 512 7 7 (1756160)
I1025 11:38:27.603276 23485 net.cpp:165] Memory required for data: 2771696480
I1025 11:38:27.603283 23485 layer_factory.hpp:77] Creating layer prelu3_rest
I1025 11:38:27.603291 23485 net.cpp:106] Creating Layer prelu3_rest
I1025 11:38:27.603296 23485 net.cpp:454] prelu3_rest <- conv3_rest
I1025 11:38:27.603301 23485 net.cpp:397] prelu3_rest -> conv3_rest (in-place)
I1025 11:38:27.603423 23485 net.cpp:150] Setting up prelu3_rest
I1025 11:38:27.603432 23485 net.cpp:157] Top shape: 70 512 7 7 (1756160)
I1025 11:38:27.603436 23485 net.cpp:165] Memory required for data: 2778721120
I1025 11:38:27.603441 23485 layer_factory.hpp:77] Creating layer pool3_rest
I1025 11:38:27.603449 23485 net.cpp:106] Creating Layer pool3_rest
I1025 11:38:27.603453 23485 net.cpp:454] pool3_rest <- conv3_rest
I1025 11:38:27.603461 23485 net.cpp:411] pool3_rest -> pool3_rest
I1025 11:38:27.603682 23485 net.cpp:150] Setting up pool3_rest
I1025 11:38:27.603694 23485 net.cpp:157] Top shape: 70 512 4 4 (573440)
I1025 11:38:27.603698 23485 net.cpp:165] Memory required for data: 2781014880
I1025 11:38:27.603703 23485 layer_factory.hpp:77] Creating layer pool3_rest_pool3_rest_0_split
I1025 11:38:27.603711 23485 net.cpp:106] Creating Layer pool3_rest_pool3_rest_0_split
I1025 11:38:27.603715 23485 net.cpp:454] pool3_rest_pool3_rest_0_split <- pool3_rest
I1025 11:38:27.603721 23485 net.cpp:411] pool3_rest_pool3_rest_0_split -> pool3_rest_pool3_rest_0_split_0
I1025 11:38:27.603727 23485 net.cpp:411] pool3_rest_pool3_rest_0_split -> pool3_rest_pool3_rest_0_split_1
I1025 11:38:27.603734 23485 net.cpp:411] pool3_rest_pool3_rest_0_split -> pool3_rest_pool3_rest_0_split_2
I1025 11:38:27.603739 23485 net.cpp:411] pool3_rest_pool3_rest_0_split -> pool3_rest_pool3_rest_0_split_3
I1025 11:38:27.603745 23485 net.cpp:411] pool3_rest_pool3_rest_0_split -> pool3_rest_pool3_rest_0_split_4
I1025 11:38:27.603833 23485 net.cpp:150] Setting up pool3_rest_pool3_rest_0_split
I1025 11:38:27.603842 23485 net.cpp:157] Top shape: 70 512 4 4 (573440)
I1025 11:38:27.603847 23485 net.cpp:157] Top shape: 70 512 4 4 (573440)
I1025 11:38:27.603852 23485 net.cpp:157] Top shape: 70 512 4 4 (573440)
I1025 11:38:27.603855 23485 net.cpp:157] Top shape: 70 512 4 4 (573440)
I1025 11:38:27.603858 23485 net.cpp:157] Top shape: 70 512 4 4 (573440)
I1025 11:38:27.603863 23485 net.cpp:165] Memory required for data: 2792483680
I1025 11:38:27.603865 23485 layer_factory.hpp:77] Creating layer fc1_aroundhead
I1025 11:38:27.603886 23485 net.cpp:106] Creating Layer fc1_aroundhead
I1025 11:38:27.603893 23485 net.cpp:454] fc1_aroundhead <- pool3_rest_pool3_rest_0_split_0
I1025 11:38:27.603899 23485 net.cpp:411] fc1_aroundhead -> fc1_aroundhead
I1025 11:38:27.672472 23485 net.cpp:150] Setting up fc1_aroundhead
I1025 11:38:27.672535 23485 net.cpp:157] Top shape: 70 1024 (71680)
I1025 11:38:27.672540 23485 net.cpp:165] Memory required for data: 2792770400
I1025 11:38:27.672564 23485 layer_factory.hpp:77] Creating layer relu1_aroundhead
I1025 11:38:27.672576 23485 net.cpp:106] Creating Layer relu1_aroundhead
I1025 11:38:27.672595 23485 net.cpp:454] relu1_aroundhead <- fc1_aroundhead
I1025 11:38:27.672603 23485 net.cpp:397] relu1_aroundhead -> fc1_aroundhead (in-place)
I1025 11:38:27.673354 23485 net.cpp:150] Setting up relu1_aroundhead
I1025 11:38:27.673368 23485 net.cpp:157] Top shape: 70 1024 (71680)
I1025 11:38:27.673383 23485 net.cpp:165] Memory required for data: 2793057120
I1025 11:38:27.673388 23485 layer_factory.hpp:77] Creating layer drop1_aroundhead
I1025 11:38:27.673400 23485 net.cpp:106] Creating Layer drop1_aroundhead
I1025 11:38:27.673405 23485 net.cpp:454] drop1_aroundhead <- fc1_aroundhead
I1025 11:38:27.673410 23485 net.cpp:397] drop1_aroundhead -> fc1_aroundhead (in-place)
I1025 11:38:27.673462 23485 net.cpp:150] Setting up drop1_aroundhead
I1025 11:38:27.673468 23485 net.cpp:157] Top shape: 70 1024 (71680)
I1025 11:38:27.673471 23485 net.cpp:165] Memory required for data: 2793343840
I1025 11:38:27.673476 23485 layer_factory.hpp:77] Creating layer fc2_aroundhead
I1025 11:38:27.673487 23485 net.cpp:106] Creating Layer fc2_aroundhead
I1025 11:38:27.673491 23485 net.cpp:454] fc2_aroundhead <- fc1_aroundhead
I1025 11:38:27.673501 23485 net.cpp:411] fc2_aroundhead -> fc2_aroundhead
I1025 11:38:27.681982 23485 net.cpp:150] Setting up fc2_aroundhead
I1025 11:38:27.681995 23485 net.cpp:157] Top shape: 70 1024 (71680)
I1025 11:38:27.682010 23485 net.cpp:165] Memory required for data: 2793630560
I1025 11:38:27.682018 23485 layer_factory.hpp:77] Creating layer relu2_aroundhead
I1025 11:38:27.682024 23485 net.cpp:106] Creating Layer relu2_aroundhead
I1025 11:38:27.682029 23485 net.cpp:454] relu2_aroundhead <- fc2_aroundhead
I1025 11:38:27.682035 23485 net.cpp:397] relu2_aroundhead -> fc2_aroundhead (in-place)
I1025 11:38:27.682235 23485 net.cpp:150] Setting up relu2_aroundhead
I1025 11:38:27.682247 23485 net.cpp:157] Top shape: 70 1024 (71680)
I1025 11:38:27.682251 23485 net.cpp:165] Memory required for data: 2793917280
I1025 11:38:27.682255 23485 layer_factory.hpp:77] Creating layer drop2_aroundhead
I1025 11:38:27.682263 23485 net.cpp:106] Creating Layer drop2_aroundhead
I1025 11:38:27.682268 23485 net.cpp:454] drop2_aroundhead <- fc2_aroundhead
I1025 11:38:27.682273 23485 net.cpp:397] drop2_aroundhead -> fc2_aroundhead (in-place)
I1025 11:38:27.682308 23485 net.cpp:150] Setting up drop2_aroundhead
I1025 11:38:27.682323 23485 net.cpp:157] Top shape: 70 1024 (71680)
I1025 11:38:27.682327 23485 net.cpp:165] Memory required for data: 2794204000
I1025 11:38:27.682330 23485 layer_factory.hpp:77] Creating layer fc2_aroundhead_drop2_aroundhead_0_split
I1025 11:38:27.682341 23485 net.cpp:106] Creating Layer fc2_aroundhead_drop2_aroundhead_0_split
I1025 11:38:27.682345 23485 net.cpp:454] fc2_aroundhead_drop2_aroundhead_0_split <- fc2_aroundhead
I1025 11:38:27.682351 23485 net.cpp:411] fc2_aroundhead_drop2_aroundhead_0_split -> fc2_aroundhead_drop2_aroundhead_0_split_0
…
I1025 11:38:27.682458 23485 net.cpp:411] fc2_aroundhead_drop2_aroundhead_0_split -> fc2_aroundhead_drop2_aroundhead_0_split_10
I1025 11:38:27.682464 23485 net.cpp:411] fc2_aroundhead_drop2_aroundhead_0_split -> fc2_aroundhead_drop2_aroundhead_0_split_11
I1025 11:38:27.682471 23485 net.cpp:411] fc2_aroundhead_drop2_aroundhead_0_split -> fc2_aroundhead_drop2_aroundhead_0_split_12
I1025 11:38:27.682476 23485 net.cpp:411] fc2_aroundhead_drop2_aroundhead_0_split -> fc2_aroundhead_drop2_aroundhead_0_split_13
I1025 11:38:27.682668 23485 net.cpp:150] Setting up fc2_aroundhead_drop2_aroundhead_0_split
I1025 11:38:27.682678 23485 net.cpp:157] Top shape: 70 1024 (71680)
I1025 11:38:27.682682 23485 net.cpp:157] Top shape: 70 1024 (71680)
I1025 11:38:27.682687 23485 net.cpp:157] Top shape: 70 1024 (71680)
I1025 11:38:27.682689 23485 net.cpp:157] Top shape: 70 1024 (71680)
I1025 11:38:27.682693 23485 net.cpp:157] Top shape: 70 1024 (71680)
I1025 11:38:27.682698 23485 net.cpp:157] Top shape: 70 1024 (71680)
I1025 11:38:27.682701 23485 net.cpp:157] Top shape: 70 1024 (71680)
I1025 11:38:27.682705 23485 net.cpp:157] Top shape: 70 1024 (71680)
I1025 11:38:27.682709 23485 net.cpp:157] Top shape: 70 1024 (71680)
I1025 11:38:27.682713 23485 net.cpp:157] Top shape: 70 1024 (71680)
I1025 11:38:27.682716 23485 net.cpp:157] Top shape: 70 1024 (71680)
I1025 11:38:27.682719 23485 net.cpp:157] Top shape: 70 1024 (71680)
I1025 11:38:27.682723 23485 net.cpp:157] Top shape: 70 1024 (71680)
I1025 11:38:27.682728 23485 net.cpp:157] Top shape: 70 1024 (71680)
I1025 11:38:27.682730 23485 net.cpp:165] Memory required for data: 2798218080
I1025 11:38:27.682734 23485 layer_factory.hpp:77] Creating layer fc1_facialhair
I1025 11:38:27.682740 23485 net.cpp:106] Creating Layer fc1_facialhair
I1025 11:38:27.682745 23485 net.cpp:454] fc1_facialhair <- pool3_rest_pool3_rest_0_split_1
I1025 11:38:27.682754 23485 net.cpp:411] fc1_facialhair -> fc1_facialhair
I1025 11:38:27.751189 23485 net.cpp:150] Setting up fc1_facialhair
I1025 11:38:27.751240 23485 net.cpp:157] Top shape: 70 1024 (71680)
I1025 11:38:27.751245 23485 net.cpp:165] Memory required for data: 2798504800
I1025 11:38:27.751255 23485 layer_factory.hpp:77] Creating layer relu1_facialhair
I1025 11:38:27.751271 23485 net.cpp:106] Creating Layer relu1_facialhair
I1025 11:38:27.751277 23485 net.cpp:454] relu1_facialhair <- fc1_facialhair
I1025 11:38:27.751284 23485 net.cpp:397] relu1_facialhair -> fc1_facialhair (in-place)
I1025 11:38:27.751821 23485 net.cpp:150] Setting up relu1_facialhair
I1025 11:38:27.751834 23485 net.cpp:157] Top shape: 70 1024 (71680)
I1025 11:38:27.751849 23485 net.cpp:165] Memory required for data: 2798791520
I1025 11:38:27.751853 23485 layer_factory.hpp:77] Creating layer drop1_facialhair
I1025 11:38:27.751865 23485 net.cpp:106] Creating Layer drop1_facialhair
I1025 11:38:27.751870 23485 net.cpp:454] drop1_facialhair <- fc1_facialhair
I1025 11:38:27.751876 23485 net.cpp:397] drop1_facialhair -> fc1_facialhair (in-place)
I1025 11:38:27.751929 23485 net.cpp:150] Setting up drop1_facialhair
I1025 11:38:27.751936 23485 net.cpp:157] Top shape: 70 1024 (71680)
I1025 11:38:27.751940 23485 net.cpp:165] Memory required for data: 2799078240
I1025 11:38:27.751943 23485 layer_factory.hpp:77] Creating layer fc2_facialhair
I1025 11:38:27.751956 23485 net.cpp:106] Creating Layer fc2_facialhair
I1025 11:38:27.751960 23485 net.cpp:454] fc2_facialhair <- fc1_facialhair
I1025 11:38:27.751967 23485 net.cpp:411] fc2_facialhair -> fc2_facialhair
I1025 11:38:27.760576 23485 net.cpp:150] Setting up fc2_facialhair
I1025 11:38:27.760589 23485 net.cpp:157] Top shape: 70 1024 (71680)
I1025 11:38:27.760604 23485 net.cpp:165] Memory required for data: 2799364960
I1025 11:38:27.760612 23485 layer_factory.hpp:77] Creating layer relu2_facialhair
I1025 11:38:27.760619 23485 net.cpp:106] Creating Layer relu2_facialhair
I1025 11:38:27.760623 23485 net.cpp:454] relu2_facialhair <- fc2_facialhair
I1025 11:38:27.760630 23485 net.cpp:397] relu2_facialhair -> fc2_facialhair (in-place)
I1025 11:38:27.760830 23485 net.cpp:150] Setting up relu2_facialhair
I1025 11:38:27.760843 23485 net.cpp:157] Top shape: 70 1024 (71680)
I1025 11:38:27.760848 23485 net.cpp:165] Memory required for data: 2799651680
I1025 11:38:27.760850 23485 layer_factory.hpp:77] Creating layer drop2_facialhair
I1025 11:38:27.760857 23485 net.cpp:106] Creating Layer drop2_facialhair
I1025 11:38:27.760862 23485 net.cpp:454] drop2_facialhair <- fc2_facialhair
I1025 11:38:27.760866 23485 net.cpp:397] drop2_facialhair -> fc2_facialhair (in-place)
I1025 11:38:27.760900 23485 net.cpp:150] Setting up drop2_facialhair
I1025 11:38:27.760906 23485 net.cpp:157] Top shape: 70 1024 (71680)
I1025 11:38:27.760910 23485 net.cpp:165] Memory required for data: 2799938400
I1025 11:38:27.760913 23485 layer_factory.hpp:77] Creating layer fc2_facialhair_drop2_facialhair_0_split
I1025 11:38:27.760922 23485 net.cpp:106] Creating Layer fc2_facialhair_drop2_facialhair_0_split
I1025 11:38:27.760926 23485 net.cpp:454] fc2_facialhair_drop2_facialhair_0_split <- fc2_facialhair
I1025 11:38:27.760932 23485 net.cpp:411] fc2_facialhair_drop2_facialhair_0_split -> fc2_facialhair_drop2_facialhair_0_split_0
I1025 11:38:27.760939 23485 net.cpp:411] fc2_facialhair_drop2_facialhair_0_split -> fc2_facialhair_drop2_facialhair_0_split_1
I1025 11:38:27.760946 23485 net.cpp:411] fc2_facialhair_drop2_facialhair_0_split -> fc2_facialhair_drop2_facialhair_0_split_2
I1025 11:38:27.760952 23485 net.cpp:411] fc2_facialhair_drop2_facialhair_0_split -> fc2_facialhair_drop2_facialhair_0_split_3
I1025 11:38:27.760959 23485 net.cpp:411] fc2_facialhair_drop2_facialhair_0_split -> fc2_facialhair_drop2_facialhair_0_split_4
I1025 11:38:27.760965 23485 net.cpp:411] fc2_facialhair_drop2_facialhair_0_split -> fc2_facialhair_drop2_facialhair_0_split_5
I1025 11:38:27.761061 23485 net.cpp:150] Setting up fc2_facialhair_drop2_facialhair_0_split
I1025 11:38:27.761070 23485 net.cpp:157] Top shape: 70 1024 (71680)
I1025 11:38:27.761075 23485 net.cpp:157] Top shape: 70 1024 (71680)
I1025 11:38:27.761078 23485 net.cpp:157] Top shape: 70 1024 (71680)
I1025 11:38:27.761081 23485 net.cpp:157] Top shape: 70 1024 (71680)
I1025 11:38:27.761085 23485 net.cpp:157] Top shape: 70 1024 (71680)
I1025 11:38:27.761090 23485 net.cpp:157] Top shape: 70 1024 (71680)
I1025 11:38:27.761092 23485 net.cpp:165] Memory required for data: 2801658720
I1025 11:38:27.761096 23485 layer_factory.hpp:77] Creating layer fc1_cheeks
I1025 11:38:27.761103 23485 net.cpp:106] Creating Layer fc1_cheeks
I1025 11:38:27.761108 23485 net.cpp:454] fc1_cheeks <- pool3_rest_pool3_rest_0_split_2
I1025 11:38:27.761116 23485 net.cpp:411] fc1_cheeks -> fc1_cheeks
I1025 11:38:27.831472 23485 net.cpp:150] Setting up fc1_cheeks
I1025 11:38:27.831516 23485 net.cpp:157] Top shape: 70 1024 (71680)
I1025 11:38:27.831521 23485 net.cpp:165] Memory required for data: 2801945440
I1025 11:38:27.831531 23485 layer_factory.hpp:77] Creating layer relu1_cheeks
I1025 11:38:27.831549 23485 net.cpp:106] Creating Layer relu1_cheeks
I1025 11:38:27.831557 23485 net.cpp:454] relu1_cheeks <- fc1_cheeks
I1025 11:38:27.831564 23485 net.cpp:397] relu1_cheeks -> fc1_cheeks (in-place)
I1025 11:38:27.832049 23485 net.cpp:150] Setting up relu1_cheeks
I1025 11:38:27.832063 23485 net.cpp:157] Top shape: 70 1024 (71680)
I1025 11:38:27.832067 23485 net.cpp:165] Memory required for data: 2802232160
I1025 11:38:27.832072 23485 layer_factory.hpp:77] Creating layer drop1_cheeks
I1025 11:38:27.832082 23485 net.cpp:106] Creating Layer drop1_cheeks
I1025 11:38:27.832103 23485 net.cpp:454] drop1_cheeks <- fc1_cheeks
I1025 11:38:27.832109 23485 net.cpp:397] drop1_cheeks -> fc1_cheeks (in-place)
I1025 11:38:27.832152 23485 net.cpp:150] Setting up drop1_cheeks
I1025 11:38:27.832159 23485 net.cpp:157] Top shape: 70 1024 (71680)
I1025 11:38:27.832164 23485 net.cpp:165] Memory required for data: 2802518880
I1025 11:38:27.832166 23485 layer_factory.hpp:77] Creating layer fc2_cheeks
I1025 11:38:27.832178 23485 net.cpp:106] Creating Layer fc2_cheeks
I1025 11:38:27.832183 23485 net.cpp:454] fc2_cheeks <- fc1_cheeks
I1025 11:38:27.832190 23485 net.cpp:411] fc2_cheeks -> fc2_cheeks
I1025 11:38:27.841256 23485 net.cpp:150] Setting up fc2_cheeks
I1025 11:38:27.841270 23485 net.cpp:157] Top shape: 70 1024 (71680)
I1025 11:38:27.841285 23485 net.cpp:165] Memory required for data: 2802805600
I1025 11:38:27.841292 23485 layer_factory.hpp:77] Creating layer relu2_cheeks
I1025 11:38:27.841300 23485 net.cpp:106] Creating Layer relu2_cheeks
I1025 11:38:27.841305 23485 net.cpp:454] relu2_cheeks <- fc2_cheeks
I1025 11:38:27.841311 23485 net.cpp:397] relu2_cheeks -> fc2_cheeks (in-place)
I1025 11:38:27.841655 23485 net.cpp:150] Setting up relu2_cheeks
I1025 11:38:27.841681 23485 net.cpp:157] Top shape: 70 1024 (71680)
I1025 11:38:27.841696 23485 net.cpp:165] Memory required for data: 2803092320
I1025 11:38:27.841701 23485 layer_factory.hpp:77] Creating layer drop2_cheeks
I1025 11:38:27.841719 23485 net.cpp:106] Creating Layer drop2_cheeks
I1025 11:38:27.841724 23485 net.cpp:454] drop2_cheeks <- fc2_cheeks
I1025 11:38:27.841730 23485 net.cpp:397] drop2_cheeks -> fc2_cheeks (in-place)
I1025 11:38:27.841779 23485 net.cpp:150] Setting up drop2_cheeks
I1025 11:38:27.841786 23485 net.cpp:157] Top shape: 70 1024 (71680)
I1025 11:38:27.841789 23485 net.cpp:165] Memory required for data: 2803379040
I1025 11:38:27.841792 23485 layer_factory.hpp:77] Creating layer fc2_cheeks_drop2_cheeks_0_split
I1025 11:38:27.841799 23485 net.cpp:106] Creating Layer fc2_cheeks_drop2_cheeks_0_split
I1025 11:38:27.841804 23485 net.cpp:454] fc2_cheeks_drop2_cheeks_0_split <- fc2_cheeks
I1025 11:38:27.841810 23485 net.cpp:411] fc2_cheeks_drop2_cheeks_0_split -> fc2_cheeks_drop2_cheeks_0_split_0
I1025 11:38:27.841817 23485 net.cpp:411] fc2_cheeks_drop2_cheeks_0_split -> fc2_cheeks_drop2_cheeks_0_split_1
I1025 11:38:27.841825 23485 net.cpp:411] fc2_cheeks_drop2_cheeks_0_split -> fc2_cheeks_drop2_cheeks_0_split_2
I1025 11:38:27.841884 23485 net.cpp:150] Setting up fc2_cheeks_drop2_cheeks_0_split
I1025 11:38:27.841894 23485 net.cpp:157] Top shape: 70 1024 (71680)
I1025 11:38:27.841899 23485 net.cpp:157] Top shape: 70 1024 (71680)
I1025 11:38:27.841902 23485 net.cpp:157] Top shape: 70 1024 (71680)
I1025 11:38:27.841905 23485 net.cpp:165] Memory required for data: 2804239200
I1025 11:38:27.841909 23485 layer_factory.hpp:77] Creating layer fc1_fat
I1025 11:38:27.841917 23485 net.cpp:106] Creating Layer fc1_fat
I1025 11:38:27.841922 23485 net.cpp:454] fc1_fat <- pool3_rest_pool3_rest_0_split_3
I1025 11:38:27.841930 23485 net.cpp:411] fc1_fat -> fc1_fat
I1025 11:38:27.914093 23485 net.cpp:150] Setting up fc1_fat
I1025 11:38:27.914136 23485 net.cpp:157] Top shape: 70 1024 (71680)
I1025 11:38:27.914140 23485 net.cpp:165] Memory required for data: 2804525920
I1025 11:38:27.914150 23485 layer_factory.hpp:77] Creating layer relu1_fat
I1025 11:38:27.914165 23485 net.cpp:106] Creating Layer relu1_fat
I1025 11:38:27.914171 23485 net.cpp:454] relu1_fat <- fc1_fat
I1025 11:38:27.914181 23485 net.cpp:397] relu1_fat -> fc1_fat (in-place)
I1025 11:38:27.914458 23485 net.cpp:150] Setting up relu1_fat
I1025 11:38:27.914470 23485 net.cpp:157] Top shape: 70 1024 (71680)
I1025 11:38:27.914474 23485 net.cpp:165] Memory required for data: 2804812640
I1025 11:38:27.914479 23485 layer_factory.hpp:77] Creating layer drop1_fat
I1025 11:38:27.914486 23485 net.cpp:106] Creating Layer drop1_fat
I1025 11:38:27.914490 23485 net.cpp:454] drop1_fat <- fc1_fat
I1025 11:38:27.914495 23485 net.cpp:397] drop1_fat -> fc1_fat (in-place)
I1025 11:38:27.914535 23485 net.cpp:150] Setting up drop1_fat
I1025 11:38:27.914558 23485 net.cpp:157] Top shape: 70 1024 (71680)
I1025 11:38:27.914563 23485 net.cpp:165] Memory required for data: 2805099360
I1025 11:38:27.914566 23485 layer_factory.hpp:77] Creating layer fc2_fat
I1025 11:38:27.914577 23485 net.cpp:106] Creating Layer fc2_fat
I1025 11:38:27.914582 23485 net.cpp:454] fc2_fat <- fc1_fat
I1025 11:38:27.914590 23485 net.cpp:411] fc2_fat -> fc2_fat
I1025 11:38:27.923663 23485 net.cpp:150] Setting up fc2_fat
I1025 11:38:27.923678 23485 net.cpp:157] Top shape: 70 1024 (71680)
I1025 11:38:27.923693 23485 net.cpp:165] Memory required for data: 2805386080
I1025 11:38:27.923699 23485 layer_factory.hpp:77] Creating layer relu2_fat
I1025 11:38:27.923707 23485 net.cpp:106] Creating Layer relu2_fat
I1025 11:38:27.923710 23485 net.cpp:454] relu2_fat <- fc2_fat
I1025 11:38:27.923718 23485 net.cpp:397] relu2_fat -> fc2_fat (in-place)
I1025 11:38:27.924091 23485 net.cpp:150] Setting up relu2_fat
I1025 11:38:27.924106 23485 net.cpp:157] Top shape: 70 1024 (71680)
I1025 11:38:27.924110 23485 net.cpp:165] Memory required for data: 2805672800
I1025 11:38:27.924115 23485 layer_factory.hpp:77] Creating layer drop2_fat
I1025 11:38:27.924135 23485 net.cpp:106] Creating Layer drop2_fat
I1025 11:38:27.924140 23485 net.cpp:454] drop2_fat <- fc2_fat
I1025 11:38:27.924145 23485 net.cpp:397] drop2_fat -> fc2_fat (in-place)
I1025 11:38:27.924190 23485 net.cpp:150] Setting up drop2_fat
I1025 11:38:27.924196 23485 net.cpp:157] Top shape: 70 1024 (71680)
I1025 11:38:27.924199 23485 net.cpp:165] Memory required for data: 2805959520
I1025 11:38:27.924202 23485 layer_factory.hpp:77] Creating layer fc2_fat_drop2_fat_0_split
I1025 11:38:27.924211 23485 net.cpp:106] Creating Layer fc2_fat_drop2_fat_0_split
I1025 11:38:27.924216 23485 net.cpp:454] fc2_fat_drop2_fat_0_split <- fc2_fat
I1025 11:38:27.924224 23485 net.cpp:411] fc2_fat_drop2_fat_0_split -> fc2_fat_drop2_fat_0_split_0
I1025 11:38:27.924232 23485 net.cpp:411] fc2_fat_drop2_fat_0_split -> fc2_fat_drop2_fat_0_split_1
I1025 11:38:27.924238 23485 net.cpp:411] fc2_fat_drop2_fat_0_split -> fc2_fat_drop2_fat_0_split_2
I1025 11:38:27.924298 23485 net.cpp:150] Setting up fc2_fat_drop2_fat_0_split
I1025 11:38:27.924304 23485 net.cpp:157] Top shape: 70 1024 (71680)
I1025 11:38:27.924309 23485 net.cpp:157] Top shape: 70 1024 (71680)
I1025 11:38:27.924312 23485 net.cpp:157] Top shape: 70 1024 (71680)
I1025 11:38:27.924315 23485 net.cpp:165] Memory required for data: 2806819680
I1025 11:38:27.924319 23485 layer_factory.hpp:77] Creating layer fc3_Male
I1025 11:38:27.924329 23485 net.cpp:106] Creating Layer fc3_Male
I1025 11:38:27.924332 23485 net.cpp:454] fc3_Male <- fc2_gender_drop2_gender_0_split_0
I1025 11:38:27.924341 23485 net.cpp:411] fc3_Male -> fc3_Male
I1025 11:38:27.924487 23485 net.cpp:150] Setting up fc3_Male
I1025 11:38:27.924499 23485 net.cpp:157] Top shape: 70 2 (140)
I1025 11:38:27.924502 23485 net.cpp:165] Memory required for data: 2806820240
I1025 11:38:27.924509 23485 layer_factory.hpp:77] Creating layer loss_Male
I1025 11:38:27.924545 23485 net.cpp:106] Creating Layer loss_Male
I1025 11:38:27.924551 23485 net.cpp:454] loss_Male <- fc3_Male
I1025 11:38:27.924557 23485 net.cpp:454] loss_Male <- label_Male
I1025 11:38:27.924563 23485 net.cpp:411] loss_Male -> loss_Male
I1025 11:38:27.924649 23485 net.cpp:150] Setting up loss_Male
I1025 11:38:27.924659 23485 net.cpp:157] Top shape: (1)
I1025 11:38:27.924662 23485 net.cpp:160]     with loss weight 1
I1025 11:38:27.924724 23485 net.cpp:165] Memory required for data: 2806820244
I1025 11:38:27.924731 23485 layer_factory.hpp:77] Creating layer fc3_Big_Nose
I1025 11:38:27.924739 23485 net.cpp:106] Creating Layer fc3_Big_Nose
I1025 11:38:27.924744 23485 net.cpp:454] fc3_Big_Nose <- fc2_nose_drop2_nose_0_split_0
I1025 11:38:27.924751 23485 net.cpp:411] fc3_Big_Nose -> fc3_Big_Nose
I1025 11:38:27.924886 23485 net.cpp:150] Setting up fc3_Big_Nose
I1025 11:38:27.924896 23485 net.cpp:157] Top shape: 70 2 (140)
I1025 11:38:27.924899 23485 net.cpp:165] Memory required for data: 2806820804
I1025 11:38:27.924917 23485 layer_factory.hpp:77] Creating layer loss_Big_Nose
I1025 11:38:27.924928 23485 net.cpp:106] Creating Layer loss_Big_Nose
I1025 11:38:27.924932 23485 net.cpp:454] loss_Big_Nose <- fc3_Big_Nose
I1025 11:38:27.924938 23485 net.cpp:454] loss_Big_Nose <- label_Big_Nose
I1025 11:38:27.924944 23485 net.cpp:411] loss_Big_Nose -> loss_Big_Nose
I1025 11:38:27.924993 23485 net.cpp:150] Setting up loss_Big_Nose
I1025 11:38:27.925001 23485 net.cpp:157] Top shape: (1)
I1025 11:38:27.925004 23485 net.cpp:160]     with loss weight 1
I1025 11:38:27.925010 23485 net.cpp:165] Memory required for data: 2806820808
I1025 11:38:27.925014 23485 layer_factory.hpp:77] Creating layer fc3_Pointy_Nose
I1025 11:38:27.925024 23485 net.cpp:106] Creating Layer fc3_Pointy_Nose
I1025 11:38:27.925027 23485 net.cpp:454] fc3_Pointy_Nose <- fc2_nose_drop2_nose_0_split_1
I1025 11:38:27.925034 23485 net.cpp:411] fc3_Pointy_Nose -> fc3_Pointy_Nose
I1025 11:38:27.925161 23485 net.cpp:150] Setting up fc3_Pointy_Nose
I1025 11:38:27.925170 23485 net.cpp:157] Top shape: 70 2 (140)
I1025 11:38:27.925174 23485 net.cpp:165] Memory required for data: 2806821368
I1025 11:38:27.925205 23485 layer_factory.hpp:77] Creating layer loss_Pointy_Nose
I1025 11:38:27.925215 23485 net.cpp:106] Creating Layer loss_Pointy_Nose
I1025 11:38:27.925220 23485 net.cpp:454] loss_Pointy_Nose <- fc3_Pointy_Nose
I1025 11:38:27.925226 23485 net.cpp:454] loss_Pointy_Nose <- label_Pointy_Nose
I1025 11:38:27.925231 23485 net.cpp:411] loss_Pointy_Nose -> loss_Pointy_Nose
I1025 11:38:27.925282 23485 net.cpp:150] Setting up loss_Pointy_Nose
I1025 11:38:27.925292 23485 net.cpp:157] Top shape: (1)
I1025 11:38:27.925295 23485 net.cpp:160]     with loss weight 1
I1025 11:38:27.925300 23485 net.cpp:165] Memory required for data: 2806821372
I1025 11:38:27.925305 23485 layer_factory.hpp:77] Creating layer fc3_Big_Lips
I1025 11:38:27.925312 23485 net.cpp:106] Creating Layer fc3_Big_Lips
I1025 11:38:27.925317 23485 net.cpp:454] fc3_Big_Lips <- fc2_mouth_drop2_mouth_0_split_0
I1025 11:38:27.925323 23485 net.cpp:411] fc3_Big_Lips -> fc3_Big_Lips
I1025 11:38:27.925454 23485 net.cpp:150] Setting up fc3_Big_Lips
I1025 11:38:27.925464 23485 net.cpp:157] Top shape: 70 2 (140)
I1025 11:38:27.925467 23485 net.cpp:165] Memory required for data: 2806821932
I1025 11:38:27.925473 23485 layer_factory.hpp:77] Creating layer loss_Big_Lips
I1025 11:38:27.925482 23485 net.cpp:106] Creating Layer loss_Big_Lips
I1025 11:38:27.925487 23485 net.cpp:454] loss_Big_Lips <- fc3_Big_Lips
I1025 11:38:27.925492 23485 net.cpp:454] loss_Big_Lips <- label_Big_Lips
I1025 11:38:27.925496 23485 net.cpp:411] loss_Big_Lips -> loss_Big_Lips
I1025 11:38:27.925542 23485 net.cpp:150] Setting up loss_Big_Lips
I1025 11:38:27.925550 23485 net.cpp:157] Top shape: (1)
I1025 11:38:27.925554 23485 net.cpp:160]     with loss weight 1
I1025 11:38:27.925559 23485 net.cpp:165] Memory required for data: 2806821936
I1025 11:38:27.925562 23485 layer_factory.hpp:77] Creating layer fc3_Smiling
I1025 11:38:27.925568 23485 net.cpp:106] Creating Layer fc3_Smiling
I1025 11:38:27.925573 23485 net.cpp:454] fc3_Smiling <- fc2_mouth_drop2_mouth_0_split_1
I1025 11:38:27.925580 23485 net.cpp:411] fc3_Smiling -> fc3_Smiling
I1025 11:38:27.925704 23485 net.cpp:150] Setting up fc3_Smiling
I1025 11:38:27.925714 23485 net.cpp:157] Top shape: 70 2 (140)
I1025 11:38:27.925717 23485 net.cpp:165] Memory required for data: 2806822496
I1025 11:38:27.925724 23485 layer_factory.hpp:77] Creating layer loss_Smiling
I1025 11:38:27.925732 23485 net.cpp:106] Creating Layer loss_Smiling
I1025 11:38:27.925736 23485 net.cpp:454] loss_Smiling <- fc3_Smiling
I1025 11:38:27.925742 23485 net.cpp:454] loss_Smiling <- label_Smiling
I1025 11:38:27.925747 23485 net.cpp:411] loss_Smiling -> loss_Smiling
I1025 11:38:27.925791 23485 net.cpp:150] Setting up loss_Smiling
I1025 11:38:27.925799 23485 net.cpp:157] Top shape: (1)
I1025 11:38:27.925803 23485 net.cpp:160]     with loss weight 1
I1025 11:38:27.925808 23485 net.cpp:165] Memory required for data: 2806822500
I1025 11:38:27.925812 23485 layer_factory.hpp:77] Creating layer fc3_Wearing_Lipstick
I1025 11:38:27.925829 23485 net.cpp:106] Creating Layer fc3_Wearing_Lipstick
I1025 11:38:27.925834 23485 net.cpp:454] fc3_Wearing_Lipstick <- fc2_mouth_drop2_mouth_0_split_2
I1025 11:38:27.925843 23485 net.cpp:411] fc3_Wearing_Lipstick -> fc3_Wearing_Lipstick
I1025 11:38:27.925971 23485 net.cpp:150] Setting up fc3_Wearing_Lipstick
I1025 11:38:27.925981 23485 net.cpp:157] Top shape: 70 2 (140)
I1025 11:38:27.925984 23485 net.cpp:165] Memory required for data: 2806823060
I1025 11:38:27.925990 23485 layer_factory.hpp:77] Creating layer loss_Wearing_Lipstick
I1025 11:38:27.926000 23485 net.cpp:106] Creating Layer loss_Wearing_Lipstick
I1025 11:38:27.926005 23485 net.cpp:454] loss_Wearing_Lipstick <- fc3_Wearing_Lipstick
I1025 11:38:27.926010 23485 net.cpp:454] loss_Wearing_Lipstick <- label_Wearing_Lipstick
I1025 11:38:27.926015 23485 net.cpp:411] loss_Wearing_Lipstick -> loss_Wearing_Lipstick
I1025 11:38:27.926065 23485 net.cpp:150] Setting up loss_Wearing_Lipstick
I1025 11:38:27.926074 23485 net.cpp:157] Top shape: (1)
I1025 11:38:27.926077 23485 net.cpp:160]     with loss weight 1
I1025 11:38:27.926082 23485 net.cpp:165] Memory required for data: 2806823064
I1025 11:38:27.926086 23485 layer_factory.hpp:77] Creating layer fc3_Mouth_Slightly_Open
I1025 11:38:27.926092 23485 net.cpp:106] Creating Layer fc3_Mouth_Slightly_Open
I1025 11:38:27.926097 23485 net.cpp:454] fc3_Mouth_Slightly_Open <- fc2_mouth_drop2_mouth_0_split_3
I1025 11:38:27.926105 23485 net.cpp:411] fc3_Mouth_Slightly_Open -> fc3_Mouth_Slightly_Open
I1025 11:38:27.926230 23485 net.cpp:150] Setting up fc3_Mouth_Slightly_Open
I1025 11:38:27.926239 23485 net.cpp:157] Top shape: 70 2 (140)
I1025 11:38:27.926244 23485 net.cpp:165] Memory required for data: 2806823624
I1025 11:38:27.926249 23485 layer_factory.hpp:77] Creating layer loss_Mouth_Slightly_Open
I1025 11:38:27.926259 23485 net.cpp:106] Creating Layer loss_Mouth_Slightly_Open
I1025 11:38:27.926264 23485 net.cpp:454] loss_Mouth_Slightly_Open <- fc3_Mouth_Slightly_Open
I1025 11:38:27.926268 23485 net.cpp:454] loss_Mouth_Slightly_Open <- label_Mouth_Slightly_Open
I1025 11:38:27.926273 23485 net.cpp:411] loss_Mouth_Slightly_Open -> loss_Mouth_Slightly_Open
I1025 11:38:27.926317 23485 net.cpp:150] Setting up loss_Mouth_Slightly_Open
I1025 11:38:27.926326 23485 net.cpp:157] Top shape: (1)
I1025 11:38:27.926329 23485 net.cpp:160]     with loss weight 1
I1025 11:38:27.926334 23485 net.cpp:165] Memory required for data: 2806823628
I1025 11:38:27.926338 23485 layer_factory.hpp:77] Creating layer fc3_Arched_Eyebrows
I1025 11:38:27.926344 23485 net.cpp:106] Creating Layer fc3_Arched_Eyebrows
I1025 11:38:27.926350 23485 net.cpp:454] fc3_Arched_Eyebrows <- fc2_eyes_drop2_eyes_0_split_0
I1025 11:38:27.926358 23485 net.cpp:411] fc3_Arched_Eyebrows -> fc3_Arched_Eyebrows
I1025 11:38:27.926482 23485 net.cpp:150] Setting up fc3_Arched_Eyebrows
I1025 11:38:27.926492 23485 net.cpp:157] Top shape: 70 2 (140)
I1025 11:38:27.926496 23485 net.cpp:165] Memory required for data: 2806824188
I1025 11:38:27.926501 23485 layer_factory.hpp:77] Creating layer loss_Arched_Eyebrows
I1025 11:38:27.926512 23485 net.cpp:106] Creating Layer loss_Arched_Eyebrows
I1025 11:38:27.926517 23485 net.cpp:454] loss_Arched_Eyebrows <- fc3_Arched_Eyebrows
I1025 11:38:27.926522 23485 net.cpp:454] loss_Arched_Eyebrows <- label_Arched_Eyebrows
I1025 11:38:27.926527 23485 net.cpp:411] loss_Arched_Eyebrows -> loss_Arched_Eyebrows
I1025 11:38:27.926573 23485 net.cpp:150] Setting up loss_Arched_Eyebrows
I1025 11:38:27.926580 23485 net.cpp:157] Top shape: (1)
I1025 11:38:27.926584 23485 net.cpp:160]     with loss weight 1
I1025 11:38:27.926589 23485 net.cpp:165] Memory required for data: 2806824192
I1025 11:38:27.926592 23485 layer_factory.hpp:77] Creating layer fc3_Bags_Under_Eyes
I1025 11:38:27.926599 23485 net.cpp:106] Creating Layer fc3_Bags_Under_Eyes
I1025 11:38:27.926602 23485 net.cpp:454] fc3_Bags_Under_Eyes <- fc2_eyes_drop2_eyes_0_split_1
I1025 11:38:27.926610 23485 net.cpp:411] fc3_Bags_Under_Eyes -> fc3_Bags_Under_Eyes
I1025 11:38:27.926745 23485 net.cpp:150] Setting up fc3_Bags_Under_Eyes
I1025 11:38:27.926755 23485 net.cpp:157] Top shape: 70 2 (140)
I1025 11:38:27.926759 23485 net.cpp:165] Memory required for data: 2806824752
I1025 11:38:27.926764 23485 layer_factory.hpp:77] Creating layer loss_Bags_Under_Eyes
I1025 11:38:27.926775 23485 net.cpp:106] Creating Layer loss_Bags_Under_Eyes
I1025 11:38:27.926779 23485 net.cpp:454] loss_Bags_Under_Eyes <- fc3_Bags_Under_Eyes
I1025 11:38:27.926784 23485 net.cpp:454] loss_Bags_Under_Eyes <- label_Bags_Under_Eyes
I1025 11:38:27.926789 23485 net.cpp:411] loss_Bags_Under_Eyes -> loss_Bags_Under_Eyes
I1025 11:38:27.926834 23485 net.cpp:150] Setting up loss_Bags_Under_Eyes
I1025 11:38:27.926842 23485 net.cpp:157] Top shape: (1)
I1025 11:38:27.926846 23485 net.cpp:160]     with loss weight 1
I1025 11:38:27.926851 23485 net.cpp:165] Memory required for data: 2806824756
I1025 11:38:27.926856 23485 layer_factory.hpp:77] Creating layer fc3_Bushy_Eyebrows
I1025 11:38:27.926862 23485 net.cpp:106] Creating Layer fc3_Bushy_Eyebrows
I1025 11:38:27.926867 23485 net.cpp:454] fc3_Bushy_Eyebrows <- fc2_eyes_drop2_eyes_0_split_2
I1025 11:38:27.926874 23485 net.cpp:411] fc3_Bushy_Eyebrows -> fc3_Bushy_Eyebrows
I1025 11:38:27.927003 23485 net.cpp:150] Setting up fc3_Bushy_Eyebrows
I1025 11:38:27.927013 23485 net.cpp:157] Top shape: 70 2 (140)
I1025 11:38:27.927016 23485 net.cpp:165] Memory required for data: 2806825316
I1025 11:38:27.927022 23485 layer_factory.hpp:77] Creating layer loss_Bushy_Eyebrows
I1025 11:38:27.927032 23485 net.cpp:106] Creating Layer loss_Bushy_Eyebrows
I1025 11:38:27.927037 23485 net.cpp:454] loss_Bushy_Eyebrows <- fc3_Bushy_Eyebrows
I1025 11:38:27.927042 23485 net.cpp:454] loss_Bushy_Eyebrows <- label_Bushy_Eyebrows
I1025 11:38:27.927047 23485 net.cpp:411] loss_Bushy_Eyebrows -> loss_Bushy_Eyebrows
I1025 11:38:27.927093 23485 net.cpp:150] Setting up loss_Bushy_Eyebrows
I1025 11:38:27.927101 23485 net.cpp:157] Top shape: (1)
I1025 11:38:27.927105 23485 net.cpp:160]     with loss weight 1
I1025 11:38:27.927110 23485 net.cpp:165] Memory required for data: 2806825320
I1025 11:38:27.927114 23485 layer_factory.hpp:77] Creating layer fc3_Narrow_Eyes
I1025 11:38:27.927120 23485 net.cpp:106] Creating Layer fc3_Narrow_Eyes
I1025 11:38:27.927124 23485 net.cpp:454] fc3_Narrow_Eyes <- fc2_eyes_drop2_eyes_0_split_3
I1025 11:38:27.927132 23485 net.cpp:411] fc3_Narrow_Eyes -> fc3_Narrow_Eyes
I1025 11:38:27.927258 23485 net.cpp:150] Setting up fc3_Narrow_Eyes
I1025 11:38:27.927268 23485 net.cpp:157] Top shape: 70 2 (140)
I1025 11:38:27.927270 23485 net.cpp:165] Memory required for data: 2806825880
I1025 11:38:27.927276 23485 layer_factory.hpp:77] Creating layer loss_Narrow_Eyes
I1025 11:38:27.927287 23485 net.cpp:106] Creating Layer loss_Narrow_Eyes
I1025 11:38:27.927291 23485 net.cpp:454] loss_Narrow_Eyes <- fc3_Narrow_Eyes
I1025 11:38:27.927295 23485 net.cpp:454] loss_Narrow_Eyes <- label_Narrow_Eyes
I1025 11:38:27.927300 23485 net.cpp:411] loss_Narrow_Eyes -> loss_Narrow_Eyes
I1025 11:38:27.927345 23485 net.cpp:150] Setting up loss_Narrow_Eyes
I1025 11:38:27.927353 23485 net.cpp:157] Top shape: (1)
I1025 11:38:27.927357 23485 net.cpp:160]     with loss weight 1
I1025 11:38:27.927362 23485 net.cpp:165] Memory required for data: 2806825884
I1025 11:38:27.927366 23485 layer_factory.hpp:77] Creating layer fc3_Eyeglasses
I1025 11:38:27.927372 23485 net.cpp:106] Creating Layer fc3_Eyeglasses
I1025 11:38:27.927376 23485 net.cpp:454] fc3_Eyeglasses <- fc2_eyes_drop2_eyes_0_split_4
I1025 11:38:27.927384 23485 net.cpp:411] fc3_Eyeglasses -> fc3_Eyeglasses
I1025 11:38:27.927510 23485 net.cpp:150] Setting up fc3_Eyeglasses
I1025 11:38:27.927518 23485 net.cpp:157] Top shape: 70 2 (140)
I1025 11:38:27.927521 23485 net.cpp:165] Memory required for data: 2806826444
I1025 11:38:27.927527 23485 layer_factory.hpp:77] Creating layer loss_Eyeglasses
I1025 11:38:27.927536 23485 net.cpp:106] Creating Layer loss_Eyeglasses
I1025 11:38:27.927541 23485 net.cpp:454] loss_Eyeglasses <- fc3_Eyeglasses
I1025 11:38:27.927559 23485 net.cpp:454] loss_Eyeglasses <- label_Eyeglasses
I1025 11:38:27.927566 23485 net.cpp:411] loss_Eyeglasses -> loss_Eyeglasses
I1025 11:38:27.927613 23485 net.cpp:150] Setting up loss_Eyeglasses
I1025 11:38:27.927620 23485 net.cpp:157] Top shape: (1)
I1025 11:38:27.927624 23485 net.cpp:160]     with loss weight 1
I1025 11:38:27.927629 23485 net.cpp:165] Memory required for data: 2806826448
I1025 11:38:27.927634 23485 layer_factory.hpp:77] Creating layer fc3_Attractive
I1025 11:38:27.927640 23485 net.cpp:106] Creating Layer fc3_Attractive
I1025 11:38:27.927644 23485 net.cpp:454] fc3_Attractive <- fc2_face_drop2_face_0_split_0
I1025 11:38:27.927652 23485 net.cpp:411] fc3_Attractive -> fc3_Attractive
I1025 11:38:27.927786 23485 net.cpp:150] Setting up fc3_Attractive
I1025 11:38:27.927796 23485 net.cpp:157] Top shape: 70 2 (140)
I1025 11:38:27.927799 23485 net.cpp:165] Memory required for data: 2806827008
I1025 11:38:27.927805 23485 layer_factory.hpp:77] Creating layer loss_Attractive
I1025 11:38:27.927815 23485 net.cpp:106] Creating Layer loss_Attractive
I1025 11:38:27.927820 23485 net.cpp:454] loss_Attractive <- fc3_Attractive
I1025 11:38:27.927824 23485 net.cpp:454] loss_Attractive <- label_Attractive
I1025 11:38:27.927829 23485 net.cpp:411] loss_Attractive -> loss_Attractive
I1025 11:38:27.927875 23485 net.cpp:150] Setting up loss_Attractive
I1025 11:38:27.927882 23485 net.cpp:157] Top shape: (1)
I1025 11:38:27.927886 23485 net.cpp:160]     with loss weight 1
I1025 11:38:27.927891 23485 net.cpp:165] Memory required for data: 2806827012
I1025 11:38:27.927896 23485 layer_factory.hpp:77] Creating layer fc3_Blurry
I1025 11:38:27.927901 23485 net.cpp:106] Creating Layer fc3_Blurry
I1025 11:38:27.927906 23485 net.cpp:454] fc3_Blurry <- fc2_face_drop2_face_0_split_1
I1025 11:38:27.927913 23485 net.cpp:411] fc3_Blurry -> fc3_Blurry
I1025 11:38:27.928038 23485 net.cpp:150] Setting up fc3_Blurry
I1025 11:38:27.928047 23485 net.cpp:157] Top shape: 70 2 (140)
I1025 11:38:27.928050 23485 net.cpp:165] Memory required for data: 2806827572
I1025 11:38:27.928056 23485 layer_factory.hpp:77] Creating layer loss_Blurry
I1025 11:38:27.928066 23485 net.cpp:106] Creating Layer loss_Blurry
I1025 11:38:27.928071 23485 net.cpp:454] loss_Blurry <- fc3_Blurry
I1025 11:38:27.928076 23485 net.cpp:454] loss_Blurry <- label_Blurry
I1025 11:38:27.928081 23485 net.cpp:411] loss_Blurry -> loss_Blurry
I1025 11:38:27.928125 23485 net.cpp:150] Setting up loss_Blurry
I1025 11:38:27.928133 23485 net.cpp:157] Top shape: (1)
I1025 11:38:27.928138 23485 net.cpp:160]     with loss weight 1
I1025 11:38:27.928143 23485 net.cpp:165] Memory required for data: 2806827576
I1025 11:38:27.928145 23485 layer_factory.hpp:77] Creating layer fc3_Oval_Face
I1025 11:38:27.928153 23485 net.cpp:106] Creating Layer fc3_Oval_Face
I1025 11:38:27.928156 23485 net.cpp:454] fc3_Oval_Face <- fc2_face_drop2_face_0_split_2
I1025 11:38:27.928164 23485 net.cpp:411] fc3_Oval_Face -> fc3_Oval_Face
I1025 11:38:27.928287 23485 net.cpp:150] Setting up fc3_Oval_Face
I1025 11:38:27.928295 23485 net.cpp:157] Top shape: 70 2 (140)
I1025 11:38:27.928299 23485 net.cpp:165] Memory required for data: 2806828136
I1025 11:38:27.928305 23485 layer_factory.hpp:77] Creating layer loss_Oval_Face
I1025 11:38:27.928314 23485 net.cpp:106] Creating Layer loss_Oval_Face
I1025 11:38:27.928318 23485 net.cpp:454] loss_Oval_Face <- fc3_Oval_Face
I1025 11:38:27.928323 23485 net.cpp:454] loss_Oval_Face <- label_Oval_Face
I1025 11:38:27.928328 23485 net.cpp:411] loss_Oval_Face -> loss_Oval_Face
I1025 11:38:27.928371 23485 net.cpp:150] Setting up loss_Oval_Face
I1025 11:38:27.928380 23485 net.cpp:157] Top shape: (1)
I1025 11:38:27.928383 23485 net.cpp:160]     with loss weight 1
I1025 11:38:27.928388 23485 net.cpp:165] Memory required for data: 2806828140
I1025 11:38:27.928392 23485 layer_factory.hpp:77] Creating layer fc3_Pale_Skin
I1025 11:38:27.928400 23485 net.cpp:106] Creating Layer fc3_Pale_Skin
I1025 11:38:27.928403 23485 net.cpp:454] fc3_Pale_Skin <- fc2_face_drop2_face_0_split_3
I1025 11:38:27.928421 23485 net.cpp:411] fc3_Pale_Skin -> fc3_Pale_Skin
I1025 11:38:27.928547 23485 net.cpp:150] Setting up fc3_Pale_Skin
I1025 11:38:27.928557 23485 net.cpp:157] Top shape: 70 2 (140)
I1025 11:38:27.928560 23485 net.cpp:165] Memory required for data: 2806828700
I1025 11:38:27.928566 23485 layer_factory.hpp:77] Creating layer loss_Pale_Skin
I1025 11:38:27.928576 23485 net.cpp:106] Creating Layer loss_Pale_Skin
I1025 11:38:27.928580 23485 net.cpp:454] loss_Pale_Skin <- fc3_Pale_Skin
I1025 11:38:27.928584 23485 net.cpp:454] loss_Pale_Skin <- label_Pale_Skin
I1025 11:38:27.928591 23485 net.cpp:411] loss_Pale_Skin -> loss_Pale_Skin
I1025 11:38:27.928634 23485 net.cpp:150] Setting up loss_Pale_Skin
I1025 11:38:27.928642 23485 net.cpp:157] Top shape: (1)
I1025 11:38:27.928645 23485 net.cpp:160]     with loss weight 1
I1025 11:38:27.928652 23485 net.cpp:165] Memory required for data: 2806828704
I1025 11:38:27.928654 23485 layer_factory.hpp:77] Creating layer fc3_Young
I1025 11:38:27.928661 23485 net.cpp:106] Creating Layer fc3_Young
I1025 11:38:27.928665 23485 net.cpp:454] fc3_Young <- fc2_face_drop2_face_0_split_4
I1025 11:38:27.928675 23485 net.cpp:411] fc3_Young -> fc3_Young
I1025 11:38:27.928800 23485 net.cpp:150] Setting up fc3_Young
I1025 11:38:27.928810 23485 net.cpp:157] Top shape: 70 2 (140)
I1025 11:38:27.928813 23485 net.cpp:165] Memory required for data: 2806829264
I1025 11:38:27.928819 23485 layer_factory.hpp:77] Creating layer loss_Young
I1025 11:38:27.928829 23485 net.cpp:106] Creating Layer loss_Young
I1025 11:38:27.928834 23485 net.cpp:454] loss_Young <- fc3_Young
I1025 11:38:27.928839 23485 net.cpp:454] loss_Young <- label_Young
I1025 11:38:27.928844 23485 net.cpp:411] loss_Young -> loss_Young
I1025 11:38:27.928889 23485 net.cpp:150] Setting up loss_Young
I1025 11:38:27.928896 23485 net.cpp:157] Top shape: (1)
I1025 11:38:27.928900 23485 net.cpp:160]     with loss weight 1
I1025 11:38:27.928905 23485 net.cpp:165] Memory required for data: 2806829268
I1025 11:38:27.928910 23485 layer_factory.hpp:77] Creating layer fc3_Heavy_Makeup
I1025 11:38:27.928915 23485 net.cpp:106] Creating Layer fc3_Heavy_Makeup
I1025 11:38:27.928920 23485 net.cpp:454] fc3_Heavy_Makeup <- fc2_face_drop2_face_0_split_5
I1025 11:38:27.928927 23485 net.cpp:411] fc3_Heavy_Makeup -> fc3_Heavy_Makeup
I1025 11:38:27.929051 23485 net.cpp:150] Setting up fc3_Heavy_Makeup
I1025 11:38:27.929060 23485 net.cpp:157] Top shape: 70 2 (140)
I1025 11:38:27.929064 23485 net.cpp:165] Memory required for data: 2806829828
I1025 11:38:27.929069 23485 layer_factory.hpp:77] Creating layer loss_Heavy_Makeup
I1025 11:38:27.929082 23485 net.cpp:106] Creating Layer loss_Heavy_Makeup
I1025 11:38:27.929086 23485 net.cpp:454] loss_Heavy_Makeup <- fc3_Heavy_Makeup
I1025 11:38:27.929091 23485 net.cpp:454] loss_Heavy_Makeup <- label_Heavy_Makeup
I1025 11:38:27.929096 23485 net.cpp:411] loss_Heavy_Makeup -> loss_Heavy_Makeup
I1025 11:38:27.929141 23485 net.cpp:150] Setting up loss_Heavy_Makeup
I1025 11:38:27.929149 23485 net.cpp:157] Top shape: (1)
I1025 11:38:27.929153 23485 net.cpp:160]     with loss weight 1
I1025 11:38:27.929158 23485 net.cpp:165] Memory required for data: 2806829832
I1025 11:38:27.929162 23485 layer_factory.hpp:77] Creating layer fc3_Black_Hair
I1025 11:38:27.929169 23485 net.cpp:106] Creating Layer fc3_Black_Hair
I1025 11:38:27.929173 23485 net.cpp:454] fc3_Black_Hair <- fc2_aroundhead_drop2_aroundhead_0_split_0
I1025 11:38:27.929183 23485 net.cpp:411] fc3_Black_Hair -> fc3_Black_Hair
I1025 11:38:27.929307 23485 net.cpp:150] Setting up fc3_Black_Hair
I1025 11:38:27.929316 23485 net.cpp:157] Top shape: 70 2 (140)
I1025 11:38:27.929319 23485 net.cpp:165] Memory required for data: 2806830392
I1025 11:38:27.929325 23485 layer_factory.hpp:77] Creating layer loss_Black_Hair
I1025 11:38:27.929334 23485 net.cpp:106] Creating Layer loss_Black_Hair
I1025 11:38:27.929338 23485 net.cpp:454] loss_Black_Hair <- fc3_Black_Hair
I1025 11:38:27.929343 23485 net.cpp:454] loss_Black_Hair <- label_Black_Hair
I1025 11:38:27.929348 23485 net.cpp:411] loss_Black_Hair -> loss_Black_Hair
I1025 11:38:27.929404 23485 net.cpp:150] Setting up loss_Black_Hair
I1025 11:38:27.929412 23485 net.cpp:157] Top shape: (1)
I1025 11:38:27.929416 23485 net.cpp:160]     with loss weight 1
I1025 11:38:27.929421 23485 net.cpp:165] Memory required for data: 2806830396
I1025 11:38:27.929425 23485 layer_factory.hpp:77] Creating layer fc3_Blond_Hair
I1025 11:38:27.929432 23485 net.cpp:106] Creating Layer fc3_Blond_Hair
I1025 11:38:27.929436 23485 net.cpp:454] fc3_Blond_Hair <- fc2_aroundhead_drop2_aroundhead_0_split_1
I1025 11:38:27.929445 23485 net.cpp:411] fc3_Blond_Hair -> fc3_Blond_Hair
I1025 11:38:27.929569 23485 net.cpp:150] Setting up fc3_Blond_Hair
I1025 11:38:27.929579 23485 net.cpp:157] Top shape: 70 2 (140)
I1025 11:38:27.929582 23485 net.cpp:165] Memory required for data: 2806830956
I1025 11:38:27.929587 23485 layer_factory.hpp:77] Creating layer loss_Blond_Hair
I1025 11:38:27.929597 23485 net.cpp:106] Creating Layer loss_Blond_Hair
I1025 11:38:27.929601 23485 net.cpp:454] loss_Blond_Hair <- fc3_Blond_Hair
I1025 11:38:27.929606 23485 net.cpp:454] loss_Blond_Hair <- label_Blond_Hair
I1025 11:38:27.929611 23485 net.cpp:411] loss_Blond_Hair -> loss_Blond_Hair
I1025 11:38:27.929656 23485 net.cpp:150] Setting up loss_Blond_Hair
I1025 11:38:27.929663 23485 net.cpp:157] Top shape: (1)
I1025 11:38:27.929667 23485 net.cpp:160]     with loss weight 1
I1025 11:38:27.929672 23485 net.cpp:165] Memory required for data: 2806830960
I1025 11:38:27.929675 23485 layer_factory.hpp:77] Creating layer fc3_Brown_Hair
I1025 11:38:27.929682 23485 net.cpp:106] Creating Layer fc3_Brown_Hair
I1025 11:38:27.929687 23485 net.cpp:454] fc3_Brown_Hair <- fc2_aroundhead_drop2_aroundhead_0_split_2
I1025 11:38:27.929694 23485 net.cpp:411] fc3_Brown_Hair -> fc3_Brown_Hair
I1025 11:38:27.929817 23485 net.cpp:150] Setting up fc3_Brown_Hair
I1025 11:38:27.929826 23485 net.cpp:157] Top shape: 70 2 (140)
I1025 11:38:27.929831 23485 net.cpp:165] Memory required for data: 2806831520
I1025 11:38:27.929836 23485 layer_factory.hpp:77] Creating layer loss_Brown_Hair
I1025 11:38:27.929846 23485 net.cpp:106] Creating Layer loss_Brown_Hair
I1025 11:38:27.929849 23485 net.cpp:454] loss_Brown_Hair <- fc3_Brown_Hair
I1025 11:38:27.929854 23485 net.cpp:454] loss_Brown_Hair <- label_Brown_Hair
I1025 11:38:27.929859 23485 net.cpp:411] loss_Brown_Hair -> loss_Brown_Hair
I1025 11:38:27.929903 23485 net.cpp:150] Setting up loss_Brown_Hair
I1025 11:38:27.929910 23485 net.cpp:157] Top shape: (1)
I1025 11:38:27.929914 23485 net.cpp:160]     with loss weight 1
I1025 11:38:27.929919 23485 net.cpp:165] Memory required for data: 2806831524
I1025 11:38:27.929924 23485 layer_factory.hpp:77] Creating layer fc3_Gray_Hair
I1025 11:38:27.929930 23485 net.cpp:106] Creating Layer fc3_Gray_Hair
I1025 11:38:27.929934 23485 net.cpp:454] fc3_Gray_Hair <- fc2_aroundhead_drop2_aroundhead_0_split_3
I1025 11:38:27.929942 23485 net.cpp:411] fc3_Gray_Hair -> fc3_Gray_Hair
I1025 11:38:27.930066 23485 net.cpp:150] Setting up fc3_Gray_Hair
I1025 11:38:27.930075 23485 net.cpp:157] Top shape: 70 2 (140)
I1025 11:38:27.930078 23485 net.cpp:165] Memory required for data: 2806832084
I1025 11:38:27.930084 23485 layer_factory.hpp:77] Creating layer loss_Gray_Hair
I1025 11:38:27.930094 23485 net.cpp:106] Creating Layer loss_Gray_Hair
I1025 11:38:27.930099 23485 net.cpp:454] loss_Gray_Hair <- fc3_Gray_Hair
I1025 11:38:27.930102 23485 net.cpp:454] loss_Gray_Hair <- label_Gray_Hair
I1025 11:38:27.930107 23485 net.cpp:411] loss_Gray_Hair -> loss_Gray_Hair
I1025 11:38:27.930151 23485 net.cpp:150] Setting up loss_Gray_Hair
I1025 11:38:27.930160 23485 net.cpp:157] Top shape: (1)
I1025 11:38:27.930163 23485 net.cpp:160]     with loss weight 1
I1025 11:38:27.930168 23485 net.cpp:165] Memory required for data: 2806832088
I1025 11:38:27.930171 23485 layer_factory.hpp:77] Creating layer fc3_Wearing_Earrings
I1025 11:38:27.930177 23485 net.cpp:106] Creating Layer fc3_Wearing_Earrings
I1025 11:38:27.930181 23485 net.cpp:454] fc3_Wearing_Earrings <- fc2_aroundhead_drop2_aroundhead_0_split_4
I1025 11:38:27.930198 23485 net.cpp:411] fc3_Wearing_Earrings -> fc3_Wearing_Earrings
I1025 11:38:27.930326 23485 net.cpp:150] Setting up fc3_Wearing_Earrings
I1025 11:38:27.930335 23485 net.cpp:157] Top shape: 70 2 (140)
I1025 11:38:27.930340 23485 net.cpp:165] Memory required for data: 2806832648
I1025 11:38:27.930346 23485 layer_factory.hpp:77] Creating layer loss_Wearing_Earrings
I1025 11:38:27.930357 23485 net.cpp:106] Creating Layer loss_Wearing_Earrings
I1025 11:38:27.930362 23485 net.cpp:454] loss_Wearing_Earrings <- fc3_Wearing_Earrings
I1025 11:38:27.930367 23485 net.cpp:454] loss_Wearing_Earrings <- label_Wearing_Earrings
I1025 11:38:27.930372 23485 net.cpp:411] loss_Wearing_Earrings -> loss_Wearing_Earrings
I1025 11:38:27.930419 23485 net.cpp:150] Setting up loss_Wearing_Earrings
I1025 11:38:27.930428 23485 net.cpp:157] Top shape: (1)
I1025 11:38:27.930431 23485 net.cpp:160]     with loss weight 1
I1025 11:38:27.930436 23485 net.cpp:165] Memory required for data: 2806832652
I1025 11:38:27.930440 23485 layer_factory.hpp:77] Creating layer fc3_Wearing_Necklace
I1025 11:38:27.930446 23485 net.cpp:106] Creating Layer fc3_Wearing_Necklace
I1025 11:38:27.930450 23485 net.cpp:454] fc3_Wearing_Necklace <- fc2_aroundhead_drop2_aroundhead_0_split_5
I1025 11:38:27.930459 23485 net.cpp:411] fc3_Wearing_Necklace -> fc3_Wearing_Necklace
I1025 11:38:27.930585 23485 net.cpp:150] Setting up fc3_Wearing_Necklace
I1025 11:38:27.930594 23485 net.cpp:157] Top shape: 70 2 (140)
I1025 11:38:27.930598 23485 net.cpp:165] Memory required for data: 2806833212
I1025 11:38:27.930603 23485 layer_factory.hpp:77] Creating layer loss_Wearing_Necklace
I1025 11:38:27.930615 23485 net.cpp:106] Creating Layer loss_Wearing_Necklace
I1025 11:38:27.930619 23485 net.cpp:454] loss_Wearing_Necklace <- fc3_Wearing_Necklace
I1025 11:38:27.930624 23485 net.cpp:454] loss_Wearing_Necklace <- label_Wearing_Necklace
I1025 11:38:27.930629 23485 net.cpp:411] loss_Wearing_Necklace -> loss_Wearing_Necklace
I1025 11:38:27.930673 23485 net.cpp:150] Setting up loss_Wearing_Necklace
I1025 11:38:27.930681 23485 net.cpp:157] Top shape: (1)
I1025 11:38:27.930685 23485 net.cpp:160]     with loss weight 1
I1025 11:38:27.930690 23485 net.cpp:165] Memory required for data: 2806833216
I1025 11:38:27.930693 23485 layer_factory.hpp:77] Creating layer fc3_Wearing_Necktie
I1025 11:38:27.930701 23485 net.cpp:106] Creating Layer fc3_Wearing_Necktie
I1025 11:38:27.930704 23485 net.cpp:454] fc3_Wearing_Necktie <- fc2_aroundhead_drop2_aroundhead_0_split_6
I1025 11:38:27.930711 23485 net.cpp:411] fc3_Wearing_Necktie -> fc3_Wearing_Necktie
I1025 11:38:27.930835 23485 net.cpp:150] Setting up fc3_Wearing_Necktie
I1025 11:38:27.930845 23485 net.cpp:157] Top shape: 70 2 (140)
I1025 11:38:27.930848 23485 net.cpp:165] Memory required for data: 2806833776
I1025 11:38:27.930853 23485 layer_factory.hpp:77] Creating layer loss_Wearing_Necktie
I1025 11:38:27.930862 23485 net.cpp:106] Creating Layer loss_Wearing_Necktie
I1025 11:38:27.930866 23485 net.cpp:454] loss_Wearing_Necktie <- fc3_Wearing_Necktie
I1025 11:38:27.930871 23485 net.cpp:454] loss_Wearing_Necktie <- label_Wearing_Necktie
I1025 11:38:27.930876 23485 net.cpp:411] loss_Wearing_Necktie -> loss_Wearing_Necktie
I1025 11:38:27.930920 23485 net.cpp:150] Setting up loss_Wearing_Necktie
I1025 11:38:27.930928 23485 net.cpp:157] Top shape: (1)
I1025 11:38:27.930932 23485 net.cpp:160]     with loss weight 1
I1025 11:38:27.930937 23485 net.cpp:165] Memory required for data: 2806833780
I1025 11:38:27.930941 23485 layer_factory.hpp:77] Creating layer fc3_Bald
I1025 11:38:27.930948 23485 net.cpp:106] Creating Layer fc3_Bald
I1025 11:38:27.930951 23485 net.cpp:454] fc3_Bald <- fc2_aroundhead_drop2_aroundhead_0_split_7
I1025 11:38:27.930958 23485 net.cpp:411] fc3_Bald -> fc3_Bald
I1025 11:38:27.931084 23485 net.cpp:150] Setting up fc3_Bald
I1025 11:38:27.931093 23485 net.cpp:157] Top shape: 70 2 (140)
I1025 11:38:27.931097 23485 net.cpp:165] Memory required for data: 2806834340
I1025 11:38:27.931102 23485 layer_factory.hpp:77] Creating layer loss_Bald
I1025 11:38:27.931121 23485 net.cpp:106] Creating Layer loss_Bald
I1025 11:38:27.931126 23485 net.cpp:454] loss_Bald <- fc3_Bald
I1025 11:38:27.931131 23485 net.cpp:454] loss_Bald <- label_Bald
I1025 11:38:27.931136 23485 net.cpp:411] loss_Bald -> loss_Bald
I1025 11:38:27.931185 23485 net.cpp:150] Setting up loss_Bald
I1025 11:38:27.931193 23485 net.cpp:157] Top shape: (1)
I1025 11:38:27.931196 23485 net.cpp:160]     with loss weight 1
I1025 11:38:27.931202 23485 net.cpp:165] Memory required for data: 2806834344
I1025 11:38:27.931205 23485 layer_factory.hpp:77] Creating layer fc3_Receding_Hairline
I1025 11:38:27.931212 23485 net.cpp:106] Creating Layer fc3_Receding_Hairline
I1025 11:38:27.931216 23485 net.cpp:454] fc3_Receding_Hairline <- fc2_aroundhead_drop2_aroundhead_0_split_8
I1025 11:38:27.931223 23485 net.cpp:411] fc3_Receding_Hairline -> fc3_Receding_Hairline
I1025 11:38:27.931350 23485 net.cpp:150] Setting up fc3_Receding_Hairline
I1025 11:38:27.931360 23485 net.cpp:157] Top shape: 70 2 (140)
I1025 11:38:27.931363 23485 net.cpp:165] Memory required for data: 2806834904
I1025 11:38:27.931368 23485 layer_factory.hpp:77] Creating layer loss_Receding_Hairline
I1025 11:38:27.931378 23485 net.cpp:106] Creating Layer loss_Receding_Hairline
I1025 11:38:27.931382 23485 net.cpp:454] loss_Receding_Hairline <- fc3_Receding_Hairline
I1025 11:38:27.931387 23485 net.cpp:454] loss_Receding_Hairline <- label_Receding_Hairline
I1025 11:38:27.931392 23485 net.cpp:411] loss_Receding_Hairline -> loss_Receding_Hairline
I1025 11:38:27.931437 23485 net.cpp:150] Setting up loss_Receding_Hairline
I1025 11:38:27.931443 23485 net.cpp:157] Top shape: (1)
I1025 11:38:27.931447 23485 net.cpp:160]     with loss weight 1
I1025 11:38:27.931452 23485 net.cpp:165] Memory required for data: 2806834908
I1025 11:38:27.931457 23485 layer_factory.hpp:77] Creating layer fc3_Bangs
I1025 11:38:27.931463 23485 net.cpp:106] Creating Layer fc3_Bangs
I1025 11:38:27.931468 23485 net.cpp:454] fc3_Bangs <- fc2_aroundhead_drop2_aroundhead_0_split_9
I1025 11:38:27.931475 23485 net.cpp:411] fc3_Bangs -> fc3_Bangs
I1025 11:38:27.931599 23485 net.cpp:150] Setting up fc3_Bangs
I1025 11:38:27.931608 23485 net.cpp:157] Top shape: 70 2 (140)
I1025 11:38:27.931612 23485 net.cpp:165] Memory required for data: 2806835468
I1025 11:38:27.931618 23485 layer_factory.hpp:77] Creating layer loss_Bangs
I1025 11:38:27.931627 23485 net.cpp:106] Creating Layer loss_Bangs
I1025 11:38:27.931632 23485 net.cpp:454] loss_Bangs <- fc3_Bangs
I1025 11:38:27.931637 23485 net.cpp:454] loss_Bangs <- label_Bangs
I1025 11:38:27.931641 23485 net.cpp:411] loss_Bangs -> loss_Bangs
I1025 11:38:27.931689 23485 net.cpp:150] Setting up loss_Bangs
I1025 11:38:27.931697 23485 net.cpp:157] Top shape: (1)
I1025 11:38:27.931701 23485 net.cpp:160]     with loss weight 1
I1025 11:38:27.931706 23485 net.cpp:165] Memory required for data: 2806835472
I1025 11:38:27.931710 23485 layer_factory.hpp:77] Creating layer fc3_Wearing_Hat
I1025 11:38:27.931716 23485 net.cpp:106] Creating Layer fc3_Wearing_Hat
I1025 11:38:27.931720 23485 net.cpp:454] fc3_Wearing_Hat <- fc2_aroundhead_drop2_aroundhead_0_split_10
I1025 11:38:27.931728 23485 net.cpp:411] fc3_Wearing_Hat -> fc3_Wearing_Hat
I1025 11:38:27.931859 23485 net.cpp:150] Setting up fc3_Wearing_Hat
I1025 11:38:27.931869 23485 net.cpp:157] Top shape: 70 2 (140)
I1025 11:38:27.931874 23485 net.cpp:165] Memory required for data: 2806836032
I1025 11:38:27.931879 23485 layer_factory.hpp:77] Creating layer loss_Wearing_Hat
I1025 11:38:27.931890 23485 net.cpp:106] Creating Layer loss_Wearing_Hat
I1025 11:38:27.931895 23485 net.cpp:454] loss_Wearing_Hat <- fc3_Wearing_Hat
I1025 11:38:27.931900 23485 net.cpp:454] loss_Wearing_Hat <- label_Wearing_Hat
I1025 11:38:27.931905 23485 net.cpp:411] loss_Wearing_Hat -> loss_Wearing_Hat
I1025 11:38:27.931949 23485 net.cpp:150] Setting up loss_Wearing_Hat
I1025 11:38:27.931957 23485 net.cpp:157] Top shape: (1)
I1025 11:38:27.931960 23485 net.cpp:160]     with loss weight 1
I1025 11:38:27.931965 23485 net.cpp:165] Memory required for data: 2806836036
I1025 11:38:27.931978 23485 layer_factory.hpp:77] Creating layer fc3_Straight_Hair
I1025 11:38:27.931985 23485 net.cpp:106] Creating Layer fc3_Straight_Hair
I1025 11:38:27.931989 23485 net.cpp:454] fc3_Straight_Hair <- fc2_aroundhead_drop2_aroundhead_0_split_11
I1025 11:38:27.931998 23485 net.cpp:411] fc3_Straight_Hair -> fc3_Straight_Hair
I1025 11:38:27.932132 23485 net.cpp:150] Setting up fc3_Straight_Hair
I1025 11:38:27.932140 23485 net.cpp:157] Top shape: 70 2 (140)
I1025 11:38:27.932144 23485 net.cpp:165] Memory required for data: 2806836596
I1025 11:38:27.932150 23485 layer_factory.hpp:77] Creating layer loss_Straight_Hair
I1025 11:38:27.932158 23485 net.cpp:106] Creating Layer loss_Straight_Hair
I1025 11:38:27.932163 23485 net.cpp:454] loss_Straight_Hair <- fc3_Straight_Hair
I1025 11:38:27.932168 23485 net.cpp:454] loss_Straight_Hair <- label_Straight_Hair
I1025 11:38:27.932173 23485 net.cpp:411] loss_Straight_Hair -> loss_Straight_Hair
I1025 11:38:27.932219 23485 net.cpp:150] Setting up loss_Straight_Hair
I1025 11:38:27.932226 23485 net.cpp:157] Top shape: (1)
I1025 11:38:27.932229 23485 net.cpp:160]     with loss weight 1
I1025 11:38:27.932235 23485 net.cpp:165] Memory required for data: 2806836600
I1025 11:38:27.932238 23485 layer_factory.hpp:77] Creating layer fc3_Wavy_Hair
I1025 11:38:27.932245 23485 net.cpp:106] Creating Layer fc3_Wavy_Hair
I1025 11:38:27.932250 23485 net.cpp:454] fc3_Wavy_Hair <- fc2_aroundhead_drop2_aroundhead_0_split_12
I1025 11:38:27.932257 23485 net.cpp:411] fc3_Wavy_Hair -> fc3_Wavy_Hair
I1025 11:38:27.932384 23485 net.cpp:150] Setting up fc3_Wavy_Hair
I1025 11:38:27.932394 23485 net.cpp:157] Top shape: 70 2 (140)
I1025 11:38:27.932396 23485 net.cpp:165] Memory required for data: 2806837160
I1025 11:38:27.932402 23485 layer_factory.hpp:77] Creating layer loss_Wavy_Hair
I1025 11:38:27.932410 23485 net.cpp:106] Creating Layer loss_Wavy_Hair
I1025 11:38:27.932415 23485 net.cpp:454] loss_Wavy_Hair <- fc3_Wavy_Hair
I1025 11:38:27.932420 23485 net.cpp:454] loss_Wavy_Hair <- label_Wavy_Hair
I1025 11:38:27.932425 23485 net.cpp:411] loss_Wavy_Hair -> loss_Wavy_Hair
I1025 11:38:27.932468 23485 net.cpp:150] Setting up loss_Wavy_Hair
I1025 11:38:27.932476 23485 net.cpp:157] Top shape: (1)
I1025 11:38:27.932481 23485 net.cpp:160]     with loss weight 1
I1025 11:38:27.932484 23485 net.cpp:165] Memory required for data: 2806837164
I1025 11:38:27.932488 23485 layer_factory.hpp:77] Creating layer fc3_5_o_Clock_Shadow
I1025 11:38:27.932494 23485 net.cpp:106] Creating Layer fc3_5_o_Clock_Shadow
I1025 11:38:27.932498 23485 net.cpp:454] fc3_5_o_Clock_Shadow <- fc2_facialhair_drop2_facialhair_0_split_0
I1025 11:38:27.932507 23485 net.cpp:411] fc3_5_o_Clock_Shadow -> fc3_5_o_Clock_Shadow
I1025 11:38:27.932631 23485 net.cpp:150] Setting up fc3_5_o_Clock_Shadow
I1025 11:38:27.932641 23485 net.cpp:157] Top shape: 70 2 (140)
I1025 11:38:27.932644 23485 net.cpp:165] Memory required for data: 2806837724
I1025 11:38:27.932649 23485 layer_factory.hpp:77] Creating layer loss_5_o_Clock_Shadow
I1025 11:38:27.932658 23485 net.cpp:106] Creating Layer loss_5_o_Clock_Shadow
I1025 11:38:27.932662 23485 net.cpp:454] loss_5_o_Clock_Shadow <- fc3_5_o_Clock_Shadow
I1025 11:38:27.932667 23485 net.cpp:454] loss_5_o_Clock_Shadow <- label_5_o_Clock_Shadow
I1025 11:38:27.932672 23485 net.cpp:411] loss_5_o_Clock_Shadow -> loss_5_o_Clock_Shadow
I1025 11:38:27.932716 23485 net.cpp:150] Setting up loss_5_o_Clock_Shadow
I1025 11:38:27.932724 23485 net.cpp:157] Top shape: (1)
I1025 11:38:27.932728 23485 net.cpp:160]     with loss weight 1
I1025 11:38:27.932732 23485 net.cpp:165] Memory required for data: 2806837728
I1025 11:38:27.932736 23485 layer_factory.hpp:77] Creating layer fc3_Mustache
I1025 11:38:27.932741 23485 net.cpp:106] Creating Layer fc3_Mustache
I1025 11:38:27.932745 23485 net.cpp:454] fc3_Mustache <- fc2_facialhair_drop2_facialhair_0_split_1
I1025 11:38:27.932754 23485 net.cpp:411] fc3_Mustache -> fc3_Mustache
I1025 11:38:27.932878 23485 net.cpp:150] Setting up fc3_Mustache
I1025 11:38:27.932886 23485 net.cpp:157] Top shape: 70 2 (140)
I1025 11:38:27.932898 23485 net.cpp:165] Memory required for data: 2806838288
I1025 11:38:27.932905 23485 layer_factory.hpp:77] Creating layer loss_Mustache
I1025 11:38:27.932914 23485 net.cpp:106] Creating Layer loss_Mustache
I1025 11:38:27.932919 23485 net.cpp:454] loss_Mustache <- fc3_Mustache
I1025 11:38:27.932924 23485 net.cpp:454] loss_Mustache <- label_Mustache
I1025 11:38:27.932929 23485 net.cpp:411] loss_Mustache -> loss_Mustache
I1025 11:38:27.932976 23485 net.cpp:150] Setting up loss_Mustache
I1025 11:38:27.932983 23485 net.cpp:157] Top shape: (1)
I1025 11:38:27.932986 23485 net.cpp:160]     with loss weight 1
I1025 11:38:27.932991 23485 net.cpp:165] Memory required for data: 2806838292
I1025 11:38:27.932996 23485 layer_factory.hpp:77] Creating layer fc3_No_Beard
I1025 11:38:27.933002 23485 net.cpp:106] Creating Layer fc3_No_Beard
I1025 11:38:27.933007 23485 net.cpp:454] fc3_No_Beard <- fc2_facialhair_drop2_facialhair_0_split_2
I1025 11:38:27.933013 23485 net.cpp:411] fc3_No_Beard -> fc3_No_Beard
I1025 11:38:27.933142 23485 net.cpp:150] Setting up fc3_No_Beard
I1025 11:38:27.933151 23485 net.cpp:157] Top shape: 70 2 (140)
I1025 11:38:27.933156 23485 net.cpp:165] Memory required for data: 2806838852
I1025 11:38:27.933161 23485 layer_factory.hpp:77] Creating layer loss_No_Beard
I1025 11:38:27.933168 23485 net.cpp:106] Creating Layer loss_No_Beard
I1025 11:38:27.933172 23485 net.cpp:454] loss_No_Beard <- fc3_No_Beard
I1025 11:38:27.933177 23485 net.cpp:454] loss_No_Beard <- label_No_Beard
I1025 11:38:27.933182 23485 net.cpp:411] loss_No_Beard -> loss_No_Beard
I1025 11:38:27.933228 23485 net.cpp:150] Setting up loss_No_Beard
I1025 11:38:27.933235 23485 net.cpp:157] Top shape: (1)
I1025 11:38:27.933238 23485 net.cpp:160]     with loss weight 1
I1025 11:38:27.933243 23485 net.cpp:165] Memory required for data: 2806838856
I1025 11:38:27.933246 23485 layer_factory.hpp:77] Creating layer fc3_Sideburns
I1025 11:38:27.933254 23485 net.cpp:106] Creating Layer fc3_Sideburns
I1025 11:38:27.933257 23485 net.cpp:454] fc3_Sideburns <- fc2_facialhair_drop2_facialhair_0_split_3
I1025 11:38:27.933264 23485 net.cpp:411] fc3_Sideburns -> fc3_Sideburns
I1025 11:38:27.933393 23485 net.cpp:150] Setting up fc3_Sideburns
I1025 11:38:27.933401 23485 net.cpp:157] Top shape: 70 2 (140)
I1025 11:38:27.933405 23485 net.cpp:165] Memory required for data: 2806839416
I1025 11:38:27.933410 23485 layer_factory.hpp:77] Creating layer loss_Sideburns
I1025 11:38:27.933419 23485 net.cpp:106] Creating Layer loss_Sideburns
I1025 11:38:27.933423 23485 net.cpp:454] loss_Sideburns <- fc3_Sideburns
I1025 11:38:27.933429 23485 net.cpp:454] loss_Sideburns <- label_Sideburns
I1025 11:38:27.933434 23485 net.cpp:411] loss_Sideburns -> loss_Sideburns
I1025 11:38:27.933477 23485 net.cpp:150] Setting up loss_Sideburns
I1025 11:38:27.933486 23485 net.cpp:157] Top shape: (1)
I1025 11:38:27.933490 23485 net.cpp:160]     with loss weight 1
I1025 11:38:27.933495 23485 net.cpp:165] Memory required for data: 2806839420
I1025 11:38:27.933497 23485 layer_factory.hpp:77] Creating layer fc3_Goatee
I1025 11:38:27.933504 23485 net.cpp:106] Creating Layer fc3_Goatee
I1025 11:38:27.933508 23485 net.cpp:454] fc3_Goatee <- fc2_facialhair_drop2_facialhair_0_split_4
I1025 11:38:27.933516 23485 net.cpp:411] fc3_Goatee -> fc3_Goatee
I1025 11:38:27.933646 23485 net.cpp:150] Setting up fc3_Goatee
I1025 11:38:27.933655 23485 net.cpp:157] Top shape: 70 2 (140)
I1025 11:38:27.933658 23485 net.cpp:165] Memory required for data: 2806839980
I1025 11:38:27.933665 23485 layer_factory.hpp:77] Creating layer loss_Goatee
I1025 11:38:27.933672 23485 net.cpp:106] Creating Layer loss_Goatee
I1025 11:38:27.933676 23485 net.cpp:454] loss_Goatee <- fc3_Goatee
I1025 11:38:27.933681 23485 net.cpp:454] loss_Goatee <- label_Goatee
I1025 11:38:27.933686 23485 net.cpp:411] loss_Goatee -> loss_Goatee
I1025 11:38:27.933732 23485 net.cpp:150] Setting up loss_Goatee
I1025 11:38:27.933739 23485 net.cpp:157] Top shape: (1)
I1025 11:38:27.933743 23485 net.cpp:160]     with loss weight 1
I1025 11:38:27.933756 23485 net.cpp:165] Memory required for data: 2806839984
I1025 11:38:27.933760 23485 layer_factory.hpp:77] Creating layer fc3_High_Cheekbones
I1025 11:38:27.933766 23485 net.cpp:106] Creating Layer fc3_High_Cheekbones
I1025 11:38:27.933771 23485 net.cpp:454] fc3_High_Cheekbones <- fc2_cheeks_drop2_cheeks_0_split_0
I1025 11:38:27.933781 23485 net.cpp:411] fc3_High_Cheekbones -> fc3_High_Cheekbones
I1025 11:38:27.933913 23485 net.cpp:150] Setting up fc3_High_Cheekbones
I1025 11:38:27.933923 23485 net.cpp:157] Top shape: 70 2 (140)
I1025 11:38:27.933926 23485 net.cpp:165] Memory required for data: 2806840544
I1025 11:38:27.933933 23485 layer_factory.hpp:77] Creating layer loss_High_Cheekbones
I1025 11:38:27.933941 23485 net.cpp:106] Creating Layer loss_High_Cheekbones
I1025 11:38:27.933946 23485 net.cpp:454] loss_High_Cheekbones <- fc3_High_Cheekbones
I1025 11:38:27.933950 23485 net.cpp:454] loss_High_Cheekbones <- label_High_Cheekbones
I1025 11:38:27.933956 23485 net.cpp:411] loss_High_Cheekbones -> loss_High_Cheekbones
I1025 11:38:27.934000 23485 net.cpp:150] Setting up loss_High_Cheekbones
I1025 11:38:27.934010 23485 net.cpp:157] Top shape: (1)
I1025 11:38:27.934012 23485 net.cpp:160]     with loss weight 1
I1025 11:38:27.934017 23485 net.cpp:165] Memory required for data: 2806840548
I1025 11:38:27.934021 23485 layer_factory.hpp:77] Creating layer fc3_Rosy_Cheeks
I1025 11:38:27.934027 23485 net.cpp:106] Creating Layer fc3_Rosy_Cheeks
I1025 11:38:27.934031 23485 net.cpp:454] fc3_Rosy_Cheeks <- fc2_cheeks_drop2_cheeks_0_split_1
I1025 11:38:27.934039 23485 net.cpp:411] fc3_Rosy_Cheeks -> fc3_Rosy_Cheeks
…
I1025 11:38:30.316571 23485 net.cpp:157] Top shape: (1)
I1025 11:38:30.316575 23485 net.cpp:160]     with loss weight 1
I1025 11:38:30.316591 23485 net.cpp:165] Memory required for data: 2566236676
I1025 11:38:30.316594 23485 layer_factory.hpp:77] Creating layer fc3_Big_Nose
I1025 11:38:30.316602 23485 net.cpp:106] Creating Layer fc3_Big_Nose
I1025 11:38:30.316607 23485 net.cpp:454] fc3_Big_Nose <- fc2_nose_drop2_nose_0_split_0
I1025 11:38:30.316613 23485 net.cpp:411] fc3_Big_Nose -> fc3_Big_Nose
I1025 11:38:30.316774 23485 net.cpp:150] Setting up fc3_Big_Nose
I1025 11:38:30.316784 23485 net.cpp:157] Top shape: 64 2 (128)
I1025 11:38:30.316787 23485 net.cpp:165] Memory required for data: 2566237188
I1025 11:38:30.316794 23485 layer_factory.hpp:77] Creating layer loss_Big_Nose
I1025 11:38:30.316804 23485 net.cpp:106] Creating Layer loss_Big_Nose
I1025 11:38:30.316808 23485 net.cpp:454] loss_Big_Nose <- fc3_Big_Nose
I1025 11:38:30.316814 23485 net.cpp:454] loss_Big_Nose <- label_Big_Nose
I1025 11:38:30.316819 23485 net.cpp:411] loss_Big_Nose -> loss_Big_Nose
I1025 11:38:30.316874 23485 net.cpp:150] Setting up loss_Big_Nose
I1025 11:38:30.316884 23485 net.cpp:157] Top shape: (1)
I1025 11:38:30.316887 23485 net.cpp:160]     with loss weight 1
I1025 11:38:30.316892 23485 net.cpp:165] Memory required for data: 2566237192
I1025 11:38:30.316896 23485 layer_factory.hpp:77] Creating layer fc3_Pointy_Nose
I1025 11:38:30.316903 23485 net.cpp:106] Creating Layer fc3_Pointy_Nose
I1025 11:38:30.316907 23485 net.cpp:454] fc3_Pointy_Nose <- fc2_nose_drop2_nose_0_split_1
I1025 11:38:30.316913 23485 net.cpp:411] fc3_Pointy_Nose -> fc3_Pointy_Nose
I1025 11:38:30.317067 23485 net.cpp:150] Setting up fc3_Pointy_Nose
I1025 11:38:30.317076 23485 net.cpp:157] Top shape: 64 2 (128)
I1025 11:38:30.317080 23485 net.cpp:165] Memory required for data: 2566237704
I1025 11:38:30.317128 23485 layer_factory.hpp:77] Creating layer loss_Pointy_Nose
I1025 11:38:30.317142 23485 net.cpp:106] Creating Layer loss_Pointy_Nose
I1025 11:38:30.317147 23485 net.cpp:454] loss_Pointy_Nose <- fc3_Pointy_Nose
I1025 11:38:30.317152 23485 net.cpp:454] loss_Pointy_Nose <- label_Pointy_Nose
I1025 11:38:30.317157 23485 net.cpp:411] loss_Pointy_Nose -> loss_Pointy_Nose
I1025 11:38:30.317215 23485 net.cpp:150] Setting up loss_Pointy_Nose
I1025 11:38:30.317225 23485 net.cpp:157] Top shape: (1)
I1025 11:38:30.317229 23485 net.cpp:160]     with loss weight 1
I1025 11:38:30.317234 23485 net.cpp:165] Memory required for data: 2566237708
I1025 11:38:30.317248 23485 layer_factory.hpp:77] Creating layer fc3_Big_Lips
I1025 11:38:30.317256 23485 net.cpp:106] Creating Layer fc3_Big_Lips
I1025 11:38:30.317260 23485 net.cpp:454] fc3_Big_Lips <- fc2_mouth_drop2_mouth_0_split_0
I1025 11:38:30.317267 23485 net.cpp:411] fc3_Big_Lips -> fc3_Big_Lips
I1025 11:38:30.317430 23485 net.cpp:150] Setting up fc3_Big_Lips
I1025 11:38:30.317440 23485 net.cpp:157] Top shape: 64 2 (128)
I1025 11:38:30.317443 23485 net.cpp:165] Memory required for data: 2566238220
I1025 11:38:30.317451 23485 layer_factory.hpp:77] Creating layer loss_Big_Lips
I1025 11:38:30.317461 23485 net.cpp:106] Creating Layer loss_Big_Lips
I1025 11:38:30.317466 23485 net.cpp:454] loss_Big_Lips <- fc3_Big_Lips
I1025 11:38:30.317471 23485 net.cpp:454] loss_Big_Lips <- label_Big_Lips
I1025 11:38:30.317476 23485 net.cpp:411] loss_Big_Lips -> loss_Big_Lips
I1025 11:38:30.317533 23485 net.cpp:150] Setting up loss_Big_Lips
I1025 11:38:30.317540 23485 net.cpp:157] Top shape: (1)
I1025 11:38:30.317544 23485 net.cpp:160]     with loss weight 1
I1025 11:38:30.317549 23485 net.cpp:165] Memory required for data: 2566238224
I1025 11:38:30.317553 23485 layer_factory.hpp:77] Creating layer fc3_Smiling
I1025 11:38:30.317559 23485 net.cpp:106] Creating Layer fc3_Smiling
I1025 11:38:30.317564 23485 net.cpp:454] fc3_Smiling <- fc2_mouth_drop2_mouth_0_split_1
I1025 11:38:30.317569 23485 net.cpp:411] fc3_Smiling -> fc3_Smiling
I1025 11:38:30.317723 23485 net.cpp:150] Setting up fc3_Smiling
I1025 11:38:30.317733 23485 net.cpp:157] Top shape: 64 2 (128)
I1025 11:38:30.317735 23485 net.cpp:165] Memory required for data: 2566238736
I1025 11:38:30.317741 23485 layer_factory.hpp:77] Creating layer loss_Smiling
I1025 11:38:30.317749 23485 net.cpp:106] Creating Layer loss_Smiling
I1025 11:38:30.317754 23485 net.cpp:454] loss_Smiling <- fc3_Smiling
I1025 11:38:30.317759 23485 net.cpp:454] loss_Smiling <- label_Smiling
I1025 11:38:30.317764 23485 net.cpp:411] loss_Smiling -> loss_Smiling
I1025 11:38:30.317821 23485 net.cpp:150] Setting up loss_Smiling
I1025 11:38:30.317831 23485 net.cpp:157] Top shape: (1)
I1025 11:38:30.317833 23485 net.cpp:160]     with loss weight 1
I1025 11:38:30.317838 23485 net.cpp:165] Memory required for data: 2566238740
I1025 11:38:30.317842 23485 layer_factory.hpp:77] Creating layer fc3_Wearing_Lipstick
I1025 11:38:30.317849 23485 net.cpp:106] Creating Layer fc3_Wearing_Lipstick
I1025 11:38:30.317854 23485 net.cpp:454] fc3_Wearing_Lipstick <- fc2_mouth_drop2_mouth_0_split_2
I1025 11:38:30.317860 23485 net.cpp:411] fc3_Wearing_Lipstick -> fc3_Wearing_Lipstick
I1025 11:38:30.318017 23485 net.cpp:150] Setting up fc3_Wearing_Lipstick
I1025 11:38:30.318027 23485 net.cpp:157] Top shape: 64 2 (128)
I1025 11:38:30.318030 23485 net.cpp:165] Memory required for data: 2566239252
I1025 11:38:30.318037 23485 layer_factory.hpp:77] Creating layer loss_Wearing_Lipstick
I1025 11:38:30.318045 23485 net.cpp:106] Creating Layer loss_Wearing_Lipstick
I1025 11:38:30.318050 23485 net.cpp:454] loss_Wearing_Lipstick <- fc3_Wearing_Lipstick
I1025 11:38:30.318056 23485 net.cpp:454] loss_Wearing_Lipstick <- label_Wearing_Lipstick
I1025 11:38:30.318061 23485 net.cpp:411] loss_Wearing_Lipstick -> loss_Wearing_Lipstick
I1025 11:38:30.318120 23485 net.cpp:150] Setting up loss_Wearing_Lipstick
I1025 11:38:30.318130 23485 net.cpp:157] Top shape: (1)
I1025 11:38:30.318132 23485 net.cpp:160]     with loss weight 1
I1025 11:38:30.318137 23485 net.cpp:165] Memory required for data: 2566239256
I1025 11:38:30.318141 23485 layer_factory.hpp:77] Creating layer fc3_Mouth_Slightly_Open
I1025 11:38:30.318148 23485 net.cpp:106] Creating Layer fc3_Mouth_Slightly_Open
I1025 11:38:30.318153 23485 net.cpp:454] fc3_Mouth_Slightly_Open <- fc2_mouth_drop2_mouth_0_split_3
I1025 11:38:30.318159 23485 net.cpp:411] fc3_Mouth_Slightly_Open -> fc3_Mouth_Slightly_Open
I1025 11:38:30.318317 23485 net.cpp:150] Setting up fc3_Mouth_Slightly_Open
I1025 11:38:30.318327 23485 net.cpp:157] Top shape: 64 2 (128)
I1025 11:38:30.318331 23485 net.cpp:165] Memory required for data: 2566239768
I1025 11:38:30.318346 23485 layer_factory.hpp:77] Creating layer loss_Mouth_Slightly_Open
I1025 11:38:30.318361 23485 net.cpp:106] Creating Layer loss_Mouth_Slightly_Open
I1025 11:38:30.318366 23485 net.cpp:454] loss_Mouth_Slightly_Open <- fc3_Mouth_Slightly_Open
I1025 11:38:30.318372 23485 net.cpp:454] loss_Mouth_Slightly_Open <- label_Mouth_Slightly_Open
I1025 11:38:30.318377 23485 net.cpp:411] loss_Mouth_Slightly_Open -> loss_Mouth_Slightly_Open
I1025 11:38:30.318437 23485 net.cpp:150] Setting up loss_Mouth_Slightly_Open
I1025 11:38:30.318446 23485 net.cpp:157] Top shape: (1)
I1025 11:38:30.318450 23485 net.cpp:160]     with loss weight 1
I1025 11:38:30.318455 23485 net.cpp:165] Memory required for data: 2566239772
I1025 11:38:30.318459 23485 layer_factory.hpp:77] Creating layer fc3_Arched_Eyebrows
I1025 11:38:30.318465 23485 net.cpp:106] Creating Layer fc3_Arched_Eyebrows
I1025 11:38:30.318471 23485 net.cpp:454] fc3_Arched_Eyebrows <- fc2_eyes_drop2_eyes_0_split_0
I1025 11:38:30.318477 23485 net.cpp:411] fc3_Arched_Eyebrows -> fc3_Arched_Eyebrows
I1025 11:38:30.318630 23485 net.cpp:150] Setting up fc3_Arched_Eyebrows
I1025 11:38:30.318639 23485 net.cpp:157] Top shape: 64 2 (128)
I1025 11:38:30.318644 23485 net.cpp:165] Memory required for data: 2566240284
I1025 11:38:30.318650 23485 layer_factory.hpp:77] Creating layer loss_Arched_Eyebrows
I1025 11:38:30.318660 23485 net.cpp:106] Creating Layer loss_Arched_Eyebrows
I1025 11:38:30.318665 23485 net.cpp:454] loss_Arched_Eyebrows <- fc3_Arched_Eyebrows
I1025 11:38:30.318670 23485 net.cpp:454] loss_Arched_Eyebrows <- label_Arched_Eyebrows
I1025 11:38:30.318675 23485 net.cpp:411] loss_Arched_Eyebrows -> loss_Arched_Eyebrows
I1025 11:38:30.318732 23485 net.cpp:150] Setting up loss_Arched_Eyebrows
I1025 11:38:30.318740 23485 net.cpp:157] Top shape: (1)
I1025 11:38:30.318743 23485 net.cpp:160]     with loss weight 1
I1025 11:38:30.318748 23485 net.cpp:165] Memory required for data: 2566240288
I1025 11:38:30.318753 23485 layer_factory.hpp:77] Creating layer fc3_Bags_Under_Eyes
I1025 11:38:30.318760 23485 net.cpp:106] Creating Layer fc3_Bags_Under_Eyes
I1025 11:38:30.318764 23485 net.cpp:454] fc3_Bags_Under_Eyes <- fc2_eyes_drop2_eyes_0_split_1
I1025 11:38:30.318770 23485 net.cpp:411] fc3_Bags_Under_Eyes -> fc3_Bags_Under_Eyes
I1025 11:38:30.318923 23485 net.cpp:150] Setting up fc3_Bags_Under_Eyes
I1025 11:38:30.318933 23485 net.cpp:157] Top shape: 64 2 (128)
I1025 11:38:30.318936 23485 net.cpp:165] Memory required for data: 2566240800
I1025 11:38:30.318943 23485 layer_factory.hpp:77] Creating layer loss_Bags_Under_Eyes
I1025 11:38:30.318953 23485 net.cpp:106] Creating Layer loss_Bags_Under_Eyes
I1025 11:38:30.318956 23485 net.cpp:454] loss_Bags_Under_Eyes <- fc3_Bags_Under_Eyes
I1025 11:38:30.318961 23485 net.cpp:454] loss_Bags_Under_Eyes <- label_Bags_Under_Eyes
I1025 11:38:30.318966 23485 net.cpp:411] loss_Bags_Under_Eyes -> loss_Bags_Under_Eyes
I1025 11:38:30.319023 23485 net.cpp:150] Setting up loss_Bags_Under_Eyes
I1025 11:38:30.319031 23485 net.cpp:157] Top shape: (1)
I1025 11:38:30.319036 23485 net.cpp:160]     with loss weight 1
I1025 11:38:30.319041 23485 net.cpp:165] Memory required for data: 2566240804
I1025 11:38:30.319043 23485 layer_factory.hpp:77] Creating layer fc3_Bushy_Eyebrows
I1025 11:38:30.319051 23485 net.cpp:106] Creating Layer fc3_Bushy_Eyebrows
I1025 11:38:30.319056 23485 net.cpp:454] fc3_Bushy_Eyebrows <- fc2_eyes_drop2_eyes_0_split_2
I1025 11:38:30.319061 23485 net.cpp:411] fc3_Bushy_Eyebrows -> fc3_Bushy_Eyebrows
I1025 11:38:30.319213 23485 net.cpp:150] Setting up fc3_Bushy_Eyebrows
I1025 11:38:30.319222 23485 net.cpp:157] Top shape: 64 2 (128)
I1025 11:38:30.319226 23485 net.cpp:165] Memory required for data: 2566241316
I1025 11:38:30.319232 23485 layer_factory.hpp:77] Creating layer loss_Bushy_Eyebrows
I1025 11:38:30.319242 23485 net.cpp:106] Creating Layer loss_Bushy_Eyebrows
I1025 11:38:30.319247 23485 net.cpp:454] loss_Bushy_Eyebrows <- fc3_Bushy_Eyebrows
I1025 11:38:30.319252 23485 net.cpp:454] loss_Bushy_Eyebrows <- label_Bushy_Eyebrows
I1025 11:38:30.319267 23485 net.cpp:411] loss_Bushy_Eyebrows -> loss_Bushy_Eyebrows
I1025 11:38:30.319326 23485 net.cpp:150] Setting up loss_Bushy_Eyebrows
I1025 11:38:30.319335 23485 net.cpp:157] Top shape: (1)
I1025 11:38:30.319339 23485 net.cpp:160]     with loss weight 1
I1025 11:38:30.319344 23485 net.cpp:165] Memory required for data: 2566241320
I1025 11:38:30.319349 23485 layer_factory.hpp:77] Creating layer fc3_Narrow_Eyes
I1025 11:38:30.319355 23485 net.cpp:106] Creating Layer fc3_Narrow_Eyes
I1025 11:38:30.319358 23485 net.cpp:454] fc3_Narrow_Eyes <- fc2_eyes_drop2_eyes_0_split_3
I1025 11:38:30.319365 23485 net.cpp:411] fc3_Narrow_Eyes -> fc3_Narrow_Eyes
I1025 11:38:30.319521 23485 net.cpp:150] Setting up fc3_Narrow_Eyes
I1025 11:38:30.319531 23485 net.cpp:157] Top shape: 64 2 (128)
I1025 11:38:30.319535 23485 net.cpp:165] Memory required for data: 2566241832
I1025 11:38:30.319540 23485 layer_factory.hpp:77] Creating layer loss_Narrow_Eyes
I1025 11:38:30.319550 23485 net.cpp:106] Creating Layer loss_Narrow_Eyes
I1025 11:38:30.319555 23485 net.cpp:454] loss_Narrow_Eyes <- fc3_Narrow_Eyes
I1025 11:38:30.319561 23485 net.cpp:454] loss_Narrow_Eyes <- label_Narrow_Eyes
I1025 11:38:30.319566 23485 net.cpp:411] loss_Narrow_Eyes -> loss_Narrow_Eyes
I1025 11:38:30.319622 23485 net.cpp:150] Setting up loss_Narrow_Eyes
I1025 11:38:30.319631 23485 net.cpp:157] Top shape: (1)
I1025 11:38:30.319635 23485 net.cpp:160]     with loss weight 1
I1025 11:38:30.319640 23485 net.cpp:165] Memory required for data: 2566241836
I1025 11:38:30.319643 23485 layer_factory.hpp:77] Creating layer fc3_Eyeglasses
I1025 11:38:30.319651 23485 net.cpp:106] Creating Layer fc3_Eyeglasses
I1025 11:38:30.319655 23485 net.cpp:454] fc3_Eyeglasses <- fc2_eyes_drop2_eyes_0_split_4
I1025 11:38:30.319661 23485 net.cpp:411] fc3_Eyeglasses -> fc3_Eyeglasses
I1025 11:38:30.319826 23485 net.cpp:150] Setting up fc3_Eyeglasses
I1025 11:38:30.319838 23485 net.cpp:157] Top shape: 64 2 (128)
I1025 11:38:30.319840 23485 net.cpp:165] Memory required for data: 2566242348
I1025 11:38:30.319847 23485 layer_factory.hpp:77] Creating layer loss_Eyeglasses
I1025 11:38:30.319857 23485 net.cpp:106] Creating Layer loss_Eyeglasses
I1025 11:38:30.319862 23485 net.cpp:454] loss_Eyeglasses <- fc3_Eyeglasses
I1025 11:38:30.319867 23485 net.cpp:454] loss_Eyeglasses <- label_Eyeglasses
I1025 11:38:30.319872 23485 net.cpp:411] loss_Eyeglasses -> loss_Eyeglasses
I1025 11:38:30.319931 23485 net.cpp:150] Setting up loss_Eyeglasses
I1025 11:38:30.319939 23485 net.cpp:157] Top shape: (1)
I1025 11:38:30.319942 23485 net.cpp:160]     with loss weight 1
I1025 11:38:30.319947 23485 net.cpp:165] Memory required for data: 2566242352
I1025 11:38:30.319952 23485 layer_factory.hpp:77] Creating layer fc3_Attractive
I1025 11:38:30.319958 23485 net.cpp:106] Creating Layer fc3_Attractive
I1025 11:38:30.319963 23485 net.cpp:454] fc3_Attractive <- fc2_face_drop2_face_0_split_0
I1025 11:38:30.319968 23485 net.cpp:411] fc3_Attractive -> fc3_Attractive
I1025 11:38:30.320124 23485 net.cpp:150] Setting up fc3_Attractive
I1025 11:38:30.320134 23485 net.cpp:157] Top shape: 64 2 (128)
I1025 11:38:30.320137 23485 net.cpp:165] Memory required for data: 2566242864
I1025 11:38:30.320143 23485 layer_factory.hpp:77] Creating layer loss_Attractive
I1025 11:38:30.320157 23485 net.cpp:106] Creating Layer loss_Attractive
I1025 11:38:30.320161 23485 net.cpp:454] loss_Attractive <- fc3_Attractive
I1025 11:38:30.320166 23485 net.cpp:454] loss_Attractive <- label_Attractive
I1025 11:38:30.320171 23485 net.cpp:411] loss_Attractive -> loss_Attractive
I1025 11:38:30.320227 23485 net.cpp:150] Setting up loss_Attractive
I1025 11:38:30.320235 23485 net.cpp:157] Top shape: (1)
I1025 11:38:30.320240 23485 net.cpp:160]     with loss weight 1
I1025 11:38:30.320245 23485 net.cpp:165] Memory required for data: 2566242868
I1025 11:38:30.320248 23485 layer_factory.hpp:77] Creating layer fc3_Blurry
I1025 11:38:30.320255 23485 net.cpp:106] Creating Layer fc3_Blurry
I1025 11:38:30.320260 23485 net.cpp:454] fc3_Blurry <- fc2_face_drop2_face_0_split_1
I1025 11:38:30.320276 23485 net.cpp:411] fc3_Blurry -> fc3_Blurry
I1025 11:38:30.320435 23485 net.cpp:150] Setting up fc3_Blurry
I1025 11:38:30.320443 23485 net.cpp:157] Top shape: 64 2 (128)
I1025 11:38:30.320447 23485 net.cpp:165] Memory required for data: 2566243380
I1025 11:38:30.320453 23485 layer_factory.hpp:77] Creating layer loss_Blurry
I1025 11:38:30.320461 23485 net.cpp:106] Creating Layer loss_Blurry
I1025 11:38:30.320466 23485 net.cpp:454] loss_Blurry <- fc3_Blurry
I1025 11:38:30.320472 23485 net.cpp:454] loss_Blurry <- label_Blurry
I1025 11:38:30.320477 23485 net.cpp:411] loss_Blurry -> loss_Blurry
I1025 11:38:30.320533 23485 net.cpp:150] Setting up loss_Blurry
I1025 11:38:30.320541 23485 net.cpp:157] Top shape: (1)
I1025 11:38:30.320545 23485 net.cpp:160]     with loss weight 1
I1025 11:38:30.320550 23485 net.cpp:165] Memory required for data: 2566243384
I1025 11:38:30.320554 23485 layer_factory.hpp:77] Creating layer fc3_Oval_Face
I1025 11:38:30.320561 23485 net.cpp:106] Creating Layer fc3_Oval_Face
I1025 11:38:30.320565 23485 net.cpp:454] fc3_Oval_Face <- fc2_face_drop2_face_0_split_2
I1025 11:38:30.320570 23485 net.cpp:411] fc3_Oval_Face -> fc3_Oval_Face
I1025 11:38:30.320727 23485 net.cpp:150] Setting up fc3_Oval_Face
I1025 11:38:30.320736 23485 net.cpp:157] Top shape: 64 2 (128)
I1025 11:38:30.320740 23485 net.cpp:165] Memory required for data: 2566243896
I1025 11:38:30.320745 23485 layer_factory.hpp:77] Creating layer loss_Oval_Face
I1025 11:38:30.320755 23485 net.cpp:106] Creating Layer loss_Oval_Face
I1025 11:38:30.320760 23485 net.cpp:454] loss_Oval_Face <- fc3_Oval_Face
I1025 11:38:30.320765 23485 net.cpp:454] loss_Oval_Face <- label_Oval_Face
I1025 11:38:30.320770 23485 net.cpp:411] loss_Oval_Face -> loss_Oval_Face
I1025 11:38:30.320827 23485 net.cpp:150] Setting up loss_Oval_Face
I1025 11:38:30.320835 23485 net.cpp:157] Top shape: (1)
I1025 11:38:30.320838 23485 net.cpp:160]     with loss weight 1
I1025 11:38:30.320843 23485 net.cpp:165] Memory required for data: 2566243900
I1025 11:38:30.320847 23485 layer_factory.hpp:77] Creating layer fc3_Pale_Skin
I1025 11:38:30.320854 23485 net.cpp:106] Creating Layer fc3_Pale_Skin
I1025 11:38:30.320858 23485 net.cpp:454] fc3_Pale_Skin <- fc2_face_drop2_face_0_split_3
I1025 11:38:30.320864 23485 net.cpp:411] fc3_Pale_Skin -> fc3_Pale_Skin
I1025 11:38:30.321017 23485 net.cpp:150] Setting up fc3_Pale_Skin
I1025 11:38:30.321027 23485 net.cpp:157] Top shape: 64 2 (128)
I1025 11:38:30.321030 23485 net.cpp:165] Memory required for data: 2566244412
I1025 11:38:30.321036 23485 layer_factory.hpp:77] Creating layer loss_Pale_Skin
I1025 11:38:30.321046 23485 net.cpp:106] Creating Layer loss_Pale_Skin
I1025 11:38:30.321050 23485 net.cpp:454] loss_Pale_Skin <- fc3_Pale_Skin
I1025 11:38:30.321055 23485 net.cpp:454] loss_Pale_Skin <- label_Pale_Skin
I1025 11:38:30.321060 23485 net.cpp:411] loss_Pale_Skin -> loss_Pale_Skin
I1025 11:38:30.321115 23485 net.cpp:150] Setting up loss_Pale_Skin
I1025 11:38:30.321125 23485 net.cpp:157] Top shape: (1)
I1025 11:38:30.321127 23485 net.cpp:160]     with loss weight 1
I1025 11:38:30.321132 23485 net.cpp:165] Memory required for data: 2566244416
I1025 11:38:30.321136 23485 layer_factory.hpp:77] Creating layer fc3_Young
I1025 11:38:30.321143 23485 net.cpp:106] Creating Layer fc3_Young
I1025 11:38:30.321147 23485 net.cpp:454] fc3_Young <- fc2_face_drop2_face_0_split_4
I1025 11:38:30.321153 23485 net.cpp:411] fc3_Young -> fc3_Young
I1025 11:38:30.321305 23485 net.cpp:150] Setting up fc3_Young
I1025 11:38:30.321313 23485 net.cpp:157] Top shape: 64 2 (128)
I1025 11:38:30.321317 23485 net.cpp:165] Memory required for data: 2566244928
I1025 11:38:30.321323 23485 layer_factory.hpp:77] Creating layer loss_Young
I1025 11:38:30.321331 23485 net.cpp:106] Creating Layer loss_Young
I1025 11:38:30.321336 23485 net.cpp:454] loss_Young <- fc3_Young
I1025 11:38:30.321341 23485 net.cpp:454] loss_Young <- label_Young
I1025 11:38:30.321346 23485 net.cpp:411] loss_Young -> loss_Young
I1025 11:38:30.321401 23485 net.cpp:150] Setting up loss_Young
I1025 11:38:30.321419 23485 net.cpp:157] Top shape: (1)
I1025 11:38:30.321424 23485 net.cpp:160]     with loss weight 1
I1025 11:38:30.321429 23485 net.cpp:165] Memory required for data: 2566244932
I1025 11:38:30.321434 23485 layer_factory.hpp:77] Creating layer fc3_Heavy_Makeup
I1025 11:38:30.321440 23485 net.cpp:106] Creating Layer fc3_Heavy_Makeup
I1025 11:38:30.321444 23485 net.cpp:454] fc3_Heavy_Makeup <- fc2_face_drop2_face_0_split_5
I1025 11:38:30.321450 23485 net.cpp:411] fc3_Heavy_Makeup -> fc3_Heavy_Makeup
I1025 11:38:30.321605 23485 net.cpp:150] Setting up fc3_Heavy_Makeup
I1025 11:38:30.321615 23485 net.cpp:157] Top shape: 64 2 (128)
I1025 11:38:30.321619 23485 net.cpp:165] Memory required for data: 2566245444
I1025 11:38:30.321625 23485 layer_factory.hpp:77] Creating layer loss_Heavy_Makeup
I1025 11:38:30.321632 23485 net.cpp:106] Creating Layer loss_Heavy_Makeup
I1025 11:38:30.321637 23485 net.cpp:454] loss_Heavy_Makeup <- fc3_Heavy_Makeup
I1025 11:38:30.321642 23485 net.cpp:454] loss_Heavy_Makeup <- label_Heavy_Makeup
I1025 11:38:30.321647 23485 net.cpp:411] loss_Heavy_Makeup -> loss_Heavy_Makeup
I1025 11:38:30.321703 23485 net.cpp:150] Setting up loss_Heavy_Makeup
I1025 11:38:30.321712 23485 net.cpp:157] Top shape: (1)
I1025 11:38:30.321715 23485 net.cpp:160]     with loss weight 1
I1025 11:38:30.321720 23485 net.cpp:165] Memory required for data: 2566245448
I1025 11:38:30.321723 23485 layer_factory.hpp:77] Creating layer fc3_Black_Hair
I1025 11:38:30.321730 23485 net.cpp:106] Creating Layer fc3_Black_Hair
I1025 11:38:30.321735 23485 net.cpp:454] fc3_Black_Hair <- fc2_aroundhead_drop2_aroundhead_0_split_0
I1025 11:38:30.321741 23485 net.cpp:411] fc3_Black_Hair -> fc3_Black_Hair
I1025 11:38:30.321895 23485 net.cpp:150] Setting up fc3_Black_Hair
I1025 11:38:30.321905 23485 net.cpp:157] Top shape: 64 2 (128)
I1025 11:38:30.321908 23485 net.cpp:165] Memory required for data: 2566245960
I1025 11:38:30.321914 23485 layer_factory.hpp:77] Creating layer loss_Black_Hair
I1025 11:38:30.321923 23485 net.cpp:106] Creating Layer loss_Black_Hair
I1025 11:38:30.321928 23485 net.cpp:454] loss_Black_Hair <- fc3_Black_Hair
I1025 11:38:30.321933 23485 net.cpp:454] loss_Black_Hair <- label_Black_Hair
I1025 11:38:30.321938 23485 net.cpp:411] loss_Black_Hair -> loss_Black_Hair
I1025 11:38:30.321993 23485 net.cpp:150] Setting up loss_Black_Hair
I1025 11:38:30.322002 23485 net.cpp:157] Top shape: (1)
I1025 11:38:30.322005 23485 net.cpp:160]     with loss weight 1
I1025 11:38:30.322010 23485 net.cpp:165] Memory required for data: 2566245964
I1025 11:38:30.322016 23485 layer_factory.hpp:77] Creating layer fc3_Blond_Hair
I1025 11:38:30.322021 23485 net.cpp:106] Creating Layer fc3_Blond_Hair
I1025 11:38:30.322026 23485 net.cpp:454] fc3_Blond_Hair <- fc2_aroundhead_drop2_aroundhead_0_split_1
I1025 11:38:30.322031 23485 net.cpp:411] fc3_Blond_Hair -> fc3_Blond_Hair
I1025 11:38:30.322186 23485 net.cpp:150] Setting up fc3_Blond_Hair
I1025 11:38:30.322196 23485 net.cpp:157] Top shape: 64 2 (128)
I1025 11:38:30.322199 23485 net.cpp:165] Memory required for data: 2566246476
I1025 11:38:30.322206 23485 layer_factory.hpp:77] Creating layer loss_Blond_Hair
I1025 11:38:30.322214 23485 net.cpp:106] Creating Layer loss_Blond_Hair
I1025 11:38:30.322218 23485 net.cpp:454] loss_Blond_Hair <- fc3_Blond_Hair
I1025 11:38:30.322223 23485 net.cpp:454] loss_Blond_Hair <- label_Blond_Hair
I1025 11:38:30.322227 23485 net.cpp:411] loss_Blond_Hair -> loss_Blond_Hair
I1025 11:38:30.322283 23485 net.cpp:150] Setting up loss_Blond_Hair
I1025 11:38:30.322293 23485 net.cpp:157] Top shape: (1)
I1025 11:38:30.322295 23485 net.cpp:160]     with loss weight 1
I1025 11:38:30.322301 23485 net.cpp:165] Memory required for data: 2566246480
I1025 11:38:30.322304 23485 layer_factory.hpp:77] Creating layer fc3_Brown_Hair
I1025 11:38:30.322312 23485 net.cpp:106] Creating Layer fc3_Brown_Hair
I1025 11:38:30.322317 23485 net.cpp:454] fc3_Brown_Hair <- fc2_aroundhead_drop2_aroundhead_0_split_2
I1025 11:38:30.322324 23485 net.cpp:411] fc3_Brown_Hair -> fc3_Brown_Hair
I1025 11:38:30.322490 23485 net.cpp:150] Setting up fc3_Brown_Hair
I1025 11:38:30.322501 23485 net.cpp:157] Top shape: 64 2 (128)
I1025 11:38:30.322504 23485 net.cpp:165] Memory required for data: 2566246992
I1025 11:38:30.322510 23485 layer_factory.hpp:77] Creating layer loss_Brown_Hair
I1025 11:38:30.322518 23485 net.cpp:106] Creating Layer loss_Brown_Hair
I1025 11:38:30.322522 23485 net.cpp:454] loss_Brown_Hair <- fc3_Brown_Hair
I1025 11:38:30.322527 23485 net.cpp:454] loss_Brown_Hair <- label_Brown_Hair
I1025 11:38:30.322532 23485 net.cpp:411] loss_Brown_Hair -> loss_Brown_Hair
I1025 11:38:30.322590 23485 net.cpp:150] Setting up loss_Brown_Hair
I1025 11:38:30.322599 23485 net.cpp:157] Top shape: (1)
I1025 11:38:30.322602 23485 net.cpp:160]     with loss weight 1
I1025 11:38:30.322607 23485 net.cpp:165] Memory required for data: 2566246996
I1025 11:38:30.322613 23485 layer_factory.hpp:77] Creating layer fc3_Gray_Hair
I1025 11:38:30.322618 23485 net.cpp:106] Creating Layer fc3_Gray_Hair
I1025 11:38:30.322623 23485 net.cpp:454] fc3_Gray_Hair <- fc2_aroundhead_drop2_aroundhead_0_split_3
I1025 11:38:30.322628 23485 net.cpp:411] fc3_Gray_Hair -> fc3_Gray_Hair
I1025 11:38:30.322785 23485 net.cpp:150] Setting up fc3_Gray_Hair
I1025 11:38:30.322794 23485 net.cpp:157] Top shape: 64 2 (128)
I1025 11:38:30.322798 23485 net.cpp:165] Memory required for data: 2566247508
I1025 11:38:30.322803 23485 layer_factory.hpp:77] Creating layer loss_Gray_Hair
I1025 11:38:30.322813 23485 net.cpp:106] Creating Layer loss_Gray_Hair
I1025 11:38:30.322816 23485 net.cpp:454] loss_Gray_Hair <- fc3_Gray_Hair
I1025 11:38:30.322821 23485 net.cpp:454] loss_Gray_Hair <- label_Gray_Hair
I1025 11:38:30.322827 23485 net.cpp:411] loss_Gray_Hair -> loss_Gray_Hair
I1025 11:38:30.322881 23485 net.cpp:150] Setting up loss_Gray_Hair
I1025 11:38:30.322890 23485 net.cpp:157] Top shape: (1)
I1025 11:38:30.322893 23485 net.cpp:160]     with loss weight 1
I1025 11:38:30.322898 23485 net.cpp:165] Memory required for data: 2566247512
I1025 11:38:30.322902 23485 layer_factory.hpp:77] Creating layer fc3_Wearing_Earrings
I1025 11:38:30.322911 23485 net.cpp:106] Creating Layer fc3_Wearing_Earrings
I1025 11:38:30.322914 23485 net.cpp:454] fc3_Wearing_Earrings <- fc2_aroundhead_drop2_aroundhead_0_split_4
I1025 11:38:30.322921 23485 net.cpp:411] fc3_Wearing_Earrings -> fc3_Wearing_Earrings
I1025 11:38:30.323076 23485 net.cpp:150] Setting up fc3_Wearing_Earrings
I1025 11:38:30.323084 23485 net.cpp:157] Top shape: 64 2 (128)
I1025 11:38:30.323088 23485 net.cpp:165] Memory required for data: 2566248024
I1025 11:38:30.323093 23485 layer_factory.hpp:77] Creating layer loss_Wearing_Earrings
I1025 11:38:30.323106 23485 net.cpp:106] Creating Layer loss_Wearing_Earrings
I1025 11:38:30.323109 23485 net.cpp:454] loss_Wearing_Earrings <- fc3_Wearing_Earrings
I1025 11:38:30.323115 23485 net.cpp:454] loss_Wearing_Earrings <- label_Wearing_Earrings
I1025 11:38:30.323120 23485 net.cpp:411] loss_Wearing_Earrings -> loss_Wearing_Earrings
I1025 11:38:30.323179 23485 net.cpp:150] Setting up loss_Wearing_Earrings
I1025 11:38:30.323187 23485 net.cpp:157] Top shape: (1)
I1025 11:38:30.323190 23485 net.cpp:160]     with loss weight 1
I1025 11:38:30.323195 23485 net.cpp:165] Memory required for data: 2566248028
I1025 11:38:30.323200 23485 layer_factory.hpp:77] Creating layer fc3_Wearing_Necklace
I1025 11:38:30.323209 23485 net.cpp:106] Creating Layer fc3_Wearing_Necklace
I1025 11:38:30.323212 23485 net.cpp:454] fc3_Wearing_Necklace <- fc2_aroundhead_drop2_aroundhead_0_split_5
I1025 11:38:30.323217 23485 net.cpp:411] fc3_Wearing_Necklace -> fc3_Wearing_Necklace
I1025 11:38:30.323376 23485 net.cpp:150] Setting up fc3_Wearing_Necklace
I1025 11:38:30.323385 23485 net.cpp:157] Top shape: 64 2 (128)
I1025 11:38:30.323390 23485 net.cpp:165] Memory required for data: 2566248540
I1025 11:38:30.323395 23485 layer_factory.hpp:77] Creating layer loss_Wearing_Necklace
I1025 11:38:30.323405 23485 net.cpp:106] Creating Layer loss_Wearing_Necklace
I1025 11:38:30.323410 23485 net.cpp:454] loss_Wearing_Necklace <- fc3_Wearing_Necklace
I1025 11:38:30.323424 23485 net.cpp:454] loss_Wearing_Necklace <- label_Wearing_Necklace
I1025 11:38:30.323431 23485 net.cpp:411] loss_Wearing_Necklace -> loss_Wearing_Necklace
I1025 11:38:30.323488 23485 net.cpp:150] Setting up loss_Wearing_Necklace
I1025 11:38:30.323498 23485 net.cpp:157] Top shape: (1)
I1025 11:38:30.323500 23485 net.cpp:160]     with loss weight 1
I1025 11:38:30.323506 23485 net.cpp:165] Memory required for data: 2566248544
I1025 11:38:30.323509 23485 layer_factory.hpp:77] Creating layer fc3_Wearing_Necktie
I1025 11:38:30.323518 23485 net.cpp:106] Creating Layer fc3_Wearing_Necktie
I1025 11:38:30.323521 23485 net.cpp:454] fc3_Wearing_Necktie <- fc2_aroundhead_drop2_aroundhead_0_split_6
I1025 11:38:30.323528 23485 net.cpp:411] fc3_Wearing_Necktie -> fc3_Wearing_Necktie
I1025 11:38:30.323686 23485 net.cpp:150] Setting up fc3_Wearing_Necktie
I1025 11:38:30.323696 23485 net.cpp:157] Top shape: 64 2 (128)
I1025 11:38:30.323699 23485 net.cpp:165] Memory required for data: 2566249056
I1025 11:38:30.323705 23485 layer_factory.hpp:77] Creating layer loss_Wearing_Necktie
I1025 11:38:30.323714 23485 net.cpp:106] Creating Layer loss_Wearing_Necktie
I1025 11:38:30.323717 23485 net.cpp:454] loss_Wearing_Necktie <- fc3_Wearing_Necktie
I1025 11:38:30.323722 23485 net.cpp:454] loss_Wearing_Necktie <- label_Wearing_Necktie
I1025 11:38:30.323729 23485 net.cpp:411] loss_Wearing_Necktie -> loss_Wearing_Necktie
I1025 11:38:30.323793 23485 net.cpp:150] Setting up loss_Wearing_Necktie
I1025 11:38:30.323802 23485 net.cpp:157] Top shape: (1)
I1025 11:38:30.323807 23485 net.cpp:160]     with loss weight 1
I1025 11:38:30.323812 23485 net.cpp:165] Memory required for data: 2566249060
I1025 11:38:30.323817 23485 layer_factory.hpp:77] Creating layer fc3_Bald
I1025 11:38:30.323822 23485 net.cpp:106] Creating Layer fc3_Bald
I1025 11:38:30.323827 23485 net.cpp:454] fc3_Bald <- fc2_aroundhead_drop2_aroundhead_0_split_7
I1025 11:38:30.323832 23485 net.cpp:411] fc3_Bald -> fc3_Bald
I1025 11:38:30.323995 23485 net.cpp:150] Setting up fc3_Bald
I1025 11:38:30.324004 23485 net.cpp:157] Top shape: 64 2 (128)
I1025 11:38:30.324008 23485 net.cpp:165] Memory required for data: 2566249572
I1025 11:38:30.324013 23485 layer_factory.hpp:77] Creating layer loss_Bald
I1025 11:38:30.324021 23485 net.cpp:106] Creating Layer loss_Bald
I1025 11:38:30.324026 23485 net.cpp:454] loss_Bald <- fc3_Bald
I1025 11:38:30.324030 23485 net.cpp:454] loss_Bald <- label_Bald
I1025 11:38:30.324035 23485 net.cpp:411] loss_Bald -> loss_Bald
I1025 11:38:30.324091 23485 net.cpp:150] Setting up loss_Bald
I1025 11:38:30.324100 23485 net.cpp:157] Top shape: (1)
I1025 11:38:30.324103 23485 net.cpp:160]     with loss weight 1
I1025 11:38:30.324108 23485 net.cpp:165] Memory required for data: 2566249576
I1025 11:38:30.324111 23485 layer_factory.hpp:77] Creating layer fc3_Receding_Hairline
I1025 11:38:30.324120 23485 net.cpp:106] Creating Layer fc3_Receding_Hairline
I1025 11:38:30.324123 23485 net.cpp:454] fc3_Receding_Hairline <- fc2_aroundhead_drop2_aroundhead_0_split_8
I1025 11:38:30.324129 23485 net.cpp:411] fc3_Receding_Hairline -> fc3_Receding_Hairline
I1025 11:38:30.324285 23485 net.cpp:150] Setting up fc3_Receding_Hairline
I1025 11:38:30.324296 23485 net.cpp:157] Top shape: 64 2 (128)
I1025 11:38:30.324300 23485 net.cpp:165] Memory required for data: 2566250088
I1025 11:38:30.324306 23485 layer_factory.hpp:77] Creating layer loss_Receding_Hairline
I1025 11:38:30.324313 23485 net.cpp:106] Creating Layer loss_Receding_Hairline
I1025 11:38:30.324318 23485 net.cpp:454] loss_Receding_Hairline <- fc3_Receding_Hairline
I1025 11:38:30.324323 23485 net.cpp:454] loss_Receding_Hairline <- label_Receding_Hairline
I1025 11:38:30.324328 23485 net.cpp:411] loss_Receding_Hairline -> loss_Receding_Hairline
I1025 11:38:30.324384 23485 net.cpp:150] Setting up loss_Receding_Hairline
I1025 11:38:30.324393 23485 net.cpp:157] Top shape: (1)
I1025 11:38:30.324396 23485 net.cpp:160]     with loss weight 1
I1025 11:38:30.324403 23485 net.cpp:165] Memory required for data: 2566250092
I1025 11:38:30.324416 23485 layer_factory.hpp:77] Creating layer fc3_Bangs
I1025 11:38:30.324424 23485 net.cpp:106] Creating Layer fc3_Bangs
I1025 11:38:30.324427 23485 net.cpp:454] fc3_Bangs <- fc2_aroundhead_drop2_aroundhead_0_split_9
I1025 11:38:30.324434 23485 net.cpp:411] fc3_Bangs -> fc3_Bangs
I1025 11:38:30.324595 23485 net.cpp:150] Setting up fc3_Bangs
I1025 11:38:30.324605 23485 net.cpp:157] Top shape: 64 2 (128)
I1025 11:38:30.324609 23485 net.cpp:165] Memory required for data: 2566250604
I1025 11:38:30.324615 23485 layer_factory.hpp:77] Creating layer loss_Bangs
I1025 11:38:30.324622 23485 net.cpp:106] Creating Layer loss_Bangs
I1025 11:38:30.324627 23485 net.cpp:454] loss_Bangs <- fc3_Bangs
I1025 11:38:30.324632 23485 net.cpp:454] loss_Bangs <- label_Bangs
I1025 11:38:30.324637 23485 net.cpp:411] loss_Bangs -> loss_Bangs
I1025 11:38:30.324693 23485 net.cpp:150] Setting up loss_Bangs
I1025 11:38:30.324702 23485 net.cpp:157] Top shape: (1)
I1025 11:38:30.324705 23485 net.cpp:160]     with loss weight 1
I1025 11:38:30.324710 23485 net.cpp:165] Memory required for data: 2566250608
I1025 11:38:30.324714 23485 layer_factory.hpp:77] Creating layer fc3_Wearing_Hat
I1025 11:38:30.324722 23485 net.cpp:106] Creating Layer fc3_Wearing_Hat
I1025 11:38:30.324725 23485 net.cpp:454] fc3_Wearing_Hat <- fc2_aroundhead_drop2_aroundhead_0_split_10
I1025 11:38:30.324731 23485 net.cpp:411] fc3_Wearing_Hat -> fc3_Wearing_Hat
I1025 11:38:30.324887 23485 net.cpp:150] Setting up fc3_Wearing_Hat
I1025 11:38:30.324897 23485 net.cpp:157] Top shape: 64 2 (128)
I1025 11:38:30.324900 23485 net.cpp:165] Memory required for data: 2566251120
I1025 11:38:30.324906 23485 layer_factory.hpp:77] Creating layer loss_Wearing_Hat
I1025 11:38:30.324914 23485 net.cpp:106] Creating Layer loss_Wearing_Hat
I1025 11:38:30.324918 23485 net.cpp:454] loss_Wearing_Hat <- fc3_Wearing_Hat
I1025 11:38:30.324924 23485 net.cpp:454] loss_Wearing_Hat <- label_Wearing_Hat
I1025 11:38:30.324929 23485 net.cpp:411] loss_Wearing_Hat -> loss_Wearing_Hat
I1025 11:38:30.324985 23485 net.cpp:150] Setting up loss_Wearing_Hat
I1025 11:38:30.324993 23485 net.cpp:157] Top shape: (1)
I1025 11:38:30.324996 23485 net.cpp:160]     with loss weight 1
I1025 11:38:30.325001 23485 net.cpp:165] Memory required for data: 2566251124
I1025 11:38:30.325006 23485 layer_factory.hpp:77] Creating layer fc3_Straight_Hair
I1025 11:38:30.325012 23485 net.cpp:106] Creating Layer fc3_Straight_Hair
I1025 11:38:30.325016 23485 net.cpp:454] fc3_Straight_Hair <- fc2_aroundhead_drop2_aroundhead_0_split_11
I1025 11:38:30.325022 23485 net.cpp:411] fc3_Straight_Hair -> fc3_Straight_Hair
I1025 11:38:30.325181 23485 net.cpp:150] Setting up fc3_Straight_Hair
I1025 11:38:30.325191 23485 net.cpp:157] Top shape: 64 2 (128)
I1025 11:38:30.325193 23485 net.cpp:165] Memory required for data: 2566251636
I1025 11:38:30.325199 23485 layer_factory.hpp:77] Creating layer loss_Straight_Hair
I1025 11:38:30.325207 23485 net.cpp:106] Creating Layer loss_Straight_Hair
I1025 11:38:30.325212 23485 net.cpp:454] loss_Straight_Hair <- fc3_Straight_Hair
I1025 11:38:30.325217 23485 net.cpp:454] loss_Straight_Hair <- label_Straight_Hair
I1025 11:38:30.325222 23485 net.cpp:411] loss_Straight_Hair -> loss_Straight_Hair
I1025 11:38:30.325278 23485 net.cpp:150] Setting up loss_Straight_Hair
I1025 11:38:30.325286 23485 net.cpp:157] Top shape: (1)
I1025 11:38:30.325290 23485 net.cpp:160]     with loss weight 1
I1025 11:38:30.325294 23485 net.cpp:165] Memory required for data: 2566251640
I1025 11:38:30.325299 23485 layer_factory.hpp:77] Creating layer fc3_Wavy_Hair
I1025 11:38:30.325304 23485 net.cpp:106] Creating Layer fc3_Wavy_Hair
I1025 11:38:30.325309 23485 net.cpp:454] fc3_Wavy_Hair <- fc2_aroundhead_drop2_aroundhead_0_split_12
I1025 11:38:30.325314 23485 net.cpp:411] fc3_Wavy_Hair -> fc3_Wavy_Hair
I1025 11:38:30.326079 23485 net.cpp:150] Setting up fc3_Wavy_Hair
I1025 11:38:30.326094 23485 net.cpp:157] Top shape: 64 2 (128)
I1025 11:38:30.326098 23485 net.cpp:165] Memory required for data: 2566252152
I1025 11:38:30.326117 23485 layer_factory.hpp:77] Creating layer loss_Wavy_Hair
I1025 11:38:30.326127 23485 net.cpp:106] Creating Layer loss_Wavy_Hair
I1025 11:38:30.326131 23485 net.cpp:454] loss_Wavy_Hair <- fc3_Wavy_Hair
I1025 11:38:30.326138 23485 net.cpp:454] loss_Wavy_Hair <- label_Wavy_Hair
I1025 11:38:30.326144 23485 net.cpp:411] loss_Wavy_Hair -> loss_Wavy_Hair
I1025 11:38:30.326187 23485 net.cpp:150] Setting up loss_Wavy_Hair
I1025 11:38:30.326196 23485 net.cpp:157] Top shape: (1)
I1025 11:38:30.326200 23485 net.cpp:160]     with loss weight 1
I1025 11:38:30.326206 23485 net.cpp:165] Memory required for data: 2566252156
I1025 11:38:30.326211 23485 layer_factory.hpp:77] Creating layer fc3_5_o_Clock_Shadow
I1025 11:38:30.326217 23485 net.cpp:106] Creating Layer fc3_5_o_Clock_Shadow
I1025 11:38:30.326222 23485 net.cpp:454] fc3_5_o_Clock_Shadow <- fc2_facialhair_drop2_facialhair_0_split_0
I1025 11:38:30.326230 23485 net.cpp:411] fc3_5_o_Clock_Shadow -> fc3_5_o_Clock_Shadow
I1025 11:38:30.326359 23485 net.cpp:150] Setting up fc3_5_o_Clock_Shadow
I1025 11:38:30.326370 23485 net.cpp:157] Top shape: 64 2 (128)
I1025 11:38:30.326373 23485 net.cpp:165] Memory required for data: 2566252668
I1025 11:38:30.326380 23485 layer_factory.hpp:77] Creating layer loss_5_o_Clock_Shadow
I1025 11:38:30.326387 23485 net.cpp:106] Creating Layer loss_5_o_Clock_Shadow
I1025 11:38:30.326392 23485 net.cpp:454] loss_5_o_Clock_Shadow <- fc3_5_o_Clock_Shadow
I1025 11:38:30.326397 23485 net.cpp:454] loss_5_o_Clock_Shadow <- label_5_o_Clock_Shadow
I1025 11:38:30.326406 23485 net.cpp:411] loss_5_o_Clock_Shadow -> loss_5_o_Clock_Shadow
I1025 11:38:30.326442 23485 net.cpp:150] Setting up loss_5_o_Clock_Shadow
I1025 11:38:30.326450 23485 net.cpp:157] Top shape: (1)
I1025 11:38:30.326453 23485 net.cpp:160]     with loss weight 1
I1025 11:38:30.326459 23485 net.cpp:165] Memory required for data: 2566252672
I1025 11:38:30.326462 23485 layer_factory.hpp:77] Creating layer fc3_Mustache
I1025 11:38:30.326469 23485 net.cpp:106] Creating Layer fc3_Mustache
I1025 11:38:30.326473 23485 net.cpp:454] fc3_Mustache <- fc2_facialhair_drop2_facialhair_0_split_1
I1025 11:38:30.326480 23485 net.cpp:411] fc3_Mustache -> fc3_Mustache
I1025 11:38:30.326601 23485 net.cpp:150] Setting up fc3_Mustache
I1025 11:38:30.326611 23485 net.cpp:157] Top shape: 64 2 (128)
I1025 11:38:30.326614 23485 net.cpp:165] Memory required for data: 2566253184
I1025 11:38:30.326620 23485 layer_factory.hpp:77] Creating layer loss_Mustache
I1025 11:38:30.326628 23485 net.cpp:106] Creating Layer loss_Mustache
I1025 11:38:30.326632 23485 net.cpp:454] loss_Mustache <- fc3_Mustache
I1025 11:38:30.326637 23485 net.cpp:454] loss_Mustache <- label_Mustache
I1025 11:38:30.326644 23485 net.cpp:411] loss_Mustache -> loss_Mustache
I1025 11:38:30.326679 23485 net.cpp:150] Setting up loss_Mustache
I1025 11:38:30.326688 23485 net.cpp:157] Top shape: (1)
I1025 11:38:30.326690 23485 net.cpp:160]     with loss weight 1
I1025 11:38:30.326695 23485 net.cpp:165] Memory required for data: 2566253188
I1025 11:38:30.326700 23485 layer_factory.hpp:77] Creating layer fc3_No_Beard
I1025 11:38:30.326707 23485 net.cpp:106] Creating Layer fc3_No_Beard
I1025 11:38:30.326711 23485 net.cpp:454] fc3_No_Beard <- fc2_facialhair_drop2_facialhair_0_split_2
I1025 11:38:30.326721 23485 net.cpp:411] fc3_No_Beard -> fc3_No_Beard
I1025 11:38:30.326841 23485 net.cpp:150] Setting up fc3_No_Beard
I1025 11:38:30.326850 23485 net.cpp:157] Top shape: 64 2 (128)
I1025 11:38:30.326854 23485 net.cpp:165] Memory required for data: 2566253700
I1025 11:38:30.326860 23485 layer_factory.hpp:77] Creating layer loss_No_Beard
I1025 11:38:30.326867 23485 net.cpp:106] Creating Layer loss_No_Beard
I1025 11:38:30.326872 23485 net.cpp:454] loss_No_Beard <- fc3_No_Beard
I1025 11:38:30.326877 23485 net.cpp:454] loss_No_Beard <- label_No_Beard
I1025 11:38:30.326884 23485 net.cpp:411] loss_No_Beard -> loss_No_Beard
I1025 11:38:30.326918 23485 net.cpp:150] Setting up loss_No_Beard
I1025 11:38:30.326926 23485 net.cpp:157] Top shape: (1)
I1025 11:38:30.326930 23485 net.cpp:160]     with loss weight 1
I1025 11:38:30.326946 23485 net.cpp:165] Memory required for data: 2566253704
I1025 11:38:30.326949 23485 layer_factory.hpp:77] Creating layer fc3_Sideburns
I1025 11:38:30.326956 23485 net.cpp:106] Creating Layer fc3_Sideburns
I1025 11:38:30.326959 23485 net.cpp:454] fc3_Sideburns <- fc2_facialhair_drop2_facialhair_0_split_3
I1025 11:38:30.326972 23485 net.cpp:411] fc3_Sideburns -> fc3_Sideburns
I1025 11:38:30.327090 23485 net.cpp:150] Setting up fc3_Sideburns
I1025 11:38:30.327100 23485 net.cpp:157] Top shape: 64 2 (128)
I1025 11:38:30.327105 23485 net.cpp:165] Memory required for data: 2566254216
I1025 11:38:30.327111 23485 layer_factory.hpp:77] Creating layer loss_Sideburns
I1025 11:38:30.327121 23485 net.cpp:106] Creating Layer loss_Sideburns
I1025 11:38:30.327124 23485 net.cpp:454] loss_Sideburns <- fc3_Sideburns
I1025 11:38:30.327129 23485 net.cpp:454] loss_Sideburns <- label_Sideburns
I1025 11:38:30.327136 23485 net.cpp:411] loss_Sideburns -> loss_Sideburns
I1025 11:38:30.327172 23485 net.cpp:150] Setting up loss_Sideburns
I1025 11:38:30.327179 23485 net.cpp:157] Top shape: (1)
I1025 11:38:30.327183 23485 net.cpp:160]     with loss weight 1
I1025 11:38:30.327188 23485 net.cpp:165] Memory required for data: 2566254220
I1025 11:38:30.327191 23485 layer_factory.hpp:77] Creating layer fc3_Goatee
I1025 11:38:30.327196 23485 net.cpp:106] Creating Layer fc3_Goatee
I1025 11:38:30.327201 23485 net.cpp:454] fc3_Goatee <- fc2_facialhair_drop2_facialhair_0_split_4
I1025 11:38:30.327208 23485 net.cpp:411] fc3_Goatee -> fc3_Goatee
I1025 11:38:30.327328 23485 net.cpp:150] Setting up fc3_Goatee
I1025 11:38:30.327337 23485 net.cpp:157] Top shape: 64 2 (128)
I1025 11:38:30.327342 23485 net.cpp:165] Memory required for data: 2566254732
I1025 11:38:30.327347 23485 layer_factory.hpp:77] Creating layer loss_Goatee
I1025 11:38:30.327354 23485 net.cpp:106] Creating Layer loss_Goatee
I1025 11:38:30.327359 23485 net.cpp:454] loss_Goatee <- fc3_Goatee
I1025 11:38:30.327363 23485 net.cpp:454] loss_Goatee <- label_Goatee
I1025 11:38:30.327370 23485 net.cpp:411] loss_Goatee -> loss_Goatee
I1025 11:38:30.327405 23485 net.cpp:150] Setting up loss_Goatee
I1025 11:38:30.327414 23485 net.cpp:157] Top shape: (1)
I1025 11:38:30.327416 23485 net.cpp:160]     with loss weight 1
I1025 11:38:30.327421 23485 net.cpp:165] Memory required for data: 2566254736
I1025 11:38:30.327425 23485 layer_factory.hpp:77] Creating layer fc3_High_Cheekbones
I1025 11:38:30.327430 23485 net.cpp:106] Creating Layer fc3_High_Cheekbones
I1025 11:38:30.327435 23485 net.cpp:454] fc3_High_Cheekbones <- fc2_cheeks_drop2_cheeks_0_split_0
I1025 11:38:30.327443 23485 net.cpp:411] fc3_High_Cheekbones -> fc3_High_Cheekbones
I1025 11:38:30.327560 23485 net.cpp:150] Setting up fc3_High_Cheekbones
I1025 11:38:30.327570 23485 net.cpp:157] Top shape: 64 2 (128)
I1025 11:38:30.327574 23485 net.cpp:165] Memory required for data: 2566255248
I1025 11:38:30.327579 23485 layer_factory.hpp:77] Creating layer loss_High_Cheekbones
I1025 11:38:30.327587 23485 net.cpp:106] Creating Layer loss_High_Cheekbones
I1025 11:38:30.327592 23485 net.cpp:454] loss_High_Cheekbones <- fc3_High_Cheekbones
I1025 11:38:30.327597 23485 net.cpp:454] loss_High_Cheekbones <- label_High_Cheekbones
I1025 11:38:30.327605 23485 net.cpp:411] loss_High_Cheekbones -> loss_High_Cheekbones
I1025 11:38:30.327639 23485 net.cpp:150] Setting up loss_High_Cheekbones
I1025 11:38:30.327647 23485 net.cpp:157] Top shape: (1)
I1025 11:38:30.327651 23485 net.cpp:160]     with loss weight 1
I1025 11:38:30.327656 23485 net.cpp:165] Memory required for data: 2566255252
I1025 11:38:30.327659 23485 layer_factory.hpp:77] Creating layer fc3_Rosy_Cheeks
I1025 11:38:30.327666 23485 net.cpp:106] Creating Layer fc3_Rosy_Cheeks
I1025 11:38:30.327671 23485 net.cpp:454] fc3_Rosy_Cheeks <- fc2_cheeks_drop2_cheeks_0_split_1
I1025 11:38:30.327680 23485 net.cpp:411] fc3_Rosy_Cheeks -> fc3_Rosy_Cheeks
I1025 11:38:30.327805 23485 net.cpp:150] Setting up fc3_Rosy_Cheeks
I1025 11:38:30.327816 23485 net.cpp:157] Top shape: 64 2 (128)
I1025 11:38:30.327831 23485 net.cpp:165] Memory required for data: 2566255764
I1025 11:38:30.327837 23485 layer_factory.hpp:77] Creating layer loss_Rosy_Cheeks
I1025 11:38:30.327847 23485 net.cpp:106] Creating Layer loss_Rosy_Cheeks
I1025 11:38:30.327852 23485 net.cpp:454] loss_Rosy_Cheeks <- fc3_Rosy_Cheeks
I1025 11:38:30.327857 23485 net.cpp:454] loss_Rosy_Cheeks <- label_Rosy_Cheeks
I1025 11:38:30.327863 23485 net.cpp:411] loss_Rosy_Cheeks -> loss_Rosy_Cheeks
I1025 11:38:30.327901 23485 net.cpp:150] Setting up loss_Rosy_Cheeks
I1025 11:38:30.327909 23485 net.cpp:157] Top shape: (1)
I1025 11:38:30.327913 23485 net.cpp:160]     with loss weight 1
I1025 11:38:30.327919 23485 net.cpp:165] Memory required for data: 2566255768
I1025 11:38:30.327921 23485 layer_factory.hpp:77] Creating layer fc3_Chubby
I1025 11:38:30.327927 23485 net.cpp:106] Creating Layer fc3_Chubby
I1025 11:38:30.327932 23485 net.cpp:454] fc3_Chubby <- fc2_fat_drop2_fat_0_split_0
I1025 11:38:30.327939 23485 net.cpp:411] fc3_Chubby -> fc3_Chubby
I1025 11:38:30.328063 23485 net.cpp:150] Setting up fc3_Chubby
I1025 11:38:30.328073 23485 net.cpp:157] Top shape: 64 2 (128)
I1025 11:38:30.328075 23485 net.cpp:165] Memory required for data: 2566256280
I1025 11:38:30.328081 23485 layer_factory.hpp:77] Creating layer loss_Chubby
I1025 11:38:30.328089 23485 net.cpp:106] Creating Layer loss_Chubby
I1025 11:38:30.328094 23485 net.cpp:454] loss_Chubby <- fc3_Chubby
I1025 11:38:30.328099 23485 net.cpp:454] loss_Chubby <- label_Chubby
I1025 11:38:30.328106 23485 net.cpp:411] loss_Chubby -> loss_Chubby
I1025 11:38:30.328142 23485 net.cpp:150] Setting up loss_Chubby
I1025 11:38:30.328150 23485 net.cpp:157] Top shape: (1)
I1025 11:38:30.328153 23485 net.cpp:160]     with loss weight 1
I1025 11:38:30.328158 23485 net.cpp:165] Memory required for data: 2566256284
I1025 11:38:30.328162 23485 layer_factory.hpp:77] Creating layer fc3_Double_Chin
I1025 11:38:30.328168 23485 net.cpp:106] Creating Layer fc3_Double_Chin
I1025 11:38:30.328172 23485 net.cpp:454] fc3_Double_Chin <- fc2_fat_drop2_fat_0_split_1
I1025 11:38:30.328181 23485 net.cpp:411] fc3_Double_Chin -> fc3_Double_Chin
I1025 11:38:30.328299 23485 net.cpp:150] Setting up fc3_Double_Chin
I1025 11:38:30.328308 23485 net.cpp:157] Top shape: 64 2 (128)
I1025 11:38:30.328312 23485 net.cpp:165] Memory required for data: 2566256796
I1025 11:38:30.328318 23485 layer_factory.hpp:77] Creating layer loss_Double_Chin
I1025 11:38:30.328328 23485 net.cpp:106] Creating Layer loss_Double_Chin
I1025 11:38:30.328333 23485 net.cpp:454] loss_Double_Chin <- fc3_Double_Chin
I1025 11:38:30.328338 23485 net.cpp:454] loss_Double_Chin <- label_Double_Chin
I1025 11:38:30.328346 23485 net.cpp:411] loss_Double_Chin -> loss_Double_Chin
…
I1025 11:38:30.328444 23485 net.cpp:454] attr_mid_feat <- pool3_mouth_pool3_mouth_0_split_1
I1025 11:38:30.328449 23485 net.cpp:454] attr_mid_feat <- pool3_nose_pool3_nose_0_split_1
I1025 11:38:30.328454 23485 net.cpp:454] attr_mid_feat <- pool3_eyes_pool3_eyes_0_split_1
I1025 11:38:30.328459 23485 net.cpp:454] attr_mid_feat <- pool3_face_pool3_face_0_split_1
I1025 11:38:30.328464 23485 net.cpp:454] attr_mid_feat <- pool3_rest_pool3_rest_0_split_4
I1025 11:38:30.328469 23485 net.cpp:411] attr_mid_feat -> attr_mid_feat
I1025 11:38:30.328503 23485 net.cpp:150] Setting up attr_mid_feat
I1025 11:38:30.328510 23485 net.cpp:157] Top shape: 64 3072 4 4 (3145728)
I1025 11:38:30.328514 23485 net.cpp:165] Memory required for data: 2578839712
I1025 11:38:30.328517 23485 layer_factory.hpp:77] Creating layer attr_top_feat
I1025 11:38:30.328523 23485 net.cpp:106] Creating Layer attr_top_feat
I1025 11:38:30.328527 23485 net.cpp:454] attr_top_feat <- fc2_gender_drop2_gender_0_split_1
I1025 11:38:30.328532 23485 net.cpp:454] attr_top_feat <- fc2_nose_drop2_nose_0_split_2
I1025 11:38:30.328537 23485 net.cpp:454] attr_top_feat <- fc2_mouth_drop2_mouth_0_split_4
I1025 11:38:30.328541 23485 net.cpp:454] attr_top_feat <- fc2_eyes_drop2_eyes_0_split_5
I1025 11:38:30.328546 23485 net.cpp:454] attr_top_feat <- fc2_face_drop2_face_0_split_6
I1025 11:38:30.328549 23485 net.cpp:454] attr_top_feat <- fc2_aroundhead_drop2_aroundhead_0_split_13
I1025 11:38:30.328553 23485 net.cpp:454] attr_top_feat <- fc2_facialhair_drop2_facialhair_0_split_5
I1025 11:38:30.328557 23485 net.cpp:454] attr_top_feat <- fc2_cheeks_drop2_cheeks_0_split_2
I1025 11:38:30.328562 23485 net.cpp:454] attr_top_feat <- fc2_fat_drop2_fat_0_split_2
I1025 11:38:30.328569 23485 net.cpp:411] attr_top_feat -> attr_top_feat
I1025 11:38:30.328593 23485 net.cpp:150] Setting up attr_top_feat
I1025 11:38:30.328598 23485 net.cpp:157] Top shape: 64 9216 (589824)
I1025 11:38:30.328601 23485 net.cpp:165] Memory required for data: 2581199008
I1025 11:38:30.328604 23485 layer_factory.hpp:77] Creating layer fc8_top_attr
I1025 11:38:30.328610 23485 net.cpp:106] Creating Layer fc8_top_attr
I1025 11:38:30.328614 23485 net.cpp:454] fc8_top_attr <- attr_top_feat
I1025 11:38:30.328622 23485 net.cpp:411] fc8_top_attr -> fc8_top_attr
I1025 11:38:30.558519 23485 net.cpp:150] Setting up fc8_top_attr
I1025 11:38:30.558575 23485 net.cpp:157] Top shape: 64 2873 (183872)
I1025 11:38:30.558579 23485 net.cpp:165] Memory required for data: 2581934496
I1025 11:38:30.558593 23485 layer_factory.hpp:77] Creating layer fc8_top_attr_fc8_top_attr_0_split
I1025 11:38:30.558606 23485 net.cpp:106] Creating Layer fc8_top_attr_fc8_top_attr_0_split
I1025 11:38:30.558614 23485 net.cpp:454] fc8_top_attr_fc8_top_attr_0_split <- fc8_top_attr
I1025 11:38:30.558624 23485 net.cpp:411] fc8_top_attr_fc8_top_attr_0_split -> fc8_top_attr_fc8_top_attr_0_split_0
I1025 11:38:30.558634 23485 net.cpp:411] fc8_top_attr_fc8_top_attr_0_split -> fc8_top_attr_fc8_top_attr_0_split_1
I1025 11:38:30.558640 23485 net.cpp:411] fc8_top_attr_fc8_top_attr_0_split -> fc8_top_attr_fc8_top_attr_0_split_2
I1025 11:38:30.558693 23485 net.cpp:150] Setting up fc8_top_attr_fc8_top_attr_0_split
I1025 11:38:30.558701 23485 net.cpp:157] Top shape: 64 2873 (183872)
I1025 11:38:30.558704 23485 net.cpp:157] Top shape: 64 2873 (183872)
I1025 11:38:30.558708 23485 net.cpp:157] Top shape: 64 2873 (183872)
I1025 11:38:30.558712 23485 net.cpp:165] Memory required for data: 2584140960
I1025 11:38:30.558715 23485 layer_factory.hpp:77] Creating layer loss_top_attr
I1025 11:38:30.558722 23485 net.cpp:106] Creating Layer loss_top_attr
I1025 11:38:30.558727 23485 net.cpp:454] loss_top_attr <- fc8_top_attr_fc8_top_attr_0_split_0
I1025 11:38:30.558732 23485 net.cpp:454] loss_top_attr <- label_data_1_split_0
…
