…
    slice_point: 24
    slice_point: 26
    slice_point: 28
    slice_point: 30
    slice_point: 32
    slice_point: 34
    slice_point: 36
    slice_point: 38
    slice_point: 40
    slice_point: 42
    slice_point: 44
    slice_point: 46
    slice_point: 48
    slice_point: 50
    slice_point: 52
    slice_point: 54
    slice_point: 56
    slice_point: 58
    slice_point: 60
    slice_point: 62
    slice_point: 64
    slice_point: 66
    slice_point: 68
    slice_point: 70
    slice_point: 72
    slice_point: 74
    slice_point: 76
    slice_point: 78
  }
}
layer {
  name: "conv1_bn"
  type: "BatchNorm"
  bottom: "conv1"
  top: "conv1"
  batch_norm_param {
    use_global_stats: false
  }
}
layer {
  name: "conv1_scale"
  type: "Scale"
  bottom: "conv1"
  top: "conv1"
  scale_param {
    bias_term: true
  }
}
layer {
  name: "prelu1"
  type: "PReLU"
  bottom: "conv1"
  top: "conv1"
}
layer {
  name: "pool1"
  type: "Pooling"
  bottom: "conv1"
  top: "pool1"
  pooling_param {
    pool: MAX
    kernel_size: 2
    stride: 2
  }
}
layer {
  name: "conv2a"
  type: "Convolution"
  bottom: "pool1"
  top: "conv2a"
  param {
    name: "conv2a_w"
    lr_mult: 1
    decay_mult: 1
  }
  param {
    name: "conv2a_b"
    lr_mult: 2
    decay_mult: 0
  }
  convolution_param {
    num_output: 64
    kernel_size: 1
    weight_filler {
      type: "xavier"
    }
    bias_filler {
      type: "constant"
      value: 0.2
    }
  }
}
layer {
  name: "conv2a_bn"
  type: "BatchNorm"
  bottom: "conv2a"
  top: "conv2a"
  batch_norm_param {
    use_global_stats: false
  }
}
layer {
  name: "conv2a_scale"
  type: "Scale"
  bottom: "conv2a"
  top: "conv2a"
  scale_param {
    bias_term: true
  }
}
layer {
  name: "prelu2a"
  type: "PReLU"
  bottom: "conv2a"
  top: "conv2a"
}
layer {
  name: "conv2"
  type: "Convolution"
  bottom: "conv2a"
  top: "conv2"
  param {
    name: "conv2_w"
    lr_mult: 1
    decay_mult: 1
  }
  param {
    name: "conv2_b"
    lr_mult: 2
    decay_mult: 0
  }
  convolution_param {
    num_output: 192
    pad: 1
    kernel_size: 3
    stride: 1
    weight_filler {
      type: "xavier"
    }
    bias_filler {
      type: "constant"
      value: 0.2
    }
  }
}
layer {
  name: "conv2_bn"
  type: "BatchNorm"
  bottom: "conv2"
  top: "conv2"
  batch_norm_param {
    use_global_stats: false
  }
}
layer {
  name: "conv2_scale"
  type: "Scale"
  bottom: "conv2"
  top: "conv2"
  scale_param {
    bias_term: true
  }
}
layer {
  name: "prelu2"
  type: "PReLU"
  bottom: "conv2"
  top: "conv2"
}
layer {
  name: "pool2"
  type: "Pooling"
  bottom: "conv2"
  top: "pool2"
  pooling_param {
    pool: MAX
    kernel_size: 2
    stride: 2
  }
}
layer {
  name: "conv3a"
  type: "Convolution"
  bottom: "pool2"
  top: "conv3a"
  param {
    name: "conv3a_w"
    lr_mult: 1
    decay_mult: 1
  }
  param {
    name: "conv3a_b"
    lr_mult: 2
    decay_mult: 0
  }
  convolution_param {
    num_output: 192
    kernel_size: 1
    weight_filler {
      type: "xavier"
    }
    bias_filler {
      type: "constant"
      value: 0.2
    }
  }
}
layer {
  name: "conv3a_bn"
  type: "BatchNorm"
  bottom: "conv3a"
  top: "conv3a"
  batch_norm_param {
    use_global_stats: false
  }
}
layer {
  name: "conv3a_scale"
  type: "Scale"
  bottom: "conv3a"
  top: "conv3a"
  scale_param {
    bias_term: true
  }
}
layer {
  name: "prelu3a"
  type: "PReLU"
  bottom: "conv3a"
  top: "conv3a"
}
layer {
  name: "conv3"
  type: "Convolution"
  bottom: "conv3a"
  top: "conv3"
  param {
    name: "conv3_w"
    lr_mult: 1
    decay_mult: 1
  }
  param {
    name: "conv3_b"
    lr_mult: 2
    decay_mult: 0
  }
  convolution_param {
    num_output: 384
    pad: 1
    kernel_size: 3
    stride: 1
    weight_filler {
      type: "xavier"
    }
    bias_filler {
      type: "constant"
      value: 0.2
    }
  }
}
layer {
  name: "conv3_bn"
  type: "BatchNorm"
  bottom: "conv3"
  top: "conv3"
  batch_norm_param {
    use_global_stats: false
  }
}
layer {
  name: "conv3_scale"
  type: "Scale"
  bottom: "conv3"
  top: "conv3"
  scale_param {
    bias_term: true
  }
}
layer {
  name: "prelu3"
  type: "PReLU"
  bottom: "conv3"
  top: "conv3"
}
layer {
  name: "pool3"
  type: "Pooling"
  bottom: "conv3"
  top: "pool3"
  pooling_param {
    pool: MAX
    kernel_size: 2
    stride: 2
  }
}
layer {
  name: "conv3_gender"
  type: "Convolution"
  bottom: "pool3"
  top: "conv3_gender"
  param {
    lr_mult: 1
    decay_mult: 1
  }
  param {
    lr_mult: 2
    decay_mult: 0
  }
  convolution_param {
    num_output: 512
    pad: 1
    kernel_size: 3
    stride: 2
    weight_filler {
      type: "xavier"
    }
    bias_filler {
      type: "constant"
      value: 0.2
    }
  }
}
layer {
  name: "conv3_gender_bn"
  type: "BatchNorm"
  bottom: "conv3_gender"
  top: "conv3_gender"
  batch_norm_param {
    use_global_stats: false
  }
}
layer {
  name: "conv3_gender_scale"
  type: "Scale"
  bottom: "conv3_gender"
  top: "conv3_gender"
  scale_param {
    bias_term: true
  }
}
layer {
  name: "prelu3_gender"
  type: "PReLU"
  bottom: "conv3_gender"
  top: "conv3_gender"
}
layer {
  name: "pool3_gender"
  type: "Pooling"
  bottom: "conv3_gender"
  top: "pool3_gender"
  pooling_param {
    pool: MAX
    kernel_size: 5
    stride: 2
    pad: 2
  }
}
layer {
  name: "fc1_gender"
  type: "InnerProduct"
  bottom: "pool3_gender"
  top: "fc1_gender"
  param {
    lr_mult: 1
    decay_mult: 1
  }
  param {
    lr_mult: 2
    decay_mult: 0
  }
  inner_product_param {
    num_output: 1024
    weight_filler {
      type: "xavier"
    }
    bias_filler {
      type: "constant"
      value: 0.2
    }
  }
}
layer {
  name: "relu1_gender"
  type: "ReLU"
  bottom: "fc1_gender"
  top: "fc1_gender"
}
layer {
  name: "drop1_gender"
  type: "Dropout"
  bottom: "fc1_gender"
  top: "fc1_gender"
  dropout_param {
    dropout_ratio: 0.5
  }
}
layer {
  name: "fc2_gender"
  type: "InnerProduct"
  bottom: "fc1_gender"
  top: "fc2_gender"
  param {
    lr_mult: 1
    decay_mult: 1
  }
  param {
    lr_mult: 2
    decay_mult: 0
  }
  inner_product_param {
    num_output: 1024
    weight_filler {
      type: "xavier"
    }
    bias_filler {
      type: "constant"
      value: 0.2
    }
  }
}
layer {
  name: "relu2_gender"
  type: "ReLU"
  bottom: "fc2_gender"
  top: "fc2_gender"
}
layer {
  name: "drop2_gender"
  type: "Dropout"
  bottom: "fc2_gender"
  top: "fc2_gender"
  dropout_param {
    dropout_ratio: 0.5
  }
}
layer {
  name: "conv3_nose"
  type: "Convolution"
  bottom: "pool3"
  top: "conv3_nose"
  param {
    lr_mult: 1
    decay_mult: 1
  }
  param {
    lr_mult: 2
    decay_mult: 0
  }
  convolution_param {
    num_output: 512
    pad: 1
    kernel_size: 3
    stride: 2
    weight_filler {
      type: "xavier"
    }
    bias_filler {
      type: "constant"
      value: 0.2
    }
  }
}
layer {
  name: "conv3_nose_bn"
  type: "BatchNorm"
  bottom: "conv3_nose"
  top: "conv3_nose"
  batch_norm_param {
    use_global_stats: false
  }
}
layer {
  name: "conv3_nose_scale"
  type: "Scale"
  bottom: "conv3_nose"
  top: "conv3_nose"
  scale_param {
    bias_term: true
  }
}
layer {
  name: "prelu3_nose"
  type: "PReLU"
  bottom: "conv3_nose"
  top: "conv3_nose"
}
layer {
  name: "pool3_nose"
  type: "Pooling"
  bottom: "conv3_nose"
  top: "pool3_nose"
  pooling_param {
    pool: MAX
    kernel_size: 5
    stride: 2
    pad: 2
  }
}
layer {
  name: "fc1_nose"
  type: "InnerProduct"
  bottom: "pool3_nose"
  top: "fc1_nose"
  param {
    lr_mult: 1
    decay_mult: 1
  }
  param {
    lr_mult: 2
    decay_mult: 0
  }
  inner_product_param {
    num_output: 1024
    weight_filler {
      type: "xavier"
    }
    bias_filler {
      type: "constant"
      value: 0.2
    }
  }
}
layer {
  name: "relu1_nose"
  type: "ReLU"
  bottom: "fc1_nose"
  top: "fc1_nose"
}
layer {
  name: "drop1_nose"
  type: "Dropout"
  bottom: "fc1_nose"
  top: "fc1_nose"
  dropout_param {
    dropout_ratio: 0.5
  }
}
layer {
  name: "fc2_nose"
  type: "InnerProduct"
  bottom: "fc1_nose"
  top: "fc2_nose"
  param {
    lr_mult: 1
    decay_mult: 1
  }
  param {
    lr_mult: 2
    decay_mult: 0
  }
  inner_product_param {
    num_output: 1024
    weight_filler {
      type: "xavier"
    }
    bias_filler {
      type: "constant"
      value: 0.2
    }
  }
}
layer {
  name: "relu2_nose"
  type: "ReLU"
  bottom: "fc2_nose"
  top: "fc2_nose"
}
layer {
  name: "drop2_nose"
  type: "Dropout"
  bottom: "fc2_nose"
  top: "fc2_nose"
  dropout_param {
    dropout_ratio: 0.5
  }
}
layer {
  name: "conv3_mouth"
  type: "Convolution"
  bottom: "pool3"
  top: "conv3_mouth"
  param {
    lr_mult: 1
    decay_mult: 1
  }
  param {
    lr_mult: 2
    decay_mult: 0
  }
  convolution_param {
    num_output: 512
    pad: 1
    kernel_size: 3
    stride: 2
    weight_filler {
      type: "xavier"
    }
    bias_filler {
      type: "constant"
      value: 0.2
    }
  }
}
layer {
  name: "conv3_mouth_bn"
  type: "BatchNorm"
  bottom: "conv3_mouth"
  top: "conv3_mouth"
  batch_norm_param {
    use_global_stats: false
  }
}
layer {
  name: "conv3_mouth_scale"
  type: "Scale"
  bottom: "conv3_mouth"
  top: "conv3_mouth"
  scale_param {
    bias_term: true
  }
}
layer {
  name: "prelu3_mouth"
  type: "PReLU"
  bottom: "conv3_mouth"
  top: "conv3_mouth"
}
layer {
  name: "pool3_mouth"
  type: "Pooling"
  bottom: "conv3_mouth"
  top: "pool3_mouth"
  pooling_param {
    pool: MAX
    kernel_size: 5
    stride: 2
    pad: 2
  }
}
layer {
  name: "fc1_mouth"
  type: "InnerProduct"
  bottom: "pool3_mouth"
  top: "fc1_mouth"
  param {
    lr_mult: 1
    decay_mult: 1
  }
  param {
    lr_mult: 2
    decay_mult: 0
  }
  inner_product_param {
    num_output: 1024
    weight_filler {
      type: "xavier"
    }
    bias_filler {
      type: "constant"
      value: 0.2
    }
  }
}
layer {
  name: "relu1_mouth"
  type: "ReLU"
  bottom: "fc1_mouth"
  top: "fc1_mouth"
}
layer {
  name: "drop1_mouth"
  type: "Dropout"
  bottom: "fc1_mouth"
  top: "fc1_mouth"
  dropout_param {
    dropout_ratio: 0.5
  }
}
layer {
  name: "fc2_mouth"
  type: "InnerProduct"
  bottom: "fc1_mouth"
  top: "fc2_mouth"
  param {
    lr_mult: 1
    decay_mult: 1
  }
  param {
    lr_mult: 2
    decay_mult: 0
  }
  inner_product_param {
    num_output: 1024
    weight_filler {
      type: "xavier"
    }
    bias_filler {
      type: "constant"
      value: 0.2
    }
  }
}
layer {
  name: "relu2_mouth"
  type: "ReLU"
  bottom: "fc2_mouth"
  top: "fc2_mouth"
}
layer {
  name: "drop2_mouth"
  type: "Dropout"
  bottom: "fc2_mouth"
  top: "fc2_mouth"
  dropout_param {
    dropout_ratio: 0.5
  }
}
layer {
  name: "conv3_eyes"
  type: "Convolution"
  bottom: "pool3"
  top: "conv3_eyes"
  param {
    lr_mult: 1
    decay_mult: 1
  }
  param {
    lr_mult: 2
    decay_mult: 0
  }
  convolution_param {
    num_output: 512
    pad: 1
    kernel_size: 3
    stride: 2
    weight_filler {
      type: "xavier"
    }
    bias_filler {
      type: "constant"
      value: 0.2
    }
  }
}
layer {
  name: "conv3_eyes_bn"
  type: "BatchNorm"
  bottom: "conv3_eyes"
  top: "conv3_eyes"
  batch_norm_param {
    use_global_stats: false
  }
}
layer {
  name: "conv3_eyes_scale"
  type: "Scale"
  bottom: "conv3_eyes"
  top: "conv3_eyes"
  scale_param {
    bias_term: true
  }
}
layer {
  name: "prelu3_eyes"
  type: "PReLU"
  bottom: "conv3_eyes"
  top: "conv3_eyes"
}
layer {
  name: "pool3_eyes"
  type: "Pooling"
  bottom: "conv3_eyes"
  top: "pool3_eyes"
  pooling_param {
    pool: MAX
    kernel_size: 5
    stride: 2
    pad: 2
  }
}
layer {
  name: "fc1_eyes"
  type: "InnerProduct"
  bottom: "pool3_eyes"
  top: "fc1_eyes"
  param {
    lr_mult: 1
    decay_mult: 1
  }
  param {
    lr_mult: 2
    decay_mult: 0
  }
  inner_product_param {
    num_output: 1024
    weight_filler {
      type: "xavier"
    }
    bias_filler {
      type: "constant"
      value: 0.2
    }
  }
}
layer {
  name: "relu1_eyes"
  type: "ReLU"
  bottom: "fc1_eyes"
  top: "fc1_eyes"
}
layer {
  name: "drop1_eyes"
  type: "Dropout"
  bottom: "fc1_eyes"
  top: "fc1_eyes"
  dropout_param {
    dropout_ratio: 0.5
  }
}
layer {
  name: "fc2_eyes"
  type: "InnerProduct"
  bottom: "fc1_eyes"
  top: "fc2_eyes"
  param {
    lr_mult: 1
    decay_mult: 1
  }
  param {
    lr_mult: 2
    decay_mult: 0
  }
  inner_product_param {
    num_output: 1024
    weight_filler {
      type: "xavier"
    }
    bias_filler {
      type: "constant"
      value: 0.2
    }
  }
}
layer {
  name: "relu2_eyes"
  type: "ReLU"
  bottom: "fc2_eyes"
  top: "fc2_eyes"
}
layer {
  name: "drop2_eyes"
  type: "Dropout"
  bottom: "fc2_eyes"
  top: "fc2_eyes"
  dropout_param {
    dropout_ratio: 0.5
  }
}
layer {
  name: "conv3_face"
  type: "Convolution"
  bottom: "pool3"
  top: "conv3_face"
  param {
    lr_mult: 1
    decay_mult: 1
  }
  param {
    lr_mult: 2
    decay_mult: 0
  }
  convolution_param {
    num_output: 512
    pad: 1
    kernel_size: 3
    stride: 2
    weight_filler {
      type: "xavier"
    }
    bias_filler {
      type: "constant"
      value: 0.2
    }
  }
}
layer {
  name: "conv3_face_bn"
  type: "BatchNorm"
  bottom: "conv3_face"
  top: "conv3_face"
  batch_norm_param {
    use_global_stats: false
  }
}
layer {
  name: "conv3_face_scale"
  type: "Scale"
  bottom: "conv3_face"
  top: "conv3_face"
  scale_param {
    bias_term: true
  }
}
layer {
  name: "prelu3_face"
  type: "PReLU"
  bottom: "conv3_face"
  top: "conv3_face"
}
layer {
  name: "pool3_face"
  type: "Pooling"
  bottom: "conv3_face"
  top: "pool3_face"
  pooling_param {
    pool: MAX
    kernel_size: 5
    stride: 2
    pad: 2
  }
}
layer {
  name: "fc1_face"
  type: "InnerProduct"
  bottom: "pool3_face"
  top: "fc1_face"
  param {
    lr_mult: 1
    decay_mult: 1
  }
  param {
    lr_mult: 2
    decay_mult: 0
  }
  inner_product_param {
    num_output: 1024
    weight_filler {
      type: "xavier"
    }
    bias_filler {
      type: "constant"
      value: 0.2
    }
  }
}
layer {
  name: "relu1_face"
  type: "ReLU"
  bottom: "fc1_face"
  top: "fc1_face"
}
layer {
  name: "drop1_face"
  type: "Dropout"
  bottom: "fc1_face"
  top: "fc1_face"
  dropout_param {
    dropout_ratio: 0.5
  }
}
layer {
  name: "fc2_face"
  type: "InnerProduct"
  bottom: "fc1_face"
  top: "fc2_face"
  param {
    lr_mult: 1
    decay_mult: 1
  }
  param {
    lr_mult: 2
    decay_mult: 0
  }
  inner_product_param {
    num_output: 1024
    weight_filler {
      type: "xavier"
    }
    bias_filler {
      type: "constant"
      value: 0.2
    }
  }
}
layer {
  name: "relu2_face"
  type: "ReLU"
  bottom: "fc2_face"
  top: "fc2_face"
}
layer {
  name: "drop2_face"
  type: "Dropout"
  bottom: "fc2_face"
  top: "fc2_face"
  dropout_param {
    dropout_ratio: 0.5
  }
}
layer {
  name: "conv3_rest"
  type: "Convolution"
  bottom: "pool3"
  top: "conv3_rest"
  param {
    lr_mult: 1
    decay_mult: 1
  }
  param {
    lr_mult: 2
    decay_mult: 0
  }
  convolution_param {
    num_output: 512
    pad: 1
    kernel_size: 3
    stride: 2
    weight_filler {
      type: "xavier"
    }
    bias_filler {
      type: "constant"
      value: 0.2
    }
  }
}
layer {
  name: "conv3_rest_bn"
  type: "BatchNorm"
  bottom: "conv3_rest"
  top: "conv3_rest"
  batch_norm_param {
    use_global_stats: false
  }
}
layer {
  name: "conv3_rest_scale"
  type: "Scale"
  bottom: "conv3_rest"
  top: "conv3_rest"
  scale_param {
    bias_term: true
  }
}
layer {
  name: "prelu3_rest"
  type: "PReLU"
  bottom: "conv3_rest"
  top: "conv3_rest"
}
layer {
  name: "pool3_rest"
  type: "Pooling"
  bottom: "conv3_rest"
  top: "pool3_rest"
  pooling_param {
    pool: MAX
    kernel_size: 5
    stride: 2
    pad: 2
  }
}
layer {
  name: "fc1_aroundhead"
  type: "InnerProduct"
  bottom: "pool3_rest"
  top: "fc1_aroundhead"
  param {
    lr_mult: 1
    decay_mult: 1
  }
  param {
    lr_mult: 2
    decay_mult: 0
  }
  inner_product_param {
    num_output: 1024
    weight_filler {
      type: "xavier"
    }
    bias_filler {
      type: "constant"
      value: 0.2
    }
  }
}
layer {
  name: "relu1_aroundhead"
  type: "ReLU"
  bottom: "fc1_aroundhead"
  top: "fc1_aroundhead"
}
layer {
  name: "drop1_aroundhead"
  type: "Dropout"
  bottom: "fc1_aroundhead"
  top: "fc1_aroundhead"
  dropout_param {
    dropout_ratio: 0.5
  }
}
layer {
  name: "fc2_aroundhead"
  type: "InnerProduct"
  bottom: "fc1_aroundhead"
  top: "fc2_aroundhead"
  param {
    lr_mult: 1
    decay_mult: 1
  }
  param {
    lr_mult: 2
    decay_mult: 0
  }
  inner_product_param {
    num_output: 1024
    weight_filler {
      type: "xavier"
    }
    bias_filler {
      type: "constant"
      value: 0.2
    }
  }
}
layer {
  name: "relu2_aroundhead"
  type: "ReLU"
  bottom: "fc2_aroundhead"
  top: "fc2_aroundhead"
}
layer {
  name: "drop2_aroundhead"
  type: "Dropout"
  bottom: "fc2_aroundhead"
  top: "fc2_aroundhead"
  dropout_param {
    dropout_ratio: 0.5
  }
}
layer {
  name: "fc1_facialhair"
  type: "InnerProduct"
  bottom: "pool3_rest"
  top: "fc1_facialhair"
  param {
    lr_mult: 1
    decay_mult: 1
  }
  param {
    lr_mult: 2
    decay_mult: 0
  }
  inner_product_param {
    num_output: 1024
    weight_filler {
      type: "xavier"
    }
    bias_filler {
      type: "constant"
      value: 0.2
    }
  }
}
layer {
  name: "relu1_facialhair"
  type: "ReLU"
  bottom: "fc1_facialhair"
  top: "fc1_facialhair"
}
layer {
  name: "drop1_facialhair"
  type: "Dropout"
  bottom: "fc1_facialhair"
  top: "fc1_facialhair"
  dropout_param {
    dropout_ratio: 0.5
  }
}
layer {
  name: "fc2_facialhair"
  type: "InnerProduct"
  bottom: "fc1_facialhair"
  top: "fc2_facialhair"
  param {
    lr_mult: 1
    decay_mult: 1
  }
  param {
    lr_mult: 2
    decay_mult: 0
  }
  inner_product_param {
    num_output: 1024
    weight_filler {
      type: "xavier"
    }
    bias_filler {
      type: "constant"
      value: 0.2
    }
  }
}
layer {
  name: "relu2_facialhair"
  type: "ReLU"
  bottom: "fc2_facialhair"
  top: "fc2_facialhair"
}
layer {
  name: "drop2_facialhair"
  type: "Dropout"
  bottom: "fc2_facialhair"
  top: "fc2_facialhair"
  dropout_param {
    dropout_ratio: 0.5
  }
}
layer {
  name: "fc1_cheeks"
  type: "InnerProduct"
  bottom: "pool3_rest"
  top: "fc1_cheeks"
  param {
    lr_mult: 1
    decay_mult: 1
  }
  param {
    lr_mult: 2
    decay_mult: 0
  }
  inner_product_param {
    num_output: 1024
    weight_filler {
      type: "xavier"
    }
    bias_filler {
      type: "constant"
      value: 0.2
    }
  }
}
layer {
  name: "relu1_cheeks"
  type: "ReLU"
  bottom: "fc1_cheeks"
  top: "fc1_cheeks"
}
layer {
  name: "drop1_cheeks"
  type: "Dropout"
  bottom: "fc1_cheeks"
  top: "fc1_cheeks"
  dropout_param {
    dropout_ratio: 0.5
  }
}
layer {
  name: "fc2_cheeks"
  type: "InnerProduct"
  bottom: "fc1_cheeks"
  top: "fc2_cheeks"
  param {
    lr_mult: 1
    decay_mult: 1
  }
  param {
    lr_mult: 2
    decay_mult: 0
  }
  inner_product_param {
    num_output: 1024
    weight_filler {
      type: "xavier"
    }
    bias_filler {
      type: "constant"
      value: 0.2
    }
  }
}
layer {
  name: "relu2_cheeks"
  type: "ReLU"
  bottom: "fc2_cheeks"
  top: "fc2_cheeks"
}
layer {
  name: "drop2_cheeks"
  type: "Dropout"
  bottom: "fc2_cheeks"
  top: "fc2_cheeks"
  dropout_param {
    dropout_ratio: 0.5
  }
}
layer {
  name: "fc1_fat"
  type: "InnerProduct"
  bottom: "pool3_rest"
  top: "fc1_fat"
  param {
    lr_mult: 1
    decay_mult: 1
  }
  param {
    lr_mult: 2
    decay_mult: 0
  }
  inner_product_param {
    num_output: 1024
    weight_filler {
      type: "xavier"
    }
    bias_filler {
      type: "constant"
      value: 0.2
    }
  }
}
layer {
  name: "relu1_fat"
  type: "ReLU"
  bottom: "fc1_fat"
  top: "fc1_fat"
}
layer {
  name: "drop1_fat"
  type: "Dropout"
  bottom: "fc1_fat"
  top: "fc1_fat"
  dropout_param {
    dropout_ratio: 0.5
  }
}
layer {
  name: "fc2_fat"
  type: "InnerProduct"
  bottom: "fc1_fat"
  top: "fc2_fat"
  param {
    lr_mult: 1
    decay_mult: 1
  }
  param {
    lr_mult: 2
    decay_mult: 0
  }
  inner_product_param {
    num_output: 1024
    weight_filler {
      type: "xavier"
    }
    bias_filler {
      type: "constant"
      value: 0.2
    }
  }
}
layer {
  name: "relu2_fat"
  type: "ReLU"
  bottom: "fc2_fat"
  top: "fc2_fat"
}
layer {
  name: "drop2_fat"
  type: "Dropout"
  bottom: "fc2_fat"
  top: "fc2_fat"
  dropout_param {
    dropout_ratio: 0.5
  }
}
layer {
  name: "fc3_Male"
  type: "InnerProduct"
  bottom: "fc2_gender"
  top: "fc3_Male"
  inner_product_param {
    num_output: 2
    weight_filler {
      type: "xavier"
    }
    bias_filler {
      type: "constant"
      value: 0
    }
  }
}
layer {
  name: "loss_Male"
  type: "SigmoidCrossEntropyLoss"
  bottom: "fc3_Male"
  bottom: "label_Male"
  top: "loss_Male"
}
layer {
  name: "fc3_Big_Nose"
  type: "InnerProduct"
  bottom: "fc2_nose"
  top: "fc3_Big_Nose"
  inner_product_param {
    num_output: 2
    weight_filler {
      type: "xavier"
    }
    bias_filler {
      type: "constant"
      value: 0
    }
  }
}
layer {
  name: "loss_Big_Nose"
  type: "SigmoidCrossEntropyLoss"
  bottom: "fc3_Big_Nose"
  bottom: "label_Big_Nose"
  top: "loss_Big_Nose"
}
layer {
  name: "fc3_Pointy_Nose"
  type: "InnerProduct"
  bottom: "fc2_nose"
  top: "fc3_Pointy_Nose"
  inner_product_param {
    num_output: 2
    weight_filler {
      type: "xavier"
    }
    bias_filler {
      type: "constant"
      value: 0
    }
  }
}
layer {
  name: "loss_Pointy_Nose"
  type: "SigmoidCrossEntropyLoss"
  bottom: "fc3_Pointy_Nose"
  bottom: "label_Pointy_Nose"
  top: "loss_Pointy_Nose"
}
layer {
  name: "fc3_Big_Lips"
  type: "InnerProduct"
  bottom: "fc2_mouth"
  top: "fc3_Big_Lips"
  inner_product_param {
    num_output: 2
    weight_filler {
      type: "xavier"
    }
    bias_filler {
      type: "constant"
      value: 0
    }
  }
}
layer {
  name: "loss_Big_Lips"
  type: "SigmoidCrossEntropyLoss"
  bottom: "fc3_Big_Lips"
  bottom: "label_Big_Lips"
  top: "loss_Big_Lips"
}
layer {
  name: "fc3_Smiling"
  type: "InnerProduct"
  bottom: "fc2_mouth"
  top: "fc3_Smiling"
  inner_product_param {
    num_output: 2
    weight_filler {
      type: "xavier"
    }
    bias_filler {
      type: "constant"
      value: 0
    }
  }
}
layer {
  name: "loss_Smiling"
  type: "SigmoidCrossEntropyLoss"
  bottom: "fc3_Smiling"
  bottom: "label_Smiling"
  top: "loss_Smiling"
}
layer {
  name: "fc3_Wearing_Lipstick"
  type: "InnerProduct"
  bottom: "fc2_mouth"
  top: "fc3_Wearing_Lipstick"
  inner_product_param {
    num_output: 2
    weight_filler {
      type: "xavier"
    }
    bias_filler {
      type: "constant"
      value: 0
    }
  }
}
layer {
  name: "loss_Wearing_Lipstick"
  type: "SigmoidCrossEntropyLoss"
  bottom: "fc3_Wearing_Lipstick"
  bottom: "label_Wearing_Lipstick"
  top: "loss_Wearing_Lipstick"
}
layer {
  name: "fc3_Mouth_Slightly_Open"
  type: "InnerProduct"
  bottom: "fc2_mouth"
  top: "fc3_Mouth_Slightly_Open"
  inner_product_param {
    num_output: 2
    weight_filler {
      type: "xavier"
    }
    bias_filler {
      type: "constant"
      value: 0
    }
  }
}
layer {
  name: "loss_Mouth_Slightly_Open"
  type: "SigmoidCrossEntropyLoss"
  bottom: "fc3_Mouth_Slightly_Open"
  bottom: "label_Mouth_Slightly_Open"
  top: "loss_Mouth_Slightly_Open"
}
layer {
  name: "fc3_Arched_Eyebrows"
  type: "InnerProduct"
  bottom: "fc2_eyes"
  top: "fc3_Arched_Eyebrows"
  inner_product_param {
    num_output: 2
    weight_filler {
      type: "xavier"
    }
    bias_filler {
      type: "constant"
      value: 0
    }
  }
}
layer {
  name: "loss_Arched_Eyebrows"
  type: "SigmoidCrossEntropyLoss"
  bottom: "fc3_Arched_Eyebrows"
  bottom: "label_Arched_Eyebrows"
  top: "loss_Arched_Eyebrows"
}
layer {
  name: "fc3_Bags_Under_Eyes"
  type: "InnerProduct"
  bottom: "fc2_eyes"
  top: "fc3_Bags_Under_Eyes"
  inner_product_param {
    num_output: 2
    weight_filler {
      type: "xavier"
    }
    bias_filler {
      type: "constant"
      value: 0
    }
  }
}
layer {
  name: "loss_Bags_Under_Eyes"
  type: "SigmoidCrossEntropyLoss"
  bottom: "fc3_Bags_Under_Eyes"
  bottom: "label_Bags_Under_Eyes"
  top: "loss_Bags_Under_Eyes"
}
layer {
  name: "fc3_Bushy_Eyebrows"
  type: "InnerProduct"
  bottom: "fc2_eyes"
  top: "fc3_Bushy_Eyebrows"
  inner_product_param {
    num_output: 2
    weight_filler {
      type: "xavier"
    }
    bias_filler {
      type: "constant"
      value: 0
    }
  }
}
layer {
  name: "loss_Bushy_Eyebrows"
  type: "SigmoidCrossEntropyLoss"
  bottom: "fc3_Bushy_Eyebrows"
  bottom: "label_Bushy_Eyebrows"
  top: "loss_Bushy_Eyebrows"
}
layer {
  name: "fc3_Narrow_Eyes"
  type: "InnerProduct"
  bottom: "fc2_eyes"
  top: "fc3_Narrow_Eyes"
  inner_product_param {
    num_output: 2
    weight_filler {
      type: "xavier"
    }
    bias_filler {
      type: "constant"
      value: 0
    }
  }
}
layer {
  name: "loss_Narrow_Eyes"
  type: "SigmoidCrossEntropyLoss"
  bottom: "fc3_Narrow_Eyes"
  bottom: "label_Narrow_Eyes"
  top: "loss_Narrow_Eyes"
}
layer {
  name: "fc3_Eyeglasses"
  type: "InnerProduct"
  bottom: "fc2_eyes"
  top: "fc3_Eyeglasses"
  inner_product_param {
    num_output: 2
    weight_filler {
      type: "xavier"
    }
    bias_filler {
      type: "constant"
      value: 0
    }
  }
}
layer {
  name: "loss_Eyeglasses"
  type: "SigmoidCrossEntropyLoss"
  bottom: "fc3_Eyeglasses"
  bottom: "label_Eyeglasses"
  top: "loss_Eyeglasses"
}
layer {
  name: "fc3_Attractive"
  type: "InnerProduct"
  bottom: "fc2_face"
  top: "fc3_Attractive"
  inner_product_param {
    num_output: 2
    weight_filler {
      type: "xavier"
    }
    bias_filler {
      type: "constant"
      value: 0
    }
  }
}
layer {
  name: "loss_Attractive"
  type: "SigmoidCrossEntropyLoss"
  bottom: "fc3_Attractive"
  bottom: "label_Attractive"
  top: "loss_Attractive"
}
layer {
  name: "fc3_Blurry"
  type: "InnerProduct"
  bottom: "fc2_face"
  top: "fc3_Blurry"
  inner_product_param {
    num_output: 2
    weight_filler {
      type: "xavier"
    }
    bias_filler {
      type: "constant"
      value: 0
    }
  }
}
layer {
  name: "loss_Blurry"
  type: "SigmoidCrossEntropyLoss"
  bottom: "fc3_Blurry"
  bottom: "label_Blurry"
  top: "loss_Blurry"
}
layer {
  name: "fc3_Oval_Face"
  type: "InnerProduct"
  bottom: "fc2_face"
  top: "fc3_Oval_Face"
  inner_product_param {
    num_output: 2
    weight_filler {
      type: "xavier"
    }
    bias_filler {
      type: "constant"
      value: 0
    }
  }
}
layer {
  name: "loss_Oval_Face"
  type: "SigmoidCrossEntropyLoss"
  bottom: "fc3_Oval_Face"
  bottom: "label_Oval_Face"
  top: "loss_Oval_Face"
}
layer {
  name: "fc3_Pale_Skin"
  type: "InnerProduct"
  bottom: "fc2_face"
  top: "fc3_Pale_Skin"
  inner_product_param {
    num_output: 2
    weight_filler {
      type: "xavier"
    }
    bias_filler {
      type: "constant"
      value: 0
    }
  }
}
layer {
  name: "loss_Pale_Skin"
  type: "SigmoidCrossEntropyLoss"
  bottom: "fc3_Pale_Skin"
  bottom: "label_Pale_Skin"
  top: "loss_Pale_Skin"
}
layer {
  name: "fc3_Young"
  type: "InnerProduct"
  bottom: "fc2_face"
  top: "fc3_Young"
  inner_product_param {
    num_output: 2
    weight_filler {
      type: "xavier"
    }
    bias_filler {
      type: "constant"
      value: 0
    }
  }
}
layer {
I1018 15:58:36.202680 23067 layer_factory.hpp:77] Creating layer data
I1018 15:58:36.202731 23067 net.cpp:91] Creating Layer data
I1018 15:58:36.202740 23067 net.cpp:399] data -> data
I1018 15:58:36.202771 23067 net.cpp:399] data -> label
I1018 15:58:36.202792 23067 data_transformer.cpp:25] Loading mean file from: /home/zhangyuan/caojiajiong/attribute_learning/attr_id/data/train_attr_id.binaryproto
I1018 15:58:36.213663 23067 image_data_layer.cpp:38] Opening file /home/zhangyuan/caojiajiong/attribute_learning/attr_id/data/train_shuffle.txt
I1018 15:58:36.229449 23067 image_data_layer.cpp:53] A total of 39119 images.
I1018 15:58:36.235688 23067 image_data_layer.cpp:80] output data size: 100,3,112,112
I1018 15:58:36.261647 23067 net.cpp:141] Setting up data
I1018 15:58:36.261704 23067 net.cpp:148] Top shape: 100 3 112 112 (3763200)
I1018 15:58:36.261714 23067 net.cpp:148] Top shape: 100 (100)
I1018 15:58:36.261719 23067 net.cpp:156] Memory required for data: 15053200
I1018 15:58:36.261730 23067 layer_factory.hpp:77] Creating layer label_data_1_split
I1018 15:58:36.261746 23067 net.cpp:91] Creating Layer label_data_1_split
I1018 15:58:36.261754 23067 net.cpp:425] label_data_1_split <- label
I1018 15:58:36.261770 23067 net.cpp:399] label_data_1_split -> label_data_1_split_0
I1018 15:58:36.261803 23067 net.cpp:399] label_data_1_split -> label_data_1_split_1
I1018 15:58:36.261898 23067 net.cpp:141] Setting up label_data_1_split
I1018 15:58:36.261912 23067 net.cpp:148] Top shape: 100 (100)
I1018 15:58:36.261919 23067 net.cpp:148] Top shape: 100 (100)
I1018 15:58:36.261922 23067 net.cpp:156] Memory required for data: 15054000
I1018 15:58:36.261926 23067 layer_factory.hpp:77] Creating layer attr_data
I1018 15:58:36.262070 23067 net.cpp:91] Creating Layer attr_data
I1018 15:58:36.262084 23067 net.cpp:399] attr_data -> attr_data
I1018 15:58:36.262095 23067 net.cpp:399] attr_data -> fakelabel
I1018 15:58:36.265645 23071 db_lmdb.cpp:40] Opened lmdb /home/zhangyuan/caojiajiong/attribute_learning/attr_id/data/train_label
I1018 15:58:36.265859 23067 data_layer.cpp:41] output data size: 100,80,1,1
I1018 15:58:36.266803 23067 net.cpp:141] Setting up attr_data
I1018 15:58:36.266821 23067 net.cpp:148] Top shape: 100 80 1 1 (8000)
I1018 15:58:36.266827 23067 net.cpp:148] Top shape: 100 (100)
I1018 15:58:36.266832 23067 net.cpp:156] Memory required for data: 15086400
I1018 15:58:36.266836 23067 layer_factory.hpp:77] Creating layer conv1
I1018 15:58:36.266860 23067 net.cpp:91] Creating Layer conv1
I1018 15:58:36.266865 23067 net.cpp:425] conv1 <- data
I1018 15:58:36.266875 23067 net.cpp:399] conv1 -> conv1
I1018 15:58:36.269305 23067 net.cpp:141] Setting up conv1
I1018 15:58:36.269325 23067 net.cpp:148] Top shape: 100 64 112 112 (80281600)
I1018 15:58:36.269331 23067 net.cpp:156] Memory required for data: 336212800
I1018 15:58:36.269346 23067 layer_factory.hpp:77] Creating layer slice
I1018 15:58:36.269371 23067 net.cpp:91] Creating Layer slice
I1018 15:58:36.269378 23067 net.cpp:425] slice <- attr_data
I1018 15:58:36.269390 23067 net.cpp:399] slice -> label_5_o_Clock_Shadow
I1018 15:58:36.269407 23067 net.cpp:399] slice -> label_Arched_Eyebrows
…
I1018 15:58:36.269857 23067 net.cpp:399] slice -> label_Straight_Hair
I1018 15:58:36.269872 23067 net.cpp:399] slice -> label_Wavy_Hair
I1018 15:58:36.269899 23067 net.cpp:399] slice -> label_Wearing_Earrings
I1018 15:58:36.269912 23067 net.cpp:399] slice -> label_Wearing_Hat
I1018 15:58:36.269930 23067 net.cpp:399] slice -> label_Wearing_Lipstick
I1018 15:58:36.269944 23067 net.cpp:399] slice -> label_Wearing_Necklace
I1018 15:58:36.269960 23067 net.cpp:399] slice -> label_Wearing_Necktie
I1018 15:58:36.269974 23067 net.cpp:399] slice -> label_Young
I1018 15:58:36.270419 23067 net.cpp:141] Setting up slice
I1018 15:58:36.270432 23067 net.cpp:148] Top shape: 100 2 1 1 (200)
I1018 15:58:36.270438 23067 net.cpp:148] Top shape: 100 2 1 1 (200)
I1018 15:58:36.270445 23067 net.cpp:148] Top shape: 100 2 1 1 (200)
I1018 15:58:36.270450 23067 net.cpp:148] Top shape: 100 2 1 1 (200)
I1018 15:58:36.270455 23067 net.cpp:148] Top shape: 100 2 1 1 (200)
I1018 15:58:36.270459 23067 net.cpp:148] Top shape: 100 2 1 1 (200)
I1018 15:58:36.270464 23067 net.cpp:148] Top shape: 100 2 1 1 (200)
I1018 15:58:36.270468 23067 net.cpp:148] Top shape: 100 2 1 1 (200)
I1018 15:58:36.270473 23067 net.cpp:148] Top shape: 100 2 1 1 (200)
I1018 15:58:36.270478 23067 net.cpp:148] Top shape: 100 2 1 1 (200)
I1018 15:58:36.270488 23067 net.cpp:148] Top shape: 100 2 1 1 (200)
I1018 15:58:36.270493 23067 net.cpp:148] Top shape: 100 2 1 1 (200)
I1018 15:58:36.270498 23067 net.cpp:148] Top shape: 100 2 1 1 (200)
I1018 15:58:36.270503 23067 net.cpp:148] Top shape: 100 2 1 1 (200)
I1018 15:58:36.270508 23067 net.cpp:148] Top shape: 100 2 1 1 (200)
I1018 15:58:36.270512 23067 net.cpp:148] Top shape: 100 2 1 1 (200)
I1018 15:58:36.270517 23067 net.cpp:148] Top shape: 100 2 1 1 (200)
I1018 15:58:36.270522 23067 net.cpp:148] Top shape: 100 2 1 1 (200)
I1018 15:58:36.270529 23067 net.cpp:148] Top shape: 100 2 1 1 (200)
I1018 15:58:36.270534 23067 net.cpp:148] Top shape: 100 2 1 1 (200)
I1018 15:58:36.270539 23067 net.cpp:148] Top shape: 100 2 1 1 (200)
I1018 15:58:36.270544 23067 net.cpp:148] Top shape: 100 2 1 1 (200)
I1018 15:58:36.270547 23067 net.cpp:148] Top shape: 100 2 1 1 (200)
I1018 15:58:36.270552 23067 net.cpp:148] Top shape: 100 2 1 1 (200)
I1018 15:58:36.270556 23067 net.cpp:148] Top shape: 100 2 1 1 (200)
I1018 15:58:36.270561 23067 net.cpp:148] Top shape: 100 2 1 1 (200)
I1018 15:58:36.270566 23067 net.cpp:148] Top shape: 100 2 1 1 (200)
I1018 15:58:36.270571 23067 net.cpp:148] Top shape: 100 2 1 1 (200)
I1018 15:58:36.270576 23067 net.cpp:148] Top shape: 100 2 1 1 (200)
I1018 15:58:36.270581 23067 net.cpp:148] Top shape: 100 2 1 1 (200)
I1018 15:58:36.270584 23067 net.cpp:148] Top shape: 100 2 1 1 (200)
I1018 15:58:36.270589 23067 net.cpp:148] Top shape: 100 2 1 1 (200)
I1018 15:58:36.270594 23067 net.cpp:148] Top shape: 100 2 1 1 (200)
I1018 15:58:36.270598 23067 net.cpp:148] Top shape: 100 2 1 1 (200)
I1018 15:58:36.270603 23067 net.cpp:148] Top shape: 100 2 1 1 (200)
I1018 15:58:36.270607 23067 net.cpp:148] Top shape: 100 2 1 1 (200)
I1018 15:58:36.270612 23067 net.cpp:148] Top shape: 100 2 1 1 (200)
I1018 15:58:36.270617 23067 net.cpp:148] Top shape: 100 2 1 1 (200)
I1018 15:58:36.270622 23067 net.cpp:148] Top shape: 100 2 1 1 (200)
I1018 15:58:36.270627 23067 net.cpp:148] Top shape: 100 2 1 1 (200)
I1018 15:58:36.270629 23067 net.cpp:156] Memory required for data: 336244800
I1018 15:58:36.270634 23067 layer_factory.hpp:77] Creating layer conv1_bn
I1018 15:58:36.270642 23067 net.cpp:91] Creating Layer conv1_bn
I1018 15:58:36.270649 23067 net.cpp:425] conv1_bn <- conv1
I1018 15:58:36.270658 23067 net.cpp:386] conv1_bn -> conv1 (in-place)
I1018 15:58:36.270839 23067 net.cpp:141] Setting up conv1_bn
I1018 15:58:36.270851 23067 net.cpp:148] Top shape: 100 64 112 112 (80281600)
I1018 15:58:36.270855 23067 net.cpp:156] Memory required for data: 657371200
I1018 15:58:36.270872 23067 layer_factory.hpp:77] Creating layer conv1_scale
I1018 15:58:36.270884 23067 net.cpp:91] Creating Layer conv1_scale
I1018 15:58:36.270887 23067 net.cpp:425] conv1_scale <- conv1
I1018 15:58:36.270895 23067 net.cpp:386] conv1_scale -> conv1 (in-place)
I1018 15:58:36.270941 23067 layer_factory.hpp:77] Creating layer conv1_scale
I1018 15:58:36.271073 23067 net.cpp:141] Setting up conv1_scale
I1018 15:58:36.271091 23067 net.cpp:148] Top shape: 100 64 112 112 (80281600)
I1018 15:58:36.271098 23067 net.cpp:156] Memory required for data: 978497600
I1018 15:58:36.271106 23067 layer_factory.hpp:77] Creating layer prelu1
I1018 15:58:36.271114 23067 net.cpp:91] Creating Layer prelu1
I1018 15:58:36.271121 23067 net.cpp:425] prelu1 <- conv1
I1018 15:58:36.271131 23067 net.cpp:386] prelu1 -> conv1 (in-place)
I1018 15:58:36.273200 23067 net.cpp:141] Setting up prelu1
I1018 15:58:36.273228 23067 net.cpp:148] Top shape: 100 64 112 112 (80281600)
I1018 15:58:36.273258 23067 net.cpp:156] Memory required for data: 1299624000
I1018 15:58:36.273268 23067 layer_factory.hpp:77] Creating layer pool1
I1018 15:58:36.273279 23067 net.cpp:91] Creating Layer pool1
I1018 15:58:36.273284 23067 net.cpp:425] pool1 <- conv1
I1018 15:58:36.273299 23067 net.cpp:399] pool1 -> pool1
I1018 15:58:36.273370 23067 net.cpp:141] Setting up pool1
I1018 15:58:36.273380 23067 net.cpp:148] Top shape: 100 64 56 56 (20070400)
I1018 15:58:36.273387 23067 net.cpp:156] Memory required for data: 1379905600
I1018 15:58:36.273407 23067 layer_factory.hpp:77] Creating layer conv2a
I1018 15:58:36.273432 23067 net.cpp:91] Creating Layer conv2a
I1018 15:58:36.273455 23067 net.cpp:425] conv2a <- pool1
I1018 15:58:36.273469 23067 net.cpp:399] conv2a -> conv2a
I1018 15:58:36.273727 23067 net.cpp:141] Setting up conv2a
I1018 15:58:36.273742 23067 net.cpp:148] Top shape: 100 64 56 56 (20070400)
I1018 15:58:36.273752 23067 net.cpp:156] Memory required for data: 1460187200
I1018 15:58:36.273764 23067 layer_factory.hpp:77] Creating layer conv2a_bn
I1018 15:58:36.273787 23067 net.cpp:91] Creating Layer conv2a_bn
I1018 15:58:36.273792 23067 net.cpp:425] conv2a_bn <- conv2a
I1018 15:58:36.273805 23067 net.cpp:386] conv2a_bn -> conv2a (in-place)
I1018 15:58:36.274044 23067 net.cpp:141] Setting up conv2a_bn
I1018 15:58:36.274055 23067 net.cpp:148] Top shape: 100 64 56 56 (20070400)
I1018 15:58:36.274060 23067 net.cpp:156] Memory required for data: 1540468800
I1018 15:58:36.274070 23067 layer_factory.hpp:77] Creating layer conv2a_scale
I1018 15:58:36.274077 23067 net.cpp:91] Creating Layer conv2a_scale
I1018 15:58:36.274081 23067 net.cpp:425] conv2a_scale <- conv2a
I1018 15:58:36.274088 23067 net.cpp:386] conv2a_scale -> conv2a (in-place)
I1018 15:58:36.274133 23067 layer_factory.hpp:77] Creating layer conv2a_scale
I1018 15:58:36.274260 23067 net.cpp:141] Setting up conv2a_scale
I1018 15:58:36.274273 23067 net.cpp:148] Top shape: 100 64 56 56 (20070400)
I1018 15:58:36.274286 23067 net.cpp:156] Memory required for data: 1620750400
I1018 15:58:36.274303 23067 layer_factory.hpp:77] Creating layer prelu2a
I1018 15:58:36.274320 23067 net.cpp:91] Creating Layer prelu2a
I1018 15:58:36.274327 23067 net.cpp:425] prelu2a <- conv2a
I1018 15:58:36.274335 23067 net.cpp:386] prelu2a -> conv2a (in-place)
I1018 15:58:36.275184 23067 net.cpp:141] Setting up prelu2a
I1018 15:58:36.275209 23067 net.cpp:148] Top shape: 100 64 56 56 (20070400)
I1018 15:58:36.275218 23067 net.cpp:156] Memory required for data: 1701032000
I1018 15:58:36.275223 23067 layer_factory.hpp:77] Creating layer conv2
I1018 15:58:36.275254 23067 net.cpp:91] Creating Layer conv2
I1018 15:58:36.275262 23067 net.cpp:425] conv2 <- conv2a
I1018 15:58:36.275280 23067 net.cpp:399] conv2 -> conv2
I1018 15:58:36.276921 23067 net.cpp:141] Setting up conv2
I1018 15:58:36.276939 23067 net.cpp:148] Top shape: 100 192 56 56 (60211200)
I1018 15:58:36.276944 23067 net.cpp:156] Memory required for data: 1941876800
I1018 15:58:36.276957 23067 layer_factory.hpp:77] Creating layer conv2_bn
I1018 15:58:36.276965 23067 net.cpp:91] Creating Layer conv2_bn
I1018 15:58:36.276969 23067 net.cpp:425] conv2_bn <- conv2
I1018 15:58:36.276976 23067 net.cpp:386] conv2_bn -> conv2 (in-place)
I1018 15:58:36.277165 23067 net.cpp:141] Setting up conv2_bn
I1018 15:58:36.277178 23067 net.cpp:148] Top shape: 100 192 56 56 (60211200)
I1018 15:58:36.277181 23067 net.cpp:156] Memory required for data: 2182721600
I1018 15:58:36.277204 23067 layer_factory.hpp:77] Creating layer conv2_scale
I1018 15:58:36.277214 23067 net.cpp:91] Creating Layer conv2_scale
I1018 15:58:36.277225 23067 net.cpp:425] conv2_scale <- conv2
I1018 15:58:36.277231 23067 net.cpp:386] conv2_scale -> conv2 (in-place)
I1018 15:58:36.277272 23067 layer_factory.hpp:77] Creating layer conv2_scale
I1018 15:58:36.277398 23067 net.cpp:141] Setting up conv2_scale
I1018 15:58:36.277410 23067 net.cpp:148] Top shape: 100 192 56 56 (60211200)
I1018 15:58:36.277415 23067 net.cpp:156] Memory required for data: 2423566400
I1018 15:58:36.277420 23067 layer_factory.hpp:77] Creating layer prelu2
I1018 15:58:36.277429 23067 net.cpp:91] Creating Layer prelu2
I1018 15:58:36.277434 23067 net.cpp:425] prelu2 <- conv2
I1018 15:58:36.277441 23067 net.cpp:386] prelu2 -> conv2 (in-place)
I1018 15:58:36.279031 23067 net.cpp:141] Setting up prelu2
I1018 15:58:36.279048 23067 net.cpp:148] Top shape: 100 192 56 56 (60211200)
I1018 15:58:36.279052 23067 net.cpp:156] Memory required for data: 2664411200
I1018 15:58:36.279059 23067 layer_factory.hpp:77] Creating layer pool2
I1018 15:58:36.279067 23067 net.cpp:91] Creating Layer pool2
I1018 15:58:36.279072 23067 net.cpp:425] pool2 <- conv2
I1018 15:58:36.279093 23067 net.cpp:399] pool2 -> pool2
I1018 15:58:36.279134 23067 net.cpp:141] Setting up pool2
I1018 15:58:36.279145 23067 net.cpp:148] Top shape: 100 192 28 28 (15052800)
I1018 15:58:36.279148 23067 net.cpp:156] Memory required for data: 2724622400
I1018 15:58:36.279152 23067 layer_factory.hpp:77] Creating layer conv3a
I1018 15:58:36.279170 23067 net.cpp:91] Creating Layer conv3a
I1018 15:58:36.279175 23067 net.cpp:425] conv3a <- pool2
I1018 15:58:36.279183 23067 net.cpp:399] conv3a -> conv3a
I1018 15:58:36.280290 23067 net.cpp:141] Setting up conv3a
I1018 15:58:36.280306 23067 net.cpp:148] Top shape: 100 192 28 28 (15052800)
I1018 15:58:36.280311 23067 net.cpp:156] Memory required for data: 2784833600
I1018 15:58:36.280319 23067 layer_factory.hpp:77] Creating layer conv3a_bn
I1018 15:58:36.280328 23067 net.cpp:91] Creating Layer conv3a_bn
I1018 15:58:36.280333 23067 net.cpp:425] conv3a_bn <- conv3a
I1018 15:58:36.280339 23067 net.cpp:386] conv3a_bn -> conv3a (in-place)
I1018 15:58:36.280530 23067 net.cpp:141] Setting up conv3a_bn
I1018 15:58:36.280541 23067 net.cpp:148] Top shape: 100 192 28 28 (15052800)
I1018 15:58:36.280546 23067 net.cpp:156] Memory required for data: 2845044800
I1018 15:58:36.280555 23067 layer_factory.hpp:77] Creating layer conv3a_scale
I1018 15:58:36.280563 23067 net.cpp:91] Creating Layer conv3a_scale
I1018 15:58:36.280567 23067 net.cpp:425] conv3a_scale <- conv3a
I1018 15:58:36.280575 23067 net.cpp:386] conv3a_scale -> conv3a (in-place)
I1018 15:58:36.280619 23067 layer_factory.hpp:77] Creating layer conv3a_scale
I1018 15:58:36.280740 23067 net.cpp:141] Setting up conv3a_scale
I1018 15:58:36.280750 23067 net.cpp:148] Top shape: 100 192 28 28 (15052800)
I1018 15:58:36.280755 23067 net.cpp:156] Memory required for data: 2905256000
I1018 15:58:36.280761 23067 layer_factory.hpp:77] Creating layer prelu3a
I1018 15:58:36.280767 23067 net.cpp:91] Creating Layer prelu3a
I1018 15:58:36.280772 23067 net.cpp:425] prelu3a <- conv3a
I1018 15:58:36.280778 23067 net.cpp:386] prelu3a -> conv3a (in-place)
I1018 15:58:36.280972 23067 net.cpp:141] Setting up prelu3a
I1018 15:58:36.280983 23067 net.cpp:148] Top shape: 100 192 28 28 (15052800)
I1018 15:58:36.280987 23067 net.cpp:156] Memory required for data: 2965467200
I1018 15:58:36.280993 23067 layer_factory.hpp:77] Creating layer conv3
I1018 15:58:36.281005 23067 net.cpp:91] Creating Layer conv3
I1018 15:58:36.281010 23067 net.cpp:425] conv3 <- conv3a
I1018 15:58:36.281018 23067 net.cpp:399] conv3 -> conv3
I1018 15:58:36.287225 23067 net.cpp:141] Setting up conv3
I1018 15:58:36.287242 23067 net.cpp:148] Top shape: 100 384 28 28 (30105600)
I1018 15:58:36.287246 23067 net.cpp:156] Memory required for data: 3085889600
I1018 15:58:36.287261 23067 layer_factory.hpp:77] Creating layer conv3_bn
I1018 15:58:36.287269 23067 net.cpp:91] Creating Layer conv3_bn
I1018 15:58:36.287300 23067 net.cpp:425] conv3_bn <- conv3
I1018 15:58:36.287310 23067 net.cpp:386] conv3_bn -> conv3 (in-place)
I1018 15:58:36.287492 23067 net.cpp:141] Setting up conv3_bn
I1018 15:58:36.287503 23067 net.cpp:148] Top shape: 100 384 28 28 (30105600)
I1018 15:58:36.287508 23067 net.cpp:156] Memory required for data: 3206312000
I1018 15:58:36.287518 23067 layer_factory.hpp:77] Creating layer conv3_scale
I1018 15:58:36.287524 23067 net.cpp:91] Creating Layer conv3_scale
I1018 15:58:36.287529 23067 net.cpp:425] conv3_scale <- conv3
I1018 15:58:36.287535 23067 net.cpp:386] conv3_scale -> conv3 (in-place)
I1018 15:58:36.287583 23067 layer_factory.hpp:77] Creating layer conv3_scale
I1018 15:58:36.287698 23067 net.cpp:141] Setting up conv3_scale
I1018 15:58:36.287709 23067 net.cpp:148] Top shape: 100 384 28 28 (30105600)
I1018 15:58:36.287714 23067 net.cpp:156] Memory required for data: 3326734400
I1018 15:58:36.287720 23067 layer_factory.hpp:77] Creating layer prelu3
I1018 15:58:36.287727 23067 net.cpp:91] Creating Layer prelu3
I1018 15:58:36.287731 23067 net.cpp:425] prelu3 <- conv3
I1018 15:58:36.287737 23067 net.cpp:386] prelu3 -> conv3 (in-place)
I1018 15:58:36.288796 23067 net.cpp:141] Setting up prelu3
I1018 15:58:36.288815 23067 net.cpp:148] Top shape: 100 384 28 28 (30105600)
I1018 15:58:36.288820 23067 net.cpp:156] Memory required for data: 3447156800
I1018 15:58:36.288826 23067 layer_factory.hpp:77] Creating layer pool3
I1018 15:58:36.288835 23067 net.cpp:91] Creating Layer pool3
I1018 15:58:36.288838 23067 net.cpp:425] pool3 <- conv3
I1018 15:58:36.288846 23067 net.cpp:399] pool3 -> pool3
I1018 15:58:36.288893 23067 net.cpp:141] Setting up pool3
I1018 15:58:36.288903 23067 net.cpp:148] Top shape: 100 384 14 14 (7526400)
I1018 15:58:36.288908 23067 net.cpp:156] Memory required for data: 3477262400
I1018 15:58:36.288911 23067 layer_factory.hpp:77] Creating layer pool3_pool3_0_split
I1018 15:58:36.288919 23067 net.cpp:91] Creating Layer pool3_pool3_0_split
I1018 15:58:36.288935 23067 net.cpp:425] pool3_pool3_0_split <- pool3
I1018 15:58:36.288944 23067 net.cpp:399] pool3_pool3_0_split -> pool3_pool3_0_split_0
I1018 15:58:36.288952 23067 net.cpp:399] pool3_pool3_0_split -> pool3_pool3_0_split_1
I1018 15:58:36.288961 23067 net.cpp:399] pool3_pool3_0_split -> pool3_pool3_0_split_2
I1018 15:58:36.288970 23067 net.cpp:399] pool3_pool3_0_split -> pool3_pool3_0_split_3
I1018 15:58:36.288977 23067 net.cpp:399] pool3_pool3_0_split -> pool3_pool3_0_split_4
I1018 15:58:36.288985 23067 net.cpp:399] pool3_pool3_0_split -> pool3_pool3_0_split_5
I1018 15:58:36.289075 23067 net.cpp:141] Setting up pool3_pool3_0_split
I1018 15:58:36.289088 23067 net.cpp:148] Top shape: 100 384 14 14 (7526400)
I1018 15:58:36.289093 23067 net.cpp:148] Top shape: 100 384 14 14 (7526400)
I1018 15:58:36.289098 23067 net.cpp:148] Top shape: 100 384 14 14 (7526400)
I1018 15:58:36.289103 23067 net.cpp:148] Top shape: 100 384 14 14 (7526400)
I1018 15:58:36.289106 23067 net.cpp:148] Top shape: 100 384 14 14 (7526400)
I1018 15:58:36.289111 23067 net.cpp:148] Top shape: 100 384 14 14 (7526400)
I1018 15:58:36.289114 23067 net.cpp:156] Memory required for data: 3657896000
I1018 15:58:36.289119 23067 layer_factory.hpp:77] Creating layer conv3_gender
I1018 15:58:36.289134 23067 net.cpp:91] Creating Layer conv3_gender
I1018 15:58:36.289140 23067 net.cpp:425] conv3_gender <- pool3_pool3_0_split_0
I1018 15:58:36.289149 23067 net.cpp:399] conv3_gender -> conv3_gender
I1018 15:58:36.304939 23067 net.cpp:141] Setting up conv3_gender
I1018 15:58:36.304958 23067 net.cpp:148] Top shape: 100 512 7 7 (2508800)
I1018 15:58:36.304963 23067 net.cpp:156] Memory required for data: 3667931200
I1018 15:58:36.304971 23067 layer_factory.hpp:77] Creating layer conv3_gender_bn
I1018 15:58:36.304980 23067 net.cpp:91] Creating Layer conv3_gender_bn
I1018 15:58:36.304985 23067 net.cpp:425] conv3_gender_bn <- conv3_gender
I1018 15:58:36.304992 23067 net.cpp:386] conv3_gender_bn -> conv3_gender (in-place)
I1018 15:58:36.305177 23067 net.cpp:141] Setting up conv3_gender_bn
I1018 15:58:36.305202 23067 net.cpp:148] Top shape: 100 512 7 7 (2508800)
I1018 15:58:36.305207 23067 net.cpp:156] Memory required for data: 3677966400
I1018 15:58:36.305217 23067 layer_factory.hpp:77] Creating layer conv3_gender_scale
I1018 15:58:36.305224 23067 net.cpp:91] Creating Layer conv3_gender_scale
I1018 15:58:36.305228 23067 net.cpp:425] conv3_gender_scale <- conv3_gender
I1018 15:58:36.305235 23067 net.cpp:386] conv3_gender_scale -> conv3_gender (in-place)
I1018 15:58:36.305281 23067 layer_factory.hpp:77] Creating layer conv3_gender_scale
I1018 15:58:36.305402 23067 net.cpp:141] Setting up conv3_gender_scale
I1018 15:58:36.305413 23067 net.cpp:148] Top shape: 100 512 7 7 (2508800)
I1018 15:58:36.305418 23067 net.cpp:156] Memory required for data: 3688001600
I1018 15:58:36.305424 23067 layer_factory.hpp:77] Creating layer prelu3_gender
I1018 15:58:36.305431 23067 net.cpp:91] Creating Layer prelu3_gender
I1018 15:58:36.305438 23067 net.cpp:425] prelu3_gender <- conv3_gender
I1018 15:58:36.305444 23067 net.cpp:386] prelu3_gender -> conv3_gender (in-place)
I1018 15:58:36.305554 23067 net.cpp:141] Setting up prelu3_gender
I1018 15:58:36.305565 23067 net.cpp:148] Top shape: 100 512 7 7 (2508800)
I1018 15:58:36.305569 23067 net.cpp:156] Memory required for data: 3698036800
I1018 15:58:36.305575 23067 layer_factory.hpp:77] Creating layer pool3_gender
I1018 15:58:36.305586 23067 net.cpp:91] Creating Layer pool3_gender
I1018 15:58:36.305590 23067 net.cpp:425] pool3_gender <- conv3_gender
I1018 15:58:36.305599 23067 net.cpp:399] pool3_gender -> pool3_gender
I1018 15:58:36.305640 23067 net.cpp:141] Setting up pool3_gender
I1018 15:58:36.305649 23067 net.cpp:148] Top shape: 100 512 4 4 (819200)
I1018 15:58:36.305654 23067 net.cpp:156] Memory required for data: 3701313600
I1018 15:58:36.305657 23067 layer_factory.hpp:77] Creating layer pool3_gender_pool3_gender_0_split
I1018 15:58:36.305663 23067 net.cpp:91] Creating Layer pool3_gender_pool3_gender_0_split
I1018 15:58:36.305667 23067 net.cpp:425] pool3_gender_pool3_gender_0_split <- pool3_gender
I1018 15:58:36.305680 23067 net.cpp:399] pool3_gender_pool3_gender_0_split -> pool3_gender_pool3_gender_0_split_0
I1018 15:58:36.305690 23067 net.cpp:399] pool3_gender_pool3_gender_0_split -> pool3_gender_pool3_gender_0_split_1
I1018 15:58:36.305724 23067 net.cpp:141] Setting up pool3_gender_pool3_gender_0_split
I1018 15:58:36.305733 23067 net.cpp:148] Top shape: 100 512 4 4 (819200)
I1018 15:58:36.305738 23067 net.cpp:148] Top shape: 100 512 4 4 (819200)
I1018 15:58:36.305742 23067 net.cpp:156] Memory required for data: 3707867200
I1018 15:58:36.305747 23067 layer_factory.hpp:77] Creating layer fc1_gender
I1018 15:58:36.305765 23067 net.cpp:91] Creating Layer fc1_gender
I1018 15:58:36.305770 23067 net.cpp:425] fc1_gender <- pool3_gender_pool3_gender_0_split_0
I1018 15:58:36.305778 23067 net.cpp:399] fc1_gender -> fc1_gender
I1018 15:58:36.381156 23067 net.cpp:141] Setting up fc1_gender
I1018 15:58:36.381192 23067 net.cpp:148] Top shape: 100 1024 (102400)
I1018 15:58:36.381197 23067 net.cpp:156] Memory required for data: 3708276800
I1018 15:58:36.381211 23067 layer_factory.hpp:77] Creating layer relu1_gender
I1018 15:58:36.381222 23067 net.cpp:91] Creating Layer relu1_gender
I1018 15:58:36.381228 23067 net.cpp:425] relu1_gender <- fc1_gender
I1018 15:58:36.381237 23067 net.cpp:386] relu1_gender -> fc1_gender (in-place)
I1018 15:58:36.381250 23067 net.cpp:141] Setting up relu1_gender
I1018 15:58:36.381255 23067 net.cpp:148] Top shape: 100 1024 (102400)
I1018 15:58:36.381259 23067 net.cpp:156] Memory required for data: 3708686400
I1018 15:58:36.381263 23067 layer_factory.hpp:77] Creating layer drop1_gender
I1018 15:58:36.381273 23067 net.cpp:91] Creating Layer drop1_gender
I1018 15:58:36.381276 23067 net.cpp:425] drop1_gender <- fc1_gender
I1018 15:58:36.381283 23067 net.cpp:386] drop1_gender -> fc1_gender (in-place)
I1018 15:58:36.381332 23067 net.cpp:141] Setting up drop1_gender
I1018 15:58:36.381342 23067 net.cpp:148] Top shape: 100 1024 (102400)
I1018 15:58:36.381374 23067 net.cpp:156] Memory required for data: 3709096000
I1018 15:58:36.381381 23067 layer_factory.hpp:77] Creating layer fc2_gender
I1018 15:58:36.381391 23067 net.cpp:91] Creating Layer fc2_gender
I1018 15:58:36.381394 23067 net.cpp:425] fc2_gender <- fc1_gender
I1018 15:58:36.381402 23067 net.cpp:399] fc2_gender -> fc2_gender
I1018 15:58:36.390944 23067 net.cpp:141] Setting up fc2_gender
I1018 15:58:36.390960 23067 net.cpp:148] Top shape: 100 1024 (102400)
I1018 15:58:36.390965 23067 net.cpp:156] Memory required for data: 3709505600
I1018 15:58:36.390974 23067 layer_factory.hpp:77] Creating layer relu2_gender
I1018 15:58:36.390980 23067 net.cpp:91] Creating Layer relu2_gender
I1018 15:58:36.390985 23067 net.cpp:425] relu2_gender <- fc2_gender
I1018 15:58:36.390991 23067 net.cpp:386] relu2_gender -> fc2_gender (in-place)
I1018 15:58:36.391000 23067 net.cpp:141] Setting up relu2_gender
I1018 15:58:36.391012 23067 net.cpp:148] Top shape: 100 1024 (102400)
I1018 15:58:36.391016 23067 net.cpp:156] Memory required for data: 3709915200
I1018 15:58:36.391021 23067 layer_factory.hpp:77] Creating layer drop2_gender
I1018 15:58:36.391027 23067 net.cpp:91] Creating Layer drop2_gender
I1018 15:58:36.391031 23067 net.cpp:425] drop2_gender <- fc2_gender
I1018 15:58:36.391037 23067 net.cpp:386] drop2_gender -> fc2_gender (in-place)
I1018 15:58:36.391063 23067 net.cpp:141] Setting up drop2_gender
I1018 15:58:36.391077 23067 net.cpp:148] Top shape: 100 1024 (102400)
I1018 15:58:36.391082 23067 net.cpp:156] Memory required for data: 3710324800
I1018 15:58:36.391085 23067 layer_factory.hpp:77] Creating layer fc2_gender_drop2_gender_0_split
I1018 15:58:36.391093 23067 net.cpp:91] Creating Layer fc2_gender_drop2_gender_0_split
I1018 15:58:36.391098 23067 net.cpp:425] fc2_gender_drop2_gender_0_split <- fc2_gender
I1018 15:58:36.391104 23067 net.cpp:399] fc2_gender_drop2_gender_0_split -> fc2_gender_drop2_gender_0_split_0
I1018 15:58:36.391116 23067 net.cpp:399] fc2_gender_drop2_gender_0_split -> fc2_gender_drop2_gender_0_split_1
I1018 15:58:36.391152 23067 net.cpp:141] Setting up fc2_gender_drop2_gender_0_split
I1018 15:58:36.391160 23067 net.cpp:148] Top shape: 100 1024 (102400)
I1018 15:58:36.391165 23067 net.cpp:148] Top shape: 100 1024 (102400)
I1018 15:58:36.391170 23067 net.cpp:156] Memory required for data: 3711144000
I1018 15:58:36.391173 23067 layer_factory.hpp:77] Creating layer conv3_nose
I1018 15:58:36.391191 23067 net.cpp:91] Creating Layer conv3_nose
I1018 15:58:36.391196 23067 net.cpp:425] conv3_nose <- pool3_pool3_0_split_1
I1018 15:58:36.391206 23067 net.cpp:399] conv3_nose -> conv3_nose
I1018 15:58:36.406996 23067 net.cpp:141] Setting up conv3_nose
I1018 15:58:36.407016 23067 net.cpp:148] Top shape: 100 512 7 7 (2508800)
I1018 15:58:36.407021 23067 net.cpp:156] Memory required for data: 3721179200
I1018 15:58:36.407027 23067 layer_factory.hpp:77] Creating layer conv3_nose_bn
I1018 15:58:36.407037 23067 net.cpp:91] Creating Layer conv3_nose_bn
I1018 15:58:36.407042 23067 net.cpp:425] conv3_nose_bn <- conv3_nose
I1018 15:58:36.407049 23067 net.cpp:386] conv3_nose_bn -> conv3_nose (in-place)
I1018 15:58:36.407238 23067 net.cpp:141] Setting up conv3_nose_bn
I1018 15:58:36.407248 23067 net.cpp:148] Top shape: 100 512 7 7 (2508800)
I1018 15:58:36.407253 23067 net.cpp:156] Memory required for data: 3731214400
I1018 15:58:36.407263 23067 layer_factory.hpp:77] Creating layer conv3_nose_scale
I1018 15:58:36.407271 23067 net.cpp:91] Creating Layer conv3_nose_scale
I1018 15:58:36.407276 23067 net.cpp:425] conv3_nose_scale <- conv3_nose
I1018 15:58:36.407282 23067 net.cpp:386] conv3_nose_scale -> conv3_nose (in-place)
I1018 15:58:36.407327 23067 layer_factory.hpp:77] Creating layer conv3_nose_scale
I1018 15:58:36.407446 23067 net.cpp:141] Setting up conv3_nose_scale
I1018 15:58:36.407457 23067 net.cpp:148] Top shape: 100 512 7 7 (2508800)
I1018 15:58:36.407461 23067 net.cpp:156] Memory required for data: 3741249600
I1018 15:58:36.407469 23067 layer_factory.hpp:77] Creating layer prelu3_nose
I1018 15:58:36.407476 23067 net.cpp:91] Creating Layer prelu3_nose
I1018 15:58:36.407505 23067 net.cpp:425] prelu3_nose <- conv3_nose
I1018 15:58:36.407515 23067 net.cpp:386] prelu3_nose -> conv3_nose (in-place)
I1018 15:58:36.407639 23067 net.cpp:141] Setting up prelu3_nose
I1018 15:58:36.407650 23067 net.cpp:148] Top shape: 100 512 7 7 (2508800)
I1018 15:58:36.407655 23067 net.cpp:156] Memory required for data: 3751284800
I1018 15:58:36.407660 23067 layer_factory.hpp:77] Creating layer pool3_nose
I1018 15:58:36.407668 23067 net.cpp:91] Creating Layer pool3_nose
I1018 15:58:36.407673 23067 net.cpp:425] pool3_nose <- conv3_nose
I1018 15:58:36.407680 23067 net.cpp:399] pool3_nose -> pool3_nose
I1018 15:58:36.407722 23067 net.cpp:141] Setting up pool3_nose
I1018 15:58:36.407732 23067 net.cpp:148] Top shape: 100 512 4 4 (819200)
I1018 15:58:36.407735 23067 net.cpp:156] Memory required for data: 3754561600
I1018 15:58:36.407739 23067 layer_factory.hpp:77] Creating layer pool3_nose_pool3_nose_0_split
I1018 15:58:36.407747 23067 net.cpp:91] Creating Layer pool3_nose_pool3_nose_0_split
I1018 15:58:36.407750 23067 net.cpp:425] pool3_nose_pool3_nose_0_split <- pool3_nose
I1018 15:58:36.407763 23067 net.cpp:399] pool3_nose_pool3_nose_0_split -> pool3_nose_pool3_nose_0_split_0
I1018 15:58:36.407773 23067 net.cpp:399] pool3_nose_pool3_nose_0_split -> pool3_nose_pool3_nose_0_split_1
I1018 15:58:36.407819 23067 net.cpp:141] Setting up pool3_nose_pool3_nose_0_split
I1018 15:58:36.407829 23067 net.cpp:148] Top shape: 100 512 4 4 (819200)
I1018 15:58:36.407835 23067 net.cpp:148] Top shape: 100 512 4 4 (819200)
I1018 15:58:36.407838 23067 net.cpp:156] Memory required for data: 3761115200
I1018 15:58:36.407842 23067 layer_factory.hpp:77] Creating layer fc1_nose
I1018 15:58:36.407851 23067 net.cpp:91] Creating Layer fc1_nose
I1018 15:58:36.407856 23067 net.cpp:425] fc1_nose <- pool3_nose_pool3_nose_0_split_0
I1018 15:58:36.407865 23067 net.cpp:399] fc1_nose -> fc1_nose
I1018 15:58:36.483283 23067 net.cpp:141] Setting up fc1_nose
I1018 15:58:36.483319 23067 net.cpp:148] Top shape: 100 1024 (102400)
I1018 15:58:36.483325 23067 net.cpp:156] Memory required for data: 3761524800
I1018 15:58:36.483337 23067 layer_factory.hpp:77] Creating layer relu1_nose
I1018 15:58:36.483350 23067 net.cpp:91] Creating Layer relu1_nose
I1018 15:58:36.483356 23067 net.cpp:425] relu1_nose <- fc1_nose
I1018 15:58:36.483366 23067 net.cpp:386] relu1_nose -> fc1_nose (in-place)
I1018 15:58:36.483379 23067 net.cpp:141] Setting up relu1_nose
I1018 15:58:36.483389 23067 net.cpp:148] Top shape: 100 1024 (102400)
I1018 15:58:36.483393 23067 net.cpp:156] Memory required for data: 3761934400
I1018 15:58:36.483397 23067 layer_factory.hpp:77] Creating layer drop1_nose
I1018 15:58:36.483407 23067 net.cpp:91] Creating Layer drop1_nose
I1018 15:58:36.483410 23067 net.cpp:425] drop1_nose <- fc1_nose
I1018 15:58:36.483417 23067 net.cpp:386] drop1_nose -> fc1_nose (in-place)
I1018 15:58:36.483463 23067 net.cpp:141] Setting up drop1_nose
I1018 15:58:36.483472 23067 net.cpp:148] Top shape: 100 1024 (102400)
I1018 15:58:36.483476 23067 net.cpp:156] Memory required for data: 3762344000
I1018 15:58:36.483480 23067 layer_factory.hpp:77] Creating layer fc2_nose
I1018 15:58:36.483491 23067 net.cpp:91] Creating Layer fc2_nose
I1018 15:58:36.483495 23067 net.cpp:425] fc2_nose <- fc1_nose
I1018 15:58:36.483507 23067 net.cpp:399] fc2_nose -> fc2_nose
I1018 15:58:36.493073 23067 net.cpp:141] Setting up fc2_nose
I1018 15:58:36.493090 23067 net.cpp:148] Top shape: 100 1024 (102400)
I1018 15:58:36.493095 23067 net.cpp:156] Memory required for data: 3762753600
I1018 15:58:36.493103 23067 layer_factory.hpp:77] Creating layer relu2_nose
I1018 15:58:36.493110 23067 net.cpp:91] Creating Layer relu2_nose
I1018 15:58:36.493115 23067 net.cpp:425] relu2_nose <- fc2_nose
I1018 15:58:36.493121 23067 net.cpp:386] relu2_nose -> fc2_nose (in-place)
I1018 15:58:36.493135 23067 net.cpp:141] Setting up relu2_nose
I1018 15:58:36.493146 23067 net.cpp:148] Top shape: 100 1024 (102400)
I1018 15:58:36.493150 23067 net.cpp:156] Memory required for data: 3763163200
I1018 15:58:36.493176 23067 layer_factory.hpp:77] Creating layer drop2_nose
I1018 15:58:36.493185 23067 net.cpp:91] Creating Layer drop2_nose
I1018 15:58:36.493188 23067 net.cpp:425] drop2_nose <- fc2_nose
I1018 15:58:36.493196 23067 net.cpp:386] drop2_nose -> fc2_nose (in-place)
I1018 15:58:36.493229 23067 net.cpp:141] Setting up drop2_nose
I1018 15:58:36.493239 23067 net.cpp:148] Top shape: 100 1024 (102400)
I1018 15:58:36.493243 23067 net.cpp:156] Memory required for data: 3763572800
I1018 15:58:36.493247 23067 layer_factory.hpp:77] Creating layer fc2_nose_drop2_nose_0_split
I1018 15:58:36.493255 23067 net.cpp:91] Creating Layer fc2_nose_drop2_nose_0_split
I1018 15:58:36.493261 23067 net.cpp:425] fc2_nose_drop2_nose_0_split <- fc2_nose
I1018 15:58:36.493269 23067 net.cpp:399] fc2_nose_drop2_nose_0_split -> fc2_nose_drop2_nose_0_split_0
I1018 15:58:36.493278 23067 net.cpp:399] fc2_nose_drop2_nose_0_split -> fc2_nose_drop2_nose_0_split_1
I1018 15:58:36.493285 23067 net.cpp:399] fc2_nose_drop2_nose_0_split -> fc2_nose_drop2_nose_0_split_2
I1018 15:58:36.493337 23067 net.cpp:141] Setting up fc2_nose_drop2_nose_0_split
I1018 15:58:36.493347 23067 net.cpp:148] Top shape: 100 1024 (102400)
I1018 15:58:36.493352 23067 net.cpp:148] Top shape: 100 1024 (102400)
I1018 15:58:36.493356 23067 net.cpp:148] Top shape: 100 1024 (102400)
I1018 15:58:36.493360 23067 net.cpp:156] Memory required for data: 3764801600
I1018 15:58:36.493365 23067 layer_factory.hpp:77] Creating layer conv3_mouth
I1018 15:58:36.493381 23067 net.cpp:91] Creating Layer conv3_mouth
I1018 15:58:36.493389 23067 net.cpp:425] conv3_mouth <- pool3_pool3_0_split_2
I1018 15:58:36.493399 23067 net.cpp:399] conv3_mouth -> conv3_mouth
I1018 15:58:36.509232 23067 net.cpp:141] Setting up conv3_mouth
I1018 15:58:36.509251 23067 net.cpp:148] Top shape: 100 512 7 7 (2508800)
I1018 15:58:36.509258 23067 net.cpp:156] Memory required for data: 3774836800
I1018 15:58:36.509280 23067 layer_factory.hpp:77] Creating layer conv3_mouth_bn
I1018 15:58:36.509291 23067 net.cpp:91] Creating Layer conv3_mouth_bn
I1018 15:58:36.509301 23067 net.cpp:425] conv3_mouth_bn <- conv3_mouth
I1018 15:58:36.509317 23067 net.cpp:386] conv3_mouth_bn -> conv3_mouth (in-place)
I1018 15:58:36.509511 23067 net.cpp:141] Setting up conv3_mouth_bn
I1018 15:58:36.509522 23067 net.cpp:148] Top shape: 100 512 7 7 (2508800)
I1018 15:58:36.509527 23067 net.cpp:156] Memory required for data: 3784872000
I1018 15:58:36.509537 23067 layer_factory.hpp:77] Creating layer conv3_mouth_scale
I1018 15:58:36.509546 23067 net.cpp:91] Creating Layer conv3_mouth_scale
I1018 15:58:36.509554 23067 net.cpp:425] conv3_mouth_scale <- conv3_mouth
I1018 15:58:36.509567 23067 net.cpp:386] conv3_mouth_scale -> conv3_mouth (in-place)
I1018 15:58:36.509611 23067 layer_factory.hpp:77] Creating layer conv3_mouth_scale
I1018 15:58:36.509738 23067 net.cpp:141] Setting up conv3_mouth_scale
I1018 15:58:36.509748 23067 net.cpp:148] Top shape: 100 512 7 7 (2508800)
I1018 15:58:36.509752 23067 net.cpp:156] Memory required for data: 3794907200
I1018 15:58:36.509759 23067 layer_factory.hpp:77] Creating layer prelu3_mouth
I1018 15:58:36.509768 23067 net.cpp:91] Creating Layer prelu3_mouth
I1018 15:58:36.509771 23067 net.cpp:425] prelu3_mouth <- conv3_mouth
I1018 15:58:36.509778 23067 net.cpp:386] prelu3_mouth -> conv3_mouth (in-place)
I1018 15:58:36.509902 23067 net.cpp:141] Setting up prelu3_mouth
I1018 15:58:36.509912 23067 net.cpp:148] Top shape: 100 512 7 7 (2508800)
I1018 15:58:36.509915 23067 net.cpp:156] Memory required for data: 3804942400
I1018 15:58:36.509922 23067 layer_factory.hpp:77] Creating layer pool3_mouth
I1018 15:58:36.509929 23067 net.cpp:91] Creating Layer pool3_mouth
I1018 15:58:36.509937 23067 net.cpp:425] pool3_mouth <- conv3_mouth
I1018 15:58:36.509943 23067 net.cpp:399] pool3_mouth -> pool3_mouth
I1018 15:58:36.509989 23067 net.cpp:141] Setting up pool3_mouth
I1018 15:58:36.509999 23067 net.cpp:148] Top shape: 100 512 4 4 (819200)
I1018 15:58:36.510004 23067 net.cpp:156] Memory required for data: 3808219200
I1018 15:58:36.510022 23067 layer_factory.hpp:77] Creating layer pool3_mouth_pool3_mouth_0_split
I1018 15:58:36.510030 23067 net.cpp:91] Creating Layer pool3_mouth_pool3_mouth_0_split
I1018 15:58:36.510035 23067 net.cpp:425] pool3_mouth_pool3_mouth_0_split <- pool3_mouth
I1018 15:58:36.510041 23067 net.cpp:399] pool3_mouth_pool3_mouth_0_split -> pool3_mouth_pool3_mouth_0_split_0
I1018 15:58:36.510056 23067 net.cpp:399] pool3_mouth_pool3_mouth_0_split -> pool3_mouth_pool3_mouth_0_split_1
I1018 15:58:36.510099 23067 net.cpp:141] Setting up pool3_mouth_pool3_mouth_0_split
I1018 15:58:36.510108 23067 net.cpp:148] Top shape: 100 512 4 4 (819200)
I1018 15:58:36.510114 23067 net.cpp:148] Top shape: 100 512 4 4 (819200)
I1018 15:58:36.510118 23067 net.cpp:156] Memory required for data: 3814772800
I1018 15:58:36.510123 23067 layer_factory.hpp:77] Creating layer fc1_mouth
I1018 15:58:36.510143 23067 net.cpp:91] Creating Layer fc1_mouth
I1018 15:58:36.510151 23067 net.cpp:425] fc1_mouth <- pool3_mouth_pool3_mouth_0_split_0
I1018 15:58:36.510160 23067 net.cpp:399] fc1_mouth -> fc1_mouth
I1018 15:58:36.585583 23067 net.cpp:141] Setting up fc1_mouth
I1018 15:58:36.585620 23067 net.cpp:148] Top shape: 100 1024 (102400)
I1018 15:58:36.585626 23067 net.cpp:156] Memory required for data: 3815182400
I1018 15:58:36.585639 23067 layer_factory.hpp:77] Creating layer relu1_mouth
I1018 15:58:36.585652 23067 net.cpp:91] Creating Layer relu1_mouth
I1018 15:58:36.585659 23067 net.cpp:425] relu1_mouth <- fc1_mouth
I1018 15:58:36.585680 23067 net.cpp:386] relu1_mouth -> fc1_mouth (in-place)
I1018 15:58:36.585696 23067 net.cpp:141] Setting up relu1_mouth
I1018 15:58:36.585703 23067 net.cpp:148] Top shape: 100 1024 (102400)
I1018 15:58:36.585707 23067 net.cpp:156] Memory required for data: 3815592000
I1018 15:58:36.585711 23067 layer_factory.hpp:77] Creating layer drop1_mouth
I1018 15:58:36.585721 23067 net.cpp:91] Creating Layer drop1_mouth
I1018 15:58:36.585724 23067 net.cpp:425] drop1_mouth <- fc1_mouth
I1018 15:58:36.585731 23067 net.cpp:386] drop1_mouth -> fc1_mouth (in-place)
I1018 15:58:36.585772 23067 net.cpp:141] Setting up drop1_mouth
I1018 15:58:36.585780 23067 net.cpp:148] Top shape: 100 1024 (102400)
I1018 15:58:36.585784 23067 net.cpp:156] Memory required for data: 3816001600
I1018 15:58:36.585788 23067 layer_factory.hpp:77] Creating layer fc2_mouth
I1018 15:58:36.585801 23067 net.cpp:91] Creating Layer fc2_mouth
I1018 15:58:36.585808 23067 net.cpp:425] fc2_mouth <- fc1_mouth
I1018 15:58:36.585816 23067 net.cpp:399] fc2_mouth -> fc2_mouth
I1018 15:58:36.595525 23067 net.cpp:141] Setting up fc2_mouth
I1018 15:58:36.595542 23067 net.cpp:148] Top shape: 100 1024 (102400)
I1018 15:58:36.595547 23067 net.cpp:156] Memory required for data: 3816411200
I1018 15:58:36.595556 23067 layer_factory.hpp:77] Creating layer relu2_mouth
I1018 15:58:36.595576 23067 net.cpp:91] Creating Layer relu2_mouth
I1018 15:58:36.595582 23067 net.cpp:425] relu2_mouth <- fc2_mouth
I1018 15:58:36.595599 23067 net.cpp:386] relu2_mouth -> fc2_mouth (in-place)
I1018 15:58:36.595609 23067 net.cpp:141] Setting up relu2_mouth
I1018 15:58:36.595614 23067 net.cpp:148] Top shape: 100 1024 (102400)
I1018 15:58:36.595618 23067 net.cpp:156] Memory required for data: 3816820800
I1018 15:58:36.595623 23067 layer_factory.hpp:77] Creating layer drop2_mouth
I1018 15:58:36.595629 23067 net.cpp:91] Creating Layer drop2_mouth
I1018 15:58:36.595634 23067 net.cpp:425] drop2_mouth <- fc2_mouth
I1018 15:58:36.595640 23067 net.cpp:386] drop2_mouth -> fc2_mouth (in-place)
I1018 15:58:36.595671 23067 net.cpp:141] Setting up drop2_mouth
I1018 15:58:36.595680 23067 net.cpp:148] Top shape: 100 1024 (102400)
I1018 15:58:36.595685 23067 net.cpp:156] Memory required for data: 3817230400
I1018 15:58:36.595688 23067 layer_factory.hpp:77] Creating layer fc2_mouth_drop2_mouth_0_split
I1018 15:58:36.595701 23067 net.cpp:91] Creating Layer fc2_mouth_drop2_mouth_0_split
I1018 15:58:36.595708 23067 net.cpp:425] fc2_mouth_drop2_mouth_0_split <- fc2_mouth
I1018 15:58:36.595716 23067 net.cpp:399] fc2_mouth_drop2_mouth_0_split -> fc2_mouth_drop2_mouth_0_split_0
I1018 15:58:36.595744 23067 net.cpp:399] fc2_mouth_drop2_mouth_0_split -> fc2_mouth_drop2_mouth_0_split_1
I1018 15:58:36.595757 23067 net.cpp:399] fc2_mouth_drop2_mouth_0_split -> fc2_mouth_drop2_mouth_0_split_2
I1018 15:58:36.595769 23067 net.cpp:399] fc2_mouth_drop2_mouth_0_split -> fc2_mouth_drop2_mouth_0_split_3
I1018 15:58:36.595779 23067 net.cpp:399] fc2_mouth_drop2_mouth_0_split -> fc2_mouth_drop2_mouth_0_split_4
I1018 15:58:36.595870 23067 net.cpp:141] Setting up fc2_mouth_drop2_mouth_0_split
I1018 15:58:36.595882 23067 net.cpp:148] Top shape: 100 1024 (102400)
I1018 15:58:36.595887 23067 net.cpp:148] Top shape: 100 1024 (102400)
I1018 15:58:36.595891 23067 net.cpp:148] Top shape: 100 1024 (102400)
I1018 15:58:36.595896 23067 net.cpp:148] Top shape: 100 1024 (102400)
I1018 15:58:36.595901 23067 net.cpp:148] Top shape: 100 1024 (102400)
I1018 15:58:36.595904 23067 net.cpp:156] Memory required for data: 3819278400
I1018 15:58:36.595908 23067 layer_factory.hpp:77] Creating layer conv3_eyes
I1018 15:58:36.595927 23067 net.cpp:91] Creating Layer conv3_eyes
I1018 15:58:36.595935 23067 net.cpp:425] conv3_eyes <- pool3_pool3_0_split_3
I1018 15:58:36.595944 23067 net.cpp:399] conv3_eyes -> conv3_eyes
I1018 15:58:36.611781 23067 net.cpp:141] Setting up conv3_eyes
I1018 15:58:36.611800 23067 net.cpp:148] Top shape: 100 512 7 7 (2508800)
I1018 15:58:36.611805 23067 net.cpp:156] Memory required for data: 3829313600
I1018 15:58:36.611816 23067 layer_factory.hpp:77] Creating layer conv3_eyes_bn
I1018 15:58:36.611826 23067 net.cpp:91] Creating Layer conv3_eyes_bn
I1018 15:58:36.611831 23067 net.cpp:425] conv3_eyes_bn <- conv3_eyes
I1018 15:58:36.611838 23067 net.cpp:386] conv3_eyes_bn -> conv3_eyes (in-place)
I1018 15:58:36.612048 23067 net.cpp:141] Setting up conv3_eyes_bn
I1018 15:58:36.612061 23067 net.cpp:148] Top shape: 100 512 7 7 (2508800)
I1018 15:58:36.612066 23067 net.cpp:156] Memory required for data: 3839348800
I1018 15:58:36.612076 23067 layer_factory.hpp:77] Creating layer conv3_eyes_scale
I1018 15:58:36.612084 23067 net.cpp:91] Creating Layer conv3_eyes_scale
I1018 15:58:36.612093 23067 net.cpp:425] conv3_eyes_scale <- conv3_eyes
I1018 15:58:36.612105 23067 net.cpp:386] conv3_eyes_scale -> conv3_eyes (in-place)
I1018 15:58:36.612151 23067 layer_factory.hpp:77] Creating layer conv3_eyes_scale
I1018 15:58:36.612280 23067 net.cpp:141] Setting up conv3_eyes_scale
I1018 15:58:36.612290 23067 net.cpp:148] Top shape: 100 512 7 7 (2508800)
I1018 15:58:36.612294 23067 net.cpp:156] Memory required for data: 3849384000
I1018 15:58:36.612301 23067 layer_factory.hpp:77] Creating layer prelu3_eyes
I1018 15:58:36.612309 23067 net.cpp:91] Creating Layer prelu3_eyes
I1018 15:58:36.612314 23067 net.cpp:425] prelu3_eyes <- conv3_eyes
I1018 15:58:36.612321 23067 net.cpp:386] prelu3_eyes -> conv3_eyes (in-place)
I1018 15:58:36.612447 23067 net.cpp:141] Setting up prelu3_eyes
I1018 15:58:36.612458 23067 net.cpp:148] Top shape: 100 512 7 7 (2508800)
I1018 15:58:36.612462 23067 net.cpp:156] Memory required for data: 3859419200
I1018 15:58:36.612468 23067 layer_factory.hpp:77] Creating layer pool3_eyes
I1018 15:58:36.612476 23067 net.cpp:91] Creating Layer pool3_eyes
I1018 15:58:36.612480 23067 net.cpp:425] pool3_eyes <- conv3_eyes
I1018 15:58:36.612488 23067 net.cpp:399] pool3_eyes -> pool3_eyes
I1018 15:58:36.612534 23067 net.cpp:141] Setting up pool3_eyes
I1018 15:58:36.612543 23067 net.cpp:148] Top shape: 100 512 4 4 (819200)
I1018 15:58:36.612550 23067 net.cpp:156] Memory required for data: 3862696000
I1018 15:58:36.612553 23067 layer_factory.hpp:77] Creating layer pool3_eyes_pool3_eyes_0_split
I1018 15:58:36.612561 23067 net.cpp:91] Creating Layer pool3_eyes_pool3_eyes_0_split
I1018 15:58:36.612565 23067 net.cpp:425] pool3_eyes_pool3_eyes_0_split <- pool3_eyes
I1018 15:58:36.612572 23067 net.cpp:399] pool3_eyes_pool3_eyes_0_split -> pool3_eyes_pool3_eyes_0_split_0
I1018 15:58:36.612581 23067 net.cpp:399] pool3_eyes_pool3_eyes_0_split -> pool3_eyes_pool3_eyes_0_split_1
I1018 15:58:36.612622 23067 net.cpp:141] Setting up pool3_eyes_pool3_eyes_0_split
I1018 15:58:36.612648 23067 net.cpp:148] Top shape: 100 512 4 4 (819200)
I1018 15:58:36.612656 23067 net.cpp:148] Top shape: 100 512 4 4 (819200)
I1018 15:58:36.612660 23067 net.cpp:156] Memory required for data: 3869249600
I1018 15:58:36.612664 23067 layer_factory.hpp:77] Creating layer fc1_eyes
I1018 15:58:36.612674 23067 net.cpp:91] Creating Layer fc1_eyes
I1018 15:58:36.612680 23067 net.cpp:425] fc1_eyes <- pool3_eyes_pool3_eyes_0_split_0
I1018 15:58:36.612689 23067 net.cpp:399] fc1_eyes -> fc1_eyes
I1018 15:58:36.687988 23067 net.cpp:141] Setting up fc1_eyes
I1018 15:58:36.688038 23067 net.cpp:148] Top shape: 100 1024 (102400)
I1018 15:58:36.688045 23067 net.cpp:156] Memory required for data: 3869659200
I1018 15:58:36.688066 23067 layer_factory.hpp:77] Creating layer relu1_eyes
I1018 15:58:36.688082 23067 net.cpp:91] Creating Layer relu1_eyes
I1018 15:58:36.688097 23067 net.cpp:425] relu1_eyes <- fc1_eyes
I1018 15:58:36.688112 23067 net.cpp:386] relu1_eyes -> fc1_eyes (in-place)
I1018 15:58:36.688124 23067 net.cpp:141] Setting up relu1_eyes
I1018 15:58:36.688158 23067 net.cpp:148] Top shape: 100 1024 (102400)
I1018 15:58:36.688163 23067 net.cpp:156] Memory required for data: 3870068800
I1018 15:58:36.688166 23067 layer_factory.hpp:77] Creating layer drop1_eyes
I1018 15:58:36.688180 23067 net.cpp:91] Creating Layer drop1_eyes
I1018 15:58:36.688187 23067 net.cpp:425] drop1_eyes <- fc1_eyes
I1018 15:58:36.688194 23067 net.cpp:386] drop1_eyes -> fc1_eyes (in-place)
I1018 15:58:36.688241 23067 net.cpp:141] Setting up drop1_eyes
I1018 15:58:36.688249 23067 net.cpp:148] Top shape: 100 1024 (102400)
I1018 15:58:36.688254 23067 net.cpp:156] Memory required for data: 3870478400
I1018 15:58:36.688258 23067 layer_factory.hpp:77] Creating layer fc2_eyes
I1018 15:58:36.688268 23067 net.cpp:91] Creating Layer fc2_eyes
I1018 15:58:36.688272 23067 net.cpp:425] fc2_eyes <- fc1_eyes
I1018 15:58:36.688282 23067 net.cpp:399] fc2_eyes -> fc2_eyes
I1018 15:58:36.697629 23067 net.cpp:141] Setting up fc2_eyes
I1018 15:58:36.697646 23067 net.cpp:148] Top shape: 100 1024 (102400)
I1018 15:58:36.697651 23067 net.cpp:156] Memory required for data: 3870888000
I1018 15:58:36.697659 23067 layer_factory.hpp:77] Creating layer relu2_eyes
I1018 15:58:36.697667 23067 net.cpp:91] Creating Layer relu2_eyes
I1018 15:58:36.697672 23067 net.cpp:425] relu2_eyes <- fc2_eyes
I1018 15:58:36.697679 23067 net.cpp:386] relu2_eyes -> fc2_eyes (in-place)
I1018 15:58:36.697693 23067 net.cpp:141] Setting up relu2_eyes
I1018 15:58:36.697701 23067 net.cpp:148] Top shape: 100 1024 (102400)
I1018 15:58:36.697705 23067 net.cpp:156] Memory required for data: 3871297600
I1018 15:58:36.697710 23067 layer_factory.hpp:77] Creating layer drop2_eyes
I1018 15:58:36.697718 23067 net.cpp:91] Creating Layer drop2_eyes
I1018 15:58:36.697722 23067 net.cpp:425] drop2_eyes <- fc2_eyes
I1018 15:58:36.697728 23067 net.cpp:386] drop2_eyes -> fc2_eyes (in-place)
I1018 15:58:36.697756 23067 net.cpp:141] Setting up drop2_eyes
I1018 15:58:36.697763 23067 net.cpp:148] Top shape: 100 1024 (102400)
I1018 15:58:36.697767 23067 net.cpp:156] Memory required for data: 3871707200
I1018 15:58:36.697777 23067 layer_factory.hpp:77] Creating layer fc2_eyes_drop2_eyes_0_split
I1018 15:58:36.697788 23067 net.cpp:91] Creating Layer fc2_eyes_drop2_eyes_0_split
I1018 15:58:36.697794 23067 net.cpp:425] fc2_eyes_drop2_eyes_0_split <- fc2_eyes
I1018 15:58:36.697803 23067 net.cpp:399] fc2_eyes_drop2_eyes_0_split -> fc2_eyes_drop2_eyes_0_split_0
I1018 15:58:36.697811 23067 net.cpp:399] fc2_eyes_drop2_eyes_0_split -> fc2_eyes_drop2_eyes_0_split_1
I1018 15:58:36.697824 23067 net.cpp:399] fc2_eyes_drop2_eyes_0_split -> fc2_eyes_drop2_eyes_0_split_2
I1018 15:58:36.697834 23067 net.cpp:399] fc2_eyes_drop2_eyes_0_split -> fc2_eyes_drop2_eyes_0_split_3
I1018 15:58:36.697841 23067 net.cpp:399] fc2_eyes_drop2_eyes_0_split -> fc2_eyes_drop2_eyes_0_split_4
I1018 15:58:36.697854 23067 net.cpp:399] fc2_eyes_drop2_eyes_0_split -> fc2_eyes_drop2_eyes_0_split_5
I1018 15:58:36.697966 23067 net.cpp:141] Setting up fc2_eyes_drop2_eyes_0_split
I1018 15:58:36.697976 23067 net.cpp:148] Top shape: 100 1024 (102400)
I1018 15:58:36.697983 23067 net.cpp:148] Top shape: 100 1024 (102400)
I1018 15:58:36.697986 23067 net.cpp:148] Top shape: 100 1024 (102400)
I1018 15:58:36.697991 23067 net.cpp:148] Top shape: 100 1024 (102400)
I1018 15:58:36.697995 23067 net.cpp:148] Top shape: 100 1024 (102400)
I1018 15:58:36.697999 23067 net.cpp:148] Top shape: 100 1024 (102400)
I1018 15:58:36.698002 23067 net.cpp:156] Memory required for data: 3874164800
I1018 15:58:36.698006 23067 layer_factory.hpp:77] Creating layer conv3_face
I1018 15:58:36.698021 23067 net.cpp:91] Creating Layer conv3_face
I1018 15:58:36.698034 23067 net.cpp:425] conv3_face <- pool3_pool3_0_split_4
I1018 15:58:36.698057 23067 net.cpp:399] conv3_face -> conv3_face
I1018 15:58:36.713568 23067 net.cpp:141] Setting up conv3_face
I1018 15:58:36.713585 23067 net.cpp:148] Top shape: 100 512 7 7 (2508800)
I1018 15:58:36.713590 23067 net.cpp:156] Memory required for data: 3884200000
I1018 15:58:36.713598 23067 layer_factory.hpp:77] Creating layer conv3_face_bn
I1018 15:58:36.713616 23067 net.cpp:91] Creating Layer conv3_face_bn
I1018 15:58:36.713624 23067 net.cpp:425] conv3_face_bn <- conv3_face
I1018 15:58:36.713641 23067 net.cpp:386] conv3_face_bn -> conv3_face (in-place)
I1018 15:58:36.713845 23067 net.cpp:141] Setting up conv3_face_bn
I1018 15:58:36.713856 23067 net.cpp:148] Top shape: 100 512 7 7 (2508800)
I1018 15:58:36.713861 23067 net.cpp:156] Memory required for data: 3894235200
I1018 15:58:36.713872 23067 layer_factory.hpp:77] Creating layer conv3_face_scale
I1018 15:58:36.713886 23067 net.cpp:91] Creating Layer conv3_face_scale
I1018 15:58:36.713893 23067 net.cpp:425] conv3_face_scale <- conv3_face
I1018 15:58:36.713909 23067 net.cpp:386] conv3_face_scale -> conv3_face (in-place)
I1018 15:58:36.713951 23067 layer_factory.hpp:77] Creating layer conv3_face_scale
I1018 15:58:36.714081 23067 net.cpp:141] Setting up conv3_face_scale
I1018 15:58:36.714092 23067 net.cpp:148] Top shape: 100 512 7 7 (2508800)
I1018 15:58:36.714095 23067 net.cpp:156] Memory required for data: 3904270400
I1018 15:58:36.714102 23067 layer_factory.hpp:77] Creating layer prelu3_face
I1018 15:58:36.714112 23067 net.cpp:91] Creating Layer prelu3_face
I1018 15:58:36.714115 23067 net.cpp:425] prelu3_face <- conv3_face
I1018 15:58:36.714123 23067 net.cpp:386] prelu3_face -> conv3_face (in-place)
I1018 15:58:36.714256 23067 net.cpp:141] Setting up prelu3_face
I1018 15:58:36.714267 23067 net.cpp:148] Top shape: 100 512 7 7 (2508800)
I1018 15:58:36.714270 23067 net.cpp:156] Memory required for data: 3914305600
I1018 15:58:36.714275 23067 layer_factory.hpp:77] Creating layer pool3_face
I1018 15:58:36.714283 23067 net.cpp:91] Creating Layer pool3_face
I1018 15:58:36.714287 23067 net.cpp:425] pool3_face <- conv3_face
I1018 15:58:36.714296 23067 net.cpp:399] pool3_face -> pool3_face
I1018 15:58:36.714346 23067 net.cpp:141] Setting up pool3_face
I1018 15:58:36.714355 23067 net.cpp:148] Top shape: 100 512 4 4 (819200)
I1018 15:58:36.714359 23067 net.cpp:156] Memory required for data: 3917582400
I1018 15:58:36.714364 23067 layer_factory.hpp:77] Creating layer pool3_face_pool3_face_0_split
I1018 15:58:36.714375 23067 net.cpp:91] Creating Layer pool3_face_pool3_face_0_split
I1018 15:58:36.714382 23067 net.cpp:425] pool3_face_pool3_face_0_split <- pool3_face
I1018 15:58:36.714390 23067 net.cpp:399] pool3_face_pool3_face_0_split -> pool3_face_pool3_face_0_split_0
I1018 15:58:36.714398 23067 net.cpp:399] pool3_face_pool3_face_0_split -> pool3_face_pool3_face_0_split_1
I1018 15:58:36.714439 23067 net.cpp:141] Setting up pool3_face_pool3_face_0_split
I1018 15:58:36.714448 23067 net.cpp:148] Top shape: 100 512 4 4 (819200)
I1018 15:58:36.714453 23067 net.cpp:148] Top shape: 100 512 4 4 (819200)
I1018 15:58:36.714457 23067 net.cpp:156] Memory required for data: 3924136000
I1018 15:58:36.714462 23067 layer_factory.hpp:77] Creating layer fc1_face
I1018 15:58:36.714475 23067 net.cpp:91] Creating Layer fc1_face
I1018 15:58:36.714494 23067 net.cpp:425] fc1_face <- pool3_face_pool3_face_0_split_0
I1018 15:58:36.714505 23067 net.cpp:399] fc1_face -> fc1_face
I1018 15:58:36.787363 23067 net.cpp:141] Setting up fc1_face
I1018 15:58:36.787415 23067 net.cpp:148] Top shape: 100 1024 (102400)
I1018 15:58:36.787420 23067 net.cpp:156] Memory required for data: 3924545600
I1018 15:58:36.787432 23067 layer_factory.hpp:77] Creating layer relu1_face
I1018 15:58:36.787446 23067 net.cpp:91] Creating Layer relu1_face
I1018 15:58:36.787451 23067 net.cpp:425] relu1_face <- fc1_face
I1018 15:58:36.787461 23067 net.cpp:386] relu1_face -> fc1_face (in-place)
I1018 15:58:36.787472 23067 net.cpp:141] Setting up relu1_face
I1018 15:58:36.787477 23067 net.cpp:148] Top shape: 100 1024 (102400)
I1018 15:58:36.787480 23067 net.cpp:156] Memory required for data: 3924955200
I1018 15:58:36.787483 23067 layer_factory.hpp:77] Creating layer drop1_face
I1018 15:58:36.787493 23067 net.cpp:91] Creating Layer drop1_face
I1018 15:58:36.787497 23067 net.cpp:425] drop1_face <- fc1_face
I1018 15:58:36.787503 23067 net.cpp:386] drop1_face -> fc1_face (in-place)
I1018 15:58:36.787539 23067 net.cpp:141] Setting up drop1_face
I1018 15:58:36.787544 23067 net.cpp:148] Top shape: 100 1024 (102400)
I1018 15:58:36.787549 23067 net.cpp:156] Memory required for data: 3925364800
I1018 15:58:36.787552 23067 layer_factory.hpp:77] Creating layer fc2_face
I1018 15:58:36.787564 23067 net.cpp:91] Creating Layer fc2_face
I1018 15:58:36.787566 23067 net.cpp:425] fc2_face <- fc1_face
I1018 15:58:36.787575 23067 net.cpp:399] fc2_face -> fc2_face
I1018 15:58:36.796706 23067 net.cpp:141] Setting up fc2_face
I1018 15:58:36.796722 23067 net.cpp:148] Top shape: 100 1024 (102400)
I1018 15:58:36.796727 23067 net.cpp:156] Memory required for data: 3925774400
I1018 15:58:36.796736 23067 layer_factory.hpp:77] Creating layer relu2_face
I1018 15:58:36.796742 23067 net.cpp:91] Creating Layer relu2_face
I1018 15:58:36.796747 23067 net.cpp:425] relu2_face <- fc2_face
I1018 15:58:36.796754 23067 net.cpp:386] relu2_face -> fc2_face (in-place)
I1018 15:58:36.796761 23067 net.cpp:141] Setting up relu2_face
I1018 15:58:36.796774 23067 net.cpp:148] Top shape: 100 1024 (102400)
I1018 15:58:36.796778 23067 net.cpp:156] Memory required for data: 3926184000
I1018 15:58:36.796782 23067 layer_factory.hpp:77] Creating layer drop2_face
I1018 15:58:36.796788 23067 net.cpp:91] Creating Layer drop2_face
I1018 15:58:36.796792 23067 net.cpp:425] drop2_face <- fc2_face
I1018 15:58:36.796798 23067 net.cpp:386] drop2_face -> fc2_face (in-place)
I1018 15:58:36.796824 23067 net.cpp:141] Setting up drop2_face
I1018 15:58:36.796830 23067 net.cpp:148] Top shape: 100 1024 (102400)
I1018 15:58:36.796834 23067 net.cpp:156] Memory required for data: 3926593600
I1018 15:58:36.796838 23067 layer_factory.hpp:77] Creating layer fc2_face_drop2_face_0_split
I1018 15:58:36.796847 23067 net.cpp:91] Creating Layer fc2_face_drop2_face_0_split
I1018 15:58:36.796851 23067 net.cpp:425] fc2_face_drop2_face_0_split <- fc2_face
I1018 15:58:36.796859 23067 net.cpp:399] fc2_face_drop2_face_0_split -> fc2_face_drop2_face_0_split_0
I1018 15:58:36.796866 23067 net.cpp:399] fc2_face_drop2_face_0_split -> fc2_face_drop2_face_0_split_1
I1018 15:58:36.796875 23067 net.cpp:399] fc2_face_drop2_face_0_split -> fc2_face_drop2_face_0_split_2
I1018 15:58:36.796887 23067 net.cpp:399] fc2_face_drop2_face_0_split -> fc2_face_drop2_face_0_split_3
I1018 15:58:36.796895 23067 net.cpp:399] fc2_face_drop2_face_0_split -> fc2_face_drop2_face_0_split_4
I1018 15:58:36.796901 23067 net.cpp:399] fc2_face_drop2_face_0_split -> fc2_face_drop2_face_0_split_5
I1018 15:58:36.796907 23067 net.cpp:399] fc2_face_drop2_face_0_split -> fc2_face_drop2_face_0_split_6
I1018 15:58:36.797001 23067 net.cpp:141] Setting up fc2_face_drop2_face_0_split
I1018 15:58:36.797011 23067 net.cpp:148] Top shape: 100 1024 (102400)
I1018 15:58:36.797016 23067 net.cpp:148] Top shape: 100 1024 (102400)
I1018 15:58:36.797020 23067 net.cpp:148] Top shape: 100 1024 (102400)
I1018 15:58:36.797024 23067 net.cpp:148] Top shape: 100 1024 (102400)
I1018 15:58:36.797052 23067 net.cpp:148] Top shape: 100 1024 (102400)
I1018 15:58:36.797056 23067 net.cpp:148] Top shape: 100 1024 (102400)
I1018 15:58:36.797061 23067 net.cpp:148] Top shape: 100 1024 (102400)
I1018 15:58:36.797065 23067 net.cpp:156] Memory required for data: 3929460800
I1018 15:58:36.797067 23067 layer_factory.hpp:77] Creating layer conv3_rest
I1018 15:58:36.797082 23067 net.cpp:91] Creating Layer conv3_rest
I1018 15:58:36.797088 23067 net.cpp:425] conv3_rest <- pool3_pool3_0_split_5
I1018 15:58:36.797101 23067 net.cpp:399] conv3_rest -> conv3_rest
I1018 15:58:36.812098 23067 net.cpp:141] Setting up conv3_rest
I1018 15:58:36.812116 23067 net.cpp:148] Top shape: 100 512 7 7 (2508800)
I1018 15:58:36.812121 23067 net.cpp:156] Memory required for data: 3939496000
I1018 15:58:36.812140 23067 layer_factory.hpp:77] Creating layer conv3_rest_bn
I1018 15:58:36.812151 23067 net.cpp:91] Creating Layer conv3_rest_bn
I1018 15:58:36.812156 23067 net.cpp:425] conv3_rest_bn <- conv3_rest
I1018 15:58:36.812163 23067 net.cpp:386] conv3_rest_bn -> conv3_rest (in-place)
I1018 15:58:36.812352 23067 net.cpp:141] Setting up conv3_rest_bn
I1018 15:58:36.812363 23067 net.cpp:148] Top shape: 100 512 7 7 (2508800)
I1018 15:58:36.812367 23067 net.cpp:156] Memory required for data: 3949531200
I1018 15:58:36.812377 23067 layer_factory.hpp:77] Creating layer conv3_rest_scale
I1018 15:58:36.812391 23067 net.cpp:91] Creating Layer conv3_rest_scale
I1018 15:58:36.812394 23067 net.cpp:425] conv3_rest_scale <- conv3_rest
I1018 15:58:36.812402 23067 net.cpp:386] conv3_rest_scale -> conv3_rest (in-place)
I1018 15:58:36.812443 23067 layer_factory.hpp:77] Creating layer conv3_rest_scale
I1018 15:58:36.812571 23067 net.cpp:141] Setting up conv3_rest_scale
I1018 15:58:36.812582 23067 net.cpp:148] Top shape: 100 512 7 7 (2508800)
I1018 15:58:36.812585 23067 net.cpp:156] Memory required for data: 3959566400
I1018 15:58:36.812592 23067 layer_factory.hpp:77] Creating layer prelu3_rest
I1018 15:58:36.812599 23067 net.cpp:91] Creating Layer prelu3_rest
I1018 15:58:36.812603 23067 net.cpp:425] prelu3_rest <- conv3_rest
I1018 15:58:36.812608 23067 net.cpp:386] prelu3_rest -> conv3_rest (in-place)
I1018 15:58:36.812727 23067 net.cpp:141] Setting up prelu3_rest
I1018 15:58:36.812738 23067 net.cpp:148] Top shape: 100 512 7 7 (2508800)
I1018 15:58:36.812742 23067 net.cpp:156] Memory required for data: 3969601600
I1018 15:58:36.812747 23067 layer_factory.hpp:77] Creating layer pool3_rest
I1018 15:58:36.812755 23067 net.cpp:91] Creating Layer pool3_rest
I1018 15:58:36.812760 23067 net.cpp:425] pool3_rest <- conv3_rest
I1018 15:58:36.812767 23067 net.cpp:399] pool3_rest -> pool3_rest
I1018 15:58:36.812808 23067 net.cpp:141] Setting up pool3_rest
I1018 15:58:36.812819 23067 net.cpp:148] Top shape: 100 512 4 4 (819200)
I1018 15:58:36.812822 23067 net.cpp:156] Memory required for data: 3972878400
I1018 15:58:36.812826 23067 layer_factory.hpp:77] Creating layer pool3_rest_pool3_rest_0_split
I1018 15:58:36.812834 23067 net.cpp:91] Creating Layer pool3_rest_pool3_rest_0_split
I1018 15:58:36.812837 23067 net.cpp:425] pool3_rest_pool3_rest_0_split <- pool3_rest
I1018 15:58:36.812842 23067 net.cpp:399] pool3_rest_pool3_rest_0_split -> pool3_rest_pool3_rest_0_split_0
I1018 15:58:36.812855 23067 net.cpp:399] pool3_rest_pool3_rest_0_split -> pool3_rest_pool3_rest_0_split_1
I1018 15:58:36.812863 23067 net.cpp:399] pool3_rest_pool3_rest_0_split -> pool3_rest_pool3_rest_0_split_2
I1018 15:58:36.812870 23067 net.cpp:399] pool3_rest_pool3_rest_0_split -> pool3_rest_pool3_rest_0_split_3
I1018 15:58:36.812876 23067 net.cpp:399] pool3_rest_pool3_rest_0_split -> pool3_rest_pool3_rest_0_split_4
I1018 15:58:36.812949 23067 net.cpp:141] Setting up pool3_rest_pool3_rest_0_split
I1018 15:58:36.812958 23067 net.cpp:148] Top shape: 100 512 4 4 (819200)
I1018 15:58:36.812963 23067 net.cpp:148] Top shape: 100 512 4 4 (819200)
I1018 15:58:36.812968 23067 net.cpp:148] Top shape: 100 512 4 4 (819200)
I1018 15:58:36.812973 23067 net.cpp:148] Top shape: 100 512 4 4 (819200)
I1018 15:58:36.812988 23067 net.cpp:148] Top shape: 100 512 4 4 (819200)
I1018 15:58:36.812993 23067 net.cpp:156] Memory required for data: 3989262400
I1018 15:58:36.812996 23067 layer_factory.hpp:77] Creating layer fc1_aroundhead
I1018 15:58:36.813009 23067 net.cpp:91] Creating Layer fc1_aroundhead
I1018 15:58:36.813014 23067 net.cpp:425] fc1_aroundhead <- pool3_rest_pool3_rest_0_split_0
I1018 15:58:36.813021 23067 net.cpp:399] fc1_aroundhead -> fc1_aroundhead
I1018 15:58:36.884495 23067 net.cpp:141] Setting up fc1_aroundhead
I1018 15:58:36.884542 23067 net.cpp:148] Top shape: 100 1024 (102400)
I1018 15:58:36.884548 23067 net.cpp:156] Memory required for data: 3989672000
I1018 15:58:36.884560 23067 layer_factory.hpp:77] Creating layer relu1_aroundhead
I1018 15:58:36.884574 23067 net.cpp:91] Creating Layer relu1_aroundhead
I1018 15:58:36.884582 23067 net.cpp:425] relu1_aroundhead <- fc1_aroundhead
I1018 15:58:36.884590 23067 net.cpp:386] relu1_aroundhead -> fc1_aroundhead (in-place)
I1018 15:58:36.884601 23067 net.cpp:141] Setting up relu1_aroundhead
I1018 15:58:36.884606 23067 net.cpp:148] Top shape: 100 1024 (102400)
I1018 15:58:36.884610 23067 net.cpp:156] Memory required for data: 3990081600
I1018 15:58:36.884613 23067 layer_factory.hpp:77] Creating layer drop1_aroundhead
I1018 15:58:36.884623 23067 net.cpp:91] Creating Layer drop1_aroundhead
I1018 15:58:36.884626 23067 net.cpp:425] drop1_aroundhead <- fc1_aroundhead
I1018 15:58:36.884631 23067 net.cpp:386] drop1_aroundhead -> fc1_aroundhead (in-place)
I1018 15:58:36.884672 23067 net.cpp:141] Setting up drop1_aroundhead
I1018 15:58:36.884686 23067 net.cpp:148] Top shape: 100 1024 (102400)
I1018 15:58:36.884690 23067 net.cpp:156] Memory required for data: 3990491200
I1018 15:58:36.884696 23067 layer_factory.hpp:77] Creating layer fc2_aroundhead
I1018 15:58:36.884714 23067 net.cpp:91] Creating Layer fc2_aroundhead
I1018 15:58:36.884719 23067 net.cpp:425] fc2_aroundhead <- fc1_aroundhead
I1018 15:58:36.884727 23067 net.cpp:399] fc2_aroundhead -> fc2_aroundhead
I1018 15:58:36.893908 23067 net.cpp:141] Setting up fc2_aroundhead
I1018 15:58:36.893925 23067 net.cpp:148] Top shape: 100 1024 (102400)
I1018 15:58:36.893929 23067 net.cpp:156] Memory required for data: 3990900800
I1018 15:58:36.893936 23067 layer_factory.hpp:77] Creating layer relu2_aroundhead
I1018 15:58:36.893944 23067 net.cpp:91] Creating Layer relu2_aroundhead
I1018 15:58:36.893949 23067 net.cpp:425] relu2_aroundhead <- fc2_aroundhead
I1018 15:58:36.893955 23067 net.cpp:386] relu2_aroundhead -> fc2_aroundhead (in-place)
I1018 15:58:36.893962 23067 net.cpp:141] Setting up relu2_aroundhead
I1018 15:58:36.893975 23067 net.cpp:148] Top shape: 100 1024 (102400)
I1018 15:58:36.893980 23067 net.cpp:156] Memory required for data: 3991310400
I1018 15:58:36.893982 23067 layer_factory.hpp:77] Creating layer drop2_aroundhead
I1018 15:58:36.893990 23067 net.cpp:91] Creating Layer drop2_aroundhead
I1018 15:58:36.893995 23067 net.cpp:425] drop2_aroundhead <- fc2_aroundhead
I1018 15:58:36.894001 23067 net.cpp:386] drop2_aroundhead -> fc2_aroundhead (in-place)
I1018 15:58:36.894027 23067 net.cpp:141] Setting up drop2_aroundhead
I1018 15:58:36.894033 23067 net.cpp:148] Top shape: 100 1024 (102400)
I1018 15:58:36.894037 23067 net.cpp:156] Memory required for data: 3991720000
I1018 15:58:36.894040 23067 layer_factory.hpp:77] Creating layer fc2_aroundhead_drop2_aroundhead_0_split
I1018 15:58:36.894050 23067 net.cpp:91] Creating Layer fc2_aroundhead_drop2_aroundhead_0_split
I1018 15:58:36.894053 23067 net.cpp:425] fc2_aroundhead_drop2_aroundhead_0_split <- fc2_aroundhead
I1018 15:58:36.894068 23067 net.cpp:399] fc2_aroundhead_drop2_aroundhead_0_split -> fc2_aroundhead_drop2_aroundhead_0_split_0
…
I1018 15:58:36.894208 23067 net.cpp:399] fc2_aroundhead_drop2_aroundhead_0_split -> fc2_aroundhead_drop2_aroundhead_0_split_10
I1018 15:58:36.894215 23067 net.cpp:399] fc2_aroundhead_drop2_aroundhead_0_split -> fc2_aroundhead_drop2_aroundhead_0_split_11
I1018 15:58:36.894222 23067 net.cpp:399] fc2_aroundhead_drop2_aroundhead_0_split -> fc2_aroundhead_drop2_aroundhead_0_split_12
I1018 15:58:36.894228 23067 net.cpp:399] fc2_aroundhead_drop2_aroundhead_0_split -> fc2_aroundhead_drop2_aroundhead_0_split_13
I1018 15:58:36.894402 23067 net.cpp:141] Setting up fc2_aroundhead_drop2_aroundhead_0_split
I1018 15:58:36.894412 23067 net.cpp:148] Top shape: 100 1024 (102400)
I1018 15:58:36.894417 23067 net.cpp:148] Top shape: 100 1024 (102400)
I1018 15:58:36.894421 23067 net.cpp:148] Top shape: 100 1024 (102400)
I1018 15:58:36.894425 23067 net.cpp:148] Top shape: 100 1024 (102400)
I1018 15:58:36.894429 23067 net.cpp:148] Top shape: 100 1024 (102400)
I1018 15:58:36.894433 23067 net.cpp:148] Top shape: 100 1024 (102400)
I1018 15:58:36.894439 23067 net.cpp:148] Top shape: 100 1024 (102400)
I1018 15:58:36.894443 23067 net.cpp:148] Top shape: 100 1024 (102400)
I1018 15:58:36.894448 23067 net.cpp:148] Top shape: 100 1024 (102400)
I1018 15:58:36.894453 23067 net.cpp:148] Top shape: 100 1024 (102400)
I1018 15:58:36.894456 23067 net.cpp:148] Top shape: 100 1024 (102400)
I1018 15:58:36.894460 23067 net.cpp:148] Top shape: 100 1024 (102400)
I1018 15:58:36.894464 23067 net.cpp:148] Top shape: 100 1024 (102400)
I1018 15:58:36.894469 23067 net.cpp:148] Top shape: 100 1024 (102400)
I1018 15:58:36.894471 23067 net.cpp:156] Memory required for data: 3997454400
I1018 15:58:36.894476 23067 layer_factory.hpp:77] Creating layer fc1_facialhair
I1018 15:58:36.894484 23067 net.cpp:91] Creating Layer fc1_facialhair
I1018 15:58:36.894490 23067 net.cpp:425] fc1_facialhair <- pool3_rest_pool3_rest_0_split_1
I1018 15:58:36.894503 23067 net.cpp:399] fc1_facialhair -> fc1_facialhair
I1018 15:58:36.966923 23067 net.cpp:141] Setting up fc1_facialhair
I1018 15:58:36.966962 23067 net.cpp:148] Top shape: 100 1024 (102400)
I1018 15:58:36.966969 23067 net.cpp:156] Memory required for data: 3997864000
I1018 15:58:36.966980 23067 layer_factory.hpp:77] Creating layer relu1_facialhair
I1018 15:58:36.966992 23067 net.cpp:91] Creating Layer relu1_facialhair
I1018 15:58:36.967000 23067 net.cpp:425] relu1_facialhair <- fc1_facialhair
I1018 15:58:36.967010 23067 net.cpp:386] relu1_facialhair -> fc1_facialhair (in-place)
I1018 15:58:36.967021 23067 net.cpp:141] Setting up relu1_facialhair
I1018 15:58:36.967026 23067 net.cpp:148] Top shape: 100 1024 (102400)
I1018 15:58:36.967030 23067 net.cpp:156] Memory required for data: 3998273600
I1018 15:58:36.967033 23067 layer_factory.hpp:77] Creating layer drop1_facialhair
I1018 15:58:36.967044 23067 net.cpp:91] Creating Layer drop1_facialhair
I1018 15:58:36.967047 23067 net.cpp:425] drop1_facialhair <- fc1_facialhair
I1018 15:58:36.967053 23067 net.cpp:386] drop1_facialhair -> fc1_facialhair (in-place)
I1018 15:58:36.967097 23067 net.cpp:141] Setting up drop1_facialhair
I1018 15:58:36.967110 23067 net.cpp:148] Top shape: 100 1024 (102400)
I1018 15:58:36.967115 23067 net.cpp:156] Memory required for data: 3998683200
I1018 15:58:36.967118 23067 layer_factory.hpp:77] Creating layer fc2_facialhair
I1018 15:58:36.967160 23067 net.cpp:91] Creating Layer fc2_facialhair
I1018 15:58:36.967181 23067 net.cpp:425] fc2_facialhair <- fc1_facialhair
I1018 15:58:36.967191 23067 net.cpp:399] fc2_facialhair -> fc2_facialhair
I1018 15:58:36.976524 23067 net.cpp:141] Setting up fc2_facialhair
I1018 15:58:36.976541 23067 net.cpp:148] Top shape: 100 1024 (102400)
I1018 15:58:36.976547 23067 net.cpp:156] Memory required for data: 3999092800
I1018 15:58:36.976554 23067 layer_factory.hpp:77] Creating layer relu2_facialhair
I1018 15:58:36.976562 23067 net.cpp:91] Creating Layer relu2_facialhair
I1018 15:58:36.976567 23067 net.cpp:425] relu2_facialhair <- fc2_facialhair
I1018 15:58:36.976573 23067 net.cpp:386] relu2_facialhair -> fc2_facialhair (in-place)
I1018 15:58:36.976580 23067 net.cpp:141] Setting up relu2_facialhair
I1018 15:58:36.976593 23067 net.cpp:148] Top shape: 100 1024 (102400)
I1018 15:58:36.976598 23067 net.cpp:156] Memory required for data: 3999502400
I1018 15:58:36.976600 23067 layer_factory.hpp:77] Creating layer drop2_facialhair
I1018 15:58:36.976608 23067 net.cpp:91] Creating Layer drop2_facialhair
I1018 15:58:36.976613 23067 net.cpp:425] drop2_facialhair <- fc2_facialhair
I1018 15:58:36.976619 23067 net.cpp:386] drop2_facialhair -> fc2_facialhair (in-place)
I1018 15:58:36.976645 23067 net.cpp:141] Setting up drop2_facialhair
I1018 15:58:36.976656 23067 net.cpp:148] Top shape: 100 1024 (102400)
I1018 15:58:36.976660 23067 net.cpp:156] Memory required for data: 3999912000
I1018 15:58:36.976663 23067 layer_factory.hpp:77] Creating layer fc2_facialhair_drop2_facialhair_0_split
I1018 15:58:36.976671 23067 net.cpp:91] Creating Layer fc2_facialhair_drop2_facialhair_0_split
I1018 15:58:36.976675 23067 net.cpp:425] fc2_facialhair_drop2_facialhair_0_split <- fc2_facialhair
I1018 15:58:36.976681 23067 net.cpp:399] fc2_facialhair_drop2_facialhair_0_split -> fc2_facialhair_drop2_facialhair_0_split_0
I1018 15:58:36.976691 23067 net.cpp:399] fc2_facialhair_drop2_facialhair_0_split -> fc2_facialhair_drop2_facialhair_0_split_1
I1018 15:58:36.976701 23067 net.cpp:399] fc2_facialhair_drop2_facialhair_0_split -> fc2_facialhair_drop2_facialhair_0_split_2
I1018 15:58:36.976707 23067 net.cpp:399] fc2_facialhair_drop2_facialhair_0_split -> fc2_facialhair_drop2_facialhair_0_split_3
I1018 15:58:36.976713 23067 net.cpp:399] fc2_facialhair_drop2_facialhair_0_split -> fc2_facialhair_drop2_facialhair_0_split_4
I1018 15:58:36.976719 23067 net.cpp:399] fc2_facialhair_drop2_facialhair_0_split -> fc2_facialhair_drop2_facialhair_0_split_5
I1018 15:58:36.976800 23067 net.cpp:141] Setting up fc2_facialhair_drop2_facialhair_0_split
I1018 15:58:36.976814 23067 net.cpp:148] Top shape: 100 1024 (102400)
I1018 15:58:36.976819 23067 net.cpp:148] Top shape: 100 1024 (102400)
I1018 15:58:36.976824 23067 net.cpp:148] Top shape: 100 1024 (102400)
I1018 15:58:36.976827 23067 net.cpp:148] Top shape: 100 1024 (102400)
I1018 15:58:36.976831 23067 net.cpp:148] Top shape: 100 1024 (102400)
I1018 15:58:36.976835 23067 net.cpp:148] Top shape: 100 1024 (102400)
I1018 15:58:36.976838 23067 net.cpp:156] Memory required for data: 4002369600
I1018 15:58:36.976841 23067 layer_factory.hpp:77] Creating layer fc1_cheeks
I1018 15:58:36.976850 23067 net.cpp:91] Creating Layer fc1_cheeks
I1018 15:58:36.976856 23067 net.cpp:425] fc1_cheeks <- pool3_rest_pool3_rest_0_split_2
I1018 15:58:36.976864 23067 net.cpp:399] fc1_cheeks -> fc1_cheeks
I1018 15:58:37.049546 23067 net.cpp:141] Setting up fc1_cheeks
I1018 15:58:37.049613 23067 net.cpp:148] Top shape: 100 1024 (102400)
I1018 15:58:37.049619 23067 net.cpp:156] Memory required for data: 4002779200
I1018 15:58:37.049633 23067 layer_factory.hpp:77] Creating layer relu1_cheeks
I1018 15:58:37.049648 23067 net.cpp:91] Creating Layer relu1_cheeks
I1018 15:58:37.049656 23067 net.cpp:425] relu1_cheeks <- fc1_cheeks
I1018 15:58:37.049664 23067 net.cpp:386] relu1_cheeks -> fc1_cheeks (in-place)
I1018 15:58:37.049676 23067 net.cpp:141] Setting up relu1_cheeks
I1018 15:58:37.049681 23067 net.cpp:148] Top shape: 100 1024 (102400)
I1018 15:58:37.049724 23067 net.cpp:156] Memory required for data: 4003188800
I1018 15:58:37.049731 23067 layer_factory.hpp:77] Creating layer drop1_cheeks
I1018 15:58:37.049742 23067 net.cpp:91] Creating Layer drop1_cheeks
I1018 15:58:37.049747 23067 net.cpp:425] drop1_cheeks <- fc1_cheeks
I1018 15:58:37.049753 23067 net.cpp:386] drop1_cheeks -> fc1_cheeks (in-place)
I1018 15:58:37.049787 23067 net.cpp:141] Setting up drop1_cheeks
I1018 15:58:37.049799 23067 net.cpp:148] Top shape: 100 1024 (102400)
I1018 15:58:37.049803 23067 net.cpp:156] Memory required for data: 4003598400
I1018 15:58:37.049813 23067 layer_factory.hpp:77] Creating layer fc2_cheeks
I1018 15:58:37.049823 23067 net.cpp:91] Creating Layer fc2_cheeks
I1018 15:58:37.049827 23067 net.cpp:425] fc2_cheeks <- fc1_cheeks
I1018 15:58:37.049837 23067 net.cpp:399] fc2_cheeks -> fc2_cheeks
I1018 15:58:37.063367 23067 net.cpp:141] Setting up fc2_cheeks
I1018 15:58:37.063388 23067 net.cpp:148] Top shape: 100 1024 (102400)
I1018 15:58:37.063393 23067 net.cpp:156] Memory required for data: 4004008000
I1018 15:58:37.063401 23067 layer_factory.hpp:77] Creating layer relu2_cheeks
I1018 15:58:37.063410 23067 net.cpp:91] Creating Layer relu2_cheeks
I1018 15:58:37.063415 23067 net.cpp:425] relu2_cheeks <- fc2_cheeks
I1018 15:58:37.063421 23067 net.cpp:386] relu2_cheeks -> fc2_cheeks (in-place)
I1018 15:58:37.063439 23067 net.cpp:141] Setting up relu2_cheeks
I1018 15:58:37.063446 23067 net.cpp:148] Top shape: 100 1024 (102400)
I1018 15:58:37.063449 23067 net.cpp:156] Memory required for data: 4004417600
I1018 15:58:37.063454 23067 layer_factory.hpp:77] Creating layer drop2_cheeks
I1018 15:58:37.063462 23067 net.cpp:91] Creating Layer drop2_cheeks
I1018 15:58:37.063467 23067 net.cpp:425] drop2_cheeks <- fc2_cheeks
I1018 15:58:37.063472 23067 net.cpp:386] drop2_cheeks -> fc2_cheeks (in-place)
I1018 15:58:37.063500 23067 net.cpp:141] Setting up drop2_cheeks
I1018 15:58:37.063508 23067 net.cpp:148] Top shape: 100 1024 (102400)
I1018 15:58:37.063513 23067 net.cpp:156] Memory required for data: 4004827200
I1018 15:58:37.063516 23067 layer_factory.hpp:77] Creating layer fc2_cheeks_drop2_cheeks_0_split
I1018 15:58:37.063524 23067 net.cpp:91] Creating Layer fc2_cheeks_drop2_cheeks_0_split
I1018 15:58:37.063534 23067 net.cpp:425] fc2_cheeks_drop2_cheeks_0_split <- fc2_cheeks
I1018 15:58:37.063541 23067 net.cpp:399] fc2_cheeks_drop2_cheeks_0_split -> fc2_cheeks_drop2_cheeks_0_split_0
I1018 15:58:37.063549 23067 net.cpp:399] fc2_cheeks_drop2_cheeks_0_split -> fc2_cheeks_drop2_cheeks_0_split_1
I1018 15:58:37.063556 23067 net.cpp:399] fc2_cheeks_drop2_cheeks_0_split -> fc2_cheeks_drop2_cheeks_0_split_2
I1018 15:58:37.063611 23067 net.cpp:141] Setting up fc2_cheeks_drop2_cheeks_0_split
I1018 15:58:37.063621 23067 net.cpp:148] Top shape: 100 1024 (102400)
I1018 15:58:37.063626 23067 net.cpp:148] Top shape: 100 1024 (102400)
I1018 15:58:37.063635 23067 net.cpp:148] Top shape: 100 1024 (102400)
I1018 15:58:37.063639 23067 net.cpp:156] Memory required for data: 4006056000
I1018 15:58:37.063642 23067 layer_factory.hpp:77] Creating layer fc1_fat
I1018 15:58:37.063652 23067 net.cpp:91] Creating Layer fc1_fat
I1018 15:58:37.063657 23067 net.cpp:425] fc1_fat <- pool3_rest_pool3_rest_0_split_3
I1018 15:58:37.063665 23067 net.cpp:399] fc1_fat -> fc1_fat
I1018 15:58:37.134420 23067 net.cpp:141] Setting up fc1_fat
I1018 15:58:37.134471 23067 net.cpp:148] Top shape: 100 1024 (102400)
I1018 15:58:37.134476 23067 net.cpp:156] Memory required for data: 4006465600
I1018 15:58:37.134490 23067 layer_factory.hpp:77] Creating layer relu1_fat
I1018 15:58:37.134502 23067 net.cpp:91] Creating Layer relu1_fat
I1018 15:58:37.134510 23067 net.cpp:425] relu1_fat <- fc1_fat
I1018 15:58:37.134519 23067 net.cpp:386] relu1_fat -> fc1_fat (in-place)
I1018 15:58:37.134531 23067 net.cpp:141] Setting up relu1_fat
I1018 15:58:37.134536 23067 net.cpp:148] Top shape: 100 1024 (102400)
I1018 15:58:37.134539 23067 net.cpp:156] Memory required for data: 4006875200
I1018 15:58:37.134543 23067 layer_factory.hpp:77] Creating layer drop1_fat
I1018 15:58:37.134601 23067 net.cpp:91] Creating Layer drop1_fat
I1018 15:58:37.134608 23067 net.cpp:425] drop1_fat <- fc1_fat
I1018 15:58:37.134614 23067 net.cpp:386] drop1_fat -> fc1_fat (in-place)
I1018 15:58:37.134649 23067 net.cpp:141] Setting up drop1_fat
I1018 15:58:37.134663 23067 net.cpp:148] Top shape: 100 1024 (102400)
I1018 15:58:37.134667 23067 net.cpp:156] Memory required for data: 4007284800
I1018 15:58:37.134671 23067 layer_factory.hpp:77] Creating layer fc2_fat
I1018 15:58:37.134685 23067 net.cpp:91] Creating Layer fc2_fat
I1018 15:58:37.134690 23067 net.cpp:425] fc2_fat <- fc1_fat
I1018 15:58:37.134701 23067 net.cpp:399] fc2_fat -> fc2_fat
I1018 15:58:37.143717 23067 net.cpp:141] Setting up fc2_fat
I1018 15:58:37.143733 23067 net.cpp:148] Top shape: 100 1024 (102400)
I1018 15:58:37.143738 23067 net.cpp:156] Memory required for data: 4007694400
I1018 15:58:37.143745 23067 layer_factory.hpp:77] Creating layer relu2_fat
I1018 15:58:37.143753 23067 net.cpp:91] Creating Layer relu2_fat
I1018 15:58:37.143757 23067 net.cpp:425] relu2_fat <- fc2_fat
I1018 15:58:37.143764 23067 net.cpp:386] relu2_fat -> fc2_fat (in-place)
I1018 15:58:37.143772 23067 net.cpp:141] Setting up relu2_fat
I1018 15:58:37.143785 23067 net.cpp:148] Top shape: 100 1024 (102400)
I1018 15:58:37.143788 23067 net.cpp:156] Memory required for data: 4008104000
I1018 15:58:37.143792 23067 layer_factory.hpp:77] Creating layer drop2_fat
I1018 15:58:37.143800 23067 net.cpp:91] Creating Layer drop2_fat
I1018 15:58:37.143803 23067 net.cpp:425] drop2_fat <- fc2_fat
I1018 15:58:37.143815 23067 net.cpp:386] drop2_fat -> fc2_fat (in-place)
I1018 15:58:37.143848 23067 net.cpp:141] Setting up drop2_fat
I1018 15:58:37.143857 23067 net.cpp:148] Top shape: 100 1024 (102400)
I1018 15:58:37.143860 23067 net.cpp:156] Memory required for data: 4008513600
I1018 15:58:37.143864 23067 layer_factory.hpp:77] Creating layer fc2_fat_drop2_fat_0_split
I1018 15:58:37.143873 23067 net.cpp:91] Creating Layer fc2_fat_drop2_fat_0_split
I1018 15:58:37.143877 23067 net.cpp:425] fc2_fat_drop2_fat_0_split <- fc2_fat
I1018 15:58:37.143887 23067 net.cpp:399] fc2_fat_drop2_fat_0_split -> fc2_fat_drop2_fat_0_split_0
I1018 15:58:37.143896 23067 net.cpp:399] fc2_fat_drop2_fat_0_split -> fc2_fat_drop2_fat_0_split_1
I1018 15:58:37.143905 23067 net.cpp:399] fc2_fat_drop2_fat_0_split -> fc2_fat_drop2_fat_0_split_2
I1018 15:58:37.143957 23067 net.cpp:141] Setting up fc2_fat_drop2_fat_0_split
I1018 15:58:37.143966 23067 net.cpp:148] Top shape: 100 1024 (102400)
I1018 15:58:37.143971 23067 net.cpp:148] Top shape: 100 1024 (102400)
I1018 15:58:37.143975 23067 net.cpp:148] Top shape: 100 1024 (102400)
I1018 15:58:37.143978 23067 net.cpp:156] Memory required for data: 4009742400
I1018 15:58:37.143983 23067 layer_factory.hpp:77] Creating layer fc3_Male
I1018 15:58:37.143991 23067 net.cpp:91] Creating Layer fc3_Male
I1018 15:58:37.144001 23067 net.cpp:425] fc3_Male <- fc2_gender_drop2_gender_0_split_0
I1018 15:58:37.144008 23067 net.cpp:399] fc3_Male -> fc3_Male
I1018 15:58:37.144155 23067 net.cpp:141] Setting up fc3_Male
I1018 15:58:37.144165 23067 net.cpp:148] Top shape: 100 2 (200)
I1018 15:58:37.144170 23067 net.cpp:156] Memory required for data: 4009743200
I1018 15:58:37.144177 23067 layer_factory.hpp:77] Creating layer loss_Male
I1018 15:58:37.144222 23067 net.cpp:91] Creating Layer loss_Male
I1018 15:58:37.144229 23067 net.cpp:425] loss_Male <- fc3_Male
I1018 15:58:37.144235 23067 net.cpp:425] loss_Male <- label_Male
I1018 15:58:37.144243 23067 net.cpp:399] loss_Male -> loss_Male
I1018 15:58:37.144294 23067 net.cpp:141] Setting up loss_Male
I1018 15:58:37.144304 23067 net.cpp:148] Top shape: (1)
I1018 15:58:37.144307 23067 net.cpp:151]     with loss weight 1
I1018 15:58:37.144351 23067 net.cpp:156] Memory required for data: 4009743204
I1018 15:58:37.144356 23067 layer_factory.hpp:77] Creating layer fc3_Big_Nose
I1018 15:58:37.144363 23067 net.cpp:91] Creating Layer fc3_Big_Nose
I1018 15:58:37.144368 23067 net.cpp:425] fc3_Big_Nose <- fc2_nose_drop2_nose_0_split_0
I1018 15:58:37.144390 23067 net.cpp:399] fc3_Big_Nose -> fc3_Big_Nose
I1018 15:58:37.144516 23067 net.cpp:141] Setting up fc3_Big_Nose
I1018 15:58:37.144528 23067 net.cpp:148] Top shape: 100 2 (200)
I1018 15:58:37.144532 23067 net.cpp:156] Memory required for data: 4009744004
I1018 15:58:37.144539 23067 layer_factory.hpp:77] Creating layer loss_Big_Nose
I1018 15:58:37.144549 23067 net.cpp:91] Creating Layer loss_Big_Nose
I1018 15:58:37.144554 23067 net.cpp:425] loss_Big_Nose <- fc3_Big_Nose
I1018 15:58:37.144561 23067 net.cpp:425] loss_Big_Nose <- label_Big_Nose
I1018 15:58:37.144567 23067 net.cpp:399] loss_Big_Nose -> loss_Big_Nose
I1018 15:58:37.144608 23067 net.cpp:141] Setting up loss_Big_Nose
I1018 15:58:37.144616 23067 net.cpp:148] Top shape: (1)
I1018 15:58:37.144625 23067 net.cpp:151]     with loss weight 1
I1018 15:58:37.144631 23067 net.cpp:156] Memory required for data: 4009744008
I1018 15:58:37.144635 23067 layer_factory.hpp:77] Creating layer fc3_Pointy_Nose
I1018 15:58:37.144642 23067 net.cpp:91] Creating Layer fc3_Pointy_Nose
I1018 15:58:37.144647 23067 net.cpp:425] fc3_Pointy_Nose <- fc2_nose_drop2_nose_0_split_1
I1018 15:58:37.144659 23067 net.cpp:399] fc3_Pointy_Nose -> fc3_Pointy_Nose
I1018 15:58:37.144779 23067 net.cpp:141] Setting up fc3_Pointy_Nose
I1018 15:58:37.144789 23067 net.cpp:148] Top shape: 100 2 (200)
I1018 15:58:37.144793 23067 net.cpp:156] Memory required for data: 4009744808
I1018 15:58:37.144837 23067 layer_factory.hpp:77] Creating layer loss_Pointy_Nose
I1018 15:58:37.144852 23067 net.cpp:91] Creating Layer loss_Pointy_Nose
I1018 15:58:37.144858 23067 net.cpp:425] loss_Pointy_Nose <- fc3_Pointy_Nose
I1018 15:58:37.144865 23067 net.cpp:425] loss_Pointy_Nose <- label_Pointy_Nose
I1018 15:58:37.144873 23067 net.cpp:399] loss_Pointy_Nose -> loss_Pointy_Nose
I1018 15:58:37.144919 23067 net.cpp:141] Setting up loss_Pointy_Nose
I1018 15:58:37.144929 23067 net.cpp:148] Top shape: (1)
I1018 15:58:37.144933 23067 net.cpp:151]     with loss weight 1
I1018 15:58:37.144938 23067 net.cpp:156] Memory required for data: 4009744812
I1018 15:58:37.144942 23067 layer_factory.hpp:77] Creating layer fc3_Big_Lips
I1018 15:58:37.144953 23067 net.cpp:91] Creating Layer fc3_Big_Lips
I1018 15:58:37.144958 23067 net.cpp:425] fc3_Big_Lips <- fc2_mouth_drop2_mouth_0_split_0
I1018 15:58:37.144964 23067 net.cpp:399] fc3_Big_Lips -> fc3_Big_Lips
I1018 15:58:37.145084 23067 net.cpp:141] Setting up fc3_Big_Lips
I1018 15:58:37.145093 23067 net.cpp:148] Top shape: 100 2 (200)
I1018 15:58:37.145097 23067 net.cpp:156] Memory required for data: 4009745612
I1018 15:58:37.145103 23067 layer_factory.hpp:77] Creating layer loss_Big_Lips
I1018 15:58:37.145112 23067 net.cpp:91] Creating Layer loss_Big_Lips
I1018 15:58:37.145117 23067 net.cpp:425] loss_Big_Lips <- fc3_Big_Lips
I1018 15:58:37.145122 23067 net.cpp:425] loss_Big_Lips <- label_Big_Lips
I1018 15:58:37.145128 23067 net.cpp:399] loss_Big_Lips -> loss_Big_Lips
I1018 15:58:37.145172 23067 net.cpp:141] Setting up loss_Big_Lips
I1018 15:58:37.145182 23067 net.cpp:148] Top shape: (1)
I1018 15:58:37.145186 23067 net.cpp:151]     with loss weight 1
I1018 15:58:37.145191 23067 net.cpp:156] Memory required for data: 4009745616
I1018 15:58:37.145195 23067 layer_factory.hpp:77] Creating layer fc3_Smiling
I1018 15:58:37.145210 23067 net.cpp:91] Creating Layer fc3_Smiling
I1018 15:58:37.145215 23067 net.cpp:425] fc3_Smiling <- fc2_mouth_drop2_mouth_0_split_1
I1018 15:58:37.145221 23067 net.cpp:399] fc3_Smiling -> fc3_Smiling
I1018 15:58:37.145340 23067 net.cpp:141] Setting up fc3_Smiling
I1018 15:58:37.145350 23067 net.cpp:148] Top shape: 100 2 (200)
I1018 15:58:37.145354 23067 net.cpp:156] Memory required for data: 4009746416
I1018 15:58:37.145362 23067 layer_factory.hpp:77] Creating layer loss_Smiling
I1018 15:58:37.145372 23067 net.cpp:91] Creating Layer loss_Smiling
I1018 15:58:37.145376 23067 net.cpp:425] loss_Smiling <- fc3_Smiling
I1018 15:58:37.145382 23067 net.cpp:425] loss_Smiling <- label_Smiling
I1018 15:58:37.145390 23067 net.cpp:399] loss_Smiling -> loss_Smiling
I1018 15:58:37.145444 23067 net.cpp:141] Setting up loss_Smiling
I1018 15:58:37.145453 23067 net.cpp:148] Top shape: (1)
I1018 15:58:37.145463 23067 net.cpp:151]     with loss weight 1
I1018 15:58:37.145469 23067 net.cpp:156] Memory required for data: 4009746420
I1018 15:58:37.145473 23067 layer_factory.hpp:77] Creating layer fc3_Wearing_Lipstick
I1018 15:58:37.145483 23067 net.cpp:91] Creating Layer fc3_Wearing_Lipstick
I1018 15:58:37.145488 23067 net.cpp:425] fc3_Wearing_Lipstick <- fc2_mouth_drop2_mouth_0_split_2
I1018 15:58:37.145495 23067 net.cpp:399] fc3_Wearing_Lipstick -> fc3_Wearing_Lipstick
I1018 15:58:37.145617 23067 net.cpp:141] Setting up fc3_Wearing_Lipstick
I1018 15:58:37.145627 23067 net.cpp:148] Top shape: 100 2 (200)
I1018 15:58:37.145632 23067 net.cpp:156] Memory required for data: 4009747220
I1018 15:58:37.145637 23067 layer_factory.hpp:77] Creating layer loss_Wearing_Lipstick
I1018 15:58:37.145647 23067 net.cpp:91] Creating Layer loss_Wearing_Lipstick
I1018 15:58:37.145650 23067 net.cpp:425] loss_Wearing_Lipstick <- fc3_Wearing_Lipstick
I1018 15:58:37.145658 23067 net.cpp:425] loss_Wearing_Lipstick <- label_Wearing_Lipstick
I1018 15:58:37.145663 23067 net.cpp:399] loss_Wearing_Lipstick -> loss_Wearing_Lipstick
I1018 15:58:37.145711 23067 net.cpp:141] Setting up loss_Wearing_Lipstick
I1018 15:58:37.145721 23067 net.cpp:148] Top shape: (1)
I1018 15:58:37.145725 23067 net.cpp:151]     with loss weight 1
I1018 15:58:37.145730 23067 net.cpp:156] Memory required for data: 4009747224
I1018 15:58:37.145735 23067 layer_factory.hpp:77] Creating layer fc3_Mouth_Slightly_Open
I1018 15:58:37.145742 23067 net.cpp:91] Creating Layer fc3_Mouth_Slightly_Open
I1018 15:58:37.145751 23067 net.cpp:425] fc3_Mouth_Slightly_Open <- fc2_mouth_drop2_mouth_0_split_3
I1018 15:58:37.145759 23067 net.cpp:399] fc3_Mouth_Slightly_Open -> fc3_Mouth_Slightly_Open
I1018 15:58:37.145879 23067 net.cpp:141] Setting up fc3_Mouth_Slightly_Open
I1018 15:58:37.145889 23067 net.cpp:148] Top shape: 100 2 (200)
I1018 15:58:37.145894 23067 net.cpp:156] Memory required for data: 4009748024
I1018 15:58:37.145900 23067 layer_factory.hpp:77] Creating layer loss_Mouth_Slightly_Open
I1018 15:58:37.145910 23067 net.cpp:91] Creating Layer loss_Mouth_Slightly_Open
I1018 15:58:37.145913 23067 net.cpp:425] loss_Mouth_Slightly_Open <- fc3_Mouth_Slightly_Open
I1018 15:58:37.145920 23067 net.cpp:425] loss_Mouth_Slightly_Open <- label_Mouth_Slightly_Open
I1018 15:58:37.145927 23067 net.cpp:399] loss_Mouth_Slightly_Open -> loss_Mouth_Slightly_Open
I1018 15:58:37.145969 23067 net.cpp:141] Setting up loss_Mouth_Slightly_Open
I1018 15:58:37.145977 23067 net.cpp:148] Top shape: (1)
I1018 15:58:37.145982 23067 net.cpp:151]     with loss weight 1
I1018 15:58:37.145987 23067 net.cpp:156] Memory required for data: 4009748028
I1018 15:58:37.145990 23067 layer_factory.hpp:77] Creating layer fc3_Arched_Eyebrows
I1018 15:58:37.146001 23067 net.cpp:91] Creating Layer fc3_Arched_Eyebrows
I1018 15:58:37.146006 23067 net.cpp:425] fc3_Arched_Eyebrows <- fc2_eyes_drop2_eyes_0_split_0
I1018 15:58:37.146013 23067 net.cpp:399] fc3_Arched_Eyebrows -> fc3_Arched_Eyebrows
I1018 15:58:37.146129 23067 net.cpp:141] Setting up fc3_Arched_Eyebrows
I1018 15:58:37.146139 23067 net.cpp:148] Top shape: 100 2 (200)
I1018 15:58:37.146143 23067 net.cpp:156] Memory required for data: 4009748828
I1018 15:58:37.146149 23067 layer_factory.hpp:77] Creating layer loss_Arched_Eyebrows
I1018 15:58:37.146158 23067 net.cpp:91] Creating Layer loss_Arched_Eyebrows
I1018 15:58:37.146162 23067 net.cpp:425] loss_Arched_Eyebrows <- fc3_Arched_Eyebrows
I1018 15:58:37.146167 23067 net.cpp:425] loss_Arched_Eyebrows <- label_Arched_Eyebrows
I1018 15:58:37.146173 23067 net.cpp:399] loss_Arched_Eyebrows -> loss_Arched_Eyebrows
I1018 15:58:37.146220 23067 net.cpp:141] Setting up loss_Arched_Eyebrows
I1018 15:58:37.146251 23067 net.cpp:148] Top shape: (1)
I1018 15:58:37.146256 23067 net.cpp:151]     with loss weight 1
I1018 15:58:37.146262 23067 net.cpp:156] Memory required for data: 4009748832
I1018 15:58:37.146276 23067 layer_factory.hpp:77] Creating layer fc3_Bags_Under_Eyes
I1018 15:58:37.146286 23067 net.cpp:91] Creating Layer fc3_Bags_Under_Eyes
I1018 15:58:37.146291 23067 net.cpp:425] fc3_Bags_Under_Eyes <- fc2_eyes_drop2_eyes_0_split_1
I1018 15:58:37.146297 23067 net.cpp:399] fc3_Bags_Under_Eyes -> fc3_Bags_Under_Eyes
I1018 15:58:37.146422 23067 net.cpp:141] Setting up fc3_Bags_Under_Eyes
I1018 15:58:37.146433 23067 net.cpp:148] Top shape: 100 2 (200)
I1018 15:58:37.146437 23067 net.cpp:156] Memory required for data: 4009749632
I1018 15:58:37.146443 23067 layer_factory.hpp:77] Creating layer loss_Bags_Under_Eyes
I1018 15:58:37.146453 23067 net.cpp:91] Creating Layer loss_Bags_Under_Eyes
I1018 15:58:37.146457 23067 net.cpp:425] loss_Bags_Under_Eyes <- fc3_Bags_Under_Eyes
I1018 15:58:37.146464 23067 net.cpp:425] loss_Bags_Under_Eyes <- label_Bags_Under_Eyes
I1018 15:58:37.146471 23067 net.cpp:399] loss_Bags_Under_Eyes -> loss_Bags_Under_Eyes
I1018 15:58:37.146517 23067 net.cpp:141] Setting up loss_Bags_Under_Eyes
I1018 15:58:37.146524 23067 net.cpp:148] Top shape: (1)
I1018 15:58:37.146528 23067 net.cpp:151]     with loss weight 1
I1018 15:58:37.146534 23067 net.cpp:156] Memory required for data: 4009749636
I1018 15:58:37.146538 23067 layer_factory.hpp:77] Creating layer fc3_Bushy_Eyebrows
I1018 15:58:37.146546 23067 net.cpp:91] Creating Layer fc3_Bushy_Eyebrows
I1018 15:58:37.146550 23067 net.cpp:425] fc3_Bushy_Eyebrows <- fc2_eyes_drop2_eyes_0_split_2
I1018 15:58:37.146558 23067 net.cpp:399] fc3_Bushy_Eyebrows -> fc3_Bushy_Eyebrows
I1018 15:58:37.146688 23067 net.cpp:141] Setting up fc3_Bushy_Eyebrows
I1018 15:58:37.146698 23067 net.cpp:148] Top shape: 100 2 (200)
I1018 15:58:37.146704 23067 net.cpp:156] Memory required for data: 4009750436
I1018 15:58:37.146710 23067 layer_factory.hpp:77] Creating layer loss_Bushy_Eyebrows
I1018 15:58:37.146719 23067 net.cpp:91] Creating Layer loss_Bushy_Eyebrows
I1018 15:58:37.146724 23067 net.cpp:425] loss_Bushy_Eyebrows <- fc3_Bushy_Eyebrows
I1018 15:58:37.146729 23067 net.cpp:425] loss_Bushy_Eyebrows <- label_Bushy_Eyebrows
I1018 15:58:37.146735 23067 net.cpp:399] loss_Bushy_Eyebrows -> loss_Bushy_Eyebrows
I1018 15:58:37.146778 23067 net.cpp:141] Setting up loss_Bushy_Eyebrows
I1018 15:58:37.146786 23067 net.cpp:148] Top shape: (1)
I1018 15:58:37.146790 23067 net.cpp:151]     with loss weight 1
I1018 15:58:37.146795 23067 net.cpp:156] Memory required for data: 4009750440
I1018 15:58:37.146800 23067 layer_factory.hpp:77] Creating layer fc3_Narrow_Eyes
I1018 15:58:37.146807 23067 net.cpp:91] Creating Layer fc3_Narrow_Eyes
I1018 15:58:37.146812 23067 net.cpp:425] fc3_Narrow_Eyes <- fc2_eyes_drop2_eyes_0_split_3
I1018 15:58:37.146819 23067 net.cpp:399] fc3_Narrow_Eyes -> fc3_Narrow_Eyes
I1018 15:58:37.146941 23067 net.cpp:141] Setting up fc3_Narrow_Eyes
I1018 15:58:37.146951 23067 net.cpp:148] Top shape: 100 2 (200)
I1018 15:58:37.146955 23067 net.cpp:156] Memory required for data: 4009751240
I1018 15:58:37.146961 23067 layer_factory.hpp:77] Creating layer loss_Narrow_Eyes
I1018 15:58:37.146970 23067 net.cpp:91] Creating Layer loss_Narrow_Eyes
I1018 15:58:37.146975 23067 net.cpp:425] loss_Narrow_Eyes <- fc3_Narrow_Eyes
I1018 15:58:37.146981 23067 net.cpp:425] loss_Narrow_Eyes <- label_Narrow_Eyes
I1018 15:58:37.146986 23067 net.cpp:399] loss_Narrow_Eyes -> loss_Narrow_Eyes
I1018 15:58:37.147037 23067 net.cpp:141] Setting up loss_Narrow_Eyes
I1018 15:58:37.147045 23067 net.cpp:148] Top shape: (1)
I1018 15:58:37.147049 23067 net.cpp:151]     with loss weight 1
I1018 15:58:37.147055 23067 net.cpp:156] Memory required for data: 4009751244
I1018 15:58:37.147058 23067 layer_factory.hpp:77] Creating layer fc3_Eyeglasses
I1018 15:58:37.147066 23067 net.cpp:91] Creating Layer fc3_Eyeglasses
I1018 15:58:37.147070 23067 net.cpp:425] fc3_Eyeglasses <- fc2_eyes_drop2_eyes_0_split_4
I1018 15:58:37.147078 23067 net.cpp:399] fc3_Eyeglasses -> fc3_Eyeglasses
I1018 15:58:37.147192 23067 net.cpp:141] Setting up fc3_Eyeglasses
I1018 15:58:37.147202 23067 net.cpp:148] Top shape: 100 2 (200)
I1018 15:58:37.147222 23067 net.cpp:156] Memory required for data: 4009752044
I1018 15:58:37.147230 23067 layer_factory.hpp:77] Creating layer loss_Eyeglasses
I1018 15:58:37.147239 23067 net.cpp:91] Creating Layer loss_Eyeglasses
I1018 15:58:37.147244 23067 net.cpp:425] loss_Eyeglasses <- fc3_Eyeglasses
I1018 15:58:37.147251 23067 net.cpp:425] loss_Eyeglasses <- label_Eyeglasses
I1018 15:58:37.147258 23067 net.cpp:399] loss_Eyeglasses -> loss_Eyeglasses
I1018 15:58:37.147300 23067 net.cpp:141] Setting up loss_Eyeglasses
I1018 15:58:37.147310 23067 net.cpp:148] Top shape: (1)
I1018 15:58:37.147313 23067 net.cpp:151]     with loss weight 1
I1018 15:58:37.147325 23067 net.cpp:156] Memory required for data: 4009752048
I1018 15:58:37.147330 23067 layer_factory.hpp:77] Creating layer fc3_Attractive
I1018 15:58:37.147337 23067 net.cpp:91] Creating Layer fc3_Attractive
I1018 15:58:37.147342 23067 net.cpp:425] fc3_Attractive <- fc2_face_drop2_face_0_split_0
I1018 15:58:37.147351 23067 net.cpp:399] fc3_Attractive -> fc3_Attractive
I1018 15:58:37.147476 23067 net.cpp:141] Setting up fc3_Attractive
I1018 15:58:37.147486 23067 net.cpp:148] Top shape: 100 2 (200)
I1018 15:58:37.147491 23067 net.cpp:156] Memory required for data: 4009752848
I1018 15:58:37.147498 23067 layer_factory.hpp:77] Creating layer loss_Attractive
I1018 15:58:37.147507 23067 net.cpp:91] Creating Layer loss_Attractive
I1018 15:58:37.147512 23067 net.cpp:425] loss_Attractive <- fc3_Attractive
I1018 15:58:37.147517 23067 net.cpp:425] loss_Attractive <- label_Attractive
I1018 15:58:37.147523 23067 net.cpp:399] loss_Attractive -> loss_Attractive
I1018 15:58:37.147563 23067 net.cpp:141] Setting up loss_Attractive
I1018 15:58:37.147572 23067 net.cpp:148] Top shape: (1)
I1018 15:58:37.147577 23067 net.cpp:151]     with loss weight 1
I1018 15:58:37.147588 23067 net.cpp:156] Memory required for data: 4009752852
I1018 15:58:37.147590 23067 layer_factory.hpp:77] Creating layer fc3_Blurry
I1018 15:58:37.147598 23067 net.cpp:91] Creating Layer fc3_Blurry
I1018 15:58:37.147603 23067 net.cpp:425] fc3_Blurry <- fc2_face_drop2_face_0_split_1
I1018 15:58:37.147614 23067 net.cpp:399] fc3_Blurry -> fc3_Blurry
I1018 15:58:37.147732 23067 net.cpp:141] Setting up fc3_Blurry
I1018 15:58:37.147742 23067 net.cpp:148] Top shape: 100 2 (200)
I1018 15:58:37.147747 23067 net.cpp:156] Memory required for data: 4009753652
I1018 15:58:37.147752 23067 layer_factory.hpp:77] Creating layer loss_Blurry
I1018 15:58:37.147761 23067 net.cpp:91] Creating Layer loss_Blurry
I1018 15:58:37.147766 23067 net.cpp:425] loss_Blurry <- fc3_Blurry
I1018 15:58:37.147771 23067 net.cpp:425] loss_Blurry <- label_Blurry
I1018 15:58:37.147778 23067 net.cpp:399] loss_Blurry -> loss_Blurry
I1018 15:58:37.147826 23067 net.cpp:141] Setting up loss_Blurry
I1018 15:58:37.147836 23067 net.cpp:148] Top shape: (1)
I1018 15:58:37.147840 23067 net.cpp:151]     with loss weight 1
I1018 15:58:37.147845 23067 net.cpp:156] Memory required for data: 4009753656
I1018 15:58:37.147850 23067 layer_factory.hpp:77] Creating layer fc3_Oval_Face
I1018 15:58:37.147857 23067 net.cpp:91] Creating Layer fc3_Oval_Face
I1018 15:58:37.147866 23067 net.cpp:425] fc3_Oval_Face <- fc2_face_drop2_face_0_split_2
I1018 15:58:37.147876 23067 net.cpp:399] fc3_Oval_Face -> fc3_Oval_Face
I1018 15:58:37.147992 23067 net.cpp:141] Setting up fc3_Oval_Face
I1018 15:58:37.148007 23067 net.cpp:148] Top shape: 100 2 (200)
I1018 15:58:37.148011 23067 net.cpp:156] Memory required for data: 4009754456
I1018 15:58:37.148017 23067 layer_factory.hpp:77] Creating layer loss_Oval_Face
I1018 15:58:37.148027 23067 net.cpp:91] Creating Layer loss_Oval_Face
I1018 15:58:37.148031 23067 net.cpp:425] loss_Oval_Face <- fc3_Oval_Face
I1018 15:58:37.148037 23067 net.cpp:425] loss_Oval_Face <- label_Oval_Face
I1018 15:58:37.148043 23067 net.cpp:399] loss_Oval_Face -> loss_Oval_Face
I1018 15:58:37.148090 23067 net.cpp:141] Setting up loss_Oval_Face
I1018 15:58:37.148099 23067 net.cpp:148] Top shape: (1)
I1018 15:58:37.148103 23067 net.cpp:151]     with loss weight 1
I1018 15:58:37.148108 23067 net.cpp:156] Memory required for data: 4009754460
I1018 15:58:37.148123 23067 layer_factory.hpp:77] Creating layer fc3_Pale_Skin
I1018 15:58:37.148134 23067 net.cpp:91] Creating Layer fc3_Pale_Skin
I1018 15:58:37.148139 23067 net.cpp:425] fc3_Pale_Skin <- fc2_face_drop2_face_0_split_3
I1018 15:58:37.148149 23067 net.cpp:399] fc3_Pale_Skin -> fc3_Pale_Skin
I1018 15:58:37.148268 23067 net.cpp:141] Setting up fc3_Pale_Skin
I1018 15:58:37.148278 23067 net.cpp:148] Top shape: 100 2 (200)
I1018 15:58:37.148283 23067 net.cpp:156] Memory required for data: 4009755260
I1018 15:58:37.148288 23067 layer_factory.hpp:77] Creating layer loss_Pale_Skin
I1018 15:58:37.148298 23067 net.cpp:91] Creating Layer loss_Pale_Skin
I1018 15:58:37.148303 23067 net.cpp:425] loss_Pale_Skin <- fc3_Pale_Skin
I1018 15:58:37.148308 23067 net.cpp:425] loss_Pale_Skin <- label_Pale_Skin
I1018 15:58:37.148313 23067 net.cpp:399] loss_Pale_Skin -> loss_Pale_Skin
I1018 15:58:37.148358 23067 net.cpp:141] Setting up loss_Pale_Skin
I1018 15:58:37.148368 23067 net.cpp:148] Top shape: (1)
I1018 15:58:37.148372 23067 net.cpp:151]     with loss weight 1
I1018 15:58:37.148377 23067 net.cpp:156] Memory required for data: 4009755264
I1018 15:58:37.148386 23067 layer_factory.hpp:77] Creating layer fc3_Young
I1018 15:58:37.148394 23067 net.cpp:91] Creating Layer fc3_Young
I1018 15:58:37.148398 23067 net.cpp:425] fc3_Young <- fc2_face_drop2_face_0_split_4
I1018 15:58:37.148406 23067 net.cpp:399] fc3_Young -> fc3_Young
I1018 15:58:37.148524 23067 net.cpp:141] Setting up fc3_Young
I1018 15:58:37.148535 23067 net.cpp:148] Top shape: 100 2 (200)
I1018 15:58:37.148538 23067 net.cpp:156] Memory required for data: 4009756064
I1018 15:58:37.148545 23067 layer_factory.hpp:77] Creating layer loss_Young
I1018 15:58:37.148553 23067 net.cpp:91] Creating Layer loss_Young
I1018 15:58:37.148557 23067 net.cpp:425] loss_Young <- fc3_Young
I1018 15:58:37.148563 23067 net.cpp:425] loss_Young <- label_Young
I1018 15:58:37.148569 23067 net.cpp:399] loss_Young -> loss_Young
I1018 15:58:37.148614 23067 net.cpp:141] Setting up loss_Young
I1018 15:58:37.148624 23067 net.cpp:148] Top shape: (1)
I1018 15:58:37.148627 23067 net.cpp:151]     with loss weight 1
I1018 15:58:37.148633 23067 net.cpp:156] Memory required for data: 4009756068
I1018 15:58:37.148636 23067 layer_factory.hpp:77] Creating layer fc3_Heavy_Makeup
I1018 15:58:37.148649 23067 net.cpp:91] Creating Layer fc3_Heavy_Makeup
I1018 15:58:37.148653 23067 net.cpp:425] fc3_Heavy_Makeup <- fc2_face_drop2_face_0_split_5
I1018 15:58:37.148663 23067 net.cpp:399] fc3_Heavy_Makeup -> fc3_Heavy_Makeup
I1018 15:58:37.148783 23067 net.cpp:141] Setting up fc3_Heavy_Makeup
I1018 15:58:37.148793 23067 net.cpp:148] Top shape: 100 2 (200)
I1018 15:58:37.148797 23067 net.cpp:156] Memory required for data: 4009756868
I1018 15:58:37.148803 23067 layer_factory.hpp:77] Creating layer loss_Heavy_Makeup
I1018 15:58:37.148813 23067 net.cpp:91] Creating Layer loss_Heavy_Makeup
I1018 15:58:37.148818 23067 net.cpp:425] loss_Heavy_Makeup <- fc3_Heavy_Makeup
I1018 15:58:37.148823 23067 net.cpp:425] loss_Heavy_Makeup <- label_Heavy_Makeup
I1018 15:58:37.148829 23067 net.cpp:399] loss_Heavy_Makeup -> loss_Heavy_Makeup
I1018 15:58:37.148876 23067 net.cpp:141] Setting up loss_Heavy_Makeup
I1018 15:58:37.148885 23067 net.cpp:148] Top shape: (1)
I1018 15:58:37.148890 23067 net.cpp:151]     with loss weight 1
I1018 15:58:37.148895 23067 net.cpp:156] Memory required for data: 4009756872
I1018 15:58:37.148898 23067 layer_factory.hpp:77] Creating layer fc3_Black_Hair
I1018 15:58:37.148911 23067 net.cpp:91] Creating Layer fc3_Black_Hair
I1018 15:58:37.148916 23067 net.cpp:425] fc3_Black_Hair <- fc2_aroundhead_drop2_aroundhead_0_split_0
I1018 15:58:37.148926 23067 net.cpp:399] fc3_Black_Hair -> fc3_Black_Hair
I1018 15:58:37.149041 23067 net.cpp:141] Setting up fc3_Black_Hair
I1018 15:58:37.149052 23067 net.cpp:148] Top shape: 100 2 (200)
I1018 15:58:37.149056 23067 net.cpp:156] Memory required for data: 4009757672
I1018 15:58:37.149062 23067 layer_factory.hpp:77] Creating layer loss_Black_Hair
I1018 15:58:37.149081 23067 net.cpp:91] Creating Layer loss_Black_Hair
I1018 15:58:37.149086 23067 net.cpp:425] loss_Black_Hair <- fc3_Black_Hair
I1018 15:58:37.149092 23067 net.cpp:425] loss_Black_Hair <- label_Black_Hair
I1018 15:58:37.149106 23067 net.cpp:399] loss_Black_Hair -> loss_Black_Hair
I1018 15:58:37.149147 23067 net.cpp:141] Setting up loss_Black_Hair
I1018 15:58:37.149157 23067 net.cpp:148] Top shape: (1)
I1018 15:58:37.149160 23067 net.cpp:151]     with loss weight 1
I1018 15:58:37.149171 23067 net.cpp:156] Memory required for data: 4009757676
I1018 15:58:37.149174 23067 layer_factory.hpp:77] Creating layer fc3_Blond_Hair
I1018 15:58:37.149183 23067 net.cpp:91] Creating Layer fc3_Blond_Hair
I1018 15:58:37.149188 23067 net.cpp:425] fc3_Blond_Hair <- fc2_aroundhead_drop2_aroundhead_0_split_1
I1018 15:58:37.149195 23067 net.cpp:399] fc3_Blond_Hair -> fc3_Blond_Hair
I1018 15:58:37.149313 23067 net.cpp:141] Setting up fc3_Blond_Hair
I1018 15:58:37.149323 23067 net.cpp:148] Top shape: 100 2 (200)
I1018 15:58:37.149327 23067 net.cpp:156] Memory required for data: 4009758476
I1018 15:58:37.149333 23067 layer_factory.hpp:77] Creating layer loss_Blond_Hair
I1018 15:58:37.149343 23067 net.cpp:91] Creating Layer loss_Blond_Hair
I1018 15:58:37.149348 23067 net.cpp:425] loss_Blond_Hair <- fc3_Blond_Hair
I1018 15:58:37.149353 23067 net.cpp:425] loss_Blond_Hair <- label_Blond_Hair
I1018 15:58:37.149359 23067 net.cpp:399] loss_Blond_Hair -> loss_Blond_Hair
I1018 15:58:37.149402 23067 net.cpp:141] Setting up loss_Blond_Hair
I1018 15:58:37.149410 23067 net.cpp:148] Top shape: (1)
I1018 15:58:37.149415 23067 net.cpp:151]     with loss weight 1
I1018 15:58:37.149420 23067 net.cpp:156] Memory required for data: 4009758480
I1018 15:58:37.149425 23067 layer_factory.hpp:77] Creating layer fc3_Brown_Hair
I1018 15:58:37.149433 23067 net.cpp:91] Creating Layer fc3_Brown_Hair
I1018 15:58:37.149437 23067 net.cpp:425] fc3_Brown_Hair <- fc2_aroundhead_drop2_aroundhead_0_split_2
I1018 15:58:37.149446 23067 net.cpp:399] fc3_Brown_Hair -> fc3_Brown_Hair
I1018 15:58:37.149567 23067 net.cpp:141] Setting up fc3_Brown_Hair
I1018 15:58:37.149577 23067 net.cpp:148] Top shape: 100 2 (200)
I1018 15:58:37.149581 23067 net.cpp:156] Memory required for data: 4009759280
I1018 15:58:37.149588 23067 layer_factory.hpp:77] Creating layer loss_Brown_Hair
I1018 15:58:37.149598 23067 net.cpp:91] Creating Layer loss_Brown_Hair
I1018 15:58:37.149602 23067 net.cpp:425] loss_Brown_Hair <- fc3_Brown_Hair
I1018 15:58:37.149607 23067 net.cpp:425] loss_Brown_Hair <- label_Brown_Hair
I1018 15:58:37.149615 23067 net.cpp:399] loss_Brown_Hair -> loss_Brown_Hair
I1018 15:58:37.149660 23067 net.cpp:141] Setting up loss_Brown_Hair
I1018 15:58:37.149669 23067 net.cpp:148] Top shape: (1)
I1018 15:58:37.149673 23067 net.cpp:151]     with loss weight 1
I1018 15:58:37.149678 23067 net.cpp:156] Memory required for data: 4009759284
I1018 15:58:37.149682 23067 layer_factory.hpp:77] Creating layer fc3_Gray_Hair
I1018 15:58:37.149689 23067 net.cpp:91] Creating Layer fc3_Gray_Hair
I1018 15:58:37.149693 23067 net.cpp:425] fc3_Gray_Hair <- fc2_aroundhead_drop2_aroundhead_0_split_3
I1018 15:58:37.149701 23067 net.cpp:399] fc3_Gray_Hair -> fc3_Gray_Hair
I1018 15:58:37.149822 23067 net.cpp:141] Setting up fc3_Gray_Hair
I1018 15:58:37.149832 23067 net.cpp:148] Top shape: 100 2 (200)
I1018 15:58:37.149837 23067 net.cpp:156] Memory required for data: 4009760084
I1018 15:58:37.149844 23067 layer_factory.hpp:77] Creating layer loss_Gray_Hair
I1018 15:58:37.149853 23067 net.cpp:91] Creating Layer loss_Gray_Hair
I1018 15:58:37.149858 23067 net.cpp:425] loss_Gray_Hair <- fc3_Gray_Hair
I1018 15:58:37.149863 23067 net.cpp:425] loss_Gray_Hair <- label_Gray_Hair
I1018 15:58:37.149870 23067 net.cpp:399] loss_Gray_Hair -> loss_Gray_Hair
I1018 15:58:37.149916 23067 net.cpp:141] Setting up loss_Gray_Hair
I1018 15:58:37.149924 23067 net.cpp:148] Top shape: (1)
I1018 15:58:37.149929 23067 net.cpp:151]     with loss weight 1
I1018 15:58:37.149933 23067 net.cpp:156] Memory required for data: 4009760088
I1018 15:58:37.149947 23067 layer_factory.hpp:77] Creating layer fc3_Wearing_Earrings
I1018 15:58:37.149955 23067 net.cpp:91] Creating Layer fc3_Wearing_Earrings
I1018 15:58:37.149960 23067 net.cpp:425] fc3_Wearing_Earrings <- fc2_aroundhead_drop2_aroundhead_0_split_4
I1018 15:58:37.149966 23067 net.cpp:399] fc3_Wearing_Earrings -> fc3_Wearing_Earrings
I1018 15:58:37.150104 23067 net.cpp:141] Setting up fc3_Wearing_Earrings
I1018 15:58:37.150115 23067 net.cpp:148] Top shape: 100 2 (200)
I1018 15:58:37.150121 23067 net.cpp:156] Memory required for data: 4009760888
I1018 15:58:37.150127 23067 layer_factory.hpp:77] Creating layer loss_Wearing_Earrings
I1018 15:58:37.150137 23067 net.cpp:91] Creating Layer loss_Wearing_Earrings
I1018 15:58:37.150141 23067 net.cpp:425] loss_Wearing_Earrings <- fc3_Wearing_Earrings
I1018 15:58:37.150147 23067 net.cpp:425] loss_Wearing_Earrings <- label_Wearing_Earrings
I1018 15:58:37.150154 23067 net.cpp:399] loss_Wearing_Earrings -> loss_Wearing_Earrings
I1018 15:58:37.150203 23067 net.cpp:141] Setting up loss_Wearing_Earrings
I1018 15:58:37.150213 23067 net.cpp:148] Top shape: (1)
I1018 15:58:37.150218 23067 net.cpp:151]     with loss weight 1
I1018 15:58:37.150223 23067 net.cpp:156] Memory required for data: 4009760892
I1018 15:58:37.150225 23067 layer_factory.hpp:77] Creating layer fc3_Wearing_Necklace
I1018 15:58:37.150234 23067 net.cpp:91] Creating Layer fc3_Wearing_Necklace
I1018 15:58:37.150243 23067 net.cpp:425] fc3_Wearing_Necklace <- fc2_aroundhead_drop2_aroundhead_0_split_5
I1018 15:58:37.150249 23067 net.cpp:399] fc3_Wearing_Necklace -> fc3_Wearing_Necklace
I1018 15:58:37.150373 23067 net.cpp:141] Setting up fc3_Wearing_Necklace
I1018 15:58:37.150383 23067 net.cpp:148] Top shape: 100 2 (200)
I1018 15:58:37.150388 23067 net.cpp:156] Memory required for data: 4009761692
I1018 15:58:37.150393 23067 layer_factory.hpp:77] Creating layer loss_Wearing_Necklace
I1018 15:58:37.150403 23067 net.cpp:91] Creating Layer loss_Wearing_Necklace
I1018 15:58:37.150408 23067 net.cpp:425] loss_Wearing_Necklace <- fc3_Wearing_Necklace
I1018 15:58:37.150413 23067 net.cpp:425] loss_Wearing_Necklace <- label_Wearing_Necklace
I1018 15:58:37.150419 23067 net.cpp:399] loss_Wearing_Necklace -> loss_Wearing_Necklace
I1018 15:58:37.150466 23067 net.cpp:141] Setting up loss_Wearing_Necklace
I1018 15:58:37.150475 23067 net.cpp:148] Top shape: (1)
I1018 15:58:37.150480 23067 net.cpp:151]     with loss weight 1
I1018 15:58:37.150485 23067 net.cpp:156] Memory required for data: 4009761696
I1018 15:58:37.150490 23067 layer_factory.hpp:77] Creating layer fc3_Wearing_Necktie
I1018 15:58:37.150501 23067 net.cpp:91] Creating Layer fc3_Wearing_Necktie
I1018 15:58:37.150506 23067 net.cpp:425] fc3_Wearing_Necktie <- fc2_aroundhead_drop2_aroundhead_0_split_6
I1018 15:58:37.150513 23067 net.cpp:399] fc3_Wearing_Necktie -> fc3_Wearing_Necktie
I1018 15:58:37.150632 23067 net.cpp:141] Setting up fc3_Wearing_Necktie
I1018 15:58:37.150642 23067 net.cpp:148] Top shape: 100 2 (200)
I1018 15:58:37.150646 23067 net.cpp:156] Memory required for data: 4009762496
I1018 15:58:37.150652 23067 layer_factory.hpp:77] Creating layer loss_Wearing_Necktie
I1018 15:58:37.150662 23067 net.cpp:91] Creating Layer loss_Wearing_Necktie
I1018 15:58:37.150666 23067 net.cpp:425] loss_Wearing_Necktie <- fc3_Wearing_Necktie
I1018 15:58:37.150671 23067 net.cpp:425] loss_Wearing_Necktie <- label_Wearing_Necktie
I1018 15:58:37.150679 23067 net.cpp:399] loss_Wearing_Necktie -> loss_Wearing_Necktie
I1018 15:58:37.150725 23067 net.cpp:141] Setting up loss_Wearing_Necktie
I1018 15:58:37.150734 23067 net.cpp:148] Top shape: (1)
I1018 15:58:37.150738 23067 net.cpp:151]     with loss weight 1
I1018 15:58:37.150743 23067 net.cpp:156] Memory required for data: 4009762500
I1018 15:58:37.150748 23067 layer_factory.hpp:77] Creating layer fc3_Bald
I1018 15:58:37.150754 23067 net.cpp:91] Creating Layer fc3_Bald
I1018 15:58:37.150759 23067 net.cpp:425] fc3_Bald <- fc2_aroundhead_drop2_aroundhead_0_split_7
I1018 15:58:37.150770 23067 net.cpp:399] fc3_Bald -> fc3_Bald
I1018 15:58:37.150905 23067 net.cpp:141] Setting up fc3_Bald
I1018 15:58:37.150916 23067 net.cpp:148] Top shape: 100 2 (200)
I1018 15:58:37.150920 23067 net.cpp:156] Memory required for data: 4009763300
I1018 15:58:37.150926 23067 layer_factory.hpp:77] Creating layer loss_Bald
I1018 15:58:37.150936 23067 net.cpp:91] Creating Layer loss_Bald
I1018 15:58:37.150940 23067 net.cpp:425] loss_Bald <- fc3_Bald
I1018 15:58:37.150946 23067 net.cpp:425] loss_Bald <- label_Bald
I1018 15:58:37.150954 23067 net.cpp:399] loss_Bald -> loss_Bald
I1018 15:58:37.151000 23067 net.cpp:141] Setting up loss_Bald
I1018 15:58:37.151010 23067 net.cpp:148] Top shape: (1)
I1018 15:58:37.151013 23067 net.cpp:151]     with loss weight 1
I1018 15:58:37.151018 23067 net.cpp:156] Memory required for data: 4009763304
I1018 15:58:37.151022 23067 layer_factory.hpp:77] Creating layer fc3_Receding_Hairline
I1018 15:58:37.151031 23067 net.cpp:91] Creating Layer fc3_Receding_Hairline
I1018 15:58:37.151036 23067 net.cpp:425] fc3_Receding_Hairline <- fc2_aroundhead_drop2_aroundhead_0_split_8
I1018 15:58:37.151042 23067 net.cpp:399] fc3_Receding_Hairline -> fc3_Receding_Hairline
I1018 15:58:37.151166 23067 net.cpp:141] Setting up fc3_Receding_Hairline
I1018 15:58:37.151176 23067 net.cpp:148] Top shape: 100 2 (200)
I1018 15:58:37.151180 23067 net.cpp:156] Memory required for data: 4009764104
I1018 15:58:37.151188 23067 layer_factory.hpp:77] Creating layer loss_Receding_Hairline
I1018 15:58:37.151197 23067 net.cpp:91] Creating Layer loss_Receding_Hairline
I1018 15:58:37.151202 23067 net.cpp:425] loss_Receding_Hairline <- fc3_Receding_Hairline
I1018 15:58:37.151207 23067 net.cpp:425] loss_Receding_Hairline <- label_Receding_Hairline
I1018 15:58:37.151214 23067 net.cpp:399] loss_Receding_Hairline -> loss_Receding_Hairline
I1018 15:58:37.151262 23067 net.cpp:141] Setting up loss_Receding_Hairline
I1018 15:58:37.151270 23067 net.cpp:148] Top shape: (1)
I1018 15:58:37.151274 23067 net.cpp:151]     with loss weight 1
I1018 15:58:37.151279 23067 net.cpp:156] Memory required for data: 4009764108
I1018 15:58:37.151283 23067 layer_factory.hpp:77] Creating layer fc3_Bangs
I1018 15:58:37.151290 23067 net.cpp:91] Creating Layer fc3_Bangs
I1018 15:58:37.151294 23067 net.cpp:425] fc3_Bangs <- fc2_aroundhead_drop2_aroundhead_0_split_9
I1018 15:58:37.151302 23067 net.cpp:399] fc3_Bangs -> fc3_Bangs
I1018 15:58:37.151423 23067 net.cpp:141] Setting up fc3_Bangs
I1018 15:58:37.151434 23067 net.cpp:148] Top shape: 100 2 (200)
I1018 15:58:37.151438 23067 net.cpp:156] Memory required for data: 4009764908
I1018 15:58:37.151445 23067 layer_factory.hpp:77] Creating layer loss_Bangs
I1018 15:58:37.151454 23067 net.cpp:91] Creating Layer loss_Bangs
I1018 15:58:37.151459 23067 net.cpp:425] loss_Bangs <- fc3_Bangs
I1018 15:58:37.151464 23067 net.cpp:425] loss_Bangs <- label_Bangs
I1018 15:58:37.151470 23067 net.cpp:399] loss_Bangs -> loss_Bangs
I1018 15:58:37.151515 23067 net.cpp:141] Setting up loss_Bangs
I1018 15:58:37.151522 23067 net.cpp:148] Top shape: (1)
I1018 15:58:37.151526 23067 net.cpp:151]     with loss weight 1
I1018 15:58:37.151531 23067 net.cpp:156] Memory required for data: 4009764912
I1018 15:58:37.151536 23067 layer_factory.hpp:77] Creating layer fc3_Wearing_Hat
I1018 15:58:37.151543 23067 net.cpp:91] Creating Layer fc3_Wearing_Hat
I1018 15:58:37.151548 23067 net.cpp:425] fc3_Wearing_Hat <- fc2_aroundhead_drop2_aroundhead_0_split_10
I1018 15:58:37.151556 23067 net.cpp:399] fc3_Wearing_Hat -> fc3_Wearing_Hat
I1018 15:58:37.151677 23067 net.cpp:141] Setting up fc3_Wearing_Hat
I1018 15:58:37.151686 23067 net.cpp:148] Top shape: 100 2 (200)
I1018 15:58:37.151690 23067 net.cpp:156] Memory required for data: 4009765712
I1018 15:58:37.151696 23067 layer_factory.hpp:77] Creating layer loss_Wearing_Hat
I1018 15:58:37.151706 23067 net.cpp:91] Creating Layer loss_Wearing_Hat
I1018 15:58:37.151711 23067 net.cpp:425] loss_Wearing_Hat <- fc3_Wearing_Hat
I1018 15:58:37.151716 23067 net.cpp:425] loss_Wearing_Hat <- label_Wearing_Hat
I1018 15:58:37.151722 23067 net.cpp:399] loss_Wearing_Hat -> loss_Wearing_Hat
I1018 15:58:37.151775 23067 net.cpp:141] Setting up loss_Wearing_Hat
I1018 15:58:37.151784 23067 net.cpp:148] Top shape: (1)
I1018 15:58:37.151788 23067 net.cpp:151]     with loss weight 1
I1018 15:58:37.151793 23067 net.cpp:156] Memory required for data: 4009765716
I1018 15:58:37.151798 23067 layer_factory.hpp:77] Creating layer fc3_Straight_Hair
I1018 15:58:37.151805 23067 net.cpp:91] Creating Layer fc3_Straight_Hair
I1018 15:58:37.151814 23067 net.cpp:425] fc3_Straight_Hair <- fc2_aroundhead_drop2_aroundhead_0_split_11
I1018 15:58:37.151826 23067 net.cpp:399] fc3_Straight_Hair -> fc3_Straight_Hair
I1018 15:58:37.151952 23067 net.cpp:141] Setting up fc3_Straight_Hair
I1018 15:58:37.151962 23067 net.cpp:148] Top shape: 100 2 (200)
I1018 15:58:37.151965 23067 net.cpp:156] Memory required for data: 4009766516
I1018 15:58:37.151971 23067 layer_factory.hpp:77] Creating layer loss_Straight_Hair
I1018 15:58:37.151985 23067 net.cpp:91] Creating Layer loss_Straight_Hair
I1018 15:58:37.151990 23067 net.cpp:425] loss_Straight_Hair <- fc3_Straight_Hair
I1018 15:58:37.151996 23067 net.cpp:425] loss_Straight_Hair <- label_Straight_Hair
I1018 15:58:37.152003 23067 net.cpp:399] loss_Straight_Hair -> loss_Straight_Hair
I1018 15:58:37.152048 23067 net.cpp:141] Setting up loss_Straight_Hair
I1018 15:58:37.152056 23067 net.cpp:148] Top shape: (1)
I1018 15:58:37.152060 23067 net.cpp:151]     with loss weight 1
I1018 15:58:37.152065 23067 net.cpp:156] Memory required for data: 4009766520
I1018 15:58:37.152070 23067 layer_factory.hpp:77] Creating layer fc3_Wavy_Hair
I1018 15:58:37.152077 23067 net.cpp:91] Creating Layer fc3_Wavy_Hair
I1018 15:58:37.152082 23067 net.cpp:425] fc3_Wavy_Hair <- fc2_aroundhead_drop2_aroundhead_0_split_12
I1018 15:58:37.152091 23067 net.cpp:399] fc3_Wavy_Hair -> fc3_Wavy_Hair
I1018 15:58:37.152214 23067 net.cpp:141] Setting up fc3_Wavy_Hair
I1018 15:58:37.152223 23067 net.cpp:148] Top shape: 100 2 (200)
I1018 15:58:37.152228 23067 net.cpp:156] Memory required for data: 4009767320
I1018 15:58:37.152235 23067 layer_factory.hpp:77] Creating layer loss_Wavy_Hair
I1018 15:58:37.152245 23067 net.cpp:91] Creating Layer loss_Wavy_Hair
I1018 15:58:37.152250 23067 net.cpp:425] loss_Wavy_Hair <- fc3_Wavy_Hair
I1018 15:58:37.152256 23067 net.cpp:425] loss_Wavy_Hair <- label_Wavy_Hair
I1018 15:58:37.152261 23067 net.cpp:399] loss_Wavy_Hair -> loss_Wavy_Hair
I1018 15:58:37.152307 23067 net.cpp:141] Setting up loss_Wavy_Hair
I1018 15:58:37.152315 23067 net.cpp:148] Top shape: (1)
I1018 15:58:37.152319 23067 net.cpp:151]     with loss weight 1
I1018 15:58:37.152325 23067 net.cpp:156] Memory required for data: 4009767324
I1018 15:58:37.152328 23067 layer_factory.hpp:77] Creating layer fc3_5_o_Clock_Shadow
I1018 15:58:37.152336 23067 net.cpp:91] Creating Layer fc3_5_o_Clock_Shadow
I1018 15:58:37.152340 23067 net.cpp:425] fc3_5_o_Clock_Shadow <- fc2_facialhair_drop2_facialhair_0_split_0
I1018 15:58:37.152348 23067 net.cpp:399] fc3_5_o_Clock_Shadow -> fc3_5_o_Clock_Shadow
I1018 15:58:37.152467 23067 net.cpp:141] Setting up fc3_5_o_Clock_Shadow
I1018 15:58:37.152477 23067 net.cpp:148] Top shape: 100 2 (200)
I1018 15:58:37.152482 23067 net.cpp:156] Memory required for data: 4009768124
I1018 15:58:37.152487 23067 layer_factory.hpp:77] Creating layer loss_5_o_Clock_Shadow
I1018 15:58:37.152495 23067 net.cpp:91] Creating Layer loss_5_o_Clock_Shadow
I1018 15:58:37.152500 23067 net.cpp:425] loss_5_o_Clock_Shadow <- fc3_5_o_Clock_Shadow
I1018 15:58:37.152505 23067 net.cpp:425] loss_5_o_Clock_Shadow <- label_5_o_Clock_Shadow
I1018 15:58:37.152511 23067 net.cpp:399] loss_5_o_Clock_Shadow -> loss_5_o_Clock_Shadow
I1018 15:58:37.152555 23067 net.cpp:141] Setting up loss_5_o_Clock_Shadow
I1018 15:58:37.152565 23067 net.cpp:148] Top shape: (1)
I1018 15:58:37.152568 23067 net.cpp:151]     with loss weight 1
I1018 15:58:37.152573 23067 net.cpp:156] Memory required for data: 4009768128
I1018 15:58:37.152576 23067 layer_factory.hpp:77] Creating layer fc3_Mustache
I1018 15:58:37.152585 23067 net.cpp:91] Creating Layer fc3_Mustache
I1018 15:58:37.152600 23067 net.cpp:425] fc3_Mustache <- fc2_facialhair_drop2_facialhair_0_split_1
I1018 15:58:37.152606 23067 net.cpp:399] fc3_Mustache -> fc3_Mustache
I1018 15:58:37.152731 23067 net.cpp:141] Setting up fc3_Mustache
I1018 15:58:37.152743 23067 net.cpp:148] Top shape: 100 2 (200)
I1018 15:58:37.152747 23067 net.cpp:156] Memory required for data: 4009768928
I1018 15:58:37.152753 23067 layer_factory.hpp:77] Creating layer loss_Mustache
I1018 15:58:37.152763 23067 net.cpp:91] Creating Layer loss_Mustache
I1018 15:58:37.152767 23067 net.cpp:425] loss_Mustache <- fc3_Mustache
I1018 15:58:37.152772 23067 net.cpp:425] loss_Mustache <- label_Mustache
I1018 15:58:37.152779 23067 net.cpp:399] loss_Mustache -> loss_Mustache
I1018 15:58:37.152824 23067 net.cpp:141] Setting up loss_Mustache
I1018 15:58:37.152832 23067 net.cpp:148] Top shape: (1)
I1018 15:58:37.152837 23067 net.cpp:151]     with loss weight 1
I1018 15:58:37.152842 23067 net.cpp:156] Memory required for data: 4009768932
I1018 15:58:37.152845 23067 layer_factory.hpp:77] Creating layer fc3_No_Beard
I1018 15:58:37.152853 23067 net.cpp:91] Creating Layer fc3_No_Beard
I1018 15:58:37.152858 23067 net.cpp:425] fc3_No_Beard <- fc2_facialhair_drop2_facialhair_0_split_2
I1018 15:58:37.152864 23067 net.cpp:399] fc3_No_Beard -> fc3_No_Beard
I1018 15:58:37.152989 23067 net.cpp:141] Setting up fc3_No_Beard
I1018 15:58:37.152999 23067 net.cpp:148] Top shape: 100 2 (200)
I1018 15:58:37.153003 23067 net.cpp:156] Memory required for data: 4009769732
I1018 15:58:37.153009 23067 layer_factory.hpp:77] Creating layer loss_No_Beard
I1018 15:58:37.153019 23067 net.cpp:91] Creating Layer loss_No_Beard
I1018 15:58:37.153023 23067 net.cpp:425] loss_No_Beard <- fc3_No_Beard
I1018 15:58:37.153028 23067 net.cpp:425] loss_No_Beard <- label_No_Beard
I1018 15:58:37.153034 23067 net.cpp:399] loss_No_Beard -> loss_No_Beard
I1018 15:58:37.153079 23067 net.cpp:141] Setting up loss_No_Beard
I1018 15:58:37.153086 23067 net.cpp:148] Top shape: (1)
I1018 15:58:37.153090 23067 net.cpp:151]     with loss weight 1
I1018 15:58:37.153095 23067 net.cpp:156] Memory required for data: 4009769736
I1018 15:58:37.153100 23067 layer_factory.hpp:77] Creating layer fc3_Sideburns
I1018 15:58:37.153107 23067 net.cpp:91] Creating Layer fc3_Sideburns
I1018 15:58:37.153111 23067 net.cpp:425] fc3_Sideburns <- fc2_facialhair_drop2_facialhair_0_split_3
I1018 15:58:37.153118 23067 net.cpp:399] fc3_Sideburns -> fc3_Sideburns
I1018 15:58:37.153239 23067 net.cpp:141] Setting up fc3_Sideburns
I1018 15:58:37.153249 23067 net.cpp:148] Top shape: 100 2 (200)
I1018 15:58:37.153252 23067 net.cpp:156] Memory required for data: 4009770536
I1018 15:58:37.153259 23067 layer_factory.hpp:77] Creating layer loss_Sideburns
I1018 15:58:37.153268 23067 net.cpp:91] Creating Layer loss_Sideburns
I1018 15:58:37.153277 23067 net.cpp:425] loss_Sideburns <- fc3_Sideburns
I1018 15:58:37.153283 23067 net.cpp:425] loss_Sideburns <- label_Sideburns
I1018 15:58:37.153290 23067 net.cpp:399] loss_Sideburns -> loss_Sideburns
I1018 15:58:37.153336 23067 net.cpp:141] Setting up loss_Sideburns
I1018 15:58:37.153345 23067 net.cpp:148] Top shape: (1)
I1018 15:58:37.153349 23067 net.cpp:151]     with loss weight 1
I1018 15:58:37.153354 23067 net.cpp:156] Memory required for data: 4009770540
I1018 15:58:37.153357 23067 layer_factory.hpp:77] Creating layer fc3_Goatee
I1018 15:58:37.153365 23067 net.cpp:91] Creating Layer fc3_Goatee
I1018 15:58:37.153369 23067 net.cpp:425] fc3_Goatee <- fc2_facialhair_drop2_facialhair_0_split_4
I1018 15:58:37.153376 23067 net.cpp:399] fc3_Goatee -> fc3_Goatee
I1018 15:58:37.153498 23067 net.cpp:141] Setting up fc3_Goatee
I1018 15:58:37.153508 23067 net.cpp:148] Top shape: 100 2 (200)
I1018 15:58:37.153514 23067 net.cpp:156] Memory required for data: 4009771340
I1018 15:58:37.153522 23067 layer_factory.hpp:77] Creating layer loss_Goatee
I1018 15:58:37.153530 23067 net.cpp:91] Creating Layer loss_Goatee
I1018 15:58:37.153534 23067 net.cpp:425] loss_Goatee <- fc3_Goatee
I1018 15:58:37.153542 23067 net.cpp:425] loss_Goatee <- label_Goatee
I1018 15:58:37.153561 23067 net.cpp:399] loss_Goatee -> loss_Goatee
I1018 15:58:37.153604 23067 net.cpp:141] Setting up loss_Goatee
I1018 15:58:37.153614 23067 net.cpp:148] Top shape: (1)
I1018 15:58:37.153617 23067 net.cpp:151]     with loss weight 1
I1018 15:58:37.153622 23067 net.cpp:156] Memory required for data: 4009771344
I1018 15:58:37.153625 23067 layer_factory.hpp:77] Creating layer fc3_High_Cheekbones
I1018 15:58:37.153632 23067 net.cpp:91] Creating Layer fc3_High_Cheekbones
I1018 15:58:37.153637 23067 net.cpp:425] fc3_High_Cheekbones <- fc2_cheeks_drop2_cheeks_0_split_0
I1018 15:58:37.153645 23067 net.cpp:399] fc3_High_Cheekbones -> fc3_High_Cheekbones
I1018 15:58:37.153761 23067 net.cpp:141] Setting up fc3_High_Cheekbones
I1018 15:58:37.153771 23067 net.cpp:148] Top shape: 100 2 (200)
I1018 15:58:37.153775 23067 net.cpp:156] Memory required for data: 4009772144
I1018 15:58:37.153784 23067 layer_factory.hpp:77] Creating layer loss_High_Cheekbones
I1018 15:58:37.153791 23067 net.cpp:91] Creating Layer loss_High_Cheekbones
I1018 15:58:37.153796 23067 net.cpp:425] loss_High_Cheekbones <- fc3_High_Cheekbones
I1018 15:58:37.153801 23067 net.cpp:425] loss_High_Cheekbones <- label_High_Cheekbones
I1018 15:58:37.153810 23067 net.cpp:399] loss_High_Cheekbones -> loss_High_Cheekbones
I1018 15:58:37.153856 23067 net.cpp:141] Setting up loss_High_Cheekbones
I1018 15:58:37.153865 23067 net.cpp:148] Top shape: (1)
I1018 15:58:37.153869 23067 net.cpp:151]     with loss weight 1
I1018 15:58:37.153874 23067 net.cpp:156] Memory required for data: 4009772148
I1018 15:58:37.153878 23067 layer_factory.hpp:77] Creating layer fc3_Rosy_Cheeks
I1018 15:58:37.153887 23067 net.cpp:91] Creating Layer fc3_Rosy_Cheeks
…
I1018 15:58:39.486704 23067 net.cpp:141] Setting up loss_Male
I1018 15:58:39.486716 23067 net.cpp:148] Top shape: (1)
I1018 15:58:39.486719 23067 net.cpp:151]     with loss weight 1
I1018 15:58:39.486742 23067 net.cpp:156] Memory required for data: 2566236676
I1018 15:58:39.486748 23067 layer_factory.hpp:77] Creating layer fc3_Big_Nose
I1018 15:58:39.486755 23067 net.cpp:91] Creating Layer fc3_Big_Nose
I1018 15:58:39.486760 23067 net.cpp:425] fc3_Big_Nose <- fc2_nose_drop2_nose_0_split_0
I1018 15:58:39.486770 23067 net.cpp:399] fc3_Big_Nose -> fc3_Big_Nose
I1018 15:58:39.486908 23067 net.cpp:141] Setting up fc3_Big_Nose
I1018 15:58:39.486918 23067 net.cpp:148] Top shape: 64 2 (128)
I1018 15:58:39.486922 23067 net.cpp:156] Memory required for data: 2566237188
I1018 15:58:39.486929 23067 layer_factory.hpp:77] Creating layer loss_Big_Nose
I1018 15:58:39.486938 23067 net.cpp:91] Creating Layer loss_Big_Nose
I1018 15:58:39.486943 23067 net.cpp:425] loss_Big_Nose <- fc3_Big_Nose
I1018 15:58:39.486948 23067 net.cpp:425] loss_Big_Nose <- label_Big_Nose
I1018 15:58:39.486956 23067 net.cpp:399] loss_Big_Nose -> loss_Big_Nose
I1018 15:58:39.487002 23067 net.cpp:141] Setting up loss_Big_Nose
I1018 15:58:39.487011 23067 net.cpp:148] Top shape: (1)
I1018 15:58:39.487015 23067 net.cpp:151]     with loss weight 1
I1018 15:58:39.487026 23067 net.cpp:156] Memory required for data: 2566237192
I1018 15:58:39.487032 23067 layer_factory.hpp:77] Creating layer fc3_Pointy_Nose
I1018 15:58:39.487041 23067 net.cpp:91] Creating Layer fc3_Pointy_Nose
I1018 15:58:39.487046 23067 net.cpp:425] fc3_Pointy_Nose <- fc2_nose_drop2_nose_0_split_1
I1018 15:58:39.487054 23067 net.cpp:399] fc3_Pointy_Nose -> fc3_Pointy_Nose
I1018 15:58:39.487191 23067 net.cpp:141] Setting up fc3_Pointy_Nose
I1018 15:58:39.487202 23067 net.cpp:148] Top shape: 64 2 (128)
I1018 15:58:39.487206 23067 net.cpp:156] Memory required for data: 2566237704
I1018 15:58:39.487241 23067 layer_factory.hpp:77] Creating layer loss_Pointy_Nose
I1018 15:58:39.487253 23067 net.cpp:91] Creating Layer loss_Pointy_Nose
I1018 15:58:39.487258 23067 net.cpp:425] loss_Pointy_Nose <- fc3_Pointy_Nose
I1018 15:58:39.487264 23067 net.cpp:425] loss_Pointy_Nose <- label_Pointy_Nose
I1018 15:58:39.487272 23067 net.cpp:399] loss_Pointy_Nose -> loss_Pointy_Nose
I1018 15:58:39.487325 23067 net.cpp:141] Setting up loss_Pointy_Nose
I1018 15:58:39.487335 23067 net.cpp:148] Top shape: (1)
I1018 15:58:39.487339 23067 net.cpp:151]     with loss weight 1
I1018 15:58:39.487360 23067 net.cpp:156] Memory required for data: 2566237708
I1018 15:58:39.487365 23067 layer_factory.hpp:77] Creating layer fc3_Big_Lips
I1018 15:58:39.487373 23067 net.cpp:91] Creating Layer fc3_Big_Lips
I1018 15:58:39.487378 23067 net.cpp:425] fc3_Big_Lips <- fc2_mouth_drop2_mouth_0_split_0
I1018 15:58:39.487385 23067 net.cpp:399] fc3_Big_Lips -> fc3_Big_Lips
I1018 15:58:39.487531 23067 net.cpp:141] Setting up fc3_Big_Lips
I1018 15:58:39.487542 23067 net.cpp:148] Top shape: 64 2 (128)
I1018 15:58:39.487546 23067 net.cpp:156] Memory required for data: 2566238220
I1018 15:58:39.487553 23067 layer_factory.hpp:77] Creating layer loss_Big_Lips
I1018 15:58:39.487562 23067 net.cpp:91] Creating Layer loss_Big_Lips
I1018 15:58:39.487566 23067 net.cpp:425] loss_Big_Lips <- fc3_Big_Lips
I1018 15:58:39.487572 23067 net.cpp:425] loss_Big_Lips <- label_Big_Lips
I1018 15:58:39.487581 23067 net.cpp:399] loss_Big_Lips -> loss_Big_Lips
I1018 15:58:39.487627 23067 net.cpp:141] Setting up loss_Big_Lips
I1018 15:58:39.487637 23067 net.cpp:148] Top shape: (1)
I1018 15:58:39.487640 23067 net.cpp:151]     with loss weight 1
I1018 15:58:39.487646 23067 net.cpp:156] Memory required for data: 2566238224
I1018 15:58:39.487650 23067 layer_factory.hpp:77] Creating layer fc3_Smiling
I1018 15:58:39.487663 23067 net.cpp:91] Creating Layer fc3_Smiling
I1018 15:58:39.487669 23067 net.cpp:425] fc3_Smiling <- fc2_mouth_drop2_mouth_0_split_1
I1018 15:58:39.487676 23067 net.cpp:399] fc3_Smiling -> fc3_Smiling
I1018 15:58:39.487839 23067 net.cpp:141] Setting up fc3_Smiling
I1018 15:58:39.487851 23067 net.cpp:148] Top shape: 64 2 (128)
I1018 15:58:39.487855 23067 net.cpp:156] Memory required for data: 2566238736
I1018 15:58:39.487862 23067 layer_factory.hpp:77] Creating layer loss_Smiling
I1018 15:58:39.487872 23067 net.cpp:91] Creating Layer loss_Smiling
I1018 15:58:39.487877 23067 net.cpp:425] loss_Smiling <- fc3_Smiling
I1018 15:58:39.487884 23067 net.cpp:425] loss_Smiling <- label_Smiling
I1018 15:58:39.487890 23067 net.cpp:399] loss_Smiling -> loss_Smiling
I1018 15:58:39.487946 23067 net.cpp:141] Setting up loss_Smiling
I1018 15:58:39.487957 23067 net.cpp:148] Top shape: (1)
I1018 15:58:39.487960 23067 net.cpp:151]     with loss weight 1
I1018 15:58:39.487967 23067 net.cpp:156] Memory required for data: 2566238740
I1018 15:58:39.487972 23067 layer_factory.hpp:77] Creating layer fc3_Wearing_Lipstick
I1018 15:58:39.487980 23067 net.cpp:91] Creating Layer fc3_Wearing_Lipstick
I1018 15:58:39.487993 23067 net.cpp:425] fc3_Wearing_Lipstick <- fc2_mouth_drop2_mouth_0_split_2
I1018 15:58:39.488000 23067 net.cpp:399] fc3_Wearing_Lipstick -> fc3_Wearing_Lipstick
I1018 15:58:39.488159 23067 net.cpp:141] Setting up fc3_Wearing_Lipstick
I1018 15:58:39.488170 23067 net.cpp:148] Top shape: 64 2 (128)
I1018 15:58:39.488174 23067 net.cpp:156] Memory required for data: 2566239252
I1018 15:58:39.488181 23067 layer_factory.hpp:77] Creating layer loss_Wearing_Lipstick
I1018 15:58:39.488191 23067 net.cpp:91] Creating Layer loss_Wearing_Lipstick
I1018 15:58:39.488196 23067 net.cpp:425] loss_Wearing_Lipstick <- fc3_Wearing_Lipstick
I1018 15:58:39.488203 23067 net.cpp:425] loss_Wearing_Lipstick <- label_Wearing_Lipstick
I1018 15:58:39.488216 23067 net.cpp:399] loss_Wearing_Lipstick -> loss_Wearing_Lipstick
I1018 15:58:39.488266 23067 net.cpp:141] Setting up loss_Wearing_Lipstick
I1018 15:58:39.488276 23067 net.cpp:148] Top shape: (1)
I1018 15:58:39.488284 23067 net.cpp:151]     with loss weight 1
I1018 15:58:39.488292 23067 net.cpp:156] Memory required for data: 2566239256
I1018 15:58:39.488297 23067 layer_factory.hpp:77] Creating layer fc3_Mouth_Slightly_Open
I1018 15:58:39.488306 23067 net.cpp:91] Creating Layer fc3_Mouth_Slightly_Open
I1018 15:58:39.488312 23067 net.cpp:425] fc3_Mouth_Slightly_Open <- fc2_mouth_drop2_mouth_0_split_3
I1018 15:58:39.488317 23067 net.cpp:399] fc3_Mouth_Slightly_Open -> fc3_Mouth_Slightly_Open
I1018 15:58:39.488458 23067 net.cpp:141] Setting up fc3_Mouth_Slightly_Open
I1018 15:58:39.488471 23067 net.cpp:148] Top shape: 64 2 (128)
I1018 15:58:39.488486 23067 net.cpp:156] Memory required for data: 2566239768
I1018 15:58:39.488493 23067 layer_factory.hpp:77] Creating layer loss_Mouth_Slightly_Open
I1018 15:58:39.488507 23067 net.cpp:91] Creating Layer loss_Mouth_Slightly_Open
I1018 15:58:39.488513 23067 net.cpp:425] loss_Mouth_Slightly_Open <- fc3_Mouth_Slightly_Open
I1018 15:58:39.488519 23067 net.cpp:425] loss_Mouth_Slightly_Open <- label_Mouth_Slightly_Open
I1018 15:58:39.488528 23067 net.cpp:399] loss_Mouth_Slightly_Open -> loss_Mouth_Slightly_Open
I1018 15:58:39.488576 23067 net.cpp:141] Setting up loss_Mouth_Slightly_Open
I1018 15:58:39.488585 23067 net.cpp:148] Top shape: (1)
I1018 15:58:39.488590 23067 net.cpp:151]     with loss weight 1
I1018 15:58:39.488595 23067 net.cpp:156] Memory required for data: 2566239772
I1018 15:58:39.488600 23067 layer_factory.hpp:77] Creating layer fc3_Arched_Eyebrows
I1018 15:58:39.488607 23067 net.cpp:91] Creating Layer fc3_Arched_Eyebrows
I1018 15:58:39.488618 23067 net.cpp:425] fc3_Arched_Eyebrows <- fc2_eyes_drop2_eyes_0_split_0
I1018 15:58:39.488627 23067 net.cpp:399] fc3_Arched_Eyebrows -> fc3_Arched_Eyebrows
I1018 15:58:39.488761 23067 net.cpp:141] Setting up fc3_Arched_Eyebrows
I1018 15:58:39.488771 23067 net.cpp:148] Top shape: 64 2 (128)
I1018 15:58:39.488775 23067 net.cpp:156] Memory required for data: 2566240284
I1018 15:58:39.488783 23067 layer_factory.hpp:77] Creating layer loss_Arched_Eyebrows
I1018 15:58:39.488795 23067 net.cpp:91] Creating Layer loss_Arched_Eyebrows
I1018 15:58:39.488803 23067 net.cpp:425] loss_Arched_Eyebrows <- fc3_Arched_Eyebrows
I1018 15:58:39.488809 23067 net.cpp:425] loss_Arched_Eyebrows <- label_Arched_Eyebrows
I1018 15:58:39.488816 23067 net.cpp:399] loss_Arched_Eyebrows -> loss_Arched_Eyebrows
I1018 15:58:39.488868 23067 net.cpp:141] Setting up loss_Arched_Eyebrows
I1018 15:58:39.488878 23067 net.cpp:148] Top shape: (1)
I1018 15:58:39.488883 23067 net.cpp:151]     with loss weight 1
I1018 15:58:39.488888 23067 net.cpp:156] Memory required for data: 2566240288
I1018 15:58:39.488891 23067 layer_factory.hpp:77] Creating layer fc3_Bags_Under_Eyes
I1018 15:58:39.488900 23067 net.cpp:91] Creating Layer fc3_Bags_Under_Eyes
I1018 15:58:39.488905 23067 net.cpp:425] fc3_Bags_Under_Eyes <- fc2_eyes_drop2_eyes_0_split_1
I1018 15:58:39.488912 23067 net.cpp:399] fc3_Bags_Under_Eyes -> fc3_Bags_Under_Eyes
I1018 15:58:39.489050 23067 net.cpp:141] Setting up fc3_Bags_Under_Eyes
I1018 15:58:39.489060 23067 net.cpp:148] Top shape: 64 2 (128)
I1018 15:58:39.489064 23067 net.cpp:156] Memory required for data: 2566240800
I1018 15:58:39.489071 23067 layer_factory.hpp:77] Creating layer loss_Bags_Under_Eyes
I1018 15:58:39.489084 23067 net.cpp:91] Creating Layer loss_Bags_Under_Eyes
I1018 15:58:39.489089 23067 net.cpp:425] loss_Bags_Under_Eyes <- fc3_Bags_Under_Eyes
I1018 15:58:39.489095 23067 net.cpp:425] loss_Bags_Under_Eyes <- label_Bags_Under_Eyes
I1018 15:58:39.489104 23067 net.cpp:399] loss_Bags_Under_Eyes -> loss_Bags_Under_Eyes
I1018 15:58:39.489156 23067 net.cpp:141] Setting up loss_Bags_Under_Eyes
I1018 15:58:39.489164 23067 net.cpp:148] Top shape: (1)
I1018 15:58:39.489168 23067 net.cpp:151]     with loss weight 1
I1018 15:58:39.489174 23067 net.cpp:156] Memory required for data: 2566240804
I1018 15:58:39.489177 23067 layer_factory.hpp:77] Creating layer fc3_Bushy_Eyebrows
I1018 15:58:39.489184 23067 net.cpp:91] Creating Layer fc3_Bushy_Eyebrows
I1018 15:58:39.489189 23067 net.cpp:425] fc3_Bushy_Eyebrows <- fc2_eyes_drop2_eyes_0_split_2
I1018 15:58:39.489198 23067 net.cpp:399] fc3_Bushy_Eyebrows -> fc3_Bushy_Eyebrows
I1018 15:58:39.489339 23067 net.cpp:141] Setting up fc3_Bushy_Eyebrows
I1018 15:58:39.489351 23067 net.cpp:148] Top shape: 64 2 (128)
I1018 15:58:39.489354 23067 net.cpp:156] Memory required for data: 2566241316
I1018 15:58:39.489362 23067 layer_factory.hpp:77] Creating layer loss_Bushy_Eyebrows
I1018 15:58:39.489372 23067 net.cpp:91] Creating Layer loss_Bushy_Eyebrows
I1018 15:58:39.489377 23067 net.cpp:425] loss_Bushy_Eyebrows <- fc3_Bushy_Eyebrows
I1018 15:58:39.489398 23067 net.cpp:425] loss_Bushy_Eyebrows <- label_Bushy_Eyebrows
I1018 15:58:39.489404 23067 net.cpp:399] loss_Bushy_Eyebrows -> loss_Bushy_Eyebrows
I1018 15:58:39.489455 23067 net.cpp:141] Setting up loss_Bushy_Eyebrows
I1018 15:58:39.489464 23067 net.cpp:148] Top shape: (1)
I1018 15:58:39.489469 23067 net.cpp:151]     with loss weight 1
I1018 15:58:39.489475 23067 net.cpp:156] Memory required for data: 2566241320
I1018 15:58:39.489478 23067 layer_factory.hpp:77] Creating layer fc3_Narrow_Eyes
I1018 15:58:39.489492 23067 net.cpp:91] Creating Layer fc3_Narrow_Eyes
I1018 15:58:39.489500 23067 net.cpp:425] fc3_Narrow_Eyes <- fc2_eyes_drop2_eyes_0_split_3
I1018 15:58:39.489506 23067 net.cpp:399] fc3_Narrow_Eyes -> fc3_Narrow_Eyes
I1018 15:58:39.489645 23067 net.cpp:141] Setting up fc3_Narrow_Eyes
I1018 15:58:39.489655 23067 net.cpp:148] Top shape: 64 2 (128)
I1018 15:58:39.489660 23067 net.cpp:156] Memory required for data: 2566241832
I1018 15:58:39.489665 23067 layer_factory.hpp:77] Creating layer loss_Narrow_Eyes
I1018 15:58:39.489677 23067 net.cpp:91] Creating Layer loss_Narrow_Eyes
I1018 15:58:39.489683 23067 net.cpp:425] loss_Narrow_Eyes <- fc3_Narrow_Eyes
I1018 15:58:39.489689 23067 net.cpp:425] loss_Narrow_Eyes <- label_Narrow_Eyes
I1018 15:58:39.489701 23067 net.cpp:399] loss_Narrow_Eyes -> loss_Narrow_Eyes
I1018 15:58:39.489753 23067 net.cpp:141] Setting up loss_Narrow_Eyes
I1018 15:58:39.489764 23067 net.cpp:148] Top shape: (1)
I1018 15:58:39.489768 23067 net.cpp:151]     with loss weight 1
I1018 15:58:39.489774 23067 net.cpp:156] Memory required for data: 2566241836
I1018 15:58:39.489778 23067 layer_factory.hpp:77] Creating layer fc3_Eyeglasses
I1018 15:58:39.489787 23067 net.cpp:91] Creating Layer fc3_Eyeglasses
I1018 15:58:39.489791 23067 net.cpp:425] fc3_Eyeglasses <- fc2_eyes_drop2_eyes_0_split_4
I1018 15:58:39.489797 23067 net.cpp:399] fc3_Eyeglasses -> fc3_Eyeglasses
I1018 15:58:39.489938 23067 net.cpp:141] Setting up fc3_Eyeglasses
I1018 15:58:39.489948 23067 net.cpp:148] Top shape: 64 2 (128)
I1018 15:58:39.489953 23067 net.cpp:156] Memory required for data: 2566242348
I1018 15:58:39.489959 23067 layer_factory.hpp:77] Creating layer loss_Eyeglasses
I1018 15:58:39.489969 23067 net.cpp:91] Creating Layer loss_Eyeglasses
I1018 15:58:39.489977 23067 net.cpp:425] loss_Eyeglasses <- fc3_Eyeglasses
I1018 15:58:39.489984 23067 net.cpp:425] loss_Eyeglasses <- label_Eyeglasses
I1018 15:58:39.489989 23067 net.cpp:399] loss_Eyeglasses -> loss_Eyeglasses
I1018 15:58:39.490042 23067 net.cpp:141] Setting up loss_Eyeglasses
I1018 15:58:39.490052 23067 net.cpp:148] Top shape: (1)
I1018 15:58:39.490056 23067 net.cpp:151]     with loss weight 1
I1018 15:58:39.490061 23067 net.cpp:156] Memory required for data: 2566242352
I1018 15:58:39.490067 23067 layer_factory.hpp:77] Creating layer fc3_Attractive
I1018 15:58:39.490073 23067 net.cpp:91] Creating Layer fc3_Attractive
I1018 15:58:39.490078 23067 net.cpp:425] fc3_Attractive <- fc2_face_drop2_face_0_split_0
I1018 15:58:39.490084 23067 net.cpp:399] fc3_Attractive -> fc3_Attractive
I1018 15:58:39.490227 23067 net.cpp:141] Setting up fc3_Attractive
I1018 15:58:39.490238 23067 net.cpp:148] Top shape: 64 2 (128)
I1018 15:58:39.490242 23067 net.cpp:156] Memory required for data: 2566242864
I1018 15:58:39.490248 23067 layer_factory.hpp:77] Creating layer loss_Attractive
I1018 15:58:39.490259 23067 net.cpp:91] Creating Layer loss_Attractive
I1018 15:58:39.490267 23067 net.cpp:425] loss_Attractive <- fc3_Attractive
I1018 15:58:39.490272 23067 net.cpp:425] loss_Attractive <- label_Attractive
I1018 15:58:39.490279 23067 net.cpp:399] loss_Attractive -> loss_Attractive
I1018 15:58:39.490329 23067 net.cpp:141] Setting up loss_Attractive
I1018 15:58:39.490337 23067 net.cpp:148] Top shape: (1)
I1018 15:58:39.490341 23067 net.cpp:151]     with loss weight 1
I1018 15:58:39.490347 23067 net.cpp:156] Memory required for data: 2566242868
I1018 15:58:39.490351 23067 layer_factory.hpp:77] Creating layer fc3_Blurry
I1018 15:58:39.490357 23067 net.cpp:91] Creating Layer fc3_Blurry
I1018 15:58:39.490376 23067 net.cpp:425] fc3_Blurry <- fc2_face_drop2_face_0_split_1
I1018 15:58:39.490384 23067 net.cpp:399] fc3_Blurry -> fc3_Blurry
I1018 15:58:39.490525 23067 net.cpp:141] Setting up fc3_Blurry
I1018 15:58:39.490535 23067 net.cpp:148] Top shape: 64 2 (128)
I1018 15:58:39.490540 23067 net.cpp:156] Memory required for data: 2566243380
I1018 15:58:39.490547 23067 layer_factory.hpp:77] Creating layer loss_Blurry
I1018 15:58:39.490556 23067 net.cpp:91] Creating Layer loss_Blurry
I1018 15:58:39.490561 23067 net.cpp:425] loss_Blurry <- fc3_Blurry
I1018 15:58:39.490567 23067 net.cpp:425] loss_Blurry <- label_Blurry
I1018 15:58:39.490577 23067 net.cpp:399] loss_Blurry -> loss_Blurry
I1018 15:58:39.490628 23067 net.cpp:141] Setting up loss_Blurry
I1018 15:58:39.490638 23067 net.cpp:148] Top shape: (1)
I1018 15:58:39.490641 23067 net.cpp:151]     with loss weight 1
I1018 15:58:39.490648 23067 net.cpp:156] Memory required for data: 2566243384
I1018 15:58:39.490651 23067 layer_factory.hpp:77] Creating layer fc3_Oval_Face
I1018 15:58:39.490659 23067 net.cpp:91] Creating Layer fc3_Oval_Face
I1018 15:58:39.490664 23067 net.cpp:425] fc3_Oval_Face <- fc2_face_drop2_face_0_split_2
I1018 15:58:39.490676 23067 net.cpp:399] fc3_Oval_Face -> fc3_Oval_Face
I1018 15:58:39.490821 23067 net.cpp:141] Setting up fc3_Oval_Face
I1018 15:58:39.490833 23067 net.cpp:148] Top shape: 64 2 (128)
I1018 15:58:39.490836 23067 net.cpp:156] Memory required for data: 2566243896
I1018 15:58:39.490844 23067 layer_factory.hpp:77] Creating layer loss_Oval_Face
I1018 15:58:39.490857 23067 net.cpp:91] Creating Layer loss_Oval_Face
I1018 15:58:39.490864 23067 net.cpp:425] loss_Oval_Face <- fc3_Oval_Face
I1018 15:58:39.490875 23067 net.cpp:425] loss_Oval_Face <- label_Oval_Face
I1018 15:58:39.490882 23067 net.cpp:399] loss_Oval_Face -> loss_Oval_Face
I1018 15:58:39.490932 23067 net.cpp:141] Setting up loss_Oval_Face
I1018 15:58:39.490942 23067 net.cpp:148] Top shape: (1)
I1018 15:58:39.490944 23067 net.cpp:151]     with loss weight 1
I1018 15:58:39.490950 23067 net.cpp:156] Memory required for data: 2566243900
I1018 15:58:39.490954 23067 layer_factory.hpp:77] Creating layer fc3_Pale_Skin
I1018 15:58:39.490960 23067 net.cpp:91] Creating Layer fc3_Pale_Skin
I1018 15:58:39.490972 23067 net.cpp:425] fc3_Pale_Skin <- fc2_face_drop2_face_0_split_3
I1018 15:58:39.490978 23067 net.cpp:399] fc3_Pale_Skin -> fc3_Pale_Skin
I1018 15:58:39.491116 23067 net.cpp:141] Setting up fc3_Pale_Skin
I1018 15:58:39.491125 23067 net.cpp:148] Top shape: 64 2 (128)
I1018 15:58:39.491129 23067 net.cpp:156] Memory required for data: 2566244412
I1018 15:58:39.491137 23067 layer_factory.hpp:77] Creating layer loss_Pale_Skin
I1018 15:58:39.491144 23067 net.cpp:91] Creating Layer loss_Pale_Skin
I1018 15:58:39.491148 23067 net.cpp:425] loss_Pale_Skin <- fc3_Pale_Skin
I1018 15:58:39.491155 23067 net.cpp:425] loss_Pale_Skin <- label_Pale_Skin
I1018 15:58:39.491166 23067 net.cpp:399] loss_Pale_Skin -> loss_Pale_Skin
I1018 15:58:39.491220 23067 net.cpp:141] Setting up loss_Pale_Skin
I1018 15:58:39.491230 23067 net.cpp:148] Top shape: (1)
I1018 15:58:39.491235 23067 net.cpp:151]     with loss weight 1
I1018 15:58:39.491240 23067 net.cpp:156] Memory required for data: 2566244416
I1018 15:58:39.491243 23067 layer_factory.hpp:77] Creating layer fc3_Young
I1018 15:58:39.491250 23067 net.cpp:91] Creating Layer fc3_Young
I1018 15:58:39.491255 23067 net.cpp:425] fc3_Young <- fc2_face_drop2_face_0_split_4
I1018 15:58:39.491261 23067 net.cpp:399] fc3_Young -> fc3_Young
I1018 15:58:39.491397 23067 net.cpp:141] Setting up fc3_Young
I1018 15:58:39.491408 23067 net.cpp:148] Top shape: 64 2 (128)
I1018 15:58:39.491412 23067 net.cpp:156] Memory required for data: 2566244928
I1018 15:58:39.491418 23067 layer_factory.hpp:77] Creating layer loss_Young
I1018 15:58:39.491425 23067 net.cpp:91] Creating Layer loss_Young
I1018 15:58:39.491430 23067 net.cpp:425] loss_Young <- fc3_Young
I1018 15:58:39.491436 23067 net.cpp:425] loss_Young <- label_Young
I1018 15:58:39.491448 23067 net.cpp:399] loss_Young -> loss_Young
I1018 15:58:39.491516 23067 net.cpp:141] Setting up loss_Young
I1018 15:58:39.491528 23067 net.cpp:148] Top shape: (1)
I1018 15:58:39.491531 23067 net.cpp:151]     with loss weight 1
I1018 15:58:39.491538 23067 net.cpp:156] Memory required for data: 2566244932
I1018 15:58:39.491541 23067 layer_factory.hpp:77] Creating layer fc3_Heavy_Makeup
I1018 15:58:39.491549 23067 net.cpp:91] Creating Layer fc3_Heavy_Makeup
I1018 15:58:39.491554 23067 net.cpp:425] fc3_Heavy_Makeup <- fc2_face_drop2_face_0_split_5
I1018 15:58:39.491560 23067 net.cpp:399] fc3_Heavy_Makeup -> fc3_Heavy_Makeup
I1018 15:58:39.491696 23067 net.cpp:141] Setting up fc3_Heavy_Makeup
I1018 15:58:39.491708 23067 net.cpp:148] Top shape: 64 2 (128)
I1018 15:58:39.491711 23067 net.cpp:156] Memory required for data: 2566245444
I1018 15:58:39.491719 23067 layer_factory.hpp:77] Creating layer loss_Heavy_Makeup
I1018 15:58:39.491726 23067 net.cpp:91] Creating Layer loss_Heavy_Makeup
I1018 15:58:39.491730 23067 net.cpp:425] loss_Heavy_Makeup <- fc3_Heavy_Makeup
I1018 15:58:39.491736 23067 net.cpp:425] loss_Heavy_Makeup <- label_Heavy_Makeup
I1018 15:58:39.491750 23067 net.cpp:399] loss_Heavy_Makeup -> loss_Heavy_Makeup
I1018 15:58:39.491801 23067 net.cpp:141] Setting up loss_Heavy_Makeup
I1018 15:58:39.491816 23067 net.cpp:148] Top shape: (1)
I1018 15:58:39.491821 23067 net.cpp:151]     with loss weight 1
I1018 15:58:39.491825 23067 net.cpp:156] Memory required for data: 2566245448
I1018 15:58:39.491829 23067 layer_factory.hpp:77] Creating layer fc3_Black_Hair
I1018 15:58:39.491838 23067 net.cpp:91] Creating Layer fc3_Black_Hair
I1018 15:58:39.491843 23067 net.cpp:425] fc3_Black_Hair <- fc2_aroundhead_drop2_aroundhead_0_split_0
I1018 15:58:39.491850 23067 net.cpp:399] fc3_Black_Hair -> fc3_Black_Hair
I1018 15:58:39.491987 23067 net.cpp:141] Setting up fc3_Black_Hair
I1018 15:58:39.492000 23067 net.cpp:148] Top shape: 64 2 (128)
I1018 15:58:39.492004 23067 net.cpp:156] Memory required for data: 2566245960
I1018 15:58:39.492012 23067 layer_factory.hpp:77] Creating layer loss_Black_Hair
I1018 15:58:39.492022 23067 net.cpp:91] Creating Layer loss_Black_Hair
I1018 15:58:39.492027 23067 net.cpp:425] loss_Black_Hair <- fc3_Black_Hair
I1018 15:58:39.492032 23067 net.cpp:425] loss_Black_Hair <- label_Black_Hair
I1018 15:58:39.492039 23067 net.cpp:399] loss_Black_Hair -> loss_Black_Hair
I1018 15:58:39.492091 23067 net.cpp:141] Setting up loss_Black_Hair
I1018 15:58:39.492101 23067 net.cpp:148] Top shape: (1)
I1018 15:58:39.492105 23067 net.cpp:151]     with loss weight 1
I1018 15:58:39.492111 23067 net.cpp:156] Memory required for data: 2566245964
I1018 15:58:39.492115 23067 layer_factory.hpp:77] Creating layer fc3_Blond_Hair
I1018 15:58:39.492125 23067 net.cpp:91] Creating Layer fc3_Blond_Hair
I1018 15:58:39.492130 23067 net.cpp:425] fc3_Blond_Hair <- fc2_aroundhead_drop2_aroundhead_0_split_1
I1018 15:58:39.492141 23067 net.cpp:399] fc3_Blond_Hair -> fc3_Blond_Hair
I1018 15:58:39.492283 23067 net.cpp:141] Setting up fc3_Blond_Hair
I1018 15:58:39.492295 23067 net.cpp:148] Top shape: 64 2 (128)
I1018 15:58:39.492300 23067 net.cpp:156] Memory required for data: 2566246476
I1018 15:58:39.492307 23067 layer_factory.hpp:77] Creating layer loss_Blond_Hair
I1018 15:58:39.492314 23067 net.cpp:91] Creating Layer loss_Blond_Hair
I1018 15:58:39.492318 23067 net.cpp:425] loss_Blond_Hair <- fc3_Blond_Hair
I1018 15:58:39.492326 23067 net.cpp:425] loss_Blond_Hair <- label_Blond_Hair
I1018 15:58:39.492334 23067 net.cpp:399] loss_Blond_Hair -> loss_Blond_Hair
I1018 15:58:39.492384 23067 net.cpp:141] Setting up loss_Blond_Hair
I1018 15:58:39.492393 23067 net.cpp:148] Top shape: (1)
I1018 15:58:39.492396 23067 net.cpp:151]     with loss weight 1
I1018 15:58:39.492403 23067 net.cpp:156] Memory required for data: 2566246480
I1018 15:58:39.492408 23067 layer_factory.hpp:77] Creating layer fc3_Brown_Hair
I1018 15:58:39.492418 23067 net.cpp:91] Creating Layer fc3_Brown_Hair
I1018 15:58:39.492422 23067 net.cpp:425] fc3_Brown_Hair <- fc2_aroundhead_drop2_aroundhead_0_split_2
I1018 15:58:39.492429 23067 net.cpp:399] fc3_Brown_Hair -> fc3_Brown_Hair
I1018 15:58:39.492584 23067 net.cpp:141] Setting up fc3_Brown_Hair
I1018 15:58:39.492600 23067 net.cpp:148] Top shape: 64 2 (128)
I1018 15:58:39.492605 23067 net.cpp:156] Memory required for data: 2566246992
I1018 15:58:39.492612 23067 layer_factory.hpp:77] Creating layer loss_Brown_Hair
I1018 15:58:39.492619 23067 net.cpp:91] Creating Layer loss_Brown_Hair
I1018 15:58:39.492624 23067 net.cpp:425] loss_Brown_Hair <- fc3_Brown_Hair
I1018 15:58:39.492629 23067 net.cpp:425] loss_Brown_Hair <- label_Brown_Hair
I1018 15:58:39.492640 23067 net.cpp:399] loss_Brown_Hair -> loss_Brown_Hair
I1018 15:58:39.492686 23067 net.cpp:141] Setting up loss_Brown_Hair
I1018 15:58:39.492694 23067 net.cpp:148] Top shape: (1)
I1018 15:58:39.492697 23067 net.cpp:151]     with loss weight 1
I1018 15:58:39.492703 23067 net.cpp:156] Memory required for data: 2566246996
I1018 15:58:39.492707 23067 layer_factory.hpp:77] Creating layer fc3_Gray_Hair
I1018 15:58:39.492717 23067 net.cpp:91] Creating Layer fc3_Gray_Hair
I1018 15:58:39.492728 23067 net.cpp:425] fc3_Gray_Hair <- fc2_aroundhead_drop2_aroundhead_0_split_3
I1018 15:58:39.492735 23067 net.cpp:399] fc3_Gray_Hair -> fc3_Gray_Hair
I1018 15:58:39.492871 23067 net.cpp:141] Setting up fc3_Gray_Hair
I1018 15:58:39.492882 23067 net.cpp:148] Top shape: 64 2 (128)
I1018 15:58:39.492887 23067 net.cpp:156] Memory required for data: 2566247508
I1018 15:58:39.492894 23067 layer_factory.hpp:77] Creating layer loss_Gray_Hair
I1018 15:58:39.492902 23067 net.cpp:91] Creating Layer loss_Gray_Hair
I1018 15:58:39.492905 23067 net.cpp:425] loss_Gray_Hair <- fc3_Gray_Hair
I1018 15:58:39.492910 23067 net.cpp:425] loss_Gray_Hair <- label_Gray_Hair
I1018 15:58:39.492924 23067 net.cpp:399] loss_Gray_Hair -> loss_Gray_Hair
I1018 15:58:39.492974 23067 net.cpp:141] Setting up loss_Gray_Hair
I1018 15:58:39.492983 23067 net.cpp:148] Top shape: (1)
I1018 15:58:39.492986 23067 net.cpp:151]     with loss weight 1
I1018 15:58:39.492992 23067 net.cpp:156] Memory required for data: 2566247512
I1018 15:58:39.492995 23067 layer_factory.hpp:77] Creating layer fc3_Wearing_Earrings
I1018 15:58:39.493005 23067 net.cpp:91] Creating Layer fc3_Wearing_Earrings
I1018 15:58:39.493010 23067 net.cpp:425] fc3_Wearing_Earrings <- fc2_aroundhead_drop2_aroundhead_0_split_4
I1018 15:58:39.493023 23067 net.cpp:399] fc3_Wearing_Earrings -> fc3_Wearing_Earrings
I1018 15:58:39.493162 23067 net.cpp:141] Setting up fc3_Wearing_Earrings
I1018 15:58:39.493173 23067 net.cpp:148] Top shape: 64 2 (128)
I1018 15:58:39.493177 23067 net.cpp:156] Memory required for data: 2566248024
I1018 15:58:39.493183 23067 layer_factory.hpp:77] Creating layer loss_Wearing_Earrings
I1018 15:58:39.493196 23067 net.cpp:91] Creating Layer loss_Wearing_Earrings
I1018 15:58:39.493202 23067 net.cpp:425] loss_Wearing_Earrings <- fc3_Wearing_Earrings
I1018 15:58:39.493208 23067 net.cpp:425] loss_Wearing_Earrings <- label_Wearing_Earrings
I1018 15:58:39.493216 23067 net.cpp:399] loss_Wearing_Earrings -> loss_Wearing_Earrings
I1018 15:58:39.493261 23067 net.cpp:141] Setting up loss_Wearing_Earrings
I1018 15:58:39.493276 23067 net.cpp:148] Top shape: (1)
I1018 15:58:39.493280 23067 net.cpp:151]     with loss weight 1
I1018 15:58:39.493286 23067 net.cpp:156] Memory required for data: 2566248028
I1018 15:58:39.493289 23067 layer_factory.hpp:77] Creating layer fc3_Wearing_Necklace
I1018 15:58:39.493304 23067 net.cpp:91] Creating Layer fc3_Wearing_Necklace
I1018 15:58:39.493310 23067 net.cpp:425] fc3_Wearing_Necklace <- fc2_aroundhead_drop2_aroundhead_0_split_5
I1018 15:58:39.493317 23067 net.cpp:399] fc3_Wearing_Necklace -> fc3_Wearing_Necklace
I1018 15:58:39.493453 23067 net.cpp:141] Setting up fc3_Wearing_Necklace
I1018 15:58:39.493463 23067 net.cpp:148] Top shape: 64 2 (128)
I1018 15:58:39.493468 23067 net.cpp:156] Memory required for data: 2566248540
I1018 15:58:39.493474 23067 layer_factory.hpp:77] Creating layer loss_Wearing_Necklace
I1018 15:58:39.493486 23067 net.cpp:91] Creating Layer loss_Wearing_Necklace
I1018 15:58:39.493494 23067 net.cpp:425] loss_Wearing_Necklace <- fc3_Wearing_Necklace
I1018 15:58:39.493511 23067 net.cpp:425] loss_Wearing_Necklace <- label_Wearing_Necklace
I1018 15:58:39.493520 23067 net.cpp:399] loss_Wearing_Necklace -> loss_Wearing_Necklace
I1018 15:58:39.493576 23067 net.cpp:141] Setting up loss_Wearing_Necklace
I1018 15:58:39.493585 23067 net.cpp:148] Top shape: (1)
I1018 15:58:39.493589 23067 net.cpp:151]     with loss weight 1
I1018 15:58:39.493595 23067 net.cpp:156] Memory required for data: 2566248544
I1018 15:58:39.493599 23067 layer_factory.hpp:77] Creating layer fc3_Wearing_Necktie
I1018 15:58:39.493609 23067 net.cpp:91] Creating Layer fc3_Wearing_Necktie
I1018 15:58:39.493613 23067 net.cpp:425] fc3_Wearing_Necktie <- fc2_aroundhead_drop2_aroundhead_0_split_6
I1018 15:58:39.493620 23067 net.cpp:399] fc3_Wearing_Necktie -> fc3_Wearing_Necktie
I1018 15:58:39.493764 23067 net.cpp:141] Setting up fc3_Wearing_Necktie
I1018 15:58:39.493774 23067 net.cpp:148] Top shape: 64 2 (128)
I1018 15:58:39.493778 23067 net.cpp:156] Memory required for data: 2566249056
I1018 15:58:39.493785 23067 layer_factory.hpp:77] Creating layer loss_Wearing_Necktie
I1018 15:58:39.493793 23067 net.cpp:91] Creating Layer loss_Wearing_Necktie
I1018 15:58:39.493798 23067 net.cpp:425] loss_Wearing_Necktie <- fc3_Wearing_Necktie
I1018 15:58:39.493804 23067 net.cpp:425] loss_Wearing_Necktie <- label_Wearing_Necktie
I1018 15:58:39.493813 23067 net.cpp:399] loss_Wearing_Necktie -> loss_Wearing_Necktie
I1018 15:58:39.493858 23067 net.cpp:141] Setting up loss_Wearing_Necktie
I1018 15:58:39.493866 23067 net.cpp:148] Top shape: (1)
I1018 15:58:39.493873 23067 net.cpp:151]     with loss weight 1
I1018 15:58:39.493880 23067 net.cpp:156] Memory required for data: 2566249060
I1018 15:58:39.493882 23067 layer_factory.hpp:77] Creating layer fc3_Bald
I1018 15:58:39.493892 23067 net.cpp:91] Creating Layer fc3_Bald
I1018 15:58:39.493897 23067 net.cpp:425] fc3_Bald <- fc2_aroundhead_drop2_aroundhead_0_split_7
I1018 15:58:39.493903 23067 net.cpp:399] fc3_Bald -> fc3_Bald
I1018 15:58:39.494046 23067 net.cpp:141] Setting up fc3_Bald
I1018 15:58:39.494056 23067 net.cpp:148] Top shape: 64 2 (128)
I1018 15:58:39.494060 23067 net.cpp:156] Memory required for data: 2566249572
I1018 15:58:39.494068 23067 layer_factory.hpp:77] Creating layer loss_Bald
I1018 15:58:39.494077 23067 net.cpp:91] Creating Layer loss_Bald
I1018 15:58:39.494081 23067 net.cpp:425] loss_Bald <- fc3_Bald
I1018 15:58:39.494086 23067 net.cpp:425] loss_Bald <- label_Bald
I1018 15:58:39.494097 23067 net.cpp:399] loss_Bald -> loss_Bald
I1018 15:58:39.494148 23067 net.cpp:141] Setting up loss_Bald
I1018 15:58:39.494156 23067 net.cpp:148] Top shape: (1)
I1018 15:58:39.494160 23067 net.cpp:151]     with loss weight 1
I1018 15:58:39.494166 23067 net.cpp:156] Memory required for data: 2566249576
I1018 15:58:39.494169 23067 layer_factory.hpp:77] Creating layer fc3_Receding_Hairline
I1018 15:58:39.494184 23067 net.cpp:91] Creating Layer fc3_Receding_Hairline
I1018 15:58:39.494190 23067 net.cpp:425] fc3_Receding_Hairline <- fc2_aroundhead_drop2_aroundhead_0_split_8
I1018 15:58:39.494197 23067 net.cpp:399] fc3_Receding_Hairline -> fc3_Receding_Hairline
I1018 15:58:39.494335 23067 net.cpp:141] Setting up fc3_Receding_Hairline
I1018 15:58:39.494346 23067 net.cpp:148] Top shape: 64 2 (128)
I1018 15:58:39.494350 23067 net.cpp:156] Memory required for data: 2566250088
I1018 15:58:39.494357 23067 layer_factory.hpp:77] Creating layer loss_Receding_Hairline
I1018 15:58:39.494369 23067 net.cpp:91] Creating Layer loss_Receding_Hairline
I1018 15:58:39.494374 23067 net.cpp:425] loss_Receding_Hairline <- fc3_Receding_Hairline
I1018 15:58:39.494381 23067 net.cpp:425] loss_Receding_Hairline <- label_Receding_Hairline
I1018 15:58:39.494393 23067 net.cpp:399] loss_Receding_Hairline -> loss_Receding_Hairline
I1018 15:58:39.494444 23067 net.cpp:141] Setting up loss_Receding_Hairline
I1018 15:58:39.494453 23067 net.cpp:148] Top shape: (1)
I1018 15:58:39.494464 23067 net.cpp:151]     with loss weight 1
I1018 15:58:39.494470 23067 net.cpp:156] Memory required for data: 2566250092
I1018 15:58:39.494487 23067 layer_factory.hpp:77] Creating layer fc3_Bangs
I1018 15:58:39.494496 23067 net.cpp:91] Creating Layer fc3_Bangs
I1018 15:58:39.494501 23067 net.cpp:425] fc3_Bangs <- fc2_aroundhead_drop2_aroundhead_0_split_9
I1018 15:58:39.494508 23067 net.cpp:399] fc3_Bangs -> fc3_Bangs
I1018 15:58:39.494647 23067 net.cpp:141] Setting up fc3_Bangs
I1018 15:58:39.494657 23067 net.cpp:148] Top shape: 64 2 (128)
I1018 15:58:39.494662 23067 net.cpp:156] Memory required for data: 2566250604
I1018 15:58:39.494668 23067 layer_factory.hpp:77] Creating layer loss_Bangs
I1018 15:58:39.494678 23067 net.cpp:91] Creating Layer loss_Bangs
I1018 15:58:39.494683 23067 net.cpp:425] loss_Bangs <- fc3_Bangs
I1018 15:58:39.494690 23067 net.cpp:425] loss_Bangs <- label_Bangs
I1018 15:58:39.494698 23067 net.cpp:399] loss_Bangs -> loss_Bangs
I1018 15:58:39.494745 23067 net.cpp:141] Setting up loss_Bangs
I1018 15:58:39.494758 23067 net.cpp:148] Top shape: (1)
I1018 15:58:39.494765 23067 net.cpp:151]     with loss weight 1
I1018 15:58:39.494771 23067 net.cpp:156] Memory required for data: 2566250608
I1018 15:58:39.494774 23067 layer_factory.hpp:77] Creating layer fc3_Wearing_Hat
I1018 15:58:39.494782 23067 net.cpp:91] Creating Layer fc3_Wearing_Hat
I1018 15:58:39.494787 23067 net.cpp:425] fc3_Wearing_Hat <- fc2_aroundhead_drop2_aroundhead_0_split_10
I1018 15:58:39.494794 23067 net.cpp:399] fc3_Wearing_Hat -> fc3_Wearing_Hat
I1018 15:58:39.494930 23067 net.cpp:141] Setting up fc3_Wearing_Hat
I1018 15:58:39.494940 23067 net.cpp:148] Top shape: 64 2 (128)
I1018 15:58:39.494945 23067 net.cpp:156] Memory required for data: 2566251120
I1018 15:58:39.494951 23067 layer_factory.hpp:77] Creating layer loss_Wearing_Hat
I1018 15:58:39.494962 23067 net.cpp:91] Creating Layer loss_Wearing_Hat
I1018 15:58:39.494967 23067 net.cpp:425] loss_Wearing_Hat <- fc3_Wearing_Hat
I1018 15:58:39.494973 23067 net.cpp:425] loss_Wearing_Hat <- label_Wearing_Hat
I1018 15:58:39.494979 23067 net.cpp:399] loss_Wearing_Hat -> loss_Wearing_Hat
I1018 15:58:39.495030 23067 net.cpp:141] Setting up loss_Wearing_Hat
I1018 15:58:39.495040 23067 net.cpp:148] Top shape: (1)
I1018 15:58:39.495044 23067 net.cpp:151]     with loss weight 1
I1018 15:58:39.495049 23067 net.cpp:156] Memory required for data: 2566251124
I1018 15:58:39.495054 23067 layer_factory.hpp:77] Creating layer fc3_Straight_Hair
I1018 15:58:39.495061 23067 net.cpp:91] Creating Layer fc3_Straight_Hair
I1018 15:58:39.495066 23067 net.cpp:425] fc3_Straight_Hair <- fc2_aroundhead_drop2_aroundhead_0_split_11
I1018 15:58:39.495074 23067 net.cpp:399] fc3_Straight_Hair -> fc3_Straight_Hair
I1018 15:58:39.495208 23067 net.cpp:141] Setting up fc3_Straight_Hair
I1018 15:58:39.495218 23067 net.cpp:148] Top shape: 64 2 (128)
I1018 15:58:39.495221 23067 net.cpp:156] Memory required for data: 2566251636
I1018 15:58:39.495228 23067 layer_factory.hpp:77] Creating layer loss_Straight_Hair
I1018 15:58:39.495237 23067 net.cpp:91] Creating Layer loss_Straight_Hair
I1018 15:58:39.495242 23067 net.cpp:425] loss_Straight_Hair <- fc3_Straight_Hair
I1018 15:58:39.495250 23067 net.cpp:425] loss_Straight_Hair <- label_Straight_Hair
I1018 15:58:39.495256 23067 net.cpp:399] loss_Straight_Hair -> loss_Straight_Hair
I1018 15:58:39.495306 23067 net.cpp:141] Setting up loss_Straight_Hair
I1018 15:58:39.495321 23067 net.cpp:148] Top shape: (1)
I1018 15:58:39.495326 23067 net.cpp:151]     with loss weight 1
I1018 15:58:39.495331 23067 net.cpp:156] Memory required for data: 2566251640
I1018 15:58:39.495334 23067 layer_factory.hpp:77] Creating layer fc3_Wavy_Hair
I1018 15:58:39.495343 23067 net.cpp:91] Creating Layer fc3_Wavy_Hair
I1018 15:58:39.495348 23067 net.cpp:425] fc3_Wavy_Hair <- fc2_aroundhead_drop2_aroundhead_0_split_12
I1018 15:58:39.495359 23067 net.cpp:399] fc3_Wavy_Hair -> fc3_Wavy_Hair
I1018 15:58:39.496104 23067 net.cpp:141] Setting up fc3_Wavy_Hair
I1018 15:58:39.496129 23067 net.cpp:148] Top shape: 64 2 (128)
I1018 15:58:39.496134 23067 net.cpp:156] Memory required for data: 2566252152
I1018 15:58:39.496152 23067 layer_factory.hpp:77] Creating layer loss_Wavy_Hair
I1018 15:58:39.496162 23067 net.cpp:91] Creating Layer loss_Wavy_Hair
I1018 15:58:39.496167 23067 net.cpp:425] loss_Wavy_Hair <- fc3_Wavy_Hair
I1018 15:58:39.496173 23067 net.cpp:425] loss_Wavy_Hair <- label_Wavy_Hair
I1018 15:58:39.496191 23067 net.cpp:399] loss_Wavy_Hair -> loss_Wavy_Hair
I1018 15:58:39.496237 23067 net.cpp:141] Setting up loss_Wavy_Hair
I1018 15:58:39.496248 23067 net.cpp:148] Top shape: (1)
I1018 15:58:39.496255 23067 net.cpp:151]     with loss weight 1
I1018 15:58:39.496263 23067 net.cpp:156] Memory required for data: 2566252156
I1018 15:58:39.496266 23067 layer_factory.hpp:77] Creating layer fc3_5_o_Clock_Shadow
I1018 15:58:39.496275 23067 net.cpp:91] Creating Layer fc3_5_o_Clock_Shadow
I1018 15:58:39.496280 23067 net.cpp:425] fc3_5_o_Clock_Shadow <- fc2_facialhair_drop2_facialhair_0_split_0
I1018 15:58:39.496287 23067 net.cpp:399] fc3_5_o_Clock_Shadow -> fc3_5_o_Clock_Shadow
I1018 15:58:39.496417 23067 net.cpp:141] Setting up fc3_5_o_Clock_Shadow
I1018 15:58:39.496428 23067 net.cpp:148] Top shape: 64 2 (128)
I1018 15:58:39.496433 23067 net.cpp:156] Memory required for data: 2566252668
I1018 15:58:39.496439 23067 layer_factory.hpp:77] Creating layer loss_5_o_Clock_Shadow
I1018 15:58:39.496448 23067 net.cpp:91] Creating Layer loss_5_o_Clock_Shadow
I1018 15:58:39.496453 23067 net.cpp:425] loss_5_o_Clock_Shadow <- fc3_5_o_Clock_Shadow
I1018 15:58:39.496459 23067 net.cpp:425] loss_5_o_Clock_Shadow <- label_5_o_Clock_Shadow
I1018 15:58:39.496464 23067 net.cpp:399] loss_5_o_Clock_Shadow -> loss_5_o_Clock_Shadow
I1018 15:58:39.496508 23067 net.cpp:141] Setting up loss_5_o_Clock_Shadow
I1018 15:58:39.496518 23067 net.cpp:148] Top shape: (1)
I1018 15:58:39.496522 23067 net.cpp:151]     with loss weight 1
I1018 15:58:39.496534 23067 net.cpp:156] Memory required for data: 2566252672
I1018 15:58:39.496539 23067 layer_factory.hpp:77] Creating layer fc3_Mustache
I1018 15:58:39.496549 23067 net.cpp:91] Creating Layer fc3_Mustache
I1018 15:58:39.496554 23067 net.cpp:425] fc3_Mustache <- fc2_facialhair_drop2_facialhair_0_split_1
I1018 15:58:39.496561 23067 net.cpp:399] fc3_Mustache -> fc3_Mustache
I1018 15:58:39.496678 23067 net.cpp:141] Setting up fc3_Mustache
I1018 15:58:39.496690 23067 net.cpp:148] Top shape: 64 2 (128)
I1018 15:58:39.496693 23067 net.cpp:156] Memory required for data: 2566253184
I1018 15:58:39.496700 23067 layer_factory.hpp:77] Creating layer loss_Mustache
I1018 15:58:39.496708 23067 net.cpp:91] Creating Layer loss_Mustache
I1018 15:58:39.496712 23067 net.cpp:425] loss_Mustache <- fc3_Mustache
I1018 15:58:39.496718 23067 net.cpp:425] loss_Mustache <- label_Mustache
I1018 15:58:39.496724 23067 net.cpp:399] loss_Mustache -> loss_Mustache
I1018 15:58:39.496769 23067 net.cpp:141] Setting up loss_Mustache
I1018 15:58:39.496781 23067 net.cpp:148] Top shape: (1)
I1018 15:58:39.496785 23067 net.cpp:151]     with loss weight 1
I1018 15:58:39.496791 23067 net.cpp:156] Memory required for data: 2566253188
I1018 15:58:39.496795 23067 layer_factory.hpp:77] Creating layer fc3_No_Beard
I1018 15:58:39.496803 23067 net.cpp:91] Creating Layer fc3_No_Beard
I1018 15:58:39.496809 23067 net.cpp:425] fc3_No_Beard <- fc2_facialhair_drop2_facialhair_0_split_2
I1018 15:58:39.496814 23067 net.cpp:399] fc3_No_Beard -> fc3_No_Beard
I1018 15:58:39.496929 23067 net.cpp:141] Setting up fc3_No_Beard
I1018 15:58:39.496940 23067 net.cpp:148] Top shape: 64 2 (128)
I1018 15:58:39.496944 23067 net.cpp:156] Memory required for data: 2566253700
I1018 15:58:39.496951 23067 layer_factory.hpp:77] Creating layer loss_No_Beard
I1018 15:58:39.496960 23067 net.cpp:91] Creating Layer loss_No_Beard
I1018 15:58:39.496964 23067 net.cpp:425] loss_No_Beard <- fc3_No_Beard
I1018 15:58:39.496969 23067 net.cpp:425] loss_No_Beard <- label_No_Beard
I1018 15:58:39.496975 23067 net.cpp:399] loss_No_Beard -> loss_No_Beard
I1018 15:58:39.497022 23067 net.cpp:141] Setting up loss_No_Beard
I1018 15:58:39.497031 23067 net.cpp:148] Top shape: (1)
I1018 15:58:39.497035 23067 net.cpp:151]     with loss weight 1
I1018 15:58:39.497058 23067 net.cpp:156] Memory required for data: 2566253704
I1018 15:58:39.497063 23067 layer_factory.hpp:77] Creating layer fc3_Sideburns
I1018 15:58:39.497073 23067 net.cpp:91] Creating Layer fc3_Sideburns
I1018 15:58:39.497083 23067 net.cpp:425] fc3_Sideburns <- fc2_facialhair_drop2_facialhair_0_split_3
I1018 15:58:39.497092 23067 net.cpp:399] fc3_Sideburns -> fc3_Sideburns
I1018 15:58:39.497207 23067 net.cpp:141] Setting up fc3_Sideburns
I1018 15:58:39.497217 23067 net.cpp:148] Top shape: 64 2 (128)
I1018 15:58:39.497221 23067 net.cpp:156] Memory required for data: 2566254216
I1018 15:58:39.497228 23067 layer_factory.hpp:77] Creating layer loss_Sideburns
I1018 15:58:39.497236 23067 net.cpp:91] Creating Layer loss_Sideburns
I1018 15:58:39.497243 23067 net.cpp:425] loss_Sideburns <- fc3_Sideburns
I1018 15:58:39.497249 23067 net.cpp:425] loss_Sideburns <- label_Sideburns
I1018 15:58:39.497256 23067 net.cpp:399] loss_Sideburns -> loss_Sideburns
I1018 15:58:39.497298 23067 net.cpp:141] Setting up loss_Sideburns
I1018 15:58:39.497305 23067 net.cpp:148] Top shape: (1)
I1018 15:58:39.497315 23067 net.cpp:151]     with loss weight 1
I1018 15:58:39.497323 23067 net.cpp:156] Memory required for data: 2566254220
I1018 15:58:39.497326 23067 layer_factory.hpp:77] Creating layer fc3_Goatee
I1018 15:58:39.497335 23067 net.cpp:91] Creating Layer fc3_Goatee
I1018 15:58:39.497340 23067 net.cpp:425] fc3_Goatee <- fc2_facialhair_drop2_facialhair_0_split_4
I1018 15:58:39.497346 23067 net.cpp:399] fc3_Goatee -> fc3_Goatee
I1018 15:58:39.497465 23067 net.cpp:141] Setting up fc3_Goatee
I1018 15:58:39.497476 23067 net.cpp:148] Top shape: 64 2 (128)
I1018 15:58:39.497480 23067 net.cpp:156] Memory required for data: 2566254732
I1018 15:58:39.497488 23067 layer_factory.hpp:77] Creating layer loss_Goatee
I1018 15:58:39.497495 23067 net.cpp:91] Creating Layer loss_Goatee
I1018 15:58:39.497500 23067 net.cpp:425] loss_Goatee <- fc3_Goatee
I1018 15:58:39.497505 23067 net.cpp:425] loss_Goatee <- label_Goatee
I1018 15:58:39.497511 23067 net.cpp:399] loss_Goatee -> loss_Goatee
I1018 15:58:39.497551 23067 net.cpp:141] Setting up loss_Goatee
I1018 15:58:39.497560 23067 net.cpp:148] Top shape: (1)
I1018 15:58:39.497565 23067 net.cpp:151]     with loss weight 1
I1018 15:58:39.497570 23067 net.cpp:156] Memory required for data: 2566254736
I1018 15:58:39.497573 23067 layer_factory.hpp:77] Creating layer fc3_High_Cheekbones
I1018 15:58:39.497581 23067 net.cpp:91] Creating Layer fc3_High_Cheekbones
I1018 15:58:39.497586 23067 net.cpp:425] fc3_High_Cheekbones <- fc2_cheeks_drop2_cheeks_0_split_0
I1018 15:58:39.497598 23067 net.cpp:399] fc3_High_Cheekbones -> fc3_High_Cheekbones
I1018 15:58:39.497719 23067 net.cpp:141] Setting up fc3_High_Cheekbones
I1018 15:58:39.497728 23067 net.cpp:148] Top shape: 64 2 (128)
I1018 15:58:39.497732 23067 net.cpp:156] Memory required for data: 2566255248
I1018 15:58:39.497740 23067 layer_factory.hpp:77] Creating layer loss_High_Cheekbones
I1018 15:58:39.497751 23067 net.cpp:91] Creating Layer loss_High_Cheekbones
I1018 15:58:39.497757 23067 net.cpp:425] loss_High_Cheekbones <- fc3_High_Cheekbones
I1018 15:58:39.497763 23067 net.cpp:425] loss_High_Cheekbones <- label_High_Cheekbones
I1018 15:58:39.497774 23067 net.cpp:399] loss_High_Cheekbones -> loss_High_Cheekbones
I1018 15:58:39.497813 23067 net.cpp:141] Setting up loss_High_Cheekbones
I1018 15:58:39.497822 23067 net.cpp:148] Top shape: (1)
I1018 15:58:39.497826 23067 net.cpp:151]     with loss weight 1
I1018 15:58:39.497831 23067 net.cpp:156] Memory required for data: 2566255252
I1018 15:58:39.497835 23067 layer_factory.hpp:77] Creating layer fc3_Rosy_Cheeks
I1018 15:58:39.497849 23067 net.cpp:91] Creating Layer fc3_Rosy_Cheeks
I1018 15:58:39.497856 23067 net.cpp:425] fc3_Rosy_Cheeks <- fc2_cheeks_drop2_cheeks_0_split_1
I1018 15:58:39.497864 23067 net.cpp:399] fc3_Rosy_Cheeks -> fc3_Rosy_Cheeks
I1018 15:58:39.497980 23067 net.cpp:141] Setting up fc3_Rosy_Cheeks
I1018 15:58:39.497992 23067 net.cpp:148] Top shape: 64 2 (128)
I1018 15:58:39.497994 23067 net.cpp:156] Memory required for data: 2566255764
I1018 15:58:39.498014 23067 layer_factory.hpp:77] Creating layer loss_Rosy_Cheeks
I1018 15:58:39.498026 23067 net.cpp:91] Creating Layer loss_Rosy_Cheeks
I1018 15:58:39.498031 23067 net.cpp:425] loss_Rosy_Cheeks <- fc3_Rosy_Cheeks
I1018 15:58:39.498036 23067 net.cpp:425] loss_Rosy_Cheeks <- label_Rosy_Cheeks
I1018 15:58:39.498042 23067 net.cpp:399] loss_Rosy_Cheeks -> loss_Rosy_Cheeks
I1018 15:58:39.498088 23067 net.cpp:141] Setting up loss_Rosy_Cheeks
I1018 15:58:39.498097 23067 net.cpp:148] Top shape: (1)
I1018 15:58:39.498101 23067 net.cpp:151]     with loss weight 1
I1018 15:58:39.498107 23067 net.cpp:156] Memory required for data: 2566255768
I1018 15:58:39.498111 23067 layer_factory.hpp:77] Creating layer fc3_Chubby
I1018 15:58:39.498119 23067 net.cpp:91] Creating Layer fc3_Chubby
I1018 15:58:39.498124 23067 net.cpp:425] fc3_Chubby <- fc2_fat_drop2_fat_0_split_0
I1018 15:58:39.498131 23067 net.cpp:399] fc3_Chubby -> fc3_Chubby
I1018 15:58:39.498250 23067 net.cpp:141] Setting up fc3_Chubby
I1018 15:58:39.498262 23067 net.cpp:148] Top shape: 64 2 (128)
I1018 15:58:39.498266 23067 net.cpp:156] Memory required for data: 2566256280
I1018 15:58:39.498273 23067 layer_factory.hpp:77] Creating layer loss_Chubby
I1018 15:58:39.498281 23067 net.cpp:91] Creating Layer loss_Chubby
I1018 15:58:39.498286 23067 net.cpp:425] loss_Chubby <- fc3_Chubby
I1018 15:58:39.498291 23067 net.cpp:425] loss_Chubby <- label_Chubby
I1018 15:58:39.498297 23067 net.cpp:399] loss_Chubby -> loss_Chubby
I1018 15:58:39.498342 23067 net.cpp:141] Setting up loss_Chubby
I1018 15:58:39.498350 23067 net.cpp:148] Top shape: (1)
I1018 15:58:39.498354 23067 net.cpp:151]     with loss weight 1
I1018 15:58:39.498360 23067 net.cpp:156] Memory required for data: 2566256284
I1018 15:58:39.498363 23067 layer_factory.hpp:77] Creating layer fc3_Double_Chin
I1018 15:58:39.498370 23067 net.cpp:91] Creating Layer fc3_Double_Chin
I1018 15:58:39.498375 23067 net.cpp:425] fc3_Double_Chin <- fc2_fat_drop2_fat_0_split_1
I1018 15:58:39.498383 23067 net.cpp:399] fc3_Double_Chin -> fc3_Double_Chin
I1018 15:58:39.498502 23067 net.cpp:141] Setting up fc3_Double_Chin
I1018 15:58:39.498513 23067 net.cpp:148] Top shape: 64 2 (128)
I1018 15:58:39.498517 23067 net.cpp:156] Memory required for data: 2566256796
I1018 15:58:39.498523 23067 layer_factory.hpp:77] Creating layer loss_Double_Chin
I1018 15:58:39.498533 23067 net.cpp:91] Creating Layer loss_Double_Chin
I1018 15:58:39.498536 23067 net.cpp:425] loss_Double_Chin <- fc3_Double_Chin
I1018 15:58:39.498543 23067 net.cpp:425] loss_Double_Chin <- label_Double_Chin
I1018 15:58:39.498548 23067 net.cpp:399] loss_Double_Chin -> loss_Double_Chin
…
I1018 15:58:39.498667 23067 net.cpp:425] attr_mid_feat <- pool3_mouth_pool3_mouth_0_split_1
I1018 15:58:39.498672 23067 net.cpp:425] attr_mid_feat <- pool3_nose_pool3_nose_0_split_1
I1018 15:58:39.498677 23067 net.cpp:425] attr_mid_feat <- pool3_eyes_pool3_eyes_0_split_1
I1018 15:58:39.498682 23067 net.cpp:425] attr_mid_feat <- pool3_face_pool3_face_0_split_1
I1018 15:58:39.498687 23067 net.cpp:425] attr_mid_feat <- pool3_rest_pool3_rest_0_split_4
I1018 15:58:39.498693 23067 net.cpp:399] attr_mid_feat -> attr_mid_feat
I1018 15:58:39.498733 23067 net.cpp:141] Setting up attr_mid_feat
I1018 15:58:39.498744 23067 net.cpp:148] Top shape: 64 3072 4 4 (3145728)
I1018 15:58:39.498747 23067 net.cpp:156] Memory required for data: 2578839712
I1018 15:58:39.498751 23067 layer_factory.hpp:77] Creating layer attr_top_feat
I1018 15:58:39.498762 23067 net.cpp:91] Creating Layer attr_top_feat
I1018 15:58:39.498769 23067 net.cpp:425] attr_top_feat <- fc2_gender_drop2_gender_0_split_1
I1018 15:58:39.498774 23067 net.cpp:425] attr_top_feat <- fc2_nose_drop2_nose_0_split_2
I1018 15:58:39.498778 23067 net.cpp:425] attr_top_feat <- fc2_mouth_drop2_mouth_0_split_4
I1018 15:58:39.498783 23067 net.cpp:425] attr_top_feat <- fc2_eyes_drop2_eyes_0_split_5
I1018 15:58:39.498792 23067 net.cpp:425] attr_top_feat <- fc2_face_drop2_face_0_split_6
I1018 15:58:39.498797 23067 net.cpp:425] attr_top_feat <- fc2_aroundhead_drop2_aroundhead_0_split_13
I1018 15:58:39.498802 23067 net.cpp:425] attr_top_feat <- fc2_facialhair_drop2_facialhair_0_split_5
I1018 15:58:39.498806 23067 net.cpp:425] attr_top_feat <- fc2_cheeks_drop2_cheeks_0_split_2
I1018 15:58:39.498811 23067 net.cpp:425] attr_top_feat <- fc2_fat_drop2_fat_0_split_2
I1018 15:58:39.498816 23067 net.cpp:399] attr_top_feat -> attr_top_feat
I1018 15:58:39.498853 23067 net.cpp:141] Setting up attr_top_feat
I1018 15:58:39.498862 23067 net.cpp:148] Top shape: 64 9216 (589824)
I1018 15:58:39.498867 23067 net.cpp:156] Memory required for data: 2581199008
I1018 15:58:39.498870 23067 layer_factory.hpp:77] Creating layer fc8_top_attr
I1018 15:58:39.498878 23067 net.cpp:91] Creating Layer fc8_top_attr
I1018 15:58:39.498881 23067 net.cpp:425] fc8_top_attr <- attr_top_feat
I1018 15:58:39.498889 23067 net.cpp:399] fc8_top_attr -> fc8_top_attr
I1018 15:58:39.732641 23067 net.cpp:141] Setting up fc8_top_attr
I1018 15:58:39.732681 23067 net.cpp:148] Top shape: 64 2837 (181568)
I1018 15:58:39.732687 23067 net.cpp:156] Memory required for data: 2581925280
I1018 15:58:39.732700 23067 layer_factory.hpp:77] Creating layer fc8_top_attr_fc8_top_attr_0_split
I1018 15:58:39.732714 23067 net.cpp:91] Creating Layer fc8_top_attr_fc8_top_attr_0_split
I1018 15:58:39.732722 23067 net.cpp:425] fc8_top_attr_fc8_top_attr_0_split <- fc8_top_attr
I1018 15:58:39.732731 23067 net.cpp:399] fc8_top_attr_fc8_top_attr_0_split -> fc8_top_attr_fc8_top_attr_0_split_0
I1018 15:58:39.732744 23067 net.cpp:399] fc8_top_attr_fc8_top_attr_0_split -> fc8_top_attr_fc8_top_attr_0_split_1
I1018 15:58:39.732751 23067 net.cpp:399] fc8_top_attr_fc8_top_attr_0_split -> fc8_top_attr_fc8_top_attr_0_split_2
I1018 15:58:39.732823 23067 net.cpp:141] Setting up fc8_top_attr_fc8_top_attr_0_split
I1018 15:58:39.732834 23067 net.cpp:148] Top shape: 64 2837 (181568)
I1018 15:58:39.732841 23067 net.cpp:148] Top shape: 64 2837 (181568)
I1018 15:58:39.732844 23067 net.cpp:148] Top shape: 64 2837 (181568)
I1018 15:58:39.732848 23067 net.cpp:156] Memory required for data: 2584104096
I1018 15:58:39.732852 23067 layer_factory.hpp:77] Creating layer loss_top_attr
I1018 15:58:39.732861 23067 net.cpp:91] Creating Layer loss_top_attr
I1018 15:58:39.732866 23067 net.cpp:425] loss_top_attr <- fc8_top_attr_fc8_top_attr_0_split_0
I1018 15:58:39.732877 23067 net.cpp:425] loss_top_attr <- label_data_1_split_0
…
