…
    slice_point: 24
    slice_point: 26
    slice_point: 28
    slice_point: 30
    slice_point: 32
    slice_point: 34
    slice_point: 36
    slice_point: 38
    slice_point: 40
    slice_point: 42
    slice_point: 44
    slice_point: 46
    slice_point: 48
    slice_point: 50
    slice_point: 52
    slice_point: 54
    slice_point: 56
    slice_point: 58
    slice_point: 60
    slice_point: 62
    slice_point: 64
    slice_point: 66
    slice_point: 68
    slice_point: 70
    slice_point: 72
    slice_point: 74
    slice_point: 76
    slice_point: 78
  }
}
layer {
  name: "conv1_bn"
  type: "BatchNorm"
  bottom: "conv1"
  top: "conv1"
  batch_norm_param {
    use_global_stats: false
  }
}
layer {
  name: "conv1_scale"
  type: "Scale"
  bottom: "conv1"
  top: "conv1"
  scale_param {
    bias_term: true
  }
}
layer {
  name: "prelu1"
  type: "PReLU"
  bottom: "conv1"
  top: "conv1"
}
layer {
  name: "pool1"
  type: "Pooling"
  bottom: "conv1"
  top: "pool1"
  pooling_param {
    pool: MAX
    kernel_size: 2
    stride: 2
  }
}
layer {
  name: "conv2a"
  type: "Convolution"
  bottom: "pool1"
  top: "conv2a"
  param {
    name: "conv2a_w"
    lr_mult: 1
    decay_mult: 1
  }
  param {
    name: "conv2a_b"
    lr_mult: 2
    decay_mult: 0
  }
  convolution_param {
    num_output: 64
    kernel_size: 1
    weight_filler {
      type: "xavier"
    }
    bias_filler {
      type: "constant"
      value: 0.2
    }
  }
}
layer {
  name: "conv2a_bn"
  type: "BatchNorm"
  bottom: "conv2a"
  top: "conv2a"
  batch_norm_param {
    use_global_stats: false
  }
}
layer {
  name: "conv2a_scale"
  type: "Scale"
  bottom: "conv2a"
  top: "conv2a"
  scale_param {
    bias_term: true
  }
}
layer {
  name: "prelu2a"
  type: "PReLU"
  bottom: "conv2a"
  top: "conv2a"
}
layer {
  name: "conv2"
  type: "Convolution"
  bottom: "conv2a"
  top: "conv2"
  param {
    name: "conv2_w"
    lr_mult: 1
    decay_mult: 1
  }
  param {
    name: "conv2_b"
    lr_mult: 2
    decay_mult: 0
  }
  convolution_param {
    num_output: 192
    pad: 1
    kernel_size: 3
    stride: 1
    weight_filler {
      type: "xavier"
    }
    bias_filler {
      type: "constant"
      value: 0.2
    }
  }
}
layer {
  name: "conv2_bn"
  type: "BatchNorm"
  bottom: "conv2"
  top: "conv2"
  batch_norm_param {
    use_global_stats: false
  }
}
layer {
  name: "conv2_scale"
  type: "Scale"
  bottom: "conv2"
  top: "conv2"
  scale_param {
    bias_term: true
  }
}
layer {
  name: "prelu2"
  type: "PReLU"
  bottom: "conv2"
  top: "conv2"
}
layer {
  name: "pool2"
  type: "Pooling"
  bottom: "conv2"
  top: "pool2"
  pooling_param {
    pool: MAX
    kernel_size: 2
    stride: 2
  }
}
layer {
  name: "conv3a"
  type: "Convolution"
  bottom: "pool2"
  top: "conv3a"
  param {
    name: "conv3a_w"
    lr_mult: 1
    decay_mult: 1
  }
  param {
    name: "conv3a_b"
    lr_mult: 2
    decay_mult: 0
  }
  convolution_param {
    num_output: 192
    kernel_size: 1
    weight_filler {
      type: "xavier"
    }
    bias_filler {
      type: "constant"
      value: 0.2
    }
  }
}
layer {
  name: "conv3a_bn"
  type: "BatchNorm"
  bottom: "conv3a"
  top: "conv3a"
  batch_norm_param {
    use_global_stats: false
  }
}
layer {
  name: "conv3a_scale"
  type: "Scale"
  bottom: "conv3a"
  top: "conv3a"
  scale_param {
    bias_term: true
  }
}
layer {
  name: "prelu3a"
  type: "PReLU"
  bottom: "conv3a"
  top: "conv3a"
}
layer {
  name: "conv3"
  type: "Convolution"
  bottom: "conv3a"
  top: "conv3"
  param {
    name: "conv3_w"
    lr_mult: 1
    decay_mult: 1
  }
  param {
    name: "conv3_b"
    lr_mult: 2
    decay_mult: 0
  }
  convolution_param {
    num_output: 384
    pad: 1
    kernel_size: 3
    stride: 1
    weight_filler {
      type: "xavier"
    }
    bias_filler {
      type: "constant"
      value: 0.2
    }
  }
}
layer {
  name: "conv3_bn"
  type: "BatchNorm"
  bottom: "conv3"
  top: "conv3"
  batch_norm_param {
    use_global_stats: false
  }
}
layer {
  name: "conv3_scale"
  type: "Scale"
  bottom: "conv3"
  top: "conv3"
  scale_param {
    bias_term: true
  }
}
layer {
  name: "prelu3"
  type: "PReLU"
  bottom: "conv3"
  top: "conv3"
}
layer {
  name: "pool3"
  type: "Pooling"
  bottom: "conv3"
  top: "pool3"
  pooling_param {
    pool: MAX
    kernel_size: 2
    stride: 2
  }
}
layer {
  name: "conv3_gender"
  type: "Convolution"
  bottom: "pool3"
  top: "conv3_gender"
  param {
    lr_mult: 1
    decay_mult: 1
  }
  param {
    lr_mult: 2
    decay_mult: 0
  }
  convolution_param {
    num_output: 512
    pad: 1
    kernel_size: 3
    stride: 2
    weight_filler {
      type: "xavier"
    }
    bias_filler {
      type: "constant"
      value: 0.2
    }
  }
}
layer {
  name: "conv3_gender_bn"
  type: "BatchNorm"
  bottom: "conv3_gender"
  top: "conv3_gender"
  batch_norm_param {
    use_global_stats: false
  }
}
layer {
  name: "conv3_gender_scale"
  type: "Scale"
  bottom: "conv3_gender"
  top: "conv3_gender"
  scale_param {
    bias_term: true
  }
}
layer {
  name: "prelu3_gender"
  type: "PReLU"
  bottom: "conv3_gender"
  top: "conv3_gender"
}
layer {
  name: "pool3_gender"
  type: "Pooling"
  bottom: "conv3_gender"
  top: "pool3_gender"
  pooling_param {
    pool: MAX
    kernel_size: 5
    stride: 2
    pad: 2
  }
}
layer {
  name: "fc1_gender"
  type: "InnerProduct"
  bottom: "pool3_gender"
  top: "fc1_gender"
  param {
    lr_mult: 1
    decay_mult: 1
  }
  param {
    lr_mult: 2
    decay_mult: 0
  }
  inner_product_param {
    num_output: 1024
    weight_filler {
      type: "xavier"
    }
    bias_filler {
      type: "constant"
      value: 0.2
    }
  }
}
layer {
  name: "relu1_gender"
  type: "ReLU"
  bottom: "fc1_gender"
  top: "fc1_gender"
}
layer {
  name: "drop1_gender"
  type: "Dropout"
  bottom: "fc1_gender"
  top: "fc1_gender"
  dropout_param {
    dropout_ratio: 0.5
  }
}
layer {
  name: "fc2_gender"
  type: "InnerProduct"
  bottom: "fc1_gender"
  top: "fc2_gender"
  param {
    lr_mult: 1
    decay_mult: 1
  }
  param {
    lr_mult: 2
    decay_mult: 0
  }
  inner_product_param {
    num_output: 1024
    weight_filler {
      type: "xavier"
    }
    bias_filler {
      type: "constant"
      value: 0.2
    }
  }
}
layer {
  name: "relu2_gender"
  type: "ReLU"
  bottom: "fc2_gender"
  top: "fc2_gender"
}
layer {
  name: "drop2_gender"
  type: "Dropout"
  bottom: "fc2_gender"
  top: "fc2_gender"
  dropout_param {
    dropout_ratio: 0.5
  }
}
layer {
  name: "conv3_nose"
  type: "Convolution"
  bottom: "pool3"
  top: "conv3_nose"
  param {
    lr_mult: 1
    decay_mult: 1
  }
  param {
    lr_mult: 2
    decay_mult: 0
  }
  convolution_param {
    num_output: 512
    pad: 1
    kernel_size: 3
    stride: 2
    weight_filler {
      type: "xavier"
    }
    bias_filler {
      type: "constant"
      value: 0.2
    }
  }
}
layer {
  name: "conv3_nose_bn"
  type: "BatchNorm"
  bottom: "conv3_nose"
  top: "conv3_nose"
  batch_norm_param {
    use_global_stats: false
  }
}
layer {
  name: "conv3_nose_scale"
  type: "Scale"
  bottom: "conv3_nose"
  top: "conv3_nose"
  scale_param {
    bias_term: true
  }
}
layer {
  name: "prelu3_nose"
  type: "PReLU"
  bottom: "conv3_nose"
  top: "conv3_nose"
}
layer {
  name: "pool3_nose"
  type: "Pooling"
  bottom: "conv3_nose"
  top: "pool3_nose"
  pooling_param {
    pool: MAX
    kernel_size: 5
    stride: 2
    pad: 2
  }
}
layer {
  name: "fc1_nose"
  type: "InnerProduct"
  bottom: "pool3_nose"
  top: "fc1_nose"
  param {
    lr_mult: 1
    decay_mult: 1
  }
  param {
    lr_mult: 2
    decay_mult: 0
  }
  inner_product_param {
    num_output: 1024
    weight_filler {
      type: "xavier"
    }
    bias_filler {
      type: "constant"
      value: 0.2
    }
  }
}
layer {
  name: "relu1_nose"
  type: "ReLU"
  bottom: "fc1_nose"
  top: "fc1_nose"
}
layer {
  name: "drop1_nose"
  type: "Dropout"
  bottom: "fc1_nose"
  top: "fc1_nose"
  dropout_param {
    dropout_ratio: 0.5
  }
}
layer {
  name: "fc2_nose"
  type: "InnerProduct"
  bottom: "fc1_nose"
  top: "fc2_nose"
  param {
    lr_mult: 1
    decay_mult: 1
  }
  param {
    lr_mult: 2
    decay_mult: 0
  }
  inner_product_param {
    num_output: 1024
    weight_filler {
      type: "xavier"
    }
    bias_filler {
      type: "constant"
      value: 0.2
    }
  }
}
layer {
  name: "relu2_nose"
  type: "ReLU"
  bottom: "fc2_nose"
  top: "fc2_nose"
}
layer {
  name: "drop2_nose"
  type: "Dropout"
  bottom: "fc2_nose"
  top: "fc2_nose"
  dropout_param {
    dropout_ratio: 0.5
  }
}
layer {
  name: "conv3_mouth"
  type: "Convolution"
  bottom: "pool3"
  top: "conv3_mouth"
  param {
    lr_mult: 1
    decay_mult: 1
  }
  param {
    lr_mult: 2
    decay_mult: 0
  }
  convolution_param {
    num_output: 512
    pad: 1
    kernel_size: 3
    stride: 2
    weight_filler {
      type: "xavier"
    }
    bias_filler {
      type: "constant"
      value: 0.2
    }
  }
}
layer {
  name: "conv3_mouth_bn"
  type: "BatchNorm"
  bottom: "conv3_mouth"
  top: "conv3_mouth"
  batch_norm_param {
    use_global_stats: false
  }
}
layer {
  name: "conv3_mouth_scale"
  type: "Scale"
  bottom: "conv3_mouth"
  top: "conv3_mouth"
  scale_param {
    bias_term: true
  }
}
layer {
  name: "prelu3_mouth"
  type: "PReLU"
  bottom: "conv3_mouth"
  top: "conv3_mouth"
}
layer {
  name: "pool3_mouth"
  type: "Pooling"
  bottom: "conv3_mouth"
  top: "pool3_mouth"
  pooling_param {
    pool: MAX
    kernel_size: 5
    stride: 2
    pad: 2
  }
}
layer {
  name: "fc1_mouth"
  type: "InnerProduct"
  bottom: "pool3_mouth"
  top: "fc1_mouth"
  param {
    lr_mult: 1
    decay_mult: 1
  }
  param {
    lr_mult: 2
    decay_mult: 0
  }
  inner_product_param {
    num_output: 1024
    weight_filler {
      type: "xavier"
    }
    bias_filler {
      type: "constant"
      value: 0.2
    }
  }
}
layer {
  name: "relu1_mouth"
  type: "ReLU"
  bottom: "fc1_mouth"
  top: "fc1_mouth"
}
layer {
  name: "drop1_mouth"
  type: "Dropout"
  bottom: "fc1_mouth"
  top: "fc1_mouth"
  dropout_param {
    dropout_ratio: 0.5
  }
}
layer {
  name: "fc2_mouth"
  type: "InnerProduct"
  bottom: "fc1_mouth"
  top: "fc2_mouth"
  param {
    lr_mult: 1
    decay_mult: 1
  }
  param {
    lr_mult: 2
    decay_mult: 0
  }
  inner_product_param {
    num_output: 1024
    weight_filler {
      type: "xavier"
    }
    bias_filler {
      type: "constant"
      value: 0.2
    }
  }
}
layer {
  name: "relu2_mouth"
  type: "ReLU"
  bottom: "fc2_mouth"
  top: "fc2_mouth"
}
layer {
  name: "drop2_mouth"
  type: "Dropout"
  bottom: "fc2_mouth"
  top: "fc2_mouth"
  dropout_param {
    dropout_ratio: 0.5
  }
}
layer {
  name: "conv3_eyes"
  type: "Convolution"
  bottom: "pool3"
  top: "conv3_eyes"
  param {
    lr_mult: 1
    decay_mult: 1
  }
  param {
    lr_mult: 2
    decay_mult: 0
  }
  convolution_param {
    num_output: 512
    pad: 1
    kernel_size: 3
    stride: 2
    weight_filler {
      type: "xavier"
    }
    bias_filler {
      type: "constant"
      value: 0.2
    }
  }
}
layer {
  name: "conv3_eyes_bn"
  type: "BatchNorm"
  bottom: "conv3_eyes"
  top: "conv3_eyes"
  batch_norm_param {
    use_global_stats: false
  }
}
layer {
  name: "conv3_eyes_scale"
  type: "Scale"
  bottom: "conv3_eyes"
  top: "conv3_eyes"
  scale_param {
    bias_term: true
  }
}
layer {
  name: "prelu3_eyes"
  type: "PReLU"
  bottom: "conv3_eyes"
  top: "conv3_eyes"
}
layer {
  name: "pool3_eyes"
  type: "Pooling"
  bottom: "conv3_eyes"
  top: "pool3_eyes"
  pooling_param {
    pool: MAX
    kernel_size: 5
    stride: 2
    pad: 2
  }
}
layer {
  name: "fc1_eyes"
  type: "InnerProduct"
  bottom: "pool3_eyes"
  top: "fc1_eyes"
  param {
    lr_mult: 1
    decay_mult: 1
  }
  param {
    lr_mult: 2
    decay_mult: 0
  }
  inner_product_param {
    num_output: 1024
    weight_filler {
      type: "xavier"
    }
    bias_filler {
      type: "constant"
      value: 0.2
    }
  }
}
layer {
  name: "relu1_eyes"
  type: "ReLU"
  bottom: "fc1_eyes"
  top: "fc1_eyes"
}
layer {
  name: "drop1_eyes"
  type: "Dropout"
  bottom: "fc1_eyes"
  top: "fc1_eyes"
  dropout_param {
    dropout_ratio: 0.5
  }
}
layer {
  name: "fc2_eyes"
  type: "InnerProduct"
  bottom: "fc1_eyes"
  top: "fc2_eyes"
  param {
    lr_mult: 1
    decay_mult: 1
  }
  param {
    lr_mult: 2
    decay_mult: 0
  }
  inner_product_param {
    num_output: 1024
    weight_filler {
      type: "xavier"
    }
    bias_filler {
      type: "constant"
      value: 0.2
    }
  }
}
layer {
  name: "relu2_eyes"
  type: "ReLU"
  bottom: "fc2_eyes"
  top: "fc2_eyes"
}
layer {
  name: "drop2_eyes"
  type: "Dropout"
  bottom: "fc2_eyes"
  top: "fc2_eyes"
  dropout_param {
    dropout_ratio: 0.5
  }
}
layer {
  name: "conv3_face"
  type: "Convolution"
  bottom: "pool3"
  top: "conv3_face"
  param {
    lr_mult: 1
    decay_mult: 1
  }
  param {
    lr_mult: 2
    decay_mult: 0
  }
  convolution_param {
    num_output: 512
    pad: 1
    kernel_size: 3
    stride: 2
    weight_filler {
      type: "xavier"
    }
    bias_filler {
      type: "constant"
      value: 0.2
    }
  }
}
layer {
  name: "conv3_face_bn"
  type: "BatchNorm"
  bottom: "conv3_face"
  top: "conv3_face"
  batch_norm_param {
    use_global_stats: false
  }
}
layer {
  name: "conv3_face_scale"
  type: "Scale"
  bottom: "conv3_face"
  top: "conv3_face"
  scale_param {
    bias_term: true
  }
}
layer {
  name: "prelu3_face"
  type: "PReLU"
  bottom: "conv3_face"
  top: "conv3_face"
}
layer {
  name: "pool3_face"
  type: "Pooling"
  bottom: "conv3_face"
  top: "pool3_face"
  pooling_param {
    pool: MAX
    kernel_size: 5
    stride: 2
    pad: 2
  }
}
layer {
  name: "fc1_face"
  type: "InnerProduct"
  bottom: "pool3_face"
  top: "fc1_face"
  param {
    lr_mult: 1
    decay_mult: 1
  }
  param {
    lr_mult: 2
    decay_mult: 0
  }
  inner_product_param {
    num_output: 1024
    weight_filler {
      type: "xavier"
    }
    bias_filler {
      type: "constant"
      value: 0.2
    }
  }
}
layer {
  name: "relu1_face"
  type: "ReLU"
  bottom: "fc1_face"
  top: "fc1_face"
}
layer {
  name: "drop1_face"
  type: "Dropout"
  bottom: "fc1_face"
  top: "fc1_face"
  dropout_param {
    dropout_ratio: 0.5
  }
}
layer {
  name: "fc2_face"
  type: "InnerProduct"
  bottom: "fc1_face"
  top: "fc2_face"
  param {
    lr_mult: 1
    decay_mult: 1
  }
  param {
    lr_mult: 2
    decay_mult: 0
  }
  inner_product_param {
    num_output: 1024
    weight_filler {
      type: "xavier"
    }
    bias_filler {
      type: "constant"
      value: 0.2
    }
  }
}
layer {
  name: "relu2_face"
  type: "ReLU"
  bottom: "fc2_face"
  top: "fc2_face"
}
layer {
  name: "drop2_face"
  type: "Dropout"
  bottom: "fc2_face"
  top: "fc2_face"
  dropout_param {
    dropout_ratio: 0.5
  }
}
layer {
  name: "conv3_rest"
  type: "Convolution"
  bottom: "pool3"
  top: "conv3_rest"
  param {
    lr_mult: 1
    decay_mult: 1
  }
  param {
    lr_mult: 2
    decay_mult: 0
  }
  convolution_param {
    num_output: 512
    pad: 1
    kernel_size: 3
    stride: 2
    weight_filler {
      type: "xavier"
    }
    bias_filler {
      type: "constant"
      value: 0.2
    }
  }
}
layer {
  name: "conv3_rest_bn"
  type: "BatchNorm"
  bottom: "conv3_rest"
  top: "conv3_rest"
  batch_norm_param {
    use_global_stats: false
  }
}
layer {
  name: "conv3_rest_scale"
  type: "Scale"
  bottom: "conv3_rest"
  top: "conv3_rest"
  scale_param {
    bias_term: true
  }
}
layer {
  name: "prelu3_rest"
  type: "PReLU"
  bottom: "conv3_rest"
  top: "conv3_rest"
}
layer {
  name: "pool3_rest"
  type: "Pooling"
  bottom: "conv3_rest"
  top: "pool3_rest"
  pooling_param {
    pool: MAX
    kernel_size: 5
    stride: 2
    pad: 2
  }
}
layer {
  name: "fc1_aroundhead"
  type: "InnerProduct"
  bottom: "pool3_rest"
  top: "fc1_aroundhead"
  param {
    lr_mult: 1
    decay_mult: 1
  }
  param {
    lr_mult: 2
    decay_mult: 0
  }
  inner_product_param {
    num_output: 1024
    weight_filler {
      type: "xavier"
    }
    bias_filler {
      type: "constant"
      value: 0.2
    }
  }
}
layer {
  name: "relu1_aroundhead"
  type: "ReLU"
  bottom: "fc1_aroundhead"
  top: "fc1_aroundhead"
}
layer {
  name: "drop1_aroundhead"
  type: "Dropout"
  bottom: "fc1_aroundhead"
  top: "fc1_aroundhead"
  dropout_param {
    dropout_ratio: 0.5
  }
}
layer {
  name: "fc2_aroundhead"
  type: "InnerProduct"
  bottom: "fc1_aroundhead"
  top: "fc2_aroundhead"
  param {
    lr_mult: 1
    decay_mult: 1
  }
  param {
    lr_mult: 2
    decay_mult: 0
  }
  inner_product_param {
    num_output: 1024
    weight_filler {
      type: "xavier"
    }
    bias_filler {
      type: "constant"
      value: 0.2
    }
  }
}
layer {
  name: "relu2_aroundhead"
  type: "ReLU"
  bottom: "fc2_aroundhead"
  top: "fc2_aroundhead"
}
layer {
  name: "drop2_aroundhead"
  type: "Dropout"
  bottom: "fc2_aroundhead"
  top: "fc2_aroundhead"
  dropout_param {
    dropout_ratio: 0.5
  }
}
layer {
  name: "fc1_facialhair"
  type: "InnerProduct"
  bottom: "pool3_rest"
  top: "fc1_facialhair"
  param {
    lr_mult: 1
    decay_mult: 1
  }
  param {
    lr_mult: 2
    decay_mult: 0
  }
  inner_product_param {
    num_output: 1024
    weight_filler {
      type: "xavier"
    }
    bias_filler {
      type: "constant"
      value: 0.2
    }
  }
}
layer {
  name: "relu1_facialhair"
  type: "ReLU"
  bottom: "fc1_facialhair"
  top: "fc1_facialhair"
}
layer {
  name: "drop1_facialhair"
  type: "Dropout"
  bottom: "fc1_facialhair"
  top: "fc1_facialhair"
  dropout_param {
    dropout_ratio: 0.5
  }
}
layer {
  name: "fc2_facialhair"
  type: "InnerProduct"
  bottom: "fc1_facialhair"
  top: "fc2_facialhair"
  param {
    lr_mult: 1
    decay_mult: 1
  }
  param {
    lr_mult: 2
    decay_mult: 0
  }
  inner_product_param {
    num_output: 1024
    weight_filler {
      type: "xavier"
    }
    bias_filler {
      type: "constant"
      value: 0.2
    }
  }
}
layer {
  name: "relu2_facialhair"
  type: "ReLU"
  bottom: "fc2_facialhair"
  top: "fc2_facialhair"
}
layer {
  name: "drop2_facialhair"
  type: "Dropout"
  bottom: "fc2_facialhair"
  top: "fc2_facialhair"
  dropout_param {
    dropout_ratio: 0.5
  }
}
layer {
  name: "fc1_cheeks"
  type: "InnerProduct"
  bottom: "pool3_rest"
  top: "fc1_cheeks"
  param {
    lr_mult: 1
    decay_mult: 1
  }
  param {
    lr_mult: 2
    decay_mult: 0
  }
  inner_product_param {
    num_output: 1024
    weight_filler {
      type: "xavier"
    }
    bias_filler {
      type: "constant"
      value: 0.2
    }
  }
}
layer {
  name: "relu1_cheeks"
  type: "ReLU"
  bottom: "fc1_cheeks"
  top: "fc1_cheeks"
}
layer {
  name: "drop1_cheeks"
  type: "Dropout"
  bottom: "fc1_cheeks"
  top: "fc1_cheeks"
  dropout_param {
    dropout_ratio: 0.5
  }
}
layer {
  name: "fc2_cheeks"
  type: "InnerProduct"
  bottom: "fc1_cheeks"
  top: "fc2_cheeks"
  param {
    lr_mult: 1
    decay_mult: 1
  }
  param {
    lr_mult: 2
    decay_mult: 0
  }
  inner_product_param {
    num_output: 1024
    weight_filler {
      type: "xavier"
    }
    bias_filler {
      type: "constant"
      value: 0.2
    }
  }
}
layer {
  name: "relu2_cheeks"
  type: "ReLU"
  bottom: "fc2_cheeks"
  top: "fc2_cheeks"
}
layer {
  name: "drop2_cheeks"
  type: "Dropout"
  bottom: "fc2_cheeks"
  top: "fc2_cheeks"
  dropout_param {
    dropout_ratio: 0.5
  }
}
layer {
  name: "fc1_fat"
  type: "InnerProduct"
  bottom: "pool3_rest"
  top: "fc1_fat"
  param {
    lr_mult: 1
    decay_mult: 1
  }
  param {
    lr_mult: 2
    decay_mult: 0
  }
  inner_product_param {
    num_output: 1024
    weight_filler {
      type: "xavier"
    }
    bias_filler {
      type: "constant"
      value: 0.2
    }
  }
}
layer {
  name: "relu1_fat"
  type: "ReLU"
  bottom: "fc1_fat"
  top: "fc1_fat"
}
layer {
  name: "drop1_fat"
  type: "Dropout"
  bottom: "fc1_fat"
  top: "fc1_fat"
  dropout_param {
    dropout_ratio: 0.5
  }
}
layer {
  name: "fc2_fat"
  type: "InnerProduct"
  bottom: "fc1_fat"
  top: "fc2_fat"
  param {
    lr_mult: 1
    decay_mult: 1
  }
  param {
    lr_mult: 2
    decay_mult: 0
  }
  inner_product_param {
    num_output: 1024
    weight_filler {
      type: "xavier"
    }
    bias_filler {
      type: "constant"
      value: 0.2
    }
  }
}
layer {
  name: "relu2_fat"
  type: "ReLU"
  bottom: "fc2_fat"
  top: "fc2_fat"
}
layer {
  name: "drop2_fat"
  type: "Dropout"
  bottom: "fc2_fat"
  top: "fc2_fat"
  dropout_param {
    dropout_ratio: 0.5
  }
}
layer {
  name: "fc3_Male"
  type: "InnerProduct"
  bottom: "fc2_gender"
  top: "fc3_Male"
  inner_product_param {
    num_output: 2
    weight_filler {
      type: "xavier"
    }
    bias_filler {
      type: "constant"
      value: 0
    }
  }
}
layer {
  name: "loss_Male"
  type: "SigmoidCrossEntropyLoss"
  bottom: "fc3_Male"
  bottom: "label_Male"
  top: "loss_Male"
}
layer {
  name: "fc3_Big_Nose"
  type: "InnerProduct"
  bottom: "fc2_nose"
  top: "fc3_Big_Nose"
  inner_product_param {
    num_output: 2
    weight_filler {
      type: "xavier"
    }
    bias_filler {
      type: "constant"
      value: 0
    }
  }
}
layer {
  name: "loss_Big_Nose"
  type: "SigmoidCrossEntropyLoss"
  bottom: "fc3_Big_Nose"
  bottom: "label_Big_Nose"
  top: "loss_Big_Nose"
}
layer {
  name: "fc3_Pointy_Nose"
  type: "InnerProduct"
  bottom: "fc2_nose"
  top: "fc3_Pointy_Nose"
  inner_product_param {
    num_output: 2
    weight_filler {
      type: "xavier"
    }
    bias_filler {
      type: "constant"
      value: 0
    }
  }
}
layer {
  name: "loss_Pointy_Nose"
  type: "SigmoidCrossEntropyLoss"
  bottom: "fc3_Pointy_Nose"
  bottom: "label_Pointy_Nose"
  top: "loss_Pointy_Nose"
}
layer {
  name: "fc3_Big_Lips"
  type: "InnerProduct"
  bottom: "fc2_mouth"
  top: "fc3_Big_Lips"
  inner_product_param {
    num_output: 2
    weight_filler {
      type: "xavier"
    }
    bias_filler {
      type: "constant"
      value: 0
    }
  }
}
layer {
  name: "loss_Big_Lips"
  type: "SigmoidCrossEntropyLoss"
  bottom: "fc3_Big_Lips"
  bottom: "label_Big_Lips"
  top: "loss_Big_Lips"
}
layer {
  name: "fc3_Smiling"
  type: "InnerProduct"
  bottom: "fc2_mouth"
  top: "fc3_Smiling"
  inner_product_param {
    num_output: 2
    weight_filler {
      type: "xavier"
    }
    bias_filler {
      type: "constant"
      value: 0
    }
  }
}
layer {
  name: "loss_Smiling"
  type: "SigmoidCrossEntropyLoss"
  bottom: "fc3_Smiling"
  bottom: "label_Smiling"
  top: "loss_Smiling"
}
layer {
  name: "fc3_Wearing_Lipstick"
  type: "InnerProduct"
  bottom: "fc2_mouth"
  top: "fc3_Wearing_Lipstick"
  inner_product_param {
    num_output: 2
    weight_filler {
      type: "xavier"
    }
    bias_filler {
      type: "constant"
      value: 0
    }
  }
}
layer {
  name: "loss_Wearing_Lipstick"
  type: "SigmoidCrossEntropyLoss"
  bottom: "fc3_Wearing_Lipstick"
  bottom: "label_Wearing_Lipstick"
  top: "loss_Wearing_Lipstick"
}
layer {
  name: "fc3_Mouth_Slightly_Open"
  type: "InnerProduct"
  bottom: "fc2_mouth"
  top: "fc3_Mouth_Slightly_Open"
  inner_product_param {
    num_output: 2
    weight_filler {
      type: "xavier"
    }
    bias_filler {
      type: "constant"
      value: 0
    }
  }
}
layer {
  name: "loss_Mouth_Slightly_Open"
  type: "SigmoidCrossEntropyLoss"
  bottom: "fc3_Mouth_Slightly_Open"
  bottom: "label_Mouth_Slightly_Open"
  top: "loss_Mouth_Slightly_Open"
}
layer {
  name: "fc3_Arched_Eyebrows"
  type: "InnerProduct"
  bottom: "fc2_eyes"
  top: "fc3_Arched_Eyebrows"
  inner_product_param {
    num_output: 2
    weight_filler {
      type: "xavier"
    }
    bias_filler {
      type: "constant"
      value: 0
    }
  }
}
layer {
  name: "loss_Arched_Eyebrows"
  type: "SigmoidCrossEntropyLoss"
  bottom: "fc3_Arched_Eyebrows"
  bottom: "label_Arched_Eyebrows"
  top: "loss_Arched_Eyebrows"
}
layer {
  name: "fc3_Bags_Under_Eyes"
  type: "InnerProduct"
  bottom: "fc2_eyes"
  top: "fc3_Bags_Under_Eyes"
  inner_product_param {
    num_output: 2
    weight_filler {
      type: "xavier"
    }
    bias_filler {
      type: "constant"
      value: 0
    }
  }
}
layer {
  name: "loss_Bags_Under_Eyes"
  type: "SigmoidCrossEntropyLoss"
  bottom: "fc3_Bags_Under_Eyes"
  bottom: "label_Bags_Under_Eyes"
  top: "loss_Bags_Under_Eyes"
}
layer {
  name: "fc3_Bushy_Eyebrows"
  type: "InnerProduct"
  bottom: "fc2_eyes"
  top: "fc3_Bushy_Eyebrows"
  inner_product_param {
    num_output: 2
    weight_filler {
      type: "xavier"
    }
    bias_filler {
      type: "constant"
      value: 0
    }
  }
}
layer {
  name: "loss_Bushy_Eyebrows"
  type: "SigmoidCrossEntropyLoss"
  bottom: "fc3_Bushy_Eyebrows"
  bottom: "label_Bushy_Eyebrows"
  top: "loss_Bushy_Eyebrows"
}
layer {
  name: "fc3_Narrow_Eyes"
  type: "InnerProduct"
  bottom: "fc2_eyes"
  top: "fc3_Narrow_Eyes"
  inner_product_param {
    num_output: 2
    weight_filler {
      type: "xavier"
    }
    bias_filler {
      type: "constant"
      value: 0
    }
  }
}
layer {
  name: "loss_Narrow_Eyes"
  type: "SigmoidCrossEntropyLoss"
  bottom: "fc3_Narrow_Eyes"
  bottom: "label_Narrow_Eyes"
  top: "loss_Narrow_Eyes"
}
layer {
  name: "fc3_Eyeglasses"
  type: "InnerProduct"
  bottom: "fc2_eyes"
  top: "fc3_Eyeglasses"
  inner_product_param {
    num_output: 2
    weight_filler {
      type: "xavier"
    }
    bias_filler {
      type: "constant"
      value: 0
    }
  }
}
layer {
  name: "loss_Eyeglasses"
  type: "SigmoidCrossEntropyLoss"
  bottom: "fc3_Eyeglasses"
  bottom: "label_Eyeglasses"
  top: "loss_Eyeglasses"
}
layer {
  name: "fc3_Attractive"
  type: "InnerProduct"
  bottom: "fc2_face"
  top: "fc3_Attractive"
  inner_product_param {
    num_output: 2
    weight_filler {
      type: "xavier"
    }
    bias_filler {
      type: "constant"
      value: 0
    }
  }
}
layer {
  name: "loss_Attractive"
  type: "SigmoidCrossEntropyLoss"
  bottom: "fc3_Attractive"
  bottom: "label_Attractive"
  top: "loss_Attractive"
}
layer {
  name: "fc3_Blurry"
  type: "InnerProduct"
  bottom: "fc2_face"
  top: "fc3_Blurry"
  inner_product_param {
    num_output: 2
    weight_filler {
      type: "xavier"
    }
    bias_filler {
      type: "constant"
      value: 0
    }
  }
}
layer {
  name: "loss_Blurry"
  type: "SigmoidCrossEntropyLoss"
  bottom: "fc3_Blurry"
  bottom: "label_Blurry"
  top: "loss_Blurry"
}
layer {
  name: "fc3_Oval_Face"
  type: "InnerProduct"
  bottom: "fc2_face"
  top: "fc3_Oval_Face"
  inner_product_param {
    num_output: 2
    weight_filler {
      type: "xavier"
    }
    bias_filler {
      type: "constant"
      value: 0
    }
  }
}
layer {
  name: "loss_Oval_Face"
  type: "SigmoidCrossEntropyLoss"
  bottom: "fc3_Oval_Face"
  bottom: "label_Oval_Face"
  top: "loss_Oval_Face"
}
layer {
  name: "fc3_Pale_Skin"
  type: "InnerProduct"
  bottom: "fc2_face"
  top: "fc3_Pale_Skin"
  inner_product_param {
    num_output: 2
    weight_filler {
      type: "xavier"
    }
    bias_filler {
      type: "constant"
      value: 0
    }
  }
}
layer {
  name: "loss_Pale_Skin"
  type: "SigmoidCrossEntropyLoss"
  bottom: "fc3_Pale_Skin"
  bottom: "label_Pale_Skin"
  top: "loss_Pale_Skin"
}
layer {
  name: "fc3_Young"
  type: "InnerProduct"
  bottom: "fc2_face"
  top: "fc3_Young"
  inner_product_param {
    num_output: 2
    weight_filler {
      type: "xavier"
    }
    bias_filler {
      type: "constant"
      value: 0
    }
I1019 10:24:05.493757  8438 layer_factory.hpp:77] Creating layer data
I1019 10:24:05.493803  8438 net.cpp:91] Creating Layer data
I1019 10:24:05.493813  8438 net.cpp:399] data -> data
I1019 10:24:05.493841  8438 net.cpp:399] data -> fakelabel1
I1019 10:24:05.493865  8438 data_transformer.cpp:25] Loading mean file from: /home/zhangyuan/caojiajiong/attribute_learning/attr_id/data/train_attr_id.binaryproto
I1019 10:24:05.505808  8438 image_data_layer.cpp:38] Opening file /home/zhangyuan/caojiajiong/attribute_learning/attr_id/data/train_all.txt
I1019 10:24:08.084141  8438 image_data_layer.cpp:53] A total of 4800000 images.
I1019 10:24:08.091320  8438 image_data_layer.cpp:80] output data size: 100,3,112,112
I1019 10:24:08.120147  8438 net.cpp:141] Setting up data
I1019 10:24:08.120244  8438 net.cpp:148] Top shape: 100 3 112 112 (3763200)
I1019 10:24:08.120254  8438 net.cpp:148] Top shape: 100 (100)
I1019 10:24:08.120260  8438 net.cpp:156] Memory required for data: 15053200
I1019 10:24:08.120296  8438 layer_factory.hpp:77] Creating layer attr_data
I1019 10:24:08.120941  8438 net.cpp:91] Creating Layer attr_data
I1019 10:24:08.120955  8438 net.cpp:399] attr_data -> attr_data
I1019 10:24:08.120977  8438 net.cpp:399] attr_data -> fakelabel2
I1019 10:24:08.123752  8443 db_lmdb.cpp:40] Opened lmdb /home/zhangyuan/caojiajiong/attribute_learning/attr_id/data/train_label_new_all_lmdb
I1019 10:24:08.124150  8438 data_layer.cpp:41] output data size: 100,80,1,1
I1019 10:24:08.127027  8438 net.cpp:141] Setting up attr_data
I1019 10:24:08.127049  8438 net.cpp:148] Top shape: 100 80 1 1 (8000)
I1019 10:24:08.127055  8438 net.cpp:148] Top shape: 100 (100)
I1019 10:24:08.127060  8438 net.cpp:156] Memory required for data: 15085600
I1019 10:24:08.127066  8438 layer_factory.hpp:77] Creating layer conv1
I1019 10:24:08.127205  8438 net.cpp:91] Creating Layer conv1
I1019 10:24:08.127219  8438 net.cpp:425] conv1 <- data
I1019 10:24:08.127257  8438 net.cpp:399] conv1 -> conv1
I1019 10:24:08.128404  8438 net.cpp:141] Setting up conv1
I1019 10:24:08.128427  8438 net.cpp:148] Top shape: 100 64 112 112 (80281600)
I1019 10:24:08.128439  8438 net.cpp:156] Memory required for data: 336212000
I1019 10:24:08.128497  8438 layer_factory.hpp:77] Creating layer slice
I1019 10:24:08.128567  8438 net.cpp:91] Creating Layer slice
I1019 10:24:08.128573  8438 net.cpp:425] slice <- attr_data
I1019 10:24:08.128585  8438 net.cpp:399] slice -> label_5_o_Clock_Shadow
I1019 10:24:08.128603  8438 net.cpp:399] slice -> label_Arched_Eyebrows
…
I1019 10:24:08.129007  8438 net.cpp:399] slice -> label_Straight_Hair
I1019 10:24:08.129020  8438 net.cpp:399] slice -> label_Wavy_Hair
I1019 10:24:08.129032  8438 net.cpp:399] slice -> label_Wearing_Earrings
I1019 10:24:08.129045  8438 net.cpp:399] slice -> label_Wearing_Hat
I1019 10:24:08.129056  8438 net.cpp:399] slice -> label_Wearing_Lipstick
I1019 10:24:08.129067  8438 net.cpp:399] slice -> label_Wearing_Necklace
I1019 10:24:08.129081  8438 net.cpp:399] slice -> label_Wearing_Necktie
I1019 10:24:08.129092  8438 net.cpp:399] slice -> label_Young
I1019 10:24:08.129544  8438 net.cpp:141] Setting up slice
I1019 10:24:08.129554  8438 net.cpp:148] Top shape: 100 2 1 1 (200)
I1019 10:24:08.129560  8438 net.cpp:148] Top shape: 100 2 1 1 (200)
I1019 10:24:08.129566  8438 net.cpp:148] Top shape: 100 2 1 1 (200)
I1019 10:24:08.129571  8438 net.cpp:148] Top shape: 100 2 1 1 (200)
I1019 10:24:08.129577  8438 net.cpp:148] Top shape: 100 2 1 1 (200)
I1019 10:24:08.129582  8438 net.cpp:148] Top shape: 100 2 1 1 (200)
I1019 10:24:08.129587  8438 net.cpp:148] Top shape: 100 2 1 1 (200)
I1019 10:24:08.129592  8438 net.cpp:148] Top shape: 100 2 1 1 (200)
I1019 10:24:08.129597  8438 net.cpp:148] Top shape: 100 2 1 1 (200)
I1019 10:24:08.129602  8438 net.cpp:148] Top shape: 100 2 1 1 (200)
I1019 10:24:08.129607  8438 net.cpp:148] Top shape: 100 2 1 1 (200)
I1019 10:24:08.129627  8438 net.cpp:148] Top shape: 100 2 1 1 (200)
I1019 10:24:08.129633  8438 net.cpp:148] Top shape: 100 2 1 1 (200)
I1019 10:24:08.129638  8438 net.cpp:148] Top shape: 100 2 1 1 (200)
I1019 10:24:08.129643  8438 net.cpp:148] Top shape: 100 2 1 1 (200)
I1019 10:24:08.129648  8438 net.cpp:148] Top shape: 100 2 1 1 (200)
I1019 10:24:08.129653  8438 net.cpp:148] Top shape: 100 2 1 1 (200)
I1019 10:24:08.129659  8438 net.cpp:148] Top shape: 100 2 1 1 (200)
I1019 10:24:08.129664  8438 net.cpp:148] Top shape: 100 2 1 1 (200)
I1019 10:24:08.129669  8438 net.cpp:148] Top shape: 100 2 1 1 (200)
I1019 10:24:08.129674  8438 net.cpp:148] Top shape: 100 2 1 1 (200)
I1019 10:24:08.129679  8438 net.cpp:148] Top shape: 100 2 1 1 (200)
I1019 10:24:08.129684  8438 net.cpp:148] Top shape: 100 2 1 1 (200)
I1019 10:24:08.129689  8438 net.cpp:148] Top shape: 100 2 1 1 (200)
I1019 10:24:08.129694  8438 net.cpp:148] Top shape: 100 2 1 1 (200)
I1019 10:24:08.129699  8438 net.cpp:148] Top shape: 100 2 1 1 (200)
I1019 10:24:08.129704  8438 net.cpp:148] Top shape: 100 2 1 1 (200)
I1019 10:24:08.129709  8438 net.cpp:148] Top shape: 100 2 1 1 (200)
I1019 10:24:08.129714  8438 net.cpp:148] Top shape: 100 2 1 1 (200)
I1019 10:24:08.129720  8438 net.cpp:148] Top shape: 100 2 1 1 (200)
I1019 10:24:08.129725  8438 net.cpp:148] Top shape: 100 2 1 1 (200)
I1019 10:24:08.129730  8438 net.cpp:148] Top shape: 100 2 1 1 (200)
I1019 10:24:08.129735  8438 net.cpp:148] Top shape: 100 2 1 1 (200)
I1019 10:24:08.129740  8438 net.cpp:148] Top shape: 100 2 1 1 (200)
I1019 10:24:08.129745  8438 net.cpp:148] Top shape: 100 2 1 1 (200)
I1019 10:24:08.129750  8438 net.cpp:148] Top shape: 100 2 1 1 (200)
I1019 10:24:08.129755  8438 net.cpp:148] Top shape: 100 2 1 1 (200)
I1019 10:24:08.129760  8438 net.cpp:148] Top shape: 100 2 1 1 (200)
I1019 10:24:08.129765  8438 net.cpp:148] Top shape: 100 2 1 1 (200)
I1019 10:24:08.129770  8438 net.cpp:148] Top shape: 100 2 1 1 (200)
I1019 10:24:08.129775  8438 net.cpp:156] Memory required for data: 336244000
I1019 10:24:08.129778  8438 layer_factory.hpp:77] Creating layer conv1_bn
I1019 10:24:08.129796  8438 net.cpp:91] Creating Layer conv1_bn
I1019 10:24:08.129801  8438 net.cpp:425] conv1_bn <- conv1
I1019 10:24:08.129807  8438 net.cpp:386] conv1_bn -> conv1 (in-place)
I1019 10:24:08.130022  8438 net.cpp:141] Setting up conv1_bn
I1019 10:24:08.130034  8438 net.cpp:148] Top shape: 100 64 112 112 (80281600)
I1019 10:24:08.130060  8438 net.cpp:156] Memory required for data: 657370400
I1019 10:24:08.130084  8438 layer_factory.hpp:77] Creating layer conv1_scale
I1019 10:24:08.130111  8438 net.cpp:91] Creating Layer conv1_scale
I1019 10:24:08.130118  8438 net.cpp:425] conv1_scale <- conv1
I1019 10:24:08.130126  8438 net.cpp:386] conv1_scale -> conv1 (in-place)
I1019 10:24:08.130255  8438 layer_factory.hpp:77] Creating layer conv1_scale
I1019 10:24:08.130466  8438 net.cpp:141] Setting up conv1_scale
I1019 10:24:08.130487  8438 net.cpp:148] Top shape: 100 64 112 112 (80281600)
I1019 10:24:08.130496  8438 net.cpp:156] Memory required for data: 978496800
I1019 10:24:08.130513  8438 layer_factory.hpp:77] Creating layer prelu1
I1019 10:24:08.130555  8438 net.cpp:91] Creating Layer prelu1
I1019 10:24:08.130563  8438 net.cpp:425] prelu1 <- conv1
I1019 10:24:08.130589  8438 net.cpp:386] prelu1 -> conv1 (in-place)
I1019 10:24:08.132849  8438 net.cpp:141] Setting up prelu1
I1019 10:24:08.132872  8438 net.cpp:148] Top shape: 100 64 112 112 (80281600)
I1019 10:24:08.132886  8438 net.cpp:156] Memory required for data: 1299623200
I1019 10:24:08.132896  8438 layer_factory.hpp:77] Creating layer pool1
I1019 10:24:08.132906  8438 net.cpp:91] Creating Layer pool1
I1019 10:24:08.132915  8438 net.cpp:425] pool1 <- conv1
I1019 10:24:08.132925  8438 net.cpp:399] pool1 -> pool1
I1019 10:24:08.133019  8438 net.cpp:141] Setting up pool1
I1019 10:24:08.133031  8438 net.cpp:148] Top shape: 100 64 56 56 (20070400)
I1019 10:24:08.133041  8438 net.cpp:156] Memory required for data: 1379904800
I1019 10:24:08.133055  8438 layer_factory.hpp:77] Creating layer conv2a
I1019 10:24:08.133112  8438 net.cpp:91] Creating Layer conv2a
I1019 10:24:08.133124  8438 net.cpp:425] conv2a <- pool1
I1019 10:24:08.133137  8438 net.cpp:399] conv2a -> conv2a
I1019 10:24:08.133445  8438 net.cpp:141] Setting up conv2a
I1019 10:24:08.133456  8438 net.cpp:148] Top shape: 100 64 56 56 (20070400)
I1019 10:24:08.133461  8438 net.cpp:156] Memory required for data: 1460186400
I1019 10:24:08.133473  8438 layer_factory.hpp:77] Creating layer conv2a_bn
I1019 10:24:08.133482  8438 net.cpp:91] Creating Layer conv2a_bn
I1019 10:24:08.133489  8438 net.cpp:425] conv2a_bn <- conv2a
I1019 10:24:08.133496  8438 net.cpp:386] conv2a_bn -> conv2a (in-place)
I1019 10:24:08.133723  8438 net.cpp:141] Setting up conv2a_bn
I1019 10:24:08.133738  8438 net.cpp:148] Top shape: 100 64 56 56 (20070400)
I1019 10:24:08.133744  8438 net.cpp:156] Memory required for data: 1540468000
I1019 10:24:08.133764  8438 layer_factory.hpp:77] Creating layer conv2a_scale
I1019 10:24:08.133772  8438 net.cpp:91] Creating Layer conv2a_scale
I1019 10:24:08.133785  8438 net.cpp:425] conv2a_scale <- conv2a
I1019 10:24:08.133793  8438 net.cpp:386] conv2a_scale -> conv2a (in-place)
I1019 10:24:08.133842  8438 layer_factory.hpp:77] Creating layer conv2a_scale
I1019 10:24:08.133977  8438 net.cpp:141] Setting up conv2a_scale
I1019 10:24:08.133990  8438 net.cpp:148] Top shape: 100 64 56 56 (20070400)
I1019 10:24:08.133996  8438 net.cpp:156] Memory required for data: 1620749600
I1019 10:24:08.134013  8438 layer_factory.hpp:77] Creating layer prelu2a
I1019 10:24:08.134024  8438 net.cpp:91] Creating Layer prelu2a
I1019 10:24:08.134037  8438 net.cpp:425] prelu2a <- conv2a
I1019 10:24:08.134047  8438 net.cpp:386] prelu2a -> conv2a (in-place)
I1019 10:24:08.134953  8438 net.cpp:141] Setting up prelu2a
I1019 10:24:08.134971  8438 net.cpp:148] Top shape: 100 64 56 56 (20070400)
I1019 10:24:08.134976  8438 net.cpp:156] Memory required for data: 1701031200
I1019 10:24:08.134984  8438 layer_factory.hpp:77] Creating layer conv2
I1019 10:24:08.135018  8438 net.cpp:91] Creating Layer conv2
I1019 10:24:08.135025  8438 net.cpp:425] conv2 <- conv2a
I1019 10:24:08.135035  8438 net.cpp:399] conv2 -> conv2
I1019 10:24:08.136857  8438 net.cpp:141] Setting up conv2
I1019 10:24:08.136878  8438 net.cpp:148] Top shape: 100 192 56 56 (60211200)
I1019 10:24:08.136888  8438 net.cpp:156] Memory required for data: 1941876000
I1019 10:24:08.136903  8438 layer_factory.hpp:77] Creating layer conv2_bn
I1019 10:24:08.136912  8438 net.cpp:91] Creating Layer conv2_bn
I1019 10:24:08.136917  8438 net.cpp:425] conv2_bn <- conv2
I1019 10:24:08.136924  8438 net.cpp:386] conv2_bn -> conv2 (in-place)
I1019 10:24:08.137125  8438 net.cpp:141] Setting up conv2_bn
I1019 10:24:08.137135  8438 net.cpp:148] Top shape: 100 192 56 56 (60211200)
I1019 10:24:08.137140  8438 net.cpp:156] Memory required for data: 2182720800
I1019 10:24:08.137151  8438 layer_factory.hpp:77] Creating layer conv2_scale
I1019 10:24:08.137169  8438 net.cpp:91] Creating Layer conv2_scale
I1019 10:24:08.137176  8438 net.cpp:425] conv2_scale <- conv2
I1019 10:24:08.137182  8438 net.cpp:386] conv2_scale -> conv2 (in-place)
I1019 10:24:08.137226  8438 layer_factory.hpp:77] Creating layer conv2_scale
I1019 10:24:08.137358  8438 net.cpp:141] Setting up conv2_scale
I1019 10:24:08.137369  8438 net.cpp:148] Top shape: 100 192 56 56 (60211200)
I1019 10:24:08.137373  8438 net.cpp:156] Memory required for data: 2423565600
I1019 10:24:08.137382  8438 layer_factory.hpp:77] Creating layer prelu2
I1019 10:24:08.137387  8438 net.cpp:91] Creating Layer prelu2
I1019 10:24:08.137392  8438 net.cpp:425] prelu2 <- conv2
I1019 10:24:08.137399  8438 net.cpp:386] prelu2 -> conv2 (in-place)
I1019 10:24:08.139114  8438 net.cpp:141] Setting up prelu2
I1019 10:24:08.139133  8438 net.cpp:148] Top shape: 100 192 56 56 (60211200)
I1019 10:24:08.139138  8438 net.cpp:156] Memory required for data: 2664410400
I1019 10:24:08.139147  8438 layer_factory.hpp:77] Creating layer pool2
I1019 10:24:08.139171  8438 net.cpp:91] Creating Layer pool2
I1019 10:24:08.139192  8438 net.cpp:425] pool2 <- conv2
I1019 10:24:08.139201  8438 net.cpp:399] pool2 -> pool2
I1019 10:24:08.139250  8438 net.cpp:141] Setting up pool2
I1019 10:24:08.139271  8438 net.cpp:148] Top shape: 100 192 28 28 (15052800)
I1019 10:24:08.139276  8438 net.cpp:156] Memory required for data: 2724621600
I1019 10:24:08.139281  8438 layer_factory.hpp:77] Creating layer conv3a
I1019 10:24:08.139292  8438 net.cpp:91] Creating Layer conv3a
I1019 10:24:08.139297  8438 net.cpp:425] conv3a <- pool2
I1019 10:24:08.139307  8438 net.cpp:399] conv3a -> conv3a
I1019 10:24:08.140535  8438 net.cpp:141] Setting up conv3a
I1019 10:24:08.140553  8438 net.cpp:148] Top shape: 100 192 28 28 (15052800)
I1019 10:24:08.140565  8438 net.cpp:156] Memory required for data: 2784832800
I1019 10:24:08.140574  8438 layer_factory.hpp:77] Creating layer conv3a_bn
I1019 10:24:08.140594  8438 net.cpp:91] Creating Layer conv3a_bn
I1019 10:24:08.140600  8438 net.cpp:425] conv3a_bn <- conv3a
I1019 10:24:08.140609  8438 net.cpp:386] conv3a_bn -> conv3a (in-place)
I1019 10:24:08.140812  8438 net.cpp:141] Setting up conv3a_bn
I1019 10:24:08.140823  8438 net.cpp:148] Top shape: 100 192 28 28 (15052800)
I1019 10:24:08.140828  8438 net.cpp:156] Memory required for data: 2845044000
I1019 10:24:08.140839  8438 layer_factory.hpp:77] Creating layer conv3a_scale
I1019 10:24:08.140847  8438 net.cpp:91] Creating Layer conv3a_scale
I1019 10:24:08.140852  8438 net.cpp:425] conv3a_scale <- conv3a
I1019 10:24:08.140859  8438 net.cpp:386] conv3a_scale -> conv3a (in-place)
I1019 10:24:08.140903  8438 layer_factory.hpp:77] Creating layer conv3a_scale
I1019 10:24:08.141031  8438 net.cpp:141] Setting up conv3a_scale
I1019 10:24:08.141041  8438 net.cpp:148] Top shape: 100 192 28 28 (15052800)
I1019 10:24:08.141047  8438 net.cpp:156] Memory required for data: 2905255200
I1019 10:24:08.141062  8438 layer_factory.hpp:77] Creating layer prelu3a
I1019 10:24:08.141070  8438 net.cpp:91] Creating Layer prelu3a
I1019 10:24:08.141075  8438 net.cpp:425] prelu3a <- conv3a
I1019 10:24:08.141083  8438 net.cpp:386] prelu3a -> conv3a (in-place)
I1019 10:24:08.141311  8438 net.cpp:141] Setting up prelu3a
I1019 10:24:08.141324  8438 net.cpp:148] Top shape: 100 192 28 28 (15052800)
I1019 10:24:08.141327  8438 net.cpp:156] Memory required for data: 2965466400
I1019 10:24:08.141333  8438 layer_factory.hpp:77] Creating layer conv3
I1019 10:24:08.141355  8438 net.cpp:91] Creating Layer conv3
I1019 10:24:08.141360  8438 net.cpp:425] conv3 <- conv3a
I1019 10:24:08.141369  8438 net.cpp:399] conv3 -> conv3
I1019 10:24:08.148361  8438 net.cpp:141] Setting up conv3
I1019 10:24:08.148401  8438 net.cpp:148] Top shape: 100 384 28 28 (30105600)
I1019 10:24:08.148406  8438 net.cpp:156] Memory required for data: 3085888800
I1019 10:24:08.148439  8438 layer_factory.hpp:77] Creating layer conv3_bn
I1019 10:24:08.148458  8438 net.cpp:91] Creating Layer conv3_bn
I1019 10:24:08.148465  8438 net.cpp:425] conv3_bn <- conv3
I1019 10:24:08.148474  8438 net.cpp:386] conv3_bn -> conv3 (in-place)
I1019 10:24:08.148671  8438 net.cpp:141] Setting up conv3_bn
I1019 10:24:08.148684  8438 net.cpp:148] Top shape: 100 384 28 28 (30105600)
I1019 10:24:08.148689  8438 net.cpp:156] Memory required for data: 3206311200
I1019 10:24:08.148699  8438 layer_factory.hpp:77] Creating layer conv3_scale
I1019 10:24:08.148708  8438 net.cpp:91] Creating Layer conv3_scale
I1019 10:24:08.148713  8438 net.cpp:425] conv3_scale <- conv3
I1019 10:24:08.148720  8438 net.cpp:386] conv3_scale -> conv3 (in-place)
I1019 10:24:08.148769  8438 layer_factory.hpp:77] Creating layer conv3_scale
I1019 10:24:08.148885  8438 net.cpp:141] Setting up conv3_scale
I1019 10:24:08.148895  8438 net.cpp:148] Top shape: 100 384 28 28 (30105600)
I1019 10:24:08.148900  8438 net.cpp:156] Memory required for data: 3326733600
I1019 10:24:08.148917  8438 layer_factory.hpp:77] Creating layer prelu3
I1019 10:24:08.148926  8438 net.cpp:91] Creating Layer prelu3
I1019 10:24:08.148931  8438 net.cpp:425] prelu3 <- conv3
I1019 10:24:08.148939  8438 net.cpp:386] prelu3 -> conv3 (in-place)
I1019 10:24:08.150146  8438 net.cpp:141] Setting up prelu3
I1019 10:24:08.150166  8438 net.cpp:148] Top shape: 100 384 28 28 (30105600)
I1019 10:24:08.150171  8438 net.cpp:156] Memory required for data: 3447156000
I1019 10:24:08.150179  8438 layer_factory.hpp:77] Creating layer pool3
I1019 10:24:08.150202  8438 net.cpp:91] Creating Layer pool3
I1019 10:24:08.150209  8438 net.cpp:425] pool3 <- conv3
I1019 10:24:08.150218  8438 net.cpp:399] pool3 -> pool3
I1019 10:24:08.150264  8438 net.cpp:141] Setting up pool3
I1019 10:24:08.150274  8438 net.cpp:148] Top shape: 100 384 14 14 (7526400)
I1019 10:24:08.150277  8438 net.cpp:156] Memory required for data: 3477261600
I1019 10:24:08.150281  8438 layer_factory.hpp:77] Creating layer pool3_pool3_0_split
I1019 10:24:08.150300  8438 net.cpp:91] Creating Layer pool3_pool3_0_split
I1019 10:24:08.150305  8438 net.cpp:425] pool3_pool3_0_split <- pool3
I1019 10:24:08.150327  8438 net.cpp:399] pool3_pool3_0_split -> pool3_pool3_0_split_0
I1019 10:24:08.150337  8438 net.cpp:399] pool3_pool3_0_split -> pool3_pool3_0_split_1
I1019 10:24:08.150347  8438 net.cpp:399] pool3_pool3_0_split -> pool3_pool3_0_split_2
I1019 10:24:08.150357  8438 net.cpp:399] pool3_pool3_0_split -> pool3_pool3_0_split_3
I1019 10:24:08.150367  8438 net.cpp:399] pool3_pool3_0_split -> pool3_pool3_0_split_4
I1019 10:24:08.150374  8438 net.cpp:399] pool3_pool3_0_split -> pool3_pool3_0_split_5
I1019 10:24:08.150470  8438 net.cpp:141] Setting up pool3_pool3_0_split
I1019 10:24:08.150480  8438 net.cpp:148] Top shape: 100 384 14 14 (7526400)
I1019 10:24:08.150485  8438 net.cpp:148] Top shape: 100 384 14 14 (7526400)
I1019 10:24:08.150490  8438 net.cpp:148] Top shape: 100 384 14 14 (7526400)
I1019 10:24:08.150496  8438 net.cpp:148] Top shape: 100 384 14 14 (7526400)
I1019 10:24:08.150501  8438 net.cpp:148] Top shape: 100 384 14 14 (7526400)
I1019 10:24:08.150506  8438 net.cpp:148] Top shape: 100 384 14 14 (7526400)
I1019 10:24:08.150509  8438 net.cpp:156] Memory required for data: 3657895200
I1019 10:24:08.150513  8438 layer_factory.hpp:77] Creating layer conv3_gender
I1019 10:24:08.150527  8438 net.cpp:91] Creating Layer conv3_gender
I1019 10:24:08.150532  8438 net.cpp:425] conv3_gender <- pool3_pool3_0_split_0
I1019 10:24:08.150542  8438 net.cpp:399] conv3_gender -> conv3_gender
I1019 10:24:08.168633  8438 net.cpp:141] Setting up conv3_gender
I1019 10:24:08.168686  8438 net.cpp:148] Top shape: 100 512 7 7 (2508800)
I1019 10:24:08.168694  8438 net.cpp:156] Memory required for data: 3667930400
I1019 10:24:08.168706  8438 layer_factory.hpp:77] Creating layer conv3_gender_bn
I1019 10:24:08.168730  8438 net.cpp:91] Creating Layer conv3_gender_bn
I1019 10:24:08.168738  8438 net.cpp:425] conv3_gender_bn <- conv3_gender
I1019 10:24:08.168750  8438 net.cpp:386] conv3_gender_bn -> conv3_gender (in-place)
I1019 10:24:08.168954  8438 net.cpp:141] Setting up conv3_gender_bn
I1019 10:24:08.168967  8438 net.cpp:148] Top shape: 100 512 7 7 (2508800)
I1019 10:24:08.168972  8438 net.cpp:156] Memory required for data: 3677965600
I1019 10:24:08.168983  8438 layer_factory.hpp:77] Creating layer conv3_gender_scale
I1019 10:24:08.168994  8438 net.cpp:91] Creating Layer conv3_gender_scale
I1019 10:24:08.168999  8438 net.cpp:425] conv3_gender_scale <- conv3_gender
I1019 10:24:08.169016  8438 net.cpp:386] conv3_gender_scale -> conv3_gender (in-place)
I1019 10:24:08.169066  8438 layer_factory.hpp:77] Creating layer conv3_gender_scale
I1019 10:24:08.169193  8438 net.cpp:141] Setting up conv3_gender_scale
I1019 10:24:08.169203  8438 net.cpp:148] Top shape: 100 512 7 7 (2508800)
I1019 10:24:08.169208  8438 net.cpp:156] Memory required for data: 3688000800
I1019 10:24:08.169215  8438 layer_factory.hpp:77] Creating layer prelu3_gender
I1019 10:24:08.169224  8438 net.cpp:91] Creating Layer prelu3_gender
I1019 10:24:08.169229  8438 net.cpp:425] prelu3_gender <- conv3_gender
I1019 10:24:08.169236  8438 net.cpp:386] prelu3_gender -> conv3_gender (in-place)
I1019 10:24:08.169359  8438 net.cpp:141] Setting up prelu3_gender
I1019 10:24:08.169370  8438 net.cpp:148] Top shape: 100 512 7 7 (2508800)
I1019 10:24:08.169397  8438 net.cpp:156] Memory required for data: 3698036000
I1019 10:24:08.169425  8438 layer_factory.hpp:77] Creating layer pool3_gender
I1019 10:24:08.169437  8438 net.cpp:91] Creating Layer pool3_gender
I1019 10:24:08.169442  8438 net.cpp:425] pool3_gender <- conv3_gender
I1019 10:24:08.169451  8438 net.cpp:399] pool3_gender -> pool3_gender
I1019 10:24:08.169497  8438 net.cpp:141] Setting up pool3_gender
I1019 10:24:08.169507  8438 net.cpp:148] Top shape: 100 512 4 4 (819200)
I1019 10:24:08.169512  8438 net.cpp:156] Memory required for data: 3701312800
I1019 10:24:08.169517  8438 layer_factory.hpp:77] Creating layer fc1_gender
I1019 10:24:08.169541  8438 net.cpp:91] Creating Layer fc1_gender
I1019 10:24:08.169549  8438 net.cpp:425] fc1_gender <- pool3_gender
I1019 10:24:08.169559  8438 net.cpp:399] fc1_gender -> fc1_gender
I1019 10:24:08.254289  8438 net.cpp:141] Setting up fc1_gender
I1019 10:24:08.254329  8438 net.cpp:148] Top shape: 100 1024 (102400)
I1019 10:24:08.254335  8438 net.cpp:156] Memory required for data: 3701722400
I1019 10:24:08.254349  8438 layer_factory.hpp:77] Creating layer relu1_gender
I1019 10:24:08.254365  8438 net.cpp:91] Creating Layer relu1_gender
I1019 10:24:08.254374  8438 net.cpp:425] relu1_gender <- fc1_gender
I1019 10:24:08.254384  8438 net.cpp:386] relu1_gender -> fc1_gender (in-place)
I1019 10:24:08.254396  8438 net.cpp:141] Setting up relu1_gender
I1019 10:24:08.254402  8438 net.cpp:148] Top shape: 100 1024 (102400)
I1019 10:24:08.254407  8438 net.cpp:156] Memory required for data: 3702132000
I1019 10:24:08.254411  8438 layer_factory.hpp:77] Creating layer drop1_gender
I1019 10:24:08.254421  8438 net.cpp:91] Creating Layer drop1_gender
I1019 10:24:08.254426  8438 net.cpp:425] drop1_gender <- fc1_gender
I1019 10:24:08.254433  8438 net.cpp:386] drop1_gender -> fc1_gender (in-place)
I1019 10:24:08.254472  8438 net.cpp:141] Setting up drop1_gender
I1019 10:24:08.254479  8438 net.cpp:148] Top shape: 100 1024 (102400)
I1019 10:24:08.254484  8438 net.cpp:156] Memory required for data: 3702541600
I1019 10:24:08.254489  8438 layer_factory.hpp:77] Creating layer fc2_gender
I1019 10:24:08.254521  8438 net.cpp:91] Creating Layer fc2_gender
I1019 10:24:08.254528  8438 net.cpp:425] fc2_gender <- fc1_gender
I1019 10:24:08.254536  8438 net.cpp:399] fc2_gender -> fc2_gender
I1019 10:24:08.265216  8438 net.cpp:141] Setting up fc2_gender
I1019 10:24:08.265234  8438 net.cpp:148] Top shape: 100 1024 (102400)
I1019 10:24:08.265239  8438 net.cpp:156] Memory required for data: 3702951200
I1019 10:24:08.265249  8438 layer_factory.hpp:77] Creating layer relu2_gender
I1019 10:24:08.265256  8438 net.cpp:91] Creating Layer relu2_gender
I1019 10:24:08.265262  8438 net.cpp:425] relu2_gender <- fc2_gender
I1019 10:24:08.265270  8438 net.cpp:386] relu2_gender -> fc2_gender (in-place)
I1019 10:24:08.265278  8438 net.cpp:141] Setting up relu2_gender
I1019 10:24:08.265285  8438 net.cpp:148] Top shape: 100 1024 (102400)
I1019 10:24:08.265288  8438 net.cpp:156] Memory required for data: 3703360800
I1019 10:24:08.265307  8438 layer_factory.hpp:77] Creating layer drop2_gender
I1019 10:24:08.265316  8438 net.cpp:91] Creating Layer drop2_gender
I1019 10:24:08.265321  8438 net.cpp:425] drop2_gender <- fc2_gender
I1019 10:24:08.265327  8438 net.cpp:386] drop2_gender -> fc2_gender (in-place)
I1019 10:24:08.265355  8438 net.cpp:141] Setting up drop2_gender
I1019 10:24:08.265363  8438 net.cpp:148] Top shape: 100 1024 (102400)
I1019 10:24:08.265368  8438 net.cpp:156] Memory required for data: 3703770400
I1019 10:24:08.265372  8438 layer_factory.hpp:77] Creating layer conv3_nose
I1019 10:24:08.265394  8438 net.cpp:91] Creating Layer conv3_nose
I1019 10:24:08.265403  8438 net.cpp:425] conv3_nose <- pool3_pool3_0_split_1
I1019 10:24:08.265413  8438 net.cpp:399] conv3_nose -> conv3_nose
I1019 10:24:08.283351  8438 net.cpp:141] Setting up conv3_nose
I1019 10:24:08.283383  8438 net.cpp:148] Top shape: 100 512 7 7 (2508800)
I1019 10:24:08.283390  8438 net.cpp:156] Memory required for data: 3713805600
I1019 10:24:08.283421  8438 layer_factory.hpp:77] Creating layer conv3_nose_bn
I1019 10:24:08.283434  8438 net.cpp:91] Creating Layer conv3_nose_bn
I1019 10:24:08.283440  8438 net.cpp:425] conv3_nose_bn <- conv3_nose
I1019 10:24:08.283448  8438 net.cpp:386] conv3_nose_bn -> conv3_nose (in-place)
I1019 10:24:08.283648  8438 net.cpp:141] Setting up conv3_nose_bn
I1019 10:24:08.283659  8438 net.cpp:148] Top shape: 100 512 7 7 (2508800)
I1019 10:24:08.283664  8438 net.cpp:156] Memory required for data: 3723840800
I1019 10:24:08.283675  8438 layer_factory.hpp:77] Creating layer conv3_nose_scale
I1019 10:24:08.283686  8438 net.cpp:91] Creating Layer conv3_nose_scale
I1019 10:24:08.283691  8438 net.cpp:425] conv3_nose_scale <- conv3_nose
I1019 10:24:08.283699  8438 net.cpp:386] conv3_nose_scale -> conv3_nose (in-place)
I1019 10:24:08.283742  8438 layer_factory.hpp:77] Creating layer conv3_nose_scale
I1019 10:24:08.283874  8438 net.cpp:141] Setting up conv3_nose_scale
I1019 10:24:08.283885  8438 net.cpp:148] Top shape: 100 512 7 7 (2508800)
I1019 10:24:08.283890  8438 net.cpp:156] Memory required for data: 3733876000
I1019 10:24:08.283897  8438 layer_factory.hpp:77] Creating layer prelu3_nose
I1019 10:24:08.283905  8438 net.cpp:91] Creating Layer prelu3_nose
I1019 10:24:08.283910  8438 net.cpp:425] prelu3_nose <- conv3_nose
I1019 10:24:08.283918  8438 net.cpp:386] prelu3_nose -> conv3_nose (in-place)
I1019 10:24:08.284047  8438 net.cpp:141] Setting up prelu3_nose
I1019 10:24:08.284059  8438 net.cpp:148] Top shape: 100 512 7 7 (2508800)
I1019 10:24:08.284063  8438 net.cpp:156] Memory required for data: 3743911200
I1019 10:24:08.284070  8438 layer_factory.hpp:77] Creating layer pool3_nose
I1019 10:24:08.284088  8438 net.cpp:91] Creating Layer pool3_nose
I1019 10:24:08.284095  8438 net.cpp:425] pool3_nose <- conv3_nose
I1019 10:24:08.284103  8438 net.cpp:399] pool3_nose -> pool3_nose
I1019 10:24:08.284148  8438 net.cpp:141] Setting up pool3_nose
I1019 10:24:08.284158  8438 net.cpp:148] Top shape: 100 512 4 4 (819200)
I1019 10:24:08.284162  8438 net.cpp:156] Memory required for data: 3747188000
I1019 10:24:08.284168  8438 layer_factory.hpp:77] Creating layer fc1_nose
I1019 10:24:08.284196  8438 net.cpp:91] Creating Layer fc1_nose
I1019 10:24:08.284202  8438 net.cpp:425] fc1_nose <- pool3_nose
I1019 10:24:08.284210  8438 net.cpp:399] fc1_nose -> fc1_nose
I1019 10:24:08.368423  8438 net.cpp:141] Setting up fc1_nose
I1019 10:24:08.368468  8438 net.cpp:148] Top shape: 100 1024 (102400)
I1019 10:24:08.368474  8438 net.cpp:156] Memory required for data: 3747597600
I1019 10:24:08.368489  8438 layer_factory.hpp:77] Creating layer relu1_nose
I1019 10:24:08.368501  8438 net.cpp:91] Creating Layer relu1_nose
I1019 10:24:08.368510  8438 net.cpp:425] relu1_nose <- fc1_nose
I1019 10:24:08.368520  8438 net.cpp:386] relu1_nose -> fc1_nose (in-place)
I1019 10:24:08.368532  8438 net.cpp:141] Setting up relu1_nose
I1019 10:24:08.368538  8438 net.cpp:148] Top shape: 100 1024 (102400)
I1019 10:24:08.368543  8438 net.cpp:156] Memory required for data: 3748007200
I1019 10:24:08.368547  8438 layer_factory.hpp:77] Creating layer drop1_nose
I1019 10:24:08.368572  8438 net.cpp:91] Creating Layer drop1_nose
I1019 10:24:08.368577  8438 net.cpp:425] drop1_nose <- fc1_nose
I1019 10:24:08.368585  8438 net.cpp:386] drop1_nose -> fc1_nose (in-place)
I1019 10:24:08.368618  8438 net.cpp:141] Setting up drop1_nose
I1019 10:24:08.368626  8438 net.cpp:148] Top shape: 100 1024 (102400)
I1019 10:24:08.368630  8438 net.cpp:156] Memory required for data: 3748416800
I1019 10:24:08.368635  8438 layer_factory.hpp:77] Creating layer fc2_nose
I1019 10:24:08.368645  8438 net.cpp:91] Creating Layer fc2_nose
I1019 10:24:08.368650  8438 net.cpp:425] fc2_nose <- fc1_nose
I1019 10:24:08.368659  8438 net.cpp:399] fc2_nose -> fc2_nose
I1019 10:24:08.379421  8438 net.cpp:141] Setting up fc2_nose
I1019 10:24:08.379441  8438 net.cpp:148] Top shape: 100 1024 (102400)
I1019 10:24:08.379446  8438 net.cpp:156] Memory required for data: 3748826400
I1019 10:24:08.379454  8438 layer_factory.hpp:77] Creating layer relu2_nose
I1019 10:24:08.379488  8438 net.cpp:91] Creating Layer relu2_nose
I1019 10:24:08.379494  8438 net.cpp:425] relu2_nose <- fc2_nose
I1019 10:24:08.379503  8438 net.cpp:386] relu2_nose -> fc2_nose (in-place)
I1019 10:24:08.379511  8438 net.cpp:141] Setting up relu2_nose
I1019 10:24:08.379518  8438 net.cpp:148] Top shape: 100 1024 (102400)
I1019 10:24:08.379521  8438 net.cpp:156] Memory required for data: 3749236000
I1019 10:24:08.379537  8438 layer_factory.hpp:77] Creating layer drop2_nose
I1019 10:24:08.379551  8438 net.cpp:91] Creating Layer drop2_nose
I1019 10:24:08.379557  8438 net.cpp:425] drop2_nose <- fc2_nose
I1019 10:24:08.379565  8438 net.cpp:386] drop2_nose -> fc2_nose (in-place)
I1019 10:24:08.379593  8438 net.cpp:141] Setting up drop2_nose
I1019 10:24:08.379601  8438 net.cpp:148] Top shape: 100 1024 (102400)
I1019 10:24:08.379604  8438 net.cpp:156] Memory required for data: 3749645600
I1019 10:24:08.379609  8438 layer_factory.hpp:77] Creating layer fc2_nose_drop2_nose_0_split
I1019 10:24:08.379618  8438 net.cpp:91] Creating Layer fc2_nose_drop2_nose_0_split
I1019 10:24:08.379622  8438 net.cpp:425] fc2_nose_drop2_nose_0_split <- fc2_nose
I1019 10:24:08.379631  8438 net.cpp:399] fc2_nose_drop2_nose_0_split -> fc2_nose_drop2_nose_0_split_0
I1019 10:24:08.379640  8438 net.cpp:399] fc2_nose_drop2_nose_0_split -> fc2_nose_drop2_nose_0_split_1
I1019 10:24:08.379678  8438 net.cpp:141] Setting up fc2_nose_drop2_nose_0_split
I1019 10:24:08.379695  8438 net.cpp:148] Top shape: 100 1024 (102400)
I1019 10:24:08.379701  8438 net.cpp:148] Top shape: 100 1024 (102400)
I1019 10:24:08.379705  8438 net.cpp:156] Memory required for data: 3750464800
I1019 10:24:08.379709  8438 layer_factory.hpp:77] Creating layer conv3_mouth
I1019 10:24:08.379722  8438 net.cpp:91] Creating Layer conv3_mouth
I1019 10:24:08.379729  8438 net.cpp:425] conv3_mouth <- pool3_pool3_0_split_2
I1019 10:24:08.379739  8438 net.cpp:399] conv3_mouth -> conv3_mouth
I1019 10:24:08.397493  8438 net.cpp:141] Setting up conv3_mouth
I1019 10:24:08.397524  8438 net.cpp:148] Top shape: 100 512 7 7 (2508800)
I1019 10:24:08.397531  8438 net.cpp:156] Memory required for data: 3760500000
I1019 10:24:08.397557  8438 layer_factory.hpp:77] Creating layer conv3_mouth_bn
I1019 10:24:08.397570  8438 net.cpp:91] Creating Layer conv3_mouth_bn
I1019 10:24:08.397577  8438 net.cpp:425] conv3_mouth_bn <- conv3_mouth
I1019 10:24:08.397584  8438 net.cpp:386] conv3_mouth_bn -> conv3_mouth (in-place)
I1019 10:24:08.397791  8438 net.cpp:141] Setting up conv3_mouth_bn
I1019 10:24:08.397804  8438 net.cpp:148] Top shape: 100 512 7 7 (2508800)
I1019 10:24:08.397809  8438 net.cpp:156] Memory required for data: 3770535200
I1019 10:24:08.397831  8438 layer_factory.hpp:77] Creating layer conv3_mouth_scale
I1019 10:24:08.397848  8438 net.cpp:91] Creating Layer conv3_mouth_scale
I1019 10:24:08.397861  8438 net.cpp:425] conv3_mouth_scale <- conv3_mouth
I1019 10:24:08.397868  8438 net.cpp:386] conv3_mouth_scale -> conv3_mouth (in-place)
I1019 10:24:08.397917  8438 layer_factory.hpp:77] Creating layer conv3_mouth_scale
I1019 10:24:08.398041  8438 net.cpp:141] Setting up conv3_mouth_scale
I1019 10:24:08.398052  8438 net.cpp:148] Top shape: 100 512 7 7 (2508800)
I1019 10:24:08.398056  8438 net.cpp:156] Memory required for data: 3780570400
I1019 10:24:08.398064  8438 layer_factory.hpp:77] Creating layer prelu3_mouth
I1019 10:24:08.398072  8438 net.cpp:91] Creating Layer prelu3_mouth
I1019 10:24:08.398077  8438 net.cpp:425] prelu3_mouth <- conv3_mouth
I1019 10:24:08.398084  8438 net.cpp:386] prelu3_mouth -> conv3_mouth (in-place)
I1019 10:24:08.398210  8438 net.cpp:141] Setting up prelu3_mouth
I1019 10:24:08.398221  8438 net.cpp:148] Top shape: 100 512 7 7 (2508800)
I1019 10:24:08.398224  8438 net.cpp:156] Memory required for data: 3790605600
I1019 10:24:08.398231  8438 layer_factory.hpp:77] Creating layer pool3_mouth
I1019 10:24:08.398239  8438 net.cpp:91] Creating Layer pool3_mouth
I1019 10:24:08.398244  8438 net.cpp:425] pool3_mouth <- conv3_mouth
I1019 10:24:08.398278  8438 net.cpp:399] pool3_mouth -> pool3_mouth
I1019 10:24:08.398326  8438 net.cpp:141] Setting up pool3_mouth
I1019 10:24:08.398336  8438 net.cpp:148] Top shape: 100 512 4 4 (819200)
I1019 10:24:08.398340  8438 net.cpp:156] Memory required for data: 3793882400
I1019 10:24:08.398345  8438 layer_factory.hpp:77] Creating layer fc1_mouth
I1019 10:24:08.398355  8438 net.cpp:91] Creating Layer fc1_mouth
I1019 10:24:08.398360  8438 net.cpp:425] fc1_mouth <- pool3_mouth
I1019 10:24:08.398370  8438 net.cpp:399] fc1_mouth -> fc1_mouth
I1019 10:24:08.482704  8438 net.cpp:141] Setting up fc1_mouth
I1019 10:24:08.482745  8438 net.cpp:148] Top shape: 100 1024 (102400)
I1019 10:24:08.482753  8438 net.cpp:156] Memory required for data: 3794292000
I1019 10:24:08.482781  8438 layer_factory.hpp:77] Creating layer relu1_mouth
I1019 10:24:08.482802  8438 net.cpp:91] Creating Layer relu1_mouth
I1019 10:24:08.482810  8438 net.cpp:425] relu1_mouth <- fc1_mouth
I1019 10:24:08.482820  8438 net.cpp:386] relu1_mouth -> fc1_mouth (in-place)
I1019 10:24:08.482834  8438 net.cpp:141] Setting up relu1_mouth
I1019 10:24:08.482841  8438 net.cpp:148] Top shape: 100 1024 (102400)
I1019 10:24:08.482846  8438 net.cpp:156] Memory required for data: 3794701600
I1019 10:24:08.482849  8438 layer_factory.hpp:77] Creating layer drop1_mouth
I1019 10:24:08.482859  8438 net.cpp:91] Creating Layer drop1_mouth
I1019 10:24:08.482864  8438 net.cpp:425] drop1_mouth <- fc1_mouth
I1019 10:24:08.482872  8438 net.cpp:386] drop1_mouth -> fc1_mouth (in-place)
I1019 10:24:08.482904  8438 net.cpp:141] Setting up drop1_mouth
I1019 10:24:08.482913  8438 net.cpp:148] Top shape: 100 1024 (102400)
I1019 10:24:08.482916  8438 net.cpp:156] Memory required for data: 3795111200
I1019 10:24:08.482921  8438 layer_factory.hpp:77] Creating layer fc2_mouth
I1019 10:24:08.482931  8438 net.cpp:91] Creating Layer fc2_mouth
I1019 10:24:08.482936  8438 net.cpp:425] fc2_mouth <- fc1_mouth
I1019 10:24:08.482954  8438 net.cpp:399] fc2_mouth -> fc2_mouth
I1019 10:24:08.493680  8438 net.cpp:141] Setting up fc2_mouth
I1019 10:24:08.493698  8438 net.cpp:148] Top shape: 100 1024 (102400)
I1019 10:24:08.493703  8438 net.cpp:156] Memory required for data: 3795520800
I1019 10:24:08.493712  8438 layer_factory.hpp:77] Creating layer relu2_mouth
I1019 10:24:08.493729  8438 net.cpp:91] Creating Layer relu2_mouth
I1019 10:24:08.493736  8438 net.cpp:425] relu2_mouth <- fc2_mouth
I1019 10:24:08.493743  8438 net.cpp:386] relu2_mouth -> fc2_mouth (in-place)
I1019 10:24:08.493752  8438 net.cpp:141] Setting up relu2_mouth
I1019 10:24:08.493758  8438 net.cpp:148] Top shape: 100 1024 (102400)
I1019 10:24:08.493762  8438 net.cpp:156] Memory required for data: 3795930400
I1019 10:24:08.493772  8438 layer_factory.hpp:77] Creating layer drop2_mouth
I1019 10:24:08.493779  8438 net.cpp:91] Creating Layer drop2_mouth
I1019 10:24:08.493784  8438 net.cpp:425] drop2_mouth <- fc2_mouth
I1019 10:24:08.493793  8438 net.cpp:386] drop2_mouth -> fc2_mouth (in-place)
I1019 10:24:08.493819  8438 net.cpp:141] Setting up drop2_mouth
I1019 10:24:08.493829  8438 net.cpp:148] Top shape: 100 1024 (102400)
I1019 10:24:08.493834  8438 net.cpp:156] Memory required for data: 3796340000
I1019 10:24:08.493837  8438 layer_factory.hpp:77] Creating layer fc2_mouth_drop2_mouth_0_split
I1019 10:24:08.493846  8438 net.cpp:91] Creating Layer fc2_mouth_drop2_mouth_0_split
I1019 10:24:08.493850  8438 net.cpp:425] fc2_mouth_drop2_mouth_0_split <- fc2_mouth
I1019 10:24:08.493858  8438 net.cpp:399] fc2_mouth_drop2_mouth_0_split -> fc2_mouth_drop2_mouth_0_split_0
I1019 10:24:08.493868  8438 net.cpp:399] fc2_mouth_drop2_mouth_0_split -> fc2_mouth_drop2_mouth_0_split_1
I1019 10:24:08.493878  8438 net.cpp:399] fc2_mouth_drop2_mouth_0_split -> fc2_mouth_drop2_mouth_0_split_2
I1019 10:24:08.493886  8438 net.cpp:399] fc2_mouth_drop2_mouth_0_split -> fc2_mouth_drop2_mouth_0_split_3
I1019 10:24:08.493947  8438 net.cpp:141] Setting up fc2_mouth_drop2_mouth_0_split
I1019 10:24:08.493957  8438 net.cpp:148] Top shape: 100 1024 (102400)
I1019 10:24:08.493963  8438 net.cpp:148] Top shape: 100 1024 (102400)
I1019 10:24:08.493988  8438 net.cpp:148] Top shape: 100 1024 (102400)
I1019 10:24:08.493993  8438 net.cpp:148] Top shape: 100 1024 (102400)
I1019 10:24:08.493998  8438 net.cpp:156] Memory required for data: 3797978400
I1019 10:24:08.494001  8438 layer_factory.hpp:77] Creating layer conv3_eyes
I1019 10:24:08.494015  8438 net.cpp:91] Creating Layer conv3_eyes
I1019 10:24:08.494022  8438 net.cpp:425] conv3_eyes <- pool3_pool3_0_split_3
I1019 10:24:08.494035  8438 net.cpp:399] conv3_eyes -> conv3_eyes
I1019 10:24:08.511361  8438 net.cpp:141] Setting up conv3_eyes
I1019 10:24:08.511404  8438 net.cpp:148] Top shape: 100 512 7 7 (2508800)
I1019 10:24:08.511409  8438 net.cpp:156] Memory required for data: 3808013600
I1019 10:24:08.511420  8438 layer_factory.hpp:77] Creating layer conv3_eyes_bn
I1019 10:24:08.511431  8438 net.cpp:91] Creating Layer conv3_eyes_bn
I1019 10:24:08.511437  8438 net.cpp:425] conv3_eyes_bn <- conv3_eyes
I1019 10:24:08.511446  8438 net.cpp:386] conv3_eyes_bn -> conv3_eyes (in-place)
I1019 10:24:08.511639  8438 net.cpp:141] Setting up conv3_eyes_bn
I1019 10:24:08.511651  8438 net.cpp:148] Top shape: 100 512 7 7 (2508800)
I1019 10:24:08.511654  8438 net.cpp:156] Memory required for data: 3818048800
I1019 10:24:08.511674  8438 layer_factory.hpp:77] Creating layer conv3_eyes_scale
I1019 10:24:08.511698  8438 net.cpp:91] Creating Layer conv3_eyes_scale
I1019 10:24:08.511708  8438 net.cpp:425] conv3_eyes_scale <- conv3_eyes
I1019 10:24:08.511715  8438 net.cpp:386] conv3_eyes_scale -> conv3_eyes (in-place)
I1019 10:24:08.511760  8438 layer_factory.hpp:77] Creating layer conv3_eyes_scale
I1019 10:24:08.511885  8438 net.cpp:141] Setting up conv3_eyes_scale
I1019 10:24:08.511895  8438 net.cpp:148] Top shape: 100 512 7 7 (2508800)
I1019 10:24:08.511899  8438 net.cpp:156] Memory required for data: 3828084000
I1019 10:24:08.511907  8438 layer_factory.hpp:77] Creating layer prelu3_eyes
I1019 10:24:08.511916  8438 net.cpp:91] Creating Layer prelu3_eyes
I1019 10:24:08.511921  8438 net.cpp:425] prelu3_eyes <- conv3_eyes
I1019 10:24:08.511927  8438 net.cpp:386] prelu3_eyes -> conv3_eyes (in-place)
I1019 10:24:08.512042  8438 net.cpp:141] Setting up prelu3_eyes
I1019 10:24:08.512053  8438 net.cpp:148] Top shape: 100 512 7 7 (2508800)
I1019 10:24:08.512056  8438 net.cpp:156] Memory required for data: 3838119200
I1019 10:24:08.512061  8438 layer_factory.hpp:77] Creating layer pool3_eyes
I1019 10:24:08.512070  8438 net.cpp:91] Creating Layer pool3_eyes
I1019 10:24:08.512075  8438 net.cpp:425] pool3_eyes <- conv3_eyes
I1019 10:24:08.512084  8438 net.cpp:399] pool3_eyes -> pool3_eyes
I1019 10:24:08.512123  8438 net.cpp:141] Setting up pool3_eyes
I1019 10:24:08.512132  8438 net.cpp:148] Top shape: 100 512 4 4 (819200)
I1019 10:24:08.512136  8438 net.cpp:156] Memory required for data: 3841396000
I1019 10:24:08.512140  8438 layer_factory.hpp:77] Creating layer fc1_eyes
I1019 10:24:08.512157  8438 net.cpp:91] Creating Layer fc1_eyes
I1019 10:24:08.512163  8438 net.cpp:425] fc1_eyes <- pool3_eyes
I1019 10:24:08.512172  8438 net.cpp:399] fc1_eyes -> fc1_eyes
I1019 10:24:08.586493  8438 net.cpp:141] Setting up fc1_eyes
I1019 10:24:08.586531  8438 net.cpp:148] Top shape: 100 1024 (102400)
I1019 10:24:08.586537  8438 net.cpp:156] Memory required for data: 3841805600
I1019 10:24:08.586549  8438 layer_factory.hpp:77] Creating layer relu1_eyes
I1019 10:24:08.586565  8438 net.cpp:91] Creating Layer relu1_eyes
I1019 10:24:08.586571  8438 net.cpp:425] relu1_eyes <- fc1_eyes
I1019 10:24:08.586581  8438 net.cpp:386] relu1_eyes -> fc1_eyes (in-place)
I1019 10:24:08.586594  8438 net.cpp:141] Setting up relu1_eyes
I1019 10:24:08.586601  8438 net.cpp:148] Top shape: 100 1024 (102400)
I1019 10:24:08.586604  8438 net.cpp:156] Memory required for data: 3842215200
I1019 10:24:08.586608  8438 layer_factory.hpp:77] Creating layer drop1_eyes
I1019 10:24:08.586617  8438 net.cpp:91] Creating Layer drop1_eyes
I1019 10:24:08.586621  8438 net.cpp:425] drop1_eyes <- fc1_eyes
I1019 10:24:08.586628  8438 net.cpp:386] drop1_eyes -> fc1_eyes (in-place)
I1019 10:24:08.586680  8438 net.cpp:141] Setting up drop1_eyes
I1019 10:24:08.586688  8438 net.cpp:148] Top shape: 100 1024 (102400)
I1019 10:24:08.586693  8438 net.cpp:156] Memory required for data: 3842624800
I1019 10:24:08.586696  8438 layer_factory.hpp:77] Creating layer fc2_eyes
I1019 10:24:08.586716  8438 net.cpp:91] Creating Layer fc2_eyes
I1019 10:24:08.586721  8438 net.cpp:425] fc2_eyes <- fc1_eyes
I1019 10:24:08.586730  8438 net.cpp:399] fc2_eyes -> fc2_eyes
I1019 10:24:08.596837  8438 net.cpp:141] Setting up fc2_eyes
I1019 10:24:08.596868  8438 net.cpp:148] Top shape: 100 1024 (102400)
I1019 10:24:08.596873  8438 net.cpp:156] Memory required for data: 3843034400
I1019 10:24:08.596881  8438 layer_factory.hpp:77] Creating layer relu2_eyes
I1019 10:24:08.596901  8438 net.cpp:91] Creating Layer relu2_eyes
I1019 10:24:08.596907  8438 net.cpp:425] relu2_eyes <- fc2_eyes
I1019 10:24:08.596925  8438 net.cpp:386] relu2_eyes -> fc2_eyes (in-place)
I1019 10:24:08.596935  8438 net.cpp:141] Setting up relu2_eyes
I1019 10:24:08.596941  8438 net.cpp:148] Top shape: 100 1024 (102400)
I1019 10:24:08.596946  8438 net.cpp:156] Memory required for data: 3843444000
I1019 10:24:08.596949  8438 layer_factory.hpp:77] Creating layer drop2_eyes
I1019 10:24:08.596956  8438 net.cpp:91] Creating Layer drop2_eyes
I1019 10:24:08.596961  8438 net.cpp:425] drop2_eyes <- fc2_eyes
I1019 10:24:08.596967  8438 net.cpp:386] drop2_eyes -> fc2_eyes (in-place)
I1019 10:24:08.596994  8438 net.cpp:141] Setting up drop2_eyes
I1019 10:24:08.597002  8438 net.cpp:148] Top shape: 100 1024 (102400)
I1019 10:24:08.597005  8438 net.cpp:156] Memory required for data: 3843853600
I1019 10:24:08.597009  8438 layer_factory.hpp:77] Creating layer fc2_eyes_drop2_eyes_0_split
I1019 10:24:08.597017  8438 net.cpp:91] Creating Layer fc2_eyes_drop2_eyes_0_split
I1019 10:24:08.597021  8438 net.cpp:425] fc2_eyes_drop2_eyes_0_split <- fc2_eyes
I1019 10:24:08.597029  8438 net.cpp:399] fc2_eyes_drop2_eyes_0_split -> fc2_eyes_drop2_eyes_0_split_0
I1019 10:24:08.597038  8438 net.cpp:399] fc2_eyes_drop2_eyes_0_split -> fc2_eyes_drop2_eyes_0_split_1
I1019 10:24:08.597046  8438 net.cpp:399] fc2_eyes_drop2_eyes_0_split -> fc2_eyes_drop2_eyes_0_split_2
I1019 10:24:08.597054  8438 net.cpp:399] fc2_eyes_drop2_eyes_0_split -> fc2_eyes_drop2_eyes_0_split_3
I1019 10:24:08.597061  8438 net.cpp:399] fc2_eyes_drop2_eyes_0_split -> fc2_eyes_drop2_eyes_0_split_4
I1019 10:24:08.597131  8438 net.cpp:141] Setting up fc2_eyes_drop2_eyes_0_split
I1019 10:24:08.597141  8438 net.cpp:148] Top shape: 100 1024 (102400)
I1019 10:24:08.597146  8438 net.cpp:148] Top shape: 100 1024 (102400)
I1019 10:24:08.597149  8438 net.cpp:148] Top shape: 100 1024 (102400)
I1019 10:24:08.597153  8438 net.cpp:148] Top shape: 100 1024 (102400)
I1019 10:24:08.597158  8438 net.cpp:148] Top shape: 100 1024 (102400)
I1019 10:24:08.597162  8438 net.cpp:156] Memory required for data: 3845901600
I1019 10:24:08.597165  8438 layer_factory.hpp:77] Creating layer conv3_face
I1019 10:24:08.597185  8438 net.cpp:91] Creating Layer conv3_face
I1019 10:24:08.597193  8438 net.cpp:425] conv3_face <- pool3_pool3_0_split_4
I1019 10:24:08.597201  8438 net.cpp:399] conv3_face -> conv3_face
I1019 10:24:08.615397  8438 net.cpp:141] Setting up conv3_face
I1019 10:24:08.615437  8438 net.cpp:148] Top shape: 100 512 7 7 (2508800)
I1019 10:24:08.615442  8438 net.cpp:156] Memory required for data: 3855936800
I1019 10:24:08.615452  8438 layer_factory.hpp:77] Creating layer conv3_face_bn
I1019 10:24:08.615461  8438 net.cpp:91] Creating Layer conv3_face_bn
I1019 10:24:08.615468  8438 net.cpp:425] conv3_face_bn <- conv3_face
I1019 10:24:08.615476  8438 net.cpp:386] conv3_face_bn -> conv3_face (in-place)
I1019 10:24:08.615667  8438 net.cpp:141] Setting up conv3_face_bn
I1019 10:24:08.615679  8438 net.cpp:148] Top shape: 100 512 7 7 (2508800)
I1019 10:24:08.615682  8438 net.cpp:156] Memory required for data: 3865972000
I1019 10:24:08.615702  8438 layer_factory.hpp:77] Creating layer conv3_face_scale
I1019 10:24:08.615712  8438 net.cpp:91] Creating Layer conv3_face_scale
I1019 10:24:08.615733  8438 net.cpp:425] conv3_face_scale <- conv3_face
I1019 10:24:08.615751  8438 net.cpp:386] conv3_face_scale -> conv3_face (in-place)
I1019 10:24:08.615797  8438 layer_factory.hpp:77] Creating layer conv3_face_scale
I1019 10:24:08.615921  8438 net.cpp:141] Setting up conv3_face_scale
I1019 10:24:08.615932  8438 net.cpp:148] Top shape: 100 512 7 7 (2508800)
I1019 10:24:08.615936  8438 net.cpp:156] Memory required for data: 3876007200
I1019 10:24:08.615943  8438 layer_factory.hpp:77] Creating layer prelu3_face
I1019 10:24:08.615952  8438 net.cpp:91] Creating Layer prelu3_face
I1019 10:24:08.615957  8438 net.cpp:425] prelu3_face <- conv3_face
I1019 10:24:08.615962  8438 net.cpp:386] prelu3_face -> conv3_face (in-place)
I1019 10:24:08.616082  8438 net.cpp:141] Setting up prelu3_face
I1019 10:24:08.616092  8438 net.cpp:148] Top shape: 100 512 7 7 (2508800)
I1019 10:24:08.616096  8438 net.cpp:156] Memory required for data: 3886042400
I1019 10:24:08.616102  8438 layer_factory.hpp:77] Creating layer pool3_face
I1019 10:24:08.616117  8438 net.cpp:91] Creating Layer pool3_face
I1019 10:24:08.616122  8438 net.cpp:425] pool3_face <- conv3_face
I1019 10:24:08.616130  8438 net.cpp:399] pool3_face -> pool3_face
I1019 10:24:08.616173  8438 net.cpp:141] Setting up pool3_face
I1019 10:24:08.616183  8438 net.cpp:148] Top shape: 100 512 4 4 (819200)
I1019 10:24:08.616186  8438 net.cpp:156] Memory required for data: 3889319200
I1019 10:24:08.616190  8438 layer_factory.hpp:77] Creating layer fc1_face
I1019 10:24:08.616200  8438 net.cpp:91] Creating Layer fc1_face
I1019 10:24:08.616204  8438 net.cpp:425] fc1_face <- pool3_face
I1019 10:24:08.616212  8438 net.cpp:399] fc1_face -> fc1_face
I1019 10:24:08.712625  8438 net.cpp:141] Setting up fc1_face
I1019 10:24:08.712667  8438 net.cpp:148] Top shape: 100 1024 (102400)
I1019 10:24:08.712674  8438 net.cpp:156] Memory required for data: 3889728800
I1019 10:24:08.712694  8438 layer_factory.hpp:77] Creating layer relu1_face
I1019 10:24:08.712720  8438 net.cpp:91] Creating Layer relu1_face
I1019 10:24:08.712729  8438 net.cpp:425] relu1_face <- fc1_face
I1019 10:24:08.712740  8438 net.cpp:386] relu1_face -> fc1_face (in-place)
I1019 10:24:08.712755  8438 net.cpp:141] Setting up relu1_face
I1019 10:24:08.712762  8438 net.cpp:148] Top shape: 100 1024 (102400)
I1019 10:24:08.712766  8438 net.cpp:156] Memory required for data: 3890138400
I1019 10:24:08.712770  8438 layer_factory.hpp:77] Creating layer drop1_face
I1019 10:24:08.712782  8438 net.cpp:91] Creating Layer drop1_face
I1019 10:24:08.712787  8438 net.cpp:425] drop1_face <- fc1_face
I1019 10:24:08.712795  8438 net.cpp:386] drop1_face -> fc1_face (in-place)
I1019 10:24:08.712836  8438 net.cpp:141] Setting up drop1_face
I1019 10:24:08.712844  8438 net.cpp:148] Top shape: 100 1024 (102400)
I1019 10:24:08.712848  8438 net.cpp:156] Memory required for data: 3890548000
I1019 10:24:08.712853  8438 layer_factory.hpp:77] Creating layer fc2_face
I1019 10:24:08.712865  8438 net.cpp:91] Creating Layer fc2_face
I1019 10:24:08.712870  8438 net.cpp:425] fc2_face <- fc1_face
I1019 10:24:08.712880  8438 net.cpp:399] fc2_face -> fc2_face
I1019 10:24:08.723558  8438 net.cpp:141] Setting up fc2_face
I1019 10:24:08.723577  8438 net.cpp:148] Top shape: 100 1024 (102400)
I1019 10:24:08.723587  8438 net.cpp:156] Memory required for data: 3890957600
I1019 10:24:08.723595  8438 layer_factory.hpp:77] Creating layer relu2_face
I1019 10:24:08.723605  8438 net.cpp:91] Creating Layer relu2_face
I1019 10:24:08.723611  8438 net.cpp:425] relu2_face <- fc2_face
I1019 10:24:08.723620  8438 net.cpp:386] relu2_face -> fc2_face (in-place)
I1019 10:24:08.723629  8438 net.cpp:141] Setting up relu2_face
I1019 10:24:08.723635  8438 net.cpp:148] Top shape: 100 1024 (102400)
I1019 10:24:08.723640  8438 net.cpp:156] Memory required for data: 3891367200
I1019 10:24:08.723647  8438 layer_factory.hpp:77] Creating layer drop2_face
I1019 10:24:08.723656  8438 net.cpp:91] Creating Layer drop2_face
I1019 10:24:08.723661  8438 net.cpp:425] drop2_face <- fc2_face
I1019 10:24:08.723690  8438 net.cpp:386] drop2_face -> fc2_face (in-place)
I1019 10:24:08.723722  8438 net.cpp:141] Setting up drop2_face
I1019 10:24:08.723731  8438 net.cpp:148] Top shape: 100 1024 (102400)
I1019 10:24:08.723736  8438 net.cpp:156] Memory required for data: 3891776800
I1019 10:24:08.723739  8438 layer_factory.hpp:77] Creating layer fc2_face_drop2_face_0_split
I1019 10:24:08.723749  8438 net.cpp:91] Creating Layer fc2_face_drop2_face_0_split
I1019 10:24:08.723753  8438 net.cpp:425] fc2_face_drop2_face_0_split <- fc2_face
I1019 10:24:08.723762  8438 net.cpp:399] fc2_face_drop2_face_0_split -> fc2_face_drop2_face_0_split_0
I1019 10:24:08.723773  8438 net.cpp:399] fc2_face_drop2_face_0_split -> fc2_face_drop2_face_0_split_1
I1019 10:24:08.723783  8438 net.cpp:399] fc2_face_drop2_face_0_split -> fc2_face_drop2_face_0_split_2
I1019 10:24:08.723793  8438 net.cpp:399] fc2_face_drop2_face_0_split -> fc2_face_drop2_face_0_split_3
I1019 10:24:08.723799  8438 net.cpp:399] fc2_face_drop2_face_0_split -> fc2_face_drop2_face_0_split_4
I1019 10:24:08.723812  8438 net.cpp:399] fc2_face_drop2_face_0_split -> fc2_face_drop2_face_0_split_5
I1019 10:24:08.723904  8438 net.cpp:141] Setting up fc2_face_drop2_face_0_split
I1019 10:24:08.723914  8438 net.cpp:148] Top shape: 100 1024 (102400)
I1019 10:24:08.723920  8438 net.cpp:148] Top shape: 100 1024 (102400)
I1019 10:24:08.723925  8438 net.cpp:148] Top shape: 100 1024 (102400)
I1019 10:24:08.723930  8438 net.cpp:148] Top shape: 100 1024 (102400)
I1019 10:24:08.723935  8438 net.cpp:148] Top shape: 100 1024 (102400)
I1019 10:24:08.723940  8438 net.cpp:148] Top shape: 100 1024 (102400)
I1019 10:24:08.723944  8438 net.cpp:156] Memory required for data: 3894234400
I1019 10:24:08.723948  8438 layer_factory.hpp:77] Creating layer conv3_rest
I1019 10:24:08.723963  8438 net.cpp:91] Creating Layer conv3_rest
I1019 10:24:08.723970  8438 net.cpp:425] conv3_rest <- pool3_pool3_0_split_5
I1019 10:24:08.723983  8438 net.cpp:399] conv3_rest -> conv3_rest
I1019 10:24:08.741659  8438 net.cpp:141] Setting up conv3_rest
I1019 10:24:08.741679  8438 net.cpp:148] Top shape: 100 512 7 7 (2508800)
I1019 10:24:08.741685  8438 net.cpp:156] Memory required for data: 3904269600
I1019 10:24:08.741693  8438 layer_factory.hpp:77] Creating layer conv3_rest_bn
I1019 10:24:08.741704  8438 net.cpp:91] Creating Layer conv3_rest_bn
I1019 10:24:08.741710  8438 net.cpp:425] conv3_rest_bn <- conv3_rest
I1019 10:24:08.741719  8438 net.cpp:386] conv3_rest_bn -> conv3_rest (in-place)
I1019 10:24:08.741928  8438 net.cpp:141] Setting up conv3_rest_bn
I1019 10:24:08.741940  8438 net.cpp:148] Top shape: 100 512 7 7 (2508800)
I1019 10:24:08.741945  8438 net.cpp:156] Memory required for data: 3914304800
I1019 10:24:08.741958  8438 layer_factory.hpp:77] Creating layer conv3_rest_scale
I1019 10:24:08.741971  8438 net.cpp:91] Creating Layer conv3_rest_scale
I1019 10:24:08.741976  8438 net.cpp:425] conv3_rest_scale <- conv3_rest
I1019 10:24:08.741983  8438 net.cpp:386] conv3_rest_scale -> conv3_rest (in-place)
I1019 10:24:08.742030  8438 layer_factory.hpp:77] Creating layer conv3_rest_scale
I1019 10:24:08.742164  8438 net.cpp:141] Setting up conv3_rest_scale
I1019 10:24:08.742174  8438 net.cpp:148] Top shape: 100 512 7 7 (2508800)
I1019 10:24:08.742179  8438 net.cpp:156] Memory required for data: 3924340000
I1019 10:24:08.742187  8438 layer_factory.hpp:77] Creating layer prelu3_rest
I1019 10:24:08.742195  8438 net.cpp:91] Creating Layer prelu3_rest
I1019 10:24:08.742200  8438 net.cpp:425] prelu3_rest <- conv3_rest
I1019 10:24:08.742208  8438 net.cpp:386] prelu3_rest -> conv3_rest (in-place)
I1019 10:24:08.742333  8438 net.cpp:141] Setting up prelu3_rest
I1019 10:24:08.742344  8438 net.cpp:148] Top shape: 100 512 7 7 (2508800)
I1019 10:24:08.742349  8438 net.cpp:156] Memory required for data: 3934375200
I1019 10:24:08.742357  8438 layer_factory.hpp:77] Creating layer pool3_rest
I1019 10:24:08.742364  8438 net.cpp:91] Creating Layer pool3_rest
I1019 10:24:08.742369  8438 net.cpp:425] pool3_rest <- conv3_rest
I1019 10:24:08.742393  8438 net.cpp:399] pool3_rest -> pool3_rest
I1019 10:24:08.742440  8438 net.cpp:141] Setting up pool3_rest
I1019 10:24:08.742458  8438 net.cpp:148] Top shape: 100 512 4 4 (819200)
I1019 10:24:08.742462  8438 net.cpp:156] Memory required for data: 3937652000
I1019 10:24:08.742467  8438 layer_factory.hpp:77] Creating layer pool3_rest_pool3_rest_0_split
I1019 10:24:08.742475  8438 net.cpp:91] Creating Layer pool3_rest_pool3_rest_0_split
I1019 10:24:08.742480  8438 net.cpp:425] pool3_rest_pool3_rest_0_split <- pool3_rest
I1019 10:24:08.742488  8438 net.cpp:399] pool3_rest_pool3_rest_0_split -> pool3_rest_pool3_rest_0_split_0
I1019 10:24:08.742497  8438 net.cpp:399] pool3_rest_pool3_rest_0_split -> pool3_rest_pool3_rest_0_split_1
I1019 10:24:08.742506  8438 net.cpp:399] pool3_rest_pool3_rest_0_split -> pool3_rest_pool3_rest_0_split_2
I1019 10:24:08.742514  8438 net.cpp:399] pool3_rest_pool3_rest_0_split -> pool3_rest_pool3_rest_0_split_3
I1019 10:24:08.742579  8438 net.cpp:141] Setting up pool3_rest_pool3_rest_0_split
I1019 10:24:08.742589  8438 net.cpp:148] Top shape: 100 512 4 4 (819200)
I1019 10:24:08.742595  8438 net.cpp:148] Top shape: 100 512 4 4 (819200)
I1019 10:24:08.742601  8438 net.cpp:148] Top shape: 100 512 4 4 (819200)
I1019 10:24:08.742606  8438 net.cpp:148] Top shape: 100 512 4 4 (819200)
I1019 10:24:08.742611  8438 net.cpp:156] Memory required for data: 3950759200
I1019 10:24:08.742617  8438 layer_factory.hpp:77] Creating layer fc1_aroundhead
I1019 10:24:08.742627  8438 net.cpp:91] Creating Layer fc1_aroundhead
I1019 10:24:08.742632  8438 net.cpp:425] fc1_aroundhead <- pool3_rest_pool3_rest_0_split_0
I1019 10:24:08.742641  8438 net.cpp:399] fc1_aroundhead -> fc1_aroundhead
I1019 10:24:08.826719  8438 net.cpp:141] Setting up fc1_aroundhead
I1019 10:24:08.826755  8438 net.cpp:148] Top shape: 100 1024 (102400)
I1019 10:24:08.826761  8438 net.cpp:156] Memory required for data: 3951168800
I1019 10:24:08.826773  8438 layer_factory.hpp:77] Creating layer relu1_aroundhead
I1019 10:24:08.826787  8438 net.cpp:91] Creating Layer relu1_aroundhead
I1019 10:24:08.826797  8438 net.cpp:425] relu1_aroundhead <- fc1_aroundhead
I1019 10:24:08.826807  8438 net.cpp:386] relu1_aroundhead -> fc1_aroundhead (in-place)
I1019 10:24:08.826820  8438 net.cpp:141] Setting up relu1_aroundhead
I1019 10:24:08.826828  8438 net.cpp:148] Top shape: 100 1024 (102400)
I1019 10:24:08.826831  8438 net.cpp:156] Memory required for data: 3951578400
I1019 10:24:08.826835  8438 layer_factory.hpp:77] Creating layer drop1_aroundhead
I1019 10:24:08.826845  8438 net.cpp:91] Creating Layer drop1_aroundhead
I1019 10:24:08.826850  8438 net.cpp:425] drop1_aroundhead <- fc1_aroundhead
I1019 10:24:08.826858  8438 net.cpp:386] drop1_aroundhead -> fc1_aroundhead (in-place)
I1019 10:24:08.826896  8438 net.cpp:141] Setting up drop1_aroundhead
I1019 10:24:08.826905  8438 net.cpp:148] Top shape: 100 1024 (102400)
I1019 10:24:08.826910  8438 net.cpp:156] Memory required for data: 3951988000
I1019 10:24:08.826913  8438 layer_factory.hpp:77] Creating layer fc2_aroundhead
I1019 10:24:08.826925  8438 net.cpp:91] Creating Layer fc2_aroundhead
I1019 10:24:08.826930  8438 net.cpp:425] fc2_aroundhead <- fc1_aroundhead
I1019 10:24:08.826939  8438 net.cpp:399] fc2_aroundhead -> fc2_aroundhead
I1019 10:24:08.840097  8438 net.cpp:141] Setting up fc2_aroundhead
I1019 10:24:08.840119  8438 net.cpp:148] Top shape: 100 1024 (102400)
I1019 10:24:08.840126  8438 net.cpp:156] Memory required for data: 3952397600
I1019 10:24:08.840138  8438 layer_factory.hpp:77] Creating layer relu2_aroundhead
I1019 10:24:08.840150  8438 net.cpp:91] Creating Layer relu2_aroundhead
I1019 10:24:08.840157  8438 net.cpp:425] relu2_aroundhead <- fc2_aroundhead
I1019 10:24:08.840165  8438 net.cpp:386] relu2_aroundhead -> fc2_aroundhead (in-place)
I1019 10:24:08.840176  8438 net.cpp:141] Setting up relu2_aroundhead
I1019 10:24:08.840183  8438 net.cpp:148] Top shape: 100 1024 (102400)
I1019 10:24:08.840188  8438 net.cpp:156] Memory required for data: 3952807200
I1019 10:24:08.840191  8438 layer_factory.hpp:77] Creating layer drop2_aroundhead
I1019 10:24:08.840219  8438 net.cpp:91] Creating Layer drop2_aroundhead
I1019 10:24:08.840226  8438 net.cpp:425] drop2_aroundhead <- fc2_aroundhead
I1019 10:24:08.840234  8438 net.cpp:386] drop2_aroundhead -> fc2_aroundhead (in-place)
I1019 10:24:08.840266  8438 net.cpp:141] Setting up drop2_aroundhead
I1019 10:24:08.840276  8438 net.cpp:148] Top shape: 100 1024 (102400)
I1019 10:24:08.840279  8438 net.cpp:156] Memory required for data: 3953216800
I1019 10:24:08.840284  8438 layer_factory.hpp:77] Creating layer fc2_aroundhead_drop2_aroundhead_0_split
I1019 10:24:08.840296  8438 net.cpp:91] Creating Layer fc2_aroundhead_drop2_aroundhead_0_split
I1019 10:24:08.840301  8438 net.cpp:425] fc2_aroundhead_drop2_aroundhead_0_split <- fc2_aroundhead
I1019 10:24:08.840312  8438 net.cpp:399] fc2_aroundhead_drop2_aroundhead_0_split -> fc2_aroundhead_drop2_aroundhead_0_split_0
…
I1019 10:24:08.840394  8438 net.cpp:399] fc2_aroundhead_drop2_aroundhead_0_split -> fc2_aroundhead_drop2_aroundhead_0_split_9
I1019 10:24:08.840401  8438 net.cpp:399] fc2_aroundhead_drop2_aroundhead_0_split -> fc2_aroundhead_drop2_aroundhead_0_split_10
I1019 10:24:08.840410  8438 net.cpp:399] fc2_aroundhead_drop2_aroundhead_0_split -> fc2_aroundhead_drop2_aroundhead_0_split_11
I1019 10:24:08.840418  8438 net.cpp:399] fc2_aroundhead_drop2_aroundhead_0_split -> fc2_aroundhead_drop2_aroundhead_0_split_12
I1019 10:24:08.840592  8438 net.cpp:141] Setting up fc2_aroundhead_drop2_aroundhead_0_split
I1019 10:24:08.840603  8438 net.cpp:148] Top shape: 100 1024 (102400)
I1019 10:24:08.840610  8438 net.cpp:148] Top shape: 100 1024 (102400)
I1019 10:24:08.840615  8438 net.cpp:148] Top shape: 100 1024 (102400)
I1019 10:24:08.840620  8438 net.cpp:148] Top shape: 100 1024 (102400)
I1019 10:24:08.840623  8438 net.cpp:148] Top shape: 100 1024 (102400)
I1019 10:24:08.840628  8438 net.cpp:148] Top shape: 100 1024 (102400)
I1019 10:24:08.840633  8438 net.cpp:148] Top shape: 100 1024 (102400)
I1019 10:24:08.840638  8438 net.cpp:148] Top shape: 100 1024 (102400)
I1019 10:24:08.840643  8438 net.cpp:148] Top shape: 100 1024 (102400)
I1019 10:24:08.840648  8438 net.cpp:148] Top shape: 100 1024 (102400)
I1019 10:24:08.840652  8438 net.cpp:148] Top shape: 100 1024 (102400)
I1019 10:24:08.840657  8438 net.cpp:148] Top shape: 100 1024 (102400)
I1019 10:24:08.840662  8438 net.cpp:148] Top shape: 100 1024 (102400)
I1019 10:24:08.840665  8438 net.cpp:156] Memory required for data: 3958541600
I1019 10:24:08.840669  8438 layer_factory.hpp:77] Creating layer fc1_facialhair
I1019 10:24:08.840679  8438 net.cpp:91] Creating Layer fc1_facialhair
I1019 10:24:08.840687  8438 net.cpp:425] fc1_facialhair <- pool3_rest_pool3_rest_0_split_1
I1019 10:24:08.840697  8438 net.cpp:399] fc1_facialhair -> fc1_facialhair
I1019 10:24:08.924973  8438 net.cpp:141] Setting up fc1_facialhair
I1019 10:24:08.925012  8438 net.cpp:148] Top shape: 100 1024 (102400)
I1019 10:24:08.925019  8438 net.cpp:156] Memory required for data: 3958951200
I1019 10:24:08.925038  8438 layer_factory.hpp:77] Creating layer relu1_facialhair
I1019 10:24:08.925082  8438 net.cpp:91] Creating Layer relu1_facialhair
I1019 10:24:08.925093  8438 net.cpp:425] relu1_facialhair <- fc1_facialhair
I1019 10:24:08.925104  8438 net.cpp:386] relu1_facialhair -> fc1_facialhair (in-place)
I1019 10:24:08.925118  8438 net.cpp:141] Setting up relu1_facialhair
I1019 10:24:08.925124  8438 net.cpp:148] Top shape: 100 1024 (102400)
I1019 10:24:08.925128  8438 net.cpp:156] Memory required for data: 3959360800
I1019 10:24:08.925133  8438 layer_factory.hpp:77] Creating layer drop1_facialhair
I1019 10:24:08.925144  8438 net.cpp:91] Creating Layer drop1_facialhair
I1019 10:24:08.925148  8438 net.cpp:425] drop1_facialhair <- fc1_facialhair
I1019 10:24:08.925158  8438 net.cpp:386] drop1_facialhair -> fc1_facialhair (in-place)
I1019 10:24:08.925199  8438 net.cpp:141] Setting up drop1_facialhair
I1019 10:24:08.925218  8438 net.cpp:148] Top shape: 100 1024 (102400)
I1019 10:24:08.925223  8438 net.cpp:156] Memory required for data: 3959770400
I1019 10:24:08.925227  8438 layer_factory.hpp:77] Creating layer fc2_facialhair
I1019 10:24:08.925238  8438 net.cpp:91] Creating Layer fc2_facialhair
I1019 10:24:08.925245  8438 net.cpp:425] fc2_facialhair <- fc1_facialhair
I1019 10:24:08.925256  8438 net.cpp:399] fc2_facialhair -> fc2_facialhair
I1019 10:24:08.938650  8438 net.cpp:141] Setting up fc2_facialhair
I1019 10:24:08.938673  8438 net.cpp:148] Top shape: 100 1024 (102400)
I1019 10:24:08.938678  8438 net.cpp:156] Memory required for data: 3960180000
I1019 10:24:08.938688  8438 layer_factory.hpp:77] Creating layer relu2_facialhair
I1019 10:24:08.938700  8438 net.cpp:91] Creating Layer relu2_facialhair
I1019 10:24:08.938707  8438 net.cpp:425] relu2_facialhair <- fc2_facialhair
I1019 10:24:08.938716  8438 net.cpp:386] relu2_facialhair -> fc2_facialhair (in-place)
I1019 10:24:08.938727  8438 net.cpp:141] Setting up relu2_facialhair
I1019 10:24:08.938733  8438 net.cpp:148] Top shape: 100 1024 (102400)
I1019 10:24:08.938738  8438 net.cpp:156] Memory required for data: 3960589600
I1019 10:24:08.938743  8438 layer_factory.hpp:77] Creating layer drop2_facialhair
I1019 10:24:08.938752  8438 net.cpp:91] Creating Layer drop2_facialhair
I1019 10:24:08.938757  8438 net.cpp:425] drop2_facialhair <- fc2_facialhair
I1019 10:24:08.938765  8438 net.cpp:386] drop2_facialhair -> fc2_facialhair (in-place)
I1019 10:24:08.938796  8438 net.cpp:141] Setting up drop2_facialhair
I1019 10:24:08.938804  8438 net.cpp:148] Top shape: 100 1024 (102400)
I1019 10:24:08.938809  8438 net.cpp:156] Memory required for data: 3960999200
I1019 10:24:08.938813  8438 layer_factory.hpp:77] Creating layer fc2_facialhair_drop2_facialhair_0_split
I1019 10:24:08.938823  8438 net.cpp:91] Creating Layer fc2_facialhair_drop2_facialhair_0_split
I1019 10:24:08.938828  8438 net.cpp:425] fc2_facialhair_drop2_facialhair_0_split <- fc2_facialhair
I1019 10:24:08.938838  8438 net.cpp:399] fc2_facialhair_drop2_facialhair_0_split -> fc2_facialhair_drop2_facialhair_0_split_0
I1019 10:24:08.938848  8438 net.cpp:399] fc2_facialhair_drop2_facialhair_0_split -> fc2_facialhair_drop2_facialhair_0_split_1
I1019 10:24:08.938858  8438 net.cpp:399] fc2_facialhair_drop2_facialhair_0_split -> fc2_facialhair_drop2_facialhair_0_split_2
I1019 10:24:08.938864  8438 net.cpp:399] fc2_facialhair_drop2_facialhair_0_split -> fc2_facialhair_drop2_facialhair_0_split_3
I1019 10:24:08.938872  8438 net.cpp:399] fc2_facialhair_drop2_facialhair_0_split -> fc2_facialhair_drop2_facialhair_0_split_4
I1019 10:24:08.938953  8438 net.cpp:141] Setting up fc2_facialhair_drop2_facialhair_0_split
I1019 10:24:08.938963  8438 net.cpp:148] Top shape: 100 1024 (102400)
I1019 10:24:08.938969  8438 net.cpp:148] Top shape: 100 1024 (102400)
I1019 10:24:08.938974  8438 net.cpp:148] Top shape: 100 1024 (102400)
I1019 10:24:08.938979  8438 net.cpp:148] Top shape: 100 1024 (102400)
I1019 10:24:08.938984  8438 net.cpp:148] Top shape: 100 1024 (102400)
I1019 10:24:08.938988  8438 net.cpp:156] Memory required for data: 3963047200
I1019 10:24:08.938992  8438 layer_factory.hpp:77] Creating layer fc1_cheeks
I1019 10:24:08.939016  8438 net.cpp:91] Creating Layer fc1_cheeks
I1019 10:24:08.939025  8438 net.cpp:425] fc1_cheeks <- pool3_rest_pool3_rest_0_split_2
I1019 10:24:08.939035  8438 net.cpp:399] fc1_cheeks -> fc1_cheeks
I1019 10:24:09.023203  8438 net.cpp:141] Setting up fc1_cheeks
I1019 10:24:09.023238  8438 net.cpp:148] Top shape: 100 1024 (102400)
I1019 10:24:09.023244  8438 net.cpp:156] Memory required for data: 3963456800
I1019 10:24:09.023257  8438 layer_factory.hpp:77] Creating layer relu1_cheeks
I1019 10:24:09.023272  8438 net.cpp:91] Creating Layer relu1_cheeks
I1019 10:24:09.023280  8438 net.cpp:425] relu1_cheeks <- fc1_cheeks
I1019 10:24:09.023291  8438 net.cpp:386] relu1_cheeks -> fc1_cheeks (in-place)
I1019 10:24:09.023304  8438 net.cpp:141] Setting up relu1_cheeks
I1019 10:24:09.023311  8438 net.cpp:148] Top shape: 100 1024 (102400)
I1019 10:24:09.023315  8438 net.cpp:156] Memory required for data: 3963866400
I1019 10:24:09.023325  8438 layer_factory.hpp:77] Creating layer drop1_cheeks
I1019 10:24:09.023337  8438 net.cpp:91] Creating Layer drop1_cheeks
I1019 10:24:09.023342  8438 net.cpp:425] drop1_cheeks <- fc1_cheeks
I1019 10:24:09.023350  8438 net.cpp:386] drop1_cheeks -> fc1_cheeks (in-place)
I1019 10:24:09.023389  8438 net.cpp:141] Setting up drop1_cheeks
I1019 10:24:09.023406  8438 net.cpp:148] Top shape: 100 1024 (102400)
I1019 10:24:09.023411  8438 net.cpp:156] Memory required for data: 3964276000
I1019 10:24:09.023416  8438 layer_factory.hpp:77] Creating layer fc2_cheeks
I1019 10:24:09.023425  8438 net.cpp:91] Creating Layer fc2_cheeks
I1019 10:24:09.023432  8438 net.cpp:425] fc2_cheeks <- fc1_cheeks
I1019 10:24:09.023442  8438 net.cpp:399] fc2_cheeks -> fc2_cheeks
I1019 10:24:09.034106  8438 net.cpp:141] Setting up fc2_cheeks
I1019 10:24:09.034124  8438 net.cpp:148] Top shape: 100 1024 (102400)
I1019 10:24:09.034129  8438 net.cpp:156] Memory required for data: 3964685600
I1019 10:24:09.034138  8438 layer_factory.hpp:77] Creating layer relu2_cheeks
I1019 10:24:09.034147  8438 net.cpp:91] Creating Layer relu2_cheeks
I1019 10:24:09.034152  8438 net.cpp:425] relu2_cheeks <- fc2_cheeks
I1019 10:24:09.034162  8438 net.cpp:386] relu2_cheeks -> fc2_cheeks (in-place)
I1019 10:24:09.034173  8438 net.cpp:141] Setting up relu2_cheeks
I1019 10:24:09.034178  8438 net.cpp:148] Top shape: 100 1024 (102400)
I1019 10:24:09.034183  8438 net.cpp:156] Memory required for data: 3965095200
I1019 10:24:09.034186  8438 layer_factory.hpp:77] Creating layer drop2_cheeks
I1019 10:24:09.034198  8438 net.cpp:91] Creating Layer drop2_cheeks
I1019 10:24:09.034204  8438 net.cpp:425] drop2_cheeks <- fc2_cheeks
I1019 10:24:09.034211  8438 net.cpp:386] drop2_cheeks -> fc2_cheeks (in-place)
I1019 10:24:09.034242  8438 net.cpp:141] Setting up drop2_cheeks
I1019 10:24:09.034257  8438 net.cpp:148] Top shape: 100 1024 (102400)
I1019 10:24:09.034262  8438 net.cpp:156] Memory required for data: 3965504800
I1019 10:24:09.034267  8438 layer_factory.hpp:77] Creating layer fc2_cheeks_drop2_cheeks_0_split
I1019 10:24:09.034277  8438 net.cpp:91] Creating Layer fc2_cheeks_drop2_cheeks_0_split
I1019 10:24:09.034282  8438 net.cpp:425] fc2_cheeks_drop2_cheeks_0_split <- fc2_cheeks
I1019 10:24:09.034291  8438 net.cpp:399] fc2_cheeks_drop2_cheeks_0_split -> fc2_cheeks_drop2_cheeks_0_split_0
I1019 10:24:09.034301  8438 net.cpp:399] fc2_cheeks_drop2_cheeks_0_split -> fc2_cheeks_drop2_cheeks_0_split_1
I1019 10:24:09.034345  8438 net.cpp:141] Setting up fc2_cheeks_drop2_cheeks_0_split
I1019 10:24:09.034355  8438 net.cpp:148] Top shape: 100 1024 (102400)
I1019 10:24:09.034361  8438 net.cpp:148] Top shape: 100 1024 (102400)
I1019 10:24:09.034365  8438 net.cpp:156] Memory required for data: 3966324000
I1019 10:24:09.034370  8438 layer_factory.hpp:77] Creating layer fc1_fat
I1019 10:24:09.034380  8438 net.cpp:91] Creating Layer fc1_fat
I1019 10:24:09.034387  8438 net.cpp:425] fc1_fat <- pool3_rest_pool3_rest_0_split_3
I1019 10:24:09.034397  8438 net.cpp:399] fc1_fat -> fc1_fat
I1019 10:24:09.116482  8438 net.cpp:141] Setting up fc1_fat
I1019 10:24:09.116555  8438 net.cpp:148] Top shape: 100 1024 (102400)
I1019 10:24:09.116562  8438 net.cpp:156] Memory required for data: 3966733600
I1019 10:24:09.116614  8438 layer_factory.hpp:77] Creating layer relu1_fat
I1019 10:24:09.116632  8438 net.cpp:91] Creating Layer relu1_fat
I1019 10:24:09.116652  8438 net.cpp:425] relu1_fat <- fc1_fat
I1019 10:24:09.116683  8438 net.cpp:386] relu1_fat -> fc1_fat (in-place)
I1019 10:24:09.116696  8438 net.cpp:141] Setting up relu1_fat
I1019 10:24:09.116703  8438 net.cpp:148] Top shape: 100 1024 (102400)
I1019 10:24:09.116706  8438 net.cpp:156] Memory required for data: 3967143200
I1019 10:24:09.116709  8438 layer_factory.hpp:77] Creating layer drop1_fat
I1019 10:24:09.116719  8438 net.cpp:91] Creating Layer drop1_fat
I1019 10:24:09.116724  8438 net.cpp:425] drop1_fat <- fc1_fat
I1019 10:24:09.116734  8438 net.cpp:386] drop1_fat -> fc1_fat (in-place)
I1019 10:24:09.116796  8438 net.cpp:141] Setting up drop1_fat
I1019 10:24:09.116806  8438 net.cpp:148] Top shape: 100 1024 (102400)
I1019 10:24:09.116811  8438 net.cpp:156] Memory required for data: 3967552800
I1019 10:24:09.116816  8438 layer_factory.hpp:77] Creating layer fc2_fat
I1019 10:24:09.116827  8438 net.cpp:91] Creating Layer fc2_fat
I1019 10:24:09.116832  8438 net.cpp:425] fc2_fat <- fc1_fat
I1019 10:24:09.116840  8438 net.cpp:399] fc2_fat -> fc2_fat
I1019 10:24:09.126114  8438 net.cpp:141] Setting up fc2_fat
I1019 10:24:09.126148  8438 net.cpp:148] Top shape: 100 1024 (102400)
I1019 10:24:09.126153  8438 net.cpp:156] Memory required for data: 3967962400
I1019 10:24:09.126160  8438 layer_factory.hpp:77] Creating layer relu2_fat
I1019 10:24:09.126173  8438 net.cpp:91] Creating Layer relu2_fat
I1019 10:24:09.126179  8438 net.cpp:425] relu2_fat <- fc2_fat
I1019 10:24:09.126199  8438 net.cpp:386] relu2_fat -> fc2_fat (in-place)
I1019 10:24:09.126206  8438 net.cpp:141] Setting up relu2_fat
I1019 10:24:09.126212  8438 net.cpp:148] Top shape: 100 1024 (102400)
I1019 10:24:09.126216  8438 net.cpp:156] Memory required for data: 3968372000
I1019 10:24:09.126219  8438 layer_factory.hpp:77] Creating layer drop2_fat
I1019 10:24:09.126227  8438 net.cpp:91] Creating Layer drop2_fat
I1019 10:24:09.126231  8438 net.cpp:425] drop2_fat <- fc2_fat
I1019 10:24:09.126240  8438 net.cpp:386] drop2_fat -> fc2_fat (in-place)
I1019 10:24:09.126267  8438 net.cpp:141] Setting up drop2_fat
I1019 10:24:09.126274  8438 net.cpp:148] Top shape: 100 1024 (102400)
I1019 10:24:09.126278  8438 net.cpp:156] Memory required for data: 3968781600
I1019 10:24:09.126282  8438 layer_factory.hpp:77] Creating layer fc2_fat_drop2_fat_0_split
I1019 10:24:09.126293  8438 net.cpp:91] Creating Layer fc2_fat_drop2_fat_0_split
I1019 10:24:09.126298  8438 net.cpp:425] fc2_fat_drop2_fat_0_split <- fc2_fat
I1019 10:24:09.126305  8438 net.cpp:399] fc2_fat_drop2_fat_0_split -> fc2_fat_drop2_fat_0_split_0
I1019 10:24:09.126313  8438 net.cpp:399] fc2_fat_drop2_fat_0_split -> fc2_fat_drop2_fat_0_split_1
I1019 10:24:09.126354  8438 net.cpp:141] Setting up fc2_fat_drop2_fat_0_split
I1019 10:24:09.126363  8438 net.cpp:148] Top shape: 100 1024 (102400)
I1019 10:24:09.126368  8438 net.cpp:148] Top shape: 100 1024 (102400)
I1019 10:24:09.126370  8438 net.cpp:156] Memory required for data: 3969600800
I1019 10:24:09.126375  8438 layer_factory.hpp:77] Creating layer fc3_Male
I1019 10:24:09.126384  8438 net.cpp:91] Creating Layer fc3_Male
I1019 10:24:09.126387  8438 net.cpp:425] fc3_Male <- fc2_gender
I1019 10:24:09.126394  8438 net.cpp:399] fc3_Male -> fc3_Male
I1019 10:24:09.126586  8438 net.cpp:141] Setting up fc3_Male
I1019 10:24:09.126598  8438 net.cpp:148] Top shape: 100 2 (200)
I1019 10:24:09.126602  8438 net.cpp:156] Memory required for data: 3969601600
I1019 10:24:09.126610  8438 layer_factory.hpp:77] Creating layer loss_Male
I1019 10:24:09.126623  8438 net.cpp:91] Creating Layer loss_Male
I1019 10:24:09.126628  8438 net.cpp:425] loss_Male <- fc3_Male
I1019 10:24:09.126634  8438 net.cpp:425] loss_Male <- label_Male
I1019 10:24:09.126641  8438 net.cpp:399] loss_Male -> loss_Male
I1019 10:24:09.126708  8438 net.cpp:141] Setting up loss_Male
I1019 10:24:09.126718  8438 net.cpp:148] Top shape: (1)
I1019 10:24:09.126724  8438 net.cpp:151]     with loss weight 1
I1019 10:24:09.126755  8438 net.cpp:156] Memory required for data: 3969601604
I1019 10:24:09.126760  8438 layer_factory.hpp:77] Creating layer fc3_Big_Nose
I1019 10:24:09.126770  8438 net.cpp:91] Creating Layer fc3_Big_Nose
I1019 10:24:09.126775  8438 net.cpp:425] fc3_Big_Nose <- fc2_nose_drop2_nose_0_split_0
I1019 10:24:09.126786  8438 net.cpp:399] fc3_Big_Nose -> fc3_Big_Nose
I1019 10:24:09.126910  8438 net.cpp:141] Setting up fc3_Big_Nose
I1019 10:24:09.126921  8438 net.cpp:148] Top shape: 100 2 (200)
I1019 10:24:09.126925  8438 net.cpp:156] Memory required for data: 3969602404
I1019 10:24:09.126932  8438 layer_factory.hpp:77] Creating layer loss_Big_Nose
I1019 10:24:09.126952  8438 net.cpp:91] Creating Layer loss_Big_Nose
I1019 10:24:09.126957  8438 net.cpp:425] loss_Big_Nose <- fc3_Big_Nose
I1019 10:24:09.126963  8438 net.cpp:425] loss_Big_Nose <- label_Big_Nose
I1019 10:24:09.126973  8438 net.cpp:399] loss_Big_Nose -> loss_Big_Nose
I1019 10:24:09.127017  8438 net.cpp:141] Setting up loss_Big_Nose
I1019 10:24:09.127027  8438 net.cpp:148] Top shape: (1)
I1019 10:24:09.127032  8438 net.cpp:151]     with loss weight 1
I1019 10:24:09.127038  8438 net.cpp:156] Memory required for data: 3969602408
I1019 10:24:09.127041  8438 layer_factory.hpp:77] Creating layer fc3_Pointy_Nose
I1019 10:24:09.127049  8438 net.cpp:91] Creating Layer fc3_Pointy_Nose
I1019 10:24:09.127054  8438 net.cpp:425] fc3_Pointy_Nose <- fc2_nose_drop2_nose_0_split_1
I1019 10:24:09.127061  8438 net.cpp:399] fc3_Pointy_Nose -> fc3_Pointy_Nose
I1019 10:24:09.127182  8438 net.cpp:141] Setting up fc3_Pointy_Nose
I1019 10:24:09.127192  8438 net.cpp:148] Top shape: 100 2 (200)
I1019 10:24:09.127197  8438 net.cpp:156] Memory required for data: 3969603208
I1019 10:24:09.127393  8438 layer_factory.hpp:77] Creating layer loss_Pointy_Nose
I1019 10:24:09.127413  8438 net.cpp:91] Creating Layer loss_Pointy_Nose
I1019 10:24:09.127418  8438 net.cpp:425] loss_Pointy_Nose <- fc3_Pointy_Nose
I1019 10:24:09.127425  8438 net.cpp:425] loss_Pointy_Nose <- label_Pointy_Nose
I1019 10:24:09.127431  8438 net.cpp:399] loss_Pointy_Nose -> loss_Pointy_Nose
I1019 10:24:09.127478  8438 net.cpp:141] Setting up loss_Pointy_Nose
I1019 10:24:09.127487  8438 net.cpp:148] Top shape: (1)
I1019 10:24:09.127491  8438 net.cpp:151]     with loss weight 1
I1019 10:24:09.127497  8438 net.cpp:156] Memory required for data: 3969603212
I1019 10:24:09.127501  8438 layer_factory.hpp:77] Creating layer fc3_Big_Lips
I1019 10:24:09.127514  8438 net.cpp:91] Creating Layer fc3_Big_Lips
I1019 10:24:09.127521  8438 net.cpp:425] fc3_Big_Lips <- fc2_mouth_drop2_mouth_0_split_0
I1019 10:24:09.127528  8438 net.cpp:399] fc3_Big_Lips -> fc3_Big_Lips
I1019 10:24:09.127653  8438 net.cpp:141] Setting up fc3_Big_Lips
I1019 10:24:09.127663  8438 net.cpp:148] Top shape: 100 2 (200)
I1019 10:24:09.127667  8438 net.cpp:156] Memory required for data: 3969604012
I1019 10:24:09.127674  8438 layer_factory.hpp:77] Creating layer loss_Big_Lips
I1019 10:24:09.127682  8438 net.cpp:91] Creating Layer loss_Big_Lips
I1019 10:24:09.127687  8438 net.cpp:425] loss_Big_Lips <- fc3_Big_Lips
I1019 10:24:09.127693  8438 net.cpp:425] loss_Big_Lips <- label_Big_Lips
I1019 10:24:09.127706  8438 net.cpp:399] loss_Big_Lips -> loss_Big_Lips
I1019 10:24:09.127748  8438 net.cpp:141] Setting up loss_Big_Lips
I1019 10:24:09.127758  8438 net.cpp:148] Top shape: (1)
I1019 10:24:09.127761  8438 net.cpp:151]     with loss weight 1
I1019 10:24:09.127768  8438 net.cpp:156] Memory required for data: 3969604016
I1019 10:24:09.127771  8438 layer_factory.hpp:77] Creating layer fc3_Smiling
I1019 10:24:09.127854  8438 net.cpp:91] Creating Layer fc3_Smiling
I1019 10:24:09.127863  8438 net.cpp:425] fc3_Smiling <- fc2_mouth_drop2_mouth_0_split_1
I1019 10:24:09.127872  8438 net.cpp:399] fc3_Smiling -> fc3_Smiling
I1019 10:24:09.127995  8438 net.cpp:141] Setting up fc3_Smiling
I1019 10:24:09.128017  8438 net.cpp:148] Top shape: 100 2 (200)
I1019 10:24:09.128022  8438 net.cpp:156] Memory required for data: 3969604816
I1019 10:24:09.128031  8438 layer_factory.hpp:77] Creating layer loss_Smiling
I1019 10:24:09.128042  8438 net.cpp:91] Creating Layer loss_Smiling
I1019 10:24:09.128047  8438 net.cpp:425] loss_Smiling <- fc3_Smiling
I1019 10:24:09.128052  8438 net.cpp:425] loss_Smiling <- label_Smiling
I1019 10:24:09.128058  8438 net.cpp:399] loss_Smiling -> loss_Smiling
I1019 10:24:09.128103  8438 net.cpp:141] Setting up loss_Smiling
I1019 10:24:09.128113  8438 net.cpp:148] Top shape: (1)
I1019 10:24:09.128116  8438 net.cpp:151]     with loss weight 1
I1019 10:24:09.128123  8438 net.cpp:156] Memory required for data: 3969604820
I1019 10:24:09.128126  8438 layer_factory.hpp:77] Creating layer fc3_Wearing_Lipstick
I1019 10:24:09.128139  8438 net.cpp:91] Creating Layer fc3_Wearing_Lipstick
I1019 10:24:09.128144  8438 net.cpp:425] fc3_Wearing_Lipstick <- fc2_mouth_drop2_mouth_0_split_2
I1019 10:24:09.128150  8438 net.cpp:399] fc3_Wearing_Lipstick -> fc3_Wearing_Lipstick
I1019 10:24:09.128281  8438 net.cpp:141] Setting up fc3_Wearing_Lipstick
I1019 10:24:09.128293  8438 net.cpp:148] Top shape: 100 2 (200)
I1019 10:24:09.128296  8438 net.cpp:156] Memory required for data: 3969605620
I1019 10:24:09.128303  8438 layer_factory.hpp:77] Creating layer loss_Wearing_Lipstick
I1019 10:24:09.128314  8438 net.cpp:91] Creating Layer loss_Wearing_Lipstick
I1019 10:24:09.128319  8438 net.cpp:425] loss_Wearing_Lipstick <- fc3_Wearing_Lipstick
I1019 10:24:09.128324  8438 net.cpp:425] loss_Wearing_Lipstick <- label_Wearing_Lipstick
I1019 10:24:09.128330  8438 net.cpp:399] loss_Wearing_Lipstick -> loss_Wearing_Lipstick
I1019 10:24:09.128383  8438 net.cpp:141] Setting up loss_Wearing_Lipstick
I1019 10:24:09.128393  8438 net.cpp:148] Top shape: (1)
I1019 10:24:09.128397  8438 net.cpp:151]     with loss weight 1
I1019 10:24:09.128403  8438 net.cpp:156] Memory required for data: 3969605624
I1019 10:24:09.128407  8438 layer_factory.hpp:77] Creating layer fc3_Mouth_Slightly_Open
I1019 10:24:09.128423  8438 net.cpp:91] Creating Layer fc3_Mouth_Slightly_Open
I1019 10:24:09.128429  8438 net.cpp:425] fc3_Mouth_Slightly_Open <- fc2_mouth_drop2_mouth_0_split_3
I1019 10:24:09.128437  8438 net.cpp:399] fc3_Mouth_Slightly_Open -> fc3_Mouth_Slightly_Open
I1019 10:24:09.128556  8438 net.cpp:141] Setting up fc3_Mouth_Slightly_Open
I1019 10:24:09.128566  8438 net.cpp:148] Top shape: 100 2 (200)
I1019 10:24:09.128569  8438 net.cpp:156] Memory required for data: 3969606424
I1019 10:24:09.128576  8438 layer_factory.hpp:77] Creating layer loss_Mouth_Slightly_Open
I1019 10:24:09.128587  8438 net.cpp:91] Creating Layer loss_Mouth_Slightly_Open
I1019 10:24:09.128592  8438 net.cpp:425] loss_Mouth_Slightly_Open <- fc3_Mouth_Slightly_Open
I1019 10:24:09.128598  8438 net.cpp:425] loss_Mouth_Slightly_Open <- label_Mouth_Slightly_Open
I1019 10:24:09.128604  8438 net.cpp:399] loss_Mouth_Slightly_Open -> loss_Mouth_Slightly_Open
I1019 10:24:09.128650  8438 net.cpp:141] Setting up loss_Mouth_Slightly_Open
I1019 10:24:09.128659  8438 net.cpp:148] Top shape: (1)
I1019 10:24:09.128664  8438 net.cpp:151]     with loss weight 1
I1019 10:24:09.128669  8438 net.cpp:156] Memory required for data: 3969606428
I1019 10:24:09.128674  8438 layer_factory.hpp:77] Creating layer fc3_Arched_Eyebrows
I1019 10:24:09.128680  8438 net.cpp:91] Creating Layer fc3_Arched_Eyebrows
I1019 10:24:09.128684  8438 net.cpp:425] fc3_Arched_Eyebrows <- fc2_eyes_drop2_eyes_0_split_0
I1019 10:24:09.128696  8438 net.cpp:399] fc3_Arched_Eyebrows -> fc3_Arched_Eyebrows
I1019 10:24:09.128820  8438 net.cpp:141] Setting up fc3_Arched_Eyebrows
I1019 10:24:09.128831  8438 net.cpp:148] Top shape: 100 2 (200)
I1019 10:24:09.128835  8438 net.cpp:156] Memory required for data: 3969607228
I1019 10:24:09.128842  8438 layer_factory.hpp:77] Creating layer loss_Arched_Eyebrows
I1019 10:24:09.128854  8438 net.cpp:91] Creating Layer loss_Arched_Eyebrows
I1019 10:24:09.128859  8438 net.cpp:425] loss_Arched_Eyebrows <- fc3_Arched_Eyebrows
I1019 10:24:09.128875  8438 net.cpp:425] loss_Arched_Eyebrows <- label_Arched_Eyebrows
I1019 10:24:09.128881  8438 net.cpp:399] loss_Arched_Eyebrows -> loss_Arched_Eyebrows
I1019 10:24:09.128926  8438 net.cpp:141] Setting up loss_Arched_Eyebrows
I1019 10:24:09.128942  8438 net.cpp:148] Top shape: (1)
I1019 10:24:09.128945  8438 net.cpp:151]     with loss weight 1
I1019 10:24:09.128952  8438 net.cpp:156] Memory required for data: 3969607232
I1019 10:24:09.128955  8438 layer_factory.hpp:77] Creating layer fc3_Bags_Under_Eyes
I1019 10:24:09.128963  8438 net.cpp:91] Creating Layer fc3_Bags_Under_Eyes
I1019 10:24:09.128968  8438 net.cpp:425] fc3_Bags_Under_Eyes <- fc2_eyes_drop2_eyes_0_split_1
I1019 10:24:09.128979  8438 net.cpp:399] fc3_Bags_Under_Eyes -> fc3_Bags_Under_Eyes
I1019 10:24:09.129103  8438 net.cpp:141] Setting up fc3_Bags_Under_Eyes
I1019 10:24:09.129114  8438 net.cpp:148] Top shape: 100 2 (200)
I1019 10:24:09.129118  8438 net.cpp:156] Memory required for data: 3969608032
I1019 10:24:09.129125  8438 layer_factory.hpp:77] Creating layer loss_Bags_Under_Eyes
I1019 10:24:09.129137  8438 net.cpp:91] Creating Layer loss_Bags_Under_Eyes
I1019 10:24:09.129142  8438 net.cpp:425] loss_Bags_Under_Eyes <- fc3_Bags_Under_Eyes
I1019 10:24:09.129148  8438 net.cpp:425] loss_Bags_Under_Eyes <- label_Bags_Under_Eyes
I1019 10:24:09.129153  8438 net.cpp:399] loss_Bags_Under_Eyes -> loss_Bags_Under_Eyes
I1019 10:24:09.129197  8438 net.cpp:141] Setting up loss_Bags_Under_Eyes
I1019 10:24:09.129207  8438 net.cpp:148] Top shape: (1)
I1019 10:24:09.129211  8438 net.cpp:151]     with loss weight 1
I1019 10:24:09.129217  8438 net.cpp:156] Memory required for data: 3969608036
I1019 10:24:09.129221  8438 layer_factory.hpp:77] Creating layer fc3_Bushy_Eyebrows
I1019 10:24:09.129228  8438 net.cpp:91] Creating Layer fc3_Bushy_Eyebrows
I1019 10:24:09.129233  8438 net.cpp:425] fc3_Bushy_Eyebrows <- fc2_eyes_drop2_eyes_0_split_2
I1019 10:24:09.129243  8438 net.cpp:399] fc3_Bushy_Eyebrows -> fc3_Bushy_Eyebrows
I1019 10:24:09.129365  8438 net.cpp:141] Setting up fc3_Bushy_Eyebrows
I1019 10:24:09.129376  8438 net.cpp:148] Top shape: 100 2 (200)
I1019 10:24:09.129380  8438 net.cpp:156] Memory required for data: 3969608836
I1019 10:24:09.129386  8438 layer_factory.hpp:77] Creating layer loss_Bushy_Eyebrows
I1019 10:24:09.129397  8438 net.cpp:91] Creating Layer loss_Bushy_Eyebrows
I1019 10:24:09.129402  8438 net.cpp:425] loss_Bushy_Eyebrows <- fc3_Bushy_Eyebrows
I1019 10:24:09.129408  8438 net.cpp:425] loss_Bushy_Eyebrows <- label_Bushy_Eyebrows
I1019 10:24:09.129415  8438 net.cpp:399] loss_Bushy_Eyebrows -> loss_Bushy_Eyebrows
I1019 10:24:09.129459  8438 net.cpp:141] Setting up loss_Bushy_Eyebrows
I1019 10:24:09.129469  8438 net.cpp:148] Top shape: (1)
I1019 10:24:09.129473  8438 net.cpp:151]     with loss weight 1
I1019 10:24:09.129478  8438 net.cpp:156] Memory required for data: 3969608840
I1019 10:24:09.129482  8438 layer_factory.hpp:77] Creating layer fc3_Narrow_Eyes
I1019 10:24:09.129492  8438 net.cpp:91] Creating Layer fc3_Narrow_Eyes
I1019 10:24:09.129497  8438 net.cpp:425] fc3_Narrow_Eyes <- fc2_eyes_drop2_eyes_0_split_3
I1019 10:24:09.129508  8438 net.cpp:399] fc3_Narrow_Eyes -> fc3_Narrow_Eyes
I1019 10:24:09.129633  8438 net.cpp:141] Setting up fc3_Narrow_Eyes
I1019 10:24:09.129643  8438 net.cpp:148] Top shape: 100 2 (200)
I1019 10:24:09.129648  8438 net.cpp:156] Memory required for data: 3969609640
I1019 10:24:09.129654  8438 layer_factory.hpp:77] Creating layer loss_Narrow_Eyes
I1019 10:24:09.129668  8438 net.cpp:91] Creating Layer loss_Narrow_Eyes
I1019 10:24:09.129673  8438 net.cpp:425] loss_Narrow_Eyes <- fc3_Narrow_Eyes
I1019 10:24:09.129678  8438 net.cpp:425] loss_Narrow_Eyes <- label_Narrow_Eyes
I1019 10:24:09.129684  8438 net.cpp:399] loss_Narrow_Eyes -> loss_Narrow_Eyes
I1019 10:24:09.129734  8438 net.cpp:141] Setting up loss_Narrow_Eyes
I1019 10:24:09.129742  8438 net.cpp:148] Top shape: (1)
I1019 10:24:09.129746  8438 net.cpp:151]     with loss weight 1
I1019 10:24:09.129752  8438 net.cpp:156] Memory required for data: 3969609644
I1019 10:24:09.129766  8438 layer_factory.hpp:77] Creating layer fc3_Eyeglasses
I1019 10:24:09.129773  8438 net.cpp:91] Creating Layer fc3_Eyeglasses
I1019 10:24:09.129778  8438 net.cpp:425] fc3_Eyeglasses <- fc2_eyes_drop2_eyes_0_split_4
I1019 10:24:09.129791  8438 net.cpp:399] fc3_Eyeglasses -> fc3_Eyeglasses
I1019 10:24:09.129909  8438 net.cpp:141] Setting up fc3_Eyeglasses
I1019 10:24:09.129920  8438 net.cpp:148] Top shape: 100 2 (200)
I1019 10:24:09.129923  8438 net.cpp:156] Memory required for data: 3969610444
I1019 10:24:09.129930  8438 layer_factory.hpp:77] Creating layer loss_Eyeglasses
I1019 10:24:09.129945  8438 net.cpp:91] Creating Layer loss_Eyeglasses
I1019 10:24:09.129950  8438 net.cpp:425] loss_Eyeglasses <- fc3_Eyeglasses
I1019 10:24:09.129956  8438 net.cpp:425] loss_Eyeglasses <- label_Eyeglasses
I1019 10:24:09.129961  8438 net.cpp:399] loss_Eyeglasses -> loss_Eyeglasses
I1019 10:24:09.130012  8438 net.cpp:141] Setting up loss_Eyeglasses
I1019 10:24:09.130023  8438 net.cpp:148] Top shape: (1)
I1019 10:24:09.130028  8438 net.cpp:151]     with loss weight 1
I1019 10:24:09.130033  8438 net.cpp:156] Memory required for data: 3969610448
I1019 10:24:09.130038  8438 layer_factory.hpp:77] Creating layer fc3_Attractive
I1019 10:24:09.130044  8438 net.cpp:91] Creating Layer fc3_Attractive
I1019 10:24:09.130049  8438 net.cpp:425] fc3_Attractive <- fc2_face_drop2_face_0_split_0
I1019 10:24:09.130060  8438 net.cpp:399] fc3_Attractive -> fc3_Attractive
I1019 10:24:09.130179  8438 net.cpp:141] Setting up fc3_Attractive
I1019 10:24:09.130189  8438 net.cpp:148] Top shape: 100 2 (200)
I1019 10:24:09.130194  8438 net.cpp:156] Memory required for data: 3969611248
I1019 10:24:09.130200  8438 layer_factory.hpp:77] Creating layer loss_Attractive
I1019 10:24:09.130214  8438 net.cpp:91] Creating Layer loss_Attractive
I1019 10:24:09.130219  8438 net.cpp:425] loss_Attractive <- fc3_Attractive
I1019 10:24:09.130225  8438 net.cpp:425] loss_Attractive <- label_Attractive
I1019 10:24:09.130233  8438 net.cpp:399] loss_Attractive -> loss_Attractive
I1019 10:24:09.130275  8438 net.cpp:141] Setting up loss_Attractive
I1019 10:24:09.130285  8438 net.cpp:148] Top shape: (1)
I1019 10:24:09.130288  8438 net.cpp:151]     with loss weight 1
I1019 10:24:09.130295  8438 net.cpp:156] Memory required for data: 3969611252
I1019 10:24:09.130298  8438 layer_factory.hpp:77] Creating layer fc3_Blurry
I1019 10:24:09.130306  8438 net.cpp:91] Creating Layer fc3_Blurry
I1019 10:24:09.130309  8438 net.cpp:425] fc3_Blurry <- fc2_face_drop2_face_0_split_1
I1019 10:24:09.130321  8438 net.cpp:399] fc3_Blurry -> fc3_Blurry
I1019 10:24:09.130442  8438 net.cpp:141] Setting up fc3_Blurry
I1019 10:24:09.130453  8438 net.cpp:148] Top shape: 100 2 (200)
I1019 10:24:09.130456  8438 net.cpp:156] Memory required for data: 3969612052
I1019 10:24:09.130463  8438 layer_factory.hpp:77] Creating layer loss_Blurry
I1019 10:24:09.130477  8438 net.cpp:91] Creating Layer loss_Blurry
I1019 10:24:09.130483  8438 net.cpp:425] loss_Blurry <- fc3_Blurry
I1019 10:24:09.130488  8438 net.cpp:425] loss_Blurry <- label_Blurry
I1019 10:24:09.130494  8438 net.cpp:399] loss_Blurry -> loss_Blurry
I1019 10:24:09.130537  8438 net.cpp:141] Setting up loss_Blurry
I1019 10:24:09.130547  8438 net.cpp:148] Top shape: (1)
I1019 10:24:09.130550  8438 net.cpp:151]     with loss weight 1
I1019 10:24:09.130556  8438 net.cpp:156] Memory required for data: 3969612056
I1019 10:24:09.130559  8438 layer_factory.hpp:77] Creating layer fc3_Oval_Face
I1019 10:24:09.130568  8438 net.cpp:91] Creating Layer fc3_Oval_Face
I1019 10:24:09.130573  8438 net.cpp:425] fc3_Oval_Face <- fc2_face_drop2_face_0_split_2
I1019 10:24:09.130584  8438 net.cpp:399] fc3_Oval_Face -> fc3_Oval_Face
I1019 10:24:09.130698  8438 net.cpp:141] Setting up fc3_Oval_Face
I1019 10:24:09.130708  8438 net.cpp:148] Top shape: 100 2 (200)
I1019 10:24:09.130712  8438 net.cpp:156] Memory required for data: 3969612856
I1019 10:24:09.130718  8438 layer_factory.hpp:77] Creating layer loss_Oval_Face
I1019 10:24:09.130733  8438 net.cpp:91] Creating Layer loss_Oval_Face
I1019 10:24:09.130750  8438 net.cpp:425] loss_Oval_Face <- fc3_Oval_Face
I1019 10:24:09.130756  8438 net.cpp:425] loss_Oval_Face <- label_Oval_Face
I1019 10:24:09.130764  8438 net.cpp:399] loss_Oval_Face -> loss_Oval_Face
I1019 10:24:09.130810  8438 net.cpp:141] Setting up loss_Oval_Face
I1019 10:24:09.130820  8438 net.cpp:148] Top shape: (1)
I1019 10:24:09.130825  8438 net.cpp:151]     with loss weight 1
I1019 10:24:09.130831  8438 net.cpp:156] Memory required for data: 3969612860
I1019 10:24:09.130834  8438 layer_factory.hpp:77] Creating layer fc3_Pale_Skin
I1019 10:24:09.130841  8438 net.cpp:91] Creating Layer fc3_Pale_Skin
I1019 10:24:09.130846  8438 net.cpp:425] fc3_Pale_Skin <- fc2_face_drop2_face_0_split_3
I1019 10:24:09.130856  8438 net.cpp:399] fc3_Pale_Skin -> fc3_Pale_Skin
I1019 10:24:09.130978  8438 net.cpp:141] Setting up fc3_Pale_Skin
I1019 10:24:09.130988  8438 net.cpp:148] Top shape: 100 2 (200)
I1019 10:24:09.130992  8438 net.cpp:156] Memory required for data: 3969613660
I1019 10:24:09.131000  8438 layer_factory.hpp:77] Creating layer loss_Pale_Skin
I1019 10:24:09.131011  8438 net.cpp:91] Creating Layer loss_Pale_Skin
I1019 10:24:09.131016  8438 net.cpp:425] loss_Pale_Skin <- fc3_Pale_Skin
I1019 10:24:09.131021  8438 net.cpp:425] loss_Pale_Skin <- label_Pale_Skin
I1019 10:24:09.131032  8438 net.cpp:399] loss_Pale_Skin -> loss_Pale_Skin
I1019 10:24:09.131075  8438 net.cpp:141] Setting up loss_Pale_Skin
I1019 10:24:09.131084  8438 net.cpp:148] Top shape: (1)
I1019 10:24:09.131088  8438 net.cpp:151]     with loss weight 1
I1019 10:24:09.131094  8438 net.cpp:156] Memory required for data: 3969613664
I1019 10:24:09.131098  8438 layer_factory.hpp:77] Creating layer fc3_Young
I1019 10:24:09.131105  8438 net.cpp:91] Creating Layer fc3_Young
I1019 10:24:09.131110  8438 net.cpp:425] fc3_Young <- fc2_face_drop2_face_0_split_4
I1019 10:24:09.131125  8438 net.cpp:399] fc3_Young -> fc3_Young
I1019 10:24:09.131242  8438 net.cpp:141] Setting up fc3_Young
I1019 10:24:09.131253  8438 net.cpp:148] Top shape: 100 2 (200)
I1019 10:24:09.131256  8438 net.cpp:156] Memory required for data: 3969614464
I1019 10:24:09.131263  8438 layer_factory.hpp:77] Creating layer loss_Young
I1019 10:24:09.131275  8438 net.cpp:91] Creating Layer loss_Young
I1019 10:24:09.131280  8438 net.cpp:425] loss_Young <- fc3_Young
I1019 10:24:09.131286  8438 net.cpp:425] loss_Young <- label_Young
I1019 10:24:09.131295  8438 net.cpp:399] loss_Young -> loss_Young
I1019 10:24:09.131342  8438 net.cpp:141] Setting up loss_Young
I1019 10:24:09.131352  8438 net.cpp:148] Top shape: (1)
I1019 10:24:09.131356  8438 net.cpp:151]     with loss weight 1
I1019 10:24:09.131362  8438 net.cpp:156] Memory required for data: 3969614468
I1019 10:24:09.131366  8438 layer_factory.hpp:77] Creating layer fc3_Heavy_Makeup
I1019 10:24:09.131372  8438 net.cpp:91] Creating Layer fc3_Heavy_Makeup
I1019 10:24:09.131377  8438 net.cpp:425] fc3_Heavy_Makeup <- fc2_face_drop2_face_0_split_5
I1019 10:24:09.131388  8438 net.cpp:399] fc3_Heavy_Makeup -> fc3_Heavy_Makeup
I1019 10:24:09.131507  8438 net.cpp:141] Setting up fc3_Heavy_Makeup
I1019 10:24:09.131517  8438 net.cpp:148] Top shape: 100 2 (200)
I1019 10:24:09.131521  8438 net.cpp:156] Memory required for data: 3969615268
I1019 10:24:09.131528  8438 layer_factory.hpp:77] Creating layer loss_Heavy_Makeup
I1019 10:24:09.131539  8438 net.cpp:91] Creating Layer loss_Heavy_Makeup
I1019 10:24:09.131544  8438 net.cpp:425] loss_Heavy_Makeup <- fc3_Heavy_Makeup
I1019 10:24:09.131549  8438 net.cpp:425] loss_Heavy_Makeup <- label_Heavy_Makeup
I1019 10:24:09.131558  8438 net.cpp:399] loss_Heavy_Makeup -> loss_Heavy_Makeup
I1019 10:24:09.131605  8438 net.cpp:141] Setting up loss_Heavy_Makeup
I1019 10:24:09.131614  8438 net.cpp:148] Top shape: (1)
I1019 10:24:09.131618  8438 net.cpp:151]     with loss weight 1
I1019 10:24:09.131623  8438 net.cpp:156] Memory required for data: 3969615272
I1019 10:24:09.131628  8438 layer_factory.hpp:77] Creating layer fc3_Black_Hair
I1019 10:24:09.131635  8438 net.cpp:91] Creating Layer fc3_Black_Hair
I1019 10:24:09.131655  8438 net.cpp:425] fc3_Black_Hair <- fc2_aroundhead_drop2_aroundhead_0_split_0
I1019 10:24:09.131669  8438 net.cpp:399] fc3_Black_Hair -> fc3_Black_Hair
I1019 10:24:09.131788  8438 net.cpp:141] Setting up fc3_Black_Hair
I1019 10:24:09.131798  8438 net.cpp:148] Top shape: 100 2 (200)
I1019 10:24:09.131803  8438 net.cpp:156] Memory required for data: 3969616072
I1019 10:24:09.131815  8438 layer_factory.hpp:77] Creating layer loss_Black_Hair
I1019 10:24:09.131827  8438 net.cpp:91] Creating Layer loss_Black_Hair
I1019 10:24:09.131834  8438 net.cpp:425] loss_Black_Hair <- fc3_Black_Hair
I1019 10:24:09.131839  8438 net.cpp:425] loss_Black_Hair <- label_Black_Hair
I1019 10:24:09.131849  8438 net.cpp:399] loss_Black_Hair -> loss_Black_Hair
I1019 10:24:09.131892  8438 net.cpp:141] Setting up loss_Black_Hair
I1019 10:24:09.131902  8438 net.cpp:148] Top shape: (1)
I1019 10:24:09.131906  8438 net.cpp:151]     with loss weight 1
I1019 10:24:09.131912  8438 net.cpp:156] Memory required for data: 3969616076
I1019 10:24:09.131916  8438 layer_factory.hpp:77] Creating layer fc3_Blond_Hair
I1019 10:24:09.131923  8438 net.cpp:91] Creating Layer fc3_Blond_Hair
I1019 10:24:09.131928  8438 net.cpp:425] fc3_Blond_Hair <- fc2_aroundhead_drop2_aroundhead_0_split_1
I1019 10:24:09.131934  8438 net.cpp:399] fc3_Blond_Hair -> fc3_Blond_Hair
I1019 10:24:09.132052  8438 net.cpp:141] Setting up fc3_Blond_Hair
I1019 10:24:09.132062  8438 net.cpp:148] Top shape: 100 2 (200)
I1019 10:24:09.132066  8438 net.cpp:156] Memory required for data: 3969616876
I1019 10:24:09.132072  8438 layer_factory.hpp:77] Creating layer loss_Blond_Hair
I1019 10:24:09.132086  8438 net.cpp:91] Creating Layer loss_Blond_Hair
I1019 10:24:09.132092  8438 net.cpp:425] loss_Blond_Hair <- fc3_Blond_Hair
I1019 10:24:09.132097  8438 net.cpp:425] loss_Blond_Hair <- label_Blond_Hair
I1019 10:24:09.132107  8438 net.cpp:399] loss_Blond_Hair -> loss_Blond_Hair
I1019 10:24:09.132150  8438 net.cpp:141] Setting up loss_Blond_Hair
I1019 10:24:09.132159  8438 net.cpp:148] Top shape: (1)
I1019 10:24:09.132164  8438 net.cpp:151]     with loss weight 1
I1019 10:24:09.132169  8438 net.cpp:156] Memory required for data: 3969616880
I1019 10:24:09.132174  8438 layer_factory.hpp:77] Creating layer fc3_Brown_Hair
I1019 10:24:09.132180  8438 net.cpp:91] Creating Layer fc3_Brown_Hair
I1019 10:24:09.132185  8438 net.cpp:425] fc3_Brown_Hair <- fc2_aroundhead_drop2_aroundhead_0_split_2
I1019 10:24:09.132192  8438 net.cpp:399] fc3_Brown_Hair -> fc3_Brown_Hair
I1019 10:24:09.132313  8438 net.cpp:141] Setting up fc3_Brown_Hair
I1019 10:24:09.132323  8438 net.cpp:148] Top shape: 100 2 (200)
I1019 10:24:09.132326  8438 net.cpp:156] Memory required for data: 3969617680
I1019 10:24:09.132334  8438 layer_factory.hpp:77] Creating layer loss_Brown_Hair
I1019 10:24:09.132345  8438 net.cpp:91] Creating Layer loss_Brown_Hair
I1019 10:24:09.132350  8438 net.cpp:425] loss_Brown_Hair <- fc3_Brown_Hair
I1019 10:24:09.132360  8438 net.cpp:425] loss_Brown_Hair <- label_Brown_Hair
I1019 10:24:09.132369  8438 net.cpp:399] loss_Brown_Hair -> loss_Brown_Hair
I1019 10:24:09.132421  8438 net.cpp:141] Setting up loss_Brown_Hair
I1019 10:24:09.132431  8438 net.cpp:148] Top shape: (1)
I1019 10:24:09.132436  8438 net.cpp:151]     with loss weight 1
I1019 10:24:09.132441  8438 net.cpp:156] Memory required for data: 3969617684
I1019 10:24:09.132444  8438 layer_factory.hpp:77] Creating layer fc3_Gray_Hair
I1019 10:24:09.132452  8438 net.cpp:91] Creating Layer fc3_Gray_Hair
I1019 10:24:09.132457  8438 net.cpp:425] fc3_Gray_Hair <- fc2_aroundhead_drop2_aroundhead_0_split_3
I1019 10:24:09.132464  8438 net.cpp:399] fc3_Gray_Hair -> fc3_Gray_Hair
I1019 10:24:09.132585  8438 net.cpp:141] Setting up fc3_Gray_Hair
I1019 10:24:09.132594  8438 net.cpp:148] Top shape: 100 2 (200)
I1019 10:24:09.132598  8438 net.cpp:156] Memory required for data: 3969618484
I1019 10:24:09.132606  8438 layer_factory.hpp:77] Creating layer loss_Gray_Hair
I1019 10:24:09.132616  8438 net.cpp:91] Creating Layer loss_Gray_Hair
I1019 10:24:09.132632  8438 net.cpp:425] loss_Gray_Hair <- fc3_Gray_Hair
I1019 10:24:09.132637  8438 net.cpp:425] loss_Gray_Hair <- label_Gray_Hair
I1019 10:24:09.132647  8438 net.cpp:399] loss_Gray_Hair -> loss_Gray_Hair
I1019 10:24:09.132693  8438 net.cpp:141] Setting up loss_Gray_Hair
I1019 10:24:09.132702  8438 net.cpp:148] Top shape: (1)
I1019 10:24:09.132706  8438 net.cpp:151]     with loss weight 1
I1019 10:24:09.132712  8438 net.cpp:156] Memory required for data: 3969618488
I1019 10:24:09.132716  8438 layer_factory.hpp:77] Creating layer fc3_Wearing_Earrings
I1019 10:24:09.132728  8438 net.cpp:91] Creating Layer fc3_Wearing_Earrings
I1019 10:24:09.132732  8438 net.cpp:425] fc3_Wearing_Earrings <- fc2_aroundhead_drop2_aroundhead_0_split_4
I1019 10:24:09.132740  8438 net.cpp:399] fc3_Wearing_Earrings -> fc3_Wearing_Earrings
I1019 10:24:09.132863  8438 net.cpp:141] Setting up fc3_Wearing_Earrings
I1019 10:24:09.132874  8438 net.cpp:148] Top shape: 100 2 (200)
I1019 10:24:09.132877  8438 net.cpp:156] Memory required for data: 3969619288
I1019 10:24:09.132885  8438 layer_factory.hpp:77] Creating layer loss_Wearing_Earrings
I1019 10:24:09.132896  8438 net.cpp:91] Creating Layer loss_Wearing_Earrings
I1019 10:24:09.132901  8438 net.cpp:425] loss_Wearing_Earrings <- fc3_Wearing_Earrings
I1019 10:24:09.132907  8438 net.cpp:425] loss_Wearing_Earrings <- label_Wearing_Earrings
I1019 10:24:09.132917  8438 net.cpp:399] loss_Wearing_Earrings -> loss_Wearing_Earrings
I1019 10:24:09.132964  8438 net.cpp:141] Setting up loss_Wearing_Earrings
I1019 10:24:09.132973  8438 net.cpp:148] Top shape: (1)
I1019 10:24:09.132977  8438 net.cpp:151]     with loss weight 1
I1019 10:24:09.132983  8438 net.cpp:156] Memory required for data: 3969619292
I1019 10:24:09.132987  8438 layer_factory.hpp:77] Creating layer fc3_Wearing_Necklace
I1019 10:24:09.132994  8438 net.cpp:91] Creating Layer fc3_Wearing_Necklace
I1019 10:24:09.132998  8438 net.cpp:425] fc3_Wearing_Necklace <- fc2_aroundhead_drop2_aroundhead_0_split_5
I1019 10:24:09.133005  8438 net.cpp:399] fc3_Wearing_Necklace -> fc3_Wearing_Necklace
I1019 10:24:09.133131  8438 net.cpp:141] Setting up fc3_Wearing_Necklace
I1019 10:24:09.133141  8438 net.cpp:148] Top shape: 100 2 (200)
I1019 10:24:09.133146  8438 net.cpp:156] Memory required for data: 3969620092
I1019 10:24:09.133152  8438 layer_factory.hpp:77] Creating layer loss_Wearing_Necklace
I1019 10:24:09.133162  8438 net.cpp:91] Creating Layer loss_Wearing_Necklace
I1019 10:24:09.133167  8438 net.cpp:425] loss_Wearing_Necklace <- fc3_Wearing_Necklace
I1019 10:24:09.133173  8438 net.cpp:425] loss_Wearing_Necklace <- label_Wearing_Necklace
I1019 10:24:09.133179  8438 net.cpp:399] loss_Wearing_Necklace -> loss_Wearing_Necklace
I1019 10:24:09.133225  8438 net.cpp:141] Setting up loss_Wearing_Necklace
I1019 10:24:09.133235  8438 net.cpp:148] Top shape: (1)
I1019 10:24:09.133239  8438 net.cpp:151]     with loss weight 1
I1019 10:24:09.133244  8438 net.cpp:156] Memory required for data: 3969620096
I1019 10:24:09.133249  8438 layer_factory.hpp:77] Creating layer fc3_Wearing_Necktie
I1019 10:24:09.133256  8438 net.cpp:91] Creating Layer fc3_Wearing_Necktie
I1019 10:24:09.133261  8438 net.cpp:425] fc3_Wearing_Necktie <- fc2_aroundhead_drop2_aroundhead_0_split_6
I1019 10:24:09.133268  8438 net.cpp:399] fc3_Wearing_Necktie -> fc3_Wearing_Necktie
I1019 10:24:09.133391  8438 net.cpp:141] Setting up fc3_Wearing_Necktie
I1019 10:24:09.133401  8438 net.cpp:148] Top shape: 100 2 (200)
I1019 10:24:09.133405  8438 net.cpp:156] Memory required for data: 3969620896
I1019 10:24:09.133414  8438 layer_factory.hpp:77] Creating layer loss_Wearing_Necktie
I1019 10:24:09.133424  8438 net.cpp:91] Creating Layer loss_Wearing_Necktie
I1019 10:24:09.133430  8438 net.cpp:425] loss_Wearing_Necktie <- fc3_Wearing_Necktie
I1019 10:24:09.133435  8438 net.cpp:425] loss_Wearing_Necktie <- label_Wearing_Necktie
I1019 10:24:09.133441  8438 net.cpp:399] loss_Wearing_Necktie -> loss_Wearing_Necktie
I1019 10:24:09.133489  8438 net.cpp:141] Setting up loss_Wearing_Necktie
I1019 10:24:09.133508  8438 net.cpp:148] Top shape: (1)
I1019 10:24:09.133513  8438 net.cpp:151]     with loss weight 1
I1019 10:24:09.133519  8438 net.cpp:156] Memory required for data: 3969620900
I1019 10:24:09.133523  8438 layer_factory.hpp:77] Creating layer fc3_Bald
I1019 10:24:09.133530  8438 net.cpp:91] Creating Layer fc3_Bald
I1019 10:24:09.133535  8438 net.cpp:425] fc3_Bald <- fc2_aroundhead_drop2_aroundhead_0_split_7
I1019 10:24:09.133541  8438 net.cpp:399] fc3_Bald -> fc3_Bald
I1019 10:24:09.133664  8438 net.cpp:141] Setting up fc3_Bald
I1019 10:24:09.133674  8438 net.cpp:148] Top shape: 100 2 (200)
I1019 10:24:09.133678  8438 net.cpp:156] Memory required for data: 3969621700
I1019 10:24:09.133684  8438 layer_factory.hpp:77] Creating layer loss_Bald
I1019 10:24:09.133697  8438 net.cpp:91] Creating Layer loss_Bald
I1019 10:24:09.133702  8438 net.cpp:425] loss_Bald <- fc3_Bald
I1019 10:24:09.133707  8438 net.cpp:425] loss_Bald <- label_Bald
I1019 10:24:09.133713  8438 net.cpp:399] loss_Bald -> loss_Bald
I1019 10:24:09.133761  8438 net.cpp:141] Setting up loss_Bald
I1019 10:24:09.133771  8438 net.cpp:148] Top shape: (1)
I1019 10:24:09.133775  8438 net.cpp:151]     with loss weight 1
I1019 10:24:09.133780  8438 net.cpp:156] Memory required for data: 3969621704
I1019 10:24:09.133785  8438 layer_factory.hpp:77] Creating layer fc3_Receding_Hairline
I1019 10:24:09.133791  8438 net.cpp:91] Creating Layer fc3_Receding_Hairline
I1019 10:24:09.133796  8438 net.cpp:425] fc3_Receding_Hairline <- fc2_aroundhead_drop2_aroundhead_0_split_8
I1019 10:24:09.133803  8438 net.cpp:399] fc3_Receding_Hairline -> fc3_Receding_Hairline
I1019 10:24:09.133929  8438 net.cpp:141] Setting up fc3_Receding_Hairline
I1019 10:24:09.133939  8438 net.cpp:148] Top shape: 100 2 (200)
I1019 10:24:09.133941  8438 net.cpp:156] Memory required for data: 3969622504
I1019 10:24:09.133949  8438 layer_factory.hpp:77] Creating layer loss_Receding_Hairline
I1019 10:24:09.133965  8438 net.cpp:91] Creating Layer loss_Receding_Hairline
I1019 10:24:09.133970  8438 net.cpp:425] loss_Receding_Hairline <- fc3_Receding_Hairline
I1019 10:24:09.133975  8438 net.cpp:425] loss_Receding_Hairline <- label_Receding_Hairline
I1019 10:24:09.133981  8438 net.cpp:399] loss_Receding_Hairline -> loss_Receding_Hairline
I1019 10:24:09.134032  8438 net.cpp:141] Setting up loss_Receding_Hairline
I1019 10:24:09.134042  8438 net.cpp:148] Top shape: (1)
I1019 10:24:09.134045  8438 net.cpp:151]     with loss weight 1
I1019 10:24:09.134050  8438 net.cpp:156] Memory required for data: 3969622508
I1019 10:24:09.134055  8438 layer_factory.hpp:77] Creating layer fc3_Bangs
I1019 10:24:09.134063  8438 net.cpp:91] Creating Layer fc3_Bangs
I1019 10:24:09.134068  8438 net.cpp:425] fc3_Bangs <- fc2_aroundhead_drop2_aroundhead_0_split_9
I1019 10:24:09.134074  8438 net.cpp:399] fc3_Bangs -> fc3_Bangs
I1019 10:24:09.134196  8438 net.cpp:141] Setting up fc3_Bangs
I1019 10:24:09.134207  8438 net.cpp:148] Top shape: 100 2 (200)
I1019 10:24:09.134210  8438 net.cpp:156] Memory required for data: 3969623308
I1019 10:24:09.134217  8438 layer_factory.hpp:77] Creating layer loss_Bangs
I1019 10:24:09.134227  8438 net.cpp:91] Creating Layer loss_Bangs
I1019 10:24:09.134233  8438 net.cpp:425] loss_Bangs <- fc3_Bangs
I1019 10:24:09.134238  8438 net.cpp:425] loss_Bangs <- label_Bangs
I1019 10:24:09.134244  8438 net.cpp:399] loss_Bangs -> loss_Bangs
I1019 10:24:09.134291  8438 net.cpp:141] Setting up loss_Bangs
I1019 10:24:09.134301  8438 net.cpp:148] Top shape: (1)
I1019 10:24:09.134305  8438 net.cpp:151]     with loss weight 1
I1019 10:24:09.134311  8438 net.cpp:156] Memory required for data: 3969623312
I1019 10:24:09.134315  8438 layer_factory.hpp:77] Creating layer fc3_Wearing_Hat
I1019 10:24:09.134321  8438 net.cpp:91] Creating Layer fc3_Wearing_Hat
I1019 10:24:09.134326  8438 net.cpp:425] fc3_Wearing_Hat <- fc2_aroundhead_drop2_aroundhead_0_split_10
I1019 10:24:09.134333  8438 net.cpp:399] fc3_Wearing_Hat -> fc3_Wearing_Hat
I1019 10:24:09.134454  8438 net.cpp:141] Setting up fc3_Wearing_Hat
I1019 10:24:09.134464  8438 net.cpp:148] Top shape: 100 2 (200)
I1019 10:24:09.134476  8438 net.cpp:156] Memory required for data: 3969624112
I1019 10:24:09.134485  8438 layer_factory.hpp:77] Creating layer loss_Wearing_Hat
I1019 10:24:09.134500  8438 net.cpp:91] Creating Layer loss_Wearing_Hat
I1019 10:24:09.134505  8438 net.cpp:425] loss_Wearing_Hat <- fc3_Wearing_Hat
I1019 10:24:09.134511  8438 net.cpp:425] loss_Wearing_Hat <- label_Wearing_Hat
I1019 10:24:09.134517  8438 net.cpp:399] loss_Wearing_Hat -> loss_Wearing_Hat
I1019 10:24:09.134565  8438 net.cpp:141] Setting up loss_Wearing_Hat
I1019 10:24:09.134575  8438 net.cpp:148] Top shape: (1)
I1019 10:24:09.134579  8438 net.cpp:151]     with loss weight 1
I1019 10:24:09.134585  8438 net.cpp:156] Memory required for data: 3969624116
I1019 10:24:09.134589  8438 layer_factory.hpp:77] Creating layer fc3_Straight_Hair
I1019 10:24:09.134596  8438 net.cpp:91] Creating Layer fc3_Straight_Hair
I1019 10:24:09.134601  8438 net.cpp:425] fc3_Straight_Hair <- fc2_aroundhead_drop2_aroundhead_0_split_11
I1019 10:24:09.134608  8438 net.cpp:399] fc3_Straight_Hair -> fc3_Straight_Hair
I1019 10:24:09.134728  8438 net.cpp:141] Setting up fc3_Straight_Hair
I1019 10:24:09.134738  8438 net.cpp:148] Top shape: 100 2 (200)
I1019 10:24:09.134742  8438 net.cpp:156] Memory required for data: 3969624916
I1019 10:24:09.134749  8438 layer_factory.hpp:77] Creating layer loss_Straight_Hair
I1019 10:24:09.134760  8438 net.cpp:91] Creating Layer loss_Straight_Hair
I1019 10:24:09.134765  8438 net.cpp:425] loss_Straight_Hair <- fc3_Straight_Hair
I1019 10:24:09.134771  8438 net.cpp:425] loss_Straight_Hair <- label_Straight_Hair
I1019 10:24:09.134778  8438 net.cpp:399] loss_Straight_Hair -> loss_Straight_Hair
I1019 10:24:09.134832  8438 net.cpp:141] Setting up loss_Straight_Hair
I1019 10:24:09.134842  8438 net.cpp:148] Top shape: (1)
I1019 10:24:09.134846  8438 net.cpp:151]     with loss weight 1
I1019 10:24:09.134852  8438 net.cpp:156] Memory required for data: 3969624920
I1019 10:24:09.134855  8438 layer_factory.hpp:77] Creating layer fc3_Wavy_Hair
I1019 10:24:09.134862  8438 net.cpp:91] Creating Layer fc3_Wavy_Hair
I1019 10:24:09.134867  8438 net.cpp:425] fc3_Wavy_Hair <- fc2_aroundhead_drop2_aroundhead_0_split_12
I1019 10:24:09.134876  8438 net.cpp:399] fc3_Wavy_Hair -> fc3_Wavy_Hair
I1019 10:24:09.134996  8438 net.cpp:141] Setting up fc3_Wavy_Hair
I1019 10:24:09.135006  8438 net.cpp:148] Top shape: 100 2 (200)
I1019 10:24:09.135010  8438 net.cpp:156] Memory required for data: 3969625720
I1019 10:24:09.135017  8438 layer_factory.hpp:77] Creating layer loss_Wavy_Hair
I1019 10:24:09.135028  8438 net.cpp:91] Creating Layer loss_Wavy_Hair
I1019 10:24:09.135035  8438 net.cpp:425] loss_Wavy_Hair <- fc3_Wavy_Hair
I1019 10:24:09.135040  8438 net.cpp:425] loss_Wavy_Hair <- label_Wavy_Hair
I1019 10:24:09.135046  8438 net.cpp:399] loss_Wavy_Hair -> loss_Wavy_Hair
I1019 10:24:09.135092  8438 net.cpp:141] Setting up loss_Wavy_Hair
I1019 10:24:09.135102  8438 net.cpp:148] Top shape: (1)
I1019 10:24:09.135107  8438 net.cpp:151]     with loss weight 1
I1019 10:24:09.135113  8438 net.cpp:156] Memory required for data: 3969625724
I1019 10:24:09.135116  8438 layer_factory.hpp:77] Creating layer fc3_5_o_Clock_Shadow
I1019 10:24:09.135123  8438 net.cpp:91] Creating Layer fc3_5_o_Clock_Shadow
I1019 10:24:09.135128  8438 net.cpp:425] fc3_5_o_Clock_Shadow <- fc2_facialhair_drop2_facialhair_0_split_0
I1019 10:24:09.135135  8438 net.cpp:399] fc3_5_o_Clock_Shadow -> fc3_5_o_Clock_Shadow
I1019 10:24:09.135257  8438 net.cpp:141] Setting up fc3_5_o_Clock_Shadow
I1019 10:24:09.135267  8438 net.cpp:148] Top shape: 100 2 (200)
I1019 10:24:09.135270  8438 net.cpp:156] Memory required for data: 3969626524
I1019 10:24:09.135277  8438 layer_factory.hpp:77] Creating layer loss_5_o_Clock_Shadow
I1019 10:24:09.135288  8438 net.cpp:91] Creating Layer loss_5_o_Clock_Shadow
I1019 10:24:09.135293  8438 net.cpp:425] loss_5_o_Clock_Shadow <- fc3_5_o_Clock_Shadow
I1019 10:24:09.135298  8438 net.cpp:425] loss_5_o_Clock_Shadow <- label_5_o_Clock_Shadow
I1019 10:24:09.135304  8438 net.cpp:399] loss_5_o_Clock_Shadow -> loss_5_o_Clock_Shadow
I1019 10:24:09.135365  8438 net.cpp:141] Setting up loss_5_o_Clock_Shadow
I1019 10:24:09.135376  8438 net.cpp:148] Top shape: (1)
I1019 10:24:09.135380  8438 net.cpp:151]     with loss weight 1
I1019 10:24:09.135385  8438 net.cpp:156] Memory required for data: 3969626528
I1019 10:24:09.135390  8438 layer_factory.hpp:77] Creating layer fc3_Mustache
I1019 10:24:09.135397  8438 net.cpp:91] Creating Layer fc3_Mustache
I1019 10:24:09.135402  8438 net.cpp:425] fc3_Mustache <- fc2_facialhair_drop2_facialhair_0_split_1
I1019 10:24:09.135408  8438 net.cpp:399] fc3_Mustache -> fc3_Mustache
I1019 10:24:09.135532  8438 net.cpp:141] Setting up fc3_Mustache
I1019 10:24:09.135543  8438 net.cpp:148] Top shape: 100 2 (200)
I1019 10:24:09.135547  8438 net.cpp:156] Memory required for data: 3969627328
I1019 10:24:09.135555  8438 layer_factory.hpp:77] Creating layer loss_Mustache
I1019 10:24:09.135562  8438 net.cpp:91] Creating Layer loss_Mustache
I1019 10:24:09.135566  8438 net.cpp:425] loss_Mustache <- fc3_Mustache
I1019 10:24:09.135576  8438 net.cpp:425] loss_Mustache <- label_Mustache
I1019 10:24:09.135582  8438 net.cpp:399] loss_Mustache -> loss_Mustache
I1019 10:24:09.135630  8438 net.cpp:141] Setting up loss_Mustache
I1019 10:24:09.135639  8438 net.cpp:148] Top shape: (1)
I1019 10:24:09.135643  8438 net.cpp:151]     with loss weight 1
I1019 10:24:09.135649  8438 net.cpp:156] Memory required for data: 3969627332
I1019 10:24:09.135653  8438 layer_factory.hpp:77] Creating layer fc3_No_Beard
I1019 10:24:09.135660  8438 net.cpp:91] Creating Layer fc3_No_Beard
I1019 10:24:09.135665  8438 net.cpp:425] fc3_No_Beard <- fc2_facialhair_drop2_facialhair_0_split_2
I1019 10:24:09.135671  8438 net.cpp:399] fc3_No_Beard -> fc3_No_Beard
I1019 10:24:09.135793  8438 net.cpp:141] Setting up fc3_No_Beard
I1019 10:24:09.135804  8438 net.cpp:148] Top shape: 100 2 (200)
I1019 10:24:09.135813  8438 net.cpp:156] Memory required for data: 3969628132
I1019 10:24:09.135820  8438 layer_factory.hpp:77] Creating layer loss_No_Beard
I1019 10:24:09.135829  8438 net.cpp:91] Creating Layer loss_No_Beard
I1019 10:24:09.135834  8438 net.cpp:425] loss_No_Beard <- fc3_No_Beard
I1019 10:24:09.135839  8438 net.cpp:425] loss_No_Beard <- label_No_Beard
I1019 10:24:09.135849  8438 net.cpp:399] loss_No_Beard -> loss_No_Beard
I1019 10:24:09.135896  8438 net.cpp:141] Setting up loss_No_Beard
I1019 10:24:09.135910  8438 net.cpp:148] Top shape: (1)
I1019 10:24:09.135915  8438 net.cpp:151]     with loss weight 1
I1019 10:24:09.135921  8438 net.cpp:156] Memory required for data: 3969628136
I1019 10:24:09.135924  8438 layer_factory.hpp:77] Creating layer fc3_Sideburns
I1019 10:24:09.135931  8438 net.cpp:91] Creating Layer fc3_Sideburns
I1019 10:24:09.135936  8438 net.cpp:425] fc3_Sideburns <- fc2_facialhair_drop2_facialhair_0_split_3
I1019 10:24:09.135943  8438 net.cpp:399] fc3_Sideburns -> fc3_Sideburns
I1019 10:24:09.136059  8438 net.cpp:141] Setting up fc3_Sideburns
I1019 10:24:09.136073  8438 net.cpp:148] Top shape: 100 2 (200)
I1019 10:24:09.136077  8438 net.cpp:156] Memory required for data: 3969628936
I1019 10:24:09.136085  8438 layer_factory.hpp:77] Creating layer loss_Sideburns
I1019 10:24:09.136092  8438 net.cpp:91] Creating Layer loss_Sideburns
I1019 10:24:09.136096  8438 net.cpp:425] loss_Sideburns <- fc3_Sideburns
I1019 10:24:09.136102  8438 net.cpp:425] loss_Sideburns <- label_Sideburns
I1019 10:24:09.136112  8438 net.cpp:399] loss_Sideburns -> loss_Sideburns
I1019 10:24:09.136155  8438 net.cpp:141] Setting up loss_Sideburns
I1019 10:24:09.136165  8438 net.cpp:148] Top shape: (1)
I1019 10:24:09.136169  8438 net.cpp:151]     with loss weight 1
I1019 10:24:09.136174  8438 net.cpp:156] Memory required for data: 3969628940
I1019 10:24:09.136178  8438 layer_factory.hpp:77] Creating layer fc3_Goatee
I1019 10:24:09.136191  8438 net.cpp:91] Creating Layer fc3_Goatee
I1019 10:24:09.136196  8438 net.cpp:425] fc3_Goatee <- fc2_facialhair_drop2_facialhair_0_split_4
I1019 10:24:09.136204  8438 net.cpp:399] fc3_Goatee -> fc3_Goatee
I1019 10:24:09.136338  8438 net.cpp:141] Setting up fc3_Goatee
I1019 10:24:09.136353  8438 net.cpp:148] Top shape: 100 2 (200)
I1019 10:24:09.136358  8438 net.cpp:156] Memory required for data: 3969629740
I1019 10:24:09.136365  8438 layer_factory.hpp:77] Creating layer loss_Goatee
I1019 10:24:09.136373  8438 net.cpp:91] Creating Layer loss_Goatee
I1019 10:24:09.136378  8438 net.cpp:425] loss_Goatee <- fc3_Goatee
I1019 10:24:09.136384  8438 net.cpp:425] loss_Goatee <- label_Goatee
I1019 10:24:09.136392  8438 net.cpp:399] loss_Goatee -> loss_Goatee
I1019 10:24:09.136437  8438 net.cpp:141] Setting up loss_Goatee
I1019 10:24:09.136447  8438 net.cpp:148] Top shape: (1)
I1019 10:24:09.136451  8438 net.cpp:151]     with loss weight 1
I1019 10:24:09.136456  8438 net.cpp:156] Memory required for data: 3969629744
I1019 10:24:09.136461  8438 layer_factory.hpp:77] Creating layer fc3_High_Cheekbones
I1019 10:24:09.137001  8438 net.cpp:91] Creating Layer fc3_High_Cheekbones
I1019 10:24:09.137009  8438 net.cpp:425] fc3_High_Cheekbones <- fc2_cheeks_drop2_cheeks_0_split_0
I1019 10:24:09.137029  8438 net.cpp:399] fc3_High_Cheekbones -> fc3_High_Cheekbones
I1019 10:24:09.137159  8438 net.cpp:141] Setting up fc3_High_Cheekbones
I1019 10:24:09.137173  8438 net.cpp:148] Top shape: 100 2 (200)
I1019 10:24:09.137178  8438 net.cpp:156] Memory required for data: 3969630544
I1019 10:24:09.137186  8438 layer_factory.hpp:77] Creating layer loss_High_Cheekbones
I1019 10:24:09.137193  8438 net.cpp:91] Creating Layer loss_High_Cheekbones
I1019 10:24:09.137198  8438 net.cpp:425] loss_High_Cheekbones <- fc3_High_Cheekbones
I1019 10:24:09.137204  8438 net.cpp:425] loss_High_Cheekbones <- label_High_Cheekbones
I1019 10:24:09.137212  8438 net.cpp:399] loss_High_Cheekbones -> loss_High_Cheekbones
I1019 10:24:09.137255  8438 net.cpp:141] Setting up loss_High_Cheekbones
I1019 10:24:09.137264  8438 net.cpp:148] Top shape: (1)
I1019 10:24:09.137269  8438 net.cpp:151]     with loss weight 1
I1019 10:24:09.137274  8438 net.cpp:156] Memory required for data: 3969630548
I1019 10:24:09.137279  8438 layer_factory.hpp:77] Creating layer fc3_Rosy_Cheeks
I1019 10:24:09.137286  8438 net.cpp:91] Creating Layer fc3_Rosy_Cheeks
I1019 10:24:09.137291  8438 net.cpp:425] fc3_Rosy_Cheeks <- fc2_cheeks_drop2_cheeks_0_split_1
I1019 10:24:09.137298  8438 net.cpp:399] fc3_Rosy_Cheeks -> fc3_Rosy_Cheeks
I1019 10:24:09.137411  8438 net.cpp:141] Setting up fc3_Rosy_Cheeks
I1019 10:24:09.137421  8438 net.cpp:148] Top shape: 100 2 (200)
I1019 10:24:09.137425  8438 net.cpp:156] Memory required for data: 3969631348
I1019 10:24:09.137433  8438 layer_factory.hpp:77] Creating layer loss_Rosy_Cheeks
I1019 10:24:09.137439  8438 net.cpp:91] Creating Layer loss_Rosy_Cheeks
I1019 10:24:09.137444  8438 net.cpp:425] loss_Rosy_Cheeks <- fc3_Rosy_Cheeks
I1019 10:24:09.137449  8438 net.cpp:425] loss_Rosy_Cheeks <- label_Rosy_Cheeks
I1019 10:24:09.137455  8438 net.cpp:399] loss_Rosy_Cheeks -> loss_Rosy_Cheeks
I1019 10:24:09.137495  8438 net.cpp:141] Setting up loss_Rosy_Cheeks
I1019 10:24:09.137502  8438 net.cpp:148] Top shape: (1)
I1019 10:24:09.137506  8438 net.cpp:151]     with loss weight 1
I1019 10:24:09.137512  8438 net.cpp:156] Memory required for data: 3969631352
I1019 10:24:09.137516  8438 layer_factory.hpp:77] Creating layer fc3_Chubby
I1019 10:24:09.137526  8438 net.cpp:91] Creating Layer fc3_Chubby
I1019 10:24:09.137531  8438 net.cpp:425] fc3_Chubby <- fc2_fat_drop2_fat_0_split_0
I1019 10:24:09.137537  8438 net.cpp:399] fc3_Chubby -> fc3_Chubby
I1019 10:24:09.137647  8438 net.cpp:141] Setting up fc3_Chubby
I1019 10:24:09.137656  8438 net.cpp:148] Top shape: 100 2 (200)
I1019 10:24:09.137661  8438 net.cpp:156] Memory required for data: 3969632152
I1019 10:24:09.137667  8438 layer_factory.hpp:77] Creating layer loss_Chubby
I1019 10:24:09.137675  8438 net.cpp:91] Creating Layer loss_Chubby
I1019 10:24:09.137679  8438 net.cpp:425] loss_Chubby <- fc3_Chubby
I1019 10:24:09.137684  8438 net.cpp:425] loss_Chubby <- label_Chubby
I1019 10:24:09.137691  8438 net.cpp:399] loss_Chubby -> loss_Chubby
I1019 10:24:09.137743  8438 net.cpp:141] Setting up loss_Chubby
I1019 10:24:09.137753  8438 net.cpp:148] Top shape: (1)
I1019 10:24:09.137758  8438 net.cpp:151]     with loss weight 1
I1019 10:24:09.137763  8438 net.cpp:156] Memory required for data: 3969632156
I1019 10:24:09.137768  8438 layer_factory.hpp:77] Creating layer fc3_Double_Chin
I1019 10:24:09.137775  8438 net.cpp:91] Creating Layer fc3_Double_Chin
I1019 10:24:09.137779  8438 net.cpp:425] fc3_Double_Chin <- fc2_fat_drop2_fat_0_split_1
I1019 10:24:09.137786  8438 net.cpp:399] fc3_Double_Chin -> fc3_Double_Chin
I1019 10:24:09.137897  8438 net.cpp:141] Setting up fc3_Double_Chin
I1019 10:24:09.137907  8438 net.cpp:148] Top shape: 100 2 (200)
I1019 10:24:09.137910  8438 net.cpp:156] Memory required for data: 3969632956
I1019 10:24:09.137917  8438 layer_factory.hpp:77] Creating layer loss_Double_Chin
I1019 10:24:09.137926  8438 net.cpp:91] Creating Layer loss_Double_Chin
I1019 10:24:09.137930  8438 net.cpp:425] loss_Double_Chin <- fc3_Double_Chin
I1019 10:24:09.137936  8438 net.cpp:425] loss_Double_Chin <- label_Double_Chin
I1019 10:24:09.137943  8438 net.cpp:399] loss_Double_Chin -> loss_Double_Chin
…
    slice_point: 24
    slice_point: 26
    slice_point: 28
    slice_point: 30
    slice_point: 32
    slice_point: 34
    slice_point: 36
    slice_point: 38
    slice_point: 40
    slice_point: 42
    slice_point: 44
    slice_point: 46
    slice_point: 48
    slice_point: 50
    slice_point: 52
    slice_point: 54
    slice_point: 56
    slice_point: 58
    slice_point: 60
    slice_point: 62
    slice_point: 64
    slice_point: 66
    slice_point: 68
    slice_point: 70
    slice_point: 72
    slice_point: 74
    slice_point: 76
    slice_point: 78
  }
}
layer {
  name: "conv1_bn"
  type: "BatchNorm"
  bottom: "conv1"
  top: "conv1"
  batch_norm_param {
    use_global_stats: false
  }
}
layer {
  name: "conv1_scale"
  type: "Scale"
  bottom: "conv1"
  top: "conv1"
  scale_param {
    bias_term: true
  }
}
layer {
  name: "prelu1"
  type: "PReLU"
  bottom: "conv1"
  top: "conv1"
}
layer {
  name: "pool1"
  type: "Pooling"
  bottom: "conv1"
  top: "pool1"
  pooling_param {
    pool: MAX
    kernel_size: 2
    stride: 2
  }
}
layer {
  name: "conv2a"
  type: "Convolution"
  bottom: "pool1"
  top: "conv2a"
  param {
    name: "conv2a_w"
    lr_mult: 1
    decay_mult: 1
  }
  param {
    name: "conv2a_b"
    lr_mult: 2
    decay_mult: 0
  }
  convolution_param {
    num_output: 64
    kernel_size: 1
    weight_filler {
      type: "xavier"
    }
    bias_filler {
      type: "constant"
      value: 0.2
    }
  }
}
layer {
  name: "conv2a_bn"
  type: "BatchNorm"
  bottom: "conv2a"
  top: "conv2a"
  batch_norm_param {
    use_global_stats: false
  }
}
layer {
  name: "conv2a_scale"
  type: "Scale"
  bottom: "conv2a"
  top: "conv2a"
  scale_param {
    bias_term: true
  }
}
layer {
  name: "prelu2a"
  type: "PReLU"
  bottom: "conv2a"
  top: "conv2a"
}
layer {
  name: "conv2"
  type: "Convolution"
  bottom: "conv2a"
  top: "conv2"
  param {
    name: "conv2_w"
    lr_mult: 1
    decay_mult: 1
  }
  param {
    name: "conv2_b"
    lr_mult: 2
    decay_mult: 0
  }
  convolution_param {
    num_output: 192
    pad: 1
    kernel_size: 3
    stride: 1
    weight_filler {
      type: "xavier"
    }
    bias_filler {
      type: "constant"
      value: 0.2
    }
  }
}
layer {
  name: "conv2_bn"
  type: "BatchNorm"
  bottom: "conv2"
  top: "conv2"
  batch_norm_param {
    use_global_stats: false
  }
}
layer {
  name: "conv2_scale"
  type: "Scale"
  bottom: "conv2"
  top: "conv2"
  scale_param {
    bias_term: true
  }
}
layer {
  name: "prelu2"
  type: "PReLU"
  bottom: "conv2"
  top: "conv2"
}
layer {
  name: "pool2"
  type: "Pooling"
  bottom: "conv2"
  top: "pool2"
  pooling_param {
    pool: MAX
    kernel_size: 2
    stride: 2
  }
}
layer {
  name: "conv3a"
  type: "Convolution"
  bottom: "pool2"
  top: "conv3a"
  param {
    name: "conv3a_w"
    lr_mult: 1
    decay_mult: 1
  }
  param {
    name: "conv3a_b"
    lr_mult: 2
    decay_mult: 0
  }
  convolution_param {
    num_output: 192
    kernel_size: 1
    weight_filler {
      type: "xavier"
    }
    bias_filler {
      type: "constant"
      value: 0.2
    }
  }
}
layer {
  name: "conv3a_bn"
  type: "BatchNorm"
  bottom: "conv3a"
  top: "conv3a"
  batch_norm_param {
    use_global_stats: false
  }
}
layer {
  name: "conv3a_scale"
  type: "Scale"
  bottom: "conv3a"
  top: "conv3a"
  scale_param {
    bias_term: true
  }
}
layer {
  name: "prelu3a"
  type: "PReLU"
  bottom: "conv3a"
  top: "conv3a"
}
layer {
  name: "conv3"
  type: "Convolution"
  bottom: "conv3a"
  top: "conv3"
  param {
    name: "conv3_w"
    lr_mult: 1
    decay_mult: 1
  }
  param {
    name: "conv3_b"
    lr_mult: 2
    decay_mult: 0
  }
  convolution_param {
    num_output: 384
    pad: 1
    kernel_size: 3
    stride: 1
    weight_filler {
      type: "xavier"
    }
    bias_filler {
      type: "constant"
      value: 0.2
    }
  }
}
layer {
  name: "conv3_bn"
  type: "BatchNorm"
  bottom: "conv3"
  top: "conv3"
  batch_norm_param {
    use_global_stats: false
  }
}
layer {
  name: "conv3_scale"
…
I1019 10:24:10.069144  8438 net.cpp:91] Creating Layer relu1_fat
I1019 10:24:10.069154  8438 net.cpp:425] relu1_fat <- fc1_fat
I1019 10:24:10.069169  8438 net.cpp:386] relu1_fat -> fc1_fat (in-place)
I1019 10:24:10.069191  8438 net.cpp:141] Setting up relu1_fat
I1019 10:24:10.069200  8438 net.cpp:148] Top shape: 64 1024 (65536)
I1019 10:24:10.069205  8438 net.cpp:156] Memory required for data: 2538971648
I1019 10:24:10.069211  8438 layer_factory.hpp:77] Creating layer drop1_fat
I1019 10:24:10.069222  8438 net.cpp:91] Creating Layer drop1_fat
I1019 10:24:10.069232  8438 net.cpp:425] drop1_fat <- fc1_fat
I1019 10:24:10.069242  8438 net.cpp:386] drop1_fat -> fc1_fat (in-place)
I1019 10:24:10.069284  8438 net.cpp:141] Setting up drop1_fat
I1019 10:24:10.069296  8438 net.cpp:148] Top shape: 64 1024 (65536)
I1019 10:24:10.069303  8438 net.cpp:156] Memory required for data: 2539233792
I1019 10:24:10.069311  8438 layer_factory.hpp:77] Creating layer fc2_fat
I1019 10:24:10.069329  8438 net.cpp:91] Creating Layer fc2_fat
I1019 10:24:10.069337  8438 net.cpp:425] fc2_fat <- fc1_fat
I1019 10:24:10.069350  8438 net.cpp:399] fc2_fat -> fc2_fat
I1019 10:24:10.083770  8438 net.cpp:141] Setting up fc2_fat
I1019 10:24:10.083801  8438 net.cpp:148] Top shape: 64 1024 (65536)
I1019 10:24:10.083813  8438 net.cpp:156] Memory required for data: 2539495936
I1019 10:24:10.083825  8438 layer_factory.hpp:77] Creating layer relu2_fat
I1019 10:24:10.083837  8438 net.cpp:91] Creating Layer relu2_fat
I1019 10:24:10.083844  8438 net.cpp:425] relu2_fat <- fc2_fat
I1019 10:24:10.083853  8438 net.cpp:386] relu2_fat -> fc2_fat (in-place)
I1019 10:24:10.083870  8438 net.cpp:141] Setting up relu2_fat
I1019 10:24:10.083878  8438 net.cpp:148] Top shape: 64 1024 (65536)
I1019 10:24:10.083884  8438 net.cpp:156] Memory required for data: 2539758080
I1019 10:24:10.083889  8438 layer_factory.hpp:77] Creating layer drop2_fat
I1019 10:24:10.083899  8438 net.cpp:91] Creating Layer drop2_fat
I1019 10:24:10.083904  8438 net.cpp:425] drop2_fat <- fc2_fat
I1019 10:24:10.083915  8438 net.cpp:386] drop2_fat -> fc2_fat (in-place)
I1019 10:24:10.083955  8438 net.cpp:141] Setting up drop2_fat
I1019 10:24:10.083967  8438 net.cpp:148] Top shape: 64 1024 (65536)
I1019 10:24:10.083973  8438 net.cpp:156] Memory required for data: 2540020224
I1019 10:24:10.083978  8438 layer_factory.hpp:77] Creating layer fc2_fat_drop2_fat_0_split
I1019 10:24:10.083988  8438 net.cpp:91] Creating Layer fc2_fat_drop2_fat_0_split
I1019 10:24:10.083997  8438 net.cpp:425] fc2_fat_drop2_fat_0_split <- fc2_fat
I1019 10:24:10.084007  8438 net.cpp:399] fc2_fat_drop2_fat_0_split -> fc2_fat_drop2_fat_0_split_0
I1019 10:24:10.084017  8438 net.cpp:399] fc2_fat_drop2_fat_0_split -> fc2_fat_drop2_fat_0_split_1
I1019 10:24:10.084079  8438 net.cpp:141] Setting up fc2_fat_drop2_fat_0_split
I1019 10:24:10.084092  8438 net.cpp:148] Top shape: 64 1024 (65536)
I1019 10:24:10.084100  8438 net.cpp:148] Top shape: 64 1024 (65536)
I1019 10:24:10.084105  8438 net.cpp:156] Memory required for data: 2540544512
I1019 10:24:10.084142  8438 layer_factory.hpp:77] Creating layer fc3_Male
I1019 10:24:10.084157  8438 net.cpp:91] Creating Layer fc3_Male
I1019 10:24:10.084167  8438 net.cpp:425] fc3_Male <- fc2_gender
I1019 10:24:10.084177  8438 net.cpp:399] fc3_Male -> fc3_Male
I1019 10:24:10.084390  8438 net.cpp:141] Setting up fc3_Male
I1019 10:24:10.084403  8438 net.cpp:148] Top shape: 64 2 (128)
I1019 10:24:10.084409  8438 net.cpp:156] Memory required for data: 2540545024
I1019 10:24:10.084420  8438 layer_factory.hpp:77] Creating layer loss_Male
I1019 10:24:10.084436  8438 net.cpp:91] Creating Layer loss_Male
I1019 10:24:10.084445  8438 net.cpp:425] loss_Male <- fc3_Male
I1019 10:24:10.084455  8438 net.cpp:425] loss_Male <- label_Male
I1019 10:24:10.084465  8438 net.cpp:399] loss_Male -> loss_Male
I1019 10:24:10.084532  8438 net.cpp:141] Setting up loss_Male
I1019 10:24:10.084544  8438 net.cpp:148] Top shape: (1)
I1019 10:24:10.084550  8438 net.cpp:151]     with loss weight 1
I1019 10:24:10.084571  8438 net.cpp:156] Memory required for data: 2540545028
I1019 10:24:10.084578  8438 layer_factory.hpp:77] Creating layer fc3_Big_Nose
I1019 10:24:10.084592  8438 net.cpp:91] Creating Layer fc3_Big_Nose
I1019 10:24:10.084601  8438 net.cpp:425] fc3_Big_Nose <- fc2_nose_drop2_nose_0_split_0
I1019 10:24:10.084611  8438 net.cpp:399] fc3_Big_Nose -> fc3_Big_Nose
I1019 10:24:10.084801  8438 net.cpp:141] Setting up fc3_Big_Nose
I1019 10:24:10.084815  8438 net.cpp:148] Top shape: 64 2 (128)
I1019 10:24:10.084823  8438 net.cpp:156] Memory required for data: 2540545540
I1019 10:24:10.084833  8438 layer_factory.hpp:77] Creating layer loss_Big_Nose
I1019 10:24:10.084846  8438 net.cpp:91] Creating Layer loss_Big_Nose
I1019 10:24:10.084852  8438 net.cpp:425] loss_Big_Nose <- fc3_Big_Nose
I1019 10:24:10.084861  8438 net.cpp:425] loss_Big_Nose <- label_Big_Nose
I1019 10:24:10.084870  8438 net.cpp:399] loss_Big_Nose -> loss_Big_Nose
I1019 10:24:10.084936  8438 net.cpp:141] Setting up loss_Big_Nose
I1019 10:24:10.084949  8438 net.cpp:148] Top shape: (1)
I1019 10:24:10.084954  8438 net.cpp:151]     with loss weight 1
I1019 10:24:10.084966  8438 net.cpp:156] Memory required for data: 2540545544
I1019 10:24:10.084972  8438 layer_factory.hpp:77] Creating layer fc3_Pointy_Nose
I1019 10:24:10.084985  8438 net.cpp:91] Creating Layer fc3_Pointy_Nose
I1019 10:24:10.084993  8438 net.cpp:425] fc3_Pointy_Nose <- fc2_nose_drop2_nose_0_split_1
I1019 10:24:10.085003  8438 net.cpp:399] fc3_Pointy_Nose -> fc3_Pointy_Nose
I1019 10:24:10.085183  8438 net.cpp:141] Setting up fc3_Pointy_Nose
I1019 10:24:10.085196  8438 net.cpp:148] Top shape: 64 2 (128)
I1019 10:24:10.085204  8438 net.cpp:156] Memory required for data: 2540546056
I1019 10:24:10.085255  8438 layer_factory.hpp:77] Creating layer loss_Pointy_Nose
I1019 10:24:10.085268  8438 net.cpp:91] Creating Layer loss_Pointy_Nose
I1019 10:24:10.085278  8438 net.cpp:425] loss_Pointy_Nose <- fc3_Pointy_Nose
I1019 10:24:10.085288  8438 net.cpp:425] loss_Pointy_Nose <- label_Pointy_Nose
I1019 10:24:10.085297  8438 net.cpp:399] loss_Pointy_Nose -> loss_Pointy_Nose
I1019 10:24:10.085361  8438 net.cpp:141] Setting up loss_Pointy_Nose
I1019 10:24:10.085373  8438 net.cpp:148] Top shape: (1)
I1019 10:24:10.085379  8438 net.cpp:151]     with loss weight 1
I1019 10:24:10.085391  8438 net.cpp:156] Memory required for data: 2540546060
I1019 10:24:10.085397  8438 layer_factory.hpp:77] Creating layer fc3_Big_Lips
I1019 10:24:10.085407  8438 net.cpp:91] Creating Layer fc3_Big_Lips
I1019 10:24:10.085414  8438 net.cpp:425] fc3_Big_Lips <- fc2_mouth_drop2_mouth_0_split_0
I1019 10:24:10.085427  8438 net.cpp:399] fc3_Big_Lips -> fc3_Big_Lips
I1019 10:24:10.085615  8438 net.cpp:141] Setting up fc3_Big_Lips
I1019 10:24:10.085628  8438 net.cpp:148] Top shape: 64 2 (128)
I1019 10:24:10.085634  8438 net.cpp:156] Memory required for data: 2540546572
I1019 10:24:10.085645  8438 layer_factory.hpp:77] Creating layer loss_Big_Lips
I1019 10:24:10.085659  8438 net.cpp:91] Creating Layer loss_Big_Lips
I1019 10:24:10.085666  8438 net.cpp:425] loss_Big_Lips <- fc3_Big_Lips
I1019 10:24:10.085688  8438 net.cpp:425] loss_Big_Lips <- label_Big_Lips
I1019 10:24:10.085700  8438 net.cpp:399] loss_Big_Lips -> loss_Big_Lips
I1019 10:24:10.085767  8438 net.cpp:141] Setting up loss_Big_Lips
I1019 10:24:10.085778  8438 net.cpp:148] Top shape: (1)
I1019 10:24:10.085784  8438 net.cpp:151]     with loss weight 1
I1019 10:24:10.085793  8438 net.cpp:156] Memory required for data: 2540546576
I1019 10:24:10.085799  8438 layer_factory.hpp:77] Creating layer fc3_Smiling
I1019 10:24:10.085835  8438 net.cpp:91] Creating Layer fc3_Smiling
I1019 10:24:10.085844  8438 net.cpp:425] fc3_Smiling <- fc2_mouth_drop2_mouth_0_split_1
I1019 10:24:10.085855  8438 net.cpp:399] fc3_Smiling -> fc3_Smiling
I1019 10:24:10.086040  8438 net.cpp:141] Setting up fc3_Smiling
I1019 10:24:10.086052  8438 net.cpp:148] Top shape: 64 2 (128)
I1019 10:24:10.086058  8438 net.cpp:156] Memory required for data: 2540547088
I1019 10:24:10.086068  8438 layer_factory.hpp:77] Creating layer loss_Smiling
I1019 10:24:10.086082  8438 net.cpp:91] Creating Layer loss_Smiling
I1019 10:24:10.086091  8438 net.cpp:425] loss_Smiling <- fc3_Smiling
I1019 10:24:10.086099  8438 net.cpp:425] loss_Smiling <- label_Smiling
I1019 10:24:10.086109  8438 net.cpp:399] loss_Smiling -> loss_Smiling
I1019 10:24:10.086176  8438 net.cpp:141] Setting up loss_Smiling
I1019 10:24:10.086189  8438 net.cpp:148] Top shape: (1)
I1019 10:24:10.086194  8438 net.cpp:151]     with loss weight 1
I1019 10:24:10.086205  8438 net.cpp:156] Memory required for data: 2540547092
I1019 10:24:10.086210  8438 layer_factory.hpp:77] Creating layer fc3_Wearing_Lipstick
I1019 10:24:10.086221  8438 net.cpp:91] Creating Layer fc3_Wearing_Lipstick
I1019 10:24:10.086230  8438 net.cpp:425] fc3_Wearing_Lipstick <- fc2_mouth_drop2_mouth_0_split_2
I1019 10:24:10.086239  8438 net.cpp:399] fc3_Wearing_Lipstick -> fc3_Wearing_Lipstick
I1019 10:24:10.086422  8438 net.cpp:141] Setting up fc3_Wearing_Lipstick
I1019 10:24:10.086434  8438 net.cpp:148] Top shape: 64 2 (128)
I1019 10:24:10.086441  8438 net.cpp:156] Memory required for data: 2540547604
I1019 10:24:10.086452  8438 layer_factory.hpp:77] Creating layer loss_Wearing_Lipstick
I1019 10:24:10.086465  8438 net.cpp:91] Creating Layer loss_Wearing_Lipstick
I1019 10:24:10.086472  8438 net.cpp:425] loss_Wearing_Lipstick <- fc3_Wearing_Lipstick
I1019 10:24:10.086480  8438 net.cpp:425] loss_Wearing_Lipstick <- label_Wearing_Lipstick
I1019 10:24:10.086490  8438 net.cpp:399] loss_Wearing_Lipstick -> loss_Wearing_Lipstick
I1019 10:24:10.086554  8438 net.cpp:141] Setting up loss_Wearing_Lipstick
I1019 10:24:10.086565  8438 net.cpp:148] Top shape: (1)
I1019 10:24:10.086571  8438 net.cpp:151]     with loss weight 1
I1019 10:24:10.086580  8438 net.cpp:156] Memory required for data: 2540547608
I1019 10:24:10.086585  8438 layer_factory.hpp:77] Creating layer fc3_Mouth_Slightly_Open
I1019 10:24:10.086597  8438 net.cpp:91] Creating Layer fc3_Mouth_Slightly_Open
I1019 10:24:10.086604  8438 net.cpp:425] fc3_Mouth_Slightly_Open <- fc2_mouth_drop2_mouth_0_split_3
I1019 10:24:10.086617  8438 net.cpp:399] fc3_Mouth_Slightly_Open -> fc3_Mouth_Slightly_Open
I1019 10:24:10.086798  8438 net.cpp:141] Setting up fc3_Mouth_Slightly_Open
I1019 10:24:10.086812  8438 net.cpp:148] Top shape: 64 2 (128)
I1019 10:24:10.086817  8438 net.cpp:156] Memory required for data: 2540548120
I1019 10:24:10.086827  8438 layer_factory.hpp:77] Creating layer loss_Mouth_Slightly_Open
I1019 10:24:10.086841  8438 net.cpp:91] Creating Layer loss_Mouth_Slightly_Open
I1019 10:24:10.086850  8438 net.cpp:425] loss_Mouth_Slightly_Open <- fc3_Mouth_Slightly_Open
I1019 10:24:10.086858  8438 net.cpp:425] loss_Mouth_Slightly_Open <- label_Mouth_Slightly_Open
I1019 10:24:10.086869  8438 net.cpp:399] loss_Mouth_Slightly_Open -> loss_Mouth_Slightly_Open
I1019 10:24:10.086932  8438 net.cpp:141] Setting up loss_Mouth_Slightly_Open
I1019 10:24:10.086944  8438 net.cpp:148] Top shape: (1)
I1019 10:24:10.086951  8438 net.cpp:151]     with loss weight 1
I1019 10:24:10.086961  8438 net.cpp:156] Memory required for data: 2540548124
I1019 10:24:10.086980  8438 layer_factory.hpp:77] Creating layer fc3_Arched_Eyebrows
I1019 10:24:10.086992  8438 net.cpp:91] Creating Layer fc3_Arched_Eyebrows
I1019 10:24:10.087002  8438 net.cpp:425] fc3_Arched_Eyebrows <- fc2_eyes_drop2_eyes_0_split_0
I1019 10:24:10.087013  8438 net.cpp:399] fc3_Arched_Eyebrows -> fc3_Arched_Eyebrows
I1019 10:24:10.087198  8438 net.cpp:141] Setting up fc3_Arched_Eyebrows
I1019 10:24:10.087210  8438 net.cpp:148] Top shape: 64 2 (128)
I1019 10:24:10.087215  8438 net.cpp:156] Memory required for data: 2540548636
I1019 10:24:10.087225  8438 layer_factory.hpp:77] Creating layer loss_Arched_Eyebrows
I1019 10:24:10.087244  8438 net.cpp:91] Creating Layer loss_Arched_Eyebrows
I1019 10:24:10.087251  8438 net.cpp:425] loss_Arched_Eyebrows <- fc3_Arched_Eyebrows
I1019 10:24:10.087260  8438 net.cpp:425] loss_Arched_Eyebrows <- label_Arched_Eyebrows
I1019 10:24:10.087271  8438 net.cpp:399] loss_Arched_Eyebrows -> loss_Arched_Eyebrows
I1019 10:24:10.087337  8438 net.cpp:141] Setting up loss_Arched_Eyebrows
I1019 10:24:10.087348  8438 net.cpp:148] Top shape: (1)
I1019 10:24:10.087353  8438 net.cpp:151]     with loss weight 1
I1019 10:24:10.087363  8438 net.cpp:156] Memory required for data: 2540548640
I1019 10:24:10.087369  8438 layer_factory.hpp:77] Creating layer fc3_Bags_Under_Eyes
I1019 10:24:10.087379  8438 net.cpp:91] Creating Layer fc3_Bags_Under_Eyes
I1019 10:24:10.087388  8438 net.cpp:425] fc3_Bags_Under_Eyes <- fc2_eyes_drop2_eyes_0_split_1
I1019 10:24:10.087398  8438 net.cpp:399] fc3_Bags_Under_Eyes -> fc3_Bags_Under_Eyes
I1019 10:24:10.087579  8438 net.cpp:141] Setting up fc3_Bags_Under_Eyes
I1019 10:24:10.087591  8438 net.cpp:148] Top shape: 64 2 (128)
I1019 10:24:10.087596  8438 net.cpp:156] Memory required for data: 2540549152
I1019 10:24:10.087608  8438 layer_factory.hpp:77] Creating layer loss_Bags_Under_Eyes
I1019 10:24:10.087621  8438 net.cpp:91] Creating Layer loss_Bags_Under_Eyes
I1019 10:24:10.087630  8438 net.cpp:425] loss_Bags_Under_Eyes <- fc3_Bags_Under_Eyes
I1019 10:24:10.087638  8438 net.cpp:425] loss_Bags_Under_Eyes <- label_Bags_Under_Eyes
I1019 10:24:10.087651  8438 net.cpp:399] loss_Bags_Under_Eyes -> loss_Bags_Under_Eyes
I1019 10:24:10.087716  8438 net.cpp:141] Setting up loss_Bags_Under_Eyes
I1019 10:24:10.087728  8438 net.cpp:148] Top shape: (1)
I1019 10:24:10.087733  8438 net.cpp:151]     with loss weight 1
I1019 10:24:10.087743  8438 net.cpp:156] Memory required for data: 2540549156
I1019 10:24:10.087749  8438 layer_factory.hpp:77] Creating layer fc3_Bushy_Eyebrows
I1019 10:24:10.087760  8438 net.cpp:91] Creating Layer fc3_Bushy_Eyebrows
I1019 10:24:10.087769  8438 net.cpp:425] fc3_Bushy_Eyebrows <- fc2_eyes_drop2_eyes_0_split_2
I1019 10:24:10.087780  8438 net.cpp:399] fc3_Bushy_Eyebrows -> fc3_Bushy_Eyebrows
I1019 10:24:10.087973  8438 net.cpp:141] Setting up fc3_Bushy_Eyebrows
I1019 10:24:10.087987  8438 net.cpp:148] Top shape: 64 2 (128)
I1019 10:24:10.087992  8438 net.cpp:156] Memory required for data: 2540549668
I1019 10:24:10.088002  8438 layer_factory.hpp:77] Creating layer loss_Bushy_Eyebrows
I1019 10:24:10.088017  8438 net.cpp:91] Creating Layer loss_Bushy_Eyebrows
I1019 10:24:10.088027  8438 net.cpp:425] loss_Bushy_Eyebrows <- fc3_Bushy_Eyebrows
I1019 10:24:10.088035  8438 net.cpp:425] loss_Bushy_Eyebrows <- label_Bushy_Eyebrows
I1019 10:24:10.088044  8438 net.cpp:399] loss_Bushy_Eyebrows -> loss_Bushy_Eyebrows
I1019 10:24:10.088110  8438 net.cpp:141] Setting up loss_Bushy_Eyebrows
I1019 10:24:10.088129  8438 net.cpp:148] Top shape: (1)
I1019 10:24:10.088135  8438 net.cpp:151]     with loss weight 1
I1019 10:24:10.088145  8438 net.cpp:156] Memory required for data: 2540549672
I1019 10:24:10.088150  8438 layer_factory.hpp:77] Creating layer fc3_Narrow_Eyes
I1019 10:24:10.088160  8438 net.cpp:91] Creating Layer fc3_Narrow_Eyes
I1019 10:24:10.088170  8438 net.cpp:425] fc3_Narrow_Eyes <- fc2_eyes_drop2_eyes_0_split_3
I1019 10:24:10.088178  8438 net.cpp:399] fc3_Narrow_Eyes -> fc3_Narrow_Eyes
I1019 10:24:10.088372  8438 net.cpp:141] Setting up fc3_Narrow_Eyes
I1019 10:24:10.088398  8438 net.cpp:148] Top shape: 64 2 (128)
I1019 10:24:10.088407  8438 net.cpp:156] Memory required for data: 2540550184
I1019 10:24:10.088418  8438 layer_factory.hpp:77] Creating layer loss_Narrow_Eyes
I1019 10:24:10.088430  8438 net.cpp:91] Creating Layer loss_Narrow_Eyes
I1019 10:24:10.088438  8438 net.cpp:425] loss_Narrow_Eyes <- fc3_Narrow_Eyes
I1019 10:24:10.088445  8438 net.cpp:425] loss_Narrow_Eyes <- label_Narrow_Eyes
I1019 10:24:10.088454  8438 net.cpp:399] loss_Narrow_Eyes -> loss_Narrow_Eyes
I1019 10:24:10.088521  8438 net.cpp:141] Setting up loss_Narrow_Eyes
I1019 10:24:10.088533  8438 net.cpp:148] Top shape: (1)
I1019 10:24:10.088538  8438 net.cpp:151]     with loss weight 1
I1019 10:24:10.088551  8438 net.cpp:156] Memory required for data: 2540550188
I1019 10:24:10.088557  8438 layer_factory.hpp:77] Creating layer fc3_Eyeglasses
I1019 10:24:10.088567  8438 net.cpp:91] Creating Layer fc3_Eyeglasses
I1019 10:24:10.088574  8438 net.cpp:425] fc3_Eyeglasses <- fc2_eyes_drop2_eyes_0_split_4
I1019 10:24:10.088584  8438 net.cpp:399] fc3_Eyeglasses -> fc3_Eyeglasses
I1019 10:24:10.088767  8438 net.cpp:141] Setting up fc3_Eyeglasses
I1019 10:24:10.088778  8438 net.cpp:148] Top shape: 64 2 (128)
I1019 10:24:10.088784  8438 net.cpp:156] Memory required for data: 2540550700
I1019 10:24:10.088793  8438 layer_factory.hpp:77] Creating layer loss_Eyeglasses
I1019 10:24:10.088809  8438 net.cpp:91] Creating Layer loss_Eyeglasses
I1019 10:24:10.088816  8438 net.cpp:425] loss_Eyeglasses <- fc3_Eyeglasses
I1019 10:24:10.088824  8438 net.cpp:425] loss_Eyeglasses <- label_Eyeglasses
I1019 10:24:10.088836  8438 net.cpp:399] loss_Eyeglasses -> loss_Eyeglasses
I1019 10:24:10.088901  8438 net.cpp:141] Setting up loss_Eyeglasses
I1019 10:24:10.088913  8438 net.cpp:148] Top shape: (1)
I1019 10:24:10.088918  8438 net.cpp:151]     with loss weight 1
I1019 10:24:10.088927  8438 net.cpp:156] Memory required for data: 2540550704
I1019 10:24:10.088932  8438 layer_factory.hpp:77] Creating layer fc3_Attractive
I1019 10:24:10.088943  8438 net.cpp:91] Creating Layer fc3_Attractive
I1019 10:24:10.088951  8438 net.cpp:425] fc3_Attractive <- fc2_face_drop2_face_0_split_0
I1019 10:24:10.088961  8438 net.cpp:399] fc3_Attractive -> fc3_Attractive
I1019 10:24:10.089145  8438 net.cpp:141] Setting up fc3_Attractive
I1019 10:24:10.089159  8438 net.cpp:148] Top shape: 64 2 (128)
I1019 10:24:10.089164  8438 net.cpp:156] Memory required for data: 2540551216
I1019 10:24:10.089174  8438 layer_factory.hpp:77] Creating layer loss_Attractive
I1019 10:24:10.089187  8438 net.cpp:91] Creating Layer loss_Attractive
I1019 10:24:10.089195  8438 net.cpp:425] loss_Attractive <- fc3_Attractive
I1019 10:24:10.089203  8438 net.cpp:425] loss_Attractive <- label_Attractive
I1019 10:24:10.089215  8438 net.cpp:399] loss_Attractive -> loss_Attractive
I1019 10:24:10.089279  8438 net.cpp:141] Setting up loss_Attractive
I1019 10:24:10.089292  8438 net.cpp:148] Top shape: (1)
I1019 10:24:10.089298  8438 net.cpp:151]     with loss weight 1
I1019 10:24:10.089308  8438 net.cpp:156] Memory required for data: 2540551220
I1019 10:24:10.089313  8438 layer_factory.hpp:77] Creating layer fc3_Blurry
I1019 10:24:10.089323  8438 net.cpp:91] Creating Layer fc3_Blurry
I1019 10:24:10.089331  8438 net.cpp:425] fc3_Blurry <- fc2_face_drop2_face_0_split_1
I1019 10:24:10.089340  8438 net.cpp:399] fc3_Blurry -> fc3_Blurry
I1019 10:24:10.089526  8438 net.cpp:141] Setting up fc3_Blurry
I1019 10:24:10.089539  8438 net.cpp:148] Top shape: 64 2 (128)
I1019 10:24:10.089545  8438 net.cpp:156] Memory required for data: 2540551732
I1019 10:24:10.089553  8438 layer_factory.hpp:77] Creating layer loss_Blurry
I1019 10:24:10.089565  8438 net.cpp:91] Creating Layer loss_Blurry
I1019 10:24:10.089572  8438 net.cpp:425] loss_Blurry <- fc3_Blurry
I1019 10:24:10.089584  8438 net.cpp:425] loss_Blurry <- label_Blurry
I1019 10:24:10.089593  8438 net.cpp:399] loss_Blurry -> loss_Blurry
I1019 10:24:10.089658  8438 net.cpp:141] Setting up loss_Blurry
I1019 10:24:10.089682  8438 net.cpp:148] Top shape: (1)
I1019 10:24:10.089689  8438 net.cpp:151]     with loss weight 1
I1019 10:24:10.089699  8438 net.cpp:156] Memory required for data: 2540551736
I1019 10:24:10.089704  8438 layer_factory.hpp:77] Creating layer fc3_Oval_Face
I1019 10:24:10.089715  8438 net.cpp:91] Creating Layer fc3_Oval_Face
I1019 10:24:10.089722  8438 net.cpp:425] fc3_Oval_Face <- fc2_face_drop2_face_0_split_2
I1019 10:24:10.089732  8438 net.cpp:399] fc3_Oval_Face -> fc3_Oval_Face
I1019 10:24:10.089921  8438 net.cpp:141] Setting up fc3_Oval_Face
I1019 10:24:10.089936  8438 net.cpp:148] Top shape: 64 2 (128)
I1019 10:24:10.089941  8438 net.cpp:156] Memory required for data: 2540552248
I1019 10:24:10.089951  8438 layer_factory.hpp:77] Creating layer loss_Oval_Face
I1019 10:24:10.089962  8438 net.cpp:91] Creating Layer loss_Oval_Face
I1019 10:24:10.089972  8438 net.cpp:425] loss_Oval_Face <- fc3_Oval_Face
I1019 10:24:10.089980  8438 net.cpp:425] loss_Oval_Face <- label_Oval_Face
I1019 10:24:10.089994  8438 net.cpp:399] loss_Oval_Face -> loss_Oval_Face
I1019 10:24:10.090061  8438 net.cpp:141] Setting up loss_Oval_Face
I1019 10:24:10.090076  8438 net.cpp:148] Top shape: (1)
I1019 10:24:10.090083  8438 net.cpp:151]     with loss weight 1
I1019 10:24:10.090091  8438 net.cpp:156] Memory required for data: 2540552252
I1019 10:24:10.090097  8438 layer_factory.hpp:77] Creating layer fc3_Pale_Skin
I1019 10:24:10.090107  8438 net.cpp:91] Creating Layer fc3_Pale_Skin
I1019 10:24:10.090116  8438 net.cpp:425] fc3_Pale_Skin <- fc2_face_drop2_face_0_split_3
I1019 10:24:10.090126  8438 net.cpp:399] fc3_Pale_Skin -> fc3_Pale_Skin
I1019 10:24:10.090312  8438 net.cpp:141] Setting up fc3_Pale_Skin
I1019 10:24:10.090327  8438 net.cpp:148] Top shape: 64 2 (128)
I1019 10:24:10.090332  8438 net.cpp:156] Memory required for data: 2540552764
I1019 10:24:10.090342  8438 layer_factory.hpp:77] Creating layer loss_Pale_Skin
I1019 10:24:10.090353  8438 net.cpp:91] Creating Layer loss_Pale_Skin
I1019 10:24:10.090363  8438 net.cpp:425] loss_Pale_Skin <- fc3_Pale_Skin
I1019 10:24:10.090370  8438 net.cpp:425] loss_Pale_Skin <- label_Pale_Skin
I1019 10:24:10.090381  8438 net.cpp:399] loss_Pale_Skin -> loss_Pale_Skin
I1019 10:24:10.090446  8438 net.cpp:141] Setting up loss_Pale_Skin
I1019 10:24:10.090458  8438 net.cpp:148] Top shape: (1)
I1019 10:24:10.090463  8438 net.cpp:151]     with loss weight 1
I1019 10:24:10.090473  8438 net.cpp:156] Memory required for data: 2540552768
I1019 10:24:10.090479  8438 layer_factory.hpp:77] Creating layer fc3_Young
I1019 10:24:10.090492  8438 net.cpp:91] Creating Layer fc3_Young
I1019 10:24:10.090500  8438 net.cpp:425] fc3_Young <- fc2_face_drop2_face_0_split_4
I1019 10:24:10.090510  8438 net.cpp:399] fc3_Young -> fc3_Young
I1019 10:24:10.090692  8438 net.cpp:141] Setting up fc3_Young
I1019 10:24:10.090708  8438 net.cpp:148] Top shape: 64 2 (128)
I1019 10:24:10.090716  8438 net.cpp:156] Memory required for data: 2540553280
I1019 10:24:10.090725  8438 layer_factory.hpp:77] Creating layer loss_Young
I1019 10:24:10.090735  8438 net.cpp:91] Creating Layer loss_Young
I1019 10:24:10.090744  8438 net.cpp:425] loss_Young <- fc3_Young
I1019 10:24:10.090752  8438 net.cpp:425] loss_Young <- label_Young
I1019 10:24:10.090765  8438 net.cpp:399] loss_Young -> loss_Young
I1019 10:24:10.090827  8438 net.cpp:141] Setting up loss_Young
I1019 10:24:10.090838  8438 net.cpp:148] Top shape: (1)
I1019 10:24:10.090844  8438 net.cpp:151]     with loss weight 1
I1019 10:24:10.090854  8438 net.cpp:156] Memory required for data: 2540553284
I1019 10:24:10.090860  8438 layer_factory.hpp:77] Creating layer fc3_Heavy_Makeup
I1019 10:24:10.090873  8438 net.cpp:91] Creating Layer fc3_Heavy_Makeup
I1019 10:24:10.090881  8438 net.cpp:425] fc3_Heavy_Makeup <- fc2_face_drop2_face_0_split_5
I1019 10:24:10.090891  8438 net.cpp:399] fc3_Heavy_Makeup -> fc3_Heavy_Makeup
I1019 10:24:10.091071  8438 net.cpp:141] Setting up fc3_Heavy_Makeup
I1019 10:24:10.091085  8438 net.cpp:148] Top shape: 64 2 (128)
I1019 10:24:10.091094  8438 net.cpp:156] Memory required for data: 2540553796
I1019 10:24:10.091116  8438 layer_factory.hpp:77] Creating layer loss_Heavy_Makeup
I1019 10:24:10.091130  8438 net.cpp:91] Creating Layer loss_Heavy_Makeup
I1019 10:24:10.091136  8438 net.cpp:425] loss_Heavy_Makeup <- fc3_Heavy_Makeup
I1019 10:24:10.091146  8438 net.cpp:425] loss_Heavy_Makeup <- label_Heavy_Makeup
I1019 10:24:10.091161  8438 net.cpp:399] loss_Heavy_Makeup -> loss_Heavy_Makeup
I1019 10:24:10.091223  8438 net.cpp:141] Setting up loss_Heavy_Makeup
I1019 10:24:10.091234  8438 net.cpp:148] Top shape: (1)
I1019 10:24:10.091240  8438 net.cpp:151]     with loss weight 1
I1019 10:24:10.091250  8438 net.cpp:156] Memory required for data: 2540553800
I1019 10:24:10.091256  8438 layer_factory.hpp:77] Creating layer fc3_Black_Hair
I1019 10:24:10.091269  8438 net.cpp:91] Creating Layer fc3_Black_Hair
I1019 10:24:10.091277  8438 net.cpp:425] fc3_Black_Hair <- fc2_aroundhead_drop2_aroundhead_0_split_0
I1019 10:24:10.091289  8438 net.cpp:399] fc3_Black_Hair -> fc3_Black_Hair
I1019 10:24:10.091469  8438 net.cpp:141] Setting up fc3_Black_Hair
I1019 10:24:10.091483  8438 net.cpp:148] Top shape: 64 2 (128)
I1019 10:24:10.091490  8438 net.cpp:156] Memory required for data: 2540554312
I1019 10:24:10.091500  8438 layer_factory.hpp:77] Creating layer loss_Black_Hair
I1019 10:24:10.091511  8438 net.cpp:91] Creating Layer loss_Black_Hair
I1019 10:24:10.091519  8438 net.cpp:425] loss_Black_Hair <- fc3_Black_Hair
I1019 10:24:10.091527  8438 net.cpp:425] loss_Black_Hair <- label_Black_Hair
I1019 10:24:10.091538  8438 net.cpp:399] loss_Black_Hair -> loss_Black_Hair
I1019 10:24:10.091601  8438 net.cpp:141] Setting up loss_Black_Hair
I1019 10:24:10.091612  8438 net.cpp:148] Top shape: (1)
I1019 10:24:10.091619  8438 net.cpp:151]     with loss weight 1
I1019 10:24:10.091629  8438 net.cpp:156] Memory required for data: 2540554316
I1019 10:24:10.091634  8438 layer_factory.hpp:77] Creating layer fc3_Blond_Hair
I1019 10:24:10.091648  8438 net.cpp:91] Creating Layer fc3_Blond_Hair
I1019 10:24:10.091656  8438 net.cpp:425] fc3_Blond_Hair <- fc2_aroundhead_drop2_aroundhead_0_split_1
I1019 10:24:10.091666  8438 net.cpp:399] fc3_Blond_Hair -> fc3_Blond_Hair
I1019 10:24:10.091861  8438 net.cpp:141] Setting up fc3_Blond_Hair
I1019 10:24:10.091874  8438 net.cpp:148] Top shape: 64 2 (128)
I1019 10:24:10.091895  8438 net.cpp:156] Memory required for data: 2540554828
I1019 10:24:10.091905  8438 layer_factory.hpp:77] Creating layer loss_Blond_Hair
I1019 10:24:10.091917  8438 net.cpp:91] Creating Layer loss_Blond_Hair
I1019 10:24:10.091925  8438 net.cpp:425] loss_Blond_Hair <- fc3_Blond_Hair
I1019 10:24:10.091933  8438 net.cpp:425] loss_Blond_Hair <- label_Blond_Hair
I1019 10:24:10.091946  8438 net.cpp:399] loss_Blond_Hair -> loss_Blond_Hair
I1019 10:24:10.092005  8438 net.cpp:141] Setting up loss_Blond_Hair
I1019 10:24:10.092016  8438 net.cpp:148] Top shape: (1)
I1019 10:24:10.092021  8438 net.cpp:151]     with loss weight 1
I1019 10:24:10.092031  8438 net.cpp:156] Memory required for data: 2540554832
I1019 10:24:10.092037  8438 layer_factory.hpp:77] Creating layer fc3_Brown_Hair
I1019 10:24:10.092049  8438 net.cpp:91] Creating Layer fc3_Brown_Hair
I1019 10:24:10.092057  8438 net.cpp:425] fc3_Brown_Hair <- fc2_aroundhead_drop2_aroundhead_0_split_2
I1019 10:24:10.092067  8438 net.cpp:399] fc3_Brown_Hair -> fc3_Brown_Hair
I1019 10:24:10.092237  8438 net.cpp:141] Setting up fc3_Brown_Hair
I1019 10:24:10.092249  8438 net.cpp:148] Top shape: 64 2 (128)
I1019 10:24:10.092255  8438 net.cpp:156] Memory required for data: 2540555344
I1019 10:24:10.092264  8438 layer_factory.hpp:77] Creating layer loss_Brown_Hair
I1019 10:24:10.092278  8438 net.cpp:91] Creating Layer loss_Brown_Hair
I1019 10:24:10.092286  8438 net.cpp:425] loss_Brown_Hair <- fc3_Brown_Hair
I1019 10:24:10.092293  8438 net.cpp:425] loss_Brown_Hair <- label_Brown_Hair
I1019 10:24:10.092306  8438 net.cpp:399] loss_Brown_Hair -> loss_Brown_Hair
I1019 10:24:10.092363  8438 net.cpp:141] Setting up loss_Brown_Hair
I1019 10:24:10.092375  8438 net.cpp:148] Top shape: (1)
I1019 10:24:10.092396  8438 net.cpp:151]     with loss weight 1
I1019 10:24:10.092407  8438 net.cpp:156] Memory required for data: 2540555348
I1019 10:24:10.092413  8438 layer_factory.hpp:77] Creating layer fc3_Gray_Hair
I1019 10:24:10.092425  8438 net.cpp:91] Creating Layer fc3_Gray_Hair
I1019 10:24:10.092434  8438 net.cpp:425] fc3_Gray_Hair <- fc2_aroundhead_drop2_aroundhead_0_split_3
I1019 10:24:10.092443  8438 net.cpp:399] fc3_Gray_Hair -> fc3_Gray_Hair
I1019 10:24:10.092617  8438 net.cpp:141] Setting up fc3_Gray_Hair
I1019 10:24:10.092630  8438 net.cpp:148] Top shape: 64 2 (128)
I1019 10:24:10.092635  8438 net.cpp:156] Memory required for data: 2540555860
I1019 10:24:10.092645  8438 layer_factory.hpp:77] Creating layer loss_Gray_Hair
I1019 10:24:10.092658  8438 net.cpp:91] Creating Layer loss_Gray_Hair
I1019 10:24:10.092667  8438 net.cpp:425] loss_Gray_Hair <- fc3_Gray_Hair
I1019 10:24:10.092674  8438 net.cpp:425] loss_Gray_Hair <- label_Gray_Hair
I1019 10:24:10.092686  8438 net.cpp:399] loss_Gray_Hair -> loss_Gray_Hair
I1019 10:24:10.092746  8438 net.cpp:141] Setting up loss_Gray_Hair
I1019 10:24:10.092757  8438 net.cpp:148] Top shape: (1)
I1019 10:24:10.092763  8438 net.cpp:151]     with loss weight 1
I1019 10:24:10.092773  8438 net.cpp:156] Memory required for data: 2540555864
I1019 10:24:10.092779  8438 layer_factory.hpp:77] Creating layer fc3_Wearing_Earrings
I1019 10:24:10.092794  8438 net.cpp:91] Creating Layer fc3_Wearing_Earrings
I1019 10:24:10.092803  8438 net.cpp:425] fc3_Wearing_Earrings <- fc2_aroundhead_drop2_aroundhead_0_split_4
I1019 10:24:10.092811  8438 net.cpp:399] fc3_Wearing_Earrings -> fc3_Wearing_Earrings
I1019 10:24:10.092981  8438 net.cpp:141] Setting up fc3_Wearing_Earrings
I1019 10:24:10.092993  8438 net.cpp:148] Top shape: 64 2 (128)
I1019 10:24:10.092998  8438 net.cpp:156] Memory required for data: 2540556376
I1019 10:24:10.093008  8438 layer_factory.hpp:77] Creating layer loss_Wearing_Earrings
I1019 10:24:10.093022  8438 net.cpp:91] Creating Layer loss_Wearing_Earrings
I1019 10:24:10.093031  8438 net.cpp:425] loss_Wearing_Earrings <- fc3_Wearing_Earrings
I1019 10:24:10.093039  8438 net.cpp:425] loss_Wearing_Earrings <- label_Wearing_Earrings
I1019 10:24:10.093047  8438 net.cpp:399] loss_Wearing_Earrings -> loss_Wearing_Earrings
I1019 10:24:10.093108  8438 net.cpp:141] Setting up loss_Wearing_Earrings
I1019 10:24:10.093121  8438 net.cpp:148] Top shape: (1)
I1019 10:24:10.093125  8438 net.cpp:151]     with loss weight 1
I1019 10:24:10.093135  8438 net.cpp:156] Memory required for data: 2540556380
I1019 10:24:10.093140  8438 layer_factory.hpp:77] Creating layer fc3_Wearing_Necklace
I1019 10:24:10.093152  8438 net.cpp:91] Creating Layer fc3_Wearing_Necklace
I1019 10:24:10.093160  8438 net.cpp:425] fc3_Wearing_Necklace <- fc2_aroundhead_drop2_aroundhead_0_split_5
I1019 10:24:10.093169  8438 net.cpp:399] fc3_Wearing_Necklace -> fc3_Wearing_Necklace
I1019 10:24:10.093343  8438 net.cpp:141] Setting up fc3_Wearing_Necklace
I1019 10:24:10.093356  8438 net.cpp:148] Top shape: 64 2 (128)
I1019 10:24:10.093361  8438 net.cpp:156] Memory required for data: 2540556892
I1019 10:24:10.093374  8438 layer_factory.hpp:77] Creating layer loss_Wearing_Necklace
I1019 10:24:10.093386  8438 net.cpp:91] Creating Layer loss_Wearing_Necklace
I1019 10:24:10.093395  8438 net.cpp:425] loss_Wearing_Necklace <- fc3_Wearing_Necklace
I1019 10:24:10.093402  8438 net.cpp:425] loss_Wearing_Necklace <- label_Wearing_Necklace
I1019 10:24:10.093411  8438 net.cpp:399] loss_Wearing_Necklace -> loss_Wearing_Necklace
I1019 10:24:10.093472  8438 net.cpp:141] Setting up loss_Wearing_Necklace
I1019 10:24:10.093483  8438 net.cpp:148] Top shape: (1)
I1019 10:24:10.093488  8438 net.cpp:151]     with loss weight 1
I1019 10:24:10.093498  8438 net.cpp:156] Memory required for data: 2540556896
I1019 10:24:10.093504  8438 layer_factory.hpp:77] Creating layer fc3_Wearing_Necktie
I1019 10:24:10.093515  8438 net.cpp:91] Creating Layer fc3_Wearing_Necktie
I1019 10:24:10.093523  8438 net.cpp:425] fc3_Wearing_Necktie <- fc2_aroundhead_drop2_aroundhead_0_split_6
I1019 10:24:10.093546  8438 net.cpp:399] fc3_Wearing_Necktie -> fc3_Wearing_Necktie
I1019 10:24:10.093729  8438 net.cpp:141] Setting up fc3_Wearing_Necktie
I1019 10:24:10.093740  8438 net.cpp:148] Top shape: 64 2 (128)
I1019 10:24:10.093746  8438 net.cpp:156] Memory required for data: 2540557408
I1019 10:24:10.093757  8438 layer_factory.hpp:77] Creating layer loss_Wearing_Necktie
I1019 10:24:10.093770  8438 net.cpp:91] Creating Layer loss_Wearing_Necktie
I1019 10:24:10.093776  8438 net.cpp:425] loss_Wearing_Necktie <- fc3_Wearing_Necktie
I1019 10:24:10.093785  8438 net.cpp:425] loss_Wearing_Necktie <- label_Wearing_Necktie
I1019 10:24:10.093792  8438 net.cpp:399] loss_Wearing_Necktie -> loss_Wearing_Necktie
I1019 10:24:10.093857  8438 net.cpp:141] Setting up loss_Wearing_Necktie
I1019 10:24:10.093868  8438 net.cpp:148] Top shape: (1)
I1019 10:24:10.093873  8438 net.cpp:151]     with loss weight 1
I1019 10:24:10.093883  8438 net.cpp:156] Memory required for data: 2540557412
I1019 10:24:10.093888  8438 layer_factory.hpp:77] Creating layer fc3_Bald
I1019 10:24:10.093899  8438 net.cpp:91] Creating Layer fc3_Bald
I1019 10:24:10.093907  8438 net.cpp:425] fc3_Bald <- fc2_aroundhead_drop2_aroundhead_0_split_7
I1019 10:24:10.093916  8438 net.cpp:399] fc3_Bald -> fc3_Bald
I1019 10:24:10.094086  8438 net.cpp:141] Setting up fc3_Bald
I1019 10:24:10.094099  8438 net.cpp:148] Top shape: 64 2 (128)
I1019 10:24:10.094105  8438 net.cpp:156] Memory required for data: 2540557924
I1019 10:24:10.094116  8438 layer_factory.hpp:77] Creating layer loss_Bald
I1019 10:24:10.094127  8438 net.cpp:91] Creating Layer loss_Bald
I1019 10:24:10.094135  8438 net.cpp:425] loss_Bald <- fc3_Bald
I1019 10:24:10.094142  8438 net.cpp:425] loss_Bald <- label_Bald
I1019 10:24:10.094151  8438 net.cpp:399] loss_Bald -> loss_Bald
I1019 10:24:10.094210  8438 net.cpp:141] Setting up loss_Bald
I1019 10:24:10.094223  8438 net.cpp:148] Top shape: (1)
I1019 10:24:10.094228  8438 net.cpp:151]     with loss weight 1
I1019 10:24:10.094234  8438 net.cpp:156] Memory required for data: 2540557928
I1019 10:24:10.094240  8438 layer_factory.hpp:77] Creating layer fc3_Receding_Hairline
I1019 10:24:10.094251  8438 net.cpp:91] Creating Layer fc3_Receding_Hairline
I1019 10:24:10.094259  8438 net.cpp:425] fc3_Receding_Hairline <- fc2_aroundhead_drop2_aroundhead_0_split_8
I1019 10:24:10.094269  8438 net.cpp:399] fc3_Receding_Hairline -> fc3_Receding_Hairline
I1019 10:24:10.094440  8438 net.cpp:141] Setting up fc3_Receding_Hairline
I1019 10:24:10.094454  8438 net.cpp:148] Top shape: 64 2 (128)
I1019 10:24:10.094460  8438 net.cpp:156] Memory required for data: 2540558440
I1019 10:24:10.094468  8438 layer_factory.hpp:77] Creating layer loss_Receding_Hairline
I1019 10:24:10.094480  8438 net.cpp:91] Creating Layer loss_Receding_Hairline
I1019 10:24:10.094490  8438 net.cpp:425] loss_Receding_Hairline <- fc3_Receding_Hairline
I1019 10:24:10.094496  8438 net.cpp:425] loss_Receding_Hairline <- label_Receding_Hairline
I1019 10:24:10.094506  8438 net.cpp:399] loss_Receding_Hairline -> loss_Receding_Hairline
I1019 10:24:10.094569  8438 net.cpp:141] Setting up loss_Receding_Hairline
I1019 10:24:10.094581  8438 net.cpp:148] Top shape: (1)
I1019 10:24:10.094586  8438 net.cpp:151]     with loss weight 1
I1019 10:24:10.094597  8438 net.cpp:156] Memory required for data: 2540558444
I1019 10:24:10.094604  8438 layer_factory.hpp:77] Creating layer fc3_Bangs
I1019 10:24:10.094615  8438 net.cpp:91] Creating Layer fc3_Bangs
I1019 10:24:10.094624  8438 net.cpp:425] fc3_Bangs <- fc2_aroundhead_drop2_aroundhead_0_split_9
I1019 10:24:10.094633  8438 net.cpp:399] fc3_Bangs -> fc3_Bangs
I1019 10:24:10.094805  8438 net.cpp:141] Setting up fc3_Bangs
I1019 10:24:10.094816  8438 net.cpp:148] Top shape: 64 2 (128)
I1019 10:24:10.094821  8438 net.cpp:156] Memory required for data: 2540558956
I1019 10:24:10.094833  8438 layer_factory.hpp:77] Creating layer loss_Bangs
I1019 10:24:10.094844  8438 net.cpp:91] Creating Layer loss_Bangs
I1019 10:24:10.094853  8438 net.cpp:425] loss_Bangs <- fc3_Bangs
I1019 10:24:10.094861  8438 net.cpp:425] loss_Bangs <- label_Bangs
I1019 10:24:10.094880  8438 net.cpp:399] loss_Bangs -> loss_Bangs
I1019 10:24:10.094946  8438 net.cpp:141] Setting up loss_Bangs
I1019 10:24:10.094957  8438 net.cpp:148] Top shape: (1)
I1019 10:24:10.094964  8438 net.cpp:151]     with loss weight 1
I1019 10:24:10.094971  8438 net.cpp:156] Memory required for data: 2540558960
I1019 10:24:10.094976  8438 layer_factory.hpp:77] Creating layer fc3_Wearing_Hat
I1019 10:24:10.094987  8438 net.cpp:91] Creating Layer fc3_Wearing_Hat
I1019 10:24:10.094995  8438 net.cpp:425] fc3_Wearing_Hat <- fc2_aroundhead_drop2_aroundhead_0_split_10
I1019 10:24:10.095003  8438 net.cpp:399] fc3_Wearing_Hat -> fc3_Wearing_Hat
I1019 10:24:10.095175  8438 net.cpp:141] Setting up fc3_Wearing_Hat
I1019 10:24:10.095187  8438 net.cpp:148] Top shape: 64 2 (128)
I1019 10:24:10.095192  8438 net.cpp:156] Memory required for data: 2540559472
I1019 10:24:10.095201  8438 layer_factory.hpp:77] Creating layer loss_Wearing_Hat
I1019 10:24:10.095213  8438 net.cpp:91] Creating Layer loss_Wearing_Hat
I1019 10:24:10.095221  8438 net.cpp:425] loss_Wearing_Hat <- fc3_Wearing_Hat
I1019 10:24:10.095228  8438 net.cpp:425] loss_Wearing_Hat <- label_Wearing_Hat
I1019 10:24:10.095237  8438 net.cpp:399] loss_Wearing_Hat -> loss_Wearing_Hat
I1019 10:24:10.095296  8438 net.cpp:141] Setting up loss_Wearing_Hat
I1019 10:24:10.095307  8438 net.cpp:148] Top shape: (1)
I1019 10:24:10.095312  8438 net.cpp:151]     with loss weight 1
I1019 10:24:10.095320  8438 net.cpp:156] Memory required for data: 2540559476
I1019 10:24:10.095325  8438 layer_factory.hpp:77] Creating layer fc3_Straight_Hair
I1019 10:24:10.095336  8438 net.cpp:91] Creating Layer fc3_Straight_Hair
I1019 10:24:10.095343  8438 net.cpp:425] fc3_Straight_Hair <- fc2_aroundhead_drop2_aroundhead_0_split_11
I1019 10:24:10.095352  8438 net.cpp:399] fc3_Straight_Hair -> fc3_Straight_Hair
I1019 10:24:10.095522  8438 net.cpp:141] Setting up fc3_Straight_Hair
I1019 10:24:10.095535  8438 net.cpp:148] Top shape: 64 2 (128)
I1019 10:24:10.095541  8438 net.cpp:156] Memory required for data: 2540559988
I1019 10:24:10.095548  8438 layer_factory.hpp:77] Creating layer loss_Straight_Hair
I1019 10:24:10.095561  8438 net.cpp:91] Creating Layer loss_Straight_Hair
I1019 10:24:10.095567  8438 net.cpp:425] loss_Straight_Hair <- fc3_Straight_Hair
I1019 10:24:10.095576  8438 net.cpp:425] loss_Straight_Hair <- label_Straight_Hair
I1019 10:24:10.095583  8438 net.cpp:399] loss_Straight_Hair -> loss_Straight_Hair
I1019 10:24:10.095643  8438 net.cpp:141] Setting up loss_Straight_Hair
I1019 10:24:10.095654  8438 net.cpp:148] Top shape: (1)
I1019 10:24:10.095659  8438 net.cpp:151]     with loss weight 1
I1019 10:24:10.095666  8438 net.cpp:156] Memory required for data: 2540559992
I1019 10:24:10.095672  8438 layer_factory.hpp:77] Creating layer fc3_Wavy_Hair
I1019 10:24:10.095680  8438 net.cpp:91] Creating Layer fc3_Wavy_Hair
I1019 10:24:10.095687  8438 net.cpp:425] fc3_Wavy_Hair <- fc2_aroundhead_drop2_aroundhead_0_split_12
I1019 10:24:10.095700  8438 net.cpp:399] fc3_Wavy_Hair -> fc3_Wavy_Hair
I1019 10:24:10.095877  8438 net.cpp:141] Setting up fc3_Wavy_Hair
I1019 10:24:10.095891  8438 net.cpp:148] Top shape: 64 2 (128)
I1019 10:24:10.095896  8438 net.cpp:156] Memory required for data: 2540560504
I1019 10:24:10.095906  8438 layer_factory.hpp:77] Creating layer loss_Wavy_Hair
I1019 10:24:10.095917  8438 net.cpp:91] Creating Layer loss_Wavy_Hair
I1019 10:24:10.095924  8438 net.cpp:425] loss_Wavy_Hair <- fc3_Wavy_Hair
I1019 10:24:10.095932  8438 net.cpp:425] loss_Wavy_Hair <- label_Wavy_Hair
I1019 10:24:10.095939  8438 net.cpp:399] loss_Wavy_Hair -> loss_Wavy_Hair
I1019 10:24:10.095998  8438 net.cpp:141] Setting up loss_Wavy_Hair
I1019 10:24:10.096009  8438 net.cpp:148] Top shape: (1)
I1019 10:24:10.096015  8438 net.cpp:151]     with loss weight 1
I1019 10:24:10.096022  8438 net.cpp:156] Memory required for data: 2540560508
I1019 10:24:10.096029  8438 layer_factory.hpp:77] Creating layer fc3_5_o_Clock_Shadow
I1019 10:24:10.096037  8438 net.cpp:91] Creating Layer fc3_5_o_Clock_Shadow
I1019 10:24:10.096056  8438 net.cpp:425] fc3_5_o_Clock_Shadow <- fc2_facialhair_drop2_facialhair_0_split_0
I1019 10:24:10.096070  8438 net.cpp:399] fc3_5_o_Clock_Shadow -> fc3_5_o_Clock_Shadow
I1019 10:24:10.096241  8438 net.cpp:141] Setting up fc3_5_o_Clock_Shadow
I1019 10:24:10.096254  8438 net.cpp:148] Top shape: 64 2 (128)
I1019 10:24:10.096259  8438 net.cpp:156] Memory required for data: 2540561020
I1019 10:24:10.096269  8438 layer_factory.hpp:77] Creating layer loss_5_o_Clock_Shadow
I1019 10:24:10.096281  8438 net.cpp:91] Creating Layer loss_5_o_Clock_Shadow
I1019 10:24:10.096287  8438 net.cpp:425] loss_5_o_Clock_Shadow <- fc3_5_o_Clock_Shadow
I1019 10:24:10.096294  8438 net.cpp:425] loss_5_o_Clock_Shadow <- label_5_o_Clock_Shadow
I1019 10:24:10.096303  8438 net.cpp:399] loss_5_o_Clock_Shadow -> loss_5_o_Clock_Shadow
I1019 10:24:10.096360  8438 net.cpp:141] Setting up loss_5_o_Clock_Shadow
I1019 10:24:10.096372  8438 net.cpp:148] Top shape: (1)
I1019 10:24:10.096379  8438 net.cpp:151]     with loss weight 1
I1019 10:24:10.096386  8438 net.cpp:156] Memory required for data: 2540561024
I1019 10:24:10.096391  8438 layer_factory.hpp:77] Creating layer fc3_Mustache
I1019 10:24:10.096400  8438 net.cpp:91] Creating Layer fc3_Mustache
I1019 10:24:10.096406  8438 net.cpp:425] fc3_Mustache <- fc2_facialhair_drop2_facialhair_0_split_1
I1019 10:24:10.096420  8438 net.cpp:399] fc3_Mustache -> fc3_Mustache
I1019 10:24:10.096590  8438 net.cpp:141] Setting up fc3_Mustache
I1019 10:24:10.096601  8438 net.cpp:148] Top shape: 64 2 (128)
I1019 10:24:10.096606  8438 net.cpp:156] Memory required for data: 2540561536
I1019 10:24:10.096616  8438 layer_factory.hpp:77] Creating layer loss_Mustache
I1019 10:24:10.096628  8438 net.cpp:91] Creating Layer loss_Mustache
I1019 10:24:10.096634  8438 net.cpp:425] loss_Mustache <- fc3_Mustache
I1019 10:24:10.096642  8438 net.cpp:425] loss_Mustache <- label_Mustache
I1019 10:24:10.096649  8438 net.cpp:399] loss_Mustache -> loss_Mustache
I1019 10:24:10.096707  8438 net.cpp:141] Setting up loss_Mustache
I1019 10:24:10.096719  8438 net.cpp:148] Top shape: (1)
I1019 10:24:10.096724  8438 net.cpp:151]     with loss weight 1
I1019 10:24:10.096730  8438 net.cpp:156] Memory required for data: 2540561540
I1019 10:24:10.096736  8438 layer_factory.hpp:77] Creating layer fc3_No_Beard
I1019 10:24:10.096745  8438 net.cpp:91] Creating Layer fc3_No_Beard
I1019 10:24:10.096751  8438 net.cpp:425] fc3_No_Beard <- fc2_facialhair_drop2_facialhair_0_split_2
I1019 10:24:10.096763  8438 net.cpp:399] fc3_No_Beard -> fc3_No_Beard
I1019 10:24:10.096930  8438 net.cpp:141] Setting up fc3_No_Beard
I1019 10:24:10.096942  8438 net.cpp:148] Top shape: 64 2 (128)
I1019 10:24:10.096947  8438 net.cpp:156] Memory required for data: 2540562052
I1019 10:24:10.096957  8438 layer_factory.hpp:77] Creating layer loss_No_Beard
I1019 10:24:10.096973  8438 net.cpp:91] Creating Layer loss_No_Beard
I1019 10:24:10.096979  8438 net.cpp:425] loss_No_Beard <- fc3_No_Beard
I1019 10:24:10.096987  8438 net.cpp:425] loss_No_Beard <- label_No_Beard
I1019 10:24:10.096994  8438 net.cpp:399] loss_No_Beard -> loss_No_Beard
I1019 10:24:10.097053  8438 net.cpp:141] Setting up loss_No_Beard
I1019 10:24:10.097064  8438 net.cpp:148] Top shape: (1)
I1019 10:24:10.097069  8438 net.cpp:151]     with loss weight 1
I1019 10:24:10.097075  8438 net.cpp:156] Memory required for data: 2540562056
I1019 10:24:10.097081  8438 layer_factory.hpp:77] Creating layer fc3_Sideburns
I1019 10:24:10.097090  8438 net.cpp:91] Creating Layer fc3_Sideburns
I1019 10:24:10.097096  8438 net.cpp:425] fc3_Sideburns <- fc2_facialhair_drop2_facialhair_0_split_3
I1019 10:24:10.097108  8438 net.cpp:399] fc3_Sideburns -> fc3_Sideburns
I1019 10:24:10.097281  8438 net.cpp:141] Setting up fc3_Sideburns
I1019 10:24:10.097293  8438 net.cpp:148] Top shape: 64 2 (128)
I1019 10:24:10.097299  8438 net.cpp:156] Memory required for data: 2540562568
I1019 10:24:10.097308  8438 layer_factory.hpp:77] Creating layer loss_Sideburns
I1019 10:24:10.097322  8438 net.cpp:91] Creating Layer loss_Sideburns
I1019 10:24:10.097342  8438 net.cpp:425] loss_Sideburns <- fc3_Sideburns
I1019 10:24:10.097350  8438 net.cpp:425] loss_Sideburns <- label_Sideburns
I1019 10:24:10.097359  8438 net.cpp:399] loss_Sideburns -> loss_Sideburns
I1019 10:24:10.097419  8438 net.cpp:141] Setting up loss_Sideburns
I1019 10:24:10.097430  8438 net.cpp:148] Top shape: (1)
I1019 10:24:10.097436  8438 net.cpp:151]     with loss weight 1
I1019 10:24:10.097445  8438 net.cpp:156] Memory required for data: 2540562572
I1019 10:24:10.097450  8438 layer_factory.hpp:77] Creating layer fc3_Goatee
I1019 10:24:10.097458  8438 net.cpp:91] Creating Layer fc3_Goatee
I1019 10:24:10.097465  8438 net.cpp:425] fc3_Goatee <- fc2_facialhair_drop2_facialhair_0_split_4
I1019 10:24:10.097476  8438 net.cpp:399] fc3_Goatee -> fc3_Goatee
I1019 10:24:10.097651  8438 net.cpp:141] Setting up fc3_Goatee
I1019 10:24:10.097663  8438 net.cpp:148] Top shape: 64 2 (128)
I1019 10:24:10.097669  8438 net.cpp:156] Memory required for data: 2540563084
I1019 10:24:10.097678  8438 layer_factory.hpp:77] Creating layer loss_Goatee
I1019 10:24:10.097692  8438 net.cpp:91] Creating Layer loss_Goatee
I1019 10:24:10.097698  8438 net.cpp:425] loss_Goatee <- fc3_Goatee
I1019 10:24:10.097707  8438 net.cpp:425] loss_Goatee <- label_Goatee
I1019 10:24:10.097714  8438 net.cpp:399] loss_Goatee -> loss_Goatee
I1019 10:24:10.097782  8438 net.cpp:141] Setting up loss_Goatee
I1019 10:24:10.097795  8438 net.cpp:148] Top shape: (1)
I1019 10:24:10.097800  8438 net.cpp:151]     with loss weight 1
I1019 10:24:10.097807  8438 net.cpp:156] Memory required for data: 2540563088
I1019 10:24:10.097812  8438 layer_factory.hpp:77] Creating layer fc3_High_Cheekbones
I1019 10:24:10.097821  8438 net.cpp:91] Creating Layer fc3_High_Cheekbones
I1019 10:24:10.097828  8438 net.cpp:425] fc3_High_Cheekbones <- fc2_cheeks_drop2_cheeks_0_split_0
I1019 10:24:10.097841  8438 net.cpp:399] fc3_High_Cheekbones -> fc3_High_Cheekbones
I1019 10:24:10.098012  8438 net.cpp:141] Setting up fc3_High_Cheekbones
I1019 10:24:10.098024  8438 net.cpp:148] Top shape: 64 2 (128)
I1019 10:24:10.098029  8438 net.cpp:156] Memory required for data: 2540563600
I1019 10:24:10.098038  8438 layer_factory.hpp:77] Creating layer loss_High_Cheekbones
I1019 10:24:10.098052  8438 net.cpp:91] Creating Layer loss_High_Cheekbones
I1019 10:24:10.098059  8438 net.cpp:425] loss_High_Cheekbones <- fc3_High_Cheekbones
I1019 10:24:10.098067  8438 net.cpp:425] loss_High_Cheekbones <- label_High_Cheekbones
I1019 10:24:10.098074  8438 net.cpp:399] loss_High_Cheekbones -> loss_High_Cheekbones
I1019 10:24:10.098134  8438 net.cpp:141] Setting up loss_High_Cheekbones
I1019 10:24:10.098145  8438 net.cpp:148] Top shape: (1)
I1019 10:24:10.098150  8438 net.cpp:151]     with loss weight 1
I1019 10:24:10.098157  8438 net.cpp:156] Memory required for data: 2540563604
I1019 10:24:10.098162  8438 layer_factory.hpp:77] Creating layer fc3_Rosy_Cheeks
I1019 10:24:10.098172  8438 net.cpp:91] Creating Layer fc3_Rosy_Cheeks
I1019 10:24:10.098178  8438 net.cpp:425] fc3_Rosy_Cheeks <- fc2_cheeks_drop2_cheeks_0_split_1
I1019 10:24:10.098191  8438 net.cpp:399] fc3_Rosy_Cheeks -> fc3_Rosy_Cheeks
I1019 10:24:10.098361  8438 net.cpp:141] Setting up fc3_Rosy_Cheeks
I1019 10:24:10.098372  8438 net.cpp:148] Top shape: 64 2 (128)
I1019 10:24:10.098378  8438 net.cpp:156] Memory required for data: 2540564116
I1019 10:24:10.098387  8438 layer_factory.hpp:77] Creating layer loss_Rosy_Cheeks
I1019 10:24:10.098398  8438 net.cpp:91] Creating Layer loss_Rosy_Cheeks
I1019 10:24:10.098407  8438 net.cpp:425] loss_Rosy_Cheeks <- fc3_Rosy_Cheeks
I1019 10:24:10.098414  8438 net.cpp:425] loss_Rosy_Cheeks <- label_Rosy_Cheeks
I1019 10:24:10.098423  8438 net.cpp:399] loss_Rosy_Cheeks -> loss_Rosy_Cheeks
I1019 10:24:10.098482  8438 net.cpp:141] Setting up loss_Rosy_Cheeks
I1019 10:24:10.098493  8438 net.cpp:148] Top shape: (1)
I1019 10:24:10.098500  8438 net.cpp:151]     with loss weight 1
I1019 10:24:10.098506  8438 net.cpp:156] Memory required for data: 2540564120
I1019 10:24:10.098512  8438 layer_factory.hpp:77] Creating layer fc3_Chubby
I1019 10:24:10.098533  8438 net.cpp:91] Creating Layer fc3_Chubby
I1019 10:24:10.098541  8438 net.cpp:425] fc3_Chubby <- fc2_fat_drop2_fat_0_split_0
I1019 10:24:10.098552  8438 net.cpp:399] fc3_Chubby -> fc3_Chubby
I1019 10:24:10.098728  8438 net.cpp:141] Setting up fc3_Chubby
I1019 10:24:10.098740  8438 net.cpp:148] Top shape: 64 2 (128)
I1019 10:24:10.098745  8438 net.cpp:156] Memory required for data: 2540564632
I1019 10:24:10.098754  8438 layer_factory.hpp:77] Creating layer loss_Chubby
I1019 10:24:10.098765  8438 net.cpp:91] Creating Layer loss_Chubby
I1019 10:24:10.098773  8438 net.cpp:425] loss_Chubby <- fc3_Chubby
I1019 10:24:10.098779  8438 net.cpp:425] loss_Chubby <- label_Chubby
I1019 10:24:10.098790  8438 net.cpp:399] loss_Chubby -> loss_Chubby
I1019 10:24:10.098850  8438 net.cpp:141] Setting up loss_Chubby
I1019 10:24:10.098861  8438 net.cpp:148] Top shape: (1)
I1019 10:24:10.098866  8438 net.cpp:151]     with loss weight 1
I1019 10:24:10.098875  8438 net.cpp:156] Memory required for data: 2540564636
I1019 10:24:10.098881  8438 layer_factory.hpp:77] Creating layer fc3_Double_Chin
I1019 10:24:10.098888  8438 net.cpp:91] Creating Layer fc3_Double_Chin
I1019 10:24:10.098896  8438 net.cpp:425] fc3_Double_Chin <- fc2_fat_drop2_fat_0_split_1
I1019 10:24:10.098906  8438 net.cpp:399] fc3_Double_Chin -> fc3_Double_Chin
I1019 10:24:10.102614  8438 net.cpp:141] Setting up fc3_Double_Chin
I1019 10:24:10.102651  8438 net.cpp:148] Top shape: 64 2 (128)
I1019 10:24:10.102663  8438 net.cpp:156] Memory required for data: 2540565148
I1019 10:24:10.102679  8438 layer_factory.hpp:77] Creating layer loss_Double_Chin
I1019 10:24:10.102699  8438 net.cpp:91] Creating Layer loss_Double_Chin
I1019 10:24:10.102726  8438 net.cpp:425] loss_Double_Chin <- fc3_Double_Chin
I1019 10:24:10.102740  8438 net.cpp:425] loss_Double_Chin <- label_Double_Chin
I1019 10:24:10.102753  8438 net.cpp:399] loss_Double_Chin -> loss_Double_Chin
…
