…
    slice_point: 24
    slice_point: 26
    slice_point: 28
    slice_point: 30
    slice_point: 32
    slice_point: 34
    slice_point: 36
    slice_point: 38
    slice_point: 40
    slice_point: 42
    slice_point: 44
    slice_point: 46
    slice_point: 48
    slice_point: 50
    slice_point: 52
    slice_point: 54
    slice_point: 56
    slice_point: 58
    slice_point: 60
    slice_point: 62
    slice_point: 64
    slice_point: 66
    slice_point: 68
    slice_point: 70
    slice_point: 72
    slice_point: 74
    slice_point: 76
    slice_point: 78
  }
}
layer {
  name: "conv1_bn"
  type: "BatchNorm"
  bottom: "conv1"
  top: "conv1"
  batch_norm_param {
    use_global_stats: false
  }
}
layer {
  name: "conv1_scale"
  type: "Scale"
  bottom: "conv1"
  top: "conv1"
  scale_param {
    bias_term: true
  }
}
layer {
  name: "prelu1"
  type: "PReLU"
  bottom: "conv1"
  top: "conv1"
}
layer {
  name: "pool1"
  type: "Pooling"
  bottom: "conv1"
  top: "pool1"
  pooling_param {
    pool: MAX
    kernel_size: 2
    stride: 2
  }
}
layer {
  name: "conv2a"
  type: "Convolution"
  bottom: "pool1"
  top: "conv2a"
  param {
    name: "conv2a_w"
    lr_mult: 1
    decay_mult: 1
  }
  param {
    name: "conv2a_b"
    lr_mult: 2
    decay_mult: 0
  }
  convolution_param {
    num_output: 64
    kernel_size: 1
    weight_filler {
      type: "xavier"
    }
    bias_filler {
      type: "constant"
      value: 0.2
    }
  }
}
layer {
  name: "conv2a_bn"
  type: "BatchNorm"
  bottom: "conv2a"
  top: "conv2a"
  batch_norm_param {
    use_global_stats: false
  }
}
layer {
  name: "conv2a_scale"
  type: "Scale"
  bottom: "conv2a"
  top: "conv2a"
  scale_param {
    bias_term: true
  }
}
layer {
  name: "prelu2a"
  type: "PReLU"
  bottom: "conv2a"
  top: "conv2a"
}
layer {
  name: "conv2"
  type: "Convolution"
  bottom: "conv2a"
  top: "conv2"
  param {
    name: "conv2_w"
    lr_mult: 1
    decay_mult: 1
  }
  param {
    name: "conv2_b"
    lr_mult: 2
    decay_mult: 0
  }
  convolution_param {
    num_output: 192
    pad: 1
    kernel_size: 3
    stride: 1
    weight_filler {
      type: "xavier"
    }
    bias_filler {
      type: "constant"
      value: 0.2
    }
  }
}
layer {
  name: "conv2_bn"
  type: "BatchNorm"
  bottom: "conv2"
  top: "conv2"
  batch_norm_param {
    use_global_stats: false
  }
}
layer {
  name: "conv2_scale"
  type: "Scale"
  bottom: "conv2"
  top: "conv2"
  scale_param {
    bias_term: true
  }
}
layer {
  name: "prelu2"
  type: "PReLU"
  bottom: "conv2"
  top: "conv2"
}
layer {
  name: "pool2"
  type: "Pooling"
  bottom: "conv2"
  top: "pool2"
  pooling_param {
    pool: MAX
    kernel_size: 2
    stride: 2
  }
}
layer {
  name: "conv3a"
  type: "Convolution"
  bottom: "pool2"
  top: "conv3a"
  param {
    name: "conv3a_w"
    lr_mult: 1
    decay_mult: 1
  }
  param {
    name: "conv3a_b"
    lr_mult: 2
    decay_mult: 0
  }
  convolution_param {
    num_output: 192
    kernel_size: 1
    weight_filler {
      type: "xavier"
    }
    bias_filler {
      type: "constant"
      value: 0.2
    }
  }
}
layer {
  name: "conv3a_bn"
  type: "BatchNorm"
  bottom: "conv3a"
  top: "conv3a"
  batch_norm_param {
    use_global_stats: false
  }
}
layer {
  name: "conv3a_scale"
  type: "Scale"
  bottom: "conv3a"
  top: "conv3a"
  scale_param {
    bias_term: true
  }
}
layer {
  name: "prelu3a"
  type: "PReLU"
  bottom: "conv3a"
  top: "conv3a"
}
layer {
  name: "conv3"
  type: "Convolution"
  bottom: "conv3a"
  top: "conv3"
  param {
    name: "conv3_w"
    lr_mult: 1
    decay_mult: 1
  }
  param {
    name: "conv3_b"
    lr_mult: 2
    decay_mult: 0
  }
  convolution_param {
    num_output: 384
    pad: 1
    kernel_size: 3
    stride: 1
    weight_filler {
      type: "xavier"
    }
    bias_filler {
      type: "constant"
      value: 0.2
    }
  }
}
layer {
  name: "conv3_bn"
  type: "BatchNorm"
  bottom: "conv3"
  top: "conv3"
  batch_norm_param {
    use_global_stats: false
  }
}
layer {
  name: "conv3_scale"
  type: "Scale"
  bottom: "conv3"
  top: "conv3"
  scale_param {
    bias_term: true
  }
}
layer {
  name: "prelu3"
  type: "PReLU"
  bottom: "conv3"
  top: "conv3"
}
layer {
  name: "pool3"
  type: "Pooling"
  bottom: "conv3"
  top: "pool3"
  pooling_param {
    pool: MAX
    kernel_size: 2
    stride: 2
  }
}
layer {
  name: "conv3_gender"
  type: "Convolution"
  bottom: "pool3"
  top: "conv3_gender"
  param {
    lr_mult: 1
    decay_mult: 1
  }
  param {
    lr_mult: 2
    decay_mult: 0
  }
  convolution_param {
    num_output: 512
    pad: 1
    kernel_size: 3
    stride: 2
    weight_filler {
      type: "xavier"
    }
    bias_filler {
      type: "constant"
      value: 0.2
    }
  }
}
layer {
  name: "conv3_gender_bn"
  type: "BatchNorm"
  bottom: "conv3_gender"
  top: "conv3_gender"
  batch_norm_param {
    use_global_stats: false
  }
}
layer {
  name: "conv3_gender_scale"
  type: "Scale"
  bottom: "conv3_gender"
  top: "conv3_gender"
  scale_param {
    bias_term: true
  }
}
layer {
  name: "prelu3_gender"
  type: "PReLU"
  bottom: "conv3_gender"
  top: "conv3_gender"
}
layer {
  name: "pool3_gender"
  type: "Pooling"
  bottom: "conv3_gender"
  top: "pool3_gender"
  pooling_param {
    pool: MAX
    kernel_size: 5
    stride: 2
    pad: 2
  }
}
layer {
  name: "fc1_gender"
  type: "InnerProduct"
  bottom: "pool3_gender"
  top: "fc1_gender"
  param {
    lr_mult: 1
    decay_mult: 1
  }
  param {
    lr_mult: 2
    decay_mult: 0
  }
  inner_product_param {
    num_output: 1024
    weight_filler {
      type: "xavier"
    }
    bias_filler {
      type: "constant"
      value: 0.2
    }
  }
}
layer {
  name: "relu1_gender"
  type: "ReLU"
  bottom: "fc1_gender"
  top: "fc1_gender"
}
layer {
  name: "drop1_gender"
  type: "Dropout"
  bottom: "fc1_gender"
  top: "fc1_gender"
  dropout_param {
    dropout_ratio: 0.5
  }
}
layer {
  name: "fc2_gender"
  type: "InnerProduct"
  bottom: "fc1_gender"
  top: "fc2_gender"
  param {
    lr_mult: 1
    decay_mult: 1
  }
  param {
    lr_mult: 2
    decay_mult: 0
  }
  inner_product_param {
    num_output: 1024
    weight_filler {
      type: "xavier"
    }
    bias_filler {
      type: "constant"
      value: 0.2
    }
  }
}
layer {
  name: "relu2_gender"
  type: "ReLU"
  bottom: "fc2_gender"
  top: "fc2_gender"
}
layer {
  name: "drop2_gender"
  type: "Dropout"
  bottom: "fc2_gender"
  top: "fc2_gender"
  dropout_param {
    dropout_ratio: 0.5
  }
}
layer {
  name: "conv3_nose"
  type: "Convolution"
  bottom: "pool3"
  top: "conv3_nose"
  param {
    lr_mult: 1
    decay_mult: 1
  }
  param {
    lr_mult: 2
    decay_mult: 0
  }
  convolution_param {
    num_output: 512
    pad: 1
    kernel_size: 3
    stride: 2
    weight_filler {
      type: "xavier"
    }
    bias_filler {
      type: "constant"
      value: 0.2
    }
  }
}
layer {
  name: "conv3_nose_bn"
  type: "BatchNorm"
  bottom: "conv3_nose"
  top: "conv3_nose"
  batch_norm_param {
    use_global_stats: false
  }
}
layer {
  name: "conv3_nose_scale"
  type: "Scale"
  bottom: "conv3_nose"
  top: "conv3_nose"
  scale_param {
    bias_term: true
  }
}
layer {
  name: "prelu3_nose"
  type: "PReLU"
  bottom: "conv3_nose"
  top: "conv3_nose"
}
layer {
  name: "pool3_nose"
  type: "Pooling"
  bottom: "conv3_nose"
  top: "pool3_nose"
  pooling_param {
    pool: MAX
    kernel_size: 5
    stride: 2
    pad: 2
  }
}
layer {
  name: "fc1_nose"
  type: "InnerProduct"
  bottom: "pool3_nose"
  top: "fc1_nose"
  param {
    lr_mult: 1
    decay_mult: 1
  }
  param {
    lr_mult: 2
    decay_mult: 0
  }
  inner_product_param {
    num_output: 1024
    weight_filler {
      type: "xavier"
    }
    bias_filler {
      type: "constant"
      value: 0.2
    }
  }
}
layer {
  name: "relu1_nose"
  type: "ReLU"
  bottom: "fc1_nose"
  top: "fc1_nose"
}
layer {
  name: "drop1_nose"
  type: "Dropout"
  bottom: "fc1_nose"
  top: "fc1_nose"
  dropout_param {
    dropout_ratio: 0.5
  }
}
layer {
  name: "fc2_nose"
  type: "InnerProduct"
  bottom: "fc1_nose"
  top: "fc2_nose"
  param {
    lr_mult: 1
    decay_mult: 1
  }
  param {
    lr_mult: 2
    decay_mult: 0
  }
  inner_product_param {
    num_output: 1024
    weight_filler {
      type: "xavier"
    }
    bias_filler {
      type: "constant"
      value: 0.2
    }
  }
}
layer {
  name: "relu2_nose"
  type: "ReLU"
  bottom: "fc2_nose"
  top: "fc2_nose"
}
layer {
  name: "drop2_nose"
  type: "Dropout"
  bottom: "fc2_nose"
  top: "fc2_nose"
  dropout_param {
    dropout_ratio: 0.5
  }
}
layer {
  name: "conv3_mouth"
  type: "Convolution"
  bottom: "pool3"
  top: "conv3_mouth"
  param {
    lr_mult: 1
    decay_mult: 1
  }
  param {
    lr_mult: 2
    decay_mult: 0
  }
  convolution_param {
    num_output: 512
    pad: 1
    kernel_size: 3
    stride: 2
    weight_filler {
      type: "xavier"
    }
    bias_filler {
      type: "constant"
      value: 0.2
    }
  }
}
layer {
  name: "conv3_mouth_bn"
  type: "BatchNorm"
  bottom: "conv3_mouth"
  top: "conv3_mouth"
  batch_norm_param {
    use_global_stats: false
  }
}
layer {
  name: "conv3_mouth_scale"
  type: "Scale"
  bottom: "conv3_mouth"
  top: "conv3_mouth"
  scale_param {
    bias_term: true
  }
}
layer {
  name: "prelu3_mouth"
  type: "PReLU"
  bottom: "conv3_mouth"
  top: "conv3_mouth"
}
layer {
  name: "pool3_mouth"
  type: "Pooling"
  bottom: "conv3_mouth"
  top: "pool3_mouth"
  pooling_param {
    pool: MAX
    kernel_size: 5
    stride: 2
    pad: 2
  }
}
layer {
  name: "fc1_mouth"
  type: "InnerProduct"
  bottom: "pool3_mouth"
  top: "fc1_mouth"
  param {
    lr_mult: 1
    decay_mult: 1
  }
  param {
    lr_mult: 2
    decay_mult: 0
  }
  inner_product_param {
    num_output: 1024
    weight_filler {
      type: "xavier"
    }
    bias_filler {
      type: "constant"
      value: 0.2
    }
  }
}
layer {
  name: "relu1_mouth"
  type: "ReLU"
  bottom: "fc1_mouth"
  top: "fc1_mouth"
}
layer {
  name: "drop1_mouth"
  type: "Dropout"
  bottom: "fc1_mouth"
  top: "fc1_mouth"
  dropout_param {
    dropout_ratio: 0.5
  }
}
layer {
  name: "fc2_mouth"
  type: "InnerProduct"
  bottom: "fc1_mouth"
  top: "fc2_mouth"
  param {
    lr_mult: 1
    decay_mult: 1
  }
  param {
    lr_mult: 2
    decay_mult: 0
  }
  inner_product_param {
    num_output: 1024
    weight_filler {
      type: "xavier"
    }
    bias_filler {
      type: "constant"
      value: 0.2
    }
  }
}
layer {
  name: "relu2_mouth"
  type: "ReLU"
  bottom: "fc2_mouth"
  top: "fc2_mouth"
}
layer {
  name: "drop2_mouth"
  type: "Dropout"
  bottom: "fc2_mouth"
  top: "fc2_mouth"
  dropout_param {
    dropout_ratio: 0.5
  }
}
layer {
  name: "conv3_eyes"
  type: "Convolution"
  bottom: "pool3"
  top: "conv3_eyes"
  param {
    lr_mult: 1
    decay_mult: 1
  }
  param {
    lr_mult: 2
    decay_mult: 0
  }
  convolution_param {
    num_output: 512
    pad: 1
    kernel_size: 3
    stride: 2
    weight_filler {
      type: "xavier"
    }
    bias_filler {
      type: "constant"
      value: 0.2
    }
  }
}
layer {
  name: "conv3_eyes_bn"
  type: "BatchNorm"
  bottom: "conv3_eyes"
  top: "conv3_eyes"
  batch_norm_param {
    use_global_stats: false
  }
}
layer {
  name: "conv3_eyes_scale"
  type: "Scale"
  bottom: "conv3_eyes"
  top: "conv3_eyes"
  scale_param {
    bias_term: true
  }
}
layer {
  name: "prelu3_eyes"
  type: "PReLU"
  bottom: "conv3_eyes"
  top: "conv3_eyes"
}
layer {
  name: "pool3_eyes"
  type: "Pooling"
  bottom: "conv3_eyes"
  top: "pool3_eyes"
  pooling_param {
    pool: MAX
    kernel_size: 5
    stride: 2
    pad: 2
  }
}
layer {
  name: "fc1_eyes"
  type: "InnerProduct"
  bottom: "pool3_eyes"
  top: "fc1_eyes"
  param {
    lr_mult: 1
    decay_mult: 1
  }
  param {
    lr_mult: 2
    decay_mult: 0
  }
  inner_product_param {
    num_output: 1024
    weight_filler {
      type: "xavier"
    }
    bias_filler {
      type: "constant"
      value: 0.2
    }
  }
}
layer {
  name: "relu1_eyes"
  type: "ReLU"
  bottom: "fc1_eyes"
  top: "fc1_eyes"
}
layer {
  name: "drop1_eyes"
  type: "Dropout"
  bottom: "fc1_eyes"
  top: "fc1_eyes"
  dropout_param {
    dropout_ratio: 0.5
  }
}
layer {
  name: "fc2_eyes"
  type: "InnerProduct"
  bottom: "fc1_eyes"
  top: "fc2_eyes"
  param {
    lr_mult: 1
    decay_mult: 1
  }
  param {
    lr_mult: 2
    decay_mult: 0
  }
  inner_product_param {
    num_output: 1024
    weight_filler {
      type: "xavier"
    }
    bias_filler {
      type: "constant"
      value: 0.2
    }
  }
}
layer {
  name: "relu2_eyes"
  type: "ReLU"
  bottom: "fc2_eyes"
  top: "fc2_eyes"
}
layer {
  name: "drop2_eyes"
  type: "Dropout"
  bottom: "fc2_eyes"
  top: "fc2_eyes"
  dropout_param {
    dropout_ratio: 0.5
  }
}
layer {
  name: "conv3_face"
  type: "Convolution"
  bottom: "pool3"
  top: "conv3_face"
  param {
    lr_mult: 1
    decay_mult: 1
  }
  param {
    lr_mult: 2
    decay_mult: 0
  }
  convolution_param {
    num_output: 512
    pad: 1
    kernel_size: 3
    stride: 2
    weight_filler {
      type: "xavier"
    }
    bias_filler {
      type: "constant"
      value: 0.2
    }
  }
}
layer {
  name: "conv3_face_bn"
  type: "BatchNorm"
  bottom: "conv3_face"
  top: "conv3_face"
  batch_norm_param {
    use_global_stats: false
  }
}
layer {
  name: "conv3_face_scale"
  type: "Scale"
  bottom: "conv3_face"
  top: "conv3_face"
  scale_param {
    bias_term: true
  }
}
layer {
  name: "prelu3_face"
  type: "PReLU"
  bottom: "conv3_face"
  top: "conv3_face"
}
layer {
  name: "pool3_face"
  type: "Pooling"
  bottom: "conv3_face"
  top: "pool3_face"
  pooling_param {
    pool: MAX
    kernel_size: 5
    stride: 2
    pad: 2
  }
}
layer {
  name: "fc1_face"
  type: "InnerProduct"
  bottom: "pool3_face"
  top: "fc1_face"
  param {
    lr_mult: 1
    decay_mult: 1
  }
  param {
    lr_mult: 2
    decay_mult: 0
  }
  inner_product_param {
    num_output: 1024
    weight_filler {
      type: "xavier"
    }
    bias_filler {
      type: "constant"
      value: 0.2
    }
  }
}
layer {
  name: "relu1_face"
  type: "ReLU"
  bottom: "fc1_face"
  top: "fc1_face"
}
layer {
  name: "drop1_face"
  type: "Dropout"
  bottom: "fc1_face"
  top: "fc1_face"
  dropout_param {
    dropout_ratio: 0.5
  }
}
layer {
  name: "fc2_face"
  type: "InnerProduct"
  bottom: "fc1_face"
  top: "fc2_face"
  param {
    lr_mult: 1
    decay_mult: 1
  }
  param {
    lr_mult: 2
    decay_mult: 0
  }
  inner_product_param {
    num_output: 1024
    weight_filler {
      type: "xavier"
    }
    bias_filler {
      type: "constant"
      value: 0.2
    }
  }
}
layer {
  name: "relu2_face"
  type: "ReLU"
  bottom: "fc2_face"
  top: "fc2_face"
}
layer {
  name: "drop2_face"
  type: "Dropout"
  bottom: "fc2_face"
  top: "fc2_face"
  dropout_param {
    dropout_ratio: 0.5
  }
}
layer {
  name: "conv3_rest"
  type: "Convolution"
  bottom: "pool3"
  top: "conv3_rest"
  param {
    lr_mult: 1
    decay_mult: 1
  }
  param {
    lr_mult: 2
    decay_mult: 0
  }
  convolution_param {
    num_output: 512
    pad: 1
    kernel_size: 3
    stride: 2
    weight_filler {
      type: "xavier"
    }
    bias_filler {
      type: "constant"
      value: 0.2
    }
  }
}
layer {
  name: "conv3_rest_bn"
  type: "BatchNorm"
  bottom: "conv3_rest"
  top: "conv3_rest"
  batch_norm_param {
    use_global_stats: false
  }
}
layer {
  name: "conv3_rest_scale"
  type: "Scale"
  bottom: "conv3_rest"
  top: "conv3_rest"
  scale_param {
    bias_term: true
  }
}
layer {
  name: "prelu3_rest"
  type: "PReLU"
  bottom: "conv3_rest"
  top: "conv3_rest"
}
layer {
  name: "pool3_rest"
  type: "Pooling"
  bottom: "conv3_rest"
  top: "pool3_rest"
  pooling_param {
    pool: MAX
    kernel_size: 5
    stride: 2
    pad: 2
  }
}
layer {
  name: "fc1_aroundhead"
  type: "InnerProduct"
  bottom: "pool3_rest"
  top: "fc1_aroundhead"
  param {
    lr_mult: 1
    decay_mult: 1
  }
  param {
    lr_mult: 2
    decay_mult: 0
  }
  inner_product_param {
    num_output: 1024
    weight_filler {
      type: "xavier"
    }
    bias_filler {
      type: "constant"
      value: 0.2
    }
  }
}
layer {
  name: "relu1_aroundhead"
  type: "ReLU"
  bottom: "fc1_aroundhead"
  top: "fc1_aroundhead"
}
layer {
  name: "drop1_aroundhead"
  type: "Dropout"
  bottom: "fc1_aroundhead"
  top: "fc1_aroundhead"
  dropout_param {
    dropout_ratio: 0.5
  }
}
layer {
  name: "fc2_aroundhead"
  type: "InnerProduct"
  bottom: "fc1_aroundhead"
  top: "fc2_aroundhead"
  param {
    lr_mult: 1
    decay_mult: 1
  }
  param {
    lr_mult: 2
    decay_mult: 0
  }
  inner_product_param {
    num_output: 1024
    weight_filler {
      type: "xavier"
    }
    bias_filler {
      type: "constant"
      value: 0.2
    }
  }
}
layer {
  name: "relu2_aroundhead"
  type: "ReLU"
  bottom: "fc2_aroundhead"
  top: "fc2_aroundhead"
}
layer {
  name: "drop2_aroundhead"
  type: "Dropout"
  bottom: "fc2_aroundhead"
  top: "fc2_aroundhead"
  dropout_param {
    dropout_ratio: 0.5
  }
}
layer {
  name: "fc1_facialhair"
  type: "InnerProduct"
  bottom: "pool3_rest"
  top: "fc1_facialhair"
  param {
    lr_mult: 1
    decay_mult: 1
  }
  param {
    lr_mult: 2
    decay_mult: 0
  }
  inner_product_param {
    num_output: 1024
    weight_filler {
      type: "xavier"
    }
    bias_filler {
      type: "constant"
      value: 0.2
    }
  }
}
layer {
  name: "relu1_facialhair"
  type: "ReLU"
  bottom: "fc1_facialhair"
  top: "fc1_facialhair"
}
layer {
  name: "drop1_facialhair"
  type: "Dropout"
  bottom: "fc1_facialhair"
  top: "fc1_facialhair"
  dropout_param {
    dropout_ratio: 0.5
  }
}
layer {
  name: "fc2_facialhair"
  type: "InnerProduct"
  bottom: "fc1_facialhair"
  top: "fc2_facialhair"
  param {
    lr_mult: 1
    decay_mult: 1
  }
  param {
    lr_mult: 2
    decay_mult: 0
  }
  inner_product_param {
    num_output: 1024
    weight_filler {
      type: "xavier"
    }
    bias_filler {
      type: "constant"
      value: 0.2
    }
  }
}
layer {
  name: "relu2_facialhair"
  type: "ReLU"
  bottom: "fc2_facialhair"
  top: "fc2_facialhair"
}
layer {
  name: "drop2_facialhair"
  type: "Dropout"
  bottom: "fc2_facialhair"
  top: "fc2_facialhair"
  dropout_param {
    dropout_ratio: 0.5
  }
}
layer {
  name: "fc1_cheeks"
  type: "InnerProduct"
  bottom: "pool3_rest"
  top: "fc1_cheeks"
  param {
    lr_mult: 1
    decay_mult: 1
  }
  param {
    lr_mult: 2
    decay_mult: 0
  }
  inner_product_param {
    num_output: 1024
    weight_filler {
      type: "xavier"
    }
    bias_filler {
      type: "constant"
      value: 0.2
    }
  }
}
layer {
  name: "relu1_cheeks"
  type: "ReLU"
  bottom: "fc1_cheeks"
  top: "fc1_cheeks"
}
layer {
  name: "drop1_cheeks"
  type: "Dropout"
  bottom: "fc1_cheeks"
  top: "fc1_cheeks"
  dropout_param {
    dropout_ratio: 0.5
  }
}
layer {
  name: "fc2_cheeks"
  type: "InnerProduct"
  bottom: "fc1_cheeks"
  top: "fc2_cheeks"
  param {
    lr_mult: 1
    decay_mult: 1
  }
  param {
    lr_mult: 2
    decay_mult: 0
  }
  inner_product_param {
    num_output: 1024
    weight_filler {
      type: "xavier"
    }
    bias_filler {
      type: "constant"
      value: 0.2
    }
  }
}
layer {
  name: "relu2_cheeks"
  type: "ReLU"
  bottom: "fc2_cheeks"
  top: "fc2_cheeks"
}
layer {
  name: "drop2_cheeks"
  type: "Dropout"
  bottom: "fc2_cheeks"
  top: "fc2_cheeks"
  dropout_param {
    dropout_ratio: 0.5
  }
}
layer {
  name: "fc1_fat"
  type: "InnerProduct"
  bottom: "pool3_rest"
  top: "fc1_fat"
  param {
    lr_mult: 1
    decay_mult: 1
  }
  param {
    lr_mult: 2
    decay_mult: 0
  }
  inner_product_param {
    num_output: 1024
    weight_filler {
      type: "xavier"
    }
    bias_filler {
      type: "constant"
      value: 0.2
    }
  }
}
layer {
  name: "relu1_fat"
  type: "ReLU"
  bottom: "fc1_fat"
  top: "fc1_fat"
}
layer {
  name: "drop1_fat"
  type: "Dropout"
  bottom: "fc1_fat"
  top: "fc1_fat"
  dropout_param {
    dropout_ratio: 0.5
  }
}
layer {
  name: "fc2_fat"
  type: "InnerProduct"
  bottom: "fc1_fat"
  top: "fc2_fat"
  param {
    lr_mult: 1
    decay_mult: 1
  }
  param {
    lr_mult: 2
    decay_mult: 0
  }
  inner_product_param {
    num_output: 1024
    weight_filler {
      type: "xavier"
    }
    bias_filler {
      type: "constant"
      value: 0.2
    }
  }
}
layer {
  name: "relu2_fat"
  type: "ReLU"
  bottom: "fc2_fat"
  top: "fc2_fat"
}
layer {
  name: "drop2_fat"
  type: "Dropout"
  bottom: "fc2_fat"
  top: "fc2_fat"
  dropout_param {
    dropout_ratio: 0.5
  }
}
layer {
  name: "fc3_Male"
  type: "InnerProduct"
  bottom: "fc2_gender"
  top: "fc3_Male"
  inner_product_param {
    num_output: 2
    weight_filler {
      type: "xavier"
    }
    bias_filler {
      type: "constant"
      value: 0
    }
  }
}
layer {
  name: "loss_Male"
  type: "SigmoidCrossEntropyLoss"
  bottom: "fc3_Male"
  bottom: "label_Male"
  top: "loss_Male"
}
layer {
  name: "fc3_Big_Nose"
  type: "InnerProduct"
  bottom: "fc2_nose"
  top: "fc3_Big_Nose"
  inner_product_param {
    num_output: 2
    weight_filler {
      type: "xavier"
    }
    bias_filler {
      type: "constant"
      value: 0
    }
  }
}
layer {
  name: "loss_Big_Nose"
  type: "SigmoidCrossEntropyLoss"
  bottom: "fc3_Big_Nose"
  bottom: "label_Big_Nose"
  top: "loss_Big_Nose"
}
layer {
  name: "fc3_Pointy_Nose"
  type: "InnerProduct"
  bottom: "fc2_nose"
  top: "fc3_Pointy_Nose"
  inner_product_param {
    num_output: 2
    weight_filler {
      type: "xavier"
    }
    bias_filler {
      type: "constant"
      value: 0
    }
  }
}
layer {
  name: "loss_Pointy_Nose"
  type: "SigmoidCrossEntropyLoss"
  bottom: "fc3_Pointy_Nose"
  bottom: "label_Pointy_Nose"
  top: "loss_Pointy_Nose"
}
layer {
  name: "fc3_Big_Lips"
  type: "InnerProduct"
  bottom: "fc2_mouth"
  top: "fc3_Big_Lips"
  inner_product_param {
    num_output: 2
    weight_filler {
      type: "xavier"
    }
    bias_filler {
      type: "constant"
      value: 0
    }
  }
}
layer {
  name: "loss_Big_Lips"
  type: "SigmoidCrossEntropyLoss"
  bottom: "fc3_Big_Lips"
  bottom: "label_Big_Lips"
  top: "loss_Big_Lips"
}
layer {
  name: "fc3_Smiling"
  type: "InnerProduct"
  bottom: "fc2_mouth"
  top: "fc3_Smiling"
  inner_product_param {
    num_output: 2
    weight_filler {
      type: "xavier"
    }
    bias_filler {
      type: "constant"
      value: 0
    }
  }
}
layer {
  name: "loss_Smiling"
  type: "SigmoidCrossEntropyLoss"
  bottom: "fc3_Smiling"
  bottom: "label_Smiling"
  top: "loss_Smiling"
}
layer {
  name: "fc3_Wearing_Lipstick"
  type: "InnerProduct"
  bottom: "fc2_mouth"
  top: "fc3_Wearing_Lipstick"
  inner_product_param {
    num_output: 2
    weight_filler {
      type: "xavier"
    }
    bias_filler {
      type: "constant"
      value: 0
    }
  }
}
layer {
  name: "loss_Wearing_Lipstick"
  type: "SigmoidCrossEntropyLoss"
  bottom: "fc3_Wearing_Lipstick"
  bottom: "label_Wearing_Lipstick"
  top: "loss_Wearing_Lipstick"
}
layer {
  name: "fc3_Mouth_Slightly_Open"
  type: "InnerProduct"
  bottom: "fc2_mouth"
  top: "fc3_Mouth_Slightly_Open"
  inner_product_param {
    num_output: 2
    weight_filler {
      type: "xavier"
    }
    bias_filler {
      type: "constant"
      value: 0
    }
  }
}
layer {
  name: "loss_Mouth_Slightly_Open"
  type: "SigmoidCrossEntropyLoss"
  bottom: "fc3_Mouth_Slightly_Open"
  bottom: "label_Mouth_Slightly_Open"
  top: "loss_Mouth_Slightly_Open"
}
layer {
  name: "fc3_Arched_Eyebrows"
  type: "InnerProduct"
  bottom: "fc2_eyes"
  top: "fc3_Arched_Eyebrows"
  inner_product_param {
    num_output: 2
    weight_filler {
      type: "xavier"
    }
    bias_filler {
      type: "constant"
      value: 0
    }
  }
}
layer {
  name: "loss_Arched_Eyebrows"
  type: "SigmoidCrossEntropyLoss"
  bottom: "fc3_Arched_Eyebrows"
  bottom: "label_Arched_Eyebrows"
  top: "loss_Arched_Eyebrows"
}
layer {
  name: "fc3_Bags_Under_Eyes"
  type: "InnerProduct"
  bottom: "fc2_eyes"
  top: "fc3_Bags_Under_Eyes"
  inner_product_param {
    num_output: 2
    weight_filler {
      type: "xavier"
    }
    bias_filler {
      type: "constant"
      value: 0
    }
  }
}
layer {
  name: "loss_Bags_Under_Eyes"
  type: "SigmoidCrossEntropyLoss"
  bottom: "fc3_Bags_Under_Eyes"
  bottom: "label_Bags_Under_Eyes"
  top: "loss_Bags_Under_Eyes"
}
layer {
  name: "fc3_Bushy_Eyebrows"
  type: "InnerProduct"
  bottom: "fc2_eyes"
  top: "fc3_Bushy_Eyebrows"
  inner_product_param {
    num_output: 2
    weight_filler {
      type: "xavier"
    }
    bias_filler {
      type: "constant"
      value: 0
    }
  }
}
layer {
  name: "loss_Bushy_Eyebrows"
  type: "SigmoidCrossEntropyLoss"
  bottom: "fc3_Bushy_Eyebrows"
  bottom: "label_Bushy_Eyebrows"
  top: "loss_Bushy_Eyebrows"
}
layer {
  name: "fc3_Narrow_Eyes"
  type: "InnerProduct"
  bottom: "fc2_eyes"
  top: "fc3_Narrow_Eyes"
  inner_product_param {
    num_output: 2
    weight_filler {
      type: "xavier"
    }
    bias_filler {
      type: "constant"
      value: 0
    }
  }
}
layer {
  name: "loss_Narrow_Eyes"
  type: "SigmoidCrossEntropyLoss"
  bottom: "fc3_Narrow_Eyes"
  bottom: "label_Narrow_Eyes"
  top: "loss_Narrow_Eyes"
}
layer {
  name: "fc3_Eyeglasses"
  type: "InnerProduct"
  bottom: "fc2_eyes"
  top: "fc3_Eyeglasses"
  inner_product_param {
    num_output: 2
    weight_filler {
      type: "xavier"
    }
    bias_filler {
      type: "constant"
      value: 0
    }
  }
}
layer {
  name: "loss_Eyeglasses"
  type: "SigmoidCrossEntropyLoss"
  bottom: "fc3_Eyeglasses"
  bottom: "label_Eyeglasses"
  top: "loss_Eyeglasses"
}
layer {
  name: "fc3_Attractive"
  type: "InnerProduct"
  bottom: "fc2_face"
  top: "fc3_Attractive"
  inner_product_param {
    num_output: 2
    weight_filler {
      type: "xavier"
    }
    bias_filler {
      type: "constant"
      value: 0
    }
  }
}
layer {
  name: "loss_Attractive"
  type: "SigmoidCrossEntropyLoss"
  bottom: "fc3_Attractive"
  bottom: "label_Attractive"
  top: "loss_Attractive"
}
layer {
  name: "fc3_Blurry"
  type: "InnerProduct"
  bottom: "fc2_face"
  top: "fc3_Blurry"
  inner_product_param {
    num_output: 2
    weight_filler {
      type: "xavier"
    }
    bias_filler {
      type: "constant"
      value: 0
    }
  }
}
layer {
  name: "loss_Blurry"
  type: "SigmoidCrossEntropyLoss"
  bottom: "fc3_Blurry"
  bottom: "label_Blurry"
  top: "loss_Blurry"
}
layer {
  name: "fc3_Oval_Face"
  type: "InnerProduct"
  bottom: "fc2_face"
  top: "fc3_Oval_Face"
  inner_product_param {
    num_output: 2
    weight_filler {
      type: "xavier"
    }
    bias_filler {
      type: "constant"
      value: 0
    }
  }
}
layer {
  name: "loss_Oval_Face"
  type: "SigmoidCrossEntropyLoss"
  bottom: "fc3_Oval_Face"
  bottom: "label_Oval_Face"
  top: "loss_Oval_Face"
}
layer {
  name: "fc3_Pale_Skin"
  type: "InnerProduct"
  bottom: "fc2_face"
  top: "fc3_Pale_Skin"
  inner_product_param {
    num_output: 2
    weight_filler {
      type: "xavier"
    }
    bias_filler {
      type: "constant"
      value: 0
    }
  }
}
layer {
  name: "loss_Pale_Skin"
  type: "SigmoidCrossEntropyLoss"
  bottom: "fc3_Pale_Skin"
  bottom: "label_Pale_Skin"
  top: "loss_Pale_Skin"
}
layer {
  name: "fc3_Young"
  type: "InnerProduct"
  bottom: "fc2_face"
  top: "fc3_Young"
  inner_product_param {
    num_output: 2
    weight_filler {
      type: "xavier"
    }
    bias_filler {
      type: "constant"
      value: 0
    }
  }
}
layer {
  name: "loss_Young"
  type
I1025 11:39:44.559029 23553 layer_factory.hpp:77] Creating layer data
I1025 11:39:44.559082 23553 net.cpp:106] Creating Layer data
I1025 11:39:44.559092 23553 net.cpp:411] data -> data
I1025 11:39:44.559123 23553 net.cpp:411] data -> label
I1025 11:39:44.559137 23553 data_transformer.cpp:26] Loading mean file from: /home/zhangyuan/caojiajiong/attribute_learning/data/train_attr_id.binaryproto
I1025 11:39:44.574138 23553 image_data_layer.cpp:38] Opening file /home/zhangyuan/caojiajiong/attribute_learning/list/train_75p_shuffle.txt
I1025 11:39:44.591778 23553 image_data_layer.cpp:53] A total of 41600 images.
I1025 11:39:44.592769 23553 image_data_layer.cpp:80] output data size: 70,3,112,112
I1025 11:39:44.611260 23553 net.cpp:150] Setting up data
I1025 11:39:44.611304 23553 net.cpp:157] Top shape: 70 3 112 112 (2634240)
I1025 11:39:44.611312 23553 net.cpp:157] Top shape: 70 (70)
I1025 11:39:44.611316 23553 net.cpp:165] Memory required for data: 10537240
I1025 11:39:44.611327 23553 layer_factory.hpp:77] Creating layer label_data_1_split
I1025 11:39:44.611351 23553 net.cpp:106] Creating Layer label_data_1_split
I1025 11:39:44.611358 23553 net.cpp:454] label_data_1_split <- label
I1025 11:39:44.611374 23553 net.cpp:411] label_data_1_split -> label_data_1_split_0
I1025 11:39:44.611389 23553 net.cpp:411] label_data_1_split -> label_data_1_split_1
I1025 11:39:44.611498 23553 net.cpp:150] Setting up label_data_1_split
I1025 11:39:44.611510 23553 net.cpp:157] Top shape: 70 (70)
I1025 11:39:44.611515 23553 net.cpp:157] Top shape: 70 (70)
I1025 11:39:44.611520 23553 net.cpp:165] Memory required for data: 10537800
I1025 11:39:44.611524 23553 layer_factory.hpp:77] Creating layer attr_data
I1025 11:39:44.611651 23553 net.cpp:106] Creating Layer attr_data
I1025 11:39:44.611663 23553 net.cpp:411] attr_data -> attr_data
I1025 11:39:44.611675 23553 net.cpp:411] attr_data -> fakelabel
I1025 11:39:44.615309 23560 db_lmdb.cpp:38] Opened lmdb /home/zhangyuan/caojiajiong/attribute_learning/data/attr_train_75p
I1025 11:39:44.615501 23553 data_layer.cpp:41] output data size: 70,80,1,1
I1025 11:39:44.616487 23553 net.cpp:150] Setting up attr_data
I1025 11:39:44.616506 23553 net.cpp:157] Top shape: 70 80 1 1 (5600)
I1025 11:39:44.616513 23553 net.cpp:157] Top shape: 70 (70)
I1025 11:39:44.616516 23553 net.cpp:165] Memory required for data: 10560480
I1025 11:39:44.616520 23553 layer_factory.hpp:77] Creating layer conv1
I1025 11:39:44.616544 23553 net.cpp:106] Creating Layer conv1
I1025 11:39:44.616549 23553 net.cpp:454] conv1 <- data
I1025 11:39:44.616557 23553 net.cpp:411] conv1 -> conv1
I1025 11:39:44.862411 23553 net.cpp:150] Setting up conv1
I1025 11:39:44.862465 23553 net.cpp:157] Top shape: 70 64 112 112 (56197120)
I1025 11:39:44.862471 23553 net.cpp:165] Memory required for data: 235348960
I1025 11:39:44.862493 23553 layer_factory.hpp:77] Creating layer slice
I1025 11:39:44.862519 23553 net.cpp:106] Creating Layer slice
I1025 11:39:44.862525 23553 net.cpp:454] slice <- attr_data
I1025 11:39:44.862534 23553 net.cpp:411] slice -> label_5_o_Clock_Shadow
I1025 11:39:44.862557 23553 net.cpp:411] slice -> label_Arched_Eyebrows
…
I1025 11:39:44.862841 23553 net.cpp:411] slice -> label_Straight_Hair
I1025 11:39:44.862850 23553 net.cpp:411] slice -> label_Wavy_Hair
I1025 11:39:44.862859 23553 net.cpp:411] slice -> label_Wearing_Earrings
I1025 11:39:44.862867 23553 net.cpp:411] slice -> label_Wearing_Hat
I1025 11:39:44.862895 23553 net.cpp:411] slice -> label_Wearing_Lipstick
I1025 11:39:44.862905 23553 net.cpp:411] slice -> label_Wearing_Necklace
I1025 11:39:44.862913 23553 net.cpp:411] slice -> label_Wearing_Necktie
I1025 11:39:44.862922 23553 net.cpp:411] slice -> label_Young
I1025 11:39:44.863350 23553 net.cpp:150] Setting up slice
I1025 11:39:44.863363 23553 net.cpp:157] Top shape: 70 2 1 1 (140)
I1025 11:39:44.863373 23553 net.cpp:157] Top shape: 70 2 1 1 (140)
I1025 11:39:44.863376 23553 net.cpp:157] Top shape: 70 2 1 1 (140)
I1025 11:39:44.863380 23553 net.cpp:157] Top shape: 70 2 1 1 (140)
I1025 11:39:44.863384 23553 net.cpp:157] Top shape: 70 2 1 1 (140)
I1025 11:39:44.863389 23553 net.cpp:157] Top shape: 70 2 1 1 (140)
I1025 11:39:44.863392 23553 net.cpp:157] Top shape: 70 2 1 1 (140)
I1025 11:39:44.863396 23553 net.cpp:157] Top shape: 70 2 1 1 (140)
I1025 11:39:44.863400 23553 net.cpp:157] Top shape: 70 2 1 1 (140)
I1025 11:39:44.863404 23553 net.cpp:157] Top shape: 70 2 1 1 (140)
I1025 11:39:44.863410 23553 net.cpp:157] Top shape: 70 2 1 1 (140)
I1025 11:39:44.863415 23553 net.cpp:157] Top shape: 70 2 1 1 (140)
I1025 11:39:44.863420 23553 net.cpp:157] Top shape: 70 2 1 1 (140)
I1025 11:39:44.863423 23553 net.cpp:157] Top shape: 70 2 1 1 (140)
I1025 11:39:44.863428 23553 net.cpp:157] Top shape: 70 2 1 1 (140)
I1025 11:39:44.863433 23553 net.cpp:157] Top shape: 70 2 1 1 (140)
I1025 11:39:44.863436 23553 net.cpp:157] Top shape: 70 2 1 1 (140)
I1025 11:39:44.863441 23553 net.cpp:157] Top shape: 70 2 1 1 (140)
I1025 11:39:44.863445 23553 net.cpp:157] Top shape: 70 2 1 1 (140)
I1025 11:39:44.863448 23553 net.cpp:157] Top shape: 70 2 1 1 (140)
I1025 11:39:44.863452 23553 net.cpp:157] Top shape: 70 2 1 1 (140)
I1025 11:39:44.863457 23553 net.cpp:157] Top shape: 70 2 1 1 (140)
I1025 11:39:44.863461 23553 net.cpp:157] Top shape: 70 2 1 1 (140)
I1025 11:39:44.863466 23553 net.cpp:157] Top shape: 70 2 1 1 (140)
I1025 11:39:44.863469 23553 net.cpp:157] Top shape: 70 2 1 1 (140)
I1025 11:39:44.863473 23553 net.cpp:157] Top shape: 70 2 1 1 (140)
I1025 11:39:44.863477 23553 net.cpp:157] Top shape: 70 2 1 1 (140)
I1025 11:39:44.863481 23553 net.cpp:157] Top shape: 70 2 1 1 (140)
I1025 11:39:44.863486 23553 net.cpp:157] Top shape: 70 2 1 1 (140)
I1025 11:39:44.863489 23553 net.cpp:157] Top shape: 70 2 1 1 (140)
I1025 11:39:44.863493 23553 net.cpp:157] Top shape: 70 2 1 1 (140)
I1025 11:39:44.863497 23553 net.cpp:157] Top shape: 70 2 1 1 (140)
I1025 11:39:44.863502 23553 net.cpp:157] Top shape: 70 2 1 1 (140)
I1025 11:39:44.863505 23553 net.cpp:157] Top shape: 70 2 1 1 (140)
I1025 11:39:44.863508 23553 net.cpp:157] Top shape: 70 2 1 1 (140)
I1025 11:39:44.863512 23553 net.cpp:157] Top shape: 70 2 1 1 (140)
I1025 11:39:44.863517 23553 net.cpp:157] Top shape: 70 2 1 1 (140)
I1025 11:39:44.863520 23553 net.cpp:157] Top shape: 70 2 1 1 (140)
I1025 11:39:44.863524 23553 net.cpp:157] Top shape: 70 2 1 1 (140)
I1025 11:39:44.863528 23553 net.cpp:157] Top shape: 70 2 1 1 (140)
I1025 11:39:44.863531 23553 net.cpp:165] Memory required for data: 235371360
I1025 11:39:44.863535 23553 layer_factory.hpp:77] Creating layer conv1_bn
I1025 11:39:44.863544 23553 net.cpp:106] Creating Layer conv1_bn
I1025 11:39:44.863548 23553 net.cpp:454] conv1_bn <- conv1
I1025 11:39:44.863554 23553 net.cpp:397] conv1_bn -> conv1 (in-place)
I1025 11:39:44.863739 23553 net.cpp:150] Setting up conv1_bn
I1025 11:39:44.863747 23553 net.cpp:157] Top shape: 70 64 112 112 (56197120)
I1025 11:39:44.863751 23553 net.cpp:165] Memory required for data: 460159840
I1025 11:39:44.863773 23553 layer_factory.hpp:77] Creating layer conv1_scale
I1025 11:39:44.863791 23553 net.cpp:106] Creating Layer conv1_scale
I1025 11:39:44.863795 23553 net.cpp:454] conv1_scale <- conv1
I1025 11:39:44.863801 23553 net.cpp:397] conv1_scale -> conv1 (in-place)
I1025 11:39:44.863852 23553 layer_factory.hpp:77] Creating layer conv1_scale
I1025 11:39:44.864002 23553 net.cpp:150] Setting up conv1_scale
I1025 11:39:44.864012 23553 net.cpp:157] Top shape: 70 64 112 112 (56197120)
I1025 11:39:44.864027 23553 net.cpp:165] Memory required for data: 684948320
I1025 11:39:44.864034 23553 layer_factory.hpp:77] Creating layer prelu1
I1025 11:39:44.864051 23553 net.cpp:106] Creating Layer prelu1
I1025 11:39:44.864055 23553 net.cpp:454] prelu1 <- conv1
I1025 11:39:44.864061 23553 net.cpp:397] prelu1 -> conv1 (in-place)
I1025 11:39:44.866097 23553 net.cpp:150] Setting up prelu1
I1025 11:39:44.866114 23553 net.cpp:157] Top shape: 70 64 112 112 (56197120)
I1025 11:39:44.866118 23553 net.cpp:165] Memory required for data: 909736800
I1025 11:39:44.866124 23553 layer_factory.hpp:77] Creating layer pool1
I1025 11:39:44.866134 23553 net.cpp:106] Creating Layer pool1
I1025 11:39:44.866138 23553 net.cpp:454] pool1 <- conv1
I1025 11:39:44.866144 23553 net.cpp:411] pool1 -> pool1
I1025 11:39:44.866513 23553 net.cpp:150] Setting up pool1
I1025 11:39:44.866528 23553 net.cpp:157] Top shape: 70 64 56 56 (14049280)
I1025 11:39:44.866533 23553 net.cpp:165] Memory required for data: 965933920
I1025 11:39:44.866538 23553 layer_factory.hpp:77] Creating layer conv2a
I1025 11:39:44.866549 23553 net.cpp:106] Creating Layer conv2a
I1025 11:39:44.866554 23553 net.cpp:454] conv2a <- pool1
I1025 11:39:44.866561 23553 net.cpp:411] conv2a -> conv2a
I1025 11:39:44.867607 23553 net.cpp:150] Setting up conv2a
I1025 11:39:44.867624 23553 net.cpp:157] Top shape: 70 64 56 56 (14049280)
I1025 11:39:44.867629 23553 net.cpp:165] Memory required for data: 1022131040
I1025 11:39:44.867638 23553 layer_factory.hpp:77] Creating layer conv2a_bn
I1025 11:39:44.867645 23553 net.cpp:106] Creating Layer conv2a_bn
I1025 11:39:44.867650 23553 net.cpp:454] conv2a_bn <- conv2a
I1025 11:39:44.867656 23553 net.cpp:397] conv2a_bn -> conv2a (in-place)
I1025 11:39:44.867882 23553 net.cpp:150] Setting up conv2a_bn
I1025 11:39:44.867892 23553 net.cpp:157] Top shape: 70 64 56 56 (14049280)
I1025 11:39:44.867897 23553 net.cpp:165] Memory required for data: 1078328160
I1025 11:39:44.867904 23553 layer_factory.hpp:77] Creating layer conv2a_scale
I1025 11:39:44.867911 23553 net.cpp:106] Creating Layer conv2a_scale
I1025 11:39:44.867915 23553 net.cpp:454] conv2a_scale <- conv2a
I1025 11:39:44.867920 23553 net.cpp:397] conv2a_scale -> conv2a (in-place)
I1025 11:39:44.867966 23553 layer_factory.hpp:77] Creating layer conv2a_scale
I1025 11:39:44.868103 23553 net.cpp:150] Setting up conv2a_scale
I1025 11:39:44.868115 23553 net.cpp:157] Top shape: 70 64 56 56 (14049280)
I1025 11:39:44.868119 23553 net.cpp:165] Memory required for data: 1134525280
I1025 11:39:44.868125 23553 layer_factory.hpp:77] Creating layer prelu2a
I1025 11:39:44.868135 23553 net.cpp:106] Creating Layer prelu2a
I1025 11:39:44.868139 23553 net.cpp:454] prelu2a <- conv2a
I1025 11:39:44.868144 23553 net.cpp:397] prelu2a -> conv2a (in-place)
I1025 11:39:44.869067 23553 net.cpp:150] Setting up prelu2a
I1025 11:39:44.869083 23553 net.cpp:157] Top shape: 70 64 56 56 (14049280)
I1025 11:39:44.869086 23553 net.cpp:165] Memory required for data: 1190722400
I1025 11:39:44.869092 23553 layer_factory.hpp:77] Creating layer conv2
I1025 11:39:44.869102 23553 net.cpp:106] Creating Layer conv2
I1025 11:39:44.869107 23553 net.cpp:454] conv2 <- conv2a
I1025 11:39:44.869115 23553 net.cpp:411] conv2 -> conv2
I1025 11:39:44.871467 23553 net.cpp:150] Setting up conv2
I1025 11:39:44.871484 23553 net.cpp:157] Top shape: 70 192 56 56 (42147840)
I1025 11:39:44.871487 23553 net.cpp:165] Memory required for data: 1359313760
I1025 11:39:44.871497 23553 layer_factory.hpp:77] Creating layer conv2_bn
I1025 11:39:44.871505 23553 net.cpp:106] Creating Layer conv2_bn
I1025 11:39:44.871510 23553 net.cpp:454] conv2_bn <- conv2
I1025 11:39:44.871517 23553 net.cpp:397] conv2_bn -> conv2 (in-place)
I1025 11:39:44.871711 23553 net.cpp:150] Setting up conv2_bn
I1025 11:39:44.871721 23553 net.cpp:157] Top shape: 70 192 56 56 (42147840)
I1025 11:39:44.871724 23553 net.cpp:165] Memory required for data: 1527905120
I1025 11:39:44.871732 23553 layer_factory.hpp:77] Creating layer conv2_scale
I1025 11:39:44.871740 23553 net.cpp:106] Creating Layer conv2_scale
I1025 11:39:44.871757 23553 net.cpp:454] conv2_scale <- conv2
I1025 11:39:44.871762 23553 net.cpp:397] conv2_scale -> conv2 (in-place)
I1025 11:39:44.871811 23553 layer_factory.hpp:77] Creating layer conv2_scale
I1025 11:39:44.871953 23553 net.cpp:150] Setting up conv2_scale
I1025 11:39:44.871964 23553 net.cpp:157] Top shape: 70 192 56 56 (42147840)
I1025 11:39:44.871968 23553 net.cpp:165] Memory required for data: 1696496480
I1025 11:39:44.871974 23553 layer_factory.hpp:77] Creating layer prelu2
I1025 11:39:44.871984 23553 net.cpp:106] Creating Layer prelu2
I1025 11:39:44.871987 23553 net.cpp:454] prelu2 <- conv2
I1025 11:39:44.871992 23553 net.cpp:397] prelu2 -> conv2 (in-place)
I1025 11:39:44.873780 23553 net.cpp:150] Setting up prelu2
I1025 11:39:44.873795 23553 net.cpp:157] Top shape: 70 192 56 56 (42147840)
I1025 11:39:44.873798 23553 net.cpp:165] Memory required for data: 1865087840
I1025 11:39:44.873805 23553 layer_factory.hpp:77] Creating layer pool2
I1025 11:39:44.873811 23553 net.cpp:106] Creating Layer pool2
I1025 11:39:44.873816 23553 net.cpp:454] pool2 <- conv2
I1025 11:39:44.873823 23553 net.cpp:411] pool2 -> pool2
I1025 11:39:44.874186 23553 net.cpp:150] Setting up pool2
I1025 11:39:44.874202 23553 net.cpp:157] Top shape: 70 192 28 28 (10536960)
I1025 11:39:44.874205 23553 net.cpp:165] Memory required for data: 1907235680
I1025 11:39:44.874209 23553 layer_factory.hpp:77] Creating layer conv3a
I1025 11:39:44.874222 23553 net.cpp:106] Creating Layer conv3a
I1025 11:39:44.874227 23553 net.cpp:454] conv3a <- pool2
I1025 11:39:44.874233 23553 net.cpp:411] conv3a -> conv3a
I1025 11:39:44.876188 23553 net.cpp:150] Setting up conv3a
I1025 11:39:44.876205 23553 net.cpp:157] Top shape: 70 192 28 28 (10536960)
I1025 11:39:44.876211 23553 net.cpp:165] Memory required for data: 1949383520
I1025 11:39:44.876219 23553 layer_factory.hpp:77] Creating layer conv3a_bn
I1025 11:39:44.876224 23553 net.cpp:106] Creating Layer conv3a_bn
I1025 11:39:44.876230 23553 net.cpp:454] conv3a_bn <- conv3a
I1025 11:39:44.876237 23553 net.cpp:397] conv3a_bn -> conv3a (in-place)
I1025 11:39:44.876437 23553 net.cpp:150] Setting up conv3a_bn
I1025 11:39:44.876447 23553 net.cpp:157] Top shape: 70 192 28 28 (10536960)
I1025 11:39:44.876452 23553 net.cpp:165] Memory required for data: 1991531360
I1025 11:39:44.876461 23553 layer_factory.hpp:77] Creating layer conv3a_scale
I1025 11:39:44.876468 23553 net.cpp:106] Creating Layer conv3a_scale
I1025 11:39:44.876472 23553 net.cpp:454] conv3a_scale <- conv3a
I1025 11:39:44.876480 23553 net.cpp:397] conv3a_scale -> conv3a (in-place)
I1025 11:39:44.876519 23553 layer_factory.hpp:77] Creating layer conv3a_scale
I1025 11:39:44.876649 23553 net.cpp:150] Setting up conv3a_scale
I1025 11:39:44.876660 23553 net.cpp:157] Top shape: 70 192 28 28 (10536960)
I1025 11:39:44.876664 23553 net.cpp:165] Memory required for data: 2033679200
I1025 11:39:44.876670 23553 layer_factory.hpp:77] Creating layer prelu3a
I1025 11:39:44.876678 23553 net.cpp:106] Creating Layer prelu3a
I1025 11:39:44.876682 23553 net.cpp:454] prelu3a <- conv3a
I1025 11:39:44.876687 23553 net.cpp:397] prelu3a -> conv3a (in-place)
I1025 11:39:44.876879 23553 net.cpp:150] Setting up prelu3a
I1025 11:39:44.876890 23553 net.cpp:157] Top shape: 70 192 28 28 (10536960)
I1025 11:39:44.876894 23553 net.cpp:165] Memory required for data: 2075827040
I1025 11:39:44.876899 23553 layer_factory.hpp:77] Creating layer conv3
I1025 11:39:44.876910 23553 net.cpp:106] Creating Layer conv3
I1025 11:39:44.876914 23553 net.cpp:454] conv3 <- conv3a
I1025 11:39:44.876922 23553 net.cpp:411] conv3 -> conv3
I1025 11:39:44.883863 23553 net.cpp:150] Setting up conv3
I1025 11:39:44.883882 23553 net.cpp:157] Top shape: 70 384 28 28 (21073920)
I1025 11:39:44.883885 23553 net.cpp:165] Memory required for data: 2160122720
I1025 11:39:44.883898 23553 layer_factory.hpp:77] Creating layer conv3_bn
I1025 11:39:44.883906 23553 net.cpp:106] Creating Layer conv3_bn
I1025 11:39:44.883910 23553 net.cpp:454] conv3_bn <- conv3
I1025 11:39:44.883918 23553 net.cpp:397] conv3_bn -> conv3 (in-place)
I1025 11:39:44.884119 23553 net.cpp:150] Setting up conv3_bn
I1025 11:39:44.884129 23553 net.cpp:157] Top shape: 70 384 28 28 (21073920)
I1025 11:39:44.884132 23553 net.cpp:165] Memory required for data: 2244418400
I1025 11:39:44.884140 23553 layer_factory.hpp:77] Creating layer conv3_scale
I1025 11:39:44.884147 23553 net.cpp:106] Creating Layer conv3_scale
I1025 11:39:44.884151 23553 net.cpp:454] conv3_scale <- conv3
I1025 11:39:44.884156 23553 net.cpp:397] conv3_scale -> conv3 (in-place)
I1025 11:39:44.884197 23553 layer_factory.hpp:77] Creating layer conv3_scale
I1025 11:39:44.884305 23553 net.cpp:150] Setting up conv3_scale
I1025 11:39:44.884313 23553 net.cpp:157] Top shape: 70 384 28 28 (21073920)
I1025 11:39:44.884316 23553 net.cpp:165] Memory required for data: 2328714080
I1025 11:39:44.884323 23553 layer_factory.hpp:77] Creating layer prelu3
I1025 11:39:44.884330 23553 net.cpp:106] Creating Layer prelu3
I1025 11:39:44.884333 23553 net.cpp:454] prelu3 <- conv3
I1025 11:39:44.884338 23553 net.cpp:397] prelu3 -> conv3 (in-place)
I1025 11:39:44.885407 23553 net.cpp:150] Setting up prelu3
I1025 11:39:44.885422 23553 net.cpp:157] Top shape: 70 384 28 28 (21073920)
I1025 11:39:44.885426 23553 net.cpp:165] Memory required for data: 2413009760
I1025 11:39:44.885432 23553 layer_factory.hpp:77] Creating layer pool3
I1025 11:39:44.885439 23553 net.cpp:106] Creating Layer pool3
I1025 11:39:44.885443 23553 net.cpp:454] pool3 <- conv3
I1025 11:39:44.885452 23553 net.cpp:411] pool3 -> pool3
I1025 11:39:44.885809 23553 net.cpp:150] Setting up pool3
I1025 11:39:44.885828 23553 net.cpp:157] Top shape: 70 384 14 14 (5268480)
I1025 11:39:44.885836 23553 net.cpp:165] Memory required for data: 2434083680
I1025 11:39:44.885840 23553 layer_factory.hpp:77] Creating layer pool3_pool3_0_split
I1025 11:39:44.885851 23553 net.cpp:106] Creating Layer pool3_pool3_0_split
I1025 11:39:44.885856 23553 net.cpp:454] pool3_pool3_0_split <- pool3
I1025 11:39:44.885862 23553 net.cpp:411] pool3_pool3_0_split -> pool3_pool3_0_split_0
I1025 11:39:44.885871 23553 net.cpp:411] pool3_pool3_0_split -> pool3_pool3_0_split_1
I1025 11:39:44.885877 23553 net.cpp:411] pool3_pool3_0_split -> pool3_pool3_0_split_2
I1025 11:39:44.885884 23553 net.cpp:411] pool3_pool3_0_split -> pool3_pool3_0_split_3
I1025 11:39:44.885888 23553 net.cpp:411] pool3_pool3_0_split -> pool3_pool3_0_split_4
I1025 11:39:44.885895 23553 net.cpp:411] pool3_pool3_0_split -> pool3_pool3_0_split_5
I1025 11:39:44.885980 23553 net.cpp:150] Setting up pool3_pool3_0_split
I1025 11:39:44.885989 23553 net.cpp:157] Top shape: 70 384 14 14 (5268480)
I1025 11:39:44.885993 23553 net.cpp:157] Top shape: 70 384 14 14 (5268480)
I1025 11:39:44.885998 23553 net.cpp:157] Top shape: 70 384 14 14 (5268480)
I1025 11:39:44.886001 23553 net.cpp:157] Top shape: 70 384 14 14 (5268480)
I1025 11:39:44.886005 23553 net.cpp:157] Top shape: 70 384 14 14 (5268480)
I1025 11:39:44.886009 23553 net.cpp:157] Top shape: 70 384 14 14 (5268480)
I1025 11:39:44.886013 23553 net.cpp:165] Memory required for data: 2560527200
I1025 11:39:44.886015 23553 layer_factory.hpp:77] Creating layer conv3_gender
I1025 11:39:44.886029 23553 net.cpp:106] Creating Layer conv3_gender
I1025 11:39:44.886034 23553 net.cpp:454] conv3_gender <- pool3_pool3_0_split_0
I1025 11:39:44.886044 23553 net.cpp:411] conv3_gender -> conv3_gender
I1025 11:39:44.903079 23553 net.cpp:150] Setting up conv3_gender
I1025 11:39:44.903096 23553 net.cpp:157] Top shape: 70 512 7 7 (1756160)
I1025 11:39:44.903100 23553 net.cpp:165] Memory required for data: 2567551840
I1025 11:39:44.903108 23553 layer_factory.hpp:77] Creating layer conv3_gender_bn
I1025 11:39:44.903117 23553 net.cpp:106] Creating Layer conv3_gender_bn
I1025 11:39:44.903121 23553 net.cpp:454] conv3_gender_bn <- conv3_gender
I1025 11:39:44.903127 23553 net.cpp:397] conv3_gender_bn -> conv3_gender (in-place)
I1025 11:39:44.903326 23553 net.cpp:150] Setting up conv3_gender_bn
I1025 11:39:44.903337 23553 net.cpp:157] Top shape: 70 512 7 7 (1756160)
I1025 11:39:44.903340 23553 net.cpp:165] Memory required for data: 2574576480
I1025 11:39:44.903359 23553 layer_factory.hpp:77] Creating layer conv3_gender_scale
I1025 11:39:44.903367 23553 net.cpp:106] Creating Layer conv3_gender_scale
I1025 11:39:44.903372 23553 net.cpp:454] conv3_gender_scale <- conv3_gender
I1025 11:39:44.903376 23553 net.cpp:397] conv3_gender_scale -> conv3_gender (in-place)
I1025 11:39:44.903417 23553 layer_factory.hpp:77] Creating layer conv3_gender_scale
I1025 11:39:44.903553 23553 net.cpp:150] Setting up conv3_gender_scale
I1025 11:39:44.903563 23553 net.cpp:157] Top shape: 70 512 7 7 (1756160)
I1025 11:39:44.903568 23553 net.cpp:165] Memory required for data: 2581601120
I1025 11:39:44.903573 23553 layer_factory.hpp:77] Creating layer prelu3_gender
I1025 11:39:44.903581 23553 net.cpp:106] Creating Layer prelu3_gender
I1025 11:39:44.903584 23553 net.cpp:454] prelu3_gender <- conv3_gender
I1025 11:39:44.903589 23553 net.cpp:397] prelu3_gender -> conv3_gender (in-place)
I1025 11:39:44.903700 23553 net.cpp:150] Setting up prelu3_gender
I1025 11:39:44.903709 23553 net.cpp:157] Top shape: 70 512 7 7 (1756160)
I1025 11:39:44.903713 23553 net.cpp:165] Memory required for data: 2588625760
I1025 11:39:44.903718 23553 layer_factory.hpp:77] Creating layer pool3_gender
I1025 11:39:44.903730 23553 net.cpp:106] Creating Layer pool3_gender
I1025 11:39:44.903734 23553 net.cpp:454] pool3_gender <- conv3_gender
I1025 11:39:44.903743 23553 net.cpp:411] pool3_gender -> pool3_gender
I1025 11:39:44.903983 23553 net.cpp:150] Setting up pool3_gender
I1025 11:39:44.903998 23553 net.cpp:157] Top shape: 70 512 4 4 (573440)
I1025 11:39:44.904002 23553 net.cpp:165] Memory required for data: 2590919520
I1025 11:39:44.904007 23553 layer_factory.hpp:77] Creating layer pool3_gender_pool3_gender_0_split
I1025 11:39:44.904013 23553 net.cpp:106] Creating Layer pool3_gender_pool3_gender_0_split
I1025 11:39:44.904017 23553 net.cpp:454] pool3_gender_pool3_gender_0_split <- pool3_gender
I1025 11:39:44.904024 23553 net.cpp:411] pool3_gender_pool3_gender_0_split -> pool3_gender_pool3_gender_0_split_0
I1025 11:39:44.904031 23553 net.cpp:411] pool3_gender_pool3_gender_0_split -> pool3_gender_pool3_gender_0_split_1
I1025 11:39:44.904068 23553 net.cpp:150] Setting up pool3_gender_pool3_gender_0_split
I1025 11:39:44.904078 23553 net.cpp:157] Top shape: 70 512 4 4 (573440)
I1025 11:39:44.904083 23553 net.cpp:157] Top shape: 70 512 4 4 (573440)
I1025 11:39:44.904088 23553 net.cpp:165] Memory required for data: 2595507040
I1025 11:39:44.904095 23553 layer_factory.hpp:77] Creating layer fc1_gender
I1025 11:39:44.904112 23553 net.cpp:106] Creating Layer fc1_gender
I1025 11:39:44.904116 23553 net.cpp:454] fc1_gender <- pool3_gender_pool3_gender_0_split_0
I1025 11:39:44.904124 23553 net.cpp:411] fc1_gender -> fc1_gender
I1025 11:39:44.982012 23553 net.cpp:150] Setting up fc1_gender
I1025 11:39:44.982067 23553 net.cpp:157] Top shape: 70 1024 (71680)
I1025 11:39:44.982074 23553 net.cpp:165] Memory required for data: 2595793760
I1025 11:39:44.982097 23553 layer_factory.hpp:77] Creating layer relu1_gender
I1025 11:39:44.982133 23553 net.cpp:106] Creating Layer relu1_gender
I1025 11:39:44.982147 23553 net.cpp:454] relu1_gender <- fc1_gender
I1025 11:39:44.982156 23553 net.cpp:397] relu1_gender -> fc1_gender (in-place)
I1025 11:39:44.982803 23553 net.cpp:150] Setting up relu1_gender
I1025 11:39:44.982820 23553 net.cpp:157] Top shape: 70 1024 (71680)
I1025 11:39:44.982825 23553 net.cpp:165] Memory required for data: 2596080480
I1025 11:39:44.982828 23553 layer_factory.hpp:77] Creating layer drop1_gender
I1025 11:39:44.982838 23553 net.cpp:106] Creating Layer drop1_gender
I1025 11:39:44.982843 23553 net.cpp:454] drop1_gender <- fc1_gender
I1025 11:39:44.982851 23553 net.cpp:397] drop1_gender -> fc1_gender (in-place)
I1025 11:39:44.982909 23553 net.cpp:150] Setting up drop1_gender
I1025 11:39:44.982916 23553 net.cpp:157] Top shape: 70 1024 (71680)
I1025 11:39:44.982920 23553 net.cpp:165] Memory required for data: 2596367200
I1025 11:39:44.982923 23553 layer_factory.hpp:77] Creating layer fc2_gender
I1025 11:39:44.982959 23553 net.cpp:106] Creating Layer fc2_gender
I1025 11:39:44.982965 23553 net.cpp:454] fc2_gender <- fc1_gender
I1025 11:39:44.982971 23553 net.cpp:411] fc2_gender -> fc2_gender
I1025 11:39:44.992480 23553 net.cpp:150] Setting up fc2_gender
I1025 11:39:44.992496 23553 net.cpp:157] Top shape: 70 1024 (71680)
I1025 11:39:44.992501 23553 net.cpp:165] Memory required for data: 2596653920
I1025 11:39:44.992508 23553 layer_factory.hpp:77] Creating layer relu2_gender
I1025 11:39:44.992516 23553 net.cpp:106] Creating Layer relu2_gender
I1025 11:39:44.992521 23553 net.cpp:454] relu2_gender <- fc2_gender
I1025 11:39:44.992527 23553 net.cpp:397] relu2_gender -> fc2_gender (in-place)
I1025 11:39:44.992713 23553 net.cpp:150] Setting up relu2_gender
I1025 11:39:44.992725 23553 net.cpp:157] Top shape: 70 1024 (71680)
I1025 11:39:44.992728 23553 net.cpp:165] Memory required for data: 2596940640
I1025 11:39:44.992734 23553 layer_factory.hpp:77] Creating layer drop2_gender
I1025 11:39:44.992741 23553 net.cpp:106] Creating Layer drop2_gender
I1025 11:39:44.992745 23553 net.cpp:454] drop2_gender <- fc2_gender
I1025 11:39:44.992753 23553 net.cpp:397] drop2_gender -> fc2_gender (in-place)
I1025 11:39:44.992782 23553 net.cpp:150] Setting up drop2_gender
I1025 11:39:44.992790 23553 net.cpp:157] Top shape: 70 1024 (71680)
I1025 11:39:44.992794 23553 net.cpp:165] Memory required for data: 2597227360
I1025 11:39:44.992797 23553 layer_factory.hpp:77] Creating layer fc2_gender_drop2_gender_0_split
I1025 11:39:44.992810 23553 net.cpp:106] Creating Layer fc2_gender_drop2_gender_0_split
I1025 11:39:44.992815 23553 net.cpp:454] fc2_gender_drop2_gender_0_split <- fc2_gender
I1025 11:39:44.992820 23553 net.cpp:411] fc2_gender_drop2_gender_0_split -> fc2_gender_drop2_gender_0_split_0
I1025 11:39:44.992826 23553 net.cpp:411] fc2_gender_drop2_gender_0_split -> fc2_gender_drop2_gender_0_split_1
I1025 11:39:44.992871 23553 net.cpp:150] Setting up fc2_gender_drop2_gender_0_split
I1025 11:39:44.992879 23553 net.cpp:157] Top shape: 70 1024 (71680)
I1025 11:39:44.992884 23553 net.cpp:157] Top shape: 70 1024 (71680)
I1025 11:39:44.992887 23553 net.cpp:165] Memory required for data: 2597800800
I1025 11:39:44.992890 23553 layer_factory.hpp:77] Creating layer conv3_nose
I1025 11:39:44.992904 23553 net.cpp:106] Creating Layer conv3_nose
I1025 11:39:44.992913 23553 net.cpp:454] conv3_nose <- pool3_pool3_0_split_1
I1025 11:39:44.992923 23553 net.cpp:411] conv3_nose -> conv3_nose
I1025 11:39:45.009618 23553 net.cpp:150] Setting up conv3_nose
I1025 11:39:45.009639 23553 net.cpp:157] Top shape: 70 512 7 7 (1756160)
I1025 11:39:45.009645 23553 net.cpp:165] Memory required for data: 2604825440
I1025 11:39:45.009654 23553 layer_factory.hpp:77] Creating layer conv3_nose_bn
I1025 11:39:45.009661 23553 net.cpp:106] Creating Layer conv3_nose_bn
I1025 11:39:45.009666 23553 net.cpp:454] conv3_nose_bn <- conv3_nose
I1025 11:39:45.009672 23553 net.cpp:397] conv3_nose_bn -> conv3_nose (in-place)
I1025 11:39:45.009876 23553 net.cpp:150] Setting up conv3_nose_bn
I1025 11:39:45.009886 23553 net.cpp:157] Top shape: 70 512 7 7 (1756160)
I1025 11:39:45.009889 23553 net.cpp:165] Memory required for data: 2611850080
I1025 11:39:45.009897 23553 layer_factory.hpp:77] Creating layer conv3_nose_scale
I1025 11:39:45.009912 23553 net.cpp:106] Creating Layer conv3_nose_scale
I1025 11:39:45.009915 23553 net.cpp:454] conv3_nose_scale <- conv3_nose
I1025 11:39:45.009920 23553 net.cpp:397] conv3_nose_scale -> conv3_nose (in-place)
I1025 11:39:45.009968 23553 layer_factory.hpp:77] Creating layer conv3_nose_scale
I1025 11:39:45.010090 23553 net.cpp:150] Setting up conv3_nose_scale
I1025 11:39:45.010099 23553 net.cpp:157] Top shape: 70 512 7 7 (1756160)
I1025 11:39:45.010102 23553 net.cpp:165] Memory required for data: 2618874720
I1025 11:39:45.010109 23553 layer_factory.hpp:77] Creating layer prelu3_nose
I1025 11:39:45.010115 23553 net.cpp:106] Creating Layer prelu3_nose
I1025 11:39:45.010119 23553 net.cpp:454] prelu3_nose <- conv3_nose
I1025 11:39:45.010129 23553 net.cpp:397] prelu3_nose -> conv3_nose (in-place)
I1025 11:39:45.010264 23553 net.cpp:150] Setting up prelu3_nose
I1025 11:39:45.010279 23553 net.cpp:157] Top shape: 70 512 7 7 (1756160)
I1025 11:39:45.010283 23553 net.cpp:165] Memory required for data: 2625899360
I1025 11:39:45.010288 23553 layer_factory.hpp:77] Creating layer pool3_nose
I1025 11:39:45.010298 23553 net.cpp:106] Creating Layer pool3_nose
I1025 11:39:45.010301 23553 net.cpp:454] pool3_nose <- conv3_nose
I1025 11:39:45.010308 23553 net.cpp:411] pool3_nose -> pool3_nose
I1025 11:39:45.010677 23553 net.cpp:150] Setting up pool3_nose
I1025 11:39:45.010694 23553 net.cpp:157] Top shape: 70 512 4 4 (573440)
I1025 11:39:45.010697 23553 net.cpp:165] Memory required for data: 2628193120
I1025 11:39:45.010704 23553 layer_factory.hpp:77] Creating layer pool3_nose_pool3_nose_0_split
I1025 11:39:45.010710 23553 net.cpp:106] Creating Layer pool3_nose_pool3_nose_0_split
I1025 11:39:45.010715 23553 net.cpp:454] pool3_nose_pool3_nose_0_split <- pool3_nose
I1025 11:39:45.010722 23553 net.cpp:411] pool3_nose_pool3_nose_0_split -> pool3_nose_pool3_nose_0_split_0
I1025 11:39:45.010732 23553 net.cpp:411] pool3_nose_pool3_nose_0_split -> pool3_nose_pool3_nose_0_split_1
I1025 11:39:45.010772 23553 net.cpp:150] Setting up pool3_nose_pool3_nose_0_split
I1025 11:39:45.010778 23553 net.cpp:157] Top shape: 70 512 4 4 (573440)
I1025 11:39:45.010782 23553 net.cpp:157] Top shape: 70 512 4 4 (573440)
I1025 11:39:45.010785 23553 net.cpp:165] Memory required for data: 2632780640
I1025 11:39:45.010788 23553 layer_factory.hpp:77] Creating layer fc1_nose
I1025 11:39:45.010799 23553 net.cpp:106] Creating Layer fc1_nose
I1025 11:39:45.010804 23553 net.cpp:454] fc1_nose <- pool3_nose_pool3_nose_0_split_0
I1025 11:39:45.010810 23553 net.cpp:411] fc1_nose -> fc1_nose
I1025 11:39:45.085932 23553 net.cpp:150] Setting up fc1_nose
I1025 11:39:45.085973 23553 net.cpp:157] Top shape: 70 1024 (71680)
I1025 11:39:45.085978 23553 net.cpp:165] Memory required for data: 2633067360
I1025 11:39:45.085993 23553 layer_factory.hpp:77] Creating layer relu1_nose
I1025 11:39:45.086007 23553 net.cpp:106] Creating Layer relu1_nose
I1025 11:39:45.086014 23553 net.cpp:454] relu1_nose <- fc1_nose
I1025 11:39:45.086022 23553 net.cpp:397] relu1_nose -> fc1_nose (in-place)
I1025 11:39:45.086278 23553 net.cpp:150] Setting up relu1_nose
I1025 11:39:45.086290 23553 net.cpp:157] Top shape: 70 1024 (71680)
I1025 11:39:45.086294 23553 net.cpp:165] Memory required for data: 2633354080
I1025 11:39:45.086300 23553 layer_factory.hpp:77] Creating layer drop1_nose
I1025 11:39:45.086308 23553 net.cpp:106] Creating Layer drop1_nose
I1025 11:39:45.086313 23553 net.cpp:454] drop1_nose <- fc1_nose
I1025 11:39:45.086319 23553 net.cpp:397] drop1_nose -> fc1_nose (in-place)
I1025 11:39:45.086355 23553 net.cpp:150] Setting up drop1_nose
I1025 11:39:45.086370 23553 net.cpp:157] Top shape: 70 1024 (71680)
I1025 11:39:45.086374 23553 net.cpp:165] Memory required for data: 2633640800
I1025 11:39:45.086377 23553 layer_factory.hpp:77] Creating layer fc2_nose
I1025 11:39:45.086387 23553 net.cpp:106] Creating Layer fc2_nose
I1025 11:39:45.086391 23553 net.cpp:454] fc2_nose <- fc1_nose
I1025 11:39:45.086400 23553 net.cpp:411] fc2_nose -> fc2_nose
I1025 11:39:45.095676 23553 net.cpp:150] Setting up fc2_nose
I1025 11:39:45.095692 23553 net.cpp:157] Top shape: 70 1024 (71680)
I1025 11:39:45.095708 23553 net.cpp:165] Memory required for data: 2633927520
I1025 11:39:45.095715 23553 layer_factory.hpp:77] Creating layer relu2_nose
I1025 11:39:45.095724 23553 net.cpp:106] Creating Layer relu2_nose
I1025 11:39:45.095729 23553 net.cpp:454] relu2_nose <- fc2_nose
I1025 11:39:45.095734 23553 net.cpp:397] relu2_nose -> fc2_nose (in-place)
I1025 11:39:45.096084 23553 net.cpp:150] Setting up relu2_nose
I1025 11:39:45.096101 23553 net.cpp:157] Top shape: 70 1024 (71680)
I1025 11:39:45.096105 23553 net.cpp:165] Memory required for data: 2634214240
I1025 11:39:45.096109 23553 layer_factory.hpp:77] Creating layer drop2_nose
I1025 11:39:45.096117 23553 net.cpp:106] Creating Layer drop2_nose
I1025 11:39:45.096138 23553 net.cpp:454] drop2_nose <- fc2_nose
I1025 11:39:45.096146 23553 net.cpp:397] drop2_nose -> fc2_nose (in-place)
I1025 11:39:45.096179 23553 net.cpp:150] Setting up drop2_nose
I1025 11:39:45.096184 23553 net.cpp:157] Top shape: 70 1024 (71680)
I1025 11:39:45.096189 23553 net.cpp:165] Memory required for data: 2634500960
I1025 11:39:45.096191 23553 layer_factory.hpp:77] Creating layer fc2_nose_drop2_nose_0_split
I1025 11:39:45.096202 23553 net.cpp:106] Creating Layer fc2_nose_drop2_nose_0_split
I1025 11:39:45.096207 23553 net.cpp:454] fc2_nose_drop2_nose_0_split <- fc2_nose
I1025 11:39:45.096212 23553 net.cpp:411] fc2_nose_drop2_nose_0_split -> fc2_nose_drop2_nose_0_split_0
I1025 11:39:45.096220 23553 net.cpp:411] fc2_nose_drop2_nose_0_split -> fc2_nose_drop2_nose_0_split_1
I1025 11:39:45.096227 23553 net.cpp:411] fc2_nose_drop2_nose_0_split -> fc2_nose_drop2_nose_0_split_2
I1025 11:39:45.096279 23553 net.cpp:150] Setting up fc2_nose_drop2_nose_0_split
I1025 11:39:45.096288 23553 net.cpp:157] Top shape: 70 1024 (71680)
I1025 11:39:45.096292 23553 net.cpp:157] Top shape: 70 1024 (71680)
I1025 11:39:45.096297 23553 net.cpp:157] Top shape: 70 1024 (71680)
I1025 11:39:45.096299 23553 net.cpp:165] Memory required for data: 2635361120
I1025 11:39:45.096302 23553 layer_factory.hpp:77] Creating layer conv3_mouth
I1025 11:39:45.096316 23553 net.cpp:106] Creating Layer conv3_mouth
I1025 11:39:45.096321 23553 net.cpp:454] conv3_mouth <- pool3_pool3_0_split_2
I1025 11:39:45.096331 23553 net.cpp:411] conv3_mouth -> conv3_mouth
I1025 11:39:45.113016 23553 net.cpp:150] Setting up conv3_mouth
I1025 11:39:45.113034 23553 net.cpp:157] Top shape: 70 512 7 7 (1756160)
I1025 11:39:45.113039 23553 net.cpp:165] Memory required for data: 2642385760
I1025 11:39:45.113073 23553 layer_factory.hpp:77] Creating layer conv3_mouth_bn
I1025 11:39:45.113083 23553 net.cpp:106] Creating Layer conv3_mouth_bn
I1025 11:39:45.113087 23553 net.cpp:454] conv3_mouth_bn <- conv3_mouth
I1025 11:39:45.113093 23553 net.cpp:397] conv3_mouth_bn -> conv3_mouth (in-place)
I1025 11:39:45.113294 23553 net.cpp:150] Setting up conv3_mouth_bn
I1025 11:39:45.113304 23553 net.cpp:157] Top shape: 70 512 7 7 (1756160)
I1025 11:39:45.113307 23553 net.cpp:165] Memory required for data: 2649410400
I1025 11:39:45.113318 23553 layer_factory.hpp:77] Creating layer conv3_mouth_scale
I1025 11:39:45.113327 23553 net.cpp:106] Creating Layer conv3_mouth_scale
I1025 11:39:45.113330 23553 net.cpp:454] conv3_mouth_scale <- conv3_mouth
I1025 11:39:45.113335 23553 net.cpp:397] conv3_mouth_scale -> conv3_mouth (in-place)
I1025 11:39:45.113379 23553 layer_factory.hpp:77] Creating layer conv3_mouth_scale
I1025 11:39:45.113513 23553 net.cpp:150] Setting up conv3_mouth_scale
I1025 11:39:45.113524 23553 net.cpp:157] Top shape: 70 512 7 7 (1756160)
I1025 11:39:45.113528 23553 net.cpp:165] Memory required for data: 2656435040
I1025 11:39:45.113535 23553 layer_factory.hpp:77] Creating layer prelu3_mouth
I1025 11:39:45.113543 23553 net.cpp:106] Creating Layer prelu3_mouth
I1025 11:39:45.113546 23553 net.cpp:454] prelu3_mouth <- conv3_mouth
I1025 11:39:45.113551 23553 net.cpp:397] prelu3_mouth -> conv3_mouth (in-place)
I1025 11:39:45.113675 23553 net.cpp:150] Setting up prelu3_mouth
I1025 11:39:45.113684 23553 net.cpp:157] Top shape: 70 512 7 7 (1756160)
I1025 11:39:45.113688 23553 net.cpp:165] Memory required for data: 2663459680
I1025 11:39:45.113693 23553 layer_factory.hpp:77] Creating layer pool3_mouth
I1025 11:39:45.113701 23553 net.cpp:106] Creating Layer pool3_mouth
I1025 11:39:45.113705 23553 net.cpp:454] pool3_mouth <- conv3_mouth
I1025 11:39:45.113713 23553 net.cpp:411] pool3_mouth -> pool3_mouth
I1025 11:39:45.113940 23553 net.cpp:150] Setting up pool3_mouth
I1025 11:39:45.113955 23553 net.cpp:157] Top shape: 70 512 4 4 (573440)
I1025 11:39:45.113958 23553 net.cpp:165] Memory required for data: 2665753440
I1025 11:39:45.113961 23553 layer_factory.hpp:77] Creating layer pool3_mouth_pool3_mouth_0_split
I1025 11:39:45.113968 23553 net.cpp:106] Creating Layer pool3_mouth_pool3_mouth_0_split
I1025 11:39:45.113984 23553 net.cpp:454] pool3_mouth_pool3_mouth_0_split <- pool3_mouth
I1025 11:39:45.113991 23553 net.cpp:411] pool3_mouth_pool3_mouth_0_split -> pool3_mouth_pool3_mouth_0_split_0
I1025 11:39:45.113998 23553 net.cpp:411] pool3_mouth_pool3_mouth_0_split -> pool3_mouth_pool3_mouth_0_split_1
I1025 11:39:45.114040 23553 net.cpp:150] Setting up pool3_mouth_pool3_mouth_0_split
I1025 11:39:45.114053 23553 net.cpp:157] Top shape: 70 512 4 4 (573440)
I1025 11:39:45.114061 23553 net.cpp:157] Top shape: 70 512 4 4 (573440)
I1025 11:39:45.114064 23553 net.cpp:165] Memory required for data: 2670340960
I1025 11:39:45.114068 23553 layer_factory.hpp:77] Creating layer fc1_mouth
I1025 11:39:45.114084 23553 net.cpp:106] Creating Layer fc1_mouth
I1025 11:39:45.114089 23553 net.cpp:454] fc1_mouth <- pool3_mouth_pool3_mouth_0_split_0
I1025 11:39:45.114096 23553 net.cpp:411] fc1_mouth -> fc1_mouth
I1025 11:39:45.189219 23553 net.cpp:150] Setting up fc1_mouth
I1025 11:39:45.189265 23553 net.cpp:157] Top shape: 70 1024 (71680)
I1025 11:39:45.189270 23553 net.cpp:165] Memory required for data: 2670627680
I1025 11:39:45.189283 23553 layer_factory.hpp:77] Creating layer relu1_mouth
I1025 11:39:45.189296 23553 net.cpp:106] Creating Layer relu1_mouth
I1025 11:39:45.189303 23553 net.cpp:454] relu1_mouth <- fc1_mouth
I1025 11:39:45.189311 23553 net.cpp:397] relu1_mouth -> fc1_mouth (in-place)
I1025 11:39:45.189790 23553 net.cpp:150] Setting up relu1_mouth
I1025 11:39:45.189807 23553 net.cpp:157] Top shape: 70 1024 (71680)
I1025 11:39:45.189811 23553 net.cpp:165] Memory required for data: 2670914400
I1025 11:39:45.189815 23553 layer_factory.hpp:77] Creating layer drop1_mouth
I1025 11:39:45.189824 23553 net.cpp:106] Creating Layer drop1_mouth
I1025 11:39:45.189829 23553 net.cpp:454] drop1_mouth <- fc1_mouth
I1025 11:39:45.189836 23553 net.cpp:397] drop1_mouth -> fc1_mouth (in-place)
I1025 11:39:45.189888 23553 net.cpp:150] Setting up drop1_mouth
I1025 11:39:45.189896 23553 net.cpp:157] Top shape: 70 1024 (71680)
I1025 11:39:45.189900 23553 net.cpp:165] Memory required for data: 2671201120
I1025 11:39:45.189903 23553 layer_factory.hpp:77] Creating layer fc2_mouth
I1025 11:39:45.189914 23553 net.cpp:106] Creating Layer fc2_mouth
I1025 11:39:45.189919 23553 net.cpp:454] fc2_mouth <- fc1_mouth
I1025 11:39:45.189925 23553 net.cpp:411] fc2_mouth -> fc2_mouth
I1025 11:39:45.199430 23553 net.cpp:150] Setting up fc2_mouth
I1025 11:39:45.199446 23553 net.cpp:157] Top shape: 70 1024 (71680)
I1025 11:39:45.199450 23553 net.cpp:165] Memory required for data: 2671487840
I1025 11:39:45.199457 23553 layer_factory.hpp:77] Creating layer relu2_mouth
I1025 11:39:45.199479 23553 net.cpp:106] Creating Layer relu2_mouth
I1025 11:39:45.199484 23553 net.cpp:454] relu2_mouth <- fc2_mouth
I1025 11:39:45.199491 23553 net.cpp:397] relu2_mouth -> fc2_mouth (in-place)
I1025 11:39:45.199678 23553 net.cpp:150] Setting up relu2_mouth
I1025 11:39:45.199690 23553 net.cpp:157] Top shape: 70 1024 (71680)
I1025 11:39:45.199693 23553 net.cpp:165] Memory required for data: 2671774560
I1025 11:39:45.199699 23553 layer_factory.hpp:77] Creating layer drop2_mouth
I1025 11:39:45.199707 23553 net.cpp:106] Creating Layer drop2_mouth
I1025 11:39:45.199712 23553 net.cpp:454] drop2_mouth <- fc2_mouth
I1025 11:39:45.199719 23553 net.cpp:397] drop2_mouth -> fc2_mouth (in-place)
I1025 11:39:45.199749 23553 net.cpp:150] Setting up drop2_mouth
I1025 11:39:45.199755 23553 net.cpp:157] Top shape: 70 1024 (71680)
I1025 11:39:45.199759 23553 net.cpp:165] Memory required for data: 2672061280
I1025 11:39:45.199762 23553 layer_factory.hpp:77] Creating layer fc2_mouth_drop2_mouth_0_split
I1025 11:39:45.199774 23553 net.cpp:106] Creating Layer fc2_mouth_drop2_mouth_0_split
I1025 11:39:45.199777 23553 net.cpp:454] fc2_mouth_drop2_mouth_0_split <- fc2_mouth
I1025 11:39:45.199787 23553 net.cpp:411] fc2_mouth_drop2_mouth_0_split -> fc2_mouth_drop2_mouth_0_split_0
I1025 11:39:45.199795 23553 net.cpp:411] fc2_mouth_drop2_mouth_0_split -> fc2_mouth_drop2_mouth_0_split_1
I1025 11:39:45.199801 23553 net.cpp:411] fc2_mouth_drop2_mouth_0_split -> fc2_mouth_drop2_mouth_0_split_2
I1025 11:39:45.199827 23553 net.cpp:411] fc2_mouth_drop2_mouth_0_split -> fc2_mouth_drop2_mouth_0_split_3
I1025 11:39:45.199838 23553 net.cpp:411] fc2_mouth_drop2_mouth_0_split -> fc2_mouth_drop2_mouth_0_split_4
I1025 11:39:45.199920 23553 net.cpp:150] Setting up fc2_mouth_drop2_mouth_0_split
I1025 11:39:45.199928 23553 net.cpp:157] Top shape: 70 1024 (71680)
I1025 11:39:45.199934 23553 net.cpp:157] Top shape: 70 1024 (71680)
I1025 11:39:45.199937 23553 net.cpp:157] Top shape: 70 1024 (71680)
I1025 11:39:45.199940 23553 net.cpp:157] Top shape: 70 1024 (71680)
I1025 11:39:45.199944 23553 net.cpp:157] Top shape: 70 1024 (71680)
I1025 11:39:45.199949 23553 net.cpp:165] Memory required for data: 2673494880
I1025 11:39:45.199951 23553 layer_factory.hpp:77] Creating layer conv3_eyes
I1025 11:39:45.199965 23553 net.cpp:106] Creating Layer conv3_eyes
I1025 11:39:45.199971 23553 net.cpp:454] conv3_eyes <- pool3_pool3_0_split_3
I1025 11:39:45.199980 23553 net.cpp:411] conv3_eyes -> conv3_eyes
I1025 11:39:45.216642 23553 net.cpp:150] Setting up conv3_eyes
I1025 11:39:45.216660 23553 net.cpp:157] Top shape: 70 512 7 7 (1756160)
I1025 11:39:45.216665 23553 net.cpp:165] Memory required for data: 2680519520
I1025 11:39:45.216672 23553 layer_factory.hpp:77] Creating layer conv3_eyes_bn
I1025 11:39:45.216682 23553 net.cpp:106] Creating Layer conv3_eyes_bn
I1025 11:39:45.216688 23553 net.cpp:454] conv3_eyes_bn <- conv3_eyes
I1025 11:39:45.216693 23553 net.cpp:397] conv3_eyes_bn -> conv3_eyes (in-place)
I1025 11:39:45.216900 23553 net.cpp:150] Setting up conv3_eyes_bn
I1025 11:39:45.216910 23553 net.cpp:157] Top shape: 70 512 7 7 (1756160)
I1025 11:39:45.216913 23553 net.cpp:165] Memory required for data: 2687544160
I1025 11:39:45.216923 23553 layer_factory.hpp:77] Creating layer conv3_eyes_scale
I1025 11:39:45.216933 23553 net.cpp:106] Creating Layer conv3_eyes_scale
I1025 11:39:45.216936 23553 net.cpp:454] conv3_eyes_scale <- conv3_eyes
I1025 11:39:45.216941 23553 net.cpp:397] conv3_eyes_scale -> conv3_eyes (in-place)
I1025 11:39:45.216989 23553 layer_factory.hpp:77] Creating layer conv3_eyes_scale
I1025 11:39:45.217116 23553 net.cpp:150] Setting up conv3_eyes_scale
I1025 11:39:45.217125 23553 net.cpp:157] Top shape: 70 512 7 7 (1756160)
I1025 11:39:45.217133 23553 net.cpp:165] Memory required for data: 2694568800
I1025 11:39:45.217142 23553 layer_factory.hpp:77] Creating layer prelu3_eyes
I1025 11:39:45.217155 23553 net.cpp:106] Creating Layer prelu3_eyes
I1025 11:39:45.217160 23553 net.cpp:454] prelu3_eyes <- conv3_eyes
I1025 11:39:45.217166 23553 net.cpp:397] prelu3_eyes -> conv3_eyes (in-place)
I1025 11:39:45.217295 23553 net.cpp:150] Setting up prelu3_eyes
I1025 11:39:45.217306 23553 net.cpp:157] Top shape: 70 512 7 7 (1756160)
I1025 11:39:45.217311 23553 net.cpp:165] Memory required for data: 2701593440
I1025 11:39:45.217319 23553 layer_factory.hpp:77] Creating layer pool3_eyes
I1025 11:39:45.217327 23553 net.cpp:106] Creating Layer pool3_eyes
I1025 11:39:45.217331 23553 net.cpp:454] pool3_eyes <- conv3_eyes
I1025 11:39:45.217339 23553 net.cpp:411] pool3_eyes -> pool3_eyes
I1025 11:39:45.217718 23553 net.cpp:150] Setting up pool3_eyes
I1025 11:39:45.217733 23553 net.cpp:157] Top shape: 70 512 4 4 (573440)
I1025 11:39:45.217736 23553 net.cpp:165] Memory required for data: 2703887200
I1025 11:39:45.217741 23553 layer_factory.hpp:77] Creating layer pool3_eyes_pool3_eyes_0_split
I1025 11:39:45.217746 23553 net.cpp:106] Creating Layer pool3_eyes_pool3_eyes_0_split
I1025 11:39:45.217751 23553 net.cpp:454] pool3_eyes_pool3_eyes_0_split <- pool3_eyes
I1025 11:39:45.217763 23553 net.cpp:411] pool3_eyes_pool3_eyes_0_split -> pool3_eyes_pool3_eyes_0_split_0
I1025 11:39:45.217772 23553 net.cpp:411] pool3_eyes_pool3_eyes_0_split -> pool3_eyes_pool3_eyes_0_split_1
I1025 11:39:45.217813 23553 net.cpp:150] Setting up pool3_eyes_pool3_eyes_0_split
I1025 11:39:45.217819 23553 net.cpp:157] Top shape: 70 512 4 4 (573440)
I1025 11:39:45.217823 23553 net.cpp:157] Top shape: 70 512 4 4 (573440)
I1025 11:39:45.217839 23553 net.cpp:165] Memory required for data: 2708474720
I1025 11:39:45.217844 23553 layer_factory.hpp:77] Creating layer fc1_eyes
I1025 11:39:45.217854 23553 net.cpp:106] Creating Layer fc1_eyes
I1025 11:39:45.217859 23553 net.cpp:454] fc1_eyes <- pool3_eyes_pool3_eyes_0_split_0
I1025 11:39:45.217865 23553 net.cpp:411] fc1_eyes -> fc1_eyes
I1025 11:39:45.292850 23553 net.cpp:150] Setting up fc1_eyes
I1025 11:39:45.292883 23553 net.cpp:157] Top shape: 70 1024 (71680)
I1025 11:39:45.292887 23553 net.cpp:165] Memory required for data: 2708761440
I1025 11:39:45.292898 23553 layer_factory.hpp:77] Creating layer relu1_eyes
I1025 11:39:45.292913 23553 net.cpp:106] Creating Layer relu1_eyes
I1025 11:39:45.292922 23553 net.cpp:454] relu1_eyes <- fc1_eyes
I1025 11:39:45.292928 23553 net.cpp:397] relu1_eyes -> fc1_eyes (in-place)
I1025 11:39:45.293195 23553 net.cpp:150] Setting up relu1_eyes
I1025 11:39:45.293210 23553 net.cpp:157] Top shape: 70 1024 (71680)
I1025 11:39:45.293213 23553 net.cpp:165] Memory required for data: 2709048160
I1025 11:39:45.293220 23553 layer_factory.hpp:77] Creating layer drop1_eyes
I1025 11:39:45.293232 23553 net.cpp:106] Creating Layer drop1_eyes
I1025 11:39:45.293241 23553 net.cpp:454] drop1_eyes <- fc1_eyes
I1025 11:39:45.293249 23553 net.cpp:397] drop1_eyes -> fc1_eyes (in-place)
I1025 11:39:45.293303 23553 net.cpp:150] Setting up drop1_eyes
I1025 11:39:45.293314 23553 net.cpp:157] Top shape: 70 1024 (71680)
I1025 11:39:45.293318 23553 net.cpp:165] Memory required for data: 2709334880
I1025 11:39:45.293323 23553 layer_factory.hpp:77] Creating layer fc2_eyes
I1025 11:39:45.293339 23553 net.cpp:106] Creating Layer fc2_eyes
I1025 11:39:45.293345 23553 net.cpp:454] fc2_eyes <- fc1_eyes
I1025 11:39:45.293355 23553 net.cpp:411] fc2_eyes -> fc2_eyes
I1025 11:39:45.302903 23553 net.cpp:150] Setting up fc2_eyes
I1025 11:39:45.302919 23553 net.cpp:157] Top shape: 70 1024 (71680)
I1025 11:39:45.302923 23553 net.cpp:165] Memory required for data: 2709621600
I1025 11:39:45.302932 23553 layer_factory.hpp:77] Creating layer relu2_eyes
I1025 11:39:45.302940 23553 net.cpp:106] Creating Layer relu2_eyes
I1025 11:39:45.302944 23553 net.cpp:454] relu2_eyes <- fc2_eyes
I1025 11:39:45.302952 23553 net.cpp:397] relu2_eyes -> fc2_eyes (in-place)
I1025 11:39:45.303338 23553 net.cpp:150] Setting up relu2_eyes
I1025 11:39:45.303352 23553 net.cpp:157] Top shape: 70 1024 (71680)
I1025 11:39:45.303356 23553 net.cpp:165] Memory required for data: 2709908320
I1025 11:39:45.303360 23553 layer_factory.hpp:77] Creating layer drop2_eyes
I1025 11:39:45.303367 23553 net.cpp:106] Creating Layer drop2_eyes
I1025 11:39:45.303371 23553 net.cpp:454] drop2_eyes <- fc2_eyes
I1025 11:39:45.303380 23553 net.cpp:397] drop2_eyes -> fc2_eyes (in-place)
I1025 11:39:45.303434 23553 net.cpp:150] Setting up drop2_eyes
I1025 11:39:45.303447 23553 net.cpp:157] Top shape: 70 1024 (71680)
I1025 11:39:45.303453 23553 net.cpp:165] Memory required for data: 2710195040
I1025 11:39:45.303459 23553 layer_factory.hpp:77] Creating layer fc2_eyes_drop2_eyes_0_split
I1025 11:39:45.303470 23553 net.cpp:106] Creating Layer fc2_eyes_drop2_eyes_0_split
I1025 11:39:45.303478 23553 net.cpp:454] fc2_eyes_drop2_eyes_0_split <- fc2_eyes
I1025 11:39:45.303491 23553 net.cpp:411] fc2_eyes_drop2_eyes_0_split -> fc2_eyes_drop2_eyes_0_split_0
I1025 11:39:45.303504 23553 net.cpp:411] fc2_eyes_drop2_eyes_0_split -> fc2_eyes_drop2_eyes_0_split_1
I1025 11:39:45.303516 23553 net.cpp:411] fc2_eyes_drop2_eyes_0_split -> fc2_eyes_drop2_eyes_0_split_2
I1025 11:39:45.303527 23553 net.cpp:411] fc2_eyes_drop2_eyes_0_split -> fc2_eyes_drop2_eyes_0_split_3
I1025 11:39:45.303539 23553 net.cpp:411] fc2_eyes_drop2_eyes_0_split -> fc2_eyes_drop2_eyes_0_split_4
I1025 11:39:45.303549 23553 net.cpp:411] fc2_eyes_drop2_eyes_0_split -> fc2_eyes_drop2_eyes_0_split_5
I1025 11:39:45.303665 23553 net.cpp:150] Setting up fc2_eyes_drop2_eyes_0_split
I1025 11:39:45.303676 23553 net.cpp:157] Top shape: 70 1024 (71680)
I1025 11:39:45.303681 23553 net.cpp:157] Top shape: 70 1024 (71680)
I1025 11:39:45.303712 23553 net.cpp:157] Top shape: 70 1024 (71680)
I1025 11:39:45.303722 23553 net.cpp:157] Top shape: 70 1024 (71680)
I1025 11:39:45.303730 23553 net.cpp:157] Top shape: 70 1024 (71680)
I1025 11:39:45.303737 23553 net.cpp:157] Top shape: 70 1024 (71680)
I1025 11:39:45.303742 23553 net.cpp:165] Memory required for data: 2711915360
I1025 11:39:45.303750 23553 layer_factory.hpp:77] Creating layer conv3_face
I1025 11:39:45.303777 23553 net.cpp:106] Creating Layer conv3_face
I1025 11:39:45.303788 23553 net.cpp:454] conv3_face <- pool3_pool3_0_split_4
I1025 11:39:45.303802 23553 net.cpp:411] conv3_face -> conv3_face
I1025 11:39:45.320572 23553 net.cpp:150] Setting up conv3_face
I1025 11:39:45.320590 23553 net.cpp:157] Top shape: 70 512 7 7 (1756160)
I1025 11:39:45.320595 23553 net.cpp:165] Memory required for data: 2718940000
I1025 11:39:45.320605 23553 layer_factory.hpp:77] Creating layer conv3_face_bn
I1025 11:39:45.320616 23553 net.cpp:106] Creating Layer conv3_face_bn
I1025 11:39:45.320621 23553 net.cpp:454] conv3_face_bn <- conv3_face
I1025 11:39:45.320626 23553 net.cpp:397] conv3_face_bn -> conv3_face (in-place)
I1025 11:39:45.320878 23553 net.cpp:150] Setting up conv3_face_bn
I1025 11:39:45.320891 23553 net.cpp:157] Top shape: 70 512 7 7 (1756160)
I1025 11:39:45.320894 23553 net.cpp:165] Memory required for data: 2725964640
I1025 11:39:45.320906 23553 layer_factory.hpp:77] Creating layer conv3_face_scale
I1025 11:39:45.320919 23553 net.cpp:106] Creating Layer conv3_face_scale
I1025 11:39:45.320927 23553 net.cpp:454] conv3_face_scale <- conv3_face
I1025 11:39:45.320936 23553 net.cpp:397] conv3_face_scale -> conv3_face (in-place)
I1025 11:39:45.321004 23553 layer_factory.hpp:77] Creating layer conv3_face_scale
I1025 11:39:45.321156 23553 net.cpp:150] Setting up conv3_face_scale
I1025 11:39:45.321169 23553 net.cpp:157] Top shape: 70 512 7 7 (1756160)
I1025 11:39:45.321173 23553 net.cpp:165] Memory required for data: 2732989280
I1025 11:39:45.321183 23553 layer_factory.hpp:77] Creating layer prelu3_face
I1025 11:39:45.321197 23553 net.cpp:106] Creating Layer prelu3_face
I1025 11:39:45.321204 23553 net.cpp:454] prelu3_face <- conv3_face
I1025 11:39:45.321215 23553 net.cpp:397] prelu3_face -> conv3_face (in-place)
I1025 11:39:45.321362 23553 net.cpp:150] Setting up prelu3_face
I1025 11:39:45.321374 23553 net.cpp:157] Top shape: 70 512 7 7 (1756160)
I1025 11:39:45.321378 23553 net.cpp:165] Memory required for data: 2740013920
I1025 11:39:45.321386 23553 layer_factory.hpp:77] Creating layer pool3_face
I1025 11:39:45.321403 23553 net.cpp:106] Creating Layer pool3_face
I1025 11:39:45.321410 23553 net.cpp:454] pool3_face <- conv3_face
I1025 11:39:45.321421 23553 net.cpp:411] pool3_face -> pool3_face
I1025 11:39:45.321818 23553 net.cpp:150] Setting up pool3_face
I1025 11:39:45.321835 23553 net.cpp:157] Top shape: 70 512 4 4 (573440)
I1025 11:39:45.321838 23553 net.cpp:165] Memory required for data: 2742307680
I1025 11:39:45.321843 23553 layer_factory.hpp:77] Creating layer pool3_face_pool3_face_0_split
I1025 11:39:45.321854 23553 net.cpp:106] Creating Layer pool3_face_pool3_face_0_split
I1025 11:39:45.321859 23553 net.cpp:454] pool3_face_pool3_face_0_split <- pool3_face
I1025 11:39:45.321866 23553 net.cpp:411] pool3_face_pool3_face_0_split -> pool3_face_pool3_face_0_split_0
I1025 11:39:45.321873 23553 net.cpp:411] pool3_face_pool3_face_0_split -> pool3_face_pool3_face_0_split_1
I1025 11:39:45.321939 23553 net.cpp:150] Setting up pool3_face_pool3_face_0_split
I1025 11:39:45.321965 23553 net.cpp:157] Top shape: 70 512 4 4 (573440)
I1025 11:39:45.321974 23553 net.cpp:157] Top shape: 70 512 4 4 (573440)
I1025 11:39:45.321979 23553 net.cpp:165] Memory required for data: 2746895200
I1025 11:39:45.321985 23553 layer_factory.hpp:77] Creating layer fc1_face
I1025 11:39:45.322001 23553 net.cpp:106] Creating Layer fc1_face
I1025 11:39:45.322010 23553 net.cpp:454] fc1_face <- pool3_face_pool3_face_0_split_0
I1025 11:39:45.322021 23553 net.cpp:411] fc1_face -> fc1_face
I1025 11:39:45.397192 23553 net.cpp:150] Setting up fc1_face
I1025 11:39:45.397248 23553 net.cpp:157] Top shape: 70 1024 (71680)
I1025 11:39:45.397253 23553 net.cpp:165] Memory required for data: 2747181920
I1025 11:39:45.397264 23553 layer_factory.hpp:77] Creating layer relu1_face
I1025 11:39:45.397276 23553 net.cpp:106] Creating Layer relu1_face
I1025 11:39:45.397284 23553 net.cpp:454] relu1_face <- fc1_face
I1025 11:39:45.397294 23553 net.cpp:397] relu1_face -> fc1_face (in-place)
I1025 11:39:45.397559 23553 net.cpp:150] Setting up relu1_face
I1025 11:39:45.397574 23553 net.cpp:157] Top shape: 70 1024 (71680)
I1025 11:39:45.397578 23553 net.cpp:165] Memory required for data: 2747468640
I1025 11:39:45.397583 23553 layer_factory.hpp:77] Creating layer drop1_face
I1025 11:39:45.397593 23553 net.cpp:106] Creating Layer drop1_face
I1025 11:39:45.397600 23553 net.cpp:454] drop1_face <- fc1_face
I1025 11:39:45.397609 23553 net.cpp:397] drop1_face -> fc1_face (in-place)
I1025 11:39:45.397665 23553 net.cpp:150] Setting up drop1_face
I1025 11:39:45.397675 23553 net.cpp:157] Top shape: 70 1024 (71680)
I1025 11:39:45.397680 23553 net.cpp:165] Memory required for data: 2747755360
I1025 11:39:45.397686 23553 layer_factory.hpp:77] Creating layer fc2_face
I1025 11:39:45.397704 23553 net.cpp:106] Creating Layer fc2_face
I1025 11:39:45.397711 23553 net.cpp:454] fc2_face <- fc1_face
I1025 11:39:45.397722 23553 net.cpp:411] fc2_face -> fc2_face
I1025 11:39:45.407289 23553 net.cpp:150] Setting up fc2_face
I1025 11:39:45.407305 23553 net.cpp:157] Top shape: 70 1024 (71680)
I1025 11:39:45.407310 23553 net.cpp:165] Memory required for data: 2748042080
I1025 11:39:45.407316 23553 layer_factory.hpp:77] Creating layer relu2_face
I1025 11:39:45.407325 23553 net.cpp:106] Creating Layer relu2_face
I1025 11:39:45.407330 23553 net.cpp:454] relu2_face <- fc2_face
I1025 11:39:45.407336 23553 net.cpp:397] relu2_face -> fc2_face (in-place)
I1025 11:39:45.407701 23553 net.cpp:150] Setting up relu2_face
I1025 11:39:45.407716 23553 net.cpp:157] Top shape: 70 1024 (71680)
I1025 11:39:45.407721 23553 net.cpp:165] Memory required for data: 2748328800
I1025 11:39:45.407724 23553 layer_factory.hpp:77] Creating layer drop2_face
I1025 11:39:45.407732 23553 net.cpp:106] Creating Layer drop2_face
I1025 11:39:45.407737 23553 net.cpp:454] drop2_face <- fc2_face
I1025 11:39:45.407743 23553 net.cpp:397] drop2_face -> fc2_face (in-place)
I1025 11:39:45.407791 23553 net.cpp:150] Setting up drop2_face
I1025 11:39:45.407804 23553 net.cpp:157] Top shape: 70 1024 (71680)
I1025 11:39:45.407811 23553 net.cpp:165] Memory required for data: 2748615520
I1025 11:39:45.407817 23553 layer_factory.hpp:77] Creating layer fc2_face_drop2_face_0_split
I1025 11:39:45.407835 23553 net.cpp:106] Creating Layer fc2_face_drop2_face_0_split
I1025 11:39:45.407843 23553 net.cpp:454] fc2_face_drop2_face_0_split <- fc2_face
I1025 11:39:45.407853 23553 net.cpp:411] fc2_face_drop2_face_0_split -> fc2_face_drop2_face_0_split_0
I1025 11:39:45.407866 23553 net.cpp:411] fc2_face_drop2_face_0_split -> fc2_face_drop2_face_0_split_1
I1025 11:39:45.407881 23553 net.cpp:411] fc2_face_drop2_face_0_split -> fc2_face_drop2_face_0_split_2
I1025 11:39:45.407891 23553 net.cpp:411] fc2_face_drop2_face_0_split -> fc2_face_drop2_face_0_split_3
I1025 11:39:45.407902 23553 net.cpp:411] fc2_face_drop2_face_0_split -> fc2_face_drop2_face_0_split_4
I1025 11:39:45.407912 23553 net.cpp:411] fc2_face_drop2_face_0_split -> fc2_face_drop2_face_0_split_5
I1025 11:39:45.407922 23553 net.cpp:411] fc2_face_drop2_face_0_split -> fc2_face_drop2_face_0_split_6
I1025 11:39:45.408051 23553 net.cpp:150] Setting up fc2_face_drop2_face_0_split
I1025 11:39:45.408062 23553 net.cpp:157] Top shape: 70 1024 (71680)
I1025 11:39:45.408067 23553 net.cpp:157] Top shape: 70 1024 (71680)
I1025 11:39:45.408073 23553 net.cpp:157] Top shape: 70 1024 (71680)
I1025 11:39:45.408082 23553 net.cpp:157] Top shape: 70 1024 (71680)
I1025 11:39:45.408087 23553 net.cpp:157] Top shape: 70 1024 (71680)
I1025 11:39:45.408094 23553 net.cpp:157] Top shape: 70 1024 (71680)
I1025 11:39:45.408102 23553 net.cpp:157] Top shape: 70 1024 (71680)
I1025 11:39:45.408123 23553 net.cpp:165] Memory required for data: 2750622560
I1025 11:39:45.408131 23553 layer_factory.hpp:77] Creating layer conv3_rest
I1025 11:39:45.408152 23553 net.cpp:106] Creating Layer conv3_rest
I1025 11:39:45.408162 23553 net.cpp:454] conv3_rest <- pool3_pool3_0_split_5
I1025 11:39:45.408179 23553 net.cpp:411] conv3_rest -> conv3_rest
I1025 11:39:45.425182 23553 net.cpp:150] Setting up conv3_rest
I1025 11:39:45.425200 23553 net.cpp:157] Top shape: 70 512 7 7 (1756160)
I1025 11:39:45.425205 23553 net.cpp:165] Memory required for data: 2757647200
I1025 11:39:45.425212 23553 layer_factory.hpp:77] Creating layer conv3_rest_bn
I1025 11:39:45.425222 23553 net.cpp:106] Creating Layer conv3_rest_bn
I1025 11:39:45.425227 23553 net.cpp:454] conv3_rest_bn <- conv3_rest
I1025 11:39:45.425233 23553 net.cpp:397] conv3_rest_bn -> conv3_rest (in-place)
I1025 11:39:45.425488 23553 net.cpp:150] Setting up conv3_rest_bn
I1025 11:39:45.425501 23553 net.cpp:157] Top shape: 70 512 7 7 (1756160)
I1025 11:39:45.425505 23553 net.cpp:165] Memory required for data: 2764671840
I1025 11:39:45.425518 23553 layer_factory.hpp:77] Creating layer conv3_rest_scale
I1025 11:39:45.425532 23553 net.cpp:106] Creating Layer conv3_rest_scale
I1025 11:39:45.425540 23553 net.cpp:454] conv3_rest_scale <- conv3_rest
I1025 11:39:45.425550 23553 net.cpp:397] conv3_rest_scale -> conv3_rest (in-place)
I1025 11:39:45.425612 23553 layer_factory.hpp:77] Creating layer conv3_rest_scale
I1025 11:39:45.425770 23553 net.cpp:150] Setting up conv3_rest_scale
I1025 11:39:45.425783 23553 net.cpp:157] Top shape: 70 512 7 7 (1756160)
I1025 11:39:45.425791 23553 net.cpp:165] Memory required for data: 2771696480
I1025 11:39:45.425803 23553 layer_factory.hpp:77] Creating layer prelu3_rest
I1025 11:39:45.425817 23553 net.cpp:106] Creating Layer prelu3_rest
I1025 11:39:45.425825 23553 net.cpp:454] prelu3_rest <- conv3_rest
I1025 11:39:45.425834 23553 net.cpp:397] prelu3_rest -> conv3_rest (in-place)
I1025 11:39:45.425983 23553 net.cpp:150] Setting up prelu3_rest
I1025 11:39:45.425994 23553 net.cpp:157] Top shape: 70 512 7 7 (1756160)
I1025 11:39:45.425998 23553 net.cpp:165] Memory required for data: 2778721120
I1025 11:39:45.426005 23553 layer_factory.hpp:77] Creating layer pool3_rest
I1025 11:39:45.426017 23553 net.cpp:106] Creating Layer pool3_rest
I1025 11:39:45.426024 23553 net.cpp:454] pool3_rest <- conv3_rest
I1025 11:39:45.426036 23553 net.cpp:411] pool3_rest -> pool3_rest
I1025 11:39:45.426283 23553 net.cpp:150] Setting up pool3_rest
I1025 11:39:45.426297 23553 net.cpp:157] Top shape: 70 512 4 4 (573440)
I1025 11:39:45.426301 23553 net.cpp:165] Memory required for data: 2781014880
I1025 11:39:45.426307 23553 layer_factory.hpp:77] Creating layer pool3_rest_pool3_rest_0_split
I1025 11:39:45.426321 23553 net.cpp:106] Creating Layer pool3_rest_pool3_rest_0_split
I1025 11:39:45.426327 23553 net.cpp:454] pool3_rest_pool3_rest_0_split <- pool3_rest
I1025 11:39:45.426337 23553 net.cpp:411] pool3_rest_pool3_rest_0_split -> pool3_rest_pool3_rest_0_split_0
I1025 11:39:45.426348 23553 net.cpp:411] pool3_rest_pool3_rest_0_split -> pool3_rest_pool3_rest_0_split_1
I1025 11:39:45.426360 23553 net.cpp:411] pool3_rest_pool3_rest_0_split -> pool3_rest_pool3_rest_0_split_2
I1025 11:39:45.426370 23553 net.cpp:411] pool3_rest_pool3_rest_0_split -> pool3_rest_pool3_rest_0_split_3
I1025 11:39:45.426380 23553 net.cpp:411] pool3_rest_pool3_rest_0_split -> pool3_rest_pool3_rest_0_split_4
I1025 11:39:45.426479 23553 net.cpp:150] Setting up pool3_rest_pool3_rest_0_split
I1025 11:39:45.426491 23553 net.cpp:157] Top shape: 70 512 4 4 (573440)
I1025 11:39:45.426496 23553 net.cpp:157] Top shape: 70 512 4 4 (573440)
I1025 11:39:45.426502 23553 net.cpp:157] Top shape: 70 512 4 4 (573440)
I1025 11:39:45.426509 23553 net.cpp:157] Top shape: 70 512 4 4 (573440)
I1025 11:39:45.426517 23553 net.cpp:157] Top shape: 70 512 4 4 (573440)
I1025 11:39:45.426522 23553 net.cpp:165] Memory required for data: 2792483680
I1025 11:39:45.426528 23553 layer_factory.hpp:77] Creating layer fc1_aroundhead
I1025 11:39:45.426558 23553 net.cpp:106] Creating Layer fc1_aroundhead
I1025 11:39:45.426568 23553 net.cpp:454] fc1_aroundhead <- pool3_rest_pool3_rest_0_split_0
I1025 11:39:45.426578 23553 net.cpp:411] fc1_aroundhead -> fc1_aroundhead
I1025 11:39:45.502050 23553 net.cpp:150] Setting up fc1_aroundhead
I1025 11:39:45.502110 23553 net.cpp:157] Top shape: 70 1024 (71680)
I1025 11:39:45.502115 23553 net.cpp:165] Memory required for data: 2792770400
I1025 11:39:45.502131 23553 layer_factory.hpp:77] Creating layer relu1_aroundhead
I1025 11:39:45.502146 23553 net.cpp:106] Creating Layer relu1_aroundhead
I1025 11:39:45.502152 23553 net.cpp:454] relu1_aroundhead <- fc1_aroundhead
I1025 11:39:45.502162 23553 net.cpp:397] relu1_aroundhead -> fc1_aroundhead (in-place)
I1025 11:39:45.502926 23553 net.cpp:150] Setting up relu1_aroundhead
I1025 11:39:45.502941 23553 net.cpp:157] Top shape: 70 1024 (71680)
I1025 11:39:45.502945 23553 net.cpp:165] Memory required for data: 2793057120
I1025 11:39:45.502949 23553 layer_factory.hpp:77] Creating layer drop1_aroundhead
I1025 11:39:45.502960 23553 net.cpp:106] Creating Layer drop1_aroundhead
I1025 11:39:45.502964 23553 net.cpp:454] drop1_aroundhead <- fc1_aroundhead
I1025 11:39:45.502970 23553 net.cpp:397] drop1_aroundhead -> fc1_aroundhead (in-place)
I1025 11:39:45.503021 23553 net.cpp:150] Setting up drop1_aroundhead
I1025 11:39:45.503036 23553 net.cpp:157] Top shape: 70 1024 (71680)
I1025 11:39:45.503043 23553 net.cpp:165] Memory required for data: 2793343840
I1025 11:39:45.503051 23553 layer_factory.hpp:77] Creating layer fc2_aroundhead
I1025 11:39:45.503062 23553 net.cpp:106] Creating Layer fc2_aroundhead
I1025 11:39:45.503069 23553 net.cpp:454] fc2_aroundhead <- fc1_aroundhead
I1025 11:39:45.503082 23553 net.cpp:411] fc2_aroundhead -> fc2_aroundhead
I1025 11:39:45.512583 23553 net.cpp:150] Setting up fc2_aroundhead
I1025 11:39:45.512600 23553 net.cpp:157] Top shape: 70 1024 (71680)
I1025 11:39:45.512604 23553 net.cpp:165] Memory required for data: 2793630560
I1025 11:39:45.512611 23553 layer_factory.hpp:77] Creating layer relu2_aroundhead
I1025 11:39:45.512619 23553 net.cpp:106] Creating Layer relu2_aroundhead
I1025 11:39:45.512624 23553 net.cpp:454] relu2_aroundhead <- fc2_aroundhead
I1025 11:39:45.512632 23553 net.cpp:397] relu2_aroundhead -> fc2_aroundhead (in-place)
I1025 11:39:45.512859 23553 net.cpp:150] Setting up relu2_aroundhead
I1025 11:39:45.512876 23553 net.cpp:157] Top shape: 70 1024 (71680)
I1025 11:39:45.512881 23553 net.cpp:165] Memory required for data: 2793917280
I1025 11:39:45.512887 23553 layer_factory.hpp:77] Creating layer drop2_aroundhead
I1025 11:39:45.512899 23553 net.cpp:106] Creating Layer drop2_aroundhead
I1025 11:39:45.512907 23553 net.cpp:454] drop2_aroundhead <- fc2_aroundhead
I1025 11:39:45.512917 23553 net.cpp:397] drop2_aroundhead -> fc2_aroundhead (in-place)
I1025 11:39:45.512966 23553 net.cpp:150] Setting up drop2_aroundhead
I1025 11:39:45.512976 23553 net.cpp:157] Top shape: 70 1024 (71680)
I1025 11:39:45.512980 23553 net.cpp:165] Memory required for data: 2794204000
I1025 11:39:45.512984 23553 layer_factory.hpp:77] Creating layer fc2_aroundhead_drop2_aroundhead_0_split
I1025 11:39:45.513000 23553 net.cpp:106] Creating Layer fc2_aroundhead_drop2_aroundhead_0_split
I1025 11:39:45.513006 23553 net.cpp:454] fc2_aroundhead_drop2_aroundhead_0_split <- fc2_aroundhead
I1025 11:39:45.513017 23553 net.cpp:411] fc2_aroundhead_drop2_aroundhead_0_split -> fc2_aroundhead_drop2_aroundhead_0_split_0
…
I1025 11:39:45.513182 23553 net.cpp:411] fc2_aroundhead_drop2_aroundhead_0_split -> fc2_aroundhead_drop2_aroundhead_0_split_10
I1025 11:39:45.513192 23553 net.cpp:411] fc2_aroundhead_drop2_aroundhead_0_split -> fc2_aroundhead_drop2_aroundhead_0_split_11
I1025 11:39:45.513203 23553 net.cpp:411] fc2_aroundhead_drop2_aroundhead_0_split -> fc2_aroundhead_drop2_aroundhead_0_split_12
I1025 11:39:45.513213 23553 net.cpp:411] fc2_aroundhead_drop2_aroundhead_0_split -> fc2_aroundhead_drop2_aroundhead_0_split_13
I1025 11:39:45.513443 23553 net.cpp:150] Setting up fc2_aroundhead_drop2_aroundhead_0_split
I1025 11:39:45.513454 23553 net.cpp:157] Top shape: 70 1024 (71680)
I1025 11:39:45.513459 23553 net.cpp:157] Top shape: 70 1024 (71680)
I1025 11:39:45.513466 23553 net.cpp:157] Top shape: 70 1024 (71680)
I1025 11:39:45.513473 23553 net.cpp:157] Top shape: 70 1024 (71680)
I1025 11:39:45.513479 23553 net.cpp:157] Top shape: 70 1024 (71680)
I1025 11:39:45.513486 23553 net.cpp:157] Top shape: 70 1024 (71680)
I1025 11:39:45.513494 23553 net.cpp:157] Top shape: 70 1024 (71680)
I1025 11:39:45.513502 23553 net.cpp:157] Top shape: 70 1024 (71680)
I1025 11:39:45.513509 23553 net.cpp:157] Top shape: 70 1024 (71680)
I1025 11:39:45.513516 23553 net.cpp:157] Top shape: 70 1024 (71680)
I1025 11:39:45.513523 23553 net.cpp:157] Top shape: 70 1024 (71680)
I1025 11:39:45.513530 23553 net.cpp:157] Top shape: 70 1024 (71680)
I1025 11:39:45.513538 23553 net.cpp:157] Top shape: 70 1024 (71680)
I1025 11:39:45.513545 23553 net.cpp:157] Top shape: 70 1024 (71680)
I1025 11:39:45.513551 23553 net.cpp:165] Memory required for data: 2798218080
I1025 11:39:45.513557 23553 layer_factory.hpp:77] Creating layer fc1_facialhair
I1025 11:39:45.513572 23553 net.cpp:106] Creating Layer fc1_facialhair
I1025 11:39:45.513581 23553 net.cpp:454] fc1_facialhair <- pool3_rest_pool3_rest_0_split_1
I1025 11:39:45.513593 23553 net.cpp:411] fc1_facialhair -> fc1_facialhair
I1025 11:39:45.588318 23553 net.cpp:150] Setting up fc1_facialhair
I1025 11:39:45.588371 23553 net.cpp:157] Top shape: 70 1024 (71680)
I1025 11:39:45.588376 23553 net.cpp:165] Memory required for data: 2798504800
I1025 11:39:45.588387 23553 layer_factory.hpp:77] Creating layer relu1_facialhair
I1025 11:39:45.588403 23553 net.cpp:106] Creating Layer relu1_facialhair
I1025 11:39:45.588412 23553 net.cpp:454] relu1_facialhair <- fc1_facialhair
I1025 11:39:45.588421 23553 net.cpp:397] relu1_facialhair -> fc1_facialhair (in-place)
I1025 11:39:45.588958 23553 net.cpp:150] Setting up relu1_facialhair
I1025 11:39:45.588986 23553 net.cpp:157] Top shape: 70 1024 (71680)
I1025 11:39:45.588992 23553 net.cpp:165] Memory required for data: 2798791520
I1025 11:39:45.589000 23553 layer_factory.hpp:77] Creating layer drop1_facialhair
I1025 11:39:45.589011 23553 net.cpp:106] Creating Layer drop1_facialhair
I1025 11:39:45.589016 23553 net.cpp:454] drop1_facialhair <- fc1_facialhair
I1025 11:39:45.589022 23553 net.cpp:397] drop1_facialhair -> fc1_facialhair (in-place)
I1025 11:39:45.589082 23553 net.cpp:150] Setting up drop1_facialhair
I1025 11:39:45.589095 23553 net.cpp:157] Top shape: 70 1024 (71680)
I1025 11:39:45.589102 23553 net.cpp:165] Memory required for data: 2799078240
I1025 11:39:45.589108 23553 layer_factory.hpp:77] Creating layer fc2_facialhair
I1025 11:39:45.589126 23553 net.cpp:106] Creating Layer fc2_facialhair
I1025 11:39:45.589133 23553 net.cpp:454] fc2_facialhair <- fc1_facialhair
I1025 11:39:45.589145 23553 net.cpp:411] fc2_facialhair -> fc2_facialhair
I1025 11:39:45.598649 23553 net.cpp:150] Setting up fc2_facialhair
I1025 11:39:45.598665 23553 net.cpp:157] Top shape: 70 1024 (71680)
I1025 11:39:45.598670 23553 net.cpp:165] Memory required for data: 2799364960
I1025 11:39:45.598677 23553 layer_factory.hpp:77] Creating layer relu2_facialhair
I1025 11:39:45.598685 23553 net.cpp:106] Creating Layer relu2_facialhair
I1025 11:39:45.598690 23553 net.cpp:454] relu2_facialhair <- fc2_facialhair
I1025 11:39:45.598697 23553 net.cpp:397] relu2_facialhair -> fc2_facialhair (in-place)
I1025 11:39:45.598914 23553 net.cpp:150] Setting up relu2_facialhair
I1025 11:39:45.598930 23553 net.cpp:157] Top shape: 70 1024 (71680)
I1025 11:39:45.598934 23553 net.cpp:165] Memory required for data: 2799651680
I1025 11:39:45.598939 23553 layer_factory.hpp:77] Creating layer drop2_facialhair
I1025 11:39:45.598949 23553 net.cpp:106] Creating Layer drop2_facialhair
I1025 11:39:45.598956 23553 net.cpp:454] drop2_facialhair <- fc2_facialhair
I1025 11:39:45.598965 23553 net.cpp:397] drop2_facialhair -> fc2_facialhair (in-place)
I1025 11:39:45.599016 23553 net.cpp:150] Setting up drop2_facialhair
I1025 11:39:45.599027 23553 net.cpp:157] Top shape: 70 1024 (71680)
I1025 11:39:45.599031 23553 net.cpp:165] Memory required for data: 2799938400
I1025 11:39:45.599037 23553 layer_factory.hpp:77] Creating layer fc2_facialhair_drop2_facialhair_0_split
I1025 11:39:45.599052 23553 net.cpp:106] Creating Layer fc2_facialhair_drop2_facialhair_0_split
I1025 11:39:45.599059 23553 net.cpp:454] fc2_facialhair_drop2_facialhair_0_split <- fc2_facialhair
I1025 11:39:45.599069 23553 net.cpp:411] fc2_facialhair_drop2_facialhair_0_split -> fc2_facialhair_drop2_facialhair_0_split_0
I1025 11:39:45.599082 23553 net.cpp:411] fc2_facialhair_drop2_facialhair_0_split -> fc2_facialhair_drop2_facialhair_0_split_1
I1025 11:39:45.599093 23553 net.cpp:411] fc2_facialhair_drop2_facialhair_0_split -> fc2_facialhair_drop2_facialhair_0_split_2
I1025 11:39:45.599104 23553 net.cpp:411] fc2_facialhair_drop2_facialhair_0_split -> fc2_facialhair_drop2_facialhair_0_split_3
I1025 11:39:45.599117 23553 net.cpp:411] fc2_facialhair_drop2_facialhair_0_split -> fc2_facialhair_drop2_facialhair_0_split_4
I1025 11:39:45.599128 23553 net.cpp:411] fc2_facialhair_drop2_facialhair_0_split -> fc2_facialhair_drop2_facialhair_0_split_5
I1025 11:39:45.599253 23553 net.cpp:150] Setting up fc2_facialhair_drop2_facialhair_0_split
I1025 11:39:45.599264 23553 net.cpp:157] Top shape: 70 1024 (71680)
I1025 11:39:45.599269 23553 net.cpp:157] Top shape: 70 1024 (71680)
I1025 11:39:45.599277 23553 net.cpp:157] Top shape: 70 1024 (71680)
I1025 11:39:45.599282 23553 net.cpp:157] Top shape: 70 1024 (71680)
I1025 11:39:45.599289 23553 net.cpp:157] Top shape: 70 1024 (71680)
I1025 11:39:45.599297 23553 net.cpp:157] Top shape: 70 1024 (71680)
I1025 11:39:45.599301 23553 net.cpp:165] Memory required for data: 2801658720
I1025 11:39:45.599308 23553 layer_factory.hpp:77] Creating layer fc1_cheeks
I1025 11:39:45.599323 23553 net.cpp:106] Creating Layer fc1_cheeks
I1025 11:39:45.599333 23553 net.cpp:454] fc1_cheeks <- pool3_rest_pool3_rest_0_split_2
I1025 11:39:45.599344 23553 net.cpp:411] fc1_cheeks -> fc1_cheeks
I1025 11:39:45.674123 23553 net.cpp:150] Setting up fc1_cheeks
I1025 11:39:45.674162 23553 net.cpp:157] Top shape: 70 1024 (71680)
I1025 11:39:45.674167 23553 net.cpp:165] Memory required for data: 2801945440
I1025 11:39:45.674180 23553 layer_factory.hpp:77] Creating layer relu1_cheeks
I1025 11:39:45.674193 23553 net.cpp:106] Creating Layer relu1_cheeks
I1025 11:39:45.674201 23553 net.cpp:454] relu1_cheeks <- fc1_cheeks
I1025 11:39:45.674207 23553 net.cpp:397] relu1_cheeks -> fc1_cheeks (in-place)
I1025 11:39:45.674717 23553 net.cpp:150] Setting up relu1_cheeks
I1025 11:39:45.674734 23553 net.cpp:157] Top shape: 70 1024 (71680)
I1025 11:39:45.674743 23553 net.cpp:165] Memory required for data: 2802232160
I1025 11:39:45.674751 23553 layer_factory.hpp:77] Creating layer drop1_cheeks
I1025 11:39:45.674762 23553 net.cpp:106] Creating Layer drop1_cheeks
I1025 11:39:45.674787 23553 net.cpp:454] drop1_cheeks <- fc1_cheeks
I1025 11:39:45.674798 23553 net.cpp:397] drop1_cheeks -> fc1_cheeks (in-place)
I1025 11:39:45.674859 23553 net.cpp:150] Setting up drop1_cheeks
I1025 11:39:45.674870 23553 net.cpp:157] Top shape: 70 1024 (71680)
I1025 11:39:45.674875 23553 net.cpp:165] Memory required for data: 2802518880
I1025 11:39:45.674880 23553 layer_factory.hpp:77] Creating layer fc2_cheeks
I1025 11:39:45.674896 23553 net.cpp:106] Creating Layer fc2_cheeks
I1025 11:39:45.674904 23553 net.cpp:454] fc2_cheeks <- fc1_cheeks
I1025 11:39:45.674916 23553 net.cpp:411] fc2_cheeks -> fc2_cheeks
I1025 11:39:45.684135 23553 net.cpp:150] Setting up fc2_cheeks
I1025 11:39:45.684150 23553 net.cpp:157] Top shape: 70 1024 (71680)
I1025 11:39:45.684166 23553 net.cpp:165] Memory required for data: 2802805600
I1025 11:39:45.684173 23553 layer_factory.hpp:77] Creating layer relu2_cheeks
I1025 11:39:45.684180 23553 net.cpp:106] Creating Layer relu2_cheeks
I1025 11:39:45.684185 23553 net.cpp:454] relu2_cheeks <- fc2_cheeks
I1025 11:39:45.684191 23553 net.cpp:397] relu2_cheeks -> fc2_cheeks (in-place)
I1025 11:39:45.684553 23553 net.cpp:150] Setting up relu2_cheeks
I1025 11:39:45.684568 23553 net.cpp:157] Top shape: 70 1024 (71680)
I1025 11:39:45.684572 23553 net.cpp:165] Memory required for data: 2803092320
I1025 11:39:45.684576 23553 layer_factory.hpp:77] Creating layer drop2_cheeks
I1025 11:39:45.684586 23553 net.cpp:106] Creating Layer drop2_cheeks
I1025 11:39:45.684590 23553 net.cpp:454] drop2_cheeks <- fc2_cheeks
I1025 11:39:45.684597 23553 net.cpp:397] drop2_cheeks -> fc2_cheeks (in-place)
I1025 11:39:45.684645 23553 net.cpp:150] Setting up drop2_cheeks
I1025 11:39:45.684659 23553 net.cpp:157] Top shape: 70 1024 (71680)
I1025 11:39:45.684666 23553 net.cpp:165] Memory required for data: 2803379040
I1025 11:39:45.684672 23553 layer_factory.hpp:77] Creating layer fc2_cheeks_drop2_cheeks_0_split
I1025 11:39:45.684684 23553 net.cpp:106] Creating Layer fc2_cheeks_drop2_cheeks_0_split
I1025 11:39:45.684689 23553 net.cpp:454] fc2_cheeks_drop2_cheeks_0_split <- fc2_cheeks
I1025 11:39:45.684702 23553 net.cpp:411] fc2_cheeks_drop2_cheeks_0_split -> fc2_cheeks_drop2_cheeks_0_split_0
I1025 11:39:45.684715 23553 net.cpp:411] fc2_cheeks_drop2_cheeks_0_split -> fc2_cheeks_drop2_cheeks_0_split_1
I1025 11:39:45.684726 23553 net.cpp:411] fc2_cheeks_drop2_cheeks_0_split -> fc2_cheeks_drop2_cheeks_0_split_2
I1025 11:39:45.684806 23553 net.cpp:150] Setting up fc2_cheeks_drop2_cheeks_0_split
I1025 11:39:45.684819 23553 net.cpp:157] Top shape: 70 1024 (71680)
I1025 11:39:45.684824 23553 net.cpp:157] Top shape: 70 1024 (71680)
I1025 11:39:45.684830 23553 net.cpp:157] Top shape: 70 1024 (71680)
I1025 11:39:45.684835 23553 net.cpp:165] Memory required for data: 2804239200
I1025 11:39:45.684842 23553 layer_factory.hpp:77] Creating layer fc1_fat
I1025 11:39:45.684854 23553 net.cpp:106] Creating Layer fc1_fat
I1025 11:39:45.684864 23553 net.cpp:454] fc1_fat <- pool3_rest_pool3_rest_0_split_3
I1025 11:39:45.684877 23553 net.cpp:411] fc1_fat -> fc1_fat
I1025 11:39:45.759567 23553 net.cpp:150] Setting up fc1_fat
I1025 11:39:45.759613 23553 net.cpp:157] Top shape: 70 1024 (71680)
I1025 11:39:45.759618 23553 net.cpp:165] Memory required for data: 2804525920
I1025 11:39:45.759629 23553 layer_factory.hpp:77] Creating layer relu1_fat
I1025 11:39:45.759642 23553 net.cpp:106] Creating Layer relu1_fat
I1025 11:39:45.759650 23553 net.cpp:454] relu1_fat <- fc1_fat
I1025 11:39:45.759657 23553 net.cpp:397] relu1_fat -> fc1_fat (in-place)
I1025 11:39:45.759958 23553 net.cpp:150] Setting up relu1_fat
I1025 11:39:45.759973 23553 net.cpp:157] Top shape: 70 1024 (71680)
I1025 11:39:45.759976 23553 net.cpp:165] Memory required for data: 2804812640
I1025 11:39:45.759981 23553 layer_factory.hpp:77] Creating layer drop1_fat
I1025 11:39:45.759997 23553 net.cpp:106] Creating Layer drop1_fat
I1025 11:39:45.760005 23553 net.cpp:454] drop1_fat <- fc1_fat
I1025 11:39:45.760015 23553 net.cpp:397] drop1_fat -> fc1_fat (in-place)
I1025 11:39:45.760068 23553 net.cpp:150] Setting up drop1_fat
I1025 11:39:45.760098 23553 net.cpp:157] Top shape: 70 1024 (71680)
I1025 11:39:45.760105 23553 net.cpp:165] Memory required for data: 2805099360
I1025 11:39:45.760110 23553 layer_factory.hpp:77] Creating layer fc2_fat
I1025 11:39:45.760123 23553 net.cpp:106] Creating Layer fc2_fat
I1025 11:39:45.760131 23553 net.cpp:454] fc2_fat <- fc1_fat
I1025 11:39:45.760145 23553 net.cpp:411] fc2_fat -> fc2_fat
I1025 11:39:45.769917 23553 net.cpp:150] Setting up fc2_fat
I1025 11:39:45.769932 23553 net.cpp:157] Top shape: 70 1024 (71680)
I1025 11:39:45.769937 23553 net.cpp:165] Memory required for data: 2805386080
I1025 11:39:45.769944 23553 layer_factory.hpp:77] Creating layer relu2_fat
I1025 11:39:45.769951 23553 net.cpp:106] Creating Layer relu2_fat
I1025 11:39:45.769956 23553 net.cpp:454] relu2_fat <- fc2_fat
I1025 11:39:45.769963 23553 net.cpp:397] relu2_fat -> fc2_fat (in-place)
I1025 11:39:45.770354 23553 net.cpp:150] Setting up relu2_fat
I1025 11:39:45.770370 23553 net.cpp:157] Top shape: 70 1024 (71680)
I1025 11:39:45.770372 23553 net.cpp:165] Memory required for data: 2805672800
I1025 11:39:45.770376 23553 layer_factory.hpp:77] Creating layer drop2_fat
I1025 11:39:45.770386 23553 net.cpp:106] Creating Layer drop2_fat
I1025 11:39:45.770390 23553 net.cpp:454] drop2_fat <- fc2_fat
I1025 11:39:45.770398 23553 net.cpp:397] drop2_fat -> fc2_fat (in-place)
I1025 11:39:45.770455 23553 net.cpp:150] Setting up drop2_fat
I1025 11:39:45.770468 23553 net.cpp:157] Top shape: 70 1024 (71680)
I1025 11:39:45.770473 23553 net.cpp:165] Memory required for data: 2805959520
I1025 11:39:45.770480 23553 layer_factory.hpp:77] Creating layer fc2_fat_drop2_fat_0_split
I1025 11:39:45.770490 23553 net.cpp:106] Creating Layer fc2_fat_drop2_fat_0_split
I1025 11:39:45.770498 23553 net.cpp:454] fc2_fat_drop2_fat_0_split <- fc2_fat
I1025 11:39:45.770511 23553 net.cpp:411] fc2_fat_drop2_fat_0_split -> fc2_fat_drop2_fat_0_split_0
I1025 11:39:45.770524 23553 net.cpp:411] fc2_fat_drop2_fat_0_split -> fc2_fat_drop2_fat_0_split_1
I1025 11:39:45.770534 23553 net.cpp:411] fc2_fat_drop2_fat_0_split -> fc2_fat_drop2_fat_0_split_2
I1025 11:39:45.770617 23553 net.cpp:150] Setting up fc2_fat_drop2_fat_0_split
I1025 11:39:45.770629 23553 net.cpp:157] Top shape: 70 1024 (71680)
I1025 11:39:45.770633 23553 net.cpp:157] Top shape: 70 1024 (71680)
I1025 11:39:45.770639 23553 net.cpp:157] Top shape: 70 1024 (71680)
I1025 11:39:45.770645 23553 net.cpp:165] Memory required for data: 2806819680
I1025 11:39:45.770651 23553 layer_factory.hpp:77] Creating layer fc3_Male
I1025 11:39:45.770665 23553 net.cpp:106] Creating Layer fc3_Male
I1025 11:39:45.770673 23553 net.cpp:454] fc3_Male <- fc2_gender_drop2_gender_0_split_0
I1025 11:39:45.770687 23553 net.cpp:411] fc3_Male -> fc3_Male
I1025 11:39:45.770862 23553 net.cpp:150] Setting up fc3_Male
I1025 11:39:45.770874 23553 net.cpp:157] Top shape: 70 2 (140)
I1025 11:39:45.770879 23553 net.cpp:165] Memory required for data: 2806820240
I1025 11:39:45.770889 23553 layer_factory.hpp:77] Creating layer loss_Male
I1025 11:39:45.770944 23553 net.cpp:106] Creating Layer loss_Male
I1025 11:39:45.770954 23553 net.cpp:454] loss_Male <- fc3_Male
I1025 11:39:45.770961 23553 net.cpp:454] loss_Male <- label_Male
I1025 11:39:45.770972 23553 net.cpp:411] loss_Male -> loss_Male
I1025 11:39:45.771072 23553 net.cpp:150] Setting up loss_Male
I1025 11:39:45.771085 23553 net.cpp:157] Top shape: (1)
I1025 11:39:45.771090 23553 net.cpp:160]     with loss weight 1
I1025 11:39:45.771155 23553 net.cpp:165] Memory required for data: 2806820244
I1025 11:39:45.771162 23553 layer_factory.hpp:77] Creating layer fc3_Big_Nose
I1025 11:39:45.771176 23553 net.cpp:106] Creating Layer fc3_Big_Nose
I1025 11:39:45.771185 23553 net.cpp:454] fc3_Big_Nose <- fc2_nose_drop2_nose_0_split_0
I1025 11:39:45.771198 23553 net.cpp:411] fc3_Big_Nose -> fc3_Big_Nose
I1025 11:39:45.771358 23553 net.cpp:150] Setting up fc3_Big_Nose
I1025 11:39:45.771370 23553 net.cpp:157] Top shape: 70 2 (140)
I1025 11:39:45.771374 23553 net.cpp:165] Memory required for data: 2806820804
I1025 11:39:45.771402 23553 layer_factory.hpp:77] Creating layer loss_Big_Nose
I1025 11:39:45.771419 23553 net.cpp:106] Creating Layer loss_Big_Nose
I1025 11:39:45.771425 23553 net.cpp:454] loss_Big_Nose <- fc3_Big_Nose
I1025 11:39:45.771435 23553 net.cpp:454] loss_Big_Nose <- label_Big_Nose
I1025 11:39:45.771443 23553 net.cpp:411] loss_Big_Nose -> loss_Big_Nose
I1025 11:39:45.771509 23553 net.cpp:150] Setting up loss_Big_Nose
I1025 11:39:45.771520 23553 net.cpp:157] Top shape: (1)
I1025 11:39:45.771524 23553 net.cpp:160]     with loss weight 1
I1025 11:39:45.771533 23553 net.cpp:165] Memory required for data: 2806820808
I1025 11:39:45.771538 23553 layer_factory.hpp:77] Creating layer fc3_Pointy_Nose
I1025 11:39:45.771551 23553 net.cpp:106] Creating Layer fc3_Pointy_Nose
I1025 11:39:45.771559 23553 net.cpp:454] fc3_Pointy_Nose <- fc2_nose_drop2_nose_0_split_1
I1025 11:39:45.771570 23553 net.cpp:411] fc3_Pointy_Nose -> fc3_Pointy_Nose
I1025 11:39:45.771724 23553 net.cpp:150] Setting up fc3_Pointy_Nose
I1025 11:39:45.771737 23553 net.cpp:157] Top shape: 70 2 (140)
I1025 11:39:45.771742 23553 net.cpp:165] Memory required for data: 2806821368
I1025 11:39:45.771793 23553 layer_factory.hpp:77] Creating layer loss_Pointy_Nose
I1025 11:39:45.771808 23553 net.cpp:106] Creating Layer loss_Pointy_Nose
I1025 11:39:45.771814 23553 net.cpp:454] loss_Pointy_Nose <- fc3_Pointy_Nose
I1025 11:39:45.771824 23553 net.cpp:454] loss_Pointy_Nose <- label_Pointy_Nose
I1025 11:39:45.771834 23553 net.cpp:411] loss_Pointy_Nose -> loss_Pointy_Nose
I1025 11:39:45.771904 23553 net.cpp:150] Setting up loss_Pointy_Nose
I1025 11:39:45.771919 23553 net.cpp:157] Top shape: (1)
I1025 11:39:45.771922 23553 net.cpp:160]     with loss weight 1
I1025 11:39:45.771931 23553 net.cpp:165] Memory required for data: 2806821372
I1025 11:39:45.771937 23553 layer_factory.hpp:77] Creating layer fc3_Big_Lips
I1025 11:39:45.771948 23553 net.cpp:106] Creating Layer fc3_Big_Lips
I1025 11:39:45.771956 23553 net.cpp:454] fc3_Big_Lips <- fc2_mouth_drop2_mouth_0_split_0
I1025 11:39:45.771970 23553 net.cpp:411] fc3_Big_Lips -> fc3_Big_Lips
I1025 11:39:45.772130 23553 net.cpp:150] Setting up fc3_Big_Lips
I1025 11:39:45.772143 23553 net.cpp:157] Top shape: 70 2 (140)
I1025 11:39:45.772147 23553 net.cpp:165] Memory required for data: 2806821932
I1025 11:39:45.772157 23553 layer_factory.hpp:77] Creating layer loss_Big_Lips
I1025 11:39:45.772173 23553 net.cpp:106] Creating Layer loss_Big_Lips
I1025 11:39:45.772182 23553 net.cpp:454] loss_Big_Lips <- fc3_Big_Lips
I1025 11:39:45.772192 23553 net.cpp:454] loss_Big_Lips <- label_Big_Lips
I1025 11:39:45.772202 23553 net.cpp:411] loss_Big_Lips -> loss_Big_Lips
I1025 11:39:45.772265 23553 net.cpp:150] Setting up loss_Big_Lips
I1025 11:39:45.772276 23553 net.cpp:157] Top shape: (1)
I1025 11:39:45.772280 23553 net.cpp:160]     with loss weight 1
I1025 11:39:45.772289 23553 net.cpp:165] Memory required for data: 2806821936
I1025 11:39:45.772294 23553 layer_factory.hpp:77] Creating layer fc3_Smiling
I1025 11:39:45.772305 23553 net.cpp:106] Creating Layer fc3_Smiling
I1025 11:39:45.772312 23553 net.cpp:454] fc3_Smiling <- fc2_mouth_drop2_mouth_0_split_1
I1025 11:39:45.772326 23553 net.cpp:411] fc3_Smiling -> fc3_Smiling
I1025 11:39:45.772474 23553 net.cpp:150] Setting up fc3_Smiling
I1025 11:39:45.772485 23553 net.cpp:157] Top shape: 70 2 (140)
I1025 11:39:45.772488 23553 net.cpp:165] Memory required for data: 2806822496
I1025 11:39:45.772500 23553 layer_factory.hpp:77] Creating layer loss_Smiling
I1025 11:39:45.772517 23553 net.cpp:106] Creating Layer loss_Smiling
I1025 11:39:45.772526 23553 net.cpp:454] loss_Smiling <- fc3_Smiling
I1025 11:39:45.772534 23553 net.cpp:454] loss_Smiling <- label_Smiling
I1025 11:39:45.772543 23553 net.cpp:411] loss_Smiling -> loss_Smiling
I1025 11:39:45.772608 23553 net.cpp:150] Setting up loss_Smiling
I1025 11:39:45.772619 23553 net.cpp:157] Top shape: (1)
I1025 11:39:45.772621 23553 net.cpp:160]     with loss weight 1
I1025 11:39:45.772629 23553 net.cpp:165] Memory required for data: 2806822500
I1025 11:39:45.772635 23553 layer_factory.hpp:77] Creating layer fc3_Wearing_Lipstick
I1025 11:39:45.772660 23553 net.cpp:106] Creating Layer fc3_Wearing_Lipstick
I1025 11:39:45.772670 23553 net.cpp:454] fc3_Wearing_Lipstick <- fc2_mouth_drop2_mouth_0_split_2
I1025 11:39:45.772683 23553 net.cpp:411] fc3_Wearing_Lipstick -> fc3_Wearing_Lipstick
I1025 11:39:45.772832 23553 net.cpp:150] Setting up fc3_Wearing_Lipstick
I1025 11:39:45.772845 23553 net.cpp:157] Top shape: 70 2 (140)
I1025 11:39:45.772850 23553 net.cpp:165] Memory required for data: 2806823060
I1025 11:39:45.772860 23553 layer_factory.hpp:77] Creating layer loss_Wearing_Lipstick
I1025 11:39:45.772876 23553 net.cpp:106] Creating Layer loss_Wearing_Lipstick
I1025 11:39:45.772884 23553 net.cpp:454] loss_Wearing_Lipstick <- fc3_Wearing_Lipstick
I1025 11:39:45.772894 23553 net.cpp:454] loss_Wearing_Lipstick <- label_Wearing_Lipstick
I1025 11:39:45.772904 23553 net.cpp:411] loss_Wearing_Lipstick -> loss_Wearing_Lipstick
I1025 11:39:45.772970 23553 net.cpp:150] Setting up loss_Wearing_Lipstick
I1025 11:39:45.772981 23553 net.cpp:157] Top shape: (1)
I1025 11:39:45.772984 23553 net.cpp:160]     with loss weight 1
I1025 11:39:45.772992 23553 net.cpp:165] Memory required for data: 2806823064
I1025 11:39:45.772999 23553 layer_factory.hpp:77] Creating layer fc3_Mouth_Slightly_Open
I1025 11:39:45.773008 23553 net.cpp:106] Creating Layer fc3_Mouth_Slightly_Open
I1025 11:39:45.773015 23553 net.cpp:454] fc3_Mouth_Slightly_Open <- fc2_mouth_drop2_mouth_0_split_3
I1025 11:39:45.773030 23553 net.cpp:411] fc3_Mouth_Slightly_Open -> fc3_Mouth_Slightly_Open
I1025 11:39:45.773185 23553 net.cpp:150] Setting up fc3_Mouth_Slightly_Open
I1025 11:39:45.773196 23553 net.cpp:157] Top shape: 70 2 (140)
I1025 11:39:45.773200 23553 net.cpp:165] Memory required for data: 2806823624
I1025 11:39:45.773211 23553 layer_factory.hpp:77] Creating layer loss_Mouth_Slightly_Open
I1025 11:39:45.773226 23553 net.cpp:106] Creating Layer loss_Mouth_Slightly_Open
I1025 11:39:45.773233 23553 net.cpp:454] loss_Mouth_Slightly_Open <- fc3_Mouth_Slightly_Open
I1025 11:39:45.773242 23553 net.cpp:454] loss_Mouth_Slightly_Open <- label_Mouth_Slightly_Open
I1025 11:39:45.773252 23553 net.cpp:411] loss_Mouth_Slightly_Open -> loss_Mouth_Slightly_Open
I1025 11:39:45.773315 23553 net.cpp:150] Setting up loss_Mouth_Slightly_Open
I1025 11:39:45.773326 23553 net.cpp:157] Top shape: (1)
I1025 11:39:45.773330 23553 net.cpp:160]     with loss weight 1
I1025 11:39:45.773339 23553 net.cpp:165] Memory required for data: 2806823628
I1025 11:39:45.773344 23553 layer_factory.hpp:77] Creating layer fc3_Arched_Eyebrows
I1025 11:39:45.773355 23553 net.cpp:106] Creating Layer fc3_Arched_Eyebrows
I1025 11:39:45.773363 23553 net.cpp:454] fc3_Arched_Eyebrows <- fc2_eyes_drop2_eyes_0_split_0
I1025 11:39:45.773378 23553 net.cpp:411] fc3_Arched_Eyebrows -> fc3_Arched_Eyebrows
I1025 11:39:45.773525 23553 net.cpp:150] Setting up fc3_Arched_Eyebrows
I1025 11:39:45.773537 23553 net.cpp:157] Top shape: 70 2 (140)
I1025 11:39:45.773540 23553 net.cpp:165] Memory required for data: 2806824188
I1025 11:39:45.773550 23553 layer_factory.hpp:77] Creating layer loss_Arched_Eyebrows
I1025 11:39:45.773571 23553 net.cpp:106] Creating Layer loss_Arched_Eyebrows
I1025 11:39:45.773579 23553 net.cpp:454] loss_Arched_Eyebrows <- fc3_Arched_Eyebrows
I1025 11:39:45.773587 23553 net.cpp:454] loss_Arched_Eyebrows <- label_Arched_Eyebrows
I1025 11:39:45.773597 23553 net.cpp:411] loss_Arched_Eyebrows -> loss_Arched_Eyebrows
I1025 11:39:45.773660 23553 net.cpp:150] Setting up loss_Arched_Eyebrows
I1025 11:39:45.773670 23553 net.cpp:157] Top shape: (1)
I1025 11:39:45.773674 23553 net.cpp:160]     with loss weight 1
I1025 11:39:45.773682 23553 net.cpp:165] Memory required for data: 2806824192
I1025 11:39:45.773689 23553 layer_factory.hpp:77] Creating layer fc3_Bags_Under_Eyes
I1025 11:39:45.773699 23553 net.cpp:106] Creating Layer fc3_Bags_Under_Eyes
I1025 11:39:45.773706 23553 net.cpp:454] fc3_Bags_Under_Eyes <- fc2_eyes_drop2_eyes_0_split_1
I1025 11:39:45.773720 23553 net.cpp:411] fc3_Bags_Under_Eyes -> fc3_Bags_Under_Eyes
I1025 11:39:45.773885 23553 net.cpp:150] Setting up fc3_Bags_Under_Eyes
I1025 11:39:45.773896 23553 net.cpp:157] Top shape: 70 2 (140)
I1025 11:39:45.773900 23553 net.cpp:165] Memory required for data: 2806824752
I1025 11:39:45.773911 23553 layer_factory.hpp:77] Creating layer loss_Bags_Under_Eyes
I1025 11:39:45.773927 23553 net.cpp:106] Creating Layer loss_Bags_Under_Eyes
I1025 11:39:45.773936 23553 net.cpp:454] loss_Bags_Under_Eyes <- fc3_Bags_Under_Eyes
I1025 11:39:45.773944 23553 net.cpp:454] loss_Bags_Under_Eyes <- label_Bags_Under_Eyes
I1025 11:39:45.773954 23553 net.cpp:411] loss_Bags_Under_Eyes -> loss_Bags_Under_Eyes
I1025 11:39:45.774018 23553 net.cpp:150] Setting up loss_Bags_Under_Eyes
I1025 11:39:45.774029 23553 net.cpp:157] Top shape: (1)
I1025 11:39:45.774031 23553 net.cpp:160]     with loss weight 1
I1025 11:39:45.774040 23553 net.cpp:165] Memory required for data: 2806824756
I1025 11:39:45.774047 23553 layer_factory.hpp:77] Creating layer fc3_Bushy_Eyebrows
I1025 11:39:45.774057 23553 net.cpp:106] Creating Layer fc3_Bushy_Eyebrows
I1025 11:39:45.774065 23553 net.cpp:454] fc3_Bushy_Eyebrows <- fc2_eyes_drop2_eyes_0_split_2
I1025 11:39:45.774077 23553 net.cpp:411] fc3_Bushy_Eyebrows -> fc3_Bushy_Eyebrows
I1025 11:39:45.774224 23553 net.cpp:150] Setting up fc3_Bushy_Eyebrows
I1025 11:39:45.774236 23553 net.cpp:157] Top shape: 70 2 (140)
I1025 11:39:45.774240 23553 net.cpp:165] Memory required for data: 2806825316
I1025 11:39:45.774250 23553 layer_factory.hpp:77] Creating layer loss_Bushy_Eyebrows
I1025 11:39:45.774266 23553 net.cpp:106] Creating Layer loss_Bushy_Eyebrows
I1025 11:39:45.774274 23553 net.cpp:454] loss_Bushy_Eyebrows <- fc3_Bushy_Eyebrows
I1025 11:39:45.774284 23553 net.cpp:454] loss_Bushy_Eyebrows <- label_Bushy_Eyebrows
I1025 11:39:45.774294 23553 net.cpp:411] loss_Bushy_Eyebrows -> loss_Bushy_Eyebrows
I1025 11:39:45.774358 23553 net.cpp:150] Setting up loss_Bushy_Eyebrows
I1025 11:39:45.774369 23553 net.cpp:157] Top shape: (1)
I1025 11:39:45.774371 23553 net.cpp:160]     with loss weight 1
I1025 11:39:45.774380 23553 net.cpp:165] Memory required for data: 2806825320
I1025 11:39:45.774386 23553 layer_factory.hpp:77] Creating layer fc3_Narrow_Eyes
I1025 11:39:45.774399 23553 net.cpp:106] Creating Layer fc3_Narrow_Eyes
I1025 11:39:45.774407 23553 net.cpp:454] fc3_Narrow_Eyes <- fc2_eyes_drop2_eyes_0_split_3
I1025 11:39:45.774420 23553 net.cpp:411] fc3_Narrow_Eyes -> fc3_Narrow_Eyes
I1025 11:39:45.774569 23553 net.cpp:150] Setting up fc3_Narrow_Eyes
I1025 11:39:45.774580 23553 net.cpp:157] Top shape: 70 2 (140)
I1025 11:39:45.774583 23553 net.cpp:165] Memory required for data: 2806825880
I1025 11:39:45.774593 23553 layer_factory.hpp:77] Creating layer loss_Narrow_Eyes
I1025 11:39:45.774610 23553 net.cpp:106] Creating Layer loss_Narrow_Eyes
I1025 11:39:45.774617 23553 net.cpp:454] loss_Narrow_Eyes <- fc3_Narrow_Eyes
I1025 11:39:45.774626 23553 net.cpp:454] loss_Narrow_Eyes <- label_Narrow_Eyes
I1025 11:39:45.774634 23553 net.cpp:411] loss_Narrow_Eyes -> loss_Narrow_Eyes
I1025 11:39:45.774699 23553 net.cpp:150] Setting up loss_Narrow_Eyes
I1025 11:39:45.774710 23553 net.cpp:157] Top shape: (1)
I1025 11:39:45.774714 23553 net.cpp:160]     with loss weight 1
I1025 11:39:45.774722 23553 net.cpp:165] Memory required for data: 2806825884
I1025 11:39:45.774729 23553 layer_factory.hpp:77] Creating layer fc3_Eyeglasses
I1025 11:39:45.774739 23553 net.cpp:106] Creating Layer fc3_Eyeglasses
I1025 11:39:45.774746 23553 net.cpp:454] fc3_Eyeglasses <- fc2_eyes_drop2_eyes_0_split_4
I1025 11:39:45.774760 23553 net.cpp:411] fc3_Eyeglasses -> fc3_Eyeglasses
I1025 11:39:45.774907 23553 net.cpp:150] Setting up fc3_Eyeglasses
I1025 11:39:45.774919 23553 net.cpp:157] Top shape: 70 2 (140)
I1025 11:39:45.774922 23553 net.cpp:165] Memory required for data: 2806826444
I1025 11:39:45.774932 23553 layer_factory.hpp:77] Creating layer loss_Eyeglasses
I1025 11:39:45.774948 23553 net.cpp:106] Creating Layer loss_Eyeglasses
I1025 11:39:45.774957 23553 net.cpp:454] loss_Eyeglasses <- fc3_Eyeglasses
I1025 11:39:45.774979 23553 net.cpp:454] loss_Eyeglasses <- label_Eyeglasses
I1025 11:39:45.774991 23553 net.cpp:411] loss_Eyeglasses -> loss_Eyeglasses
I1025 11:39:45.775055 23553 net.cpp:150] Setting up loss_Eyeglasses
I1025 11:39:45.775068 23553 net.cpp:157] Top shape: (1)
I1025 11:39:45.775074 23553 net.cpp:160]     with loss weight 1
I1025 11:39:45.775084 23553 net.cpp:165] Memory required for data: 2806826448
I1025 11:39:45.775089 23553 layer_factory.hpp:77] Creating layer fc3_Attractive
I1025 11:39:45.775100 23553 net.cpp:106] Creating Layer fc3_Attractive
I1025 11:39:45.775108 23553 net.cpp:454] fc3_Attractive <- fc2_face_drop2_face_0_split_0
I1025 11:39:45.775121 23553 net.cpp:411] fc3_Attractive -> fc3_Attractive
I1025 11:39:45.775285 23553 net.cpp:150] Setting up fc3_Attractive
I1025 11:39:45.775298 23553 net.cpp:157] Top shape: 70 2 (140)
I1025 11:39:45.775302 23553 net.cpp:165] Memory required for data: 2806827008
I1025 11:39:45.775311 23553 layer_factory.hpp:77] Creating layer loss_Attractive
I1025 11:39:45.775326 23553 net.cpp:106] Creating Layer loss_Attractive
I1025 11:39:45.775336 23553 net.cpp:454] loss_Attractive <- fc3_Attractive
I1025 11:39:45.775344 23553 net.cpp:454] loss_Attractive <- label_Attractive
I1025 11:39:45.775353 23553 net.cpp:411] loss_Attractive -> loss_Attractive
I1025 11:39:45.775423 23553 net.cpp:150] Setting up loss_Attractive
I1025 11:39:45.775434 23553 net.cpp:157] Top shape: (1)
I1025 11:39:45.775437 23553 net.cpp:160]     with loss weight 1
I1025 11:39:45.775445 23553 net.cpp:165] Memory required for data: 2806827012
I1025 11:39:45.775452 23553 layer_factory.hpp:77] Creating layer fc3_Blurry
I1025 11:39:45.775463 23553 net.cpp:106] Creating Layer fc3_Blurry
I1025 11:39:45.775471 23553 net.cpp:454] fc3_Blurry <- fc2_face_drop2_face_0_split_1
I1025 11:39:45.775485 23553 net.cpp:411] fc3_Blurry -> fc3_Blurry
I1025 11:39:45.775635 23553 net.cpp:150] Setting up fc3_Blurry
I1025 11:39:45.775648 23553 net.cpp:157] Top shape: 70 2 (140)
I1025 11:39:45.775652 23553 net.cpp:165] Memory required for data: 2806827572
I1025 11:39:45.775661 23553 layer_factory.hpp:77] Creating layer loss_Blurry
I1025 11:39:45.775681 23553 net.cpp:106] Creating Layer loss_Blurry
I1025 11:39:45.775689 23553 net.cpp:454] loss_Blurry <- fc3_Blurry
I1025 11:39:45.775698 23553 net.cpp:454] loss_Blurry <- label_Blurry
I1025 11:39:45.775708 23553 net.cpp:411] loss_Blurry -> loss_Blurry
I1025 11:39:45.775782 23553 net.cpp:150] Setting up loss_Blurry
I1025 11:39:45.775794 23553 net.cpp:157] Top shape: (1)
I1025 11:39:45.775797 23553 net.cpp:160]     with loss weight 1
I1025 11:39:45.775804 23553 net.cpp:165] Memory required for data: 2806827576
I1025 11:39:45.775811 23553 layer_factory.hpp:77] Creating layer fc3_Oval_Face
I1025 11:39:45.775823 23553 net.cpp:106] Creating Layer fc3_Oval_Face
I1025 11:39:45.775830 23553 net.cpp:454] fc3_Oval_Face <- fc2_face_drop2_face_0_split_2
I1025 11:39:45.775845 23553 net.cpp:411] fc3_Oval_Face -> fc3_Oval_Face
I1025 11:39:45.776000 23553 net.cpp:150] Setting up fc3_Oval_Face
I1025 11:39:45.776012 23553 net.cpp:157] Top shape: 70 2 (140)
I1025 11:39:45.776016 23553 net.cpp:165] Memory required for data: 2806828136
I1025 11:39:45.776026 23553 layer_factory.hpp:77] Creating layer loss_Oval_Face
I1025 11:39:45.776042 23553 net.cpp:106] Creating Layer loss_Oval_Face
I1025 11:39:45.776051 23553 net.cpp:454] loss_Oval_Face <- fc3_Oval_Face
I1025 11:39:45.776059 23553 net.cpp:454] loss_Oval_Face <- label_Oval_Face
I1025 11:39:45.776068 23553 net.cpp:411] loss_Oval_Face -> loss_Oval_Face
I1025 11:39:45.776131 23553 net.cpp:150] Setting up loss_Oval_Face
I1025 11:39:45.776142 23553 net.cpp:157] Top shape: (1)
I1025 11:39:45.776145 23553 net.cpp:160]     with loss weight 1
I1025 11:39:45.776154 23553 net.cpp:165] Memory required for data: 2806828140
I1025 11:39:45.776160 23553 layer_factory.hpp:77] Creating layer fc3_Pale_Skin
I1025 11:39:45.776170 23553 net.cpp:106] Creating Layer fc3_Pale_Skin
I1025 11:39:45.776176 23553 net.cpp:454] fc3_Pale_Skin <- fc2_face_drop2_face_0_split_3
I1025 11:39:45.776206 23553 net.cpp:411] fc3_Pale_Skin -> fc3_Pale_Skin
I1025 11:39:45.776360 23553 net.cpp:150] Setting up fc3_Pale_Skin
I1025 11:39:45.776372 23553 net.cpp:157] Top shape: 70 2 (140)
I1025 11:39:45.776376 23553 net.cpp:165] Memory required for data: 2806828700
I1025 11:39:45.776386 23553 layer_factory.hpp:77] Creating layer loss_Pale_Skin
I1025 11:39:45.776401 23553 net.cpp:106] Creating Layer loss_Pale_Skin
I1025 11:39:45.776409 23553 net.cpp:454] loss_Pale_Skin <- fc3_Pale_Skin
I1025 11:39:45.776417 23553 net.cpp:454] loss_Pale_Skin <- label_Pale_Skin
I1025 11:39:45.776427 23553 net.cpp:411] loss_Pale_Skin -> loss_Pale_Skin
I1025 11:39:45.776491 23553 net.cpp:150] Setting up loss_Pale_Skin
I1025 11:39:45.776504 23553 net.cpp:157] Top shape: (1)
I1025 11:39:45.776506 23553 net.cpp:160]     with loss weight 1
I1025 11:39:45.776515 23553 net.cpp:165] Memory required for data: 2806828704
I1025 11:39:45.776521 23553 layer_factory.hpp:77] Creating layer fc3_Young
I1025 11:39:45.776535 23553 net.cpp:106] Creating Layer fc3_Young
I1025 11:39:45.776541 23553 net.cpp:454] fc3_Young <- fc2_face_drop2_face_0_split_4
I1025 11:39:45.776554 23553 net.cpp:411] fc3_Young -> fc3_Young
I1025 11:39:45.776701 23553 net.cpp:150] Setting up fc3_Young
I1025 11:39:45.776713 23553 net.cpp:157] Top shape: 70 2 (140)
I1025 11:39:45.776717 23553 net.cpp:165] Memory required for data: 2806829264
I1025 11:39:45.776726 23553 layer_factory.hpp:77] Creating layer loss_Young
I1025 11:39:45.776742 23553 net.cpp:106] Creating Layer loss_Young
I1025 11:39:45.776751 23553 net.cpp:454] loss_Young <- fc3_Young
I1025 11:39:45.776759 23553 net.cpp:454] loss_Young <- label_Young
I1025 11:39:45.776768 23553 net.cpp:411] loss_Young -> loss_Young
I1025 11:39:45.776836 23553 net.cpp:150] Setting up loss_Young
I1025 11:39:45.776847 23553 net.cpp:157] Top shape: (1)
I1025 11:39:45.776851 23553 net.cpp:160]     with loss weight 1
I1025 11:39:45.776859 23553 net.cpp:165] Memory required for data: 2806829268
I1025 11:39:45.776865 23553 layer_factory.hpp:77] Creating layer fc3_Heavy_Makeup
I1025 11:39:45.776875 23553 net.cpp:106] Creating Layer fc3_Heavy_Makeup
I1025 11:39:45.776883 23553 net.cpp:454] fc3_Heavy_Makeup <- fc2_face_drop2_face_0_split_5
I1025 11:39:45.776899 23553 net.cpp:411] fc3_Heavy_Makeup -> fc3_Heavy_Makeup
I1025 11:39:45.777052 23553 net.cpp:150] Setting up fc3_Heavy_Makeup
I1025 11:39:45.777065 23553 net.cpp:157] Top shape: 70 2 (140)
I1025 11:39:45.777068 23553 net.cpp:165] Memory required for data: 2806829828
I1025 11:39:45.777077 23553 layer_factory.hpp:77] Creating layer loss_Heavy_Makeup
I1025 11:39:45.777096 23553 net.cpp:106] Creating Layer loss_Heavy_Makeup
I1025 11:39:45.777104 23553 net.cpp:454] loss_Heavy_Makeup <- fc3_Heavy_Makeup
I1025 11:39:45.777113 23553 net.cpp:454] loss_Heavy_Makeup <- label_Heavy_Makeup
I1025 11:39:45.777122 23553 net.cpp:411] loss_Heavy_Makeup -> loss_Heavy_Makeup
I1025 11:39:45.777185 23553 net.cpp:150] Setting up loss_Heavy_Makeup
I1025 11:39:45.777196 23553 net.cpp:157] Top shape: (1)
I1025 11:39:45.777199 23553 net.cpp:160]     with loss weight 1
I1025 11:39:45.777209 23553 net.cpp:165] Memory required for data: 2806829832
I1025 11:39:45.777215 23553 layer_factory.hpp:77] Creating layer fc3_Black_Hair
I1025 11:39:45.777226 23553 net.cpp:106] Creating Layer fc3_Black_Hair
I1025 11:39:45.777235 23553 net.cpp:454] fc3_Black_Hair <- fc2_aroundhead_drop2_aroundhead_0_split_0
I1025 11:39:45.777250 23553 net.cpp:411] fc3_Black_Hair -> fc3_Black_Hair
I1025 11:39:45.777395 23553 net.cpp:150] Setting up fc3_Black_Hair
I1025 11:39:45.777406 23553 net.cpp:157] Top shape: 70 2 (140)
I1025 11:39:45.777413 23553 net.cpp:165] Memory required for data: 2806830392
I1025 11:39:45.777423 23553 layer_factory.hpp:77] Creating layer loss_Black_Hair
I1025 11:39:45.777438 23553 net.cpp:106] Creating Layer loss_Black_Hair
I1025 11:39:45.777446 23553 net.cpp:454] loss_Black_Hair <- fc3_Black_Hair
I1025 11:39:45.777456 23553 net.cpp:454] loss_Black_Hair <- label_Black_Hair
I1025 11:39:45.777464 23553 net.cpp:411] loss_Black_Hair -> loss_Black_Hair
I1025 11:39:45.777545 23553 net.cpp:150] Setting up loss_Black_Hair
I1025 11:39:45.777557 23553 net.cpp:157] Top shape: (1)
I1025 11:39:45.777560 23553 net.cpp:160]     with loss weight 1
I1025 11:39:45.777570 23553 net.cpp:165] Memory required for data: 2806830396
I1025 11:39:45.777575 23553 layer_factory.hpp:77] Creating layer fc3_Blond_Hair
I1025 11:39:45.777587 23553 net.cpp:106] Creating Layer fc3_Blond_Hair
I1025 11:39:45.777595 23553 net.cpp:454] fc3_Blond_Hair <- fc2_aroundhead_drop2_aroundhead_0_split_1
I1025 11:39:45.777608 23553 net.cpp:411] fc3_Blond_Hair -> fc3_Blond_Hair
I1025 11:39:45.777765 23553 net.cpp:150] Setting up fc3_Blond_Hair
I1025 11:39:45.777776 23553 net.cpp:157] Top shape: 70 2 (140)
I1025 11:39:45.777781 23553 net.cpp:165] Memory required for data: 2806830956
I1025 11:39:45.777791 23553 layer_factory.hpp:77] Creating layer loss_Blond_Hair
I1025 11:39:45.777806 23553 net.cpp:106] Creating Layer loss_Blond_Hair
I1025 11:39:45.777814 23553 net.cpp:454] loss_Blond_Hair <- fc3_Blond_Hair
I1025 11:39:45.777823 23553 net.cpp:454] loss_Blond_Hair <- label_Blond_Hair
I1025 11:39:45.777832 23553 net.cpp:411] loss_Blond_Hair -> loss_Blond_Hair
I1025 11:39:45.777896 23553 net.cpp:150] Setting up loss_Blond_Hair
I1025 11:39:45.777907 23553 net.cpp:157] Top shape: (1)
I1025 11:39:45.777915 23553 net.cpp:160]     with loss weight 1
I1025 11:39:45.777923 23553 net.cpp:165] Memory required for data: 2806830960
I1025 11:39:45.777931 23553 layer_factory.hpp:77] Creating layer fc3_Brown_Hair
I1025 11:39:45.777942 23553 net.cpp:106] Creating Layer fc3_Brown_Hair
I1025 11:39:45.777951 23553 net.cpp:454] fc3_Brown_Hair <- fc2_aroundhead_drop2_aroundhead_0_split_2
I1025 11:39:45.777963 23553 net.cpp:411] fc3_Brown_Hair -> fc3_Brown_Hair
I1025 11:39:45.778120 23553 net.cpp:150] Setting up fc3_Brown_Hair
I1025 11:39:45.778131 23553 net.cpp:157] Top shape: 70 2 (140)
I1025 11:39:45.778136 23553 net.cpp:165] Memory required for data: 2806831520
I1025 11:39:45.778144 23553 layer_factory.hpp:77] Creating layer loss_Brown_Hair
I1025 11:39:45.778159 23553 net.cpp:106] Creating Layer loss_Brown_Hair
I1025 11:39:45.778167 23553 net.cpp:454] loss_Brown_Hair <- fc3_Brown_Hair
I1025 11:39:45.778177 23553 net.cpp:454] loss_Brown_Hair <- label_Brown_Hair
I1025 11:39:45.778185 23553 net.cpp:411] loss_Brown_Hair -> loss_Brown_Hair
I1025 11:39:45.778251 23553 net.cpp:150] Setting up loss_Brown_Hair
I1025 11:39:45.778262 23553 net.cpp:157] Top shape: (1)
I1025 11:39:45.778265 23553 net.cpp:160]     with loss weight 1
I1025 11:39:45.778273 23553 net.cpp:165] Memory required for data: 2806831524
I1025 11:39:45.778280 23553 layer_factory.hpp:77] Creating layer fc3_Gray_Hair
I1025 11:39:45.778290 23553 net.cpp:106] Creating Layer fc3_Gray_Hair
I1025 11:39:45.778297 23553 net.cpp:454] fc3_Gray_Hair <- fc2_aroundhead_drop2_aroundhead_0_split_3
I1025 11:39:45.778311 23553 net.cpp:411] fc3_Gray_Hair -> fc3_Gray_Hair
I1025 11:39:45.778466 23553 net.cpp:150] Setting up fc3_Gray_Hair
I1025 11:39:45.778478 23553 net.cpp:157] Top shape: 70 2 (140)
I1025 11:39:45.778482 23553 net.cpp:165] Memory required for data: 2806832084
I1025 11:39:45.778492 23553 layer_factory.hpp:77] Creating layer loss_Gray_Hair
I1025 11:39:45.778506 23553 net.cpp:106] Creating Layer loss_Gray_Hair
I1025 11:39:45.778514 23553 net.cpp:454] loss_Gray_Hair <- fc3_Gray_Hair
I1025 11:39:45.778523 23553 net.cpp:454] loss_Gray_Hair <- label_Gray_Hair
I1025 11:39:45.778532 23553 net.cpp:411] loss_Gray_Hair -> loss_Gray_Hair
I1025 11:39:45.778599 23553 net.cpp:150] Setting up loss_Gray_Hair
I1025 11:39:45.778612 23553 net.cpp:157] Top shape: (1)
I1025 11:39:45.778619 23553 net.cpp:160]     with loss weight 1
I1025 11:39:45.778626 23553 net.cpp:165] Memory required for data: 2806832088
I1025 11:39:45.778635 23553 layer_factory.hpp:77] Creating layer fc3_Wearing_Earrings
I1025 11:39:45.778646 23553 net.cpp:106] Creating Layer fc3_Wearing_Earrings
I1025 11:39:45.778655 23553 net.cpp:454] fc3_Wearing_Earrings <- fc2_aroundhead_drop2_aroundhead_0_split_4
I1025 11:39:45.778681 23553 net.cpp:411] fc3_Wearing_Earrings -> fc3_Wearing_Earrings
I1025 11:39:45.778833 23553 net.cpp:150] Setting up fc3_Wearing_Earrings
I1025 11:39:45.778846 23553 net.cpp:157] Top shape: 70 2 (140)
I1025 11:39:45.778849 23553 net.cpp:165] Memory required for data: 2806832648
I1025 11:39:45.778858 23553 layer_factory.hpp:77] Creating layer loss_Wearing_Earrings
I1025 11:39:45.778872 23553 net.cpp:106] Creating Layer loss_Wearing_Earrings
I1025 11:39:45.778880 23553 net.cpp:454] loss_Wearing_Earrings <- fc3_Wearing_Earrings
I1025 11:39:45.778890 23553 net.cpp:454] loss_Wearing_Earrings <- label_Wearing_Earrings
I1025 11:39:45.778899 23553 net.cpp:411] loss_Wearing_Earrings -> loss_Wearing_Earrings
I1025 11:39:45.778967 23553 net.cpp:150] Setting up loss_Wearing_Earrings
I1025 11:39:45.778980 23553 net.cpp:157] Top shape: (1)
I1025 11:39:45.778982 23553 net.cpp:160]     with loss weight 1
I1025 11:39:45.778991 23553 net.cpp:165] Memory required for data: 2806832652
I1025 11:39:45.778997 23553 layer_factory.hpp:77] Creating layer fc3_Wearing_Necklace
I1025 11:39:45.779007 23553 net.cpp:106] Creating Layer fc3_Wearing_Necklace
I1025 11:39:45.779016 23553 net.cpp:454] fc3_Wearing_Necklace <- fc2_aroundhead_drop2_aroundhead_0_split_5
I1025 11:39:45.779028 23553 net.cpp:411] fc3_Wearing_Necklace -> fc3_Wearing_Necklace
I1025 11:39:45.779184 23553 net.cpp:150] Setting up fc3_Wearing_Necklace
I1025 11:39:45.779196 23553 net.cpp:157] Top shape: 70 2 (140)
I1025 11:39:45.779201 23553 net.cpp:165] Memory required for data: 2806833212
I1025 11:39:45.779211 23553 layer_factory.hpp:77] Creating layer loss_Wearing_Necklace
I1025 11:39:45.779224 23553 net.cpp:106] Creating Layer loss_Wearing_Necklace
I1025 11:39:45.779233 23553 net.cpp:454] loss_Wearing_Necklace <- fc3_Wearing_Necklace
I1025 11:39:45.779242 23553 net.cpp:454] loss_Wearing_Necklace <- label_Wearing_Necklace
I1025 11:39:45.779252 23553 net.cpp:411] loss_Wearing_Necklace -> loss_Wearing_Necklace
I1025 11:39:45.779316 23553 net.cpp:150] Setting up loss_Wearing_Necklace
I1025 11:39:45.779327 23553 net.cpp:157] Top shape: (1)
I1025 11:39:45.779331 23553 net.cpp:160]     with loss weight 1
I1025 11:39:45.779340 23553 net.cpp:165] Memory required for data: 2806833216
I1025 11:39:45.779347 23553 layer_factory.hpp:77] Creating layer fc3_Wearing_Necktie
I1025 11:39:45.779357 23553 net.cpp:106] Creating Layer fc3_Wearing_Necktie
I1025 11:39:45.779366 23553 net.cpp:454] fc3_Wearing_Necktie <- fc2_aroundhead_drop2_aroundhead_0_split_6
I1025 11:39:45.779379 23553 net.cpp:411] fc3_Wearing_Necktie -> fc3_Wearing_Necktie
I1025 11:39:45.779532 23553 net.cpp:150] Setting up fc3_Wearing_Necktie
I1025 11:39:45.779544 23553 net.cpp:157] Top shape: 70 2 (140)
I1025 11:39:45.779547 23553 net.cpp:165] Memory required for data: 2806833776
I1025 11:39:45.779557 23553 layer_factory.hpp:77] Creating layer loss_Wearing_Necktie
I1025 11:39:45.779572 23553 net.cpp:106] Creating Layer loss_Wearing_Necktie
I1025 11:39:45.779579 23553 net.cpp:454] loss_Wearing_Necktie <- fc3_Wearing_Necktie
I1025 11:39:45.779588 23553 net.cpp:454] loss_Wearing_Necktie <- label_Wearing_Necktie
I1025 11:39:45.779597 23553 net.cpp:411] loss_Wearing_Necktie -> loss_Wearing_Necktie
I1025 11:39:45.779662 23553 net.cpp:150] Setting up loss_Wearing_Necktie
I1025 11:39:45.779672 23553 net.cpp:157] Top shape: (1)
I1025 11:39:45.779676 23553 net.cpp:160]     with loss weight 1
I1025 11:39:45.779685 23553 net.cpp:165] Memory required for data: 2806833780
I1025 11:39:45.779691 23553 layer_factory.hpp:77] Creating layer fc3_Bald
I1025 11:39:45.779703 23553 net.cpp:106] Creating Layer fc3_Bald
I1025 11:39:45.779711 23553 net.cpp:454] fc3_Bald <- fc2_aroundhead_drop2_aroundhead_0_split_7
I1025 11:39:45.779724 23553 net.cpp:411] fc3_Bald -> fc3_Bald
I1025 11:39:45.779888 23553 net.cpp:150] Setting up fc3_Bald
I1025 11:39:45.779901 23553 net.cpp:157] Top shape: 70 2 (140)
I1025 11:39:45.779904 23553 net.cpp:165] Memory required for data: 2806834340
I1025 11:39:45.779914 23553 layer_factory.hpp:77] Creating layer loss_Bald
I1025 11:39:45.779943 23553 net.cpp:106] Creating Layer loss_Bald
I1025 11:39:45.779956 23553 net.cpp:454] loss_Bald <- fc3_Bald
I1025 11:39:45.779965 23553 net.cpp:454] loss_Bald <- label_Bald
I1025 11:39:45.779975 23553 net.cpp:411] loss_Bald -> loss_Bald
I1025 11:39:45.780040 23553 net.cpp:150] Setting up loss_Bald
I1025 11:39:45.780050 23553 net.cpp:157] Top shape: (1)
I1025 11:39:45.780055 23553 net.cpp:160]     with loss weight 1
I1025 11:39:45.780062 23553 net.cpp:165] Memory required for data: 2806834344
I1025 11:39:45.780071 23553 layer_factory.hpp:77] Creating layer fc3_Receding_Hairline
I1025 11:39:45.780081 23553 net.cpp:106] Creating Layer fc3_Receding_Hairline
I1025 11:39:45.780088 23553 net.cpp:454] fc3_Receding_Hairline <- fc2_aroundhead_drop2_aroundhead_0_split_8
I1025 11:39:45.780102 23553 net.cpp:411] fc3_Receding_Hairline -> fc3_Receding_Hairline
I1025 11:39:45.780259 23553 net.cpp:150] Setting up fc3_Receding_Hairline
I1025 11:39:45.780272 23553 net.cpp:157] Top shape: 70 2 (140)
I1025 11:39:45.780275 23553 net.cpp:165] Memory required for data: 2806834904
I1025 11:39:45.780284 23553 layer_factory.hpp:77] Creating layer loss_Receding_Hairline
I1025 11:39:45.780299 23553 net.cpp:106] Creating Layer loss_Receding_Hairline
I1025 11:39:45.780308 23553 net.cpp:454] loss_Receding_Hairline <- fc3_Receding_Hairline
I1025 11:39:45.780316 23553 net.cpp:454] loss_Receding_Hairline <- label_Receding_Hairline
I1025 11:39:45.780325 23553 net.cpp:411] loss_Receding_Hairline -> loss_Receding_Hairline
I1025 11:39:45.780390 23553 net.cpp:150] Setting up loss_Receding_Hairline
I1025 11:39:45.780400 23553 net.cpp:157] Top shape: (1)
I1025 11:39:45.780403 23553 net.cpp:160]     with loss weight 1
I1025 11:39:45.780412 23553 net.cpp:165] Memory required for data: 2806834908
I1025 11:39:45.780418 23553 layer_factory.hpp:77] Creating layer fc3_Bangs
I1025 11:39:45.780428 23553 net.cpp:106] Creating Layer fc3_Bangs
I1025 11:39:45.780436 23553 net.cpp:454] fc3_Bangs <- fc2_aroundhead_drop2_aroundhead_0_split_9
I1025 11:39:45.780449 23553 net.cpp:411] fc3_Bangs -> fc3_Bangs
I1025 11:39:45.780596 23553 net.cpp:150] Setting up fc3_Bangs
I1025 11:39:45.780607 23553 net.cpp:157] Top shape: 70 2 (140)
I1025 11:39:45.780611 23553 net.cpp:165] Memory required for data: 2806835468
I1025 11:39:45.780621 23553 layer_factory.hpp:77] Creating layer loss_Bangs
I1025 11:39:45.780634 23553 net.cpp:106] Creating Layer loss_Bangs
I1025 11:39:45.780642 23553 net.cpp:454] loss_Bangs <- fc3_Bangs
I1025 11:39:45.780650 23553 net.cpp:454] loss_Bangs <- label_Bangs
I1025 11:39:45.780659 23553 net.cpp:411] loss_Bangs -> loss_Bangs
I1025 11:39:45.780721 23553 net.cpp:150] Setting up loss_Bangs
I1025 11:39:45.780731 23553 net.cpp:157] Top shape: (1)
I1025 11:39:45.780735 23553 net.cpp:160]     with loss weight 1
I1025 11:39:45.780743 23553 net.cpp:165] Memory required for data: 2806835472
I1025 11:39:45.780751 23553 layer_factory.hpp:77] Creating layer fc3_Wearing_Hat
I1025 11:39:45.780763 23553 net.cpp:106] Creating Layer fc3_Wearing_Hat
I1025 11:39:45.780771 23553 net.cpp:454] fc3_Wearing_Hat <- fc2_aroundhead_drop2_aroundhead_0_split_10
I1025 11:39:45.780783 23553 net.cpp:411] fc3_Wearing_Hat -> fc3_Wearing_Hat
I1025 11:39:45.780938 23553 net.cpp:150] Setting up fc3_Wearing_Hat
I1025 11:39:45.780951 23553 net.cpp:157] Top shape: 70 2 (140)
I1025 11:39:45.780954 23553 net.cpp:165] Memory required for data: 2806836032
I1025 11:39:45.780964 23553 layer_factory.hpp:77] Creating layer loss_Wearing_Hat
I1025 11:39:45.780978 23553 net.cpp:106] Creating Layer loss_Wearing_Hat
I1025 11:39:45.780987 23553 net.cpp:454] loss_Wearing_Hat <- fc3_Wearing_Hat
I1025 11:39:45.780995 23553 net.cpp:454] loss_Wearing_Hat <- label_Wearing_Hat
I1025 11:39:45.781005 23553 net.cpp:411] loss_Wearing_Hat -> loss_Wearing_Hat
I1025 11:39:45.781069 23553 net.cpp:150] Setting up loss_Wearing_Hat
I1025 11:39:45.781080 23553 net.cpp:157] Top shape: (1)
I1025 11:39:45.781083 23553 net.cpp:160]     with loss weight 1
I1025 11:39:45.781091 23553 net.cpp:165] Memory required for data: 2806836036
I1025 11:39:45.781111 23553 layer_factory.hpp:77] Creating layer fc3_Straight_Hair
I1025 11:39:45.781122 23553 net.cpp:106] Creating Layer fc3_Straight_Hair
I1025 11:39:45.781131 23553 net.cpp:454] fc3_Straight_Hair <- fc2_aroundhead_drop2_aroundhead_0_split_11
I1025 11:39:45.781143 23553 net.cpp:411] fc3_Straight_Hair -> fc3_Straight_Hair
I1025 11:39:45.781291 23553 net.cpp:150] Setting up fc3_Straight_Hair
I1025 11:39:45.781302 23553 net.cpp:157] Top shape: 70 2 (140)
I1025 11:39:45.781306 23553 net.cpp:165] Memory required for data: 2806836596
I1025 11:39:45.781316 23553 layer_factory.hpp:77] Creating layer loss_Straight_Hair
I1025 11:39:45.781332 23553 net.cpp:106] Creating Layer loss_Straight_Hair
I1025 11:39:45.781339 23553 net.cpp:454] loss_Straight_Hair <- fc3_Straight_Hair
I1025 11:39:45.781348 23553 net.cpp:454] loss_Straight_Hair <- label_Straight_Hair
I1025 11:39:45.781358 23553 net.cpp:411] loss_Straight_Hair -> loss_Straight_Hair
I1025 11:39:45.781420 23553 net.cpp:150] Setting up loss_Straight_Hair
I1025 11:39:45.781431 23553 net.cpp:157] Top shape: (1)
I1025 11:39:45.781435 23553 net.cpp:160]     with loss weight 1
I1025 11:39:45.781443 23553 net.cpp:165] Memory required for data: 2806836600
I1025 11:39:45.781451 23553 layer_factory.hpp:77] Creating layer fc3_Wavy_Hair
I1025 11:39:45.781461 23553 net.cpp:106] Creating Layer fc3_Wavy_Hair
I1025 11:39:45.781469 23553 net.cpp:454] fc3_Wavy_Hair <- fc2_aroundhead_drop2_aroundhead_0_split_12
I1025 11:39:45.781481 23553 net.cpp:411] fc3_Wavy_Hair -> fc3_Wavy_Hair
I1025 11:39:45.781641 23553 net.cpp:150] Setting up fc3_Wavy_Hair
I1025 11:39:45.781653 23553 net.cpp:157] Top shape: 70 2 (140)
I1025 11:39:45.781657 23553 net.cpp:165] Memory required for data: 2806837160
I1025 11:39:45.781667 23553 layer_factory.hpp:77] Creating layer loss_Wavy_Hair
I1025 11:39:45.781680 23553 net.cpp:106] Creating Layer loss_Wavy_Hair
I1025 11:39:45.781688 23553 net.cpp:454] loss_Wavy_Hair <- fc3_Wavy_Hair
I1025 11:39:45.781698 23553 net.cpp:454] loss_Wavy_Hair <- label_Wavy_Hair
I1025 11:39:45.781708 23553 net.cpp:411] loss_Wavy_Hair -> loss_Wavy_Hair
I1025 11:39:45.781772 23553 net.cpp:150] Setting up loss_Wavy_Hair
I1025 11:39:45.781782 23553 net.cpp:157] Top shape: (1)
I1025 11:39:45.781786 23553 net.cpp:160]     with loss weight 1
I1025 11:39:45.781795 23553 net.cpp:165] Memory required for data: 2806837164
I1025 11:39:45.781801 23553 layer_factory.hpp:77] Creating layer fc3_5_o_Clock_Shadow
I1025 11:39:45.781813 23553 net.cpp:106] Creating Layer fc3_5_o_Clock_Shadow
I1025 11:39:45.781821 23553 net.cpp:454] fc3_5_o_Clock_Shadow <- fc2_facialhair_drop2_facialhair_0_split_0
I1025 11:39:45.781837 23553 net.cpp:411] fc3_5_o_Clock_Shadow -> fc3_5_o_Clock_Shadow
I1025 11:39:45.781985 23553 net.cpp:150] Setting up fc3_5_o_Clock_Shadow
I1025 11:39:45.781999 23553 net.cpp:157] Top shape: 70 2 (140)
I1025 11:39:45.782006 23553 net.cpp:165] Memory required for data: 2806837724
I1025 11:39:45.782016 23553 layer_factory.hpp:77] Creating layer loss_5_o_Clock_Shadow
I1025 11:39:45.782028 23553 net.cpp:106] Creating Layer loss_5_o_Clock_Shadow
I1025 11:39:45.782037 23553 net.cpp:454] loss_5_o_Clock_Shadow <- fc3_5_o_Clock_Shadow
I1025 11:39:45.782045 23553 net.cpp:454] loss_5_o_Clock_Shadow <- label_5_o_Clock_Shadow
I1025 11:39:45.782054 23553 net.cpp:411] loss_5_o_Clock_Shadow -> loss_5_o_Clock_Shadow
I1025 11:39:45.782117 23553 net.cpp:150] Setting up loss_5_o_Clock_Shadow
I1025 11:39:45.782127 23553 net.cpp:157] Top shape: (1)
I1025 11:39:45.782131 23553 net.cpp:160]     with loss weight 1
I1025 11:39:45.782140 23553 net.cpp:165] Memory required for data: 2806837728
I1025 11:39:45.782147 23553 layer_factory.hpp:77] Creating layer fc3_Mustache
I1025 11:39:45.782157 23553 net.cpp:106] Creating Layer fc3_Mustache
I1025 11:39:45.782166 23553 net.cpp:454] fc3_Mustache <- fc2_facialhair_drop2_facialhair_0_split_1
I1025 11:39:45.782178 23553 net.cpp:411] fc3_Mustache -> fc3_Mustache
I1025 11:39:45.782333 23553 net.cpp:150] Setting up fc3_Mustache
I1025 11:39:45.782344 23553 net.cpp:157] Top shape: 70 2 (140)
I1025 11:39:45.782361 23553 net.cpp:165] Memory required for data: 2806838288
I1025 11:39:45.782373 23553 layer_factory.hpp:77] Creating layer loss_Mustache
I1025 11:39:45.782389 23553 net.cpp:106] Creating Layer loss_Mustache
I1025 11:39:45.782397 23553 net.cpp:454] loss_Mustache <- fc3_Mustache
I1025 11:39:45.782405 23553 net.cpp:454] loss_Mustache <- label_Mustache
I1025 11:39:45.782415 23553 net.cpp:411] loss_Mustache -> loss_Mustache
I1025 11:39:45.782480 23553 net.cpp:150] Setting up loss_Mustache
I1025 11:39:45.782490 23553 net.cpp:157] Top shape: (1)
I1025 11:39:45.782493 23553 net.cpp:160]     with loss weight 1
I1025 11:39:45.782502 23553 net.cpp:165] Memory required for data: 2806838292
I1025 11:39:45.782508 23553 layer_factory.hpp:77] Creating layer fc3_No_Beard
I1025 11:39:45.782518 23553 net.cpp:106] Creating Layer fc3_No_Beard
I1025 11:39:45.782526 23553 net.cpp:454] fc3_No_Beard <- fc2_facialhair_drop2_facialhair_0_split_2
I1025 11:39:45.782539 23553 net.cpp:411] fc3_No_Beard -> fc3_No_Beard
I1025 11:39:45.782696 23553 net.cpp:150] Setting up fc3_No_Beard
I1025 11:39:45.782707 23553 net.cpp:157] Top shape: 70 2 (140)
I1025 11:39:45.782711 23553 net.cpp:165] Memory required for data: 2806838852
I1025 11:39:45.782721 23553 layer_factory.hpp:77] Creating layer loss_No_Beard
I1025 11:39:45.782735 23553 net.cpp:106] Creating Layer loss_No_Beard
I1025 11:39:45.782743 23553 net.cpp:454] loss_No_Beard <- fc3_No_Beard
I1025 11:39:45.782752 23553 net.cpp:454] loss_No_Beard <- label_No_Beard
I1025 11:39:45.782760 23553 net.cpp:411] loss_No_Beard -> loss_No_Beard
I1025 11:39:45.782824 23553 net.cpp:150] Setting up loss_No_Beard
I1025 11:39:45.782835 23553 net.cpp:157] Top shape: (1)
I1025 11:39:45.782838 23553 net.cpp:160]     with loss weight 1
I1025 11:39:45.782846 23553 net.cpp:165] Memory required for data: 2806838856
I1025 11:39:45.782853 23553 layer_factory.hpp:77] Creating layer fc3_Sideburns
I1025 11:39:45.782865 23553 net.cpp:106] Creating Layer fc3_Sideburns
I1025 11:39:45.782872 23553 net.cpp:454] fc3_Sideburns <- fc2_facialhair_drop2_facialhair_0_split_3
I1025 11:39:45.782886 23553 net.cpp:411] fc3_Sideburns -> fc3_Sideburns
I1025 11:39:45.783046 23553 net.cpp:150] Setting up fc3_Sideburns
I1025 11:39:45.783057 23553 net.cpp:157] Top shape: 70 2 (140)
I1025 11:39:45.783061 23553 net.cpp:165] Memory required for data: 2806839416
I1025 11:39:45.783071 23553 layer_factory.hpp:77] Creating layer loss_Sideburns
I1025 11:39:45.783084 23553 net.cpp:106] Creating Layer loss_Sideburns
I1025 11:39:45.783093 23553 net.cpp:454] loss_Sideburns <- fc3_Sideburns
I1025 11:39:45.783102 23553 net.cpp:454] loss_Sideburns <- label_Sideburns
I1025 11:39:45.783112 23553 net.cpp:411] loss_Sideburns -> loss_Sideburns
I1025 11:39:45.783175 23553 net.cpp:150] Setting up loss_Sideburns
I1025 11:39:45.783187 23553 net.cpp:157] Top shape: (1)
I1025 11:39:45.783190 23553 net.cpp:160]     with loss weight 1
I1025 11:39:45.783200 23553 net.cpp:165] Memory required for data: 2806839420
I1025 11:39:45.783205 23553 layer_factory.hpp:77] Creating layer fc3_Goatee
I1025 11:39:45.783215 23553 net.cpp:106] Creating Layer fc3_Goatee
I1025 11:39:45.783223 23553 net.cpp:454] fc3_Goatee <- fc2_facialhair_drop2_facialhair_0_split_4
I1025 11:39:45.783236 23553 net.cpp:411] fc3_Goatee -> fc3_Goatee
I1025 11:39:45.783395 23553 net.cpp:150] Setting up fc3_Goatee
I1025 11:39:45.783406 23553 net.cpp:157] Top shape: 70 2 (140)
I1025 11:39:45.783411 23553 net.cpp:165] Memory required for data: 2806839980
I1025 11:39:45.783421 23553 layer_factory.hpp:77] Creating layer loss_Goatee
I1025 11:39:45.783434 23553 net.cpp:106] Creating Layer loss_Goatee
I1025 11:39:45.783443 23553 net.cpp:454] loss_Goatee <- fc3_Goatee
I1025 11:39:45.783450 23553 net.cpp:454] loss_Goatee <- label_Goatee
I1025 11:39:45.783459 23553 net.cpp:411] loss_Goatee -> loss_Goatee
I1025 11:39:45.783524 23553 net.cpp:150] Setting up loss_Goatee
I1025 11:39:45.783535 23553 net.cpp:157] Top shape: (1)
I1025 11:39:45.783538 23553 net.cpp:160]     with loss weight 1
I1025 11:39:45.783560 23553 net.cpp:165] Memory required for data: 2806839984
I1025 11:39:45.783568 23553 layer_factory.hpp:77] Creating layer fc3_High_Cheekbones
I1025 11:39:45.783579 23553 net.cpp:106] Creating Layer fc3_High_Cheekbones
I1025 11:39:45.783586 23553 net.cpp:454] fc3_High_Cheekbones <- fc2_cheeks_drop2_cheeks_0_split_0
I1025 11:39:45.783601 23553 net.cpp:411] fc3_High_Cheekbones -> fc3_High_Cheekbones
I1025 11:39:45.783756 23553 net.cpp:150] Setting up fc3_High_Cheekbones
I1025 11:39:45.783771 23553 net.cpp:157] Top shape: 70 2 (140)
I1025 11:39:45.783776 23553 net.cpp:165] Memory required for data: 2806840544
I1025 11:39:45.783784 23553 layer_factory.hpp:77] Creating layer loss_High_Cheekbones
I1025 11:39:45.783798 23553 net.cpp:106] Creating Layer loss_High_Cheekbones
I1025 11:39:45.783807 23553 net.cpp:454] loss_High_Cheekbones <- fc3_High_Cheekbones
I1025 11:39:45.783814 23553 net.cpp:454] loss_High_Cheekbones <- label_High_Cheekbones
I1025 11:39:45.783823 23553 net.cpp:411] loss_High_Cheekbones -> loss_High_Cheekbones
I1025 11:39:45.783888 23553 net.cpp:150] Setting up loss_High_Cheekbones
I1025 11:39:45.783900 23553 net.cpp:157] Top shape: (1)
I1025 11:39:45.783903 23553 net.cpp:160]     with loss weight 1
I1025 11:39:45.783911 23553 net.cpp:165] Memory required for data: 2806840548
I1025 11:39:45.783918 23553 layer_factory.hpp:77] Creating layer fc3_Rosy_Cheeks
I1025 11:39:45.783928 23553 net.cpp:106] Creating Layer fc3_Rosy_Cheeks
I1025 11:39:45.783936 23553 net.cpp:454] fc3_Rosy_Cheeks <- fc2_cheeks_drop2_cheeks_0_split_1
I1025 11:39:45.783952 23553 net.cpp:411] fc3_Rosy_Cheeks -> fc3_Rosy_Cheeks
…
I1025 11:39:48.214195 23553 net.cpp:157] Top shape: (1)
I1025 11:39:48.214197 23553 net.cpp:160]     with loss weight 1
I1025 11:39:48.214220 23553 net.cpp:165] Memory required for data: 2566236676
I1025 11:39:48.214228 23553 layer_factory.hpp:77] Creating layer fc3_Big_Nose
I1025 11:39:48.214241 23553 net.cpp:106] Creating Layer fc3_Big_Nose
I1025 11:39:48.214251 23553 net.cpp:454] fc3_Big_Nose <- fc2_nose_drop2_nose_0_split_0
I1025 11:39:48.214263 23553 net.cpp:411] fc3_Big_Nose -> fc3_Big_Nose
I1025 11:39:48.214452 23553 net.cpp:150] Setting up fc3_Big_Nose
I1025 11:39:48.214465 23553 net.cpp:157] Top shape: 64 2 (128)
I1025 11:39:48.214469 23553 net.cpp:165] Memory required for data: 2566237188
I1025 11:39:48.214475 23553 layer_factory.hpp:77] Creating layer loss_Big_Nose
I1025 11:39:48.214483 23553 net.cpp:106] Creating Layer loss_Big_Nose
I1025 11:39:48.214493 23553 net.cpp:454] loss_Big_Nose <- fc3_Big_Nose
I1025 11:39:48.214500 23553 net.cpp:454] loss_Big_Nose <- label_Big_Nose
I1025 11:39:48.214516 23553 net.cpp:411] loss_Big_Nose -> loss_Big_Nose
I1025 11:39:48.214596 23553 net.cpp:150] Setting up loss_Big_Nose
I1025 11:39:48.214607 23553 net.cpp:157] Top shape: (1)
I1025 11:39:48.214610 23553 net.cpp:160]     with loss weight 1
I1025 11:39:48.214619 23553 net.cpp:165] Memory required for data: 2566237192
I1025 11:39:48.214627 23553 layer_factory.hpp:77] Creating layer fc3_Pointy_Nose
I1025 11:39:48.214642 23553 net.cpp:106] Creating Layer fc3_Pointy_Nose
I1025 11:39:48.214653 23553 net.cpp:454] fc3_Pointy_Nose <- fc2_nose_drop2_nose_0_split_1
I1025 11:39:48.214669 23553 net.cpp:411] fc3_Pointy_Nose -> fc3_Pointy_Nose
I1025 11:39:48.214849 23553 net.cpp:150] Setting up fc3_Pointy_Nose
I1025 11:39:48.214864 23553 net.cpp:157] Top shape: 64 2 (128)
I1025 11:39:48.214867 23553 net.cpp:165] Memory required for data: 2566237704
I1025 11:39:48.214902 23553 layer_factory.hpp:77] Creating layer loss_Pointy_Nose
I1025 11:39:48.214915 23553 net.cpp:106] Creating Layer loss_Pointy_Nose
I1025 11:39:48.214920 23553 net.cpp:454] loss_Pointy_Nose <- fc3_Pointy_Nose
I1025 11:39:48.214926 23553 net.cpp:454] loss_Pointy_Nose <- label_Pointy_Nose
I1025 11:39:48.214932 23553 net.cpp:411] loss_Pointy_Nose -> loss_Pointy_Nose
I1025 11:39:48.215010 23553 net.cpp:150] Setting up loss_Pointy_Nose
I1025 11:39:48.215023 23553 net.cpp:157] Top shape: (1)
I1025 11:39:48.215025 23553 net.cpp:160]     with loss weight 1
I1025 11:39:48.215031 23553 net.cpp:165] Memory required for data: 2566237708
I1025 11:39:48.215050 23553 layer_factory.hpp:77] Creating layer fc3_Big_Lips
I1025 11:39:48.215065 23553 net.cpp:106] Creating Layer fc3_Big_Lips
I1025 11:39:48.215076 23553 net.cpp:454] fc3_Big_Lips <- fc2_mouth_drop2_mouth_0_split_0
I1025 11:39:48.215090 23553 net.cpp:411] fc3_Big_Lips -> fc3_Big_Lips
I1025 11:39:48.215281 23553 net.cpp:150] Setting up fc3_Big_Lips
I1025 11:39:48.215294 23553 net.cpp:157] Top shape: 64 2 (128)
I1025 11:39:48.215297 23553 net.cpp:165] Memory required for data: 2566238220
I1025 11:39:48.215309 23553 layer_factory.hpp:77] Creating layer loss_Big_Lips
I1025 11:39:48.215320 23553 net.cpp:106] Creating Layer loss_Big_Lips
I1025 11:39:48.215329 23553 net.cpp:454] loss_Big_Lips <- fc3_Big_Lips
I1025 11:39:48.215338 23553 net.cpp:454] loss_Big_Lips <- label_Big_Lips
I1025 11:39:48.215351 23553 net.cpp:411] loss_Big_Lips -> loss_Big_Lips
I1025 11:39:48.215430 23553 net.cpp:150] Setting up loss_Big_Lips
I1025 11:39:48.215441 23553 net.cpp:157] Top shape: (1)
I1025 11:39:48.215445 23553 net.cpp:160]     with loss weight 1
I1025 11:39:48.215453 23553 net.cpp:165] Memory required for data: 2566238224
I1025 11:39:48.215461 23553 layer_factory.hpp:77] Creating layer fc3_Smiling
I1025 11:39:48.215476 23553 net.cpp:106] Creating Layer fc3_Smiling
I1025 11:39:48.215487 23553 net.cpp:454] fc3_Smiling <- fc2_mouth_drop2_mouth_0_split_1
I1025 11:39:48.215500 23553 net.cpp:411] fc3_Smiling -> fc3_Smiling
I1025 11:39:48.215680 23553 net.cpp:150] Setting up fc3_Smiling
I1025 11:39:48.215692 23553 net.cpp:157] Top shape: 64 2 (128)
I1025 11:39:48.215697 23553 net.cpp:165] Memory required for data: 2566238736
I1025 11:39:48.215708 23553 layer_factory.hpp:77] Creating layer loss_Smiling
I1025 11:39:48.215723 23553 net.cpp:106] Creating Layer loss_Smiling
I1025 11:39:48.215731 23553 net.cpp:454] loss_Smiling <- fc3_Smiling
I1025 11:39:48.215740 23553 net.cpp:454] loss_Smiling <- label_Smiling
I1025 11:39:48.215752 23553 net.cpp:411] loss_Smiling -> loss_Smiling
I1025 11:39:48.215845 23553 net.cpp:150] Setting up loss_Smiling
I1025 11:39:48.215858 23553 net.cpp:157] Top shape: (1)
I1025 11:39:48.215862 23553 net.cpp:160]     with loss weight 1
I1025 11:39:48.215872 23553 net.cpp:165] Memory required for data: 2566238740
I1025 11:39:48.215878 23553 layer_factory.hpp:77] Creating layer fc3_Wearing_Lipstick
I1025 11:39:48.215891 23553 net.cpp:106] Creating Layer fc3_Wearing_Lipstick
I1025 11:39:48.215903 23553 net.cpp:454] fc3_Wearing_Lipstick <- fc2_mouth_drop2_mouth_0_split_2
I1025 11:39:48.215911 23553 net.cpp:411] fc3_Wearing_Lipstick -> fc3_Wearing_Lipstick
I1025 11:39:48.216104 23553 net.cpp:150] Setting up fc3_Wearing_Lipstick
I1025 11:39:48.216120 23553 net.cpp:157] Top shape: 64 2 (128)
I1025 11:39:48.216125 23553 net.cpp:165] Memory required for data: 2566239252
I1025 11:39:48.216131 23553 layer_factory.hpp:77] Creating layer loss_Wearing_Lipstick
I1025 11:39:48.216140 23553 net.cpp:106] Creating Layer loss_Wearing_Lipstick
I1025 11:39:48.216150 23553 net.cpp:454] loss_Wearing_Lipstick <- fc3_Wearing_Lipstick
I1025 11:39:48.216158 23553 net.cpp:454] loss_Wearing_Lipstick <- label_Wearing_Lipstick
I1025 11:39:48.216167 23553 net.cpp:411] loss_Wearing_Lipstick -> loss_Wearing_Lipstick
I1025 11:39:48.216246 23553 net.cpp:150] Setting up loss_Wearing_Lipstick
I1025 11:39:48.216259 23553 net.cpp:157] Top shape: (1)
I1025 11:39:48.216261 23553 net.cpp:160]     with loss weight 1
I1025 11:39:48.216267 23553 net.cpp:165] Memory required for data: 2566239256
I1025 11:39:48.216271 23553 layer_factory.hpp:77] Creating layer fc3_Mouth_Slightly_Open
I1025 11:39:48.216281 23553 net.cpp:106] Creating Layer fc3_Mouth_Slightly_Open
I1025 11:39:48.216286 23553 net.cpp:454] fc3_Mouth_Slightly_Open <- fc2_mouth_drop2_mouth_0_split_3
I1025 11:39:48.216292 23553 net.cpp:411] fc3_Mouth_Slightly_Open -> fc3_Mouth_Slightly_Open
I1025 11:39:48.216492 23553 net.cpp:150] Setting up fc3_Mouth_Slightly_Open
I1025 11:39:48.216505 23553 net.cpp:157] Top shape: 64 2 (128)
I1025 11:39:48.216508 23553 net.cpp:165] Memory required for data: 2566239768
I1025 11:39:48.216526 23553 layer_factory.hpp:77] Creating layer loss_Mouth_Slightly_Open
I1025 11:39:48.216536 23553 net.cpp:106] Creating Layer loss_Mouth_Slightly_Open
I1025 11:39:48.216545 23553 net.cpp:454] loss_Mouth_Slightly_Open <- fc3_Mouth_Slightly_Open
I1025 11:39:48.216554 23553 net.cpp:454] loss_Mouth_Slightly_Open <- label_Mouth_Slightly_Open
I1025 11:39:48.216563 23553 net.cpp:411] loss_Mouth_Slightly_Open -> loss_Mouth_Slightly_Open
I1025 11:39:48.216648 23553 net.cpp:150] Setting up loss_Mouth_Slightly_Open
I1025 11:39:48.216662 23553 net.cpp:157] Top shape: (1)
I1025 11:39:48.216666 23553 net.cpp:160]     with loss weight 1
I1025 11:39:48.216672 23553 net.cpp:165] Memory required for data: 2566239772
I1025 11:39:48.216676 23553 layer_factory.hpp:77] Creating layer fc3_Arched_Eyebrows
I1025 11:39:48.216686 23553 net.cpp:106] Creating Layer fc3_Arched_Eyebrows
I1025 11:39:48.216696 23553 net.cpp:454] fc3_Arched_Eyebrows <- fc2_eyes_drop2_eyes_0_split_0
I1025 11:39:48.216706 23553 net.cpp:411] fc3_Arched_Eyebrows -> fc3_Arched_Eyebrows
I1025 11:39:48.216892 23553 net.cpp:150] Setting up fc3_Arched_Eyebrows
I1025 11:39:48.216905 23553 net.cpp:157] Top shape: 64 2 (128)
I1025 11:39:48.216908 23553 net.cpp:165] Memory required for data: 2566240284
I1025 11:39:48.216915 23553 layer_factory.hpp:77] Creating layer loss_Arched_Eyebrows
I1025 11:39:48.216923 23553 net.cpp:106] Creating Layer loss_Arched_Eyebrows
I1025 11:39:48.216931 23553 net.cpp:454] loss_Arched_Eyebrows <- fc3_Arched_Eyebrows
I1025 11:39:48.216939 23553 net.cpp:454] loss_Arched_Eyebrows <- label_Arched_Eyebrows
I1025 11:39:48.216953 23553 net.cpp:411] loss_Arched_Eyebrows -> loss_Arched_Eyebrows
I1025 11:39:48.217028 23553 net.cpp:150] Setting up loss_Arched_Eyebrows
I1025 11:39:48.217041 23553 net.cpp:157] Top shape: (1)
I1025 11:39:48.217044 23553 net.cpp:160]     with loss weight 1
I1025 11:39:48.217052 23553 net.cpp:165] Memory required for data: 2566240288
I1025 11:39:48.217059 23553 layer_factory.hpp:77] Creating layer fc3_Bags_Under_Eyes
I1025 11:39:48.217068 23553 net.cpp:106] Creating Layer fc3_Bags_Under_Eyes
I1025 11:39:48.217077 23553 net.cpp:454] fc3_Bags_Under_Eyes <- fc2_eyes_drop2_eyes_0_split_1
I1025 11:39:48.217087 23553 net.cpp:411] fc3_Bags_Under_Eyes -> fc3_Bags_Under_Eyes
I1025 11:39:48.217275 23553 net.cpp:150] Setting up fc3_Bags_Under_Eyes
I1025 11:39:48.217288 23553 net.cpp:157] Top shape: 64 2 (128)
I1025 11:39:48.217291 23553 net.cpp:165] Memory required for data: 2566240800
I1025 11:39:48.217298 23553 layer_factory.hpp:77] Creating layer loss_Bags_Under_Eyes
I1025 11:39:48.217310 23553 net.cpp:106] Creating Layer loss_Bags_Under_Eyes
I1025 11:39:48.217319 23553 net.cpp:454] loss_Bags_Under_Eyes <- fc3_Bags_Under_Eyes
I1025 11:39:48.217326 23553 net.cpp:454] loss_Bags_Under_Eyes <- label_Bags_Under_Eyes
I1025 11:39:48.217334 23553 net.cpp:411] loss_Bags_Under_Eyes -> loss_Bags_Under_Eyes
I1025 11:39:48.217412 23553 net.cpp:150] Setting up loss_Bags_Under_Eyes
I1025 11:39:48.217424 23553 net.cpp:157] Top shape: (1)
I1025 11:39:48.217427 23553 net.cpp:160]     with loss weight 1
I1025 11:39:48.217433 23553 net.cpp:165] Memory required for data: 2566240804
I1025 11:39:48.217437 23553 layer_factory.hpp:77] Creating layer fc3_Bushy_Eyebrows
I1025 11:39:48.217447 23553 net.cpp:106] Creating Layer fc3_Bushy_Eyebrows
I1025 11:39:48.217454 23553 net.cpp:454] fc3_Bushy_Eyebrows <- fc2_eyes_drop2_eyes_0_split_2
I1025 11:39:48.217465 23553 net.cpp:411] fc3_Bushy_Eyebrows -> fc3_Bushy_Eyebrows
I1025 11:39:48.217640 23553 net.cpp:150] Setting up fc3_Bushy_Eyebrows
I1025 11:39:48.217651 23553 net.cpp:157] Top shape: 64 2 (128)
I1025 11:39:48.217655 23553 net.cpp:165] Memory required for data: 2566241316
I1025 11:39:48.217663 23553 layer_factory.hpp:77] Creating layer loss_Bushy_Eyebrows
I1025 11:39:48.217679 23553 net.cpp:106] Creating Layer loss_Bushy_Eyebrows
I1025 11:39:48.217689 23553 net.cpp:454] loss_Bushy_Eyebrows <- fc3_Bushy_Eyebrows
I1025 11:39:48.217700 23553 net.cpp:454] loss_Bushy_Eyebrows <- label_Bushy_Eyebrows
I1025 11:39:48.217725 23553 net.cpp:411] loss_Bushy_Eyebrows -> loss_Bushy_Eyebrows
I1025 11:39:48.217806 23553 net.cpp:150] Setting up loss_Bushy_Eyebrows
I1025 11:39:48.217819 23553 net.cpp:157] Top shape: (1)
I1025 11:39:48.217826 23553 net.cpp:160]     with loss weight 1
I1025 11:39:48.217835 23553 net.cpp:165] Memory required for data: 2566241320
I1025 11:39:48.217841 23553 layer_factory.hpp:77] Creating layer fc3_Narrow_Eyes
I1025 11:39:48.217855 23553 net.cpp:106] Creating Layer fc3_Narrow_Eyes
I1025 11:39:48.217867 23553 net.cpp:454] fc3_Narrow_Eyes <- fc2_eyes_drop2_eyes_0_split_3
I1025 11:39:48.217878 23553 net.cpp:411] fc3_Narrow_Eyes -> fc3_Narrow_Eyes
I1025 11:39:48.218070 23553 net.cpp:150] Setting up fc3_Narrow_Eyes
I1025 11:39:48.218082 23553 net.cpp:157] Top shape: 64 2 (128)
I1025 11:39:48.218086 23553 net.cpp:165] Memory required for data: 2566241832
I1025 11:39:48.218093 23553 layer_factory.hpp:77] Creating layer loss_Narrow_Eyes
I1025 11:39:48.218106 23553 net.cpp:106] Creating Layer loss_Narrow_Eyes
I1025 11:39:48.218114 23553 net.cpp:454] loss_Narrow_Eyes <- fc3_Narrow_Eyes
I1025 11:39:48.218122 23553 net.cpp:454] loss_Narrow_Eyes <- label_Narrow_Eyes
I1025 11:39:48.218130 23553 net.cpp:411] loss_Narrow_Eyes -> loss_Narrow_Eyes
I1025 11:39:48.218211 23553 net.cpp:150] Setting up loss_Narrow_Eyes
I1025 11:39:48.218224 23553 net.cpp:157] Top shape: (1)
I1025 11:39:48.218226 23553 net.cpp:160]     with loss weight 1
I1025 11:39:48.218232 23553 net.cpp:165] Memory required for data: 2566241836
I1025 11:39:48.218237 23553 layer_factory.hpp:77] Creating layer fc3_Eyeglasses
I1025 11:39:48.218247 23553 net.cpp:106] Creating Layer fc3_Eyeglasses
I1025 11:39:48.218256 23553 net.cpp:454] fc3_Eyeglasses <- fc2_eyes_drop2_eyes_0_split_4
I1025 11:39:48.218266 23553 net.cpp:411] fc3_Eyeglasses -> fc3_Eyeglasses
I1025 11:39:48.218456 23553 net.cpp:150] Setting up fc3_Eyeglasses
I1025 11:39:48.218468 23553 net.cpp:157] Top shape: 64 2 (128)
I1025 11:39:48.218472 23553 net.cpp:165] Memory required for data: 2566242348
I1025 11:39:48.218478 23553 layer_factory.hpp:77] Creating layer loss_Eyeglasses
I1025 11:39:48.218492 23553 net.cpp:106] Creating Layer loss_Eyeglasses
I1025 11:39:48.218502 23553 net.cpp:454] loss_Eyeglasses <- fc3_Eyeglasses
I1025 11:39:48.218511 23553 net.cpp:454] loss_Eyeglasses <- label_Eyeglasses
I1025 11:39:48.218520 23553 net.cpp:411] loss_Eyeglasses -> loss_Eyeglasses
I1025 11:39:48.218605 23553 net.cpp:150] Setting up loss_Eyeglasses
I1025 11:39:48.218616 23553 net.cpp:157] Top shape: (1)
I1025 11:39:48.218619 23553 net.cpp:160]     with loss weight 1
I1025 11:39:48.218626 23553 net.cpp:165] Memory required for data: 2566242352
I1025 11:39:48.218629 23553 layer_factory.hpp:77] Creating layer fc3_Attractive
I1025 11:39:48.218638 23553 net.cpp:106] Creating Layer fc3_Attractive
I1025 11:39:48.218647 23553 net.cpp:454] fc3_Attractive <- fc2_face_drop2_face_0_split_0
I1025 11:39:48.218657 23553 net.cpp:411] fc3_Attractive -> fc3_Attractive
I1025 11:39:48.218839 23553 net.cpp:150] Setting up fc3_Attractive
I1025 11:39:48.218855 23553 net.cpp:157] Top shape: 64 2 (128)
I1025 11:39:48.218859 23553 net.cpp:165] Memory required for data: 2566242864
I1025 11:39:48.218866 23553 layer_factory.hpp:77] Creating layer loss_Attractive
I1025 11:39:48.218875 23553 net.cpp:106] Creating Layer loss_Attractive
I1025 11:39:48.218883 23553 net.cpp:454] loss_Attractive <- fc3_Attractive
I1025 11:39:48.218891 23553 net.cpp:454] loss_Attractive <- label_Attractive
I1025 11:39:48.218900 23553 net.cpp:411] loss_Attractive -> loss_Attractive
I1025 11:39:48.218981 23553 net.cpp:150] Setting up loss_Attractive
I1025 11:39:48.218993 23553 net.cpp:157] Top shape: (1)
I1025 11:39:48.218997 23553 net.cpp:160]     with loss weight 1
I1025 11:39:48.219003 23553 net.cpp:165] Memory required for data: 2566242868
I1025 11:39:48.219007 23553 layer_factory.hpp:77] Creating layer fc3_Blurry
I1025 11:39:48.219017 23553 net.cpp:106] Creating Layer fc3_Blurry
I1025 11:39:48.219022 23553 net.cpp:454] fc3_Blurry <- fc2_face_drop2_face_0_split_1
I1025 11:39:48.219043 23553 net.cpp:411] fc3_Blurry -> fc3_Blurry
I1025 11:39:48.219234 23553 net.cpp:150] Setting up fc3_Blurry
I1025 11:39:48.219246 23553 net.cpp:157] Top shape: 64 2 (128)
I1025 11:39:48.219250 23553 net.cpp:165] Memory required for data: 2566243380
I1025 11:39:48.219257 23553 layer_factory.hpp:77] Creating layer loss_Blurry
I1025 11:39:48.219270 23553 net.cpp:106] Creating Layer loss_Blurry
I1025 11:39:48.219279 23553 net.cpp:454] loss_Blurry <- fc3_Blurry
I1025 11:39:48.219286 23553 net.cpp:454] loss_Blurry <- label_Blurry
I1025 11:39:48.219295 23553 net.cpp:411] loss_Blurry -> loss_Blurry
I1025 11:39:48.219374 23553 net.cpp:150] Setting up loss_Blurry
I1025 11:39:48.219385 23553 net.cpp:157] Top shape: (1)
I1025 11:39:48.219389 23553 net.cpp:160]     with loss weight 1
I1025 11:39:48.219395 23553 net.cpp:165] Memory required for data: 2566243384
I1025 11:39:48.219399 23553 layer_factory.hpp:77] Creating layer fc3_Oval_Face
I1025 11:39:48.219408 23553 net.cpp:106] Creating Layer fc3_Oval_Face
I1025 11:39:48.219416 23553 net.cpp:454] fc3_Oval_Face <- fc2_face_drop2_face_0_split_2
I1025 11:39:48.219426 23553 net.cpp:411] fc3_Oval_Face -> fc3_Oval_Face
I1025 11:39:48.219605 23553 net.cpp:150] Setting up fc3_Oval_Face
I1025 11:39:48.219621 23553 net.cpp:157] Top shape: 64 2 (128)
I1025 11:39:48.219630 23553 net.cpp:165] Memory required for data: 2566243896
I1025 11:39:48.219640 23553 layer_factory.hpp:77] Creating layer loss_Oval_Face
I1025 11:39:48.219656 23553 net.cpp:106] Creating Layer loss_Oval_Face
I1025 11:39:48.219667 23553 net.cpp:454] loss_Oval_Face <- fc3_Oval_Face
I1025 11:39:48.219676 23553 net.cpp:454] loss_Oval_Face <- label_Oval_Face
I1025 11:39:48.219687 23553 net.cpp:411] loss_Oval_Face -> loss_Oval_Face
I1025 11:39:48.219763 23553 net.cpp:150] Setting up loss_Oval_Face
I1025 11:39:48.219780 23553 net.cpp:157] Top shape: (1)
I1025 11:39:48.219784 23553 net.cpp:160]     with loss weight 1
I1025 11:39:48.219790 23553 net.cpp:165] Memory required for data: 2566243900
I1025 11:39:48.219794 23553 layer_factory.hpp:77] Creating layer fc3_Pale_Skin
I1025 11:39:48.219804 23553 net.cpp:106] Creating Layer fc3_Pale_Skin
I1025 11:39:48.219813 23553 net.cpp:454] fc3_Pale_Skin <- fc2_face_drop2_face_0_split_3
I1025 11:39:48.219823 23553 net.cpp:411] fc3_Pale_Skin -> fc3_Pale_Skin
I1025 11:39:48.220003 23553 net.cpp:150] Setting up fc3_Pale_Skin
I1025 11:39:48.220016 23553 net.cpp:157] Top shape: 64 2 (128)
I1025 11:39:48.220018 23553 net.cpp:165] Memory required for data: 2566244412
I1025 11:39:48.220026 23553 layer_factory.hpp:77] Creating layer loss_Pale_Skin
I1025 11:39:48.220039 23553 net.cpp:106] Creating Layer loss_Pale_Skin
I1025 11:39:48.220052 23553 net.cpp:454] loss_Pale_Skin <- fc3_Pale_Skin
I1025 11:39:48.220059 23553 net.cpp:454] loss_Pale_Skin <- label_Pale_Skin
I1025 11:39:48.220068 23553 net.cpp:411] loss_Pale_Skin -> loss_Pale_Skin
I1025 11:39:48.220147 23553 net.cpp:150] Setting up loss_Pale_Skin
I1025 11:39:48.220162 23553 net.cpp:157] Top shape: (1)
I1025 11:39:48.220166 23553 net.cpp:160]     with loss weight 1
I1025 11:39:48.220172 23553 net.cpp:165] Memory required for data: 2566244416
I1025 11:39:48.220175 23553 layer_factory.hpp:77] Creating layer fc3_Young
I1025 11:39:48.220185 23553 net.cpp:106] Creating Layer fc3_Young
I1025 11:39:48.220194 23553 net.cpp:454] fc3_Young <- fc2_face_drop2_face_0_split_4
I1025 11:39:48.220204 23553 net.cpp:411] fc3_Young -> fc3_Young
I1025 11:39:48.220384 23553 net.cpp:150] Setting up fc3_Young
I1025 11:39:48.220396 23553 net.cpp:157] Top shape: 64 2 (128)
I1025 11:39:48.220399 23553 net.cpp:165] Memory required for data: 2566244928
I1025 11:39:48.220407 23553 layer_factory.hpp:77] Creating layer loss_Young
I1025 11:39:48.220414 23553 net.cpp:106] Creating Layer loss_Young
I1025 11:39:48.220422 23553 net.cpp:454] loss_Young <- fc3_Young
I1025 11:39:48.220430 23553 net.cpp:454] loss_Young <- label_Young
I1025 11:39:48.220439 23553 net.cpp:411] loss_Young -> loss_Young
I1025 11:39:48.220517 23553 net.cpp:150] Setting up loss_Young
I1025 11:39:48.220541 23553 net.cpp:157] Top shape: (1)
I1025 11:39:48.220546 23553 net.cpp:160]     with loss weight 1
I1025 11:39:48.220553 23553 net.cpp:165] Memory required for data: 2566244932
I1025 11:39:48.220559 23553 layer_factory.hpp:77] Creating layer fc3_Heavy_Makeup
I1025 11:39:48.220574 23553 net.cpp:106] Creating Layer fc3_Heavy_Makeup
I1025 11:39:48.220582 23553 net.cpp:454] fc3_Heavy_Makeup <- fc2_face_drop2_face_0_split_5
I1025 11:39:48.220592 23553 net.cpp:411] fc3_Heavy_Makeup -> fc3_Heavy_Makeup
I1025 11:39:48.220782 23553 net.cpp:150] Setting up fc3_Heavy_Makeup
I1025 11:39:48.220794 23553 net.cpp:157] Top shape: 64 2 (128)
I1025 11:39:48.220798 23553 net.cpp:165] Memory required for data: 2566245444
I1025 11:39:48.220804 23553 layer_factory.hpp:77] Creating layer loss_Heavy_Makeup
I1025 11:39:48.220813 23553 net.cpp:106] Creating Layer loss_Heavy_Makeup
I1025 11:39:48.220821 23553 net.cpp:454] loss_Heavy_Makeup <- fc3_Heavy_Makeup
I1025 11:39:48.220829 23553 net.cpp:454] loss_Heavy_Makeup <- label_Heavy_Makeup
I1025 11:39:48.220839 23553 net.cpp:411] loss_Heavy_Makeup -> loss_Heavy_Makeup
I1025 11:39:48.220921 23553 net.cpp:150] Setting up loss_Heavy_Makeup
I1025 11:39:48.220933 23553 net.cpp:157] Top shape: (1)
I1025 11:39:48.220937 23553 net.cpp:160]     with loss weight 1
I1025 11:39:48.220942 23553 net.cpp:165] Memory required for data: 2566245448
I1025 11:39:48.220947 23553 layer_factory.hpp:77] Creating layer fc3_Black_Hair
I1025 11:39:48.220955 23553 net.cpp:106] Creating Layer fc3_Black_Hair
I1025 11:39:48.220963 23553 net.cpp:454] fc3_Black_Hair <- fc2_aroundhead_drop2_aroundhead_0_split_0
I1025 11:39:48.220974 23553 net.cpp:411] fc3_Black_Hair -> fc3_Black_Hair
I1025 11:39:48.221160 23553 net.cpp:150] Setting up fc3_Black_Hair
I1025 11:39:48.221173 23553 net.cpp:157] Top shape: 64 2 (128)
I1025 11:39:48.221175 23553 net.cpp:165] Memory required for data: 2566245960
I1025 11:39:48.221182 23553 layer_factory.hpp:77] Creating layer loss_Black_Hair
I1025 11:39:48.221190 23553 net.cpp:106] Creating Layer loss_Black_Hair
I1025 11:39:48.221199 23553 net.cpp:454] loss_Black_Hair <- fc3_Black_Hair
I1025 11:39:48.221206 23553 net.cpp:454] loss_Black_Hair <- label_Black_Hair
I1025 11:39:48.221215 23553 net.cpp:411] loss_Black_Hair -> loss_Black_Hair
I1025 11:39:48.221292 23553 net.cpp:150] Setting up loss_Black_Hair
I1025 11:39:48.221304 23553 net.cpp:157] Top shape: (1)
I1025 11:39:48.221307 23553 net.cpp:160]     with loss weight 1
I1025 11:39:48.221314 23553 net.cpp:165] Memory required for data: 2566245964
I1025 11:39:48.221318 23553 layer_factory.hpp:77] Creating layer fc3_Blond_Hair
I1025 11:39:48.221328 23553 net.cpp:106] Creating Layer fc3_Blond_Hair
I1025 11:39:48.221336 23553 net.cpp:454] fc3_Blond_Hair <- fc2_aroundhead_drop2_aroundhead_0_split_1
I1025 11:39:48.221346 23553 net.cpp:411] fc3_Blond_Hair -> fc3_Blond_Hair
I1025 11:39:48.221539 23553 net.cpp:150] Setting up fc3_Blond_Hair
I1025 11:39:48.221550 23553 net.cpp:157] Top shape: 64 2 (128)
I1025 11:39:48.221554 23553 net.cpp:165] Memory required for data: 2566246476
I1025 11:39:48.221560 23553 layer_factory.hpp:77] Creating layer loss_Blond_Hair
I1025 11:39:48.221570 23553 net.cpp:106] Creating Layer loss_Blond_Hair
I1025 11:39:48.221577 23553 net.cpp:454] loss_Blond_Hair <- fc3_Blond_Hair
I1025 11:39:48.221585 23553 net.cpp:454] loss_Blond_Hair <- label_Blond_Hair
I1025 11:39:48.221596 23553 net.cpp:411] loss_Blond_Hair -> loss_Blond_Hair
I1025 11:39:48.221680 23553 net.cpp:150] Setting up loss_Blond_Hair
I1025 11:39:48.221693 23553 net.cpp:157] Top shape: (1)
I1025 11:39:48.221696 23553 net.cpp:160]     with loss weight 1
I1025 11:39:48.221702 23553 net.cpp:165] Memory required for data: 2566246480
I1025 11:39:48.221706 23553 layer_factory.hpp:77] Creating layer fc3_Brown_Hair
I1025 11:39:48.221715 23553 net.cpp:106] Creating Layer fc3_Brown_Hair
I1025 11:39:48.221724 23553 net.cpp:454] fc3_Brown_Hair <- fc2_aroundhead_drop2_aroundhead_0_split_2
I1025 11:39:48.221735 23553 net.cpp:411] fc3_Brown_Hair -> fc3_Brown_Hair
I1025 11:39:48.221925 23553 net.cpp:150] Setting up fc3_Brown_Hair
I1025 11:39:48.221938 23553 net.cpp:157] Top shape: 64 2 (128)
I1025 11:39:48.221946 23553 net.cpp:165] Memory required for data: 2566246992
I1025 11:39:48.221958 23553 layer_factory.hpp:77] Creating layer loss_Brown_Hair
I1025 11:39:48.221971 23553 net.cpp:106] Creating Layer loss_Brown_Hair
I1025 11:39:48.221982 23553 net.cpp:454] loss_Brown_Hair <- fc3_Brown_Hair
I1025 11:39:48.221990 23553 net.cpp:454] loss_Brown_Hair <- label_Brown_Hair
I1025 11:39:48.222002 23553 net.cpp:411] loss_Brown_Hair -> loss_Brown_Hair
I1025 11:39:48.222087 23553 net.cpp:150] Setting up loss_Brown_Hair
I1025 11:39:48.222100 23553 net.cpp:157] Top shape: (1)
I1025 11:39:48.222102 23553 net.cpp:160]     with loss weight 1
I1025 11:39:48.222108 23553 net.cpp:165] Memory required for data: 2566246996
I1025 11:39:48.222112 23553 layer_factory.hpp:77] Creating layer fc3_Gray_Hair
I1025 11:39:48.222121 23553 net.cpp:106] Creating Layer fc3_Gray_Hair
I1025 11:39:48.222129 23553 net.cpp:454] fc3_Gray_Hair <- fc2_aroundhead_drop2_aroundhead_0_split_3
I1025 11:39:48.222139 23553 net.cpp:411] fc3_Gray_Hair -> fc3_Gray_Hair
I1025 11:39:48.222327 23553 net.cpp:150] Setting up fc3_Gray_Hair
I1025 11:39:48.222339 23553 net.cpp:157] Top shape: 64 2 (128)
I1025 11:39:48.222343 23553 net.cpp:165] Memory required for data: 2566247508
I1025 11:39:48.222349 23553 layer_factory.hpp:77] Creating layer loss_Gray_Hair
I1025 11:39:48.222363 23553 net.cpp:106] Creating Layer loss_Gray_Hair
I1025 11:39:48.222373 23553 net.cpp:454] loss_Gray_Hair <- fc3_Gray_Hair
I1025 11:39:48.222381 23553 net.cpp:454] loss_Gray_Hair <- label_Gray_Hair
I1025 11:39:48.222391 23553 net.cpp:411] loss_Gray_Hair -> loss_Gray_Hair
I1025 11:39:48.222476 23553 net.cpp:150] Setting up loss_Gray_Hair
I1025 11:39:48.222487 23553 net.cpp:157] Top shape: (1)
I1025 11:39:48.222491 23553 net.cpp:160]     with loss weight 1
I1025 11:39:48.222496 23553 net.cpp:165] Memory required for data: 2566247512
I1025 11:39:48.222501 23553 layer_factory.hpp:77] Creating layer fc3_Wearing_Earrings
I1025 11:39:48.222509 23553 net.cpp:106] Creating Layer fc3_Wearing_Earrings
I1025 11:39:48.222517 23553 net.cpp:454] fc3_Wearing_Earrings <- fc2_aroundhead_drop2_aroundhead_0_split_4
I1025 11:39:48.222528 23553 net.cpp:411] fc3_Wearing_Earrings -> fc3_Wearing_Earrings
I1025 11:39:48.222705 23553 net.cpp:150] Setting up fc3_Wearing_Earrings
I1025 11:39:48.222718 23553 net.cpp:157] Top shape: 64 2 (128)
I1025 11:39:48.222720 23553 net.cpp:165] Memory required for data: 2566248024
I1025 11:39:48.222728 23553 layer_factory.hpp:77] Creating layer loss_Wearing_Earrings
I1025 11:39:48.222741 23553 net.cpp:106] Creating Layer loss_Wearing_Earrings
I1025 11:39:48.222753 23553 net.cpp:454] loss_Wearing_Earrings <- fc3_Wearing_Earrings
I1025 11:39:48.222760 23553 net.cpp:454] loss_Wearing_Earrings <- label_Wearing_Earrings
I1025 11:39:48.222772 23553 net.cpp:411] loss_Wearing_Earrings -> loss_Wearing_Earrings
I1025 11:39:48.222862 23553 net.cpp:150] Setting up loss_Wearing_Earrings
I1025 11:39:48.222873 23553 net.cpp:157] Top shape: (1)
I1025 11:39:48.222877 23553 net.cpp:160]     with loss weight 1
I1025 11:39:48.222883 23553 net.cpp:165] Memory required for data: 2566248028
I1025 11:39:48.222887 23553 layer_factory.hpp:77] Creating layer fc3_Wearing_Necklace
I1025 11:39:48.222895 23553 net.cpp:106] Creating Layer fc3_Wearing_Necklace
I1025 11:39:48.222903 23553 net.cpp:454] fc3_Wearing_Necklace <- fc2_aroundhead_drop2_aroundhead_0_split_5
I1025 11:39:48.222913 23553 net.cpp:411] fc3_Wearing_Necklace -> fc3_Wearing_Necklace
I1025 11:39:48.223105 23553 net.cpp:150] Setting up fc3_Wearing_Necklace
I1025 11:39:48.223119 23553 net.cpp:157] Top shape: 64 2 (128)
I1025 11:39:48.223121 23553 net.cpp:165] Memory required for data: 2566248540
I1025 11:39:48.223129 23553 layer_factory.hpp:77] Creating layer loss_Wearing_Necklace
I1025 11:39:48.223141 23553 net.cpp:106] Creating Layer loss_Wearing_Necklace
I1025 11:39:48.223151 23553 net.cpp:454] loss_Wearing_Necklace <- fc3_Wearing_Necklace
I1025 11:39:48.223177 23553 net.cpp:454] loss_Wearing_Necklace <- label_Wearing_Necklace
I1025 11:39:48.223193 23553 net.cpp:411] loss_Wearing_Necklace -> loss_Wearing_Necklace
I1025 11:39:48.223273 23553 net.cpp:150] Setting up loss_Wearing_Necklace
I1025 11:39:48.223284 23553 net.cpp:157] Top shape: (1)
I1025 11:39:48.223287 23553 net.cpp:160]     with loss weight 1
I1025 11:39:48.223294 23553 net.cpp:165] Memory required for data: 2566248544
I1025 11:39:48.223299 23553 layer_factory.hpp:77] Creating layer fc3_Wearing_Necktie
I1025 11:39:48.223307 23553 net.cpp:106] Creating Layer fc3_Wearing_Necktie
I1025 11:39:48.223315 23553 net.cpp:454] fc3_Wearing_Necktie <- fc2_aroundhead_drop2_aroundhead_0_split_6
I1025 11:39:48.223326 23553 net.cpp:411] fc3_Wearing_Necktie -> fc3_Wearing_Necktie
I1025 11:39:48.223502 23553 net.cpp:150] Setting up fc3_Wearing_Necktie
I1025 11:39:48.223513 23553 net.cpp:157] Top shape: 64 2 (128)
I1025 11:39:48.223517 23553 net.cpp:165] Memory required for data: 2566249056
I1025 11:39:48.223523 23553 layer_factory.hpp:77] Creating layer loss_Wearing_Necktie
I1025 11:39:48.223537 23553 net.cpp:106] Creating Layer loss_Wearing_Necktie
I1025 11:39:48.223548 23553 net.cpp:454] loss_Wearing_Necktie <- fc3_Wearing_Necktie
I1025 11:39:48.223557 23553 net.cpp:454] loss_Wearing_Necktie <- label_Wearing_Necktie
I1025 11:39:48.223569 23553 net.cpp:411] loss_Wearing_Necktie -> loss_Wearing_Necktie
I1025 11:39:48.223659 23553 net.cpp:150] Setting up loss_Wearing_Necktie
I1025 11:39:48.223670 23553 net.cpp:157] Top shape: (1)
I1025 11:39:48.223673 23553 net.cpp:160]     with loss weight 1
I1025 11:39:48.223681 23553 net.cpp:165] Memory required for data: 2566249060
I1025 11:39:48.223688 23553 layer_factory.hpp:77] Creating layer fc3_Bald
I1025 11:39:48.223703 23553 net.cpp:106] Creating Layer fc3_Bald
I1025 11:39:48.223711 23553 net.cpp:454] fc3_Bald <- fc2_aroundhead_drop2_aroundhead_0_split_7
I1025 11:39:48.223722 23553 net.cpp:411] fc3_Bald -> fc3_Bald
I1025 11:39:48.223919 23553 net.cpp:150] Setting up fc3_Bald
I1025 11:39:48.223932 23553 net.cpp:157] Top shape: 64 2 (128)
I1025 11:39:48.223935 23553 net.cpp:165] Memory required for data: 2566249572
I1025 11:39:48.223945 23553 layer_factory.hpp:77] Creating layer loss_Bald
I1025 11:39:48.223958 23553 net.cpp:106] Creating Layer loss_Bald
I1025 11:39:48.223968 23553 net.cpp:454] loss_Bald <- fc3_Bald
I1025 11:39:48.223975 23553 net.cpp:454] loss_Bald <- label_Bald
I1025 11:39:48.223987 23553 net.cpp:411] loss_Bald -> loss_Bald
I1025 11:39:48.224063 23553 net.cpp:150] Setting up loss_Bald
I1025 11:39:48.224076 23553 net.cpp:157] Top shape: (1)
I1025 11:39:48.224078 23553 net.cpp:160]     with loss weight 1
I1025 11:39:48.224086 23553 net.cpp:165] Memory required for data: 2566249576
I1025 11:39:48.224093 23553 layer_factory.hpp:77] Creating layer fc3_Receding_Hairline
I1025 11:39:48.224107 23553 net.cpp:106] Creating Layer fc3_Receding_Hairline
I1025 11:39:48.224114 23553 net.cpp:454] fc3_Receding_Hairline <- fc2_aroundhead_drop2_aroundhead_0_split_8
I1025 11:39:48.224124 23553 net.cpp:411] fc3_Receding_Hairline -> fc3_Receding_Hairline
I1025 11:39:48.224315 23553 net.cpp:150] Setting up fc3_Receding_Hairline
I1025 11:39:48.224328 23553 net.cpp:157] Top shape: 64 2 (128)
I1025 11:39:48.224331 23553 net.cpp:165] Memory required for data: 2566250088
I1025 11:39:48.224341 23553 layer_factory.hpp:77] Creating layer loss_Receding_Hairline
I1025 11:39:48.224354 23553 net.cpp:106] Creating Layer loss_Receding_Hairline
I1025 11:39:48.224364 23553 net.cpp:454] loss_Receding_Hairline <- fc3_Receding_Hairline
I1025 11:39:48.224372 23553 net.cpp:454] loss_Receding_Hairline <- label_Receding_Hairline
I1025 11:39:48.224385 23553 net.cpp:411] loss_Receding_Hairline -> loss_Receding_Hairline
I1025 11:39:48.224462 23553 net.cpp:150] Setting up loss_Receding_Hairline
I1025 11:39:48.224472 23553 net.cpp:157] Top shape: (1)
I1025 11:39:48.224475 23553 net.cpp:160]     with loss weight 1
I1025 11:39:48.224483 23553 net.cpp:165] Memory required for data: 2566250092
I1025 11:39:48.224503 23553 layer_factory.hpp:77] Creating layer fc3_Bangs
I1025 11:39:48.224519 23553 net.cpp:106] Creating Layer fc3_Bangs
I1025 11:39:48.224526 23553 net.cpp:454] fc3_Bangs <- fc2_aroundhead_drop2_aroundhead_0_split_9
I1025 11:39:48.224537 23553 net.cpp:411] fc3_Bangs -> fc3_Bangs
I1025 11:39:48.224727 23553 net.cpp:150] Setting up fc3_Bangs
I1025 11:39:48.224740 23553 net.cpp:157] Top shape: 64 2 (128)
I1025 11:39:48.224743 23553 net.cpp:165] Memory required for data: 2566250604
I1025 11:39:48.224753 23553 layer_factory.hpp:77] Creating layer loss_Bangs
I1025 11:39:48.224766 23553 net.cpp:106] Creating Layer loss_Bangs
I1025 11:39:48.224774 23553 net.cpp:454] loss_Bangs <- fc3_Bangs
I1025 11:39:48.224783 23553 net.cpp:454] loss_Bangs <- label_Bangs
I1025 11:39:48.224797 23553 net.cpp:411] loss_Bangs -> loss_Bangs
I1025 11:39:48.224872 23553 net.cpp:150] Setting up loss_Bangs
I1025 11:39:48.224884 23553 net.cpp:157] Top shape: (1)
I1025 11:39:48.224887 23553 net.cpp:160]     with loss weight 1
I1025 11:39:48.224895 23553 net.cpp:165] Memory required for data: 2566250608
I1025 11:39:48.224901 23553 layer_factory.hpp:77] Creating layer fc3_Wearing_Hat
I1025 11:39:48.224915 23553 net.cpp:106] Creating Layer fc3_Wearing_Hat
I1025 11:39:48.224922 23553 net.cpp:454] fc3_Wearing_Hat <- fc2_aroundhead_drop2_aroundhead_0_split_10
I1025 11:39:48.224933 23553 net.cpp:411] fc3_Wearing_Hat -> fc3_Wearing_Hat
I1025 11:39:48.225114 23553 net.cpp:150] Setting up fc3_Wearing_Hat
I1025 11:39:48.225126 23553 net.cpp:157] Top shape: 64 2 (128)
I1025 11:39:48.225129 23553 net.cpp:165] Memory required for data: 2566251120
I1025 11:39:48.225139 23553 layer_factory.hpp:77] Creating layer loss_Wearing_Hat
I1025 11:39:48.225152 23553 net.cpp:106] Creating Layer loss_Wearing_Hat
I1025 11:39:48.225162 23553 net.cpp:454] loss_Wearing_Hat <- fc3_Wearing_Hat
I1025 11:39:48.225170 23553 net.cpp:454] loss_Wearing_Hat <- label_Wearing_Hat
I1025 11:39:48.225183 23553 net.cpp:411] loss_Wearing_Hat -> loss_Wearing_Hat
I1025 11:39:48.225260 23553 net.cpp:150] Setting up loss_Wearing_Hat
I1025 11:39:48.225271 23553 net.cpp:157] Top shape: (1)
I1025 11:39:48.225275 23553 net.cpp:160]     with loss weight 1
I1025 11:39:48.225282 23553 net.cpp:165] Memory required for data: 2566251124
I1025 11:39:48.225288 23553 layer_factory.hpp:77] Creating layer fc3_Straight_Hair
I1025 11:39:48.225301 23553 net.cpp:106] Creating Layer fc3_Straight_Hair
I1025 11:39:48.225309 23553 net.cpp:454] fc3_Straight_Hair <- fc2_aroundhead_drop2_aroundhead_0_split_11
I1025 11:39:48.225320 23553 net.cpp:411] fc3_Straight_Hair -> fc3_Straight_Hair
I1025 11:39:48.225507 23553 net.cpp:150] Setting up fc3_Straight_Hair
I1025 11:39:48.225522 23553 net.cpp:157] Top shape: 64 2 (128)
I1025 11:39:48.225527 23553 net.cpp:165] Memory required for data: 2566251636
I1025 11:39:48.225535 23553 layer_factory.hpp:77] Creating layer loss_Straight_Hair
I1025 11:39:48.225549 23553 net.cpp:106] Creating Layer loss_Straight_Hair
I1025 11:39:48.225558 23553 net.cpp:454] loss_Straight_Hair <- fc3_Straight_Hair
I1025 11:39:48.225566 23553 net.cpp:454] loss_Straight_Hair <- label_Straight_Hair
I1025 11:39:48.225579 23553 net.cpp:411] loss_Straight_Hair -> loss_Straight_Hair
I1025 11:39:48.225662 23553 net.cpp:150] Setting up loss_Straight_Hair
I1025 11:39:48.225674 23553 net.cpp:157] Top shape: (1)
I1025 11:39:48.225678 23553 net.cpp:160]     with loss weight 1
I1025 11:39:48.225687 23553 net.cpp:165] Memory required for data: 2566251640
I1025 11:39:48.225692 23553 layer_factory.hpp:77] Creating layer fc3_Wavy_Hair
I1025 11:39:48.225706 23553 net.cpp:106] Creating Layer fc3_Wavy_Hair
I1025 11:39:48.225714 23553 net.cpp:454] fc3_Wavy_Hair <- fc2_aroundhead_drop2_aroundhead_0_split_12
I1025 11:39:48.225725 23553 net.cpp:411] fc3_Wavy_Hair -> fc3_Wavy_Hair
I1025 11:39:48.226497 23553 net.cpp:150] Setting up fc3_Wavy_Hair
I1025 11:39:48.226512 23553 net.cpp:157] Top shape: 64 2 (128)
I1025 11:39:48.226516 23553 net.cpp:165] Memory required for data: 2566252152
I1025 11:39:48.226534 23553 layer_factory.hpp:77] Creating layer loss_Wavy_Hair
I1025 11:39:48.226547 23553 net.cpp:106] Creating Layer loss_Wavy_Hair
I1025 11:39:48.226554 23553 net.cpp:454] loss_Wavy_Hair <- fc3_Wavy_Hair
I1025 11:39:48.226563 23553 net.cpp:454] loss_Wavy_Hair <- label_Wavy_Hair
I1025 11:39:48.226575 23553 net.cpp:411] loss_Wavy_Hair -> loss_Wavy_Hair
I1025 11:39:48.226634 23553 net.cpp:150] Setting up loss_Wavy_Hair
I1025 11:39:48.226646 23553 net.cpp:157] Top shape: (1)
I1025 11:39:48.226651 23553 net.cpp:160]     with loss weight 1
I1025 11:39:48.226660 23553 net.cpp:165] Memory required for data: 2566252156
I1025 11:39:48.226666 23553 layer_factory.hpp:77] Creating layer fc3_5_o_Clock_Shadow
I1025 11:39:48.226677 23553 net.cpp:106] Creating Layer fc3_5_o_Clock_Shadow
I1025 11:39:48.226686 23553 net.cpp:454] fc3_5_o_Clock_Shadow <- fc2_facialhair_drop2_facialhair_0_split_0
I1025 11:39:48.226696 23553 net.cpp:411] fc3_5_o_Clock_Shadow -> fc3_5_o_Clock_Shadow
I1025 11:39:48.226837 23553 net.cpp:150] Setting up fc3_5_o_Clock_Shadow
I1025 11:39:48.226850 23553 net.cpp:157] Top shape: 64 2 (128)
I1025 11:39:48.226852 23553 net.cpp:165] Memory required for data: 2566252668
I1025 11:39:48.226862 23553 layer_factory.hpp:77] Creating layer loss_5_o_Clock_Shadow
I1025 11:39:48.226873 23553 net.cpp:106] Creating Layer loss_5_o_Clock_Shadow
I1025 11:39:48.226881 23553 net.cpp:454] loss_5_o_Clock_Shadow <- fc3_5_o_Clock_Shadow
I1025 11:39:48.226889 23553 net.cpp:454] loss_5_o_Clock_Shadow <- label_5_o_Clock_Shadow
I1025 11:39:48.226902 23553 net.cpp:411] loss_5_o_Clock_Shadow -> loss_5_o_Clock_Shadow
I1025 11:39:48.226961 23553 net.cpp:150] Setting up loss_5_o_Clock_Shadow
I1025 11:39:48.226972 23553 net.cpp:157] Top shape: (1)
I1025 11:39:48.226976 23553 net.cpp:160]     with loss weight 1
I1025 11:39:48.226984 23553 net.cpp:165] Memory required for data: 2566252672
I1025 11:39:48.226991 23553 layer_factory.hpp:77] Creating layer fc3_Mustache
I1025 11:39:48.227001 23553 net.cpp:106] Creating Layer fc3_Mustache
I1025 11:39:48.227008 23553 net.cpp:454] fc3_Mustache <- fc2_facialhair_drop2_facialhair_0_split_1
I1025 11:39:48.227018 23553 net.cpp:411] fc3_Mustache -> fc3_Mustache
I1025 11:39:48.227167 23553 net.cpp:150] Setting up fc3_Mustache
I1025 11:39:48.227180 23553 net.cpp:157] Top shape: 64 2 (128)
I1025 11:39:48.227183 23553 net.cpp:165] Memory required for data: 2566253184
I1025 11:39:48.227193 23553 layer_factory.hpp:77] Creating layer loss_Mustache
I1025 11:39:48.227203 23553 net.cpp:106] Creating Layer loss_Mustache
I1025 11:39:48.227210 23553 net.cpp:454] loss_Mustache <- fc3_Mustache
I1025 11:39:48.227218 23553 net.cpp:454] loss_Mustache <- label_Mustache
I1025 11:39:48.227231 23553 net.cpp:411] loss_Mustache -> loss_Mustache
I1025 11:39:48.227291 23553 net.cpp:150] Setting up loss_Mustache
I1025 11:39:48.227303 23553 net.cpp:157] Top shape: (1)
I1025 11:39:48.227306 23553 net.cpp:160]     with loss weight 1
I1025 11:39:48.227313 23553 net.cpp:165] Memory required for data: 2566253188
I1025 11:39:48.227320 23553 layer_factory.hpp:77] Creating layer fc3_No_Beard
I1025 11:39:48.227330 23553 net.cpp:106] Creating Layer fc3_No_Beard
I1025 11:39:48.227337 23553 net.cpp:454] fc3_No_Beard <- fc2_facialhair_drop2_facialhair_0_split_2
I1025 11:39:48.227347 23553 net.cpp:411] fc3_No_Beard -> fc3_No_Beard
I1025 11:39:48.227495 23553 net.cpp:150] Setting up fc3_No_Beard
I1025 11:39:48.227507 23553 net.cpp:157] Top shape: 64 2 (128)
I1025 11:39:48.227511 23553 net.cpp:165] Memory required for data: 2566253700
I1025 11:39:48.227521 23553 layer_factory.hpp:77] Creating layer loss_No_Beard
I1025 11:39:48.227531 23553 net.cpp:106] Creating Layer loss_No_Beard
I1025 11:39:48.227538 23553 net.cpp:454] loss_No_Beard <- fc3_No_Beard
I1025 11:39:48.227546 23553 net.cpp:454] loss_No_Beard <- label_No_Beard
I1025 11:39:48.227558 23553 net.cpp:411] loss_No_Beard -> loss_No_Beard
I1025 11:39:48.227612 23553 net.cpp:150] Setting up loss_No_Beard
I1025 11:39:48.227622 23553 net.cpp:157] Top shape: (1)
I1025 11:39:48.227625 23553 net.cpp:160]     with loss weight 1
I1025 11:39:48.227648 23553 net.cpp:165] Memory required for data: 2566253704
I1025 11:39:48.227655 23553 layer_factory.hpp:77] Creating layer fc3_Sideburns
I1025 11:39:48.227666 23553 net.cpp:106] Creating Layer fc3_Sideburns
I1025 11:39:48.227674 23553 net.cpp:454] fc3_Sideburns <- fc2_facialhair_drop2_facialhair_0_split_3
I1025 11:39:48.227684 23553 net.cpp:411] fc3_Sideburns -> fc3_Sideburns
I1025 11:39:48.227834 23553 net.cpp:150] Setting up fc3_Sideburns
I1025 11:39:48.227847 23553 net.cpp:157] Top shape: 64 2 (128)
I1025 11:39:48.227850 23553 net.cpp:165] Memory required for data: 2566254216
I1025 11:39:48.227860 23553 layer_factory.hpp:77] Creating layer loss_Sideburns
I1025 11:39:48.227870 23553 net.cpp:106] Creating Layer loss_Sideburns
I1025 11:39:48.227879 23553 net.cpp:454] loss_Sideburns <- fc3_Sideburns
I1025 11:39:48.227886 23553 net.cpp:454] loss_Sideburns <- label_Sideburns
I1025 11:39:48.227900 23553 net.cpp:411] loss_Sideburns -> loss_Sideburns
I1025 11:39:48.227957 23553 net.cpp:150] Setting up loss_Sideburns
I1025 11:39:48.227967 23553 net.cpp:157] Top shape: (1)
I1025 11:39:48.227970 23553 net.cpp:160]     with loss weight 1
I1025 11:39:48.227978 23553 net.cpp:165] Memory required for data: 2566254220
I1025 11:39:48.227985 23553 layer_factory.hpp:77] Creating layer fc3_Goatee
I1025 11:39:48.227995 23553 net.cpp:106] Creating Layer fc3_Goatee
I1025 11:39:48.228003 23553 net.cpp:454] fc3_Goatee <- fc2_facialhair_drop2_facialhair_0_split_4
I1025 11:39:48.228013 23553 net.cpp:411] fc3_Goatee -> fc3_Goatee
I1025 11:39:48.228152 23553 net.cpp:150] Setting up fc3_Goatee
I1025 11:39:48.228163 23553 net.cpp:157] Top shape: 64 2 (128)
I1025 11:39:48.228168 23553 net.cpp:165] Memory required for data: 2566254732
I1025 11:39:48.228176 23553 layer_factory.hpp:77] Creating layer loss_Goatee
I1025 11:39:48.228186 23553 net.cpp:106] Creating Layer loss_Goatee
I1025 11:39:48.228194 23553 net.cpp:454] loss_Goatee <- fc3_Goatee
I1025 11:39:48.228205 23553 net.cpp:454] loss_Goatee <- label_Goatee
I1025 11:39:48.228214 23553 net.cpp:411] loss_Goatee -> loss_Goatee
I1025 11:39:48.228268 23553 net.cpp:150] Setting up loss_Goatee
I1025 11:39:48.228279 23553 net.cpp:157] Top shape: (1)
I1025 11:39:48.228286 23553 net.cpp:160]     with loss weight 1
I1025 11:39:48.228296 23553 net.cpp:165] Memory required for data: 2566254736
I1025 11:39:48.228302 23553 layer_factory.hpp:77] Creating layer fc3_High_Cheekbones
I1025 11:39:48.228312 23553 net.cpp:106] Creating Layer fc3_High_Cheekbones
I1025 11:39:48.228319 23553 net.cpp:454] fc3_High_Cheekbones <- fc2_cheeks_drop2_cheeks_0_split_0
I1025 11:39:48.228330 23553 net.cpp:411] fc3_High_Cheekbones -> fc3_High_Cheekbones
I1025 11:39:48.228469 23553 net.cpp:150] Setting up fc3_High_Cheekbones
I1025 11:39:48.228482 23553 net.cpp:157] Top shape: 64 2 (128)
I1025 11:39:48.228484 23553 net.cpp:165] Memory required for data: 2566255248
I1025 11:39:48.228494 23553 layer_factory.hpp:77] Creating layer loss_High_Cheekbones
I1025 11:39:48.228504 23553 net.cpp:106] Creating Layer loss_High_Cheekbones
I1025 11:39:48.228513 23553 net.cpp:454] loss_High_Cheekbones <- fc3_High_Cheekbones
I1025 11:39:48.228523 23553 net.cpp:454] loss_High_Cheekbones <- label_High_Cheekbones
I1025 11:39:48.228533 23553 net.cpp:411] loss_High_Cheekbones -> loss_High_Cheekbones
I1025 11:39:48.228591 23553 net.cpp:150] Setting up loss_High_Cheekbones
I1025 11:39:48.228601 23553 net.cpp:157] Top shape: (1)
I1025 11:39:48.228605 23553 net.cpp:160]     with loss weight 1
I1025 11:39:48.228613 23553 net.cpp:165] Memory required for data: 2566255252
I1025 11:39:48.228620 23553 layer_factory.hpp:77] Creating layer fc3_Rosy_Cheeks
I1025 11:39:48.228629 23553 net.cpp:106] Creating Layer fc3_Rosy_Cheeks
I1025 11:39:48.228637 23553 net.cpp:454] fc3_Rosy_Cheeks <- fc2_cheeks_drop2_cheeks_0_split_1
I1025 11:39:48.228647 23553 net.cpp:411] fc3_Rosy_Cheeks -> fc3_Rosy_Cheeks
I1025 11:39:48.228793 23553 net.cpp:150] Setting up fc3_Rosy_Cheeks
I1025 11:39:48.228806 23553 net.cpp:157] Top shape: 64 2 (128)
I1025 11:39:48.228824 23553 net.cpp:165] Memory required for data: 2566255764
I1025 11:39:48.228837 23553 layer_factory.hpp:77] Creating layer loss_Rosy_Cheeks
I1025 11:39:48.228848 23553 net.cpp:106] Creating Layer loss_Rosy_Cheeks
I1025 11:39:48.228857 23553 net.cpp:454] loss_Rosy_Cheeks <- fc3_Rosy_Cheeks
I1025 11:39:48.228868 23553 net.cpp:454] loss_Rosy_Cheeks <- label_Rosy_Cheeks
I1025 11:39:48.228878 23553 net.cpp:411] loss_Rosy_Cheeks -> loss_Rosy_Cheeks
I1025 11:39:48.228931 23553 net.cpp:150] Setting up loss_Rosy_Cheeks
I1025 11:39:48.228942 23553 net.cpp:157] Top shape: (1)
I1025 11:39:48.228945 23553 net.cpp:160]     with loss weight 1
I1025 11:39:48.228953 23553 net.cpp:165] Memory required for data: 2566255768
I1025 11:39:48.228960 23553 layer_factory.hpp:77] Creating layer fc3_Chubby
I1025 11:39:48.228970 23553 net.cpp:106] Creating Layer fc3_Chubby
I1025 11:39:48.228977 23553 net.cpp:454] fc3_Chubby <- fc2_fat_drop2_fat_0_split_0
I1025 11:39:48.228987 23553 net.cpp:411] fc3_Chubby -> fc3_Chubby
I1025 11:39:48.229136 23553 net.cpp:150] Setting up fc3_Chubby
I1025 11:39:48.229148 23553 net.cpp:157] Top shape: 64 2 (128)
I1025 11:39:48.229151 23553 net.cpp:165] Memory required for data: 2566256280
I1025 11:39:48.229161 23553 layer_factory.hpp:77] Creating layer loss_Chubby
I1025 11:39:48.229171 23553 net.cpp:106] Creating Layer loss_Chubby
I1025 11:39:48.229178 23553 net.cpp:454] loss_Chubby <- fc3_Chubby
I1025 11:39:48.229189 23553 net.cpp:454] loss_Chubby <- label_Chubby
I1025 11:39:48.229199 23553 net.cpp:411] loss_Chubby -> loss_Chubby
I1025 11:39:48.229259 23553 net.cpp:150] Setting up loss_Chubby
I1025 11:39:48.229269 23553 net.cpp:157] Top shape: (1)
I1025 11:39:48.229272 23553 net.cpp:160]     with loss weight 1
I1025 11:39:48.229280 23553 net.cpp:165] Memory required for data: 2566256284
I1025 11:39:48.229287 23553 layer_factory.hpp:77] Creating layer fc3_Double_Chin
I1025 11:39:48.229297 23553 net.cpp:106] Creating Layer fc3_Double_Chin
I1025 11:39:48.229305 23553 net.cpp:454] fc3_Double_Chin <- fc2_fat_drop2_fat_0_split_1
I1025 11:39:48.229315 23553 net.cpp:411] fc3_Double_Chin -> fc3_Double_Chin
I1025 11:39:48.229456 23553 net.cpp:150] Setting up fc3_Double_Chin
I1025 11:39:48.229468 23553 net.cpp:157] Top shape: 64 2 (128)
I1025 11:39:48.229472 23553 net.cpp:165] Memory required for data: 2566256796
I1025 11:39:48.229481 23553 layer_factory.hpp:77] Creating layer loss_Double_Chin
I1025 11:39:48.229492 23553 net.cpp:106] Creating Layer loss_Double_Chin
I1025 11:39:48.229499 23553 net.cpp:454] loss_Double_Chin <- fc3_Double_Chin
I1025 11:39:48.229511 23553 net.cpp:454] loss_Double_Chin <- label_Double_Chin
I1025 11:39:48.229521 23553 net.cpp:411] loss_Double_Chin -> loss_Double_Chin
…
I1025 11:39:48.229671 23553 net.cpp:454] attr_mid_feat <- pool3_mouth_pool3_mouth_0_split_1
I1025 11:39:48.229677 23553 net.cpp:454] attr_mid_feat <- pool3_nose_pool3_nose_0_split_1
I1025 11:39:48.229686 23553 net.cpp:454] attr_mid_feat <- pool3_eyes_pool3_eyes_0_split_1
I1025 11:39:48.229692 23553 net.cpp:454] attr_mid_feat <- pool3_face_pool3_face_0_split_1
I1025 11:39:48.229701 23553 net.cpp:454] attr_mid_feat <- pool3_rest_pool3_rest_0_split_4
I1025 11:39:48.229710 23553 net.cpp:411] attr_mid_feat -> attr_mid_feat
I1025 11:39:48.229768 23553 net.cpp:150] Setting up attr_mid_feat
I1025 11:39:48.229779 23553 net.cpp:157] Top shape: 64 3072 4 4 (3145728)
I1025 11:39:48.229782 23553 net.cpp:165] Memory required for data: 2578839712
I1025 11:39:48.229789 23553 layer_factory.hpp:77] Creating layer attr_top_feat
I1025 11:39:48.229799 23553 net.cpp:106] Creating Layer attr_top_feat
I1025 11:39:48.229806 23553 net.cpp:454] attr_top_feat <- fc2_gender_drop2_gender_0_split_1
I1025 11:39:48.229815 23553 net.cpp:454] attr_top_feat <- fc2_nose_drop2_nose_0_split_2
I1025 11:39:48.229822 23553 net.cpp:454] attr_top_feat <- fc2_mouth_drop2_mouth_0_split_4
I1025 11:39:48.229830 23553 net.cpp:454] attr_top_feat <- fc2_eyes_drop2_eyes_0_split_5
I1025 11:39:48.229836 23553 net.cpp:454] attr_top_feat <- fc2_face_drop2_face_0_split_6
I1025 11:39:48.229843 23553 net.cpp:454] attr_top_feat <- fc2_aroundhead_drop2_aroundhead_0_split_13
I1025 11:39:48.229851 23553 net.cpp:454] attr_top_feat <- fc2_facialhair_drop2_facialhair_0_split_5
I1025 11:39:48.229858 23553 net.cpp:454] attr_top_feat <- fc2_cheeks_drop2_cheeks_0_split_2
I1025 11:39:48.229866 23553 net.cpp:454] attr_top_feat <- fc2_fat_drop2_fat_0_split_2
I1025 11:39:48.229874 23553 net.cpp:411] attr_top_feat -> attr_top_feat
I1025 11:39:48.229915 23553 net.cpp:150] Setting up attr_top_feat
I1025 11:39:48.229928 23553 net.cpp:157] Top shape: 64 9216 (589824)
I1025 11:39:48.229931 23553 net.cpp:165] Memory required for data: 2581199008
I1025 11:39:48.229936 23553 layer_factory.hpp:77] Creating layer fc8_top_attr
I1025 11:39:48.229948 23553 net.cpp:106] Creating Layer fc8_top_attr
I1025 11:39:48.229954 23553 net.cpp:454] fc8_top_attr <- attr_top_feat
I1025 11:39:48.229964 23553 net.cpp:411] fc8_top_attr -> fc8_top_attr
I1025 11:39:48.461503 23553 net.cpp:150] Setting up fc8_top_attr
I1025 11:39:48.461565 23553 net.cpp:157] Top shape: 64 2815 (180160)
I1025 11:39:48.461571 23553 net.cpp:165] Memory required for data: 2581919648
I1025 11:39:48.461586 23553 layer_factory.hpp:77] Creating layer fc8_top_attr_fc8_top_attr_0_split
I1025 11:39:48.461601 23553 net.cpp:106] Creating Layer fc8_top_attr_fc8_top_attr_0_split
I1025 11:39:48.461611 23553 net.cpp:454] fc8_top_attr_fc8_top_attr_0_split <- fc8_top_attr
I1025 11:39:48.461627 23553 net.cpp:411] fc8_top_attr_fc8_top_attr_0_split -> fc8_top_attr_fc8_top_attr_0_split_0
I1025 11:39:48.461642 23553 net.cpp:411] fc8_top_attr_fc8_top_attr_0_split -> fc8_top_attr_fc8_top_attr_0_split_1
I1025 11:39:48.461650 23553 net.cpp:411] fc8_top_attr_fc8_top_attr_0_split -> fc8_top_attr_fc8_top_attr_0_split_2
I1025 11:39:48.461738 23553 net.cpp:150] Setting up fc8_top_attr_fc8_top_attr_0_split
I1025 11:39:48.461750 23553 net.cpp:157] Top shape: 64 2815 (180160)
I1025 11:39:48.461755 23553 net.cpp:157] Top shape: 64 2815 (180160)
I1025 11:39:48.461760 23553 net.cpp:157] Top shape: 64 2815 (180160)
I1025 11:39:48.461766 23553 net.cpp:165] Memory required for data: 2584081568
I1025 11:39:48.461771 23553 layer_factory.hpp:77] Creating layer loss_top_attr
I1025 11:39:48.461782 23553 net.cpp:106] Creating Layer loss_top_attr
I1025 11:39:48.461791 23553 net.cpp:454] loss_top_attr <- fc8_top_attr_fc8_top_attr_0_split_0
I1025 11:39:48.461799 23553 net.cpp:454] loss_top_attr <- label_data_1_split_0
…
